ViT/ViT1/3 V train 0.957 V test 0.878 GELU 3/model_bestV.pt (torch, 414407 bytes, 74 tensors)

pos_embedding f4 [1, 19, 36]
0.2764249 0.7113379 -1.0352634 -0.5757606 -1.1422931 -1.1572691 1.3161393 0.7439075
-0.3250844 2.0010018 -0.26366097 -1.4934868 0.008340945 0.6865473 0.62309843 -0.11743031
0.38095868 0.1678311 -0.19736534 -1.2501576 0.6045932 0.21675424 0.18486992 1.4409887
0.98669404 -0.5138841 1.5365794 -0.97659767 -0.54002005 -0.72339725 -1.0770708 -1.4864299
-0.5569093 -0.16537336 0.38647935 0.3046045 -0.11508168 1.2876595 1.3326662 0.3974277
-0.1364258 0.007513706 1.4283637 0.074888736 -0.11932725 -0.5018654 -0.247111 0.22978334
0.2912252 1.5338181 -0.20270658 -0.29578283 1.0860935 -0.39674813 1.1396527 -0.31393486
0.22821389 -0.15265292 -2.2955902 0.51905173 0.09338354 1.2496663 -0.3781182 -1.2897141
0.13660513 0.38992575 0.31755415 0.9593052 -1.2814372 1.3792301 0.184653 0.47411385
-0.60545856 0.65532815 -0.29628304 0.066372246 -0.9517143 -1.2192389 -0.16753544 -0.14478238
-0.935878 0.4876958 1.0155622 2.2012317 0.73712295 0.26446855 0.49011984 0.28117105
-0.42857045 1.0199187 1.308276 -0.056377504 0.7946179 -0.5134394 0.8338626 0.64482415
-0.41656923 0.006080148 -1.5298584 1.3107165 -0.27521354 0.9409465 0.09244776 0.39192817
0.8371541 0.5494097 -0.21671152 1.682778 -0.326199 2.1076598 -0.030417329 2.2418478
-0.3330494 0.76478255 1.3799646 -1.0236273 1.1091216 0.5538988 -0.0008140346 0.5059425
-1.2929686 -0.77722996 -0.7675997 -1.9232485 0.6992153 -1.3529832 -0.9743404 0.18942676
-1.0331646 0.83785206 -0.70650893 0.34402633 0.36911702 0.26201314 1.8895639 -0.18261297
-0.7177923 -0.12911703 0.16109353 -2.253895 0.62238437 -3.066428 1.898439 0.4901437
0.68561655 0.36733392 0.64113694 -0.53066313 -1.2923899 1.1624657 -0.8930583 -0.52303964
0.3869993 -1.2162358 -0.9545751 -0.082136646 0.26814613 0.8936791 -0.4627087 0.34922728
1.2053238 0.2961732 0.8504901 1.217795 1.1735803 1.3121073 -0.07604103 1.4280494
0.3664276 -1.5572274 1.6296498 -0.77893513 1.5386604 -0.43094766 0.6752517 0.9193368
0.46917823 1.2404648 0.27678534 -0.13380133 1.0689583 0.5475512 -1.0079846 0.42513672
-0.40898973 1.531185 0.38811454 -0.8877238 -0.45696202 1.6166404 0.55689603 0.59356576
-0.6057909 -1.0765424 -0.096188754 -0.6778675 -0.07124788 0.63076216 -0.22060893 -0.64085585
-0.57818264 -0.047178376 0.20890075 2.6616426 0.8679635 0.06134819 0.06437885 0.2668756
0.829275 0.3016411 0.87234634 -0.6582071 -0.6381701 0.34623247 -0.100360885 1.7858281
-0.900007 -2.0330899 1.2814533 -0.09759368 -0.46978828 -0.4350352 2.3671365 0.52559936
1.627717 -0.23199157 1.6023138 -0.3885194 0.5103997 1.4783643 -1.3855282 -0.23303078
0.7652746 0.6011145 0.10769366 -0.77161515 0.04369826 -0.03677972 -0.90928423 0.5710572
-1.1524422 -0.7306126 0.6031229 -1.1113683 -0.35275507 -0.116420366 -0.20161496 0.003000269
1.2668402 0.63622814 1.743838 -0.4522683 2.575623 1.2694068 1.032401 0.4204434
00000000: 9187 8d3e 3e1a 363f 8383 84bf 0c65 13bf
00000010: a936 92bf 6521 94bf 4177 a83f b970 3e3f
00000020: 7671 a6be 6a10 0040 92fe 86be 932a bfbf
00000030: 75a8 083c 90c1 2f3f 6183 1f3f 4d7f f0bd
00000040: 040d c33e eadb 2b3e 241a 4abe 2a05 a0bf
00000050: 9fc6 1a3f d3f4 5d3e 8a4e 3d3e 5172 b83f
00000060: fb97 7c3f e98d 03bf a2ae c43f 4e02 7abf
00000070: c13e 0abf 9030 39bf 75dd 89bf 5643 bebf
00000080: 9c91 0ebf a257 29be 9fe0 c53e 1ff5 9b3e
00000090: f2af ebbd 07d2 a43f ce94 aa3f a57b cb3e
000000a0: 34b3 0bbe 8935 f63b 9fd4 b63f 445f 993d
000000b0: d861 f4bd 407a 00bf aa0a 7dbe 534c 6b3e
000000c0: 781b 953e 2754 c43f 5092 4fbe d970 97be
000000d0: 1d05 8b3f 9222 cbbe 24e0 913f 12bc a0be
000000e0: e7b0 693e 0c51 1cbe f3ea 12c0 93e0 043f
000000f0: df3f bf3d 11f5 9f3f b598 c1be 5a15 a5bf
00000100: 37e2 0b3e 59a4 c73e 7596 a23e 0795 753f
00000110: 2206 a4bf 9d8a b03f ad15 3d3e 0dbf f23e
00000120: 55ff 1abf 96c3 273f 69b2 97be 2cee 873d
00000130: 8ca3 73bf 0510 9cbf 698e 2bbe d541 14be
00000140: b395 6fbf 44b3 f93e f1fd 813f fbe0 0c40
00000150: 17b4 3c3f 6c68 873e fdf0 fa3e a7f5 8f3e
00000160: 966d dbbe b28c 823f 9775 a73f 19ec 66bd
00000170: 146c 4b3f c470 03bf 0578 553f 3213 253f
00000180: 9048 d5be fa3b c73b 66d2 c3bf 8fc5 a73f
00000190: cae8 8cbe dfe1 703f 4055 bd3d cfaa c83e
000001a0: bb4f 563f 1da6 0c3f a0e9 5dbe 4565 d73f
000001b0: 8e03 a7be e6e3 0640 c32d f9bc 6f7a 0f40
000001c0: 7385 aabe cac8 433f aea2 b03f 3806 83bf
000001d0: b2f7 8d3f 50cc 0d3f f064 55ba 7385 013f
000001e0: ff7f a5bf 8bf8 46bf 6a81 44bf 022d f6bf
000001f0: c6ff 323f 8e2e adbf 5f6e 79bf 17f9 413e
00000200: bd3e 84bf 797d 563f c5dd 34bf 3824 b03e
00000210: e8fc bc3e 9626 863e 3bdd f13f e5fe 3abe
00000220: 3cc1 37bf 4137 04be b4f5 243e d13f 10c0
00000230: 9554 1f3f 5b40 44c0 0d00 f33f 1df4 fa3e
00000240: 9184 2f3f 3113 bc3e 8d21 243f 8ad9 07bf
00000250: 086d a5bf adcb 943f 789f 64bf ede5 05bf
00000260: c624 c63e 9dad 9bbf 095f 74bf 4237 a8bd
00000270: 734a 893e 27c8 643f 28e8 ecbe ebcd b23e
00000280: 0d48 9a3f 03a4 973e b8b9 593f b5e0 9b3f
00000290: e137 963f 22f3 a73f 66bb 9bbd 53ca b63f
000002a0: 669c bb3e 3a53 c7bf 5d98 d03f 4b68 47bf
000002b0: d3f2 c43f 2ca5 dcbe 4cdd 2c3f a859 6b3f
000002c0: 2138 f03e 8dc7 9e3f cfb6 8d3e 3703 09be
000002d0: a0d3 883f 512c 0c3f a405 81bf 85ab d93e
000002e0: 1a67 d1be dffd c33f f3b6 c63e de41 63bf
000002f0: edf6 e9be 13ee ce3f bd90 0e3f edf3 173f
00000300: 1d15 1bbf 24cc 89bf 9cfe c4bd b988 2dbf
00000310: 69ea 91bd a179 213f 4fe7 61be 210f 24bf
00000320: c703 14bf 1d3e 41bd 14ea 553e 5a58 2a40
00000330: db32 5e3f 3d48 7b3d 0fd9 833d eba3 883e
00000340: 5e4b 543f b470 9a3e 1752 5f3f 4380 28bf
00000350: 1e5f 23bf 6245 b13e 028a cdbd 0496 e43f
00000360: dc66 66bf 251e 02c0 a906 a43f 32df c7bd
00000370: 1788 f0be efbc debe 2a7f 1740 ae8d 063f
00000380: 0859 d03f 338f 6dbe 9e18 cd3f 04ec c6be
00000390: 8ea9 023f 0b3b bd3f fd58 b1bf 9f9f 6ebe
000003a0: 09e9 433f a4e2 193f 7e8e dc3d 9288 45bf
000003b0: f2fc 323d 55a6 16bd dac6 68bf ce30 123f
000003c0: 3a83 93bf 6d09 3bbf 4366 1a3f 5141 8ebf
000003d0: 509c b4be cd6d eebd 2774 4ebe 29a0 443b
000003e0: d227 a23f d9df 223f 1536 df3f b68f e7be
000003f0: 02d7 2440 ec7b a23f b725 843f 5b44 d73e

cls_token f4 [1, 1, 36]
-1.1151236 -0.93080306 1.4298873 1.3591651 -1.594777 -0.4524532 -0.14566419 0.11267005
1.2479247 1.1367167 -0.5061067 -0.6466747 -0.6011352 -0.98789793 -0.7757505 -0.227821
-0.44491702 -0.58932656 0.99067056 -1.7139153 1.4345278 -0.9247879 0.45568258 1.2816099
0.14471467 0.37065426 1.3316588 -1.0383776 0.2952296 0.09904112 0.06779216 0.21987534
-1.2742273 0.0893193 -0.6147032 -0.18790132
00000000: 5fbc 8ebf 1c49 6ebf 8c06 b73f 1ff9 ad3f
00000010: a721 ccbf f2a7 e7be fe28 15be 8ebf e63d
00000020: ffbb 9f3f ef7f 913f 3590 01bf 798c 25bf
00000030: ffe3 19bf e1e6 7cbf 9697 46bf e949 69be
00000040: 2acc e3be 1bde 16bf 969c 7d3f 9461 dbbf
00000050: 9b9e b73f e6be 6cbf 3a4f e93e cb0b a43f
00000060: 1530 143e 65c6 bd3e cc73 aa3f 8fe9 84bf
00000070: 5628 973e 12d6 ca3d 9ed6 8a3d 0027 613e
00000080: e119 a3bf 0aed b63d 305d 1dbf 3469 40be

to_patch_embedding.1.weight f4 [36, 12]
-0.179337 -0.04370704 0.23284678 0.26921576 -0.14372508 -0.06805346 -0.05044482 -0.26029563
-0.016486118 0.060149156 -0.15515205 -0.06510261 -0.1716149 0.03697463 0.3120955 -0.022381267
-0.072379075 0.22566076 -0.22412054 0.08463004 -0.24349244 0.18965678 -0.22564256 0.02889291
0.23878297 0.11305846 0.2608995 0.09220834 0.16567339 0.13990627 -0.2263022 0.15798676
-0.260182 -0.24126713 0.18477905 -0.28764763 -0.08174542 -0.15694603 0.18155664 0.10052078
0.03674901 0.27560538 -0.021471385 0.12206937 0.2243815 0.29011986 -0.1502819 0.2801586
-0.060670767 0.12656575 0.13408777 0.15528771 0.2606761 0.20556171 -0.23771814 -0.29028377
0.18945083 0.05104386 -0.12932892 0.083844 -0.18096985 0.024951048 -0.24273644 0.24401057
0.1569354 -0.08030787 -0.2222243 0.18041225 -0.025425058 -0.0396801 0.031520158 0.22716287
0.1506669 -0.1681635 -0.25252122 -0.034868296 0.16407709 0.07468856 -0.18077502 -0.20494756
0.22888768 -0.023281395 -0.06881696 -0.20300403 0.04370583 -0.007801828 0.22110635 -0.29184783
-0.100379035 0.2208696 0.2701885 -0.056053825 -0.20301296 0.22405756 -0.16350648 -0.009720541
0.1618546 -0.04101109 -0.0146085955 0.13978614 -0.038180675 0.09951104 -0.06928502 0.078995004
-0.1709825 -0.052163284 -0.04956944 0.13588686 0.19350125 -0.20227574 0.040044986 -0.060891747
-0.06772522 0.048823677 -0.0667822 0.009337974 0.1479966 -0.1194635 0.22038545 -0.035944525
-0.111956455 -0.18966635 -0.3089111 0.023304913 -0.219806 -0.014000966 0.047895078 -0.3588525
0.21816187 -0.24466598 -0.15874588 -0.11365748 0.15135458 0.06269765 -0.108362965 -0.22686584
-0.09590404 0.13795134 -0.1852394 0.039898247 0.13854435 -0.18142235 0.0021684286 0.280234
0.17075296 -0.10998332 -0.18243748 0.27684453 0.08329542 0.066273145 -0.05643084 0.33640063
0.16894116 0.0072070435 0.11981274 -0.15506417 0.29758528 -0.12725303 0.27995706 0.149789
0.0667327 0.28671134 0.18082608 -0.09751075 -0.13987117 0.08363595 -0.16839209 -0.13045916
0.014788634 0.045994367 -0.17947985 0.15935181 -0.11801385 -0.21183646 -0.33628854 -0.0098406365
0.25372556 0.14479883 -0.3372951 -0.2665466 -0.1423737 -0.066422805 -0.22935428 0.04854967
-0.14762652 0.14397618 -0.1661519 -0.038022548 0.23112674 -0.15379074 0.13942577 -0.069835104
-0.2104876 0.21617429 0.04981779 0.053379703 0.061844826 -0.2450867 0.14685898 0.04459988
-0.1551701 0.107169084 0.052711375 -0.25974566 0.16261514 0.13655733 0.2531362 0.24896997
0.18475324 -0.13416344 0.15735708 -0.2037418 -0.17462023 0.33398432 -0.33030736 0.1850359
0.13637145 0.16407017 -0.25476274 -0.014885831 -0.0037373859 -0.22060679 0.21952641 0.25239912
0.10318794 0.20536761 -0.06377697 0.0155404145 0.019492267 0.13748603 -0.011779744 -0.055117052
-0.19394039 -0.29100907 -0.15625554 -0.007552534 -0.22672507 0.12481319 0.044248406 -0.026270993
0.26629487 0.24471751 -0.030784499 0.1891129 -0.121208884 0.11557375 0.06279836 -0.09953724
0.091514245 0.024360245 -0.11578003 0.18159331 0.20996884 -0.09807416 -0.10746717 0.20498563
00000000: 1ea4 37be 2706 33bd 636f 6e3e a6d6 893e
00000010: ab2c 13be 9d5f 8bbd 3a9f 4ebd 7845 85be
00000020: e50d 87bc f65e 763d 2ee0 1ebe 8454 85bd
00000030: d1bb 2fbe b672 173d fbca 9f3e eb58 b7bc
00000040: 7b3b 94bd 9d13 673e db7f 65be 8452 ad3d
00000050: 1556 79be 6335 423e d80e 67be d3b0 ec3c
00000060: 8683 743e 328b e73d 9f94 853e bad7 bc3d
00000070: 49a6 293e 9743 0f3e c4bb 67be 48c7 213e
00000080: 9336 85be bb0e 77be b836 3d3e 8d46 93be
00000090: 256a a7bd 76b6 20be fce9 393e d7dd cd3d
000000a0: 2186 163d 261c 8d3e c2e4 afbc 81ff f93d
000000b0: 44c4 653e 978a 943e 80e3 19be f370 8f3e
000000c0: e981 78bd 749a 013e 4e4e 093e be03 1f3e
000000d0: 5677 853e c57e 523e 626c 73be 13a0 94be
000000e0: 66ff 413e 5e13 513d cd6e 04be 67b6 ab3d
000000f0: 2950 39be 2466 cc3c e78f 78be e8dd 793e
00000100: acb3 203e 7478 a4bd c48e 63be fdbd 383e
00000110: 3648 d0bc 9a87 22bd 481b 013d 629d 683e
00000120: 6d48 1a3e 0d33 2cbe 764a 81be 0fd2 0ebd
00000130: d303 283e 51f6 983d 161d 39be c6dd 51be
00000140: 8861 6a3e a0b8 bebc e8ef 8cbd 4ae0 4fbe
00000150: e204 333d 7aa6 ffbb b469 623e 146d 95be
00000160: 8693 cdbd a42b 623e 2656 8a3e b298 65bd
00000170: a1e2 4fbe 586f 653e 3e6e 27be e742 1fbc
00000180: 36bd 253e 3ffb 27bd e458 6fbc 1924 0f3e
00000190: 5763 1cbd 72cc cb3d 4ee5 8dbd 22c8 a13d
000001a0: 0916 2fbe 2ba9 55bd 5309 4bbd ed25 0b3e
000001b0: 3125 463e 5f21 4fbe 3606 243d a069 79bd
000001c0: 85b3 8abd 56fb 473d 1bc5 88bd 4dfe 183c
000001d0: 6c8c 173e 48a9 f4bd b9ac 613e 913a 13bd
000001e0: 6d49 e5bd e537 42be 9829 9ebe f2e9 be3c
000001f0: d314 61be 4f64 65bc a12d 443d 84bb b7be
00000200: d365 5f3e b889 7abe 488e 22be 41c5 e8bd
00000210: b2fc 1a3e a067 803d 67ed ddbd 854f 68be
00000220: 5669 c4bd 1e43 0d3e 66af 3dbe 586c 233d
00000230: 92de 0d3e c8c6 39be 321c 0e3b d57a 8f3e
00000240: ddd9 2e3e ef3e e1bd e4d0 3abe 91be 8d3e
00000250: ca96 aa3d 37ba 873d 0624 67bd b43c ac3e
00000260: e9fe 2c3e 1029 ec3b 6260 f53d 24c9 1ebe
00000270: 195d 983e 9e4e 02be 8856 8f3e 4a62 193e
00000280: 27ab 883d d4cb 923e 792a 393e b7b3 c7bd
00000290: 633a 0fbe 5349 ab3d fa6e 2cbe 1697 05be
000002a0: 074c 723c 9764 3c3d 91c9 37be 1f2d 233e
000002b0: 3fb1 f1bd a8eb 58be 032e acbe 9f3a 21bc
000002c0: 51e8 813e 2546 143e f1b1 acbe cc78 88be
000002d0: 69ca 11be ae08 88bd d9db 6abe 05dc 463d
000002e0: 682b 17be 7e6e 133e b923 2abe 88bd 1bbd
000002f0: 7dac 6c3e 527b 1dbe a1c5 0e3e b505 8fbd
00000300: 108a 57be cb5c 5d3e bd0d 4c3d ada4 5a3d
00000310: 0051 7d3d 02f8 7abe 3362 163e 5dae 363d
00000320: e9e4 1ebe 777b db3d e2e7 573d 62fd 84be
00000330: 9584 263e afd5 0b3e 119b 813e fcf1 7e3e
00000340: f42f 3d3e 2462 09be 3722 213e b1a1 50be
00000350: a5cf 32be feff aa3e 0c1e a9be 0d7a 3d3e
00000360: f5a4 0b3e 0302 283e 4370 82be b3e3 73bc
00000370: eeee 74bb bfe6 61be 88cb 603e 753a 813e
00000380: 3354 d33d e34b 523e 809d 82bd 399d 7e3c
00000390: 3fae 9f3c 23c9 0c3e d4ff 40bc 6bc2 61bd
000003a0: 4f98 46be 24ff 94be 7401 20be 3f7b f7bb
000003b0: 9e2a 68be 0f9e ff3d d13d 353d 4436 d7bc
000003c0: cd57 883e 3a97 7a3e c62f fcbc d0a6 413e
000003d0: 5d3c f8bd eeb1 ec3d 6d9c 803d 2eda cbbd
000003e0: d26b bb3d 238f c73c 151e edbd 99f3 393e
000003f0: 1202 573e 1bdb c8bd bf17 dcbd c1e7 513e

to_patch_embedding.1.bias f4 [36]
-0.21349032 -0.0027643004 0.02488178 0.23805124 0.24649829 0.20458175 0.07779387 -0.25023395
0.003610863 0.044022385 -0.07222803 0.0734589 -0.27261534 -0.10117653 -0.17430714 -0.21428326
-0.01891782 -0.23727381 0.24554051 0.0653429 0.17801666 -0.25349495 0.26806286 0.11418178
-0.1803533 0.17445368 -0.13488247 0.14504392 0.2076126 -0.04525952 -0.2749885 -0.25812754
-0.122932516 0.17945556 -0.18749434 -0.05838292
00000000: 359d 5abe 4429 35bb e0d4 cb3c b4c3 733e
00000010: 0c6a 7c3e e17d 513e 6452 9f3d aa1e 80be
00000020: 3aa4 6c3b d150 343d 4aec 93bd 9f71 963d
00000030: 3d94 8bbe a435 cfbd 927d 32be 126d 5bbe
00000040: 8bf9 9abc e8f7 72be f96e 7b3e 80d2 853d
00000050: 004a 363e 17ca 81be 893f 893e 23d8 e93d
00000060: 89ae 38be fca3 323e a11e 0abe 6586 143e
00000070: 6698 543e 0c62 39bd 4bcb 8cbe 4b29 84be
00000080: 0bc4 fbbd 33c3 373e 84fe 3fbe ee22 6fbd

transformer.layers.0.0.norm.weight f4 [36]
1.1066017 1.0554501 1.0769798 1.0004151 1.0372014 1.0454476 1.0376269 1.0989921
1.0990726 1.0540789 1.0484654 1.046986 1.0372283 1.0633589 1.0782901 1.0238395
1.0549114 1.0851576 1.0546337 1.0641918 1.0651193 1.0899411 1.001122 1.1047087
1.0328457 1.1518139 1.056652 1.1068652 1.1093153 1.0199847 1.072231 1.0581807
1.0478035 1.073697 1.1213529 1.0650849
00000000: 20a5 8d3f fd18 873f 79da 893f 9a0d 803f
00000010: 04c3 843f 3ad1 853f f5d0 843f c6ab 8c3f
00000020: 69ae 8c3f 0fec 863f 1d34 863f a303 863f
00000030: e6c3 843f 251c 883f 6905 8a3f 2c0d 833f
00000040: 5607 873f 72e6 8a3f 3dfe 863f 7037 883f
00000050: d455 883f 3183 8b3f c424 803f 1867 8d3f
00000060: 4a34 843f a36e 933f 5f40 873f c2ad 8d3f
00000070: 0bfe 8d3f dc8e 823f de3e 893f 7772 873f
00000080: 6d1e 863f e76e 893f 7e88 8f3f b454 883f

transformer.layers.0.0.norm.bias f4 [36]
-0.0077513442 0.0012862243 0.0003800823 -0.02000608 -0.01009162 0.007901257 0.004140315 -0.007623938
0.00962664 0.015545141 0.0042094463 -0.010876358 0.008024971 -0.00030864557 -0.007542418 0.003432723
0.00914511 0.015218395 0.017268365 -0.008344474 0.0034916094 -0.001118862 0.00013850394 0.008063238
0.0025373544 -0.02590822 0.0036080815 -0.031518795 0.0065624495 -0.007969442 0.009606066 -0.016394638
0.024594637 0.008696381 -0.009375851 0.011617959
00000000: fdfe fdbb 8796 a83a c845 c739 cae3 a3bc
00000010: 5257 25bc 4674 013c 7bab 873b 3ad2 f9bb
00000020: 0eb9 1d3c 0cb1 7e3c 65ef 893b c032 32bc
00000030: 2b7b 033c b5d1 a1b9 6326 f7bb 89f7 603b
00000040: 5fd5 153c 9356 793c 6376 8d3c 43b7 08bc
00000050: 7cd3 643b c7a6 92ba 5e3b 1139 ac1b 043c
00000060: be49 263b 7a3d d4bc 9075 6c3b da19 01bd
00000070: d109 d73b 4392 02bc c362 1d3c 0c4e 86bc
00000080: b17a c93c 447b 0e3c 2b9d 19bc 4059 3e3c

transformer.layers.0.0.fn.to_qkv.weight f4 [216, 36]
0.012505989 -0.055156365 -0.079570316 0.046235897 -0.012538665 0.06708954 0.046545494 0.17968611
0.015513643 0.16968559 0.18112896 0.0028055436 0.18915437 0.016296914 0.07664613 -0.0037236658
-0.14719486 0.14533748 0.11814057 0.07123167 0.0652164 -0.117102556 0.106567405 -0.040417783
-0.07747469 0.17580092 -0.07536543 0.036059685 0.04396603 -0.009359018 -0.14301468 0.14348944
-0.16706835 -0.12110797 -0.13555063 -0.13550942 0.0036822706 -0.066333875 -0.12975083 -0.04612793
-0.123811744 -0.07075113 0.052826505 -0.06315246 -0.21229053 -0.18915717 0.015992122 0.10282304
0.05499783 0.15878251 -0.12569554 0.09826768 -0.013563308 -0.11080112 0.027101412 0.121129446
-0.07084304 0.13271256 0.09835179 -0.07455682 0.13203083 0.15258484 -0.10090453 0.18159696
-0.13777982 0.13466392 -0.17118149 0.060159363 0.085420065 0.24138156 -0.054911215 0.058041148
0.02536996 -0.07568987 0.10772099 0.051172763 0.13497323 0.07822191 0.1069644 -0.14088577
-0.08953444 -0.06227508 0.116831824 -0.031514376 0.13298723 -0.2132906 -0.026088754 -0.040247984
0.2326934 -0.06939881 -0.0051557887 -0.054698177 -0.08590046 0.07045581 0.05080897 -0.139203
-0.13571253 -0.18007138 -0.05053461 0.045788277 0.1281699 0.1015168 -0.12725978 -0.07362341
0.011968908 0.06562072 -0.05166545 -0.13512616 -0.029894566 0.229637 -0.021037688 0.07704978
0.09206951 0.06579402 -0.11888158 0.006016815 0.15742414 -0.19463955 -0.06693734 0.14112127
-0.11365939 0.10894451 -0.041305732 -0.16053702 0.0121796345 0.100502804 -0.14127062 0.014469312
-0.1462654 0.010674778 0.08811319 -0.0683697 0.06956481 -0.2059877 0.034901656 0.010820807
0.19675979 0.07897294 0.06327227 -0.07389073 0.022959385 0.091065586 -0.01208919 0.026827985
-0.058531713 -0.13750476 0.03382724 -0.08942417 0.07420289 -0.10074515 -0.1246113 0.06279153
-0.15296108 -0.08371122 0.08642847 0.07615195 -0.031419322 0.04757519 -0.07068559 0.022328373
-0.0901341 -0.092139594 0.034137897 0.04803356 -0.033750743 0.02577234 -0.018189078 -0.11483966
-0.10519141 0.11298536 0.055910107 -0.027100705 0.0924547 -0.10686914 -0.10062783 0.06969395
-0.03027736 0.19231047 0.1033968 0.001750115 -0.052411966 -0.17917226 -0.05855435 -0.1787567
0.11891548 -0.07330252 -0.026637016 -0.007281938 -0.20460927 -0.13113442 0.21033797 0.007316666
0.19114481 -0.033810984 0.19437616 0.010727404 0.12041847 0.066233486 0.0210947 0.05191703
0.10658175 0.13321428 0.06852284 0.018976863 -0.019918444 0.079222314 -0.15074842 0.09536405
-0.08864802 0.05199399 0.14933947 0.19728617 -0.13829198 0.15242477 0.0013636658 -0.070293956
-0.032606952 -0.087706484 0.1976863 -0.08532266 0.12571485 0.19036658 0.016728405 -0.025220394
0.019589104 -0.15791807 -0.16297562 0.020752216 -0.09407797 -0.06558706 0.07531891 -0.13257769
0.15088749 0.15473494 -0.020976601 0.14769445 -0.06559045 -0.18395737 0.044337276 0.15250349
-0.089641996 0.003385909 -0.15581933 0.0064863325 -0.011051676 0.13513555 -0.09819407 -0.07595906
-0.21302117 0.07659928 -0.20645954 -0.0827897 -0.07929551 0.14611563 0.076149575 0.17819463
00000000: ebe5 4c3c a4eb 61bd c3f5 a2bd da61 3d3d
00000010: f96e 4dbc 3e66 893d 7da6 3e3d a3ff 373e
00000020: ef2c 7e3c 0fc2 2d3e df79 393e 36dd 373b
00000030: afb1 413e 1b81 853c a5f8 9c3d bf08 74bb
00000040: 40ba 16be 59d3 143e aff3 f13d e9e1 913d
00000050: 2d90 853d 77d3 efbd 0340 da3d 1e8d 25bd
00000060: 0dab 9ebd 2805 343e 3159 9abd 52b3 133d
00000070: b915 343d 9156 19bc 7172 12be e5ee 123e
00000080: f713 2bbe 7507 f8bd c9cd 0abe fbc2 0abe
00000090: 4052 713b 0eda 87bd 67dd 04be a4f0 3cbd
000000a0: 0391 fdbd f8e5 90bd 9b60 583d 1456 81bd
000000b0: b062 59be 6bb2 41be e901 833c e394 d23d
000000c0: 6845 613d e297 223e 55b6 00be 9140 c93d
000000d0: a338 5ebc b3eb e2bd c803 de3c b712 f83d
000000e0: 2816 91bd cde5 073e aa6c c93d 3fb1 98bd
000000f0: 1733 073e 333f 1c3e 09a7 cebd 8ef4 393e
00000100: 2716 0dbe 57e5 093e 334a 2fbe aa69 763d
00000110: b7f0 ae3d ba2c 773e 95ea 60bd 8ebc 6d3d
00000120: aad4 cf3c 4a03 9bbd d39c dc3d 889a 513d
00000130: 6c36 0a3e cf32 a03d 2710 db3d 5c44 10be
00000140: d55d b7bd 2714 7fbd 8645 ef3d 3815 01bd
00000150: ce2d 083e da68 5abe 15b8 d5bc 12db 24bd
00000160: 2e47 6e3e f720 8ebd e4f1 a8bb 320b 60bd
00000170: 95ec afbd 234b 903d 111d 503d 3b8b 0ebe
00000180: 3af8 0abe a264 38be 61fd 4ebd 7d8c 3b3d
00000190: f83e 033e 0ae8 cf3d 6350 02be dfc7 96bd
000001a0: 3d19 443c 2864 863d 279f 53bd 835e 0abe
000001b0: 73e5 f4bc f625 6b3e 3b57 acbc 46cc 9d3d
000001c0: f08e bc3d 04bf 863d 3078 f3bd b428 c53b
000001d0: cb33 213e 974f 47be 7216 89bd 1882 103e
000001e0: 41c6 e8bd 4d1e df3d 3330 29bd d163 24be
000001f0: 178d 473c 6ad4 cd3d 3fa9 10be b110 6d3c
00000200: 99c6 15be 44e5 2e3c b074 b43d 6a05 8cbd
00000210: ff77 8e3d 71ee 52be 0af5 0e3d c149 313c
00000220: 667b 493e 91bc a13d e494 813d 0654 97bd
00000230: 5215 bc3c 9880 ba3d bd11 46bc 5dc6 db3c
00000240: f3be 6fbd 0cce 0cbe 6f8e 0a3d 0524 b7bd
00000250: aff7 973d 7953 cebd 3634 ffbd d898 803d
00000260: d4a1 1cbe ca70 abbd 6901 b13d 8ef5 9b3d
00000270: 8cb1 00bd 34de 423d 9bc3 90bd fee9 b63c
00000280: 3a98 b8bd afb3 bcbd 2ed4 0b3d d7be 443d
00000290: 383e 0abd 8420 d33c 4301 95bc 0e31 ebbd
000002a0: 986e d7bd de64 e73d ff01 653d 4c02 debc
000002b0: e458 bd3d 35de dabd f715 cebd b4bb 8e3d
000002c0: 3a08 f8bc 09ed 443e b4c1 d33d 1d64 e53a
000002d0: eead 56bd ef78 37be b0d6 6fbd ff0b 37be
000002e0: f689 f33d a21f 96bd df35 dabc 539d eebb
000002f0: 1885 51be 1a48 06be d662 573e a5c0 ef3b
00000300: 77bb 433e 637d 0abd 8b0a 473e fec1 2f3c
00000310: f59d f63d 6ca5 873d cbce ac3c f4a6 543d
00000320: 8847 da3d 5369 083e b455 8c3d 5e75 9b3c
00000330: 012c a3bc 4f3f a23d cb5d 1abe 3a4e c33d
00000340: 188d b5bd a6f7 543d 72ec 183e 6305 4a3e
00000350: 6a9c 0dbe 3d15 1c3e 08bd b23a 47f6 8fbd
00000360: de8e 05bd 759f b3bd 476e 4a3e a6bd aebd
00000370: 65bb 003e 75ef 423e 020a 893c 009b cebc
00000380: 5479 a03c 46b5 21be 15e3 26be 8d00 aa3c
00000390: f3ab c0bd 8252 86bd cd40 9a3d 72c2 07be
000003a0: 4082 1a3e d672 1e3e 1fd7 abbc 373d 173e
000003b0: 4954 86bd 525f 3cbe 019b 353d e029 1c3e
000003c0: 3996 b7bd 20e6 5d3b 1a8f 1fbe 4d8b d43b
000003d0: 1712 35bc f960 0a3e f919 c9bd 6c90 9bbd
000003e0: 3922 5abe 15e0 9c3d 216a 53be a58d a9bd
000003f0: af65 a2bd 569f 153e 4ff4 9b3d a778 363e

transformer.layers.0.0.fn.to_out.0.weight f4 [36, 72]
0.049882967 -0.058109917 -0.089337714 -0.021391435 -0.062243026 0.032202285 0.025739731 -0.10643163
0.061739855 -0.018195445 0.012615675 -0.06793923 -0.047884334 0.032021925 0.14675604 0.020616693
-0.005448496 -0.08329535 0.06972469 0.12211691 -0.026553854 0.07563205 0.016921623 0.089922875
-0.03363775 0.08124002 0.013528016 -0.08097648 -0.0013367909 -0.07961887 0.0602903 0.033795953
-0.06477915 -0.11865991 -0.019926023 -0.060732257 -0.06041778 -0.06249876 -0.060633242 -0.064958595
-0.15128689 0.008066613 0.02225145 0.1173249 -0.0066556023 -0.0026932089 0.0972792 0.033312444
-0.11126509 0.032416232 0.014558623 -0.0070413537 0.047632385 -0.0013543315 0.024676168 -0.037479986
0.04082741 -0.048736595 0.037612032 -0.050977986 0.10574994 0.030732745 0.06444476 0.17623445
0.038013082 0.121320456 -0.11730412 0.08733401 0.12550952 -0.12144519 0.05429259 0.0032313655
-0.0937304 -0.08671979 0.0054086777 -0.07865722 0.05734547 -0.07584653 0.09941601 -0.067305036
-0.10005303 0.06609731 -0.017339673 -0.043699425 -0.035796456 0.09712349 -0.04159147 -0.016722146
-0.031476762 0.053319745 -0.026366785 0.0044182795 0.04908931 0.088723704 -0.06637781 0.04718568
0.08224358 0.09528839 -0.00055960886 0.111435995 -0.06899219 -0.016616264 -0.09874424 -0.018850371
0.07739581 -0.07338653 0.04123046 -0.052225765 -0.059690263 -0.0309677 0.08334341 0.07289669
-0.0699283 0.103720486 -0.016587507 0.007413182 -0.06133109 -0.0030805778 0.08822351 0.065434314
-0.06297388 0.1055168 0.07762838 0.033417642 -0.017982567 0.082494766 -0.078147784 -0.088583715
-0.06283847 0.08318045 0.09687345 -0.12211396 0.0351402 0.05849856 -0.034170516 0.067707546
0.026686706 -0.08215948 -0.07507156 0.09875733 0.11111858 -0.031014252 -0.0024629224 -0.12600881
-0.09005816 -0.043229148 -0.11171058 -0.094964266 -0.048331197 -0.100418575 -0.09928293 -0.047814958
-0.019076768 -0.045039933 0.09175776 -0.13432255 0.02724185 -0.012863952 -0.08663523 0.021698875
-0.029181652 -0.03985313 -0.12077533 0.032031324 -0.103370756 0.11617155 -0.04786225 -0.018442767
-0.1287698 -0.15784591 -0.048591506 0.057550043 0.027999364 -0.096679226 0.029073805 0.032218944
-0.11031348 -0.054501638 -0.071806915 -0.023035513 0.07878744 0.048741896 0.0831182 0.01676631
0.050567213 -0.0062094834 0.040292934 0.052458584 -0.073092446 -0.043756213 0.11771195 0.08444878
-0.1075626 -0.11674365 -0.02238457 0.1105 0.036056634 0.038837995 0.09439901 0.068540715
0.12700176 0.13861147 0.02753845 0.007551966 0.020119058 0.12217379 0.12688985 -0.06686231
0.05587444 -0.01739753 -0.048337977 0.02618843 0.07523828 -0.10790686 -0.11910998 0.047265343
0.06272941 0.058516413 0.027223254 0.10246668 -0.101790994 -0.028352026 -0.032199845 0.029865555
-0.00050969864 0.09140724 0.002340548 0.07537381 0.057787295 -0.12746479 0.022293588 0.055517547
-0.12839067 0.014518501 0.0022898954 -0.046445463 0.13794538 -0.030272728 -0.1268502 -0.022077002
0.13600414 0.036548708 0.0604218 0.103533186 -0.03877124 0.09792116 0.06787751 -0.047560595
0.053446025 -0.0327895 0.058424257 -0.14135139 -0.14822356 -0.10422721 -0.11295316 -0.022316623
00000000: 1552 4c3d aa04 6ebd b1f6 b6bd 173d afbc
00000010: 8bf2 7ebd 8be6 033d 21dc d23c d4f8 d9bd
00000020: eee2 7c3d 9d0e 95bc fab1 4e3c b923 8bbd
00000030: 5d22 44bd 6c29 033d 3747 163e 57e4 a83c
00000040: 4c89 b2bb c196 aabd d1cb 8e3d 6e18 fa3d
00000050: 7887 d9bc fae4 9a3d 379f 8a3c 7c29 b83d
00000060: bdc7 09bd 2b61 a63d 9da4 5d3c ffd6 a5bd
00000070: 4237 afba 380f a3bd f6f2 763d a06d 0a3d
00000080: eeaa 84bd f803 f3bd e63b a3bc 63c2 78bd
00000090: a278 77bd b3fe 7fbd 905a 78bd 0309 85bd
000000a0: f3ea 1abe d429 043c ac48 b63c 0a48 f03d
000000b0: 3d17 dabb 8c80 30bb 513a c73d a172 083d
000000c0: f4de e3bd e2c6 043d 4a87 6e3c 28bb e6bb
000000d0: 2d1a 433d d383 b1ba ad25 ca3c 9d84 19bd
000000e0: a43a 273d 06a0 47bd 130f 1a3d 4bce 50bd
000000f0: 6d93 d83d 3dc3 fb3c 9dfb 833d ce76 343e
00000100: 9bb3 1b3d dc76 f83d 243d f0bd 2cdc b23d
00000110: 9185 003e 41b8 f8bd e861 5e3d 51c5 533b
00000120: b9f5 bfbd 259a b1bd 473b b13b 0917 a1bd
00000130: 15e3 6a3d 6d55 9bbd 9f9a cb3d 39d7 89bd
00000140: 9ae8 ccbd 075e 873d ee0b 8ebc 2bfe 32bd
00000150: 4e9f 12bd aee8 c63d d15b 2abd e2fc 88bc
00000160: c7ed 00bd ce65 5a3d 28ff d7bc 37c7 903b
00000170: df11 493d c6b4 b53d 17f1 87bd c645 413d
00000180: 526f a83d 8f26 c33d b7b2 12ba 8e38 e43d
00000190: c74b 8dbd d51e 88bc 6c3a cabd 186c 9abc
000001a0: b281 9e3d ad4b 96bd 45e1 283d afea 55bd
000001b0: c77d 74bd f9af fdbc f3af aa3d dc4a 953d
000001c0: 9236 8fbd 686b d43d 86e2 87bc 47ea f23b
000001d0: 4f36 7bbd 85e3 49bb 87ae b43d 6d02 863d
000001e0: 73f8 80bd 3119 d83d a1fb 9e3d f0e0 083d
000001f0: 2d50 93bc 04f3 a83d f20b a0bd 616b b5bd
00000200: 75b1 80bd 835a aa3d 9665 c63d e216 fabd
00000210: 2cef 0f3d 309c 6f3d 62f6 0bbd 41aa 8a3d
00000220: 149e da3c 3b43 a8bd 1ebf 99bd 4841 ca3d
00000230: 2392 e33d 9a11 febc fb68 21bb 7408 01be
00000240: 6a70 b8bd 0c11 31bd 84c8 e4bd a07c c2bd
00000250: eff6 45bd 41a8 cdbd d954 cbbd 9ed9 43bd
00000260: e246 9cbc cb7b 38bd 7eeb bb3d da8b 09be
00000270: 4d2a df3c 53c3 52bc d06d b1bd d7c1 b13c
00000280: 5c0e efbc 093d 23bd 0e59 f7bd 4733 033d
00000290: 0cb4 d3bd 59eb ed3d 350b 44bd 4915 97bc
000002a0: 3bdc 03be 5ca2 21be e307 47bd 98b9 6b3d
000002b0: ec5e e53c c2ff c5bd 302c ee3c 03f8 033d
000002c0: 09ec e1bd 1c3d 5fbd 810f 93bd f9b4 bcbc
000002d0: 4f5b a13d 95a5 473d e039 aa3d 8059 893c
000002e0: 911f 4f3d ec78 cbbb 340a 253d d0de 563d
000002f0: 7eb1 95bd b739 33bd f612 f13d 7bf3 ac3d
00000300: c849 dcbd 4b17 efbd d95f b7bc d34d e23d
00000310: 1fb0 133d 9714 1f3d 4554 c13d 135f 8c3d
00000320: c00c 023e 2af0 0d3e 5198 e13c 7b76 f73b
00000330: b9d0 a43c 4136 fa3d 6aef 013e 1bef 88bd
00000340: 99dc 643d 4485 8ebc 0bfe 45bd 1e89 d63c
00000350: 8716 9a3d 46fe dcbd efef f3bd 4e99 413d
00000360: 4778 803d e8ae 6f3d 4d03 df3c 0dda d13d
00000370: cc77 d0bd 8242 e8bc fce3 03bd 9ca8 f43c
00000380: 4c9d 05ba b833 bb3d e163 193b 965d 9a3d
00000390: 5fb2 6c3d 2186 02be 0ba1 b63c 5e66 633d
000003a0: d878 03be 02df 6d3c 1212 163b 993d 3ebd
000003b0: 8e41 0d3e 83fe f7bc 05e5 01be d4da b4bc
000003c0: ab44 0b3e 19b4 153d d97c 773d 3509 d43d
000003d0: 97ce 1ebd e48a c83d 5d03 8b3d e6ce 42bd
000003e0: 38ea 5a3d 484e 06bd 464e 6f3d 6bbe 10be
000003f0: ebc7 17be 1375 d5bd fd53 e7bd 5ad1 b6bc

transformer.layers.0.0.fn.to_out.0.bias f4 [36]
-0.02268415 -0.02190789 0.03487141 0.10288011 -0.012925652 -0.062019877 0.04022468 -0.041159824
0.063480824 0.08555981 0.041021295 0.08451075 0.12075268 -0.12681147 -0.05288811 -0.053433027
-0.08730841 -0.119150184 -0.045614555 -0.007887807 0.036766365 0.021329034 -0.06392646 -0.05718293
0.040047314 -0.047356497 0.07670597 -0.07151409 -0.03499019 -0.11377859 -0.03888191 0.038977657
-0.05245294 -0.11361548 0.024088178 0.024906578
00000000: 1cd4 b9bc 2d78 b3bc 53d5 0e3d cfb2 d23d
00000010: 1dc6 53bc 8e08 7ebd a2c2 243d 3497 28bd
00000020: 3c02 823d fb39 af3d f205 283d f913 ad3d
00000030: 2e4d f73d deda 01be 34a1 58bd 97dc 5abd
00000040: c0ce b2bd 0305 f4bd 54d6 3abd dc3b 01bc
00000050: 5498 163d 3aba ae3c e0eb 82bd a638 6abd
00000060: a708 243d e3f8 41bd 0518 9d3d fb75 92bd
00000070: e051 0fbd c004 e9bd a342 1fbd 09a7 1f3d
00000080: e5d8 56bd 3caf e8bd 9254 c53c e108 cc3c

transformer.layers.0.1.norm.weight f4 [36]
1.0239302 1.06378 1.0282068 1.030566 1.0081025 0.9828812 1.0348494 1.0560066
1.0135226 1.0014285 1.0517076 1.0057367 1.0135152 1.1024772 1.0814114 1.001001
1.0404514 1.0691512 1.0608107 0.9939435 1.0082403 1.0325291 1.0939736 1.00786
1.0517063 1.0504963 0.9924156 1.0141621 1.1634089 1.0674112 1.0870208 1.0212604
1.0094831 1.032557 1.0689341 1.0111017
00000000: 2510 833f f129 883f 489c 833f 96e9 833f
00000010: 8109 813f 1a9e 7b3f f275 843f 392b 873f
00000020: 1cbb 813f cf2e 803f 5b9e 863f fbbb 803f
00000030: deba 813f f91d 8d3f b06b 8a3f cd20 803f
00000040: 832d 853f f2d9 883f a5c8 873f 1573 7e3f
00000050: 050e 813f ea29 843f 5407 8c3f 8e01 813f
00000060: 509e 863f aa76 863f f30e 7e3f 10d0 813f
00000070: 95ea 943f eea0 883f 7f23 8b3f a9b8 823f
00000080: be36 813f d42a 843f d5d2 883f c86b 813f

transformer.layers.0.1.norm.bias f4 [36]
-0.03023201 -0.022399168 0.020473951 -0.0075382115 0.005829785 0.013682453 -0.008527158 0.015027119
0.009844339 -0.014139854 0.0106583135 -0.009106619 0.01739712 -0.0033632254 -0.011352262 0.01024755
0.0016349992 -0.00147093 0.012644454 0.02543496 -0.02625969 0.0033143798 -0.013654447 -0.01978576
0.005968866 -0.0057633384 0.0233758 0.03579395 0.005360895 0.0137297865 0.009010416 0.002718628
0.009567334 0.005028249 -0.0061456105 -0.01761606
00000000: 1fa9 f7bc 767e b7bc fdb8 a73c 1a03 f7bb
00000010: c807 bf3b 5e2c 603c 7eb5 0bbc 4e34 763c
00000020: 274a 213c d9aa 67bc 35a0 2e3c ee33 15bc
00000030: 6884 8e3c 8f69 5cbb d7fe 39bc 57e5 273c
00000040: 784d d63a 38cc c0ba af2a 4f3c fa5c d03c
00000050: 901e d7bc 1136 593b e7b6 5fbc bf15 a2bc
00000060: 7a96 c33b 63da bcbb 9b7e bf3c ad9c 123d
00000070: 72aa af3b e6f2 603c 6da0 133c 022b 323b
00000080: 4fc0 1c3c 03c4 a43b 1e61 c9bb 8e4f 90bc

transformer.layers.0.1.fn.net.0.weight f4 [72, 36]
0.0065564862 -0.057500392 -0.08727158 -0.06939192 0.11411481 0.051543444 -0.05148777 0.05520986
-0.10150747 0.009522486 -0.16811353 0.0025617722 -0.1374618 -0.02912244 -0.10033245 -0.11334983
-0.051215302 -0.15781681 -0.03073352 -0.06387759 0.17064242 0.17324214 0.06773828 -0.014916803
0.08245021 0.0796938 -0.14872271 -0.029151918 0.10255357 0.025310852 -0.18934284 -0.11583383
0.020418277 0.0031847346 0.0058480524 0.16351597 -0.08511824 0.038414624 0.16815403 0.1364764
0.13664801 -0.05606248 0.032203242 0.06232694 -0.14036457 0.15342423 0.13010749 0.11880136
0.02002851 -0.06682277 0.07514932 -0.087099195 -0.10438293 0.13248616 -0.04671419 0.12484294
-0.06334547 0.006656165 0.0118220365 0.04195232 0.1489277 0.05374368 -0.109415665 -0.03601558
0.11208504 -0.04146412 0.004635849 -0.046852123 0.05957526 -0.027191278 -0.1562386 0.18190683
-0.02669919 0.16090453 -0.12235874 -0.051398717 -0.019639177 -0.11395251 -0.060403828 -0.1279072
0.1679792 -0.0950547 -0.08199595 -0.061979655 -0.09609273 0.14756106 -0.054500263 0.11917012
0.007204174 -0.062242556 -0.14726791 -0.0037767787 0.025834162 0.20170991 -0.14036293 -0.17480475
-0.12309608 -0.092069186 0.12064156 0.1709753 -0.10192575 0.060676508 -0.0054938537 -0.028847177
-0.07947798 0.062045556 0.09659911 0.20041332 -0.20126079 0.18976018 0.1493234 -0.15662833
-0.22544208 -0.052694805 0.04603593 0.033040583 0.10705022 0.13058457 0.022503981 0.10527753
0.17131738 -0.21304983 0.14827146 0.04976454 0.07340432 0.08608601 0.12662907 0.25662103
-0.03537356 0.023042373 0.13297637 -0.13923052 -0.1365244 -0.10971226 0.1850271 0.26115927
0.008738571 0.20340799 0.051096268 0.07702879 0.0026688764 -0.060014535 0.0030960345 -0.03823805
-0.078022555 -0.032214142 -0.14019224 0.06548043 -0.13082439 -0.04969776 0.057302766 -0.041835386
0.019591294 -0.0012177451 -0.037217695 -0.024182964 -0.053938027 0.07853877 -0.12854101 -0.022523299
-0.10667677 0.040621527 -0.13305892 -0.061844856 0.10352749 0.036109474 -0.013788233 -0.035248812
-0.15598495 -0.07830588 0.029419804 -0.16089116 -0.05582682 0.004044228 -0.05204782 0.067731105
0.0057848915 -0.12841593 -0.12150522 0.0973451 0.028168788 0.10071484 -0.026251236 -0.09657404
0.05489096 -0.14056559 0.11131428 0.15787591 0.11108083 -0.10872709 -0.08576372 -0.16340709
0.024148224 -0.034354016 -0.11357959 -0.075149715 0.0119463075 0.14408527 -0.10925991 0.04311637
-0.06977494 -0.06276766 -0.09234362 -0.034872755 0.1021585 0.058629345 -0.0543737 0.11797566
0.0019545918 -0.101808116 0.09950296 -0.02896803 -0.013923324 -0.09951133 -0.11863054 0.021463174
0.004959936 -0.09225107 -0.04575068 0.047378678 -0.048562016 0.09824409 0.2080471 -0.06649627
0.09602825 0.06191435 -0.039260644 0.14282028 -0.12785716 0.056153998 -0.0718918 0.1029754
0.16650552 0.14765997 -0.065936536 -0.09304805 -0.110807575 0.060751084 0.072752036 -0.01564009
-0.05906425 0.08238751 -0.14828189 -0.1343489 0.12265229 0.11923767 -0.092979245 -0.05488701
0.017777514 -0.13951504 -0.11267657 0.11416196 -0.100189485 -0.05798944 -0.09959286 0.045095406
00000000: cbd7 d63b 8885 6bbd 71bb b2bd 5a1d 8ebd
00000010: 07b5 e93d 381f 533d d7e4 52bd bc23 623d
00000020: 26e3 cfbd 3304 1c3c f425 2cbe 68e3 273b
00000030: c9c2 0cbe 2f92 eebc 197b cdbd f523 e8bd
00000040: 23c7 51bd bb9a 21be ddc4 fbbc 41d2 82bd
00000050: e3bc 2e3e 6366 313e 5eba 8a3d 9b65 74bc
00000060: a8db a83d 8136 a33d c44a 18be 01d0 eebc
00000070: 9b07 d23d b458 cf3c 17e3 41be 493a edbd
00000080: 3b44 a73c fbb6 503b 05a1 bf3b bb70 273e
00000090: 7952 aebd a758 1d3d 9230 2c3e 78c0 0b3e
000000a0: 75ed 0b3e c5a1 65bd 8ce7 033d 894a 7f3d
000000b0: bbbb 0fbe 3e1b 1d3e e63a 053e 214e f33d
000000c0: d412 a43c 60da 88bd e3e7 993d 1061 b2bd
000000d0: b8c6 d5bd 74aa 073e 6157 3fbd a8ad ff3d
000000e0: 45bb 81bd f51b da3b 37b1 413c 32d6 2b3d
000000f0: 8180 183e 5522 5c3d 5215 e0bd 1385 13bd
00000100: d78c e53d 48d6 29bd 52e8 973b 03e8 3fbd
00000110: 3005 743d 3ec0 debc 03fd 1fbe c945 3a3e
00000120: 42b8 dabc 28c4 243e 3897 fabd 7687 52bd
00000130: 57e2 a0bc ef5f e9bd 016a 77bd 1bfa 02be
00000140: bd02 2c3e 0aac c2bd 7eed a7bd 61de 7dbd
00000150: 44cc c4bd 3f1a 173e ab3b 5fbd 770f f43d
00000160: fe10 ec3b 0df2 7ebd 66cd 16be d583 77bb
00000170: 2aa2 d33c 0b8d 4e3e 4dbb 0fbe 0400 33be
00000180: cc19 fcbd c58e bcbd ec12 f73d 2614 2f3e
00000190: 73be d0bd ee87 783d c905 b4bb ea50 ecbc
000001a0: 5ac5 a2bd 7b23 7e3d c1d5 c53d 2639 4d3e
000001b0: 4f17 4ebe 7e50 423e 3ce8 183e 2d63 20be
000001c0: 4ada 66be 82d6 57bd 2c90 3c3d 9055 073d
000001d0: 253d db3d f6b7 053e 455a b83c bf9b d73d
000001e0: d36d 2f3e bc29 5abe 79d4 173e e7d5 4b3d
000001f0: 0155 963d dd4d b03d 0dab 013e d563 833e
00000200: dee3 10bd 5cc3 bc3c f52a 083e 7292 0ebe
00000210: 0dcd 0bbe d2b0 e0bd be77 3d3e abb6 853e
00000220: 392c 0f3c 2f4a 503e 524a 513d 45c1 9d3d
00000230: 51e8 2e3b cdd1 75bd d7e6 4a3b 809f 1cbd
00000240: 4aca 9fbd faf2 03bd 8e8e 0fbe 9b1a 863d
00000250: d4f6 05be e18f 4bbd 4eb6 6a3d 955b 2bbd
00000260: ec7d a03c bf9c 9fba 9571 18bd 5a1b c6bc
00000270: 1fee 5cbd efd8 a03d 41a0 03be c882 b8bc
00000280: 5a79 dabd c262 263d 9940 08be 0851 7dbd
00000290: 3806 d43d 87e7 133d 0ae8 61bc 0f61 10bd
000002a0: 85ba 1fbe d55e a0bd cd01 f13c a7c0 24be
000002b0: aaaa 64bd 7185 843b 1830 55bd 9bb6 8a3d
000002c0: 308f bd3b 777f 03be bbd7 f8bd de5c c73d
000002d0: 3bc2 e63c 9543 ce3d d50c d7bc 9cc8 c5bd
000002e0: 58d5 603d 6df0 0fbe bef8 e33d 39aa 213e
000002f0: 597e e33d 4fac debd e4a4 afbd 3054 27be
00000300: 7fd2 c53c ccb6 0cbd 6b9c e8bd 18e8 99bd
00000310: 72ba 433c 178b 133e a9c3 dfbd ca9a 303d
00000320: 2ae6 8ebd 558c 80bd a71e bdbd bcd6 0ebd
00000330: 7a38 d13d 5325 703d f5b6 5ebd 399d f13d
00000340: 9c18 003b c680 d0bd 35c8 cb3d 5d4e edbc
00000350: a71e 64bc 99cc cbbd 92f4 f2bd 8ad3 af3c
00000360: f586 a23b 21ee bcbd 1165 3bbd 2510 423d
00000370: f7e8 46bd 3334 c93d 4d0a 553e 322f 88bd
00000380: 76aa c43d e799 7d3d c5cf 20bd 7b3f 123e
00000390: fdec 02be bc01 663d 023c 93bd c4e4 d23d
000003a0: 6c80 2a3e 2d34 173e bc09 87bd fa8f bebd
000003b0: 15ef e2bd 21d6 783d 05ff 943d a51f 80bc
000003c0: 5bed 71bd c8ba a83d 35d7 17be c292 09be
000003d0: 2031 fb3d e132 f43d e76b bebd 34d1 60bd
000003e0: 26a2 913c 08dd 0ebe f9c2 e6bd bfcd e93d
000003f0: 2530 cdbd 5686 6dbd 57f7 cbbd f6b5 383d

transformer.layers.0.1.fn.net.0.bias f4 [72]
0.14522217 -0.0058463113 0.1408897 -0.014254616 -0.12504669 0.019417431 0.09895576 -0.008274789
0.06396291 -0.14123544 0.11231255 0.09052216 -0.08089945 0.10967821 -0.089492224 -0.1201508
0.17307155 -0.058901664 -0.023393461 0.13607715 0.040799234 0.1417077 0.052603513 -0.0416514
0.077552564 0.025699915 -0.0793668 0.08459662 0.06122202 0.0982628 0.118820414 0.13011423
0.077846915 0.11090087 -0.013050806 0.08562063 -0.14164072 0.041890804 -0.16181438 -0.007291308
-0.107337795 0.080882944 -0.053641606 0.081868686 -0.016755747 -0.14877157 0.0074283783 0.13124272
0.04257096 0.12792353 0.14135505 0.13467076 -0.064886555 0.07299842 0.05978131 -0.1309739
0.16059725 -0.09219669 0.15234649 -0.07912606 0.15475212 0.021122057 -0.12796676 -0.06374026
0.11900939 -0.08328687 -0.090897374 0.12473401 0.0883864 0.04302834 0.07270052 0.101195335
00000000: 1fb5 143e 6a92 bfbb 6445 103e 318c 69bc
00000010: 3d0c 00be 4e11 9f3c 51a9 ca3d fb92 07bc
00000020: fcfe 823d 06a0 10be 1f04 e63d af63 b93d
00000030: 9cae a5bd f89e e03d b347 b7bd 9f11 f6bd
00000040: ab39 313e df42 71bd a5a3 bfbc cf57 0b3e
00000050: 191d 273d d31b 113e c876 573d a99a 2abd
00000060: e1d3 9e3d a188 d23c 108b a2bd fe40 ad3d
00000070: f1c3 7a3d 023e c93d 1e58 f33d aa3c 053e
00000080: 346e 9f3d ff1f e33d 0cd3 55bc de59 af3d
00000090: 440a 11be b195 2b3d abb2 25be edeb eebb
000000a0: ebd3 dbbd f5a5 a53d 4db7 5bbd c5aa a73d
000000b0: 5943 89bc 9357 18be c169 f33b 7e64 063e
000000c0: e35e 2e3d 63fe 023e 61bf 103e 22e7 093e
000000d0: 3ee3 84bd 3280 953d 3fdd 743d 061e 06be
000000e0: 9b73 243e 9ed1 bcbd b800 1c3e d80c a2bd
000000f0: 5777 1e3e 2a08 ad3c b809 03be 418a 82bd
00000100: 32bb f33d 4e92 aabd 6728 babd 8b74 ff3d
00000110: ee03 b53d 7c3e 303d 03e4 943d 803f cf3d

transformer.layers.0.1.fn.net.3.weight f4 [36, 72]
-0.03147358 -0.10574267 0.07998778 0.03669473 -0.03927172 0.070922084 -0.0068177073 0.057308022
-0.0646431 0.08096724 -0.005948454 -0.0943129 -0.043412697 0.065182224 0.122807324 -0.12481349
0.13314922 0.09746859 0.057073954 0.110151745 -0.13943173 -0.0032406882 -0.07383069 0.12263184
-0.012167788 0.014916757 -0.015043972 -0.09233211 0.035150744 -0.007365506 0.089685045 0.007590253
0.16783504 0.03366422 -0.018906115 0.0047505996 -0.119861156 -0.08472898 -0.04500459 -0.13291141
0.02645242 0.099559635 -0.09989801 -0.05770203 -0.034275033 -0.06215658 0.11478979 -0.008698694
0.03677218 0.06951275 -0.110656746 0.11619886 -0.040884603 -0.13487065 -0.135969 0.040440418
0.1202107 -0.074885145 -0.019819863 -0.07680547 0.065406986 -0.060793802 -0.008783158 0.014895842
0.028785327 0.078131236 -0.10557865 -0.13253257 0.07696435 -0.07571927 0.15686089 -0.15281922
-0.08317364 0.052015655 -0.12885351 0.10719356 -0.077099666 -0.046122883 0.0863896 0.00742305
-0.058892295 0.15277961 -0.17909908 -0.03136013 -0.18296729 0.04273058 -0.09186622 0.046188775
-0.0023090001 -0.109220125 0.084182836 0.07553017 -0.044933945 -0.02357891 -0.08891003 -0.04233435
-0.03564267 0.045243125 -0.07030303 0.053612087 -0.108619854 0.02596895 -0.08348987 0.10149262
-0.0876446 0.052609496 -0.02091206 -0.08453044 -0.012923983 -0.0218154 -0.0024600034 -0.14377055
-0.08948434 0.039137904 0.0014204193 -0.15067236 -0.090687506 0.09113656 -0.07201911 0.006676292
0.017423328 -0.121188976 -0.10251086 0.12823802 0.09236157 0.013196062 0.09295314 -0.0525227
-0.10038044 -0.05665151 -0.008505586 0.049475025 -0.011041234 0.006765656 0.049165618 0.10299942
-0.14798462 -0.09036269 0.039574485 0.058502164 -0.026154352 -0.08367708 0.08017436 -0.025032897
-0.08837817 0.08138536 0.12268034 0.006575787 0.049550053 0.029764658 -0.042555284 -0.0042163115
-0.06466421 0.19476038 -0.018247252 0.043673787 0.082891755 -0.046192747 -0.044878826 -0.06607611
0.07492041 -0.07867302 0.007066704 0.038906284 -0.046149008 0.087935306 0.078267865 0.0763198
-0.104190506 0.007333088 0.07608567 0.039584808 -0.07042147 0.03643682 0.06905226 0.010764107
-0.039662275 0.071525976 -0.06010371 0.017640838 0.0021573454 0.09827248 -0.009697917 0.13537458
-0.05935908 0.070727386 0.009356813 -0.008830484 -0.1741694 -0.08288765 0.065415345 -0.1732395
-0.11003662 0.034090515 -0.034460012 -0.09394887 0.08181967 0.054540794 0.021483641 0.13519046
0.033767752 0.11349454 -0.035273522 -0.022033274 -0.030708846 0.0069300705 0.080215834 -0.12563835
0.08946259 -0.12461206 -0.06483426 -0.061609924 -0.009820915 0.012951553 -0.0062731705 0.061127253
0.03765698 0.105927795 0.019382806 -0.18096347 -0.0028953992 0.10724671 -0.110135 0.027429534
-0.08441413 -0.15919982 -0.031611957 -0.042744778 0.016948184 0.06917169 0.04608309 0.010635348
-0.095788345 -0.14919974 0.053832117 -0.016617943 0.06654201 0.00017201231 0.08107131 -0.045973178
-0.1100254 -0.012278466 -0.10611397 -0.053548023 0.018747734 -0.15551779 -0.13250013 -0.07476415
-0.17340186 -0.07565487 0.111549936 -0.17536974 -0.112528645 -0.1481683 -0.023671962 -0.16698739
00000000: 71ea 00bd 9d8f d8bd a2d0 a33d 374d 163d
00000010: 62db 20bd 993f 913d 1367 dfbb d1bb 6a3d
00000020: 9a63 84bd 27d2 a53d 40eb c2bb 1f27 c1bd
00000030: 83d1 31bd 427e 853d 6882 fb3d 379e ffbd
00000040: 4558 083e 9d9d c73d 61c6 693d 3d97 e13d
00000050: 31c7 0ebe ba61 54bb 8b34 97bd 6726 fb3d
00000060: 675b 47bc 6a65 743c fe7a 76bc 9e18 bdbd
00000070: 3afa 0f3d 585a f1bb cbac b73d a8b7 f83b
00000080: f3dc 2b3e 7ee3 093d ffe0 9abc ebaa 9b3b
00000090: c479 f5bd 6386 adbd bc56 38bd ee19 08be
000000a0: bfb2 d83c ece5 cb3d 5497 ccbd f758 6cbd
000000b0: fa63 0cbd e697 7ebd e916 eb3d f884 0ebc
000000c0: 6d9e 163d b35c 8e3d 01a0 e2bd abf9 ed3d
000000d0: 9d76 27bd 881b 0abe 753b 0bbe daa4 253d
000000e0: 0731 f63d 625d 99bd 445d a2bc 304c 9dbd
000000f0: 19f4 853d ec02 79bd 3ce7 0fbc b10d 743c
00000100: 35cf eb3c 4503 a03d 9f39 d8bd 9eb6 07be
00000110: 7c9f 9d3d b412 9bbd 24a0 203e a47c 1cbe
00000120: f156 aabd 5e0e 553d 2df2 03be 4c88 db3d
00000130: 6ee6 9dbd 59eb 3cbd 08ed b03d 0e3d f33b
00000140: 0c39 71bd 4272 1c3e c065 37be 7b73 00bd
00000150: c75b 3bbe 4306 2f3d 5b24 bcbd 7130 3d3d
00000160: 9852 17bb cdae dfbd 0d68 ac3d 90af 9a3d
00000170: a80c 38bd 8f28 c1bc 7616 b6bd c966 2dbd
00000180: 0cfe 11bd db50 393d 09fb 8fbd 5998 5b3d
00000190: 1674 debd d6bc d43c bdfc aabd 5ddb cf3d
000001a0: 037f b3bd 0e7d 573d c54f abbc 4c1e adbd
000001b0: 1dbf 53bc 36b6 b2bc 0238 21bb 9638 13be
000001c0: 9143 b7bd 114f 203d 5d2d ba3a db49 1abe
000001d0: 5fba b9bd cea5 ba3d c17e 93bd ccc4 da3b
000001e0: 5ebb 8e3c ed31 f8bd 37f1 d1bd d450 033e
000001f0: 1028 bd3d 4c34 583c 375e be3d 0b22 57bd
00000200: 4394 cdbd 6a0b 68bd 035b 0bbc 53a6 4a3d
00000210: 4be6 34bc 70b2 dd3b e361 493d 5cf1 d23d
00000220: 4889 17be 1310 b9bd db18 223d f79f 6f3d
00000230: a741 d6bc e45e abbd 7432 a43d ca11 cdbc
00000240: 9dff b4bd 5ead a63d d53f fb3d b379 d73b
00000250: fff4 4a3d 03d5 f33c 734e 2ebd fc28 8abb
00000260: ab6e 84bd 446f 473e 437b 95bc 49e3 323d
00000270: 27c3 a93d 9b34 3dbd dcd2 37bd e952 87bd
00000280: df6f 993d 521f a1bd cf8f e73b 325c 1f3d
00000290: be06 3dbd 6d17 b43d e74a a03d 8e4d 9c3d
000002a0: d561 d5bd 674a f03b ced2 9b3d ae23 223d
000002b0: 2239 90bd c63e 153d 456b 8d3d f05b 303c
000002c0: e974 22bd 367c 923d 4f2f 76bd 8583 903c
000002d0: 4062 0d3b 1543 c93d 03e4 1ebc a29f 0a3e
000002e0: 8222 73bd 85d9 903d 514d 193c bcad 10bc
000002f0: 7759 32be 00c1 a9bd 7bf8 853d b265 31be
00000300: e15a e1bd 7fa2 0b3d f125 0dbd 4468 c0bd
00000310: 1291 a73d 2b66 5f3d 76fe af3c 5e6f 0a3e
00000320: 0e50 0a3d d36f e83d f87a 10bd 207f b4bc
00000330: 1e91 fbbc a515 e33b 3348 a43d 57a7 00be
00000340: 2a38 b73d 9c34 ffbd d3c7 84bd b05a 7cbd
00000350: e7e7 20bc c032 543c 2b8f cdbb 9260 7a3d
00000360: 353e 1a3d acf0 d83d b1c8 9e3c 7d4e 39be
00000370: bdc0 3dbb 2aa4 db3d 758e e1bd e7b3 e03c
00000380: 51e1 acbd 4705 23be 8a7b 01bd 2615 2fbd
00000390: ebd6 8a3c e3a9 8d3d 9fc1 3c3d e23f 2e3c
000003a0: ae2c c4bd d1c7 18be 117f 5c3d 5a22 88bc
000003b0: 2d47 883d 345e 3439 b708 a63d 5f4e 3cbd
000003c0: ff54 e1bd 9e2b 49bc 4852 d9bd 2c55 5bbd
000003d0: d994 993c 0e40 1fbe 1dae 07be f21d 99bd
000003e0: 4290 31be f1f0 9abd 4b74 e43d 2094 33be
000003f0: 6b75 e6bd 6eb9 17be b4eb c1bc befe 2abe

transformer.layers.0.1.fn.net.3.bias f4 [36]
-0.10460821 -0.029209448 0.037860367 -0.08777513 -0.020935962 -0.09532798 -0.010482794 0.0993653
0.025915401 0.014239624 0.059876487 -0.08168848 -0.05178121 0.04856554 0.004347868 0.13301064
-0.106438264 0.016259305 0.0226028 0.024419907 0.013925683 0.017340342 -0.11399617 -0.028629603
0.06601797 -0.011006424 0.069734715 -0.004136471 0.05429762 -0.093890995 -0.02005189 0.040496256
-0.0127783455 -0.07878818 -0.03151574 0.09700598
00000000: d43c d6bd a748 efbc 7913 1b3d 73c3 b3bd
00000010: e581 abbc 513b c3bd 06c0 2bbc 0980 cb3d
00000020: 894c d43c 504d 693c 0c41 753d 4a4c a7bd
00000030: 8918 54bd a9ec 463d 8f78 8e3b f133 083e
00000040: 4efc d9bd 3c32 853c 8229 b93c 420c c83c
00000050: 8c28 643c 550d 8e3c d376 e9bd a188 eabc
00000060: 6e34 873d 4a54 34bc 13d1 8e3d 3c8b 87bb
00000070: 2e67 5e3d ec49 c0bd dc43 a4bc 67df 253d
00000080: 445c 51bc b35b a1bd a616 01bd 12ab c63d

transformer.layers.1.0.norm.weight f4 [36]
1.0436879 1.0463006 1.1064926 1.01393 1.0354934 1.0487199 1.0735476 1.06331
1.0137079 1.0503991 1.025956 1.0628166 1.0319818 1.0699722 1.0392393 1.0370177
1.0359527 1.0686973 1.0658354 1.092612 1.0152115 1.0408157 1.0378045 1.0498742
1.045422 1.0880854 1.0530142 1.0589439 1.090146 1.0471517 1.0894214 1.0350767
1.0785878 1.0207132 1.0843481 1.1313331
00000000: 9197 853f 2eed 853f 8da1 8d3f 75c8 813f
00000010: 0c8b 843f 743c 863f 026a 893f 8b1a 883f
00000020: 2ec1 813f 7a73 863f 8752 833f 600a 883f
00000030: fb17 843f d9f4 883f cb05 853f ffbc 843f
00000040: 199a 843f 13cb 883f 4b6d 883f b6da 8b3f
00000050: 73f2 813f 7339 853f c7d6 843f 4762 863f
00000060: 63d0 853f 6246 8b3f 2bc9 863f 798b 873f
00000070: e789 8b3f 1109 863f 2972 8b3f 657d 843f
00000080: 2a0f 8a3f bba6 823f ebcb 8a3f 86cf 903f

transformer.layers.1.0.norm.bias f4 [36]
0.0054866327 -0.0062315804 0.00081960304 0.0031840245 -0.019628854 0.002843905 0.011077176 0.008901139
-0.013874566 0.03974745 0.0022044422 -0.025413247 -0.0034833285 0.014818281 0.006838613 -0.023112739
-0.007905115 -0.0057481453 0.020147188 -0.017210089 0.01484446 -0.004826802 0.022158327 0.009300002
0.0051720906 -0.0014387821 0.01333143 -0.007252746 -0.004446172 -0.013893243 -0.013147194 0.008644173
-0.00501589 0.00043988097 -0.019590251 0.017248398
00000000: 36c9 b33b 4932 ccbb a1da 563a 11ab 503b
00000010: b1cc a0bc cf60 3a3b 0b7d 353c 15d6 113c
00000020: 2652 63bc 39ce 223d 6778 103b 712f d0bc
00000030: 8e48 64bb 60c8 723c 7216 e03b ed56 bdbc
00000040: 7584 01bc f05a bcbb b70b a53c 2cfc 8cbc
00000050: 2e36 733c 262a 9ebb 6185 b53c 095f 183c
00000060: a47a a93b 8495 bcba 126c 5a3c 71a8 edbb
00000070: 32b1 91bb 7ca0 63bc 5467 57bc 4aa0 0d3c
00000080: 565c a4bb d39f e639 bc7b a0bc 834c 8d3c
