ViT/ViT1/2 V train 0.956 V test 0.903 ABS 3/model_bestQ.pt (torch, 414407 bytes, 74 tensors)

pos_embedding f4 [1, 19, 36]
0	0xbf82c62f	-1.0216731
1	0x3f491fdc	0.7856424
2	0xbf1c19a6	-0.60976636
3	0x3f500b06	0.8126682
4	0x3ed2dc8e	0.41183895
5	0xbd0ce3f9	-0.0343971
6	0x3ebfeaa1	0.37483695
7	0xbf850dbd	-1.0394818
8	0x3fba3b72	1.4549391
9	0x3f60ca78	0.8780894
10	0xbf18fc5e	-0.5976008
11	0x3e1cc97e	0.15311238
12	0x3f0449fd	0.516754
13	0x3f192c93	0.5983364
14	0xbfb38077	-1.4023579
15	0xbfb125b9	-1.3839637
16	0xbeb8202c	-0.35962045
17	0x3f4f3d92	0.80953324
18	0x3fb5f3cb	1.4215025
19	0x3fa43b22	1.2830546
20	0xbe975989	-0.29560497
21	0xbe85a9db	-0.26106152
22	0x3f6bd4ba	0.9212147
23	0xbe49531e	-0.19660613
24	0x3f60ab89	0.8776174
25	0xbec0985c	-0.3761624
26	0x3f3aacae	0.7291974
27	0x3e012101	0.12610246
28	0x3fa9db27	1.3270005
29	0xbf8c1bba	-1.0945961
30	0x3ff86bc3	1.9407886
31	0x404500b1	3.0781672
32	0xbfaf08a6	-1.3674514
33	0x3fd86476	1.6905658
34	0xbfd2dd89	-1.6473857
35	0x3e41ff6d	0.18945093
36	0x3e9161b3	0.2839485
37	0x3fa82d19	1.3138763
38	0xbf04ff00	-0.519516
39	0x3ffa20f9	1.9541312
40	0x3f1fe7be	0.62462986
41	0xbf7e45a2	-0.99325
42	0x3eaa8a27	0.33308527
43	0x3e29876e	0.16555569
44	0xbf9f312f	-1.2436885
45	0x3f3df314	0.7419903
46	0xbd711187	-0.058854606
47	0x3ff7e21f	1.9365882
48	0xbf415067	-0.7551331
49	0x3f8e1455	1.1099955
50	0xbf05bd89	-0.5224233
51	0x3f072ddd	0.52804357
52	0x3e762d09	0.24040617
53	0xc00a7635	-2.1634648
54	0x3edd1da0	0.43186665
55	0x3f8ad58f	1.0846423
56	0xbf325762	-0.69664586
57	0xbf488db6	-0.78341234
58	0x3be7c085	0.0070725107
59	0x3f843bdc	1.0330768
60	0x3efe933c	0.49721706
61	0xbf645e96	-0.89206827
62	0x3f397e9c	0.72458816
63	0x400ea842	2.2290196
64	0x3f939b52	1.1531775
65	0xbf82c2c9	-1.0215694
66	0xbec83ccb	-0.3910888
67	0xbfa5a249	-1.294015
68	0x3f3b0f0b	0.7306983
69	0xbe893a2c	-0.26802194
70	0xbf7e853f	-0.9942207
71	0xbd765c34	-0.060146526
72	0xbe912174	-0.28345835
73	0x3f01882e	0.5059842
74	0xbff9c51d	-1.9513279
75	0xbfb4b5c0	-1.4117966
76	0x3f6f7213	0.9353344
77	0x3fedc93b	1.8577036
78	0x3f1bd3a8	0.60869837
79	0x3ec1ae5b	0.37828335
80	0x3f64bce1	0.89350706
81	0x3f3448d4	0.70423627
82	0x400015fe	2.0013423
83	0x3f2b889d	0.6700533
84	0xbf0f25d1	-0.5591708
85	0xbf2b4340	-0.6689949
86	0xbd456292	-0.048189707
87	0x3f9250d0	1.1430912
88	0xbfa03be0	-1.2518272
89	0x3db1763e	0.08665131
90	0x3fce9eab	1.6142172
91	0x3f93f374	1.1558671
92	0x3c86c225	0.016449997
93	0xbee97b2e	-0.4560179
94	0xbf9d6ec5	-1.2299429
95	0x3bd2a517	0.0064283716
96	0xbeb49db1	-0.3527656
97	0x3ff90792	1.9455435
98	0xbf0fb800	-0.56140137
99	0x3f9fce1b	1.2484773
100	0x3f0d1413	0.55108756
101	0xbfadf298	-1.3589659
102	0xbfdcb32c	-1.7242179
103	0x3d7c0b2a	0.061534084
104	0xbeeecf15	-0.46642366
105	0x3f0097bc	0.5023153
106	0xbf31a51a	-0.6939255
107	0x3f89d947	1.0769433
108	0xbf52a915	-0.8228925
109	0xbf11efaa	-0.57006323
110	0xbf108d7a	-0.56465876
111	0x3f1effe0	0.62109184
112	0xbfaf53f7	-1.3697499
113	0xbf605eee	-0.8764485
114	0x3ee4c8ed	0.44684544
115	0x3f663b9d	0.8993471
116	0x3f2d873a	0.67784464
117	0xbcfdbde1	-0.03097433
118	0x3fc799f0	1.5593853
119	0xbed7c076	-0.42139024
120	0x3f6dfbac	0.92962146
121	0x3f875251	1.0571996
122	0xbdaa0116	-0.083009884
123	0xbf782218	-0.9692702
124	0x3f5818ca	0.84412825
125	0xbe1989d3	-0.14993982
126	0xbf7281fb	-0.94729584
127	0x3e982c1f	0.29721162
128	0xbf1e8920	-0.61927986
129	0x3f035955	0.51308185
130	0xbfadfe14	-1.3593163
131	0x3fb9dccc	1.4520507
132	0xbf180f7c	-0.5939863
133	0x3f89db26	1.0770004
134	0x3ff95b0f	1.9480914
135	0xbf94fafe	-1.1639097
136	0xbf2887fd	-0.658325
137	0xbd3f4b2a	-0.04670254
138	0x3df8abdd	0.12142155
139	0x3ed94f24	0.42443192
140	0xbec6a2c4	-0.38796055
141	0x3e6e528e	0.2327368
142	0xbf5fa74e	-0.8736466
143	0x3f95eb33	1.1712402
144	0xbe50f3fe	-0.20405576
145	0x3f35c57f	0.7100448
146	0x3f889440	1.0670242
147	0x3f8c914b	1.098184
148	0xbf76dcd7	-0.96430725
149	0x3f033384	0.5125048
150	0xbeb6466a	-0.35600597
151	0x3f42a5b2	0.7603408
152	0x3e576ff2	0.21038797
153	0xbcc5b4a6	-0.024133991
154	0x3e08c6a7	0.1335703
155	0x3d097d8f	0.033567008
156	0x3ff188b5	1.8869845
157	0x3eb983c5	0.36233345
158	0xbf052c37	-0.5202059
159	0x3f689734	0.9085572
160	0xbf0820f5	-0.5317529
161	0x3daecbbe	0.085349545
162	0xbec299c5	-0.38007942
163	0x3f015de7	0.5053391
164	0xbea2dad9	-0.31807593
165	0x4005ff73	2.0937164
166	0x3f8ec96f	1.1155223
167	0x3ed146f1	0.40874436
168	0x3fc8cb84	1.5687108
169	0xbd375fe5	-0.044769187
170	0xbf344f38	-0.7043338
171	0x3e31a144	0.17346674
172	0xbecf933e	-0.40542024
173	0x3ff81237	1.9380559
174	0x3f9f6635	1.2453066
175	0x3fd59f52	1.6689246
176	0x3fc3d968	1.5300722
177	0xbca94718	-0.020663783
178	0xbf3f213d	-0.7466009
179	0xbf1e5b9d	-0.6185854
180	0x3f8b3698	1.0876036
181	0xbcd27973	-0.025692677
182	0xbee4a506	-0.44657153
183	0xbe283198	-0.16425169
184	0xbe3bfd12	-0.18358257
185	0xbf8d723b	-1.1050485
186	0x3ea0d9ff	0.31416318
187	0xbfbb9438	-1.4654608
188	0xbef0194d	-0.46894303
189	0xbee1a040	-0.44067574
190	0x3fb9640f	1.448366
191	0xbfb47c48	-1.4100428
192	0x3eae7186	0.34070987
193	0x3ea225ee	0.31669563
194	0xbf75ca63	-0.9601194
195	0x3f87bb16	1.0603969
196	0xbf58244b	-0.8443038
197	0xbfccb627	-1.5993088
198	0x3f0bcd79	0.546104
199	0xc014bd4d	-2.324054
200	0xbde2c6de	-0.11073087
201	0xbeb06291	-0.344502
202	0x3f1f1a79	0.6214977
203	0x3fe931e7	1.8218354
204	0x3f6cb67f	0.92465967
205	0x3fb50104	1.4140935
206	0xbf48d172	-0.7844459
207	0x3d9864b4	0.074410826
208	0xbf0124c2	-0.5044671
209	0x3dd8d1e4	0.105869085
210	0xbe750d2b	-0.23930804
211	0xbfb64165	-1.4238707
212	0xbf309249	-0.68973213
213	0x3f619a4d	0.8812607
214	0xbe51e3db	-0.20497076
215	0x3e8f9fc3	0.28051576
216	0x3f1c9268	0.611609
217	0x3e96ea3a	0.29475576
218	0xbe791f18	-0.24328268
219	0xbe65aed9	-0.2242998
220	0x3c26a785	0.010171776
221	0x3e58586b	0.21127479
222	0xbe1d3ccb	-0.15355222
223	0x3e6e06da	0.23244801
224	0xbf55c0bc	-0.83497214
225	0x3f698fb9	0.9123493
226	0xbe59c51a	-0.21266595
227	0x3f78301b	0.96948403
228	0x3f8bf55a	1.093425
229	0x3db5c5cb	0.08875617
230	0xbf84187c	-1.0319972
231	0xbe9b5d89	-0.303448
232	0xbf18f211	-0.59744364
233	0x4008ecf4	2.1394625
234	0xbf194bfc	-0.5988157
235	0x3f02bb49	0.51067024
236	0xbe8f19a8	-0.27949262
237	0x3eb4301b	0.35192952
238	0x3f6a5736	0.91539323
239	0xbf213342	-0.6296884
240	0x3f31fa1c	0.6952226
241	0x3f8dc7a8	1.1076555
242	0x3f3fb812	0.74890244
243	0x3ea6f3f3	0.32607993
244	0xbf863705	-1.0485541
245	0x3efce623	0.4939433
246	0xbee23461	-0.44180587
247	0xbf0fedef	-0.5622243
248	0x3f3dadf5	0.7409356
249	0xbe819e55	-0.2531611
250	0x3e185f7f	0.14880179
251	0x3dc99f43	0.0984483
252	0xbf5fd1d5	-0.87429553
253	0x4004135d	2.0636818
254	0xbefc30a5	-0.49255863
255	0xbfa57113	-1.2925133

cls_token f4 [1, 1, 36]
0	0x3bf7d80f	0.007563598
1	0x3e8de628	0.27714658
2	0x3f75aa9e	0.95963466
3	0xbf4419f3	-0.76602095
4	0xbf061033	-0.5236847
5	0xbec74144	-0.3891698
6	0xbecc55df	-0.39909264
7	0x3dab067c	0.08350846
8	0x3f059770	0.521842
9	0x3f962a7a	1.1731713
10	0x3f2591bc	0.646755
11	0x3f82c782	1.0217135
12	0xbf0e7ebd	-0.5566214
13	0x3fc1e741	1.5148698
14	0x3fd43791	1.6579458
15	0x3e2462f9	0.1605338
16	0x3ffa3949	1.9548732
17	0xbf065f78	-0.52489424
18	0x3f271af9	0.6527553
19	0x3e816b2c	0.25277078
20	0x3f53d9d6	0.82754266
21	0xbf876a07	-1.0579232
22	0x3f5718ce	0.84022224
23	0xbf59eb3d	-0.8512457
24	0xbfcfbc84	-1.6229405
25	0xbedeb23a	-0.4349535
26	0x3fae240e	1.3604753
27	0xbf689b64	-0.9086211
28	0x3fa61b89	1.2977153
29	0x3f361f62	0.71141636
30	0x3e7a969e	0.24471518
31	0xbe8a5128	-0.27015042
32	0x3fa3fad9	1.2810928
33	0x3e9c4f9c	0.30529487
34	0xbd752d99	-0.05985794
35	0x3fc2e2b8	1.5225439

to_patch_embedding.1.weight f4 [36, 12]
0	0x3d903889	0.07042033
1	0x3e7b207d	0.24524112
2	0x3e51505b	0.2044081
3	0x3d44adec	0.048017427
4	0xbe1c3179	-0.15253247
5	0xbe6338f2	-0.22189692
6	0xbed33e90	-0.4125867
7	0xbe42617c	-0.189825
8	0x3e8d1719	0.27556685
9	0xbe055d1a	-0.13023797
10	0xbdc9db05	-0.09856228
11	0x3e852877	0.26007435
12	0xbe333afa	-0.17502967
13	0x3e120ead	0.14263411
14	0xbc5e6a25	-0.0135751115
15	0x3d9e9f69	0.07745249
16	0xbd4daa1f	-0.05021107
17	0x3e602879	0.21890439
18	0xbde40a91	-0.11134828
19	0xbe042ce1	-0.12907745
20	0xbe1d53ad	-0.15363951
21	0x3c88d5cf	0.016703514
22	0xbda2b9b8	-0.07945579
23	0x3e83ad50	0.25718164
24	0xbcdce6ae	-0.026965465
25	0xbe19f8a9	-0.15036263
26	0xbce06d25	-0.027395794
27	0x3e35748e	0.17720243
28	0x3d884d35	0.06655351
29	0x3e46c8e1	0.19412567
30	0xbe89057e	-0.26762003
31	0xbdd13af7	-0.10216325
32	0xbe8e4b47	-0.27791807
33	0xbdd0e1a6	-0.10199289
34	0x3e304610	0.17214227
35	0x3e8742b0	0.26418066
36	0xbe0d5892	-0.13803318
37	0x3de27a3c	0.110584706
38	0xbe8cdb4b	-0.27511057
39	0x3d06a474	0.03287168
40	0x3e1fd054	0.15606815
41	0x3e6c49ef	0.23075078
42	0x3def1720	0.116743326
43	0x3e4e7fac	0.2016589
44	0x3e57b01e	0.21063277
45	0xbe9ad615	-0.30241457
46	0xbe40ea1f	-0.1883931
47	0xbe6d2372	-0.23158053
48	0x3e4fd029	0.2029425
49	0xbe78227a	-0.24231902
50	0x3e01fd0a	0.12694183
51	0x3e4de0dc	0.20105308
52	0xbe4bd8fe	-0.19906995
53	0xbe8f3fee	-0.27978462
54	0x3e49306f	0.19647382
55	0x3d11fa81	0.03563929
56	0xbc8fa60b	-0.01753523
57	0xbb50b754	-0.0031847553
58	0xbdf38dbc	-0.11892268
59	0x3e295fdd	0.16540475
60	0xbe397c8e	-0.1811392
61	0xbce6f70d	-0.028193975
62	0x3c82e588	0.01597859
63	0x3db24a9a	0.08705635
64	0xbe44f31e	-0.19233367
65	0x3d6aa894	0.057289675
66	0x3dac9fa3	0.08428886
67	0x3e9399b9	0.2882822
68	0xbe00dca7	-0.12584172
69	0x3de4a4cf	0.11164247
70	0xbe01edc2	-0.12688354
71	0xbc5474fa	-0.0129673425
72	0x3d77fff9	0.06054685
73	0xbe4a9da6	-0.197867
74	0x3d64dbe3	0.055873763
75	0xbe2973c5	-0.16548069
76	0xbe2766d1	-0.16347815
77	0xbe661f8a	-0.22472969
78	0xbe3cc700	-0.18435287
79	0x3dc14f81	0.09438992
80	0x3e37fd98	0.17967832
81	0xbe43fac0	-0.19138622
82	0x3dfc3610	0.12314999
83	0x3e5ae26c	0.21375436
84	0x3db7d65b	0.08976432
85	0x3e409e20	0.1881032
86	0x3d1dbda5	0.038510937
87	0xbe17fdce	-0.14842913
88	0xbd92973a	-0.071577504
89	0xbe07a27e	-0.1324558
90	0x3e77ba25	0.24192102
91	0x3e02c083	0.1276875
92	0xbc94da57	-0.018170519
93	0x3a117086	0.00055480783
94	0x3dd1f188	0.102511466
95	0xbd267418	-0.04063806
96	0xbe096da0	-0.13420725
97	0x3d42fdfb	0.047605496
98	0xbe8f54c4	-0.2799436
99	0x3d8973ea	0.06711562
100	0xbe071ce2	-0.13194612
101	0xbd0803b5	-0.03320666
102	0x3da5091a	0.080583766
103	0xbc5427b2	-0.012948917
104	0xbe5a8c8c	-0.21342677
105	0x3e696214	0.2279132
106	0x3cff6fa9	0.031181173
107	0x3dc74686	0.09730248
108	0x3df7298e	0.12068473
109	0xbdc29f73	-0.09503069
110	0xbc61a0ef	-0.01377128
111	0x3e02140f	0.12702964
112	0x3e36105f	0.17779683
113	0x3e2b80f3	0.16748409
114	0xbe7f0516	-0.24904284
115	0xbe633a05	-0.22190101
116	0xbe6f7da1	-0.23387767
117	0xbe459dff	-0.19298552
118	0xbe078c3a	-0.13237086
119	0xbe99dc74	-0.30051005
120	0xbe94af0b	-0.29039797
121	0x3d5c19aa	0.053735413
122	0x3e6cb2ad	0.23115034
123	0x3dbef493	0.093239926
124	0x3e06f197	0.13178097
125	0xbe477f98	-0.19482267
126	0xbde4c831	-0.11170996
127	0xbd8774b1	-0.06614054
128	0xbdb1b1b2	-0.08676471
129	0x3e2d9e16	0.16954836
130	0x3d8024cd	0.06257019
131	0x3e77f6b0	0.24215198
132	0xbbf91dce	-0.00760243
133	0xbe57e288	-0.21082509
134	0x3db6a195	0.08917538
135	0x3e0445cd	0.12917252
136	0xbe0b2344	-0.13587672
137	0xbdd6883b	-0.10475203
138	0xbc25cd38	-0.010119729
139	0xbdfd7136	-0.12375109
140	0xbe4d827c	-0.20069307
141	0x3e6c4487	0.23073016
142	0xbd789298	-0.060686678
143	0x3e028535	0.12746127
144	0x3e5525fc	0.20815271
145	0x3c379f29	0.01120738
146	0x3e2d2ecc	0.16912383
147	0x3e8bed18	0.27329326
148	0x3d5b0e42	0.053480394
149	0xbe470e67	-0.19439088
150	0xbdecb2c2	-0.11557533
151	0x3e56b170	0.20966125
152	0xbd004563	-0.031316172
153	0x3eaa9271	0.3331485
154	0x3e8231ea	0.25428706
155	0xbdb4904a	-0.088165835
156	0x3bd6c79b	0.0065545565
157	0xbe0d37af	-0.13790773
158	0xbab59e08	-0.0013856301
159	0xbd2a8923	-0.04163469
160	0x3d355d85	0.04427864
161	0x3e3887aa	0.18020502
162	0xbd22c06d	-0.039734293
163	0xbe4f1690	-0.2022345
164	0xbe389467	-0.18025361
165	0xbe4d6415	-0.2005771
166	0xbde47385	-0.11154846
167	0x3e8ac51b	0.27103505
168	0x3d11c7b9	0.03559086
169	0x3e22b777	0.15890299
170	0xbd71e240	-0.05905366
171	0x3e7f1a0b	0.24912278
172	0xbe2a7095	-0.16644509
173	0x3e0cfd97	0.13768612
174	0xbd7dbfb2	-0.061950393
175	0x3c837150	0.016045243
176	0x3e94b9cd	0.29048005
177	0x3de89611	0.11356748
178	0x3ca1264e	0.019671585
179	0x3d423457	0.047413196
180	0xbd8f4534	-0.06995621
181	0x3da2a7c1	0.07942153
182	0xbe89e8b7	-0.2693536
183	0x3d91bc9c	0.071160525
184	0xbe82eeaa	-0.2557271
185	0xbe028128	-0.12744582
186	0x3e381b2b	0.17979114
187	0xbe58df08	-0.2117883
188	0x3dbeabce	0.09310113
189	0xbe144268	-0.14478457
190	0x3de264ff	0.1105442
191	0x3e5f78dd	0.2182345
192	0xbdc1da7c	-0.09465501
193	0xbdad014a	-0.084475115
194	0x3e32b29c	0.17450947
195	0x3e0ecb12	0.13944653
196	0x3dfd766b	0.12376102
197	0xbe506c74	-0.20353872
198	0xbe54932f	-0.20759271
199	0x3e77aa43	0.24186043
200	0x3e988394	0.29787886
201	0x3e756023	0.23962454
202	0xbe1ae050	-0.15124631
203	0x3e82c193	0.2553831
204	0xbe5b671c	-0.21426052
205	0xbdbd55b9	-0.09244866
206	0xbe42aa3b	-0.1901025
207	0xbd38a635	-0.045080382
208	0x3e3d563d	0.18489929
209	0xbe1084fa	-0.14113227
210	0x3df91d9f	0.12163853
211	0x3d936f13	0.0719892
212	0xbd99687d	-0.07490633
213	0xbc38ad4d	-0.011271787
214	0xbe411866	-0.18856964
215	0xbe36ac9f	-0.17839287
216	0xbd6e36d6	-0.058157764
217	0xbe0c35bd	-0.13692375
218	0xbe8df8a7	-0.2772877
219	0x3e85364f	0.26017997
220	0x3dd69817	0.104782276
221	0xbe73fe56	-0.2382749
222	0x3e2e91f9	0.17047872
223	0xbe35aa3f	-0.17740725
224	0xbe366faa	-0.17816034
225	0xbe93a695	-0.2883803
226	0x3d0b8f3c	0.034072146
227	0xbe7fc5a4	-0.24977738
228	0x3a82c7f4	0.0009977804
229	0x3db32c8f	0.08748733
230	0x3dac2ed1	0.08407367
231	0x3e865f3b	0.2624453
232	0xbe44585f	-0.19174336
233	0xbe96c618	-0.2944801
234	0xbd9f7216	-0.07785432
235	0xbe50de96	-0.2039741
236	0xbe786c72	-0.24260119
237	0x3d6c9f90	0.05776936
238	0xbd192875	-0.0373921
239	0x3e515226	0.20441493
240	0xbdc7a6a0	-0.09748578
241	0xbdddb936	-0.10826342
242	0xbe82201d	-0.25415125
243	0xbde4f85b	-0.111801825
244	0x3e2f6845	0.1712962
245	0xbe8c0787	-0.27349493
246	0xbdab1641	-0.08353854
247	0x3e2f03e1	0.17091323
248	0x3e768f8e	0.240782
249	0x3d199a1b	0.037500482
250	0x3de885da	0.11353655
251	0x3ce973bf	0.028497575
252	0xbe7ceb76	-0.24699196
253	0x3db82606	0.089916274
254	0xbdb353e1	-0.08756233
255	0xbe160802	-0.14651492

to_patch_embedding.1.bias f4 [36]
0	0xbe4cbfb9	-0.19995011
1	0x3db1c9b6	0.086810514
2	0x3af2409e	0.0018482392
3	0x3dc66f84	0.09689239
4	0xbd7cadd5	-0.061689217
5	0xbe3a1e9d	-0.1817574
6	0x3e5be661	0.21474601
7	0xbe1f96b0	-0.15584826
8	0x3d46f6a4	0.04857506
9	0x3e61c152	0.22046402
10	0x3dfdf024	0.12399319
11	0xbdbf3a94	-0.09337345
12	0x3df9179a	0.12162705
13	0x3dffc29f	0.12488293
14	0xbe2815b6	-0.16414532
15	0x3d857fad	0.06518493
16	0xbe703400	-0.23457336
17	0x3e05f83b	0.13082974
18	0x3e4bc462	0.19899133
19	0xbda39aef	-0.079885356
20	0x3d2df845	0.042473096
21	0xbd4c0bc6	-0.049815916
22	0x3db1a734	0.086744696
23	0xbe499148	-0.19684327
24	0xbe912cbd	-0.28354445
25	0x3e91f8db	0.28510174
26	0xbe42d7a6	-0.19027576
27	0x3e272f4c	0.16326636
28	0xbd9d9fa3	-0.07696464
29	0xbe3c232e	-0.18372795
30	0xbda2cb91	-0.079489835
31	0x3e1de7cf	0.15420459
32	0xbddd107d	-0.107941605
33	0xbe08a18e	-0.13342878
34	0x3e6d7822	0.23190358
35	0xbd6225b8	-0.055211753

transformer.layers.0.0.norm.weight f4 [36]
0	0x3f841a6a	1.0320561
1	0x3f849ad7	1.0359753
2	0x3f868767	1.0510072
3	0x3f85fc60	1.0467644
4	0x3f821584	1.0162816
5	0x3f86736a	1.0503972
6	0x3f844e4b	1.0336393
7	0x3f84eb22	1.0384257
8	0x3f8387d6	1.0275829
9	0x3f8281ea	1.0195897
10	0x3f80113f	1.0005263
11	0x3f8186e5	1.0119292
12	0x3f829803	1.020264
13	0x3f82aea7	1.020955
14	0x3f827acd	1.0193726
15	0x3f8139f4	1.0095811
16	0x3f7ce0ce	0.98780525
17	0x3f7ea424	0.9946921
18	0x3f80ec79	1.0072166
19	0x3f81ad3d	1.0130993
20	0x3f79276b	0.9732577
21	0x3f8166d7	1.0109509
22	0x3f7cd5cc	0.9876373
23	0x3f844627	1.0333909
24	0x3f817513	1.0113853
25	0x3f854c32	1.0413878
26	0x3f83fc52	1.0311377
27	0x3f84cd9e	1.0375249
28	0x3f83d0db	1.0298113
29	0x3f822990	1.0168934
30	0x3f86f696	1.0544002
31	0x3f803a13	1.0017723
32	0x3f82a549	1.0206691
33	0x3f8688b6	1.0510471
34	0x3f80360d	1.0016495
35	0x3f8414fa	1.0318902

transformer.layers.0.0.norm.bias f4 [36]
0	0xbc7f681d	-0.015588787
1	0x3c2cf9e2	0.010557624
2	0x3b29684b	0.0025849517
3	0xbb2ea14f	-0.002664644
4	0x3c1b8730	0.00949268
5	0xbba6c7c1	-0.0050897305
6	0xbbcc2a5d	-0.006230636
7	0xbcdbef14	-0.0268474
8	0x3b81ce7b	0.003961382
9	0xbb858485	-0.0040746354
10	0x398a29d4	0.00026352576
11	0x3b3d10a0	0.002884902
12	0xbc3abd6d	-0.011397702
13	0x3c90dd41	0.017683627
14	0xbae2c1e8	-0.001730022
15	0x3ac5da10	0.0015094895
16	0x3b62ae59	0.0034588783
17	0x3badae2b	0.0053003035
18	0xb9fd0546	-0.0004825985
19	0x3c4a7aac	0.012358349
20	0x3ccd41f6	0.025055867
21	0xbb74af23	-0.0037335835
22	0xba67e49b	-0.00088460156
23	0xbbf0b2bc	-0.0073455255
24	0xbc1f5801	-0.009725572
25	0xbc7bf640	-0.015378535
26	0xba837833	-0.0010030329
27	0xbc633130	-0.013866708
28	0x3bca2373	0.0061687767
29	0x3a7f55b3	0.0009740248
30	0x3bf01806	0.0073270826
31	0xbcf28063	-0.029602235
32	0xbb0ff665	-0.002196693
33	0xbaed4119	-0.0018101066
34	0x3ba67da5	0.005080896
35	0x3c950cfb	0.018194666

transformer.layers.0.0.fn.to_qkv.weight f4 [216, 36]
0	0xbd631f01	-0.05544949
1	0xbe0decb2	-0.13859823
2	0xbc246706	-0.010034328
3	0xbdc0c3d2	-0.0941235
4	0xbd1113ed	-0.035419393
5	0xbe1dc864	-0.15408474
6	0x3d9ffe6b	0.07812198
7	0x3e050f00	0.12994003
8	0x3dab281b	0.08357259
9	0x3de59576	0.11210148
10	0x3dfeae87	0.12435632
11	0xbcb881cd	-0.022522831
12	0x3d8dfef2	0.069333926
13	0x3d2a6c65	0.04160728
14	0xbe38f9a0	-0.18063974
15	0xbd927afb	-0.07152363
16	0x3d9c5de4	0.07635096
17	0x3e1e8264	0.15479428
18	0xbc5b0e40	-0.013370097
19	0x3de3b303	0.11118128
20	0xbcbb239a	-0.022844125
21	0x3d9efdd2	0.07763256
22	0x3db5f80b	0.08885201
23	0xbdd292f1	-0.10281933
24	0xbc1ad14e	-0.009449316
25	0xbdcab398	-0.09897536
26	0xbd2dd8d4	-0.04244311
27	0x3d33b377	0.043872323
28	0x3d10ca87	0.035349395
29	0x3d44101d	0.04786693
30	0x3dea9d93	0.11455836
31	0x3d781715	0.060568888
32	0x3d21a722	0.03946603
33	0xbe024860	-0.12722921
34	0x3d2fffdf	0.042968627
35	0x3d8f4298	0.069951236
36	0x3df80d02	0.12111856
37	0x3dd6e8cd	0.10493622
38	0xbcbb301d	-0.02285009
39	0xbddab19a	-0.10678406
40	0x3e238c8e	0.15971586
41	0x3e47099b	0.19437258
42	0xbb423037	-0.002963079
43	0x3dc4356b	0.09580501
44	0x3c63edd3	0.013911682
45	0x3da043e5	0.0782545
46	0x3dbcd9b4	0.09221211
47	0xbe4d54f7	-0.20051943
48	0x3dd39012	0.103302136
49	0x3afaba21	0.0019128957
50	0x3e322b9f	0.17399453
51	0xbd106385	-0.03525116
52	0x3dabf6c0	0.08396673
53	0xbdfce9f6	-0.12349312
54	0xbe316ab5	-0.17325862
55	0x3c7f6e32	0.015590237
56	0xbe139e7e	-0.14415929
57	0x3cee539b	0.0290926
58	0xbe5fb394	-0.21845847
59	0x3e3c78dc	0.18405479
60	0x3dcf63c3	0.1012645
61	0xbd9ef58b	-0.07761677
62	0xbe095789	-0.13412298
63	0x3df0d311	0.11759008
64	0xbe5a7ef7	-0.21337496
65	0x3e37238c	0.17884654
66	0xbccf27f6	-0.02528761
67	0x3d82af38	0.063810766
68	0x3dc0ce67	0.09414368
69	0xbd8bf484	-0.06833747
70	0x3cc961c6	0.024582755
71	0xbdf93c12	-0.12169661
72	0x3e0b7c32	0.13621596
73	0x3e151a84	0.14560896
74	0x3d8fb177	0.070162706
75	0xbe0ee0e3	-0.13952975
76	0x3d4e6fbd	0.05039953
77	0x3bfc40a1	0.007698134
78	0xbca7b601	-0.020472528
79	0xbb5fcf6d	-0.0034150735
80	0xbb2ab7a6	-0.0026049404
81	0xbd6afae5	-0.057368178
82	0xbdb1067a	-0.086438134
83	0x3d2d30cc	0.042282864
84	0xbcd75d8c	-0.026289724
85	0x3d7aa3af	0.061191257
86	0xbdaea8c2	-0.08528282
87	0xbd430c77	-0.04761931
88	0x3d5ecd32	0.05439491
89	0xbdf320b1	-0.1187147
90	0x3e03e59a	0.12880555
91	0x3e27dbc6	0.1639243
92	0xbd4ce59a	-0.050023653
93	0x3c2a5d88	0.010398276
94	0x3e1c6ee6	0.1527668
95	0x3c4b2b9b	0.012400533
96	0xbdd635e3	-0.10459497
97	0xbdf6b659	-0.12046499
98	0x3e1b69c2	0.15177062
99	0xbe03a230	-0.12854838
100	0xbc938288	-0.018006578
101	0x3c708f7f	0.01468265
102	0xb918b1e5	-0.0001456212
103	0x3dc38df0	0.09548557
104	0xbde2119c	-0.11038515
105	0xbd96c9d3	-0.07362714
106	0xbd305e26	-0.043058537
107	0x3e128bdf	0.14311169
108	0x3c6013bc	0.01367658
109	0x3e014fe8	0.12628138
110	0x3dd3cc34	0.10341683
111	0xbe00b075	-0.12567313
112	0x3e3873af	0.1801288
113	0xbd461697	-0.048361387
114	0xbe21fec0	-0.15819836
115	0xbd7f7cb3	-0.06237478
116	0x3dd887a9	0.1057275
117	0xbcc6bd64	-0.02426023
118	0x3dc63aa8	0.096791565
119	0xbd8cadfb	-0.06869122
120	0xbdc5ebd5	-0.09664122
121	0xbd83cafc	-0.064352006
122	0xbe024000	-0.12719727
123	0x3d38a05f	0.045074817
124	0x3d22bb16	0.0397292
125	0xbde0c3fd	-0.10974882
126	0xbd839f1b	-0.06426831
127	0xbc2d7dec	-0.010589104
128	0xbdc2fb28	-0.095205605
129	0x3dd22a29	0.10261948
130	0xbd8ac5ce	-0.067760095
131	0x3e07d653	0.13265352
132	0x3cbf76ce	0.02337208
133	0x3dc19459	0.09452123
134	0xbc438d16	-0.011935493
135	0xbdab86ac	-0.08375296
136	0x3dfea960	0.124346495
137	0xbe11d634	-0.14241868
138	0x3ddacf0b	0.106840216
139	0x3dfc20dc	0.12310955
140	0xbdc93103	-0.09823801
141	0x3e172b08	0.14762509
142	0x3d875f54	0.06609979
143	0x3dc1be1f	0.09460091
144	0xbd52869a	-0.051397897
145	0x3ba043a0	0.004890874
146	0xbd927f76	-0.071532175
147	0x3dbc53ca	0.09195669
148	0x3dd02204	0.10162738
149	0x3dfde7a9	0.12397701
150	0xbd0cbe9e	-0.034361474
151	0xbd3f85c8	-0.046758443
152	0xbe0380e1	-0.12842132
153	0x3db34695	0.08753697
154	0xbddb2e41	-0.107021816
155	0x3d878643	0.06617405
156	0x3e105386	0.14094362
157	0x3ddba76c	0.107252926
158	0xbe1de2cb	-0.15418546
159	0x3e03dec3	0.12877946
160	0xbdb3599f	-0.08757328
161	0x3d2e0e1c	0.042493924
162	0xbb103aee	-0.002200778
163	0xbe267a2f	-0.16257547
164	0xbda0cd0e	-0.07851611
165	0xbcb84191	-0.022492202
166	0xbdaf0b20	-0.08547044
167	0xbd97d4da	-0.07413645
168	0xbd52abbe	-0.051433317
169	0x3b63316e	0.0034666914
170	0xbdb3aad8	-0.0877282
171	0x3e2e70e7	0.17035256
172	0xbcc7c8f7	-0.02438782
173	0x3e09f309	0.13471617
174	0xbe1f3664	-0.15548092
175	0x3d1c9b4c	0.03823404
176	0xbe006289	-0.12537588
177	0xbe10a51c	-0.14125484
178	0xbe20f9a0	-0.15720224
179	0x3d13b0f5	0.03605743
180	0x3e1e8e93	0.15484075
181	0x3db53c5e	0.08849405
182	0x3d00980d	0.031395007
183	0x3d5b3c9a	0.05352459
184	0x3e05a7bb	0.13052265
185	0xbc75d564	-0.01500449
186	0x3db1fa2b	0.08690294
187	0x3dfd8e49	0.12380654
188	0x3d240aec	0.04004948
189	0x3dccca10	0.09999478
190	0x3de649f7	0.112445764
191	0xbc9b46eb	-0.018954715
192	0x3dd7197e	0.10502909
193	0xbd1dcae7	-0.03852358
194	0xbd93880d	-0.07203684
195	0x3d1d1549	0.038350377
196	0x3de90c43	0.11379292
197	0xbdf09b95	-0.11748425
198	0x3c08b690	0.008344308
199	0xbd097354	-0.03355725
200	0x3d1d6ea3	0.03843559
201	0x3dc2da1e	0.09514259
202	0xbded1657	-0.115765266
203	0xbdd0b30f	-0.10190403
204	0x3d665a1d	0.056238282
205	0x3ccd9a8a	0.025098104
206	0x3de6386c	0.1124123
207	0x3d7c4bd0	0.061595738
208	0x3e279c72	0.16368273
209	0x3c6adff5	0.014335622
210	0xbdf62f4f	-0.12020742
211	0xbbfe7f0f	-0.0077666114
212	0xbdd65459	-0.10465307
213	0x3d096b4e	0.0335496
214	0x3d917e82	0.071042076
215	0xbd05ff5e	-0.03271424
216	0x3e0df501	0.13862993
217	0x3d0cb959	0.03435645
218	0x3e53b1b3	0.20673256
219	0xbe18ec9f	-0.14934014
220	0x3d9dfc2f	0.07714116
221	0x3d888ad5	0.06667105
222	0x3da47112	0.08029379
223	0xbcbd5eec	-0.023116551
224	0x3dd5c165	0.10437278
225	0x3dc4fa98	0.096181095
226	0xbd488733	-0.04895706
227	0xbd7d5eca	-0.061857976
228	0xbc9aad68	-0.018881515
229	0x3d4b75d3	0.049672913
230	0x3dc1d2b4	0.094640166
231	0xbcadc799	-0.02121334
232	0xbe039563	-0.12849955
233	0xbdcc545e	-0.09977029
234	0xbe1d8988	-0.15384495
235	0x3dbeb5db	0.0931203
236	0xbcfb5da1	-0.030684294
237	0x3c59e725	0.013299738
238	0xbd5e2270	-0.05423206
239	0x3e08e19a	0.1336731
240	0xbd399a2c	-0.045313045
241	0xbd332492	-0.043736048
242	0x3de0d572	0.109782115
243	0xbdb208a0	-0.08693051
244	0xbdd0fc8c	-0.102044195
245	0xbde17608	-0.11008841
246	0xbc9a3426	-0.018823694
247	0x3e0cbdd0	0.13744283
248	0xbe3f72cd	-0.18696137
249	0x3e305066	0.1721817
250	0x3d6878a1	0.056755666
251	0x3dc5749d	0.09641383
252	0x3e16b599	0.14717712
253	0xbdbcaf5d	-0.092131354
254	0x3ceebfc1	0.02914417
255	0x3df05ad9	0.11736078

transformer.layers.0.0.fn.to_out.0.weight f4 [36, 72]
0	0x3b492cef	0.0030696949
1	0x3d9e1cc7	0.077203326
2	0x3cb1a7d7	0.021686478
3	0xbd349c91	-0.044094626
4	0xbd2600c8	-0.04052809
5	0xbcff563f	-0.031169055
6	0xbde31e9d	-0.110898234
7	0xbd7c92d6	-0.06166347
8	0x3c280366	0.0102547165
9	0x3de26a21	0.11055399
10	0xbda234b5	-0.07920209
11	0xbda7caba	-0.08192964
12	0xbd13bbf0	-0.036067903
13	0xbd0505fd	-0.032476414
14	0xbd92593d	-0.07145927
15	0xbdffe0cd	-0.12494049
16	0xbd5cd5f5	-0.053914983
17	0x3df7a51a	0.120920375
18	0xbc7e47a7	-0.015520013
19	0x3d285106	0.041092895
20	0xbc480228	-0.012207545
21	0xbd59dd7a	-0.053189732
22	0xbd493f49	-0.04913262
23	0x3c1415a3	0.009038362
24	0x3d56a671	0.052404825
25	0xbcbda9cf	-0.02315226
26	0x3d872bb3	0.06600132
27	0xbd57c04f	-0.052673634
28	0x3b64e12b	0.003492425
29	0xbd4c41dc	-0.049867496
30	0xbd53ab24	-0.051676884
31	0xbbb9db42	-0.0056718895
32	0x3d452814	0.048133925
33	0xbdd17b7b	-0.1022863
34	0xbd93f198	-0.07223815
35	0x3dabfd4b	0.08397921
36	0x3da15cd7	0.07879036
37	0x3d0d5a4b	0.03450994
38	0xbda8d90e	-0.08244525
39	0x3d86e4ce	0.0658661
40	0xbd2f8379	-0.04284999
41	0xbccd532c	-0.025064074
42	0xbda58ea1	-0.08083845
43	0x3dcba62d	0.09943805
44	0x3dcb4171	0.09924591
45	0xbdf186f3	-0.11793318
46	0x3ddfbf90	0.109252095
47	0xbda1ebcf	-0.07906305
48	0x3db2c917	0.08729761
49	0xbde6528f	-0.112462156
50	0xbdd5bf56	-0.10436885
51	0x3d9c5093	0.07632556
52	0xba11b4c6	-0.00055582484
53	0xbda0a64d	-0.07844219
54	0xbdce1dfe	-0.10064314
55	0xbca40340	-0.020021081
56	0x3db43318	0.08798808
57	0xbcca625a	-0.0247051
58	0xbb815409	-0.0039467853
59	0xbd971435	-0.07376901
60	0x3ca14315	0.019685308
61	0xbd8bde3d	-0.06829498
62	0xbc783393	-0.015149015
63	0xbdeb2975	-0.11482517
64	0xbde64f97	-0.11245649
65	0xbd3c64da	-0.045994617
66	0x3a8acce7	0.001058963
67	0x3d40fdb3	0.047116946
68	0x3da8990b	0.08232316
69	0x3d8d2525	0.068918504
70	0xbdcdde8d	-0.10052214
71	0xbd160418	-0.036624998
72	0x3db634f8	0.08896822
73	0xbdfd9007	-0.12380987
74	0x3d3d4b62	0.04621447
75	0xbdb840a2	-0.08996703
76	0xbd23430f	-0.039858874
77	0xbd449283	-0.047991287
78	0xba932b58	-0.0011228127
79	0xbd1dec83	-0.038555633
80	0x3db252f7	0.087072305
81	0xbdaf17dd	-0.085494734
82	0xbd74b5f8	-0.05974385
83	0x3d8fae95	0.07015721
84	0x3d1d1c7d	0.038357247
85	0x3d9a14f6	0.07523529
86	0xbd9aa433	-0.0755085
87	0x3db6f6bb	0.08933779
88	0x3d7bc435	0.061466414
89	0x3d808a02	0.06276323
90	0xbd7b5e4b	-0.06136922
91	0xbd56b9e7	-0.052423384
92	0xbd3f44c7	-0.04669645
93	0x3c411e13	0.011786955
94	0x3da67788	0.081282675
95	0x3de6d5af	0.11271226
96	0xbd8d8602	-0.069103256
97	0x3d8eddd5	0.06975905
98	0x3d939dce	0.07207833
99	0xbd364164	-0.044495955
100	0xbdc59ce2	-0.09649064
101	0x3d7d4610	0.061834395
102	0xb88dea1f	-6.7670124e-05
103	0x3d71fcb6	0.059078895
104	0xbca8e80e	-0.020618465
105	0xbdd05c0e	-0.10173808
106	0xbb4e233d	-0.003145411
107	0x3c42f2c2	0.011898698
108	0xbdbe61f1	-0.092960246
109	0xbdad03a7	-0.08447962
110	0x3d7ab3d9	0.061206672
111	0x3bc3b4b3	0.0059724688
112	0x3dbcdff7	0.092224054
113	0x3aafdc24	0.0013417047
114	0xbd707f82	-0.05871535
115	0x3dc81a76	0.09770672
116	0xbca4a73e	-0.020099279
117	0xbcfd166b	-0.030894479
118	0xbc379e3b	-0.011207159
119	0xbd5c0da4	-0.053723946
120	0x3c9c1aa8	0.01905568
121	0xbc5bf8d3	-0.013426024
122	0x3c726e22	0.0147967655
123	0xbdf05964	-0.117358
124	0xbd3d1ec4	-0.04617192
125	0x3cb548c9	0.022129433
126	0xbd61532c	-0.05501096
127	0x3b69977e	0.0035643275
128	0xbd4fcf6d	-0.050734926
129	0x3d4485ed	0.047979284
130	0xbde0b9e3	-0.10972955
131	0xbcfb0978	-0.030644163
132	0xbcddcf3a	-0.027076352
133	0xbd5adaa2	-0.05343116
134	0xbdc49faa	-0.09600766
135	0x3d154a9f	0.036448117
136	0xbaa19bee	-0.0012329796
137	0x3d6b9598	0.05751571
138	0xbde24839	-0.11048932
139	0x3bff108b	0.0077839545
140	0x3d51207c	0.05105637
141	0x3d85a1e2	0.06525017
142	0x3d962e59	0.07333059
143	0xbd14df22	-0.03634561
144	0x3d6941b4	0.056947425
145	0xbd1b416f	-0.0379042
146	0x3d0c5ee1	0.03427017
147	0xbd8ad10c	-0.06778154
148	0xbd3808ce	-0.04493027
149	0xbd97ae13	-0.07406249
150	0x3d87c3ba	0.06629129
151	0xbbae55d7	-0.0053202915
152	0x3ded6437	0.1159138
153	0x3dbce64a	0.09223612
154	0xbce7f0da	-0.02831309
155	0xbd7390cf	-0.059464272
156	0x3dbdf8cb	0.09275969
157	0x3d63e5b2	0.055638976
158	0x3d7eeebc	0.062239394
159	0xbd2b4993	-0.041818213
160	0x3d9c794f	0.07640325
161	0xbcb5fc50	-0.022215039
162	0xbdb6ba74	-0.08922282
163	0xbde6bb77	-0.11266225
164	0x3cf5b139	0.029991733
165	0x3d144639	0.036199782
166	0x3d8c49d7	0.06850021
167	0x3db27314	0.08713356
168	0xbdcf265e	-0.1011474
169	0xbda14617	-0.07874697
170	0xbdd64e55	-0.104641594
171	0xbd90f816	-0.07078569
172	0xbd169d2d	-0.03677099
173	0xbdf18f92	-0.11794962
174	0x3de2065b	0.110363685
175	0xbd29f401	-0.041492466
176	0xbd24e9c5	-0.040262002
177	0x3d2c8b09	0.04212478
178	0x3df4994e	0.11943303
179	0x3dbd2628	0.09235793
180	0x3b151a02	0.0022751098
181	0xbd22924c	-0.0396903
182	0xbd681f98	-0.056670755
183	0xbd732c9c	-0.059368715
184	0x3dd78520	0.105234385
185	0x3d753875	0.059868295
186	0xbd89c0d3	-0.067262314
187	0x3d4bd7a2	0.04976619
188	0x3d9a6372	0.07538499
189	0x3de2f10d	0.11081133
190	0x3d99eeaf	0.075162284
191	0x3d608250	0.054811776
192	0xbda57f86	-0.08080964
193	0xbd87e4a1	-0.066354044
194	0xbd38a745	-0.045081396
195	0x3d35da20	0.044397473
196	0x3db1f413	0.086891316
197	0x3b542011	0.0032367746
198	0xbddf9908	-0.1091786
199	0x3df08b1d	0.11745284
200	0x3d746342	0.059664972
201	0xbb90fded	-0.0044248016
202	0x3e0f4ce2	0.13994172
203	0xbd21cb26	-0.039500378
204	0xbd9afa17	-0.07567232
205	0x3d0ce78d	0.03440051
206	0xbc77f0fd	-0.01513314
207	0x3dc0ffe0	0.09423804
208	0x3da5758f	0.08079063
209	0x3dcffb8e	0.10155402
210	0xbd02f84e	-0.031975083
211	0xbd5f921a	-0.054582693
212	0x3d90374f	0.07041799
213	0xbcaf4e74	-0.021399714
214	0xbd91daee	-0.07121836
215	0x3dc2e60e	0.09516536
216	0x3cf88b1e	0.030339774
217	0xbda308dc	-0.07960674
218	0x3d232f49	0.039840017
219	0x3d30d51f	0.043171998
220	0xbb8e80e5	-0.0043488615
221	0x3d396f81	0.045272354
222	0xbcb682ba	-0.022279132
223	0x3d201ae6	0.039088152
224	0x3ae357b3	0.0017344862
225	0xbd99dcef	-0.07512843
226	0x3d6e118d	0.058122206
227	0x3d1e235e	0.038607948
228	0xbd852392	-0.06500925
229	0x3d1f9c99	0.038967703
230	0x3baecf06	0.0053347377
231	0x3dba47fd	0.09095762
232	0x3be6367e	0.007025539
233	0x3d7492c1	0.059710268
234	0xbcb26cba	-0.02178036
235	0xbd1c660a	-0.03818325
236	0xbbdf0847	-0.0068064067
237	0xbd08ad7f	-0.033368584
238	0xbcb23932	-0.021755788
239	0x3dbdc159	0.09265394
240	0xbdfe58d3	-0.124192856
241	0x3e183990	0.14865708
242	0xbdcbb832	-0.09947242
243	0x3da95e61	0.082699545
244	0xbd2ed837	-0.042686667
245	0xbdf1bc5d	-0.118035056
246	0x3ce00097	0.027344031
247	0xbd9dab33	-0.07698669
248	0xbdeb5dc8	-0.11492497
249	0xbd458957	-0.04822668
250	0xbdd6bfdd	-0.10485814
251	0xbd909a28	-0.07060653
252	0xbcf3233e	-0.02967989
253	0x3deb3b24	0.114858896
254	0x3d14b6ba	0.036307074
255	0x3decb02c	0.115570396

transformer.layers.0.0.fn.to_out.0.bias f4 [36]
0	0x3dbc837f	0.092047684
1	0xbc935790	-0.017986089
2	0x3d3fe4dd	0.04684912
3	0xbd852a2c	-0.06502184
4	0x3dafa223	0.08575847
5	0x3d201922	0.03908647
6	0x3d483300	0.048876762
7	0x3d87d258	0.06631917
8	0xbd5229a5	-0.051309247
9	0xbdb8d020	-0.09024072
10	0x3deb1d7c	0.11480233
11	0xbdacdd2d	-0.084406234
12	0xbd85c03d	-0.06530807
13	0xbd4c5518	-0.04988584
14	0xbd80dc58	-0.06292027
15	0x3db5ca54	0.08876482
16	0xbdf04332	-0.117315665
17	0xbc5c4d66	-0.013446188
18	0x3d41e39f	0.047336217
19	0xbbd43874	-0.0064764563
20	0x3dece5c9	0.115672655
21	0xbd07745c	-0.033069953
22	0xbd137d52	-0.036008187
23	0x3d8c3475	0.06845943
24	0x3df08ed0	0.11745989
25	0x3de54a64	0.111958295
26	0xbdc38166	-0.09546165
27	0xbc041623	-0.008061918
28	0x3d697be2	0.05700291
29	0x3daa695b	0.08320876
30	0x3da043b5	0.07825414
31	0x3d97e492	0.07416643
32	0x3c36523c	0.011128005
33	0x3df0ee39	0.11764187
34	0xbdc253ed	-0.09488664
35	0xbd01fa36	-0.03173276

transformer.layers.0.1.norm.weight f4 [36]
0	0x3f80cdbe	1.0062788
1	0x3f7ec963	0.9952604
2	0x3f807249	1.0034877
3	0x3f80cbc1	1.0062181
4	0x3f826100	1.0185852
5	0x3f7f54b9	0.9973865
6	0x3f844d0b	1.0336012
7	0x3f7ce1a5	0.98781806
8	0x3f816931	1.0110227
9	0x3f8065bf	1.003105
10	0x3f7f1e3a	0.996555
11	0x3f8245b0	1.0177517
12	0x3f88e7a7	1.0695695
13	0x3f7ffea8	0.9999795
14	0x3f80041d	1.0001255
15	0x3f7f79ff	0.99795526
16	0x3f7cb0b5	0.98707134
17	0x3f852782	1.0402682
18	0x3f80ed39	1.0072395
19	0x3f7f5891	0.99744517
20	0x3f827f84	1.0195165
21	0x3f80a5fa	1.0050652
22	0x3f7e28f8	0.99281263
23	0x3f7fbd11	0.9989787
24	0x3f7fef53	0.99974555
25	0x3f7ea6dd	0.99473363
26	0x3f7f3ae3	0.9969923
27	0x3f806e66	1.0033691
28	0x3f7e13db	0.9924905
29	0x3f8341c4	1.0254445
30	0x3f814d7d	1.0101773
31	0x3f80ec46	1.0072105
32	0x3f7d8cd6	0.99043024
33	0x3f813f24	1.0097394
34	0x3f7cfe23	0.9882528
35	0x3f829960	1.0203056

transformer.layers.0.1.norm.bias f4 [36]
0	0x3b8255c6	0.00397751
1	0xbb25bed3	-0.0025290742
2	0x3bade609	0.0053069633
3	0x3b651411	0.0034954587
4	0xbbf688ef	-0.007523648
5	0x3b7bcd5f	0.0038421971
6	0x3bf37768	0.007430006
7	0x3c918bce	0.01776686
8	0x3b248ba4	0.0025107646
9	0xbc3464cc	-0.01101036
10	0x3b9c5555	0.0047709146
11	0xbc80b182	-0.015709642
12	0xbae73230	-0.0017638858
13	0x3b60954d	0.0034268678
14	0xbbecc9ea	-0.0072262185
15	0x3bae804e	0.0053253537
16	0xbb53579f	-0.003224827
17	0xbbcb7b21	-0.0062097465
18	0x3bc0e867	0.0058870795
19	0xbc113cfb	-0.0088646365
20	0x3c33ae6f	0.010966881
21	0xbba2df08	-0.004970435
22	0xbc0daf27	-0.008647717
23	0x3ab82656	0.0014049511
24	0x3ba77d10	0.005111344
25	0xbba1059f	-0.004914
26	0xbbd8dcd6	-0.0066181226
27	0xbb22e053	-0.0024852946
28	0xbc744bb9	-0.014910632
29	0xbbbc8cc0	-0.0057540834
30	0x3bbbd546	0.0057322113
31	0xbb246455	-0.0025084217
32	0x3c6b07be	0.014345108
33	0x3be1ffb1	0.006896936
34	0x3c35c971	0.011095391
35	0x3bdc8b35	0.006730462

transformer.layers.0.1.fn.net.0.weight f4 [72, 36]
0	0xbd615967	-0.0550169
1	0xbdc82d25	-0.09774236
2	0x3ccc3ab0	0.024930328
3	0xbe0d84f6	-0.13820252
4	0x3cd468a8	0.02592881
5	0xbe052e46	-0.13005933
6	0x3e27c1eb	0.16382568
7	0xbd723f65	-0.05914249
8	0x3dc7796a	0.09739955
9	0xbe267f35	-0.16259463
10	0x3db1365f	0.086529486
11	0xbde205ab	-0.11036237
12	0x3de65036	0.11245768
13	0xbd6c7bd5	-0.057735283
14	0xbd24738b	-0.040149253
15	0x3d9e62c9	0.077336855
16	0x3ce40505	0.027834425
17	0xbdf800bd	-0.12109516
18	0xbe12c81e	-0.14334151
19	0x3da91970	0.08256805
20	0x3da500c2	0.08056785
21	0x3e00e4db	0.12587301
22	0x3dcf3bdb	0.101188384
23	0xbe0df809	-0.13864149
24	0xbdfbbf53	-0.122923516
25	0xbe02cc2c	-0.12773198
26	0x3df01d71	0.117243655
27	0xbc8804ab	-0.016603788
28	0x3d8153aa	0.06314786
29	0x3e2d30eb	0.16913192
30	0xbd8433c5	-0.06455187
31	0x3d5025fa	0.050817467
32	0xbdab8673	-0.083752535
33	0xbbb80fa4	-0.005617099
34	0x3db008f9	0.085954614
35	0x3e10d86b	0.14145057
36	0xbbc60980	-0.006043613
37	0xbe2efa1f	-0.17087601
38	0x3e052dea	0.13005796
39	0xbdbbe8a0	-0.09175229
40	0xbd7725b4	-0.06033869
41	0xbe1708b6	-0.14749417
42	0xbe046198	-0.12927854
43	0xbcabe429	-0.020982819
44	0x3cbef783	0.023311382
45	0x3db4e248	0.08832222
46	0x3dd1655e	0.102244124
47	0xbdf4a6f0	-0.11945903
48	0x3e404791	0.187773
49	0xbdcaf79e	-0.099105105
50	0x3e0d267b	0.1378421
51	0xbe017c7c	-0.12645143
52	0x3dfa46c1	0.122205265
53	0xbd624269	-0.055239115
54	0xbe046bed	-0.12931795
55	0xbe0c6de1	-0.1371379
56	0xbd952ad5	-0.0728356
57	0x3e05aa20	0.13053179
58	0x3d49b095	0.049240667
59	0xbe22dd02	-0.1590462
60	0x3cb050ef	0.021522967
61	0x3e001cc6	0.12510976
62	0xbcecf0b9	-0.02892338
63	0x3e1fc74f	0.15603374
64	0xbdfd936e	-0.123816356
65	0x3c2a93bd	0.0104112
66	0xbdaf5470	-0.08561027
67	0xbd7b292d	-0.061318565
68	0xbda235a7	-0.079203896
69	0x3dc7db18	0.09758586
70	0xbd5c5937	-0.05379602
71	0xbce84a0b	-0.028355619
72	0x3e1118a7	0.1416956
73	0x3d126769	0.03574315
74	0x3e3e850d	0.18605442
75	0x3df4e5b0	0.11957872
76	0xbcf772ee	-0.03020617
77	0x3df25c87	0.118340544
78	0x3e0f0072	0.13965014
79	0x3e134b5a	0.14384213
80	0x3d268a2a	0.040659107
81	0x3ce5e118	0.028061435
82	0xba1ceeea	-0.00059865287
83	0x3e036d94	0.1283477
84	0x3e272876	0.16324028
85	0x3e11d729	0.14242233
86	0x3e3a5ef5	0.18200286
87	0x3e15ead9	0.14640369
88	0x3db6c7ae	0.08924805
89	0xbe23af24	-0.1598478
90	0xbe1c6a50	-0.1527493
91	0xbdcbc206	-0.099491164
92	0xbdccc27c	-0.099980325
93	0x3e14b757	0.14523064
94	0x3e061547	0.13094054
95	0xbe19b138	-0.1500901
96	0xbd6d6e0a	-0.05796627
97	0xbde2f19f	-0.11081242
98	0x398ab954	0.0002645949
99	0xbcc52e2b	-0.024069866
100	0x3dfa0359	0.1220767
101	0x3dfee2dd	0.124456145
102	0x3d2cf660	0.04222715
103	0x3e00732c	0.12543935
104	0x3bc034e6	0.005865681
105	0x3e1061de	0.14099833
106	0xbe22d41c	-0.15901226
107	0x3de4387b	0.11143585
108	0xbd80105f	-0.062531225
109	0x3d0134f7	0.03154465
110	0xbc520820	-0.01281932
111	0x3d4c28c0	0.04984355
112	0xbd7e57e2	-0.06209553
113	0x3d22a646	0.039709352
114	0x3d97fbc6	0.07421069
115	0xbd21113e	-0.039323084
116	0x3d2aab0f	0.04166704
117	0xbdfeff7b	-0.12451073
118	0x3d295038	0.04133627
119	0xbdd12dbf	-0.102138035
120	0x3d822f64	0.06356695
121	0xbc0e9e2d	-0.008704704
122	0xbdb3f559	-0.08787031
123	0xbdd52668	-0.10407716
124	0xbe19170e	-0.14950201
125	0xbe20cc91	-0.15703036
126	0xbdaa50d8	-0.08316201
127	0xbc8bf8d4	-0.017086424
128	0xbc9892d7	-0.018624706
129	0xbde319ee	-0.1108893
130	0xbdf6156b	-0.12015804
131	0x3e24a55b	0.16078703
132	0x3c0d742c	0.008633655
133	0xbe14b789	-0.14523138
134	0x3884be68	6.3297164e-05
135	0xbda9b5d2	-0.082866326
136	0xbd944dfd	-0.072414376
137	0x3d1af41a	0.03783045
138	0x3e1b42b4	0.15162164
139	0x3e2935c7	0.1652442
140	0xbd895d80	-0.06707287
141	0xbd6f4ae3	-0.058421027
142	0xbdd2b58d	-0.10288534
143	0x3cf3c7b8	0.02975832
144	0xbd14a2ba	-0.036288
145	0x3bc65d7a	0.0060536237
146	0xbd5e63fc	-0.05429457
147	0xbc92d656	-0.017924469
148	0x3e0af989	0.13571753
149	0xbc4a9feb	-0.012367229
150	0xbe0fd991	-0.14047839
151	0x3dab989d	0.08378718
152	0xbdfa5901	-0.122240074
153	0xbdee6b8a	-0.11641605
154	0x39592b1f	0.00020710797
155	0xbd85119c	-0.06497499
156	0x3e154608	0.14577496
157	0x3e23b666	0.15987548
158	0x3d3620fb	0.044465046
159	0xbe097dca	-0.13426891
160	0xbd67511b	-0.056473833
161	0xbdbc3506	-0.09189801
162	0x3dd797df	0.10527014
163	0xbdd0617f	-0.10174846
164	0x3cc43227	0.023949696
165	0xbd83bfd5	-0.064330734
166	0xbdbb8e10	-0.09157956
167	0x3e0778cb	0.13229673
168	0x3e0f15b9	0.1397313
169	0xbd9f2b2e	-0.07771908
170	0x3d95f099	0.07321281
171	0x3e020cfc	0.12700266
172	0xbdbc96ae	-0.09208427
173	0x3de77e6b	0.11303409
174	0xbda3097f	-0.079607956
175	0xbe08e2c2	-0.13367751
176	0xbd51b034	-0.05119343
177	0x3d18a196	0.037263475
178	0x3e233bd4	0.15940791
179	0x3d13f964	0.03612651
180	0x3da55c13	0.080742024
181	0xbd895240	-0.06705141
182	0xbe0afc79	-0.13572873
183	0x3d812a6b	0.06306919
184	0xbcccf7f8	-0.025020584
185	0xbdd0f542	-0.10203029
186	0xbcb7b530	-0.022425264
187	0x3dca1f23	0.0986922
188	0xbc86e479	-0.016466366
189	0x3e0cd5da	0.13753453
190	0xbc6d41aa	-0.014480988
191	0xbd9ea15d	-0.07745621
192	0xbddb350b	-0.107034765
193	0x3dc4246f	0.09577262
194	0xbd274bde	-0.040843837
195	0xbe118f46	-0.1421481
196	0x3d929770	0.07157791
197	0xbe056212	-0.13025692
198	0xbe242a69	-0.16031803
199	0xbbbc62ab	-0.005749067
200	0xbdfb115c	-0.122591704
201	0x3e017e8f	0.12645935
202	0x3d8020d7	0.06256264
203	0x3dbedd3d	0.093195416
204	0xbdc7fd8d	-0.09765158
205	0xbd9b3388	-0.07578188
206	0xbd831bf9	-0.0640182
207	0x3dde918d	0.10867605
208	0x3d241297	0.04005679
209	0x3da250fb	0.07925602
210	0x3da70854	0.08155885
211	0xbd5cd4b1	-0.053913776
212	0x3dda9fa0	0.10674977
213	0xbc8b502e	-0.017006006
214	0xbca5426f	-0.02017328
215	0x3d8211b8	0.06351036
216	0x3e215dd2	0.15758446
217	0xbe0b0bc6	-0.1357871
218	0x3ccedbee	0.025251355
219	0x3d73a23f	0.0594809
220	0x3e2984e2	0.16554597
221	0xbd5a8525	-0.053349633
222	0x3dac3cb8	0.08410019
223	0xbdf2d10b	-0.11856278
224	0x3be3c107	0.006950501
225	0xbe168442	-0.1469889
226	0xbe03d0dc	-0.12872642
227	0x3e055fef	0.13024877
228	0x3dce99c1	0.1008792
229	0x3daeac52	0.08528961
230	0xbab10d55	-0.0013508002
231	0xbdc7c2fb	-0.097539864
232	0x3c3c407d	0.011489985
233	0x3e26a6a3	0.16274504
234	0x3dfd89a1	0.12379766
235	0xbd5604f6	-0.052250825
236	0x3debbe9e	0.11510967
237	0xbd4b39c9	-0.049615655
238	0xbe2af136	-0.16693577
239	0xbdde2c1b	-0.10848256
240	0x3d87c2d8	0.0662896
241	0x3e1f0783	0.15530209
242	0x3e019acf	0.12656711
243	0x3de0e7b8	0.10981697
244	0x3d62ad69	0.055341158
245	0xbd9629ed	-0.073322155
246	0x3de953a6	0.11392908
247	0xbd2b0559	-0.041753147
248	0xbde538f2	-0.11192502
249	0xbe29a36b	-0.16566245
250	0xbe0c116a	-0.13678518
251	0x3e10f418	0.14155614
252	0xbd12fa1f	-0.035883065
253	0xbadbbfa7	-0.0016765491
254	0x3dbc91a2	0.09207465
255	0xbcc696a1	-0.024241747

transformer.layers.0.1.fn.net.0.bias f4 [72]
0	0xbc037cdf	-0.008025377
1	0x3ca5f198	0.020256802
2	0x3e04be3f	0.12963198
3	0xbd58581b	-0.0528184
4	0xbc5bed8a	-0.013423333
5	0x3e2024ae	0.15638992
6	0xbdac0f4c	-0.08401355
7	0x3d8ff472	0.07029046
8	0xbd88a92e	-0.066728935
9	0x3de8eba3	0.11373069
10	0xbe075f15	-0.13219865
11	0x3db764d1	0.08954776
12	0x3e0a0448	0.13478196
13	0xbe1fae2f	-0.1559379
14	0xbd1a577b	-0.037681084
15	0xbdff8edc	-0.1247842
16	0x3e14f1ee	0.14545414
17	0x3cb937f8	0.022609696
18	0xbd4275a2	-0.047475465
19	0x3d5ea8d1	0.054360215
20	0xbdf81e27	-0.12115126
21	0xbd700ef7	-0.05860802
22	0x3e09436d	0.13404627
23	0x3ced5a1a	0.028973628
24	0xbdca6eae	-0.09884392
25	0xbc7bf4b3	-0.015378165
26	0x3cacc289	0.021088855
27	0x3e11d760	0.14242315
28	0x3c63ed08	0.013911493
29	0xbe1cbc9e	-0.15306327
30	0xbac4e539	-0.0015021927
31	0x3c6a8ead	0.014316243
32	0xbd6a0d89	-0.057141814
33	0xbba95dfb	-0.005168674
34	0xbcec1d06	-0.028822433
35	0xbdd5d893	-0.10441699
36	0xbdafb412	-0.085792676
37	0x3d8f37af	0.06993043
38	0xbd3f87b3	-0.046760272
39	0x3de89148	0.11355835
40	0x3dfe31da	0.12411852
41	0xbbaaeaf7	-0.0052159983
42	0xbd6d71a9	-0.057969723
43	0xbd907016	-0.07052629
44	0x3d9ad70a	0.07560547
45	0x3e0901e5	0.13379629
46	0xbd93612c	-0.071962684
47	0x3ce3a05e	0.02778643
48	0x3d98e120	0.07464814
49	0x3da99634	0.08280602
50	0xbe04a0f7	-0.12952028
51	0xbe2b2cc7	-0.167163
52	0xbe1abd52	-0.15111282
53	0x3bdd44e7	0.0067525986
54	0xbda18b44	-0.07887891
55	0xbb9b109a	-0.0047322037
56	0xbcab380d	-0.02090075
57	0x3cc0b493	0.023523604
58	0xbdb6d443	-0.089272045
59	0x3db44a73	0.088032626
60	0xbdb36e1b	-0.08761235
61	0xbe04d590	-0.12972093
62	0x3d07edc8	0.03318575
63	0xbddb8c79	-0.107201524
64	0x3c6c12fc	0.014408823
65	0xbe023669	-0.12716068
66	0xbd2608c8	-0.04053572
67	0xbdcbfa50	-0.09959853
68	0x3dfd0628	0.1235469
69	0xbd41fc2b	-0.047359627
70	0x3d17c200	0.037050247
71	0x3ca49409	0.02009012

transformer.layers.0.1.fn.net.3.weight f4 [36, 72]
0	0xbc343509	-0.010998973
1	0x3d9d373c	0.07676551
2	0xbcb26f17	-0.021781487
3	0x3dd57dc6	0.1042438
4	0x3dd42148	0.103579104
5	0x3d97e858	0.07417363
6	0xbd35b4b1	-0.044361774
7	0x3d6dcd54	0.058057144
8	0xbbb52df4	-0.0055291597
9	0x3dae35a8	0.08506328
10	0xbc90c1f4	-0.017670609
11	0x3d412689	0.04715589
12	0x3d6441da	0.055726863
13	0x3b75381a	0.0037417472
14	0xbd4e9941	-0.050439123
15	0xbd81f513	-0.06345572
16	0x3da1f095	0.079072155
17	0xbd84f495	-0.06491963
18	0xbcef4301	-0.029206755
19	0xbd8bd078	-0.06826872
20	0xbd87fc88	-0.066399634
21	0xbd661830	-0.05617541
22	0xbca057ff	-0.01957321
23	0x3d33243a	0.04373572
24	0x3df56e33	0.119839095
25	0xbd8ef719	-0.06980724
26	0xbd97ef51	-0.07418693
27	0xbd95772c	-0.07298121
28	0xbced71d4	-0.028984942
29	0xbd08ffa8	-0.033446938
30	0xbd5812e1	-0.05275238
31	0xbcb08810	-0.021549255
32	0x3cfd4b64	0.030919738
33	0xbd33c8ba	-0.0438926
34	0x3daa3709	0.083112784
35	0xbdf9196c	-0.12163052
36	0xbd1f4e08	-0.038892776
37	0xbcec5de9	-0.028853374
38	0xbc56e724	-0.013116632
39	0x3d5158a0	0.05110991
40	0xbb5b15b6	-0.0033429689
41	0x3ddf55ae	0.10905014
42	0xbc690884	-0.014223222
43	0xbc8407e8	-0.016117051
44	0xbce9d970	-0.028546065
45	0xbdb35f98	-0.087584674
46	0x3d3bd2ab	0.045855206
47	0xba859333	-0.0010190964
48	0x3c034d3b	0.008014019
49	0xbdae3801	-0.08506776
50	0x3d6de7d1	0.058082405
51	0x3de786da	0.11305018
52	0xbd8a5eef	-0.067563884
53	0x3d54d0fc	0.051957116
54	0xbbc94f57	-0.0061434912
55	0x3c8c685a	0.017139602
56	0x3d89170b	0.06693848
57	0x3d8feb48	0.07027298
58	0x3ddeba6b	0.108754
59	0x3d976646	0.07392554
60	0x3db1b29b	0.086766444
61	0xbdb054e4	-0.086099416
62	0xbdcd2400	-0.10016632
63	0x3c204769	0.0097826505
64	0xbdefc2c5	-0.11707071
65	0xbc6599a0	-0.014013678
66	0xbd656af1	-0.05601019
67	0x3cb4fa5d	0.022092039
68	0xbd069862	-0.032860167
69	0xbc8261d8	-0.015915796
70	0x3da8ca98	0.08241767
71	0xbd465429	-0.048420105
72	0x3d7a92aa	0.061175026
73	0x3dab5243	0.083652996
74	0x3b87456f	0.00412815
75	0xbdde0aff	-0.10841941
76	0x3cc1a8db	0.023640087
77	0xbd7ba3d3	-0.06143553
78	0xbcdc8ace	-0.026921656
79	0x3bfe629a	0.007763219
80	0xbd85de99	-0.06536598
81	0x3d5af909	0.053460155
82	0x3ce3d578	0.02781175
83	0x3dd668cb	0.104692064
84	0xbdb129e4	-0.08650568
85	0xbd90a14e	-0.070620164
86	0x3d1aad7e	0.03776311
87	0x3dd36eab	0.103238426
88	0x3d780eda	0.06056104
89	0x3d8492e7	0.06473332
90	0xbd6b0cee	-0.057385378
91	0x3d93b7f0	0.07212818
92	0xbd9cc607	-0.07654958
93	0x3dd182e4	0.102300435
94	0x3d373073	0.04472394
95	0x3d9cf196	0.07663266
96	0xbe0bacfa	-0.13640204
97	0x3dfe1d37	0.12407916
98	0xbd083b63	-0.03325976
99	0x3dcd970a	0.10038574
100	0x3dd8436d	0.105597354
101	0x3db48644	0.08814672
102	0x3cc47e4b	0.023986002
103	0x3d22b794	0.039725855
104	0xbcbd50a7	-0.023109747
105	0x3dd1a481	0.10236455
106	0x3ddbef3a	0.10738988
107	0x3caeafcd	0.021324063
108	0xbd9d0f86	-0.076689765
109	0xbd9cc9e7	-0.07655697
110	0x3d466147	0.048432615
111	0x3cf712db	0.030160358
112	0xbbcec53a	-0.0063101323
113	0xbdd3d0bc	-0.10342547
114	0x3bfd819b	0.0077363974
115	0x3d0e25a2	0.03470386
116	0xbdc82c94	-0.097741276
117	0x3cc3759f	0.023859797
118	0xbd69bedc	-0.057066783
119	0x3dc7f3bd	0.09763286
120	0xbdd79e03	-0.10528185
121	0x3db054d5	0.086099304
122	0x3d25daa4	0.040491715
123	0xbdcd236d	-0.100165226
124	0x3d0878e4	0.033318415
125	0xbe0317f1	-0.12802102
126	0x3dbe6326	0.09296255
127	0xbc08ba16	-0.008345148
128	0xbd9550e3	-0.072908185
129	0xbcfa9a3a	-0.03059112
130	0x3dae9f9c	0.08526537
131	0x3d237a74	0.039911702
132	0x3dfb9e09	0.12286002
133	0x3dc9c2f4	0.098516375
134	0x3c1ef7f0	0.009702668
135	0xbe047210	-0.12934136
136	0x3cac6821	0.021045746
137	0x3db1a217	0.08673494
138	0xbd832bed	-0.064048626
139	0x3cebd209	0.028786676
140	0xbdba54d1	-0.09098209
141	0xbe079011	-0.1323855
142	0xbabb136f	-0.001427276
143	0xbd8b9378	-0.06815237
144	0xbdec63fa	-0.115425065
145	0x3d6f82d1	0.058474366
146	0x3dd07476	0.10178463
147	0x3cf4c3df	0.029878555
148	0xbdc5fa56	-0.096668884
149	0x3cf881a2	0.030335251
150	0xbdede620	-0.116161585
151	0x3c8345e7	0.016024543
152	0x3ddaa62e	0.106762275
153	0x3d99ad8a	0.07503803
154	0x3dc4832b	0.09595331
155	0xbdfa062d	-0.12208209
156	0x3de8b3a4	0.11362389
157	0x3dcbbf5a	0.09948607
158	0x3d0cd9e0	0.03438747
159	0xbd6a57ee	-0.057212763
160	0xbd249dc3	-0.040189516
161	0xbd074156	-0.033021294
162	0xbd131d28	-0.035916477
163	0x3ca38250	0.019959599
164	0x3dcd43fb	0.10022732
165	0x3dd0a9d2	0.10188641
166	0xba6bea4e	-0.00089994527
167	0x3db83fa9	0.08996517
168	0xbddf90d2	-0.10916294
169	0xbdc6deac	-0.0971044
170	0xbda1c98d	-0.07899771
171	0x3dd3460e	0.10316096
172	0x3d482ba1	0.048869733
173	0xbd95505e	-0.072907194
174	0xbde2f0ae	-0.11081062
175	0x3dd6610f	0.10467731
176	0xbcadeeb1	-0.021231981
177	0xbdb596d7	-0.08866661
178	0xbccf1586	-0.025278818
179	0xbd9108d3	-0.07081761
180	0x3c152187	0.009102232
181	0xbda1e338	-0.07904667
182	0xbd08b2bd	-0.033373583
183	0xbc98c3e5	-0.018648097
184	0x3cddfbea	0.027097661
185	0xbdfb4460	-0.12268901
186	0xbb52866e	-0.0032123583
187	0xbe00b36d	-0.12568446
188	0x3d5febb3	0.05466814
189	0x3d9bf370	0.076147914
190	0x3cbaa864	0.022785373
191	0xbd8e5bfa	-0.06951137
192	0xbddfdb33	-0.10930481
193	0xbc354694	-0.01106419
194	0x3d8f36c2	0.06992866
195	0x3da98bb5	0.082786
196	0xbc7600cd	-0.015014839
197	0xbd9ac7a3	-0.07557609
198	0x3dfa8146	0.12231688
199	0xbd70394f	-0.058648404
200	0xbccacf29	-0.024756985
201	0x3cdb663d	0.02678215
202	0xbcbcebac	-0.023061596
203	0x3deac923	0.11464145
204	0x3dbdd6f7	0.09269517
205	0xbcd4904f	-0.025947718
206	0xbd16cf03	-0.036818516
207	0x3cd9f8f7	0.026607974
208	0xbd136ac3	-0.035990488
209	0xbdc1f71a	-0.09470959
210	0x3d9fbf3e	0.078001484
211	0xbc5eb85b	-0.013593758
212	0x3c8bbc3e	0.017057534
213	0xbd81f7c5	-0.063460864
214	0x3c835b9d	0.016034896
215	0x3e105392	0.1409438
216	0xbde59f1a	-0.11211987
217	0xbd4f65ed	-0.050634313
218	0xbd205253	-0.03914101
219	0x3d78674f	0.060645398
220	0xbdd162b0	-0.10223901
221	0x3deb58e4	0.11491564
222	0x3d481687	0.04884961
223	0xbd1c84cb	-0.03821258
224	0xbca46518	-0.020067737
225	0x3c457f4a	0.012054274
226	0xbd856b76	-0.06514637
227	0x3df655c6	0.12028079
228	0x3c817ff6	0.015808087
229	0x3d997285	0.07492546
230	0xbd6cdd88	-0.057828456
231	0xbd98e712	-0.07465948
232	0x3da12220	0.07867837
233	0xbdce34c7	-0.1006866
234	0xbdd69d91	-0.10479272
235	0xbddc00ca	-0.10742338
236	0x3ca2c113	0.019867456
237	0x3cd11911	0.025524648
238	0xbd8e6e91	-0.069546826
239	0xbdd1ad83	-0.10238173
240	0xbdc1e16e	-0.094668254
241	0x3df684e8	0.120370686
242	0x3c414a1b	0.011797453
243	0xbdd836a5	-0.105572976
244	0x3d27ce28	0.04096809
245	0x3d82a65f	0.06379389
246	0xbd83673b	-0.06416174
247	0x3cd21dcb	0.025648972
248	0xba946bf9	-0.0011323682
249	0x3cd98c51	0.026556166
250	0xbdfe5e78	-0.12420362
251	0x3e01bfa2	0.12670758
252	0x3da635b8	0.08115715
253	0xbd1236fa	-0.03569696
254	0xbd9f4911	-0.07777608
255	0xbd557bb5	-0.05211993

transformer.layers.0.1.fn.net.3.bias f4 [36]
0	0x3a712621	0.0009199102
1	0xbdadffc3	-0.08496048
2	0xbd458be6	-0.04822912
3	0xbd59a34b	-0.053134244
4	0xbdd88c19	-0.105735965
5	0xbc83b1b4	-0.016075946
6	0xbcc85559	-0.02445476
7	0xba726f75	-0.0009248176
8	0x3d74f3df	0.059802886
9	0x3d93b884	0.07212928
10	0xbd9e9e57	-0.07745045
11	0x3dad74b8	0.08469528
12	0xbd92e15c	-0.0717189
13	0x3d84a92b	0.06477579
14	0xbdc9245f	-0.0982139
15	0x3d289191	0.041154448
16	0xbdd738f2	-0.10508908
17	0xbdda61b1	-0.106631644
18	0xbb0fe078	-0.0021953862
19	0x3d6f3053	0.058395695
20	0xbd16be56	-0.036802612
21	0x3dcf8cf5	0.10134307
22	0xbddb4693	-0.1070682
23	0xbd921108	-0.07132155
24	0x3dd611ff	0.10452651
25	0xbda0480b	-0.07826241
26	0xbcbaba94	-0.022794046
27	0xbdabb3af	-0.08383881
28	0xbca5f3e6	-0.020257901
29	0x3cbd0c0b	0.023077032
30	0x3ddec7a3	0.108779214
31	0xbd3e3f52	-0.046447106
32	0x3d503f33	0.05084152
33	0xbd35b4da	-0.044361927
34	0xbda9e043	-0.08294728
35	0xbd86f5c6	-0.06589846
