ViT/ViT1/6 V train 0.992 V test 0.895 GELU 2/model_bestQ.pt (torch, 414407 bytes, 74 tensors)

pos_embedding f4 [1, 19, 36]
00000000: 6c10 7dbf 9d4f 3e3f 5f62 fb3e 0535 87bf
00000010: 0ca4 133e aa48 1a40 f265 7a3f b481 9abe
00000020: c6bf 84bf 7256 31be c221 af3f 9f9f 363f
00000030: 5cbc b1bf d8d3 a6bf 2320 853e 5ecc d83f
00000040: 8d6d a2be 927c 0540 d8bc 4e3f 04af 45c0
00000050: c09a 1a3f 97bf cfbd bf9e 903d 6832 f9bf
00000060: 9394 ed3e e3e6 863f af54 63bf d44d 7cbf
00000070: a47c 143f 170a 7540 8b31 87be f63b d43f
00000080: fecb 6dbf 5e47 6b3d 5cf2 2b3f 6c5d 06c0
00000090: 1e7b 613f 3884 5abf ee63 edbf 8087 88bf
000000a0: 8df3 1ac0 f5d9 b2be a9bd cdbe 9490 533f
000000b0: 07ac 7140 34c8 0ac0 c65c 6abf b78a 8f3f
000000c0: 3536 2940 5892 07c0 b548 c2bf f6c4 afbf
000000d0: eafc 8c3f 2f36 2040 f040 1040 1fdb 2340
000000e0: db64 a83f c987 08c0 5c75 e43f 81cb e7bf
000000f0: 287f 2940 52d8 6e40 8e89 cbbf d513 863f
00000100: e8bb 9a3e aa97 c4be f1ff 283f 634c 48bf
00000110: 8885 92be 0732 eebf 5bd9 b63f 1f07 8ebe
00000120: e155 0a3f 5d0e c93f 4646 8dbf 06e2 133f
00000130: d3b7 b4be 0b3f 0740 9f65 4340 7121 6cbe
00000140: e049 3b40 c89f 00c0 6893 1840 1a9c 383f
00000150: 2b79 bdbf 236f 0ebf dd2e 3e3e 4180 d8bf
00000160: 0738 5cbe 813c d7be e948 acbf 54c9 dc3f
00000170: b683 f7be 6bb8 973f 06dc 483f d91c 64c0
00000180: 3847 b8bf bd1a 11bf fc65 cebf cead dcbf
00000190: 22b3 873e 97f4 d2bf 2731 a0bf 29df d4bf
000001a0: bbb0 1140 7bba 0bc0 b84d 7bbf 5083 1e3f
000001b0: d744 a8bf 2ab2 a43f ebee 75c0 3533 acbf
000001c0: 09db b13e cf79 273a 8be4 543f d3bb a73e
000001d0: fea2 28bf 6cd8 953f 85d0 333f 6556 813d
000001e0: c2a5 e8be 0b16 bcbf fae4 4dbf f346 e43e
000001f0: f5df 1e40 b8b3 1040 80b1 44bf b616 90be
00000200: 8740 e43f 40b7 f43f 18a1 afbf 2cef d53f
00000210: 1d0f 8b3e c7a6 0c3e e080 dbbe 7fd4 e7be
00000220: 4e53 e3bf 8032 26bf d69a 453f 0724 2e3e
00000230: bdbf c6be 2061 c63d 6052 4ac0 be78 263c
00000240: 1730 40c0 3c14 463f 4ad2 a8bf 0246 b53f
00000250: 1c8b 833f 9a1d 8a3f afea 333e fd8e 0ac0
00000260: a513 163d 8476 363f 7153 c2bf 16e1 b43e
00000270: 7a38 283f 91a0 0f40 1a8d 2540 fa42 fdbe
00000280: ceb6 a6bf 5a5e 4fc0 4171 ee3e dd6e bd3e
00000290: 6994 0b3f c924 133f 25a6 65bf b619 c7bf
000002a0: f3f1 83bf 4f8a 4dbf 0350 fb3f f65b cd3f
000002b0: 882c 7e3f 1233 f1bf 3a85 8a3f b40c 3f3e
000002c0: 165c 5dbf 8f7c d5be 4f63 353d c105 f8bf
000002d0: eec5 5b3f 9812 433f 137f 843e e4d5 fb3f
000002e0: 3689 b8bf f21a 8c3e 7ca4 dabf 92e3 1c3f
000002f0: 2897 c53f d402 403e 15f7 903f ec1f 23bc
00000300: 16fe 1fc0 d0fa 6a3f 638f 08bf 9e93 33bf
00000310: 3912 fe3e 3d13 323f a2b7 bdbf a52f 2a3f
00000320: 9775 e83f afed 0a40 be7b 1bc0 454e 8cbf
00000330: 2f07 0740 5f15 e63f cbaf 013f 7dcd 2a40
00000340: c16b 0fbf 4577 a3bf e500 1940 5996 0740
00000350: 4411 4cbf 2e32 aebf 1658 5c3d 4ac0 b5be
00000360: 87a7 0b40 7d66 d23f 31f2 73bf 71c9 49be
00000370: 0131 0bc0 2879 13bf 4878 76bf 412e babe
00000380: 0fad c33f 5086 8e3f 5f5c c8bf 2ce9 1440
00000390: 40ba 563f da2b 0e3f ef45 b5bf fbf3 82be
000003a0: 6ad8 993f cd64 0bbf cd39 583f 53c2 e3bf
000003b0: 3fe3 52c0 3aba ae3e b6ed 08c0 3e6d d5bf
000003c0: 5e11 083e 0854 2d40 a9a0 9d3f 8b1b 0d40
000003d0: 65fc 0740 9da0 0bc0 f809 323f 46c2 edbf
000003e0: a827 eb3f 28f4 fbbf b736 10bf b519 f0bf
000003f0: be22 8140 1814 a33f a3ba 25bf e276 edbe
-0.9885318 0.7434023 0.4909849 -1.0563055 0.14418048 2.410685 0.97811806 -0.3017708
-1.0371025 -0.17318133 1.3682177 0.7133731 -1.3885608 -1.30334 0.2600108 1.6937368
-0.31724206 2.0857282 0.807569 -3.088807 0.6039238 -0.10143965 0.070615284 -1.9468508
0.46402416 1.0539211 -0.8880109 -0.98556256 0.58002687 3.8287408 -0.26404986 1.6580799
-0.9288939 0.057441108 0.67166686 -2.099452 0.88078487 -0.85358 -1.8546121 -1.0666351
-2.4211152 -0.34931913 -0.40183762 0.82642484 3.7761247 -2.1684694 -0.9154781 1.1214207
2.6439335 -2.118307 -1.5178438 -1.3731983 1.1014683 2.503307 2.2539635 2.560249
1.3155779 -2.1332877 1.7848315 -1.810898 2.648386 3.7319531 -1.5901353 1.0474802
0.30221486 -0.3839696 0.66015536 -0.78241557 -0.286175 -1.8609017 1.4285082 -0.27739808
0.5403729 1.5707508 -1.1037071 0.5776676 -0.35296497 2.1132228 3.0530775 -0.23059632
2.926384 -2.0097523 2.383997 0.7211319 -1.4802603 -0.5563833 0.18572564 -1.691414
-0.21505748 -0.42038348 -1.345975 1.724894 -0.48342675 1.1853155 0.7846073 -3.5642607
-1.4396734 -0.56681424 -1.6124873 -1.7240541 0.26503855 -1.6480893 -1.2515 -1.6630603
2.2764118 -2.1832569 -0.98165464 0.61919117 -1.3146008 1.2866871 -3.8427074 -1.3453127
0.34737423 0.00063886953 0.8316123 0.32760486 -0.65873706 1.1706672 0.7024005 0.063153066
-0.45438963 -1.4694227 -0.80427516 0.4458538 2.4824193 2.2609692 -0.76833344 -0.28142327
1.7832192 1.9118423 -1.3721037 1.6713614 0.27159968 0.13735496 -0.4287176 -0.4527931
-1.7759798 -0.64920807 0.77189386 0.17005931 -0.3881816 0.09686494 -3.1612778 0.010160623
-3.0029352 0.77374625 -1.3189175 1.416199 1.0276828 1.0790284 0.17569993 -2.1649773
0.03663983 0.7127459 -1.5181714 0.35327977 0.65711176 2.2441752 2.5867372 -0.49465162
-1.3024538 -3.2401338 0.4657078 0.36998644 0.5452333 0.57478005 -0.8970664 -1.5554721
-1.0308212 -0.8028917 1.9633793 1.6043689 0.992867 -1.884371 1.0821908 0.1865719
-0.86468637 -0.41696593 0.04428416 -1.9376756 0.8584889 0.76200247 0.258782 1.9674649
-1.4416873 0.27364308 -1.7081447 0.61284745 1.5436754 0.18751079 1.1325403 -0.009956341
-2.4998832 0.9178896 -0.5334379 -0.7014712 0.49623278 0.69560605 -1.4821665 0.6647895
1.8160886 2.170757 -2.4294276 -1.0961386 2.1098135 1.7975272 0.50658864 2.668792
-0.56023794 -1.2770773 2.3906796 2.1185515 -0.79713845 -1.3609064 0.053794943 -0.35498267
2.1821 1.6437527 -0.9529143 -0.1970575 -2.174866 -0.57606745 -0.96277285 -0.36363414
1.5287188 1.1134739 -1.565319 2.3267317 0.83877945 0.5553566 -1.4161967 -0.25576767
1.2019169 -0.54450685 0.84463197 -1.7793678 -3.29512 0.34126455 -2.1395087 -1.6673963
0.13287875 2.7082539 1.2314655 2.204806 2.12478 -2.181678 0.6954646 -1.8574913
1.8371477 -1.9683886 -0.5633349 -1.8757845 4.035491 1.2740507 -0.6473791 -0.46379763

cls_token f4 [1, 1, 36]
00000000: 6553 cabd 96f2 df3e d4f1 b8bf f9ce e33e
00000010: b5dc a33f d171 85bf 9e92 3d40 6082 13c0
00000020: 10b4 303f 6692 02bf 2563 0940 a38a eb3d
00000030: 0570 08c0 4499 02c0 3a68 e6be 1a2d 763f
00000040: bb43 1ec0 9b10 cd3f 5a9d 5e3f 890c fdbf
00000050: 570c 3840 a186 cd3f e924 9fbf 4cc2 debf
00000060: 091b 07be 35c9 41bf 6415 91bf f81b efbf
00000070: 2ed8 66bf 1d46 833f 5436 9dbf 0b09 d23f
00000080: f2f6 6ebf e022 203f 1379 01c0 170b 8fbf
-0.098791875 0.43739766 -1.44488 0.44493845 1.280173 -1.0425359 2.9620738 -2.3048325
0.69024754 -0.51004636 2.1466763 0.11501052 -2.1318371 -2.0406046 -0.45001394 0.9616257
-2.472884 1.6020693 0.8695885 -1.976945 2.8757532 1.605671 -1.2433139 -1.7403045
-0.13193907 -0.7569764 -1.1334653 -1.868041 -0.90173614 1.0255772 -1.2282205 1.640901
-0.9334556 0.62553215 -2.0230148 -1.1175259

to_patch_embedding.1.weight f4 [36, 12]
00000000: 42c6 03bf 0c9e b63d 5a74 063f f159 61bf
00000010: 0912 8bbe 2721 b73e 0847 58be 6344 4dbf
00000020: 06d3 c0be 4ad0 15be a77c 58be abc2 09bf
00000030: bf20 efbd d9e1 96be 3475 cbbe f9fb 1cbe
00000040: 19b5 8abe 11f7 87be 30f2 3a3f 418c 0d3f
00000050: 59cf 0cbf c377 ecbd 2504 cebd ba8b bfbe
00000060: fdc2 513e 057b 1bbf 36ca ae3d 3f13 e53e
00000070: 3711 9a3b ec5a 103f 97b4 ffbe ca24 eabd
00000080: 8f35 29bd 0f5f 3d3e 23f5 c3be e377 e13c
00000090: 8c9b 0a3e a464 cb3c 6029 78be da2b 843f
000000a0: bb4b 553d 3d91 793e a48d b4be 71fc 4bbe
000000b0: bf22 b33d 30de 083f f3ff 533f decc 213e
000000c0: 6254 233f 8e63 1a3e 2e9f 233e b624 d4be
000000d0: a098 1a3f a998 f63c e5f1 263f 2978 71bf
000000e0: ba6b fb3d ed8f 23bf 16e4 b43f fcac e73e
000000f0: 92ca 1fbf b352 d0be a341 c43d ed4d c03e
00000100: 1501 06bf 690f 003f 6102 87bf 9e64 2dbe
00000110: d1ee e13b 01fc 0ebf 832f 9d3e 69b2 b73e
00000120: c9b3 b9bc 0240 62be 57a1 61bd 4a9b 24b9
00000130: 6519 3dbe f062 5ebe 167a 72bf 71c3 b33f
00000140: 44b8 083f 918b 9cbf 333f 76be 5064 033f
00000150: 7564 d33e 0a0e 1d3d 860e 1ebf ab1c 683e
00000160: c584 6ebc e7a5 1abf bf70 0c3e 9327 69bf
00000170: 1490 d1be a5c6 ca3c 332e 8d3e e8f6 0ebf
00000180: 0f16 313f b010 39be 6637 cb3e 51ab 2fbf
00000190: 96cf 83be 6cd6 5c3e b088 2c3e 50c1 73be
000001a0: 353c 853e d87c af3f dbc4 96be e3b9 b13e
000001b0: 0d9d 35bf e7ef 22bd 0b6e 6f3e 9d04 fbbd
000001c0: 6af6 123e b76d db3e 49f7 c6be 1ee7 2a3d
000001d0: 49eb e43e 754b eebe 210a 28bc 49b7 103f
000001e0: d1ec c73d f533 91be 9a55 76bc 6395 4e3f
000001f0: bd77 c6be ad38 aa3e 8b2a dfbd 9524 2ebf
00000200: 55ce 46be bbf4 803f 2e42 c13e 0390 3fbe
00000210: 3707 e1be df7d cb3e afdd 3cbf f5e2 b4be
00000220: f2b5 cf3d 4e89 1abf 64ce 213f 2bac 143f
00000230: ff05 d33e b2d1 c9be 3126 533f f6fd a63e
00000240: 655e 96be b004 b03d 0519 903e bcfc 023e
00000250: 93d2 e03c ae4a a03e 56b0 153f a618 e03e
00000260: 2419 cd3e 095f 5fbd 338d 0d3f 39fa 683e
00000270: 462c cc3e 49e7 d2be e57b 06bf 53b1 a0be
00000280: 58fa 4d3e 860c 01bd c644 d9be a05e 2bbf
00000290: c191 51bd bf86 6cbf 1f20 aa3c e68e bd3d
000002a0: 8a78 2fbf a11e 993e 76f7 253e 3ba6 4bbe
000002b0: b9d2 e43d ccff 06bf 24fa 4c3e 55be ed3e
000002c0: 3a65 bc3e 3737 183f 5751 babe 6c74 ea3d
000002d0: 2cfa ac3b 7a61 243f 742e e8be 230c bd3e
000002e0: 1023 70be 4a67 68bf 28e6 5abf 0fa3 c03f
000002f0: b4d6 353f 5037 d7be d0fc 2a3f 333f 1a3f
00000300: 7cf4 a7bf 11be 9f3e 372a f13e 69de 15be
00000310: ea44 453e 831b c93e 1449 b4bf cf4a b5bf
00000320: f0f4 9fbe 0c60 afbc 22af 873e 2db4 f6bc
00000330: 04a1 b8be c9d6 1abf 56df 0ebf 48ec 78bf
00000340: 2273 89be f36e c3be d599 80bf d365 0e3f
00000350: 5501 0d3f e0dd c83e ee64 783f d641 143f
00000360: 8a6f c1be cee6 41be 62be 2dbe 0324 0e3f
00000370: ad7c 26bf e61c f73c 0de8 463f 64b2 7cbf
00000380: ffab 10be 4f52 76be d3cf f33d 7836 ccbe
00000390: 2056 60be 261a b93e eaaf c13e 7ea1 8bbe
000003a0: 7ba5 9abe bf47 1b3f 2065 ac3f ef4d 40be
000003b0: 1963 38be 2ed7 f23e dbf2 6a3e edde d7be
000003c0: 9ab6 683e 9258 39bf d661 283f 0100 1bbf
000003d0: b269 7d3e a00c eb3d 14f6 a13f 5c47 e3be
000003e0: ac5d 94be 743b b13e d343 c9bb 6499 94be
000003f0: 6cd5 593f 6703 b1bd 112b dfbe a593 3b3f
-0.5147439 0.08916864 0.5252129 -0.88027865 -0.27162197 0.3576748 -0.21120846 -0.80182475
-0.37660998 -0.14630237 -0.21141301 -0.53812665 -0.11676168 -0.29469183 -0.39737856 -0.15330495
-0.27091292 -0.26555684 0.730258 0.55292135 -0.5500389 -0.1154628 -0.10059384 -0.3741129
0.20484538 -0.6073459 0.085346624 0.44741246 0.004701759 0.56388736 -0.49942467 -0.11432798
-0.041310843 0.18493293 -0.38272962 0.027522987 0.13535899 0.024828263 -0.24234533 1.0325882
0.052074175 0.2437181 -0.35264313 -0.19920518 0.08746862 0.5346403 0.8281242 0.15800807
0.6380063 0.1507704 0.15978691 -0.41434258 0.6038914 0.03010209 0.6521285 -0.94323975
0.122764066 -0.6389149 1.4132106 0.45249164 -0.6241847 -0.40688094 0.09582832 0.37559453
-0.523454 0.50023514 -1.0547601 -0.16932914 0.006894924 -0.5585328 0.3070031 0.35878304
-0.022668736 -0.2209473 -0.055085506 -0.00015698108 -0.18466718 -0.21717429 -0.9471754 1.4044019
0.5340617 -1.2230092 -0.24047546 0.5132494 0.4128758 0.038343467 -0.6174091 0.22667186
-0.014558022 -0.60409397 0.13714884 -0.9107601 -0.40930235 0.024752924 0.2757431 -0.558455
0.69174284 -0.18072772 0.39690703 -0.68620783 -0.25744313 0.2156617 0.16849017 -0.23804212
0.26022497 1.3709974 -0.29447064 0.34712133 -0.70942765 -0.03977957 0.23381822 -0.12256739
0.14351812 0.42857143 -0.3886054 0.041724317 0.44710758 -0.46541944 -0.010256321 0.5652967
0.09761966 -0.28359953 -0.015035057 0.80696696 -0.38763228 0.33246365 -0.10896786 -0.6802457
-0.19414647 1.0074686 0.37745804 -0.1870728 -0.43950817 0.3974447 -0.7377576 -0.35329404
0.10142125 -0.6036576 0.6320555 0.5807521 0.41215512 -0.39417797 0.8248015 0.32615632
-0.29368892 0.08594644 0.28144088 0.12791723 0.02744416 0.31306976 0.5847219 0.43768805
0.40058243 -0.054533992 0.5529358 0.22751702 0.39877528 -0.41192082 -0.525328 -0.31385288
0.2011503 -0.031506084 -0.42435282 -0.6694126 -0.051164392 -0.92393106 0.02076727 0.09255771
-0.68543303 0.2990618 0.1620768 -0.1988763 0.11173005 -0.52734065 0.20017296 0.46434274
0.3679598 0.5945925 -0.36390182 0.11447987 0.0052788462 0.6421124 -0.4534794 0.36923322
-0.23450875 -0.90782607 -0.8550744 1.5049762 0.71030736 -0.42034388 0.6679201 0.60252684
-1.3121486 0.31199697 0.4710252 -0.14635624 0.1926457 0.39278802 -1.4084802 -1.4163455
-0.3124156 -0.021408103 0.26500803 -0.030115211 -0.36060345 -0.60483986 -0.55809534 -0.97235537
-0.26845652 -0.38170585 -1.0046946 0.5562412 0.5508016 0.39231777 0.97029006 0.5791296
-0.3778041 -0.18935701 -0.16967157 0.555237 -0.6503399 0.030165147 0.7769783 -0.987097
-0.14128111 -0.24054836 0.11904874 -0.39885306 -0.21907854 0.36152762 0.37829524 -0.27271646
-0.30204377 0.6065635 1.3468361 -0.1877973 -0.18006553 0.47429794 0.22944205 -0.42162266
0.22725907 -0.7240077 0.65774286 -0.6054688 0.24747351 0.114770174 1.2653222 -0.4439038
-0.28977716 0.34615672 -0.0061421185 -0.29023278 0.8509128 -0.08643227 -0.43587545 0.7327216

to_patch_embedding.1.bias f4 [36]
00000000: 180d 5e3f 40b1 503f cf83 87bf d5a6 cebe
00000010: ed10 31bf b932 bebe 97ab 43bf d7de 2d3f
00000020: 3969 d93d fbeb 1bbc 813b a5bf 1c7e aa3e
00000030: aa33 3ebf f35b 023e f650 013f 3ce4 c33f
00000040: c05f 693e a1fa a93f 9d9f e03d b98a a6be
00000050: cf80 f03e e08c 8a3f 03fe 90be b40a ffbf
00000060: c36f 033f 7571 6b3d 6a86 80be 62fc 823f
00000070: c9ce e23b 526c b9be dc4a fc3e 5ff8 33be
00000080: 8933 e23e 9fc3 1dbe 02bb 82bf c946 2fbf
0.8673873 0.8152046 -1.05871 -0.40361658 -0.6916645 -0.37148073 -0.764337 0.6791815
0.10615773 -0.009516711 -1.2908784 0.3329934 -0.74297583 0.12730388 0.5051416 1.5304027
0.22790432 1.3279611 0.10967944 -0.32527712 0.46973273 1.0824242 -0.28318796 -1.9925141
0.5134241 0.057481248 -0.2510255 1.0233271 0.0069216234 -0.36215454 0.49275863 -0.17575215
0.44179943 -0.15406655 -1.021332 -0.68467385

transformer.layers.0.0.norm.weight f4 [36]
00000000: 8180 073f 4ad3 3f3f 7a93 133f 50eb 203f
00000010: fbee 093f 36aa 013f 9a2a b03e 57b0 073f
00000020: 796c f83e 0ec0 1a3f 3329 063e 897e 043f
00000030: 680b d33e 2226 d83e 1fcd d93e f641 c73e
00000040: 94b5 8f3e 7994 a03e fd46 f43e 4d5e 183e
00000050: de2f 6a3e 32c1 9f3e 1a8f af3e 0b1e a73e
00000060: 900e df3e 8f08 bd3e aad6 c53e 4b3a ca3e
00000070: 2024 d63e 1cca b23e e846 603f e70e ba3e
00000080: 7d96 2f3f 0aff a43e 0220 1a3f 998f 193f
0.52930456 0.74931777 0.57646906 0.6285906 0.5388028 0.50650346 0.34407502 0.5300345
0.48520258 0.604493 0.13101654 0.5175558 0.4121964 0.42216593 0.42539307 0.38917512
0.2806822 0.31363276 0.4771041 0.14879723 0.22869822 0.31202084 0.34288865 0.32640108
0.43565798 0.36920592 0.38640338 0.394976 0.41824436 0.34919822 0.87608194 0.36339495
0.68589 0.3222583 0.6020509 0.5998474

transformer.layers.0.0.norm.bias f4 [36]
00000000: f6db 97bc 03dd 1f3c 36ac 353e 757f 903e
00000010: 7fbc 2ebd 1325 84bd f3b6 133e 7b07 5abc
00000020: 0269 703d c7b1 81be 0d2d 9e3d a255 d23d
00000030: 6f55 0a3d 0383 653e 17e7 81bd f561 14be
00000040: db5b 99bd 0490 61be 42dc 3b3d 3fa2 5c3c
00000050: 3820 f0bd 49ca 27be d161 103d c3a0 b73e
00000060: a98a aebd d55f 9ebd 2b8a 6cbd 0982 afbd
00000070: 6c3c 10be 34d6 c33d 2e7d 963d ce93 e93c
00000080: 4129 2dbd 80bf 04be 9efc 923e c8ff 603e
-0.018537503 0.009757283 0.17741475 0.28222242 -0.042660233 -0.06452384 0.14425258 -0.013307448
0.058693893 -0.25330946 0.077234365 0.102702394 0.033772882 0.22413258 -0.06342905 -0.14490493
-0.07488223 -0.22027594 0.04586435 0.013466417 -0.11724895 -0.1638576 0.035249535 0.3586484
-0.08522541 -0.07733122 -0.057748955 -0.08569724 -0.14085549 0.095623404 0.07348095 0.028512862
-0.04227567 -0.12963676 0.28708357 0.21972573

transformer.layers.0.0.fn.to_qkv.weight f4 [216, 36]
00000000: e16f b9be 4877 36bd 95fe 72be 19d8 d1bd
00000010: 92cd c6bd 9fd9 de3e 5326 153f 8902 1bbc
00000020: 7103 7d3f 0624 89be 1323 cd3e ea9b 32bf
00000030: cd5d 853e 6fc1 f3be 0255 88be 2c89 58bf
00000040: 967a a0be 2f02 53bf 97d4 adbe 777c ab3e
00000050: dd56 9c3f 7e53 843f d833 94bf f871 f93e
00000060: 09b9 c53e c91e 2f3f 623e d33d 2490 31bf
00000070: efaf 61bc 6366 b93e ff6c 693c dc3e 0e3f
00000080: 3060 adbe 29eb 6dbf 416c c13e 6425 68be
00000090: 160a b5be c6f9 643f abc6 8c3e b61e 8a3f
000000a0: f3ff 003c 0a58 1abe ac68 073f ea6a 3bbf
000000b0: 1e22 22be cfac 46be 80cc 0b3f 4e70 523f
000000c0: fbf6 60bf 7cab 7e3e b434 6dbe e58f fe3e
000000d0: a62f d2be 9fe6 9b3f 3eaf 6f3f 1e99 70be
000000e0: f930 153e 92bf 13bf 6649 623d eb76 6bbf
000000f0: a72a f6bd a277 533e f80e 04bf 37b2 473e
00000100: 5ec3 10bf 25e0 15be 31a4 f73d 6b11 3d3e
00000110: 0f8a 103d 61d1 fdbe 894e 7a3e 140c febe
00000120: bf45 a3bd 48a3 953e 7b23 bd3e d2ce 9b3f
00000130: 50e6 253f aacc dcbe 2c1f 34be 8ff7 afbe
00000140: 630c 52be cd9c 053f 1a2f 513e d64a d63e
00000150: a9cc 81bf a236 fb3e 6b70 bfbe 93f5 16be
00000160: 4450 323f 142f 74be d944 06bf 66cb 83bf
00000170: 4879 07bf 0c8d d83e 5119 3c3f 0845 5fbd
00000180: 6836 55bf 229d 8d3d 5bc1 27bd e660 9d3d
00000190: d0e2 143f 2ec3 223e 0652 0a3f 964b 0dbf
000001a0: 37ca 99be 650d 973f d82a cf3e 4451 cebe
000001b0: 533f f83d 01ee 3abf a18c d13d 08d1 f8bd
000001c0: 2174 34be 30a3 913b d17d e8be babc b83e
000001d0: 7c46 bebe 3d38 00be 59f2 34be 6e6a 8dbd
000001e0: 6d6b 7e3c 3d95 393f b168 d6bd 2be9 4cbd
000001f0: 5230 b4be 47df 773d 9847 79be d658 81be
00000200: 79bc 4abd ad62 d73d 349b c7bd 927c f4bc
00000210: 709e 513f 7874 833e b0a0 51bf ece7 893f
00000220: 3699 e3be 85d4 a1be e353 0d3f 5e7a 383e
00000230: 6a90 ce3f a6ce 303e 69d9 69be 04a4 293e
00000240: 103d 03bf 8e54 82bd 8230 53be 94c1 be3f
00000250: 01fb 523f 2ab9 123f 155b a7be ea74 6bbf
00000260: fd49 823e 0ca4 613f 8724 00be edcb b23d
00000270: 078f f2bb 1842 713f e2a1 803f eaf1 1dbf
00000280: 5d10 f6be 7de0 61bf dc58 d7bc 9de2 223d
00000290: fbd3 cc3d dac2 ff3d b074 2ebf 843e 3bbf
000002a0: a4b1 183e 1fde 91be c99a 363f 1eaf 3f3e
000002b0: abd4 dc3e 75bd d3be da91 9e3e 80db d1bd
000002c0: 496e f5bd d67b 0a3f 8404 7dbd 949d 253e
000002d0: a243 8ebe 6151 04bf 1f16 eabb c819 743f
000002e0: 7735 493f a878 c33e 78e2 f13e dc31 aabf
000002f0: cd4d 853f 595f e53e a3cc b7be f468 22bd
00000300: e44f 24be 38e3 123e 7235 f5be 7168 91bf
00000310: cbbe a43d 3979 cebe 31b1 7abf 1c39 19bf
00000320: 7767 b93e 8035 413f 44cf 02bf 9157 7cbc
00000330: 13cb a63d c746 9b3e 67da 4b3f 6f02 8cbd
00000340: 8936 afbc bc2f 2c3f 2bb7 903c ed0e 16bf
00000350: 2e0d 26bf 1872 f93e a6c0 1e3f 823f 783d
00000360: 1d33 8f3e 18b3 463f 5d6a 383e c616 8fbe
00000370: a070 41be 1241 a7bf 932c 303f f249 c63e
00000380: a9f5 413f cee4 dcbe 291a c13e d304 9b3e
00000390: af44 56be d0e6 2fbf efff 91bf c60a 583e
000003a0: 7e3e 003f f0a0 833e 4c76 1ebf dd57 45bf
000003b0: 73ae 2c3f a0a7 a73e 990e f4be 4087 d13e
000003c0: 5afd 0ebf 32a0 b83f a212 f4be 0921 98bd
000003d0: c394 24bd d9e5 673f 1de9 9fbe 2892 093f
000003e0: 546d 4abe 7e2f 55bf cc5e bf3e 7dc6 7abf
000003f0: 1953 27be 46a5 003e 3495 13bf f016 a9be
-0.3621817 -0.04454735 -0.23729928 -0.102462955 -0.09707178 0.43525407 0.58261603 -0.009461054
0.98833376 -0.26785296 0.40065822 -0.69769156 0.26048127 -0.47608516 -0.26627356 -0.8458431
-0.31343526 -0.82425207 -0.33951256 0.33493397 1.2214009 1.033798 -1.1578321 0.48719764
0.38617733 0.6840635 0.10314633 -0.69360566 -0.013774856 0.36210927 0.014247178 0.55564666
-0.33862448 -0.9293695 0.37777904 -0.22670513 -0.35359257 0.89443624 0.27495322 1.0790622
0.007873523 -0.15072647 0.5289409 -0.7321001 -0.15833327 -0.19401859 0.5460892 0.82202613
-0.8787686 0.24870104 -0.23164636 0.49719158 -0.41051978 1.2179755 0.93626773 -0.2349591
0.14569463 -0.5771419 0.05524578 -0.9197833 -0.12019854 0.20651105 -0.5158534 0.19501577
-0.56548107 -0.14636286 0.12091864 0.18463676 0.035287913 -0.49573806 0.24444021 -0.4961859
-0.079722874 0.29226136 0.36941132 1.2172492 0.64804554 -0.43124896 -0.17590016 -0.3436856
-0.20512538 0.52192384 0.20428124 0.4185397 -1.0140582 0.4906512 -0.37390456 -0.14742117
0.69653726 -0.23846084 -0.52448803 -1.0296447 -0.52919436 0.4229511 0.7347613 -0.054509193
-0.8328614 0.06914736 -0.040955883 0.076844975 0.5815859 0.15894768 0.5403141 -0.5519346
-0.3003709 1.1800963 0.40462375 -0.40296376 0.12121453 -0.73019415 0.10231901 -0.121492445
-0.17622425 0.0044445023 -0.4540849 0.36081487 -0.3716315 -0.12521453 -0.17670573 -0.069050655
0.015528542 0.72493345 -0.10469187 -0.050027054 -0.35193115 0.06051567 -0.24343717 -0.2526309
-0.049496148 0.10516868 -0.097463995 -0.029844556 0.8188238 0.25674796 -0.81885815 1.0773902
-0.44452828 -0.31607452 0.55206126 0.1801543 1.6137822 0.1726633 -0.22836842 0.16566473
-0.5126505 -0.06363784 -0.20623973 1.4902825 0.8241425 0.5731379 -0.32686678 -0.9197527
0.25447074 0.8814094 -0.12513934 0.08730302 -0.007402304 0.94241476 1.0049403 -0.61697257
-0.4805936 -0.88233167 -0.026287489 0.039766897 0.100013696 0.12488337 -0.681468 -0.73142266
0.14911515 -0.28489777 0.71329933 0.18719146 0.43131003 -0.41355482 0.3097065 -0.102469444
-0.11983926 0.5409521 -0.061771885 0.16173393 -0.27785975 -0.51686674 -0.0071437503 0.9535184
0.78597206 0.3817799 0.47243094 -1.3296466 1.0414368 0.44799307 -0.35898313 -0.039650872
-0.16046101 0.1434449 -0.47892338 -1.1359998 0.08044203 -0.4032686 -0.9792662 -0.59852767
0.3621175 0.7547226 -0.5109751 -0.015401737 0.08144202 0.30327436 0.7963013 -0.06836402
-0.02138831 0.67260337 0.017665466 -0.58616525 -0.6486386 0.4871986 0.6201271 0.06060744
0.27968684 0.77617025 0.18009324 -0.27947062 -0.1889062 -1.3066733 0.68818015 0.3872829
0.7576547 -0.43143314 0.3771527 0.30277118 -0.20924638 -0.68711567 -1.140623 0.2109786
0.50095356 0.25708723 -0.61899257 -0.77087194 0.6745369 0.32745075 -0.47667387 0.409235
-0.55855334 1.4423888 -0.47670466 -0.07428176 -0.040180933 0.90585095 -0.3123254 0.5373864
-0.19768268 -0.8327559 0.37377012 -0.9795912 -0.16340293 0.12563047 -0.5764954 -0.33025312

transformer.layers.0.0.fn.to_out.0.weight f4 [36, 72]
00000000: f24d e73d 10da 01bf 3b81 9bbb a102 55bd
00000010: 6cee 53be 69e7 bbbe ad1d 183d 5cfb ae3e
00000020: b279 a7bd 4ef9 e6be 4c97 1dbf 2d5d 053f
00000030: c7f4 c2bd 13eb 25bd a105 44be c275 993f
00000040: 9f7a e0be a712 593f 4858 0abe 4b42 063f
00000050: 409b 343d 8ccb 393e b9d5 463f f80d 283f
00000060: 1001 7ebf 9b6b 233c 4978 c53e edb9 ce3e
00000070: 2f7c 0dbf a341 903d 8e59 623c 05c4 943d
00000080: b81e d93e 9b4d e9be 3c52 d13e 5b9e dfbe
00000090: 70aa 8e3f 94f8 69bc 920e 3bbe a505 21bf
000000a0: 3b7f 3a3d cf02 f83e 3a5c 433f fd49 1c3f
000000b0: 95fc 17bf 1977 debe 7df8 edbe 12f0 673f
000000c0: 348d b43e a575 46be b2c9 1a3f 1953 1d3f
000000d0: e75b 9abd 8b31 25bd 530d 633e fde1 f1bd
000000e0: df39 683e 45a6 153f ffe4 c3be 2457 98be
000000f0: 21b1 a7be d6ac e23a 7df8 03bf 7b78 123f
00000100: 6a00 c0be bcd2 abbd ea69 443f bf9d 8f3f
00000110: 5b78 b03e 30ac 05bf 5120 1c3e 991e b9be
00000120: a527 c43e 7582 31bf 32ee 15bf db24 e73d
00000130: b7f0 ddbe 4487 51bf 9500 d4be 5563 ffbe
00000140: 16bb 043c 62c1 1abd a46b 9a3e 973c 34bf
00000150: d40a d23d 58ac 31bf b57f acbe 670a acbe
00000160: 29a8 003e cd49 febe 8cdf 14bf 1f2b 393e
00000170: f779 24bf 9423 1fbe 3b39 a9be 9b94 20bc
00000180: 4db5 a03d db1a 82bd 94e1 f33d 609c d73e
00000190: c330 c6be d9a5 2abe 6cb4 b93d 6491 d93d
000001a0: 6c35 133d 9a7d ccbe 0f4d b8be 466e a4be
000001b0: 5916 c0bd f43e ecbd 952b bfbe 1790 63be
000001c0: 1a72 d5bd d46a 5a3f a7d2 a1be a040 523d
000001d0: 47de 55bf 6fc5 01bf 98ba 853e 9d64 813f
000001e0: a196 5cbe 8211 99bd 47c9 8fbe c355 823e
000001f0: 77a7 033c 2165 a5be a091 6ebf 6052 fbbe
00000200: ce91 f03e 05f0 0b3e 2632 b1be cffa 68be
00000210: 3c5a 963e 2dc6 183f d3ff 9b3c 2497 3d3f
00000220: ea98 1f3f 2450 e6be 1c1b 2b3e 6147 2f3f
00000230: 1345 0ebf 3b09 b53e cfe5 643f 0d0d 3fbe
00000240: f0e3 e33e 6750 123f 3be6 14bf 3e62 bc3e
00000250: a9fc 8a3e 1fc4 753e 9227 0f3e b887 e53e
00000260: 50a5 99be 4dca 8ebe 3f19 0f3e 69d4 f83e
00000270: 2c52 e03d d2f7 8c3f 9eab 5bbd c308 1c3f
00000280: 9c03 5fbf aa17 b83e 8bcc 11bf ad15 c53d
00000290: dda9 a13e e814 fd3d 3b02 fbbe b042 32bd
000002a0: d80f 29be 4696 99be ca03 4f3e 9b04 6bbf
000002b0: 7e02 06bf 72f6 f5bd 165a d2bd ec3e 74be
000002c0: 3845 bc3d 3db2 ef3e d43f 72bd fb25 603d
000002d0: 1e81 af3e 94ad 6dbe 8f05 7abe 431c 35bd
000002e0: 030e 1dbe 19ce d13e 6d59 eabe 5d67 4cbe
000002f0: 2dc0 983c c806 9f3d f0da 25bd 6876 b0bd
00000300: 30b2 11bf 4046 adbe cf55 403f 67bf 993e
00000310: f114 85be 28aa b8be 403d 953f ef35 063f
00000320: 3278 053f c637 813e 45fe 2bbd 9a8a e3be
00000330: 7dc0 883e 8570 163e ef09 383f c389 e6be
00000340: bc2f 0fbe 931f a3be 58c4 dabd f344 0cbf
00000350: ca1c 343e b3b5 8fbe 611f aabd 817b a43e
00000360: cd84 9e3d 3158 1abf c7fb f4bd 1f7d 04bf
00000370: 694d 0e3d c8dd e2bd bf0f b6be a57e 193c
00000380: beca 913e e175 9abe 1387 3ebe 6c9e 213e
00000390: a72f 4cbf dfb9 25bf d824 113f 99fe bbbe
000003a0: 690f c4bc d416 2f3e 49c3 ab3f d927 eb3d
000003b0: ae5a 883f b5b2 8a3f c082 b33e 1fbb a73e
000003c0: 0bfc bebf a175 22bf 167f 013e d5ca 3a3f
000003d0: 2d54 82be b000 4f3e c843 babe a0db 5c3d
000003e0: efc8 f43e a492 12bf d8cd 2cbf 229e 98bf
000003f0: 02f0 1ebd 701c 00bf 7f8a 273f b63b 343f
0.11294164 -0.5072336 -0.00474563 -0.05200446 -0.2069642 -0.3669999 0.037137676 0.34176147
-0.081775084 -0.4511208 -0.61558986 0.520953 -0.09519344 -0.040507387 -0.19142772 1.1989062
-0.43843552 0.84794086 -0.13510239 0.52444905 0.04409337 0.18144053 0.77669865 0.65646315
-0.9922037 0.009974386 0.38568333 0.40376225 -0.55267614 0.07043769 0.013815297 0.0726395
0.4240625 -0.4556702 0.40883052 -0.43675503 1.1145763 -0.014280457 -0.18267277 -0.6289924
0.045531493 0.48439643 0.763126 0.610504 -0.59369785 -0.4345024 -0.46478644 0.90600693
0.3526398 -0.19380815 0.6046401 0.6145492 -0.0753706 -0.04033045 0.22173052 -0.11810682
0.22678326 0.5845683 -0.38260648 -0.29753983 -0.32752326 0.0017293941 -0.5155104 0.5721509
-0.37500316 -0.08389804 0.7672411 1.1220015 0.34466824 -0.5221586 0.15246703 -0.36156157
0.38311496 -0.69339687 -0.5856658 0.112863265 -0.43347713 -0.81847024 -0.41406694 -0.49880472
0.008101245 -0.03778208 0.30160248 -0.7040495 0.102559716 -0.694036 -0.33691183 -0.33601686
0.12564148 -0.4966568 -0.58153605 0.18082856 -0.64248604 -0.15540916 -0.33051476 -0.009801055
0.078470804 -0.063527785 0.1190826 0.42111492 -0.38709077 -0.16664828 0.09067616 0.10623434
0.03593962 -0.39939576 -0.3599629 -0.32115382 -0.093792625 -0.11535445 -0.37337938 -0.22222935
-0.10422154 0.85319257 -0.31606027 0.051331162 -0.83542293 -0.50691885 0.26118922 1.010883
-0.21541835 -0.074740425 -0.2808325 0.25456056 0.008035532 -0.32303718 -0.93190956 -0.49086285
0.4698624 0.13665779 -0.34608573 -0.22751926 0.29365718 0.5967739 0.019042885 0.7405875
0.62342703 -0.44983017 0.1670956 0.6846829 -0.5557415 0.35358605 0.8941316 -0.18657322
0.4450984 0.57153934 -0.58163804 0.36793703 0.2714589 0.24000596 0.13979939 0.44830108
-0.30008936 -0.27888718 0.13974474 0.48599556 0.10953173 1.1013129 -0.053630464 0.6095087
-0.8711488 0.35955554 -0.5695273 0.09623275 0.31574908 0.12357503 -0.4902514 -0.04352063
-0.1650995 -0.29997462 0.20216289 -0.918039 -0.5234755 -0.12009896 -0.10271089 -0.23852128
0.0919289 0.46815673 -0.059142902 0.05472372 0.34278196 -0.23210746 -0.24416183 -0.044216406
-0.15337376 0.40977553 -0.4577135 -0.19961305 0.018646324 0.07764965 -0.040492 -0.08616334
-0.5691252 -0.3384266 0.75130934 0.3002884 -0.2599254 -0.3606732 1.1659317 0.52426046
0.5213653 0.25237864 -0.041990537 -0.44441682 0.26709357 0.1469136 0.7189016 -0.4502698
-0.13983053 -0.31860027 -0.10681981 -0.5479271 0.17589107 -0.28068313 -0.08306766 0.32125476
0.077401735 -0.6029082 -0.11962085 -0.5175342 0.034741793 -0.11077458 -0.35558888 0.009368573
0.28474993 -0.3016806 -0.18606214 0.1578309 -0.7976021 -0.6473674 0.56696844 -0.3671768
-0.02393313 0.17098552 1.3418971 0.1148221 1.0652673 1.0835787 0.35060692 0.3275995
-1.4920667 -0.6346074 0.12646136 0.7296575 -0.25454846 0.20215106 -0.36379838 0.05392039
0.4780955 -0.57255006 -0.6750159 -1.1923258 -0.038803108 -0.5004339 0.65445703 0.7040361

transformer.layers.0.0.fn.to_out.0.bias f4 [36]
00000000: 628a a43e 71c8 b1be feae 4e3d 4e9c 0a3d
00000010: 93b1 70be d9b8 bb3e 84eb 05bf 1d3b e2be
00000020: 590c f73e 3250 053f b3d3 95be 542c 053f
00000030: a5dd 773e 41f6 25bf 665d 15bf 04f2 843e
00000040: 0377 073c 010e 893e 49eb 3cbe a36f 65be
00000050: 8910 393e 0f8e ecbd d5b3 b4be 839a 24be
00000060: a626 b83d b792 b03e 144c df3e e56b 8ebe
00000070: 71c2 2abe 7bb7 3bbe 7017 19bf 9c70 343f
00000080: e940 423e 9f5f 6f3e 0921 c8bd 4f58 183e
0.32136828 -0.34723237 0.050459854 0.03384047 -0.23505239 0.36664465 -0.52312493 -0.44185725
0.48251608 0.52075493 -0.29263076 0.52020764 0.24205644 -0.6482888 -0.5834564 0.25965893
0.008268121 0.26768497 -0.18449129 -0.22405867 0.18072714 -0.11550533 -0.3529345 -0.16074567
0.089917466 0.34486935 0.4361273 -0.27816692 -0.16675736 -0.18331711 -0.5980139 0.7048433
0.18970074 0.2337632 -0.09771926 0.14877437

transformer.layers.0.1.norm.weight f4 [36]
00000000: a82f 643f 49d4 003f b5b8 803f 2a90 263f
00000010: 99a9 993f c270 5c3f f96c 8e3f e4cf 813e
00000020: 785c 443f 5718 593f a302 513f 9bd0 893e
00000030: 63c3 db3e 3d42 d13e 29bf 493f 717a 8b3f
00000040: 0aad 8b3f 0bd9 a23f c089 513f c268 2d3f
00000050: 237b ca3e 448d 533f 0886 983f 1e38 743f
00000060: 8343 563f 3332 8b3f fca0 9a3e 8f70 1b3f
00000070: d132 7d3f ca82 7b3f ba07 0b3f 89e1 113e
00000080: 93bc 783f 8d7e ad3f 41e4 363f 786c db3f
0.8913522 0.5032392 1.0056368 0.65063727 1.2004882 0.86109555 1.1127006 0.2535392
0.76703596 0.84802765 0.8164465 0.26916966 0.42922506 0.40870848 0.7880731 1.0896741
1.0912182 1.2722486 0.81850815 0.6773797 0.3954707 0.8263743 1.1915903 0.9539813
0.83696765 1.0874695 0.30200946 0.60718626 0.98905665 0.98246443 0.54308665 0.14246191
0.9716274 1.3554245 0.7144204 1.7142477

transformer.layers.0.1.norm.bias f4 [36]
00000000: 3901 dabe cbef 033f 2dea aabe 7c95 123e
00000010: 6861 cf3e 672d a6be ede5 9d3e 87a7 3d3e
00000020: a0b7 ca3d 9dc6 bebd 7a7b 2a3d 6fa6 c93e
00000030: a78a 473e 6c73 393e cc6b 7fbd 2f43 ad3d
00000040: bf87 c1be 4be2 01bf e4bf 9fbd 9b9a b83e
00000050: 3f7e 2d3e 436a 03be 49a0 85be 37b5 4e3e
00000060: 60e8 203f f19f 463d 4c76 103d 7ca9 0d3e
00000070: d3ad 293e ae37 a23c d504 c3be 7916 3ebe
00000080: 2a06 95be c800 423e 8851 423e 4926 753d
-0.42579058 0.5153777 -0.33381787 0.14314836 0.40504003 -0.32456514 0.30839482 0.18520938
0.09898305 -0.09315226 0.041621663 0.3938479 0.19486485 0.18110436 -0.062358662 0.0846008
-0.3779888 -0.5073592 -0.07800272 0.36055455 0.1694269 -0.12833504 -0.2609885 0.20186315
0.62854576 0.048492376 0.035269067 0.13834184 0.16570215 0.01980194 -0.38089624 -0.1856326
-0.29106265 0.1894561 0.18976414 0.059850965

transformer.layers.0.1.fn.net.0.weight f4 [72, 36]
00000000: a95e 023f f3de 473e bcf8 0a3f 11e9 88be
00000010: 2530 6fbe 8616 ea3e 7274 803e 257e 66be
00000020: 0634 053f a77b a9bd b8a8 2ebe dd4a 36bf
00000030: 0e65 a53d e7de 29be a222 543f 2757 3dbe
00000040: be0a 9d3e b6d3 0ebf 3385 b9be caa1 89bf
00000050: eef5 09bf 2884 09bd 56fb a4be 4d84 e1be
00000060: 0209 4a3e 8e14 543f a74e bcbc 22e5 3f3e
00000070: 0f98 053f 6ee7 953f 979d 083f 6117 703e
00000080: a7d4 003f 1e15 42bd 7f29 6bbe c435 14bf
00000090: 0521 7f3f c6b6 2abf 326b 543f 2e56 79bd
000000a0: 2d6a 41bd 254f 883e 85f4 88bf 183b 2ebd
000000b0: d635 9dbe 9966 1d3f 68c1 95be d759 a4bd
000000c0: a9ca afbe c65c acbc d8fa 9c3e 189a 36bf
000000d0: 3231 4dbe f4b4 113f d523 16bb 42e9 023f
000000e0: 3cd5 24be c717 66bb a36f 4c3f eb21 a6be
000000f0: dda7 d2bb 6125 7bbf db4a 8dbe 5bd7 063e
00000100: 1b55 b33e 8930 e5be f84d e13e b013 6bbe
00000110: 65e3 573f bdb5 913e b3a2 7a3d 082f c03e
00000120: 89d7 6ebf 6893 b63e 3ba0 d9bd f598 76bf
00000130: c8da d3be 10c8 f9bd 1dcb a1bd 1edb 91be
00000140: 898c 633f bed2 93bf 90c2 6fbe 2c6c 5dbe
00000150: cdf0 14be 16a1 f3be 06ce d83e 5772 f4be
00000160: d83d ccbc 3a0e 55bf b94b 8e3f 77cd 05bf
00000170: 9343 30be 2b94 d83e 2762 163f 8a0e debe
00000180: bf4e 24bf deee 013f ea76 743f b9d8 d83c
00000190: 098b 093f 8e6e 71bf 50ef 493f e011 b33f
000001a0: dfc6 92be 2af1 29bf 6092 66bf d623 4bbb
000001b0: 6b96 433f 0f6a 8ebe 0da6 153f dd95 4fbe
000001c0: f903 683d 9328 973e b4c3 9ebe 0808 b3be
000001d0: e81c 1ebf 9d76 be3e 80e6 0dbf b27b 16be
000001e0: 3d28 0bbe 3be5 4abd 3eb1 b83e 01ec 0cbf
000001f0: dcbd 653e be4f db3e b7e4 aa3e 8fc1 babe
00000200: 0a8c 12be 233f 3ebe 496e ac3e 1c3b c6be
00000210: c513 65be 8ef9 b83e 0308 903a 2775 b7be
00000220: 471c a7be 87bd ce3e 9ab9 013f 5efc c7bc
00000230: 30c2 063f de1f 503e 8cdc 2bbf be5f 4a3f
00000240: ce1c 8b3e b30e 06bf f375 fbbe 1ed8 38be
00000250: bd8a 773d 4b64 af3f 438d ea3e 10d1 c0be
00000260: b92a 023f 3903 cc3e b43e fbbe e080 07bf
00000270: b8d2 a03d 8e0d 333f b414 d13c d578 8abf
00000280: e0ca 9a3f d018 efbe 5061 a8be 3eed a1be
00000290: 12c4 a03e 28ee 71bf 0e3a 413b 3628 12bf
000002a0: 3aa3 223d 0398 38bd e2ff fc3e 4544 543e
000002b0: 773f eebe e12a 653e 4674 29be 4387 2e3e
000002c0: 5859 4dbe a529 243f f8c8 a2be dbbd 24bf
000002d0: fd56 91be 9160 febe c6db f6be 0958 ea3e
000002e0: 5cd2 b33f f530 d7bc 81f3 abbd 3905 debd
000002f0: 2630 ffbd c0a3 cabf 27ea c0be 4355 17bf
00000300: 85e5 6a3e 4dbb cb3e 2205 3f3f 57b1 9e3d
00000310: 71c5 403e 68d9 9ebe 81b7 cd3f 776d 13bf
00000320: d14a f9be 324a dbbe 6c32 dc3e 6f09 f43e
00000330: 9b6b 05bf fa76 863f 11cb 313e aa08 4abf
00000340: 26db 00bf 8697 2abe 2d94 893f ed67 b5bd
00000350: f7ae a83e eb2f 143e 23a9 25be 3698 87bd
00000360: 4953 293e b671 03bf 2a0f 673f 9f9d d8be
00000370: 037d 90bd ab72 863f 39ee 313f 9f4a 5f3e
00000380: d1e3 7a3f 7282 8bbe 5dab 5dbf e0ad 3ebf
00000390: 4057 dabc ad3a 403f 3363 4fbe 4b1e a7be
000003a0: 218b 813f 7b6c 49be fdc1 10bf 1cfe 2dbd
000003b0: 67c0 11bf 10c4 103f 083b 8e3d 1368 dcbd
000003c0: 8288 223f 7c5e 0bbf f2f2 8a3e 6d7d c4bd
000003d0: e368 37bf 3568 253f 3924 fe3e 9d2f 21bf
000003e0: acf5 efbd b30f 0d3f 112d ddbe d7e9 62be
000003f0: 2680 59be 2bd7 d6be 1702 873e 27ab 23bf
0.5092569 0.19518642 0.5428579 -0.26740316 -0.2335821 0.4572031 0.2508884 -0.22509058
0.52032506 -0.08275538 -0.17056549 -0.7120798 0.08075915 -0.16588937 0.82865345 -0.18490277
0.30672258 -0.55791795 -0.36234435 -1.0752499 -0.53890884 -0.0335733 -0.32223004 -0.4404625
0.19729999 0.82843864 -0.022986723 0.18739751 0.5218515 1.1711252 0.53365463 0.23446418
0.5032448 -0.04738342 -0.22965048 -0.5789454 0.9965976 -0.6668514 0.8297607 -0.060873203
-0.047220398 0.26622882 -1.0699621 -0.042536825 -0.30705136 0.61484677 -0.2924912 -0.08024948
-0.34334305 -0.021040332 0.3066013 -0.7132888 -0.20038298 0.5691674 -0.002290954 0.51137173
-0.16096967 -0.0035109387 0.79857844 -0.32447752 -0.0064287023 -0.9810391 -0.27596173 0.13168089
0.35025868 -0.44763592 0.44004798 -0.22956729 0.8433135 0.28458968 0.06119032 0.37535882
-0.9329763 0.35659337 -0.10626265 -0.96327144 -0.41377854 -0.12196362 -0.07900069 -0.28487486
0.88886315 -1.1548688 -0.23414063 -0.21623296 -0.14544983 -0.47583836 0.42344683 -0.47743484
-0.024931833 -0.83224833 1.1116859 -0.5226664 -0.17213278 0.42300543 0.5874352 -0.43370467
-0.64182657 0.5075511 0.9549395 0.026470529 0.53727776 -0.9430932 0.78880787 1.398983
-0.28667352 -0.6638361 -0.900671 -0.0030996702 0.76401395 -0.2781529 0.584565 -0.20272012
0.056644414 0.29523143 -0.31008685 -0.34967065 -0.6176286 0.3719987 -0.5542984 -0.14695624
-0.13589568 -0.049535017 0.36072725 -0.55047613 0.22435707 0.42834276 0.3337762 -0.36475798
-0.14311233 -0.18578772 0.3367789 -0.38716972 -0.22370823 0.36127895 0.0010988716 -0.35831568
-0.3263876 0.40378973 0.5067383 -0.02441233 0.52640057 0.20324656 -0.671334 0.7905234
0.27170414 -0.5236618 -0.49113426 -0.18051192 0.060435046 1.3702482 0.458109 -0.37659502
0.5084644 0.3984621 -0.49071276 -0.5293102 0.078526914 0.6994256 0.025522567 -1.0818125
1.2093163 -0.46698618 -0.32886744 -0.31626314 0.3139959 -0.9450402 0.0029484066 -0.5709261
0.039706446 -0.045066845 0.49413973 0.20729168 -0.46532795 0.22379638 -0.16548261 0.17043786
-0.20053613 0.64126045 -0.31793952 -0.64352196 -0.2838668 -0.4968305 -0.4821455 0.4577029
1.4048572 -0.026268462 -0.08396054 -0.1084084 -0.124603555 -1.5831223 -0.37678644 -0.59114474
0.22939117 0.39791337 0.7461721 0.07748669 0.18825318 -0.31025243 1.6071626 -0.57588905
-0.48689893 -0.42830044 0.4300722 0.47663447 -0.5211732 1.0505059 0.1736262 -0.7891947
-0.50334394 -0.16659364 1.0748345 -0.08857713 0.32945988 0.14471404 -0.16177802 -0.06620829
0.16535677 -0.51345384 0.90257514 -0.42307755 -0.07055094 1.0503744 0.69504124 0.2180581
0.9800387 -0.2724796 -0.86589605 -0.7448406 -0.026652932 0.7508953 -0.20252685 -0.326403
1.0120584 -0.19670288 -0.56546 -0.042478666 -0.5693421 0.5654917 0.06944853 -0.10762038
0.63489544 -0.54441047 0.27138478 -0.095942356 -0.7164442 0.6461213 0.4963701 -0.6296328
-0.1171678 0.5510208 -0.43198445 -0.22159515 -0.21240291 -0.41961035 0.26368782 -0.6393303

transformer.layers.0.1.fn.net.0.bias f4 [72]
00000000: 0f24 39bf e109 0bbf bc3c 76bf 6236 1fbf
00000010: 2ea1 41be 5757 28bf 6e84 a7bd cbbc b0be
00000020: 4e60 0cbf 195f d3be 8451 4dbf de00 48bf
00000030: 9d34 f4be 2fa9 c4be 954a b2be 3ae6 1abf
00000040: 01d4 aabe 04a3 3ebf 60c0 9cbf d362 8bbe
00000050: e503 1fbf a440 32bf 4045 74bf b3eb a9be
00000060: e967 73bf 4d70 f7be 70ae 58bf 4ae4 40bf
00000070: c854 b4be 1a50 33bf 6c8d 61bf b588 a5bf
00000080: 3c5c 1cbf 98f0 0ebf 48b1 13bf 20f8 3ebf
00000090: 14ae 7b3e 4004 1a3e a974 49bf d25b 1dbf
000000a0: 3659 68bf 89cd 99be 1d0a b2be 011e e4be
000000b0: bb4b 54bf 96c1 37bf fb06 57be 1102 fbbe
000000c0: 6de0 53bd f386 4dbf 094a 08bf af37 06bf
000000d0: ebbd 22bf b8e3 4bbf dca4 31be 7944 52bf
000000e0: 017f 4abf fabf 6ebe 5aa5 49be 6873 e1be
000000f0: 98fb 6d3d 8623 1ebf da4c b5be e4d6 c5be
00000100: 9851 59be e5ba fdbe 4a87 79bf 9c7f 13bf
00000110: a8e2 15bf 1bce 2ebf 9c09 4ebf aca9 61bf
-0.72320646 -0.5431195 -0.96186423 -0.62192357 -0.18909141 -0.6575827 -0.08179556 -0.34519038
-0.5483445 -0.4128349 -0.8020251 -0.78126323 -0.4769639 -0.38410327 -0.34822527 -0.6050755
-0.3336487 -0.7446749 -1.2246208 -0.27223834 -0.6211532 -0.69629884 -0.9541817 -0.33187637
-0.9508043 -0.48327866 -0.8464117 -0.7534834 -0.35220933 -0.700441 -0.8810642 -1.2932345
-0.6107824 -0.55835867 -0.57692385 -0.7459736 0.24578124 0.15040684 -0.78693634 -0.6146823
-0.90761125 -0.30039623 -0.3477334 -0.4455414 -0.82928056 -0.71779764 -0.20998757 -0.49025014
-0.0517277 -0.8028404 -0.5323797 -0.52428716 -0.6357104 -0.79644346 -0.17348045 -0.8213573
-0.7910004 -0.23315421 -0.19691983 -0.4403336 0.058101267 -0.61772954 -0.35410196 -0.3864051
-0.21222532 -0.49556652 -0.9747206 -0.5761659 -0.58548975 -0.6828324 -0.8048341 -0.88149524

transformer.layers.0.1.fn.net.3.weight f4 [36, 72]
00000000: 1e4b 9b3d 590d abbe fb6c cc3e e73c e8bd
00000010: 2f54 03bd b875 26be b9cb 85bd 8505 c73f
00000020: 823a 99bf e87b cf3d d9c1 8dbf 5830 04bf
00000030: 2771 72be 7f2d 94be d7cb 003f c746 25be
00000040: 4da9 083f cc4f 323e 5fbe aebd d635 59be
00000050: 954c 9cbf e6a1 78be 813c 183c ca3e 1abf
00000060: feb3 cabe b479 35bf 7087 18bf 6f2c 65be
00000070: 1882 963f 9e85 5fbf 3ece 0e3f f7da 32bf
00000080: 4573 a2be 8b3c e53e bbb8 9ebe 0ee6 70bd
00000090: a445 b33c 98f5 bfbe 1b05 80be b57b 65be
000000a0: ef99 6d3e 4519 2b3e 4201 57bf fc2d fabd
000000b0: 9150 8f3e 1e83 c8be 1cf6 f13d 14f3 223e
000000c0: fe34 843f bc7c 003f a341 823f f703 5d3f
000000d0: c1de 983e 114c 02be 2cf2 8ebd 95f8 8bbf
000000e0: a930 06bf 899a d6bc a837 043f 554c 30bf
000000f0: 23bd ee3d f33e 9b3c 5df6 273e 3506 ab3c
00000100: 4590 6d3d d444 863e 825b c03c 38f0 28bf
00000110: bafd 11be e39c 58be 66b6 63bf 980a 11bf
00000120: c649 92be 3bc7 28be 08ab e63c 2cfb 413c
00000130: 60e4 653e c48e 8c3d ceb4 983f 3809 4dbe
00000140: 902d d43e b925 783e 9a9b 3b3f bac2 21bd
00000150: fcb0 363e d1e0 c2be 418c 433e 0f29 02bd
00000160: dd9a 18be d740 03bd 4bf8 183e d007 ecbe
00000170: 6365 9fbe 5e73 823e 0e8d cabd 7744 0fbf
00000180: 7ee5 173f 5115 24be 7ca8 b8bd c3e0 743e
00000190: a6d8 3c3e e7d7 4a3f 450b e83e 38f2 55be
000001a0: 2fb7 aabe e6ca a43e 056f 223e e6d4 273e
000001b0: 77c2 84bd 2a76 013e 7782 15bf 6539 093f
000001c0: 0fd1 70bd 060f 2dbd b1bd 253f 8061 f0bc
000001d0: 5054 3c3e 41f0 90bd 3091 3d3b adeb e83e
000001e0: 0dc0 2dbe 5a29 bebe 124f 163f bab6 db3d
000001f0: 3386 4a3e eb21 513e ccda ac3d 8b7d 0dbe
00000200: 9b47 25bd d671 973e 23f0 913d 0862 533e
00000210: 448e ccbe 90a6 0fbb 7c1f efbc 93ca dd3d
00000220: 7de5 b9be 15ba 35bf f980 853e 5a4c a43d
00000230: d8ba 19be 684d d2bd 2ee4 c7be a369 c13e
00000240: baff 383f eaed 27be 0725 003b c495 aebe
00000250: 6bf8 23be 1551 2bbf 8991 c8be 45d6 c3ba
00000260: f097 193e 763e 30bf b893 38bf fdec 55be
00000270: 20fa 5cbf 3b0d 14be c448 65bc 1d74 e9be
00000280: ee60 04bf d5b3 dfbe bdc7 91be 8146 923e
00000290: 6f4a d7bd 0691 853d 5858 86bf 6e71 74bf
000002a0: 7f5d 37bf 9540 96bf 6e5e 97bf e9c0 3abf
000002b0: 4ac5 afbf ab13 5ebf c3a2 2dbf 4124 de3e
000002c0: 8225 243f ff23 883e 6e42 bb3e 3ca2 1dbf
000002d0: 46c1 293e 9a6c f2be 7aee 01bf 363f 96bf
000002e0: 88bd 41be c73c 2abe 84a8 133c c080 85bd
000002f0: a181 0abe 7b02 56bf 8e68 24be 0ea0 6ebf
00000300: cdea adbe 4eeb bc3d 4d48 e8be 5dc5 3f3f
00000310: a24f f73e 48e2 f43d 937e bc3d d4cb 07be
00000320: f67b 173f 6f84 153d cdb9 a93e 6fb7 8bbf
00000330: 695e 57be 173e 3cbd 5903 863e 7932 5abf
00000340: 4730 49be 472c e63d bd73 0c3f df81 f03d
00000350: b4ea 84bd 7a0b c1be 36bd 85be 229d 7f3e
00000360: 5566 0b3f 4ff2 a43e 8b2b df3e 8ea1 dd3c
00000370: 5491 333f 5f16 253f 9c36 703f 4efa 153f
00000380: e4cc 133f a1da c03c c260 953f 069f 2c3e
00000390: 6235 173f 7f7e 063f 1a21 453d d8b8 7b3d
000003a0: 2a9b 3bbf d823 3d3f 6a58 383f 1aef 13bf
000003b0: 3246 093f 32a4 e5bd e49e 873e 1d88 343f
000003c0: 352e 79be 9885 943e b086 093f 504c ea3e
000003d0: ac5e cb3e 82e4 413f 6a30 f03e b5b1 8e3f
000003e0: 5d86 203f ca13 663e ab06 66bd 7c04 82bd
000003f0: 2a68 673e 3d71 203f a5c2 a63f 6e52 72bf
0.07582687 -0.3340862 0.39926895 -0.11339741 -0.032062706 -0.16255844 -0.06532998 1.554856
-1.197098 0.10131055 -1.1074783 -0.51636267 -0.23675977 -0.2894096 0.50311035 -0.1614028
0.5338333 0.17413253 -0.08532404 -0.21211943 -1.2210871 -0.2428051 0.009291769 -0.6025206
-0.39590448 -0.7088883 -0.5958166 -0.22380231 1.1758451 -0.8731326 0.5578345 -0.69865364
-0.3172857 0.44772753 -0.31000313 -0.058813147 0.021883793 -0.3749206 -0.25003895 -0.22410472
0.23203252 0.16708858 -0.83986294 -0.12215802 0.27991155 -0.39162534 0.1181452 0.1591304
1.0328672 0.5019033 1.0176281 0.86334175 0.29857448 -0.1272433 -0.06979784 -1.0935236
-0.52418 -0.026196735 0.51647425 -0.68866473 0.11657169 0.018950915 0.16402574 0.020876983
0.057998914 0.26224387 0.023481134 -0.65991545 -0.14256945 -0.21153598 -0.8895019 -0.5665679
-0.2857191 -0.1648225 0.028157726 0.011839669 0.224504 0.06863168 1.1930177 -0.20023048
0.4144101 0.2423314 0.73284304 -0.039492346 0.17840952 -0.38062146 0.19096471 -0.031777438
-0.14902826 -0.032044258 0.14938466 -0.4609971 -0.3113204 0.25478643 -0.09890185 -0.55963844
0.5933455 -0.16023757 -0.09016511 0.23913865 0.1844202 0.7923569 0.45321098 -0.2089318
-0.33342883 0.3218605 0.15862663 0.16389808 -0.06482404 0.12642732 -0.584022 0.536032
-0.058793124 -0.042250656 0.6474257 -0.029343367 0.18391538 -0.07077075 0.002892565 0.45492306
-0.16967793 -0.37140924 0.587144 0.10728212 0.19777755 0.20423095 0.0844017 -0.13817422
-0.04035149 0.29579037 0.071258806 0.20642865 -0.3995229 -0.0021919347 -0.029189818 0.108296536
-0.36307898 -0.70987064 0.2607496 0.080223754 -0.15012681 -0.1026867 -0.39041275 0.37775907
0.7226521 -0.16399351 0.001955332 -0.34098637 -0.16012733 -0.66920596 -0.39173535 -0.0014941177
0.14999366 -0.6884531 -0.721004 -0.20891185 -0.8631916 -0.14458172 -0.013994399 -0.455964
-0.517104 -0.43691888 -0.284727 0.28569415 -0.10512244 0.06521802 -1.049571 -0.9548558
-0.7162704 -1.1738459 -1.1825693 -0.7295061 -1.3732083 -0.8674876 -0.6782648 0.43387035
0.6411973 0.26589963 0.3657412 -0.61575675 0.16577634 -0.4734848 -0.5075451 -1.173804
-0.18919957 -0.16624747 0.009012345 -0.06518698 -0.13526012 -0.83597535 -0.1605551 -0.93212974
-0.339682 0.09224568 -0.4536766 0.7491053 0.48302943 0.11957222 0.092038296 -0.13261348
0.59173524 0.03650325 0.33149567 -1.0915354 -0.21032108 -0.04595765 0.2617443 -0.85233265
-0.19647323 0.11238914 0.548641 0.11743521 -0.064900786 -0.37704068 -0.2612092 0.24962285
0.5445302 0.32216117 0.43587908 0.027054574 0.7014363 0.6448726 0.9383333 0.5858506
0.57734513 0.02354175 1.1670153 0.16857538 0.5906583 0.5253677 0.04812727 0.061455578
-0.73283637 0.7388282 0.7200991 -0.57786715 0.53622735 -0.112129584 0.2648841 0.7052019
-0.24334033 0.29008174 0.5372114 0.45761347 0.39720666 0.757393 0.46911937 1.1147982
0.6270502 0.22468486 -0.056158703 -0.063485116 0.22598329 0.6267279 1.3028151 -0.9465703

transformer.layers.0.1.fn.net.3.bias f4 [36]
00000000: 0ba5 e83e 1c79 5abe cfee 6abe 867e 95be
00000010: d02a b5be d60b 3d3e 0264 15bf 0069 dfbe
00000020: da5d 063f db14 e03e 02ce aebe 5d97 233f
00000030: 19ab 823e df3c 40bf e468 d3bd a16c 053f
00000040: bdf2 7b3e 80f6 a43d f109 67be 0a51 cb3d
00000050: 908a a33e be93 4a3e 97e9 b0be 5707 66be
00000060: b033 d03d c1e7 833e 4cc9 9b3e 3820 7cbe
00000070: a79d 143f e7c0 6d3e 3bbd 38bf 3d0f 1e3f
00000080: a628 713e 1b1a 8d3e c25f 01be 5246 4abe
0.45438418 -0.21335262 -0.22942661 -0.29198092 -0.35384226 0.18461546 -0.58355725 -0.43634796
0.52486956 0.4376591 -0.34141546 0.6390284 0.25521162 -0.7509288 -0.10322741 0.5211888
0.24604316 0.08054829 -0.22562386 0.09927566 0.31941652 0.19782922 -0.34553215 -0.22463737
0.101661086 0.25762752 0.30427015 -0.24621665 0.5805306 0.23218118 -0.7216374 0.61742
0.23550662 0.2755898 -0.12634185 -0.19753388

transformer.layers.1.0.norm.weight f4 [36]
00000000: b639 023f 02c8 163f 2658 203f 35a9 e83e
00000010: 69d7 3d3f ee56 483f 4c07 543f 1296 c73e
00000020: 0f9e 1e3f 4b06 ae3e 997f 363f 54cc e03c
00000030: 877a 923e 33e7 c73e 2472 0b3f f7b7 5e3f
00000040: 45eb 393f 070c 513f 5095 483f 11b9 ef3e
00000050: 6347 de3e 647e d83d afbb 3c3f 55d8 393f
00000060: 1ec9 213f d264 193f e822 543e 221c 2d3f
00000070: 6dd1 093f 76ad 233f a452 433e 6973 2c3e
00000080: be14 373f f48c 3c3f 3594 3a3f dad0 633f
0.5086931 0.5889894 0.62634504 0.45441595 0.74156815 0.78257644 0.82823634 0.38981682
0.6195993 0.33989176 0.7128845 0.027441181 0.28609106 0.39043579 0.5447104 0.8699946
0.7262462 0.8165898 0.7835283 0.46820882 0.4341384 0.10570982 0.7372388 0.7259572
0.63197505 0.59919465 0.2071644 0.6762105 0.53835183 0.63936555 0.19074494 0.168409
0.71516025 0.7365258 0.72882396 0.8899056

transformer.layers.1.0.norm.bias f4 [36]
00000000: 10a4 32bc 7ffd 9f3d fd3c 423e 07cc 87bd
00000010: 58f8 ea3b 5b8c 69bd fd4a eabb bc08 723e
00000020: 9bb5 d4bd 91c3 a13c 3c23 113e 0978 3fbc
00000030: 5e6b f13d 0515 9e3e cb07 393d 139c 8abe
00000040: 55b0 d73e cf6b 77be 687c bf3d db5f 643e
00000050: 40f3 0fbe 5c4f 5ebd 0027 313d 4c91 a53e
00000060: 5f7a 8dbe bdfd 813b 9652 c53c 2786 23bb
00000070: 917a 843c e854 d83d 3a05 4c3e cb5f ecbd
00000080: d54a a9bd 8a2b 88be e188 ec3d 85c3 53be
-0.010903373 0.078120224 0.18968578 -0.06630712 0.007170718 -0.05701862 -0.0071500526 0.23636144
-0.10386201 0.019746574 0.14173597 -0.011686333 0.11788057 0.30875412 0.045173448 -0.270722
0.42126718 -0.2416222 0.093499005 0.22302191 -0.14057636 -0.0542749 0.043250084 0.32337415
-0.27632424 0.0039670155 0.024087232 -0.0024951787 0.016171725 0.105630696 0.19923869 -0.115417086
-0.08266226 -0.26595718 0.11549545 -0.20680054
