ViT/ViT1/1 V train 0.875 V test 0.820 ABS 2/model_bestV.pt (torch, 414407 bytes, 74 tensors)

pos_embedding f4 [1, 19, 36]
000000 7c dc bb be 06 ae e7 3e 82 7d 41 3c fc 47 23 3e
       -0.36691654 0.45249957 0.011809709 0.15945429
000010 29 19 3f 3f 24 de a2 be a1 b0 c9 bf 45 59 39 bf
       0.74647766 -0.31810105 -1.5757028 -0.7240184
000020 0f 89 1b 3f ce aa de 3e f9 01 20 bf 98 ef 93 bf
       0.6075601 0.4348969 -0.6250301 -1.1557493
000030 a3 fc bd 3e 03 cb a9 3d 88 2d 1d bf db e0 55 bf
       0.3710681 0.082906745 -0.613976 -0.8354623
000040 b7 13 71 3f 41 47 f7 3e 37 e3 2e c0 2a e4 bb 3e
       0.9417071 0.4829655 -2.732618 0.36697513
000050 9d 54 a1 3f f4 a0 63 3f 82 1c 5b bf 3e 32 88 3f
       1.2603947 0.8891747 -0.85590374 1.0640333
000060 84 fd 2e be bb 5b 2d 3e a1 bb a3 3e 62 66 57 bf
       -0.17088896 0.16929524 0.31979087 -0.841406
000070 1f 5a 91 3f b9 ef ab 3e 22 46 c2 3c fb c7 c9 bf
       1.1355628 0.3358133 0.023715083 -1.5764154
000080 22 03 23 be a8 5a 9c be f0 92 bb bf f5 4a ae bf
       -0.15919164 -0.30537915 -1.4654217 -1.3616625
000090 c9 00 b1 3f d2 24 83 3f 78 de 6c 3e ac f5 89 3e
       1.3828365 1.0245612 0.2313174 0.26945245
0000a0 b2 6b bc 3e c7 eb b6 bf f3 3f af 3f cd 2f 91 3e
       0.36800915 -1.4290704 1.3691391 0.28356782
0000b0 fc 08 8c bf 64 e5 17 bd e5 bc 7c bd 62 47 60 3d
       -1.0940242 -0.037084 -0.06170358 0.054755576
0000c0 d7 73 bc 3f 92 d5 b5 3f 7c 86 47 3f 44 ec f3 3e
       1.4722852 1.4205801 0.7793958 0.47641194
0000d0 f6 64 22 bf 04 10 5e bf a3 b4 6a bf b2 3d 8a bf
       -0.63435304 -0.8674319 -0.9168188 -1.0800078
0000e0 01 0d fa 3e e9 16 38 be f1 0d 89 bf 90 0d 5b bf
       0.48838046 -0.1797749 -1.070738 -0.8556757
0000f0 3c 55 c2 3f a6 11 fc 3e 15 a1 3a 3f a3 a4 62 3f
       1.5182261 0.49232215 0.7290204 0.88532466
000100 bf ba a1 bf 27 bd 8f 3d c3 c5 16 40 1c 42 9d be
       -1.2635115 0.070185 2.3558204 -0.307145
000110 24 27 e2 bf 3e b7 92 3f 28 c8 2a 3f de 08 d7 3f
       -1.7668195 1.1462171 0.66711664 1.6799581
000120 eb 21 f3 3f 34 a4 57 be be f7 d8 bf f0 26 9c 3e
       1.8994726 -0.21058732 -1.6950605 0.30498457
000130 40 41 dd be 6b 80 42 bf d6 55 48 3f 4b 68 6e bf
       -0.43213844 -0.759772 0.78255975 -0.9312789
000140 39 83 14 bf 18 69 06 3f fc 1c 86 3f f6 aa 1a bf
       -0.5801273 0.5250411 1.0477595 -0.60417116
000150 21 76 ad bd 38 49 07 bc 66 af a8 bd 07 c9 0c 3f
       -0.08469797 -0.008257203 -0.082365796 0.54994243
000160 e4 cb 5d 3f 6d db ec bf 96 8d 7e bf 43 c2 36 bf
       0.8663924 -1.8504463 -0.99434793 -0.7139017
000170 1e 5c 20 bf 3a 49 6e be 10 20 d5 bf 02 df a7 3e
       -0.6264056 -0.23270121 -1.665041 0.3278733
000180 f3 ac 96 be 9e 0b 06 bf d6 f9 a0 bf 1d f8 d4 3f
       -0.29428825 -0.52361476 -1.2576244 1.6638218
000190 4f 5c fb be a0 47 ed bf 4a c5 0b 3f 04 12 6b be
       -0.49093863 -1.8537483 0.54597914 -0.22956091
0001a0 54 c4 65 be fa 9b fe be 49 91 33 3f 3f 9b 4d 3f
       -0.22438174 -0.49728376 0.7014356 0.8031501
0001b0 f1 e8 4c 3f e4 18 80 bf e0 f2 43 3f 4d c8 23 bf
       0.8004294 -1.0007596 0.7654247 -0.6397751
0001c0 ef 7d c7 bf 82 08 01 40 ea 2a 5b be c0 9e fd bf
       -1.5585307 2.0161443 -0.21403089 -1.9814072
0001d0 55 87 2b 3f 94 78 7a be dd 8b 0a bc 8b 15 de be
       0.67003375 -0.2446006 -0.008456198 -0.4337581
0001e0 7f e9 85 3e d5 8d b0 3f c8 73 42 3c 42 b1 2f bf
       0.26154706 1.3793284 0.011868425 -0.6862985
0001f0 31 2e a1 be 08 04 45 3e 0a 76 fa bf 43 05 0e 40
       -0.31480554 0.19239819 -1.9567273 2.2190711
000200 cf db 08 be a4 50 24 3f 56 95 35 be f3 7c 16 3f
       -0.133651 0.6418555 -0.17732748 0.5878441
000210 e1 25 98 3f aa 7f 05 be b4 20 c9 bf 02 3e 11 3e
       1.188656 -0.13036981 -1.5713105 0.1418381
000220 a2 39 34 be 26 e2 01 3f da 9a 8a bf 50 54 a5 3f
       -0.1760011 0.507357 -1.0828507 1.2916355
000230 6a 9f 8f bf 43 61 33 bf e9 8c ee bf c5 5a 8d 3f
       -1.1220524 -0.70070285 -1.8636752 1.1043326
000240 2d f6 32 3e 26 61 0c bf ee e6 ee be d5 f3 54 3f
       0.17476721 -0.54835737 -0.4666056 0.8318456
000250 be a2 0b 3e 5f 30 55 3d 15 c9 82 be be 33 5b bd
       0.136363 0.052048083 -0.25544038 -0.053516142
000260 a5 fb 57 bc 71 99 50 3f e8 5a 85 bf fc 8b 50 3e
       -0.013182555 0.81484133 -1.0418367 0.203659
000270 41 01 29 bf 80 f3 03 c0 b8 6b 96 3d ef 2d 0f 3f
       -0.6601754 -2.061737 0.073447645 0.55929464
000280 17 47 3a 3f 0e 42 94 be 1b aa 0c bf 8b 66 42 3d
       0.72764724 -0.28956646 -0.5494706 0.047461074
000290 f4 6f cc 3e 0f 77 a5 bf bd bc ef be 7d 18 10 bf
       0.39929163 -1.2926959 -0.46823683 -0.56287366
0002a0 4b 29 0b 3f a4 70 21 3f fc 97 ff 3e 2b 0c 88 3c
       0.54359883 0.630625 0.49920642 0.016607365
0002b0 7b 61 67 3e 15 f3 a1 be 13 35 fd 3e 62 8d 60 3d
       0.2259578 -0.3163077 0.49454555 0.054822333
0002c0 43 dd f7 3d 66 ec 4d 3f 4b 9e c6 bf f9 15 a2 bf
       0.12102749 0.8043884 -1.5517057 -1.2662956
0002d0 2f 1c c0 3d 98 f0 db bd 70 fa 18 3e 02 6e 9a 3f
       0.093803756 -0.10739249 0.14939284 1.2064822
0002e0 99 f3 50 bf b8 8f 97 3f 2e cc b8 bc fe 19 b0 3d
       -0.816217 1.1840734 -0.022558298 0.085987076
0002f0 b1 4b 8f be 32 b5 15 3f 36 78 9d 3f e7 7b 4c bf
       -0.27987435 0.5847961 1.230231 -0.7987656
000300 4c 12 0d 3e 0c b9 50 bf a7 22 ed 3f a4 6f f0 3f
       0.13776511 -0.8153236 1.85262 1.878407
000310 89 cf e0 be b8 ca a4 be ad 91 da 3e ad 78 bb 3e
       -0.43908337 -0.32185912 0.42689267 0.36615506
000320 99 da 66 3f 09 dd 1c 3f 2a 1b eb be 4b 23 07 bf
       0.90177304 0.6127477 -0.45919162 -0.5278823
000330 35 ed 64 3f 30 e3 42 bf db 1c 58 3e 8c ad 7d be
       0.8942445 -0.7612791 0.21104757 -0.24773234
000340 ba 36 12 bf 8a 33 a8 bf 18 c3 45 3f 44 ab af bd
       -0.57114756 -1.3140728 0.77250814 -0.08577588
000350 a6 50 d0 3f 7f 3c 00 3f ac 5a 1e 3f 50 a1 96 bf
       1.6274612 0.5009231 0.61857104 -1.1767979
000360 98 39 d7 be 4a ab d1 3f d4 90 0c 3f ed 9c 97 bd
       -0.42036128 1.6380398 0.5490849 -0.07402978
000370 80 21 3b 40 1b 20 80 3f b0 bd 8a 3f ca d4 a8 3d
       2.9239197 1.0009798 1.0839138 0.08243711
000380 58 2a 22 3f 27 42 14 bf a0 67 1e be b8 23 b8 bf
       0.6334586 -0.5791344 -0.15469217 -1.43859
000390 6c ce c0 3e 83 97 3b c0 2b 17 05 3f 60 06 74 bd
       0.37657487 -2.9311225 0.51988477 -0.059576392
0003a0 33 04 25 3e 35 5c d2 be 5b ae 64 3e a8 f9 11 c0
       0.16114883 -0.41085973 0.22332136 -2.2808628
0003b0 bc 4b 03 3f 4a c0 21 40 b8 63 db 3e b6 fc 96 bf
       0.51287436 2.5273614 0.42849517 -1.1795871
0003c0 30 37 76 bf 7c a0 58 be f3 60 a8 3f f2 0b 7a bf
       -0.9617796 -0.2115497 1.3154587 -0.9767448
0003d0 f7 22 2d 3f 5e d7 00 be c6 20 8c 3d 78 23 95 3f
       0.6763148 -0.12582156 0.068421885 1.1651449
0003e0 c6 c0 c9 3e 9d 29 b3 3e d5 c2 7f 3f bb 05 25 40
       0.39404887 0.34992686 0.99906665 2.5784748
0003f0 23 ed 80 bf c5 2e 93 3f b6 e2 2b 3f c8 b7 5e bf
       -1.0072368 1.1498648 0.6714281 -0.8699918

cls_token f4 [1, 1, 36]
000000 04 2f fb 3e ac 91 0b 3e 28 04 99 3c d9 13 8c be
       0.49059308 0.13629788 0.01867874 -0.27358893
000010 5d 83 59 bf a8 67 04 40 1a 75 45 bf 87 97 e5 3f
       -0.8496607 2.0688267 -0.7713181 1.7936867
000020 b0 5c e1 3f 80 1a de 3e 57 72 7c 3f 1e 81 d5 3e
       1.7606411 0.43379593 0.9861197 0.4170007
000030 2d cc 57 3e 55 fa d9 be fa 94 88 bf c1 c7 23 3d
       0.2107398 -0.425738 -1.0670464 0.039985422
000040 73 42 56 3f ea 57 15 3f 1b 7a b1 3e 90 d8 e4 3e
       0.83695143 0.5833727 0.34663472 0.44696474
000050 9e 7b ba bf 4f 2b 91 bf 02 30 aa bd 6f 5e 4c 3f
       -1.4568975 -1.1341342 -0.08309938 0.79831594
000060 cc 97 1e c0 f6 d6 5a 3f a1 24 22 c0 71 3b 46 be
       -2.478015 0.85484254 -2.5334857 -0.19358613
000070 df 9a 0b c0 db ea 74 bc f8 67 6f bf 34 7c 96 3d
       -2.1813276 -0.014948572 -0.9351802 0.073479086
000080 20 a5 03 bf ae 11 b4 3f 54 35 6a bf c4 54 d4 bf
       -0.51423836 1.4067895 -0.9148762 -1.6588368

to_patch_embedding.1.weight f4 [36, 12]
000000 44 40 38 3e 9f 19 01 be b1 83 88 be 9c 4b 5a be
       0.17993265 -0.1260743 -0.26662973 -0.21317905
000010 4b f2 88 be 98 a2 41 bd 62 70 39 3d d8 7c 3a be
       -0.26747355 -0.047274202 0.045273192 -0.18211687
000020 76 c2 99 3c bc 65 3f be c6 2b 8b 3e fd ae 83 be
       0.018769484 -0.18691152 0.27181834 -0.25719443
000030 29 0e 32 3e 68 81 3d be 9e 3c b5 bd 53 74 93 bd
       0.17388214 -0.18506396 -0.088494524 -0.071999215
000040 d4 82 72 be d1 aa 94 bd 35 24 1c 3e c8 48 14 be
       -0.2368272 -0.07259143 0.15248187 -0.14480889
000050 c5 b2 2e be 21 d3 57 3d f1 38 5a 3e 7a c0 b8 bd
       -0.17060383 0.052691583 0.21310784 -0.09021087
000060 a1 11 3a be d4 f9 05 be 62 dd 70 bd 57 42 1f bd
       -0.18170787 -0.13083583 -0.058804877 -0.038881626
000070 7f 07 2d 3e 40 d4 2f 3e 9d 1b 8e be bc bc 5b be
       0.16897391 0.1717081 -0.27755442 -0.21458715
000080 47 2a 8b bd 61 75 42 3d c4 bc 88 3d dd 2e 63 be
       -0.06795173 0.047475222 0.06676629 -0.22185846
000090 10 d0 02 be bf 77 e6 bd 0f 78 18 3e 4a 08 38 3d
       -0.12774682 -0.112533085 0.14889549 0.04492978
0000a0 f0 f8 06 3d cb 0e 22 3e 3d 94 40 be d6 8b 8e be
       0.03295225 0.15825956 -0.18806548 -0.2784106
0000b0 8e 09 86 3e 4b 2c d8 3c 2e 1f 6b be 44 fa 4e 3e
       0.26179165 0.026388308 -0.22961113 0.20212656
0000c0 c8 04 6d 3d 6b 29 28 3e 10 cc c7 bb 05 31 84 be
       0.057865888 0.1642205 -0.006097324 -0.2581865
0000d0 16 d1 e6 3d c8 dc 91 bd 16 c7 5e 3e 49 c6 1c bd
       0.11270349 -0.07122189 0.21755633 -0.038275037
0000e0 05 4d cd bd f6 85 3c 3e af c0 49 be 00 6d 15 be
       -0.10024456 0.18410477 -0.19702409 -0.14592361
0000f0 bb 19 4a 3c 92 03 17 3e b4 1f 0f bc b6 09 19 bd
       0.012335236 0.14747456 -0.008735586 -0.037362777
000100 f9 f7 49 be a7 40 97 3e c2 0f 44 bd 16 3e 14 be
       -0.197235 0.29541513 -0.04786659 -0.14476809
000110 b0 be 1c 3e 1e 60 1f be e4 77 ed 3d 79 a9 83 3e
       0.15307117 -0.1556401 0.11595133 0.25715235
000120 58 d9 06 3e b1 45 63 3e b1 6a 8e be 1b 84 69 be
       0.13168848 0.22194554 -0.27815774 -0.228043
000130 cf 0a 07 3e 9c 3e fd bd 7e 51 fe 3d 01 97 b6 bc
       0.13187717 -0.123654574 0.12417887 -0.022288801
000140 c3 3c 96 3d 27 b3 86 3e 52 b8 2d 3e 1d 30 cd 3b
       0.07335808 0.26308557 0.16964844 0.006261839
000150 8d 8e a6 bd bf ce 39 3e 57 3a b8 3c 07 d9 9e 3d
       -0.08132658 0.18145274 0.022488756 0.077562384
000160 b5 8b 91 bd e3 9a 3e 3e f7 7d 8e 3e 6b 8a 7a bd
       -0.07106725 0.18613772 0.2783048 -0.061167162
000170 eb 0b 9e 3e b4 7d ec bd bc cf 20 be 95 1f 56 be
       0.30868468 -0.115474135 -0.15704244 -0.20910485
000180 85 ab 80 3c 67 d7 0b 3e 92 c9 75 3e af 28 8a 3e
       0.015706787 0.13656388 0.24002674 0.26984164
000190 39 e6 ee bd c2 54 08 3e 03 6d bd 3d 22 5d 12 be
       -0.11665005 0.13313583 0.09249308 -0.1429334
0001a0 5a 7c e4 3c 1f c3 7d be d1 3f b7 3d 00 c8 7d 3e
       0.027891327 -0.24781464 0.08947719 0.24783325
0001b0 6c de c2 bc c5 cb 7a 3e 43 8b 88 be a5 89 64 be
       -0.0237877 0.24491794 -0.26668748 -0.22318132
0001c0 fc c8 5b 3e 4b 8b df bd 25 23 55 bb b7 6e 95 bd
       0.21463388 -0.1091524 -0.0032522168 -0.07296508
0001d0 4f c8 23 be 38 53 7e 3e dd 70 57 be 51 85 4a be
       -0.1599438 0.24836433 -0.21039148 -0.19777419
0001e0 f5 f0 ac 3d 96 66 f9 3d fc f9 8c be a9 25 b2 bd
       0.084443964 0.1217777 -0.27534473 -0.08698589
0001f0 93 d2 9b 3d 75 37 05 3e 39 c1 27 be a0 37 9f be
       0.07608523 0.13009436 -0.16382302 -0.31097126
000200 c4 8a eb bd 2a e0 3f be 6b 85 ea 3c cd 38 67 bd
       -0.11501077 -0.18737856 0.028628072 -0.056450654
000210 0b ad 83 3e a3 7e 1e 3e d6 94 81 be 67 9c 30 be
       0.2571796 0.15477996 -0.25308865 -0.17247163
000220 ea 25 64 3e 56 b1 35 3d a5 2f 72 be b4 7f 8a 3e
       0.22280088 0.044358574 -0.23650987 0.27050555
000230 1d bc 10 be 29 88 f2 bd 39 ab df 3d 8d db fc 3d
       -0.1413426 -0.11842377 0.1092133 0.123465635
000240 0e ca 9a 3d 10 27 33 3d c1 a5 80 3e f2 c5 c5 3d
       0.0755807 0.043738425 0.2512646 0.09656896
000250 17 a2 2b bd 66 fe 01 be 21 09 4c 3e 7a 73 0c be
       -0.041902628 -0.12694702 0.19925357 -0.13715926
000260 7e df 27 be 3a a4 a0 3d bd 3f 7f be 33 06 df 3d
       -0.16393849 0.07843824 -0.24926658 0.10889854
000270 df bd 43 3e 5f 1c 00 bd 7f 9f e6 bd 9e 7d 85 bd
       0.19115399 -0.031277057 -0.1126089 -0.065181
000280 0d e1 45 bc 00 ec 73 3d 83 5a 9b 3e 5b 75 f8 3d
       -0.012077582 0.05955124 0.30342492 0.12131759
000290 63 c6 0f 3e 3d 66 50 be 77 62 ea bd 99 76 95 be
       0.14040522 -0.20351501 -0.11444562 -0.29192045
0002a0 ab e4 68 be cb c8 e7 3d 69 b1 7e 3e 1b 4b 4f 3d
       -0.2274348 0.11317595 0.24872364 0.050608736
0002b0 f9 2a 89 bd c9 4c 19 3d 66 aa 56 3d 9c 91 a1 3d
       -0.066976495 0.037426744 0.0524086 0.07889101
0002c0 4e 8f 81 be c0 26 1f 3e cd f8 fa 3d da a6 70 3e
       -0.25304645 0.15542126 0.12254486 0.23501149
0002d0 f7 85 6e 3e cb ec 2d 3e 24 37 85 bd 3d 51 8b be
       0.23293291 0.1698486 -0.06504658 -0.27210417
0002e0 b2 ac 43 bd cc 8d 0c be 4f 2b 95 3d 08 ae 98 bc
       -0.047772117 -0.13725966 0.07283651 -0.018637672
0002f0 3a 16 77 3e 52 df 8f bd e0 fc 55 3e 91 f9 be bd
       0.24129573 -0.07025017 0.20897245 -0.09324945
000300 e3 a0 6c 3e d1 10 cc bd 12 7b 9d 3d 01 0e e5 3c
       0.23108248 -0.09964145 0.076894894 0.02796078
000310 93 d0 32 3e 0d c9 38 bd 0b c1 5a be 79 eb 2b 3d
       0.17462377 -0.045113612 -0.21362703 0.04197261
000320 18 0a 94 bd 7e a8 86 bc 58 3e 8b be 62 2c 2e be
       -0.07228488 -0.016437765 -0.27196002 -0.17009118
000330 9c b9 bd bd 7c 5c e7 3d ab 11 ba bd 78 f1 22 3d
       -0.09263918 0.11296937 -0.09085401 0.039781064
000340 5e d1 a1 3d 62 d1 db 3d 2d 3a b0 bd 57 f2 53 3e
       0.07901262 0.10733296 -0.08604846 0.20697914
000350 32 0c 85 be 37 93 d4 3d 54 af a7 bd d8 13 75 3e
       -0.25985867 0.103796415 -0.08187738 0.23933351
000360 a8 79 8b 3e c6 65 3f 3e 09 e8 9e 3e b5 58 be 3d
       0.27241254 0.18691167 0.31036404 0.09294263
000370 66 cc b5 bd 1f 6d c1 bd 90 ee 1c bd 10 f4 19 3e
       -0.088768765 -0.09444641 -0.03831345 0.15034509
000380 19 21 7c bc be f4 31 3e fd 2a 92 3d ce e6 35 bd
       -0.0153887505 0.17378518 0.071371056 -0.044409566
000390 1e 9e 79 bd 07 1c 4c 3d 40 6c 9b bd 3a 2e 78 3e
       -0.060941808 0.049831416 -0.075890064 0.24236384
0003a0 74 af f9 bd e1 a6 16 be 5e ac 6a be fd 1a 5c be
       -0.12191668 -0.14712097 -0.22917315 -0.2149467
0003b0 b1 41 3f 3e 79 40 52 be ac 03 0f 3e 29 11 fc 3c
       0.18677403 -0.20532407 0.13966244 0.030769901
0003c0 94 91 1a 3e 75 ce 07 be 05 cd 50 bd ca e2 9b 3e
       0.15094596 -0.13262351 -0.05097677 0.30446464
0003d0 ce 5f 63 3d 35 3d 96 be a2 9d a7 3d 65 09 4f bc
       0.05551129 -0.29343572 0.08184363 -0.012636517
0003e0 4a 2a 7b be 9a b7 d3 bd f7 52 b0 3d ca d3 a7 bd
       -0.24527851 -0.103377536 0.08609574 -0.081946924
0003f0 38 e2 77 3e ae ee 6d be 18 ad 52 3e 4d 61 9f 3d
       0.2420739 -0.2323558 0.20573843 0.077822305

to_patch_embedding.1.bias f4 [36]
000000 17 5c ec 3d eb 50 83 be 98 2f 73 be 84 29 23 be
       0.11541002 -0.25647673 -0.23748624 -0.15933806
000010 06 ab 0f 3d 9e 08 28 3e a0 41 4b 3c fd cd 03 be
       0.03507521 0.16409537 0.012405783 -0.12871547
000020 96 cd 03 bd f5 45 03 bc b3 9f a3 3c e5 18 02 bd
       -0.032178484 -0.0080122845 0.019973611 -0.031762023
000030 1e a7 57 3e ea b7 08 bd 39 42 92 3e f6 77 ca bc
       0.21059844 -0.03337852 0.2856615 -0.024715405
000040 58 14 85 3d 4a 35 78 be ad 4e 8f bd 98 aa bc 3d
       0.06498021 -0.24239078 -0.06997428 0.09212226
000050 b5 2f 8e be 9b b9 64 3e c2 59 6b 3e a3 1e 4f be
       -0.27770773 0.22336428 0.22983459 -0.2022653
000060 74 e2 73 3e 0b 2b 76 bd 0b ad d5 bd d6 e2 6a 3d
       0.23816854 -0.060099643 -0.10433396 0.057345234
000070 89 f6 6a 3e 37 56 d8 3c 0e 37 31 bd 57 0b 0e be
       0.22945608 0.026408298 -0.043265395 -0.13871513
000080 08 10 0a 3e 53 36 16 be 65 bb 44 be 37 ed a8 3d
       0.13482678 -0.1466916 -0.1921211 0.0824837

transformer.layers.0.0.norm.weight f4 [36]
000000 9a 70 82 3f 6f 01 81 3f 18 64 7c 3f 34 48 82 3f
       1.0190613 1.0078562 0.9859023 1.0178285
000010 20 5e 7e 3f 13 07 81 3f ab ac 81 3f 4d 8f 7b 3f
       0.99362373 1.0080284 1.0130819 0.98265535
000020 6a 90 83 3f 62 62 80 3f 56 0a 81 3f fd ab 83 3f
       1.0278447 1.0030024 1.0081279 1.0286862
000030 87 51 82 3f b2 0f 82 3f 12 f3 80 3f ed 39 84 3f
       1.018113 1.016104 1.0074179 1.0330178
000040 f0 09 81 3f 1f 08 82 3f 18 5e 80 3f 39 23 82 3f
       1.0081158 1.0158728 1.0028715 1.0166999
000050 ac f6 81 3f ed f4 81 3f 16 aa 83 3f c5 83 81 3f
       1.0153403 1.015287 1.0286281 1.0118338
000060 3e c3 82 3f ef da 81 3f 5f 26 80 3f 57 73 84 3f
       1.0215833 1.0144938 1.001171 1.0347699
000070 4f 5c 80 3f d8 50 80 3f c4 57 82 3f f2 e4 85 3f
       1.002817 1.0024672 1.0183034 1.0460494
000080 d0 19 7d 3f 3f 15 80 3f 06 00 83 3f c6 ae 81 3f
       0.9886751 1.0006484 1.0234382 1.0131462

transformer.layers.0.0.norm.bias f4 [36]
000000 bb e0 af 3b b8 fd fb 3a fb d2 b7 3b 34 ca ee ba
       0.005367366 0.0019225394 0.0056098676 -0.001821822
000010 c5 26 84 ba 2c e1 85 3b 2f 2d d4 bb a6 99 69 bb
       -0.0010082355 0.0040856805 -0.006475113 -0.003564456
000020 fe fb 90 bb b8 2e 7f bb 46 a9 2b ba 95 93 31 bb
       -0.004424571 -0.0038937759 -0.0006548356 -0.0027096022
000030 48 d0 81 3b df b7 b2 3b 47 ec 9b 3a a2 9b 1a bc
       0.0039615966 0.005454048 0.0011895978 -0.00943652
000040 ea f8 71 bb 94 db 8e bb 5d 00 86 3a ab 18 10 3c
       -0.0036922046 -0.004359672 0.0010223497 0.008794944
000050 e1 aa b7 3b fa 3a 5e 3b b9 22 cf bb 71 d7 1b 39
       0.005605087 0.0033909664 -0.006321278 0.0001486221
000060 37 10 c4 bb 83 b4 fe 3b ef 59 37 3b c1 c6 85 ba
       -0.0059833783 0.0077729835 0.0027977189 -0.0010206328
000070 3f 68 16 bc b2 b2 77 3b 7b 57 e7 bb 00 dd 4a bb
       -0.009180128 0.003779572 -0.007059989 -0.003095448
000080 48 4b 8e bb dd 39 87 3b e4 89 23 3c e4 9f 7b bc
       -0.0043424703 0.004126771 0.009981606 -0.015357945

transformer.layers.0.0.fn.to_qkv.weight f4 [216, 36]
000000 ab 49 08 3d f5 a8 f4 3d 57 95 52 3d fb 88 e3 3d
       0.03327338 0.119462885 0.051411953 0.11110111
000010 9e c2 07 3e f7 da af bd 8b de a9 3d 5f 21 e5 bb
       0.13257834 -0.08586686 0.082944 -0.0069925035
000020 1c bd 26 3d ca 3e 14 bd 9e 1d 04 be cb 3c 11 be
       0.040707693 -0.036192693 -0.12901923 -0.14183347
000030 68 10 02 be b1 6b ec 3d 78 f3 03 be 59 8b 0f be
       -0.12701571 0.11543978 -0.12885845 -0.14018
000040 48 d1 26 be de 6f 1c be 71 89 8b 3d f8 00 12 be
       -0.16290772 -0.15277049 0.06813324 -0.14258182
000050 07 e5 47 3d fb 86 ff bd 53 32 1a 3d d0 ce f4 3d
       0.048802402 -0.12476917 0.03764565 0.11953509
000060 f6 7a 0f 3e 2e 6b f2 3c e3 27 ce 3d 24 30 16 be
       0.1401175 0.029592123 0.100662015 -0.14666802
000070 27 50 8d bd 4f 6c e9 bd 62 e0 0c 3e 14 4b 1c be
       -0.069000535 -0.11397611 0.1375747 -0.15263015
000080 eb 24 3e bd 2f 0b 2b 3d 25 ba 0a be d4 4f 1e be
       -0.046421926 0.041758712 -0.13547571 -0.1546014
000090 b1 01 93 bc 45 29 d9 bd 1a 6b 88 ba 1a 1d 43 3e
       -0.017945142 -0.10603575 -0.0010407895 0.1905407
0000a0 1d 39 10 be 77 89 e2 bb a3 2d ff bd 4b 80 17 3d
       -0.14084287 -0.0069133597 -0.124598764 0.036987584
0000b0 5f e7 06 bd 70 19 81 bc 2d 84 a4 bd 1a d7 ef 3d
       -0.032935496 -0.0157592 -0.08033023 0.11710949
0000c0 7e f4 e7 3d c6 ec 92 3d c4 40 b2 bd 15 98 2e 3e
       0.1132593 0.07174067 -0.08703759 0.17050202
0000d0 c4 ff e6 3d d0 86 ed 3d ba 87 84 3d c0 66 e0 3d
       0.11279252 0.11597979 0.064712 0.10957098
0000e0 91 b6 df 3d 87 88 b6 bd bc f5 df 3d c4 98 15 be
       0.10923494 -0.08912759 0.10935542 -0.14609057
0000f0 5b 27 2a 3d db 03 29 3d 7b ef c9 bd 3e 8c 3b bd
       0.04154144 0.041263442 -0.098601304 -0.045788042
000100 40 a1 aa 3d 48 c0 78 bc 0c 88 fe bd 3b 3c 22 bd
       0.08331537 -0.015182562 -0.12428293 -0.03960822
000110 ab 13 32 be 49 3e d2 3c 47 db 27 be af 0a 78 bd
       -0.17390315 0.025664466 -0.16392241 -0.060557064
000120 2c d2 f4 3d cf 99 5c bd 01 41 e7 bd 38 8d 2c bc
       0.119541496 -0.05385762 -0.112916954 -0.010531716
000130 dc b3 e8 bd 4f da 07 3e f5 25 c7 bd 82 8d de bd
       -0.113624305 0.13266872 -0.097240366 -0.10866834
000140 15 15 d4 3d 83 1a 9f 3d e2 88 c6 bc 55 b3 25 be
       0.103555836 0.077687286 -0.024235193 -0.16181691
000150 fe d9 9f bd 50 95 8e 3d 3c 5c 22 be 82 22 f5 bd
       -0.078052506 0.06962073 -0.15855497 -0.119694725
000160 2b 8e 14 3e 00 bf 28 3e 87 df 24 bd e9 db e9 bd
       0.14507358 0.1647911 -0.040252235 -0.11418898
000170 eb ed 18 be ef c2 30 3c ae c5 08 3e c4 2c 6b bd
       -0.14934509 0.010788663 0.13356659 -0.05741574
000180 e0 b5 65 3d d4 91 04 be 7b d9 96 bd 24 7d 20 3e
       0.056081653 -0.12946254 -0.073657 0.15672737
000190 c2 28 39 3c 6d 84 fa 3d b9 ef 90 3d 11 6c e9 3d
       0.011301221 0.122322895 0.070769735 0.11397565
0001a0 57 27 bc bd 39 d9 05 be 86 81 66 3c 46 6e 98 3c
       -0.09187191 -0.13071145 0.014068967 0.01860727
0001b0 89 9b 1b 3e 35 a9 51 3c a4 43 15 3e 0d e2 ae 3d
       0.1519605 0.01279669 0.14576584 0.085392095
0001c0 67 02 9b bd cb 75 93 3c d1 a4 20 bd 46 91 10 3e
       -0.075688176 0.018000504 -0.03921968 0.14117917
0001d0 ba cb 04 be b4 19 61 3d ae 31 09 3e 8a ab 68 bc
       -0.1296834 0.054956153 0.13397858 -0.014201054
0001e0 f7 9c ab bd 56 8f 3f be 84 57 19 3d ab b4 92 3b
       -0.08379548 -0.18707022 0.037436977 0.0044771037
0001f0 c1 6a e3 3d bd ea 21 3e 62 53 0d be 7f 4c 95 bb
       0.11104346 0.15812202 -0.1380134 -0.004556238
000200 ce 01 23 3e 73 d7 2a be d5 d2 c3 3d 13 8b b3 3d
       0.15918657 -0.1668375 0.095616974 0.08766761
000210 ad b7 e8 bc 34 75 28 3b 26 d2 31 3d 38 e0 30 3d
       -0.028407896 0.0025704624 0.043413304 0.04318258
000220 ea 28 c5 3d ac 5e bf 3d 0b c7 82 bd eb e6 7c bc
       0.09626944 0.09344229 -0.06385621 -0.0154359145
000230 d1 df 11 be 72 84 da 3c c0 62 22 be 7b fa e4 bd
       -0.14245535 0.026674483 -0.15857983 -0.11180588
000240 71 c6 9b 3d a6 eb 32 3d 8e 28 ea 3c 1b dd 12 3d
       0.07606209 0.043681763 0.028583791 0.035855394
000250 9f 2a 0a 3e 81 ac 0e be a8 17 b0 bc 78 f7 cb 3d
       0.13492821 -0.13932993 -0.021495655 0.0995931
000260 dc 59 90 3d 74 43 f7 3d 89 a7 9a bd 2f e8 cd 3c
       0.07048389 0.120734125 -0.07551486 0.025135128
000270 9b cd 00 bd b0 50 54 be 1d 96 c4 bd ee 8e 2b 3e
       -0.03144608 -0.20733905 -0.09598944 0.16753742
000280 5f 05 6b bd b6 ac 08 3e 46 6a a7 3c 86 e9 8a 3d
       -0.05737817 0.13347134 0.020436417 0.06782822
000290 25 a6 a8 bb aa e6 d9 3c 34 44 d7 bd 38 f2 23 3e
       -0.005146759 0.026599247 -0.105110556 0.16010368
0002a0 e9 14 d4 3d c8 ec 92 3d 79 ae e1 bd 79 2b 03 be
       0.10355551 0.07174069 -0.11019606 -0.12809552
0002b0 27 a4 00 be 29 98 2f 3e 5a 04 41 bd 35 30 06 be
       -0.12562619 0.17147888 -0.04712329 -0.13104327
0002c0 38 40 a6 3c 72 c7 cb 3d ea 6d 70 3d e9 27 01 bd
       0.020294294 0.099501505 0.058698572 -0.031532202
0002d0 a1 38 19 3d 33 80 b4 bc b7 47 09 3e d7 7d b6 bc
       0.03740752 -0.022033786 0.13406263 -0.022276802
0002e0 fa ee f6 3d 6b 24 c7 3d 31 19 bc bc 8e e4 7b 3d
       0.120573 0.09723743 -0.022961231 0.061497264
0002f0 a8 28 b6 3d e3 55 a6 bd 84 56 23 be 0f 6a dc bc
       0.08894473 -0.0812185 -0.15950972 -0.026906041
000300 cc ef e1 bd 67 70 5d 3d 84 af f9 bd e5 82 3b 3b
       -0.11032066 0.054062273 -0.1219168 0.0028611955
000310 b1 1f fb 3d 25 c8 00 be 5c 5d ec 3d cd 28 0e 3e
       0.12261904 -0.12576349 0.115412444 0.13882752
000320 e6 c3 a2 3d 54 64 15 be 31 fd 0b 3e cd 75 60 3d
       0.07947521 -0.14589053 0.13670804 0.054799844
000330 d4 01 f7 3d 61 7b 20 be 07 8e 81 3d 2e 44 1b bd
       0.120608956 -0.15672065 0.06325918 -0.037906818
000340 4a dc 43 bd b4 fa a2 3d fb d3 2b 3e 62 e8 56 3d
       -0.047817506 0.07957974 0.16780083 0.05246771
000350 92 0b 83 3d 98 56 10 be 5d 3c d1 3d 22 f5 76 3b
       0.06398691 -0.14095533 0.102165915 0.0037682732
000360 1d 85 e8 bd 28 06 10 bd d6 36 03 3e 10 ed 02 3e
       -0.11353514 -0.03516212 0.12813887 0.12785745
000370 5c 70 e4 bb 9f f0 32 3e dd 72 4a 3d ce db fc 3d
       -0.006971402 0.17474602 0.04942595 0.12346612
000380 68 3a ab 3d 85 02 2a be 5c fc 11 3d fc 13 18 3e
       0.083607495 -0.16602524 0.03564106 0.14851373
000390 6b 03 df bc aa f7 c8 bc ba e5 14 be 55 bf 13 3d
       -0.02722331 -0.024532158 -0.14540759 0.03607114
0003a0 96 65 a0 bd 43 a5 b2 3d 43 15 d9 38 52 bb 85 bc
       -0.07831876 0.087229274 0.00010351327 -0.016324673
0003b0 84 36 0b be fc 73 23 3e 35 30 09 be 44 b4 03 3e
       -0.13595015 0.15962213 -0.13397296 0.12861735
0003c0 43 a1 08 be 19 af ed bd f6 e6 10 3e 1e df 29 be
       -0.13342766 -0.11605663 0.14150605 -0.16589019
0003d0 c2 b5 d7 bd 00 c6 97 bc 27 07 a7 3d 49 d2 bc 3c
       -0.105327144 -0.018527031 0.08155661 0.02304949
0003e0 33 68 2e bc 65 89 27 3d 60 a9 04 be 00 0c df bd
       -0.01064496 0.040902514 -0.12955236 -0.10890961
0003f0 7f d8 1a bd 31 71 04 be 18 7c f3 3d 2b 0b a3 3d
       -0.037804123 -0.12933804 0.118889034 0.079611145

transformer.layers.0.0.fn.to_out.0.weight f4 [36, 72]
000000 32 29 13 3d 11 e9 58 3d a0 1c bf bd c9 8c 5a 3d
       0.03592796 0.052956644 -0.09331632 0.05335692
000010 cf 87 27 bd 61 f2 09 3d b0 57 e4 bc b4 c5 bd 3c
       -0.040901 0.033678416 -0.027873844 0.023165561
000020 b1 90 ea 3d ce 86 de bd b3 6c 96 3d 39 f8 e3 3c
       0.11453379 -0.10865556 0.073449515 0.027828323
000030 41 ab e7 bd 8b 0c 8b bd 5f ed 8f 3d 55 2f d5 bc
       -0.11311961 -0.06789502 0.07027697 -0.026023546
000040 ad 63 58 3d ea bd 8b bd b7 4b 4c bd 9b d3 63 bc
       0.052829433 -0.068233326 -0.049876895 -0.013905431
000050 ed 5c 9a bd d3 9f 4e bd 02 77 15 bc d3 b6 5e bc
       -0.075372554 -0.05044539 -0.009122612 -0.013593393
000060 30 87 77 3d 0a fb f0 3d d0 ef 10 bd 53 40 4f 3d
       0.06043166 0.11766632 -0.035384953 0.050598454
000070 13 8c 79 bc a9 58 85 3d 36 c0 bb bb 3e a3 6b bb
       -0.01523115 0.06511051 -0.0057297004 -0.0035955454
000080 16 51 7d bd 2b ff e4 3d 61 58 8f 3c dc fb 6e 3d
       -0.061844908 0.11181482 0.017498197 0.05834566
000090 0d 68 e2 3d fd 94 bc bd e1 74 28 bd d4 5b 38 bd
       0.11055002 -0.09208105 -0.04112709 -0.04500945
0000a0 ae f1 6a 3d 7b bb 12 bd b0 56 a8 bc 7f 9a d5 3d
       0.05735939 -0.035823327 -0.020549148 0.104298584
0000b0 c4 b0 76 3d 03 ff e3 3d 56 41 80 3d 36 7c a2 3d
       0.06022717 0.11132624 0.06262462 0.079338476
0000c0 01 48 a9 bd 28 67 59 bd 27 fe af bd c9 1e 2f bd
       -0.08265687 -0.053076893 -0.085933976 -0.04275397
0000d0 86 59 bd 3d 3f c7 ff 3d a4 90 a9 bc ff 04 25 3d
       0.09245591 0.12489175 -0.020698853 0.040287968
0000e0 06 cd 3c 3a 12 43 98 bd 90 86 16 3d d2 14 b9 bd
       0.0007202182 -0.07434668 0.036749423 -0.09037174
0000f0 4f 1c a3 3c 0d 65 34 bd 78 3e 32 3d f0 4c a1 3d
       0.01991096 -0.044041682 0.043516606 0.07876003
000100 73 1d b3 3d 80 ac c5 bd b1 3a a4 bd b8 c9 e2 bd
       0.08745851 -0.096520424 -0.08019007 -0.11073631
000110 bb 11 e2 bd c0 85 f8 3c 00 23 0d 3d 8e 7a 87 3d
       -0.11038538 0.030337214 0.034457207 0.06615172
000120 15 13 c4 3d c4 b3 a8 3d 64 22 c2 ba bb 02 84 3d
       0.09573952 0.082374126 -0.0014811275 0.06445833
000130 31 f6 91 bc 24 65 9b 3d f1 92 b2 3d e0 4f 2c 3d
       -0.017817589 0.075876504 0.08719433 0.042068362
000140 e1 34 4a bd 90 6f 79 3d ad d8 1b bc e7 e6 b8 bc
       -0.049366836 0.06089741 -0.009512109 -0.02257104
000150 79 8f d0 3c 52 0d 60 3d 61 8d 06 bd b8 3c cf bd
       0.025459038 0.054700203 -0.032849673 -0.10119003
000160 7b e0 89 bd b4 41 03 3d 0a fa 38 bd 08 f1 14 3d
       -0.067322694 0.03204508 -0.04516033 0.036362678
000170 34 96 43 3d 3d e6 a3 bb f5 e4 cc 3d f5 c3 43 bd
       0.047750667 -0.005001812 0.100046076 -0.0477943
000180 7d 52 d2 bd d1 7e 78 bd ed 2d bd bd 24 a4 aa bd
       -0.1026964 -0.060667817 -0.09237275 -0.083320886
000190 30 57 f6 3c dd ab a6 bd 8e ee 7d bd 9e aa ba 3d
       0.030070871 -0.08138249 -0.06199508 0.09114574
0001a0 98 28 a1 3d bf 98 e3 bd 8f 2e c6 3d 6a 11 a0 3d
       0.07869071 -0.111131184 0.09676849 0.078158215
0001b0 f6 74 ca bd 2a c8 21 bd 9c cd 69 bd 49 e7 a2 bd
       -0.0988559 -0.039497532 -0.05708085 -0.079542704
0001c0 f6 76 a7 3d 02 39 37 3c 6c f9 c0 bc 27 8e 03 bd
       0.08176987 0.011183025 -0.023556434 -0.03211799
0001d0 f1 0d db 3c b4 44 8d 3d 53 fb fb 3d 2f a2 c7 bd
       0.026740046 0.0689787 0.12303796 -0.09747731
0001e0 be 91 67 bc 22 d6 c7 bc 17 25 1d 3d 6b aa cd bd
       -0.014133869 -0.024394099 0.03836545 -0.1004227
0001f0 28 9f d7 bd 5d 98 13 3d 9e 33 a1 3d ff 97 ef 3c
       -0.105284035 0.036033977 0.07871173 0.029247282
000200 f3 cb 9c bd b0 8a 60 bd 25 59 df 3c 4b 8e 82 bd
       -0.07656088 -0.054819763 0.027264187 -0.063747965
000210 cb c4 86 3d 65 ef b0 3d c8 a1 68 3d e0 0f 21 bd
       0.06580504 0.08639411 0.05679491 -0.03932178
000220 bc 8e 59 3d ae 71 3d 3d 39 3d 80 bc 82 ef 06 bd
       0.053114638 0.04625099 -0.015654193 -0.032943256
000230 43 a9 3c 3d 40 da dd 3d 1c c6 34 bd fb cb ee 3d
       0.046059858 0.108326435 -0.044134244 0.1166
000240 66 8e dd bd ec 52 99 bd 71 f9 5b 3c 58 3b 8e 3d
       -0.10818176 -0.07486519 0.013426171 0.06944913
000250 ef 2b da 3d 67 ee c2 bd 0e ba 9f 3c 6d 3e da 3d
       0.10652911 -0.09518128 0.019497897 0.10656438
000260 86 30 99 3d 14 41 e8 3c 28 09 bf 3d e9 64 8b bd
       0.07479958 0.028351344 0.09327918 -0.068063565
000270 b1 34 a8 3d b9 39 fe bc cb bf f6 3d b8 ee e7 bd
       0.08213175 -0.031033384 0.120483 -0.11324829
000280 ed 35 3b 3c 65 28 09 3d 2f 49 b1 3d b8 32 f2 bc
       0.011426431 0.03348579 0.08656537 -0.0295652
000290 90 51 87 bc e7 56 e6 bd 07 ee 97 bd 77 f4 fb bd
       -0.016518384 -0.11247044 -0.07418447 -0.12302487
0002a0 f3 71 d4 3d db 42 ff 3d 89 6f 5e 3d 94 03 1d bd
       0.103732966 0.124639235 0.054305587 -0.03833349
0002b0 db 68 be 3c c0 df b1 3d ff 58 9e bc 4e c1 ae 3d
       0.023243358 0.08685255 -0.019329546 0.08532964
0002c0 b3 3e ae 3c d7 b6 b7 bd f6 86 c7 bd 6e a3 3e bd
       0.021270132 -0.08970421 -0.09742539 -0.046542577
0002d0 ee 91 d2 3a 61 a7 19 3d 7c 79 ad bd 7e 8a d5 3d
       0.0016065219 0.03751314 -0.08470437 0.10426806
0002e0 d8 c2 09 bd 7c 7c 2c 3d 65 be e3 3c 76 9a 3e 3d
       -0.033633083 0.042110905 0.027800748 0.046534024
0002f0 61 4c 86 bd d3 26 84 bd 13 d6 9c 3d df 84 25 bc
       -0.06557537 -0.06452718 0.07658019 -0.01010248
000300 b7 f3 f3 bd 70 f7 95 3b eb d6 92 bc c9 4a 3e bc
       -0.11911719 0.004576616 -0.017924746 -0.01161451
000310 9a b2 c5 bd 78 e2 ed 3c 46 d2 d9 3d d5 73 c8 3c
       -0.09653206 0.029038653 0.106358096 0.024469296
000320 c6 43 d3 bc 2a 43 13 3c ed 00 a1 bd 1a 56 12 bd
       -0.025789153 0.008988181 -0.07861505 -0.035726644
000330 cd 34 a7 bd 37 32 c4 bc 63 f4 45 3d 2e 71 9f bc
       -0.08164368 -0.023949726 0.04832877 -0.019463148
000340 87 6c f3 bc 43 ab 84 bd a1 df e3 bd cf 63 93 3d
       -0.029714836 -0.06477978 -0.11126638 0.07196771
000350 0b d6 cd bc fd d4 94 3d ae fc ff bd 2f f0 d4 bc
       -0.025126478 0.07267187 -0.12499367 -0.025993435
000360 53 3c 45 3d 39 b6 bd bd 5f 98 47 3d 3d 19 4a 3c
       0.048153233 -0.09263272 0.048729297 0.012335119
000370 52 58 e3 3c 24 18 9d 3d 34 39 a0 3d 75 2b 58 bc
       0.027752075 0.0767062 0.07823411 -0.013193955
000380 82 ef 38 bc a1 41 3d 3d ab ee 51 3d 83 9f b6 3d
       -0.011287572 0.046205167 0.051253002 0.08917143
000390 f0 f4 f9 bb 1f b5 c2 3d 1c fe 94 3c 75 bd a5 bd
       -0.007628076 0.09507202 0.018187575 -0.08092777
0003a0 86 13 a1 3d 81 5e 90 bd 8c 37 ef bd fe 23 da bd
       0.07865052 -0.07049275 -0.116805166 -0.10651396
0003b0 65 ac ad bd a3 03 ac 3c 66 69 41 bd a4 02 97 bd
       -0.08480147 0.020997828 -0.047219656 -0.073735505
0003c0 d1 28 4b 3d c9 4d d4 bd f3 d3 a6 bc f2 fb fe 3c
       0.049599472 -0.10366399 -0.020364737 0.031125996
0003d0 1f 2c 85 bd cc fe c0 3d 93 df 5d 3d 1b 3f 60 bd
       -0.06502556 0.09423599 0.054168295 -0.054747682
0003e0 48 dd c4 3d 3b 2e a8 3c a1 40 74 3d 33 fe 9b bd
       0.096125185 0.020529857 0.059631947 -0.07616844
0003f0 2e 3f 8b bb 4b e7 d4 bd 51 9d 8a bd 07 3f ac bd
       -0.004249475 -0.10395678 -0.06768287 -0.08410459

transformer.layers.0.0.fn.to_out.0.bias f4 [36]
000000 2f ec d4 bd ab d0 84 bd 8b 49 89 bd 07 81 bb bd
       -0.10396611 -0.06485113 -0.0670348 -0.091554694
000010 d5 13 5a 3d 67 f5 5b 3c fe e3 98 bc 34 52 50 3d
       0.05324157 0.013425208 -0.018663403 0.050859645
000020 19 dd 69 3d 9a 1d e4 3d a2 30 e1 bd 9b bf 9a 3d
       0.05709562 0.111384585 -0.10995604 0.07556077
000030 d5 11 da bd f8 3e c8 bd f6 bd f2 3d 8f bf f0 3c
       -0.106479324 -0.09777635 0.118526384 0.029388217
000040 54 05 24 3d 18 38 5d bb da 4b 11 3d 7e b9 af 3d
       0.040044144 -0.0033755358 0.03547273 0.08580302
000050 69 57 9e bd 5e e6 81 3c e1 83 82 3c cb 7b 2e bc
       -0.07731516 0.015856918 0.015932025 -0.010649632
000060 ef 8e ba 3c b7 c1 3e bd f5 0b ba bc 8b 75 26 3d
       0.022773234 -0.04657146 -0.02271078 0.04063944
000070 62 97 de bd f5 c7 81 bd 31 76 31 bc fb 92 ac bc
       -0.10868718 -0.06336967 -0.010831402 -0.02106618
000080 46 1e f6 3d 1e 4f c2 3d 00 ab 4a 3d 53 2b 25 bd
       0.12017493 0.09487747 0.049479485 -0.04032452

transformer.layers.0.1.norm.weight f4 [36]
000000 90 5e 82 3f 6d 79 80 3f 88 23 7f 3f 9d 7d 83 3f
       1.0185108 1.0037056 0.9966359 1.0272709
000010 3c 5a 7e 3f 7b e6 7f 3f f1 48 80 3f f0 8f 81 3f
       0.99356437 0.9996106 1.002226 1.0122051
000020 29 d1 80 3f e0 5c 80 3f 32 a9 81 3f 81 e3 81 3f
       1.0063831 1.0028343 1.0129759 1.0147554
000030 a1 cd 7f 3f f4 18 7d 3f 1c 3d 81 3f ba 6f 80 3f
       0.9992314 0.988662 1.0096774 1.0034096
000040 49 fb 7f 3f 8e 76 82 3f 4a bd 7d 3f 31 e4 7d 3f
       0.99992806 1.019243 0.9911696 0.9917632
000050 27 10 85 3f 20 57 86 3f 27 e8 80 3f 8c dc 7f 3f
       1.0395554 1.0495338 1.0070847 0.999459
000060 52 93 7d 3f b4 ac 7b 3f 18 97 80 3f eb f2 80 3f
       0.9905292 0.983104 1.004611 1.0074133
000070 f2 64 81 3f 8e 63 82 3f 25 ef 81 3f d6 f3 7f 3f
       1.0108931 1.0186632 1.0151106 0.9998144
000080 a3 bf 7f 3f 30 e1 80 3f 13 04 7e 3f 08 22 81 3f
       0.9990179 1.0068722 0.99224967 1.008851

transformer.layers.0.1.norm.bias f4 [36]
000000 e4 0c 15 3b 85 f6 85 39 d7 82 74 b8 97 3f 0c 3c
       0.002274328 0.00025551408 -5.8295987e-05 0.008560083
000010 8a f8 3d bb 6f 16 ce 3a c1 e5 38 3a a7 c9 a5 3b
       -0.0028987252 0.0015723238 0.0007053279 0.005059439
000020 0b a2 87 3b d4 ac cd ba 65 87 8d 3b fd 3a ca 3b
       0.00413919 -0.0015691766 0.004319119 0.0061715827
000030 e7 3e 65 bb c9 45 1a 3c 15 75 ca bb ed 6d 86 bb
       -0.003498012 0.009416052 -0.006178508 -0.0041024596
000040 f3 7a f6 39 1d 50 9c bb 6d dc dc 3b e1 f6 17 bc
       0.0004701238 -0.0047702924 0.006740144 -0.009275169
000050 16 b7 c1 bb 52 11 e1 3b f8 78 ce 3b 6d b4 25 3b
       -0.005911718 0.00686852 0.0063010417 0.0025284544
000060 53 8e 38 38 d6 97 4d bc 36 3c 45 bb ca be 00 3b
       4.400157e-05 -0.012548408 -0.0030095703 0.001964497
000070 c8 3c 63 3b 16 3f ea bb 46 1a 0c bc c2 db e9 3b
       0.003467368 -0.0071486337 -0.008551186 0.007136793
000080 de 9b 87 bb d6 39 e7 3b f5 76 c3 3b 45 73 01 3c
       -0.004138454 0.007056455 0.0059651085 0.007901018

transformer.layers.0.1.fn.net.0.weight f4 [72, 36]
000000 6f 55 cb 3d 51 bb 89 3d a0 0c d1 bd de 00 63 bb
       0.099284045 0.06725181 -0.10207486 -0.0034637968
000010 da a1 11 3e 7d 8a 09 3e a9 5b 5c bd 2e 5b fd 3d
       0.14221898 0.13431735 -0.05379835 0.12370907
000020 b1 43 65 bd aa 93 f7 bd 67 c7 72 3c d3 af e4 3b
       -0.05597276 -0.120887116 0.014818049 0.0069789677
000030 b1 f8 51 be 10 cb 21 be f4 50 f5 3d 30 0f 04 3e
       -0.20505024 -0.15800118 0.11978331 0.12896419
000040 38 27 07 be 0a 99 e0 bd ae 30 5d 3d e6 03 86 bd
       -0.13198555 -0.1096669 0.054001503 -0.06543712
000050 04 96 47 bd 80 d5 f9 3d 56 aa 0e be 5d e7 1e be
       -0.04872705 0.12198925 -0.13932166 -0.15517946
000060 07 94 53 3d 21 b7 fb 3d 2a 75 e4 3d de 69 23 3e
       0.05165484 0.122907884 0.1115516 0.15958354
000070 1b 74 b1 bd 28 bc a4 3d f9 f9 1e 3e 23 25 df bd
       -0.086647235 0.080437005 0.15525045 -0.10895755
000080 98 7a 25 3e 46 51 db bd cc 0d 00 3e 29 d1 87 3d
       0.16160047 -0.10708861 0.12505263 0.06631691
000090 ad 18 60 3d fe ce 18 be cd 3e 32 3d c4 29 91 3d
       0.054711033 -0.14922711 0.043516923 0.07088044
0000a0 d3 e3 07 be 8d 7e 1a be ac 84 2c bd 58 4d 4f 3d
       -0.13270502 -0.15087338 -0.042118713 0.05061087
0000b0 88 a9 c5 bc 33 95 2a 3e bf 09 4f 3d 25 4a f3 bd
       -0.02412869 0.16658477 0.050546404 -0.11879376
0000c0 11 15 19 bd 87 ab 64 bd a6 59 1b 3e cb 3c 04 3d
       -0.037373606 -0.055827644 0.15170917 0.03228454
0000d0 48 fd c7 bc db da df bd 86 54 69 bd 7d 7b 0f be
       -0.024412766 -0.10930415 -0.056965373 -0.14011951
0000e0 bd 18 8f 3c e2 24 14 bd 9d af cd 3d e8 72 c1 bd
       0.01746785 -0.036167987 0.10043261 -0.09445745
0000f0 1e 80 fd bd 87 d6 f5 3d 1d 4a c4 3c 6d f7 6b bc
       -0.12377952 0.120038085 0.023961121 -0.014402253
000100 02 15 94 bd cc b0 37 bd ad a8 d4 3d 7e 71 b6 3d
       -0.072305694 -0.04484634 0.10383735 0.08908366
000110 ce c9 ff 3d 80 ab 8d bd 45 28 7c 3d c3 c3 dc bd
       0.12489663 -0.06917477 0.06156184 -0.10779526
000120 2f 91 c9 bc 38 3d fa 3d 5d 59 9a 3d 99 d7 c5 3d
       -0.024605362 0.12218708 0.07536576 0.096602626
000130 79 fb f9 3c f9 7c 65 bd 59 8c 0a bd cf b8 d1 3d
       0.03051542 -0.056027386 -0.033825252 0.102403276
000140 23 ca 16 bd 5d 2c 42 3c 8f 73 63 bd 75 92 2d 3e
       -0.036813866 0.011851397 -0.055530127 0.169504
000150 a2 ce 2c be ee 38 d8 bc ed 98 93 bc c0 51 27 3d
       -0.16875699 -0.026394334 -0.018017257 0.040849447
000160 ca cc f0 bd 8a 36 c3 bb 15 e5 af bd c6 0b 88 3d
       -0.117578104 -0.0059574293 -0.08588616 0.066428706
000170 8d 7a 82 bd 99 94 cd bd 1b c0 0c 3e f0 e4 c1 3d
       -0.06371031 -0.100381084 0.13745157 0.094674945
000180 39 4c 00 bd 3a f1 d3 3b c4 54 0b 3e 55 74 06 3d
       -0.03132269 0.0064679654 0.13606554 0.032825787
000190 3f a8 9f 3d 20 b7 82 3d d8 79 20 3c 0e 6e 08 3b
       0.07795762 0.063825846 0.009794675 0.002081755
0001a0 93 19 06 bd 79 10 d9 bd 21 1f a3 bd 64 a8 01 3e
       -0.032739233 -0.10598845 -0.07964922 0.12661892
0001b0 c2 7c e9 bd 9b 2f 93 bd 60 f1 06 be 57 15 35 3e
       -0.11400749 -0.071868144 -0.13178015 0.17683922
0001c0 13 7d cb 3b b7 e6 f8 bd 01 19 88 3d 58 bd 2b 3e
       0.0062099784 -0.1215338 0.06645394 0.16771448
0001d0 86 11 f9 bd d5 32 f6 3d f0 20 ab bd 3d d2 26 3d
       -0.121615455 0.12021414 -0.08355892 0.040727843
0001e0 89 f8 d5 3d f3 e1 19 3e e9 6c 1c be 19 25 a6 3c
       0.10447795 0.15027599 -0.15275921 0.020281361
0001f0 b7 d3 0f be ea 23 40 3d ae b7 bf bd 71 3a b3 bd
       -0.14045607 0.04690925 -0.09361206 -0.08751381
000200 af d2 b7 3d 92 fc 99 3b ef 31 42 3c 10 c7 b3 3d
       0.089757316 0.004699298 0.011852725 0.087782025
000210 44 0f 0c 3c 0f 65 04 3e e7 fb aa bc d8 81 44 bd
       0.0085485615 0.12929176 -0.02087207 -0.04797539
000220 8b 1c c0 bd 9b 47 ae 3a f4 f4 65 3d 27 4b c5 3c
       -0.09380444 0.0013296487 0.05614181 0.024083687
000230 3b b5 41 bd 3d 3e 05 3d a1 de e3 bd 17 47 39 3d
       -0.047291975 0.03253006 -0.111264475 0.045233812
000240 97 f5 4d 3d 4a cc 7c 3d e6 b9 e8 3d a1 92 be bc
       0.05028304 0.061718263 0.11363582 -0.023263277
000250 5f d4 3a 3e e6 75 aa 3d 8f 2f 17 be 43 21 91 3d
       0.18245076 0.083232686 -0.14764236 0.07086422
000260 ee 74 7a bd 49 16 1b 3e e6 73 74 3d a9 82 ff bd
       -0.06114667 0.1514522 0.059680842 -0.12476093
000270 89 b3 7e 3d bc e7 9d 3d 81 84 22 3e ac 80 25 bd
       0.062182937 0.077102154 0.15870859 -0.040405914
000280 e8 a7 16 3e 98 b1 1d be b3 17 bd bd 82 37 29 ba
       0.14712489 -0.15399778 -0.09233036 -0.00064551097
000290 34 de 3f 3e 60 41 04 be 67 3b 24 bd 74 7d 11 3e
       0.18737108 -0.12915564 -0.040095713 0.14208013
0002a0 52 75 4a 3c 36 4d 4d 3d a4 ea 1f 3e 73 dc 7e 3c
       0.012357073 0.050122462 0.15616852 0.015555489
0002b0 28 e7 21 39 f7 92 12 3d 4f dd 05 3d a0 a6 05 be
       0.00015440269 0.035784688 0.03268176 -0.13051844
0002c0 9b f5 bb bd b8 b4 a8 3d 59 15 3d 3e 0d 8d cc 3c
       -0.09177705 0.08237594 0.18465175 0.024969602
0002d0 f5 c0 32 3c 6a 30 4e 3d 5d 56 ab bd 8d 7a 26 be
       0.010910262 0.05033914 -0.08366082 -0.16257687
0002e0 45 60 15 be a7 ae 94 3c 58 a0 87 3d 37 cb 04 be
       -0.14587505 0.018149687 0.0662238 -0.12968145
0002f0 36 e7 1b 3e 17 74 08 be 65 0f 73 bd d5 b7 e2 bd
       0.15224919 -0.13325535 -0.059340853 -0.110702194
000300 9f 15 0a be fc ac 05 3e ec c8 0e 3e 97 c7 89 bd
       -0.1348481 0.1305427 0.13943833 -0.06727522
000310 19 b5 db 3d ea f2 05 be 86 66 97 39 22 5a f0 bd
       0.10727901 -0.13080946 0.0002887735 -0.117359415
000320 7e ac 17 3e 8b 8b ff bd 15 72 1c 3c 36 ba f1 3d
       0.14811894 -0.124777876 0.009548684 0.11803095
000330 ef 9b cf 3d 8b 68 bc 3d 71 1d 12 3d b0 04 04 3e
       0.10137164 0.091996275 0.03567261 0.12892413
000340 fc 90 cf 3c bf f7 f3 bd be b0 b7 bd 13 aa 25 3e
       0.025337689 -0.11912488 -0.08969258 0.1617816
000350 a9 97 e4 bc cb 50 9b bd 7c 3e b7 3c 4f 2f 1e 3d
       -0.027904348 -0.075837694 0.022368662 0.038619336
000360 71 9a f5 3c 16 e0 05 bc 32 c2 bc bb 95 6f 92 3d
       0.02998087 -0.008171102 -0.0057604546 0.07150189
000370 96 99 42 3d 70 8a ab 3d 0e 2b 26 3e 5f 59 a7 bd
       0.047509752 0.08376014 0.16227362 -0.08171343
000380 84 82 24 3e 9d e5 13 3d f6 b0 bc 3d c8 34 d1 bd
       0.16065413 0.03610765 0.0921344 -0.10215145
000390 81 1c 18 3e 98 8f 4b 3c db 16 fd bc fc 0c 6d bd
       0.14854623 0.012424372 -0.030894687 -0.05787371
0003a0 51 2c ae 3c e3 39 1a 3e 53 0c a8 3d c2 53 ac bd
       0.021261366 0.15061145 0.08205476 -0.08414413
0003b0 61 bc e5 bd 4a 28 96 3d a3 33 6f bc 2a 7d b6 bd
       -0.11217571 0.07331903 -0.0145997135 -0.08910592
0003c0 16 d1 29 3d 0c d4 c2 bd 8a 69 85 3d bb 47 15 be
       0.041459166 -0.09513101 0.065142706 -0.14578144
0003d0 d9 13 ab bd 03 d0 bd bd f2 96 70 3d 41 7e 08 be
       -0.08353395 -0.09268191 0.058737703 -0.13329412
0003e0 9d fa fa 3d 45 e0 c0 3d 39 e1 db 3d 59 fe 97 bd
       0.12254832 0.09417776 0.10736317 -0.0742156
0003f0 a4 11 36 be ab c9 e7 3d 7e 95 10 3e 70 2d 51 3d
       -0.17780167 0.11317762 0.14119527 0.051068723

transformer.layers.0.1.fn.net.0.bias f4 [72]
000000 be e2 74 3d f7 53 90 bd 06 4d 59 3d 94 dc 9b 3d
       0.05978655 -0.07047265 0.05305197 0.07610431
000010 17 89 db 3c 5e 4e 08 bd bd 83 44 bd 48 f4 db bd
       0.026798768 -0.03327786 -0.047977198 -0.10739952
000020 15 15 0a be ac a3 1d 3d df fd c2 3d a0 00 8c bd
       -0.13484605 0.038486168 0.09521078 -0.06836057
000030 93 dd f5 3d 84 5f d1 bd 60 d3 f9 3d 78 ed 02 3c
       0.120051526 -0.10223296 0.1219852 0.007991187
000040 35 ab ab 3b 1f 3b 5e 3d 1d 00 7c bd 26 ec 7a bd
       0.0052389153 0.0542556 -0.061523546 -0.061260365
000050 de 6f 73 3d 14 d7 cc 3d dc e5 1f be 85 7f f3 bd
       0.059432857 0.100019604 -0.15615028 -0.11889557
000060 a9 9f 00 3e a5 2e ba bd fa 93 28 3e 8f 5b 39 bd
       0.12560906 -0.09090928 0.16462699 -0.045253333
000070 35 c3 d6 3d 70 a8 f8 bc e1 97 08 3e cd 9e 5e bc
       0.104864515 -0.030353755 0.13339187 -0.013587666
000080 cd da 13 3e 26 ed 32 be 8f 75 11 bc ac 91 62 3d
       0.14438935 -0.17473277 -0.008878126 0.055314705
000090 6e a0 08 be c7 a4 2f bd cd b6 16 3e b1 95 f9 3b
       -0.13342449 -0.042881753 0.1471817 0.0076167216
0000a0 eb 72 8b 3c b3 1b b3 bd 60 5f 07 3e 52 4c d6 bc
       0.01702257 -0.087455176 0.13219976 -0.02615944
0000b0 53 f0 1c 3e b5 37 0d be f9 b6 3c bc 1e 88 ce bd
       0.15326051 -0.13790782 -0.011518233 -0.10084556
0000c0 77 4c d0 3d a9 f8 52 bc ae f7 06 be 2e fc c8 bd
       0.101708345 -0.012876668 -0.1318042 -0.098137245
0000d0 9f 5b 7c 3d 14 a2 3a bd 8b 16 5d bb 97 49 aa 3c
       0.061610814 -0.045564726 -0.003373536 0.020787043
0000e0 86 c2 e9 bd ff 87 e0 3d 7d 68 07 be e1 58 fd bc
       -0.114140555 0.10963439 -0.13223453 -0.03092617
0000f0 4e a2 0d 3d 9a cb bf bd 94 80 02 3e 27 ce 7a bc
       0.034578614 -0.09365006 0.12744361 -0.01530794
000100 1c 8f 1f 3d fb c1 c8 3d 3c 8a f2 bd c7 b7 0d be
       0.03895484 0.09802624 -0.11842772 -0.13839637
000110 96 12 1f 3d db 80 14 bd ce c2 74 bd f5 9f 22 bd
       0.038836084 -0.0362557 -0.059756093 -0.03970333
