CvT/Models/V train 0.929 V test 0.853 lr 0.00025/model_bestQ.pt (torch, 210865 bytes, 164 tensors)

stage1.patch_embed.proj.weight f4 [12, 3, 3, 3]
000000 1c 98 6f 3e 1e e7 00 3e a2 36 29 be 2f e0 44 bc
       0.23397869 0.12588164 -0.16524747 -0.01201634
000010 cc ec 44 be 53 e5 2b be 8e 71 90 3c 95 c2 16 3d
       -0.19230956 -0.16786699 0.017632272 0.03680666
000020 8d 8c 57 be b4 71 bb bd 43 57 bc bd 9e 03 b4 3c
       -0.2104971 -0.091525465 -0.09196331 0.021974381
000030 7f 2b 9b bd 7c 96 2a be 89 cb 0f 3c d7 c9 7f bc
       -0.075766556 -0.16658968 0.008776554 -0.015612087
000040 c2 0f a3 bc 7d 32 be 3d 36 af c6 3d 79 90 16 bc
       -0.019904975 0.092869736 0.097013876 -0.009189718
000050 e7 84 21 be 80 58 cd 3d 12 0f 79 bb 13 16 da bd
       -0.15773354 0.10026646 -0.0038003367 -0.106487416
000060 f8 f3 b2 bd af 3a 1d 3e 8c ed 2a 3e 71 a0 00 bc
       -0.087379396 0.15354417 0.1669218 -0.007850752
000070 d9 6c c8 bd d2 e5 cb bd ea 23 aa 39 9c 77 37 3b
       -0.09786386 -0.09955944 0.00032451685 0.0027994877
000080 b8 63 3a bd 57 20 de bd 48 c0 58 be c4 1d b2 bc
       -0.045505255 -0.10846012 -0.211671 -0.021742709
000090 7b c9 34 be ec d3 3d 3c a8 96 b9 3d 50 36 7d bd
       -0.17654984 0.011586171 0.090619385 -0.061819375
0000a0 e4 22 a8 bd c5 71 6a 3d eb e4 08 be 02 f8 73 3d
       -0.0820978 0.057237405 -0.13368575 0.05956269
0000b0 2f 8e a4 bc 1d cf dc bd 19 81 36 be 81 33 69 be
       -0.02008733 -0.10781691 -0.17822684 -0.22773553
0000c0 ce 74 52 be 0d 12 c9 bd b4 77 e6 bd 2b 59 da 3d
       -0.2055237 -0.09817896 -0.112533 0.10661539
0000d0 71 d1 19 3d 5e c5 c4 3d 8c bf c6 bd 89 64 59 3d
       0.037553255 0.09607957 -0.097045034 0.053074393
0000e0 df d4 02 be d7 5c 00 be 4d 41 9c bd 23 02 48 bd
       -0.12776516 -0.12535416 -0.07629643 -0.048830163
0000f0 9c 0c 7c bd a3 4c ca 3d ec de 61 3d f6 a2 e0 bd
       -0.061535463 0.098778985 0.055144235 -0.10968582
000100 54 11 18 3d b7 04 cc ba d2 d1 1b bd 8a 85 f8 bc
       0.0371259 -0.001556537 -0.038041897 -0.030337114
000110 fc 26 86 bd 37 6a 62 bd 93 2f f4 3d 05 a6 d7 3c
       -0.065504044 -0.055277076 0.119231366 0.026324281
000120 70 cd 7e bd ba 53 a1 3d 95 59 1c 3e 4c 85 bc bc
       -0.06220764 0.07877298 0.15268548 -0.02301278
000130 59 67 a7 3d 29 10 c2 3c 7e f1 44 bb 26 90 0b bd
       0.08174009 0.023689346 -0.0030051167 -0.034073018
000140 0b b4 eb 3d 1f 1a 3e 3d 15 46 94 bd 29 ca a0 bd
       0.1150895 0.04641163 -0.072399296 -0.07851059
000150 3a cb d9 bd d2 dd 5d bc a1 49 ad bd c3 cb 9a bd
       -0.106344655 -0.013541656 -0.08461309 -0.07558396
000160 01 fd 94 3d 2d 45 c7 3d a2 4e d2 bd fa e9 34 be
       0.07274819 0.09729991 -0.10268904 -0.1766738
000170 f6 34 d7 3b 75 94 9e 3c cb b0 bb 3d ba b9 19 be
       0.0065675927 0.0193579 0.0916458 -0.15012255
000180 a4 e4 f1 3d e5 8d 15 be bb e8 b8 bb 1b 3b 29 3d
       0.11811188 -0.1460491 -0.005642978 0.041316133
000190 a2 68 55 3b 83 91 33 be 0e fe 6d bd f9 f6 b0 3d
       0.0032563587 -0.17535977 -0.058103614 0.08640856
0001a0 83 8f 11 3e 0e d7 85 3d 4e dd 2f 3e b2 e8 70 3d
       0.14214902 0.06535159 0.17174265 0.058815666
0001b0 4d 49 c4 3d 44 07 1e 3d 5b 52 1e 3e 60 38 b8 bd
       0.095842935 0.038581148 0.15461104 -0.08995128
0001c0 53 e4 b4 3d 08 6e 3b 3e 42 71 fe 3c a2 25 2c bc
       0.08832612 0.18303692 0.031059865 -0.010507019
0001d0 ae 9f 76 3c 8a a2 79 3c 4f e9 1d bd c0 bd 0f be
       0.015052719 0.015236506 -0.03855258 -0.14037228
0001e0 2d b7 cb bd c2 ef b0 3a 27 40 97 bb ca 70 31 3c
       -0.099470474 0.0013499188 -0.004615802 0.010830114
0001f0 7c 72 a7 bc e9 ec 15 3d 2f a2 2a 3d 43 1b 34 3c
       -0.020440333 0.03660289 0.041658577 0.010992828
000200 78 92 05 be df 2b 1b 3e ec 6f 9c 3c 59 8e e1 bd
       -0.13044155 0.15153454 0.019096337 -0.11013479
000210 bc 0d 13 bd fd b2 68 3d 9c 97 73 bd 52 a7 37 3d
       -0.03590177 0.05681132 -0.059470758 0.044837303
000220 6a 10 1e be 42 69 09 be fb 84 4e 3e b6 4a 58 3e
       -0.15435949 -0.13419059 0.20167916 0.2112225
000230 44 9e b9 3c b9 d5 08 bc 0b a9 0f be a5 49 43 bd
       0.022658475 -0.008351737 -0.14029329 -0.047677655
000240 5b ad 21 3e e9 c7 ec bd 71 45 a2 bd c6 fa ad 3c
       0.15788786 -0.11561567 -0.07923401 0.021237742
000250 3d 9a 01 be 98 9c 85 3c 1c ad be bc d7 1d 91 bd
       -0.12656493 0.016310021 -0.023275904 -0.070857696
000260 fe cc 9e 3d da e5 1e 3e c9 57 7b 3c 21 8b bb 39
       0.07753943 0.15517369 0.015340754 0.0003577108
000270 76 b6 de bd 84 f8 34 3e a4 9e 4f 3e 10 c7 25 be
       -0.108746454 0.17672926 0.2027536 -0.16189218
000280 2b d8 2e 3e b7 18 72 3d c5 58 22 3e 80 83 40 be
       0.17074649 0.0591056 0.15854175 -0.18800163
000290 fc ff 5a bd c1 fd d4 bc 80 bb c9 3c 0a 15 e2 3d
       -0.053466782 -0.025999906 0.02462554 0.11039169
0002a0 d2 af 02 3e 0f 67 2c be 35 9f e3 bd c8 bc 16 be
       0.12762383 -0.16836189 -0.11114351 -0.14720452
0002b0 94 92 d5 bc 5c 0b 20 bc c5 77 d1 3c 96 a9 af bd
       -0.02607087 -0.009768333 0.025569806 -0.08577268
0002c0 64 16 da 3d c6 56 7e bb bc 54 08 3d 02 39 a0 3a
       0.10648802 -0.0038809045 0.033283934 0.0012224021
0002d0 3c 5f c9 3d b5 2d 11 3e 75 f8 0e 3e 84 8f f4 bd
       0.09832618 0.14177592 0.13961966 -0.11941436
0002e0 f0 98 17 3d 2f bf d3 bd 27 82 6f bd ce 0a 0d 3e
       0.037011087 -0.103392 -0.058473732 0.13773653
0002f0 6c 17 20 3e 9f b7 e4 3c 81 c6 0e be 9a 6e b6 bc
       0.15633935 0.027919589 -0.1394291 -0.022269536
000300 ff 77 5d 3a ac 13 e1 bd a1 84 0c be 10 ec 3f be
       0.0008448362 -0.1099008 -0.13722469 -0.18742394
000310 53 db a9 3d 52 65 26 bd 87 1c cc 3d 19 b4 c9 3d
       0.08293786 -0.04062397 0.09966379 0.09848804
000320 3c 07 80 3d 3b d0 f9 3b 9f 59 10 bd 17 a1 71 bc
       0.0625138 0.0076237 -0.03524172 -0.0147478795
000330 65 1a 5e bc f1 65 33 3d 21 dd 9d 3d 6b 7e e3 3d
       -0.013556098 0.04379839 0.077081926 0.11108097
000340 c2 48 b2 3d 6e e5 e1 bd c6 5e 30 be 34 2b e5 3d
       0.08705284 -0.11030088 -0.17223653 0.11189881
000350 1f 4c f2 3d f2 2e 3b be f9 bc 1c 3e e7 b2 67 bd
       0.11830925 -0.18279627 0.15306462 -0.0565671
000360 4e e2 65 bd 17 92 24 3e 9a a2 e9 bd dc 01 48 3d
       -0.056124024 0.16071354 -0.11407967 0.0488299
000370 b5 04 29 3e 70 ce 23 3b 7f b8 ab 3d 2b b1 e0 bc
       0.16505702 0.0024994873 0.08384799 -0.02742823
000380 34 2d ad bd 78 f7 36 3d 77 1c 9e 3d 1d e1 bf bd
       -0.084558874 0.0446696 0.07720273 -0.09369109
000390 63 38 d6 bc 40 7c 08 be 6c be a7 3c 1c 6c 4d bd
       -0.026149934 -0.13328648 0.020476542 -0.05015193
0003a0 fd 16 e2 bd ad 15 1b ba 55 43 d0 bd f3 cc 35 3e
       -0.11039541 -0.00059160107 -0.101690926 0.17753963
0003b0 34 08 6b 3d 7b d3 3b be 76 67 0e 3d 76 df de bd
       0.05738087 -0.18342392 0.034766637 -0.108824655
0003c0 b4 f9 06 be 0d 40 cd bd 4b 8f 9b 3d b5 72 e4 bd
       -0.13181192 -0.10021982 0.0759569 -0.11154691
0003d0 16 59 dd bd ba 35 d0 bc f1 6a ab bd ce 84 cd 3d
       -0.108080074 -0.025416244 -0.08370007 0.10035096
0003e0 d7 c6 79 bc 97 91 25 3e 6d fb 32 3d 23 6c d4 bd
       -0.015245161 0.1616882 0.04369681 -0.10372188
0003f0 c6 32 3f bb f3 40 7f 3d 5e 3f aa 3d 43 06 f1 3d
       -0.002917455 0.0623178 0.083128676 0.117687725

stage1.patch_embed.proj.bias f4 [12]
000000 18 10 f7 bd 3d 0b c4 bc f3 93 79 be 89 68 e8 3d
       -0.120636165 -0.02393114 -0.24372844 0.113480635
000010 9f f3 37 be 93 ab 16 be 00 2d 17 bd 45 1b 8c 3e
       -0.17964028 -0.14713888 -0.03690815 0.27364555
000020 11 c7 52 3e ba d6 1b be 1d e2 6c 3d d3 49 52 bd
       0.2058375 -0.1521863 0.057832826 -0.051339936

stage1.patch_embed.norm.weight f4 [12]
000000 76 93 64 3f 9a 78 73 3f cb 48 83 3f c8 a6 5c 3f
       0.8928751 0.951059 1.025659 0.8619199
000010 04 d0 65 3f ed 21 6a 3f 53 92 75 3f fc 89 71 3f
       0.8977053 0.91458017 0.959264 0.9435117
000020 52 a7 80 3f e7 45 6c 3f 79 e8 53 3f 30 02 66 3f
       1.0051062 0.9229416 0.827766 0.8984709

stage1.patch_embed.norm.bias f4 [12]
000000 f6 27 28 3c 1b 6c a6 3c 7b dc 48 3b 4a 36 92 bc
       0.010263434 0.02031522 0.0030648995 -0.017848153
000010 cb 9e fe 3c 1d c4 1b 3b cd 9b 5c 3c 5b 72 4d bd
       0.031081578 0.0023768016 0.01346488 -0.050157886
000020 87 6c 3e bc e3 50 3f 3b 9e 7a 88 3c 68 73 8d 3c
       -0.011622555 0.00291925 0.01666003 0.017266944

stage1.blocks.0.norm1.weight f4 [12]
000000 4a 95 13 3e 9c ab 67 31 de 04 3b 3e 00 3d c1 3d
       0.14412418 3.3712473e-09 0.18263575 0.09435463
000010 00 e0 a3 3d 76 b4 5a 3d 62 77 b6 3d 63 53 19 3e
       0.08001709 0.053394757 0.08909489 0.14973216
000020 93 32 b2 3d 96 77 02 80 af c3 78 2d e8 20 87 3d
       0.087010525 -2.2657e-40 1.4140618e-11 0.06598073

stage1.blocks.0.norm1.bias f4 [12]
000000 7d 0d de bc 9f 9c 88 1f c7 71 3d 3c fd f4 01 bb
       -0.027106041 5.785735e-20 0.011562771 -0.0019829862
000010 9b 6f 0c 3d 59 a1 9a bc 2a c0 8b 3c 10 95 56 bd
       0.034286123 -0.018875765 0.017059404 -0.05238825
000020 97 ac 79 3c 44 65 02 00 00 45 05 12 02 1c 9f 3a
       0.0152389025 2.19998e-40 4.205245e-28 0.0012139084

stage1.blocks.0.attn.conv_proj_q.bn.weight f4 [12]
000000 85 0a 02 80 3b 54 02 80 fc 9e 01 80 da b1 01 80
       -1.87445e-40 -2.13887e-40 -1.48868e-40 -1.55637e-40
000010 17 94 02 80 9a 00 02 80 60 3d 02 80 7e b8 01 80
       -2.36796e-40 -1.83887e-40 -2.05688e-40 -1.58019e-40
000020 c2 f6 01 80 0b 4c 02 80 cd b4 01 80 7f b6 01 80
       -1.80356e-40 -2.1095e-40 -1.56695e-40 -1.57303e-40

stage1.blocks.0.attn.conv_proj_q.bn.bias f4 [12]
000000 19 1f 06 00 84 b1 04 80 94 3f 06 00 2f f4 01 80
       5.62169e-40 -4.31023e-40 5.7382e-40 -1.79432e-40
000010 5c a1 02 80 b0 50 02 80 1b d9 01 00 bd 18 03 00
       -2.41556e-40 -2.12616e-40 1.69718e-40 2.84381e-40
000020 92 8d 01 00 3f 7f 02 80 1f 80 06 80 5c d1 01 80
       1.42621e-40 -2.29318e-40 -5.96974e-40 -1.6694e-40

stage1.blocks.0.attn.conv_proj_q.bn.running_mean f4 [12]
000000 d4 74 00 80 04 00 00 00 7e 42 00 00 f9 43 00 80
       -4.191e-41 6e-45 2.3853e-41 -2.4384e-41
000010 ca 00 00 00 41 35 00 00 34 06 00 00 dc 68 00 00
       2.83e-43 1.9104e-41 2.225e-42 3.7616e-41
000020 83 f4 00 80 01 00 00 00 04 00 00 00 a2 06 00 00
       -8.7714e-41 1e-45 6e-45 2.38e-42

stage1.blocks.0.attn.conv_proj_q.bn.running_var f4 [12]
000000 04 00 00 00 04 00 00 00 04 00 00 00 04 00 00 00
       6e-45 6e-45 6e-45 6e-45
000010 04 00 00 00 04 00 00 00 04 00 00 00 04 00 00 00
       6e-45 6e-45 6e-45 6e-45
000020 04 00 00 00 04 00 00 00 04 00 00 00 04 00 00 00
       6e-45 6e-45 6e-45 6e-45

stage1.blocks.0.attn.conv_proj_k.bn.weight f4 [12]
000000 e2 61 02 80 7f f7 01 80 bd 8f 01 80 2a 8f 01 80
       -2.18785e-40 -1.8062e-40 -1.43399e-40 -1.43193e-40
000010 e1 3d 02 80 c0 e4 01 80 48 e5 01 80 cb 96 01 80
       -2.05869e-40 -1.73896e-40 -1.74086e-40 -1.4593e-40
000020 a2 4d 02 80 d7 6a 02 80 ec a9 06 80 6c 39 02 80
       -2.1152e-40 -2.21998e-40 -6.1197e-40 -2.0427e-40

stage1.blocks.0.attn.conv_proj_k.bn.bias f4 [12]
000000 9a f1 01 80 21 c4 04 80 18 9b 03 80 02 e3 01 80
       -1.78506e-40 -4.377e-40 -3.31144e-40 -1.7327e-40
000010 0d db 01 00 5a cd 01 00 52 cd 01 00 bb 0d 01 00
       1.70416e-40 1.65502e-40 1.6549e-40 9.6761e-41
000020 5e 30 04 00 a0 49 00 00 81 09 00 80 f2 e0 04 80
       3.84693e-40 2.6412e-41 -3.41e-42 -4.48037e-40

stage1.blocks.0.attn.conv_proj_k.bn.running_mean f4 [12]
000000 b9 42 00 80 02 00 00 00 43 8c 00 80 ce 90 00 80
       -2.3936e-41 3e-45 -5.0316e-41 -5.1946e-41
000010 2e 15 00 00 b2 88 00 00 3f 00 00 80 71 c9 00 00
       7.598e-42 4.9037e-41 -8.8e-44 7.2264e-41
000020 7d 6c 00 80 01 00 00 00 02 00 00 80 08 07 00 00
       -3.8918e-41 1e-45 -3e-45 2.522e-42

stage1.blocks.0.attn.conv_proj_k.bn.running_var f4 [12]
000000 04 00 00 00 04 00 00 00 04 00 00 00 04 00 00 00
       6e-45 6e-45 6e-45 6e-45
000010 04 00 00 00 04 00 00 00 04 00 00 00 04 00 00 00
       6e-45 6e-45 6e-45 6e-45
000020 04 00 00 00 04 00 00 00 04 00 00 00 04 00 00 00
       6e-45 6e-45 6e-45 6e-45

stage1.blocks.0.attn.conv_proj_v.bn.weight f4 [12]
000000 78 8d 35 3f 56 cc 4a ad bd 3e 4c 3f 3f a6 db 3e
       0.7091899 -1.1527742e-11 0.7978323 0.42900273
000010 b3 42 da 3e ae 17 d5 3e ef 12 f6 3e f3 3a 1a 3f
       0.42629012 0.4161963 0.4806132 0.602462
000020 7f 2d 30 3f 93 f9 01 80 e0 bd 05 25 cd f2 dd 3e
       0.6881942 -1.81366e-40 1.1600243e-16 0.43349305

stage1.blocks.0.attn.conv_proj_v.bn.bias f4 [12]
000000 3f 01 56 3b a6 0c 51 39 a0 36 da bc e5 cb 17 3d
       0.0032654551 0.00019936505 -0.026637375 0.037059683
000010 6e 03 de 3c 86 a3 b3 bc 32 2f 3e bd 58 4b 94 3c
       0.027101245 -0.02192856 -0.046431728 0.018102333
000020 fc 40 88 3c 4e f3 51 b2 c9 0c c9 34 81 3d e7 bb
       0.01663255 -1.2220722e-08 3.744847e-07 -0.0070568924

stage1.blocks.0.attn.conv_proj_v.bn.running_mean f4 [12]
000000 18 3d 0a bc fa 43 9c 2c 96 91 af 3c a1 be 4a bc
       -0.008437417 4.4413336e-12 0.021431725 -0.012374551
000010 1b 00 04 3b e2 a4 0b b9 b5 71 e7 3b f0 66 8c bc
       0.0020141664 -0.00013317497 0.0070631155 -0.017138928
000020 01 40 ac 3c 04 00 00 80 80 12 04 23 49 00 c1 b9
       0.021026613 -6e-45 7.159652e-18 -0.0003681204

stage1.blocks.0.attn.conv_proj_v.bn.running_var f4 [12]
000000 25 00 e7 39 66 b9 fd 1e 32 f0 96 3a 7a 33 14 3a
       0.0004405986 2.6864096e-20 0.0011515676 0.00056534226
000010 27 2f 16 39 f6 86 e2 38 94 e4 44 3a ee 7b 3b 3a
       0.0001432268 0.00010801658 0.00075108674 0.0007151951
000020 0b 67 8f 3a 04 00 00 00 2c 70 a3 08 86 ff 69 39
       0.0010940743 6e-45 9.836577e-34 0.00022315801

stage1.blocks.0.attn.proj_q.weight f4 [12, 12]
000000 f9 dc 06 00 6b b7 03 00 b9 e0 01 00 9e 39 02 80
       6.30283e-40 3.41304e-40 1.72451e-40 -2.0434e-40
000010 2d 24 00 00 51 8d 02 00 1a 0f 02 80 60 80 02 80
       1.2977e-41 2.34366e-40 -1.89088e-40 -2.29723e-40
000020 d2 31 04 00 d0 4d 02 80 a5 f3 02 80 99 ed 01 80
       3.85214e-40 -2.11585e-40 -2.71074e-40 -1.7707e-40
000030 48 cb 00 80 d3 64 02 00 f3 b8 02 00 3c e7 01 00
       -7.2924e-41 2.1984e-40 2.50018e-40 1.74787e-40
000040 1f ba 05 80 03 28 04 00 c7 4a 04 80 7a 55 01 80
       -5.25945e-40 3.81695e-40 -3.94167e-40 -1.22499e-40
000050 19 a5 03 00 fe e3 01 00 2b be 00 80 dc 89 01 80
       3.34732e-40 1.73624e-40 -6.822e-41 -1.4129e-40
000060 7b 29 02 80 84 2d 02 80 89 08 00 00 00 54 02 80
       -1.98551e-40 -1.99999e-40 3.062e-42 -2.13805e-40
000070 8e f1 02 80 44 92 01 00 ac cd 04 80 a1 64 03 80
       -2.70324e-40 1.44306e-40 -4.41123e-40 -3.11605e-40
000080 38 99 00 80 de 72 00 00 f6 3a 03 80 e9 d8 01 00
       -5.4965e-41 4.1207e-41 -2.96658e-40 1.69648e-40
000090 64 de 01 80 d5 56 02 00 70 89 00 00 84 d6 06 00
       -1.71614e-40 2.1482e-40 4.9303e-41 6.27967e-40
0000a0 4a d5 01 80 f7 01 00 00 8e 12 06 00 e2 c4 05 00
       -1.68349e-40 7.05e-43 5.57669e-40 5.29806e-40
0000b0 96 a2 02 00 ff dc 01 80 bb a9 00 80 9c 78 02 80
       2.41996e-40 -1.71114e-40 -6.0888e-41 -2.26937e-40
0000c0 84 f6 05 80 3f db 01 00 a3 c8 03 00 2b c9 01 80
       -5.4761e-40 1.70486e-40 3.47481e-40 -1.64001e-40
0000d0 28 39 01 00 ba 05 02 80 44 d2 01 80 b4 66 01 80
       1.12339e-40 -1.85725e-40 -1.67265e-40 -1.28678e-40
0000e0 61 cf 01 80 18 15 00 00 41 17 01 00 20 7b 03 80
       -1.66229e-40 7.567e-42 1.00177e-40 -3.19675e-40
0000f0 1b 57 03 00 d9 50 02 80 86 42 03 80 fb 34 02 00
       3.06754e-40 -2.12674e-40 -2.9937e-40 2.02677e-40
000100 cd cc 02 00 8a a0 06 80 b4 0a 02 80 ea ae 01 80
       2.5714e-40 -6.08604e-40 -1.8751e-40 -1.54583e-40
000110 2e d4 02 00 6a 42 01 00 0c f0 01 80 07 7a 02 00
       2.59787e-40 1.1566e-40 -1.77948e-40 2.27446e-40
000120 fe 2d 00 80 9b d5 01 00 5f 9e 00 80 32 13 00 00
       -1.6499e-41 1.68463e-40 -5.6813e-41 6.886e-42
000130 19 16 01 80 14 35 04 80 c8 1c 00 00 81 d0 06 00
       -9.9763e-41 -3.86383e-40 1.0325e-41 6.2581e-40
000140 d5 99 00 00 10 fe 00 80 e1 54 03 80 37 d3 06 80
       5.5185e-41 -9.114e-41 -3.05955e-40 -6.26783e-40
000150 2f 8c 05 00 ba 51 03 00 d5 c6 01 00 ce 56 01 80
       5.09466e-40 3.04824e-40 1.63163e-40 -1.22975e-40
000160 ee 58 03 00 bd 32 00 80 b7 25 01 00 6a 3d 04 00
       3.07408e-40 -1.8201e-41 1.05365e-40 3.89373e-40
000170 ee 80 02 80 39 89 03 80 13 70 01 80 3b 02 01 80
       -2.29922e-40 -3.24733e-40 -1.3204e-40 -9.2636e-41
000180 5f c9 04 80 08 bf 01 00 b5 e6 01 00 a9 3b 01 00
       -4.3958e-40 1.60365e-40 1.74598e-40 1.13238e-40
000190 0c 99 04 80 e7 8b 06 00 28 cd 01 80 c5 c4 00 00
       -4.22245e-40 6.012e-40 -1.65432e-40 7.0588e-41
0001a0 34 e1 01 80 02 ca 02 00 c8 6f 01 80 58 a3 02 00
       -1.72623e-40 2.56138e-40 -1.31935e-40 2.42268e-40
0001b0 01 4c 02 80 32 09 06 00 bd 1c 02 80 f8 05 02 00
       -2.10936e-40 5.54312e-40 -1.9398e-40 1.85812e-40
0001c0 eb c5 04 00 29 a4 02 00 d8 63 00 00 ae 4a 01 00
       4.38342e-40 2.4256e-40 3.5817e-41 1.18626e-40
0001d0 0a d7 01 80 9e f0 02 80 42 62 04 80 77 f8 01 00
       -1.68977e-40 -2.69988e-40 -4.0259e-40 1.80968e-40
0001e0 48 e1 01 00 22 9e 02 80 bf df 01 80 ae 4b 00 80
       1.72651e-40 -2.40398e-40 -1.721e-40 -2.7149e-41
0001f0 85 ed 04 80 1f f2 00 80 5d a2 06 80 1d 0c 00 80
       -4.52548e-40 -8.6857e-41 -6.09258e-40 -4.345e-42
000200 06 b4 06 80 76 66 01 80 88 b5 00 00 3c 91 05 00
       -6.15593e-40 -1.28592e-40 6.5121e-41 5.11278e-40
000210 66 69 05 80 73 d4 01 80 15 0b 06 80 4d bf 01 00
       -4.96987e-40 -1.68048e-40 -5.54988e-40 1.60461e-40
000220 9b c4 06 80 e5 79 06 00 ae 16 00 00 13 88 01 00
       -6.21542e-40 5.9474e-40 8.136e-42 1.4065e-40
000230 40 6e 01 80 bb 54 00 80 a3 d3 01 80 80 ca 01 80
       -1.31386e-40 -3.0396e-41 -1.67756e-40 -1.64479e-40

stage1.blocks.0.attn.proj_k.weight f4 [12, 12]
000000 27 5a 05 80 db ac 03 80 5a 7e 04 80 2b 9a 05 00
       -4.91518e-40 -3.37515e-40 -4.12668e-40 5.14483e-40
000010 5b 0c 06 80 d8 c7 01 80 b0 72 01 80 3a ab 04 00
       -5.55445e-40 -1.63526e-40 -1.32978e-40 4.28767e-40
000020 78 02 03 80 7f d6 05 80 57 71 00 00 41 28 00 80
       -2.76392e-40 -5.36124e-40 4.0659e-41 -1.444e-41
000030 df 89 02 00 35 f4 01 80 46 28 01 00 d5 c7 01 00
       2.3313e-40 -1.7944e-40 1.06283e-40 1.63522e-40
000040 11 db 01 80 a3 41 03 00 55 c4 01 00 9f 88 00 00
       -1.70422e-40 2.99053e-40 1.62266e-40 4.901e-41
000050 6d e1 01 80 c1 45 05 00 f5 26 00 80 a7 1d 03 00
       -1.72703e-40 4.842e-40 -1.3975e-41 2.86144e-40
000060 bb 3b 05 00 fa d9 03 80 40 62 02 00 45 bb 01 80
       4.80605e-40 -3.53702e-40 2.18916e-40 -1.59015e-40
000070 bd bb 04 80 0b 4a 02 00 cf a7 01 00 50 d9 01 80
       -4.3469e-40 2.10233e-40 1.52034e-40 -1.69793e-40
000080 8d 77 00 80 a3 10 03 00 3f c4 00 80 92 e0 01 80
       -4.2887e-41 2.81475e-40 -7.04e-41 -1.72396e-40
000090 af 3e 05 80 75 bf 02 80 bc ac 00 00 23 f1 00 80
       -4.81664e-40 -2.52353e-40 6.1965e-41 -8.6504e-41
0000a0 13 8c 01 80 30 59 04 00 7a f0 01 80 29 99 02 80
       -1.42085e-40 3.99336e-40 -1.78102e-40 -2.38615e-40
0000b0 e3 83 02 00 4f 9d 03 80 74 01 02 80 00 ae 04 00
       2.30983e-40 -3.31938e-40 -1.84192e-40 4.29761e-40
0000c0 56 2a 00 80 58 ca 00 00 5d ed 02 80 68 64 06 80
       -1.5187e-41 7.2587e-41 -2.68821e-40 -5.87032e-40
0000d0 94 28 01 80 e5 2e 04 00 29 8c 06 80 cb b1 00 80
       -1.06392e-40 3.84165e-40 -6.01293e-40 -6.378e-41
0000e0 c2 10 01 00 58 f3 01 80 b1 3b 02 80 25 05 01 80
       9.7847e-41 -1.79131e-40 -2.05084e-40 -9.3681e-41
0000f0 39 66 01 00 bd bf 06 80 3b 88 06 80 b3 dc 01 00
       1.28506e-40 -6.19796e-40 -5.99883e-40 1.71007e-40
000100 ae 85 01 80 8a 9c 04 80 6e 8b 01 00 e9 53 00 80
       -1.39791e-40 -4.23498e-40 1.41853e-40 -3.0101e-41
000110 f4 f3 03 80 cc 10 00 00 cf 94 06 00 8f d9 02 00
       -3.6302e-40 6.026e-42 6.04395e-40 2.61716e-40
000120 65 c9 01 00 12 71 02 00 2c 03 00 80 51 f4 05 80
       1.64082e-40 2.24233e-40 -1.138e-42 -5.46822e-40
000130 a9 da 01 00 a0 58 01 00 37 2d 00 00 3b be 01 80
       1.70276e-40 1.23628e-40 1.622e-41 -1.60077e-40
000140 c4 c0 06 00 c3 da 04 80 85 88 01 00 65 00 02 80
       6.20164e-40 -4.45819e-40 1.4081e-40 -1.83813e-40
000150 33 11 00 00 75 d1 01 00 ab 8f 01 80 8b 14 01 80
       6.17e-42 1.66975e-40 -1.43374e-40 -9.9205e-41
000160 1f d6 06 80 87 c2 04 80 86 27 00 00 6d 3a 03 80
       -6.27825e-40 -4.37125e-40 1.4178e-41 -2.96466e-40
000170 53 12 02 80 44 9d 04 80 df 47 02 00 92 ab 03 00
       -1.90244e-40 -4.23758e-40 2.09453e-40 3.37054e-40
000180 c0 bd 04 00 1d df 01 80 03 c3 06 00 b3 cd 01 80
       4.35411e-40 -1.71873e-40 6.2097e-40 -1.65626e-40
000190 db e5 04 00 ce 05 04 00 bc d9 00 00 39 72 01 00
       4.49799e-40 3.69424e-40 7.8108e-41 1.32811e-40
0001a0 c5 b8 03 00 b7 ae 02 00 88 c5 01 80 d4 e3 06 00
       3.4179e-40 2.46347e-40 -1.62696e-40 6.32742e-40
0001b0 5c 8b 05 00 dd 31 02 80 ee ab 06 00 48 45 03 00
       5.0917e-40 -2.01559e-40 6.1269e-40 3.0036e-40
0001c0 3d c5 05 80 cd db 01 80 2f 58 04 00 81 d7 01 00
       -5.29933e-40 -1.70685e-40 3.98976e-40 1.69144e-40
0001d0 34 89 01 80 17 d5 02 80 56 f4 03 00 2f 54 02 00
       -1.41055e-40 -2.60113e-40 3.63158e-40 2.1387e-40
0001e0 38 a2 00 00 18 c4 01 80 5c db 04 00 9a db 01 80
       5.8193e-41 -1.6218e-40 4.46033e-40 -1.70614e-40
0001f0 85 ea 01 00 f3 26 02 80 57 df 04 00 51 59 06 00
       1.75965e-40 -1.97643e-40 4.47461e-40 5.83054e-40
000200 67 70 01 00 3a 10 03 00 d3 01 00 80 95 df 02 80
       1.32158e-40 2.81327e-40 -6.54e-43 -2.63877e-40
000210 5b 14 03 80 f8 73 02 80 2d 71 05 00 82 39 03 00
       -2.82809e-40 -2.25273e-40 4.99777e-40 2.96136e-40
000220 d4 5b 01 80 66 66 03 00 53 7a 00 80 47 cb 01 80
       -1.24777e-40 3.1224e-40 -4.3882e-41 -1.64758e-40
000230 44 2e 00 00 d7 66 01 00 45 3a 00 00 58 90 02 80
       1.6597e-41 1.28727e-40 2.0903e-41 -2.35452e-40

stage1.blocks.0.attn.proj_v.weight f4 [12, 12]
000000 a8 7e ca 3d 3d ef f8 b9 ea 6a c5 bd f1 7d 93 3d
       0.09887439 -0.00047480493 -0.09639533 0.07201756
000010 fc 9f c4 3d 8e a4 84 bd 64 d6 58 bd 52 2a 08 3e
       0.09600827 -0.06476699 -0.052938834 0.13297394
000020 4f eb d0 bc 00 56 14 b2 cb 45 89 34 eb 18 c2 bd
       -0.025502829 -8.634288e-09 2.556902e-07 -0.09477409
000030 cb 7a 78 3d de 82 1f b8 8d 8c c8 bc 49 cb 9e 3d
       0.06066398 -3.8030434e-05 -0.024481082 0.07753617
000040 c0 74 3e 3d a7 43 bf 3a 9a d7 df bd 24 9a fe 3c
       0.04649806 0.0014592306 -0.109297946 0.03107936
000050 da e9 53 bd bc 70 3d b2 a2 60 33 b5 5c 18 09 bd
       -0.05173669 -1.1026881e-08 -6.6823316e-07 -0.033470497
000060 73 42 6a bd 43 85 7d 38 e3 55 14 3d de e7 3d bd
       -0.057192277 6.044401e-05 0.03621472 -0.046363704
000070 a3 3f 99 bc 98 8c 6c bc 10 be 6a 3d 50 96 ce bc
       -0.018707102 -0.014437817 0.057310164 -0.025218159
000080 3e d0 2b 3d a6 00 38 32 24 88 55 34 00 d5 c3 3c
       0.041946642 1.0710357e-08 1.9886699e-07 0.023905277
000090 b1 c2 4f bd 64 ee db b9 74 63 27 3d f8 1d 71 bd
       -0.05072278 -0.0004194855 0.04086633 -0.05886647
0000a0 91 cf 31 bd 1b 55 7e bc b4 d9 a6 3d e9 57 e6 bc
       -0.04341084 -0.01552322 0.08146992 -0.02811809
0000b0 03 2f 8d 3d 5f f9 33 b1 02 77 a4 34 55 35 d0 3b
       0.068937324 -2.618968e-09 3.063397e-07 0.006354014
0000c0 7b f1 86 3d dd 16 2e 39 68 11 9a bd 2c bd 3e 3d
       0.065890275 0.0001660245 -0.07522851 0.046567127
0000d0 14 58 83 3d 03 5f 26 bc 78 50 84 bd 50 d0 5f 3d
       0.06413284 -0.0101544885 -0.06460661 0.05464202
0000e0 93 88 5f bd ed 90 8c b2 64 03 49 34 aa 2f e8 bc
       -0.054573607 -1.636405e-08 1.8720817e-07 -0.02834304
0000f0 72 20 71 bd d5 e7 26 bb bf 68 af 3d 09 df 94 bd
       -0.058868833 -0.0025467773 0.085649006 -0.07269103
000100 03 3e 7c bd 4b 0c c8 bb d6 d9 de 3d 32 0f 26 bd
       -0.061582576 -0.006104981 0.10881393 -0.040541835
000110 f1 af 65 3d c1 dc 56 af e2 b0 1d 35 90 09 fc 3c
       0.056075994 -1.9541614e-10 5.8744456e-07 0.030766279
000120 67 01 9e 3d 22 18 6b b7 b5 31 e4 bd 0e 19 98 3d
       0.07715111 -1.401271e-05 -0.11142293 0.07426654
000130 f5 ae 42 3d 82 6d de bc 0b b6 bf bd 20 7c 65 3d
       0.047530133 -0.027151827 -0.09360894 0.056026578
000140 e0 9d 7c bd f2 05 46 31 83 2d 88 b4 c8 88 98 bd
       -0.061674 2.8816172e-09 -2.5365088e-07 -0.07447964
000150 63 ec a0 bd 24 57 49 38 b8 7c e8 3d 05 af 92 bd
       -0.07857587 4.800329e-05 0.11351913 -0.071622886
000160 02 aa 4c bd 1c 84 1d 3d 82 cf 99 3d 06 bd db bd
       -0.04996682 0.038456067 0.07510282 -0.10729413
000170 20 b8 95 3d aa ef d0 b0 f6 10 3e 34 f0 b4 8b 3d
       0.0731051 -1.5202108e-09 1.7701299e-07 0.068216205
000180 24 9c 48 3d c7 ab 37 b9 89 8d ba bd bc 9f 40 3d
       0.048977032 -0.00017516232 -0.09109027 0.047027335
000190 19 df 9d 3d e0 41 33 bd 0b a7 a6 bd 12 d0 c3 3d
       0.07708568 -0.043763995 -0.0813733 0.09561171
0001a0 a5 66 29 bd df 1d 7f b1 0a b2 be 33 57 51 3f bd
       -0.041357655 -3.7124364e-09 8.8799496e-08 -0.04670843
0001b0 1e 22 da bd c7 57 64 3a 7c cd b5 3d 86 6f 2f bd
       -0.106510386 0.00087105896 0.08877084 -0.042830966
0001c0 b0 2c 8f bd 62 36 c7 3c 17 f7 9b 3d 68 f0 d8 bd
       -0.06990945 0.024317924 0.07615488 -0.10592729
0001d0 a2 51 a3 3d 66 6c 2b 32 68 e2 bf b4 49 dc 71 3d
       0.079745546 9.978157e-09 -3.5741255e-07 0.05904797
0001e0 cb a8 a3 3d 57 c8 25 ba bd a7 aa bd 0e 93 a1 3d
       0.07991179 -0.00063241035 -0.08332775 0.078893766
0001f0 50 37 7a 3d ab 5d 46 bd 58 93 dd bd 7b 81 b2 3d
       0.061087906 -0.048429172 -0.10819119 0.08716103
000200 09 f1 57 bd dd 2a 9d 30 93 5e 82 b4 ad a7 7e bd
       -0.052720103 1.1435436e-09 -2.42832e-07 -0.062171627
000210 ea 87 9b 3d d0 36 ab ba a9 65 c0 bd ab 03 47 3d
       0.07594283 -0.00130626 -0.0939439 0.048587482
000220 e0 b1 a3 3d fd 98 4a bd b5 33 de bd e6 e6 b0 3d
       0.07992911 -0.049462307 -0.10849706 0.086377904
000230 1e b9 3f bd 53 7d 2f b2 b2 9a df 33 86 87 8a bd
       -0.0468074 -1.0214836e-08 1.04123856e-07 -0.0676413

stage1.blocks.0.attn.proj.weight f4 [12, 12]
000000 59 67 ba 3a ae f7 67 3d 3e 21 dd 3b 7d 7a 9a bc
       0.0014221474 0.05663269 0.0067483475 -0.018857235
000010 85 71 73 bb 90 25 c7 bc 9a 01 c8 bb 69 74 01 bc
       -0.003714652 -0.024309903 -0.0061037065 -0.0079012895
000020 be eb 3b 3c 7c ff a1 3c 25 41 37 3d 50 6a 4f 3c
       0.01146978 0.019775145 0.04473986 0.012659624
000030 8c a0 08 be 6f b8 ca bd 4a bb 55 3d 78 a2 95 3d
       -0.13342494 -0.09898459 0.052180566 0.07306379
000040 a5 00 ba bd c0 e8 f2 3d 6a c2 f0 bd 8c 0b f4 3d
       -0.09082154 0.118608 -0.117558315 0.11916265
000050 3a 67 b0 bd a6 97 01 3e 0a f2 fe bd 68 91 01 be
       -0.08613439 0.12655506 -0.12448509 -0.12653124
000060 13 3b b2 3d c0 fc c0 3d 84 79 63 bd a9 5e 77 bd
       0.08702674 0.09423208 -0.05553581 -0.06039301
000070 39 99 93 3d 7f 0d ee bd 98 3f ca 3d 4e 6f 7d bd
       0.07206959 -0.11623668 0.09875411 -0.061873727
000080 f8 f9 aa 3d c5 3f b9 bd c3 79 ac 3d 2b 3f 9a 3d
       0.08348459 -0.09045366 0.08421662 0.075315796
000090 81 ba cc bc 18 1d 23 bd 8f 4a 5b 3d e7 02 8f 3d
       -0.024991276 -0.039822668 0.0535379 0.069829755
0000a0 a2 68 93 bd 13 da ca 3d 86 e8 2f bd dc 83 93 3d
       -0.071976915 0.099048756 -0.04294636 0.072028846
0000b0 e0 b9 98 bd 33 53 a2 3d 0b 28 65 bd d9 cb 4c bd
       -0.07457328 0.07926025 -0.05594639 -0.04999909
0000c0 9f 8d c8 3b 1a 92 f4 3b 9a cc ef bc ed 64 d5 bc
       0.006120398 0.0074637057 -0.029272366 -0.026049102
0000d0 f7 03 28 3d 43 99 42 bd 52 5f b6 3b 6b aa 0b bb
       0.041019406 -0.047509443 0.0055655623 -0.0021311294
0000e0 30 e3 b1 3c d3 2c 69 bc 66 4b 9a 3c 7f 9b 4f bc
       0.021714777 -0.014231878 0.01883478 -0.0126713505
0000f0 09 55 c5 3d 07 9f ce 3d fc d7 1b bd ef c3 d7 bd
       0.0963536 0.10088926 -0.038047776 -0.10535418
000100 98 36 f2 3d 5e b1 f4 bd a5 bc b9 3d d1 fb ee bd
       0.11826819 -0.119478926 0.09069184 -0.11669124
000110 0c 61 f6 3d 73 1a eb bd 8c e6 c4 3d 3b 63 f9 3d
       0.12030229 -0.11479654 0.09614286 0.1217713
000120 6d be d5 3c 52 4d a6 3d 17 12 b9 bc 72 72 d4 bc
       0.026091779 0.081202164 -0.022591634 -0.025933478
000130 5a 61 e7 3b 30 42 12 bd 0f 27 c3 3c d2 5b 95 bc
       0.0070611658 -0.035707653 0.023822336 -0.01823226
000140 6d 2e 84 3c 7a c6 c6 bb da 99 80 3d c0 a2 c3 3c
       0.016135419 -0.0060661407 0.06279345 0.023881316
000150 84 98 ef 3c 64 72 42 bd fc 3a 23 3b 79 d9 81 3d
       0.02924753 -0.047472373 0.0024906984 0.06340308
000160 61 a1 12 bc a1 88 bd 3d ee 7d d1 bc d9 29 bf 3b
       -0.008949609 0.092545755 -0.025572743 0.005833846
000170 94 23 7e bc 8d a8 c2 bb 9a 0d d9 bc 96 9c ab ba
       -0.015511412 -0.005940503 -0.026495744 -0.0013092931
000180 e4 fc b8 bc 90 7c 57 bd c0 93 db 3c 93 a3 0b 3d
       -0.022581525 -0.052609026 0.026803851 0.034091543
000190 05 e9 2b bd 57 93 91 3d 06 e0 43 bd b6 3d 08 3b
       -0.04197027 0.07108181 -0.047821067 0.0020788736
0001a0 76 9d f0 39 e5 9c f2 3c 07 b3 b3 bc 22 bd bf bc
       0.00045893685 0.029615829 -0.021935953 -0.023405615
0001b0 b1 4f 6f bb 27 e3 d3 3b f8 6d 84 bc 57 9c fc bc
       -0.0036516006 0.0064662877 -0.016165718 -0.030836267
0001c0 88 43 2b 3d d8 25 62 bd fa 81 82 3d 85 53 c5 bc
       0.04181245 -0.05521187 0.06372447 -0.024087677
0001d0 1e 97 f1 3c bf 95 a8 bc fb 70 de 3c fb d4 cd 3c
       0.029491004 -0.020579217 0.027153483 0.025125971
0001e0 cc a6 2a 3d e5 c9 a3 3c 51 7a eb bc f5 1c 0c bd
       0.041662976 0.019993732 -0.028744848 -0.034207303
0001f0 5b e7 8f 3c 4e 7f 0f bd c4 89 53 3d ea 65 8b bd
       0.017566374 -0.035033517 0.051645055 -0.06806548
000200 ff ad 4c 3c 79 90 c4 bc 76 46 20 3d f5 a6 2c 3c
       0.012492656 -0.023994671 0.039129697 0.0105378525
000210 85 e6 40 3b cd bc 89 3d 27 8d 79 bc 7c c2 c1 bc
       0.0029434275 0.06725464 -0.015231407 -0.023652308
000220 09 b8 30 3c 65 4a 99 bc ed e8 41 bb 3d 2d 2a bd
       0.010786065 -0.018712232 -0.0029588297 -0.04154705
000230 36 a4 c3 3c d1 40 9e 3b 63 f9 4a 3b 25 a1 05 3d
       0.023882013 0.004829504 0.00309714 0.032624383

stage1.blocks.0.attn.proj.bias f4 [12]
000000 16 2d 44 3c 3d 06 53 3c 68 4f 92 3b 10 3f 87 bc
       0.01197364 0.012879905 0.0044650324 -0.016509563
000010 5c 0a fa 3c 67 ba 53 3b 70 f3 84 3c f9 12 58 bd
       0.030522518 0.003230715 0.016229361 -0.05275247
000020 7d 17 53 bc 52 bb 88 3b e8 9d 76 3c 10 26 90 3c
       -0.012884018 0.004172721 0.015052296 0.017596275

stage1.blocks.0.norm2.weight f4 [12]
000000 a5 58 49 3f bc e8 6e 3f 74 bb 62 3f 1a d0 5e 3f
       0.78650886 0.93323874 0.8856728 0.8703629
000010 f5 24 55 3f af 8f 5f 3f cf 0a 60 3f 97 f7 5e 3f
       0.83259517 0.8732862 0.8751649 0.8709654
000020 ae 85 4b 3f 97 4d 4b 3f c9 e1 52 3f cc e0 67 3f
       0.79500854 0.7941527 0.8237577 0.9057739

stage1.blocks.0.norm2.bias f4 [12]
000000 fe 8c 3d 3c 05 90 c1 bc 86 8c 4f 3d 94 dc 4e bd
       0.01156926 -0.023628244 0.050671123 -0.05050333
000010 d0 48 06 3d 39 03 94 bd 2e 7d 89 3c 7b d6 c7 bc
       0.032784283 -0.07227177 0.016783323 -0.024394264
000020 d9 4f 7d 3c 3d 09 1a 3a d9 f6 48 bd 64 3a 8e bc
       0.015460932 0.00058760104 -0.049063537 -0.017361827

stage1.blocks.0.mlp.fc1.weight f4 [24, 12]
000000 a5 2a 9b bc 92 50 88 bd 72 ce 08 be 6d 4d 87 3c
       -0.018941233 -0.066559926 -0.13360003 0.016516412
000010 fb eb 3a bc b4 a2 dc 3c cb b1 61 3d 3c 45 d8 3d
       -0.011408801 0.026933052 0.055101197 0.105600804
000020 22 b6 75 bb 16 81 1d 3b c2 23 5a 3d ed bb 66 3c
       -0.0037492593 0.002403324 0.053256758 0.014082891
000030 52 0b f0 3d ee ae 87 bd c9 86 0e 3c b5 de 09 bd
       0.11720909 -0.06625162 0.0086991275 -0.033659656
000040 ff 11 29 3d ea 51 a1 bd 6a a0 04 bd 48 b7 d4 bd
       0.041276928 -0.07876952 -0.032379545 -0.103865206
000050 65 97 e1 bb 19 8c 15 bd a3 f4 bd 3c b1 e6 a9 3d
       -0.0068845027 -0.03651056 0.023187941 0.08295954
000060 c4 15 c3 bd 2c 7f 2c bc ab 97 89 bc 43 01 04 3e
       -0.09525636 -0.010528367 -0.016795954 0.12891106
000070 f4 4d 5b bd ba 29 62 bc aa ab bf bc b3 a1 0a bc
       -0.05354114 -0.013803894 -0.023397285 -0.008461404
000080 75 b2 48 bc c3 c7 3c bd f4 38 1a 3d 8d ae d9 bc
       -0.012249579 -0.046088945 0.03765197 -0.02657249
000090 07 24 8d 3d 66 95 00 3b bc d6 eb 3d 22 26 a4 bd
       0.06891637 0.0019620298 0.11515567 -0.08015086
0000a0 13 8c 82 bd 4a 60 d9 bd d6 c6 aa bd 1e 69 3c 3c
       -0.06374373 -0.10614069 -0.08338706 0.011499671
0000b0 c5 11 20 bd aa 81 01 3d e6 cf 3e 3d ff e2 f2 3c
       -0.039079446 0.031617798 0.046584986 0.029649256
0000c0 67 3e c1 bd e8 ca 50 3d 62 96 61 bd c8 c3 7f 3c
       -0.094357304 0.050974756 -0.055075057 0.015610643
0000d0 57 e9 e8 bd 4f cb b7 3d 41 84 76 3d 66 0c a6 3d
       -0.11372631 0.08974325 0.06018472 0.081078336
0000e0 bb 86 89 bd 86 8c ef 3c 72 e9 9f 3b 55 00 79 bc
       -0.06715151 0.029241811 0.004880124 -0.015197833
0000f0 3d 27 b2 bd c8 45 8b bd 6b 3b fd bc 81 0f c5 3d
       -0.0869889 -0.06800419 -0.030912122 0.09622098
000100 73 34 37 3d a8 59 17 3d ba ef d0 3c 26 c6 1f 3d
       0.044727754 0.036950737 0.025504936 0.03900733
000110 17 8f 9e 3d e2 85 c3 bd e8 4d 40 3d 6a 25 da bc
       0.07742136 -0.095470205 0.046949297 -0.026629169
000120 54 5e a6 3c 80 8b 5e 3d 08 af e4 3d f7 64 99 3b
       0.020308651 0.054332256 0.11166197 0.0046812254
000130 e8 36 0e 3c 02 21 25 bd 62 bc bc bc 83 9d 11 be
       0.008680083 -0.04031468 -0.023039047 -0.14220242
000140 47 07 f0 3b 94 e3 e6 3c 2e 6b c1 bd a3 3b 17 bc
       0.0073250863 0.02818469 -0.09444271 -0.009230527
000150 f1 6a 8c bd 64 f1 86 3c 4f aa ce bd 28 7f e9 bc
       -0.06856335 0.016472526 -0.100910775 -0.028503016
000160 c9 1d 85 3c 8e f7 c6 3c a6 ff c7 3d 5a 42 3c 3d
       0.016249554 0.024287965 0.09765558 0.045961715
000170 e7 40 a9 bd fd 39 a9 3b 7f d7 26 bd e4 c0 d2 3d
       -0.08264332 0.0051643834 -0.040732857 0.10290697
000180 35 ed 46 bd f8 33 dc 3d e4 4b ca 3b aa 56 66 bd
       -0.048566062 0.107521 0.0061735976 -0.056234993
000190 18 6d a7 3d a1 18 27 3e 26 e8 3d bd 13 1c c9 3d
       0.08175105 0.16317989 -0.046363972 0.09819808
0001a0 66 0b 49 bc 86 8f 36 bd 13 c8 46 be aa 91 76 bd
       -0.012270784 -0.04457047 -0.1941226 -0.06019751
0001b0 d7 77 5e bd 83 01 83 bd 64 2f 9e bd fd c0 c6 bb
       -0.054313507 -0.06396773 -0.07723883 -0.0060654865
0001c0 49 76 84 3d d7 ab e1 3c ae 03 4e 3c b8 7e 0b 3e
       0.064678736 0.02754776 0.0125741195 0.13622558
0001d0 06 c3 11 3c 2e 39 7f bd 55 f3 de 3c 47 0f 08 3d
       0.008896595 -0.06231039 0.02721564 0.033217695
0001e0 0e 0e 67 bd bb 27 86 3d 4c 2d 1e bc 64 51 a3 3c
       -0.056409888 0.06550547 -0.009654354 0.019936271
0001f0 fb a9 4b 3d 1f 8e 0d bd c9 b4 49 3c 4d 9a d3 bd
       0.049722653 -0.034559365 0.012311169 -0.10332165
000200 55 08 15 bc 1a 9c d3 3d c4 a3 79 bc 54 d6 e3 bd
       -0.009096225 0.103325084 -0.015236799 -0.11124864
000210 5e 6d 19 be aa 0a 56 3d 4b 8d b7 bb 3f 3d 2a bc
       -0.14983127 0.052256264 -0.00560156 -0.010390579
000220 c5 5d 6e bd 27 4a 27 bd 8f b0 9d 3d 05 76 92 3b
       -0.058194894 -0.0408422 0.076996915 0.0044696354
000230 14 09 0d 3d 89 6d b5 3d 96 29 02 3c a0 d5 bc bc
       0.034432486 0.08858783 0.007944485 -0.023051083
000240 4c 42 24 3d d8 3b 06 bc 47 18 17 3d 9f 46 bd bd
       0.040102288 -0.008192979 0.036888387 -0.092419855
000250 2d 68 4b 3d 8a 9f 32 3d 41 a2 86 bd 36 43 8b bc
       0.049659897 0.04360918 -0.06573916 -0.016999822
000260 40 c0 de ba 36 54 04 3d 94 d7 69 bd c0 42 33 bd
       -0.0016994551 0.032306872 -0.057090357 -0.04376483
000270 e3 9e d5 3d 49 17 89 bd 1d ca ed bc ed ad 53 bd
       0.10430696 -0.066938944 -0.02902704 -0.05167954
000280 47 2f b1 3c c1 78 ab 3d 71 95 17 3e 8a a3 81 bd
       0.021628989 0.08372641 0.14803101 -0.06330021
000290 03 70 10 bd 33 2a 23 be 9e 0c b2 bd 8e 34 14 3e
       -0.035263073 -0.15934066 -0.08693813 0.14473173
0002a0 ba c9 1b 3d ee a2 be 3b 01 81 ae 3d e0 bd c9 bd
       0.03803418 0.0058177626 0.08520699 -0.09850669
0002b0 de ad 06 3e 23 69 6b bd ad 77 af bd ea 0c 8a 3d
       0.13152263 -0.057473313 -0.08567748 0.067407444
0002c0 20 2a 9d bd b8 11 5d 3c 40 db 2f 3d d2 ec 6f 3c
       -0.0767405 0.013492994 0.042933702 0.014643865
0002d0 80 3d b8 3c 1a c2 d3 3d 0b 65 93 3d c0 ac 2a 3d
       0.022490263 0.10339756 0.07197007 0.041668653
0002e0 b6 69 ab 3d 5b 2f 4d be d7 f8 84 3c e2 10 1a bd
       0.08369772 -0.20037596 0.016231937 -0.037613757
0002f0 2c e4 5e 3c 0e 22 6a bd ed d4 c1 3c 85 ce 31 be
       0.013604205 -0.057161383 0.023661101 -0.17363937
000300 f0 1c cb bb 5f 01 22 bd 33 f2 5f be ea 9f ca 3d
       -0.006198518 -0.03955209 -0.21869735 0.098937824
000310 00 52 ec 3d 1c 4c 35 3c 12 a6 ce 3b d7 3c 9a 3d
       0.11539078 0.011065509 0.006306418 0.075311355
000320 a2 61 60 bd c5 19 19 3c d3 b7 b0 3d a6 a3 17 be
       -0.05478061 0.009344523 0.08628812 -0.1480852
000330 2f 33 0e 3e 1a c1 2e bd 6e 25 df bb b4 7b 25 bd
       0.13886712 -0.042664625 -0.006809882 -0.040401176
000340 3e 81 8f bd ee 13 f4 3a 2b 47 0b bd 4d 61 f2 3d
       -0.07007073 0.0018621662 -0.034003418 0.11834965
000350 7b 1a 08 be 75 e4 19 3d 0a 04 38 3d 1c 8a e1 bc
       -0.13291351 0.03757139 0.044925727 -0.027531676
000360 05 14 1c bd 30 4b 62 bc 4c c2 5a 3a c1 17 b6 3d
       -0.03810503 -0.013811871 0.00083449925 0.088912494
000370 b5 f1 0b be 7b 48 31 bd a0 59 4b 3d a0 4c 58 3d
       -0.13666423 -0.043282013 0.04964602 0.05280745
000380 14 31 a6 bd ad 74 1c 3d a7 0b f8 3d 5f 63 1c bd
       -0.0811483 0.03819721 0.121115975 -0.038180705
000390 ca 7d 0b bd 55 cc 95 bc 25 e7 d3 3d e9 42 9d 3d
       -0.03405551 -0.01828591 0.10346822 0.07678778
0003a0 de 29 1c bd 05 d3 0f bd bd 3c e9 bc f9 ba b6 bb
       -0.038125865 -0.035113353 -0.028471345 -0.005576488
0003b0 43 0f bb 3d 32 7c 68 bc a7 2b 9b bd 4c a8 be ba
       0.0913377 -0.014189767 -0.075766854 -0.0014546006
0003c0 3e 4c 97 bc 03 12 79 be f0 7f 2b 3e f3 63 c4 3d
       -0.018468972 -0.24323277 0.16748023 0.09589376
0003d0 b5 7e 1b be ff f1 06 3d 7c 88 3d 3e 55 3c 8e 3d
       -0.15185054 0.03294563 0.18509096 0.06945101
0003e0 42 7b 94 bc 90 33 be bd d5 aa 4b 3d 20 c8 06 be
       -0.01812518 -0.092871785 0.049723465 -0.13162279
0003f0 5e db a0 3d 3d 46 5b bd 27 4e 36 bd e0 0a be bd
       0.07854341 -0.05353378 -0.044508126 -0.09279418

stage1.blocks.0.mlp.fc1.bias f4 [24]
000000 ee eb c4 bc e7 9a 80 3d 50 56 07 bd 8d 7b 95 3d
       -0.024038281 0.06279545 -0.0330413 0.07298956
000010 f4 41 1c bd e4 e0 35 bc 9b c4 0f 3c cd 9f 28 3d
       -0.038148835 -0.011100981 0.008774902 0.041168023
000020 d2 b8 da 3c bc 91 cf bc 4f a5 17 3c 5a c5 8e 3c
       0.026699457 -0.025338046 0.009255721 0.017428089
000030 33 02 da 3a 19 b6 d6 bc ea 05 f9 3c dc da 9d 3d
       0.0016632735 -0.026209878 0.030398328 0.0770776
000040 e7 fb 1a bd c3 53 d5 bb 1f d9 41 bd cc 47 6f bc
       -0.03783789 -0.0065102293 -0.047326203 -0.01460452
000050 50 95 14 3e 79 eb 66 3d 63 6e 74 3d b1 dc 1c bd
       0.14510083 0.056376908 0.059675585 -0.038296405

stage1.blocks.0.mlp.fc2.weight f4 [12, 24]
000000 96 0a 88 bd d3 f3 46 3d f3 95 34 bc 69 b6 cf 3c
       -0.06642644 0.048572373 -0.011022079 0.025355535
000010 2e 49 6b 3d 68 a5 c6 bd 7b 55 66 bd 39 13 96 3d
       0.057442836 -0.096995175 -0.056233864 0.07327885
000020 0e 9a 20 3c 87 0d 17 3d 1c 25 4a 3d 57 4e 37 3d
       0.0098023545 0.036878135 0.049351797 0.044752445
000030 14 8c a1 bc d0 2e 1c 3e 75 87 20 bc 9f 62 38 bd
       -0.019720115 0.15252233 -0.0097979205 -0.045015927
000040 86 3a ae bc bf 95 2d 3d 7b 94 c4 3d 36 8f ba 3d
       -0.02126814 0.042379137 0.09598633 0.091093466
000050 dc 27 96 3b a2 7e 14 bd 1d 1f 06 3e db b3 86 3d
       0.0045823883 -0.03625358 0.13097806 0.065772735
000060 40 f7 7c bd ff c9 b7 bc d8 be 61 bc 21 a7 ad 3c
       -0.061759233 -0.022435186 -0.013778411 0.021197857
000070 90 c5 ff ba 30 50 23 3d 86 23 b5 bd 42 b2 54 bc
       -0.0019513834 0.039871395 -0.08844666 -0.012981953
000080 30 b2 7b bd 7d 03 1f bd 18 5c 7c bb 33 77 d9 bd
       -0.06144923 -0.038821686 -0.003850704 -0.106184386
000090 f1 ed 3d 3d 80 78 bb 3d 1c b4 c7 3c 0f 1c 25 bc
       0.046369497 0.09153843 0.024377875 -0.0100774905
0000a0 32 fb 45 be 4c 1b b8 bd 09 27 8d 3c ea 59 31 bd
       -0.19334105 -0.089895815 0.017230527 -0.04329864
0000b0 61 8b 64 3e b1 57 1b bd 05 7e 1f bd 52 68 5d 3d
       0.22318794 -0.037925426 -0.03893854 0.054054566
0000c0 24 75 ea 3a eb e0 4a 3c 3a 2a 63 3c ac a0 d6 bb
       0.0017887694 0.012382726 0.013865048 -0.0065499153
0000d0 ef 6a 0f bd 24 a2 50 bc c8 f9 81 bc 17 08 33 bd
       -0.03501409 -0.01273397 -0.015866175 -0.043708887
0000e0 d6 ab 0c 3a 51 24 4f bc 4f a6 eb 3c 0f eb 51 3c
       0.0005366182 -0.012642936 0.028765826 0.01281239
0000f0 20 c9 7d bd f6 78 6c bd aa 44 19 bd d1 ca 96 bd
       -0.061959386 -0.057732545 -0.037419 -0.07362903
000100 b0 fa 7e 3c f6 2f c2 3d 78 34 92 bc 0d b0 62 bd
       0.015562698 0.09481804 -0.017847285 -0.055343676
000110 ad e6 d1 bc 79 a1 03 3d 46 8e 31 3c 18 49 63 bd
       -0.02562269 0.032136414 0.010837143 -0.05548963
000120 1d bb a1 3a 11 4d 90 3d 2e 35 9f 3d 08 b8 ad 3d
       0.0012339089 0.07045949 0.07773815 0.08482367
000130 1e 15 91 3d d8 7e 50 3d 70 6e e3 bc 44 ba e1 3b
       0.07084106 0.050902218 -0.027762622 0.0068886597
000140 2c fb 15 3b 67 31 88 bb 99 2b 5b 3d be a5 a7 3c
       0.0022885306 -0.00415628 0.053508375 0.020464774
000150 41 c0 27 3d e8 a8 ed 3d 2d 5d aa 3d 7d 9d b6 bd
       0.040954832 0.11604482 0.08318553 -0.08916757
000160 6f 7f 4d 3d be 79 d2 bc e1 0a f3 3d 92 cd 74 3d
       0.05017036 -0.025692817 0.11867309 0.05976636
000170 78 11 39 bd e4 80 f3 3d ca d1 8f 3d 1d 81 5b 3c
       -0.045182675 0.11889818 0.07022436 0.013397482
000180 38 9a 0b bd b3 d8 b3 bd 4b 07 c4 3c 7d 73 88 3d
       -0.03408262 -0.087815665 0.023929259 0.06662653
000190 a3 06 bd bc 4d f9 e1 ba ae d6 d8 bd 4e 12 1d bb
       -0.023074454 -0.0017240435 -0.10587822 -0.002396721
0001a0 69 e9 9c bd db b4 23 bd b2 98 50 bd 4e 04 a8 bd
       -0.07661707 -0.0399674 -0.05092687 -0.08203946
0001b0 23 b6 32 bd b8 b4 84 3d 4c f0 b8 3b 09 a6 a2 bd
       -0.04363073 0.06479782 0.00564388 -0.07941825
0001c0 28 68 1a 3b b3 19 05 3c c2 8b ef 3c 23 61 11 3d
       0.0023560617 0.008123803 0.029241446 0.035493027
0001d0 a9 9f 60 3e 23 6c 21 3d 41 4e 33 3c a9 a8 d7 bc
       0.21935906 0.039409768 0.01094395 -0.02632554
0001e0 f2 1a 1c bd e4 71 15 3d d4 3f 51 bc 30 1e 97 bc
       -0.038111635 0.036485568 -0.0127715655 -0.018447012
0001f0 3d 1c 09 3c 95 55 ce bd d5 9a 30 bd f8 cb 2e bd
       0.008368549 -0.10074917 -0.04311641 -0.04267499
000200 cf 0d 02 3c b1 f8 a6 bb 94 97 0b bd 6a 9b 10 bd
       0.007937863 -0.0050955643 -0.034080103 -0.035304464
000210 56 2b f7 bc 0f 00 4b 3d 56 87 6f bd 10 d3 ed 3b
       -0.030172031 0.049560603 -0.058478676 0.0072578266
000220 03 86 c6 bd 7c ed 5b bd 63 59 66 bd 07 96 7f 3c
       -0.096935295 -0.05369328 -0.05623759 0.015599734
000230 cd d2 20 bd 65 2b df 3a 86 8f 4f 3d 1a 53 d2 bd
       -0.039263535 0.0017026482 0.050673984 -0.102697566
000240 33 4c ab 3c ad dd 7f 3d 4d 7a 91 3c ef f1 c9 3d
       0.020910358 0.062467266 0.017758513 0.09860598
000250 d8 3d 8c 3d 0b 66 44 3b 2b 0f 26 3d b3 c4 9a 3d
       0.06847733 0.002996805 0.04054181 0.07557049
000260 86 8f 02 3e 9e a8 6e 3d 02 9c d3 3c 66 a7 aa 3c
       0.12750062 0.058266275 0.025831226 0.020831775
000270 b9 d3 12 3c 67 e2 e9 3c 82 c8 1e bd c8 44 e4 3d
       0.008961611 0.02855034 -0.038765438 0.111459315
000280 95 c9 86 3d 41 d4 89 bd 24 19 d5 3c 50 47 c4 3c
       0.065814175 -0.06729937 0.026012965 0.023959786
000290 5f 5f 1b be 4b a8 af 3d 50 e4 f2 3d 25 f0 d1 bc
       -0.151731 0.08577021 0.118599534 -0.025627205
0002a0 51 61 60 3d 11 00 7b bd 65 ce 56 3d bc 9c 05 bd
       0.05478031 -0.06127936 0.052442927 -0.032620177
0002b0 12 cf aa 3d 72 56 44 3d 69 a7 69 3d 18 90 3b 3d
       0.08340277 0.047934003 0.05704442 0.045791715
0002c0 9c 79 62 be 2b 15 61 3d a9 54 cf 3d 74 df a1 3d
       -0.22116703 0.054951828 0.101235695 0.079039484
0002d0 75 b5 e1 3c 27 51 16 3e 81 9a f2 3d 37 f6 c9 bd
       0.027552346 0.14679395 0.118458755 -0.09861415
0002e0 4d aa fd bc 53 8f b0 3d 08 f5 f2 3d 72 bd d9 3d
       -0.030964995 0.08621087 0.11863142 0.10631837
0002f0 96 14 e0 bc 4d 2c 0a 3c 11 25 99 3d e1 9c 49 3d
       -0.027353566 0.008433414 0.07477773 0.049221877
000300 0e 85 41 3d f7 14 07 3d 18 a7 cf 3d 54 86 f9 3c
       0.04724603 0.032978978 0.101392925 0.03045956
000310 b3 a8 5c 3d 82 da 98 3d fe dd 72 3d 7d c6 a0 3d
       0.05387182 0.07463552 0.05929374 0.07850359
000320 98 9e b0 bd 31 b2 a2 3c d2 7c a0 3d 65 d3 87 3d
       -0.08623999 0.019860359 0.078363076 0.06632117
000330 f6 da 07 3d 64 29 ba 3d 8c e5 bb 3d 73 a6 27 bc
       0.0331678 0.09089926 0.09174642 -0.010232556
000340 8a 49 f3 3d e8 75 76 3d cc 65 fa 3d 09 9d 71 3d
       0.11879261 0.060171038 0.122264475 0.05898765
000350 a3 f5 ab bc 19 1d 24 3d 92 3e 28 3d 4a a6 c2 3d
       -0.020991152 0.040066812 0.041075297 0.09504373
000360 6f e1 90 bd c8 19 56 bd ae 70 9a 3c 45 9a b8 3c
       -0.07074248 -0.05227068 0.018852558 0.022534499
000370 b6 f7 b6 bc 6a ad 0e bd 36 4c a9 bd 80 ed 98 bd
       -0.022334915 -0.03483335 -0.08266489 -0.074671745
000380 0a 71 8b 3c 55 1f 6f bd 09 00 94 3c eb c5 03 3d
       0.017021675 -0.05837949 0.018066423 0.03217117
000390 cb 68 39 bd 92 e7 d7 bc 2e 61 3a bd 6d 93 a7 bc
       -0.045265954 -0.026355539 -0.045502834 -0.02045604
0003a0 72 9a 4e bd 06 0c 7d 3b 7a e5 6d 3c 46 86 91 bd
       -0.05044026 0.0038611903 0.0145200435 -0.07105689
0003b0 e2 68 86 3d cb ed 86 3d cb f5 b1 bc 4d 00 5e bd
       0.065629736 0.06588324 -0.021723649 -0.054199506
0003c0 b3 16 b8 bb a4 ab 50 3d 82 31 7f 3c 62 26 8b 3d
       -0.0056179403 0.05094494 0.015575768 0.0679443
0003d0 0b 08 b2 3d 6a f4 00 bd ee f8 c2 3c a7 89 42 3c
       0.0869294 -0.03148309 0.02380034 0.011873639
0003e0 de 45 3b 3d f1 b9 99 bb 06 95 7b 3d 65 ff e6 bc
       0.045720927 -0.0046913554 0.061421417 -0.028197953
0003f0 69 19 2e 3c 24 4b 62 3d 2f e0 0c 3c 6f a9 6a 3b
       0.010626175 0.05524744 0.008598371 0.0035806557

stage1.blocks.0.mlp.fc2.bias f4 [12]
000000 d9 3b e3 3b d5 4e 82 3c 60 65 f3 39 40 bb 42 bc
       0.0069346246 0.01590673 0.00046424102 -0.011885464
000010 df 33 92 3c d1 b2 e1 3b 95 4e 77 3c 5f 53 3f bd
       0.017847 0.0068877717 0.015094419 -0.04671037
000020 44 90 49 bc 6f eb 2b 3b fe ac 0c 3c f5 3a a3 3c
       -0.012302462 0.0026232859 0.008586166 0.019925574

stage1.blocks.1.norm1.weight f4 [12]
000000 5c 41 90 3d c9 85 0a 3d 16 9e b1 3d 61 51 b6 3d
       0.07043716 0.033818994 0.086727306 0.089022405
000010 4f 1f 65 3d 15 b9 5a 3d bc ff 9c 3d dc d2 c9 3d
       0.05593806 0.053399164 0.07665965 0.09854671
000020 16 73 d0 3c 4d 2c 72 3d 2d 48 05 25 0e ad 9c 3d
       0.025445502 0.05912428 1.1560365e-16 0.07650195

stage1.blocks.1.norm1.bias f4 [12]
000000 71 04 27 3b 25 f9 f8 39 84 fe d1 3b c7 1d c9 bc
       0.0025484825 0.00047487873 0.0064085145 -0.024550332
000010 92 2b ab 3c 1c 57 36 bc 0c 68 fc 3b 2a db 17 bd
       0.0208948 -0.011129167 0.007702833 -0.037074246
000020 76 7a 06 3b e2 bf 91 3c d0 75 05 80 b4 8b 21 bc
       0.002051977 0.017791692 -5.0144e-40 -0.009859968

stage1.blocks.1.attn.conv_proj_q.bn.weight f4 [12]
000000 c0 e4 01 80 d3 23 02 80 13 c1 01 80 85 22 02 80
       -1.73896e-40 -1.96522e-40 -1.61097e-40 -1.96054e-40
000010 99 a6 01 80 32 c9 01 80 fb 0a 02 80 e0 a7 01 80
       -1.516e-40 -1.64011e-40 -1.8761e-40 -1.52058e-40
000020 63 f8 01 80 6f f4 01 80 f5 cb 02 80 0d 0a 02 80
       -1.8094e-40 -1.79522e-40 -2.56837e-40 -1.87277e-40

stage1.blocks.1.attn.conv_proj_q.bn.bias f4 [12]
000000 77 de 02 00 33 d1 01 00 78 d9 01 80 3a c3 01 00
       2.63476e-40 1.66882e-40 -1.69849e-40 1.6187e-40
000010 86 ab 04 00 79 da 01 00 54 c9 01 00 cf 76 00 00
       4.28873e-40 1.70209e-40 1.64058e-40 4.262e-41
000020 f5 cb 02 00 c3 e0 00 00 cb e3 01 00 02 2e 03 00
       2.56837e-40 8.063e-41 1.73552e-40 2.92011e-40

stage1.blocks.1.attn.conv_proj_q.bn.running_mean f4 [12]
000000 33 0a 00 00 dc 0d 00 00 06 6f 00 00 f7 02 00 80
       3.659e-42 4.972e-42 3.9828e-41 -1.064e-42
000010 33 04 00 00 4b 30 00 00 bc 04 00 00 74 3e 00 80
       1.506e-42 1.7324e-41 1.698e-42 -2.2404e-41
000020 6f 37 00 80 34 04 00 00 01 00 00 80 87 00 00 80
       -1.9886e-41 1.508e-42 -1e-45 -1.89e-43

stage1.blocks.1.attn.conv_proj_q.bn.running_var f4 [12]
000000 04 00 00 00 04 00 00 00 04 00 00 00 04 00 00 00
       6e-45 6e-45 6e-45 6e-45
000010 04 00 00 00 04 00 00 00 04 00 00 00 04 00 00 00
       6e-45 6e-45 6e-45 6e-45
000020 04 00 00 00 04 00 00 00 04 00 00 00 04 00 00 00
       6e-45 6e-45 6e-45 6e-45

stage1.blocks.1.attn.conv_proj_k.bn.weight f4 [12]
000000 47 30 02 80 d5 14 05 00 e1 3d 02 80 25 4f 02 80
       -2.0099e-40 4.6665e-40 -2.05869e-40 -2.12063e-40
000010 10 9d 01 80 75 af 01 80 6a d5 01 80 4f bc 01 80
       -1.48179e-40 -1.54778e-40 -1.68394e-40 -1.59388e-40
000020 04 c8 02 80 7f b6 01 80 1d ec 01 80 13 c1 01 80
       -2.55423e-40 -1.57303e-40 -1.76537e-40 -1.61097e-40

stage1.blocks.1.attn.conv_proj_k.bn.bias f4 [12]
000000 22 03 02 00 a8 be 01 80 6f 6b 02 00 ad de 06 00
       1.84795e-40 -1.6023e-40 2.22211e-40 6.30894e-40
000010 c5 6b 05 00 1e 33 05 80 3b e5 00 00 2f e7 06 80
       4.97838e-40 -4.77515e-40 8.2232e-41 -6.33946e-40
000020 d7 b9 03 80 4e 9d 01 00 7c da 01 00 ba e8 01 00
       -3.42173e-40 1.48266e-40 1.70213e-40 1.75322e-40

stage1.blocks.1.attn.conv_proj_k.bn.running_mean f4 [12]
000000 ae 0c 00 00 21 00 00 80 e0 52 00 80 73 05 00 00
       4.549e-42 -4.6e-44 -2.973e-41 1.955e-42
000010 c4 17 00 80 ec 95 00 00 34 11 00 00 44 1b 00 00
       -8.525e-42 5.3782e-41 6.171e-42 9.781e-42
000020 bb 1a 00 80 85 0a 00 80 04 00 00 80 d5 0b 00 80
       -9.589e-42 -3.774e-42 -6e-45 -4.245e-42

stage1.blocks.1.attn.conv_proj_k.bn.running_var f4 [12]
000000 04 00 00 00 04 00 00 00 04 00 00 00 04 00 00 00
       6e-45 6e-45 6e-45 6e-45
000010 04 00 00 00 04 00 00 00 04 00 00 00 04 00 00 00
       6e-45 6e-45 6e-45 6e-45
000020 04 00 00 00 04 00 00 00 04 00 00 00 04 00 00 00
       6e-45 6e-45 6e-45 6e-45

stage1.blocks.1.attn.conv_proj_v.bn.weight f4 [12]
000000 5d 95 83 3e 36 92 5a 3d 3e e9 d1 3e b5 47 9c 3e
       0.25699893 0.053362094 0.40998262 0.30523458
000010 0c ec 2f 3e a1 98 fd 3e f4 82 e7 3e 5f 01 f9 3e
       0.17179888 0.4953051 0.45217097 0.4863386
000020 b3 f0 ef 3d 38 bb be 3e 40 5b 71 19 28 bf 65 3e
       0.117158316 0.37252212 1.2477836e-23 0.22436202

stage1.blocks.1.attn.conv_proj_v.bn.bias f4 [12]
000000 33 1d 5f bc 85 46 1a bc 79 d1 8d bc da 39 94 3c
       -0.0136178015 -0.009416227 -0.017311798 0.018093992
000010 4a 6b c9 3b 83 b9 6b 3c 53 99 a4 3a 5e 25 ba 3c
       0.006146823 0.014387491 0.0012557901 0.022722896
000020 5f 89 d2 bc 2d b4 1f 3d c4 ac b4 35 40 3a d9 3a
       -0.02570027 0.03899019 1.3461326e-06 0.0016573146

stage1.blocks.1.attn.conv_proj_v.bn.running_mean f4 [12]
000000 de bc b7 39 87 14 3d b8 89 0c 06 3c 0b f0 04 bb
       0.00035045197 -4.508023e-05 0.0081817 -0.0020284678
000010 d2 4b 61 b9 05 90 ac ba 0f ae 76 bb c8 72 da bb
       -0.00021485917 -0.001316548 -0.0037640368 -0.006666515
000020 bc 75 ab 3a 61 af ea ba 91 74 3f 0e af a7 12 ba
       0.0013081352 -0.001790505 2.3598692e-30 -0.0005594445

stage1.blocks.1.attn.conv_proj_v.bn.running_var f4 [12]
000000 7f 72 3b 38 7c ae de 36 cd 3d 51 39 30 3e 8e 39
       4.4690907e-05 6.636428e-06 0.00019954816 0.00027130684
000010 9a 0c 33 37 b9 7c 1b 38 fb 88 90 39 f9 12 dd 38
       1.0672165e-05 3.7071037e-05 0.0002756788 0.00010541635
000020 e3 4e 88 37 28 85 3e 39 04 00 00 00 8b 55 5d 38
       1.6249198e-05 0.00018169417 6e-45 5.2770174e-05
