ViT/ViT1/8 V train 0.767 V test 0.770 ABS 2/model_bestV.pt (torch, 414407 bytes, 74 tensors)

pos_embedding f4 [1, 19, 36]
00000000: f096 873f 3715 013f fa63 303f 09d3 a93f
00000010: a890 ba3e 39df 4fbe d27b b1bf 43e4 d2bf
00000020: ed1a 2ebf e78b 29bf f3b0 8dbf 94df 82bf
00000030: 97b6 133f 9bf8 12be 8fa7 923e a81c 80be
00000040: 6243 8cbf 9fc0 31be 3ab4 49bf 2b01 0cbf
00000050: b6ba 5dbf 0a40 3e3f 6688 1abf c2ad 673e
00000060: 1a2d f63f e931 96bf 2288 fa3f ed61 cb3d
00000070: dbb8 7cbf 9cc1 50be e575 05c0 46dc 863f
00000080: 649c 863f bb7a 823f f02d 6c3f b1b6 853e
00000090: 0ae2 f7bf 6215 e1bf 681e 6e3f 7aeb 08bf
000000a0: c000 0740 d884 723f 3a58 1740 ee73 0bc0
000000b0: 44b8 233f 448f 88bf bbd3 f23e b01d 7d3f
000000c0: fbff 633d 9906 4d3f 89de a23e 484a 5a3e
000000d0: 5f85 02c0 51e2 91bf 0761 4abf d66d 7e3f
000000e0: 6f7d 643e 568e a5bf 5369 f23f ab37 6cbe
000000f0: 7cc1 3940 7e29 e5bf 4c87 873e 0e6a 0ebf
00000100: 4e89 44bf c312 ac3e b6b5 c1bc 7213 0d3f
00000110: 9919 fe3d 8864 2bc0 b388 0740 f30a 3cc0
00000120: a2c3 083f 2ae6 d9be 54b3 86bf 99a9 fd3f
00000130: 314f 28bf b05b a43e 9d04 183f 0130 6ebe
00000140: 149f cfbf e0d2 cebf da6b 373f 05b0 bebf
00000150: f6d6 983f c845 3dc0 3359 05c0 39bf b13e
00000160: aef4 14bd e8c9 4cbf 3689 f03f 6006 45bd
00000170: d577 a2be c58a d33e de34 a53f d104 85bf
00000180: 17a3 51be 9622 0f3f 7ac1 07be 8e11 56bf
00000190: 92f0 fc3f f84e 853f 9268 c53d 6aab 113e
000001a0: 75d1 5f3f 0f4e f43f 42b6 28bf e651 493e
000001b0: e3a7 703f 33e8 0dbe c2cf fdbf 8cca 47bf
000001c0: 26ef 083e 197c db3f 9505 2abe 4494 1240
000001d0: 8177 5340 faf5 8f3e c362 b1be 7fc5 c3be
000001e0: aed0 963f e832 e53e c8bd 28c0 7632 973f
000001f0: b7ef 413f 48e1 a13f 9848 43c0 39cb 3bbf
00000200: be1d 10c0 9f9a 12c0 cfe5 11bf 3f12 a83d
00000210: 0419 003f b2b7 bbbf d15b d63f ae14 e03f
00000220: b0d2 d03e 05bc d7be a681 9e3f a8e5 df3e
00000230: 37b6 a2bf 6c08 6c3f 9802 0ebe 0cce 253f
00000240: dcdf f03f 4e3d 88bf ac16 093f 4304 163f
00000250: 2d5b 60bf 74d2 d8be ca13 2cbf 0215 b13e
00000260: 3bfe cabf 12ab a73f 1a4c d6be b844 e5bd
00000270: c8e9 b7bf 3671 d6bf a288 273f 8e64 8ebf
00000280: 5a82 473e ee01 b8be f9cb b83f 1ed4 bcbf
00000290: b436 8ebe d93b e2bf 6fe1 953f 1414 a13f
000002a0: f45f dbbe 0078 ac3f 5fb0 b73f f9e7 323d
000002b0: 705b 1cc0 f6c0 f0be 2fdf a23e 75a5 5f3f
000002c0: 5ec7 a9bf 04f5 21c0 e85c a5bf c614 333f
000002d0: ce8e b3bf 9c1c 30bf fa9b fbbd ebe5 efbe
000002e0: f1fb f13f 1036 f83e 8eb1 c93f d100 c6bf
000002f0: c299 32bf c234 7fbf be3a 953f 46c2 9e3f
00000300: 148f ccbf 133f 853e f20e 8cbe 932a 7bc0
00000310: 5afc 0d3e a701 e03e b2c0 babe c946 403f
00000320: 522a 193e 2e58 87be 19c6 163f 84ba 0940
00000330: f315 36bf 2961 463f 229e 2bbf 44ab 7c3e
00000340: b10b 23bf c4a5 183f 5db5 b73e ed9f aa3f
00000350: adb3 dfbf 1818 8e3e 0f33 b23f 3e23 dcbe
00000360: 322d 3f3f 4909 6f3f dc50 95be 7ee5 61be
00000370: d01a 473f 83f1 53bf e809 ccbf 4fa5 90bf
00000380: 0e52 ca3f 8921 d13f e92c f7be 9560 0840
00000390: 8199 14c0 16da 17bf d94b 0840 0a58 26bf
000003a0: d67a ce3e edc0 dc3d 020b c3be 7374 9cbf
000003b0: 5306 4e40 f6a3 e3bf 00fe 193f 95d6 0bc0
000003c0: aff9 0c3f 67bb 143f 5845 9ebf 6318 71bf
000003d0: 5ca2 f0bf 3d2c cdbf 70f3 10c0 1d41 e93e
000003e0: ac58 e73f 5b80 89bf aa23 22bf a45b 9abf
000003f0: bf6d b6be 7ce3 35bf 72be 1040 78df 8abf
1.0592937 0.50422996 0.6890255 1.3267528 0.3643849 -0.20299996 -1.3865912 -1.647591
-0.68009835 -0.662291 -1.1069626 -1.0224481 0.57700485 -0.14352648 0.28643462 -0.25021863
-1.0958064 -0.17358635 -0.7879063 -0.5468928 -0.86613023 0.74316466 -0.6036438 0.22624877
1.9232514 -1.1733981 1.9572794 0.09930787 -0.9871957 -0.20386356 -2.0853207 1.0535972
1.0516477 1.0193704 0.92257595 0.26115945 -1.9365857 -1.758465 0.93015146 -0.5348431
2.1094208 0.94733953 2.36476 -2.1789508 0.6395304 -1.0668721 0.47427163 0.98873425
0.055664044 0.8008819 0.31810406 0.21317399 -2.0393903 -1.1397191 -0.790543 0.99386346
0.22313474 -1.2934062 1.8938392 -0.2306811 2.9024343 -1.7903287 0.2647041 -0.55630577
-0.7677201 0.33608064 -0.023646217 0.55107796 0.12407226 -2.678011 2.1177185 -2.9381683
0.5342351 -0.42558414 -1.0523477 1.9817382 -0.65745836 0.32101202 0.5938204 -0.232605
-1.6220422 -1.6158104 0.71648943 -1.4897467 1.1940601 -2.957384 -2.0835693 0.34716204
-0.036366157 -0.79995584 1.8791873 -0.048101783 -0.3173205 0.4131681 1.2906759 -1.0392095
-0.2047237 0.5591215 -0.13257399 -0.83620536 1.9760916 1.0414724 0.09639086 0.14225546
0.8742898 1.9086322 -0.65903103 0.19660148 0.94006175 -0.13858108 -1.9829028 -0.78043437
0.13372478 1.7147247 -0.16603692 2.2902994 3.304169 0.28117353 -0.34645662 -0.38236615
1.1782434 0.447654 -2.6365833 1.1812274 0.757564 1.2646875 -3.0513058 -0.7335697
-2.2518153 -2.2906873 -0.56991285 0.08206605 0.5003817 -1.4665434 1.674677 1.7506311
0.40785742 -0.42135635 1.2383316 0.437299 -1.2711858 0.9220035 -0.13868177 0.6476753
1.8818316 -1.0643709 0.5355022 0.5860025 -0.87639123 -0.42348063 -0.67217696 0.3458634
-1.5858835 1.3099082 -0.41854936 -0.11194748 -1.4368219 -1.6753299 0.6544286 -1.1124437
0.19483319 -0.35938972 1.4437248 -1.4752233 -0.2777611 -1.7674514 1.1709422 1.2584252
-0.42846644 1.3474121 1.4350699 0.043678258 -2.443081 -0.47022218 0.318109 0.8736184
-1.3263967 -2.5305796 -1.2918978 0.6995357 -1.4027956 -0.68793654 -0.122856095 -0.468551
1.8905011 0.48478746 1.575731 -1.5468999 -0.69765866 -0.9968988 1.1658552 1.2403038
-1.5981164 0.26024684 -0.27355152 -3.9244735 0.13865796 0.4375126 -0.3647514 0.7510801
0.1495755 -0.26434463 0.58896023 2.152009 -0.7112724 0.77492005 -0.67038167 0.24674708
-0.63689715 0.5962794 0.35880557 1.3330055 -1.7476708 0.27752757 1.3921832 -0.42995638
0.7467834 0.93373543 -0.29163253 -0.220602 0.7777529 -0.8279039 -1.5940523 -1.1300448
1.5806291 1.6338359 -0.4827645 2.130895 -2.3218691 -0.5931715 2.1296294 -0.64978087
0.4032809 0.10778985 -0.38094336 -1.2223037 3.219136 -1.7784412 0.601532 -2.184972
0.55068487 0.58098453 -1.2364912 -0.94177836 -1.8799548 -1.6029125 -2.2648582 0.4555749
1.8073936 -1.0742296 -0.6333567 -1.2059216 -0.35630605 -0.7105024 2.2616239 -1.0849447

cls_token f4 [1, 1, 36]
00000000: 50b1 dd3f 2ffc 02be 54f7 1ebe 8f17 803e
00000010: 942b af3f 9c82 683f 0e3e ef3e 9eb0 b5bf
00000020: e086 2cbe b32d ffbf 2374 fd3e 44af bfbe
00000030: 8604 82bf c96b 10c0 7f54 6c3e 4ac9 15bf
00000040: fa7f bd3f 615a 453e f491 e73f 19e8 8f3e
00000050: c6f7 f23e 03ec fbbe 081a 5bbe f4e0 cebf
00000060: b976 d03f 601b 20bf 1109 4bbf f595 a43f
00000070: 6395 4d3f 8416 a93f 0640 68bd 9d94 cc3f
00000080: b3a8 983f 0cd3 ecbe fa34 7c3f 4945 003f
1.7319736 -0.12791513 -0.15524036 0.25017974 1.3685174 0.90824294 0.4672703 -1.4194524
-0.16848326 -1.9935821 0.49502668 -0.37438405 -1.015763 -2.2565787 0.23079108 -0.5851027
1.480468 0.19272758 1.8091416 0.28106764 0.4745466 -0.492035 -0.21396649 -1.61624
1.6286231 -0.6254177 -0.7931071 1.2858263 0.8030607 1.3209996 -0.056701683 1.5982853
1.1926483 -0.46254766 0.98518336 0.5010572

to_patch_embedding.1.weight f4 [36, 12]
00000000: e006 293e bf8e 4a3e 2e11 68bf e34d ce3d
00000010: 9dd2 80bb 9b35 a43d 7af8 213f 786d 123f
00000020: e249 043f e0f3 853d f8c2 c53e 778d 2b3f
00000030: 8603 263c c229 abbd cb16 8ebe 070b cabd
00000040: 9088 a1be 2c23 1abf 978c 16bf 456c ddbe
00000050: aae7 e9bd 9495 c6bd a0c6 453f 7313 c73d
00000060: 5275 a93d 4d52 5abe 14f1 573f b7c1 7f3e
00000070: 1e56 c2bc 98a7 523f 6327 e8be 45ae dcbd
00000080: 8905 a03f 6353 873d 32a7 a5be 5f3e 723f
00000090: 6bdd 5cbf 5c84 af3e 1512 50bf c6cd 60be
000000a0: 6e5d eebd ae78 6dbf 336c a4be 2b7c a5be
000000b0: 5900 34bf 2f19 4cbe 7d42 423f 892b 19bf
000000c0: 7914 903d 1b47 3e3d 51b6 2abf ff5f 71bd
000000d0: bf2d ef3d 39b3 6dbe 27d0 01bf d497 81be
000000e0: 6a43 2b3d f84c 8bbf 3918 683f ddb4 4bbe
000000f0: 33fc b9bd 1c49 3dbe 20da 96be 06ad 923c
00000100: 4aba 01be 03c5 f0be c532 e43e 9a8d 033f
00000110: aabf edbe d7f1 6e3c de31 ea3e e79b 713d
00000120: 4ecf 3cbe 8dcd d33d 979f 09bf e4a0 01bf
00000130: b1eb c5bd d243 89bd d744 ebbe 798f 76be
00000140: b97b 7a3e 47fb df3e 2726 bfbe f788 843e
00000150: b132 b0be d6e0 24be 4beb 5b3f e10a 0d3e
00000160: f626 abbe efd6 613f 0b62 30be 0314 29bf
00000170: d627 903e 524a 463e a8e9 61be 6286 843e
00000180: 61a4 043e 1036 813e a6c4 23bf f37b 063e
00000190: 76c6 79be 1895 e8be f4bc 15bc 224c 203e
000001a0: 2fc6 debe 6317 613f d10b d23e bd7b a0be
000001b0: cd4d 973d 383b 303e 849c 713f b3a8 d23d
000001c0: bb64 a0be b070 223f 4f75 593e cb9e b5be
000001d0: 9dbd 6e3f f082 73bd c225 adbe 4eb6 7c3f
000001e0: 64f3 953e 5108 06bf 2f7a 2d3f c9df 1abe
000001f0: c935 0fbd 289c 903f 64f9 063f 2382 ff3e
00000200: 4d2a 8c3f 00bf abbe c473 21bf 5de3 9c3f
00000210: 23fa 2f3f 4060 d0be 6a15 bfbc ae4f 113d
00000220: ddab f33c f8ff a9be ddf0 a63f 74d2 753f
00000230: b50e a7be 2a52 303e 1860 57bf 5419 b3be
00000240: 073a 60be a175 b1bc d7ab 48bf b76c 0d3d
00000250: 6979 943e c229 8ebf 9a8d 3bbd 9cae d53e
00000260: 202d 01bf c802 843d 1a07 8a3e ee76 2abf
00000270: 581d 633e ee05 e0be 4472 2a3f 8414 583f
00000280: 2950 68be ebf5 e53e 412b 853e 2aca 1ebd
00000290: e480 dd3d 5691 33bf a51b 5cbe cb17 49be
000002a0: 4c08 99be 71c0 c93e a927 b7be b97c b73c
000002b0: cd54 753d ba20 183e 34c7 a33e 9545 62bd
000002c0: 7335 0e3d ff40 e73e 5e62 3e3e 2181 d2be
000002d0: f6a9 52bf ce2c a33e 775b 883b 59b5 25bf
000002e0: 37ca 553d 9670 f2be 4ac8 8c3e 58b7 4fbf
000002f0: 3381 e7be 1141 7d3e 3b98 ae3e 82c1 02bf
00000300: 3c26 d9be 427a cd3e 7337 40bf 76d3 83be
00000310: 1659 9bbe 9e81 87bf 6ff1 f03e a03e edbe
00000320: 2670 7ebf 0f6b d93e 4e02 113f ccd6 4fbf
00000330: 0b0d b5bc e036 bcbd 0247 9ebe 5af3 013f
00000340: 30c8 29be 5c8e e7be 9ec9 b23e c5ff 7d3e
00000350: fb47 67bf b9ea 22be f415 843d de6b adbf
00000360: 2766 d6bd 3ae4 863e 9a6d 73bf bbaa 1ebe
00000370: 55c4 a6bc 5462 5fbf 81a7 78bd 0bf0 70bd
00000380: 935a 67bf f2ec 403e 3caf 5b3e 43ce 6ebf
00000390: f774 4a3d 0457 e3bd fa78 be3d 4cf1 1cbe
000003a0: 3469 0f3e 9d81 883e ec38 2ebe ff4a c73d
000003b0: d3ed 293e a644 02bf d151 ddbe 7f2b 9dbe
000003c0: 896e 79bb c676 9fbc 53c8 dbbe 6401 253e
000003d0: d0f3 edba 05a7 1ebf 36f1 cb3e fe59 303d
000003e0: 9b88 5fbf 8f6a 8b3e 3421 a13d 9541 64bf
000003f0: c1c9 90bd 1fa0 2dbc ac3f 293f 97e7 09bf
0.16506529 0.19781016 -0.90651214 0.100734495 -0.003931357 0.08018037 0.6326977 0.57198286
0.51675236 0.06540656 0.38625312 0.67012733 0.010132676 -0.08357574 -0.27751765 -0.098653845
-0.315495 -0.6020992 -0.58808273 -0.43246666 -0.114211395 -0.096964985 0.772562 0.097205065
0.0827433 -0.21320458 0.8435223 0.2497624 -0.023722704 0.8228698 -0.4534255 -0.10775427
1.2501689 0.06607702 -0.32354122 0.9462642 -0.86275357 0.3428067 -0.8127759 -0.21953496
-0.11638914 -0.9276227 -0.321138 -0.32321295 -0.7031303 -0.19931482 0.75882703 -0.59832054
0.07035155 0.04645453 -0.6668444 -0.05892944 0.11678647 -0.232129 -0.5070824 -0.25311148
0.041812338 -1.0882864 0.9066196 -0.19893213 -0.09081306 -0.1848492 -0.2946329 0.01790477
-0.1266872 -0.47025308 0.44569984 0.5138794 -0.4643529 0.014584026 0.4574117 0.05898657
-0.18438455 0.1034194 -0.5375914 -0.50636125 -0.09664095 -0.06702389 -0.45950958 -0.24078168
0.24461259 0.43746397 -0.37333795 0.25885746 -0.34413674 -0.16101393 0.85905904 0.13773681
-0.33428162 0.8821859 -0.172249 -0.6604616 0.28155392 0.19364288 -0.22061789 0.25883776
0.1295333 0.2523656 -0.63971937 0.1313322 -0.24392113 -0.4542625 -0.009139288 0.15654042
-0.43510577 0.8792631 0.4102464 -0.31344405 0.07387886 0.1721009 0.9437945 0.10286083
-0.3132685 0.634532 0.21236156 -0.35472712 0.93258077 -0.059451044 -0.3381787 0.98715675
0.29287255 -0.5235644 0.6776456 -0.1512443 -0.034963403 1.1297655 0.5272429 0.49903974
1.0950409 -0.3354416 -0.6306727 1.2256886 0.68741053 -0.40698433 -0.02332564 0.03547638
0.029745037 -0.332031 1.3042256 0.9602425 -0.32628408 0.17218843 -0.84131 -0.3498026
-0.21897136 -0.021662535 -0.78387207 0.034527507 0.2899888 -1.1106493 -0.04578934 0.4173478
-0.5045948 0.06445843 0.26958543 -0.6658772 0.22179163 -0.43754524 0.66580606 0.84406304
-0.22686829 0.44914183 0.26009563 -0.038767017 0.108155996 -0.7014364 -0.2149492 -0.19637983
-0.29889143 0.39404634 -0.35772446 0.02239834 0.059895325 0.14856234 0.31987917 -0.05524214
0.034718942 0.45166776 0.18592212 -0.41114143 -0.8229059 0.3187012 0.004161294 -0.6472984
0.0521948 -0.4735152 0.27496558 -0.81139135 -0.4521576 0.24731852 0.34100518 -0.5107652
-0.42411983 0.40132338 -0.7508461 -0.2574727 -0.30341405 -1.0586431 0.470592 -0.46336842
-0.99389875 0.42464492 0.5664414 -0.8118713 -0.022100946 -0.09190154 -0.3091355 0.5076195
-0.16580272 -0.452258 0.34919447 0.248046 -0.9034421 -0.15909852 0.064495 -1.3548543
-0.10468703 0.26345998 -0.95089114 -0.15494816 -0.02035729 -0.8725941 -0.06070662 -0.058822673
-0.9037258 0.18840387 0.21453565 -0.9328348 0.049427953 -0.11100581 0.09300418 -0.15326422
0.14004976 0.26661387 -0.17013901 0.09731101 0.16594629 -0.50886 -0.43226483 -0.30697247
-0.003806027 -0.019465815 -0.42926273 0.16113812 -0.0018154327 -0.619736 0.39832467 0.043054573
-0.8731782 0.27229735 0.07867661 -0.8916257 -0.070697315 -0.010597258 0.6611278 -0.53869003

to_patch_embedding.1.bias f4 [36]
00000000: 407e 073e a737 13be 837e 053f 2e79 47bf
00000010: 3142 093f 8850 023f d080 d63b cd97 92be
00000020: 879b 40bf dc03 cbbe 34dd 2c3e a5ae 2c3f
00000030: 5012 a2bd 4f70 01bf aa87 a5bd 9bf7 3cbf
00000040: dec7 3fbf 1714 24bf c269 7c3e dce7 153f
00000050: 96f7 003f 1311 5b3d 6df7 0d3f c5e3 803e
00000060: 911b a1be 05fd 553e 8d29 903d 3cd9 1bbe
00000070: ed40 e33e 8c84 edbb 3868 55be 23fc 90be
00000080: 9c23 163e ea24 d13e 1376 523d d330 56bf
0.13231754 -0.14376698 0.52146167 -0.7791928 0.53616625 0.5090413 0.0065461174 -0.2863144
-0.75237316 -0.39651382 0.16881257 0.67453986 -0.07913649 -0.50561994 -0.080825165 -0.73815316
-0.7491435 -0.64093155 0.24649718 0.58556914 0.50377786 0.05348308 0.55455667 0.25173774
-0.31466344 0.208973 0.07039175 -0.15219587 0.44385472 -0.007248467 -0.20840538 -0.28317365
0.14662021 0.40848476 0.051382136 -0.8366825

transformer.layers.0.0.norm.weight f4 [36]
00000000: 02b5 713f f1ba 123f 2a00 6d3f ae04 693f
00000010: 32b3 8f3f 964b 173f 113b 1d3e a149 b63f
00000020: e5c3 ad3f 6ae1 763f eed7 a83f 2acd a53f
00000030: 31cb 223f f2ec 9f3f b996 813f 134d 8b3f
00000040: ca97 a13f 412e 633f bfd8 bb3f 700d de3e
00000050: aa89 9b3f 3dd7 cd3f f1ae a83f 5631 7d3f
00000060: 65c6 f03e 13c6 7f3f 379b 1c3f bcc1 543f
00000070: 2abd 983f 094e 013e b0b7 173f d713 133f
00000080: ba06 f33e e14f a03f 52dc 843f d154 5b3f
0.9441682 0.573165 0.92578375 0.91022766 1.1226561 0.5909971 0.15354563 1.424122
1.3575407 0.96437705 1.3190897 1.2953236 0.63591295 1.2494185 1.0124122 1.0882896
1.2624447 0.8874245 1.4675521 0.43369627 1.2151387 1.608131 1.3178388 0.98903406
0.47026363 0.9991161 0.6117434 0.83108115 1.1932728 0.12627424 0.5926466 0.5745215
0.4746607 1.2524377 1.0379736 0.85676295

transformer.layers.0.0.norm.bias f4 [36]
00000000: 1e73 7cbe 98b2 a93d 44d7 c3bd 1bfb 5b3c
00000010: a6bd c0bd 0617 afbe 7b9d 243d 7cdf 8abd
00000020: c32c 353e 40ec 46bd 916a 7bbe 07d2 38bd
00000030: 7ac9 ca3d 17ce 933d 9b1f 083f 5961 eebd
00000040: fa7f c1bd de93 903e e76b 593d ac41 833e
00000050: 0a33 1d3d c112 61bc 4cdf f03c 455f 203b
00000060: ec05 67bd 15b5 7b3d 77a9 babd 94a6 2fbe
00000070: 0a4f 503f bd95 d0be 6984 813d 00fa cfbd
00000080: d9cc 6e3d f70a 10bf 745f fd3d 272e f63e
-0.24653289 0.08286017 -0.09562543 0.013426567 -0.094111726 -0.34197253 0.040189248 -0.067809075
0.17692856 -0.04856515 -0.2455237 -0.045122173 0.0990171 0.07217043 0.53173226 -0.11639661
-0.09448238 0.28237814 0.05308142 0.2563604 0.038378753 -0.013737381 0.029403351 0.0024470848
-0.056402132 0.06145199 -0.09114354 -0.17153388 0.81370604 -0.4073924 0.06324083 -0.101551056
0.058300827 -0.5626673 0.12371722 0.48082086

transformer.layers.0.0.fn.to_qkv.weight f4 [216, 36]
00000000: 181e 84be 0090 12be 510b e8be 16bf 8fbf
00000010: 6155 09bf d80e 0abd 7996 3a3e bd32 b93e
00000020: 99b0 683f 2f59 a33e 451c 7b3d 24cb 403f
00000030: e6dc 893d a036 f03e 142c 873e ee6e 06bf
00000040: a5c1 62bf 3294 4d3f 7790 c2be 6ff4 103f
00000050: 63e7 42be eef4 19be 4f36 243f 279d 9e3e
00000060: d7d0 ddbe d0fd 873e 9989 833d 533c fbbd
00000070: 300f 0140 9c7a 6abf 1d62 1a3f 2095 30bf
00000080: f479 1bbf bcb8 87bf fe44 b6be c7aa 86bd
00000090: 2277 2cbe 411f 39bb f093 5dbd 13cf 64be
000000a0: fe71 1abe bfcd 943e 7e3d 5dbe 47f0 7f3d
000000b0: 3309 0ebc 6b43 4d3d 998b 4fbe 5e71 7a3e
000000c0: 449c c93e 4027 533d cdb4 aa3e b14e 34bf
000000d0: 9253 4abe a118 493f e326 5f3f d308 ca3e
000000e0: d3f3 db3d 09c8 5bbf 1b4f 723e 9cf9 ea3d
000000f0: 697f 60be 93ae f5bd e175 d03e 6d89 3fbe
00000100: 4870 ce3f 3ebb eabe ae77 4a3e 72bd 18be
00000110: 15aa 7abe 5412 14bf 4e5c 013d a39f 8f3e
00000120: a91c c9bd 1e82 0abf b9b8 1abf 494f cbbe
00000130: 5d3d d4bd 4c94 dabe ad48 333e 1a29 c63e
00000140: 7756 8a3f d26a a03e 6039 9ebc f0f8 b73d
00000150: 5336 29be a2da be3c 437a 15be f27e 803d
00000160: d500 35bf 787a 45bb a2fd 47bf 2d39 7cbd
00000170: dd60 a9be b963 873e 828c 523e b2b0 7fbd
00000180: 1368 3b3c b168 2cbd c78d 0b3e acf4 393e
00000190: bc42 413f 2d1c 5dbe 2dc5 263e f0c2 1a3e
000001a0: a7cd 3fbd 42d2 dcbe bad9 56be 1558 f4bd
000001b0: 76b4 91be eac9 96be 957f 26bf 92d1 46bf
000001c0: 1f32 a6be 0e2d 19be b4c4 313e ed92 7f3e
000001d0: c9bd 103f 5680 9e3d b15d 923d 5d98 163f
000001e0: 1aca 9e3e 1b6c be3e 2720 f73e 6990 6cbf
000001f0: 20c3 02bf 78f7 563f 25dc b03d a8eb 373f
00000200: 9eda 89be 5f85 f4be 1fee 3b3f 6bea 923e
00000210: 5c8a 5abe 13a8 9b3e 5bba 413e 787f 8a3d
00000220: 5138 f33f 0a04 40bf a586 fb3e cc9d 06bf
00000230: 5963 aebe d792 8ebf 51ab 3c3d 9afe 9a3d
00000240: c834 60be 21b2 c2bd 8cd7 aabe 8710 91be
00000250: 2b28 f7bd 6fa9 c1bd 94e5 10bd baca c4bd
00000260: c2f5 fc3e 6521 623d a8aa 073d b420 093f
00000270: 64bb 583d 729b 8e3e 3d22 603f 2ceb 39bf
00000280: 56dc d0be 625d 353f 8b1b da3d bad4 cc3e
00000290: 3b55 0cbe 304c b8bd 4d79 503e 5dd7 c13d
000002a0: 7e17 82be e60c 00bd 8968 fc3d 60c9 0ebe
000002b0: 84a7 d33f d5b4 15bf 190c b03e 7557 0abe
000002c0: 6194 d4be 97bb 8cbf 1e78 d43c 70ec 643e
000002d0: 6a6a 06be 2c62 84be 6789 90be d9ce 62bf
000002e0: 1e48 5abe b37e 773c 64f2 63bd c254 da3e
000002f0: b351 743e 3548 483e 338e ef3d 192b 173f
00000300: f5f8 753e dd56 9f3e 6364 853e 439e 4abf
00000310: eb33 d2be a66d 033f df07 a4bd ef3f 183f
00000320: f550 c7bd b7dd b4be f21d 0f3f 2d7d 253e
00000330: 146d 2fbe 590e ff3d 7b78 a13d 18c4 34bd
00000340: a507 cf3f 5907 fdbe 382a 123f 38a9 0dbf
00000350: 153a 0dbf 9ae8 71bf 1496 53be 93f0 933d
00000360: c0d9 97bd 8e4e 16bc 6560 063d 228e a73b
00000370: c53c 0cbd c649 18be a6ae 5f3d e6a0 04be
00000380: d19f 913f d151 f4bd b78a c3be 18b5 c53c
00000390: 14d8 26be 798b cabd aea0 2e3e 1f21 ab3c
000003a0: 974d 11bf efee 113f 77eb 8abd 11b6 4cbe
000003b0: 0d12 c8be 9ea4 543f b205 23be 251b 75be
000003c0: e455 e43c 39a9 adbe efce 303e e26a 223d
000003d0: 072d 8e3e e71b 05bf 956a 29be 3adb 0a3e
000003e0: fc6b ba3d a8f3 00bf 99d1 483e cab5 afbc
000003f0: af96 813e 00fa 233f 66a6 0a3f 5814 903f
-0.2580421 -0.14312744 -0.45321134 -1.123019 -0.536459 -0.033705562 0.18221463 0.36171523
0.90894467 0.3190398 0.061306257 0.7530997 0.06731586 0.46916676 0.26400816 -0.52513015
-0.8857673 0.80304253 -0.38000843 0.56622976 -0.1903358 -0.1503484 0.6414537 0.30979273
-0.43323395 0.2656083 0.06422729 -0.12267365 2.016552 -0.9159334 0.6030596 -0.68977547
-0.6073296 -1.0603251 -0.35599512 -0.06575542 -0.1684232 -0.0028247389 -0.054096162 -0.22344618
-0.15082547 0.29063222 -0.21605489 0.062485006 -0.008669185 0.050113123 -0.20268096 0.24457309
0.39377034 0.051551104 0.33341065 -0.70432574 -0.19758442 0.78553206 0.8716871 0.39459857
0.10739865 -0.85852104 0.23662989 0.114733905 -0.21923603 -0.11996188 0.40714934 -0.18704768
1.6128016 -0.4584598 0.19772217 -0.14916018 -0.24478944 -0.57840466 0.03158217 0.2805148
-0.098199196 -0.54104793 -0.60438114 -0.39708927 -0.103632666 -0.42691267 0.17508192 0.38703233
1.0807637 0.31331497 -0.019314468 0.08983028 -0.1652463 0.023297612 -0.1459742 0.06274213
-0.70704395 -0.0030132812 -0.7812139 -0.061577965 -0.33081713 0.2644327 0.20561412 -0.06242437
0.011438387 -0.04209203 0.13628303 0.18159741 0.75492454 -0.2159278 0.16286154 0.15113425
-0.046826985 -0.43129164 -0.20981494 -0.11930863 -0.28457993 -0.29450923 -0.65038425 -0.7766353
-0.32460114 -0.14958593 0.17360193 0.24958391 0.5653959 0.07739322 0.071467765 0.5882624
0.31013566 0.37191853 0.48266718 -0.9240785 -0.5107899 0.8397136 0.08635739 0.7184396
-0.26924604 -0.47758004 0.7341022 0.28694472 -0.21341842 0.30401668 0.18918745 0.06762594
1.9001561 -0.75006163 0.49126163 -0.5258453 -0.3406017 -1.1138562 0.046061818 0.07568093
-0.21895134 -0.09506632 -0.33367574 -0.28332922 -0.12068208 -0.09456145 -0.035375193 -0.096089795
0.49406248 0.05520763 0.033121735 0.53565526 0.052913085 0.2785297 0.87552243 -0.7262447
-0.40793103 0.70845616 0.10649785 0.40006047 -0.13704388 -0.089989066 0.20358773 0.094649054
-0.25408548 -0.0312623 0.12324626 -0.13944006 1.6535497 -0.5847905 0.3438423 -0.13509925
-0.41519454 -1.0994748 0.025936183 0.22355819 -0.13126531 -0.2585615 -0.2822983 -0.88596874
-0.21316573 0.015105891 -0.055651084 0.4264279 0.23859291 0.19558795 0.11697044 0.59050137
0.24020751 0.3112096 0.2605315 -0.7914774 -0.41055235 0.51339185 -0.08009314 0.59472555
-0.09732238 -0.35325405 0.5590507 0.16161032 -0.17131454 0.124539085 0.07884308 -0.044132322
1.6174208 -0.49419668 0.5709567 -0.5533633 -0.5516675 -0.94495547 -0.20662719 0.0722362
-0.074145794 -0.009174002 0.032806773 0.005113379 -0.03423764 -0.14871892 0.054609917 -0.12952003
1.1376897 -0.11929668 -0.3819177 0.024134204 -0.16293365 -0.098898835 0.17053482 0.020889817
-0.5675902 0.5700521 -0.067831926 -0.19991328 -0.39076272 0.83063686 -0.15920141 -0.23936136
0.027872987 -0.3391817 0.17266439 0.039652713 0.27768728 -0.519957 -0.16544564 0.13560191
0.09102628 -0.5037179 0.19611205 -0.021448988 0.25310275 0.64053345 0.54160154 1.1256208

transformer.layers.0.0.fn.to_out.0.weight f4 [36, 72]
00000000: dbe5 343f 8f12 8c3e bab3 e4be 71fb c53e
00000010: ceed 03be e57f c1be 64e5 adbd 4fb5 b6be
00000020: 4f1c 0abe 5c29 db3d 6519 1fbe 4756 1f3d
00000030: 4166 f73e 6f2a 9ebe 24aa b9be b67a 6cbc
00000040: 403a 44bf 939d bd3e 3caa a33e d1bb 49be
00000050: d53c 313d 6f1d 89be c095 bcbe 7dee 01be
00000060: d4ad 7cbe 321b 04be a042 4b3d fe8a 2dbd
00000070: 12c7 5ebd 186c 8ebe 3637 793d 38fd e13e
00000080: 69c4 d13e 102c 40be 1b5e 02bf b37f 12be
00000090: 0a22 973c b9f5 863d bc0a 91be e159 983e
000000a0: db4a 263e cc94 84be 34d1 b5bd e562 a63e
000000b0: 805a 93be 5dbe 783e 98a7 aa3d 439d ff3d
000000c0: 9981 793d 698c 7abe e5a8 c7bc 666d 1dbe
000000d0: 3e25 23be 3d76 603e 1281 b5bd c87f 2a3d
000000e0: 6d40 e3bd 1d94 903e a001 443d 4280 893c
000000f0: 2c20 29bf fb75 0dbe 3cf1 203f e87b ddbe
00000100: 6120 093f c4a7 f7bd 8982 9fbe d6dd b038
00000110: 62b9 093d 58a9 2c3f 29a1 b2be 27f1 e73e
00000120: 42d8 913e 7f81 123e cb55 57be 587c 42be
00000130: 8ac6 3cbe caa2 623e a494 3b3e cb3c 4ebe
00000140: ef36 f43d d059 143e 5737 e53d c603 e73d
00000150: b520 28be 7169 eb3d 79b9 cf3d cc83 66bd
00000160: c6b4 57be e94d 38bf 3840 3fbe e9ec 0bbf
00000170: 3e97 7a3e 0e60 9cbe d2fe 193f 1c8a 07be
00000180: 76f9 633e b979 39bf 11d1 f13e 4be6 f7be
00000190: e202 74be dc82 7a3e 3566 cd3e 846b 96bd
000001a0: 7448 9d3d c25d 86be 4027 8d3e adfe 8bbe
000001b0: f06f a7be fa37 62be df1f 4b3d bf9a 7e3e
000001c0: fd3e 64be 348a a5be 7f95 dabe caf1 283f
000001d0: 22b1 6b3e c7fc 283f 4421 89be b784 d8bd
000001e0: 28bb 59be 7195 c73e 6831 d73d 395f 093e
000001f0: 2650 4abe 3b04 3cbf e752 553e 8956 36bd
00000200: a44a a4be 0519 e0be b4ea 4cbb a322 88bc
00000210: 8d5d 98be fa83 22bf a6cf 63be 3216 83be
00000220: e0cb 21bf 3658 973e 3ecc 69bf b277 41bf
00000230: 1d35 debf 2a60 0ebf 71b3 533f 3aca db3e
00000240: fca6 0fbe 4196 1a3f bbf0 703e 7a9a 81bd
00000250: ea3c 2f3e d873 a3bc 8b01 07be 0064 f1be
00000260: c034 763e c2b5 313e 0969 a03d d1dc 49bd
00000270: e268 3b3f 83c4 89bc cd03 62be bbf7 663e
00000280: 8a86 213e 60d9 d03e d73f f5bd 4a95 f03d
00000290: 41a9 50be d76d a23e bf28 3cbf b0d7 df3d
000002a0: ee96 32bd e6d8 83be 95e9 a53e 2bab c0be
000002b0: fa32 1cbe 53ed 693e 97bc 613e 5cee 77be
000002c0: 7b25 9cbe 8460 10be 93c2 6b3e bb43 d6bd
000002d0: f9e5 5d3d e77a 7d3c 138d 50bc 69bd 92be
000002e0: 1afb 133d a972 af3d ae3f 703e 9d8f 6bbe
000002f0: 48bb 19be 955f 84be 596e 833d 8ad7 043e
00000300: 9fd0 6c3e d7e7 79be c725 1fbe 6f24 c9bd
00000310: b859 38be db56 bf3e b824 30be 2d1e ec3d
00000320: d158 2c3d 0bf1 15be 8257 61be 6a64 2b3e
00000330: 9aed 053d 4051 273e a59f eb3e bfc4 bebc
00000340: f0e5 813e b638 31be 4029 f33e bcdc f03d
00000350: 9f7d 0a3f be5b a73e d62b 5bbe ea60 f1bd
00000360: 4786 483f 0604 1fbf 7a9e b0be 1075 103f
00000370: b9b0 babe 36be 18be a0fd d13d dd22 c33e
00000380: 8a04 05bf 5756 24be 4e94 08bf e327 5cbe
00000390: d651 eebe 7897 ef3c f156 54be 288a a3be
000003a0: 3a36 a2be 4e0b b6be 2a51 e63e c839 0dbf
000003b0: 1e7f 983e 627b 14bf a95b bd3e 60de b0be
000003c0: 546f 593d c5ae e53d dbc6 87be c5f2 e63e
000003d0: 0dd2 263e 8a08 4abe 7bee 9dbe 2a8b 983e
000003e0: 0fdc cc3e 1361 773e 0e1b 96be 6f8e 0a3e
000003f0: 2d8c f1be 8c9c 9abe 1b38 b13e c929 a03e
0.7066323 0.2735791 -0.4466837 0.38668397 -0.12883684 -0.37792888 -0.084910184 -0.35685202
-0.13487361 0.10701248 -0.15537031 0.03890064 0.483202 -0.3089175 -0.3626262 -0.014433553
-0.7665138 0.37034282 0.31965816 -0.19700553 0.043270905 -0.2678027 -0.36833 -0.12688632
-0.24675685 -0.12900999 0.049624085 -0.04236888 -0.054389067 -0.27816844 0.06084367 0.44138503
0.40970162 -0.18766809 -0.50924844 -0.14306526 0.018448848 0.065898366 -0.28328502 0.29756072
0.16239493 -0.25894773 -0.08877793 0.32497326 -0.28779984 0.24291368 0.08332747 0.12481167
0.06091461 -0.24467625 -0.024372527 -0.15373763 -0.15932176 0.21920104 -0.08862509 0.041625768
-0.110962726 0.28238 0.047853112 0.01678479 -0.66064715 -0.13814537 0.62868094 -0.43258595
0.5356503 -0.12092546 -0.31154278 8.433654e-05 0.03362406 0.674459 -0.3488858 0.45301172
0.28485304 0.14307211 -0.21028821 -0.18992746 -0.18435112 0.22132412 0.1831842 -0.20140378
0.1192454 0.14487386 0.11192196 0.112800166 -0.16418727 0.11494721 0.10142798 -0.056278035
-0.21065053 -0.7199388 -0.18676841 -0.5465837 0.24471757 -0.30542034 0.6015445 -0.13236278
0.2226313 -0.7245136 0.47229818 -0.48417887 -0.23829225 0.24463981 0.4011704 -0.07344726
0.07679835 -0.26243407 0.27569008 -0.2734274 -0.3270259 -0.22091666 0.04959094 0.24863718
-0.22289653 -0.32332003 -0.4269218 0.6599394 0.2301679 0.6601071 -0.26783192 -0.10572188
-0.212628 0.38981202 0.1050747 0.13415231 -0.19757137 -0.73443955 0.20832406 -0.04451612
-0.32088196 -0.43769088 -0.0031267824 -0.016618079 -0.29758874 -0.6348263 -0.2224718 -0.2560287
-0.63201714 0.29559487 -0.91327274 -0.75573266 -1.7359959 -0.55615485 0.8269568 0.42927724
-0.14028543 0.6038552 0.23529331 -0.06328292 0.1711308 -0.0199527 -0.13184182 -0.47146606
0.2404356 0.17354491 0.07832534 -0.049282853 0.73206913 -0.016817337 -0.22071762 0.22555439
0.15773979 0.40790844 -0.11975067 0.11747225 -0.20377065 0.31724426 -0.73499674 0.10929811
-0.04360097 -0.25751418 0.3240477 -0.3763059 -0.15253821 0.22844438 0.22044598 -0.2421202
-0.30497345 -0.14099318 0.23023443 -0.10462137 0.054174397 0.015471197 -0.012728947 -0.28660133
0.03612814 0.085667916 0.23461792 -0.23004003 -0.15012848 -0.25854173 0.064175315 0.12972847
0.23126458 -0.24404846 -0.15541755 -0.09821402 -0.18002975 0.37370953 -0.17201507 0.11529193
0.04207689 -0.14642732 -0.22006038 0.16737524 0.032697298 0.16339588 0.46020237 -0.023287175
0.2537074 -0.1730679 0.4749241 0.11760852 0.5409793 0.3268718 -0.21403441 -0.11786063
0.7832989 -0.62115514 -0.34495908 0.56428623 -0.36462954 -0.1491631 0.10253453 0.38112536
-0.5196005 -0.16048561 -0.53351295 -0.2149959 -0.4654681 0.02924703 -0.2073629 -0.31941342
-0.31681997 -0.355555 0.44983798 -0.5516629 0.29784483 -0.5800077 0.36983994 -0.3454466
0.053084686 0.11214975 -0.26518902 0.45107093 0.16291066 -0.1972982 -0.3084601 0.29793674
0.4001164 0.24158125 -0.29317516 0.13530897 -0.47177258 -0.3019756 0.34613118 0.3128188

transformer.layers.0.0.fn.to_out.0.bias f4 [36]
00000000: 80a2 0ebd af1c e73d 74f4 84be e2bf 863d
00000010: c109 213e bec3 633c 6fc7 093e a576 213c
00000020: 4888 3d3e 4684 89b8 3fcb 21bb 46b2 693d
00000030: a5e7 33bd eb67 13bc bf79 413e f365 2ebe
00000040: e9f7 7a3d 442a d1bd cd62 cfbd 1f95 52be
00000050: 8b29 a53d 577f 083d bbf4 eebc f541 57bd
00000060: ce6f 1d3e 861b eb3d e286 de3d 5d09 53be
00000070: 5260 82bd b62a ab3d aa52 45be 0731 4f3e
00000080: eafa 1f3e 65f1 2fbe 2cc0 af3c 1b03 90bd
-0.03482294 0.11284768 -0.25967753 0.065795675 0.15726377 0.013901649 0.13454984 0.009854947
0.18509018 -6.557307e-05 -0.0024687795 0.05705478 -0.043922085 -0.008996944 0.18894099 -0.17031078
0.06127158 -0.1021314 -0.10126267 -0.20564698 0.08064564 0.033324566 -0.029169431 -0.052553136
0.15374681 0.11479859 0.108655706 -0.2060904 -0.06366028 0.08357756 -0.19269815 0.20233546
0.1562306 -0.17181928 0.02145394 -0.07031842

transformer.layers.0.1.norm.weight f4 [36]
00000000: 36d1 843f bd5f 833f 07fa 8c3f 8bc3 293f
00000010: 6021 6b3f 3338 633f fe96 3d3f fb1b 7d3f
00000020: cdc4 473f 1af3 913f 1385 5a3f 61de 963f
00000030: d638 e93f d545 8e3f 689a bd3f 5a89 533f
00000040: bc8d 953f 6508 4c3f ed1b 903f 4c77 8d3f
00000050: 7b10 713f add0 d53f 0c5e ad3f 4d5b af3f
00000060: bf84 883f ff74 773f d536 3b3f 3521 993f
00000070: e9c1 cc3f 3733 8a3f cb67 883f 865a 8b3f
00000080: 0b84 5d3f d28d 7b3f 85fc 823f 64d5 533f
1.0376346 1.0263592 1.1013802 0.66314 0.918478 0.8875763 0.7405852 0.9887082
0.7803467 1.1402314 0.85359305 1.1786615 1.822047 1.1115061 1.4812746 0.82631457
1.1683879 0.7970031 1.1258522 1.1052032 0.9416577 1.6704308 1.3544326 1.3699738
1.0665511 0.96662897 0.7313054 1.1963259 1.5996677 1.079688 1.0656675 1.0887
0.86529607 0.98263276 1.0233313 0.82747483

transformer.layers.0.1.norm.bias f4 [36]
00000000: 0454 6ebd f021 a9be f9e9 68bd f36d 32be
00000010: 8659 89be a11a 97bd 1387 183d 8119 1b3e
00000020: a005 473b 2105 e83c 08e3 af3d 06ed 02be
00000030: 93c7 19bd e485 333e bc06 5c3b 2afb 053e
00000040: b563 26be 01f7 fc3d a2ec 8a3e 3cd0 47bd
00000050: a940 463e aafe c43d 77da 36bd 16fe c7bd
00000060: b0e2 0bbd 1c45 313d 8978 c0bd 3b37 2e3e
00000070: 1e26 293e 7bf3 ea3d a7db b6bd 5ebb 673d
00000080: 75b7 52be 39c9 c9bd 49c7 dfbd 506e 033d
-0.058185592 -0.33033705 -0.05686376 -0.17424755 -0.26826113 -0.07378126 0.03723819 0.15146448
0.0030368343 0.028322758 0.08588225 -0.1278573 -0.037543844 0.17531544 0.003357335 0.13084093
-0.16248973 0.123518 0.27133662 -0.048782572 0.19360603 0.09618886 -0.044641938 -0.0976526
-0.034151733 0.0432788 -0.0939799 0.17013256 0.16518447 0.114722215 -0.08928614 0.05657517
-0.20577796 -0.09852833 -0.109266825 0.032087624

transformer.layers.0.1.fn.net.0.weight f4 [72, 36]
00000000: 2048 8f3e a18c 8e3e abb2 c23d 78cd 943d
00000010: cf99 8f3e 1a5a ff3d f721 2d3b 6bb5 83bb
00000020: 9741 28be 033b 7cbd d3ac 353c 05dd 80be
00000030: 2df0 19bd bf22 97bd 1769 b5be 2278 37be
00000040: cdca 74bc 346e 35bd d063 9fbe ba69 29bd
00000050: d7ea 11be 963b 88be 6905 79be 3321 08be
00000060: cc93 3f3e c039 82be ed5f b53d c366 1c3e
00000070: 2284 8d3e a172 133e 868c 19be ba8c 5b3e
00000080: 1e82 2f3d 6f1c 073e 5207 2a3e 4655 5a3e
00000090: 07a7 183e 9179 85b9 70d0 953d 9e0b 87bd
000000a0: d634 b43d 8854 74bd 5fbe eb3d 84f3 563d
000000b0: 9790 d33c a88c 78bd 3599 53bd 9d63 f23d
000000c0: 4c50 b83d a461 23bd 7ddd 5abd 9d88 bc3d
000000d0: 064c 69bd 339a a8bc d6b6 88be b9ec d43c
000000e0: a0f2 56bd 5f20 04be 058b 943d ca79 1e3e
000000f0: 5e0f 35bc 96b8 ae3c fd9c 803a 9c83 babd
00000100: c94b fb3d bcdd 073b e630 503c dbd8 a93d
00000110: 1494 fa3d ca0f 183e ceb9 08be 8053 503e
00000120: c492 8bbd f764 9f3e 54cd ccbe cbfa 05be
00000130: 7316 07bc 5dd5 bfbd c5ab 3b3d 8b8e 5e3d
00000140: 9da3 093d ebe5 a53e 79b5 733e 8b4e f33d
00000150: 831f d5be 0faa 5e3e 89f9 f93e 7a44 94bc
00000160: 1005 f93d fce3 533e 2fb0 893e 6a9f 3b3e
00000170: 0bc1 e63c c707 933e 861b 993e ad17 b43d
00000180: da18 acbe 9181 e43d 2cd9 52be 37a9 b0bd
00000190: e023 c3be 176e 0bbe d7a5 143d e209 ba3d
000001a0: 0ea8 99bc 8bf6 a0be 4675 2fbe 7fb8 80be
000001b0: 1a44 de3b 942c 4e3e 61a4 59bd 59c6 50be
000001c0: 3e57 56bb 05be 84be 4c6f 2abd edbc 9f3e
000001d0: 772b a6bc eed3 6a3e 237f d23c fea7 5b3e
000001e0: f7e7 febe ee84 303e 8f56 ef3e 4ef6 d1bd
000001f0: f79d 00be 0d24 e53d 64bc bb3e 2d56 e5bd
00000200: 2239 133e 0844 ab3e 8ee8 623e 8ce6 1ebd
00000210: b779 febd 073a de3d 4cda a63d 4100 e63c
00000220: 8327 0fbf dc59 173e 0706 c23d fff2 773d
00000230: 60c3 e3bd f5b7 13be 5fb1 37be 3dfd 80be
00000240: dee8 58be f730 1b3e 351a debd 72e0 8e3d
00000250: 365e a0bd 644c 1ebe 8690 933e ecc6 d43e
00000260: d831 723c 173a 533e 67f3 853d a282 2a3e
00000270: c0e9 54be 3065 853e 66c8 043f 8bc3 013e
00000280: a7a8 ec3d 4a22 b13d 51d1 27bd 4b75 153e
00000290: ee3c 423e 3c49 363e 0f68 5c3d ffb4 433e
000002a0: 327e 0abe 0bbf 723e a101 6dbd 8166 89be
000002b0: 4e02 2bbf 7999 dfb8 aacd 463d 508d 873e
000002c0: c2f2 203d adad 463e fa5c 91bd 8313 f0bd
000002d0: 8c1b 8c3e 19a0 453e ea45 35be 628a f9bc
000002e0: 9a02 b03c 0c2d 693c 5580 2d3c fc16 c5bd
000002f0: 7b4d 653e 3f75 49be dfe7 95be 6a2e 943d
00000300: ff7b fdbe ce25 76be 383d 9e3d b23a a43d
00000310: 631f b03e 0e5e d93d 906a abbe 2e3d 41be
00000320: 100a 91bc 2cd9 fc3e baec 1abe 2dea 90be
00000330: 434d 1a3e 57d0 49bd 9d19 55bc aa40 b83d
00000340: 4b01 0ebf f0b5 363e 1e2d aabb 3d36 033e
00000350: 78c7 ef3d 36c4 bb3e e19e d73d 5aee b0bd
00000360: 3226 693d 8c05 f73b 4aa0 c83b 5bdc a53e
00000370: d5c2 8f3e fe57 a539 4e6d 28be b64c 84be
00000380: 9281 22bd 3df6 d1bd 15e2 b0bc c14b f8bd
00000390: ffc9 593e bd34 9ebe 1323 87bd 357c 14bd
000003a0: 2048 d03c 52e3 ffbb beca 20be b4e9 b8bc
000003b0: ad89 78be df96 16be 2981 93bd edfa 5abe
000003c0: 4195 ba3d 0199 7cbe 886f 9f3d dffb 9a3e
000003d0: f0b9 383e e58c b33d 0c10 3cbe 212b a43d
000003e0: 2bd2 013d ed7b ab3c eea0 2e3c d398 b23b
000003f0: bb91 9d3c cce5 ce3e f51d 95be 4b49 26be
0.27984715 0.27841666 0.095067345 0.072657526 0.28047034 0.124683574 0.002641795 -0.0040194294
-0.1643127 -0.061579715 0.011088568 -0.25168625 -0.037582565 -0.07379674 -0.3543174 -0.17916921
-0.01494093 -0.04429455 -0.31130838 -0.041360594 -0.1424974 -0.2660796 -0.2431847 -0.13293914
0.18708724 -0.25434685 0.08856187 0.15273575 0.27639872 0.14399196 -0.14995012 0.21440402
0.0428487 0.1319444 0.16604355 0.21321592 0.14907466 -0.0002545831 0.07315147 -0.06594013
0.0879914 -0.059650928 0.1151092 0.05247833 0.025825782 -0.060681015 -0.05165978 0.11835406
0.089996904 -0.03988804 -0.053433884 0.092057444 -0.056957267 -0.02058134 -0.26701993 0.025991784
-0.05247748 -0.12902974 0.07253078 0.15476146 -0.011051027 0.021328252 0.0009812411 -0.09107134
0.12270314 0.002073153 0.012706971 0.08293315 0.12235275 0.14849773 -0.13352129 0.20344353
-0.06815103 0.31131718 -0.40000403 -0.13083951 -0.008245098 -0.09366868 0.04581811 0.05433516
0.0336033 0.32401976 0.23799695 0.11880215 -0.41625604 0.2174456 0.48823193 -0.018099058
0.12159169 0.20692438 0.2689223 0.1832253 0.028168222 0.2871687 0.2990381 0.08793578
-0.3361271 0.11157525 -0.20590657 -0.08626025 -0.38113308 -0.13616215 0.03629097 0.09083916
-0.018756893 -0.31438097 -0.1713458 -0.2514076 0.0067830207 0.20134193 -0.05313528 -0.20388164
-0.003270581 -0.25926223 -0.041610047 0.31198826 -0.020284398 0.22932407 0.02569539 0.21450803
-0.4978635 0.17238209 0.46745726 -0.10252057 -0.12560259 0.11188517 0.36667168 -0.11198077
0.14377263 0.3345034 0.22159025 -0.038794085 -0.12425559 0.108509116 0.081471056 0.028076293
-0.55919665 0.14780372 0.09473806 0.060534474 -0.11121249 -0.14425643 -0.17938755 -0.25193205
-0.21182582 0.15155397 -0.10844842 0.06976403 -0.07830469 -0.15458828 0.288212 0.41558015
0.0147823915 0.20627628 0.06540566 0.16651395 -0.20792294 0.26053762 0.51868284 0.1267225
0.115556054 0.08649118 -0.040971104 0.14595525 0.18968555 0.17801374 0.053810176 0.19112013
-0.13524702 0.2370569 -0.05786288 -0.26836017 -0.6680039 -0.00010662055 0.04853598 0.26475
0.039294012 0.1940219 -0.07097812 -0.117224716 0.27364767 0.19299354 -0.17702451 -0.030461494
0.021485616 0.014231931 0.010589679 -0.096235245 0.22392838 -0.19673632 -0.29278466 0.07235415
-0.49508664 -0.24037859 0.0772652 0.08019008 0.34398946 0.10613643 -0.33479738 -0.18870994
-0.017704993 0.4938444 -0.15129367 -0.28303662 0.15068536 -0.049270954 -0.013006595 0.08996709
-0.5547072 0.17842841 -0.0051933667 0.12813659 0.117079675 0.36673135 0.105283506 -0.08639212
0.05692119 0.007538503 0.0061226236 0.3239468 0.28078333 0.00031536812 -0.16447946 -0.25839776
-0.03967435 -0.10252044 -0.02159218 -0.12123824 0.21268462 -0.3089961 -0.06598487 -0.036251266
0.025425017 -0.007809081 -0.1570234 -0.022572376 -0.24271269 -0.1470599 -0.0720237 -0.21384783
0.09110499 -0.24667741 0.07784945 0.30270287 0.1803968 0.08767108 -0.18365496 0.08016039
0.031694572 0.020933116 0.010658486 0.005450347 0.019234529 0.40409696 -0.29124418 -0.16238897

transformer.layers.0.1.fn.net.0.bias f4 [72]
00000000: 54aa 553e 887b 0e3d a704 8cbc dc10 a5bd
00000010: 9710 51bd e492 3bbd f59a 993d 7169 1c3d
00000020: 15f6 adbe c774 cd3d 1d82 85bc 0545 fdbd
00000030: ea85 8abd a47b 133e f336 803e 2811 cb3e
00000040: 93df 94be 032c 7e3e 1b7e b53e fccd 33bd
00000050: 4e24 8c3e e5c6 093e 1b44 1e3e 1f86 3c3d
00000060: a13d 2f3e 8bec 8a3d 713f 703d 0c69 b33d
00000070: 3f11 8b3e cb9c b0bd 35c8 46be 8d39 98be
00000080: 5983 be3d 2135 25be 2008 633e 22d0 a6be
00000090: 1246 24be c701 80bd f661 133e 4f45 6e3e
000000a0: 84e7 763e ae88 b2bc 1b11 bc3e 5498 723e
000000b0: f926 e2bd d330 8f3e d9c1 6d3e 7088 bd3c
000000c0: 93da 623e 5114 28be 29b9 c6bc 0ea7 783e
000000d0: 62c7 1c3e 9675 623e 0192 dd3c 0e71 493e
000000e0: 707c 9cbc 486d c5bc 074f bebc 7eb4 aa3e
000000f0: f937 0cbe e039 103d 632f a5bd 52f4 c83e
00000100: fed9 7fbd 0384 d03d 373e f6bb ffac 4ebc
00000110: 8414 67be 8d80 45be 3b4c 873d 1f42 533e
0.20865756 0.034785777 -0.017092062 -0.08059856 -0.051041212 -0.045794383 0.07500259 0.038186494
-0.33976808 0.10032039 -0.016297394 -0.1236668 -0.06763823 0.14402634 0.25041923 0.39661527
-0.29076824 0.24821477 0.35447773 -0.043897614 0.27371448 0.13454778 0.15455668 0.046026345
0.17113353 0.06783398 0.058654252 0.087602705 0.27161595 -0.08623656 -0.1941231 -0.29731408
0.09302396 -0.16133548 0.22171068 -0.32580668 -0.16042355 -0.06250339 0.14392838 0.23268627
0.24111754 -0.02179369 0.367318 0.23690921 -0.1104259 0.27966937 0.23218478 0.023136348
0.22153692 -0.16414 -0.024258213 0.24282476 0.15310434 0.22115168 0.02704716 0.19672033
-0.019102305 -0.02409996 -0.023231043 0.3334083 -0.13693227 0.035211444 -0.08065679 0.39248902
-0.062463753 0.10181429 -0.007514741 -0.012614488 -0.2256642 -0.1928732 0.06606337 0.20630692

transformer.layers.0.1.fn.net.3.weight f4 [36, 72]
00000000: 0461 30be e87d 2e3d b033 1d3e 88a3 e33d
00000010: bbd2 1bbe 22ca 02be c658 223d 1cbe 6b3b
00000020: d2a0 22be 53fa 473e 2df9 0fbe 6179 27be
00000030: 3876 b53b b5f9 0c3e 7682 f0be 5e7f 43be
00000040: fbbd 273e f525 c9be e849 abbd e5d5 60bd
00000050: e0c6 79be a498 833d 07dd aa3d 8923 c5bd
00000060: 2401 1a3e 45db 59bd 8eba 24be da1b 043e
00000070: aa75 a63d baed a9be 8350 5bbe ec8c babc
00000080: ac80 dabd 98e7 e3bd 9794 7dbd dae5 59be
00000090: a1b8 0bbe 6704 d4bd 26ea 2cbe e23b cdbd
000000a0: 02e2 11bd 7fef 5cbe bf92 78be f3db 05bd
000000b0: 581a 6dbe b862 813d 3141 7ebe 2c5e c93e
000000c0: bcb3 4a3e 9a1f 9a3c d190 35bd a571 303e
000000d0: 8570 69be 94f2 91be 5fb0 9fbe 32c5 263b
000000e0: 6fcf 69be 792f 6abd a061 5b3c 73bc 92be
000000f0: 7c24 8f3c d95e 213e fa20 eebc 1e7c 51bd
00000100: 31d1 4dbe d81e d9bd 4994 e13d 5d35 29bd
00000110: a089 57be a261 c2bd 28fb b63d e517 4cbe
00000120: c073 343e c5e2 e2bd a60e 3fbe 50a2 083d
00000130: 8bc6 8f3c c524 16bd f52a fabd de83 71bd
00000140: 7634 14bc 1740 ee3b b33e 753e 511c f43b
00000150: 70b6 ca3c 9234 47bd 594e 38bc 2f0d 1e3e
00000160: 7be4 febd 36d8 9a3d 4606 9a3d 6586 273d
00000170: 141b b1bc 6617 9abd 324a 0d3d 44d3 dfbd
00000180: 8344 f1bc 8937 3cbe b289 c13d 6f96 05be
00000190: 566c 6c3c 0d65 4fbd 26f7 86bd c305 fcbd
000001a0: 56b9 963c beca 233e ad15 be3c 9d33 333e
000001b0: 5b38 ed3d 363b 40be 0ce2 42be c319 05be
000001c0: 7e68 fb3d be77 d2bd 231e 563e b278 4c3d
000001d0: 0402 653e fd17 373d ab05 08bd fcfc e6bd
000001e0: 4b4c e4bd b300 aebd d82e 6b3e 594b 0dbc
000001f0: 78ad c03c d7ec e3bd 44de 3c3d 6a40 cd3d
00000200: 545b bf3d 2acb 6e3e 23e7 273e f283 d63d
00000210: 3bf6 ca3c 7666 b73d 887f 6b3e a64c 373e
00000220: fa57 32be 7b40 dc3d 63b7 f13d 0e70 4dbe
00000230: 9a4a e0bd 85fd 003e 81b3 7cbd be0e 6e3d
00000240: 27dd bdbc c064 82bc 8ba3 c4bd d779 143d
00000250: 8c02 b0bd afa0 aabd 17c0 41be 9d9d bebd
00000260: 9357 22be 6155 18be 9433 c6bd 046a 4ebe
00000270: 8e01 963d 3792 27be ae55 09be c6ab 61be
00000280: 4b1c 473c 3876 94bd dffe 96bc c45e 34be
00000290: bb78 9bbd 5e05 00be ff6b 13bd 3baa 25be
000002a0: 66ad 71be 7d5d 13be 92e7 93be aba1 07be
000002b0: 7fd2 613d 8c39 50be cf59 e1bd 0646 4bbe
000002c0: 911f 0fbe 24a6 c73c 7a31 3cbe 5d06 3ebd
000002d0: 4310 62be 9af4 f9bd 02d7 1cbe 2b83 a6be
000002e0: 5427 6dbe 2442 70be bd0f 2cbe 5dda 8aba
000002f0: e651 0ebe 8b91 f2bd 191e 7abd 4464 f2bc
00000300: b84c 8c3d 86cc 70be 0929 08bd c42e 91bd
00000310: 8e05 92bc 68b5 58be 4a63 7bbe 301b 133d
00000320: e8ed 22be f4d7 65bd dc99 65be 7dc7 2ebe
00000330: 080e febd 8f0b 1c3c 4075 03be 0165 08be
00000340: 4f4f bbbe 09b3 cdbd 47d4 cfba bef9 afbd
00000350: 8b0d 01be 4435 183d 67ab 67be be71 4fbe
00000360: 6958 023e de70 df3d aab5 91bd 7917 173d
00000370: 8f35 e93c b1d5 813e 6527 843e bf7a 18be
00000380: 5003 513e bbbd 9f3d e167 583e c45d 803e
00000390: 3a7c bf3c c671 cb3d c307 6a3e bd5e a13e
000003a0: bcad f93d 0075 623e be0e 6d3e 5846 bd3d
000003b0: a36a 873e 1e62 913e e0f7 8ebc ab1a b53e
000003c0: 7c3f 943e 6a4e 453e 06c4 933d 45a5 a53e
000003d0: 2eb2 0a3d 7d6d 903e e6e8 533e d73e 9e3e
000003e0: ea7f ae3e 208c 193d e2c4 b53e ef3e 643e
000003f0: 806f 003e f19e 853e 3c68 c23e 3cd7 b43e
-0.17224509 0.042600542 0.15351748 0.111151755 -0.15217106 -0.1277242 0.039635442 0.0035971468
-0.1588166 0.19529085 -0.14059897 -0.16354896 0.0055377744 0.1376713 -0.46974534 -0.19091555
0.16381066 -0.3928677 -0.08363706 -0.054891486 -0.24392271 0.06425598 0.08342939 -0.096259184
0.15039498 -0.053187627 -0.1608679 0.1290125 0.081279114 -0.33189183 -0.21417432 -0.022772275
-0.106690735 -0.111281574 -0.061909284 -0.21279088 -0.13644649 -0.10352402 -0.16886196 -0.10021187
-0.03561593 -0.21575736 -0.24274729 -0.032680463 -0.2315458 0.06317657 -0.24829556 0.3932966
0.19795126 0.018813897 -0.04432756 0.17230852 -0.22796829 -0.28505385 -0.31189248 0.0025447127
-0.22833036 -0.05717418 0.013389975 -0.286594 0.017473452 0.15758838 -0.029068459 -0.051143758
-0.20099331 -0.10601586 0.11014611 -0.041310657 -0.21048594 -0.09491278 0.08934623 -0.1993099
0.1762228 -0.11078409 -0.18657932 0.03335792 0.017550727 -0.03665616 -0.12215225 -0.05896365
-0.009045711 0.0072708237 0.23949699 0.0074496646 0.024745196 -0.04863412 -0.011249148 0.15434717
-0.12445923 0.0756077 0.07520728 0.040899653 -0.021619357 -0.07523994 0.034494586 -0.109289676
-0.029451614 -0.1838056 0.094500914 -0.13045667 0.014430126 -0.05063348 -0.065901086 -0.123057865
0.018398922 0.15995309 0.023203695 0.17500158 0.115830146 -0.18772587 -0.19031543 -0.12998109
0.1227579 -0.10276745 0.20909934 0.04991979 0.2236405 0.04470061 -0.03320853 -0.11278722
-0.11147364 -0.08496227 0.22967088 -0.008623921 0.023520216 -0.11129158 0.046110407 0.10022052
0.09343591 0.23319688 0.16396765 0.10474385 0.024775615 0.0895509 0.22997868 0.17900333
-0.17416373 0.10754486 0.11802556 -0.20062277 -0.10951729 0.1259671 -0.061694626 0.058119528
-0.023176743 -0.015917182 -0.09601506 0.036249008 -0.08594236 -0.08331429 -0.18920933 -0.09307406
-0.1585372 -0.1487632 -0.096778065 -0.20157629 0.07324515 -0.1636437 -0.1341159 -0.22038183
0.012152742 -0.07249111 -0.018432079 -0.17614275 -0.07591387 -0.12502047 -0.035991665 -0.16178219
-0.23601303 -0.14391132 -0.28887612 -0.13245265 0.055132385 -0.20334452 -0.11003458 -0.1985093
-0.13976885 0.024371214 -0.18378249 -0.046392787 -0.22076516 -0.12204857 -0.15316394 -0.32521948
-0.23159534 -0.2346273 -0.16802879 -0.0010593642 -0.1389843 -0.11844166 -0.06106386 -0.029588826
0.068505704 -0.2351552 -0.03324226 -0.07088998 -0.017824914 -0.21162951 -0.24549595 0.0359146
-0.15911067 -0.056114152 -0.22421974 -0.17068286 -0.1240502 0.00952424 -0.12837696 -0.1331978
-0.36583945 -0.10043914 -0.001585611 -0.085925564 -0.12602822 0.037160173 -0.22623979 -0.20258233
0.12729038 0.109101996 -0.07114728 0.03688762 0.028467922 0.25358346 0.25811306 -0.14890574
0.2041142 0.0779986 0.21133377 0.25071537 0.023374666 0.0993381 0.22854523 0.31517592
0.1219134 0.22114944 0.23150155 0.09241933 0.26448545 0.2839517 -0.01745218 0.3537191
0.28954685 0.19268194 0.07215123 0.32352653 0.03386133 0.28208533 0.20694312 0.30907318
0.34081966 0.03748715 0.35501772 0.22289632 0.12542534 0.26097825 0.3797015 0.3532046

transformer.layers.0.1.fn.net.3.bias f4 [36]
00000000: 9b20 68bd 75c3 3c3d a3fd cabd 64c9 903e
00000010: d2f8 223d a430 943d 10e7 3e3d 1649 a5ba
00000020: f53b 5c3d 115c f8bd 2be2 2d3c 6944 a8bd
00000030: 36e9 80be a0c3 22bd 3b0f 203e 9b7d 47be
00000040: e541 773e 0946 e4bd 2979 d4bb c45a c0bd
00000050: d5cd e63b 1b70 4b3e c4b8 2fbe 4d5e 40bd
00000060: 4713 783d 80d3 173e 6587 113e e91f 4ebe
00000070: eba2 5dbe b613 2d3e d245 9dbd e09b 6f3e
00000080: c4ee 8d3e e72e a1bc f559 5a3d d49f 7ebe
-0.05667172 0.04608484 -0.099116586 0.2827865 0.039788075 0.0723584 0.046607077 -0.0012610282
0.053768117 -0.12126935 0.010613005 -0.08216173 -0.25177926 -0.039737344 0.1563081 -0.19481508
0.2414623 -0.11146171 -0.00648417 -0.09392312 0.00704358 0.19866984 -0.17160326 -0.046964932
0.06056526 0.14826775 0.14211805 -0.2012936 -0.2164418 0.1690205 -0.07679333 0.23399305
0.27721226 -0.019675685 0.053308446 -0.24865657

transformer.layers.1.0.norm.weight f4 [36]
00000000: 481c 573f 4601 dd3f d3d1 633f 5740 743f
00000010: 89aa 573f d5b8 7d3f 7f58 6b3f b124 3b3f
00000020: a763 553f 8db3 853f e235 683f 9938 4e3f
00000030: 7536 1d3f f42c 523f b535 0e3f 9a04 143f
00000040: ef0a 7f3f 7f08 803f dbdc 163f a4d0 503f
00000050: f30a 5c3f e6a2 163f 88ad 803f 2783 783f
00000060: 9a09 a93f bdc2 633f 3e5d 9b3f d967 873f
00000070: cf71 4c3f 249b 803f fad1 5a3f 2bdb 6e3f
00000080: 4a77 103f 89a0 603f d6dc 303f 4c54 3c3f
0.8402753 1.7266014 0.8899204 0.95410675 0.8424459 0.99110156 0.9193191 0.7310286
0.8335518 1.044542 0.9070722 0.8055511 0.6141122 0.82099843 0.555507 0.5781952
0.9962606 1.0002593 0.5893075 0.8156836 0.8595421 0.58842313 1.0052958 0.9707512
1.3206055 0.8896902 1.213783 1.0578567 0.7986116 1.0047345 0.8547665 0.93303174
0.5643202 0.8774496 0.6908697 0.73566127

transformer.layers.1.0.norm.bias f4 [36]
00000000: 83f9 ff3d 4f92 023b 689c c53b 5ca0 77be
00000010: 76b6 393d 85fb 80be 4ecf 813d d90d 8dbe
00000020: cc09 eb39 800b b83c fb9a bbbb 8c0f 0fbd
00000030: 8761 a33e 95b8 703e 0546 863d fe0f e8bc
00000040: 3827 b93d 4dde f03d 8546 123e 55cb 003e
00000050: 6524 453e 0e47 113c a8db 763d ee9f 1dbd
00000060: cfea 8abe 280d b6bd 6cd0 943c 879b e5bd
00000070: 68d1 ba3a 5fec 79bd c0c5 903c 5c0c 6abd
00000080: 24a4 9abe 7c6e 3d3d d7fc 51be 914e 37bc
0.124987625 0.0019923632 0.006030608 -0.24182266 0.045340024 -0.25191894 0.06338368 -0.27549627
0.00044829992 0.022466421 -0.005725262 -0.034926936 0.31910345 0.23507912 0.06556324 -0.028327938
0.090406835 0.117611505 0.14284714 0.12577565 0.19252165 0.008867038 0.060268074 -0.0384826
-0.2713227 -0.08889228 0.01816579 -0.11211305 0.0014253082 -0.061016437 0.01767242 -0.057140693
-0.30203354 0.046247944 -0.20506607 -0.011188165
