ViT/ViT1/4 V train 0.972 V test 0.892 ABS 2/model_bestV.pt (torch, 414407 bytes, 74 tensors)

pos_embedding f4 [1, 19, 36]
-1.419445 -1.98081 -0.4504904 0.52236724 0.839683 -0.4900255 0.91135335 -0.047945756
-1.1036419 0.0300507 -0.4767187 -0.44146085 -0.01868735 -0.39096472 -0.3930994 1.5799702
1.9111909 -1.6183473 0.49275208 -0.15856792 0.6942836 -1.4420426 -1.2543719 0.9805032
-0.18086736 -0.6729102 0.5864394 -0.1185059 0.89347833 1.3928412 0.96301425 1.5377694
0.2864558 -0.70903 0.85278505 -0.5288717 -0.8251221 0.23612022 -0.55378217 -0.4158125
2.2916737 0.49572173 -1.7295563 -0.69925344 -0.46314466 -0.37634492 0.11745184 -0.5680989
0.54868287 0.24469745 0.21312526 0.44377342 1.6618912 0.07919088 -0.9219321 -0.78933734
0.56721616 0.9824319 0.18590273 -2.1784072 0.37219393 0.21047546 2.39996 -0.26193744
0.93421286 0.55352306 -1.6113057 -1.2699164 -1.0606436 0.6058792 0.063731045 -1.1763304
-0.5127223 -0.5994333 -0.1088725 -0.7648898 0.23256902 -0.18032639 0.45125067 -0.11782418
0.7399506 -1.985015 0.07529544 0.9917171 -0.38316095 1.3053023 -0.07689803 0.29475006
-1.225239 1.0187814 0.79990345 1.0005615 0.66750216 -0.9653215 -0.41444337 -0.007656324
0.14888981 -0.53507864 -0.10776732 0.2582744 -1.164798 0.5039317 0.28055623 0.635295
0.05567195 -0.79908705 -0.6071502 -2.5458386 0.7111065 -1.9337834 -1.4039758 0.9982215
0.64238936 -1.1232337 -0.59044176 0.34342283 -3.343392 0.07402515 -0.6495242 -0.9330296
-0.30694258 0.24591555 -0.35759798 -0.79669935 2.246648 -0.93263733 -0.9205218 -0.28114855
0.2292663 -1.0192572 0.22668552 0.5864413 -0.6510477 -0.2447547 1.3950869 1.092312
-0.10127993 -2.2564752 0.4407089 0.18398114 -0.01822228 -0.57564485 2.1037705 -0.008261765
1.6195271 -1.2272156 -0.5731073 -1.170267 0.6967504 2.182552 -1.5790493 0.4013185
1.2753907 0.7299074 1.0034441 -0.10906999 -0.46519768 0.6318958 1.3290701 0.11123017
0.04581096 -1.9705964 0.36172292 -0.51925904 0.35711402 1.3565705 -0.5987705 0.072987124
1.9903247 -1.399011 0.9699659 -0.069409244 0.19881266 0.7554688 -1.3068749 1.4902883
1.6803148 0.05837869 0.96812826 -0.26734486 -0.7651007 -0.36031386 0.22339138 -0.8817567
1.2604852 -1.7041847 1.9866081 0.2954351 0.78053397 -0.6634474 0.8813196 -1.0467234
-0.72718436 0.92177427 1.5166138 -0.6149903 -1.0474805 1.0194125 0.24789411 0.436425
0.015185508 -0.62805074 -0.055901125 -1.1329821 0.7429863 -2.1429303 0.13915521 0.08074871
0.9752969 -0.31803602 1.2347775 -0.9441132 -0.035096224 0.4436672 1.1136237 -2.146215
-1.548489 -0.060070593 -0.40886998 0.32312843 -0.13519697 -0.6872189 -0.71656233 0.0028821712
-0.7605321 -0.05591641 0.56786114 0.32626086 0.4824561 1.0305895 1.1659871 -0.5646355
0.88466984 -1.1702292 -0.5067803 -0.6162604 0.2545939 0.41090748 -0.042244583 0.71470463
-1.3356054 -0.73438257 0.088972166 -0.34118453 1.097566 0.31000525 0.835364 0.208046
0.09125327 1.1237963 -0.53340125 0.9765501 -0.22130162 1.1729796 -2.824639 -0.8138776
00000000: 60b0 b5bf 2f8b fdbf ada6 e6be dcb9 053f
00000010: 77f5 563f 9fe4 fabe 744e 693f c562 44bd
00000020: 2344 8dbf e32c f63c 7914 f4be 2807 e2be
00000030: 3716 99bc 872c c8be 5344 c9be 773c ca3f
00000040: e7a1 f43f 0126 cfbf 004a fc3e a15f 22be
00000050: 92bc 313f da94 b8bf 428f a0bf 4202 7b3f
00000060: 4b35 39be d843 2cbf e420 163f 39b3 f2bd
00000070: ffba 643f 9f48 b23f 1a88 763f a1d5 c43f
00000080: 56aa 923e fd82 35bf 1f50 5a3f 2364 07bf
00000090: 343b 53bf 80c9 713e abc4 0dbf 60e5 d4be
000000a0: c8aa 1240 3dcf fd3e 1a62 ddbf 4602 33bf
000000b0: 4c21 edbe 48b0 c0be 978a f03d ee6e 11bf
000000c0: 7b76 0c3f f891 7a3e 823d 5a3e 4536 e33e
000000d0: dab8 d43f d42e a23d be03 6cbf 0312 4abf
000000e0: 1435 113f a880 7b3f 495d 3e3e 066b 0bc0
000000f0: 3490 be3e e186 573e f298 1940 aa1c 86be
00000100: 9328 6f3f b0b3 0d3f 443f cebf 9f8c a2bf
00000110: 2bc3 87bf e61a 1b3f 6c85 823d ff91 96bf
00000120: c541 03bf 7674 19bf 8cf8 debd d1cf 43bf
00000130: 9326 6e3e 7ba7 38be 540a e73e ce4d f1bd
00000140: 676d 3d3f f914 febf 7f34 9a3d 2ce1 7d3f
00000150: ac2d c4be 2514 a73f b77c 9dbd 7be9 963e
00000160: a2d4 9cbf 6e67 823f 79c6 4c3f 6612 803f
00000170: 6ce1 2a3f 4f1f 77bf ec31 d4be e7e1 fabb
00000180: 9276 183e eafa 08bf 1db5 dcbd 8b3c 843e
00000190: 1a18 95bf ab01 013f 11a5 8f3e b1a2 223f
000001a0: 4508 643d f890 4cbf 326e 1bbf 05ef 22c0
000001b0: 130b 363f 3786 f7bf 7bb5 b3bf 728b 7f3f
000001c0: a173 243f 1fc6 8fbf 3127 17bf 1ed5 af3e
000001d0: 22fa 55c0 7f9a 973d 3847 26bf 07db 6ebf
000001e0: 9427 9dbe 49d1 7b3e 1517 b7be 7df4 4bbf
000001f0: 15c9 0f40 52c1 6ebf 51a7 6bbf b4f2 8fbe
00000200: c9c4 6a3e 0577 82bf 4020 683e 0421 163f
00000210: 10ab 26bf faa0 7abe 3592 b23f e1d0 8b3f
00000220: da6b cfbd 176a 10c0 99a4 e13e 8d65 3c3e
00000230: e446 95bc 765d 13bf 2da4 0640 5b5c 07bc
00000240: aa4c cf3f 6715 9dbf 29b7 12bf 4fcb 95bf
00000250: 3c5e 323f efae 0b40 4a1e cabf 9e79 cd3e
00000260: 0140 a33f 36db 3a3f db70 803f 1660 dfbd
00000270: 642e eebe ecc3 213f f81e aa3f a5cc e33d
00000280: 46a4 3b3d 813c fcbf bf33 b93e 29ee 04bf
00000290: a6d7 b63e 1aa4 ad3f 0649 19bf 467a 953d
000002a0: f6c2 fe3f cb12 b3bf af4f 783f 6f26 8ebd
000002b0: 8c95 4b3e 6766 413f ad47 a7bf c4c1 be3f
000002c0: 8e14 d73f 7e1e 6f3d 41d7 773f 6de1 88be
000002d0: a4dd 43bf 0f7b b8be b6c0 643e cfba 61bf
000002e0: 9457 a13f b922 dabf 2d49 fe3f 4543 973e
000002f0: 13d1 473f b0d7 29bf 299e 613f 08fb 85bf
00000300: c128 3abf 66f9 6b3f 6720 c23f 0170 1dbf
00000310: d713 86bf 1c7c 823f f4d7 7d3e 1973 df3e
00000320: a3cc 783c efc7 20bf 94f8 64bd 8f05 91bf
00000330: 5a34 3e3f c525 09c0 b47e 0e3e 945f a53d
00000340: 0fad 793f 9ed5 a2be 300d 9e3f 67b1 71bf
00000350: 0fc1 0fbd 5928 e33e 398b 8e3f 965b 09c0
00000360: e334 c6bf 950c 76bd 6857 d1be 1771 a53e
00000370: 1371 0abe 94ed 2fbf a170 37bf cfe2 3c3b
00000380: 3bb2 42bf 9b08 65bd 595f 113f aa0b a73e
00000390: 7c04 f73e 5bea 833f 113f 953f f48b 10bf
000003a0: b979 623f 12ca 95bf 5bbc 01bf 3ec3 1dbf
000003b0: 225a 823e 7762 d23e a808 2dbd e2f6 363f
000003c0: 1ef5 aabf 7f00 3cbf 0a37 b63d bdaf aebe
000003d0: 0b7d 8c3f 02b9 9e3e 6ada 553f 030a 553e
000003e0: ffe2 ba3d 8fd8 8f3f fc8c 08bf 30ff 793f
000003f0: e49c 62be 3224 963f e3c6 34c0 485a 50bf

cls_token f4 [1, 1, 36]
1.0180621 -0.21500364 0.34147045 0.124648444 -0.9334072 -1.3977637 1.1339257 -1.3352141
-0.36469415 -1.2117789 -0.2543175 0.6976617 0.871889 -0.11100824 0.13872331 -0.19763951
3.5996447 0.5323076 -0.74962634 -0.27922693 0.8641968 -0.5546446 1.0343567 -1.4821011
0.0284715 0.39948624 0.93076724 -0.24317664 -0.17672789 1.3664695 1.1712657 -0.16588297
-0.74061084 -1.039222 -1.4251289 0.46217945
00000000: dc4f 823f ea29 5cbe 37d5 ae3e af47 ff3d
00000010: c6f3 6ebf ece9 b2bf 7a24 913f 4ce8 aabf
00000020: 31b9 babe 921b 9bbf e735 82be f599 323f
00000030: 1e34 5f3f 4a58 e3bd 7c0d 0e3e 0362 4abe
00000040: 9460 6640 5045 083f 83e7 3fbf d5f6 8ebe
00000050: 003c 5d3f 30fd 0dbf cd65 843f 7db5 bdbf
00000060: 103d e93c 7689 cc3e c346 6e3f 4c03 79be
00000070: 28f8 34be 79e8 ae3f 09ec 953f 3add 29be
00000080: ac98 3dbf 3a05 85bf a06a b6bf c9a2 ec3e

to_patch_embedding.1.weight f4 [36, 12]
-0.04324003 -0.08939733 -0.17986664 -0.15690973 0.18558724 -0.041746404 -0.2592957 -0.29635087
0.2258468 -0.23535198 0.28761342 -0.07728273 0.23375954 0.1376411 -0.16556576 0.011118761
-0.02742369 -0.16979845 0.15191996 -0.3414381 0.1132826 0.11593377 -0.1387745 -0.22493961
-0.069561034 -0.024014624 0.30800974 -0.20484507 -0.06881744 -0.025466096 0.36281922 -0.354704
0.0061257025 -0.06733422 -0.22274528 0.2755368 0.038639236 0.03171634 0.19021034 0.1706373
-0.19622648 -0.11944286 -0.23654938 -0.0920817 -0.2076282 -0.37581617 0.009113764 0.035946418
0.119315624 -0.16529371 0.2651589 0.38058212 0.085634276 -0.06885956 0.047264878 0.2668532
-0.18746196 -0.09598564 0.17401522 0.008352449 0.022567002 -0.26572043 -0.29902628 0.16419439
-0.13676715 -0.074309506 0.2974742 0.19733968 0.15382442 0.022786194 0.13332589 -0.040822774
-0.22291726 -0.058052767 0.1802174 -0.14937493 -0.12376971 -0.2661717 0.24855936 -0.03318481
0.09033413 -0.2486022 -0.100286864 -0.15593567 0.14820911 0.021408295 -0.16032252 0.21977751
-0.015171056 -0.05928453 -0.09803897 -0.23403569 0.17503683 -0.0068086092 -0.43198937 0.24743141
0.03717817 0.11983927 -0.045272544 -0.06104518 -0.046014242 -0.09076161 0.18836151 0.18866502
0.08988714 0.25346568 -0.15700988 -0.14927143 0.18683192 0.06936777 -0.0813189 0.23541202
-0.18915445 -0.27895287 0.27062875 0.228558 0.02337956 -0.24207477 0.11994996 -0.21642666
0.08924642 -0.14705914 -0.06428466 -0.15222256 0.20682314 0.09122511 0.24493743 -0.12950614
-0.015474225 -0.082152426 -0.139335 -0.32832283 -0.16230614 0.07285087 0.02791129 -0.0011192209
0.17116073 -0.0359895 0.22001676 0.11706744 0.24728914 0.32361773 -0.20474204 0.17653567
0.23351446 0.17534931 0.04565208 0.19965349 0.17392236 -0.0859019 0.15262452 -0.31049484
-0.14468838 0.10004001 0.38078398 -0.13482063 0.30444634 0.12839264 0.20516124 -0.17486514
0.035778888 0.25390795 0.30814707 -0.09565725 0.23889822 0.20276143 0.045184348 -0.260089
-0.16932146 0.16675389 0.27944177 0.13720493 -0.064051144 0.06350219 0.051972505 -0.19673558
-0.2597539 0.1268774 -0.043492887 0.21542464 -0.15620688 0.120491885 0.23763882 0.034597635
-0.17959534 0.03436582 0.17485458 -0.040236995 0.15423816 -0.42620322 -0.29113337 0.25117764
0.27706727 0.15891325 0.07033002 -0.064281695 -0.05436414 -0.050744016 -0.14710149 0.018680962
0.25332138 0.08331164 -0.047582023 0.042822666 0.17002806 0.18384066 -0.14685123 -0.22652228
-0.27262205 0.27574578 -0.19018197 -0.21694922 0.005785891 0.10522053 -0.21149898 0.005483756
0.21521787 -0.14123838 0.28902832 -0.11096741 -0.26272702 0.25682703 -0.06393738 0.1941824
0.10343781 0.14830944 -0.2658401 -0.19755124 -0.26733115 0.116354555 0.22881946 0.17038977
-0.16511393 0.019407269 0.11045888 -0.021395946 0.16707864 0.34490797 0.052980047 -0.18729505
-0.4114226 -0.13208795 0.13546169 -0.032070037 -0.1071393 -0.079204895 0.17399883 0.3634272
-0.28124654 0.07600548 -0.07958282 -0.014029216 -0.0306943 0.08507206 -0.134049 0.023657562
00000000: 751c 31bd f315 b7bd f62e 38be f2ac 20be
00000010: 950a 3e3e 47fe 2abd 68c2 84be 4dbb 97be
00000020: 6244 673e 1c00 71be 1142 933e 6846 9ebd
00000030: a95e 6f3e caf1 0c3e 128a 29be 772b 363c
00000040: a5a7 e0bc a5df 2dbe e890 1b3e fad0 aebe
00000050: b500 e83d af6e ed3d e71a 0ebe 9256 66be
00000060: 0476 8ebd 51ba c4bc 74b3 9d3e e8c2 51be
00000070: 28f0 8cbd 469e d0bc 71c3 b93e c39b b5be
00000080: 1eba c83b 86e6 89bd 5717 64be 2913 8d3e
00000090: 2d44 1e3d fee8 013d 80c6 423e 8bbb 2e3e
000000a0: 98ef 48be 759e f4bd 003a 72be 5595 bcbd
000000b0: 7d9c 54be fa6a c0be e651 153c 8d3c 133d
000000c0: c05b f43d c142 29be e8c2 873e a9db c23e
000000d0: 0661 af3d 3e06 8dbd d198 413d fca0 883e
000000e0: 07f6 3fbe 1f94 c4bd 0c31 323e b6d8 083c
000000f0: 6fde b83c 820c 88be f919 99be 9322 283e
00000100: b00c 0cbe 952f 98bd 8a4e 983e 6a13 4a3e
00000110: 2684 1d3e 1daa ba3c 9586 083e c835 27bd
00000120: 6c44 64be bdc8 6dbd e98a 383e bef5 18be
00000130: f97a fdbd a847 88be 5886 7e3e ccec 07bd
00000140: 1a01 b93d 9391 7ebe 3363 cdbd 9aad 1fbe
00000150: 21c4 173e 7360 af3c 962b 24be 5b0d 613e
00000160: 0590 78bc 56d4 72bd a8c8 c8bd 0da7 6fbe
00000170: db3c 333e c11a dfbb b62d ddbe a95e 7d3e
00000180: 2348 183d 4b6e f53d b46f 39bd 830a 7abd
00000190: 6e79 3cbd 39e1 b9bd d7e1 403e 6731 413e
000001a0: c016 b83d 41c6 813e 33c7 20be 9cda 18be
000001b0: de50 3f3e b010 8e3d 868a a6bd d90f 713e
000001c0: b4b1 41be e9d2 8ebe da8f 8a3e 1c0b 6a3e
000001d0: 7e86 bf3c 73e2 77be 53a8 f53d f39e 5dbe
000001e0: d4c6 b63d ac96 16be ada7 83bd 3be0 1bbe
000001f0: 72c9 533e 3bd4 ba3d e1d0 7a3e 429d 04be
00000200: 9b87 7dbc 883f a8bd d6ad 0ebe ee19 a8be
00000210: 9533 26be d632 953d 38a6 e43c d2b2 92ba
00000220: c244 2f3e ba69 13bd 134c 613e 0ec1 ef3d
00000230: 5d39 7d3e 39b1 a53e e6a7 51be c4c5 343e
00000240: 6a1e 6f3e c58e 333e adfd 3a3d f771 4c3e
00000250: b418 323e 56ed afbd 9a49 1c3e 2ef9 9ebe
00000260: 3129 14be c7e1 cc3d 1ef6 c23e 6b0e 0abe
00000270: 64e0 9b3e 5c79 033e ca15 523e d90f 33be
00000280: e28c 123d 3900 823e 74c5 9d3e f3e7 c3bd
00000290: bca1 743e b1a0 4f3e 3913 393d 632a 85be
000002a0: 9b62 2dbe 88c1 2a3e fe12 8f3e 737f 0c3e
000002b0: 3f2d 83bd 700d 823d 1fe1 543d 0d75 49be
000002c0: 77fe 84be 26ec 013e 9925 32bd 4798 5c3e
000002d0: b2f4 1fbe 73c4 f63d 9757 733e 40b6 0d3d
000002e0: d7e7 37be 2dc3 0c3d 140d 333e 8ccf 24bd
000002f0: 9cf0 1d3e 4f37 dabe 6f0f 95be 5b9a 803e
00000300: c3db 8d3e 28ba 223e 2f09 903d 1fa6 83bd
00000310: efac 5ebd f5d8 4fbd c6a1 16be d108 993c
00000320: 57b3 813e 4b9f aa3d 5ee5 42bd d266 2f3d
00000330: d61b 2e3e ba40 3c3e 2b60 16be 75f5 67be
00000340: 1e95 8bbe 8d2e 8d3e 10bf 42be f027 5ebe
00000350: 9297 bd3b dc7d d73d 3093 58be 14b1 b33b
00000360: 1362 5c3e cba0 10be 85fb 933e e242 e3bd
00000370: 2884 86be d57e 833e 9af1 82bd c0d7 463e
00000380: 34d7 d33d 6ede 173e 321c 88be df4a 4abe
00000390: a1df 88be 4c4b ee3d a64f 6a3e a87a 2e3e
000003a0: a013 29be fefb 9e3c 4438 e23d 8d46 afbc
000003b0: aa16 2b3e c797 b03e 9b01 593d 46ca 3fbe
000003c0: fca5 d2be 1042 07be 78b6 0a3e df5b 03bd
000003d0: d96b dbbd 2d36 a2bd c02c 323e 2113 ba3e
000003e0: 8cff 8fbe c3a8 9b3d 51fc a2bd ccda 65bc
000003f0: 9d72 fbbc 433a ae3d 2444 09be 81cd c13c

to_patch_embedding.1.bias f4 [36]
0.026790524 -0.078521505 -0.28247854 0.078130685 -0.121619985 -0.02721615 0.16430044 -0.034388587
0.23950222 -0.061911706 0.06310211 -0.20709363 -0.09391587 -0.23397963 0.10719015 -0.087078415
0.20965628 -0.04388924 0.21751276 0.15935925 -0.19751082 0.005734826 -0.1257994 -0.08249674
-0.095947415 0.07816454 -0.022923138 -0.22692044 0.062119354 0.10871375 0.08598446 -0.0216025
-0.25445917 -0.09065316 -0.14209679 0.23599757
00000000: cd77 db3c e2cf a0bd 07a1 90be fb02 a03d
00000010: e613 f9bd 67f4 debc 603e 283e 0cdb 0cbd
00000020: 1240 753e 2197 7dbd ae3b 813d 5a10 54be
00000030: f756 c0bd 5b98 6fbe 8286 db3d 2b56 b2bd
00000040: 23b0 563e 34c5 33bd aabb 5e3e 122f 233e
00000050: 4740 4abe 35eb bb3b 8fd1 00be 0df4 a8bd
00000060: 1480 c4bd bb14 a03d 4ec9 bbbc d55d 68be
00000070: dd70 7e3d 51a5 de3d 9f18 b03d baf7 b0bc
00000080: 7948 82be 5da8 b9bd d281 11be 59a9 713e

transformer.layers.0.0.norm.weight f4 [36]
1.0637764 1.030909 1.0800865 1.0152419 1.0412412 1.0601861 1.035185 1.0557926
1.0482522 1.0513015 1.0444357 1.0960015 1.0242282 1.0429157 1.0062386 1.0689435
1.0559529 1.012405 0.95203114 0.99934596 1.0377136 1.1040616 1.0512394 1.1107099
1.0216281 0.99651015 1.0252686 1.1158794 1.0991488 1.1016885 1.0605537 1.0626357
1.010948 1.0296307 1.051314 1.0549979
00000000: d329 883f d3f4 833f 4640 8a3f 72f3 813f
00000010: 6447 853f 2eb4 873f f180 843f 3624 873f
00000020: 212d 863f 0c91 863f 12b0 853f c749 8c3f
00000030: e919 833f 437e 853f 6dcc 803f 24d3 883f
00000040: 7729 873f 7d96 813f 50b8 733f 23d5 7f3f
00000050: cdd3 843f e451 8d3f 038f 863f be2b 8e3f
00000060: b6c4 823f 4a1b 7f3f 003c 833f 23d5 8e3f
00000070: e8b0 8c3f 2104 8d3f 39c0 873f 7204 883f
00000080: be66 813f f0ca 833f 7591 863f 2c0a 873f

transformer.layers.0.0.norm.bias f4 [36]
-0.018190738 0.005491954 0.00787022 0.027316714 -0.06516429 -0.008289195 0.025557242 -0.02027128
0.0097702835 0.008580827 -0.004730447 -0.0027416816 0.022810746 -0.026238015 -0.034456052 0.0020598292
-0.046264652 0.004783729 -0.09091774 -0.018131815 0.039746188 -0.021159912 0.0071304897 -0.0016751242
-0.037663825 0.025603944 0.0061632553 -0.021106157 0.0076948274 0.009839482 0.01138222 0.020379512
0.0063779214 0.0054427315 0.0071440507 -0.03017063
00000000: be04 95bc d9f5 b33b 18f2 003c 4dc7 df3c
00000010: db74 85bd 67cf 07bc 6c5d d13c f50f a6bc
00000020: 8a13 203c 9996 0c3c de01 9bbb c9ad 33bb
00000030: 9add ba3c 1bf1 d6bc ca21 0dbd 33fe 063b
00000040: 0180 3dbd d4c0 9c3b 1433 babd 2c89 94bc
00000050: e6cc 223d 8d57 adbc e2a6 e93b d78f dbba
00000060: 6245 1abd 5dbf d13c 22f5 c93b d2e6 acbc
00000070: e424 fc3b c735 213c 7e7c 3a3c eff2 a63c
00000080: e2fd d03b f158 b23b a418 ea3b 6628 f7bc

transformer.layers.0.0.fn.to_qkv.weight f4 [216, 36]
-0.16741528 0.07655466 0.10402337 0.12868759 -0.047816295 0.015679503 -0.12041599 -0.035835367
-0.016309587 -0.06375906 0.11450417 -0.07485699 0.15759888 0.038303025 -0.100597456 -0.0059156036
-0.10486685 -0.02458855 0.03945055 -0.028511258 0.13443173 -0.19967705 -0.052335497 0.0563844
-0.38590184 -0.045873724 -0.08670615 0.13322768 0.0059853494 0.12130655 0.15127675 0.05961623
0.059927437 0.09059187 -0.053712584 0.017668396 -0.04428805 -0.08038164 -0.15202585 0.18545409
-0.116679676 -0.12325182 -0.00698544 -0.13634814 -0.013654796 0.16214179 0.18197681 0.079209544
-0.08004286 -0.16313775 -0.009384804 0.024598233 0.14049418 0.025920019 -0.11663428 -0.08178617
0.1583723 0.0069323257 -0.051917892 0.10753376 0.08322883 -0.004861155 -0.025210379 -0.0056675193
-0.10777273 -0.1635232 0.037400626 0.022414846 -0.0941972 0.09064479 0.03202153 -0.1625639
-0.114498444 -0.0020387275 -0.05666987 0.042187706 -0.2473987 -0.17434603 0.21941774 -0.1446776
0.14788806 -0.11249049 -0.0725331 0.13691255 0.21820967 -0.0036067276 0.13231869 -0.03108649
0.146781 -0.10943962 -0.16008058 0.014234798 -0.1459352 0.043489512 0.04973954 0.013547521
-0.050757106 -0.03044615 0.08447626 -0.0001768626 -0.13444382 -0.09786733 0.1849677 -0.036133543
0.1567158 0.07020707 0.11486652 -0.051493093 0.0037197089 0.03875393 0.016285822 -0.062381085
0.08088726 -0.13903132 0.07791103 -0.052256804 -0.08164761 0.120180435 -0.08164879 0.1911776
0.068828754 0.042963397 -0.029074164 -0.12158913 0.19153136 0.07108813 -0.26088542 -0.15878159
0.06438137 0.05164001 -0.059637345 0.020577775 0.024392234 0.10425601 0.19057569 -0.14868991
-0.029541079 -0.027079275 0.11073884 0.11882588 -0.09595666 -0.15508884 0.058351584 -0.115798526
-0.03941706 -0.17854014 -0.09097872 0.059168857 -0.011187683 -0.0448676 0.19232085 -0.17407586
-0.18364634 -0.15247427 -0.17779873 -0.08937377 -0.02127287 0.22640628 0.14358987 -0.026481722
0.1149263 -0.05539379 -0.03310629 0.19610773 0.05722938 -0.21498318 0.13827583 -0.11850273
0.11227772 0.031301107 0.029355858 -0.06559576 -0.02487228 0.213291 -0.0480949 -0.041011788
-0.005022458 -0.019085852 -0.026856368 -0.057053387 -0.007979326 -0.13928734 -0.06170286 -0.13993196
-0.11116398 -0.03386367 -0.16549408 -0.035849318 -0.08844094 -0.17571706 -0.08639971 -0.07407938
-0.13083841 0.15132129 -0.07847321 0.1693992 0.036716755 0.18460882 0.22870322 0.10524033
-0.17704204 0.10225744 -0.23597632 0.06394264 0.12203848 -0.13174479 -0.13420139 -0.17512912
0.006500304 0.16721077 0.11360953 -0.016954562 0.124993175 -0.13890827 0.05685483 -0.1556373
0.16194819 0.038714565 -0.018397255 -0.14131592 -0.148922 -0.087474175 0.11152412 0.08643954
0.13792686 -0.17002708 -0.0723864 0.15933661 0.20720816 -0.014053663 -0.02668319 0.0051237587
0.12673809 0.031281468 0.012845426 0.030098097 -0.015227442 -0.032559723 0.17503764 -0.08622976
-0.13871591 -0.12219163 0.1631482 -0.25298616 0.07724396 0.21387729 0.050304342 0.022865416
0.110798836 0.10420588 0.10191105 -0.088717714 0.10576813 -0.12152656 0.06971242 -0.11753062
00000000: e96e 2bbe b1c8 9c3d 340a d53d aec6 033e
00000010: 05db 43bd 4d72 803c a99c f6bd 1bc8 12bd
00000020: af9b 85bc 1c94 82bd 2a81 ea3d 9f4e 99bd
00000030: 9a61 213e a2e3 1c3d 0a06 cebd aed7 c1bb
00000040: 6ec4 d6bd ed6d c9bc e696 213d 7190 e9bc
00000050: 79a8 093e 2478 4cbe bf5d 56bd 54f3 663d
00000060: ed94 c5be 16e6 3bbd fe92 b1bd d66c 083e
00000070: c020 c43b 926f f83d 4be8 1a3e 2630 743d
00000080: 7976 753d 3b88 b93d ba01 5cbd 50bd 903c
00000090: 6367 35bd 219f a4bd aaac 1bbe ade7 3d3e
000000a0: c1f5 eebd 736b fcbd 1ee6 e4bb d99e 0bbe
000000b0: 5eb8 5fbc 7f08 263e 2158 3a3e 9d38 a23d
000000c0: 83ed a3bd 950d 27be b9c2 19bc 3c82 c93c
000000d0: b5dd 0f3e 3856 d43c f4dd eebd 827f a7bd
000000e0: 592c 223e 9028 e33b dba7 54bd a93a dc3d
000000f0: e073 aa3d 534a 9fbb ff85 cebc 99b6 b9bb
00000100: f3b7 dcbd a072 27be 6631 193d 579f b73c
00000110: 76ea c0bd faa3 b93d 0229 033d 2777 26be
00000120: 297e eabd 2c9c 05bb aa1e 68bd 04cd 2c3d
00000130: 1656 7dbe c487 32be 0baf 603e 5d26 14be
00000140: f86f 173e 6a61 e6bd 3c8c 94bd ce32 0c3e
00000150: 5b72 5f3e d95e 6cbb 8d7e 073e 18a9 febc
00000160: c24d 163e e121 e0bd 2aec 23be 1239 693c
00000170: 0970 15be 0f22 323d b0bb 4b3d 6cf6 5d3c
00000180: afe6 4fbd 346a f9bc e401 ad3d 3174 39b9
00000190: a4ab 09be ab6e c8bd 2c68 3d3e c400 14bd
000001a0: 1b7a 203e b9c8 8f3d 233f eb3d 6cea 52bd
000001b0: 5cc6 733b 71bc 1e3d d869 853c 4f83 7fbd
000001c0: 38a8 a53d 3a5e 0ebe d18f 9f3d 3b0b 56bd
000001d0: dd36 a7bd 2921 f63d 7b37 a7bd 10c4 433e
000001e0: 17f6 8c3d 63fa 2f3d f12c eebc b903 f9bd
000001f0: cc20 443e a796 913d c692 85be a497 22be
00000200: 61da 833d 7a84 533d 4a46 74bd b992 a83c
00000210: 39d2 c73c 2d84 d53d 4626 433e 2b42 18be
00000220: 2200 f2bc 5bd5 ddbc 0ccb e23d fc5a f33d
00000230: ed84 c4bd 9ccf 1ebe 1202 6f3d c727 edbd
00000240: c873 21bd 3ad3 36be 0d53 babd 0b5b 723d
00000250: 8b4c 37bc 17c7 37bd c2ef 443e f140 32be
00000260: c90d 3cbe 3722 1cbe df10 36be 9809 b7bd
00000270: 7144 aebc 0cd7 673e 3909 133e 32f0 d8bc
00000280: 7b5e eb3d 99e4 62bd 769a 07bd 77d0 483e
00000290: 5b69 6a3d 8d24 5cbe 2e98 0d3e 8fb1 f2bd
000002a0: dcf1 e53d 9735 003d b27b f03c 1257 86bd
000002b0: f4c0 cbbc f568 5a3e 28ff 44bd fafb 27bd
000002c0: 6e93 a4bb ef59 9cbc e301 dcbc d0b0 69bd
000002d0: b8bb 02bc 57a1 0ebe 23bc 7cbd 534a 0fbe
000002e0: f1a9 e3bd a2b4 0abd 4877 29be bcd6 12bd
000002f0: 8620 b5bd 2cef 33be 55f2 b0bd eeb6 97bd
00000300: 81fa 05be f8f3 1a3e 90b6 a0bd fc76 2d3e
00000310: 4f64 163d 180a 3d3e 2d31 6a3e 3e88 d73d
00000320: 824a 35be 596c d13d c7a3 71be 5cf4 823d
00000330: 50ef f93d 1be8 06be 176c 09be 0c55 33be
00000340: 8100 d53b 4d39 2b3e 1dac e83d 4be4 8abc
00000350: 6cfc ff3d f83d 0ebe 9ce0 683d 625f 1fbe
00000360: bfd5 253e 2a93 1e3d d7b5 96bc 1fb5 10be
00000370: 027f 18be a925 b3bd c266 e43d 3707 b13d
00000380: b33c 0d3e 941b 2ebe 523f 94bd 2329 233e
00000390: 602e 543e 5641 66bc b596 dabc 34e5 a73b
000003a0: a1c7 013e ff20 003d 9f75 523c 4990 f63c
000003b0: 857c 79bc 585d 05bd 113d 333e 3a99 b0bd
000003c0: 8b0b 0ebe 9b3f fabd 5210 273e 6787 81be
000003d0: 1532 9e3d a602 5b3e ed0b 4e3d 4150 bb3c
000003e0: 80ea e23d e469 d53d beb6 d03d a2b1 b5bd
000003f0: f69c d83d ebe2 f8bd 63c5 8e3d e5b3 f0bd

transformer.layers.0.0.fn.to_out.0.weight f4 [36, 72]
-0.105771996 -0.07950352 -0.07142896 0.013592623 -0.038388453 0.101114295 0.059339583 -0.0089883795
-0.031974886 0.12868802 -0.00054782326 -0.08586915 0.09706466 0.020289157 -0.06658937 0.08287165
0.06892231 -0.09597717 -0.041361794 -0.037012875 0.10954588 -0.03807109 0.04813148 0.08726598
0.018077549 -0.11855095 -0.0038164568 0.06285112 0.08201545 0.0149461515 -0.10066269 0.08694953
-0.026766524 -0.06954932 -0.051364623 -0.098274924 0.006656072 0.026335308 0.0068490673 0.05769382
-0.07409782 -0.002725369 -0.123199895 0.06326806 0.09470844 -0.025181556 -0.02304074 0.034646835
-0.033934575 -0.08187672 0.08771986 -0.0051325774 -0.019030903 -0.031848095 0.12019856 -0.05764766
-0.09740267 0.026220856 0.090897016 0.059629034 -0.08244976 -0.17789581 -0.06208996 0.015156675
0.06173444 0.15588032 -0.024582006 -0.037135165 -0.222256 0.15238146 -0.14827727 -0.07306558
0.09857106 -0.031943012 0.11681174 -0.07280792 -0.023426497 -0.009557009 -0.07340446 0.042381275
-0.044640005 -0.05992024 0.015205158 -0.030856567 -0.09794657 -0.046947017 0.056044787 -0.0021356614
0.07436397 0.045163106 -0.10205107 -0.10956411 0.048470404 0.10701435 -0.041534636 -0.06855779
0.073463835 -0.022126665 -0.0006344505 0.066834025 0.029060874 -0.09176518 -0.054801155 -0.044414062
0.023586644 0.02105449 -0.09434394 -0.06453372 -0.059167292 0.16576384 0.09370925 -0.041770857
-0.07367813 -0.04996388 -0.032999378 -0.1829383 0.11440973 0.17208186 -0.054718956 -0.036487065
-0.1304052 0.012211364 0.020671455 0.13307025 0.027124686 -0.10792129 0.12815592 -0.08394159
-0.12139023 -0.0030269313 -0.05057071 0.0069851405 0.18340802 -0.14364886 0.10365114 0.084138595
-0.024333546 0.12262973 -0.03433139 -0.028054534 -0.08752283 0.16186956 -0.065402746 -0.08386204
-0.11435116 -0.14285058 0.09224382 0.0401132 -0.005107089 -0.0884842 -0.11452546 0.115451396
-0.07799602 -0.020158676 0.010796127 0.06749378 -0.097860806 -0.010454819 -0.07392139 0.010481519
-0.058172904 0.0002875474 -0.021853436 0.04123367 0.08673144 -0.09641083 -0.057775415 0.00262128
0.05208761 -0.0528302 0.06142325 -0.025272913 -0.016794715 0.030810714 0.055048175 -0.10178123
0.0046004625 -0.044087477 0.027381938 0.12885962 -0.0150277 -0.053137444 0.079961 0.076434605
0.03328378 0.022353044 0.11265746 -0.11975742 -0.0035607351 0.05020604 -0.033061426 0.008707538
-0.017974524 0.102594584 -0.030954732 -0.020675404 0.04751402 -0.08930695 -0.08052851 0.12202803
0.12074351 -0.010895242 0.0069465865 -0.06919283 -0.06199788 0.067151986 0.0553777 0.10183846
-0.067349724 0.13120914 -0.10980951 -0.049350947 0.028875416 0.020137835 -0.012891927 -0.013065058
0.0074542575 -0.01959943 0.11347815 -7.734461e-05 0.0014925312 -0.026702095 -0.046821136 0.07231349
-0.029032793 -0.09629539 0.012471406 0.07843102 0.034328572 -0.0041844887 -0.14899394 -0.03255521
-0.07248303 0.031583875 -0.012009266 0.11260332 -0.08362579 -0.03116002 0.08902889 0.092536725
-0.008288868 0.0685873 -0.08480121 0.016337562 -0.0211591 0.07469591 0.0018490602 -0.04805273
-0.09988583 0.12653811 0.103131995 0.06111523 -0.07048849 -0.011666937 0.022889696 -0.021670822
00000000: fd9e d8bd bed2 a2bd 5949 92bd 98b3 5e3c
00000010: 363d 1dbd 0315 cf3d 100e 733d ff43 13bc
00000020: 19f8 02bd cbc6 033e cc9b 0fba 2adc afbd
00000030: d6c9 c63d 7235 a63c 0260 88bd 9db8 a93d
00000040: 2427 8d3d ae8f c4bd fc6a 29bd d09a 17bd
00000050: 9759 e03d 6ef0 1bbd 8425 453d 82b8 b23d
00000060: 5e17 943c d7ca f2bd 851d 7abb 17b8 803d
00000070: b7f7 a73d b4e0 743c 3e28 cebd 9812 b23d
00000080: 7845 dbbc e06f 8ebd b663 52bd 5d44 c9bd
00000090: 2e1b da3b 25bd d73c 246e e03b 5b50 6c3d
000000a0: 99c0 97bd 1b9c 32bb 3a50 fcbd af92 813d
000000b0: 80f6 c13d 8d49 cebc efbf bcbc d7e9 0d3d
000000c0: fbfe 0abd fbae a7bd 78a6 b33d 2e2f a8bb
000000d0: b2e6 9bbc 2673 02bd aa2a f63d f41f 6cbd
000000e0: 0d7b c7bd 1fcd d63c 3728 ba3d 933d 743d
000000f0: 6bdb a8bd 522a 36be 0b52 7ebd b453 783c
00000100: 41dd 7c3d 179f 1f3e 3460 c9bc 0b1b 18bd
00000110: 1497 63be e309 1c3e ffd5 17be 68a3 95bd
00000120: a0df c93d add6 02bd fe3a ef3d 521c 95bd
00000130: ede8 bfbc 0095 1cbc 1455 96bd fd97 2d3d
00000140: 70d8 36bd ed6e 75bd 0e1f 793c e9c6 fcbc
00000150: 3698 c8bd 844b 40bd 388f 653d 74f6 0bbb
00000160: 234c 983d f3fc 383d 2700 d1bd 2663 e0bd
00000170: e788 463d 572a db3d 3920 2abd 0768 8cbd
00000180: 3574 963d fb42 b5bc 4151 26ba 47e0 883d
00000190: 1211 ee3c 62ef bbbd 2d77 60bd 85eb 35bd
000001a0: c738 c13c 777a ac3c 6537 c1bd 412a 84bd
000001b0: 6759 72bd ffbd 293e a3ea bf3d eb17 2bbd
000001c0: 8fe4 96bd eda6 4cbd 5b2a 07bd 2d54 3bbe
000001d0: a64f ea3d 3a36 303e fc20 60bd 7673 15bd
000001e0: f188 05be 2c12 483c 2f57 a93c 9143 083e
000001f0: 9734 de3c d605 ddbd 4e3b 033e 91e9 abbd
00000200: 719b f8bd 7b5f 46bb 3c23 4fbd 9be3 e43b
00000210: 50cf 3b3e b018 13be 0d47 d43d db50 ac3d
00000220: 2557 c7bc 4c25 fb3d 129f 0cbd 9fd2 e5bc
00000230: 2b3f b3bd 22c1 253e e0f1 85bd dcbf abbd
00000240: f130 eabd 6c47 12be 54ea bc3d bd4d 243d
00000250: 5e59 a7bb 3437 b5bd 538c eabd c871 ec3d
00000260: 61bc 9fbd cf23 a5bc 3de2 303c 2e3a 8a3d
00000270: 3f6b c8bd b04a 2bbc 1964 97bd adba 2b3c
00000280: b646 6ebd f5c1 9639 fa05 b3bc a3e4 283d
00000290: 41a0 b13d 0b73 c5bd eaa5 6cbd c8c9 2b3b
000002a0: d159 553d 7b64 58bd f296 7b3d 2409 cfbc
000002b0: 1295 89bc c066 fc3c 327a 613d ad72 d0bd
000002c0: 7abf 963b 1295 34bd 1650 e03c c7f3 033e
000002d0: be36 76bc a6a6 59bd 98c2 a33d bf89 9c3d
000002e0: 9354 083d bb1d b73c f4b8 e63d 6143 f5bd
000002f0: 395b 69bb d9a4 4d3d 6b6b 07bd 10aa 0e3c
00000300: 4f3f 93bc 1c1d d23d c794 fdbc 775f a9bc
00000310: 109e 423d 90e6 b6bd 22ec a4bd d5e9 f93d
00000320: 6048 f73d f581 32bc 31a0 e33b f8b4 8dbd
00000330: 7df1 7dbd fb86 893d bad3 623d af90 d03d
00000340: a7ee 89bd b05b 063e cfe3 e0bd 3824 4abd
00000350: 238c ec3c 1af8 a43c a938 53bc d30e 56bc
00000360: d842 f43b fc8e a0bc 3b67 e83d 1234 a2b8
00000370: 09a1 c33a 5abe dabc 85c7 3fbd 1819 943d
00000380: 2ed6 edbc 8436 c5bd de54 4c3c 71a0 a03d
00000390: 1e9c 0c3d 091e 89bb de91 18be 9d58 05bd
000003a0: fc71 94bd 185e 013d 83c2 44bc 929c e63d
000003b0: 0044 abbd 4c43 ffbc c754 b63d e583 bd3d
000003c0: 08ce 07bc 8077 8c3d 42ac adbd 5ad6 853c
000003d0: d955 adbc 2bfa 983d 2a5c f23a f0d2 44bd
000003e0: f190 ccbd 3593 013e de36 d33d f753 7a3d
000003f0: 455c 90bd ae26 3fbc 2c83 bb3c 0287 b1bc

transformer.layers.0.0.fn.to_out.0.bias f4 [36]
0.060343787 0.012513838 -0.085544296 0.08067677 -0.033084214 0.12276561 -0.10811263 -0.041410323
-0.10912821 0.046054818 -0.00906259 -0.0818432 0.018803209 0.068916805 -0.051942874 -0.12249349
-0.020454476 -0.07347333 -0.11099539 0.09155982 0.07391883 0.07559059 0.11498931 -0.052339457
-0.0472388 0.029398758 -0.010278946 0.09885941 0.0024863912 0.07079632 -0.06557807 -0.00233086
-0.0529992 -0.0007035346 -0.03183067 -0.0499007
00000000: 0c2b 773d d706 4d3c d931 afbd dd39 a53d
00000010: 5083 07bd 896c fb3d 286a ddbd df9d 29bd
00000020: 9c7e dfbd faa3 3c3d 427b 14bc 689d a7bd
00000030: 3009 9a3c 4124 8d3d 0dc2 54bd dedd fabd
00000040: 2590 a7bc 2f79 96bd 8d51 e3bd b783 bb3d
00000050: c162 973d 3dcf 9a3d 847f eb3d e661 56bd
00000060: 797d 41bd aad5 f03c 0669 28bc cd76 ca3d
00000070: b9f2 223b a9fd 903d cc4d 86bd 57c1 18bb
00000080: b015 59bd 686d 38ba e060 02bd ad64 4cbd

transformer.layers.0.1.norm.weight f4 [36]
1.0374906 1.0284255 1.0791581 1.0166197 0.9925478 1.0040332 0.9823333 0.9869308
0.9840984 1.0594045 1.059226 1.053088 1.0540788 1.07415 0.9896742 1.0458494
0.9668611 1.0039684 1.0681314 1.0564134 0.9753628 0.9778947 1.1165166 1.0593411
1.0089753 1.0119517 1.0283775 1.0604006 1.0457864 0.9992216 1.0166016 0.98765343
1.0200515 0.9835741 1.0232189 1.1021748
00000000: 7ecc 843f 72a3 833f da21 8a3f 9820 823f
00000010: 9d17 7e3f 2984 803f 327a 7b3f 7fa7 7c3f
00000020: dfed 7b3f 919a 873f b894 873f 96cb 863f
00000030: 0eec 863f bf7d 893f 4a5b 7d3f 65de 853f
00000040: 3684 773f 0982 803f 88b8 883f 8e38 873f
00000050: 60b1 793f 4f57 7a3f 04ea 8e3f 7d98 873f
00000060: 1a26 813f a287 813f e0a1 833f 35bb 873f
00000070: 54dc 853f fdcc 7f3f 0020 823f dbd6 7c3f
00000080: 0c91 823f 83cb 7b3f d6f8 823f 1014 8d3f

transformer.layers.0.1.norm.bias f4 [36]
0.0081357835 0.04287349 0.02047651 -0.035151705 0.021811005 0.02367966 -0.016450932 0.03072101
0.00929277 0.022989752 0.03082365 -0.014764546 0.022175092 0.002947556 -0.02612521 -0.00467336
-0.025076337 0.0014179783 -0.01601599 0.023641845 0.008746456 -0.0021640973 -0.00034949978 -0.027196996
-0.0018202392 0.017315222 -0.014563652 0.009738115 0.03992631 -0.03649279 -0.026530538 -0.015186785
0.020725558 0.011712053 0.03251377 -0.013847018
00000000: f34b 053c 1d9c 2f3d 5bbe a73c 3cfb 0fbd
00000010: feac b23c d9fb c13c 1bc4 86bc a1aa fb3c
00000020: b440 183c 0155 bc3c e181 fc3c ffe6 71bc
00000030: 8aa8 b53c c92b 413b 8904 d6bc fc22 99bb
00000040: e46c cdbc 75db b93a f733 83bc 8bac c13c
00000050: 4c4d 0f3c 87d3 0dbb 113d b7b9 3ccc debc
00000060: 1895 eeba a7d8 8d3c 629c 6ebc 9d8c 1f3c
00000070: c589 233d 7779 15bd 9256 d9bc fed1 78bc
00000080: a5c8 a93c e9e3 3f3c 292d 053d 9ade 62bc

transformer.layers.0.1.fn.net.0.weight f4 [72, 36]
-0.09583709 -0.18839106 0.15948741 -0.17285773 0.052605275 0.10212252 -0.0073779174 0.014252901
0.03678974 0.03453231 -0.18326937 0.03902277 -0.14922032 0.024768773 -0.102673285 -0.1877762
0.16400757 0.15590069 0.14795983 0.20111677 0.0115507385 0.10199043 0.032961767 0.1014
-0.17954646 0.11268604 0.15847084 0.12684737 0.04675153 -0.113773435 -0.13306287 0.09531153
-0.09769292 0.092621975 0.00030399603 0.12962088 0.008385939 0.011869867 -0.059925128 0.110956274
-0.03599624 0.021976423 0.0054155267 0.005515344 -0.0063938554 -0.1127308 0.13513318 0.03160846
-0.07333601 0.037118163 -0.13894334 -0.11077402 0.07558158 0.10255574 -0.055856597 0.051939365
0.16544421 -0.11732735 0.18895167 0.13565023 -0.08371099 0.022207377 0.05314774 0.09136588
0.16515328 -0.13460128 0.119882464 0.021711208 0.03556337 0.17952697 -0.006608831 0.16150413
-0.16679719 0.0298538 0.010742148 0.015161699 -0.019038493 -0.10192606 0.10260356 -0.018876571
-0.09023775 0.1549633 -0.09351714 -0.008831873 -0.0045531276 -0.084326334 0.11044139 0.08285471
-0.005470133 0.01890965 0.12199309 0.17419933 0.10720952 -0.005668913 -0.13440539 -0.1524946
0.14929405 0.08081801 0.07426864 0.08544938 -0.12091171 -0.038160406 0.10096066 -0.024859156
-0.11616608 0.088565424 0.029087905 -0.0005089105 0.054008745 -0.088399045 -0.081812106 0.16179374
-0.10114546 0.02132358 0.047185045 0.036870223 -0.06941883 -0.13863376 -0.14900768 0.0431517
-0.027747858 0.104594745 0.20061074 0.14383304 0.039110497 -0.053972844 0.14860113 -0.10433218
0.0052691507 0.07641945 0.1544865 0.1864599 0.10527132 0.0027970502 -0.20016137 0.15765236
-0.14858541 -0.042759262 0.03238634 -0.11052107 -0.00055402005 0.0015272396 -0.08072678 0.095081545
-0.038421392 0.14604715 -0.11546497 -0.028450828 -0.0286521 0.018396124 -0.16951944 0.009347982
-0.016440623 0.115679435 0.04567329 0.030944178 0.15475754 0.21380399 0.12420638 -0.18928777
0.09303356 0.12473284 0.17367043 -0.09746587 -0.11410948 -0.16068025 0.017608164 0.13230173
-0.06783624 0.08007922 -0.0843886 -0.14025132 0.109882616 0.048691567 -0.114840545 -0.16669044
-0.14667425 0.038820475 -0.09530701 -0.12310455 0.031417426 -0.0007014164 0.10546692 -0.031461567
0.0691688 0.009455196 -0.12281219 0.07833875 -0.04132894 0.025752977 0.09034682 0.14547053
-0.044604145 0.1361237 -0.090064436 -0.13740459 0.071597494 -0.03949436 0.01508879 -0.21428172
0.064111106 -0.024294365 0.1265181 0.090176456 0.08052253 -0.1612004 -0.15645188 -0.003035862
-0.09126731 -0.10467987 -0.23004603 -0.13676938 -0.19644699 -0.098047055 0.018831626 0.048293095
0.08062593 0.16028777 -0.11926016 -0.03008728 0.05812385 0.13690013 -0.13932118 0.17710608
-0.1142316 0.11251982 0.061517436 0.10539743 -0.11201506 -0.043107767 0.13795173 0.17290202
0.10014815 -0.07886629 0.12103071 0.030115996 -0.014262039 -0.13943134 -0.18289609 0.16278784
0.100588955 0.07479479 -0.027533371 -0.07398344 0.17940462 -0.13537963 -0.048777025 0.013593602
-0.16230896 0.091969036 -0.1468922 0.16133784 0.1062556 -0.14595836 0.1819982 0.013082718
00000000: 3c46 c4bd 96e9 40be ab50 233e 9e01 31be
00000010: a178 573d 9d25 d13d 75c2 f1bb 0085 693c
00000020: d7b0 163d c071 0d3d f7aa 3bbe 57d6 1f3d
00000030: 36cd 18be e2e7 ca3c 5f46 d2bd 6748 40be
00000040: 9af1 273e 6ea4 1f3e c882 173e 8ef1 4d3e
00000050: 4f3f 3d3c 5ce0 d03d eb02 073d ceaa cf3d
00000060: 07db 37be f0c7 e63d 2e46 223e 47e4 013e
00000070: 887e 3f3d 0c02 e9bd a241 08be b132 c33d
00000080: 3a13 c8bd 97b0 bd3d a861 9f39 56bb 043e
00000090: 2d65 093c d579 423c 0d74 75bd 0b3d e33d
000000a0: cb70 13bd e607 b43c bb74 b13b 0fba b43b
000000b0: 8c83 d1bb 68df e6bd 5a60 0a3e df77 013d
000000c0: 3131 96bd 3709 183d 2a47 0ebe 7ddd e2bd
000000d0: 84ca 9a3d be08 d23d e3c9 64bd 5fbe 543d
000000e0: 356a 293e 5249 f0bd 8c7c 413e e5e7 0a3e
000000f0: ab70 abbd 3fec b53c 72b1 593d 091e bb3d
00000100: f11d 293e ebd4 09be f084 f53d b4db b13c
00000110: e5aa 113d ebd5 373e e58e d8bb 5761 253e
00000120: e2cc 2abe f58f f43c d6ff 2f3c c668 783c
00000130: 9df6 9bbc 9cbe d0bd d121 d23d 0aa3 9abc
00000140: 92ce b8bd b3ae 1e3e ea85 bfbd 8fb3 10bc
00000150: 6732 95bb 49b3 acbd 182f e23d bbaf a93d
00000160: cd3e b3bb 69e8 9a3c 83d7 f93d 4f61 323e
00000170: aa90 db3d 4ac2 b9bb 91a1 09be 8b27 1cbe
00000180: 8ae0 183e ea83 a53d 281a 983d 1600 af3d
00000190: 8fa0 f7bd 164e 1cbd 76c4 ce3d 6ea5 cbbc
000001a0: 7be8 edbd ca61 b53d c249 ee3c 6868 05ba
000001b0: 4638 5d3d 8f0a b5bd 1b8d a7bd 42ad 253e
000001c0: 5a25 cfbd caae ae3c 1b45 413d 3b05 173d
000001d0: 762b 8ebd 02f6 0dbe 7895 18be d6bf 303d
000001e0: 7a4f e3bc c535 d63d e76c 4d3e f848 133e
000001f0: 5432 203d a112 5dbd e52a 183e 1cac d5bd
00000200: d7a8 ac3b cd81 9c3d b631 1e3e 58ef 3e3e
00000210: 7d98 d73d b74e 373b 1af7 4cbe 9f6f 213e
00000220: c626 18be 5624 2fbd 8aa7 043d df58 e2bd
00000230: a83b 11ba a82d c83a 1554 a5bd 1dba c23d
00000240: c05f 1dbd 628d 153e e678 ecbd b611 e9bc
00000250: cfb7 eabc 78b3 963c 8196 2dbe 4728 193c
00000260: 7cae 86bc 57e9 ec3d ea13 3b3d a57e fd3c
00000270: c378 1e3e 6fef 5a3e ea5f fe3d a7d4 41be
00000280: 6188 be3d ee73 ff3d a9d6 313e 309c c7bd
00000290: 3bb2 e9bd 5d89 24be ff3e 903c 1b7a 073e
000002a0: baed 8abd 9300 a43d eed3 acbd 0b9e 0fbe
000002b0: 230a e13d cf70 473d 8531 ebbd e6b0 2abe
000002c0: c631 16be 3802 1f3d 5230 c3bd 3d1e fcbd
000002d0: 8faf 003d 42df 37ba 0aff d73d d8dd 00bd
000002e0: 5fa8 8d3d f7e9 1a3c f584 fbbd 1170 a03d
000002f0: 8948 29bd e8f7 d23c c107 b93d 3af6 143e
00000300: d6b2 36bd 0364 0b3e b473 b8bd cab3 0cbe
00000310: b5a1 923d d7c4 21bd f936 773c ab6c 5bbe
00000320: af4c 833d fa04 c7bc f68d 013e 6fae b83d
00000330: ffe8 a43d b811 25be ec34 20be 50f5 46bb
00000340: 5bea babd 6662 d6bd 3091 6bbe 460d 0cbe
00000350: 6629 49be e5cc c8bd c844 9a3c fbce 453d
00000360: 351f a53d 7a22 243e ac3e f4bd 9979 f6bc
00000370: 4613 6e3d 8c2f 0c3e 36aa 0ebe 4c5b 353e
00000380: 42f2 e9bd cb70 e63d b5f9 7b3d 9cda d73d
00000390: 2768 e5bd c591 30bd 3843 0d3e 3a0d 313e
000003a0: 791a cd3d a684 a1bd f3de f73d d2b5 f63c
000003b0: 54ab 69bc 17c7 0ebe 1d49 3bbe dbb1 263e
000003c0: 9501 ce3d 032e 993d aa8d e1bc a184 97bd
000003d0: d8b5 373e f5a0 0abe 6bca 47bd b3b7 5e3c
000003e0: 5234 26be 435a bc3d e96a 16be bf35 253e
000003f0: 899c d93d 1c76 15be bc5d 3a3e e558 563c

transformer.layers.0.1.fn.net.0.bias f4 [72]
-0.011297763 0.0055261487 -0.026562413 -0.059434805 -0.11278092 0.0712295 -0.106532894 -0.14260757
0.1580237 -0.10532177 -0.083660215 -0.073499426 0.10485847 -0.041548252 0.1196617 -0.030004436
0.05923996 0.087829925 0.042833433 -0.09816591 0.10297429 -0.1498634 0.17379284 -0.07020119
-0.0753201 -0.050749727 -0.15118976 0.103662536 0.035142902 -0.12055774 -0.018600613 -0.0563703
0.07107682 0.022573892 -0.16196646 0.001982014 0.05335022 -0.027696442 0.15326989 0.02447958
-0.12679617 -0.0010843625 0.013760322 0.005031888 0.19203119 -0.17788784 -0.062759265 0.033421203
0.15526135 0.10437681 -0.085932605 0.1263869 0.13724941 0.15646699 0.07361812 -0.14127403
0.06482112 -0.0688647 -0.0025613597 0.08670044 0.12977439 -0.005780192 -0.055835597 0.09694481
-0.1683079 0.05205379 0.070595145 -0.057991505 0.087435335 -0.1656492 -0.1197076 -0.0070553552
00000000: 411a 39bc b214 b53b 6b99 d9bc e971 73bd
00000010: aff9 e6bd c6e0 913d eb2d dabd b807 12be
00000020: f7d0 213e f1b2 d7bd 0c56 abbd de86 96bd
00000030: 0ac0 d63d 802e 2abd 3211 f53d ddcb f5bc
00000040: 9aa5 723d 2de0 b33d 1c72 2f3d 350b c9bd
00000050: 2fe4 d23d cb75 19be c0f6 313e a4c5 8fbd
00000060: 6d41 9abd f2de 4fbd 7dd1 1abe 064d d43d
00000070: 01f2 0f3d fae6 f6bd 5060 98bc 8be4 66bd
00000080: b990 913d e2ec b83c 89da 25be ade4 013b
00000090: c385 5a3d a6e3 e2bc c8f2 1c3e 6689 c83c
000000a0: dbd6 01be 2b21 8eba f972 613c 89e2 a43b
000000b0: d3a3 443e 3b28 36be ee87 80bd ace4 083d
000000c0: d5fc 1e3e 82c3 d53d 6ffd afbd 916b 013e
000000d0: 1c8b 0c3e e238 203e 19c5 963d 24aa 10be
000000e0: efc0 843d f008 8dbd 7cdc 27bb 0090 b13d
000000f0: 94e3 043e c467 bdbb deb3 64bd 008b c63d
00000100: e858 2cbe 5b36 553d 3094 903d 8088 6dbd
00000110: 4c11 b33d f29f 29be 4229 f5bd 9c30 e7bb

transformer.layers.0.1.fn.net.3.weight f4 [36, 72]
-0.11916385 0.017663231 -0.022683166 -0.1298429 0.14328076 0.0019201409 0.028895156 -0.020424584
-0.047442004 -0.076313026 0.07675613 -0.023625312 0.062318083 0.11680453 -0.009516813 0.08025148
-0.038542308 0.0873231 0.008106557 0.07679925 0.06495973 0.019746605 -0.007716602 -0.094642125
-0.07218317 0.10233527 0.07471411 0.049152542 -0.035667963 -0.07060083 -0.10861498 0.10036714
-0.08658199 0.09759971 -0.058193695 -0.13332699 -0.08999129 0.13902178 0.13645388 -0.005515524
-0.047719754 0.09741577 0.094018035 0.052836504 0.09745925 -0.029272253 -0.076036654 0.005847677
0.015013991 -0.0951099 -0.1495563 0.013567553 -0.0861263 0.013377171 -0.06824212 -0.0115977675
-0.04511321 0.083042376 -0.034752686 -0.06969504 0.06316312 -0.023092443 0.004296501 0.09177417
0.073033474 0.024460787 0.05408678 -0.0024253672 0.044705994 0.101509735 -0.15625869 -0.04645866
0.06210858 0.12097088 -0.018864425 0.036319427 0.043133523 -0.054478925 0.08827578 -0.04386093
-0.059557937 -0.08565372 0.021715194 -0.022409353 0.045388807 -0.07115609 0.12020891 0.12589672
0.03390441 -0.014955718 -0.06763323 0.024888746 -0.0010370578 0.044500988 0.011316182 -0.004396313
0.04302461 -0.00087704347 0.02509513 -0.0783834 -0.07675942 0.09406584 0.06667545 0.11063515
-0.09351002 -0.047346525 -0.12927389 -0.033671077 0.020145865 0.09844267 -0.013656808 -0.038101077
0.1196815 0.09885057 0.06459387 0.06483799 0.00982432 -0.11124492 -0.035686567 0.02707755
0.010776808 0.100537546 -0.07185457 0.011167186 -0.09412954 0.0680851 -0.0076896483 0.012763839
-0.019165337 -0.10794653 0.103375345 -0.06636592 -0.022289746 0.04575969 0.03709539 0.14500843
0.15643573 -0.016307777 0.018042823 -0.08772444 -0.096003026 -0.08051105 0.017694224 -0.022697885
0.04470313 0.039791025 0.0041807266 -0.1525071 -0.004217463 0.13348661 0.06641035 0.057923205
-0.088815056 0.025398877 0.0068655754 -0.11387935 0.13075337 0.031265575 -0.072657146 -0.043780986
-0.088580675 0.10502993 -0.036338035 0.070669726 -0.020780932 -0.07452741 0.12641548 -0.14658505
-0.103914216 0.080132045 0.06702036 -0.051999826 0.06797365 0.044805087 -0.12182563 0.07465425
0.00075923494 0.055250715 0.0058652535 -0.009367353 -0.07510992 -0.05867325 0.076231934 0.10090615
0.044987533 0.08748457 -0.00017721596 -0.1295703 0.01084238 -0.07368595 0.07040097 -0.03236781
0.10674865 -0.07059475 0.10153446 -0.09546075 -0.06952172 0.021872196 0.10465876 0.14243114
-0.05838696 -0.0029912146 -0.12314239 -0.0787281 0.050428 0.15821674 -0.061665352 0.06652687
-0.0948243 -0.04741242 -0.09448677 0.11374802 0.034650177 -0.09532591 0.15632007 -0.058645748
-0.13570714 -0.009496107 0.10144464 -0.014426987 0.09442967 -0.018819394 0.036858596 0.058663197
0.017376969 -0.050057646 0.04923002 -0.1283973 0.031309903 0.04640086 -0.11997947 0.083793476
0.035961054 -0.035801902 0.030107958 0.08228858 -0.105548695 0.10168843 -0.0154622495 -0.09947231
-0.033498943 0.045201167 -0.008679135 0.0132790785 0.10034371 -0.00119205 -0.046261784 -0.11809035
-0.10020815 0.058957208 -0.10009979 0.06462889 -0.110338494 0.0892596 -0.047870576 0.06519331
00000000: 2d0c f4bd 7bb2 903c 0cd2 b9bc 8af5 04be
00000010: 31b8 123e 3dad fb3a 89b5 ec3c 7551 a7bc
00000020: 8c52 42bd 014a 9cbd 5132 9d3d df89 c1bc
00000030: 3f41 7f3d 3737 ef3d 68ec 1bbc e35a a43d
00000040: 8ade 1dbd 74d6 b23d 5dd1 043c ed48 9d3d
00000050: 9b09 853d a2c3 a13c 8ddb fcbb bbd3 c1bd
00000060: c5d4 93bd 2795 d13d b603 993d 2d54 493d
00000070: 9218 12bd 2b97 90bd 8871 debd 498d cd3d
00000080: e651 b1bd 5be2 c73d 835c 6ebd df86 08be
00000090: 5a4d b8bd ba5b 0e3e 91ba 0b3e 92bb b4bb
000000a0: ca75 43bd eb81 c73d 878c c03d 176b 583d
000000b0: b798 c73d 5dcc efbc 1bb9 9bbd df9d bf3b
000000c0: 3efd 753c fbc8 c2bd 4925 19be 714a 5e3c
000000d0: fc62 b0bd ec2b 5b3c 86c2 8bbd 9004 3ebc
000000e0: a1c8 38bd 1f12 aa3d d558 0ebd 46bc 8ebd
000000f0: aa5b 813d 5d2c bdbc aac9 8c3b 19f4 bb3d
00000100: 9392 953d fd61 c83c 198a 5d3d e9f2 1ebb
00000110: a21d 373d 56e4 cf3d 4702 20be 704b 3ebd
00000120: 9165 7e3d 95bf f73d 9189 9abc aec3 143d
00000130: c7ac 303d 4b25 5fbd efc9 b43d 85a7 33bd
00000140: 06f3 73bd 386b afbd 10e4 b13c d293 b7bc
00000150: 9de9 393d 49ba 91bd 1730 f63d 12eb 003e
00000160: 5adf 0a3d d408 75bc 4a83 8abd 7ce3 cb3c
00000170: e3ed 87ba ab46 363d 8267 393c f20e 90bb
00000180: 933a 303d 64e9 65ba 4d94 cd3c 7a87 a0bd
00000190: 0b34 9dbd 97a5 c03d 238d 883d ae94 e23d
000001a0: 2e82 bfbd 6eee 41bd 6060 04be afea 09bd
000001b0: f108 a53c 509c c93d cec0 5fbc e00f 1cbd
000001c0: 931b f53d 2b72 ca3d ca49 843d c8c9 843d
000001d0: 2ff6 203c 60d4 e3bd 142c 12bd bdd1 dd3c
000001e0: 3591 303c a1e6 cd3d 7d28 93bd 93f6 363c
000001f0: fdc6 c0bd 3370 8b3d 72f9 fbbb 6c1f 513c
00000200: a000 9dbc 1213 ddbd 74b6 d33d dbea 87bd
00000210: fc98 b6bc 836e 3b3d 56f1 173d 177d 143e
00000220: b030 203e e397 85bc 8bce 933c dfa8 b3bd
00000230: 3c9d c4bd fae2 a4bd 7af3 903c eaf0 b9bc
00000240: a11a 373d eafb 223d 7afe 883b d22a 1cbe
00000250: a532 8abb b7b0 083e 2602 883d e240 6d3d
00000260: abe4 b5bd 4e11 d03c 9ff8 e03b 9439 e9bd
00000270: 36e4 053e 5510 003d 45cd 94bd b153 33bd
00000280: c969 b5bd ef19 d73d 31d7 14bd 4abb 903d
00000290: c63c aabc d4a1 98bd 0f73 013e 641a 16be
000002a0: fad0 d4bd 451c a43d f841 893d c5fd 54bd
000002b0: c535 8b3d 8a85 373d b77f f9bd 54e4 983d
000002c0: 6507 473a 934e 623d 5031 c03b 8779 19bc
000002d0: 3bd3 99bd 5d53 70bd 7d1f 9c3d e2a7 ce3d
000002e0: d944 383d 1c2b b33d 0cd3 39b9 14ae 04be
000002f0: 3da4 313c a9e8 96bd 622e 903d 1c94 04bd
00000300: 099f da3d fb93 90bd 4df1 cf3d ed80 c3bd
00000310: 6761 8ebd 522d b33c 5557 d63d 78d9 113e
00000320: 2a27 6fbd 4108 44bb 1432 fcbd 333c a1bd
00000330: 978d 4e3d 9203 223e cf94 7cbd 3d3f 883d
00000340: 3e33 c2bd 8733 42bd 4882 c1bd b9f4 e83d
00000350: 58ed 0d3d 3b3a c3bd 5e12 203e 8636 70bd
00000360: d0f6 0abe 8f95 1bbc 35c2 cf3d 2b5f 6cbc
00000370: 5864 c13d 212b 9abc 0af9 163d d248 703d
00000380: 255a 8e3c 3f09 4dbd 6ba5 493d 957a 03be
00000390: d03e 003d d40e 3e3d ccb7 f5bd ea9b ab3d
000003a0: e64b 133d 04a5 12bd f7a4 f63c ea86 a83d
000003b0: ea29 d8bd 0642 d03d 6055 7dbc 23b8 cbbd
000003c0: 3036 09bd dc24 393d ee32 0ebc 7e90 593c
000003d0: 0181 cd3d 903e 9cba ff7c 3dbd 5ad9 f1bd
000003e0: ee39 cdbd 1d7d 713d 1e01 cdbd 275c 843d
000003f0: 26f9 e1bd bdcd b63d f013 44bd 1284 853d

transformer.layers.0.1.fn.net.3.bias f4 [36]
0.005320574 -0.086155415 0.01282602 -0.040440876 0.09938149 -0.06118459 0.07930645 -0.025377382
-0.005128702 0.057338156 0.08673758 -0.0019821657 -0.09269329 0.08677265 0.004304722 0.034977306
0.0063745254 0.0638724 0.01147915 -0.014595166 0.040993277 0.01920193 0.102236345 -0.022918886
0.030919626 -0.07461241 0.08944165 -0.09546585 0.05062043 -0.1126597 0.056837384 0.058085628
0.05659184 -0.025519477 -0.017835196 0.004637237
00000000: 3658 ae3b 4072 b0bd 3a24 523c 55a5 25bd
00000010: 8688 cb3d b19c 7abd 6c6b a23d 3ae4 cfbc
00000020: ac0e a8bb 6adb 6a3d 79a3 b13d 39e7 01bb
00000030: fbd5 bdbd dcb5 b13d a00e 8d3b 5d44 0f3d
00000040: 65e1 d03b 88cf 823d 0b13 3c3c 9020 6fbc
00000050: 91e8 273d 5e4d 9d3c 4a61 d13d 63c0 bbbc
00000060: 284b fd3c 64ce 98bd 2f2d b73d 9983 c3bd
00000070: 5e57 4f3d 21ba e6bd 51ce 683d 32eb 6d3d
00000080: d8cc 673d 390e d1bc 1e1b 92bc f7f3 973b

transformer.layers.1.0.norm.weight f4 [36]
1.0195161 1.0286947 1.0508566 1.0497582 1.0600506 1.0368724 1.0452095 1.0074776
1.0220643 1.0432053 1.0520025 1.022753 1.0578009 1.0642366 1.0399187 1.0656021
1.1230625 1.0521147 1.0683285 1.0352322 1.0709188 1.0244133 1.0964135 1.0077219
1.0451653 1.0020386 1.0539267 1.1012135 1.0757856 1.0882832 1.0281875 1.0578504
1.0408971 1.0906448 1.0868458 1.1134915
00000000: 817f 823f 45ac 833f 7882 863f 7a5e 863f
00000010: bdaf 873f 3cb8 843f 6dc9 853f 07f5 803f
00000020: 01d3 823f c087 853f 05a8 863f 92e9 823f
00000030: 0566 873f e838 883f 0e1c 853f a665 883f
00000040: 83c0 8f3f b2ab 863f fdbe 883f 7d82 843f
00000050: de13 893f fa1f 833f 4757 8c3f 08fd 803f
00000060: fac7 853f cd42 803f 12e7 863f 90f4 8c3f
00000070: 58b3 893f dd4c 8b3f a69b 833f a467 873f
00000080: 1e3c 853f 409a 8b3f c31d 8b3f e486 8e3f

transformer.layers.1.0.norm.bias f4 [36]
-0.0068115923 -0.015289971 0.009432025 -0.0083425315 0.0030066636 -0.02571959 0.021335417 -0.0048922715
-0.010604383 0.0026892365 -0.018366985 -0.008490011 0.018847488 -0.003135598 -0.062004823 0.01196602
0.042185426 -0.018526342 -0.00031924612 -0.013455606 0.035285894 -0.037934907 -0.0027576922 -0.0022542963
-0.014952439 0.015736334 0.0072255824 -0.008638642 0.017596344 0.016706912 0.011397699 0.013272538
0.0014478541 -0.029371172 -0.008721985 0.010111103
00000000: c733 dfbb c982 7abc c888 1a3c 1daf 08bc
00000010: 720b 453b e4b1 d2bc 9dc7 ae3c 594f a0bb
00000020: 02be 2dbc e73d 303b 5c76 96bc b019 0bbc
00000030: 0c66 9a3c 9b7e 4dbb c5f8 7dbd 200d 443c
00000040: a0ca 2c3d 8ec4 97bc 7d60 a7b9 e774 5cbc
00000050: f187 103d a261 1bbd 66ba 34bb d1bc 13bb
00000060: 13fb 74bc 7ce9 803c 94c4 ec3b 1789 0dbc
00000070: 3526 903c efdc 883c 6abd 3a3c 0f75 593c
00000080: ecc5 bd3a d09b f0bc a8e6 0ebc 0aa9 253c
