ViT/ViT3/1 V train 0.967 V test 0.899 ABS/model_bestV.pt (torch, 260167 bytes, 74 tensors)

pos_embedding f4 [1, 19, 24]
00000000: 54b1 d2bd 3475 9abe 4070 8abe 22fe eb3f
00000010: cbd6 45be 0e04 043f ff90 48be aeb2 e33d
00000020: 4893 a93c 1ce8 8a3f 8b5e 30c0 c4fd c0bf
00000030: 5752 033f a720 e33f 353c 29be ac97 3a3e
00000040: e11b 62bf df22 93be 5fb3 693f 2e46 2a3d
00000050: ce9d 323f 98f7 b4bd 7b24 163f 6f76 a33f
00000060: 430d 81bf 6b0a a83e 6a8d 0c3f ffce f43e
00000070: fe8f 9b3c f001 753e a2cb 423e f1ce edbf
00000080: 845d 80bf 8e77 d53e 3e86 0bbe f4dd 13bf
00000090: 5029 d13d 619a ecbf 7184 16bf 66e2 3fbf
000000a0: ea3e 88be acbd a33f 21e9 1ebe c43e 3a3f
000000b0: 782f 063f c733 593f e1e1 3b3e ee7f c9be
000000c0: 32f9 163f 44a1 af3d 4e11 28c0 e9c2 ac3f
000000d0: 21bc ed3d fb8b 5ebf 4a71 cd3e 37a5 213d
000000e0: 541c 0740 daba cabf 0b0a 4b3f e5c0 82be
000000f0: 4baa 143f b5dd 1fbf f594 c3bf 0ab1 be3e
00000100: 474e 89be 6596 3540 a703 a13d 2cb4 083e
00000110: ba4b ab3d 681a 20bf a10a 79bf 7d00 d1be
00000120: f4f1 a63d 419c 7bbf 65b1 b3be bbef 6abe
00000130: 9bd5 813f a8bc b33e 017b 1140 3f00 cd3e
00000140: caac 80bf 5d4c 833f 1b3a 393e a5de 0dbf
00000150: 4a15 84bf dcad 6dbf 356d 50bf b3a0 d1be
00000160: 1431 0dbe a0f4 0e3f ffe5 bebf 99d3 f1bf
00000170: 1bdc 0d3f 6501 ebbf 7e64 90be d613 373f
00000180: a08b 9bbe 027a c93e 72ca a1bf 4e80 be3e
00000190: ebf1 c8bf 43e4 94bc 69d5 a5ba 13c5 853f
000001a0: 402a 6d3f 8931 8bbe 2e32 debf bed4 f5bf
000001b0: fdcc 333e f93c 68bf 16bf 953e fdec d93e
000001c0: e251 ad3e 9197 8f3f d4c3 0b3f fa2f 2abf
000001d0: 9693 4ebf 400c 3fc0 c81b 3fbf ade6 bd3e
000001e0: 21d3 913f 5b91 6b3e 3f1f 7a3e b301 5e3f
000001f0: 7378 d53e 6048 1b40 5dec d33e 4a6d 3a3f
00000200: 6615 79bf 20a9 4fbf f680 2bbf 2974 363f
00000210: 2e8d 5cbe c59b d23f cf46 33bf 7844 483e
00000220: 1ecd 10c0 857d 483f 1d53 9bbf 5fb8 0b3e
00000230: cac9 52bf b641 983e 49b5 043f 96c2 07c0
00000240: 6db9 593f afb2 1abf 7e93 473f 308b 313f
00000250: 98d9 97be 64ae 9cbe a5c2 9c3f e41c 27bf
00000260: 1e88 833f 08bd 20bf 1338 4fbe 9e67 50bf
00000270: 9ad7 663f c98f 083f b29a b53f 0af1 11bf
00000280: 992b 23be 9a32 653f f2ab b0bf c644 533f
00000290: fc7d c03d 99de 3a3f ea69 eabd caec ef3e
000002a0: ab94 95bf 5ece 663e 14ab 8dbe ab53 9f3f
000002b0: 6ea9 27bf 1c5c 39c0 1fde a8bd c495 1e3f
000002c0: fd5a 073f e6f6 6d3f e7fc 333e 7510 9cbf
000002d0: c1cd 46be 03f6 d5bc c063 1e40 0417 c6bd
000002e0: 5ca2 40bf 47d3 183d ce51 8dbf e1d4 cf3f
000002f0: 0fef 25c0 7e3f 5f3f 479a 993f a09e 1f3d
00000300: 259f 833e 9f6a e7bf 437c 3a3f c895 713f
00000310: deb7 b33e 35a7 6e3f 489a 803f 29dd cebf
00000320: bcf2 3a40 b5b5 0b3e ac9b 5abd 3e91 8e3f
00000330: 4084 a83f f1e5 3dbe 3489 47bf 99bb 6a3f
00000340: bf64 1ebf 86c3 06c0 c0b0 aa3f 7b7b edbe
00000350: 53d5 333f 3cf8 4bbf b609 aa3f 2dd2 79bf
00000360: 7b29 0340 cdd7 1fbf 8977 89bf 94a4 ff3e
00000370: 74c6 92be ef2b 56be 8840 9dbf af36 f6bd
00000380: f5dc e1bd de45 e3be 2563 173f 64bf 13bf
00000390: 8fec 31be c236 3fbf bcaa 0f3f 8ea7 dd3e
000003a0: 9add 19c0 5560 3cbf 58eb 953e b8c1 a73f
000003b0: e9f1 343f 4d9b 07c0 3db1 00c0 0d76 5fbf
000003c0: 3fa2 b23f 1c7b 9bbb 089c c43f f07c 0dc0
000003d0: 6f35 33bf 9db9 c23f 0b4c 34bf 5562 84bf
000003e0: ab24 93bf 6a89 de3d e067 2d40 c333 d23e
000003f0: 39d7 423f 1ebc 3abf 00a3 84bf b3ad e23f
-0.10287729 -0.30167544 -0.27038765 1.843693 -0.19320218 0.51568687 -0.19586562 0.11118065
0.020700112 1.0852084 -2.7557704 -1.5077443 0.51297516 1.774434 -0.16526873 0.1822192
-0.8832379 -0.28737542 0.91289324 0.041570835 0.6977204 -0.08836287 0.58649415 1.2770518
-1.0082172 0.32820448 0.5490328 0.47814175 0.01898956 0.2392652 0.19022992 -1.8578779
-1.0028539 0.41692775 -0.13625428 -0.5776055 0.10212958 -1.8484613 -0.5879584 -0.7495483
-0.266105 1.2792258 -0.15518619 0.7275202 0.5241618 0.8484463 0.18347885 -0.39355415
0.5897399 0.08575681 -2.6260562 1.3496982 0.11608148 -0.86932343 0.40125495 0.0394642
2.111104 -1.5838273 0.793122 -0.25537792 0.58072346 -0.62447673 -1.5279833 0.37244445
-0.26817533 2.8373044 0.07862025 0.1334998 0.08364053 -0.6254029 -0.97281843 -0.40820685
0.08151618 -0.982853 -0.3509628 -0.22943012 1.0143312 0.3510487 2.2731326 0.4003925
-1.0052731 1.0257679 0.18088572 -0.55417854 -1.0318997 -0.92843413 -0.81416637 -0.40942916
-0.13788253 0.5584202 -1.4913939 -1.88927 0.5541398 -1.83598 -0.2820167 0.7151464
-0.30379963 0.39350897 -1.2639906 0.37207264 -1.5698828 -0.01817525 -0.0012652102 1.0450767
0.92642593 -0.2718623 -1.7359064 -1.9205549 0.17558666 -0.90718037 0.2924735 0.4256362
0.33851534 1.1218129 0.54595685 -0.66479456 -0.8069395 -2.9851227 -0.74651766 0.37090054
1.1392556 0.23004667 0.24425982 0.8672134 0.41693458 2.4262924 0.41391268 0.7282301
-0.97298276 -0.8111744 -0.66993654 0.71270996 -0.21538231 1.6453787 -0.7002992 0.19557369
-2.2625194 0.7831653 -1.2134739 0.1364455 -0.82339156 0.29737633 0.5183912 -2.1212516
0.8504856 -0.604289 0.7795943 0.6935301 -0.29658198 -0.306018 1.2246901 -0.6527846
1.0275915 -0.6278844 -0.20236234 -0.8140811 0.9017273 0.533444 1.4187834 -0.5700842
-0.159346 0.89530337 -1.3802474 0.82526815 0.093990296 0.7299591 -0.11445983 0.46860343
-1.1685995 0.2253966 -0.27669585 1.2447408 -0.65492904 -2.896247 -0.08245491 0.61947274
0.5287321 0.9295486 0.17576943 -1.2192522 -0.19414426 -0.026118284 2.4748383 -0.09672359
-0.7524774 0.037310865 -1.104059 1.623684 -2.592716 0.87206256 1.2000207 0.038969636
0.25707355 -1.8079413 0.7284586 0.94369173 0.35101217 0.9322389 1.0047083 -1.6161243
2.9210653 0.13643534 -0.053371117 1.1138074 1.316536 -0.18544747 -0.7794373 0.916925
-0.61872476 -2.1056838 1.333519 -0.4638327 0.7024738 -0.7967565 1.3284214 -0.9758633
2.0494068 -0.6243866 -1.0739604 0.4993025 -0.28667033 -0.20915197 -1.2285318 -0.12022149
-0.11028472 -0.44389242 0.5913566 -0.57713914 -0.17375396 -0.7469293 0.56119895 0.43291897
-2.4041505 -0.7358449 0.29281116 1.3105993 0.70681626 -2.1188538 -2.0108178 -0.87289506
1.3955764 -0.0047449004 1.5360117 -2.2107506 -0.7000341 1.5212895 -0.7042853 -1.0342509
-1.1495565 0.108660534 2.709465 0.41055116 0.76109654 -0.72943294 -1.0362244 1.7709259

cls_token f4 [1, 1, 24]
00000000: 20c7 93bf 0c53 c2be f9f0 283e 014d 643e
00000010: 508e 1740 ef4b 04bf f8ed 76be 5e1b 90be
00000020: d09e 963f d182 ad3f f2b2 1340 bf7f b73e
00000030: 07e3 16bf 8b0a b7be 6ae0 4a3e 6ce2 783f
00000040: 5887 2ebe f2ec 993f 6ad1 083f 7934 b4bf
00000050: 0a10 55bf b7a2 563e ad21 40bf fb69 9abf
-1.1545143 -0.37953985 0.16498174 0.22295 2.368061 -0.51678365 -0.24114215 -0.2814588
1.1767216 1.3555547 2.307797 0.3583965 -0.58940166 -0.3575023 0.1981217 0.9722049
-0.17043817 1.2025435 0.5344454 -1.4078513 -0.832276 0.20960508 -0.75051385 -1.2063593

to_patch_embedding.1.weight f4 [24, 12]
00000000: c8f6 d9bc ada7 43bd 5b2c e1bd 81ad d03d
00000010: 4e31 ab3d d6c0 1f3e cf57 16be c39e 103d
00000020: 6300 b03e 0216 ae3e 2b37 92bd abc6 3a3e
00000030: 7ac8 3c3e f276 093e a1cb 123e ccb5 833e
00000040: 615e 48be afc4 c1bd 4b6c 6ebe 041a afbd
00000050: 3007 48be 45dc cbbd 69d6 5b3e 53bd 6a3c
00000060: a20f 5abd 8945 c73d 9f1e 0cbe 24b2 923d
00000070: ee13 553d a769 203c bd1a d13e 1adb 05be
00000080: 6f2f aabd 663c 483e 625a a73d d821 1cbe
00000090: 4b04 66be c5d9 473e 7a84 c23d f9d8 2b3e
000000a0: c231 1dbe b60b 8d3e 27fe 33be ce8d 653e
000000b0: f318 f93d 235b 8b3e a9ef 50bd 9f89 78be
000000c0: e323 1d3d 5953 3b3d a4bf 1b3d 7cff 78bd
000000d0: 4114 3fbe 3d37 cabd 9a64 3d3e 0f93 c4bd
000000e0: 02b0 2ebe 356b ba3d 646e 333d fe22 103d
000000f0: 9bce a6bd 5177 f9bb 5451 73be 903c c3bc
00000100: 69e1 e33d 7cb0 76bd dd1f d0bc 0c4c 2c3e
00000110: 6360 9ebd 5a6f 85bd 764a 933e 1cc9 97bc
00000120: 3b91 d3bd 7f58 2a3e 0196 edbd bed3 123c
00000130: bc0d 5a3d 4246 e7bd 2577 903e 593e c03d
00000140: 589c efbd e599 c5bd 5898 aa3e ae1c af3e
00000150: 273f 4bbc ff50 9cbd b412 413e cd36 cf3d
00000160: 31c9 9fbd a9f6 93bd 43f3 813d 0dfc efbd
00000170: 773d 04bc 32e8 063e aa56 9fbe e7fd 91be
00000180: 53fe 413e 8096 0b3d 6f9f 89be 3edc c93d
00000190: 234a 45be fb55 843e 121c 513e d114 cc3d
000001a0: 3016 e83d e7b8 cabd bdd6 96bd 199b 7c3e
000001b0: 6436 59be fd79 d3bd b7e9 903d af58 5d3e
000001c0: b061 08be 9377 e0bc 9c8a b93d 8813 a53c
000001d0: 2dcf 46be 09d0 5abe 7ad5 153c 1e29 323e
000001e0: e952 ae3d 467c a1bd 3be7 abbd 9dff 8b3d
000001f0: 0605 46be ef35 56be 7d30 3f3e eb0a 073e
00000200: 3408 aabb 474a 6abe 1695 57be 91cf 4dbe
00000210: c6cb 39bc 080d 9f3d 1d5b d3bc 2dec 223c
00000220: 95b1 a63d 85cc 213e f96d 743d a40e debe
00000230: 05b5 7b3e ba0a 1bbe 174b 303b dfe8 36be
00000240: 1933 8bbe 397b 68bd ebe8 123e 6343 24be
00000250: ae72 b93d 4297 253e 19ea 6c3e 2e72 703e
00000260: 9ceb e0bd 2c98 2fbe 965d 783d 6a34 8abc
00000270: b203 0f3e 4ce8 673e ed05 b4bd e8da 2c3d
00000280: 7492 dc3d b7c3 84be 24f9 56be dfaa 0b3e
00000290: ea75 82be f0d8 0c3e 79cc 1d3d 72f3 65bd
000002a0: 14ed a9bd fa6e c8bd 73ad efbc 8f6d 21be
000002b0: 2deb d6bd 45d7 c4bc 4a1a 1dbc afbc c0bd
000002c0: 5888 623e 4805 d9bd bff0 b9be 0c97 89be
000002d0: 80df 923e fa14 44be 2767 3e3e 9f22 693e
000002e0: e933 8bbd a837 113e 9ffb 633e f503 0a3e
000002f0: 5227 33be 8366 ebbd 908d 9ebe 497f 9ebe
00000300: 6c70 b43d 5021 16be 5330 7ebe 4528 94be
00000310: 0432 e4bb 4f64 663e 80f1 873e 7f0e 2dbe
00000320: 6aa5 6abe fb7a 663e 4814 44bd 9d70 5d3e
00000330: 7313 1bbc 51b7 a8bc 4184 12bc 1001 5f3e
00000340: c515 8dbd addb 8cbe 1d3d 83be a864 0c3e
00000350: bf4b f33d 26fb 363e 3551 61bc 6ae7 80be
00000360: 85d2 bb3d 7715 99bd 2b1e 683e 8e4b b23d
00000370: 5f86 4d3e ff34 13bd b03e 383c 9bda 05be
00000380: 53fa 993e 014c 53be bc3d a03b 7f7c ac3d
00000390: b9f7 0abe caae 18be 4d25 59be 5275 833d
000003a0: bfde 463d 2555 8e3d 3e7f 47be 90e5 953d
000003b0: 3b53 5bbe e55c 84be b73c 30be aed6 943d
000003c0: ebf1 8d3d 0877 04be f8c4 3e3d f2f8 c6bb
000003d0: 06e8 21be ef88 1abd 984e a5be baf1 86bd
000003e0: 56ba 44be 69e3 cdbd 1430 533e 0144 213e
000003f0: 62c9 d13d 0a3e d93d 10b5 1b3e 8926 6abd
-0.026606932 -0.04776733 -0.10994788 0.10189343 0.083590135 0.15600905 -0.14681934 0.035307657
0.34375295 0.34001166 -0.07139429 0.18239848 0.1843585 0.1342428 0.14335491 0.25724638
-0.19567253 -0.094613425 -0.23283498 -0.08549884 -0.19533992 -0.099541225 0.2146851 0.014327365
-0.053237565 0.0973006 -0.13683556 0.07162884 0.05202096 0.0097908145 0.40840712 -0.13071862
-0.083098285 0.1955429 0.08171536 -0.15247285 -0.22462575 0.19516666 0.09497924 0.16781987
-0.15351012 0.27547997 -0.1757742 0.22417375 0.12162962 0.2721797 -0.051009808 -0.24271248
0.038364302 0.045733783 0.03802456 -0.060790524 -0.1866007 -0.09873817 0.18495408 -0.09598362
-0.17059329 0.09102479 0.04380645 0.03518962 -0.081448756 -0.0076131006 -0.23761493 -0.02383259
0.11126978 -0.060226902 -0.025405819 0.16825885 -0.07733228 -0.06515379 0.28767747 -0.018528514
-0.10330435 0.16635321 -0.116008766 0.008961616 0.053235754 -0.112926975 0.282159 0.09386892
-0.11699742 -0.09648494 0.33319354 0.34201568 -0.012405193 -0.07632636 0.18854791 0.10117874
-0.07802046 -0.07224781 0.063452266 -0.11717997 -0.008071295 0.13174513 -0.31120807 -0.28514025
0.18944673 0.034079075 -0.2687945 0.09856461 -0.19266562 0.25846848 0.20420864 0.09964908
0.11332357 -0.098985486 -0.07365177 0.2466854 -0.21212155 -0.10326002 0.070758276 0.21615861
-0.13318515 -0.027400767 0.09059641 0.020150915 -0.19414969 -0.21368422 0.009145135 0.17398497
0.085119076 -0.078850314 -0.08393713 0.06835864 -0.19337854 -0.20919012 0.1867084 0.13187759
-0.005188966 -0.22879897 -0.21052966 -0.20098712 -0.011340087 0.077661574 -0.025800282 0.009944004
0.0813934 0.15800674 0.05967519 -0.43370545 0.24580772 -0.1514081 0.0026900226 -0.17862271
-0.27187422 -0.05675814 0.14346664 -0.16041331 0.090550765 0.16170982 0.23136176 0.23481056
-0.10982439 -0.17147893 0.060636126 -0.016870696 0.13966253 0.22647208 -0.08790193 0.042200953
0.10770121 -0.2593057 -0.20993477 0.13639401 -0.25480586 0.1375463 0.03852508 -0.05614037
-0.08297172 -0.09786792 -0.029257512 -0.1576445 -0.10494075 -0.02402843 -0.009588787 -0.094109885
0.22122324 -0.105967104 -0.36316487 -0.26873052 0.28686142 -0.19148627 0.18594037 0.22767113
-0.067970105 0.14181387 0.22263955 0.13478072 -0.17495468 -0.11494162 -0.3096738 -0.30956486
0.08810505 -0.14661145 -0.24823122 -0.28936973 -0.00696397 0.22499202 0.26551437 -0.16900061
-0.22914663 0.22507851 -0.047870904 0.2162499 -0.009465086 -0.020595225 -0.008942665 0.21777749
-0.06888918 -0.2751135 -0.25632563 0.13710272 0.11879682 0.17869243 -0.013752271 -0.25176555
0.09171013 -0.07474797 0.22667758 0.08705817 0.2007079 -0.035939213 0.011245415 -0.13071673
0.30073795 -0.20634462 0.004890172 0.08422183 -0.13571061 -0.14910427 -0.21205635 0.064188614
0.04855227 0.06949834 -0.19482133 0.07319176 -0.21418469 -0.25852123 -0.17210661 0.072675094
0.06930908 -0.12936032 0.046574563 -0.006072157 -0.15811166 -0.037728246 -0.32286525 -0.065890744
-0.19211707 -0.10053141 0.20623809 0.15748598 0.10243489 0.10607536 0.15205789 -0.057165656

to_patch_embedding.1.bias f4 [24]
00000000: 48a2 113e 09fd 91be 1941 39bd 510f a0bd
00000010: 1e53 00bd 39c1 a0bd c97c 34be 7d41 8bbe
00000020: 5451 1c3e eae2 41be 864f 5cbd 5607 50be
00000030: e1d4 b43c b7e4 97bd f584 1c3d 5456 0ebe
00000040: 6f72 ad3d 4b2b 703e 4780 5e3e 3437 d43d
00000050: eb3a a53d 2fc8 6d3e 654a 4a3e bd5e 123e
0.14222062 -0.28513363 -0.045228098 -0.078154214 -0.031329267 -0.07849354 -0.17625727 -0.271984
0.15265399 -0.18934217 -0.053786777 -0.20315298 0.022074165 -0.07416671 0.038212735 -0.13900119
0.08469092 0.23454015 0.21728621 0.10362092 0.08067878 0.23220895 0.19754942 0.14293952

transformer.layers.0.0.norm.weight f4 [24]
00000000: ab25 853f 6f25 853f adcc 813f e844 843f
00000010: feb5 833f 4919 823f 9010 863f 6588 823f
00000020: 4377 823f 593e 863f 9e32 883f 9253 8d3f
00000030: 10bc 813f 84bd 833f 0d06 7f3f d708 813f
00000040: 7051 843f 8e88 863f 0b6e 863f 779e 833f
00000050: bf51 833f e108 883f 66ad 843f 2700 8b3f
1.040212 1.0402049 1.0140587 1.0333529 1.0289915 1.0163966 1.0473804 1.0197874
1.0192646 1.0487777 1.0640447 1.1041129 1.0135517 1.029221 0.9961861 1.0080823
1.0337353 1.0510423 1.0502332 1.0282735 1.0259322 1.062771 1.0365417 1.0859421

transformer.layers.0.0.norm.bias f4 [24]
00000000: d042 74bb 7586 90bc 7e0a f33b 95cd 383c
00000010: b2fd 8e3c d76f 17bd 65bd 81bc b473 133c
00000020: 093d 133c f5e2 b03b 0dae f8bb 0309 d5bc
00000030: 7808 98bc c9ce 4d3c 4bc2 ecbb b0e5 713b
00000040: 4335 00bb 5b87 6ebb 374b 29b8 3f25 2dbc
00000050: 6112 8bbb b9ab a9bc b314 68bb 4a8e 6cbc
-0.0037271269 -0.01764224 0.0074170223 0.011279483 0.017454956 -0.036971893 -0.01583738 0.008999754
0.00898672 0.005398149 -0.007589108 -0.026005274 -0.018558726 0.012561508 -0.00722531 0.0036910586
-0.0019562996 -0.0036396596 -4.036279e-05 -0.010567962 -0.0042441343 -0.020711767 -0.0035412728 -0.014438221

transformer.layers.0.0.fn.to_qkv.weight f4 [72, 24]
00000000: 0cf6 eabd ea7f 71bd 5bcb 573d 3c1c 7bbd
00000010: 88da 60bd 7077 4dbe ee56 683e 87c8 f93c
00000020: ed18 fa3d b9a1 96bd 998b 22be 61e9 943b
00000030: 164b 04be 7c87 69bd cdb0 133b b4cd cabc
00000040: a99f 143e b5a5 183e 1451 493d 1897 463d
00000050: b628 12be 571e 473e c7af ff3d ecc6 93bc
00000060: 506f 423e 0589 153e 8ee7 7a3d 6902 073e
00000070: 1611 69bd ecf9 aa3d bc9f 54bd 649e 1abe
00000080: e807 233d aef6 d8bd 4ad0 d83d baa0 8fbd
00000090: df4d bcbd 9b82 0e3e 3dda 553e 3e5a 503e
000000a0: 67b9 02be b164 b5bd 48b2 3fbe a891 95bd
000000b0: d73f 763c 89c6 06be b6bd 72be 9df3 613e
000000c0: d723 de3c 0ba8 75be eb94 333e d437 583e
000000d0: d2ea 423e 343e 533d ec9a 50be d8cd 81be
000000e0: 8df4 0c3e bdc2 a03d bb2b 0bbd d598 5bbb
000000f0: c935 cfbd 5158 4f3e 60a4 003e 7d0d 873e
00000100: 1b98 093e 91e4 16be d4b4 19bd d913 d43d
00000110: 9996 0dbe a207 afbc b316 29be 8fb0 0ebe
00000120: c908 553e 318a c43d c94e 18bc 2d41 df3c
00000130: 6833 a2bc a7a3 ec3d bfb6 1c3e b1ad 843d
00000140: f2b5 89be 8b63 8bbd d9a7 f23d a4ac 3f3e
00000150: abf0 373e 3b8b 06bd 3cdb 9b3c 065f 66bd
00000160: 97a5 8abd 7f95 a3be af7b 22be 40a0 ab3d
00000170: 65f1 923e 8bb6 603e a9de 553d 2a4e bc3d
00000180: 725b 15be bfea 10be b02c 53bc 0b05 4c3e
00000190: 38de a4bd 5600 263d 0e9a 583a dbce 56be
000001a0: 86a5 28be 5966 373b ee1b febc cf57 65be
000001b0: bbce 1bbe 4db8 cd3b a1dc 243b 0e55 74bd
000001c0: 5ec4 25be a95b b6bd d90f 363e 4e1c 353e
000001d0: 7017 e0bd 7b6a 2dbe fa2d 003e f3a0 7abe
000001e0: 7286 49bd 6edd 2cbd 344e e83c b4d3 7e3e
000001f0: 2683 6f3e 7db3 54bd 8718 2d3e e5a6 cbbd
00000200: ef4d 743d 50e5 acbd 392d 02be 6b7c 70be
00000210: 7ad0 77be 4d80 ef3c 2414 24bd dd7d c6bd
00000220: a173 08bd 293c 703e 2a0f 9ebd 5dc8 8bbd
00000230: 2468 163d 76a0 61be cd7b af3d 1d8b 09be
00000240: 0875 71be 527f b73d b020 39be 5edb ec3d
00000250: cedd 813e 06fb 0ebe 734b 52be 8bfe 26be
00000260: 483e 2fbd 54d2 8e3d 68ac d13d a7be 623d
00000270: 89c2 9ebd 8616 efbd 719f 79be a8ca e83d
00000280: efcf 77bd ed70 b9bc a159 913d 2612 f23c
00000290: 300d 9fbe 58a0 25be 4e92 0a3e 76b2 8c3d
000002a0: 38da 63be 6692 1ebe bb7c 2dbe 4aa0 413e
000002b0: 5120 f9bd 95a3 3dbe 0b80 f53b b383 213e
000002c0: 4ca2 e4bd 0ebb b83d abfc 72be 205d d03d
000002d0: 00fc 54be aef9 5ebd 144d 6cbe c80c 95ba
000002e0: 23b6 9abd 0347 6bbd d825 e83d 1bb0 8abd
000002f0: d386 8b3d ffde 14be b441 cebd 4b95 653e
00000300: 14d2 123e f189 8ebe bc96 d7bd a285 e13c
00000310: 2593 bcbd 59d1 8ebd 070e 40be dc6d 7abd
00000320: ada2 1a3e 68eb 85bc 6fed 9f3c 80d1 16be
00000330: 3e6b a53c 6d1d 243e c78d 393e 0cb5 9ebd
00000340: a703 5b3d a566 30be bc2d 8f3d 5cd8 cb3d
00000350: ae56 81bd 226f abbd 8d5d 58bd d63d 493d
00000360: f086 bb3d 9158 543e b450 dcbd 7c2f 54be
00000370: 9be5 b0bd 76b9 053e 76eb 683c af7f f03d
00000380: c781 e8bd ef76 84bd 1fb5 b6bd d13c 133d
00000390: 34bb f6bd 1c38 64be 95b9 c6bd e9f8 c1bd
000003a0: 388a 2e3e 90e9 fa3d 77b4 9f3d d0ba 5f3e
000003b0: 67ac 203e 5be6 823d 8dc4 773e cac8 16bd
000003c0: b5f0 d03d efcf 02be 039a 8fbd 4e72 1a3e
000003d0: 2a9c 8c3c 285a 883c e648 10be a457 8b3d
000003e0: 3ba6 463e 6164 183e 5a30 73be 0176 193e
000003f0: 7965 273e 7a89 9abd 39f7 273e 218c 233e
-0.11472711 -0.05895988 0.05268417 -0.061306223 -0.054895908 -0.20065093 0.22689411 0.030491127
0.122117855 -0.07355065 -0.15873565 0.0045444225 -0.12919268 -0.057013974 0.0022535801 -0.02475629
0.1451403 0.14906962 0.049149588 0.048483938 -0.14273342 0.19445167 0.12484699 -0.01803919
0.18987775 0.1460305 0.061255984 0.13184513 -0.05690106 0.0834845 -0.051910147 -0.15099484
0.03980246 -0.105939254 0.10586603 -0.07013078 -0.0919454 0.1391701 0.20884033 0.20346925
-0.12766038 -0.08857096 -0.18720353 -0.07303172 0.015029869 -0.13161673 -0.23705181 0.22065587
0.0271167 -0.23989885 0.17537276 0.21115047 0.1903489 0.051572993 -0.20371598 -0.2535236
0.13765164 0.078496434 -0.03397725 -0.0033507843 -0.101176806 0.20248534 0.12562704 0.26377478
0.1343693 -0.14735629 -0.037525967 0.10355348 -0.1382698 -0.021365944 -0.16512565 -0.1393454
0.20804133 0.095966704 -0.009296128 0.027252758 -0.019799903 0.11554652 0.15304087 0.064784415
-0.26896626 -0.06806096 0.11848421 0.18718201 0.17962901 -0.032847624 0.019025438 -0.056242965
-0.06769865 -0.31949994 -0.15867494 0.08380175 0.28699794 0.21944635 0.0522143 0.09194596
-0.14585665 -0.14152049 -0.012889072 0.19923799 -0.08050197 0.040527664 0.0008262702 -0.20977347
-0.16469392 0.0027984588 -0.031019177 -0.22396778 -0.1521558 0.006278074 0.002515592 -0.059651427
-0.1618819 -0.089042015 0.17779483 0.17686579 -0.1094197 -0.1693515 0.12517539 -0.2447546
-0.049200483 -0.04220336 0.028357603 0.24885446 0.23389873 -0.051928986 0.16903888 -0.09943942
0.059644636 -0.084421754 -0.12712564 -0.23484962 -0.24200621 0.029235983 -0.04005827 -0.09691975
-0.033313397 0.2346045 -0.07717736 -0.06825326 0.03672041 -0.22033867 0.08568535 -0.13431974
-0.235798 0.08959831 -0.18078876 0.115652785 0.25364536 -0.13962945 -0.20536594 -0.16308038
-0.042784005 0.06973711 0.10237962 0.0553576 -0.077519484 -0.11674218 -0.24377228 0.113667786
-0.060501035 -0.022636855 0.070971735 0.02954967 -0.3106475 -0.16174448 0.13532373 0.06869976
-0.22251213 -0.15485534 -0.16942112 0.18908802 -0.12164367 -0.18519433 0.0074920706 0.15772896
-0.11163768 0.09020053 -0.23729198 0.10174012 -0.20799255 -0.05443733 -0.23076278 -0.0011371607
-0.07554271 -0.05744077 0.11335343 -0.06771871 0.06812825 -0.14538191 -0.100711256 0.22420232
0.14337951 -0.27839616 -0.10526797 0.027529541 -0.09207753 -0.06973524 -0.18755351 -0.061139926
0.15101118 -0.016347602 0.019522397 -0.14728355 0.020192739 0.1602685 0.1812049 -0.07749376
0.05347028 -0.17226656 0.06991145 0.09953377 -0.06315361 -0.08370806 -0.052823592 0.049131237
0.09156597 0.2073691 -0.107575804 -0.20721239 -0.08637544 0.13059029 0.0142162945 0.11743104
-0.11352878 -0.06467997 -0.08921265 0.03594667 -0.12047425 -0.22287029 -0.09703366 -0.09471304
0.17044914 0.1225158 0.07798093 0.21848607 0.15690766 0.06391593 0.24196072 -0.03681258
0.10202161 -0.12774633 -0.07011797 0.15082666 0.017164309 0.016644552 -0.14090309 0.068038255
0.1939935 0.14882042 -0.23748913 0.14986421 0.16347302 -0.07545753 0.16402902 0.15971424

transformer.layers.0.0.fn.to_out.0.weight f4 [24, 24]
00000000: b8ab a23d 7439 143e 176d 23bd 122b 2dbd
00000010: 562d 2a3e a26a 363e a755 48bd e3bc 083e
00000020: f445 503d e43c d5bd a633 e9bd 31fa 84bd
00000030: 688b 1abd 9151 5a3e 9280 4d3e 6977 fabc
00000040: 9ad5 d2bd 784a b73d c142 e6bd fb05 d73d
00000050: 98a6 4f3d a383 293e 6e24 833e 171a c13b
00000060: 5bdc 2bbd fc13 f63d cfc3 26be d0b5 06be
00000070: 3ef3 593e 5f45 353e 70ea 213e c56b 023e
00000080: fb58 b43d 8fc3 80bc a161 1bbd a2f4 ce3d
00000090: fd9e b8bc d3f5 403e 0dfc b43c ebbd 39be
000000a0: 0d01 9abc 7d8c f73c 3879 80bd 64f4 483b
000000b0: 6f05 0bbe 5168 32be 1d49 c7bd 9075 0dbe
000000c0: 265d 41be 6ea5 4fbd ef64 3c3d d6d5 2a3d
000000d0: 92b3 cabc 8e99 6fbb f9b9 8a3d 4148 56be
000000e0: 2245 103e bf0c 5c3d 7e6f fc3d 8b00 1d3c
000000f0: 867a 5b3e eda1 92bd d655 bbbc 1716 653e
00000100: faab e1bd de23 633e 5a56 7fbe 1aff 53bc
00000110: cac1 443e 21d2 73be ca8f 4fbe 75d2 993d
00000120: 0556 80bc 7009 e13d 146f e03d 32ee d03b
00000130: ab3f 4ebd a02f 2f3e b670 1cbe 708b f1bd
00000140: a94d 523c b8a6 1c3e 6a63 f5bd 56a1 483d
00000150: 89cd edbd b1e0 87bd 9fda bcbd 7e32 9d3d
00000160: a37d 073e 9409 ce3b 7f29 0c3e 0f50 1f3e
00000170: 6f1e 17be 2df1 1cbe b653 62be 5797 11bd
00000180: b7a8 293e a132 0b3e 5739 413e 3521 c8bd
00000190: 865a 113c 4637 893a e44f 233a 0e8a 363d
000001a0: cda9 4abe 031c c93c ac17 323e 40b9 093c
000001b0: b666 c2bd d920 d13b 4a67 d4bd 90fe 353e
000001c0: d613 34bd d304 ef3c 4b5c 13be 404a 41be
000001d0: 1e8e 14be dc11 8ebd 1aa8 6abe 001a 0bbb
000001e0: 8a92 e0bd ff67 163d d77a a93c 9eed 87bd
000001f0: 3ade 403e ea11 d6bd 1657 313e ee5b c6bc
00000200: ba53 7b3d 8d2a 3cbd 5393 eebd c65f 01be
00000210: 37e1 563d 11eb 3c3e 1529 31be 0307 243e
00000220: f693 25be f1e2 37be aa0f b0bd bb7a 01bd
00000230: 10de a83d d592 c23d e17d 0fbe 5402 c93c
00000240: 0140 6f3d 96f6 583c 953c 153e 5642 09be
00000250: 66e4 80be 288d d7bd f5ec 0f3e 5d33 103e
00000260: 12dc 313e 066a 21be a174 32bc 82a2 21be
00000270: a0be fbbb e630 253d 1816 7f3b 7611 f93d
00000280: 36c1 0c3e e166 97bd 87a1 22bd bf4b 6ebd
00000290: 0774 573e 387e 143e 670e 4cbe babd 54be
000002a0: 6428 243e d6b3 6cbe 249e 54be cbda 2d3d
000002b0: 7e83 033e bb41 d6bd 8ea4 223d 5ccc 42be
000002c0: a3ee c3ba f9b3 4cbe a545 5cbe 6568 9e3d
000002d0: c9e8 0ebe dc5d 233e 339f e8bd d45a a1bd
000002e0: d846 333e 2698 1bbe d077 95bd 4530 493b
000002f0: c850 01be 094f 433e b1db 553e a71b 813d
00000300: d406 5abd 73d5 ef3d 848a 8fbd d0e2 ee3c
00000310: db77 163d fafb 163e 6031 033e c60c cbbd
00000320: 7c56 25be 577f a1bd 5024 a6bd 6ff6 c53d
00000330: d197 ca3d abe9 19be 43d5 3b3c 0b86 0dbe
00000340: 13c3 e3bc b00e d83c ae6f 15bd 03e6 0b3d
00000350: 7b89 443d 96bc b93d bbfb 1d3e 1e31 503d
00000360: fc44 c53c 5ad1 88bd 4833 143e 9af8 8d3d
00000370: e373 7abd 1a0b 333e 4e86 fbbd eee5 ce3d
00000380: 8a58 e63d e145 163d fb80 003e 919c 833e
00000390: c5a8 063e 69e9 ef3d df01 2e3e c36a b43c
000003a0: 82f6 253d 2c65 0dbe a4d2 873a f23a 44be
000003b0: ebc0 e0bc 774c 1fbe f9cc 6f3d b5cd 853d
000003c0: fb84 34be ee05 ea3c 6030 2b3d 474d aebd
000003d0: 7745 6cbd e00c ad3c 50bb e53d 0552 113a
000003e0: 582b 60be 8106 d9bc 68d3 a9bd 2f21 10be
000003f0: f181 2d3e 0cc6 143e 7958 313c 1749 f1bd
0.07942909 0.14475042 -0.039898958 -0.042277403 0.16618857 0.17814115 -0.04890981 0.13353305
0.050847962 -0.104120046 -0.11386804 -0.06493033 -0.037730604 0.21320178 0.20068577 -0.030574517
-0.102946475 0.08949751 -0.11243201 0.104991876 0.050695986 0.16554122 0.2561373 0.0058930027
-0.041958194 0.120155305 -0.16285633 -0.13155293 0.21284196 0.17702244 0.15812087 0.12736423
0.08806034 -0.01571825 -0.037934903 0.10105254 -0.022536749 0.18843774 0.022092843 -0.18138854
-0.01879933 0.030218357 -0.06273121 0.0030663246 -0.13576292 -0.17422606 -0.09730742 -0.13814378
-0.1888319 -0.050694875 0.045994695 0.041707836 -0.024743829 -0.0036560032 0.06773753 -0.20926
0.14088872 0.053723093 0.12325953 0.009582649 0.21433458 -0.07159791 -0.022868078 0.22371708
-0.1101913 0.22181651 -0.24935284 -0.012939239 0.1921455 -0.23810627 -0.20269695 0.075108446
-0.015666017 0.10988128 0.109586865 0.0063760513 -0.050353687 0.17108011 -0.15277371 -0.11794174
0.012835898 0.15297973 -0.11981852 0.048981987 -0.11611468 -0.06634653 -0.09221386 0.07675646
0.1323152 0.006287763 0.13687705 0.15557884 -0.14757703 -0.15326376 -0.22102246 -0.03554472
0.16568266 0.13593532 0.1886953 -0.09771959 0.00887168 0.0010468743 0.0006229861 0.044565253
-0.19791336 0.02454949 0.17391843 0.008405983 -0.09492247 0.0063820896 -0.10371263 0.17772889
-0.04396423 0.029177105 -0.14390676 -0.1887598 -0.14507338 -0.06937 -0.22915688 -0.0021225214
-0.1096545 0.036720272 0.020688457 -0.06637119 0.18834773 -0.104526356 0.17318377 -0.024213757
0.061359145 -0.045939017 -0.116491936 -0.12634191 0.052460875 0.18449046 -0.17300828 0.160183
-0.16169724 -0.17957665 -0.08596738 -0.031611186 0.0824548 0.09500662 -0.14012863 0.024537243
0.05841065 0.013242384 0.14573891 -0.13404211 -0.25174254 -0.1052497 0.14055236 0.14082094
0.17369106 -0.15763101 -0.010892064 -0.15784648 -0.0076826364 0.040329836 0.003892308 0.121615335
0.13745579 -0.073926695 -0.039704826 -0.058177706 0.21040355 0.14501274 -0.19927369 -0.207755
0.16031033 -0.23115477 -0.20763451 0.042444985 0.12843129 -0.10461756 0.039707713 -0.1902327
-0.0014948439 -0.19990529 -0.21510942 0.077347554 -0.13955988 0.15953773 -0.1135849 -0.07878652
0.17507493 -0.15194759 -0.07298243 0.0030698937 -0.12628472 0.19073118 0.20884587 0.063041024
-0.053229168 0.11710634 -0.07008842 0.029160887 0.036735397 0.14744559 0.12811804 -0.09914546
-0.16146272 -0.07885616 -0.08112395 0.09666144 0.09892238 -0.15030544 0.01146442 -0.13820665
-0.02780298 0.026374191 -0.03648346 0.034154903 0.047982674 0.09069173 0.15428059 0.05082809
0.024080746 -0.06680556 0.14472687 0.069321826 -0.061145674 0.17484704 -0.12281476 0.10102449
0.11247356 0.036687735 0.12549202 0.25705388 0.13150318 0.11714441 0.16992901 0.022023564
0.04051829 -0.13808125 0.0010362458 -0.19163111 -0.02743574 -0.15556513 0.058545087 0.06533376
-0.17628853 0.02856728 0.04179418 -0.08510833 -0.057683434 0.021124303 0.11217368 0.0005543533
-0.21891534 -0.02649236 -0.08292276 -0.14075159 0.169441 0.14528674 0.010824316 -0.11781519

transformer.layers.0.0.fn.to_out.0.bias f4 [24]
00000000: 8098 333e d44d 95bd b03f 6fbd 824d 3ebe
00000010: beac 04be e126 0f3e 10ef 9a3d d8bd d4bd
00000020: 77dc 1abe dff5 e03d b046 b3bd 5084 173e
00000030: 5880 7ebd ea76 3abe b62b adbd c660 0abe
00000040: 499e 183d 6379 4d3d a9f3 993d b89f e4bb
00000050: 5ade 453e 3318 3a3e f737 073e 4141 0dbc
0.17538643 -0.07290235 -0.058410347 -0.18584254 -0.12956521 0.13979675 0.07565129 -0.10387772
-0.15123163 0.10984396 -0.08753717 0.14796567 -0.062134117 -0.18209425 -0.08455603 -0.13513479
0.037260327 0.05016459 0.075171776 -0.006977048 0.19323102 0.18173294 0.13204943 -0.008621515

transformer.layers.0.1.norm.weight f4 [24]
00000000: ec2f 843f f97c 823f e972 7f3f c9f8 7f3f
00000010: a743 773f a44b 853f 1bb8 833f 17b2 853f
00000020: b161 7d3f adcb 7a3f c7c8 813f b832 803f
00000030: b77a 913f 467f 7d3f 3033 8d3f 3227 843f
00000040: d715 7f3f 92ab 853f 4cfe 7f3f 3bdd 7b3f
00000050: b4d4 843f f5d8 8a3f 0d8c 863f 64c7 843f
1.0327125 1.0194389 0.99784714 0.9998899 0.96587604 1.0413709 1.029056 1.0444974
0.9897719 0.97967035 1.0139397 1.0015478 1.1365575 0.9902233 1.1031246 1.0324461
0.996427 1.0442984 0.999974 0.98384446 1.0377412 1.084746 1.051149 1.0373349

transformer.layers.0.1.norm.bias f4 [24]
00000000: f3aa 883c de00 8b3c 4391 b63b 8ce2 93bc
00000010: b0ae 43bd 0830 f93b 2c87 b0b7 5876 c2bb
00000020: e168 86bc 3ea1 09bd 2b74 793c 41c1 3c3b
00000030: 3501 573c 60e2 dcbc 7bc6 1ebc 1fc8 48bc
00000040: 1a4d 973b 4c29 b7bc 1e76 abbc e394 4a3c
00000050: e928 fc3b 0c0e 2e3c acb0 163c 99f4 40bc
0.016683077 0.016968187 0.0055715158 -0.018052362 -0.047774017 0.0076046027 -2.104378e-05 -0.005934518
-0.016407432 -0.03360104 0.0152254505 0.0028801712 0.013122846 -0.026963413 -0.009690876 -0.012254744
0.0046173455 -0.02235856 -0.020930346 0.012364599 0.0076953066 0.010623466 0.009197395 -0.011777067

transformer.layers.0.1.fn.net.0.weight f4 [144, 24]
00000000: f53b 743d 83fe 1bbe c3e5 e43d 9c25 3abe
00000010: f55d aebc 65c3 f13d b624 36be 8b4b 41be
00000020: bdd3 153e d238 0abe 8980 0e3d b308 34be
00000030: c8ff cc3d ae56 693e 101b e03d bba3 96bd
00000040: e2f2 0c3e 949d 06be 76f7 07be 0671 7dbd
00000050: ad5a 0abc 1f94 4abe 55ce 9fbd 306a d5bc
00000060: 3efe c43c d01f 20bd c697 97bd a08f 113e
00000070: 88f4 243e b4ea 353d b2c4 97bc 15b4 05bd
00000080: d9f5 203d 17d3 ae3d 9fdc db3d 65a6 b2bd
00000090: e12d b4bc 8bce 933d 8ef7 383e b9b6 40be
000000a0: fead 143e 948b 96bd c1a5 44bd e10a 963d
000000b0: a3f1 b13c 7af7 1abe 2b21 18be 50e6 de3d
000000c0: 3d51 9b3b c328 1bbe dd95 61bd df77 93bd
000000d0: 5df9 0cbd 6ee4 bd3d 19f4 133e ea47 4dbe
000000e0: bc2b 9f3d 5333 0bbd fac1 b73d 2343 d5bd
000000f0: 466e 7c3d aa79 2d3e efb6 96bc 6cd8 4ebe
00000100: 8cf4 893d acf5 b4bd f7a3 2d3e ff9b 11be
00000110: 5903 6c3e ac9a 8a3d 686e 35be 4f8f 1fbd
00000120: 361d fc3c 2159 55be ccab 18bc cad0 29bd
00000130: d5df 39be ce6e 72bd f55a 383c 4599 fdbd
00000140: 91fe 22be 19b0 c3bd 2c78 50be 2f67 ac3d
00000150: 40f8 67bd 63a5 d83c aad6 ebbd 2bba 9ebd
00000160: 9bab 43be bfa7 41be 1833 22be e6ca 05be
00000170: 81dd 2bbe 6229 e1bd f9e2 cfbb 2b74 033e
00000180: 6cc9 1abe 25e1 f8bc 1210 513d f021 ecbd
00000190: 7b22 89bd ea41 493e 3470 32bd 7006 4bbe
000001a0: 9131 f4bd 4697 0a3e 6460 8bbd 1b0f 263e
000001b0: e04f 2abe a964 253e 8b53 0abe 4218 f73d
000001c0: 3ddc 19bd 2f29 113e 716c 14be 6767 2a3c
000001d0: a6fe 8dbd ef13 7e3d ece4 773d 0112 16be
000001e0: 2144 06bd c40d 6c3d 1ba3 b83d dad0 19bd
000001f0: b466 773d fa36 a13d 579d f5bd e266 ebbc
00000200: f328 84bc 2d58 063e 571f f6bb 1c9c c5bd
00000210: 0935 6c3d f7e7 98bd 6d54 f73d 43d8 61bd
00000220: 5a03 343e 3631 223d fe21 21bd 81b4 f1bd
00000230: 6918 45be 4136 15be e186 1dbe 1f3a a1bd
00000240: 30e0 993d f0d4 04be d036 753d f509 763c
00000250: 5c5c 83bd 1b8a 453e e578 64bd c75f 163e
00000260: f3a5 883d 9ebc 193e e735 3b3d bb34 3d3e
00000270: c5cb b2bd 64e6 35bb edc6 5dbe 2308 ddbb
00000280: 8928 c43d 4b67 3dbd c5c8 d23c 7d95 6a3d
00000290: 9e3d e8bd 6059 693c 4c58 db3d 6f66 0ebe
000002a0: 83d4 35be 0a70 9fbd 3532 573d c626 eabd
000002b0: 647c 1bbe f816 0a3d 2a6e 54be fa38 213d
000002c0: d5f6 adbd 71ef 2d3e 9924 f1bd 6179 d53d
000002d0: b8c9 90bd e456 2bbe 6a63 e2bd ef64 42be
000002e0: 2bb9 373e dc50 a23c 24bf 94bb fb8a 0cbe
000002f0: fc68 553e 2a25 0f3c bbd4 513d c4f5 833d
00000300: 25fc 4a3e ed32 59bc 9baf d1bd 3e67 623d
00000310: 61d3 2d3e e6d4 b6bb eb62 083e 2a74 3dbc
00000320: a625 3a3e d5dd 0abe 0cc9 45bc 2077 d9bd
00000330: 4750 0e3e 566d 9e3c b855 19be 483f fe3d
00000340: 25ef 453d 5be4 fc3d ce44 48be 9fe2 8c3c
00000350: 3f57 013e 604d 0cbe 6d29 e93c cb71 0e3e
00000360: de12 ebbd 5ba6 5fbd bb2a 513d 8b8e bb3c
00000370: 5a14 473d 0aff acbd 3a7d 4d3e 78e2 c03d
00000380: f18f 23be 6afa 423e 75b1 26bd 4109 ce3d
00000390: 82f8 c7bd 4b1c 673e 9f79 c0bd acfc 4f3e
000003a0: 41b7 2d3e 0ba7 1c3e 9202 15be 14f6 db3d
000003b0: f382 87be 9380 863a f060 3abe a407 09be
000003c0: d96a 1c3e edc0 6ebd 3c0a a1bd 5d17 73bd
000003d0: aa11 15be 6749 5cbd eade 453d 6365 6bbd
000003e0: 64e9 94bc 3cc5 8ebd 02f0 9abd 7056 12be
000003f0: 72f0 473c eee0 3cbe 7274 5abe 0d99 09be
0.059627492 -0.15233807 0.11176636 -0.1817841 -0.021285037 0.11804847 -0.17787442 -0.18876474
0.14631553 -0.13498238 0.03479055 -0.17581443 0.10009724 0.22786972 0.10942662 -0.07355448
0.13764527 -0.13146049 -0.13277993 -0.061875366 -0.00844447 -0.19783066 -0.078030266 -0.02605161
0.024047013 -0.03909284 -0.07401995 0.14214945 0.16108906 0.044413283 -0.018526409 -0.032642443
0.03929696 0.08536356 0.107354395 -0.087231435 -0.021994533 0.07217129 0.18063185 -0.18819703
0.14519498 -0.07350841 -0.048009638 0.07326294 0.021721667 -0.15133467 -0.14856403 0.108837724
0.004739909 -0.15152268 -0.05507456 -0.07200598 -0.0344175 0.09272085 0.14448585 -0.20046964
0.077720135 -0.033984493 0.08972545 -0.10413196 0.061628602 0.16940942 -0.018397776 -0.20199746
0.06736097 -0.08835921 0.16957079 -0.14219664 0.23048152 0.067677826 -0.17717898 -0.03895503
0.030775648 -0.20834781 -0.009318303 -0.041458882 -0.18151791 -0.059187703 0.011252155 -0.123827495
-0.15917422 -0.09555072 -0.20358342 0.08418118 -0.056633234 0.02644605 -0.11515553 -0.077503525
-0.19108431 -0.18911646 -0.15839803 -0.13065681 -0.16783716 -0.10994221 -0.006344196 0.12837283
-0.15115899 -0.030380795 0.051040716 -0.115299106 -0.0669603 0.1965405 -0.043564036 -0.19826674
-0.119235165 0.13534269 -0.068054944 0.162167 -0.16632032 0.1615168 -0.13508432 0.12065174
-0.03756355 0.14175867 -0.14494492 0.01040063 -0.06933336 0.06203073 0.06052105 -0.14655305
-0.032779817 0.057630315 0.09015485 -0.037552692 0.06040068 0.07871814 -0.11992901 -0.028735582
-0.016132807 0.13119574 -0.00751106 -0.09648916 0.057667766 -0.07466119 0.1207665 -0.055137884
0.17579404 0.039597712 -0.039339058 -0.118020065 -0.19247593 -0.14571477 -0.15383483 -0.07872414
0.075134635 -0.12971854 0.059866726 0.015017022 -0.064141005 0.19290964 -0.055779357 0.14684974
0.06672277 0.15013358 0.045705702 0.18477146 -0.08730272 -0.0027755732 -0.21657915 -0.0067453547
0.09578044 -0.046241086 0.0257305 0.05727147 -0.113398775 0.0142425 0.10710201 -0.13906263
-0.17756848 -0.07785042 0.052538116 -0.11433177 -0.1518417 0.03371331 -0.20745149 0.039360978
-0.08494345 0.16985871 -0.117745586 0.10423542 -0.07069725 -0.16732365 -0.11054118 -0.18983816
0.1794173 0.019813947 -0.0045393873 -0.13724892 0.2084083 0.008736888 0.051228266 0.064433604
0.19822748 -0.013256771 -0.10238572 0.05527424 0.16975166 -0.0055795787 0.13318984 -0.01156334
0.18178424 -0.13561185 -0.012071859 -0.106184244 0.13897811 0.019339245 -0.14974105 0.12414414
0.04832377 0.12348243 -0.19557497 0.017197905 0.12630938 -0.13701391 0.028462136 0.13910596
-0.11478208 -0.05460201 0.05106614 0.022895118 0.048603393 -0.08447082 0.20067301 0.094181955
-0.15972878 0.19040838 -0.04069658 0.10060359 -0.09764196 0.22569387 -0.093981974 0.2031123
0.16964437 0.15298097 -0.14551762 0.10740295 -0.26467094 0.0010261707 -0.18201041 -0.13381821
0.15275134 -0.058289457 -0.0786328 -0.059348453 -0.1455752 -0.05378094 0.04830829 -0.057469737
-0.018177696 -0.06971213 -0.07565309 -0.14290786 0.012203323 -0.18445179 -0.21333483 -0.1343729

transformer.layers.0.1.fn.net.0.bias f4 [144]
00000000: 4c05 163e 7485 53bd 69e6 1fbd 44ce 4139
00000010: 0ef4 683c eefb 09be ff81 98bd 54af 9cbd
00000020: 4178 51be d5bb 8e3c 447b 1b3e 513d 82bd
00000030: 6dcb 5bbd 9d1c 2b3e 5678 d1bd 77d3 5eb9
00000040: 6a53 8dbd af70 b4bd ecd8 3cbe 48e3 2ebe
00000050: 4591 443e 497e 15be 14bf 17be e33f b03a
00000060: 2244 dcbd 0a21 c13c 403a 22be 4cb3 7f3d
00000070: fb8b 2f3d 6a86 e43d 0768 6f3c f1b2 353d
00000080: fa33 f93c 8d86 fe3d adab 9d3d 85aa 3cbe
00000090: ba62 0d3d 9ee7 38be 7bd4 95bd ba65 8f3a
000000a0: 362d 4d3d e5c4 3f3e ca2e 953d 7e8c 933d
000000b0: 64bb 323e bc34 1f3e 349c 10be 1f5a 293e
000000c0: 4def ae3c 0105 0f3e 0439 083d ac77 0f3e
000000d0: 24a8 1ebe 1202 d9bb b07b 8dbd 0e86 d5bd
000000e0: aedf 4e3c 3fcb 20be 03be 23be 8bd8 35be
000000f0: fbb9 afbd 6c85 8dbd ed15 0b3e 9029 24be
00000100: 53e2 e5bc 73fa fc3d d96f ac3d ea60 023d
00000110: b158 9d3d 620c 0cbc cbfe b03d 27ff 203e
00000120: 81f6 b93c 4971 123e aeef 3f3e 1660 28be
00000130: 72aa 283e 0470 f43d d94b 01bd 84e7 343e
00000140: 1410 e2bc 6ce3 4bbe 64f6 45bd a81c a63d
00000150: 0e3a 663d 3768 693e 8b85 0e3e d047 653d
00000160: 3938 183c b057 49be 8c01 43be 60c8 f039
00000170: a571 c63d b99d a4bd 52c4 f9bd 90e7 c5bd
00000180: 691f 303e cc9b 3fbe 186e bc3d d753 29be
00000190: af53 6a3d b40c fbbd 6bd8 e33d 299b c43d
000001a0: 837e 57be af16 aabd ca6b 0e3e a127 323e
000001b0: 578f 0bbe 42bd 3ebd 688e d83a 4ffa 05be
000001c0: 5c67 b9bd 744e d33d 3a7d 543e f10b 1d3e
000001d0: b128 27be 67e2 b7bd 33bd ddbc a85c 26be
000001e0: 1d8e 223e 9c40 2cbe 824a 073d 23ce d0bc
000001f0: 862b fc3c a8ed 59be 6f11 0fbd 1b8b b5bd
00000200: b71f 18be a83b 5dbd d545 17be eb5b 233e
00000210: 6565 8a3c cca2 99bd e8f0 5bbd 4e4d c13d
00000220: a460 3f3e 3a64 023d ec65 0cbe 1105 9bbd
00000230: 2008 20be 6d98 41bd ff33 9fbd a9aa 65be
0.14650458 -0.051640943 -0.039038096 0.00018482754 0.014218343 -0.1347501 -0.0744667 -0.07650629
-0.2045603 0.01742355 0.15183741 -0.063593514 -0.0536608 0.16710134 -0.102280304 -0.00021250347
-0.069006756 -0.08810555 -0.18442124 -0.17078888 0.19196041 -0.14598955 -0.14818984 0.0013446774
-0.10755183 0.023575325 -0.15842533 0.06242685 0.042858105 0.1115845 0.014612204 0.044360105
0.030420292 0.12428007 0.0769876 -0.18424423 0.03451798 -0.18057105 -0.07315918 0.0010940351
0.050091945 0.18727453 0.07284315 0.07204531 0.17454296 0.1554746 -0.14122087 0.16538285
0.021354342 0.13966753 0.0332575 0.14010495 -0.15493828 -0.0066225613 -0.06908357 -0.104259595
0.012626572 -0.15702532 -0.15990452 -0.17758386 -0.08580395 -0.06910214 0.13582583 -0.1603148
-0.028062021 0.12352457 0.08419771 0.031830706 0.07682932 -0.008547874 0.08642348 0.15722333
0.02270055 0.14301027 0.18743774 -0.16442904 0.1647127 0.11935428 -0.031566475 0.17666441
-0.027595557 -0.19910973 -0.04833068 0.081109345 0.05620771 0.22793661 0.1391813 0.05597669
0.009290748 -0.19662356 -0.19043559 0.00045925658 0.09689645 -0.08037896 -0.12195648 -0.09663308
0.17199482 -0.18711776 0.09200686 -0.16535889 0.057208713 -0.12258282 0.11125263 0.09599907
-0.21044354 -0.08305108 0.13908306 0.1739793 -0.13628899 -0.04656721 0.0016521933 -0.13083766
-0.09052917 0.10317698 0.20750895 0.15336587 -0.16324116 -0.0897873 -0.027067756 -0.16246283
0.15874524 -0.16821522 0.03303004 -0.025488919 0.030782472 -0.21282065 -0.034928735 -0.08864423
-0.14855848 -0.05401197 -0.14772733 0.15953033 0.016894052 -0.07501754 -0.053696543 0.09438573
0.18689209 0.031833865 -0.13710755 -0.07569326 -0.156281 -0.047264505 -0.07773589 -0.22428383

transformer.layers.0.1.fn.net.3.weight f4 [24, 144]
00000000: 929d 03bd 288c 243d b9bf a7bc 3076 3dbd
00000010: 608f 1dbc 7087 22ba b5c4 9fbd f4ad 4a3d
00000020: 8731 893d 49f9 2e3c 56b9 803d 2e94 6fbd
00000030: f3cb 8a3d 6c2d 09bd c952 b23d dc77 22bc
00000040: 5c46 26bc f8f7 b3bd 531a a8bd fd87 f9bc
00000050: 148f 1cbd 020a 093d ba4c d1bd e334 6f3b
00000060: e890 0bbd 9a1f d9bd f61d 88bd 30e0 06bd
00000070: 8602 98bc 70fa babd fe4f 093d 2dcb f7bd
00000080: ce81 a03d 8388 b1bb 31a6 9abd 2b58 84bd
00000090: 35e1 9a3d 35aa 54bc 3725 8bbb 4cae 993d
000000a0: da6e fcbd 1824 913d 4316 88bd 99b6 25bd
000000b0: bfd8 14bd 6270 2c3c a45a 9ebd 0222 8d3d
000000c0: e007 033d 2c3e 8fbd 316b ec3b 5278 95bc
000000d0: c5c5 ca3c f07d 1dbe 5cd5 8dbc 71e8 2abd
000000e0: f6a2 333d 77d6 dfbc 95b3 74bd 71e9 c1bd
000000f0: 78b2 243d 7e37 e6bd 0f53 5fbd 1138 f8bc
00000100: c7c8 26bd 717a ca3b 0883 90bd d05f c23d
00000110: c2a2 b5bd 0648 91bd eee8 4cbc dfa4 ae3d
00000120: fe21 aebd c729 b13c 14ba e7bd c9bf d53c
00000130: 1a50 043e 3994 93bd 3066 04bd bf75 d43d
00000140: ee30 b1bd a834 38bc 7c64 5bbc 40b2 1e3d
00000150: 8c27 b2bd 0adf 543d 1395 edbc 76de 8dbd
00000160: e9f4 a43d 7cb3 b03d 6e19 723d 8d58 9dbd
00000170: ee93 993d d723 88bd 2029 dbbd bc43 e3bd
00000180: 3e1e bb3d 7da6 65bd 967e 5fbc 6bcb 9c3b
00000190: 5130 c23c 055f a3bd d81d f6bd 7078 b43c
000001a0: c973 393d aed6 86bd c4fe 78bd 3d43 5c3d
000001b0: bee4 583d a7e1 e53d 9cfb 6cbc c495 a03c
000001c0: 1102 0d3b 85ab 82bd d447 413a 2435 02bd
000001d0: fa4a eebb 7749 63bd ac19 483c 4c79 19bd
000001e0: e1e9 a2bd e894 703d eaae af3c 2758 e4bc
000001f0: 1a11 27bd 9e5e ba3c e695 a43d 1479 5e3d
00000200: b8a6 42bd 52da 30bd 36f8 083d 31bd 88bd
00000210: 2371 2d3d d009 783d b1f5 b2bd 7e66 28bd
00000220: 2af9 023c 9129 f9bc fbea 8abd 7bc4 7e3c
00000230: 0181 aa3d b61f 97bd b38e a03d 0b6f ddbd
00000240: 61ac 7e39 6b80 b43c 3a3e 6bbd c925 55bd
00000250: 0940 253d 2afe 9d3d b967 69bd c286 983d
00000260: a5bd cb3d 1a06 42bd d4f0 df3b bf08 3e3d
00000270: e548 ab3a e53c 8d3c c4a7 743d 90af a63d
00000280: 39eb b23d 45d0 3fbd 204b 56bd ee3f 953d
00000290: d910 97bc 79bd efbc e43a ad3c a88c aabd
000002a0: afe2 c43d a75c 82bc c423 9e3d c282 33bd
000002b0: dfc2 9c3d 1a4c 933d 53f2 8abd 14f2 813d
000002c0: a504 edbc dd9f f23c f54c 3d3c 2f3e 89bd
000002d0: 0fef ed3b ba8a 343c b47e 82bd 97d2 363d
000002e0: 7a3f 2cbd e9dd 523d 5f63 53bd c65e 78bc
000002f0: 9073 783d 3b8d 513d c65d c53d 92ca e2bc
00000300: 93fb bb3c d8a6 f2bc 6ff1 30bb 3dff 753d
00000310: 0167 823d c560 9d3d 73af 5f3c 6eb1 89bd
00000320: 6233 233d c63d fa3b b042 623d f47f b23d
00000330: 2260 65ba 95b0 9d3d d652 48bd 4188 b83c
00000340: 4948 a1bd 764d babd 5edb 583c 070b b0bc
00000350: f1bf 083d ad7d 0bbc dc77 91bd 8462 483d
00000360: 4c52 16bc e40e 6b3d 838e 673d 3198 3a3d
00000370: 1e12 44bd c509 69bd ee9f 04bc 6e7a 893b
00000380: 5ec4 62bd a5c7 11bd c4e6 22bd db82 1d3d
00000390: 28fc 353c cdf7 0fbd 77b9 87bd d823 a13d
000003a0: 41b1 18bd 971e 36bb b717 31bd 6322 6d3c
000003b0: f029 1f3d 1f7b 4ebd 08f6 c3bb 2f65 9a3d
000003c0: ddce 943d cf1c bd3d 2f5b ad3d 5ff1 1d3c
000003d0: 6197 08be 6580 1a3d 42cc 0e3d 91f3 05bd
000003e0: 1575 b3bd dc24 5e3b f18e 633d 4e24 fbbc
000003f0: d2b2 b2bc e3de 88bd 5d9a af3a 3cb6 82bd
-0.032132693 0.040172726 -0.020477163 -0.04625529 -0.009616703 -0.00061999913 -0.07801191 0.0494823
0.066989 0.010679551 0.0628535 -0.058490925 0.067771815 -0.033490583 0.08707196 -0.009916272
-0.010148611 -0.08787531 -0.08208146 -0.030460352 -0.038222387 0.03345681 -0.102197126 0.0036500029
-0.03407374 -0.10601731 -0.066463396 -0.032928646 -0.01855589 -0.091297984 0.033523552 -0.120992996
0.07837258 -0.005417885 -0.0755123 -0.06462129 0.07562486 -0.012980034 -0.0042463797 0.075039476
-0.12325831 0.070869625 -0.06644871 -0.04045734 -0.036339518 0.010524841 -0.07732132 0.06891252
0.031989932 -0.0699428 0.0072149266 -0.01824585 0.024752507 -0.15380073 -0.017313652 -0.04172558
0.043856584 -0.027323944 -0.059741575 -0.094683535 0.040209264 -0.11241053 -0.05452257 -0.030300172
-0.04071882 0.006179147 -0.07056242 0.09490931 -0.08868934 -0.070938155 -0.012506707 0.085275404
-0.08502577 0.021626366 -0.113147885 0.026092427 0.12921181 -0.072060056 -0.032324016 0.10374021
-0.08651911 -0.011243023 -0.013390657 0.03874421 -0.08698949 0.05197052 -0.029001748 -0.06927197
0.080545254 0.08627984 0.059106283 -0.07682905 0.074989185 -0.06647461 -0.10701203 -0.11096904
0.091366276 -0.05606698 -0.01364102 0.0047849915 0.02370468 -0.07977108 -0.12017411 0.022030085
0.045276437 -0.06583916 -0.06078984 0.05377506 0.05295252 0.112246804 -0.014464285 0.019602664
0.0021516124 -0.06380371 0.0007373069 -0.03178896 -0.0072721215 -0.055489983 0.012213152 -0.037469193
-0.07954765 0.058735758 0.02144571 -0.027874066 -0.040787794 0.022750195 0.08036403 0.054314688
-0.047522277 -0.043176956 0.033439837 -0.066767104 0.042344224 0.060556233 -0.08738268 -0.04111337
0.007993976 -0.030415328 -0.067831 0.015549774 0.08325387 -0.07379095 0.07839718 -0.108121954
0.00024287544 0.02203389 -0.05743239 -0.052037988 0.04034427 0.077144936 -0.056983683 0.07447578
0.09948281 -0.0473691 0.006834129 0.04639506 0.0013067989 0.01724095 0.059730306 0.08138955
0.087362714 -0.04682948 -0.05231774 0.07287584 -0.01844065 -0.029265152 0.021146245 -0.08327609
0.09613549 -0.01591332 0.077216655 -0.043825872 0.07654356 0.071922496 -0.06784501 0.06345001
-0.028932879 0.029617244 0.0115539925 -0.06701314 0.007261164 0.011019403 -0.06371823 0.044634428
-0.042052723 0.05148116 -0.05160844 -0.0151593145 0.060657084 0.05116008 0.096370265 -0.027684484
0.022947108 -0.029620573 -0.0026999374 0.060057867 0.06367303 0.07684473 0.01365267 -0.06723295
0.039843924 0.0076367585 0.05523938 0.08715811 -0.00087499816 0.07699696 -0.048907124 0.022525908
-0.078751154 -0.09096806 0.013235895 -0.021489633 0.033386175 -0.00851385 -0.071029395 0.048922077
-0.009174895 0.057387248 0.056532394 0.045555297 -0.04786884 -0.056894083 -0.008094771 0.004195503
-0.05536305 -0.035590786 -0.039770856 0.03845487 0.011107482 -0.03514843 -0.066271715 0.07868165
-0.037278417 -0.002778923 -0.043235507 0.01447353 0.038858354 -0.050410386 -0.005980257 0.075388305
0.072660185 0.092340104 0.084646575 0.009640067 -0.13338996 0.037720103 0.034862764 -0.032702986
-0.08762566 0.0033896482 0.05555624 -0.03065696 -0.021813784 -0.06683137 0.0013397444 -0.06382415

transformer.layers.0.1.fn.net.3.bias f4 [24]
00000000: cde9 153d df51 463d 4cf5 503d d99f 933d
00000010: 2933 3c3c 69eb 023d 7f38 2c3d 1ca9 04bd
00000020: cd0d e1bc 6a5e 713a e6eb c03b f9f2 3f3d
00000030: 8e30 afbd 9f66 7f3d 8a14 fcbc f376 823d
00000040: 6ff2 03ba fb06 d7bb e951 d43c 1f04 75bd
00000050: f657 d73c 40eb 323d 7c99 00bd 11e9 a83b
0.036599923 0.048417922 0.051015183 0.07208223 0.011486807 0.031962786 0.042046066 -0.032387838
-0.027472401 0.0009207489 0.0058874963 0.046862576 -0.08554183 0.062353726 -0.030771513 0.06370344
-0.0005033379 -0.0065621114 0.025917964 -0.059818383 0.02628706 0.043681383 -0.031396374 0.005154737

transformer.layers.1.0.norm.weight f4 [24]
00000000: 3358 863f d250 953f 1555 873f f76a 7c3f
00000010: 5935 873f c681 883f 3830 8f3f 73f3 813f
00000020: 560a 833f 48c9 853f 2406 863f 0797 893f
00000030: 40a3 883f ef84 833f f119 853f f3fe 763f
00000040: 18b6 863f 8e5e 883f 3987 813f b664 7e3f
00000050: acb9 863f 2a7e 833f 0f1b 7f3f b580 813f
1.0495666 1.1665289 1.057284 0.98600715 1.0563155 1.0664604 1.118659 1.015242
1.0237529 1.0452051 1.0470624 1.0749215 1.067482 1.0274943 1.0398542 0.9648277
1.0524321 1.0653856 1.0119392 0.9937242 1.0525413 1.0272877 0.99650663 1.0117403

transformer.layers.1.0.norm.bias f4 [24]
00000000: d953 11bc 67ef 2e39 4c95 42bc 492b 81bb
00000010: cc93 a93c 29a5 64bc eb1d 3bbc cf85 8f3b
00000020: 3853 4d3b c036 043d 5bb6 3c3c c750 a6ba
00000030: 64a9 f8ba 04eb 8e3b 2e1e c1bc 8117 a03c
00000040: 66ca c93b d9a7 75bc 810b 42bc d0c2 693a
00000050: 36ba 5c3c 54f1 003c 4be3 b93a e06f 3dbb
-0.0088700885 0.00016683117 -0.011876415 -0.0039419276 0.020700358 -0.013955393 -0.011420707 0.004379965
0.003133012 0.032278776 0.011518086 -0.0012688868 -0.0018971381 0.004361512 -0.023573961 0.019542458
0.006158161 -0.014993631 -0.011843563 0.0008917274 0.0134721305 0.007870037 0.0014182118 -0.0028905794
