ViT/ViT1/8 V train 0.791 V test 0.790 ABS 1/model_bestV.pt (torch, 414407 bytes, 74 tensors)

pos_embedding f4 [1, 19, 36]
0	0x3fafbb8d	1.3729111
1	0xbef9c46b	-0.48782668
2	0xbfab9b7d	-1.3406826
3	0xbfa42ae6	-1.2825592
4	0x3fe46446	1.7843101
5	0x3f18594f	0.59511274
6	0xc02353a5	-2.5519803
7	0xc00d860b	-2.2113063
8	0xbfb20c0a	-1.3909924
9	0x3e6a1e0b	0.22863023
10	0xc05026e9	-3.252375
11	0xbf636c7f	-0.88837427
12	0x3fd9ef81	1.7026216
13	0x3fcbdf03	1.5927433
14	0xc01a4d42	-2.4109654
15	0xbe8520f7	-0.26001713
16	0xbfaf3ba1	-1.3690072
17	0x3f032e3e	0.51242435
18	0xbfa4da13	-1.2879051
19	0x3f9896e4	1.1921048
20	0xbe8375b7	-0.25675747
21	0x4020f8db	2.515189
22	0xbeb88362	-0.36037737
23	0x3ebacf52	0.36486298
24	0x3e5202d7	0.20508896
25	0x3fcf1279	1.6177512
26	0x4007741f	2.1164625
27	0x3f528927	0.8224053
28	0x3fecddce	1.850519
29	0x403573b3	2.8351867
30	0x3f3f5226	0.74734724
31	0x3fc2d4fc	1.5221248
32	0x3f3b19cc	0.7308624
33	0x4005ab30	2.0885735
34	0xbe9f0783	-0.31060418
35	0x3f9eae6b	1.2396978
36	0xbf05e746	-0.5230602
37	0xc01bdf21	-2.4354937
38	0xc02d27f4	-2.7055635
39	0xbf6bfee4	-0.9218581
40	0x4012604f	2.2871282
41	0xc0061f54	-2.095662
42	0xbd71e983	-0.059060585
43	0xbf903431	-1.1265928
44	0xbf2688e7	-0.65052646
45	0x3dd4b9e0	0.10387015
46	0x401aa1d4	2.4161272
47	0xc06c2c45	-3.690202
48	0xbfd58f52	-1.6684363
49	0x400ab20d	2.1671174
50	0x4007e870	2.1235619
51	0x3d397c3c	0.045284495
52	0xc02255d1	-2.5364878
53	0xc01039d9	-2.2535307
54	0xbfe4d2c3	-1.7876819
55	0xc0017f71	-2.0234034
56	0x3f8ac795	1.0842158
57	0x3fe1a3c7	1.7628106
58	0x405c6655	3.4437459
59	0x4027a0f2	2.6191983
60	0xbeef84d2	-0.4678102
61	0xbed905ea	-0.42387325
62	0xc043ed23	-3.0613487
63	0xbf33c161	-0.7021695
64	0x3fe4e9f9	1.7883903
65	0x4021a2c2	2.525559
66	0xbfd73b7e	-1.681503
67	0x4055b872	3.3393826
68	0xc063f03a	-3.5615373
69	0xbf4afde5	-0.7929366
70	0xbfa94b27	-1.322606
71	0x3def3076	0.11679165
72	0xbf14f68f	-0.5818872
73	0x3e50f824	0.20407158
74	0xbff60d9c	-1.9222903
75	0xbf56f333	-0.8396484
76	0xc014d175	-2.3252842
77	0xc06f7ae0	-3.7418747
78	0x3e5e14a5	0.21687563
79	0x3e12757f	0.14302634
80	0x3f950150	1.1641026
81	0xbefd82ea	-0.49513942
82	0x402cc743	2.699662
83	0xbea1d2e2	-0.31606203
84	0x3f4b5d9e	0.79439723
85	0x3faa6ff0	1.3315411
86	0x3fd0425b	1.627025
87	0x3fa63290	1.298418
88	0xbf2d7eff	-0.67771906
89	0xbf3358d3	-0.7005741
90	0xc0aea894	-5.4580784
91	0x402b1408	2.6730976
92	0xc0697f4c	-3.6483946
93	0x3f210ecd	0.6291321
94	0xbed2afc4	-0.41149724
95	0x407c680b	3.9438503
96	0xc059a85d	-3.400901
97	0x3f5d3300	0.86405945
98	0xbf4b850c	-0.7949989
99	0xbe087796	-0.13326868
100	0xc01c0b18	-2.438177
101	0x3f20ec2f	0.6286039
102	0x3f0b2a80	0.54361725
103	0x3fa2513a	1.2681038
104	0xbf8504b6	-1.0392063
105	0xbdadc6a3	-0.084851526
106	0xbfaf85ff	-1.3712767
107	0x403bfa18	2.9371395
108	0x3f853efc	1.0409846
109	0x3eed67d4	0.46368277
110	0xbf7c6750	-0.9859514
111	0xbfbeee6f	-1.4916514
112	0x3fcc48dd	1.5959736
113	0x40b40bc1	5.626435
114	0x40783896	3.8784537
115	0xbfe9e303	-1.8272403
116	0x3f775d2a	0.9662653
117	0xc09a6841	-4.8252263
118	0xbfd3231c	-1.649509
119	0x403a0959	2.9068205
120	0x3fa93e74	1.3222184
121	0xc064d7e4	-3.575677
122	0x3fcad15b	1.584514
123	0xbca3e2e9	-0.02000566
124	0xbfa3a88a	-1.2785809
125	0x3fc70eee	1.5551431
126	0xbf25e539	-0.6480289
127	0x3fa40f6e	1.2817209
128	0x3fd75460	1.6822624
129	0xbf49f707	-0.7889256
130	0xbf3b852f	-0.732501
131	0xc03eb7fc	-2.9799795
132	0xbd26244c	-0.04056196
133	0x3ffe89b2	1.9885771
134	0xbf6a6a80	-0.91568756
135	0xc0bad680	-5.838684
136	0xc0075ebe	-2.1151576
137	0xc08efb8f	-4.468208
138	0x400001c1	2.000107
139	0x40609ca9	3.5095618
140	0x406d5da5	3.7088406
141	0x3f5866a9	0.84531647
142	0x403ff79d	2.999488
143	0xc035069d	-2.8285286
144	0xc0594eaa	-3.3954263
145	0x3f80cc4c	1.0062346
146	0x3fdc76c1	1.7223741
147	0x4000e28d	2.0138276
148	0x40c86f21	6.2635655
149	0x3ff38e7b	1.9027857
150	0xbffd50c6	-1.9790275
151	0xc024226f	-2.5646017
152	0xbfe05495	-1.7525812
153	0x3d56e7db	0.05246721
154	0xc05e1bf7	-3.4704568
155	0xbf3f4a6e	-0.74722946
156	0xbce52c6a	-0.02797528
157	0x3e9ce055	0.30639902
158	0xbf8862e1	-1.0655175
159	0x4004acf8	2.0730572
160	0xc02bcd87	-2.6844194
161	0x4045379c	3.0815191
162	0x404164b6	3.021772
163	0xbf6dc37a	-0.928764
164	0xc00d08b9	-2.2036574
165	0xbfdf34e8	-1.7438021
166	0xc015f028	-2.342783
167	0xc08faa14	-4.4895115
168	0xbf3d3b14	-0.7391827
169	0x3fda1d9c	1.7040286
170	0x400d3ce7	2.2068422
171	0x3fd43afc	1.6580501
172	0xbf4921b6	-0.78567064
173	0xc032e427	-2.7951753
174	0xc08dc8f2	-4.4307795
175	0xbe3fed62	-0.18742898
176	0x3fcfa706	1.6222847
177	0x3fd46c47	1.6595544
178	0x4040b866	3.0112548
179	0xbd97402d	-0.073852874
180	0xbf6679db	-0.90029687
181	0xbf33049c	-0.6992891
182	0x3fdf64b9	1.7452613
183	0x3ff92386	1.9463966
184	0xbec12114	-0.3772055
185	0xc03f50d7	-2.989309
186	0x3fd9e92a	1.7024281
187	0xbf98f583	-1.1949924
188	0x4030eeca	2.7645745
189	0xbf1e55ef	-0.61849874
190	0x3fcb26d4	1.5871224
191	0xbfdb058c	-1.7111068
192	0x3f36b5f5	0.71371394
193	0x3e9a8717	0.3018119
194	0x3e87dc4c	0.2653526
195	0x4088e9a0	4.2785187
196	0x3f76ea2d	0.96451074
197	0xbfcaf731	-1.5856687
198	0x3f4f8852	0.81067383
199	0xc00975a6	-2.1478057
200	0xc08cf807	-4.405277
201	0xbea9b63f	-0.33146855
202	0xbf3170b3	-0.6931259
203	0x4074de22	3.826058
204	0xbf906333	-1.1280273
205	0x3fa88a1f	1.3167151
206	0xbf7810e8	-0.96900797
207	0x3fd29fb7	1.6454991
208	0x40147dce	2.3201785
209	0xbd596ea2	-0.053084023
210	0x3f604e65	0.8761962
211	0xbf519850	-0.81873035
212	0xc04f279c	-3.2367926
213	0x3f84db8d	1.0379502
214	0x3f179bc6	0.59222066
215	0x3f95b2cf	1.1695193
216	0xbf3801a9	-0.71877533
217	0x3fd00e6f	1.6254405
218	0xbecf4ab0	-0.4048667
219	0xbfa53cc6	-1.2909172
220	0x3f7252e8	0.94657755
221	0x4059aaf2	3.4010587
222	0xc0649b4d	-3.5719788
223	0xbc5aaed4	-0.013347346
224	0x3ff8b8a3	1.9431347
225	0xbfbcea51	-1.4759008
226	0xc00088ea	-2.0083566
227	0x4044ca2f	3.0748403
228	0xbf0458ba	-0.51697886
229	0xc07942f8	-3.8947124
230	0xbd9d04fa	-0.07666965
231	0x3f8c4727	1.0959214
232	0xc04ed58d	-3.231784
233	0xbe87154f	-0.26383445
234	0x3f82749d	1.0191838
235	0x3e50e95d	0.20401521
236	0x3f73e23a	0.9526707
237	0x3f4d9c32	0.8031646
238	0xc03c9e33	-2.9471557
239	0xc0263d8d	-2.5975068
240	0xbfb4dc52	-1.4129736
241	0x4066b408	3.6047382
242	0x3fc8b221	1.5679361
243	0xbfb69b16	-1.4266078
244	0xc0530fd4	-3.297841
245	0xc01d7869	-2.4604743
246	0x3ec5f599	0.3866394
247	0x4023ac41	2.5573885
248	0x3fd57773	1.6677078
249	0xbff9aa39	-1.9505073
250	0xc043d4ce	-3.0598636
251	0xbe7e5a36	-0.248391
252	0x3f9044a9	1.1270953
253	0xbeeb6645	-0.45976463
254	0x3ec22d97	0.37925407
255	0xbf665e91	-0.89988047

cls_token f4 [1, 1, 36]
0	0x3f0952a3	0.5364172
1	0xbf8a3570	-1.0797558
2	0xc00c92d8	-2.1964626
3	0xc006b20e	-2.1046176
4	0x3f53cd56	0.8273519
5	0xbf7cfd69	-0.98824173
6	0xbfff2be2	-1.9935267
7	0xc012bc93	-2.2927597
8	0xbf9791c9	-1.1841365
9	0xbf58306a	-0.84448874
10	0xc0266287	-2.5997636
11	0x3fd6c427	1.6778611
12	0x40176f86	2.3661819
13	0xbf0a8413	-0.5410778
14	0xbe818e5c	-0.25303924
15	0xbfa750d7	-1.3071545
16	0x3f7907e2	0.97277653
17	0xbf0227fe	-0.50842273
18	0x3f6a18d7	0.9144415
19	0xbf368b24	-0.7130606
20	0xbf82b3d2	-1.0211127
21	0x408e899f	4.4542994
22	0xbf4525dd	-0.770109
23	0xbf09b798	-0.53795767
24	0x3fdc5e70	1.721632
25	0x3f003bf0	0.5009146
26	0x3f2c2574	0.6724465
27	0x3fb6cc4e	1.4281099
28	0x401c596c	2.4429579
29	0x405d93f7	3.462156
30	0xbfc6da5e	-1.553539
31	0x3f7d3c1f	0.9891986
32	0xc00bce0f	-2.1844518
33	0x3fe204e4	1.7657743
34	0x3f870287	1.0547646
35	0xbfb31b10	-1.3992634

to_patch_embedding.1.weight f4 [36, 12]
0	0x3f908ee4	1.1293607
1	0x3fcbd0f3	1.5923141
2	0xbf725e66	-0.9467529
3	0x3f2787ce	0.65441597
4	0x4022ff55	2.5468342
5	0xbed97984	-0.42475522
6	0x401a4247	2.4102952
7	0xbeb8b38b	-0.3607448
8	0x3f993b6a	1.1971257
9	0xbfb3fbb8	-1.4061193
10	0x3f908681	1.1291047
11	0x3fab82cf	1.3399295
12	0xbe4c50e6	-0.19952735
13	0x3fe49927	1.7859238
14	0xc06d3691	-3.7064555
15	0xbf76a611	-0.9634715
16	0xbf6dd11c	-0.928972
17	0xc08d8469	-4.4224133
18	0xbd5f658f	-0.054540213
19	0x3e16d880	0.14731026
20	0x3efa92f5	0.48940244
21	0xbf0d5553	-0.5520832
22	0xbd0a2308	-0.033724815
23	0x3ee1a34a	0.44069892
24	0x3d21c41e	0.039493673
25	0x3f3ea81e	0.74475276
26	0xc021feb5	-2.531171
27	0x3f0c4ad9	0.5480171
28	0x3f8c0af3	1.0940841
29	0xbfe5ac66	-1.7943237
30	0xbf2077cf	-0.62682813
31	0xbc01832e	-0.007904811
32	0xbf145042	-0.57934964
33	0x3ef79b44	0.48360646
34	0x3f8402b9	1.0313331
35	0xbefb602b	-0.49096808
36	0xbcc47b5f	-0.02398461
37	0xbe1cff4f	-0.15331767
38	0xbfd51561	-1.6647149
39	0x3dfeb915	0.12437645
40	0x3f3b5dff	0.731903
41	0xc064b0b5	-3.5732853
42	0xbf7988ac	-0.9747417
43	0x3f46abaa	0.7760569
44	0x3f7a937b	0.9788129
45	0xc00e06e0	-2.2191696
46	0x3ff2539e	1.8931768
47	0x3f801787	1.000718
48	0xbf27d081	-0.65552527
49	0x3dc1afb7	0.09457343
50	0x4081c4fb	4.0552955
51	0x3ef08435	0.46975866
52	0xbf616cf0	-0.8805685
53	0x4019491b	2.395087
54	0xc01313f5	-2.298093
55	0x3c960cfb	0.018316736
56	0x3ec368fd	0.38166037
57	0xbdb74f3b	-0.08950659
58	0xbf065020	-0.5246601
59	0x3f305689	0.6888204
60	0x4007716e	2.1162982
61	0xbe0c09a7	-0.13675557
62	0x3e8fe8af	0.2810721
63	0x3f004701	0.50108343
64	0x3ef058d4	0.4694277
65	0x3e7594bb	0.23982517
66	0x3f1eee4f	0.6208238
67	0xbfe4d7e8	-1.7878389
68	0xbf869648	-1.0514612
69	0xbf1f2735	-0.621692
70	0xbe611dd0	-0.21984029
71	0xbf28fe2f	-0.66012853
72	0xbf3dae83	-0.7409441
73	0xc01843bd	-2.3791344
74	0xbfbfaa57	-1.4973859
75	0xbf319d63	-0.6938078
76	0x3f50689c	0.8140962
77	0xbfd1f71c	-1.6403537
78	0xc038378c	-2.8783903
79	0x3f3d026f	0.7383184
80	0xc040f196	-3.0147452
81	0x3fbbbef2	1.4667647
82	0xc00f635d	-2.2404397
83	0xc0459cad	-3.0876877
84	0x3e756673	0.23964863
85	0xbed1c886	-0.409733
86	0xc08b71c2	-4.3576365
87	0xbe7d736b	-0.2475106
88	0x3fa06968	1.2532167
89	0xc0b2cb6d	-5.5873322
90	0xc01347b6	-2.301252
91	0x3fc6ef24	1.554173
92	0xbed24765	-0.41070095
93	0x3c962f25	0.018333027
94	0x3ea9b104	0.33142865
95	0xbe69fb77	-0.22849832
96	0xbf285603	-0.65756243
97	0x3e7067c7	0.23477088
98	0xbe828a9d	-0.2549638
99	0xbf9f089c	-1.2424502
100	0x3f81a614	1.0128808
101	0x3f317ef8	0.69334364
102	0x3f7ed49d	0.9954317
103	0x3f588bad	0.8458813
104	0xbfa19998	-1.2624998
105	0x3fbc6357	1.4717816
106	0x3dbad002	0.091217056
107	0xbf95572f	-1.1667231
108	0x3e0340cf	0.12817691
109	0x3ec627c7	0.38702223
110	0x3cb1b296	0.021691602
111	0xbf00be06	-0.5028995
112	0x3e2fff3a	0.17187205
113	0xbf45e010	-0.7729502
114	0x3ebaf4d3	0.3651491
115	0x3f2342a5	0.63773566
116	0x3f8f9211	1.1216451
117	0xbf0378c5	-0.51356155
118	0x3e223be0	0.15843153
119	0x3f96a3dc	1.1768756
120	0xbc1c8da6	-0.009555256
121	0xbecd35a5	-0.4007999
122	0x4012d859	2.2944548
123	0x3e92f55b	0.28702816
124	0xbf225d89	-0.63423973
125	0x408fcdc5	4.4938684
126	0x3fb40ce7	1.4066437
127	0x3fb20fb9	1.3911048
128	0x3fdc9514	1.7232995
129	0x3f4a302e	0.78979766
130	0xbe42f57b	-0.19038956
131	0x3fe597ad	1.7936913
132	0x3f34a2e3	0.70561045
133	0x3f952200	1.1651001
134	0x3fc28abf	1.5198592
135	0xbeb56ec3	-0.35436067
136	0xbff799f3	-1.9343857
137	0x403852b8	2.8800488
138	0x3fd4ddbb	1.6630167
139	0x3eaec1a9	0.34132126
140	0x3dd56abd	0.10420749
141	0xbf5aec39	-0.855167
142	0x3f16b05d	0.5886286
143	0xbd6e2f60	-0.05815065
144	0xbf0e9baa	-0.55706275
145	0x401b6999	2.4283202
146	0xc0393f0b	-2.8944728
147	0x3f55c8dd	0.8350962
148	0x3f767006	0.96264684
149	0xbfc7cfa9	-1.5610248
150	0xbe549d78	-0.20763195
151	0xbf9a6211	-1.2061177
152	0x3e78fb84	0.24314696
153	0x3e77f50b	0.2421457
154	0x3ef06544	0.4695226
155	0x3e6e6225	0.23279627
156	0xbf1ed6db	-0.62046593
157	0xbda421cf	-0.08014261
158	0x400ca26b	2.1974132
159	0xbf49ecaa	-0.78876746
160	0xbebdce50	-0.37071466
161	0x3ffe92a9	1.9888507
162	0x3e59a793	0.2125533
163	0xbf5a4dcf	-0.85274976
164	0xbe8a84c2	-0.2705441
165	0x402728c5	2.6118634
166	0xbf95a054	-1.1689553
167	0xbead2903	-0.33820352
168	0xbdd85c89	-0.10564525
169	0xc0044701	-2.0668337
170	0xbf473727	-0.7781853
171	0xbf09f47c	-0.5388868
172	0x3ffc8cf9	1.9730521
173	0xbf756f6b	-0.95873135
174	0x3f60a45f	0.8775081
175	0xbfa05bdb	-1.2528032
176	0x3ecf730d	0.40517464
177	0xbf0891b0	-0.533473
178	0xbf8704b4	-1.054831
179	0x3ee2a348	0.442652
180	0x3f0d0111	0.5507975
181	0xc0080756	-2.1254478
182	0x407b1d3d	3.9236596
183	0x3e5f06c9	0.21779932
184	0x3f919822	1.1374552
185	0x4097f28e	4.7483587
186	0xbf5f2015	-0.8715833
187	0x3f7ac8a9	0.97962433
188	0xbebefc3e	-0.3730182
189	0xbdd0ca40	-0.10194826
190	0x3f08787d	0.5330885
191	0xbf166b8b	-0.5875785
192	0xbf256d91	-0.6462031
193	0x3fb1e09b	1.3896669
194	0xc028cb54	-2.6374102
195	0xbeeeccf0	-0.4664073
196	0x3e9c7969	0.3056138
197	0xbfb78dfc	-1.4340205
198	0xbf09c3c6	-0.5381435
199	0xbf39612e	-0.7241391
200	0xbefc8930	-0.49323416
201	0x3f21b8db	0.6317269
202	0xbe4ce2ff	-0.20008467
203	0xbf108ff0	-0.5646963
204	0x3d8925f9	0.06696696
205	0xbf868cde	-1.0511739
206	0xbf7d13f6	-0.9885858
207	0xbed5140a	-0.4161685
208	0x4026693d	2.6001732
209	0xbfc3d280	-1.5298615
210	0x3ed89b6e	0.42306083
211	0xbffe7823	-1.9880413
212	0xbf229dfc	-0.63522315
213	0xbee7732f	-0.45205066
214	0x3f06ba88	0.52628374
215	0xbf4fa40f	-0.8110971
216	0xc0477560	-3.116539
217	0x3dadf68f	0.08494293
218	0xc05b01c6	-3.4219832
219	0xbf6ec138	-0.9326358
220	0x40609d91	3.509617
221	0xc041157a	-3.0169358
222	0xbcb8ce1c	-0.022559218
223	0xbfcf52fb	-1.6197199
224	0xbf81fada	-1.0154679
225	0xbefc28cf	-0.49249884
226	0x3f2075a0	0.6267948
227	0xbf62d3d0	-0.8860445
228	0x3e9b1bbe	0.30294603
229	0x3f755052	0.95825684
230	0xbf62d7ce	-0.8861054
231	0xbf800308	-1.0000925
232	0xbf6b44fa	-0.91902125
233	0xbf12376c	-0.5711582
234	0x3e86008b	0.2617229
235	0xbf331659	-0.69955975
236	0xbdd5cbe0	-0.10439277
237	0xbf7eadd4	-0.9948399
238	0x3e3e3759	0.18575801
239	0xbdb11a32	-0.086475745
240	0x3fae2342	1.360451
241	0x3f3df5fb	0.7420346
242	0xc081cd82	-4.0563364
243	0x3f161125	0.5861991
244	0xbd8541ac	-0.065066665
245	0xc0bb5d67	-5.8551517
246	0x4003b1ce	2.0577273
247	0xbf566a03	-0.8375551
248	0xbe3dbcc2	-0.18529037
249	0xbf33c976	-0.7022928
250	0x3fe77dca	1.8085263
251	0xbdd98511	-0.106210835
252	0x3fa689cb	1.3010801
253	0xbf7a9d62	-0.978964
254	0x405a400c	3.410159
255	0x3de0005c	0.109375685

to_patch_embedding.1.bias f4 [36]
0	0x3fd7b221	1.6851236
1	0xbed5c2d9	-0.4175022
2	0xbf95c937	-1.1702031
3	0xbfb843f7	-1.4395741
4	0xbf8beb9e	-1.093128
5	0xbd88f692	-0.066876546
6	0xbfae90ae	-1.3637903
7	0x3ea3efe5	0.32018963
8	0x400f39c4	2.2379007
9	0xbf135c72	-0.57562935
10	0x40588349	3.383013
11	0xc01e7a78	-2.476225
12	0xbbd0daca	-0.006373738
13	0xbf492638	-0.7857394
14	0xbeefac64	-0.4681121
15	0xbf3c5b99	-0.73577267
16	0xbeaab58d	-0.33341637
17	0xc02e4b8d	-2.7233613
18	0xc047481d	-3.1137764
19	0xbe5e1311	-0.21686961
20	0x3fb5fef8	1.4218435
21	0x40304381	2.75412
22	0x3db120d3	0.08648839
23	0x3fcb4881	1.5881501
24	0xbec5ac24	-0.38607895
25	0x40198c87	2.399202
26	0x3e7623ce	0.24037096
27	0xbd03a738	-0.032141894
28	0xbc8f931f	-0.017526207
29	0x3f264ff3	0.6496574
30	0x3f9dae9e	1.2318914
31	0x3f1ee7eb	0.6207263
32	0x3f746c6b	0.9547793
33	0xbf205372	-0.6262733
34	0xbfe5b206	-1.7944953
35	0x3f1dedd0	0.61691

transformer.layers.0.0.norm.weight f4 [36]
0	0x400cdae5	2.2008603
1	0x3ee13d54	0.43992102
2	0x3e6f3edd	0.23363824
3	0x3f1c14eb	0.6096942
4	0x407f832d	3.9923813
5	0x3f99b902	1.2009585
6	0x408e7ae1	4.4525
7	0x400b72e9	2.1788886
8	0x3fa02548	1.2511377
9	0x3eae3a1a	0.34028703
10	0xbe802211	-0.2502599
11	0x3fe71c4f	1.8055514
12	0xbec1582c	-0.37762582
13	0x3fc67b8f	1.5506457
14	0x3f983376	1.1890705
15	0x3f4a71cf	0.7907991
16	0x3f6d05be	0.92586887
17	0xbf9fec31	-1.2493955
18	0xbf8f32d0	-1.1187382
19	0xbc88876d	-0.016666139
20	0x4047b857	3.1206262
21	0x3f93aa35	1.1536318
22	0x403b9fa4	2.9316187
23	0x40076bf2	2.1159635
24	0xbedeefae	-0.43542236
25	0x3fdc15bc	1.7194133
26	0x3fffe331	1.9991208
27	0x3f0367ce	0.5133027
28	0x3e379fab	0.17932002
29	0x3f7631b7	0.9616961
30	0x400a4013	2.1601608
31	0x3fe59fa3	1.7939342
32	0x3f93c929	1.1545764
33	0x3fc7780f	1.5583514
34	0x401413e1	2.3137133
35	0x3f8d72b8	1.1050634

transformer.layers.0.0.norm.bias f4 [36]
0	0x3f8fcb5e	1.1233938
1	0xbe55d048	-0.20880234
2	0x3da57609	0.08079154
3	0x3e55ea45	0.20890148
4	0x3f9dc857	1.2326764
5	0x3f02c7d0	0.5108614
6	0xbff64ae5	-1.9241606
7	0xbf45e558	-0.77303076
8	0x3ebb16d9	0.3654087
9	0xbe649892	-0.22323826
10	0xbed5b59e	-0.41740125
11	0x3d27d962	0.040978797
12	0xbecb7a68	-0.39741826
13	0xbead5b92	-0.33858925
14	0xbf04b0ed	-0.5183247
15	0x3ed09567	0.40738985
16	0xbf4117da	-0.7542702
17	0x3f6513fa	0.89483607
18	0xbfe78c2d	-1.8089653
19	0xbe5e1b5e	-0.21690127
20	0x3ec5733e	0.38564485
21	0x3f790d4f	0.9728593
22	0xbe139171	-0.1441095
23	0xbe180f78	-0.14849651
24	0x3e1b72a8	0.15180457
25	0x3f9a4a87	1.2053994
26	0x3f90df5f	1.1318167
27	0xbda4854c	-0.08033237
28	0x3e18e50f	0.14931129
29	0xbe104c62	-0.14091638
30	0x3e726b55	0.23673756
31	0x3e8216f7	0.25408146
32	0x3fdadb83	1.709824
33	0xbc535d6a	-0.01290069
34	0xbe9f92ea	-0.31166774
35	0xbf89205b	-1.0712999

transformer.layers.0.0.fn.to_qkv.weight f4 [216, 36]
0	0xbe907001	-0.28210452
1	0x3fd84bf8	1.6898184
2	0x3f5590c6	0.8342403
3	0x3d0abd4c	0.033871934
4	0xbfbc4042	-1.470711
5	0x3f9bae5d	1.2162586
6	0x3fe626ff	1.7980651
7	0x3fb85190	1.4399891
8	0x3f2e7321	0.6814442
9	0xbe922f58	-0.28551745
10	0x3f487b15	0.7831281
11	0x3f767e61	0.9628659
12	0x3f42b7bb	0.760616
13	0xbfd25de0	-1.6434898
14	0x3f39dc72	0.72602
15	0x3e3a09f5	0.18167861
16	0x3f01e620	0.5074177
17	0xbdd39967	-0.103319936
18	0xbe354ed0	-0.17705846
19	0x3ecb3912	0.3969198
20	0x402018d0	2.5015144
21	0xbe746951	-0.238683
22	0xbe883980	-0.2660637
23	0xbe6e24f1	-0.2325628
24	0xbf3a5f6e	-0.72801864
25	0x3f2c50de	0.67310894
26	0xbf98de04	-1.1942754
27	0xbf7feb57	-0.99968475
28	0xbfa0e769	-1.2570621
29	0xbf504e31	-0.8136931
30	0x3f8a0605	1.0783087
31	0x3f6065a6	0.87655103
32	0xbe77b427	-0.24189816
33	0xbf9699c1	-1.1765672
34	0xbf8a75d7	-1.0817212
35	0xbece1405	-0.4024965
36	0xc00c19ce	-2.189075
37	0x3e1ef1af	0.15521882
38	0x3f0fbc0f	0.5614633
39	0x3e02f157	0.12787376
40	0xbff00c56	-1.8753765
41	0xbf7da6fa	-0.9908291
42	0x40273910	2.6128578
43	0x3d5e2c3f	0.054241415
44	0xbea60b56	-0.32430524
45	0x3f91aff5	1.1381823
46	0x3f8d4bce	1.1038759
47	0xbdcd50e1	-0.10025192
48	0x3fa864fd	1.3155819
49	0x3ff35711	1.9010946
50	0x3f9f7611	1.2457906
51	0x3e02d724	0.12777382
52	0x3fb21046	1.3911216
53	0xbfd6eabf	-1.6790389
54	0x4013f45b	2.3117893
55	0x3bca7cb2	0.0061794156
56	0xbf97d4cf	-1.1861819
57	0xbfefb13d	-1.8725964
58	0x3f11a4b4	0.5689194
59	0x3f1384f3	0.5762474
60	0x3f0d8c66	0.55292356
61	0xc006bc90	-2.105259
62	0xbfe75bb1	-1.8074857
63	0x3d65bd89	0.056088958
64	0x3f400a39	0.750156
65	0xbf8257f5	-1.0183092
66	0xc010e1e0	-2.2637863
67	0xbf836a3c	-1.0266795
68	0xc03051a9	-2.7549841
69	0xbd363b16	-0.044489942
70	0x3f645f54	0.8920796
71	0x3f99200f	1.1962909
72	0xbf761b40	-0.9613533
73	0xbf72cbab	-0.9484202
74	0x3cfec6e9	0.031100707
75	0xbee54bd7	-0.44784424
76	0x3e01e2a4	0.12684113
77	0xbfbed62f	-1.4909114
78	0xbf798dfc	-0.97482276
79	0xbfd20e3f	-1.6410598
80	0xbf1a8f4a	-0.6037489
81	0x3f2a9875	0.6663888
82	0xbea27f47	-0.3173773
83	0xbf3c0740	-0.7344856
84	0xbd840738	-0.06446689
85	0x3fe8c795	1.8185908
86	0xbed38866	-0.41315
87	0xbe734a06	-0.23758706
88	0xbe99fb6a	-0.30074626
89	0xbf334e5f	-0.7004146
90	0x3f763f34	0.9619019
91	0xbe25d32c	-0.16193837
92	0xbfe24a7d	-1.7678982
93	0xbc464476	-0.012101283
94	0x3e8718fc	0.2638625
95	0x3f937e5a	1.1522934
96	0x3f818241	1.0117875
97	0xbf51f681	-0.8201676
98	0x3f69ec32	0.9137603
99	0x3f45e23a	0.7729832
100	0x3fc03b09	1.5018016
101	0x3e6377d2	0.22213677
102	0xbfcaa846	-1.5832603
103	0xbe93b60e	-0.28849834
104	0xbecd6b81	-0.4012108
105	0x3f0ab94d	0.54188997
106	0x3fa12230	1.2588558
107	0x3e8b1ac0	0.27168846
108	0x4013415c	2.3008642
109	0xbea34ce5	-0.31894603
110	0xbf5b5af8	-0.8568568
111	0xbdefc8ca	-0.11708219
112	0x40039bfc	2.0563955
113	0x3f56ffa5	0.8398383
114	0xc02c5994	-2.6929674
115	0xbee4c314	-0.44680083
116	0xbe49246c	-0.196428
117	0xbfd357ec	-1.6511207
118	0xbfd7feb4	-1.6874604
119	0xbd89cf0d	-0.06728945
120	0xbf819aa3	-1.0125316
121	0xbffd2c75	-1.9779192
122	0xbfdd5332	-1.7291014
123	0xbd9064c5	-0.0705047
124	0xbf80537f	-1.0025481
125	0x4013ec18	2.311285
126	0xc0009b0d	-2.0094635
127	0xbf1163ec	-0.56793094
128	0x3f6d3a09	0.9266668
129	0x4005801b	2.085944
130	0xbf6dcd0e	-0.92891014
131	0xbf843aaa	-1.0330403
132	0xbf4ee4e0	-0.80817986
133	0x400c35fb	2.1907947
134	0x4015534f	2.3332098
135	0xbe8b80c4	-0.27246678
136	0xbec2c956	-0.38044232
137	0x3faf34c5	1.3687979
138	0x3fed9228	1.8560228
139	0x3f6fbba0	0.9364567
140	0x400de63c	2.2171774
141	0x3f15b6a1	0.58481795
142	0xbeb309b7	-0.3496835
143	0xbf3d7fe8	-0.74023294
144	0x4008536f	2.1300924
145	0xbd43f983	-0.047845375
146	0xbefe32d6	-0.4964816
147	0xbe12dc67	-0.1434189
148	0x3fbfd961	1.4988214
149	0x3f84f741	1.0387956
150	0xc0172f49	-2.362261
151	0xbf014e56	-0.50510156
152	0xbe871278	-0.26381278
153	0xbfbd7ca2	-1.480366
154	0xbfc57cfa	-1.5428765
155	0x3e9022a0	0.28151417
156	0xbf85364c	-1.0407195
157	0xbfd3597e	-1.6511686
158	0xbf99afac	-1.2006736
159	0xbec2c29e	-0.38039106
160	0xbf9a1ce3	-1.2040066
161	0x40153d9a	2.3318849
162	0xbff40327	-1.9063462
163	0xbeb85409	-0.36001614
164	0x3f8b304d	1.0874115
165	0x3ff4cf9e	1.912586
166	0xbf8d6046	-1.1045005
167	0xbfad100a	-1.352052
168	0xbf494bcc	-0.7863128
169	0x3ff5550d	1.916658
170	0x400b94fe	2.1809688
171	0xbee94e99	-0.45567778
172	0x3e8861d8	0.2663715
173	0x3fb0a315	1.3799769
174	0x3fd16279	1.6358176
175	0x3f653650	0.89536
176	0x400b7bae	2.1794238
177	0x3eeea8fd	0.46613303
178	0xbee3ad11	-0.44467977
179	0xbf3d8c31	-0.7404204
180	0x4003b8c2	2.0581517
181	0xbe40e6f4	-0.18838102
182	0xbeaf3db3	-0.3422676
183	0xbdd721f0	-0.1050452
184	0x3fc334b5	1.525046
185	0x3f8503a7	1.039174
186	0xbfe2ad33	-1.7709106
187	0x3f279809	0.6546636
188	0x3eb86a71	0.36018708
189	0xbf3bb120	-0.73317146
190	0xbf593109	-0.84840447
191	0xbdcbcc42	-0.099510685
192	0xbf6ffc9d	-0.9374483
193	0xbfd37b2e	-1.6521966
194	0xbf8a24dc	-1.0792499
195	0x3e2ec69b	0.1706795
196	0xbf891a08	-1.0711069
197	0x3fdce7a4	1.7258191
198	0xbffcc379	-1.9747154
199	0xbf17e975	-0.593406
200	0x3f706f80	0.93920135
201	0x3fc1073c	1.5080333
202	0xbe776f47	-0.24163543
203	0xbf809e7c	-1.0048366
204	0xbf81a5c7	-1.0128716
205	0x3fe66f48	1.800271
206	0x3f7a55ec	0.97787356
207	0xbeb44037	-0.35205242
208	0xbf6aa8dc	-0.9166391
209	0x3f02dafc	0.51115394
210	0x3fcdd2cd	1.6079956
211	0x3f111c99	0.5668426
212	0x40045480	2.0676575
213	0x3e815be0	0.25265408
214	0xbf6d1a3e	-0.9261817
215	0xbf521bf9	-0.8207393
216	0x3fa2ca63	1.2718014
217	0x3f448819	0.7677017
218	0xbe83e292	-0.25758797
219	0xbe3c2601	-0.18373872
220	0x3f3fc8ac	0.74915576
221	0x3f726231	0.9468108
222	0xbf08064f	-0.53134626
223	0x3f753b54	0.9579365
224	0x3ef7c7f2	0.48394734
225	0xbf9720fb	-1.180694
226	0xbf06c6b8	-0.5264697
227	0x3f7e59e1	0.99355894
228	0xbf007300	-0.50175476
229	0xc01b48a0	-2.4263077
230	0xbea0016b	-0.31251082
231	0xbcf89994	-0.03034667
232	0xbedaed1e	-0.4275903
233	0x3f69bc8c	0.91303325
234	0xbfb9908d	-1.4497238
235	0x3f30c3e6	0.6904892
236	0x3ff0fe5f	1.8827628
237	0x3f666ec6	0.90012777
238	0xbf9310f8	-1.1489553
239	0xbf9da91e	-1.2317235
240	0xbf82652c	-1.0187125
241	0x3fddc369	1.732526
242	0x3e8cf629	0.27531555
243	0xbefb28be	-0.4905452
244	0xbff760b2	-1.9326384
245	0x3f017bca	0.5057951
246	0x3fbf5f82	1.4951022
247	0x3fef3678	1.8688498
248	0x3fdb3c38	1.7127752
249	0xbecf54e9	-0.4049447
250	0xbf2e0150	-0.6797075
251	0xbf2ac303	-0.66703814
252	0xbf9d2e0b	-1.2279676
253	0xbea18e25	-0.3155376
254	0xbea9be70	-0.33153105
255	0x3e4088c0	0.18802166

transformer.layers.0.0.fn.to_out.0.weight f4 [36, 72]
0	0xbe276e53	-0.16350679
1	0x3e00fda5	0.12596758
2	0xbf006f5a	-0.5016991
3	0x3da75513	0.081705235
4	0x3db2a592	0.08722986
5	0x3e927570	0.28605223
6	0xbdeb3e18	-0.11486453
7	0x3e6684f1	0.2251165
8	0x3e20af55	0.15691884
9	0x3f5aa223	0.8540365
10	0x3cb258b6	0.021770816
11	0xbd94fdb9	-0.07274956
12	0x3eb99d5d	0.3625287
13	0xbcf5e55b	-0.030016592
14	0x3d98d916	0.07463281
15	0x3ecd88b9	0.40143374
16	0xbeb25df3	-0.34837303
17	0x3dcd98c2	0.10038902
18	0x3d917bb1	0.071036704
19	0x3f7a13a2	0.9768621
20	0xbf16376c	-0.5867832
21	0xbe0a2d8a	-0.13493934
22	0x3d34427a	0.04400871
23	0x3ede9e6b	0.43480238
24	0x3f1849f2	0.5948783
25	0xbff3564b	-1.901071
26	0xbf30029d	-0.6875399
27	0xbc3bab81	-0.011454464
28	0xbed0daae	-0.4079184
29	0x3f67f15d	0.90602666
30	0xbf24a29c	-0.6431062
31	0x3ce9f977	0.028561337
32	0x3f75c2bb	0.9600026
33	0x3f4ba2e5	0.7954543
34	0xbf810ac4	-1.008141
35	0x3eb6dc45	0.35714927
36	0xbe2a49e6	-0.16629753
37	0x3eec585d	0.46161166
38	0xbddcd6d3	-0.10783162
39	0x3e0931c3	0.13397889
40	0xbe09b131	-0.134465
41	0x3e8c4646	0.27397364
42	0x3ec180b3	0.37793502
43	0xbd3a4ef5	-0.045485456
44	0xbda1b7b5	-0.078963675
45	0x3eeb940b	0.46011385
46	0x3dbc6acc	0.092000574
47	0xbe4f612d	-0.20251913
48	0x3f47c6f6	0.78037965
49	0xbee8ade4	-0.45445168
50	0xbe2e7b84	-0.17039305
51	0xbf790c8c	-0.9728477
52	0x3f695453	0.91144294
53	0x3eeb146c	0.45914018
54	0x3f467c92	0.7753383
55	0xbf119fa5	-0.56884223
56	0x3f76815a	0.96291125
57	0xbedc7b07	-0.43062612
58	0x3e8ad5a0	0.27116108
59	0x3f43342d	0.7625149
60	0x3ea581bd	0.32325545
61	0xbec804a5	-0.39066043
62	0x3f4d9c1a	0.8031632
63	0x3ed7d464	0.4215423
64	0x3e27ee46	0.16399488
65	0xbe5db0d8	-0.21649492
66	0xbedd9ca2	-0.43283564
67	0xbf89333f	-1.0718764
68	0x3fd9b18a	1.7007306
69	0x3f8c8cd7	1.0980481
70	0x3e6fbbb5	0.23411448
71	0xbf88328e	-1.0640428
72	0xbe5e5bf1	-0.2171476
73	0x3f1a8360	0.6035671
74	0xbea68fee	-0.32531685
75	0x3e3e087e	0.18557927
76	0x3e8fabe0	0.28060818
77	0xbebaeeaa	-0.3651021
78	0x3d199b4b	0.037501615
79	0x3e4cd32b	0.20002429
80	0xbe5ac74a	-0.21365085
81	0xbf205b68	-0.62639475
82	0xbe3a0266	-0.18164977
83	0xbe76bb16	-0.24094805
84	0x3ec59a3b	0.3859423
85	0xbde5b69c	-0.112164706
86	0x3e84839b	0.25881657
87	0x3eedbb5c	0.46432006
88	0x3bc1e6fe	0.005917429
89	0xbf641329	-0.89091736
90	0x3ec2daf9	0.38057688
91	0x3d09af98	0.033614725
92	0xbe74ac75	-0.23893912
93	0xbf09db08	-0.5384984
94	0x3ecd6ad9	0.4012058
95	0xbed9e310	-0.42556047
96	0xbe1bf5ae	-0.15230438
97	0x3f13a404	0.57672143
98	0x3e8638b6	0.26215142
99	0x3e1ac35c	0.15113586
100	0xbe513174	-0.20429021
101	0xbe8f23b7	-0.27956936
102	0x3f57ad1f	0.84248537
103	0xbeb4b81c	-0.35296714
104	0xbe80e48e	-0.25174373
105	0xbe18965f	-0.14901112
106	0x3f155e9d	0.58347493
107	0xbf34a50c	-0.7056434
108	0xbd1c7b2b	-0.0382034
109	0x3f29d9b6	0.66347826
110	0x3d894673	0.0670289
111	0xbeff1589	-0.49821118
112	0xbf76abdd	-0.9635599
113	0x3f5786e7	0.8419022
114	0xbddff835	-0.109360136
115	0xbf213bf8	-0.6298213
116	0x3e870a63	0.26375112
117	0x3f0b3cc4	0.54389596
118	0x3f0644a3	0.5244848
119	0x3ef84eb6	0.48497552
120	0x3b2b0044	0.0026092688
121	0xbf2aadc4	-0.66671395
122	0xbe5b57d3	-0.21420221
123	0xbf0cddae	-0.55025756
124	0x3f2e9ec6	0.6821102
125	0x3ed35f58	0.4128368
126	0xbfd50013	-1.6640648
127	0xbf489e34	-0.783664
128	0xbfac2bc6	-1.3450859
129	0xbf796675	-0.9742196
130	0xbec7a4ad	-0.38992825
131	0x3ef133b2	0.47109753
132	0x3d86d435	0.06583444
133	0x3eed7ee0	0.4638586
134	0xbe1693f2	-0.14704874
135	0xbe7719d5	-0.24130948
136	0xbd2dba44	-0.042413965
137	0xbdff0255	-0.12451617
138	0xbe9a1dbf	-0.3010082
139	0x3d3c9a5e	0.046045654
140	0x3f7f5cd5	0.99751025
141	0x3f224144	0.6338084
142	0x3e94ed89	0.29087475
143	0xbcfae650	-0.0306274
144	0xbeeedd11	-0.46653035
145	0x3e41042d	0.18849249
146	0xbe4a3013	-0.19744901
147	0x3f20662d	0.6265591
148	0x3e8fe277	0.28102466
149	0xbdcac690	-0.09901154
150	0xbe4939fc	-0.19651026
151	0x3e189533	0.14900665
152	0xbe65939c	-0.2241959
153	0x3fdcb098	1.7241392
154	0x3ddc2b53	0.10750451
155	0x3f793d00	0.97358704
156	0xbe3c5c37	-0.18394552
157	0x3d388269	0.045046244
158	0x3e089c91	0.13340975
159	0x3e44141e	0.19148299
160	0xbf6f0428	-0.93365717
161	0x3edaf9ff	0.42768857
162	0xbe31f20b	-0.17377488
163	0xbe9b8f58	-0.303828
164	0xbee21211	-0.4415441
165	0x3e354f0c	0.17705935
166	0xbe6cf208	-0.23139203
167	0x3db6de8d	0.08929167
168	0x3e3e4df2	0.18584421
169	0xbddaf724	-0.106916696
170	0xbe2246af	-0.15847276
171	0xbdeb6a64	-0.11494902
172	0xbe383ce1	-0.17991973
173	0xbe3c82bf	-0.1840925
174	0xbf436267	-0.76322025
175	0x3efb0e4c	0.49034345
176	0xbcc0afa1	-0.023521246
177	0x3e951e7d	0.29124823
178	0xbcb27abf	-0.021787046
179	0xbed439bc	-0.41450298
180	0x3f56082d	0.83606225
181	0xbe6c0caf	-0.23051713
182	0x3e91d4de	0.28482717
183	0xbda341d2	-0.079715386
184	0xbf17f344	-0.5935557
185	0x3ee1eb1b	0.44124684
186	0x3eabc0c5	0.3354551
187	0xbd8618b8	-0.065476835
188	0x3eb4cdce	0.35313267
189	0x3c8eac09	0.017416017
190	0x3dd18daa	0.102320984
191	0x3f59f198	0.8513427
192	0xbf13bf5d	-0.5771387
193	0xbe801da2	-0.25022608
194	0x3f01f3af	0.50762457
195	0x3f8270a3	1.0190624
196	0xbf82d81f	-1.0222205
197	0xbee68375	-0.4502217
198	0xbefa8bc1	-0.4893475
199	0x3f330db5	0.6994279
200	0xbee30c71	-0.4434543
201	0xbdef9c23	-0.116997026
202	0x3c1de113	0.009636181
203	0xbf3b5b4b	-0.73186177
204	0xbe41c882	-0.18924144
205	0x3ea9a0eb	0.33130583
206	0xbeec71f7	-0.46180698
207	0x3f8aa01a	1.0830109
208	0x3e66949a	0.22517624
209	0xbf4cf6fc	-0.8006437
210	0x3f8cad58	1.09904
211	0x3f7a46c3	0.97764224
212	0xbfa2e599	-1.2726318
213	0x3e171609	0.147545
214	0xbe1c8bfc	-0.15287775
215	0xbf383271	-0.7195197
216	0xbe61f7db	-0.22067206
217	0x3e9ab25f	0.3021421
218	0xbe43b6fc	-0.19112772
219	0x3d92515b	0.071444236
220	0x3e60439f	0.21900795
221	0xbe4b8e45	-0.1987849
222	0xbe7877ac	-0.24264401
223	0x3e17f325	0.14838846
224	0xbd540d7c	-0.051770672
225	0xbe3b36aa	-0.18282571
226	0x3d9ef697	0.07761877
227	0xbdfb8948	-0.12282044
228	0xbe2ced9e	-0.16887519
229	0x3e549c8a	0.2076284
230	0xbe34f555	-0.17671712
231	0x3d9d5973	0.07683077
232	0x3e8dfedf	0.27733514
233	0xbf0f4f1e	-0.559801
234	0x3de260cf	0.11053621
235	0xbf6bbdcf	-0.920865
236	0x3e6384c6	0.22218618
237	0x3e1273cd	0.14301987
238	0x3ebe3499	0.37149504
239	0xbda98381	-0.082770355
240	0x3e259fcf	0.16174243
241	0xbe906c47	-0.2820761
242	0xbe18babc	-0.14914984
243	0x3ea0d9d9	0.31416205
244	0xbdedb053	-0.11605897
245	0x3e2db042	0.16961768
246	0xbe74eac0	-0.23917675
247	0x3c91c13a	0.017792333
248	0x3e00c446	0.12574872
249	0x3b89c6f7	0.0042046267
250	0xbd775701	-0.060385708
251	0xbf39a838	-0.72522306
252	0x3dd95c0d	0.106132604
253	0x3f06fb69	0.5272737
254	0xbe263855	-0.16232426
255	0xbe876153	-0.2644144

transformer.layers.0.0.fn.to_out.0.bias f4 [36]
0	0x3cb14d83	0.021643406
1	0xbe41c1f7	-0.18921648
2	0x3d7ecdae	0.06220787
3	0xbd0cf6ad	-0.034414936
4	0x3df41703	0.11918452
5	0x3ceca480	0.028887033
6	0x3e03cfc2	0.12872222
7	0x3c79efd8	0.015254937
8	0xbe9cc1be	-0.30616564
9	0xbc9a6ed6	-0.018851679
10	0xbc7cdb54	-0.015433151
11	0xbdee8b2f	-0.11647641
12	0x3bf10948	0.0073558427
13	0xbc8e5f0b	-0.017379304
14	0x3d5289e5	0.051401038
15	0xbda8baea	-0.08238776
16	0x3e344cd7	0.17607437
17	0x3deee42d	0.11664615
18	0xbdd28058	-0.10278386
19	0xbc8905b2	-0.016726349
20	0xbe1a10a6	-0.15045413
21	0xbc05edd6	-0.00817438
22	0xbd84bc78	-0.0648126
23	0xbe26b74f	-0.16280864
24	0xbe91cefb	-0.28478226
25	0x3e0e9fbd	0.13928123
26	0x3e159802	0.14608768
27	0x3c9c59ef	0.019085852
28	0xbe16805c	-0.14697403
29	0x3eb015dd	0.3439168
30	0xbda1c747	-0.07899337
31	0x3dce519f	0.10074162
32	0x3e31b571	0.1735437
33	0xbd160d94	-0.036634043
34	0x3c39ae37	0.01133304
35	0x3c01c4f4	0.007920492

transformer.layers.0.1.norm.weight f4 [36]
0	0x3fecf026	1.8510787
1	0x3fba4d99	1.4554931
2	0x3f9d44a8	1.2286577
3	0x3f9ef098	1.2417173
4	0x3fa51678	1.2897482
5	0x3fd76c84	1.6829991
6	0x3fece6d7	1.8507947
7	0x3f8a0504	1.0782781
8	0x3fbf3c91	1.4940358
9	0x3f53e8c1	0.8277703
10	0x3f972691	1.1808645
11	0x3f493120	0.78590584
12	0x3fb55694	1.4167047
13	0x3f14c589	0.58113915
14	0x3fdf8028	1.7460985
15	0x3e925d4b	0.28586802
16	0x3f9ac1dd	1.2090412
17	0x40229a44	2.5406656
18	0x3eb94662	0.3618651
19	0x4039e4ad	2.9045823
20	0x3f8f2af6	1.1184986
21	0x3f8f9ff7	1.1220692
22	0x3dace4d9	0.08442087
23	0x3fe1aa89	1.7630168
24	0x3fd6c62a	1.6779225
25	0x3ecf49be	0.40485948
26	0x3f2c39e8	0.6727586
27	0x3f2e330e	0.68046653
28	0x3deb7f43	0.114988826
29	0x3fc8b27b	1.5679468
30	0x3f8ab3a3	1.0836071
31	0x3fe5ba1c	1.7947421
32	0x3ed4e76d	0.41582814
33	0x3f8221ad	1.0166527
34	0x3f5debf4	0.8668816
35	0x3faebb60	1.3650932

transformer.layers.0.1.norm.bias f4 [36]
0	0xbf699643	-0.91244906
1	0xbf15575b	-0.5833642
2	0xbd26f6bd	-0.04076265
3	0xbd916bff	-0.07100677
4	0x3ec6292c	0.38703287
5	0xbec32d48	-0.38120484
6	0x3ef053b8	0.46938872
7	0xbef9e5c4	-0.4880811
8	0x3e551e05	0.20812233
9	0x3dc301cc	0.09521827
10	0xbd29c317	-0.041445818
11	0xbe668ba8	-0.22514212
12	0xbe1c82f1	-0.15284325
13	0xbe189d8f	-0.14903854
14	0x3f480281	0.7812882
15	0xbdc147d2	-0.09437527
16	0xbdf458b7	-0.119309835
17	0x3e99757a	0.2997244
18	0xbe3ecfb9	-0.18633927
19	0x3f11d7f7	0.5697016
20	0xbee4821b	-0.44630513
21	0xbe842307	-0.25807974
22	0xbd6d7382	-0.057971485
23	0xbe8be1a6	-0.27320594
24	0xbe41c7a6	-0.18923816
25	0xbd5d4150	-0.054017365
26	0x3e8875c3	0.26652345
27	0x3ebb4b08	0.36580682
28	0x3c6b5433	0.014363336
29	0xbe219019	-0.15777625
30	0x3ec3440c	0.38137853
31	0x3e4f9a02	0.20273593
32	0x3d858d5b	0.06521102
33	0xbe252756	-0.16128287
34	0xbdcc2259	-0.09967489
35	0x3e74efc4	0.23919588

transformer.layers.0.1.fn.net.0.weight f4 [72, 36]
0	0xbe7cf89f	-0.24704216
1	0x3e6f67ff	0.23379515
2	0x3cc48ee0	0.02399391
3	0x3b38c589	0.0028193912
4	0x3e302cf8	0.17204654
5	0x3e188021	0.14892627
6	0x3ed68db1	0.41904977
7	0x3c977cd8	0.018492147
8	0xbdc501bd	-0.09619472
9	0xbea59a6e	-0.32344383
10	0xbd11f90a	-0.035637893
11	0xbe82e6ec	-0.25566804
12	0x3d2bf14c	0.041978166
13	0x3e81efe5	0.25378338
14	0x3ea8d8ae	0.32977813
15	0xbe8e63d7	-0.27810547
16	0x3d08c34c	0.033389375
17	0x3e37fa45	0.17966564
18	0xbd8ee30f	-0.06976902
19	0xbf8333b4	-1.0250154
20	0x3a24418e	0.0006265872
21	0xbc79b9fb	-0.015242095
22	0x3e67abf2	0.22624186
23	0xbda62673	-0.08112802
24	0xbf66d9d0	-0.90176105
25	0xbe219ff8	-0.1578368
26	0xbe184000	-0.14868164
27	0x3dc47765	0.09593085
28	0x3df7f817	0.12107866
29	0x3dd3fe79	0.10351271
30	0xbe850dde	-0.25987142
31	0x3e0f242d	0.13978644
32	0xbe80b850	-0.2514062
33	0x3e5a481d	0.21316572
34	0x3c819406	0.015817653
35	0x3ed13b55	0.4086558
36	0x3f04f59a	0.5193726
37	0x3f12d71a	0.5735947
38	0xbe77fcdc	-0.24217552
39	0x3eb6617d	0.35621253
40	0xbf716680	-0.9429703
41	0x3e0af9e9	0.13571896
42	0xbf50c112	-0.815446
43	0x3f7cf38a	0.9880911
44	0x3e5646d7	0.20925461
45	0xbe5e5522	-0.21712163
46	0x3d797ee3	0.060912024
47	0x3eba617c	0.364025
48	0xbe3aee7b	-0.18255036
49	0x3e72ee19	0.2372364
50	0xbf0833fa	-0.5320431
51	0x3e85b63d	0.261156
52	0xbe0d4e75	-0.1379946
53	0xbf2afeb1	-0.6679488
54	0x3eb64ceb	0.3560556
55	0xbf199c9d	-0.600046
56	0x3eff327a	0.49843198
57	0xbd48e5b0	-0.049047172
58	0x3ed9fe72	0.4257694
59	0x3e0347e3	0.12820391
60	0xbd42d006	-0.047561668
61	0xbe77ae23	-0.24187522
62	0xbe186030	-0.14880443
63	0xbe23f1aa	-0.16010156
64	0x3edde941	0.4334202
65	0x3c0b541c	0.00850394
66	0x3e2745b1	0.16335179
67	0xbecc9b56	-0.39962262
68	0xbe8ea287	-0.27858374
69	0xbe451408	-0.19245923
70	0x3e1f1803	0.15536503
71	0xbe25a336	-0.16175541
72	0x3f5f1ce7	0.87153476
73	0xbe92cadd	-0.28670397
74	0xbe54536c	-0.20734948
75	0xbeb04e70	-0.34434843
76	0x3f9c982d	1.223394
77	0x3edc8449	0.43069676
78	0xbe8ecace	-0.27889103
79	0x3e1185fc	0.14211267
80	0xbeeff0d5	-0.46863428
81	0x3de14c15	0.110008396
82	0xbeb9ffc4	-0.36327946
83	0x3e0128fe	0.12613294
84	0x3e9a604b	0.3015159
85	0x3d8d83de	0.06909917
86	0xbe8d5ee3	-0.27611455
87	0x3e0529a0	0.1300416
88	0x3ec07b31	0.37593988
89	0x3ddf321c	0.108982295
90	0x3ccf182b	0.025280079
91	0x3fd3fdf0	1.656187
92	0x3e277c3e	0.16355988
93	0x3e46bfad	0.19409056
94	0xbd4c9cab	-0.049954098
95	0xbe6f8796	-0.23391566
96	0xbf815381	-1.0103608
97	0xbe0a0596	-0.13478693
98	0x3d81d49a	0.06339379
99	0xbebf3ebd	-0.37352553
100	0xbc8f1289	-0.017464893
101	0x3aae605f	0.0013303867
102	0xbeda78b3	-0.4267021
103	0x3ec46b86	0.38363284
104	0xbe71faf3	-0.23630886
105	0xbe206d3b	-0.15666668
106	0x3e864f24	0.26232255
107	0xbef9681b	-0.4871224
108	0xbd952576	-0.07282536
109	0x3d24d9a0	0.040246606
110	0x3e51a0e9	0.20471539
111	0xbca05442	-0.019571427
112	0xbf034d48	-0.51289797
113	0x3ef81c50	0.484591
114	0x3e969ea1	0.294179
115	0xbe7d5f1b	-0.24743311
116	0xbe5aef43	-0.21380334
117	0x3ea57d00	0.3232193
118	0x3ec6ac0e	0.38803142
119	0xbe184490	-0.14869905
120	0xbcbb4aad	-0.022862757
121	0xbe09652a	-0.13417497
122	0xbf82b134	-1.0210328
123	0x3d84e4bb	0.064889394
124	0xbe1ae320	-0.15125704
125	0xbf19a704	-0.6002047
126	0xbe06af46	-0.13152799
127	0xbfe0983c	-1.7546458
128	0x3ccf3824	0.025295325
129	0x3e082480	0.13295174
130	0x3e2af2e7	0.16694222
131	0x3f496e79	0.7868419
132	0x3f59ded5	0.8510564
133	0x3eae5632	0.34050137
134	0x3e871636	0.26384133
135	0x3f0af396	0.5427793
136	0x3d467837	0.04845449
137	0xbed95686	-0.42448825
138	0xbe4891b7	-0.19586836
139	0xbf434a8d	-0.7628563
140	0x3e47f367	0.19526444
141	0x3f71c03b	0.94433945
142	0xbe5ba58d	-0.21449871
143	0x3e1d6a05	0.15372474
144	0xbf5e448c	-0.86823344
145	0x3f306802	0.68908703
146	0xbf093077	-0.53589576
147	0xbea9f95e	-0.33198065
148	0x3eeb98d2	0.4601503
149	0x3e9cd57d	0.3063163
150	0x3f8955da	1.0729325
151	0xbf141cde	-0.5785655
152	0xbf3df3ef	-0.7420034
153	0xbd9bb797	-0.07603376
154	0xbeff2fda	-0.49841195
155	0xbe6dd2ca	-0.23224941
156	0x3f22d371	0.63603884
157	0x3dbb0939	0.091326185
158	0x3f4e8310	0.80668736
159	0xbdb16779	-0.08662314
160	0x3ee9f848	0.45697236
161	0xbe9dfc87	-0.30856726
162	0xbe9f4681	-0.31108478
163	0x3f673db4	0.90328526
164	0xbddb2deb	-0.107021175
165	0x3e87083e	0.26373476
166	0x3d85497f	0.06508159
167	0xbcfbd732	-0.030742262
168	0xbf79c25d	-0.975622
169	0xbdde791a	-0.10862942
170	0x3e9e3e00	0.30906677
171	0x3e527f39	0.20556344
172	0xbe5237fe	-0.20529172
173	0x3ed27d88	0.41111398
174	0x3d82ba15	0.063831486
175	0x3df99fae	0.121886596
176	0x3defa0d1	0.11700595
177	0xbdea7d88	-0.114497244
178	0x3ea05de7	0.31321642
179	0x3ed790ef	0.42102763
180	0x3e8ab93f	0.27094457
181	0xbf06ac6d	-0.5260685
182	0xbb6810b3	-0.0035410344
183	0x3e7dbe92	0.24779728
184	0xbe92dfa2	-0.28686243
185	0xbf2b7ea3	-0.6699011
186	0xbf051788	-0.5198903
187	0x3e69eea2	0.22844937
188	0x3ee5934a	0.44838935
189	0x3e9cab90	0.30599642
190	0x3e90e30a	0.28298217
191	0x3ed65254	0.41859686
192	0xbea9c68c	-0.33159292
193	0xbe39dc36	-0.1815041
194	0xbf113d01	-0.5673371
195	0x3ec8edc5	0.39243904
196	0xbe26c33d	-0.16285415
197	0xbe70d720	-0.23519564
198	0x3eea71a4	0.45789826
199	0x3fb737f9	1.4313956
200	0xbdfe5bd4	-0.124198586
201	0xbe1a1505	-0.15047081
202	0x39dff7e4	0.00042718567
203	0x3e576ba7	0.2103716
204	0x3f828c7f	1.0199126
205	0x3e20b71e	0.15694854
206	0x3ea07fe1	0.31347564
207	0xbc680053	-0.014160234
208	0xbc390a92	-0.011294024
209	0xbf0fa198	-0.5610595
210	0x3dcd9d4b	0.10039767
211	0xbbe5f834	-0.0070181135
212	0xbe1d0cce	-0.15336916
213	0xbe517719	-0.20455588
214	0xbe6e3432	-0.23262098
215	0xbf945813	-1.1589378
216	0xbfce0f32	-1.6098387
217	0x3f8818a5	1.0632521
218	0xbeaa7f90	-0.33300447
219	0x3e47a146	0.19495115
220	0x3f9298d7	1.1452893
221	0x3e8a4945	0.27009025
222	0x3e35c87c	0.1775226
223	0xbee602b4	-0.44923937
224	0xbf894519	-1.0724212
225	0xbe980721	-0.2969294
226	0xbe2905e3	-0.16506152
227	0xbf204878	-0.6261058
228	0xbe13af7c	-0.1442241
229	0x3e2ded24	0.16984993
230	0x3fc28329	1.5196277
231	0x3ecd1c2b	0.40060553
232	0x3cfdbb15	0.030972997
233	0xbe00a407	-0.12562571
234	0xbed769ac	-0.4207281
235	0x3d68e630	0.05686015
236	0xbe3c9f49	-0.18420137
237	0xbeec41b0	-0.46143866
238	0x3e883e6c	0.26610124
239	0x3db86ffc	0.09005734
240	0xbf3d8d50	-0.7404375
241	0xbe99b169	-0.30018166
242	0xbeb4ff9a	-0.3535126
243	0xbc1643db	-0.009171451
244	0x3c4ed96a	0.012625078
245	0x3f7943bc	0.9736898
246	0x3f15a4c0	0.58454514
247	0xbf1dc855	-0.6163381
248	0x3d408bc1	0.04700828
249	0xbf329e12	-0.69772446
250	0x3eff8a9b	0.49910435
251	0x3fc4db8e	1.5379503
252	0x3d361485	0.044453163
253	0x3e56d101	0.20978166
254	0x3dba7307	0.09103971
255	0x3e97ccac	0.2964834

transformer.layers.0.1.fn.net.0.bias f4 [72]
0	0x3e30f459	0.17280711
1	0xbec409ad	-0.38288632
2	0x3e3bbc67	0.18333589
3	0xbd81a8fb	-0.063310586
4	0x3f33ba7d	0.70206434
5	0xbeac57f5	-0.33660856
6	0xbd2a1ec9	-0.041533265
7	0xbdeec9ae	-0.11659561
8	0xbf08dc8f	-0.53461546
9	0xbda9b0d1	-0.08285678
10	0xbd56f113	-0.052476
11	0xbf33bdf1	-0.702117
12	0x3f279485	0.65461
13	0x3e8ca417	0.2746894
14	0x3b41bcb2	0.0029561934
15	0x3da1fb9c	0.07909319
16	0xbdf78b89	-0.12087161
17	0xbe970de4	-0.29502785
18	0x3e4df8eb	0.20114486
19	0x3e714227	0.23560391
20	0xbe640027	-0.22265683
21	0x3e95d5c2	0.29264647
22	0xbbbd6f4c	-0.00578109
23	0xbf48876c	-0.7833164
24	0xbf471f42	-0.7778207
25	0x3ea61c57	0.32443497
26	0xbcc9bed4	-0.024627127
27	0xbe08fb9d	-0.13377233
28	0x3eda9c9e	0.42697614
29	0xbe93cec1	-0.28868678
30	0x3e107d3b	0.14110272
31	0xbda527c4	-0.08064225
32	0x3eb8056c	0.35941637
33	0x3c30a114	0.0107805915
34	0x3e84964e	0.25895923
35	0x3e4e3b26	0.20139751
36	0xbe2c1962	-0.16806558
37	0xbdc13ddf	-0.09435629
38	0xbdcc5d33	-0.09978714
39	0x3e50d40a	0.20393386
40	0x3ea54dd1	0.32285932
41	0x3d01e01b	0.031707864
42	0x3df34cad	0.11879859
43	0x3e524dda	0.2053751
44	0x3e9610d4	0.29309714
45	0xbe51d63c	-0.2049188
46	0x3e687d7e	0.22704121
47	0x3ed8be0b	0.4233249
48	0x3e036758	0.12832391
49	0xbe989cd9	-0.29807165
50	0x3f2463da	0.6421486
51	0x3d22e031	0.039764587
52	0x3e139c86	0.14415178
53	0x3f28e37a	0.659721
54	0x3ddef460	0.108864546
55	0xbdaed852	-0.085373536
56	0xbeb672a3	-0.35634336
57	0x3eeded3c	0.46470058
58	0x3ddf860e	0.10914241
59	0x3ecb3bf1	0.3969417
60	0xbeddd4e1	-0.43326476
61	0xbe7c706f	-0.24652265
62	0x3d2f4463	0.042789828
63	0xbf1e2d9a	-0.6178833
64	0x3e9cf960	0.30659008
65	0xbd9b1138	-0.075716436
66	0x3f33d0f6	0.70240724
67	0x3ed4e2b5	0.41579214
68	0x3cd57f60	0.026061714
69	0x3de6aee6	0.11263828
70	0x3e3f59da	0.1868662
71	0xbf1e5c1a	-0.61859286

transformer.layers.0.1.fn.net.3.weight f4 [36, 72]
0	0xbbe228f8	-0.0069018565
1	0x3d57f8c3	0.052727472
2	0xbeca8b50	-0.39559412
3	0xbe71e218	-0.23621404
4	0xbe12cc06	-0.14335641
5	0x3de90cd7	0.11379402
6	0xbe4c875d	-0.19973512
7	0x3ea7e62b	0.32792792
8	0xbd80b0d4	-0.06283727
9	0xbe2c6958	-0.1683706
10	0x3e0344d3	0.12819223
11	0xbec5b345	-0.38613334
12	0x3cb5de13	0.02220062
13	0xbc866658	-0.016406223
14	0x3df070f0	0.11740291
15	0xbd641460	-0.055683494
16	0x3abd4651	0.0014440512
17	0xbd69a10c	-0.057038352
18	0xbe82cd30	-0.2554717
19	0xbed9b11f	-0.42517945
20	0x3dedc49a	0.116097644
21	0xbec98d1d	-0.39365473
22	0xbe76a347	-0.24085723
23	0x3e08bc64	0.13353115
24	0xbed866af	-0.4226584
25	0x3e1b5fa5	0.15173204
26	0xbe8016af	-0.25017306
27	0xbe75366c	-0.23946542
28	0xbd232088	-0.039825946
29	0xbe82840a	-0.25491363
30	0x3d1ff89f	0.039055463
31	0x3e31c567	0.1736046
32	0x3e2ef197	0.17084347
33	0xbe17b25b	-0.14814131
34	0xbddcd385	-0.10782532
35	0xbe9f72b0	-0.31142187
36	0x3cad1d65	0.02113218
37	0xbeb3e502	-0.35135657
38	0x3e5f840a	0.21827713
39	0xbf55e5fd	-0.8355406
40	0xbe356003	-0.17712407
41	0x3e0543d5	0.13014157
42	0x3e335319	0.17512168
43	0x3e22dcb2	0.15904501
44	0xbeaf5243	-0.34242448
45	0xbef57b5f	-0.47945687
46	0xbe848fe1	-0.2589102
47	0xbe7c4d16	-0.24638781
48	0xbe9cec34	-0.3064896
49	0xbe049cf9	-0.12950505
50	0xbd5b4b5b	-0.05353866
51	0xbe4ad671	-0.19808365
52	0xbeb9880c	-0.36236608
53	0xbe8f8a65	-0.28035274
54	0x3e6b2d48	0.22966492
55	0x3d32ffc0	0.043700933
56	0xbd8f5595	-0.06998745
57	0xbe46db7d	-0.19419666
58	0xbe5ae8e6	-0.21377906
59	0xbebe93b6	-0.3722207
60	0xbda7fe3b	-0.082027875
61	0xbe21929f	-0.15778588
62	0xbd905b63	-0.07048681
63	0x3d0af663	0.03392638
64	0xbed3a03a	-0.4133318
65	0xbb541618	-0.0032361802
66	0x3dbf9def	0.09356295
67	0xbe31c869	-0.17361607
68	0xbea27ae5	-0.31734386
69	0xbdc51eec	-0.096250385
70	0x3db0a680	0.08625507
71	0xbeefc2be	-0.46828264
72	0xbd8e7e5d	-0.06957696
73	0xbeb2d304	-0.34926617
74	0xbe0ad31a	-0.13557091
75	0xbec6e265	-0.388446
76	0xbe46eab3	-0.19425468
77	0xbe6d8604	-0.23195654
78	0xbbf677fc	-0.0075216275
79	0xbe1f93dd	-0.15583749
80	0xbe21670f	-0.1576197
81	0xbc3d7e4f	-0.011565759
82	0xbf091f27	-0.5356316
83	0xbf0b465e	-0.54404247
84	0xbeb370c0	-0.3504696
85	0xbda372e6	-0.079808995
86	0xbd86e74c	-0.06587085
87	0xbebf1f1b	-0.3732842
88	0xbe6c2f6f	-0.2306497
89	0xbee13269	-0.43983772
90	0xbedd341e	-0.43203825
91	0xbe330e24	-0.17485863
92	0xbf669884	-0.9007647
93	0x3cc31e9a	0.023818303
94	0xbe5e4445	-0.2170573
95	0xbdef5658	-0.11686391
96	0xbe5dfac2	-0.21677688
97	0xbe04a98c	-0.12955302
98	0x3d903c9d	0.07042811
99	0xbee1ee4f	-0.44127128
100	0x3dbc08df	0.091813795
101	0xbf072772	-0.52794564
102	0xbf0b8d0d	-0.545121
103	0x3d1c0faa	0.038100876
104	0xbe4684b8	-0.19386566
105	0xbe668439	-0.22511376
106	0x3be1c400	0.00688982
107	0xbe92dd5e	-0.28684515
108	0xbe8660a2	-0.262456
109	0xbedda6bb	-0.43291268
110	0xbce52688	-0.027972475
111	0xbf06a289	-0.5259176
112	0xbe87f3b8	-0.2655313
113	0xbd4c58df	-0.04988944
114	0xbe067697	-0.13131176
115	0xbd74ffc0	-0.059814215
116	0x3d0a7622	0.033804066
117	0xbea1a7c5	-0.3157331
118	0xbeb37afb	-0.35054764
119	0xbf269f31	-0.65086657
120	0xbe34f10f	-0.17670082
121	0xbde355f1	-0.111003764
122	0xbd978dcc	-0.074000925
123	0xbeacc9c2	-0.3374768
124	0xbeb69b5c	-0.35665405
125	0xbef6e60b	-0.48222384
126	0xbd744bb3	-0.059642505
127	0x3c5ba04f	0.01340492
128	0xbe8f5943	-0.2799779
129	0xbe085a5f	-0.13315724
130	0xbe74abea	-0.23893705
131	0x3e4f3262	0.20234063
132	0x3cdf4a67	0.027257157
133	0xbed2790b	-0.41107973
134	0xbc91ea9e	-0.01781207
135	0xbc009d75	-0.007850041
136	0xbf09befe	-0.53807056
137	0x3d414b4d	0.047190953
138	0xbeca81ad	-0.3955206
139	0xbec866ed	-0.39141026
140	0xbe838f9b	-0.256955
141	0xbd16ace9	-0.036785994
142	0xbcff2049	-0.031143324
143	0xbf2d37cf	-0.6766328
144	0xbe883857	-0.26605484
145	0xbc21d9a6	-0.009878552
146	0x3e1cbbbf	0.15305994
147	0xbe700e83	-0.23443036
148	0x3e8cd93f	0.27509496
149	0xbef00dea	-0.46885616
150	0x3e3e0646	0.1855708
151	0x3e0f7fe4	0.1401363
152	0xbd1b0141	-0.037842993
153	0xbeae7dbd	-0.34080306
154	0x3eaa1c8b	0.33224902
155	0xbe87fe51	-0.26561216
156	0xbe45f1e3	-0.19330554
157	0xbe8620ee	-0.26196998
158	0xbf1168fe	-0.5680083
159	0x3e8b18ad	0.27167264
160	0xbdc4fcd1	-0.096185334
161	0x3e319259	0.17340983
162	0x3d4be1f2	0.049776025
163	0x3e64f9a3	0.22360854
164	0xbf0c98df	-0.5492076
165	0x3eaa1aa6	0.33223456
166	0x3d13e199	0.03610382
167	0x3d7970b6	0.060898505
168	0xbea28a5c	-0.31746185
169	0xbdb14ae8	-0.08656865
170	0xbb318660	-0.002708815
171	0xbe99361c	-0.29924095
172	0xbebb9014	-0.3663336
173	0xbdd8c7cb	-0.105849825
174	0x3e192a20	0.14957476
175	0x3cf22d87	0.029562725
176	0xbea25454	-0.31704962
177	0xbe54124c	-0.20710105
178	0xbe8042aa	-0.2505086
179	0xbe1bc23c	-0.15210813
180	0x3cae8c96	0.021307271
181	0xbe08dfa3	-0.1336656
182	0x3d2becbf	0.041973826
183	0xbdd07eee	-0.1018046
184	0x3d218db2	0.03944177
185	0xbd1c7ead	-0.038206745
186	0xbec2a0e5	-0.38013378
187	0xbe59c282	-0.21265605
188	0x3f1181c4	0.5683863
189	0xbd4f22c3	-0.05057026
190	0xbdc3baa4	-0.09557083
191	0xbe76c78a	-0.24099556
192	0x3e912daa	0.2835515
193	0x3dc37be1	0.095451124
194	0xbdc8c300	-0.09802818
195	0xbea99028	-0.33117795
196	0xbe22bc1a	-0.15892068
197	0xbd3048da	-0.043038227
198	0xbe0dd379	-0.13850202
199	0x3e526296	0.2054542
200	0xbcae9ff5	-0.021316508
201	0xbe1682a8	-0.14698279
202	0xbeada2b5	-0.33913198
203	0xbdd18629	-0.10230667
204	0xbeedaefe	-0.4642257
205	0x3d4849d0	0.048898518
206	0xbebb832f	-0.36623523
207	0xbc72958e	-0.014806164
208	0xbd950310	-0.07275975
209	0xbf0d8724	-0.55284333
210	0xbe262230	-0.16223979
211	0xbe7c6c02	-0.24650577
212	0xbe65adb2	-0.22429541
213	0xbd822abf	-0.063558094
214	0xbe30daa5	-0.17270906
215	0x3fa5b854	1.2946877
216	0x3c65a5ff	0.014016627
217	0xbe0d2bdc	-0.13786262
218	0xbd81d3fe	-0.063392624
219	0xbe42e869	-0.1903397
220	0xbc738e51	-0.014865474
221	0xbcbf2071	-0.023330899
222	0x3e49a272	0.19690874
223	0xbd3ce2e1	-0.046114806
224	0xbdc3af9c	-0.09554979
225	0x3cc1b9aa	0.023648102
226	0xbe6ec1db	-0.23316137
227	0xbe563ae2	-0.209209
228	0xbe30bf09	-0.17260374
229	0xbdb8719b	-0.090060435
230	0xbd1bd4b6	-0.038044654
231	0xbe1093d5	-0.14118893
232	0xbe37bb23	-0.1794248
233	0xbe1e71e9	-0.15473141
234	0xbe01657e	-0.12636372
235	0x3d882ab6	0.066487715
236	0xbe85ed75	-0.26157728
237	0x3e0077d2	0.12545708
238	0xbe0829cc	-0.13297194
239	0x3db3c71b	0.08778211
240	0xbe5c3567	-0.21504746
241	0xbdf45a05	-0.11931232
242	0xbc9d520d	-0.019204164
243	0xbe38ff72	-0.18066195
244	0xbe4fb871	-0.20285203
245	0xbd99a6a2	-0.07502486
246	0xbed9b371	-0.42519715
247	0xbda4ecec	-0.08053002
248	0xbc99cdb3	-0.018774843
249	0x3d0ee35c	0.034884796
250	0x3d0ce060	0.03439367
251	0xbc5d079a	-0.013490582
252	0xbe5a774f	-0.21334575
253	0xbe5622e7	-0.20911752
254	0xbdaae6f5	-0.08344833
255	0xbe6b74b6	-0.2299374

transformer.layers.0.1.fn.net.3.bias f4 [36]
0	0xbe0a328f	-0.13495849
1	0xbe80a930	-0.2512908
2	0xbd687694	-0.05675371
3	0xbe07afcb	-0.13250653
4	0x3e775697	0.24154125
5	0xbc3a3c1f	-0.011366873
6	0xbc20ea55	-0.009821494
7	0xbd98190f	-0.074266545
8	0xbe9b18fc	-0.302925
9	0x3daa8bf1	0.08327473
10	0xbd6362f8	-0.055514306
11	0xbdbcca41	-0.09218264
12	0x3e2d3083	0.16913037
13	0xbe666704	-0.22500235
14	0x3e7fcc0d	0.24980183
15	0xbdc7caa2	-0.09755446
16	0x3e832348	0.25612855
17	0x3e5a3d07	0.21312343
18	0xbd7d08a1	-0.061775807
19	0x3e10592f	0.14096521
20	0xbd02c272	-0.03192372
21	0x3d943b04	0.07237819
22	0xbe61fa72	-0.22068194
23	0xbe80c6a6	-0.25151557
24	0xbe8d8fbf	-0.27648732
25	0x3c905a98	0.017621323
26	0xbd144426	-0.036197804
27	0xbc78310a	-0.015148411
28	0xbe3520c3	-0.17688279
29	0x3e8ecfdf	0.27892968
30	0xbc8b69d5	-0.017018238
31	0x3d78ddc2	0.06075836
32	0xbc0b7986	-0.00851286
33	0x3d7bf7f6	0.06151577
34	0xbdd5d018	-0.10440081
35	0xbd7d0e05	-0.06178095

transformer.layers.1.0.norm.weight f4 [36]
0	0x3fcda144	1.6064839
1	0x3dcc4707	0.09974485
2	0x3aa0a1ff	0.001225531
3	0x3f61e517	0.8824019
4	0x3f00dff6	0.5034174
5	0x3fcade65	1.584912
6	0x3f968b7d	1.1761318
7	0x3f91ad0e	1.1380937
8	0x3f162df2	0.58663857
9	0x3f381611	0.7190867
10	0x3f85f50c	1.0465407
11	0x3face5ae	1.3507593
12	0x3e462278	0.19349086
13	0x3fa3edd5	1.2806956
14	0x3ff8bdcd	1.9432923
15	0x3fad0a77	1.3518819
16	0x3ee38486	0.44437045
17	0x3ee01fd4	0.43774283
18	0x3fc1bafb	1.5135187
19	0x3fab2a02	1.3372195
20	0x3f80a839	1.0051337
21	0x3e7f83ba	0.24952593
22	0x3f1c7414	0.6111462
23	0x3f4401a8	0.7656503
24	0x3e41c83e	0.18924043
25	0x3f4cb491	0.7996302
26	0x3f9f2517	1.2433194
27	0x3ff6db57	1.9285687
28	0x3f469257	0.77567047
29	0x3dd557f6	0.10417168
30	0x3f89c20c	1.0762343
31	0x3f5e360b	0.86801213
32	0x3fae22ec	1.3604407
33	0x3f59d557	0.85091156
34	0x3f76a464	0.9634459
35	0x3fb5670a	1.417207
