ViT/ViT1/7 V train 0.943 V test 0.913 ABS 1/model_bestV.pt (torch, 414407 bytes, 74 tensors)

pos_embedding f4 [1, 19, 36]
0	0x3f7635e5	0.96175987
1	0xbfab1277	-1.336501
2	0x3fda262f	1.7042903
3	0x3f7e8a03	0.9942934
4	0x3fb4a9d5	1.4114329
5	0xc02f18e2	-2.7358937
6	0xbf808d19	-1.004306
7	0x4056a116	3.353582
8	0x3ff2460b	1.8927625
9	0x3f6108fa	0.8790432
10	0xc00ecfa7	-2.231424
11	0xbf839158	-1.027873
12	0xbf391e4f	-0.7231187
13	0x3e8dcefd	0.27696982
14	0x3fff88e2	1.9963648
15	0x3f88f1a5	1.0698744
16	0x3fcd78bd	1.6052471
17	0x402bc617	2.6839654
18	0xbfdc1727	-1.7194566
19	0x3fe418dd	1.7820088
20	0x3e1d4e26	0.15361843
21	0x3ed4892c	0.41510904
22	0x3fd36c95	1.6517512
23	0xc022cea5	-2.5438626
24	0x3fa5247c	1.2901759
25	0x3fc0e927	1.5071152
26	0xbf6e2f5f	-0.9304103
27	0xbeae55bb	-0.34049782
28	0x3e8dbf94	0.27685225
29	0x3eda46b1	0.42632058
30	0x3fa97737	1.3239506
31	0xbff844cb	-1.9395994
32	0x3eb4afd6	0.35290402
33	0xc0373075	-2.8623326
34	0x3ed0da1e	0.4079141
35	0x3eedce10	0.46446276
36	0xbf2fe442	-0.6870767
37	0x3e6892a0	0.22712183
38	0x404a7bce	3.1638064
39	0x3f8041f9	1.0020133
40	0xbfaf8a26	-1.3714035
41	0xbf1fea07	-0.6246647
42	0x403ca31c	2.9474554
43	0x401349df	2.3013837
44	0x3f658adb	0.89665
45	0x403a7857	2.913595
46	0x3eb873f8	0.36025977
47	0xbebb1fb8	-0.36547637
48	0xbfbb00df	-1.4609641
49	0x3e40103e	0.18756196
50	0x3eeda9a0	0.46418476
51	0xbeba2826	-0.36358756
52	0x3fe9ba92	1.8260062
53	0x3ffdc033	1.982428
54	0xbf726d24	-0.94697785
55	0x3f3fc723	0.74913234
56	0x3eff9c0a	0.49923736
57	0xbffe8623	-1.9884685
58	0xbe327887	-0.1742879
59	0x3fe2b929	1.7712756
60	0x3ff5611a	1.9170258
61	0x3f9331d0	1.1499577
62	0xc0196255	-2.3966267
63	0xbe2ff4fe	-0.17183301
64	0x3f7f1c3a	0.99652445
65	0x3f97ae66	1.1850097
66	0x3fd6034f	1.671976
67	0x3c8e5f5f	0.01737946
68	0x401fc59f	2.4964368
69	0xbfb2dfce	-1.397455
70	0xc029ae40	-2.6512604
71	0x3f105b24	0.5638907
72	0xc02d38ab	-2.7065837
73	0xbf954047	-1.1660241
74	0x3fe74dd5	1.8070627
75	0x3f8179ef	1.0115336
76	0x3ef900bf	0.48633382
77	0x3e2b7cd2	0.16746834
78	0x40553a46	3.3316817
79	0xbfb5e331	-1.4209958
80	0x3fe3e36d	1.780378
81	0xbfbceaf3	-1.4759201
82	0x3facb0b8	1.349143
83	0xc0708093	-3.7578475
84	0x3f865eeb	1.0497717
85	0x407a0fc6	3.9072127
86	0xbe659b0a	-0.22422424
87	0x3e6b0352	0.22950485
88	0xbf96f30d	-1.1792923
89	0x409049af	4.5089946
90	0xc0255483	-2.5832832
91	0xbfdb4397	-1.7130002
92	0x3f367afb	0.71281403
93	0xbfc66860	-1.5500603
94	0xc027eec6	-2.6239486
95	0xbf64f102	-0.8943025
96	0x40818ad4	4.048197
97	0x3fa7364d	1.3063446
98	0x3ecfc21d	0.40577784
99	0x401a158a	2.4075646
100	0x4048c729	3.1371558
101	0xbfe7cfc7	-1.8110284
102	0x4019907f	2.3994443
103	0xbf413b5d	-0.75481206
104	0xc08763f5	-4.230952
105	0xc0462c48	-3.0964527
106	0xc019eacd	-2.404956
107	0x3f7cad4d	0.98701936
108	0xbdf1d370	-0.11807907
109	0x40842199	4.1291013
110	0xc0558235	-3.3360722
111	0xc028c431	-2.6369746
112	0xbff8321a	-1.939029
113	0xbfb6ccd9	-1.4281265
114	0xbdd110e6	-0.10208301
115	0xbf393edb	-0.72361535
116	0xc0711611	-3.7669718
117	0xbf8aac56	-1.0833843
118	0xc091e4d4	-4.559183
119	0x3d82f279	0.06393904
120	0xbef5e4c5	-0.480261
121	0xbe3efa1b	-0.18650095
122	0x3f71ea35	0.94497997
123	0xbfe2a1b5	-1.7705599
124	0x3f9b1562	1.21159
125	0xbf6ecfd3	-0.93285865
126	0x4001d236	2.0284553
127	0x3fbb202a	1.4619191
128	0x400a20b4	2.158246
129	0xc0125976	-2.2867103
130	0x40827599	4.076855
131	0xc0e213f7	-7.064937
132	0xbf3619df	-0.71133226
133	0xc0aa4be0	-5.321762
134	0xbf941a24	-1.1570477
135	0xc0855248	-4.166294
136	0x3f58474c	0.8448379
137	0xc021bcb6	-2.527143
138	0x3fb2384d	1.3923432
139	0x402f3246	2.7374434
140	0x406f4bf8	3.7390118
141	0xc06d8e2d	-3.7118027
142	0x406e58b8	3.724165
143	0x3dfc0e0a	0.12307365
144	0x40a348a5	5.1026177
145	0x3ff7ee69	1.9369632
146	0x4025d2ac	2.5909834
147	0xc0875025	-4.2285333
148	0x3fff22e2	1.993252
149	0xbe86b43d	-0.26309386
150	0x3f8c5785	1.0964209
151	0x3f02ddc8	0.5111966
152	0x3f765eb2	0.96238244
153	0xbf93370d	-1.1501175
154	0x3ff669a8	1.9250994
155	0x408c201c	4.3789196
156	0xbf0c638f	-0.54839414
157	0xc0b8d47a	-5.775937
158	0xc027f06c	-2.6240492
159	0xbfbb76d8	-1.4645643
160	0x3f4d0ffa	0.80102503
161	0xbd9086c4	-0.070569545
162	0xc0933399	-4.6000485
163	0x402ddd8b	2.716647
164	0xc082ebdf	-4.091293
165	0x40819871	4.0498586
166	0xbf4f7dd8	-0.810514
167	0x4028bf93	2.6366928
168	0xc01ac8d4	-2.4185076
169	0x3fae1187	1.3599099
170	0xc09a16c7	-4.8152804
171	0x40d87b0e	6.7650213
172	0xc00b0811	-2.1723673
173	0xbe7b2e1a	-0.24529305
174	0x407db0d7	3.9639184
175	0xbffc6a77	-1.971999
176	0xc096ffe5	-4.718737
177	0x4054571a	3.3178163
178	0xc01d672a	-2.4594216
179	0xbff0407a	-1.8769677
180	0xbe7425cb	-0.23842542
181	0xbf8e405f	-1.1113394
182	0x3e0b8a1e	0.13626906
183	0x406be812	3.6860394
184	0x3f2388b7	0.63880485
185	0x4023b868	2.5581303
186	0x408a9dbb	4.331754
187	0x3ea5c9e4	0.32380593
188	0xbf803e65	-1.0019041
189	0x4049b20e	3.1514926
190	0xbe6ccec6	-0.23125753
191	0xc01c1514	-2.4387865
192	0xbf83f3a4	-1.0308728
193	0xbe1a3947	-0.15060912
194	0x40a3f354	5.123453
195	0x402c8c03	2.6960456
196	0xbed85d49	-0.4225867
197	0xbea86fa6	-0.3289768
198	0xc0580155	-3.3750813
199	0x3fe4cfa1	1.7875863
200	0x3fa9cc08	1.326539
201	0xc082c8cb	-4.087011
202	0xbc1e7250	-0.009670809
203	0x3fce15e5	1.6100432
204	0x4004216c	2.06454
205	0x3f8f02ef	1.117277
206	0xc0414dce	-3.0203738
207	0xc089c840	-4.3056946
208	0x40390368	2.890833
209	0x3fcde3d4	1.6085153
210	0xbfc7bf76	-1.5605304
211	0xbfb4c3b9	-1.412223
212	0xbfa1b902	-1.2634585
213	0xc08ff1d5	-4.4982705
214	0xc00af5b3	-2.1712463
215	0xc03b9212	-2.9307904
216	0x3f88c8fc	1.0686336
217	0xc00792e4	-2.1183405
218	0xbe952944	-0.29133046
219	0xbfe03ec7	-1.7519158
220	0xc0624b17	-3.5358331
221	0xbf9730fd	-1.1811825
222	0x40040013	2.0625045
223	0x3f88094a	1.0627835
224	0x40c56fe0	6.1699066
225	0x3f0d9f9d	0.55321676
226	0x3e4ac153	0.1980031
227	0xbf3674fd	-0.7127226
228	0x3e3ab1cf	0.18231891
229	0xbfbfc151	-1.498087
230	0x3e2b6700	0.1673851
231	0x4012c761	2.2934191
232	0x3e7a3e08	0.24437726
233	0xbfa3bb72	-1.2791579
234	0xbf2accef	-0.66718954
235	0xc0327ca6	-2.788858
236	0x3fdf7c2d	1.745977
237	0xbf961e16	-1.1727931
238	0xc063c2b5	-3.558759
239	0x4072b437	3.7922494
240	0x3eeea11b	0.4660729
241	0x40178d84	2.3680124
242	0xbf78594a	-0.97011244
243	0x3e4f0690	0.20217347
244	0xbfaad186	-1.3345191
245	0x404e8dfe	3.2274165
246	0xbec67dbe	-0.3876781
247	0x3fac7d12	1.3475668
248	0xbf42d9d3	-0.76113623
249	0xbdd3bd03	-0.103387855
250	0xc032adb8	-2.791853
251	0xbf05482b	-0.52063245
252	0xbd9f664c	-0.077831835
253	0xbecf8519	-0.40531233
254	0x401d5061	2.458031
255	0xc0077467	-2.1164796

cls_token f4 [1, 1, 36]
0	0x3f7b9970	0.98281
1	0xbf6adc4c	-0.91742396
2	0x4020580c	2.505374
3	0x3f1685dc	0.58798003
4	0xbf1e1412	-0.61749375
5	0xbffcd79b	-1.9753298
6	0x3f0b861e	0.5450152
7	0x40833d14	4.101206
8	0xbfa05130	-1.2524776
9	0xbf274a64	-0.65347886
10	0xbfa93d74	-1.3221879
11	0xbe892d61	-0.26792434
12	0xbf4b8cf0	-0.7951193
13	0x3e87a588	0.26493478
14	0x401207ae	2.2817187
15	0xbed0521e	-0.4068765
16	0x3f70d9c0	0.9408226
17	0x3f38785d	0.7205866
18	0xbfad29e8	-1.3528414
19	0x4028d533	2.6380126
20	0xbf847cf7	-1.0350636
21	0x3ff894c3	1.9420398
22	0x3fb47cbb	1.4100565
23	0xbe7d17e6	-0.24716148
24	0x3dc56c25	0.096397676
25	0xbe9f7002	-0.31140143
26	0xbf97a262	-1.184643
27	0xbf1cceaa	-0.61252844
28	0x3f174b13	0.5909893
29	0x3fa56007	1.291993
30	0x3fda0ff4	1.7036119
31	0xc035c587	-2.840181
32	0xbf6170f7	-0.88062996
33	0xc000bc68	-2.0114994
34	0xbee404e8	-0.44534993
35	0x3fb5b4e9	1.4195834

to_patch_embedding.1.weight f4 [36, 12]
0	0x3e82484f	0.25445792
1	0x3ec9f1dd	0.3944234
2	0xbf8fce2c	-1.1234794
3	0x3f01dab7	0.5072436
4	0x3f470aaa	0.7775065
5	0xbf1f7237	-0.62283653
6	0xbfc59756	-1.5436809
7	0x40000e29	2.0008643
8	0x3f15829d	0.58402425
9	0xbecd6580	-0.401165
10	0x3fa83e84	1.3144078
11	0x3f20d1ef	0.62820333
12	0xbed7698e	-0.4207272
13	0xbeefd25b	-0.46840176
14	0xbed51806	-0.4161989
15	0xbf8cb78f	-1.0993518
16	0x3f833e0a	1.0253308
17	0x3e10ea6d	0.14151926
18	0x3f1082a2	0.5644933
19	0x3fe1a6f7	1.7629079
20	0x3d2c4912	0.042061873
21	0xbf05a37a	-0.5220257
22	0xbe9c24d9	-0.30496863
23	0x3e471b40	0.19443989
24	0xbfd5e209	-1.6709605
25	0x3f0af5f9	0.54281574
26	0xbefbb122	-0.4915858
27	0xbe9961b0	-0.29957342
28	0x3c0618de	0.00818464
29	0x3f5c3c3f	0.8602943
30	0x3f5f5a14	0.87246823
31	0xbf215e06	-0.63034093
32	0xbeb36b49	-0.3504279
33	0x3e0517fd	0.12997432
34	0xbe13bf98	-0.14428556
35	0xbe82a023	-0.255128
36	0x3f2b7cb6	0.6698717
37	0x3e85ed5f	0.26157662
38	0x3e5c2c90	0.21501374
39	0xbf4687e1	-0.77551085
40	0x3f76901b	0.9631364
41	0x3b79c1cf	0.0038109904
42	0xbf9a3694	-1.2047906
43	0xbee7dd76	-0.4528615
44	0x3f972880	1.1809235
45	0xbec647c1	-0.3872662
46	0xbf9db028	-1.2319384
47	0x3fbd6405	1.4796149
48	0x3f2c4516	0.67292917
49	0xbe913d46	-0.2836706
50	0x3fd783cf	1.68371
51	0x3f0ee32c	0.55815387
52	0xbd373751	-0.04473049
53	0x3f082ade	0.5319041
54	0xbeb24b38	-0.34823012
55	0xbdf87d10	-0.12133229
56	0x3e139c00	0.14414978
57	0x3f144046	0.57910573
58	0xbdaf7bc7	-0.085685305
59	0xbea86396	-0.32888478
60	0xbe84d0f5	-0.25940672
61	0x3eff9acf	0.49922797
62	0x3e9cae6c	0.30601823
63	0x3e8dd4b2	0.27701336
64	0x3ed431ba	0.41444188
65	0x3cca81ab	0.024720034
66	0xbfaf227f	-1.3682402
67	0x3ded82c0	0.11597204
68	0xbec91e1e	-0.3928079
69	0x4050da84	3.2633371
70	0x3eea9c05	0.45822158
71	0xbf25d68d	-0.64780504
72	0xbeb64106	-0.35596484
73	0x3f1aa00f	0.6040048
74	0xbfab32ed	-1.3374916
75	0xbec13fa1	-0.37743858
76	0xbf155d56	-0.58345544
77	0xbf544328	-0.8291497
78	0x3f23d28c	0.63993144
79	0x3f20ae57	0.6276602
80	0x3e2103a0	0.15724039
81	0xbfe98c79	-1.8245994
82	0x3f7f3413	0.99688834
83	0x3f1c2a3c	0.61001945
84	0x3fd5d5bf	1.6705855
85	0x3f1061d4	0.56399274
86	0xbf58ea25	-0.84732276
87	0xbfaddd33	-1.358313
88	0x3fe6b826	1.8024948
89	0xbf23cf8d	-0.6398857
90	0xbfeba975	-1.8411089
91	0x3e6aa5f9	0.22914876
92	0xbd501ff7	-0.050811734
93	0xbf5a2e9d	-0.85227376
94	0x3b809f6c	0.0039252546
95	0x3ea9ba14	0.3314978
96	0xbeabf9ba	-0.33588964
97	0x3f222578	0.6333842
98	0x3f7652b9	0.96219975
99	0x3f70e7ed	0.9410389
100	0xbf575dcb	-0.8412749
101	0x3f3b87ba	0.7325398
102	0x3f6ad8b4	0.9173691
103	0x3fae9986	1.3640602
104	0x3eb074ad	0.34464017
105	0xbe80e3de	-0.2517385
106	0xbf815424	-1.0103803
107	0xbca687c0	-0.020328403
108	0xbf1e74a8	-0.61896753
109	0x400485f1	2.0706751
110	0x3fb0601a	1.3779328
111	0xbf21c774	-0.63194966
112	0xbea43655	-0.32072702
113	0x3fc114bc	1.5084453
114	0x3e1c6458	0.15272653
115	0xbeea6f01	-0.45787814
116	0xbd998451	-0.074959405
117	0xbe83414a	-0.2563575
118	0xbf8e2ed0	-1.1108036
119	0xbce9b2ba	-0.028527606
120	0xbe3855b9	-0.1800145
121	0x3f591ae0	0.84806633
122	0x4007209e	2.1113658
123	0x3e891892	0.26776558
124	0xbd3b2e07	-0.045698192
125	0x3fdbf766	1.7184875
126	0x3f7638ff	0.9618072
127	0xbed4aef6	-0.41539735
128	0xbf0c6bf5	-0.5485223
129	0xbe43812e	-0.19092247
130	0xbfc949cc	-1.5725646
131	0xbf15fea4	-0.58591676
132	0x3e45016c	0.19238824
133	0xbe33d608	-0.17562115
134	0xbe9ba995	-0.30402818
135	0xbf479abd	-0.77970487
136	0x3e032ae1	0.12809326
137	0x3eeb85a3	0.46000394
138	0xbf5cb01c	-0.8620622
139	0x3f9503d6	1.1641796
140	0x3cf3a397	0.029741092
141	0x3eea052e	0.45707077
142	0xbf7dc978	-0.9913554
143	0xbd8f3c9e	-0.06993984
144	0x3efdf603	0.49601755
145	0xbe806e16	-0.2508399
146	0x3ea3257a	0.3186453
147	0x3ef23b8c	0.47311056
148	0xbf27cf8d	-0.6555107
149	0xbc979477	-0.01850341
150	0xbf9a841a	-1.2071564
151	0x3f0c379b	0.5477235
152	0xbe74d820	-0.2391057
153	0xbe938897	-0.28815147
154	0xbf0fade4	-0.5612471
155	0xbe8ad38c	-0.27114522
156	0x3e7c09b9	0.24613084
157	0xbf0fa8a3	-0.56116694
158	0x3f5fec8b	0.8747031
159	0x3f1c740c	0.61114573
160	0x3f597522	0.84944355
161	0xbdebcaad	-0.11513267
162	0x3f4b6c21	0.79461867
163	0xbfd050a8	-1.6274614
164	0xbe1eae98	-0.1549629
165	0x3f8a6b45	1.0813986
166	0xbfb137d3	-1.3845161
167	0xbf0273bc	-0.50957847
168	0xbd1ae083	-0.037811767
169	0x3f6dff47	0.9296765
170	0xbf998914	-1.1994958
171	0xbe025ad4	-0.1272996
172	0x3ecd5257	0.40101883
173	0xbf52beaf	-0.8232221
174	0x3f58426e	0.84476364
175	0x3e559e29	0.20861115
176	0x3f9d3c5a	1.2284043
177	0x3f257984	0.64638543
178	0x3f7931ad	0.97341424
179	0x3fa1bce9	1.2635776
180	0xbf402fcc	-0.7507293
181	0xbee216bb	-0.44157967
182	0x3f0c9f11	0.54930216
183	0x3f2aa67f	0.666603
184	0x3eea1183	0.45716485
185	0x3ea72f57	0.32653305
186	0xbf3e038a	-0.7422415
187	0xbf87a7f2	-1.0598128
188	0xbf07c669	-0.53037125
189	0x3f23b951	0.63954645
190	0x3f784862	0.9698545
191	0xbef1eb3e	-0.47249788
192	0xbfebb6dc	-1.8415179
193	0x3f083cab	0.5321757
194	0xbf8a41f5	-1.0801378
195	0x3f637439	0.88849217
196	0xbd1b46d1	-0.037909333
197	0xbfa62a03	-1.2981571
198	0x3e8c300f	0.27380416
199	0xbf1e1dd2	-0.6176425
200	0xbdf21e57	-0.11822193
201	0x3e86067d	0.26176825
202	0x3f94f435	1.1637026
203	0xbdd998c0	-0.10624838
204	0x3fc8bd5b	1.5682787
205	0xbf9e0178	-1.2344198
206	0xbf2ce772	-0.6754066
207	0x3d00e3bd	0.03146719
208	0xbe2ea8f9	-0.17056645
209	0x3f10f026	0.5661644
210	0xbf2f7aae	-0.6854657
211	0x3f3272a5	0.69706184
212	0x3f2ab10b	0.66676396
213	0xbe452ab4	-0.19254571
214	0x3d88ed79	0.06685919
215	0x3f43e83e	0.7652625
216	0xbf07d171	-0.5305396
217	0xbf211e22	-0.62936604
218	0x3f6abd23	0.9169485
219	0xbead6c6e	-0.33871788
220	0x3e0b4d88	0.13603795
221	0x3eb82fe0	0.35974026
222	0x401b63ba	2.4279618
223	0xbf6d625c	-0.9272821
224	0x3ec717b4	0.38885272
225	0x3f3405bd	0.70321256
226	0xbc4a5ba2	-0.0123509485
227	0x3df9f4dd	0.12204907
228	0x3e2d5247	0.16925918
229	0x4007acfc	2.1199331
230	0xc009efbe	-2.1552577
231	0xbebcb05c	-0.36853302
232	0x3e834571	0.25638917
233	0xbffe412e	-1.9863641
234	0xbd88fc62	-0.06688763
235	0x3f542515	0.8286908
236	0x3e37cfe8	0.17950404
237	0xbf4aa9e9	-0.7916551
238	0x3fa48136	1.2851932
239	0x3e492bec	0.19645661
240	0x3fcee5c4	1.6163869
241	0xbe5b3ed5	-0.21410687
242	0xbf617c4b	-0.8808028
243	0xbdaa77fa	-0.08323665
244	0x3da9c723	0.082899354
245	0xbfdb5def	-1.7138041
246	0x3f8dc963	1.1077083
247	0xbf406d56	-0.75166833
248	0xbe82f69a	-0.25578767
249	0xbe81f361	-0.25380996
250	0x3f4f3e30	0.80954266
251	0xbeabd37f	-0.33559796
252	0xbdba9c40	-0.091118336
253	0x3de3fe0e	0.111324415
254	0xbe07b93f	-0.1325426
255	0x3f11e7c6	0.56994283

to_patch_embedding.1.bias f4 [36]
0	0xbe988944	-0.29792225
1	0xbffae69b	-1.9601625
2	0x3f3745e5	0.71591026
3	0xbfef1d97	-1.8680905
4	0x3e2f6378	0.17127788
5	0x3f8df7a1	1.1091195
6	0x3fa86863	1.3156856
7	0xbeae9131	-0.34095147
8	0x3fad8a26	1.3557785
9	0x3f84f0f0	1.0386028
10	0x3f4241bf	0.7588157
11	0xc0082a99	-2.1276
12	0x3e8283c0	0.25491142
13	0xbf0efdfc	-0.558563
14	0xbe199b3f	-0.15000628
15	0x3f814b5b	1.0101122
16	0xbfe68673	-1.8009781
17	0x3fea1404	1.8287358
18	0xbfab4719	-1.3381072
19	0xbf1273b8	-0.5720782
20	0x40125342	2.2863317
21	0xbf0d7506	-0.5525669
22	0xc01da070	-2.4629173
23	0x3fd21fe3	1.6415981
24	0x3fc4180d	1.531984
25	0x3f9090a2	1.1294138
26	0x3f5f4009	0.87207085
27	0x3f65a033	0.8969757
28	0x3f907063	1.1284298
29	0x3ee20abe	0.4414882
30	0x3ec363a5	0.3816196
31	0x4016fb17	2.3590753
32	0xbfa0091e	-1.2502782
33	0xbf80085f	-1.0002555
34	0xc00e8172	-2.2266507
35	0xbf30ac51	-0.69012934

transformer.layers.0.0.norm.weight f4 [36]
0	0x4014a968	2.3228397
1	0x3fe9223b	1.8213571
2	0x3fd2aee9	1.6459628
3	0x40325b11	2.7868083
4	0x3e962bc4	0.29330266
5	0x3fcd46af	1.6037196
6	0x3ddcdabd	0.107839085
7	0x3f9dad63	1.2318538
8	0x3fce29e5	1.6106535
9	0xbf037ca9	-0.5136209
10	0x3f0606c3	0.5235407
11	0x3fc952f0	1.5728436
12	0x3ecc4f59	0.39904287
13	0x3f8d10c3	1.102074
14	0x3fe69985	1.80156
15	0x3ef18f47	0.47179624
16	0x3e1bb1b0	0.15204501
17	0x3e0da1e8	0.13831294
18	0x403567ca	2.8344598
19	0x3f830fd7	1.0239209
20	0x3fcacf56	1.5844524
21	0x3f88d2f5	1.0689379
22	0x3f80a1b4	1.0049348
23	0x3f9e4a5a	1.236644
24	0x3f0b2e08	0.54367113
25	0x3f4640d7	0.7744269
26	0x402df732	2.7182126
27	0x4039548a	2.8957849
28	0x401058cd	2.25542
29	0x3f862a24	1.048161
30	0x3fb9855d	1.4493824
31	0x401fa631	2.4945185
32	0x3ff846fc	1.9396663
33	0x3f9a3bb9	1.2049476
34	0x3faddd92	1.3583243
35	0x3f9b6ba8	1.2142229

transformer.layers.0.0.norm.bias f4 [36]
0	0x3e21c8bc	0.1579923
1	0x3ebbcca2	0.3667956
2	0x3f565946	0.8372997
3	0xbf90c452	-1.1309912
4	0xbfa16254	-1.2608132
5	0x3e295a4b	0.1653835
6	0x3e52242b	0.2052161
7	0xbed7edd6	-0.42173642
8	0xbd17a593	-0.03702314
9	0x3bb0acdc	0.0053917
10	0xbe5a5f64	-0.21325451
11	0x3f294e2a	0.66134894
12	0x3cea5713	0.028605973
13	0xbfa0ba99	-1.2556945
14	0x3f88f9ec	1.070127
15	0x3f64f6bd	0.8943899
16	0x3ee55a07	0.44795248
17	0xbec035d0	-0.37541056
18	0x3e037504	0.12837607
19	0x3e544416	0.20729098
20	0x3e644b3f	0.22294329
21	0x3f57f2be	0.8435477
22	0x3e9b7413	0.30361995
23	0x3c6a32e0	0.014294356
24	0xbef26057	-0.47339126
25	0x3e24b96d	0.1608636
26	0xbeceb9f4	-0.40376246
27	0x3e8aaa50	0.27083063
28	0x3e835ddb	0.25657544
29	0x3eede186	0.46461123
30	0xbd878de7	-0.066188626
31	0x3f6d0b46	0.92595327
32	0xbebcde00	-0.36888123
33	0x3e98ee95	0.29869524
34	0xbee705f7	-0.45121738
35	0xbf8671bc	-1.0503459

transformer.layers.0.0.fn.to_qkv.weight f4 [216, 36]
0	0x3e513963	0.20432048
1	0xbf04dcfb	-0.5189969
2	0xbf3120fd	-0.6919096
3	0x3fa4d7df	1.2878379
4	0x3f679314	0.904588
5	0xbe81b117	-0.2533042
6	0x3ebc7a41	0.36812022
7	0x3e68040b	0.22657792
8	0xbfb2c0d7	-1.39651
9	0x3f2705bd	0.6524313
10	0xbfa9e38f	-1.327257
11	0x3bb0721d	0.005384697
12	0xbe5f0dbc	-0.21782583
13	0xbdbcb92f	-0.092150085
14	0xbd811279	-0.063023515
15	0xbf7423ec	-0.9536731
16	0xbda77a7f	-0.08177661
17	0x3faac8ee	1.3342569
18	0x3f32c400	0.6983032
19	0x3f2f82a8	0.6855874
20	0x3eb9d950	0.3629861
21	0xc00a4c96	-2.1609244
22	0x3f8af782	1.0856783
23	0xbefe6e4c	-0.49693525
24	0x3f140609	0.5782171
25	0xbede7a0d	-0.43452492
26	0xbede8270	-0.4345889
27	0xbf862658	-1.0480452
28	0x3eff167c	0.49821842
29	0x3fb4294e	1.4075105
30	0xbf674c0e	-0.90350425
31	0x3f29b8aa	0.662974
32	0x3f5ed09e	0.87037075
33	0x3ce2386c	0.027614795
34	0x3e3e4a07	0.18582927
35	0x3e8a073d	0.26958647
36	0x3db23f4d	0.0870348
37	0xbf0c95ca	-0.5491606
38	0x3f99eae6	1.202481
39	0xc042875a	-3.0395112
40	0x3ea768d8	0.32697177
41	0x3f1d4ea2	0.6144811
42	0xbe26556b	-0.16243522
43	0xbfae6d1a	-1.3627045
44	0x40245ce1	2.5681689
45	0xbe541b57	-0.20713554
46	0x3fd34381	1.6504976
47	0x3ebef1ad	0.3729376
48	0x3e652c9f	0.22380303
49	0xbf75238e	-0.9575738
50	0xbf3f41ce	-0.74709785
51	0x3ebfeaf6	0.37483948
52	0xbf29f3c6	-0.66387594
53	0xbf26528d	-0.6496971
54	0xbf66303f	-0.8991737
55	0xbf133229	-0.57498413
56	0xbfa8d5fb	-1.3190302
57	0x40464700	3.0980835
58	0xbf69ac32	-0.91278374
59	0x3f54d868	0.8314271
60	0xbf815e07	-1.010682
61	0x3ef818e2	0.48456484
62	0x3f98d0aa	1.1938679
63	0x4017a259	2.369284
64	0xbeaa3d23	-0.3324977
65	0xbf6ef0a9	-0.9333597
66	0x3e4dcc2e	0.2009742
67	0xbd88420b	-0.06653222
68	0xc028184b	-2.6264827
69	0x3f95afb8	1.169425
70	0xbfc3c507	-1.5294503
71	0x3f84f5ab	1.0387472
72	0xbfad144e	-1.3521821
73	0xbed51dc4	-0.41624272
74	0xbf70f9db	-0.9413125
75	0x405b0aa1	3.4225237
76	0xbed935e8	-0.4242394
77	0xbf026c30	-0.5094633
78	0xbe885e88	-0.26634622
79	0x3fe9853d	1.8243786
80	0xc04327bc	-3.0493002
81	0x400153f9	2.0207503
82	0xbfd539ff	-1.6658324
83	0xbe0eaf5a	-0.13934079
84	0x3e79e8f7	0.24405275
85	0x3fd9d7ff	1.7019042
86	0x3f991f14	1.1962609
87	0x3eae45c9	0.34037617
88	0xbd8bda7a	-0.068287805
89	0x3f1b94dd	0.6077402
90	0x3e8c7adf	0.27437493
91	0x3f13a64e	0.57675636
92	0x3fbdacb5	1.4818331
93	0xc02ee4b2	-2.7327085
94	0x3f12034c	0.5703628
95	0x3ead8248	0.3388846
96	0x3fa5da88	1.2957315
97	0x3e2a864f	0.16652797
98	0xbedb58b2	-0.42841107
99	0xbff7f8fa	-1.9372857
100	0x3f94a87e	1.161392
101	0x3f4cd988	0.80019426
102	0xbfa578a2	-1.2927439
103	0xbf087ff2	-0.5332023
104	0x3fafdba0	1.3738899
105	0xbf46ad8e	-0.77608573
106	0xbf2ab5c8	-0.66683626
107	0xbf7689ff	-0.96304315
108	0x3d68f028	0.056869656
109	0xbe11155a	-0.14168301
110	0x3e3ad8a3	0.18246703
111	0xbf1a088e	-0.60169303
112	0x4026ff30	2.6093254
113	0x3ebff299	0.37489775
114	0xbdbf5ebc	-0.09344241
115	0xbf9a8360	-1.2071342
116	0x3fde86c6	1.738488
117	0xbe62573c	-0.2210359
118	0x3f3e5066	0.7434143
119	0x3aeb6176	0.0017958123
120	0xbf2b829a	-0.6699616
121	0x3f65ec0b	0.898133
122	0xbffaab76	-1.9583576
123	0xbfbadaec	-1.459806
124	0xbf3ef339	-0.7458988
125	0x3faa0615	1.3283106
126	0xbf3dcfbc	-0.741451
127	0x3e777f1b	0.2416958
128	0xbfb1a2f9	-1.387786
129	0x3e35b52f	0.17744897
130	0x3eaa31ce	0.33241123
131	0xbfa887c0	-1.3166428
132	0x3d99c800	0.0750885
133	0xbf6e0564	-0.92976975
134	0x3e55ad6b	0.20866935
135	0x3fadeef2	1.3588545
136	0x3f266a0b	0.6500556
137	0xbedfa307	-0.43679067
138	0x3edcb167	0.43104097
139	0x3da48681	0.08033467
140	0xbf891795	-1.0710322
141	0xbf10003c	-0.5625036
142	0x3f31d48d	0.6946495
143	0x4010fcd4	2.2654314
144	0xbec78f2e	-0.38976425
145	0xbe8aaca5	-0.27084842
146	0x3f3bd378	0.7336955
147	0xbf917956	-1.1365154
148	0xbfcbab76	-1.5911701
149	0x3f622e64	0.88352036
150	0x3d71699e	0.058938615
151	0x3e056cc2	0.13029769
152	0x3fe47868	1.7849245
153	0x3eb07751	0.3446603
154	0x3f54d184	0.83132195
155	0x3e18499b	0.14871828
156	0x3f76a56a	0.9634615
157	0xbfa5b845	-1.294686
158	0x3f00427f	0.50101465
159	0x3f7869d4	0.9703648
160	0xbea94b21	-0.3306513
161	0xbfe257ef	-1.7683085
162	0xbe5e8e8a	-0.21734062
163	0xbf3309c9	-0.69936806
164	0x3d1a815d	0.037721027
165	0x40141707	2.3139055
166	0xbf9b981a	-1.2155793
167	0x3fb3c184	1.4043431
168	0xbef4ec27	-0.4783642
169	0x3f6b9039	0.9201694
170	0x3fa1f44e	1.2652681
171	0x3f2270d7	0.6345343
172	0xbf4ac581	-0.7920762
173	0x3cfd5cc5	0.030928025
174	0xbbf94a19	-0.00760771
175	0xbefae1e1	-0.49000457
176	0xbfaa26ba	-1.3293068
177	0x3f83acb3	1.0287079
178	0xbfe5f1d2	-1.7964423
179	0xbeeb40e9	-0.4594796
180	0x3ebda7aa	0.3704198
181	0x3e06de64	0.13170773
182	0x3f22a77f	0.6353683
183	0xc0465eec	-3.0995436
184	0xbe81ee26	-0.25377005
185	0x3ecb4d6c	0.39707506
186	0x3d8eab4b	0.06966265
187	0xc000cedc	-2.0126257
188	0x401b21fc	2.4239492
189	0xbfb1b788	-1.3884134
190	0x3ffd911d	1.980991
191	0xbd2413c2	-0.040057905
192	0x3ef20dd4	0.47276175
193	0xbf95cea4	-1.1703687
194	0xbf4980d1	-0.78712183
195	0x3da8d996	0.08244626
196	0x3e393531	0.18086697
197	0xbf4d5327	-0.80205005
198	0xbed97b16	-0.4247672
199	0xbf94894a	-1.1604397
200	0xbf5f3df4	-0.8720391
201	0x4030f460	2.7649155
202	0xbf2ce9ac	-0.67544055
203	0xbd18430d	-0.03717332
204	0xbfc23799	-1.5173217
205	0xbe47e149	-0.19519533
206	0x3f981a3d	1.1883007
207	0x3fe1e557	1.7648114
208	0xbf8a2615	-1.0792872
209	0xbf8b1ace	-1.0867555
210	0x3f4f312d	0.8093441
211	0xbe9c44b8	-0.30521178
212	0xbfc5338f	-1.540636
213	0x3f37d81c	0.7181413
214	0x3e886e15	0.26646486
215	0x3f3bcaea	0.733565
216	0xbf4a103b	-0.78931016
217	0xbf7b819f	-0.9824466
218	0xbf6b6a81	-0.9195939
219	0x4075f794	3.843236
220	0xbde9d4d3	-0.11417546
221	0xbe36152f	-0.17781518
222	0xbeae728f	-0.34071776
223	0x401f8078	2.492216
224	0xc031f4ce	-2.7805667
225	0x40199e1b	2.400275
226	0xbffc8a02	-1.9729617
227	0xbeb37233	-0.35048065
228	0xbdad1ac1	-0.084523685
229	0x3fe0e6c8	1.7570429
230	0x3f56e0a1	0.83936507
231	0xbe43ed13	-0.19133405
232	0x3d2c4608	0.042058975
233	0x3f3162d0	0.692914
234	0x3e823fcf	0.25439307
235	0x3fa1e2a0	1.2647285
236	0x3f99ab80	1.2005463
237	0xc02ec156	-2.7305503
238	0x3f65c284	0.8974993
239	0x3b57d955	0.0032935936
240	0x3fe04ffe	1.7524412
241	0xbce9ac69	-0.028524594
242	0xbeab055a	-0.3340252
243	0xbff52b23	-1.9153789
244	0x3f9cb0b8	1.224143
245	0x3f90806f	1.1289195
246	0xbf97dc14	-1.1864038
247	0xbdd2ed66	-0.102991864
248	0x3fc76e3f	1.558052
249	0xbf99ee51	-1.2025853
250	0xbf2c7a9c	-0.6737459
251	0xbf492af0	-0.7858114
252	0xbedfede3	-0.4373618
253	0x3e6f4c97	0.2336906
254	0xbfa042a0	-1.2520332
255	0x406e4d9e	3.7234874

transformer.layers.0.0.fn.to_out.0.weight f4 [36, 72]
0	0x3f8f19c5	1.1179739
1	0x3f6aa8a1	0.9166356
2	0x3ec8d4b0	0.39224768
3	0xbf3500fd	-0.70704633
4	0x3e9942ce	0.2993378
5	0x3bdeb49a	0.0067964317
6	0x3f509d06	0.814896
7	0x3f4c95cc	0.7991607
8	0xbf52cd2b	-0.8234431
9	0xbe84ef10	-0.2596364
10	0xbfaaf6a5	-1.335652
11	0x3f72b37e	0.94805133
12	0xbd1b6f3f	-0.03794789
13	0xbe8e7762	-0.27825457
14	0xbf150736	-0.5821413
15	0xbcc707eb	-0.024295768
16	0xbf3e7bd0	-0.7440767
17	0xbcb9b73d	-0.022670383
18	0xbc7719cc	-0.015081834
19	0x3ec09475	0.37613264
20	0xbfaf9e9d	-1.372028
21	0x3f1b1a15	0.60586673
22	0x3f5af117	0.85524124
23	0x3fc84271	1.5645276
24	0x3f0fd2bc	0.5618093
25	0xbf6512fb	-0.89482087
26	0x3e3bc68c	0.18337458
27	0xbeaf064a	-0.34184486
28	0xbf02dd51	-0.5111895
29	0xbf5d3dfe	-0.8642272
30	0xbef71480	-0.48257828
31	0x3ec0814d	0.3759865
32	0xbf0a9607	-0.54135174
33	0xbf312c22	-0.69207966
34	0x3dc507c9	0.096206255
35	0xbd6c5c6f	-0.05770534
36	0xbe5581f9	-0.20850362
37	0x3f6c913e	0.9240912
38	0xbf0eaae1	-0.5572949
39	0xbf196433	-0.59918517
40	0xbec9d01e	-0.39416593
41	0xbec907a2	-0.39263636
42	0xbdb691c1	-0.08914519
43	0x3edf0a1a	0.43562394
44	0x3d946252	0.072453156
45	0xbe27939f	-0.16364907
46	0x3eaa28ec	0.33234346
47	0x3f2822e1	0.6567822
48	0x3fb47d94	1.4100823
49	0xbe2ddd69	-0.16978993
50	0x3fe69951	1.8015538
51	0xbf9f65f9	-1.2452995
52	0xbe0d3544	-0.1378985
53	0xbf3cb039	-0.73706394
54	0xbf6c140f	-0.92218107
55	0x3f6cde0d	0.9252632
56	0x3fc77b97	1.5584592
57	0x3f37165c	0.7151849
58	0xbe70edcc	-0.23528212
59	0xc0005dcd	-2.0057251
60	0x3f6a6973	0.9156715
61	0x3f027bbd	0.5097006
62	0xbe8bd191	-0.27308324
63	0x3da7e5ff	0.08198165
64	0x3f94d06c	1.1626105
65	0x3e3bab99	0.18327178
66	0xbf2cf341	-0.67558676
67	0xbfb7dcca	-1.4364254
68	0x3d5b3360	0.053515792
69	0xbecb978a	-0.39764053
70	0xbeb733bc	-0.35781658
71	0x3f0f8df8	0.56076
72	0x3f07aec8	0.5300107
73	0x3f01a8f3	0.5064842
74	0xbf7f200f	-0.9965829
75	0x3dcc770d	0.09983645
76	0xbe4e4afb	-0.2014579
77	0x3e8a1b12	0.26973778
78	0xbda0e25a	-0.07855673
79	0x3f8b0bc2	1.0862963
80	0xbec99a91	-0.39375737
81	0x3faf6960	1.3704033
82	0xbca1c756	-0.019748371
83	0xbf34f265	-0.70682365
84	0xbf21bd75	-0.63179713
85	0x3d4cc9cd	0.04999714
86	0xbed6d838	-0.41961837
87	0x3fed2c79	1.8529197
88	0x3dbe21f5	0.092838205
89	0xbed254a7	-0.4108021
90	0xbf28c424	-0.65924287
91	0x3fa23f90	1.2675648
92	0xbf4ab6c3	-0.7918512
93	0xbf90fe04	-1.132752
94	0x3eed0d0e	0.46299022
95	0x3f1d3ad6	0.614179
96	0xbf2f6cf1	-0.68525606
97	0x3e6d6376	0.23182473
98	0xbec72f4a	-0.38903266
99	0xbf18ce05	-0.5968936
100	0x3efcc33a	0.49367696
101	0x3f2066fe	0.62657154
102	0xbe9903c2	-0.2988568
103	0xbfa83a72	-1.3142836
104	0x3e1b9a46	0.1519557
105	0x3f9192f5	1.1372973
106	0x3f0a898e	0.5411614
107	0x3fbd3bcc	1.4783874
108	0xbedacd56	-0.42734784
109	0xbf24edc9	-0.6442533
110	0x3ebfe705	0.3748094
111	0xbdcf55d0	-0.10123789
112	0xbfe1f72f	-1.765356
113	0x3fa1a913	1.2629722
114	0xbe6b1b5a	-0.22959653
115	0xbfa2a7ba	-1.2707436
116	0xbfd03ffb	-1.6269525
117	0xbe449ee2	-0.19201234
118	0xbf5c7ea4	-0.8613074
119	0xbe5619fa	-0.20908347
120	0xbf19a33b	-0.60014695
121	0x4048589b	3.130408
122	0x3eb2446d	0.3481783
123	0xbf3b8059	-0.7324272
124	0x3f4b9213	0.79519767
125	0xbe3bb5bd	-0.18331046
126	0x3fe4a413	1.7862571
127	0xbed4b5f4	-0.4154507
128	0x3ee84c22	0.45370585
129	0x3fa94aa6	1.3225906
130	0xbe9aaa78	-0.30208182
131	0xbefa4c3a	-0.4888628
132	0x3e493b80	0.19651604
133	0x3fa27937	1.2693242
134	0xbf90ed97	-1.1322507
135	0xbf9bb3fe	-1.2164304
136	0x3f1df2e0	0.6169872
137	0x3ede7711	0.43450215
138	0xc009612c	-2.146556
139	0x3f1b59e1	0.6068402
140	0x3f9a8a0e	1.2073381
141	0x3fa9c35e	1.3262746
142	0xbfeb6aa0	-1.8391914
143	0x3f4e8c33	0.8068268
144	0xbe9c55f9	-0.30534342
145	0xbd88ca46	-0.066792056
146	0x3eb4fb50	0.35347986
147	0x3e5ce7a2	0.21572736
148	0x3e42375f	0.18966435
149	0xbe6badbf	-0.23015498
150	0xbeabf50a	-0.33585387
151	0xbeed0632	-0.4629379
152	0x3e87bd7b	0.2651175
153	0xbef0fc68	-0.4706757
154	0x3e83845d	0.25686923
155	0xbe336ece	-0.17522737
156	0xbf3e7d1b	-0.74409646
157	0x3d902b59	0.07039518
158	0xbda260b7	-0.07928603
159	0xbf32f0a1	-0.6989842
160	0x3e3b2ade	0.18278071
161	0xbee6b2e4	-0.45058358
162	0x3fef1e81	1.8681184
163	0xbf494603	-0.78622454
164	0x3e9bdff8	0.30444312
165	0x3fe3b6cd	1.7790161
166	0xbda49377	-0.08035939
167	0x3f4e6b1e	0.806322
168	0xbeb2c84b	-0.34918436
169	0x3ea20dbe	0.3165111
170	0x3ef4fce0	0.47849178
171	0x3bf9f912	0.0076285684
172	0x3d06b502	0.032887466
173	0xbf236d76	-0.638389
174	0x3d1fd705	0.039023418
175	0x3e8cd5bd	0.2750682
176	0xbe316486	-0.17323503
177	0xbf47b40a	-0.7800909
178	0x3ea7b236	0.32753152
179	0xbe616a02	-0.22013095
180	0x3eeba9cc	0.46027982
181	0x3e682f7c	0.22674364
182	0x3d2e5042	0.04255701
183	0x3c77c3d6	0.0151223745
184	0x3d8d7d2a	0.06908639
185	0xbfa0a6bf	-1.2550887
186	0xbf7ad103	-0.97975177
187	0xbf8b15fd	-1.0866085
188	0xbdb8fddb	-0.09032794
189	0x3f18ccf4	0.59687734
190	0x3f826c73	1.0189346
191	0xbf9ad60a	-1.209657
192	0x3fb1a2bc	1.3877788
193	0xbfd0404c	-1.6269622
194	0xbe9b0c7a	-0.30282956
195	0xbe81c4b2	-0.2534538
196	0xbf1478a6	-0.57996595
197	0xbebad0f0	-0.36487532
198	0xbef8b758	-0.4857738
199	0xbf5c52d2	-0.86063874
200	0xbe818381	-0.25295642
201	0xbf313eeb	-0.6923663
202	0x3ef32b46	0.47493953
203	0x3d195793	0.037437033
204	0xbd4352e2	-0.047686465
205	0x3f0c010f	0.54689115
206	0xbed93a9f	-0.42427537
207	0x3fefe888	1.8742838
208	0x3e9ff1d0	0.31239176
209	0xbf820d7a	-1.0160363
210	0x3efa6ea3	0.48912534
211	0xbbca0a67	-0.006165791
212	0x3e0bfb8e	0.13670179
213	0xbffd6dd7	-1.9799145
214	0x3f4b9ca8	0.79535913
215	0x3f1dce7f	0.61643213
216	0x3ef22890	0.47296572
217	0xbf9a727a	-1.2066185
218	0x40390412	2.8908734
219	0xc0006941	-2.0064242
220	0x3f067feb	0.5253894
221	0x3f1fe3e7	0.62457126
222	0x4040f008	3.0146503
223	0xc01245b8	-2.2855053
224	0x402a5fa0	2.6620865
225	0xc0231010	-2.5478554
226	0xbf706942	-0.9391061
227	0x4026850b	2.6018703
228	0xbfe089b7	-1.7542027
229	0x3fb7c344	1.4356465
230	0x3f8b5fe7	1.0888642
231	0x3fd3159e	1.6490972
232	0x3f0a1b37	0.53947777
233	0x3e57e784	0.2108441
234	0x3c99a426	0.01875503
235	0x3f6a06fe	0.9141692
236	0x3df98872	0.12184228
237	0xbfbe7aa9	-1.4881183
238	0xbf46d97e	-0.77675617
239	0x3ebf4ae8	0.37361836
240	0xbe9ed971	-0.3102527
241	0x3ec01884	0.37518704
242	0xbe042bdf	-0.1290736
243	0xbe5cd889	-0.21566977
244	0x3e9a51cb	0.30140528
245	0x3fb24740	1.3927994
246	0x3fcc45a1	1.5958749
247	0x3f26536a	0.6497103
248	0xbe241677	-0.16024195
249	0xbe91a2cc	-0.28444517
250	0xbe6dc7d4	-0.2322076
251	0xbf097604	-0.536957
252	0x3ef2c65a	0.47416955
253	0x4001a075	2.0254185
254	0xbf79b10a	-0.97535765
255	0xbeaaee41	-0.33384898

transformer.layers.0.0.fn.to_out.0.bias f4 [36]
0	0x3ea2de94	0.3181044
1	0xbf27e6b5	-0.65586406
2	0x3f608df5	0.8771661
3	0xbf1b26aa	-0.6060587
4	0xbf355075	-0.7082589
5	0xbeab5eb5	-0.33470693
6	0x3e9b5804	0.30340588
7	0xbef73552	-0.48282868
8	0xbf1205e6	-0.5704025
9	0xbe349a57	-0.17637001
10	0xbe4d20fc	-0.20032114
11	0x3e2d5b7f	0.16929434
12	0x3f09d65f	0.5384273
13	0x3e1e4f46	0.15459928
14	0x3e9fa457	0.3118007
15	0xbdf81daa	-0.12115033
16	0x3e6801d7	0.22656952
17	0x3d2af6c7	0.04173925
18	0xbe046c9d	-0.12932058
19	0x3ef26312	0.4734121
20	0xbf30ac03	-0.6901247
21	0x3f29b2f5	0.6628869
22	0x3e28ccec	0.16484421
23	0xbeac8131	-0.33692315
24	0xbcf6fd8d	-0.0301502
25	0x3e5ceef1	0.21575524
26	0xbf80f974	-1.0076127
27	0x3e8f962e	0.28044266
28	0xbe11b335	-0.14228518
29	0x3b5ecdbe	0.0033997144
30	0xbf02e433	-0.51129454
31	0xbf1f206b	-0.6215884
32	0x3f096978	0.5367656
33	0x3e92637e	0.28591532
34	0xbfb0a3fb	-1.3800043
35	0xbc9a63e6	-0.018846463

transformer.layers.0.1.norm.weight f4 [36]
0	0x3ffa2b49	1.954446
1	0x40018a43	2.0240638
2	0x400d54db	2.2083042
3	0x3f99c38b	1.20128
4	0x3fa19df4	1.2626328
5	0x4003b8c2	2.0581517
6	0x3fcaaeb7	1.5834569
7	0x3ecd2ded	0.400741
8	0x3fb6462d	1.4240166
9	0x3ff2c359	1.8965865
10	0x3fbb54ae	1.4635217
11	0x40014142	2.019608
12	0x3fc77b72	1.5584548
13	0x401ce793	2.4516342
14	0x3f93365b	1.1500963
15	0x40141a04	2.3140879
16	0x3f30f37e	0.6912154
17	0x3edcdbb0	0.43136358
18	0x400ea2fc	2.2286978
19	0x401ad6b1	2.4193537
20	0x3f99067a	1.1955101
21	0x401d36fb	2.4564807
22	0x3fefd7f6	1.8737781
23	0x3fb07b9f	1.3787726
24	0x3fdbbd18	1.7167082
25	0x3fde8678	1.7384787
26	0x3eee0c4d	0.4649376
27	0x402fd867	2.7475832
28	0x3fc9e011	1.5771505
29	0x3f985870	1.1901989
30	0x3f43f9a5	0.765528
31	0x40172755	2.3617756
32	0x3f176d4e	0.5915116
33	0x3f903170	1.1265087
34	0x3fcc6e7d	1.5971218
35	0x3ee548bb	0.4478205

transformer.layers.0.1.norm.bias f4 [36]
0	0x3e815884	0.25262845
1	0xbddb9912	-0.10722555
2	0x3e3a3553	0.18184404
3	0x3e3eea05	0.18643959
4	0xbd91f5c7	-0.071269564
5	0xbe54f85b	-0.20797865
6	0x3da04c38	0.078270376
7	0x3d2c99a1	0.0421387
8	0xbf08ad60	-0.5338955
9	0x3b03e102	0.0020123129
10	0x3edc9ce0	0.43088436
11	0xbeac4c9c	-0.33652198
12	0x3db3cd17	0.08779352
13	0x3d44a7b0	0.04801148
14	0x3e1adc82	0.1512318
15	0xbe187de8	-0.1489178
16	0xbccbd5bd	-0.024882192
17	0x3eb37562	0.35050493
18	0x3da9f6ff	0.08299064
19	0x3e2571b6	0.16156659
20	0xbe3b7089	-0.18304648
21	0x3e7cdd23	0.24693732
22	0x3e42fe1d	0.19042249
23	0x3d7dc653	0.061956715
24	0xbca6e10b	-0.02037098
25	0x3da92a51	0.08260024
26	0xbe13fb18	-0.14451253
27	0x3e05442c	0.13014287
28	0x3e672cda	0.22575703
29	0xbe5b1708	-0.21395504
30	0x3db1053d	0.08643577
31	0xbded22f4	-0.115789324
32	0xbda21d14	-0.079157025
33	0x3cb337d8	0.021877214
34	0x3cf9d907	0.030498995
35	0x3e2dbcb8	0.16966522

transformer.layers.0.1.fn.net.0.weight f4 [72, 36]
0	0x400151f0	2.020626
1	0x3f2bc347	0.67094845
2	0xbe9ab9c8	-0.30219865
3	0xbf4ab1a1	-0.7917729
4	0xbdadcbbe	-0.08486126
5	0xbe7d5371	-0.24738862
6	0x3f5b6b91	0.8571101
7	0x3f4bda82	0.7963029
8	0xbf58b0bd	-0.8464468
9	0xbf03d50e	-0.5149697
10	0xbf1fcb9f	-0.62420076
11	0x3e938a67	0.2881653
12	0x3e910dc9	0.2833083
13	0x400915e0	2.1419601
14	0xbe98919f	-0.297986
15	0x3ea9d667	0.33171389
16	0x3fc36080	1.5263824
17	0x3ecd13cf	0.40054175
18	0x3e0ec816	0.13943514
19	0x3ed01db5	0.40647665
20	0xbf06bb81	-0.5262986
21	0xbd235fd2	-0.039886303
22	0x3e8489d0	0.25886393
23	0xbcd1a6c3	-0.025592213
24	0xbe69a5e7	-0.22817193
25	0xbf1d2194	-0.6137936
26	0xbe562972	-0.20914248
27	0x3e54d95b	0.2078604
28	0xbed0be2b	-0.40770087
29	0xbf656b59	-0.89616925
30	0xbf529017	-0.82251114
31	0xbf07f82e	-0.5311307
32	0x3fa6e749	1.3039333
33	0xbf380c67	-0.71893924
34	0x3dc2be09	0.095089026
35	0x3b602b9c	0.003420568
36	0xbf96db18	-1.1785612
37	0xbf00fb3f	-0.5038337
38	0xbe2da559	-0.16957606
39	0x3fc49466	1.5357788
40	0xbecca06a	-0.39966136
41	0x3f0725df	0.5279216
42	0x3ed599af	0.41718814
43	0x3f3cdf8c	0.73778605
44	0xbfb9caeb	-1.4515051
45	0x3f820fc2	1.0161059
46	0x3f85f672	1.0465834
47	0xbe8286b0	-0.25493383
48	0xbe905ce0	-0.28195858
49	0xbf0262e9	-0.50932175
50	0x3f6de269	0.929236
51	0x3f871728	1.0553942
52	0x3e871d0b	0.26389346
53	0x3e8cf39d	0.27529612
54	0xbf1713b7	-0.5901446
55	0x3f75493a	0.9581486
56	0xbf4f4724	-0.80967927
57	0x3f72118a	0.9455801
58	0xbf9befa0	-1.2182503
59	0x3fc4e6a9	1.5382892
60	0xbcca69b5	-0.024708608
61	0x3f869d1d	1.0516697
62	0x3e170221	0.14746906
63	0xbfd15a0e	-1.6355608
64	0xbf67e28d	-0.90580064
65	0x3c2f75a0	0.010709196
66	0xbe7666f6	-0.24062714
67	0xbea50a1f	-0.32234284
68	0xbe991306	-0.29897326
69	0xbd4048ce	-0.046944432
70	0xbf8434f1	-1.0328656
71	0xbdb1a8e4	-0.086747915
72	0x3f180dab	0.59395856
73	0xbe90f092	-0.2830854
74	0x3f22b417	0.63556045
75	0x3f640002	0.8906251
76	0xbdb3d2e3	-0.08780458
77	0x3eacd525	0.33756366
78	0x3eea56b6	0.4576928
79	0x3e387601	0.18013765
80	0xbf1cdff0	-0.612792
81	0xbed97e2c	-0.42479074
82	0xbf948708	-1.1603708
83	0x3f282501	0.65681463
84	0xbef295e9	-0.47379997
85	0x3db17561	0.086649664
86	0x3e3bd4ea	0.18342939
87	0xbf87a250	-1.0596409
88	0xbe7f44ca	-0.24928585
89	0x3e20cd49	0.1570331
90	0xbfa584b0	-1.2931118
91	0x3f4b41db	0.7939736
92	0xbee709d7	-0.45124695
93	0x3e662f59	0.22478999
94	0xbede24d9	-0.43387488
95	0x3e16e858	0.1473707
96	0x3efe9ad3	0.49727497
97	0x3dd3f2a7	0.10349017
98	0xbebbbd7f	-0.36668012
99	0x3ef57067	0.4793732
100	0xbf0ef89e	-0.5584811
101	0x3d89ff79	0.06738181
102	0xbedc7f9f	-0.43066117
103	0xbf9b328e	-1.2124803
104	0x3ea61ab2	0.32442242
105	0xbee2b44b	-0.44278178
106	0x3e20f28c	0.15717524
107	0x3e6e496f	0.232702
108	0xbe669ee9	-0.22521557
109	0xbf88d0cb	-1.0688719
110	0xbdc3c0af	-0.09558236
111	0x3fbcc8dd	1.4748799
112	0x3f1ac529	0.6045709
113	0xbfea5012	-1.8305686
114	0x3f59c0a0	0.8505955
115	0xbf284b5c	-0.6573999
116	0x3c88420d	0.016633058
117	0xbe8ca289	-0.27467754
118	0x3fe8c521	1.8185159
119	0xbe71afb7	-0.23602186
120	0xbf9ccf75	-1.2250811
121	0xc02bc965	-2.6841671
122	0xbe9b6f2e	-0.3035826
123	0xbdc5d47d	-0.096596695
124	0xbecaa935	-0.3958222
125	0xbece6e18	-0.4031837
126	0x3f898178	1.0742636
127	0xbf314dc3	-0.6925928
128	0x3e933536	0.28751534
129	0xbf6d5a6a	-0.92716086
130	0x3de71071	0.11282433
131	0x3f7920fa	0.97315943
132	0x3f0d31d1	0.5515414
133	0x3fe804c4	1.8126454
134	0x3e41771c	0.18893093
135	0x3eca61e8	0.39527822
136	0x3f666e8e	0.90012443
137	0x3f392798	0.7232604
138	0x3e14aa98	0.14518201
139	0x3ff85bb5	1.9402987
140	0xbfbb8c2c	-1.4652152
141	0x3fb859f0	1.4402447
142	0xbe85ef34	-0.2615906
143	0xbddec02d	-0.10876498
144	0x3f812a1f	1.0090979
145	0xbfb0b9fd	-1.3806759
146	0x3cf03303	0.0293212
147	0xbec9c138	-0.39405227
148	0xbf41be82	-0.75681317
149	0xbe8dc684	-0.27690518
150	0x3ffe24a0	1.9854927
151	0x3d6cf129	0.057847176
152	0xbf1bb453	-0.6082203
153	0xbffe4981	-1.9866182
154	0x3e3a666b	0.18203132
155	0xc006d63d	-2.106826
156	0xbd9052d7	-0.070470504
157	0x3f648257	0.8926138
158	0xbf015139	-0.5051456
159	0x3daa485a	0.08314581
160	0x3e8a5367	0.27016756
161	0x3e724f24	0.23663002
162	0xbf1bcf42	-0.60863125
163	0x3bd4ae52	0.006490507
164	0xbfbb985a	-1.4655869
165	0x3f5e4bfd	0.868347
166	0x3d97cdef	0.074123256
167	0x3e2c896f	0.16849302
168	0x3f24662c	0.642184
169	0xbd6069b0	-0.05478829
170	0x3ed3919a	0.41322023
171	0xbfbf11c5	-1.4927298
172	0x3f6892a9	0.90848786
173	0x3f842ac0	1.0325546
174	0xbe92cae3	-0.28670415
175	0x3fa23f01	1.2675477
176	0xbf4a2ce1	-0.7897473
177	0xbd67e210	-0.056612074
178	0xbfac0d16	-1.3441494
179	0x3e4dc53a	0.20094767
180	0xbe88522f	-0.266252
181	0x3f8f81b7	1.1211461
182	0xbf923a72	-1.1424086
183	0x3eca00cd	0.39453736
184	0x3f4f3680	0.80942535
185	0x3fe6b396	1.8023555
186	0xbf0dae47	-0.5534405
187	0x3e3da497	0.18519817
188	0xbfab5c85	-1.338761
189	0xbec25fe8	-0.37963796
190	0xbeb08e03	-0.34483346
191	0xbebf2f4d	-0.37340775
192	0xbf4dc544	-0.8037913
193	0xbdc73fb1	-0.09728945
194	0x3f7482a7	0.9551186
195	0x3e11ed0e	0.14250585
196	0x3d1f3a4e	0.038873963
197	0x3e93661e	0.28788847
198	0xbef80d01	-0.4844742
199	0x3e4332c3	0.19062333
200	0xbf8c0b76	-1.0940998
201	0xbf2c65ea	-0.6734301
202	0xbfff5935	-1.9949099
203	0x3f438ea3	0.7638952
204	0x3f7cfb0b	0.9882056
205	0x3fb92107	1.4463204
206	0xbed36456	-0.41287488
207	0xbfa9957a	-1.3248742
208	0x3b869dc3	0.004108162
209	0xbf8669ad	-1.0501
210	0xbf422924	-0.75844026
211	0xbea17f05	-0.3154222
212	0xbf230cdb	-0.6369149
213	0xbf8aaa6c	-1.0833259
214	0xbea67e89	-0.32518414
215	0x3f442873	0.7662422
216	0x3f119970	0.5687475
217	0x3d050c8b	0.032482665
218	0xbf54ff84	-0.83202386
219	0xbf066319	-0.5249496
220	0x3dac4d9e	0.08413242
221	0xbeece01c	-0.46264732
222	0xbe8ee049	-0.2790549
223	0x3e6640e7	0.22485696
224	0x3f84b793	1.0368522
225	0x3ffb096a	1.9612248
226	0xbf6ad37b	-0.91728944
227	0xbe2f3990	-0.17111802
228	0xbf633242	-0.8874856
229	0xbf7ba5c5	-0.9829982
230	0xbfa466a0	-1.2843819
231	0x3c2e7999	0.010649108
232	0xbf15b5bb	-0.58480424
233	0xbfcc9384	-1.5982518
234	0xbe138a11	-0.14408137
235	0x3f769705	0.9632419
236	0x3fd2b907	1.6462716
237	0xbf16cbb5	-0.5890458
238	0x3e46f56b	0.19429557
239	0x3e98161d	0.2970437
240	0xbfba2b56	-1.4544475
241	0xbf537aab	-0.8260905
242	0x3f35846c	0.70905185
243	0x3f1626a4	0.5865271
244	0xbff67d79	-1.9257041
245	0x3f1d295a	0.6139122
246	0x3f55cb35	0.83513194
247	0x3fab59f8	1.3386831
248	0x3e171f00	0.1475792
249	0xbf148432	-0.58014214
250	0x3fb0f8d4	1.3825936
251	0xbf9002b3	-1.1250824
252	0xbe16bb5f	-0.14719914
253	0x3ef529d4	0.47883475
254	0xbf7a3748	-0.977406
255	0x3e898267	0.26857302

transformer.layers.0.1.fn.net.0.bias f4 [72]
0	0x3edc2cc4	0.43002903
1	0x3f5b18b7	0.85584587
2	0xbf41a4aa	-0.7564188
3	0x3e9b858a	0.3037532
4	0xbf35d029	-0.7102075
5	0xbfefc963	-1.8733333
6	0xbfae2522	-1.3605082
7	0x3e23920a	0.15973678
8	0xbd9d7cfe	-0.07689856
9	0x3ebf778d	0.37395898
10	0xbde9ab39	-0.11409611
11	0x3f7a6cba	0.97822154
12	0x3e618003	0.22021489
13	0x40038f75	2.055631
14	0xbf9b2b0b	-1.2122511
15	0xbda6adb6	-0.081386015
16	0x3f092f5a	0.5358788
17	0xbee4e848	-0.44708467
18	0x3ec6d450	0.38833857
19	0x3e8f12d9	0.27944067
20	0xbeb1fe92	-0.34764534
21	0x3fa03dfd	1.2518917
22	0x3caf6516	0.021410506
23	0xbdbf0aa0	-0.093281984
24	0xbf524c4a	-0.8214766
25	0x3e951abc	0.2912196
26	0x3f31777a	0.6932293
27	0xbf69b995	-0.912988
28	0xbedb7f89	-0.4287074
29	0x3c702adf	0.014658659
30	0x3db52b57	0.08846157
31	0x3f566d0b	0.83760136
32	0x3e85d19e	0.26136488
33	0x3eefe9af	0.46857974
34	0x3ff66fcb	1.9252867
35	0xbf769bb4	-0.96331334
36	0x3e40796e	0.18796322
37	0xbf4e12f2	-0.8049766
38	0xbea641dc	-0.32472122
39	0x3f05a734	0.52208257
40	0x3ea2d422	0.3180247
41	0x3f97054e	1.1798494
42	0x3eb913f7	0.36148044
43	0xbdc56f83	-0.0964041
44	0xbf718bf4	-0.94354177
45	0xbf5899e1	-0.846098
46	0xbfa06f83	-1.2534031
47	0x3de943d8	0.11389893
48	0xbe6b8901	-0.23001482
49	0xbf32ffe0	-0.69921684
50	0xbf3eb102	-0.7448884
51	0xbe7875ed	-0.24263735
52	0x3f811971	1.0085889
53	0x3ea0ec1f	0.31430146
54	0x3f767d47	0.9628491
55	0xbfe3a36e	-1.778425
56	0x400460a6	2.068399
57	0x3e8625a6	0.26200598
58	0x3d02a5ca	0.03189639
59	0xbeda3dbe	-0.4262523
60	0x3fe7487e	1.8068998
61	0x3f5b8552	0.85750306
62	0x3e941a57	0.28926346
63	0x3e514782	0.20437434
64	0x3fa469b7	1.2844762
65	0x3f862a25	1.0481611
66	0xbf9c621e	-1.2217443
67	0xbf85fa11	-1.0466939
68	0x3e6171e8	0.22016108
69	0x3f4ae074	0.7924874
70	0x3fe2e10f	1.7724932
71	0xbf1909f9	-0.5978084

transformer.layers.0.1.fn.net.3.weight f4 [36, 72]
0	0x3f274fee	0.6535634
1	0x3f32f9e1	0.69912535
2	0x3ec1b3d6	0.37832516
3	0xbf3ce1f9	-0.73782307
4	0xbf0d7305	-0.5525363
5	0xbf2b65f1	-0.66952425
6	0x3f511375	0.81670314
7	0x3ea20d97	0.31650993
8	0x3ef7ba5e	0.48384374
9	0x3e6bc5c2	0.23024657
10	0x3f1587b6	0.58410203
11	0xbf3ce23f	-0.73782724
12	0x3f695bdc	0.9115579
13	0xbf238ac7	-0.6388363
14	0xbeca33b7	-0.3949258
15	0xbc03a2d8	-0.00803443
16	0xbe57270b	-0.21010987
17	0x3f4d8b2e	0.80290496
18	0x3f3090b2	0.6897079
19	0x3e0a6407	0.1351472
20	0xbf404bf0	-0.7511587
21	0xbeb3809a	-0.35059053
22	0x3f830ee7	1.0238923
23	0x3da83b5f	0.08214449
24	0x3ef09133	0.46985778
25	0x3f8bcc95	1.0921808
26	0xbe9ad7c2	-0.30242735
27	0x3f511fd4	0.8168919
28	0x3e9ff144	0.3123876
29	0x3ed6a0f5	0.41919675
30	0xbebfe135	-0.37476507
31	0x3e4ce4f6	0.20009217
32	0xbd6664ea	-0.056248583
33	0xbf721da5	-0.94576484
34	0xbe9b2b45	-0.3030645
35	0x3f514bc8	0.8175626
36	0x3f6440a8	0.8916116
37	0x3f89f324	1.0777326
38	0xbf34c1f4	-0.7060845
39	0x3f28c51f	0.6592578
40	0x3e8f4a17	0.27986214
41	0x3f533a44	0.8251078
42	0xbf270c39	-0.65253025
43	0x3d34166f	0.043966707
44	0x3f837037	1.026862
45	0xbf2a375c	-0.6649072
46	0x3f3474b8	0.704906
47	0x3dd2a24e	0.102848634
48	0x3ccb0ad7	0.024785442
49	0xbf193211	-0.5984202
50	0xbed1ce39	-0.40977648
51	0xbec5c6ba	-0.3862818
52	0x3ee056aa	0.4381612
53	0x3eec55c4	0.46159184
54	0x3e4d6b68	0.20060503
55	0xbef5c9e2	-0.48005587
56	0x3f7dd8c2	0.9915887
57	0x3f557fb0	0.8339796
58	0x3da6e6a0	0.08149457
59	0x3e138ed9	0.14409961
60	0x3f10051c	0.56257796
61	0xbf2c35de	-0.67269695
62	0x3ea5d617	0.323899
63	0x3ed4954a	0.4152015
64	0x3f60c406	0.8779911
65	0x3f8b5449	1.0885097
66	0x3eca82cb	0.39552912
67	0x3f518168	0.81838083
68	0xbf47c943	-0.78041476
69	0x3e5fa81a	0.2184147
70	0x3f9b1514	1.2115808
71	0x3eb396e4	0.35076058
72	0xbe9fcc64	-0.31210625
73	0xbe73d7cb	-0.23812787
74	0xbe891068	-0.2677033
75	0xbfab15aa	-1.3365986
76	0x3ee8754c	0.4540199
77	0xbf2ef169	-0.6833711
78	0x3f9c3fcd	1.220697
79	0x3e87680e	0.26446575
80	0xbf423f75	-0.7587808
81	0x3b8a856a	0.00422733
82	0x3f098d32	0.5373107
83	0xbf24f636	-0.6443819
84	0x3f9158e6	1.1355255
85	0xbf71151a	-0.94172823
86	0xbf25db91	-0.64788157
87	0xbfc5e454	-1.5460305
88	0xbede78da	-0.43451577
89	0xbed00824	-0.4063121
90	0x3e6cad45	0.23112972
91	0xbf4ee587	-0.8081898
92	0xbe7e51f8	-0.24835956
93	0xbf0cc53f	-0.54988474
94	0x3f2ff6a5	0.68735725
95	0x3e7cc1e1	0.24683334
96	0xbecb6b2a	-0.39730197
97	0x3f4fdd6e	0.8119725
98	0xbecb1ab0	-0.39668798
99	0xbed3724c	-0.4129814
100	0x3f7d68cb	0.98988026
101	0xbe5fd439	-0.218583
102	0x3dbf4a7a	0.09340377
103	0xbf79e496	-0.9761442
104	0x3f063ba7	0.5243477
105	0xbea6eec4	-0.3260404
106	0xbf05c7df	-0.52258104
107	0x3ecb5398	0.39712214
108	0x3f5d0093	0.86329
109	0x3e988cb6	0.29794854
110	0xbe4c664a	-0.19960895
111	0x3eda08a4	0.42584717
112	0x3ee02392	0.43777138
113	0x3f5f115d	0.8713587
114	0xbf4cb488	-0.7996297
115	0xbfa04f8b	-1.2524275
116	0xbf866aa7	-1.0501298
117	0x3e8bdaf2	0.2731548
118	0x3dc2aaf1	0.09505261
119	0xbf86f11a	-1.0542328
120	0xbe82288e	-0.25421566
121	0x3e450a14	0.19242126
122	0xbe3dd452	-0.18538025
123	0x3e60757e	0.2191982
124	0xbf76ab70	-0.9635534
125	0xbead80ad	-0.33887234
126	0xbf374f1e	-0.716051
127	0xbf0d6e66	-0.5524658
128	0x3f5194ff	0.81867975
129	0x3c015532	0.007893847
130	0x3c36b135	0.011150648
131	0xbdee895a	-0.116472915
132	0x3ea78ee5	0.32726207
133	0xbee9bd9c	-0.45652473
134	0x3f2b6a7f	0.66959375
135	0xbe6c706c	-0.2308976
136	0x3f8acb30	1.0843258
137	0x3f0fcd18	0.56172323
138	0xbeb1921b	-0.34681782
139	0xbd94c4dd	-0.07264111
140	0xbf7934e7	-0.9734635
141	0x3f383ae6	0.7196487
142	0x3fb10023	1.3828167
143	0xbf9bebe4	-1.2181363
144	0x3ec542fb	0.38527665
145	0xbd1e5ffd	-0.03866576
146	0x3f1097cf	0.5648164
147	0x3f32adc5	0.697964
148	0x3e9e77c2	0.30950743
149	0xbefaf25f	-0.4901304
150	0xbf2e1e98	-0.6801543
151	0xbd70517b	-0.058671456
152	0x3ea9377e	0.3305015
153	0xbf9c779c	-1.2224002
154	0x3e625d6d	0.22105952
155	0xbee2bcf8	-0.44284797
156	0xbf135b9f	-0.5756168
157	0x3d997cbc	0.07494494
158	0x3e83e9cf	0.2576432
159	0x3f07298d	0.52797776
160	0xbe4c4c3a	-0.19950953
161	0x3f363f53	0.71190375
162	0xbd37647f	-0.044773575
163	0xbef6a3ee	-0.48171943
164	0x3e3dd3ef	0.18537878
165	0xbeb2c674	-0.34917033
166	0x3f422217	0.75833267
167	0xbe72377c	-0.23653978
168	0xbd5d6434	-0.05405064
169	0xbe4d7455	-0.20063908
170	0xbecdc604	-0.40190136
171	0xbeaa80fb	-0.3330153
172	0xbfb517a5	-1.4147841
173	0x3e842ca4	0.25815308
174	0x3e1bc2dd	0.15211053
175	0xbedb9f10	-0.42894793
176	0xbd81a55e	-0.063303694
177	0xbf1d1085	-0.6135333
178	0xbe1667b3	-0.14687996
179	0x3f2cef10	0.6755228
180	0x3f8673b8	1.0504065
181	0x3f0a0744	0.53917336
182	0xbe002f55	-0.12518056
183	0x3e5bafbc	0.21453756
184	0x3ea1fb66	0.31637114
185	0x3f3a62f5	0.72807246
186	0xbf0574a9	-0.52131134
187	0x3f115d7e	0.5678328
188	0x3fbff4e9	1.4996616
189	0x3c8ccf5e	0.017188724
190	0x3f73de04	0.95260644
191	0xbe50fd2d	-0.20409079
192	0xbda32513	-0.07966056
193	0x3e91f9d8	0.28510928
194	0xbfa8a972	-1.3176711
195	0x3d6e64ba	0.05820153
196	0xbd093f43	-0.033507597
197	0x3edb9011	0.4288335
198	0x3e74bcd1	0.23900153
199	0xbe9ca03b	-0.30590996
200	0x3f0c0011	0.546876
201	0x3f44ccec	0.76875186
202	0x3e2317b8	0.15927017
203	0x3f28a632	0.65878594
204	0xbf78fa77	-0.9725718
205	0x3f4feece	0.8122376
206	0xbf785bb6	-0.9701494
207	0xbeb7f297	-0.3592727
208	0xbeb69c4d	-0.35666123
209	0xbf0ab5f1	-0.5418387
210	0x3f188fa5	0.59594184
211	0xbeb91d36	-0.361551
212	0xbe8abc52	-0.27096802
213	0xbd47d740	-0.048789263
214	0x3d8e8446	0.06958823
215	0xbebf7447	-0.373934
216	0xbf06f0ce	-0.5271119
217	0xbe9ad154	-0.3023783
218	0xbf55c58d	-0.83504564
219	0x3fa37c24	1.277226
220	0x3ef1d5eb	0.4723352
221	0x3f13f000	0.57788086
222	0xc009a824	-2.1508875
223	0xbf095d57	-0.5365805
224	0x3fa0b1d3	1.2554268
225	0xbf34830f	-0.7051248
226	0xbe8886ef	-0.26665446
227	0x3f0b2390	0.5435114
228	0x3f157af4	0.58390737
229	0x3fbed814	1.4909692
230	0x3f06c255	0.5264028
231	0x3fdeceef	1.7406901
232	0xbed4959b	-0.4152039
233	0xbeb92cc8	-0.36166978
234	0xbe7c0ffb	-0.24615471
235	0x3f3486ed	0.7051838
236	0x3f0151fc	0.50515723
237	0x3f7b9a8d	0.982827
238	0xbe75cb85	-0.24003418
239	0x3f20428c	0.6260154
240	0xbf5ce56c	-0.8628757
241	0xbf1db68d	-0.61606675
242	0x3ebf09bb	0.3731211
243	0x3e846ef0	0.2586589
244	0x3f124bf5	0.5714715
245	0xbffda30b	-1.9815382
246	0x3f2e46ef	0.68076986
247	0x3f8c1cca	1.0946286
248	0xbd78461b	-0.060613733
249	0xbf975b5a	-1.1824753
250	0x3fb1b0d1	1.3882085
251	0x3ed9d3c2	0.4254437
252	0x3fa52c9a	1.2904236
253	0x3ddeda1f	0.10881447
254	0x3f9e5b34	1.2371583
255	0x3f24c881	0.64368445

transformer.layers.0.1.fn.net.3.bias f4 [36]
0	0x3ee0130a	0.43764526
1	0x3de41ddf	0.1113851
2	0xbe635110	-0.22198892
3	0xbf0cd345	-0.5500987
4	0x3c357582	0.011075379
5	0xbd3deefa	-0.046370484
6	0x3e2cf208	0.16889203
7	0xbefc2c30	-0.49252462
8	0xbe882287	-0.26588842
9	0xbe84dce5	-0.2594978
10	0xbce92318	-0.028459117
11	0x3ea2786e	0.31732506
12	0x3c9ed2c0	0.019387603
13	0x3e76b9dd	0.24094339
14	0xbe706c0f	-0.23478721
15	0x3ef6f090	0.4823041
16	0xbd2ddbe1	-0.04244602
17	0x3e6e0b2d	0.2324645
18	0x3d9a577c	0.075362176
19	0xbd3d77fe	-0.04625701
20	0xbe8ad93a	-0.27118856
21	0xbdff6c45	-0.12471823
22	0xbe5b2bc9	-0.21403421
23	0x3d3826b2	0.044958778
24	0x3f2d3300	0.67655945
25	0x3f15aec2	0.58469784
26	0xbe979c6d	-0.2961153
27	0x3cb59040	0.02216351
28	0x3de8203f	0.113342755
29	0xbe29b9a6	-0.16574726
30	0xbe6934ca	-0.22774044
31	0x3e0d23cb	0.13783185
32	0x3e8dfee3	0.27733526
33	0x3f07eabd	0.5309256
34	0xbfa03395	-1.2515742
35	0x3de9fd3d	0.114252545

transformer.layers.1.0.norm.weight f4 [36]
0	0x3fa954ff	1.3229064
1	0x3d918d9b	0.07107087
2	0x3f4ad009	0.79223686
3	0x4003919e	2.0557628
4	0xbe4b6f5f	-0.19866703
5	0x3fe6f863	1.8044552
6	0x3fe9055d	1.8204762
7	0xbe02727e	-0.12738988
8	0x3eab4b37	0.33455822
9	0x3f81ee3f	1.0150832
10	0x3c31698d	0.010828388
11	0xbe7b4db2	-0.24541357
12	0xbe16741d	-0.14692731
13	0x3eb4eb33	0.35335693
14	0x3f4f80f5	0.8105615
15	0x3d84d1b4	0.0648531
16	0x3fcb53ab	1.5884908
17	0x3fa18c1d	1.2620884
18	0x3fa668c2	1.300072
19	0x3f15f918	0.5858321
20	0x3fa649fe	1.2991331
21	0xbef05c39	-0.4694536
22	0xbd0ef609	-0.034902606
23	0xbf22071b	-0.6329209
24	0x3f76795b	0.96278924
25	0xbe482264	-0.19544369
26	0x3f535d14	0.825639
27	0x3f850228	1.0391283
28	0xbf7936a6	-0.9734901
29	0x3dbcb4b7	0.09214156
30	0x3f6acec1	0.9172173
31	0x3e554716	0.20827898
32	0x3f759913	0.959367
33	0xbd4c3d55	-0.04986318
34	0x3f5e1703	0.86753863
35	0x3dffc2de	0.1248834

transformer.layers.1.0.norm.bias f4 [36]
0	0x3e40f06f	0.18841718
1	0x3f21efc5	0.63256484
2	0xbf76691a	-0.9625412
3	0xbe6f798b	-0.23386209
4	0xbaf667f2	-0.0018799289
5	0x3e7f0853	0.24905519
6	0x3d4f3131	0.050584022
7	0x3e9a74f8	0.30167365
8	0xbca14f23	-0.019691056
9	0x3f11a454	0.5689137
10	0xbf870a61	-1.0550042
11	0x3d2cfe93	0.04223497
12	0xbde2c649	-0.11072976
13	0x3ce66d66	0.028128337
14	0xbe4fd2ea	-0.20295301
15	0xbe66c406	-0.22535715
16	0xbf0d3e92	-0.551736
17	0x3e9bc099	0.30420378
18	0xbf22195c	-0.63319945
19	0x3f34f617	0.70688003
20	0x3e9f796b	0.31147322
21	0xbf2de712	-0.6793071
22	0x3d98f2e3	0.07468202
23	0xbe6a9278	-0.22907436
24	0x3de4eb22	0.111776605
25	0xbe6c5e94	-0.23082954
26	0xbdeeec8d	-0.11666212
27	0xbef5ac08	-0.47982812
28	0x3f0627dc	0.5240457
29	0xbeae1da2	-0.34006983
30	0x3e96f6e5	0.2948524
31	0x3d558272	0.052126355
32	0xbf0e4831	-0.55578905
33	0xbea4d83b	-0.3219622
34	0x3f52a329	0.8228021
35	0xbcc0bb4d	-0.023526812
