ViT/ViT1/6 V train 0.995 V test 0.889 GELU 1/model_bestQ.pt (torch, 414407 bytes, 74 tensors)

pos_embedding f4 [1, 19, 36]
0	0xbd6b209a	-0.05740414
1	0x3e506be6	0.2035366
2	0x3fd855eb	1.690122
3	0xbf5de2e7	-0.8667435
4	0x3f955b61	1.1668512
5	0xbebde3f5	-0.3708798
6	0x3fe15907	1.7605294
7	0xbf505b20	-0.81389046
8	0xbdf3fdbe	-0.11913632
9	0xbe9cbce3	-0.3061286
10	0x3e94b3f8	0.29043555
11	0xc0030a31	-2.047497
12	0xbd6869ca	-0.056741513
13	0x3ec8a8ac	0.39191186
14	0x3f1bbafa	0.6083218
15	0x3fb80057	1.4375104
16	0x3f47a28e	0.77982414
17	0x3f15d7cc	0.58532405
18	0xbfbe29e5	-1.4856535
19	0xbfffcbbd	-1.9984051
20	0x3fe5d57b	1.7955774
21	0xbe9ba9ee	-0.30403084
22	0xbee550c9	-0.44788197
23	0xbed174ab	-0.40909323
24	0xbf2f09e3	-0.6837446
25	0x4008cab5	2.1373723
26	0x3f15af75	0.5847085
27	0x3f18d441	0.59698874
28	0x3eb715e6	0.35758895
29	0x3f369354	0.71318555
30	0xbf4dc240	-0.80374527
31	0xbf4f05fc	-0.80868506
32	0xbecf00fc	-0.4043044
33	0x3fd26080	1.64357
34	0x3f1f31d5	0.6218541
35	0xbef483d0	-0.47756815
36	0x3e280211	0.16407038
37	0xbee3c342	-0.44484907
38	0x3f90fa13	1.1326317
39	0xbfec38ff	-1.8454894
40	0x40111ecc	2.2675047
41	0xbfcd3ad6	-1.603358
42	0xbf9e10e1	-1.2348901
43	0xbfec2484	-1.8448644
44	0x3fd227e6	1.6418426
45	0x3eadd66b	0.3395265
46	0xbf1cc022	-0.6123067
47	0xbfbd5b90	-1.4793568
48	0xc028d915	-2.6382496
49	0x3e2c35e1	0.16817428
50	0xbfd1f193	-1.6401848
51	0x3f0f401b	0.5595719
52	0x3fa42383	1.2823337
53	0xbf15d18e	-0.5852288
54	0xbf4bb487	-0.7957234
55	0x3e60c05d	0.21948381
56	0xbec27ee5	-0.37987438
57	0xbecf7731	-0.40520623
58	0xbf86662b	-1.0499929
59	0xbe476cb3	-0.19475059
60	0x401889f8	2.383421
61	0xbfa1175f	-1.2585257
62	0x402932b2	2.6437192
63	0x4060991d	3.5093453
64	0xc023fc23	-2.5622642
65	0xc01679c1	-2.3511813
66	0xc00fd11e	-2.2471385
67	0x3e77cd4c	0.24199408
68	0xc021aa29	-2.5260108
69	0xbf117ab3	-0.5682785
70	0x3f0b5d38	0.54439116
71	0x402aeaa8	2.6705723
72	0xbfe217ca	-1.766351
73	0x3faedc7d	1.3661038
74	0x40391822	2.892098
75	0x3edc48c4	0.43024266
76	0x3d33d9aa	0.043908753
77	0x3f882e9b	1.0639223
78	0x3f738910	0.95131016
79	0xc01524ec	-2.3303785
80	0x3fa9fa11	1.3279439
81	0x3fa6a0eb	1.3017858
82	0xc090b8e0	-4.5225677
83	0x3f903b04	1.126801
84	0x3fe279a6	1.7693374
85	0x3f524893	0.8214199
86	0x4045afbc	3.088851
87	0xbfea4d41	-1.8304826
88	0xbf8ce00d	-1.1005875
89	0x3f1a3982	0.60244
90	0x3f0b2b98	0.54363394
91	0xbf471b56	-0.77776086
92	0xbd1c7b16	-0.03820332
93	0x3e2e43ce	0.17018053
94	0x3ff7baf4	1.9353929
95	0x3fc309ba	1.5237343
96	0x3f2c80e1	0.67384154
97	0xc0024c37	-2.0359018
98	0x3f96b1fd	1.1773068
99	0x3f1eb1f9	0.61990315
100	0xc017b9d8	-2.370718
101	0x3fa57a3b	1.2927927
102	0xbfa6264f	-1.2980441
103	0xbfa7667e	-1.3078153
104	0xc099e0f5	-4.8087106
105	0x40194fdf	2.3955
106	0xbfdd3d34	-1.7284303
107	0xbedee943	-0.4353734
108	0x3f263ab6	0.64933336
109	0x3ea97b9e	0.33102125
110	0xbf08bce1	-0.53413206
111	0xbfb71742	-1.4303973
112	0x3fad433d	1.3536144
113	0xbfa910cd	-1.3208252
114	0xbeca74c4	-0.3954221
115	0xbf96ac56	-1.1771343
116	0xc04a316f	-3.1592672
117	0xbf8f04b6	-1.1173313
118	0xbfe9cce3	-1.8265651
119	0xbf9b7bd9	-1.214717
120	0xbd79ac4d	-0.060955334
121	0xbf5aad1b	-0.8542039
122	0xbfba5e8d	-1.4560105
123	0xbfdcbd07	-1.7245187
124	0x3c90ae0e	0.01766112
125	0xbf1bb7ca	-0.60827315
126	0x3f342c49	0.70380074
127	0xbf804c89	-1.0023357
128	0xbf0bd712	-0.54625046
129	0xbc07db4e	-0.008292032
130	0xbf2b6bda	-0.66961443
131	0x3f52f53c	0.8240545
132	0x3f7b02e1	0.9805127
133	0xbe4f7767	-0.20260392
134	0x3fd08005	1.6289068
135	0x3fdd4629	1.7287036
136	0xc03fe005	-2.998048
137	0x3fc7934a	1.5591824
138	0x403c6d4c	2.944171
139	0xbec55886	-0.385441
140	0xbbdf98ee	-0.0068236506
141	0xbead91d3	-0.33900318
142	0x3f5fde8d	0.8744896
143	0xbda8e7d8	-0.08247346
144	0x4015140e	2.329349
145	0xc03d71ef	-2.960079
146	0x3fb8ff3b	1.445289
147	0x3ff18513	1.8868736
148	0x3d48b497	0.04900035
149	0xbe09df44	-0.13464075
150	0xbf9f5c77	-1.2450093
151	0xbf5a5733	-0.85289305
152	0xbec25841	-0.37957957
153	0x3f1784fe	0.59187305
154	0x3f4cc9b6	0.79995286
155	0x3ee475aa	0.4462102
156	0xbf068aee	-0.5255574
157	0xbe9083c6	-0.28225535
158	0x3d1a2883	0.03763629
159	0xc05c98f6	-3.446836
160	0x400465bb	2.0687091
161	0xbf3b5bf7	-0.731872
162	0xbf9ad933	-1.2097534
163	0x40293e84	2.6444407
164	0xc00b01cd	-2.171985
165	0x3ffa538e	1.9556749
166	0xbf018652	-0.5059558
167	0xbe500dba	-0.20317736
168	0x3f82c592	1.0216544
169	0xc0318b53	-2.7741287
170	0xbe0be879	-0.136629
171	0xbe81d8aa	-0.25360614
172	0xbfd95956	-1.6980388
173	0x3f3709a4	0.71499085
174	0x3d867037	0.06564372
175	0xbe9f9b09	-0.3117297
176	0xbe753595	-0.23946221
177	0xbfe4ee66	-1.7885253
178	0x401537eb	2.331538
179	0xc0046e2f	-2.069225
180	0xbf2b45f8	-0.6690364
181	0xbf098cff	-0.5373077
182	0x3f2446ff	0.6417083
183	0xc00510bb	-2.0791461
184	0x4006d552	2.10677
185	0xc027ee91	-2.623936
186	0x3e5960af	0.21228288
187	0xbd73e01b	-0.059539896
188	0x3d325ef0	0.04354757
189	0x3fecfdb4	1.8514924
190	0xc009183d	-2.1421044
191	0x40381d89	2.8768027
192	0x40019c08	2.0251484
193	0xbf3c21dc	-0.73489165
194	0x4013aad4	2.3073015
195	0xc01bac24	-2.4323816
196	0xc024faa2	-2.5777974
197	0xbeea700d	-0.45788613
198	0x3fb8ab54	1.4427285
199	0x3ec30023	0.38086042
200	0x3e9f2359	0.31081656
201	0xc065531c	-3.5831976
202	0xc01221ee	-2.283321
203	0x3f301e2c	0.6879604
204	0x402c7680	2.6947327
205	0xc03143aa	-2.769755
206	0x3f92d8fd	1.147247
207	0x3f844945	1.033486
208	0xbf52cf5d	-0.8234766
209	0x3eaf0eec	0.34191072
210	0xbf69eeb9	-0.91379887
211	0x4020c184	2.5118113
212	0x3e58ebac	0.21183652
213	0x3e6dff8f	0.23242019
214	0x405fca96	3.4967399
215	0xbe453bba	-0.19261065
216	0xbfcbf696	-1.5934627
217	0x3f155721	0.58336073
218	0xc0b8c75e	-5.774337
219	0x3f52a546	0.8228344
220	0x3ea08ab5	0.31355825
221	0xbff223d4	-1.8917184
222	0x3f65a577	0.89705604
223	0xbff75fa2	-1.932606
224	0x3fc9c081	1.5761873
225	0xc00b4f53	-2.1767166
226	0xbf98bfa7	-1.1933488
227	0x4021fc9c	2.531043
228	0x3f900159	1.1250411
229	0xbe4e0945	-0.20120724
230	0xbee9950a	-0.4562152
231	0x4001ac05	2.0261242
232	0xbedb5bab	-0.42843375
233	0xbe057d96	-0.13036188
234	0xbf45b2f7	-0.77226204
235	0x40458b82	3.08664
236	0x3ee3ea58	0.44514728
237	0x3f528402	0.8223268
238	0x3f1b1ee2	0.60594
239	0x3f665f0b	0.89988774
240	0x3f2458ad	0.6419781
241	0x3e5ee607	0.21767436
242	0x3e08af2c	0.13348073
243	0xbfc8fa76	-1.5701435
244	0x3f88fade	1.0701559
245	0x404218fd	3.0327752
246	0xbf87a8ae	-1.0598352
247	0xc01ca2e1	-2.4474413
248	0xbfdcc95a	-1.7248948
249	0x3fa676cb	1.3005003
250	0xbf2af02e	-0.66772735
251	0xbf80e69f	-1.007038
252	0x3faf35e8	1.3688326
253	0x3ee497da	0.44647104
254	0xc017e28b	-2.373202
255	0x3fb671d4	1.4253488

cls_token f4 [1, 1, 36]
0	0x400038f6	2.0034766
1	0x3f3acc27	0.7296776
2	0x3e810f2e	0.25206894
3	0xbf2df79d	-0.6795595
4	0xbf749ee6	-0.9555496
5	0x3cee5c72	0.029096816
6	0x3fe79164	1.8091245
7	0x3fad6c6b	1.3548712
8	0xbf71c02d	-0.9443386
9	0xbff49131	-1.9106809
10	0xbf8adcc0	-1.0848618
11	0xbf149783	-0.5804369
12	0x3fe22525	1.7667586
13	0xbf4d494e	-0.8018998
14	0xbfaeb448	-1.3648767
15	0x3fe937e8	1.8220186
16	0x3fded7fa	1.7409661
17	0xbfba6942	-1.4563372
18	0xbddb22df	-0.107000105
19	0xbf969127	-1.1763047
20	0x3fe8ac09	1.8177501
21	0x3eff5106	0.49866503
22	0xbfd92b43	-1.6966327
23	0x3f7c2a83	0.9850237
24	0xbfa37aa1	-1.2771798
25	0x3e022773	0.12710361
26	0xbfd4d9eb	-1.6629003
27	0x3f837933	1.0271362
28	0x3f88f8a5	1.070088
29	0xbfb80d89	-1.4379131
30	0xbf8811c6	-1.0630424
31	0xbfa63ff2	-1.2988265
32	0x4020a419	2.5100157
33	0x3fcd720e	1.6050432
34	0x3f01f79e	0.5076846
35	0xbee82eb0	-0.4534812

to_patch_embedding.1.weight f4 [36, 12]
0	0xbf1bf46f	-0.6091985
1	0x3d0e837b	0.03479336
2	0x3de992d4	0.11404958
3	0x3f9bacc8	1.2162104
4	0xbf49f2ba	-0.78885996
5	0x3eb58d59	0.35459402
6	0xbdeb17ff	-0.11479186
7	0xbf2a98d3	-0.6663944
8	0x3e5253a5	0.2053972
9	0x3d5f0de3	0.054456603
10	0xbf0ffaee	-0.56242263
11	0xbd8a756d	-0.067606784
12	0x3f1153eb	0.56768674
13	0xbf292b47	-0.6608166
14	0x3ef65c13	0.48117122
15	0xbd41b47f	-0.047291275
16	0x3f3284bf	0.69733804
17	0x3dd44d73	0.10366335
18	0x3e831244	0.25599873
19	0xbec0f58b	-0.37687334
20	0x3d8f761b	0.07004949
21	0xbc371622	-0.0111747105
22	0x3f4d2ae5	0.80143577
23	0xbe820fa7	-0.25402567
24	0xbe7d5e0b	-0.24742906
25	0x3d27c2a9	0.040957127
26	0xbe968c84	-0.2940408
27	0xbf399908	-0.7249913
28	0x3f132a84	0.5748675
29	0xbf3740ea	-0.71583426
30	0xbf0186aa	-0.50596106
31	0x3e84ee89	0.25963238
32	0x3e9a7d73	0.30173835
33	0xbf808482	-1.0040438
34	0x3ea33433	0.31875762
35	0x3f08ad83	0.5338976
36	0x3f2bb913	0.67079276
37	0x3ed21931	0.41034845
38	0xbd0001a4	-0.031251565
39	0xbfc5a3b2	-1.5440581
40	0xbee42834	-0.44561923
41	0x3e2e4ce0	0.17021513
42	0x3f054e40	0.52072525
43	0xbd95793d	-0.07298515
44	0xbd9c5fcc	-0.07635459
45	0xbea66de4	-0.32505715
46	0x3e48f4f2	0.19624689
47	0xbeab5469	-0.33462837
48	0xbea147c0	-0.31500053
49	0xbe34af6d	-0.17645045
50	0xbefcb0a1	-0.49353507
51	0xbf0f69ad	-0.56020623
52	0x3ef6d451	0.4820886
53	0x3eb2e97c	0.3494376
54	0x3e6a970e	0.22909185
55	0x3e9b900b	0.30383334
56	0xbeb3617d	-0.35035315
57	0xbd041985	-0.0322509
58	0xbed40b3d	-0.41414824
59	0xbf250039	-0.64453465
60	0xbf1089c1	-0.56460196
61	0xbe9149c2	-0.28376585
62	0x3eaa611e	0.3327722
63	0x3ea153b8	0.31509185
64	0x3f756c85	0.9586871
65	0x3f11d1ea	0.5696093
66	0xbf1ecceb	-0.6203143
67	0x3e3e94c0	0.18611431
68	0x3e5e44ca	0.21705928
69	0x3e4a6beb	0.1976773
70	0xbe6bb542	-0.23018363
71	0x3f1d8109	0.6152502
72	0xbde7b4c8	-0.11313778
73	0x3f1406b2	0.57822716
74	0xbef1f79b	-0.4725922
75	0x3eff3fba	0.49853307
76	0xbf828d79	-1.0199424
77	0xbeabd8fc	-0.33563983
78	0x3ee7d90c	0.4528278
79	0x3f94eba5	1.1634413
80	0x3d29d089	0.04145864
81	0xbe8642e1	-0.262229
82	0x3edb1e37	0.4279649
83	0x3d85c972	0.06532563
84	0x3d7f6a45	0.062357206
85	0x3d4e9fe8	0.050445467
86	0x3f05a583	0.52205676
87	0xbe2df9ca	-0.16989818
88	0x3d0b6dd3	0.034040283
89	0x3eeb39a8	0.45942426
90	0xbf31f36a	-0.69512045
91	0xbe8c8393	-0.27444133
92	0x3f2a234b	0.664601
93	0xbef6c600	-0.48197937
94	0xbed8564c	-0.4225334
95	0x3f244d0a	0.6418005
96	0x3e61e834	0.22061235
97	0xbe7d9d8b	-0.24767129
98	0xbebfed3f	-0.37485692
99	0x3d84a1cb	0.06476172
100	0x3d9025fd	0.07038496
101	0xbefeda28	-0.49775815
102	0x3eea199c	0.45722663
103	0xbea65472	-0.32486302
104	0xbf38876e	-0.7208165
105	0x3edbde66	0.42943114
106	0xbf440abb	-0.76578873
107	0xbf1e12f5	-0.61747676
108	0x3f6469e9	0.89224106
109	0xbeef3de8	-0.46726918
110	0x3e880c80	0.26572037
111	0x3f111556	0.5667318
112	0x3e7cee27	0.24700223
113	0x3f0f53d8	0.5598731
114	0xbf91375f	-1.1345023
115	0x3e2435e1	0.16036178
116	0xbf10fcc7	-0.5663571
117	0xbed7e921	-0.4217005
118	0x3d77ce54	0.060499504
119	0xbf0e7521	-0.55647475
120	0xbf625a57	-0.884191
121	0xbe712cb1	-0.23552205
122	0x3eeee08d	0.46655694
123	0x3f44a6d8	0.76817083
124	0x3e2e4548	0.17018616
125	0x3f45a47c	0.7720411
126	0xbee5de84	-0.44896328
127	0xbfa3754a	-1.2770169
128	0xbf0e8836	-0.5567659
129	0xbd916f69	-0.07101328
130	0x3ee84273	0.45363197
131	0xbe55835c	-0.20850891
132	0x40053d36	2.081861
133	0x3f158829	0.5841089
134	0x3e185ac2	0.14878371
135	0x3f48d892	0.7845546
136	0xbeb36a9f	-0.35042283
137	0xbd878de9	-0.06618864
138	0xbe8c2187	-0.2736933
139	0x3d8f4d05	0.06997112
140	0xbeb0d6da	-0.3453892
141	0xbef73a6b	-0.48286757
142	0xbedf038a	-0.43557388
143	0xbe120f53	-0.14263658
144	0xbfb9551c	-1.4479098
145	0x3f1006cd	0.5626038
146	0x3f4c87a5	0.7989448
147	0xbf9209d1	-1.1409246
148	0xbdd3bf7c	-0.10339257
149	0x3f45dd82	0.7729112
150	0x3ebd6c96	0.36996907
151	0xbf286db0	-0.6579237
152	0xbdaed198	-0.085360706
153	0xbea67b1a	-0.32515794
154	0xbe76b021	-0.24090625
155	0xbe7c315a	-0.24628201
156	0xbeef88b3	-0.4678398
157	0xbea440bf	-0.32080647
158	0x3f1f174c	0.62144923
159	0x3ea9fee7	0.33202288
160	0xbf346d88	-0.7047963
161	0x3d666e80	0.056257725
162	0x3e9a6aa7	0.30159494
163	0xbeb053e6	-0.3443901
164	0x3e3f5b30	0.18687129
165	0xbeee8f93	-0.46593913
166	0xbf55da5b	-0.8353631
167	0x3ea99a03	0.33125314
168	0x3fa38acb	1.2776731
169	0xbd806027	-0.062683396
170	0x3e16c276	0.14722618
171	0x3f5408e5	0.8282607
172	0x3e859704	0.26091778
173	0x3e7b9c6c	0.24571389
174	0x3f81c169	1.0137149
175	0xbf3f2c3e	-0.74676883
176	0x3f367abb	0.7128102
177	0x3f3dbb2b	0.7411372
178	0xbe0db399	-0.13838042
179	0x3f30acd2	0.690137
180	0x3d0d0601	0.034429554
181	0x3f0e431a	0.5557114
182	0xbf54f0fd	-0.8318022
183	0xbe2290a5	-0.1587549
184	0xbe18b859	-0.14914073
185	0xbe6b375f	-0.22970341
186	0xbcb5b63c	-0.022181623
187	0xbee0bc7a	-0.43893796
188	0xbde28257	-0.110600166
189	0xbfaae54b	-1.3351225
190	0xbf697276	-0.9119028
191	0xbeeb39be	-0.4594249
192	0x3e87998b	0.2648433
193	0x3f939443	1.1529621
194	0x3d2912f4	0.04127784
195	0x3ed79949	0.42109135
196	0x3f299558	0.66243505
197	0x3cc1ca8f	0.023656158
198	0x3ed47bd2	0.41500717
199	0x3defbd43	0.11706021
200	0x3efdbcd3	0.49558124
201	0x3ef8d0fd	0.48596945
202	0x3ee02384	0.43777096
203	0x3f1a3b46	0.60246694
204	0xbf568577	-0.837974
205	0x3e151a71	0.14560868
206	0x3cd6fae1	0.026242675
207	0x3f2c163a	0.67221415
208	0xbf5568cb	-0.83363026
209	0x3db17efe	0.086668
210	0xbef8a873	-0.48566017
211	0x3f99f45f	1.2027701
212	0xbcd9ef4d	-0.026603365
213	0x3ebae4a7	0.36502573
214	0x3f0ece84	0.5578387
215	0xbe10b81d	-0.14132734
216	0xbcd15066	-0.025551032
217	0x3f09b86e	0.5379704
218	0xbf0de049	-0.55420357
219	0x3f06e0e2	0.52686894
220	0xbe77ec21	-0.2421117
221	0xbe74cb86	-0.23905763
222	0xbf49b5b7	-0.787929
223	0xbf13d239	-0.5774265
224	0x3d311f9f	0.043243047
225	0x3f8e291d	1.1106297
226	0xbe797356	-0.24360403
227	0x3e315e45	0.17321117
228	0xbf46d018	-0.77661276
229	0x39a20cd2	0.000309086
230	0xbf5d68c2	-0.8648797
231	0x3cb56255	0.022141615
232	0xbd12e99c	-0.03586732
233	0xbf872632	-1.0558531
234	0xbf053eb4	-0.520488
235	0x3f86805a	1.050792
236	0x3d364b15	0.044505198
237	0x3edc4a1e	0.43025297
238	0xbdbdc544	-0.09266141
239	0x3ea8899f	0.32917497
240	0x3e7cc6cf	0.24685214
241	0xbf09d7a9	-0.53844696
242	0xbeb33b75	-0.350063
243	0xbe34ee80	-0.17669106
244	0xbefcc1cf	-0.49366614
245	0xbea4a905	-0.32160202
246	0xbf8a06ea	-1.078336
247	0x3cd798bd	0.026317948
248	0xbe1a3ebd	-0.15062995
249	0x3f5b5fa0	0.8569279
250	0x3f3cb38e	0.7371148
251	0xbd22bf25	-0.03973307
252	0x3ed43d08	0.41452813
253	0xbe8ba4fd	-0.27274314
254	0xbe814e11	-0.25254872
255	0xbf493003	-0.78588885

to_patch_embedding.1.bias f4 [36]
0	0xbaf6f938	-0.0018842584
1	0xbd1bdc68	-0.038051993
2	0xbf330a00	-0.69937134
3	0x3e7f63f8	0.24940479
4	0x3f3a248c	0.72712016
5	0xbf27d731	-0.6556273
6	0xbe4d9039	-0.20074548
7	0xbf344478	-0.70416975
8	0x3f63b94b	0.8895461
9	0x3c88816a	0.016663272
10	0x3cc5301e	0.024070796
11	0x3d1e3665	0.038626093
12	0xbe5e3af8	-0.21702182
13	0xbf8002cc	-1.0000854
14	0x3e70c092	0.2351096
15	0xbdeb6d0e	-0.1149541
16	0xbf2b87fa	-0.6700436
17	0xbfbe7034	-1.4877992
18	0x3d897d10	0.06713307
19	0x3ef6801c	0.48144615
20	0x3f010bd1	0.50408655
21	0xbf5ad37f	-0.8547897
22	0x3debebc7	0.1151958
23	0x3ee6c578	0.45072532
24	0xbbeea8d5	-0.00728331
25	0xbed11021	-0.40832618
26	0x3e418738	0.18899238
27	0x3eac9dd4	0.33714163
28	0xbfc13439	-1.5094062
29	0x3f4232bc	0.75858665
30	0xbeb5e763	-0.35528097
31	0x3ee65951	0.44990018
32	0xbf21dccf	-0.6322755
33	0x3f9ab0ba	1.2085183
34	0x3ebd95ad	0.37028256
35	0xbf5d6ea9	-0.8649698

transformer.layers.0.0.norm.weight f4 [36]
0	0x3ec3d1b5	0.3824593
1	0x3e6b021c	0.22950023
2	0x3ed0c887	0.4077799
3	0x3e2f2c8e	0.1710684
4	0x3ed8af1a	0.42321092
5	0x3eb0741f	0.34463593
6	0x3e631936	0.22177586
7	0x3f1709b7	0.589992
8	0x3f1eb652	0.6199695
9	0x3e898744	0.26861012
10	0x3eeafb04	0.45894635
11	0x3e845f87	0.25854132
12	0x3e7d4c7a	0.24736205
13	0x3ead8c20	0.3389597
14	0x3eae528c	0.34047353
15	0x3e9237d0	0.28558207
16	0x3e9829d1	0.29719403
17	0x3e3b17ed	0.18270846
18	0x3ea50948	0.32233644
19	0x3f010bf7	0.5040888
20	0x3ea624c2	0.3244992
21	0x3ee70e2d	0.45128003
22	0x3e806615	0.25077882
23	0x3eefbae6	0.4682228
24	0x3e6ee9f5	0.23331435
25	0x3e76d590	0.24104905
26	0x3e95590f	0.2916951
27	0x3e830a2b	0.25593695
28	0x3e15e055	0.14636357
29	0x3ef60c88	0.48056436
30	0x3ef04ca9	0.46933487
31	0x3e6ec6ef	0.23318075
32	0x3ee1fe45	0.44139305
33	0x3e00cdce	0.12578508
34	0x3ec4fba8	0.38473248
35	0x3ece7a67	0.4032776

transformer.layers.0.0.norm.bias f4 [36]
0	0xbdef70a8	-0.11691409
1	0xbc44b346	-0.012005633
2	0x3e253a32	0.16135481
3	0xbc7ee7d3	-0.015558201
4	0xbd40bafc	-0.047053322
5	0xbdce9e9f	-0.10088848
6	0x3d67e883	0.056618225
7	0xbdc6e5a6	-0.09711771
8	0x3e513c00	0.20433044
9	0x3ce2907c	0.027656786
10	0xbd5813f5	-0.052753408
11	0xbd6fa163	-0.05850352
12	0xbd32da8d	-0.043665458
13	0x3d853aa7	0.06505328
14	0xbe589930	-0.21152186
15	0x3db0d8b4	0.08635083
16	0x3e077593	0.13228445
17	0x3e29a147	0.16565429
18	0xbccb1167	-0.024788572
19	0x3d44c8a3	0.048042905
20	0xbd608bbd	-0.054820765
21	0xbce70756	-0.02820174
22	0xbdb5cdb9	-0.08877129
23	0xbd6d8235	-0.057985503
24	0x3e33a38e	0.1754286
25	0xbe2ad97c	-0.16684526
26	0xbdbf9596	-0.09354703
27	0xbdded231	-0.108799346
28	0x3e4f8621	0.2026601
29	0x3dad961d	0.084758975
30	0x3d0fb63c	0.0350859
31	0x3e00bfe6	0.12573203
32	0xbdacbdc9	-0.08434636
33	0xbd97f574	-0.07419863
34	0xbe170513	-0.1474803
35	0x3c9a17ac	0.018810116

transformer.layers.0.0.fn.to_qkv.weight f4 [216, 36]
0	0x3f272196	0.65285623
1	0x3f9780d4	1.183619
2	0xbeadb16a	-0.3392442
3	0xbe6427a1	-0.22280742
4	0xbf3a1771	-0.7269202
5	0x3eade9af	0.3396735
6	0x3e2949ab	0.16532008
7	0x3e08f4f4	0.13374692
8	0xbf115a63	-0.56778544
9	0xbf82513f	-1.0181044
10	0x3dcd83ce	0.100349054
11	0xbf1e144d	-0.61749727
12	0x3f80c56a	1.0060246
13	0x3ca3e08e	0.020004537
14	0xbf2488e6	-0.6427139
15	0xbe3a5f59	-0.18200435
16	0x3e55f717	0.20895039
17	0x3e79d377	0.24397074
18	0xbdce8287	-0.1008349
19	0xbef6f73b	-0.48235497
20	0x3f2a9baa	0.66643775
21	0xbe627d9d	-0.2211823
22	0xbd4e4084	-0.050354496
23	0x3db29841	0.087204464
24	0xbe10f20b	-0.14154832
25	0x3da97ff9	0.08276362
26	0xbe9629f7	-0.29328892
27	0x3e2048b1	0.1565273
28	0x3deb4f68	0.11489755
29	0xbf79acb4	-0.9752915
30	0xbf0e939a	-0.5569397
31	0xbe76b488	-0.24092305
32	0x3eec7168	0.46180272
33	0x3ed9bc4a	0.42526466
34	0xbec418d4	-0.38300192
35	0x3f3b158c	0.7307975
36	0xbee73fa5	-0.45165744
37	0x3e58cfc5	0.21173008
38	0xbe937c25	-0.28805652
39	0x3ef0c8bc	0.47028148
40	0xbec7c7a3	-0.39019498
41	0x3d51e1b1	0.051240627
42	0x3d019adb	0.031641822
43	0xbf210ead	-0.6291302
44	0x3ea4da5b	0.32197842
45	0xb7d18055	-2.49745e-05
46	0xbf8bd333	-1.0923828
47	0x3f327d43	0.69722384
48	0xbf21aae7	-0.631514
49	0xbe2fd912	-0.1717265
50	0x3eac377a	0.33636075
51	0x3e3c6d6c	0.18401116
52	0xbe9c595d	-0.3053693
53	0x3cde74a8	0.027155235
54	0x3e316a37	0.17325674
55	0xbcc50493	-0.024050033
56	0x3ecbe748	0.3982489
57	0x3f4963b6	0.7866777
58	0x3def214e	0.11676274
59	0xbed59d01	-0.41721347
60	0xbf27641e	-0.6538714
61	0x3dde37bb	0.108504735
62	0x3dc6c8a3	0.09706237
63	0xbed1f883	-0.41009912
64	0x3f2438f7	0.6414942
65	0xbf0fda8e	-0.56192863
66	0x3e0dce25	0.13848169
67	0x3a041488	0.000503846
68	0xbe945374	-0.2896992
69	0x3e34b03a	0.1764535
70	0xbecd37ae	-0.40081543
71	0x3e211e94	0.15734321
72	0x3f521eed	0.8207844
73	0x3f003dbe	0.5009421
74	0x3ed62013	0.41821346
75	0xbeedd969	-0.46454933
76	0xbf35bbac	-0.7098949
77	0x3e920a1e	0.28523344
78	0x3d348303	0.044070255
79	0xbeb8fedd	-0.36131945
80	0xbf349d87	-0.7055287
81	0xbef7de2d	-0.48411694
82	0x3e13829c	0.14405292
83	0xbf746ac9	-0.9547544
84	0x3f09899b	0.53725594
85	0xbea71597	-0.3263366
86	0xbfa69583	-1.3014377
87	0xbed6360b	-0.41838107
88	0x3c01c16a	0.007919649
89	0x3eb3b810	0.35101366
90	0xbe826abf	-0.25472066
91	0x3dd9e0eb	0.10638603
92	0x3f29c033	0.663089
93	0x3df464b7	0.11933272
94	0xbd17ec42	-0.037090547
95	0x3edd0c4d	0.43173447
96	0xbe6f68d4	-0.23379833
97	0x3e119938	0.14218605
98	0x3e6050ad	0.21905775
99	0x3ea6d71d	0.32585993
100	0x3df89663	0.12138059
101	0xbefc8cd0	-0.4932618
102	0xbe355a17	-0.17710148
103	0x3e9bd57e	0.3043632
104	0x3e27ac8a	0.16374412
105	0x3db1e602	0.08686449
106	0xbf0ca210	-0.5493479
107	0x3d8b7fab	0.0681146
108	0xbd7a0967	-0.061044123
109	0xbe05192e	-0.12997887
110	0x3e4a124a	0.19733539
111	0xbcaad9e7	-0.020855857
112	0x3db4f24c	0.08835277
113	0x3d464d86	0.048413776
114	0x3f050755	0.5196431
115	0xbf1ad3db	-0.60479516
116	0xbf06cac2	-0.52653134
117	0xbf80c409	-1.0059825
118	0x3e8c69b9	0.2742441
119	0xbecd6877	-0.40118763
120	0x3e87db94	0.26534712
121	0xbe4d7cf1	-0.20067193
122	0xbf4b65d2	-0.7945224
123	0xbd8bc87c	-0.06825349
124	0x3e90789d	0.2821702
125	0x3c6e3e60	0.014541239
126	0xbe33418e	-0.17505476
127	0x3ea10060	0.314456
128	0xbedd1688	-0.43181252
129	0x3eccdf07	0.40013906
130	0x3e4dd81a	0.20101967
131	0xbf057a58	-0.52139807
132	0xbf151299	-0.582315
133	0xbf1c7a59	-0.6112419
134	0x3f353b74	0.70793843
135	0x3e60bcb6	0.21946988
136	0x3eb8211f	0.3596277
137	0x3e0d612a	0.13806596
138	0xbf889fe2	-1.0673792
139	0x3e7dd118	0.24786794
140	0x3f155f13	0.58348197
141	0x3e9364aa	0.28787738
142	0x3e8ea199	0.27857664
143	0x3f32b63d	0.69809324
144	0x3e991efc	0.29906452
145	0xbf0a1b29	-0.53947693
146	0x3e8e86e9	0.27837303
147	0x3f5d15aa	0.8636118
148	0xbe04ec77	-0.12980829
149	0x3f026cfc	0.50947547
150	0xbf27dd2e	-0.6557187
151	0x3e631121	0.22174503
152	0xbf2c33c3	-0.6726648
153	0xbdf251d1	-0.118320115
154	0x3e83c4f2	0.25736195
155	0xbd816b7d	-0.0631933
156	0x3eb570a4	0.354375
157	0xbe9aa7b8	-0.30206084
158	0xbf0b033c	-0.5430181
159	0xbf81906e	-1.0122201
160	0x3e59ea6f	0.21280836
161	0xbf0b1ab6	-0.5433763
162	0x3e63704f	0.22210811
163	0x3f09ed49	0.53877693
164	0xbee0649e	-0.43826765
165	0x3f2deaa9	0.6793619
166	0xbe9dc702	-0.30815893
167	0xbf067eba	-0.5253712
168	0x3ebbeacb	0.3670257
169	0x3ebde2b8	0.37087035
170	0x3dc5e2d4	0.09662405
171	0x3a3b001d	0.0007133501
172	0xbf23635b	-0.6382348
173	0xbf1eb476	-0.6199411
174	0x3e55404a	0.20825306
175	0x3f16ee54	0.5895741
176	0x3f42d687	0.7610859
177	0xbe7db4f1	-0.24776055
178	0x3ecd6825	0.40118518
179	0x3f191816	0.5980238
180	0xbec95688	-0.3932383
181	0xbe8ded5c	-0.27720153
182	0xbf38cf93	-0.72191733
183	0x3ede88cf	0.43463752
184	0x3d86991b	0.06572171
185	0x3caa9a0d	0.02082541
186	0xbe518e74	-0.20464498
187	0x3f39a0a5	0.7251075
188	0x3e9e36e7	0.30901262
189	0x3f12582f	0.5716581
190	0xbcc5c22d	-0.024140442
191	0x3f90265d	1.1261708
192	0xbf026981	-0.50942236
193	0x3e2d6fed	0.16937228
194	0x3f965079	1.1743308
195	0xbdec2124	-0.115297586
196	0x3e4aa987	0.19791232
197	0xbeb2c774	-0.34917796
198	0xbe5f45de	-0.21803996
199	0x3d4f8f6a	0.05067388
200	0xbf2b694d	-0.6695755
201	0x3ee9e651	0.4568353
202	0xbe2458f7	-0.16049562
203	0xbf134ec7	-0.5754208
204	0x3d6e500d	0.05818181
205	0xbc1266e5	-0.008935665
206	0x3d90ff61	0.0707996
207	0xbedf5187	-0.43616888
208	0xbe5886ba	-0.21145144
209	0x3ced0146	0.028931271
210	0x3f3dcdf3	0.7414238
211	0xbe7089a3	-0.23490004
212	0x3d78adc0	0.060712576
213	0xbf295d0c	-0.66157603
214	0x3f058780	0.5215988
215	0xbe94d836	-0.29071206
216	0xbdf0b745	-0.11753706
217	0x3f5cb27f	0.86209863
218	0x3f6a791a	0.91591036
219	0xbef07950	-0.46967554
220	0xbf2d3d5a	-0.6767174
221	0x3f5a3c88	0.85248613
222	0x3e1ed4dd	0.15510888
223	0xbee9cb66	-0.45662993
224	0xbdfb8aab	-0.12282308
225	0xbe8fef7a	-0.28112394
226	0x3d9cf4f1	0.07663906
227	0xbe9d1c1e	-0.30685514
228	0xbe20b489	-0.15693869
229	0xbeffe313	-0.4997793
230	0xbf4b0f11	-0.79319865
231	0x3eedebd5	0.46468988
232	0x3e8eae4f	0.27867362
233	0x3d5eaf4a	0.054366387
234	0xbd7910dc	-0.060807094
235	0xbf0c0eaf	-0.54709905
236	0x3f125e05	0.5717471
237	0xbf7948f9	-0.9737697
238	0x3d72e402	0.059299476
239	0xbe35ac24	-0.17741448
240	0xbef11def	-0.4709315
241	0x3f45003b	0.76953477
242	0xbe9107ff	-0.28326413
243	0x3e0357df	0.12826489
244	0x3f09db50	0.5385027
245	0x3b815fb5	0.0039481767
246	0xbf074b38	-0.5284915
247	0x3f3e56d5	0.74351245
248	0x3e628c0a	0.22123733
249	0xbe7d65d4	-0.24745876
250	0xbf149081	-0.58032995
251	0x3e774134	0.24145967
252	0xbf659103	-0.89674395
253	0xbe4ee8a6	-0.20205936
254	0xbcfaec2b	-0.030630192
255	0x3f08fb27	0.5350823

transformer.layers.0.0.fn.to_out.0.weight f4 [36, 72]
0	0x3e0a438c	0.1350233
1	0xbea6c4e8	-0.32572103
2	0x3e7c51cb	0.24640577
3	0xbebe871b	-0.37212452
4	0x3e8309c7	0.25593397
5	0x3e7d01d7	0.24707733
6	0x3e248f23	0.16070227
7	0x3e70b8e5	0.23508032
8	0xbd24e7da	-0.040260173
9	0xbd36390b	-0.044487994
10	0x3d71bd6a	0.05901853
11	0xbb8dc88e	-0.0043268865
12	0xbc64422e	-0.013931794
13	0x3d2413ae	0.04005783
14	0xbe0e5c7a	-0.13902465
15	0x3d95f0f4	0.07321349
16	0xbdc72abf	-0.0972495
17	0x3e9acbec	0.30233705
18	0xbe653c0f	-0.22386192
19	0x3eb07c6a	0.3446992
20	0xbe19385b	-0.14962904
21	0xbea614f6	-0.32437867
22	0x3c3df706	0.0115945395
23	0x3e42f9f9	0.1904067
24	0x3efaccde	0.48984426
25	0x3dd15f3c	0.10223243
26	0xbd3e63f5	-0.046482045
27	0xbeb17b84	-0.34664547
28	0xbdee52de	-0.116368994
29	0xbd2fcdb7	-0.042920794
30	0xbe97126a	-0.29506236
31	0xbe0d01d2	-0.13770226
32	0xbd6504ba	-0.05591271
33	0xbedbe2d6	-0.429465
34	0xbce4b9f5	-0.027920702
35	0xbd82964a	-0.063763216
36	0x3e16be9b	0.14721148
37	0xbeef3f59	-0.46728018
38	0x3ea78e1c	0.32725608
39	0x3b0b9cac	0.00213031
40	0xbd741972	-0.05959458
41	0xbe37723a	-0.17914668
42	0xbe8dce37	-0.27696392
43	0x3ccb747a	0.024835814
44	0xbe555c6e	-0.2083604
45	0x3eca4748	0.39507508
46	0xbf14bd87	-0.58101696
47	0xbd7a1a59	-0.061060283
48	0xbe942731	-0.2893615
49	0x3e8d6e9d	0.27623454
50	0x3d3b0d92	0.04566724
51	0x3edc5f2b	0.43041357
52	0xbe865cb9	-0.26242617
53	0x3ec3af8e	0.38219875
54	0xbeb8bf78	-0.3608358
55	0xbd1f8bb2	-0.038951583
56	0xbe2a5fae	-0.16638061
57	0x3e9a5113	0.3013998
58	0x3e5939ee	0.21213505
59	0x3e85822a	0.2607587
60	0xbb16f459	-0.0023033826
61	0x3e0419cf	0.1290047
62	0x3ec176e8	0.3778603
63	0xbdf772e8	-0.120824635
64	0x3db1f933	0.08690109
65	0x3e94f6d7	0.29094574
66	0xbed466bb	-0.41484627
67	0xbc98acc5	-0.01863707
68	0x3dd43cd3	0.10363164
69	0xbe8fc230	-0.2807784
70	0x3e61d9a8	0.22055686
71	0x3df1ff12	0.11816229
72	0xbef50b0e	-0.47859997
73	0xbe449da2	-0.19200757
74	0x3f671fad	0.9028271
75	0x3e8fad8c	0.28062093
76	0x3e121d1d	0.14268918
77	0xbe53a315	-0.2066768
78	0xbf57a02c	-0.8422878
79	0xbe018b99	-0.12650909
80	0xbe2f9af4	-0.17148954
81	0xbe2bfaaf	-0.16794847
82	0xbd94e4dd	-0.07270215
83	0xbf26949d	-0.65070516
84	0x3eeef42a	0.46670657
85	0x3f32a4e8	0.69782877
86	0xbc83bed5	-0.016082207
87	0x3d981059	0.07424993
88	0x3e31b97d	0.17355914
89	0x3f0d9322	0.5530263
90	0xbfb40a68	-1.4065676
91	0x3e2e6095	0.1702903
92	0xbe8f7d4d	-0.28025284
93	0x3f8ed711	1.1159383
94	0xbea605ff	-0.3242645
95	0x3ef05408	0.4693911
96	0x3e4a3092	0.1974509
97	0xbe6e4564	-0.23268658
98	0xbe7b7862	-0.24557641
99	0x3f81ec63	1.0150265
100	0x3ee7625b	0.45192227
101	0x3f2476c6	0.64243734
102	0xbe8460ac	-0.25855005
103	0xbf47a059	-0.77979046
104	0x3e0ce34a	0.13758579
105	0x3f4abd0e	0.79194725
106	0x3e565ef1	0.20934655
107	0x3bbcaddf	0.0057580317
108	0xbf22cf29	-0.6359735
109	0xbea0adcf	-0.31382605
110	0xbecf2f63	-0.4046584
111	0x3e9be413	0.30447444
112	0xbf0ed44f	-0.5579271
113	0x3e05c47b	0.13063233
114	0x3e424527	0.18971692
115	0xbeab98e1	-0.33515075
116	0x3bcd9a2c	0.0062744822
117	0x3e8797e7	0.2648308
118	0xbc640a19	-0.013918423
119	0x3f024652	0.5088855
120	0xbf037c48	-0.51361513
121	0xbebf6414	-0.3738104
122	0x3d82dacc	0.063893884
123	0x3f724fef	0.9465322
124	0x3e0a5bff	0.13511656
125	0xbe59fb34	-0.21287233
126	0xbf1a7adc	-0.6034372
127	0xbe1bac24	-0.15202385
128	0xbf33bc72	-0.7020942
129	0xbf1b651e	-0.6070117
130	0xbe2fa133	-0.17151336
131	0x3e9e2aad	0.30891934
132	0xbee4205c	-0.44555938
133	0x3e8f8fe6	0.28039473
134	0xbd3dca9f	-0.046335813
135	0xbe708c1e	-0.2349095
136	0xbd89a3e4	-0.06720713
137	0x3ec80c68	0.39071965
138	0x3eda3329	0.42617157
139	0x3e8490cd	0.25891724
140	0xbea0ce2a	-0.3140729
141	0xbeb03d1e	-0.3442163
142	0x3f9080a8	1.1289263
143	0xbe3f4668	-0.18679202
144	0xbf48cc0e	-0.7843636
145	0xbf2f22e9	-0.68412644
146	0xbe1a90ea	-0.15094343
147	0x3ec4dc0e	0.38449138
148	0xbd308cba	-0.043102957
149	0x3e9fce1a	0.3121193
150	0xbf091913	-0.53553885
151	0x3f3ba41b	0.7329728
152	0x3e3d1407	0.18464671
153	0x3f355c8a	0.7084433
154	0xbf1c39c8	-0.6102567
155	0xbe0505bf	-0.12990473
156	0xbe135a37	-0.14389883
157	0xbd5c59ca	-0.053796567
158	0x3ebde96e	0.37092155
159	0x3e22dfc0	0.15905666
160	0x3dbf9b46	0.09355788
161	0xbdfe34dc	-0.12412426
162	0xbe5d3834	-0.21603471
163	0x3b862ba9	0.00409456
164	0xbc40d369	-0.011769154
165	0xbed5b628	-0.41740537
166	0xbf30726c	-0.68924594
167	0x3df64645	0.120251216
168	0xbe0ab9aa	-0.13547388
169	0xbe6d9177	-0.23200022
170	0xbe2375cc	-0.15962905
171	0xbcadb8f8	-0.021206364
172	0xbf280b1b	-0.65641946
173	0xbe79175d	-0.24325319
174	0xbf558553	-0.8340656
175	0x3eecb8db	0.46234784
176	0x3ebe9b46	0.3722784
177	0xbf151762	-0.58238804
178	0x3f42e558	0.761312
179	0x3e9c8396	0.30569142
180	0xbe944bd3	-0.289641
181	0x3f59c523	0.8506643
182	0xbef9c4ce	-0.48782963
183	0x3e33d95c	0.17563385
184	0xbe605355	-0.21906789
185	0x3f192326	0.5981926
186	0xbe562ab2	-0.20914724
187	0x3e93f2bb	0.28896126
188	0xbddd1c97	-0.10796469
189	0xbe393c18	-0.1808933
190	0xbd9883c2	-0.07447006
191	0x3cbc4f1c	0.022986941
192	0x3e142f32	0.14471129
193	0x3db5ca1e	0.088764414
194	0xbe724012	-0.23657253
195	0xbf0a8004	-0.54101586
196	0xba04d7a1	-0.00050675316
197	0x3e971039	0.29504564
198	0x3dd08d9f	0.10183262
199	0x3e2c32f3	0.1681631
200	0x3d597c98	0.053097337
201	0x3e3d60f0	0.1849401
202	0x3cac9392	0.02106646
203	0x3e6ca594	0.23110038
204	0x3d0d4e35	0.034498412
205	0xbf2408bf	-0.64075845
206	0x3e81f888	0.25384927
207	0x3dac6a24	0.08418682
208	0xbe644b4e	-0.22294351
209	0x3eaf227b	0.34205994
210	0xbd923130	-0.07138288
211	0x3e8feb15	0.2810904
212	0xbe54aae7	-0.20768319
213	0xbe199a3e	-0.15000245
214	0xbe1e6be4	-0.15470845
215	0x3d702a03	0.058633815
216	0x3ea4a6e6	0.32158583
217	0xbe80eacc	-0.25179136
218	0xbe3b8d76	-0.18315682
219	0x3e6c9b2c	0.23106068
220	0xbe54c8ec	-0.2077977
221	0x3e87e7e2	0.265441
222	0x3e8462cd	0.2585663
223	0x3ed94be4	0.42440712
224	0x3ef647bd	0.48101607
225	0xbf788856	-0.9708303
226	0x3f5c7f66	0.86131895
227	0x3ebf2e10	0.3733983
228	0xbee6a299	-0.45045927
229	0xbbd8f13a	-0.0066205533
230	0x3e8fa1e8	0.28053212
231	0xbd421f39	-0.047393057
232	0x3e083653	0.13301973
233	0xbdcfde80	-0.101498604
234	0xbe668349	-0.22511019
235	0xbd9be5a8	-0.07612163
236	0x3ea83d29	0.32859161
237	0xbe84b4f9	-0.2591932
238	0xbe988bd7	-0.2979419
239	0x3f130216	0.5742506
240	0x3ccf680a	0.025318164
241	0xbf373628	-0.7156701
242	0xbae012df	-0.0017095468
243	0xbf278841	-0.6544228
244	0x3f2ea594	0.682214
245	0x3e182e6f	0.14861463
246	0x3e5dc1fb	0.21656029
247	0x3e34d124	0.17657906
248	0xbda4c2f9	-0.080450006
249	0x3e8b8c98	0.27255702
250	0x3c562a0e	0.01307155
251	0xbe1d9cf3	-0.15391903
252	0xbf21f852	-0.6326953
253	0xbd49da60	-0.049280524
254	0x3f279fe6	0.6547836
255	0x3e129d9c	0.14317936

transformer.layers.0.0.fn.to_out.0.bias f4 [36]
0	0x3e4c4543	0.19948296
1	0xbd95d907	-0.07316785
2	0x3ea9969b	0.33122715
3	0x3eccccb4	0.39999926
4	0x3f0831ed	0.5320118
5	0xbe2efa97	-0.1708778
6	0x3e405c0f	0.18785118
7	0xbe0c6ff6	-0.13714585
8	0x3c3dc76c	0.01158319
9	0xbe816703	-0.25273904
10	0xbf891d43	-1.0712055
11	0x3da37d80	0.079829216
12	0x3dacfd04	0.084466964
13	0xbf1ddeb8	-0.61667967
14	0x3ebd7550	0.37003565
15	0x3e94031b	0.2890862
16	0xbe4cee86	-0.20012864
17	0xbf287698	-0.6580596
18	0x3db95c77	0.090508394
19	0x3e9ae580	0.3025322
20	0x3e817148	0.2528174
21	0xbd48d68b	-0.04903273
22	0xbe23c568	-0.15993273
23	0xbe0e1b3e	-0.1387758
24	0x3e0a406c	0.13501137
25	0x3e0780ce	0.13232729
26	0xbe019555	-0.12654622
27	0x3e1b1758	0.15145624
28	0xbe8c9a65	-0.27461544
29	0x3dce1121	0.10061861
30	0xbe8079db	-0.25092968
31	0x3d9d0e5a	0.07668753
32	0x3f03ace7	0.51435703
33	0x3f00881b	0.5020768
34	0xbe48c5e7	-0.19606744
35	0xbdd58c08	-0.104270995

transformer.layers.0.1.norm.weight f4 [36]
0	0x3f124597	0.57137436
1	0x3f739aa9	0.9515787
2	0x3f33ffa0	0.7031193
3	0x3f457d57	0.7714438
4	0x3f258439	0.6465488
5	0x3f10e14b	0.5659377
6	0x3e0827b6	0.13296399
7	0x3f75664b	0.9585921
8	0x3ebe9380	0.3722191
9	0x3f288921	0.6583424
10	0x3f5730f4	0.8405907
11	0x3f41035b	0.75395745
12	0x3f3765e9	0.7163988
13	0x3f3e896a	0.7442843
14	0x3f725935	0.9466737
15	0x3f3bd886	0.73377264
16	0x3f34dafc	0.70646644
17	0x3f121c33	0.5707428
18	0x3ede5c99	0.4343002
19	0x3f5b5ace	0.8568543
20	0x3f0e63a5	0.55620795
21	0x3f176aa3	0.5914709
22	0x3f73ca63	0.9523069
23	0x3f49f828	0.7889428
24	0x3f21a227	0.6313805
25	0x3f45788e	0.77137077
26	0x3f4ab185	0.79177123
27	0x3f3d92f4	0.7405236
28	0x3f2d715d	0.67751104
29	0x3ed6b94f	0.41938254
30	0x3f67f575	0.9060891
31	0x3f2aeb4f	0.667653
32	0x3f2b9fb1	0.67040545
33	0x3f3101a7	0.69143146
34	0x3f09d448	0.5383954
35	0x3f1dab25	0.6158927

transformer.layers.0.1.norm.bias f4 [36]
0	0x3dc41286	0.095738456
1	0xbe2758b4	-0.16342431
2	0x3e1d4f29	0.15362228
3	0xbe47daff	-0.19517134
4	0x3b9fc01a	0.004875195
5	0x3e1b440f	0.15162681
6	0x3d035d3d	0.03207134
7	0xbef88922	-0.48542124
8	0xbdab4435	-0.08362619
9	0xbe1f41df	-0.15552472
10	0xbe14271f	-0.14468049
11	0x3c0b3a84	0.008497838
12	0xbe8b9aef	-0.27266642
13	0xbedabd7b	-0.42722687
14	0x3f12c5d5	0.5733312
15	0x3d5ca428	0.05386749
16	0x3d67e3f8	0.056613892
17	0x3e2ca509	0.16859831
18	0x3e08e915	0.13370164
19	0x3e65a0a5	0.22424562
20	0xbd9a7296	-0.07541387
21	0xbc233dfa	-0.009963507
22	0xbed41882	-0.41424948
23	0x3da2cfee	0.07949816
24	0xbd65def0	-0.056120813
25	0xbdb26527	-0.087106995
26	0xbc2f7e75	-0.010711302
27	0xbc5e420f	-0.013565554
28	0xbc038304	-0.008026842
29	0xbdb422b1	-0.08795679
30	0x3ee13bb1	0.43990853
31	0x3d0fb88f	0.03508812
32	0xbe5267e0	-0.20547438
33	0xbd90cc31	-0.070701964
34	0xbe372b94	-0.17887717
35	0xbe96ef5d	-0.29479495

transformer.layers.0.1.fn.net.0.weight f4 [72, 36]
0	0x3eacf349	0.33779362
1	0x3c8c72d4	0.017144598
2	0xbf209a73	-0.6273567
3	0x3ee5c992	0.44880348
4	0xbe4bedd8	-0.19914949
5	0x3cacec97	0.021108909
6	0xbc651d39	-0.013984018
7	0x3e1618bb	0.14657871
8	0x3dda0538	0.10645527
9	0xbe831370	-0.25600767
10	0xbdc7b6b3	-0.09751644
11	0xbf5c2748	-0.8599744
12	0x3f348ec0	0.7053032
13	0x3f022459	0.5083671
14	0x3eb5761d	0.35441676
15	0xbf039e10	-0.5141306
16	0x3e3082b8	0.17237365
17	0x3dae3151	0.085055
18	0xbf3c7214	-0.7361157
19	0x3ea48efb	0.32140335
20	0xbefdbf96	-0.4956023
21	0x3f3c3ed3	0.7353336
22	0x3f87aaf2	1.0599043
23	0xbf2aea62	-0.6676389
24	0xbf25d663	-0.64780253
25	0x3e226c70	0.15861678
26	0x3ee06b0e	0.43831676
27	0xbd14aef0	-0.036299646
28	0x3f2f7331	0.68535143
29	0xbe0fe806	-0.14053354
30	0xbebeb50d	-0.37247506
31	0xbd85b3cf	-0.065284364
32	0xbea49516	-0.32144994
33	0xbee99983	-0.45624933
34	0x3eccd391	0.40005162
35	0xbe267943	-0.16257195
36	0xbf1bfd1b	-0.60933083
37	0x3d0541ac	0.032533333
38	0xbf162bbe	-0.58660495
39	0xbf6982f8	-0.9121547
40	0xbe8fbd7f	-0.28074262
41	0xbe4a4978	-0.19754589
42	0xbeaafe4a	-0.33397132
43	0x3f6304f0	0.8867941
44	0x3f709814	0.9398205
45	0x3e4b6e22	0.19866231
46	0xbe1ab75b	-0.15109007
47	0x3f0fd682	0.5618669
48	0xbf08621e	-0.53274715
49	0x3f237d37	0.6386294
50	0xbfa5bed0	-1.2948856
51	0xbdaff647	-0.085918956
52	0x3ec39f79	0.38207605
53	0x3f657be7	0.89642185
54	0x3e8ae4a6	0.2712757
55	0xbeea5aa5	-0.4577228
56	0xbf00d04c	-0.50317836
57	0x3d22e4ae	0.039768867
58	0x3fa73aaf	1.3064784
59	0xbe93b5e2	-0.28849703
60	0x3e866400	0.2624817
61	0x3ef34a93	0.47517833
62	0xbdb46699	-0.088086314
63	0xbea36f6e	-0.31920952
64	0x3ea7e6ee	0.32793373
65	0x3f537c84	0.8261187
66	0x3f084e31	0.5324431
67	0xbef7565e	-0.4830808
68	0x3e19d060	0.15020895
69	0xbf72d841	-0.9486123
70	0xbf25acf1	-0.6471701
71	0xbe232445	-0.15931804
72	0xbeb4ab6d	-0.35287037
73	0x3e8a3f04	0.27001202
74	0xbf3462fe	-0.7046355
75	0xbe9ea01b	-0.30981526
76	0x3ee93ebf	0.45555684
77	0x3a8f9998	0.0010955809
78	0xbdf7a8a3	-0.12092712
79	0xbe0e3895	-0.13888772
80	0x3f274159	0.6533409
81	0x3f26f863	0.6522276
82	0x3f4ae314	0.79252744
83	0x3ef95c13	0.4870306
84	0xbe86078e	-0.2617764
85	0x3f0a63ec	0.5405872
86	0xbe5d9c15	-0.21641572
87	0x3d66680e	0.056251578
88	0xbe9c8b43	-0.30574998
89	0xbba92860	-0.005162284
90	0x3db470f3	0.08810606
91	0x3eb37379	0.35049036
92	0x3d969145	0.07351927
93	0xbf5b3d31	-0.85640246
94	0xbedc60fa	-0.43042737
95	0x3e5a0254	0.2128995
96	0xbe198c80	-0.14995003
97	0x3ee93e18	0.45555186
98	0xbf225731	-0.63414294
99	0xbe569b8d	-0.20957775
100	0x3f33e1e0	0.7026653
101	0x3f226011	0.63427836
102	0xbf17520d	-0.59109575
103	0x3f5b27ce	0.8560761
104	0xbe7e4590	-0.24831223
105	0xbf86dbd5	-1.0535837
106	0xbeb1c583	-0.34721002
107	0xbec3e824	-0.38263047
108	0xbde6f599	-0.11277313
109	0x3e261f04	0.16222769
110	0xbf42be8d	-0.7607201
111	0xbe8bf68f	-0.27336547
112	0x3e1cbc76	0.15306267
113	0x3e045fd6	0.12927184
114	0x3ea7a737	0.32744762
115	0x3f02e2f6	0.51127565
116	0x3e9eac6d	0.30990925
117	0x3f890aba	1.0706398
118	0x3f3472b7	0.7048754
119	0xbeb3e315	-0.35134187
120	0x3db37e31	0.087643035
121	0x3dfc605b	0.12323066
122	0x3eabbcd1	0.33542493
123	0xbf0231fa	-0.5085751
124	0xbee7b29c	-0.45253456
125	0x3f1e4082	0.6181718
126	0xbea827a8	-0.32842755
127	0xbf5cbee3	-0.8622877
128	0xbeeaf0ba	-0.45886785
129	0x3ed1dac5	0.4098722
130	0x3e85d9a7	0.26142618
131	0x3e3418bc	0.1758756
132	0x3f69e2a1	0.91361433
133	0x3ddbf0c4	0.10739282
134	0xbf6889b3	-0.9083511
135	0xbe17140d	-0.14753743
136	0xbcbfeebe	-0.02342927
137	0x3ea26685	0.3171884
138	0xbf328cdc	-0.69746184
139	0xbd9f6260	-0.077824354
140	0x3f0bfeb7	0.5468554
141	0xbef7b9fd	-0.48384085
142	0xbf0d6e3d	-0.55246335
143	0xbf3787ff	-0.7169189
144	0xbf84c969	-1.0373966
145	0x3e8847f3	0.26617393
146	0xbee601cd	-0.4492325
147	0x3b636551	0.003469784
148	0x3ee55319	0.4478996
149	0xbe9c7615	-0.3055884
150	0x3e9f7109	0.31140926
151	0x3cc4c775	0.02402089
152	0x3f2f0c52	0.68378174
153	0xbb73c82b	-0.0037198167
154	0xbd3939fe	-0.04522132
155	0xbe5fdc9b	-0.21861498
156	0xbe9df459	-0.30850485
157	0xbdcafef1	-0.099119075
158	0x3d485ee5	0.048918623
159	0x3e3369aa	0.17520776
160	0x3e3d2b0a	0.1847345
161	0x3e69736f	0.2279794
162	0xbd7a0246	-0.061037324
163	0x3e8e3639	0.27775744
164	0xbf466efc	-0.775131
165	0xbf3cd277	-0.73758644
166	0x3e95c698	0.29253078
167	0xbe83d99e	-0.25751966
168	0x3f4e1b7b	0.8051068
169	0xbe0eb66d	-0.13936777
170	0xbf04d47e	-0.5188674
171	0xbf718aa8	-0.943522
172	0x3f9a9a2f	1.2078303
173	0x3ed31d04	0.41233075
174	0x3d5d2625	0.053991456
175	0x3d76e2a0	0.06027472
176	0x3e9a8d37	0.30185863
177	0xbec40982	-0.38288504
178	0x3edf1a6f	0.43574855
179	0x3d5039d8	0.050836414
180	0xbf2f5841	-0.6849404
181	0x3f59ed66	0.85127866
182	0xbe698448	-0.22804368
183	0x3f2ad6f3	0.66734236
184	0x3e6b6bb3	0.22990303
185	0xbf974e18	-1.1820707
186	0x3dc466b7	0.09589904
187	0x3ec571cd	0.38563386
188	0x3e5865d2	0.21132591
189	0xbe41d27a	-0.18927947
190	0x3ec2a0d3	0.38013324
191	0x3ec6bf57	0.38817856
192	0x3f6a62cd	0.9155701
193	0x3f13d8f3	0.57752913
194	0x3f123a6d	0.571204
195	0x3d18db4a	0.037318505
196	0xbf50b174	-0.8152077
197	0xbe851ed2	-0.26000077
198	0xbe9b4fa9	-0.30334213
199	0xbf39025c	-0.72269225
200	0x3d900680	0.0703249
201	0x3edc148c	0.42984426
202	0x3eaa665d	0.33281222
203	0x3f753ad9	0.9579292
204	0x3d2b035b	0.041751247
205	0xbe894174	-0.2680775
206	0xbf2bf472	-0.6716987
207	0xbeae7843	-0.34076127
208	0x3c87fe03	0.016600614
209	0x3e312f21	0.17303135
210	0xbeef4894	-0.4673506
211	0xbf2a4717	-0.66514724
212	0xbda959c1	-0.08269072
213	0x3eb8d1a1	0.36097434
214	0x3ec58471	0.38577607
215	0x3db135ad	0.08652816
216	0xbd02aca1	-0.031902913
217	0x3e45c694	0.19314033
218	0xbef511fc	-0.47865283
219	0xbf2c55fa	-0.6731869
220	0xbea3e87d	-0.32013312
221	0xbec70ce2	-0.38877016
222	0x3ea82f4d	0.32848588
223	0xbba1019e	-0.004913523
224	0x3ecdb9b7	0.40180752
225	0x3edccbdc	0.43124282
226	0x3e910577	0.28324482
227	0x3f045857	0.51697296
228	0xbe82c89d	-0.2554368
229	0x3ce9b766	0.028529834
230	0xbea57713	-0.3231741
231	0xbda47d92	-0.08031763
232	0x3aa3405a	0.0012455091
233	0x3f159ead	0.58445245
234	0x3e5c11f7	0.21491228
235	0xbe138a9a	-0.14408341
236	0xbf1655ee	-0.5872487
237	0xbfb8a466	-1.442517
238	0xbd95d90c	-0.07316789
239	0xbdb9fe70	-0.09081733
240	0x3e786500	0.24257278
241	0xbeb61ddf	-0.35569665
242	0x3f54f26e	0.8318242
243	0x3f903596	1.1266353
244	0x3f26918f	0.65065855
245	0x3f2d14a8	0.67609644
246	0xbe446b9d	-0.19181676
247	0x3eeb7266	0.45985717
248	0x3e3dacb3	0.18522911
249	0xbf82c46a	-1.0216191
250	0xbedb4b86	-0.42831057
251	0xbeadccd6	-0.3394534
252	0xbf285923	-0.6576101
253	0xbecd3d5e	-0.40085882
254	0x3f08efdf	0.53491014
255	0x3e91917d	0.2843131

transformer.layers.0.1.fn.net.0.bias f4 [72]
0	0xbf331883	-0.69959277
1	0xbec077c6	-0.3759138
2	0xbee02cb0	-0.43784094
3	0xbe8e75e0	-0.27824306
4	0xbf4618da	-0.7738167
5	0xbf6e52b4	-0.93094945
6	0xbf516cbf	-0.8180656
7	0xbf470bc0	-0.77752304
8	0xbf361ceb	-0.71137875
9	0xbf1b66a4	-0.6070349
10	0xbbf08866	-0.0073404787
11	0xbe7c15c0	-0.24617672
12	0xbcf01aff	-0.029309748
13	0xbed8424d	-0.42238083
14	0xbf85b5ef	-1.0446147
15	0xbebfdf7c	-0.37475193
16	0xbe9f1032	-0.31067044
17	0xbed76d04	-0.4207536
18	0x3e3d6a06	0.18497476
19	0xbf231e7c	-0.6371839
20	0xbe853f72	-0.26024967
21	0xbe2d702e	-0.16937324
22	0xbf3247a2	-0.69640553
23	0xbeb1e2fc	-0.34743488
24	0xbf177f27	-0.59178394
25	0xbe6fd1eb	-0.23419921
26	0xbefe01ed	-0.49610844
27	0xbf8df41e	-1.1090124
28	0x3d86046d	0.06543813
29	0xbf35b6ad	-0.70981866
30	0xbe9794ba	-0.29605657
31	0xbe1abb8d	-0.15110607
32	0xbef35d62	-0.47532183
33	0xbf4576db	-0.77134484
34	0xbeac2e49	-0.33629063
35	0x3d8593fc	0.065223664
36	0x3e4d01a3	0.20020156
37	0xbf495efe	-0.7866057
38	0xbf3e993f	-0.74452585
39	0xbf343fb9	-0.70409733
40	0xbf024b57	-0.5089621
41	0xbefc4335	-0.49270025
42	0xbf197f8f	-0.59960264
43	0xbe0cb8b7	-0.13742338
44	0xbe571f07	-0.2100793
45	0xbe082b21	-0.13297702
46	0xbf87a246	-1.0596397
47	0xbe868174	-0.2627064
48	0xbf0445e3	-0.5166914
49	0x3de24b6e	0.11049543
50	0xbf633f56	-0.8876852
51	0xbe1f15d8	-0.15535676
52	0xbed7e30e	-0.42165416
53	0xbe77a154	-0.24182636
54	0xbea127f5	-0.31475797
55	0xbf108ac8	-0.56461763
56	0xbea1f284	-0.31630337
57	0xbdc4cbc6	-0.09609179
58	0xbf318a59	-0.69351727
59	0xbf6c1f3d	-0.92235166
60	0xbe5ff3ee	-0.21870396
61	0xbf2d7cf2	-0.67768776
62	0xbe7e6745	-0.24844082
63	0xbeba9114	-0.3643881
64	0xbe962757	-0.2932689
65	0xbf533ddf	-0.8251628
66	0xbf62fbb3	-0.8866531
67	0xbea79615	-0.3273169
68	0xbf8ec69c	-1.1154361
69	0xbf9a0f05	-1.2035834
70	0xbf227b4a	-0.63469374
71	0xbe483585	-0.19551666

transformer.layers.0.1.fn.net.3.weight f4 [36, 72]
0	0x3f4e4d4e	0.8058671
1	0x3f7b1197	0.98073715
2	0xbc2de816	-0.010614416
3	0x3f1dcc2d	0.6163967
4	0xbe22801b	-0.15869181
5	0xbd1e9068	-0.038711935
6	0x3e1e48b3	0.1545742
7	0x3e2bc5d7	0.16774689
8	0x3e73e48e	0.23817655
9	0xbf1bd881	-0.60877234
10	0x3dd93c55	0.106072105
11	0xbd5ba5dd	-0.053624976
12	0xbd30a1c8	-0.043123037
13	0xbd80ca66	-0.062886044
14	0xbea284bc	-0.31741893
15	0x3e712e73	0.23552875
16	0x3e8aa918	0.27082133
17	0xbe91a1d2	-0.28443772
18	0xbe106cba	-0.14103976
19	0xbcb100dd	-0.021606857
20	0xbf008241	-0.5019875
21	0x3da5694f	0.08076727
22	0xbf3e3cf7	-0.74311775
23	0x3f2f3827	0.68445057
24	0x3ea0f64d	0.31437913
25	0x3d1eb653	0.038748097
26	0x3d98bd90	0.07458031
27	0xbee8a511	-0.45438436
28	0xbd945eb5	-0.072446264
29	0xbf031b8f	-0.51213926
30	0xbe942ceb	-0.2894052
31	0x3e3ef443	0.18647866
32	0x3f9afb84	1.2108006
33	0x3eda5ae9	0.42647484
34	0xbe7a39da	-0.24436131
35	0x3e1d3592	0.15352467
36	0xbe35a927	-0.17740308
37	0xbdb3d0fa	-0.087800935
38	0x3e84610d	0.25855294
39	0x3e53de51	0.20690276
40	0x3eb8bdb9	0.36082247
41	0x3e6fe010	0.23425317
42	0xbd9dbcb2	-0.077020064
43	0xbe57f9c9	-0.21091379
44	0x3d6fe3e8	0.058566958
45	0x3ed8c49e	0.42337507
46	0xbebf7ea3	-0.37401304
47	0xbb69d6a0	-0.0035680905
48	0xbebb32eb	-0.36562285
49	0x3e9238c9	0.2855895
50	0x3e64248b	0.22279565
51	0x3e7b0dcc	0.24516982
52	0x3d9c9126	0.07644872
53	0xbee91992	-0.4552732
54	0x3de0df7f	0.109801285
55	0x3e983b60	0.297328
56	0x3df8c832	0.12147559
57	0xbd913c1a	-0.070915416
58	0x3f6176aa	0.8807169
59	0x3f8b1ceb	1.08682
60	0xbec6b9bc	-0.3881358
61	0xbed382c6	-0.4131071
62	0xbe60e81c	-0.21963543
63	0x3cf16a04	0.029469498
64	0x3f02ca5b	0.5109002
65	0x3ea2afd8	0.31774783
66	0x3e9b2e73	0.30308875
67	0x3f3ae959	0.7301231
68	0x3f0021aa	0.5005137
69	0x3e571ab9	0.21006288
70	0xbd3c57af	-0.04598206
71	0x3f16449d	0.58698446
72	0x3ee2ff68	0.44335485
73	0xbebfd82e	-0.3746962
74	0x3f03d2fa	0.514938
75	0x3f56b02c	0.83862567
76	0xbe91ac2e	-0.28451675
77	0x3eb9b1a2	0.36268336
78	0xbe1ffc14	-0.15623504
79	0x3cdd61a5	0.0270241
80	0xbe56d095	-0.20978005
81	0x3f15f288	0.585732
82	0x3f1e0960	0.61733055
83	0x3b4160b8	0.0029507112
84	0xbe7b1758	-0.24520624
85	0x3e28ad8d	0.16472454
86	0xbe9859f7	-0.29756138
87	0x3f5385b7	0.8262591
88	0x3e21d490	0.15803742
89	0x3be5312f	0.0069943885
90	0xbe3246ed	-0.17409869
91	0x3efc3cf4	0.49265254
92	0xbe639864	-0.22226101
93	0x3ea8ab3c	0.3294314
94	0xbf18bf43	-0.5966684
95	0x3f7d46b4	0.9893601
96	0x3ef6c5b6	0.48197716
97	0x3ebe254c	0.3713783
98	0xbea15f64	-0.3151809
99	0x3f333576	0.7000345
100	0xbf59c968	-0.85072947
101	0xbe82f653	-0.25578555
102	0x3f49440b	0.7861945
103	0xbf7eceef	-0.99534506
104	0x3c450648	0.012025423
105	0xbfa4a0f6	-1.2861621
106	0x3edf97eb	0.43670592
107	0x3dc2de34	0.09515038
108	0xbeddd2db	-0.43324932
109	0xbf672afd	-0.9029997
110	0x3f51782b	0.81823987
111	0x3e998504	0.29984295
112	0xbf345a57	-0.7045035
113	0xbe97c8f2	-0.29645497
114	0x3f47a077	0.77979225
115	0x3e5a0653	0.21291475
116	0x3e31a7c8	0.1734916
117	0x3ea909eb	0.3301538
118	0x3efad787	0.4899256
119	0x3d8db27c	0.06918809
120	0xbf30a709	-0.69004875
121	0x3fc92c77	1.5716695
122	0x3f63b3d6	0.8894628
123	0x3e5167b0	0.2044971
124	0xbf2dfb46	-0.6796154
125	0xbeb19aea	-0.34688503
126	0xbc00b35d	-0.007855264
127	0xbf2c4fb5	-0.67309123
128	0x3fc1c1b1	1.5137235
129	0xbe1e8656	-0.15480933
130	0xbf6e7907	-0.93153423
131	0xbf90c3d7	-1.1309766
132	0xbf3117b8	-0.69176817
133	0x3e9dcc77	0.30820057
134	0x3f77bcc7	0.96772426
135	0xbedb4e59	-0.42833212
136	0x3f0302af	0.5117597
137	0xbdd0d0ea	-0.10196097
138	0xbf326d46	-0.6969799
139	0x3dfa6202	0.12225725
140	0xbf698b3b	-0.91228074
141	0xbf0c4a9c	-0.54801345
142	0xbc0b74e1	-0.008511753
143	0x3f2f4c18	0.68475485
144	0xbf10ad23	-0.56514186
145	0x3e8681ec	0.26270998
146	0xbeef89f7	-0.46784946
147	0xbf3d40cf	-0.73927015
148	0x3ebd1d1b	0.36936268
149	0xbf1fa5f4	-0.623626
150	0xbe42b5a4	-0.19014603
151	0xbdcc966c	-0.09989628
152	0x3dea0056	0.11425845
153	0xbf02594c	-0.50917506
154	0x3f0d5339	0.5520511
155	0x3eec936c	0.46206224
156	0xbea91e5d	-0.33030978
157	0xbe9a83c6	-0.3017866
158	0x3e23e8f8	0.1600684
159	0xbf3db0b7	-0.7409777
160	0x3ede5746	0.4342596
161	0xbf38d661	-0.72202116
162	0x3eb4fd6a	0.3534959
163	0xbe9cdc1c	-0.3063668
164	0x3f3e1f09	0.74266106
165	0x3e5af651	0.21383025
166	0xbb451b9b	-0.0030076269
167	0xbec5d9e6	-0.38642806
168	0x3d591cec	0.053006098
169	0xbe8072fc	-0.25087726
170	0x3e3f7bcb	0.18699567
171	0xbf2da602	-0.6783143
172	0xbf137124	-0.57594514
173	0x3f00662b	0.50155896
174	0xbe1f2298	-0.1554054
175	0x3e9a5583	0.30143365
176	0x3f8593b4	1.04357
177	0xbf30c1cb	-0.69045705
178	0x3d15ac95	0.03654154
179	0xbf22b8f9	-0.63563496
180	0x3efbe095	0.4919478
181	0x3ef873e2	0.48525912
182	0xbf39bcd4	-0.72553754
183	0xbea6b993	-0.32563457
184	0xbf011d4f	-0.50435346
185	0x3ef863c9	0.4851363
186	0x3e5d2e1f	0.21599625
187	0x3f122789	0.57091576
188	0x3f2f00bb	0.6836049
189	0xbedfd3f7	-0.43716404
190	0x3cd14acf	0.025548367
191	0xbf16d6ee	-0.58921707
192	0xbd782cfe	-0.060589783
193	0xbf7309b0	-0.94936657
194	0x3c455810	0.0120449215
195	0xbf427a56	-0.7596792
196	0x3eb7a9c2	0.35871702
197	0x3f20f515	0.62873966
198	0xbf0902be	-0.5351981
199	0xbf1e0871	-0.6173163
200	0x3bd7e3de	0.006588443
201	0x3f1e0b31	0.61735827
202	0x3f4c3e1f	0.7978229
203	0x3e9da7fd	0.30792227
204	0x3eded830	0.43524313
205	0xbeef9fb6	-0.46801537
206	0xbe9adb71	-0.30245546
207	0xbe895294	-0.26820815
208	0x3e9c52e4	0.3053199
209	0x3e50bd13	0.20384626
210	0x3f39d216	0.7258619
211	0xbefc5ae2	-0.49288088
212	0x3e5f63a8	0.2181536
213	0x3f239674	0.6390145
214	0x3ed9ac7b	0.42514405
215	0xbeb66337	-0.3562257
216	0x3f50c4b3	0.8155014
217	0xbed77bfc	-0.4208678
218	0xbedf08f0	-0.43561506
219	0x3e00bfad	0.12573119
220	0x3f19c420	0.6006489
221	0xbe398ed0	-0.18120885
222	0x3f05adea	0.52218497
223	0xbf3cc82a	-0.73742926
224	0x3edf527e	0.43617624
225	0x3f777594	0.96663785
226	0xbeb56b39	-0.35433367
227	0xbefec238	-0.49757552
228	0xbdeb7c1a	-0.1149828
229	0xbc7ec297	-0.0155493235
230	0xbf2a52c1	-0.6653252
231	0xbe27091d	-0.1631207
232	0x3f478261	0.7793332
233	0x3f08ca7f	0.53433985
234	0xbea31c79	-0.3185766
235	0x3c80c292	0.015717778
236	0x3e0caf27	0.1373869
237	0xbfa2e2a2	-1.2725413
238	0xbe2bea3f	-0.16788577
239	0x3d9321c8	0.07184178
240	0x3e1c3bd2	0.15257195
241	0x3ec1f4ac	0.37881982
242	0x3eb01743	0.34392747
243	0xbe48a3df	-0.19593762
244	0x3f894364	1.0723691
245	0x3e8fd0c7	0.28088972
246	0xbeea0ffe	-0.45715326
247	0xbec9c725	-0.39409748
248	0x3f1724ce	0.59040534
249	0x3f27363c	0.6531713
250	0x3f25fe78	0.64841413
251	0xbe4e02a2	-0.20118192
252	0xbe5b5289	-0.21418203
253	0xbf02a361	-0.51030546
254	0x3d5e4c89	0.05427221
255	0xbf1e0020	-0.6171894

transformer.layers.0.1.fn.net.3.bias f4 [36]
0	0x3da70465	0.08155135
1	0x3f52607f	0.8217849
2	0x3e3412a8	0.17585242
3	0x3e7cace2	0.24675325
4	0x3e121457	0.14265572
5	0xbe5bd0ce	-0.21466371
6	0xbde339ff	-0.11095046
7	0x3e90abff	0.28256223
8	0xbe57781d	-0.21041913
9	0xbe5951d2	-0.21222618
10	0xbf3d6bbf	-0.7399253
11	0xbe95fce3	-0.292945
12	0x3dabe738	0.08393711
13	0xbd942057	-0.07232731
14	0xbd8c2347	-0.06842666
15	0x3f38375b	0.71959466
16	0x3d49d093	0.049271178
17	0xbf3071cf	-0.6892366
18	0xbea5fd64	-0.32419884
19	0xbeb22b60	-0.34798717
20	0x3e96449c	0.2934922
21	0xbd2d681f	-0.042335626
22	0x3f01be5e	0.506811
23	0xbe342827	-0.17593442
24	0xbd593aab	-0.053034466
25	0x3f6c643a	0.92340434
26	0xbce3e91e	-0.02782112
27	0xbc260a31	-0.010134266
28	0xbd06441f	-0.03277981
29	0xbf0c4153	-0.54787177
30	0xbeec01a3	-0.46095
31	0xbea06c96	-0.31332844
32	0x3e90e170	0.28296995
33	0x3e1fb25c	0.15595382
34	0x3d3fe21b	0.04684649
35	0x3e55efd5	0.2089227

transformer.layers.1.0.norm.weight f4 [36]
0	0x3f39a052	0.72510254
1	0x3e53a810	0.2066958
2	0x3ebe268f	0.37138793
3	0x3ed01d2a	0.4064725
4	0x3f05c9e9	0.52261215
5	0x3ee2fb7b	0.4433249
6	0x3f10d0b0	0.5656843
7	0x3f342e0c	0.7038276
8	0x3ec8f287	0.39247534
9	0x3ec84c85	0.3912088
10	0x3f26dd7b	0.651817
11	0x3eb5f51f	0.35538575
12	0x3f0ea24a	0.55716383
13	0x3ebe5110	0.3717122
14	0x3f33f875	0.7030099
15	0x3f261277	0.64871925
16	0x3ee398d3	0.44452533
17	0x3ee5ebed	0.4490656
18	0x3e5a9f19	0.21349753
19	0x3f216051	0.6303759
20	0x3f20f8fb	0.62879914
21	0x3f113241	0.56717306
22	0x3ece8201	0.4033356
23	0x3f152d1d	0.5827196
24	0x3f0a4ceb	0.5402362
25	0x3ee12069	0.4397004
26	0x3f004a2a	0.50113165
27	0x3ecfe467	0.40603945
28	0x3f006b5c	0.5016382
29	0x3ee42fe5	0.4456779
30	0x3eac2ff0	0.33630323
31	0x3f2116f5	0.62925655
32	0x3e988d53	0.29795322
33	0x3f2cfab0	0.6757002
34	0x3f1bf23b	0.6091649
35	0x3eeb3a72	0.45943028
