ViT/ViT1/6 V train 0.995 V test 0.889 GELU 1/model_bestV.pt (torch, 414407 bytes, 74 tensors)

pos_embedding f4 [1, 19, 36]
000000 c7 cc 70 bd b3 71 36 3e 9b dd d6 3f e5 79 60 bf
       -0.05878904 0.1781681 1.6786379 -0.87685996
000010 30 e8 94 3f ab ca ba be 6a 07 e1 3f a8 aa 4d bf
       1.1633358 -0.36482748 1.7580388 -0.80338526
000020 01 fb f7 bd f1 07 9b be fa c6 a0 3e c9 46 02 c0
       -0.12108422 -0.30279496 0.31401807 -2.0355704
000030 6b e3 c2 bc db 84 d5 3e bb c6 18 3f f1 b9 b6 3f
       -0.023790082 0.41702923 0.5967824 1.4275495
000040 a6 63 43 3f b6 17 12 3f 44 24 bd bf 3b 3b 02 c0
       0.76323926 0.5706743 -1.4776692 -2.0348651
000050 81 f6 e5 3f 19 f4 9e be 5a 59 e8 be fb 4d d0 be
       1.7965852 -0.31045607 -0.4538067 -0.40684494
000060 7a 41 35 bf 9e 57 07 40 cd e9 15 3f 3d a5 1a 3f
       -0.70803034 2.1147227 0.58559877 0.60408384
000070 15 66 b1 3e c5 1c 32 3f 63 a5 49 bf e7 81 4e bf
       0.34648195 0.6957515 -0.78767985 -0.80666965
000080 e7 82 cd be 02 bd d2 3f 1d 04 23 3f c2 6d f0 be
       -0.40138933 1.6463931 0.6367815 -0.4695874
000090 09 f2 58 3e 81 c9 cd be 79 17 87 3f d4 f7 e2 bf
       0.21186079 -0.40192798 1.0554038 -1.7731881
0000a0 07 fb 14 40 0b 4c c8 bf c4 0f 98 bf 34 86 e7 bf
       2.3278215 -1.5648206 -1.1879811 -1.808783
0000b0 3f bb cf 3f c1 7c c7 3e 1c 55 19 bf 95 3c c8 bf
       1.6229018 0.38962367 -0.5989549 -1.5643488
0000c0 3d ee 26 c0 8c aa 3e 3e a8 07 d5 bf c2 9f 16 3f
       -2.608291 0.18619746 -1.6642962 0.5883752
0000d0 fb 5b 9f 3f 03 76 09 bf 11 98 5f bf 19 8f 6d 3e
       1.2449945 -0.53695697 -0.8734141 0.23199119
0000e0 f1 3a d5 be a0 5d da be c7 19 7f bf 30 21 fb bd
       -0.4164653 -0.42649555 -0.9964871 -0.122621894
0000f0 23 6d 1a 40 85 2a aa bf f6 86 25 40 5f a5 5c 40
       2.4129112 -1.3294226 2.5863624 3.4475935
000100 33 4b 1f c0 41 fc 15 c0 d6 b9 0d c0 c3 6b 3c 3e
       -2.4889648 -2.3435214 -2.2144675 0.18400483
000110 19 60 26 c0 2f e4 20 bf a0 b2 08 3f b3 59 26 40
       -2.5996153 -0.6284818 0.5339756 2.5992248
000120 b9 db d1 bf 12 ab b1 3f f4 72 3a 40 17 af d7 3e
       -1.6395179 1.3880332 2.9132662 0.4212577
000130 91 bd 4c 3d 4e 2f 89 3f 72 fd 69 3f 7a 57 14 c0
       0.049985472 1.0717561 0.9140235 -2.3178391
000140 1d 02 a8 3f 01 7e a2 3f 01 f7 8f c0 83 10 88 3f
       1.3125645 1.2694703 -4.498902 1.0630039
000150 7f b8 ed 3f 18 83 3b 3f 5b f5 47 40 9d 06 ec bf
       1.8571929 0.7324691 3.1243503 -1.8439518
000160 29 37 92 bf 37 fb 0a 3f 83 f4 13 3f 4a 44 3a bf
       -1.1423084 0.54289573 0.5779497 -0.7276045
000170 f3 4c 5b 3d 67 df ea 3d 3a 6c e5 3f c6 7b c3 3f
       0.05354018 0.11468392 1.7923653 1.5272148
000180 57 08 31 3f d6 24 01 c0 8d ca 92 3f 81 11 1d 3f
       0.6915335 -2.0178733 1.1468064 0.61354834
000190 3b 7e 1e c0 b5 83 a3 3f 5f 70 b0 bf 61 80 a8 bf
       -2.4764545 1.2774569 -1.3784293 -1.3164178
0001a0 86 21 98 c0 6a ec 1b 40 b4 4b d6 bf ff c6 e8 be
       -4.754092 2.4363046 -1.6741853 -0.45464322
0001b0 f4 7d 32 3f bd a1 ac 3e fa 35 0d bf 15 ce b0 bf
       0.6972344 0.33717147 -0.55160487 -1.3812891
0001c0 6a 42 ae 3f fc 04 a9 bf c4 51 dd be cb 56 98 bf
       1.3614018 -1.3204646 -0.43226445 -1.1901487
0001d0 65 a2 48 c0 fd 5b 91 bf 93 20 ed bf f4 f0 9a bf
       -3.1349118 -1.1356198 -1.8525566 -1.2104783
0001e0 47 88 d2 bc 3f 7a 5d bf 49 67 bc bf 46 51 d8 bf
       -0.025699748 -0.8651466 -1.471902 -1.6899803
0001f0 b1 77 0e bd 26 6f 26 bf f6 0b 2c 3f 83 53 83 bf
       -0.034782115 -0.6501335 0.6720575 -1.0259861
000200 86 ea 10 bf 9f db 9c bb 87 dc 26 bf f2 f5 53 3f
       -0.56607854 -0.004786923 -0.6518025 0.8279716
000210 0a 27 80 3f 71 8d 38 be 24 cf d0 3f 86 e9 db 3f
       1.0011914 -0.18022706 1.6313214 1.7180641
000220 68 4c 3f c0 8d dd c8 3f cb 65 3c 40 6c 3e af be
       -2.9890385 1.5692612 2.943713 -0.34227312
000230 d3 d1 03 bc 23 92 c2 be cc 0f 63 3f f8 66 7b bd
       -0.008045631 -0.38002118 0.8869598 -0.061377496
000240 b4 f5 14 40 de ba 3c c0 50 3f bc 3f 11 4d f4 3f
       2.3274965 -2.9489055 1.4706821 1.9086019
000250 d9 a1 19 3d f3 00 07 be c5 99 a1 bf b6 3d 5a bf
       0.037507866 -0.13183956 -1.2625052 -0.85250413
000260 b5 de cc be 4b 0f 1a 3f 90 fb 52 3f c1 56 e6 3e
       -0.40013662 0.60179585 0.82415104 0.44988063
000270 ea 8a f1 be a1 5b 89 be 4d 3e e7 3c d4 b1 5c c0
       -0.47176296 -0.2682772 0.02822795 -3.4483538
000280 00 93 02 40 82 53 43 bf 08 ae 9c bf 0a 40 29 40
       2.0402222 -0.762993 -1.224061 2.6445336
000290 43 34 0c c0 96 e6 fb 3f f5 ce 05 bf 29 82 60 be
       -2.1906898 1.9679744 -0.52268916 -0.21924652
0002a0 d3 4e 76 3f 41 25 30 c0 a6 e8 f4 bd 02 01 8d be
       0.96214026 -2.7522738 -0.11958437 -0.2753983
0002b0 ac ba d5 bf ee 49 34 3f 03 04 62 3d 00 83 a1 be
       -1.6697593 0.7042531 0.055179607 -0.31545258
0002c0 67 8a 73 be d5 ba de bf f7 60 15 40 80 64 04 c0
       -0.23783265 -1.7400767 2.3340433 -2.068634
0002d0 f4 c4 40 bf c9 67 13 bf c2 07 18 3f 0b 58 01 c0
       -0.75300527 -0.5758024 0.5938684 -2.0209987
0002e0 ab 11 06 40 a3 05 26 c0 89 e9 74 3e be 1c f3 bd
       2.0948284 -2.594094 0.23917212 -0.118707165
0002f0 c1 2c b9 3d ff 98 eb 3f 8a ab 06 c0 ef 22 34 40
       0.09041739 1.8406066 -2.10422 2.8146322
000300 f0 83 fc 3f a1 3e 4b bf ed cb 15 40 ca 29 18 c0
       1.9727764 -0.7939244 2.3405716 -2.3775506
000310 76 17 26 c0 1f fc d9 be f0 cc c2 3f 8e f9 b9 3e
       -2.595182 -0.42575166 1.5218792 0.36323208
000320 c8 c7 bb 3e bc 96 64 c0 18 3c 11 c0 2c d0 3c 3f
       0.36675858 -3.5717 -2.2692928 0.73755145
000330 9d 45 2a 40 cb e1 2c c0 7e 03 8d 3f 53 14 78 3f
       2.6604989 -2.7012813 1.1016691 0.9690601
000340 c0 de 4c bf b1 e9 a6 3e 94 fd 67 bf fe 65 1d 40
       -0.8002739 0.32600167 -0.90621305 2.45935
000350 f0 25 82 3e d5 0d 97 3e 92 61 5a 40 4b 17 21 be
       0.2541957 0.2950274 3.4122052 -0.15731542
000360 7e bb d5 bf 07 76 27 3f 90 a9 b7 c0 d0 64 6a 3f
       -1.6697843 0.6541447 -5.7394485 0.9156008
000370 c5 04 85 3e a4 d5 eb bf 8d 32 5c 3f 28 b0 ef bf
       0.259802 -1.8424573 0.86014634 -1.8725634
000380 64 a5 ca 3f 59 85 09 c0 5a e6 97 bf 5b 10 2a 40
       1.5831723 -2.148764 -1.1867173 2.6572483
000390 5c 6c 8c 3f e8 f4 50 be 63 b7 f2 be 3d 91 fb 3f
       1.0970569 -0.20405924 -0.47405538 1.9653698
0003a0 a2 ae e9 be ef 34 8a be 55 01 45 bf fa 77 47 40
       -0.45641047 -0.2699351 -0.7695516 3.1166978
0003b0 ad 1e d4 3e f8 9a 4c 3f 4f 8c 21 3f 67 bb 5c 3f
       0.41429654 0.79923964 0.6310472 0.86223453
0003c0 22 b6 24 3f 67 58 76 3e 8a 9a eb 3d aa 92 ca bf
       0.6434041 0.2405716 0.11504085 -1.5826008
0003d0 1d c3 8e 3f c3 07 41 40 20 fd 88 bf c1 24 1b c0
       1.1153294 3.0160987 -1.0702248 -2.4241183
0003e0 c6 4d e0 bf 26 e4 a2 3f 4a ff 2c bf 14 90 7a bf
       -1.7523735 1.2725875 -0.6757704 -0.97876096
0003f0 ee 5b a7 3f 33 dd cb 3e 52 74 16 c0 61 fe a3 3f
       1.307493 0.398172 -2.3508496 1.2812005

cls_token f4 [1, 1, 36]
000000 4f 22 00 40 ad 4d 34 3f f3 5c 76 3e 9b 8e 30 bf
       2.002094 0.70431024 0.24058895 -0.689676
000010 6d 85 75 bf 8e f8 0f 3d c7 3f e7 3f bb c4 ae 3f
       -0.95906717 0.03514915 1.8066338 1.3653787
000020 cb 3f 72 bf dc 23 f4 bf dd d7 87 bf 6f 89 11 bf
       -0.9462859 -1.9073443 -1.0612751 -0.5685033
000030 f2 5c e6 3f 4c db 46 bf 5c 2e b0 bf 82 f1 e7 3f
       1.7997115 -0.7767837 -1.3764148 1.8120577
000040 a1 b8 dc 3f 56 49 bc bf 2c c9 ca bd d9 3b 9b bf
       1.7243844 -1.470988 -0.09901652 -1.2127639
000050 0f cd e8 3f ee 06 fc 3e 6f ed d9 bf f3 bd 7c 3f
       1.8187579 0.49224037 -1.7025584 0.9872734
000060 59 96 a6 bf 1b ed d5 3d ff bc d4 bf 76 61 84 3f
       -1.3014632 0.10445615 -1.6620177 1.0342243
000070 9d 8c 87 3f 9b 48 ba bf 81 03 86 bf ff fd a5 bf
       1.0589787 -1.4553407 -1.0469819 -1.2968138
000080 e2 d3 20 40 90 ce cd 3f e5 c9 05 3f a1 18 e4 be
       2.5129323 1.6078663 0.5226119 -0.4455004

to_patch_embedding.1.weight f4 [36, 12]
000000 3e 03 1f bf 1f fe 46 bc c1 e5 9c 3d 9e 40 9a 3f
       -0.6211432 -0.012145548 0.076610096 1.205097
000010 7e c4 45 bf 22 cf ae 3e f0 73 e2 bd 8f dd 32 bf
       -0.7725295 0.34142405 -0.110572696 -0.6986932
000020 a2 9c 4d 3e b0 42 93 3d c3 62 10 bf 27 e3 93 bd
       0.20079282 0.07190454 -0.564007 -0.0722106
000030 5f 58 12 3f 4b 5c 1c bf f4 d6 00 3f b5 64 4a 3c
       0.57166094 -0.6107833 0.5032799 0.012353112
000040 eb 60 32 3f e4 77 e0 3d 90 00 81 3e e4 1c d2 be
       0.69679135 0.10960367 0.25195742 -0.41037667
000050 ff e4 30 3d b0 aa 16 3b 49 ab 50 3f 95 d0 8f be
       0.043187138 0.0022989921 0.8151136 -0.28088823
000060 c8 b5 85 be 14 b0 7b 3d 6d 07 9a be 26 97 32 bf
       -0.2611525 0.061447218 -0.3008379 -0.69761884
000070 c6 02 11 3f 18 29 38 bf f1 37 05 bf 04 8f 90 3e
       0.56644857 -0.71937704 -0.52038485 0.28234112
000080 27 79 90 3e 81 cf 7d bf ff 89 9a 3e a6 ab 03 3f
       0.28217432 -0.9914475 0.30183408 0.5143379
000090 61 29 26 3f 6f 93 b1 3e fe 45 8b bc 5d 4e c5 bf
       0.6490689 0.34682795 -0.017001148 -1.541454
0000a0 35 11 e6 be c2 db 2f 3e e0 4e 0e 3f cb bb 2a be
       -0.44935003 0.17173675 0.55589104 -0.166732
0000b0 a7 88 83 bd fc a9 a4 be 3b 3f 3d 3e ab 1e a5 be
       -0.06422549 -0.32160938 0.18481152 -0.3224996
0000c0 0c 28 a4 be 3d 18 6c be bf 61 fe be a6 23 11 bf
       -0.32061803 -0.23056121 -0.4968395 -0.5669502
0000d0 5c 86 e1 3e ab 5d b0 3e eb b3 71 3e bb 31 ab 3e
       0.4404782 0.34446463 0.2360379 0.3343638
0000e0 06 47 b0 be 23 d5 65 b9 f3 72 ce be 17 73 23 bf
       -0.34429187 -0.00021918541 -0.40322074 -0.6384749
0000f0 5c ab 15 bf 59 90 b1 be 35 5e a9 3e 20 e1 a3 3e
       -0.584646 -0.3468044 0.33079687 0.32007694
000100 1c c9 7a 3f 57 73 0f 3f 51 ec 27 bf 54 bc 50 3e
       0.9796312 0.5603537 -0.65594965 0.20384341
000110 23 90 50 3e 23 42 6b 3e e1 18 98 be cf 13 1a 3f
       0.20367484 0.22974448 -0.2970648 0.60186476
000120 9d 93 f4 bd 67 57 16 3f a9 8c ee be f3 f3 02 3f
       -0.119422175 0.58727115 -0.4659169 0.51153487
000130 09 ec 7a bf 96 e4 ba be c7 8c e1 3e f0 9d 91 3f
       -0.9801641 -0.36502522 0.44052717 1.1376324
000140 b9 69 b7 3c ba f6 98 be 08 4a d9 3e 37 77 3d 3d
       0.02238928 -0.29875737 0.42439294 0.04625627
000150 bd f5 5b 3d 64 76 56 3d a3 a9 03 3f 1a af 40 be
       0.05370115 0.052359 0.5143072 -0.18816796
000160 6b 34 d1 3c 47 5e e9 3e c1 a7 37 bf 6f d3 85 be
       0.02553769 0.4557974 -0.7174035 -0.26137874
000170 e8 b9 29 3f 10 a3 06 bf 87 71 db be a7 e3 23 3f
       0.66299295 -0.52592564 -0.42860052 0.64019245
000180 f3 4e 4c 3e ad 32 65 be 64 02 c2 be ee dc 95 3d
       0.19951992 -0.22382613 -0.3789245 0.073175296
000190 ed fc a7 3d 37 c3 fc be f5 e5 e5 3e 15 31 aa be
       0.08202539 -0.49367687 0.44902006 -0.33240572
0001a0 15 55 36 bf 54 db d7 3e 8f f4 41 bf 9c e0 1b bf
       -0.71223575 0.42159522 -0.7576379 -0.608896
0001b0 b0 81 67 3f b4 5e e5 be 15 af 86 3e 5f 95 1a 3f
       0.9043226 -0.44798815 0.26305452 0.6038417
0001c0 54 13 51 3e c5 f6 0d 3f 5f ae 91 bf 3d 0a 0a 3e
       0.2041753 0.55454665 -1.1381339 0.13480468
0001d0 bf 94 13 bf 3a a3 d3 be 59 75 5d 3d 19 0d 11 bf
       -0.57648844 -0.4133547 0.05406699 -0.5666061
0001e0 e8 73 62 bf e3 a3 78 be 3b d4 e6 3e 45 11 51 3f
       -0.8845811 -0.24281268 0.45083794 0.81666976
0001f0 ac db 21 3e fb 99 44 3f a0 91 d7 be 0c eb a3 bf
       0.15806454 0.76797456 -0.4210329 -1.2806106
000200 33 9a 15 bf f9 7f 8e bd f6 1a ea 3e ec ca 71 be
       -0.58438414 -0.069580026 0.45723695 -0.23612565
000210 5b b6 06 40 c0 13 1b 3f 06 86 2b 3e f6 61 47 3f
       2.10488 0.6057701 0.16750345 0.7788385
000220 22 06 a6 be dc ff 30 bd 07 ef 96 be ad ae cc 3d
       -0.32426554 -0.043212757 -0.29479238 0.09994254
000230 97 60 9e be 65 dd ee be 8f 62 e3 be 93 45 da bd
       -0.30933067 -0.46653286 -0.44411132 -0.106578015
000240 68 9a bb bf f0 22 14 3f 74 0e 4e 3f 43 3d 91 bf
       -1.4656496 0.5786581 0.80490804 -1.134682
000250 5c 23 e7 bd 4f 80 3d 3f 87 ae b6 3e 81 be 28 bf
       -0.11286041 0.7402391 0.3568003 -0.65915686
000260 c9 36 c1 bd 38 12 a7 be f7 ae 69 be e1 b1 82 be
       -0.094342776 -0.32631087 -0.2282065 -0.25526336
000270 e7 68 ea be 33 00 9c be 0b 0d 1c 3f 49 d4 98 3e
       -0.4578316 -0.30468902 0.609574 0.2984946
000280 9c 69 32 bf 2f f8 5e 3d be 31 bb 3e 57 fd b5 be
       -0.696924 0.054435905 0.36561388 -0.35544845
000290 98 ba 51 3e 83 65 fe be 9e c1 53 bf 99 c9 b2 3e
       0.20481336 -0.49686822 -0.8271731 0.34919432
0002a0 7f 8c a2 3f da fe 82 bd cf 32 0b 3e b7 51 5e 3f
       1.2699126 -0.06396265 0.135936 0.86843437
0002b0 75 c3 87 3e aa 59 84 3e d3 e5 82 3f c7 38 42 bf
       0.2651631 0.25849658 1.0226387 -0.75867885
0002c0 cd f3 39 3f f7 61 3c 3f 72 2e 12 be e4 25 34 3f
       0.72637635 0.7358698 -0.1427553 0.70370317
0002d0 5c b8 98 3c 23 ab 11 3f 57 f8 54 bf 4c c0 3b be
       0.018642597 0.5690176 -0.83191437 -0.18335074
0002e0 02 d1 31 be cc 81 70 be a1 b5 b8 bb 36 bb da be
       -0.17364886 -0.23487014 -0.005636886 -0.42720956
0002f0 f1 b7 cd bd 77 1d ae bf c0 e8 65 bf 17 07 e6 be
       -0.1004485 -1.3602742 -0.89808273 -0.44927284
000300 48 33 94 3e 83 23 8d 3f 92 07 0f 3d 8a 91 ce 3e
       0.28945374 1.1026462 0.03491933 0.40345412
000310 23 66 29 3f 11 4e a1 3c d1 fb de 3e a0 22 af 3d
       0.66171473 0.019690545 0.43551496 0.08551526
000320 f6 23 01 3f 8e a7 04 3f 3d 29 d3 3e d3 80 1c 3f
       0.504455 0.5181817 0.412424 0.6113407
000330 d2 5a 55 bf 62 1d e5 3d a7 75 52 3d ff 51 33 3f
       -0.83341706 0.11187245 0.051381733 0.7004699
000340 6c e6 5c bf 1e ad 62 3d 21 35 f5 be fa 32 9d 3f
       -0.86289096 0.05534088 -0.47892097 1.2281182
000350 08 9c 6b bd fc 97 ba 3e a3 ba 11 3f 2a 61 30 be
       -0.05752185 0.3644408 0.5692541 -0.17224565
000360 88 5c a5 3b ec 11 02 3f 03 fc 0b bf 7e ed 01 3f
       0.005046431 0.50808597 -0.54681414 0.5075301
000370 19 3b 83 be e2 49 74 be 3c 46 50 bf 39 c0 0e bf
       -0.25631025 -0.23856309 -0.8135717 -0.5576206
000380 93 7c 4e 3d 0d 69 90 3f 52 e5 89 be 4e b5 38 3e
       0.050411772 1.1282059 -0.2693277 0.18037912
000390 dc e9 46 bf be 00 8d ba 36 94 60 bf 70 61 b1 3c
       -0.7770059 -0.0010757667 -0.8772615 0.021652907
0003a0 b6 0a 09 bc a5 57 86 bf 8c 3e 03 bf c7 d6 89 3f
       -0.00836437 -1.0495497 -0.51267314 1.076867
0003b0 d2 27 2e 3d 2f 12 da 3e ce de cd bd 50 85 a7 3e
       0.042518444 0.42591998 -0.10052262 0.32718897
0003c0 49 37 6f 3e 43 f1 03 bf ec b6 ab be 8e c5 2a be
       0.23360933 -0.5154001 -0.33537996 -0.16676924
0003d0 79 0a fe be e5 eb ae be 38 b1 8a bf 6a 8d 3b 3d
       -0.49617365 -0.34164348 -1.0835333 0.04578916
0003e0 82 2c 31 be a5 ab 63 3f 5e 3e 44 3f 61 76 7e bd
       -0.17302135 0.88933784 0.76657665 -0.062124614
0003f0 b9 fd c4 3e 74 a2 86 be 6e 7e 83 be 19 28 4e bf
       0.38474825 -0.26295817 -0.25682396 -0.80529934

to_patch_embedding.1.bias f4 [36]
000000 50 09 7f 3b 10 3e 8f bc 4c ec 32 bf 1e 0a 7a 3e
       0.0038915463 -0.017485648 -0.6989181 0.24417922
000010 fa 80 36 3f 36 8d 28 bf d4 a4 3b be 96 8d 33 bf
       0.7129055 -0.6584047 -0.18324596 -0.7013792
000020 bf fc 63 3f 65 cd 4c 3c 3c 51 2f 3c 9e d9 06 3d
       0.89057535 0.012500142 0.01070052 0.03292238
000030 a9 cb 61 be d0 8c 7e bf 07 95 7e 3e 1d d0 dd bd
       -0.22050346 -0.9943361 0.24861537 -0.1083071
000040 45 bb 2b bf 4e 3b bd bf 65 76 91 3d 94 64 ed 3e
       -0.67082626 -1.4783723 0.0710266 0.46365798
000050 74 48 00 3f 66 08 59 bf 2c 3a ef 3d f6 eb e1 3e
       0.50110555 -0.8477844 0.11681017 0.44125336
000060 69 c9 a8 ba 41 71 d2 be 9a d6 45 3e bd e5 b2 3e
       -0.0012877408 -0.4110203 0.19320145 0.349409
000070 dd 0c be bf 1b 90 40 3f 01 aa b2 be 62 16 de 3e
       -1.4847676 0.7521989 -0.34895328 0.43376452
000080 50 9c 23 bf 54 ee 9a 3f 1d 4b ba 3e ce e5 5b bf
       -0.6391039 1.2103982 0.36385432 -0.8589753

transformer.layers.0.0.norm.weight f4 [36]
000000 ac 83 be 3e 81 6a 67 3e 89 b7 cf 3e 1e 9e 1f 3e
       0.37209833 0.22599222 0.40569714 0.1558766
000010 bb dc dd 3e a5 45 a8 3e e8 9d 61 3e 43 2c 16 3f
       0.43332466 0.32865635 0.22032893 0.5866129
000020 d7 1c 1f 3f a8 b3 8c 3e 11 ec e9 3e 40 6d 89 3e
       0.6215338 0.27480817 0.45687917 0.26841164
000030 bd 30 6f 3e d9 93 a7 3e ed 56 b0 3e 3b 06 96 3e
       0.23358436 0.32729986 0.3444132 0.29301628
000040 91 b1 99 3e e9 9f 3f 3e 83 a2 a2 3e 6a 0f fe 3e
       0.30018285 0.18713345 0.31764612 0.49621135
000050 b5 8b a9 3e a4 3e e9 3e fa 6d 76 3e 1f d8 f3 3e
       0.331144 0.45555604 0.2406539 0.47625825
000060 d8 2e 6c 3e ce f5 72 3e 98 1c 95 3e 43 b1 7d 3e
       0.23064744 0.2372658 0.29123378 0.24774651
000070 0e 74 02 3e df 14 fd 3e 15 7d f5 3e f6 d5 75 3e
       0.12739584 0.49429986 0.47946993 0.24007401
000080 07 a8 dd 3e cf 8d ec 3d bf 89 c5 3e 6e 16 cb 3e
       0.43292257 0.11550485 0.38581654 0.3966555

transformer.layers.0.0.norm.bias f4 [36]
000000 75 94 ea bd 4c e9 80 bc 53 d6 22 3e c5 50 4f bc
       -0.11454097 -0.015736245 0.1590207 -0.012653534
000010 a3 47 27 bd 57 aa dd bd 93 19 71 3d 7a e3 d6 bd
       -0.040839802 -0.10823505 0.05886228 -0.104926065
000020 3b e4 56 3e 74 24 08 3d aa e4 6d bd 4c e2 56 bd
       0.209855 0.03323789 -0.0580794 -0.052461907
000030 b2 c7 6a bd c9 2c 60 3d c1 4d 58 be fa 76 ba 3d
       -0.05731935 0.05473021 -0.21123411 0.09104724
000040 2a bd 05 3e cb 5b 24 3e 49 a2 c1 bc 78 72 3b 3d
       0.13060442 0.16050641 -0.023636954 0.045763463
000050 31 de 4e bd f7 95 d3 bc 2a 66 bc bd 41 4e 7f bd
       -0.050504867 -0.025828345 -0.09199174 -0.062330488
000060 80 ec 2d 3e bd 2f 25 be 3c af bc bd 10 f6 e1 bd
       0.16984749 -0.16131492 -0.09213111 -0.11033261
000070 d4 31 4e 3e 69 e6 ad 3d c6 5f f3 3c 0e 03 0b 3e
       0.20136195 0.08491213 0.029708754 0.13575384
000080 f6 9b ab bd 14 76 98 bd 81 64 16 be 33 9a 82 3c
       -0.083793566 -0.074443966 -0.14686777 0.015942669

transformer.layers.0.0.fn.to_qkv.weight f4 [216, 36]
000000 d9 d0 1b 3f bb 89 9a 3f 32 7f d1 be 1a 83 96 be
       0.6086555 1.2073282 -0.40917355 -0.29396898
000010 60 ef 14 bf 7b 82 aa 3e 8a 2e aa 3d ba 49 14 3e
       -0.5817776 0.33302674 0.08309658 0.1448125
000020 53 4d 14 bf 23 91 7c bf 20 bb f2 3d 33 18 19 bf
       -0.5793049 -0.9865896 0.118520975 -0.5980255
000030 cc 73 79 3f 6f 33 e1 3c 7b 24 27 bf 74 9e 5e be
       0.97442317 0.027490346 -0.6529004 -0.21740133
000040 ab e8 0d 3e 12 42 88 3e b9 37 b7 bd 84 ca f7 be
       0.13858287 0.26612908 -0.08946175 -0.48396695
000050 dc 00 36 3f 8c 3d 43 be d2 f1 bd bd 54 1b a1 3d
       0.7109506 -0.19066447 -0.09274639 0.078665406
000060 6f 63 d7 bd 86 3e 10 3e 4d 00 a1 be ab eb 23 3e
       -0.10517012 0.14086351 -0.31445542 0.16007869
000070 a3 a5 d8 3d 70 c8 78 bf b9 25 12 bf 31 20 6a be
       0.10578468 -0.97180843 -0.5708881 -0.22863843
000080 f8 cf e0 3e 53 8f ef 3e 35 d7 c5 be c2 2e 4b 3f
       0.43908668 0.46789035 -0.38640752 0.7936822
000090 a5 a9 ab be 6c c0 f1 3d c3 c2 7c be 30 68 e0 3e
       -0.33527866 0.1180428 -0.2468367 0.4382949
0000a0 50 54 e1 be 4b e9 45 bb eb a0 46 3d a2 70 24 bf
       -0.44009638 -0.0030198868 0.048493307 -0.64234364
0000b0 59 7c 91 3e 8f 81 76 bd ec 25 89 bf 0c 54 34 3f
       0.28415182 -0.06018215 -1.0714698 0.70440745
0000c0 0b 3c 21 bf 88 bc 02 be 98 40 cb 3e 90 89 2f 3e
       -0.62982243 -0.12767231 0.3969772 0.1714232
0000d0 72 14 88 be 4c a5 12 3b 63 55 48 3e bf 65 d2 3c
       -0.265781 0.0022376357 0.19563822 0.025683282
0000e0 fb 03 cc 3e 14 9f 5b 3f d5 7b 32 3e a7 0b e4 be
       0.39846787 0.8578961 0.1743005 -0.4454014
0000f0 ed 92 30 bf 09 4d 0d 3d 0b fa c9 3d 6e 4b e1 be
       -0.6897419 0.034497295 0.09862145 -0.4400286
000100 8f f0 36 3f 8c 26 11 bf 5f d5 b3 3d e5 b2 96 bd
       0.71460813 -0.5669944 0.08780932 -0.0735834
000110 1e 75 a8 be f6 73 90 3e 63 a4 b8 be a2 47 f5 3d
       -0.32901853 0.2821347 -0.36062917 0.119765535
000120 10 15 54 3f 5f ce fb 3e b5 4b f6 3e c2 c0 f4 be
       0.8284464 0.49180886 0.48104635 -0.47803313
000130 e8 c2 37 bf 1b 54 97 3e d4 73 02 3c 1d b3 b2 be
       -0.7178178 0.29556355 0.007962186 -0.34902278
000140 da 68 39 bf 6f a9 e9 be e2 69 1f 3e 2c f6 75 bf
       -0.72425616 -0.4563708 0.15567735 -0.96078753
000150 b9 e1 05 3f 1f e2 89 be 94 7b a3 bf 13 49 e5 be
       0.5229755 -0.2693033 -1.2772088 -0.44782314
000160 16 3d 51 bc 35 e4 b0 3e bc bf 83 be f1 17 c3 3d
       -0.012770912 0.34549108 -0.2573222 0.09526051
000170 1a 80 35 3f 7c 38 02 3e e0 26 a5 bd 0c 15 d3 3e
       0.7089859 0.1271686 -0.080640554 0.41226995
000180 a9 0c 6d be b2 eb 4e 3e cc 2c 2a 3e c0 d5 a2 3e
       -0.2314936 0.20207098 0.16618651 0.31803703
000190 e3 b2 d0 3d df 1f 03 bf e3 4d 27 be db 0a 94 3e
       0.1019037 -0.51220506 -0.16338305 0.28914532
0001a0 5b 44 dd 3d d5 5e 25 3e c8 ad 0c bf a3 53 56 3d
       0.108040534 0.16149457 -0.5495267 0.052325856
0001b0 d0 fa bc 3a 54 cd 0b be 86 71 8d 3e 30 50 70 bd
       0.001441801 -0.13652545 0.27625674 -0.058670223
0001c0 80 9a 5e 3d bf f3 38 3d 9c 21 01 3f db d5 1f bf
       0.05434656 0.04515433 0.5044191 -0.6243569
0001d0 2b 94 03 bf 5a 34 85 bf 55 27 85 3e 0b 1f d3 be
       -0.5139796 -1.0406601 0.2600657 -0.4123462
0001e0 ac e7 2f 3e f2 48 08 be e7 df 45 bf ca 2a 07 be
       0.1717822 -0.13309076 -0.7729477 -0.13199916
0001f0 75 28 9b 3e bf 58 90 bb 7f c5 46 be 6d 28 c5 3e
       0.30304304 -0.0044051106 -0.19411276 0.38507405
000200 09 3d cd be 6a 88 f9 3e e8 14 25 3e 29 7a 0d bf
       -0.4008563 0.48736888 0.16121256 -0.55264527
000210 21 b6 1e bf a5 55 18 bf 86 ff 29 3f e1 01 7a 3e
       -0.61996657 -0.59505683 0.6640552 0.24414779
000220 2f 5a c4 3e fd bd 09 3e 0f 7f 84 bf 08 64 76 3e
       0.38350055 0.13451381 -1.0351275 0.24061596
000230 3c 9d 05 3f f2 21 ac 3e e3 48 9a 3e 7d 6f 27 3f
       0.52193046 0.33619648 0.30133733 0.6540449
000240 ee fa af 3e f3 28 f2 be 19 ec 87 3e 60 86 40 3f
       0.34371132 -0.47296867 0.26547316 0.7520504
000250 35 a0 f2 bd 98 95 16 3f e4 ed 1e bf 5d 06 80 3e
       -0.11846963 0.5882201 -0.6208174 0.25004855
000260 66 86 2d bf 41 41 12 be fd 81 50 3e c8 36 09 be
       -0.677832 -0.14282705 0.20362087 -0.13399804
000270 64 98 ad 3e 66 e4 6a be 48 ee 08 bf 5f 3c 8a bf
       0.33905327 -0.2293869 -0.5348859 -1.0799674
000280 fe 8d 45 3e 2f 0a fa be a3 22 45 3e a3 2f 10 3f
       0.19292447 -0.48835894 0.19251494 0.5632269
000290 e1 80 ee be c2 6e 29 3f a9 19 ab be e8 28 0c bf
       -0.46582702 0.6618463 -0.33418015 -0.5474992
0002a0 6f 1c b7 3e 7f 4c cd 3e 4e 2c c8 3d 60 88 9d 3d
       0.3576388 0.40097424 0.097740754 0.07692027
0002b0 04 af 1d bf 3e 6b 16 bf fb 3e 71 3e fa ef 14 3f
       -0.6159518 -0.5875739 0.23559181 0.58178675
0002c0 99 38 3d 3f 8a 5b 75 be a2 56 b4 3e 2e c7 1a 3f
       0.73914486 -0.239607 0.35222346 0.60460174
0002d0 ca 4d bc be 6c e6 80 be f7 ff 45 bf 76 33 bd 3e
       -0.36778098 -0.25175798 -0.77343696 0.36953324
0002e0 0c 27 de 3d 79 83 02 3c 01 77 25 be 43 d9 39 3f
       0.10847291 0.007965916 -0.16158678 0.7259714
0002f0 d8 69 9f 3e bf a4 06 3f 59 94 a0 bd d4 f6 8f 3f
       0.3113544 0.5259513 -0.07840795 1.1247201
000300 10 65 03 bf e5 63 0c 3e f9 77 94 3f 13 59 a7 bd
       -0.51326084 0.13709982 1.1599113 -0.081712864
000310 4e 67 47 3e 7f b1 b4 be 1c 16 56 be 77 ee 9a 3d
       0.19473001 -0.3529167 -0.20906872 0.07565015
000320 de 20 32 bf 9d 90 e0 3e d5 61 1b be dc c2 10 bf
       -0.695814 0.4386033 -0.15174039 -0.5654733
000330 7e e1 2f 3d df 54 2d bd 96 d4 bd 3d a0 3a d3 be
       0.042939655 -0.042317268 0.09269063 -0.41255665
000340 a8 0e 22 be c8 fd 28 3d b0 d4 39 3f 2e 98 73 be
       -0.15825903 0.04125765 0.7259016 -0.2378852
000350 74 93 b7 3d b7 6b 2d bf 99 6a 0b 3f 2f 8c 76 be
       0.08963671 -0.67742485 0.5445953 -0.24076913
000360 17 32 16 be 30 90 67 3f f6 f0 56 3f c4 f1 ea be
       -0.14667545 0.9045439 0.8396143 -0.45887578
000370 d1 c2 24 bf f4 8b 55 3f 78 42 f0 3d f3 d0 e7 be
       -0.64359766 0.83416677 0.11731428 -0.45276603
000380 1e d5 bb bd d1 1d 9e be e7 25 85 3d d4 67 9e be
       -0.09171508 -0.30882123 0.0650137 -0.3093859
000390 19 fc 1d be 32 1b 0a bf 05 77 51 bf 61 de c3 3e
       -0.15428199 -0.53947747 -0.81822234 0.382556
0003a0 87 7c 85 3e dd 9a b2 3d ef ab d6 3b c3 34 f6 be
       0.2607157 0.08720944 0.006551258 -0.4808713
0003b0 ac 1f 17 3f 81 a3 80 bf ab f0 0b 3d d6 eb 52 be
       0.590327 -1.0049897 0.034165066 -0.20597777
0003c0 7e 80 ca be db ed 3e 3f a3 16 93 be 62 ba da 3d
       -0.39551157 0.7458169 -0.28728208 0.10680081
0003d0 d4 11 02 3f 2f 68 00 3d 23 d6 01 bf ed d6 50 3f
       0.50808454 0.031349357 -0.5071737 0.8157795
0003e0 8f 09 7e 3e c5 fd 80 be 17 a0 18 bf 89 56 99 3e
       0.24808334 -0.2519361 -0.5961928 0.29948834
0003f0 d4 b9 6e bf 55 6f 4e be 51 89 22 bd c0 6e 02 3f
       -0.932523 -0.20159657 -0.039681736 0.5095024

transformer.layers.0.0.fn.to_out.0.weight f4 [36, 72]
000000 54 dd 04 3e 5b 94 9e be c4 48 90 3e 38 d5 c7 be
       0.12975055 -0.3097256 0.28180516 -0.3902986
000010 0f 4c 90 3e ba 90 48 3e 57 a9 20 3e b5 fa 6e 3e
       0.28183028 0.19586459 0.15689598 0.23337825
000020 61 41 52 bd ad 01 51 bd 3a 15 5f 3d e2 65 96 3d
       -0.05133188 -0.05102699 0.054463603 0.07343651
000030 52 0f 00 bc 7f 0c 91 3c e8 23 f6 bd 02 a7 98 bb
       -0.007816153 0.017706154 -0.12018567 -0.0046585808
000040 27 f3 7c bd 3a 73 80 3e 8c be 59 be 0b aa 93 3e
       -0.061755326 0.2508791 -0.21264094 0.2884067
000050 ff 6c ee bd b3 f6 a8 be 30 28 10 bd e7 67 2b 3e
       -0.11641883 -0.33000717 -0.035194576 0.16738854
000060 d8 95 ee 3e 94 2f 19 3e 6f 35 03 bd b4 7b b0 be
       0.46598697 0.14959556 -0.03203338 -0.34469378
000070 07 8c e5 bd 2a ec 8b bd ed cb 99 be 29 09 38 be
       -0.11208349 -0.06832154 -0.30038396 -0.17972244
000080 79 96 d0 bd 81 3e ee be bb a6 d5 bb 8f 66 7f bd
       -0.101849504 -0.46532062 -0.00652012 -0.062353667
000090 f0 ba 04 3e 26 4b e6 be 6d c4 b6 3e 6f 6a 45 3c
       0.12961936 -0.4497921 0.35696736 0.0120493015
0000a0 66 54 39 bd 19 99 61 be 46 a2 9a be 2f 26 d9 3c
       -0.045246504 -0.22031058 -0.3020193 0.026507465
0000b0 c9 06 66 be 24 f4 e1 3e b7 35 0e bf 7d 87 c1 bd
       -0.22463526 0.44131577 -0.5555071 -0.094496705
0000c0 e1 71 92 be 8f c6 9b 3e 14 4e 90 3d f9 87 de 3e
       -0.28602508 0.30424926 0.07046142 0.43463114
0000d0 f4 4a 80 be 75 ea b4 3e cd 78 b2 be 50 e2 9e bc
       -0.25057185 0.35335127 -0.3485779 -0.019395024
0000e0 6f b2 16 be 12 4a 97 3e 84 c4 52 3e e6 7b 93 3e
       -0.14716505 0.295487 0.20582777 0.28805465
0000f0 4e 80 3f bd 5b b8 c5 3d 57 37 ba 3e 5d 23 13 be
       -0.04675322 0.09654304 0.36370346 -0.14368959
000100 14 28 07 3e b4 8c 90 3e b6 af dd be 15 08 82 3a
       0.13198882 0.28232348 -0.4329812 0.0009920622
000110 71 47 ce 3d 5a dd 88 be 2e 7e 6b 3e 0a 23 01 3e
       0.1007222 -0.26731378 0.22997352 0.12611023
000120 b1 cc e9 be e1 c0 59 be ec 39 5c 3f 5a aa 8f 3e
       -0.4566398 -0.21264984 0.8602588 0.28059655
000130 41 15 06 3e 59 cc 4f be 3c d3 52 bf 38 88 ea bd
       0.13094045 -0.20292796 -0.8235357 -0.11451763
000140 c0 8e d7 bd 49 55 26 be 27 be 92 bd 65 64 2d bf
       -0.10525274 -0.16243471 -0.07165175 -0.67731315
000150 57 fd f3 3e 84 5d 38 3f 78 c7 11 bc b8 20 7b 3d
       0.4765422 0.72017694 -0.008897655 0.0613105
000160 9a fe 2e 3e 52 d4 06 3f 18 b6 ba bf 8f 71 26 3e
       0.1708931 0.52667725 -1.4586821 0.16254257
000170 76 9d 8b be ab 1b 90 3f d0 ac a0 be 68 13 fa 3e
       -0.2726857 1.1258444 -0.31381845 0.4884293
000180 90 be 7c 3e 58 ef 80 be 0f 93 8a be 4f 74 80 3f
       0.24682069 -0.25182605 -0.27065322 1.0035495
000190 cc 4c e3 3e 35 3a 28 3f c0 29 72 be 66 a9 3b bf
       0.4439453 0.65713817 -0.23648739 -0.73305357
0001a0 ab 96 fb 3d 8b 36 4e 3f eb 39 49 3e 63 b5 af bc
       0.12284597 0.80551976 0.19651 -0.021448797
0001b0 97 99 1c bf 03 7c a8 be 0f cf e2 be 10 6a 88 3e
       -0.6117186 -0.32907113 -0.44298598 0.2664342
0001c0 3c bb 07 bf 33 9f 73 3d fe 3b 1e 3e b2 9b 9a be
       -0.5302007 0.059477996 0.15452573 -0.3019691
0001d0 b8 b7 78 3c 2e 72 96 3e 96 a2 5f bd fe c4 ef 3e
       0.015180521 0.29383987 -0.054598413 0.4682998
0001e0 61 ac f8 be 82 bf c5 be a7 b6 91 3d c0 24 6c 3f
       -0.48569015 -0.3862267 0.07114916 0.92243576
0001f0 fa 8b 21 3e 47 f4 d8 bd 32 0b 14 bf 00 1a 2a be
       0.15776053 -0.10593467 -0.5782958 -0.1661148
000200 5e dc 37 bf 73 1e 18 bf 3d 1d 22 be dc 98 b4 3e
       -0.7182063 -0.5942146 -0.15831466 0.35272872
000210 6c 7c e9 be 17 0d b3 3e 13 7a 70 bd 4c d4 6d be
       -0.4560274 0.34970924 -0.05871017 -0.23225516
000220 43 e3 4d bd f7 73 e2 3e a6 a8 e1 3e cf 74 88 3e
       -0.05026556 0.442291 0.4407398 0.26651618
000230 30 4c a4 be d2 96 b1 be 73 14 97 3f a9 6f 01 be
       -0.32089376 -0.3468538 1.1803116 -0.12640251
000240 19 e5 49 bf 67 fd 29 bf 36 4d 4c be 23 22 cb 3e
       -0.788652 -0.66402286 -0.19951329 0.39674482
000250 31 4b 62 bd 4e fa b3 3e b1 f4 00 bf 78 90 38 3f
       -0.05524749 0.35151905 -0.5037337 0.7209544
000260 bb 75 68 3e dc 8d 3a 3f e6 05 19 bf 52 ab 90 bd
       0.2270116 0.7287271 -0.59774625 -0.07063927
000270 d8 1b 19 be e4 12 78 bd 6e ea c6 3e 57 7d 81 3e
       -0.14952028 -0.06056489 0.3885073 0.2529094
000280 c8 0a c6 3d 1c 4f a9 bd f9 d7 5f be 7b 83 94 3d
       0.09670025 -0.08267042 -0.21859731 0.072516404
000290 50 64 93 bd 18 19 c9 be df 87 19 bf cb 27 e3 3d
       -0.071968675 -0.39276958 -0.5997295 0.11091574
0002a0 9c f5 00 be 88 51 4d be e9 0c 5d be ff 37 29 3c
       -0.12593693 -0.20050633 -0.21586956 0.010328292
0002b0 6c e3 3b bf d6 d5 85 be 24 c4 56 bf b5 8c 0a 3f
       -0.73393893 -0.26139706 -0.83893037 0.5412095
0002c0 3d ea d1 3e 50 ad 14 bf 58 04 3d 3f 86 73 a4 3e
       0.40999022 -0.58076954 0.73834753 0.32119387
0002d0 6d f3 91 be a4 21 68 3f b3 6b f4 be af f7 59 3e
       -0.28506032 0.9067633 -0.47738418 0.2128589
0002e0 8f 6e 56 be e6 a9 20 3f 2f e6 7d be bd db 9c 3e
       -0.20940612 0.62759244 -0.2479484 0.30636397
0002f0 e3 b9 2b be 48 d5 67 be 04 a1 c9 bd 77 32 26 3d
       -0.16770129 -0.22639954 -0.098451644 0.04057547
000300 5b 79 01 3e 2e 8e ba 3d 13 c4 84 be a5 0a f5 be
       0.1264395 0.0910915 -0.25930843 -0.47859684
000310 22 ac 8c bb e6 2c ba 3e 57 66 00 3e fe c8 2b 3e
       -0.004292981 0.3636238 0.1253904 0.16775891
000320 9f 1e 43 3d 8d 7d 27 3e 4f 00 b7 3c 71 68 72 3e
       0.047636624 0.16356488 0.022339014 0.23672654
000330 1b 1e 51 3d fa 16 13 bf 4e fe 83 3e df 22 b7 3d
       0.0510541 -0.57456934 0.25779957 0.08942198
000340 ad 83 56 be aa 8c a7 3e 4c 1f 16 bd 7b 88 59 3e
       -0.20948668 0.32724506 -0.03665094 0.2124347
000350 1e 03 5d be 83 ee f9 bd d9 7e 28 be a4 a8 08 3d
       -0.2158322 -0.122036956 -0.16454639 0.033363953
000360 76 3f 97 3e 33 ac 83 be 94 d9 5a be b5 95 74 3e
       0.29540604 -0.25717315 -0.21372062 0.23885234
000370 fa ba 37 be 93 60 9e 3e 1a 04 76 3e dc 45 db 3e
       -0.1794242 0.30933055 0.24025002 0.42826736
000380 a9 ea f5 3e 36 ee 60 bf eb 12 56 3f a4 6e bb 3e
       0.48030594 -0.8786348 0.83622617 0.3660785
000390 d7 06 ed be bb 29 6c ba 7f 25 a3 3e e3 77 9e 3c
       -0.4629428 -0.0009008904 0.31864545 0.019344276
0003a0 d9 d7 21 3e d9 ab 13 be 6c 95 87 be 9b 47 87 bd
       0.15804996 -0.14421023 -0.26481187 -0.066054545
0003b0 73 4e 95 3e 04 ca 7b be 6d fa 4a be 8f 5f 16 3f
       0.29161415 -0.24588782 -0.19822092 0.5873956
0003c0 23 89 2f 3c 7d 8c 3a bf 52 2e 2a 3d e8 9d 34 bf
       0.010713848 -0.7287062 0.04154808 -0.70553446
0003d0 6b b5 35 3f b7 97 e0 3d bc 1b 58 3e b3 ff 4f 3e
       0.70979947 0.10966437 0.2110433 0.20312385
0003e0 3d 98 89 bd d4 9a 91 3e 7e 59 87 bc f4 70 88 be
       -0.0671849 0.28438437 -0.016522165 -0.26648676
0003f0 e4 1e 26 bf f2 a5 c1 bd a1 95 19 3f ca d7 e2 3d
       -0.64890885 -0.0945548 0.5999394 0.11076315

transformer.layers.0.0.fn.to_out.0.bias f4 [36]
000000 07 f3 58 3e 80 7c 98 bd 75 01 b0 3e f8 f7 c9 3e
       0.21186458 -0.074456215 0.34376112 0.39446998
000010 c9 8f 08 3f f9 c3 03 be dd 37 43 3e 60 85 0c be
       0.533444 -0.12867726 0.19064279 -0.13722754
000020 1c 30 2c 3c 56 74 7c be 44 52 8b bf 7e a3 ad 3d
       0.010509517 -0.24653754 -1.088448 0.08478449
000030 2c 83 ac 3d aa 6d 21 bf d8 e0 bd 3e 03 9d 9f 3e
       0.084234565 -0.6305796 0.37085605 0.31174478
000040 a9 1d 5b be 22 83 2c bf e1 56 bc 3d d0 f2 99 3e
       -0.21398033 -0.6738759 0.09196258 0.30068064
000050 3c 5d 77 3e 33 29 88 bd e2 a6 21 be 84 d3 1c be
       0.2415666 -0.06648483 -0.15786317 -0.15315062
000060 5a 96 ef 3d 20 20 e9 3d 7f 26 07 be 7e 86 1d 3e
       0.11698599 0.113830805 -0.13198279 0.15383336
000070 80 4d 87 be 58 5d d4 3d 6c 51 79 be 28 b1 a1 3d
       -0.26426315 0.103693664 -0.24347466 0.07895118
000080 b0 1f 00 3f e3 0c 01 3f 57 97 1a be c0 dd c7 bd
       0.5004835 0.5041029 -0.15096794 -0.09759092

transformer.layers.0.1.norm.weight f4 [36]
000000 41 0d 0a 3f 28 71 78 3f 1f c1 37 3f 71 1e 44 3f
       0.53926474 0.9704766 0.71779054 0.7660895
000010 31 6b 21 3f 35 51 1a 3f 03 63 1a 3e 4d 5b 74 3f
       0.63054186 0.6028016 0.15076832 0.95451814
000020 e5 a9 b8 3e 6b ac 24 3f c5 6a 4d 3f c1 93 3d 3f
       0.3606712 0.6432559 0.8024104 0.7405358
000030 f7 7e 2e 3f 7c 07 3f 3f 93 0b 70 3f 24 58 3d 3f
       0.6816248 0.74620795 0.9376766 0.73962617
000040 3a c8 3c 3f a6 f6 0f 3f e7 77 d6 3e c4 18 5c 3f
       0.7374302 0.5623573 0.41888353 0.8597529
000050 0b 56 09 3f 1e 0d 0f 3f 4a 30 6c 3f 3c d4 48 3f
       0.53646916 0.5587939 0.92261183 0.78448844
000060 e2 2f 1f 3f ba 0b 4b 3f 2d e4 41 3f ad f6 40 3f
       0.6218244 0.7931477 0.75738794 0.753764
000070 49 e5 2c 3f b4 f9 c8 3e a1 4e 6a 3f 48 ba 2b 3f
       0.6753736 0.39253008 0.9152623 0.6708112
000080 5e 78 2d 3f c1 8d 2f 3f bb 86 0c 3f d6 fa 19 3f
       0.6776179 0.68575674 0.5489308 0.6014837

transformer.layers.0.1.norm.bias f4 [36]
000000 10 f2 d7 3d 07 a3 27 be ba 2d 21 3e 06 d6 4a be
       0.10544217 -0.16370784 0.157401 -0.19808206
000010 36 f0 5a 3c b5 1e 12 3e 35 f5 d0 3c 75 dd f6 be
       0.013362935 0.14269526 0.025507549 -0.48215833
000020 70 36 b4 bd 42 56 23 be 7b 79 09 be 98 8b 97 3c
       -0.08799446 -0.15950873 -0.13425247 0.01849918
000030 c7 26 8d be 61 40 dd be a8 eb 12 3f 0f da 85 3d
       -0.27568647 -0.4321318 0.5739083 0.06535732
000040 bd dd 76 3d 79 c4 35 3e 25 35 04 3e 39 8e 65 3e
       0.06027006 0.1775073 0.12910898 0.22417535
000050 a7 55 7f bd be ea 8c bc 9f 0c d7 be 39 ed b5 3d
       -0.062337544 -0.017201778 -0.42001817 0.08883137
000060 4e 10 91 bd 5b 87 d0 bd 11 3a 95 bc ea 76 a7 bc
       -0.07083188 -0.10182067 -0.018216165 -0.020442445
000070 49 0d 2a bc df 62 8c bd 72 01 e6 3e df b3 07 3d
       -0.010379144 -0.06854796 0.44922978 0.033130523
000080 a3 aa 5b be a5 c7 8c bd f4 16 28 be 51 40 8c be
       -0.21451811 -0.06874017 -0.16415006 -0.2739282

transformer.layers.0.1.fn.net.0.weight f4 [72, 36]
000000 3c b1 9d 3e f5 07 92 3d 8e 8e 25 bf e4 25 d8 3e
       0.30799282 0.07130424 -0.64670646 0.42216408
000010 ff 54 65 be 5a 25 87 3c d9 b2 e7 3b 8b fb 24 3e
       -0.22395705 0.016497303 0.007070881 0.16111581
000020 0a 0a df 3d 7d 1a 85 be 80 11 30 bd 31 86 4e bf
       0.10890587 -0.2599677 -0.04298544 -0.8067351
000030 1c dc 3a 3f bc 4b 08 3f 31 1d ad 3e ef c9 0c bf
       0.7299211 0.5324056 0.33811334 -0.54995626
000040 1c 63 32 3e f4 55 ce 3d 37 e6 26 bf b4 38 93 3e
       0.1742062 0.10074988 -0.6519503 0.287542
000050 21 75 ff be ff 1e 3a 3f a4 71 7c 3f 92 0f 34 bf
       -0.4989405 0.72703546 0.986109 -0.7033626
000060 78 c5 1f bf be 77 0c 3e 4e fc f7 3e 3e d8 cf bb
       -0.6241069 0.13717553 0.4843468 -0.0063429167
000070 ef dc 28 3f ff 91 28 be fa f2 c6 be 05 c8 8a bd
       0.6596212 -0.16461943 -0.3885725 -0.06776432
000080 76 bb a7 be b1 39 04 bf 63 0f c6 3e 6b e4 2c be
       -0.3276021 -0.5165053 0.38683614 -0.1688401
000090 01 e5 0d bf fd e4 5e bc be 9b 18 bf c2 88 64 bf
       -0.5542756 -0.0136044 -0.59612644 -0.89271176
0000a0 e4 09 a0 be 97 60 6c be fa f9 c1 be 2e 43 68 3f
       -0.31257546 -0.23083721 -0.3788603 0.9072751
0000b0 54 f8 6e 3f fc aa 44 3e 82 1c c7 bd 0a 44 03 3f
       0.9334767 0.1920585 -0.09722234 0.51275694
0000c0 0b 29 dd be 5b 01 2d 3f 50 0c ad bf b1 c7 ac bd
       -0.43195376 0.67580193 -1.3519382 -0.084365256
0000d0 7a 69 c5 3e 53 8a 58 3f 29 58 80 3e 1f 7e c7 be
       0.38557035 0.84586066 0.2506726 -0.3896341
0000e0 2d c0 02 bf 65 21 41 3d 3d 0b a7 3f 92 2c 6d be
       -0.51074487 0.047150988 1.3050305 -0.23161533
0000f0 43 7e 9e 3e b5 cb 01 3f 6c 0e 1c be 73 da 9f be
       0.30955705 0.5070146 -0.15239877 -0.3122135
000100 2c 1f a1 3e 9e 39 55 3f b7 14 04 3f 08 26 01 bf
       0.31469095 0.8329104 0.5159411 -0.50448656
000110 69 70 19 3e 2a 17 6d bf f7 b8 2e bf 70 2c c6 bd
       0.14984287 -0.9261347 -0.68250984 -0.096764445
000120 d7 65 aa be 29 09 9a 3e 15 47 45 bf b5 2f aa be
       -0.33280823 0.30085114 -0.7706159 -0.33239523
000130 7f 6b fa 3e 58 67 aa bc 07 31 fe bd 6a 80 09 be
       0.48910138 -0.020801231 -0.12411695 -0.13427892
000140 90 90 25 3f 4a af 00 3f f5 bf 44 3f 9e fc d4 3e
       0.6467371 0.5026747 0.76855403 0.41598982
000150 a3 6b 85 be 9d 9a 0a 3f d3 64 49 be d2 29 af 3d
       -0.26058683 0.5414217 -0.19667368 0.085528985
000160 90 18 bd be 3a 06 a4 bc 6b 16 f0 3d 90 ec a7 3e
       -0.36932802 -0.0200225 0.11723026 0.3279767
000170 d7 ef a0 3c f0 70 5a bf 5b 9e d5 be 79 af 46 3e
       0.019645615 -0.8532858 -0.41722378 0.19402875
000180 3e 47 7c bd 23 03 0e 3f 63 79 1d bf 17 8c 05 be
       -0.06159138 0.55473536 -0.61513346 -0.13041721
000190 69 0c 32 3f 89 02 2a 3f e7 be 23 bf d9 b3 3e 3f
       0.69550186 0.6641012 -0.6396317 0.74493176
0001a0 8a d4 98 be 19 73 88 bf 79 56 ba be 27 7a 8a be
       -0.29849654 -1.0660125 -0.36394098 -0.2704632
0001b0 62 72 13 be ec d1 08 3e 5c 28 57 bf a3 87 81 be
       -0.14399102 0.13361329 -0.8404596 -0.25298795
0001c0 e2 d0 28 3e 22 19 11 3e 24 ef c7 3e 4c 51 f2 3e
       0.16485932 0.14169744 0.39049637 0.4732765
0001d0 82 4e ae 3e a2 ba 82 3f b0 86 3f 3f db 9f 92 be
       0.34044272 1.0213206 0.7481489 -0.28637585
0001e0 46 d8 91 3d 07 12 ff 3d df 9c ba 3e 0e 25 02 bf
       0.07121329 0.1245461 0.36447808 -0.5083779
0001f0 57 c5 e5 be 64 0a 24 3f 40 05 5e be 8d 9b 56 bf
       -0.4487712 0.64078355 -0.2168169 -0.838311
000200 0c 5c d7 be 1b 77 b3 3e 9a 0d 76 3e 23 c4 f9 3d
       -0.42062414 0.35051808 0.24028626 0.12195613
000210 c0 24 5c 3f d1 57 96 3d 4a 1a 62 bf 57 f8 3c be
       0.85993576 0.073409684 -0.88321364 -0.18454109
000220 cb 30 b9 3c c3 d9 b4 3e 56 9b 3f bf e2 ec 6f bd
       0.022606274 0.3532239 -0.748464 -0.05857552
000230 ca de 05 3f cd d4 08 bf 8d 76 12 bf e6 1b 3a bf
       0.52293074 -0.5344971 -0.57212144 -0.7269882
000240 f1 c1 6b bf 98 94 83 3e 43 21 bd be e5 20 85 3d
       -0.92092806 0.25699306 -0.3693944 0.06500415
000250 1a ee c5 3e fc e5 b7 be b7 83 cb 3e 60 be 1b 3d
       0.3865822 -0.35917652 0.39748928 0.038023353
000260 f1 d5 23 3f f7 b0 a4 bb 37 fb 39 bd d6 de 80 be
       0.63998324 -0.0050259787 -0.045405593 -0.2517001
000270 43 d5 8d be b2 10 82 bd 6f 23 4b 3d 0b 91 60 3e
       -0.27701768 -0.06350841 0.04959434 0.2193033
000280 d5 c3 20 3e 1d dc b7 3e cc e4 0d bc 15 db 67 3e
       0.15699704 0.3591012 -0.008660506 0.22642167
000290 01 2f 4b bf cb d2 44 bf e0 8e 99 3e 99 2f 75 be
       -0.793686 -0.76884145 0.29991817 -0.23943938
0002a0 31 07 57 3f a6 e1 6c be c9 6e 18 bf 28 7d 5a bf
       0.8399535 -0.23132953 -0.59544045 -0.85347223
0002b0 b5 55 92 3f 16 ef 85 3e 69 28 33 3c c4 8f 88 3d
       1.1432406 0.2615897 0.0109349275 0.06668046
0002c0 98 05 93 3e 57 6c 93 be e2 5a 83 3e e8 c4 b8 3d
       0.28715205 -0.28793594 0.25655276 0.09021932
0002d0 ab 6d 35 bf 08 20 6c 3f 7e 7f 73 be ec dd 2c 3f
       -0.70870465 0.92236376 -0.23779103 0.67526126
0002e0 8d 13 3d 3e f5 59 9e bf 0d 4d 14 3e 80 1b bc 3e
       0.1846449 -1.2371203 0.14482518 0.3673973
0002f0 21 c0 5a 3e d2 e8 6c be 83 2d dd 3e ca 6d ce 3e
       0.21362354 -0.23135689 0.43198785 0.40318137
000300 5d 15 6c 3f 0d 35 10 3f 16 21 13 3f 4a 68 81 3c
       0.922201 0.5633095 0.5747236 0.0157968
000310 54 df 53 bf 39 6d 90 be d8 53 88 be 9b 44 37 bf
       -0.82762647 -0.2820833 -0.26626468 -0.7158906
000320 b7 fd 18 3e 8c 36 fc 3e fb ca a2 3e 97 34 61 3f
       0.14940535 0.49260366 0.31795487 0.8797087
000330 d9 df 8d 3c fd 45 71 be 06 92 20 bf 10 a9 b9 be
       0.017318653 -0.23561855 -0.62722814 -0.36261797
000340 40 a8 98 3c de e4 21 3d 4e 06 c8 be 25 c0 2e bf
       0.018634915 0.039524905 -0.3906731 -0.6826194
000350 64 3f 83 bd 4b 99 aa 3e f2 f4 e4 3e 31 61 87 3d
       -0.06408575 0.33320078 0.44718128 0.06610335
000360 87 a5 3f bd e0 6e 4b 3e 25 f6 fd be 4a 67 08 bf
       -0.04678872 0.19866514 -0.49601856 -0.53282607
000370 87 16 a5 be 42 ea c5 be e4 e4 9d 3e 94 bf b3 bb
       -0.3224375 -0.38655287 0.30838692 -0.0054854844
000380 17 51 cd 3e 23 21 fa 3e f9 93 9a 3e 46 68 fc 3e
       0.4010093 0.48853406 0.3019102 0.49298304
000390 80 ac a7 be a2 9b 66 3c ca 15 9f be ff f3 f0 bd
       -0.32748795 0.014075192 -0.3107131 -0.117652886
0003a0 63 2f 9e 3a c9 29 21 3f 8c b2 45 3e a5 1c 20 be
       0.0012068566 0.62954384 0.19306391 -0.15635927
0003b0 d6 83 1b bf a2 8b b3 bf 42 85 03 be 31 e8 6a bd
       -0.6074804 -1.4026988 -0.12843803 -0.05735034
0003c0 36 03 80 3e 93 cc 8b be 67 d7 41 3f df e1 8e 3f
       0.2500245 -0.27304515 0.757193 1.116268
0003d0 1d 6d 36 3f aa 83 2b 3f 91 c8 80 be dc a4 05 3f
       0.71260244 0.6699778 -0.2515302 0.5220468
0003e0 00 bb 7b 3e 16 01 78 bf f3 8e 05 bf bc b9 c1 be
       0.24583054 -0.96876657 -0.5217125 -0.37837017
0003f0 0b de 38 bf bc 22 d9 be b5 a8 eb 3e 59 b8 95 3e
       -0.7221381 -0.42409313 0.4602715 0.2924221

transformer.layers.0.1.fn.net.0.bias f4 [72]
000000 d7 4d 34 bf 91 a2 c6 be f2 cb d1 be ba e1 9a be
       -0.70431274 -0.38795903 -0.4097591 -0.3025034
000010 38 9d 44 bf cb 79 6d bf e7 4c 56 bf 19 bf 43 bf
       -0.76802397 -0.92763966 -0.83711094 -0.76463467
000020 f8 05 38 bf b3 fd 1c bf 67 03 2d 3c 15 15 7a be
       -0.7188411 -0.61324614 0.010559893 -0.24422105
000030 68 c2 65 bc 97 cd d7 be fa 84 85 bf 82 36 b4 be
       -0.014023401 -0.4214904 -1.0431206 -0.35197836
000040 9d c3 92 be 94 80 d5 be fe 0d 35 3e 1a b1 28 bf
       -0.28664866 -0.4169966 0.17681119 -0.65895236
000050 81 1b 8e be 9a 21 2d be cf 63 33 bf ef a3 ae be
       -0.2775536 -0.16907349 -0.7007417 -0.34109446
000060 68 2b 11 bf 40 88 6e be 83 13 02 bf 53 68 8d bf
       -0.5670686 -0.23294163 -0.5081102 -1.1047462
000070 ce 86 90 3d 83 57 38 bf 06 f5 94 be 8e 34 19 be
       0.07056962 -0.7200853 -0.29093188 -0.14961454
000080 df f8 f7 be ef e7 44 bf 2a 29 d3 be 30 60 86 3d
       -0.4843206 -0.769164 -0.41242343 0.06561315
000090 ed ed 23 3e b4 2a 4b bf a1 9e 3b bf 68 58 35 bf
       0.1600873 -0.79362035 -0.73288924 -0.7083802
0000a0 5f b5 03 bf a7 99 03 bf 95 aa 15 bf 75 84 16 be
       -0.51448625 -0.5140633 -0.5846341 -0.14698966
0000b0 98 e6 1d be 34 67 4d be 4a ef 85 bf ec 5d 80 be
       -0.15419996 -0.200589 -1.046365 -0.25071657
0000c0 10 d3 07 bf 31 36 01 3e 0c 63 66 bf 1f 05 39 be
       -0.5305643 0.12618329 -0.89994884 -0.1806836
0000d0 58 a7 d8 be e0 8b 5e be 1c 18 9d be c8 48 15 bf
       -0.42315173 -0.21733046 -0.30682456 -0.5831418
0000e0 46 0e a7 be ba ac ce bd 15 81 25 bf 63 3f 68 bf
       -0.32628077 -0.10091539 -0.6465009 -0.9072172
0000f0 4a 4c 8b be 0c eb 2d bf b1 09 78 be b3 ed b6 be
       -0.2720664 -0.6793678 -0.24222447 -0.35728225
000100 f6 cb 92 be d4 05 58 bf e3 4b 5a bf 60 65 99 be
       -0.28671235 -0.84383893 -0.85272044 -0.29960155
000110 3d f0 8e bf ef ea 99 bf 4c 29 28 bf fc 00 62 be
       -1.1167065 -1.2024821 -0.65688014 -0.22070688

transformer.layers.0.1.fn.net.3.weight f4 [36, 72]
000000 fb f7 48 3f d3 8d 83 3f 1d 4a 7d bb 56 8f 27 3f
       0.7850339 1.0277656 -0.0038648911 0.6545309
000010 1c 51 8a bd 0c 3f 8b bd c3 a8 16 3e c0 39 4f 3e
       -0.06753752 -0.067991346 0.14712815 0.20236874
000020 72 45 2f 3e 95 6a 09 bf b2 09 a1 3d 70 ca f9 3c
       0.17116335 -0.53678256 0.07863177 0.030492038
000030 a0 f0 11 bd 12 98 3b bd d9 68 9a be 1b 91 68 3e
       -0.03562987 -0.045799322 -0.30158117 0.22711603
000040 05 c4 8f 3e 9a 14 7d be b8 a6 da bd 7a be 84 3c
       0.2807924 -0.2471489 -0.1067633 0.016204108
000050 d0 49 fa be 5a 34 de 3d 6f 1b 3b bf a1 f4 2f 3f
       -0.4888444 0.10849829 -0.73088735 0.6873265
000060 65 d3 af 3e b8 8b f9 bb e3 7d 74 3d 77 bb d9 be
       0.3434097 -0.0076155327 0.059690367 -0.42525837
000070 be f1 27 bc 05 d4 e7 be ac e7 ad be 94 bd 57 3e
       -0.010250507 -0.45278946 -0.33965814 0.21068412
000080 ed c7 97 3f 51 36 e6 3e 6a d9 3f be 6d f2 17 3e
       1.1857888 0.44963315 -0.1873528 0.14838572
000090 0b 95 37 be b1 ab 1b be 3e a0 9b 3e 8d a6 79 3e
       -0.17927949 -0.15202214 0.30395693 0.2437994
0000a0 1e 89 cc 3e 07 9a 2f 3e 2a 76 15 be c1 ef 47 be
       0.39948362 0.171486 -0.14595857 -0.19525053
0000b0 76 20 87 3d da 18 ed 3e f7 1d b9 be 2d 26 8b 3c
       0.06597988 0.46308023 -0.36155674 0.016985977
0000c0 29 1a b8 be de e5 86 3e 59 bc 66 3e 42 4f 8b 3e
       -0.3595746 0.2634725 0.22532786 0.27208906
0000d0 ca ae 8f 3d 50 4b c7 be 76 63 2a 3e e2 21 a4 3e
       0.0701576 -0.38924646 0.16639504 0.320571
0000e0 42 be f2 3d 7e 6e 2f bd 69 fb 62 3f 15 a4 88 3f
       0.11852695 -0.042829983 0.8866487 1.0675074
0000f0 f3 37 8c be 27 95 ed be 6d 7c 5e be 25 38 f5 3c
       -0.27386436 -0.46402857 -0.21727152 0.029933998
000100 47 19 0d 3f c2 42 80 3e ac c1 8a 3e 87 67 39 3f
       0.55116695 0.25050932 0.27100885 0.72423595
000110 b9 f5 ea 3e 98 f4 50 3e 63 3a 34 bd 96 48 15 3f
       0.45890597 0.20405805 -0.044000994 0.5831388
000120 24 6d ef 3e ab 22 88 be dd 7b 0e 3f 1b 16 5a 3f
       0.46762955 -0.2658895 0.5565775 0.8518998
000130 71 1d 95 be ca 76 e1 3e d2 ce 48 be 4a a6 2d 3e
       -0.29124025 0.4403594 -0.19610146 0.16957965
000140 e3 84 ab be af e8 11 3f d2 8d 0c 3f 25 33 2c bc
       -0.33499822 0.5699567 0.549039 -0.010510241
000150 44 b3 44 be 8a b2 7c 3e 28 aa 58 be 6f c8 56 3f
       -0.1920901 0.24677482 -0.2115866 0.8389959
000160 1e e2 02 3e ff 98 40 3c f9 2e 31 be e7 85 fa 3e
       0.1278157 0.011755227 -0.17303075 0.48930284
000170 90 0a 38 be fc 1a 86 3e 95 b1 14 bf c6 ce 87 3f
       -0.1797278 0.26192462 -0.5808347 1.0609977
000180 60 43 d2 3e e4 de b7 3e 4d cb 82 be 90 02 1b 3f
       0.41067028 0.3591224 -0.2554573 0.60550785
000190 83 b5 63 bf b2 c1 a8 be c0 5d 45 3f 6c f2 7f bf
       -0.8894884 -0.32960278 0.77096176 -0.9997928
0001a0 2f 6f 4d bc ac 56 ac bf 13 75 d5 3e 87 39 86 3d
       -0.012538715 -1.346395 0.41690883 0.06553941
0001b0 e5 9d dc be fe f3 63 bf 38 dd 4e 3f d9 20 99 3e
       -0.43089214 -0.8904418 0.80806303 0.29907873
0001c0 1e 2e 2d bf a1 49 8c be a7 4f 52 3f a4 3e 18 3e
       -0.67648494 -0.27399924 0.8215279 0.14867646
0001d0 96 d9 43 3e 65 cf b4 3e 13 3b 05 3f 91 77 9f 3d
       0.19125971 0.3531448 0.52043265 0.07786477
0001e0 0c 6d 1d bf fc 2c cb 3f 65 ea 68 3f 65 4a 8c 3e
       -0.6149452 1.5873103 0.9098266 0.2740051
0001f0 0b d7 21 bf ba 49 c7 be 38 92 81 3d 9a 56 1f bf
       -0.63218755 -0.38923436 0.06326717 -0.6224152
000200 28 bf c8 3f 4b f0 fa bd 35 61 55 bf 95 97 81 bf
       1.5683336 -0.122528635 -0.8335145 -1.0124384
000210 28 6b 31 bf 26 d0 d4 3e 60 45 75 3f 60 d5 d6 be
       -0.6930413 0.41565055 0.9580898 -0.41959667
000220 2c 79 f6 3e 3b 21 da bd 56 e8 1e bf ca 8b 4b 3e
       0.48139322 -0.106508695 -0.62073267 0.19877544
000230 15 73 51 bf ac d5 04 bf 09 cc 96 3d a3 ba 2d 3f
       -0.81816226 -0.5188854 0.07363135 0.6786291
000240 01 8f 12 bf 76 cf 88 3e e8 b9 0a bf ee b2 40 bf
       -0.57249457 0.2672078 -0.5418992 -0.75273025
000250 40 bf b6 3e 77 c8 29 bf 09 ac 54 be b0 21 7c bd
       0.35692787 -0.6632151 -0.20768751 -0.061555564
000260 34 f6 40 3e d3 05 16 bf b4 7c 15 3f fe 99 06 3f
       0.18843919 -0.5860264 0.58393407 0.52578723
000270 9b 7b 97 be c6 d3 89 be da f2 52 3e 0b 55 45 bf
       -0.2958649 -0.26919383 0.20600453 -0.7708289
000280 14 ed c7 3e e4 dd 44 bf d3 b0 d4 3e 83 f4 a0 be
       0.39048064 -0.7690108 0.41541156 -0.31436548
000290 12 a4 36 3f 94 f8 63 3e b0 51 b2 3c 3e 23 ee be
       0.713441 0.22262794 0.021767467 -0.46511263
0002a0 72 de 06 3c 54 13 85 be f1 b9 4a 3e 5b 18 26 bf
       0.008231746 -0.2599131 0.19797494 -0.64880913
0002b0 8d 3a 1d bf ef ba f1 3e 67 b6 27 be 5c dc 7c 3e
       -0.61417466 0.47212932 -0.16378175 0.24693435
0002c0 51 8f 90 3f e3 5d 1f bf 94 ff 9c ba 27 d5 3b bf
       1.1293737 -0.62252635 -0.0011978024 -0.7337212
0002d0 cc a2 fd 3e c3 2b f4 3e 5a 6c 41 bf 8c 5f 98 be
       0.49538267 0.47689638 -0.75555956 -0.29760396
0002e0 2e 8d 08 bf ec 2a f8 3e 43 17 50 3e 54 a0 04 3f
       -0.53340423 0.48470247 0.20321374 0.5180714
0002f0 c5 5f 45 3f 73 3c f2 be 86 a3 71 bb 27 22 15 bf
       0.7709926 -0.47311744 -0.003687115 -0.5825524
000300 52 6c 02 3c 13 58 7a bf 26 fd 4c bc 64 da 3f bf
       0.007960396 -0.9779064 -0.012511527 -0.7494261
000310 2d 3d 99 3e a6 81 24 3f 25 18 07 bf 24 04 25 bf
       0.29929486 0.6426033 -0.52771217 -0.64459443
000320 12 12 4f 3d 99 f9 20 3f c1 2a 5f 3f 2b 6d a6 3e
       0.050554343 0.62880856 0.8717461 0.32505164
000330 4d 13 c1 3e 13 96 c9 be 31 c9 93 be 7b 24 72 be
       0.37710038 -0.3937231 -0.28864434 -0.23646729
000340 ac be 7d 3e 6e 84 71 3e 6a 95 3f 3f 24 16 0e bf
       0.24779767 0.23585674 0.7483736 -0.55502534
000350 cd be 87 3e 0c ad 11 3f 64 d9 fe 3e fb 96 af be
       0.26512757 0.56904674 0.4977523 -0.34294876
000360 41 4b 69 3f a8 9f e2 be 90 cf c0 be 80 ec c3 3d
       0.91130453 -0.44262433 -0.37658358 0.09566593
000370 50 7d 10 3f 06 15 21 be ae 1c eb 3e 1e ec 2d bf
       0.5644121 -0.15730676 0.45920318 -0.6793841
000380 08 fb cd 3e 0e 94 7b 3f 0e 87 84 be 35 61 c3 be
       0.40230584 0.9827279 -0.2588429 -0.381601
000390 d0 bd 97 bd 59 42 21 bd 20 33 2f bf 3b db 10 be
       -0.07409251 -0.039369915 -0.68437386 -0.1414613
0003a0 53 d5 43 3f 12 f8 04 3f f3 54 ba be cb 32 e2 bc
       0.7649738 0.51941025 -0.36392936 -0.02761211
0003b0 3d 42 cf 3d f8 c8 a9 bf 01 dd e6 bd 01 56 c6 3d
       0.10120056 -1.3264456 -0.11272622 0.09684373
0003c0 43 ab 5b 3e d2 45 c3 3e 55 4f ab 3e 70 6d 4b be
       0.2145205 0.38139206 0.33458963 -0.19865966
0003d0 54 0f 8b 3f c7 39 a0 3e 5d 1e 00 bf 61 84 e0 be
       1.0864053 0.3129408 -0.5004633 -0.43850997
0003e0 e4 c2 20 3f 62 74 1a 3f cc 10 31 3f 7f 6b 35 be
       0.6279738 0.60333836 0.69166255 -0.17716788
0003f0 34 ad 68 be 6b b8 fb be 94 a6 8f 3c f8 61 22 bf
       -0.22722322 -0.49164137 0.017535485 -0.6343074
