CvT/Models/V train 0.909 V test 0.886 lr 0.01/model_bestV.pt (torch, 210865 bytes, 164 tensors)

stage1.patch_embed.proj.weight f4 [12, 3, 3, 3]
-0.26457208 -0.033257626 0.11152434 0.45216438 -0.05831896 -0.28261474 0.18903464 -0.0154270595
0.07238506 -0.00682795 -0.15686397 -0.23336583 -0.24001014 -0.06302505 0.13887344 -0.18517776
0.25657567 0.14086966 0.16085164 0.00824072 0.20345007 -0.06618975 -0.20854503 0.07482633
-0.085319206 0.15501462 0.34519613 0.40524337 -0.02251041 -0.12028172 -1.0296113 1.525664
0.18846874 -0.0014836438 -0.33114234 -0.25041306 -0.25544557 -0.22435758 0.048517905 -0.20142418
-0.15506646 0.023441529 0.18679293 0.23814505 0.07254074 -0.15577905 -0.1782793 -0.19231375
0.11914379 -0.3724823 -0.16891342 -0.07476522 0.0347577 0.010220802 0.023848323 -0.039086748
0.660193 0.20844385 -0.23351178 0.28713197 -0.38652045 -0.32681143 0.7728943 -0.0949343
-0.38708097 0.2961257 0.46077767 0.39162466 -0.165104 -0.3914219 0.36723605 -0.23271705
0.28513932 0.11509739 0.11599452 0.07310326 -0.10752338 -0.5074302 0.4112121 -0.14548835
-0.15093856 0.6923576 -0.16053745 -0.08751986 -0.45991367 0.34838444 -0.041280843 0.1792854
-0.57346404 -0.16871774 -0.6011452 -0.08585584 -0.13209237 -0.07902226 0.17338425 -0.012510784
-0.13882764 0.28678703 -0.10932698 0.37018248 0.38482016 0.33404917 0.21424575 -0.31143123
-0.48880753 0.2568997 0.17550276 0.1436952 0.25361475 -0.27237618 0.097832896 0.4416657
-0.42321712 -0.3051939 1.0786496 1.534267 0.04861584 -0.2851081 -0.29017648 0.058632668
0.014818897 0.008476898 -0.33984107 0.7161976 -1.0164678 -0.021286003 -0.08155642 -0.079836406
-0.08020597 -0.42527142 -0.013870447 0.94798553 -0.3939221 0.47528097 0.4772391 -0.6865839
0.869535 0.07314225 -0.06070011 -0.04576336 0.22999282 1.0869168 -0.6025482 0.080260634
0.57424504 0.87380654 0.21371646 -0.06765391 -0.0118924165 -0.2608661 1.045544 0.5734594
0.12102418 0.22329597 0.12683278 0.12726812 0.32403865 0.14456433 -0.19999348 0.34907845
-0.096244626 -0.09583451 -0.75152016 -1.3215219 -0.33881876 0.009605803 0.12010691 -0.40305787
-0.11885958 -0.015640188 -0.24392697 1.1131233 -0.875468 0.013380534 0.096428126 0.25118232
0.31643423 -0.27949595 -0.025987342 -0.11761106 0.22351006 0.118047304 0.11699336 0.6022163
-0.39571407 -0.31011498 0.09044603 0.015382706 0.016754985 0.08706771 0.07324235 0.09721891
0.18601353 -0.3321365 0.23936047 -0.34431726 -0.06474942 0.080781795 -0.1455199 0.108245485
0.08833213 -0.10259095 -0.28313687 -0.027106043 -0.09430911 -0.18891273 -0.10386138 -0.10559763
0.2058979 0.17774001 0.25706524 1.6475334 1.3182926 0.2126376 0.09577844 0.07702077
-0.29244345 0.2750098 0.10929956 -0.86787105 0.57896787 0.10214834 -0.221863 0.28674737
0.106418684 0.30196384 0.36688584 0.0059350207 0.11907698 0.019421998 -0.04203715 -0.33302873
-0.33649734 -0.06386323 -0.6552757 -0.3745328 -0.27614203 0.012763596 0.87382126 -0.009103387
-0.49466208 -0.48992884 -0.3897977 -0.5669226 0.65276927 -0.24247947 0.38969105 -0.21325222
-0.33194932 -0.964047 0.37008047 -0.17247352 -0.17949492 -0.18347053 -0.34600514 -0.015176287
00000000: fe75 87be 2639 08bd e066 e43d 1782 e73e
00000010: dddf 6ebd e1b2 90be 4c92 413e c7c1 7cbc
00000020: 9e3e 943d ffbc dfbb f3a0 20be 74f7 6ebe
00000030: 38c5 75be 4713 81bd d734 0e3e 3d9f 3dbe
00000040: e35d 833e 2340 103e 4bb6 243e 1604 073c
00000050: 3755 503e 7e8e 87bd d48c 55be 8c3e 993d
00000060: d6bb aebd 27bc 1e3e 8cbd b03e 0f7c cf3e
00000070: c067 b8bc 4356 f6bd 4eca 83bf f548 c33f
00000080: f3fd 403e d376 c2ba 7d8b a9be 2436 80be
00000090: c3c9 82be febd 65be b6ba 463d 2442 4ebe
000000a0: bec9 1ebe 7308 c03c a546 3f3e 4cdc 733e
000000b0: 3d90 943d 8b84 1fbe d98e 36be e5ed 44be
000000c0: a901 f43d 00b6 bebe a4f7 2cbe 821e 99bd
000000d0: 175e 0e3d 2775 273c 8f5d c33c 6d19 20bd
000000e0: 6902 293f 4e72 553e b61d 6fbe f602 933e
000000f0: 02e6 c5be d453 a7be 67dc 453f ea6c c2bd
00000100: 7a2f c6be ca9d 973e 0deb eb3e 0783 c83e
00000110: 0611 29be 7468 c8be 5d06 bc3e 614d 6ebe
00000120: c8fd 913e 2eb8 eb3d 898e ed3d 29b7 953d
00000130: 3835 dcbd f2e6 01bf 648a d23e e6fa 14be
00000140: a38f 1abe 593e 313f ee63 24be 9d3d b3bd
00000150: ce79 ebbe 725f b23e 1a16 29bd 9896 373e
00000160: 8ace 12bf 58c4 2cbe a7e4 19bf 30d5 afbd
00000170: 3943 07be 6cd6 a1bd a48b 313e 08fa 4cbc
00000180: d528 0ebe c0d5 923e d3e6 dfbd 8f88 bd3e
00000190: 2607 c53e 7e08 ab3e 3d63 5b3e ea73 9fbe
000001a0: fb44 fabe 5c88 833e ffb6 333e d624 133e
000001b0: cbd9 813e e474 8bbe 9d5c c83d 0222 e23e
000001c0: eaaf d8be 6042 9cbe 3111 8a3f dc62 c43f
000001d0: 6721 473d b0f9 91be 0392 94be cf28 703d
000001e0: f5ca 723c b0e2 0a3c a6ff adbe ba58 373f
000001f0: 9e1b 82bf fc5f aebc 0d07 a7bd 4581 a3bd
00000200: 0743 a4bd 2dbd d9be df40 63bc 2eaf 723f
00000210: 28b0 c9be 0758 f33e af58 f43e f6c3 2fbf
00000220: d999 5e3f 9bcb 953d aea0 78bd 5c72 3bbd
00000230: 3d83 6b3e 1720 8b3f 9940 1abf b05f a43d
00000240: b901 133f c9b1 5f3f 7dd8 5a3e 228e 8abd
00000250: 69d8 42bc 3e90 85be 63d4 853f 3cce 123f
00000260: 86db f73d b3a7 643e 74e0 013e 9352 023e
00000270: 65e8 a53e ac08 143e 17cb 4cbe 69ba b23e
00000280: e71b c5bd e244 c4bd a063 40bf a127 a9bf
00000290: a779 adbe a861 1d3c 9dfa f53d 9a5d cebe
000002a0: a76c f3bd da1f 80bc fec7 79be d37a 8e3f
000002b0: ac1e 60bf 073a 5b3c 1c7c c53d f89a 803e
000002c0: ab03 a23e 181a 8fbe 68e3 d4bc 11de f0bd
000002d0: d2df 643e c9c2 f13d 379a ef3d d92a 1a3f
000002e0: 099b cabe 64c7 9ebe c53b b93d bf07 7c3c
000002f0: c041 893c 8e50 b23d 1600 963d b51a c73d
00000300: 557a 3e3e cc0d aabe e91a 753e 5a4a b0be
00000310: 589b 84bd ed70 a53d 2b03 15be cfaf dd3d
00000320: 7ae7 b43d 341b d2bd 51f7 90be 7e0d debc
00000330: 2225 c1bd 5772 41be 46b5 d4bd 9243 d8bd
00000340: e6d6 523e 7a01 363e 0e9e 833e 60e2 d23f
00000350: d0bd a83f acbd 593e 7d27 c43d 11bd 9d3d
00000360: 26bb 95be 16ce 8c3e 73d8 df3d cc2c 5ebf
00000370: 3d37 143f 2633 d13d 0e30 63be 8dd0 923e
00000380: 0af2 d93d 019b 9a3e 76d8 bb3e 907a c23b
00000390: a2de f33d e21a 9f3c 262f 2cbd be82 aabe
000003a0: 6149 acbe baca 82bd 26c0 27bf c3c2 bfbe
000003b0: 7d62 8dbe 671e 513c c0b2 5f3f 5f26 15bc
000003c0: 5944 fdbe f4d7 fabe 9093 c7be d721 11bf
000003d0: e31b 273f 8a4c 78be 9685 c73e ca5e 5abe
000003e0: 43f5 a9be c9cb 76bf 307b bd3e e69c 30be
000003f0: 84cd 37be b3df 3bbe 9627 b1be f6a5 78bc

stage1.patch_embed.proj.bias f4 [12]
-3.1248448 0.098015286 -0.36995196 0.535667 -0.49184966 -0.25489902 0.045070287 -1.1413798
3.3789334 -0.1603304 -1.1261581 0.43832088
00000000: 75fd 47c0 3dbc c83d 586a bdbe 7921 093f
00000010: b8d3 fbbe 2082 82be 9f9b 383d bc18 92bf
00000020: 7240 5840 a72d 24be f325 90bf 986b e03e

stage1.patch_embed.norm.weight f4 [12]
0.4861492 1.0047352 0.50654745 0.22292586 -0.03335714 0.09116086 -0.017479964 1.7612548
2.1209626 1.2006269 0.40746915 1.5410341
00000000: 8ce8 f83e 2a9b 803f 18ad 013f ad46 643e
00000010: 7fa1 08bd 8cb2 ba3d 2432 8fbc cc70 e13f
00000020: dabd 0740 24ae 993f cc9f d03e 9b40 c53f

stage1.patch_embed.norm.bias f4 [12]
-1.057606 -0.09821463 -0.22595465 0.5607388 -0.1473845 -0.1634263 -0.12351072 0.12416943
-0.0843633 0.32926208 -0.08724256 -0.04940108
00000000: a25f 87bf c024 c9bd a860 67be 948c 0f3f
00000010: f6eb 16be 3959 27be 30f3 fcbd 8b4c fe3d
00000020: aac6 acbd 0a95 a83e 3aac b2bd c958 4abd

stage1.blocks.0.norm1.weight f4 [12]
0.92504144 2.90565e-40 9.02027e-40 3.9969156e-32 -7.08492e-40 1.66743e-40 -2.1121e-40 1.130485e-39
1.472574e-39 1.2871e-39 1.367042e-39 -3.32322e-40
00000000: 84cf 6c3f fa29 0300 7cd2 0900 1f88 4f0b
00000010: fdb6 0780 d0d0 0100 c44c 0280 554f 0c00
00000020: f008 1000 e903 0e00 c2e2 0e00 619e 0380

stage1.blocks.0.norm1.bias f4 [12]
0.13968952 -8.67521e-40 5.8447e-40 3.0407353e-20 -5.63957e-40 8.54174e-40 -5.79719e-40 -7.74041e-40
1.01386e-39 -1.085444e-39 -8.55009e-40 -1.526195e-39
00000000: c50a 0f3e 4c72 0980 445d 0600 3c98 0f1f
00000010: 1524 0680 174d 0900 0550 0680 b66d 0880
00000020: 3b0a 0b00 c7d1 0b80 6b4f 0980 699e 1080

stage1.blocks.0.attn.conv_proj_q.bn.weight f4 [12]
8.09674e-40 3.34752e-40 2.85575e-40 8.29643e-40 -3.1721e-40 -2.46881e-40 8.75819e-40 5.3381e-41
4.90358e-40 -5.66665e-40 -2.83968e-40 8.26824e-40
00000000: 0bd1 0800 27a5 0300 111c 0300 b508 0900
00000010: 4174 0380 34b0 0280 6d89 0900 ce94 0000
00000020: eb56 0500 a22b 0680 9617 0380 d900 0900

stage1.blocks.0.attn.conv_proj_q.bn.bias f4 [12]
-7.46847e-40 5.75949e-40 -2.96648e-40 5.63349e-40 8.47376e-40 -4.9843e-41 4.76369e-40 -5.3434e-41
-4.31028e-40 1.151209e-39 5.67254e-40 3.12405e-40
00000000: e821 0880 8345 0600 ef3a 0380 6322 0600
00000010: 243a 0900 f18a 0080 ec2f 0500 f494 0080
00000020: 88b1 0480 1a89 0c00 462d 0600 dc66 0300

stage1.blocks.0.attn.conv_proj_q.bn.running_mean f4 [12]
-1.341022e-39 1e-45 4e-45 6e-45 3e-45 6e-45 -6e-45 -6e-45
6e-45 -3e-45 0.0 4e-45
00000000: 399a 0e80 0100 0000 0300 0000 0400 0000
00000010: 0200 0000 0400 0000 0400 0080 0400 0080
00000020: 0400 0000 0200 0080 0000 0000 0300 0000

stage1.blocks.0.attn.conv_proj_q.bn.running_var f4 [12]
6e-45 6e-45 6e-45 6e-45 6e-45 6e-45 6e-45 6e-45
6e-45 6e-45 6e-45 6e-45
00000000: 0400 0000 0400 0000 0400 0000 0400 0000
00000010: 0400 0000 0400 0000 0400 0000 0400 0000
00000020: 0400 0000 0400 0000 0400 0000 0400 0000

stage1.blocks.0.attn.conv_proj_k.bn.weight f4 [12]
-3.17981e-40 1.20894e-40 -3.81666e-40 -7.51183e-40 5.64265e-40 -5.613e-40 1.288596e-39 5.63947e-40
6.24993e-40 -9.98334e-40 -1.51468e-40 3.51287e-40
00000000: 6776 0380 0151 0100 ee27 0480 fe2d 0880
00000010: f124 0600 ad1c 0680 1508 0e00 0e24 0600
00000020: 3ace 0600 f3de 0a80 3ba6 0180 3fd3 0300

stage1.blocks.0.attn.conv_proj_k.bn.bias f4 [12]
4.70626e-40 -1.02862e-39 -4.38808e-40 -4.47603e-40 -1.404758e-39 1.873201e-39 -1.70441e-40 1.890432e-39
-3.69377e-40 3.72591e-40 1.578895e-39 -2.8435e-40
00000000: ea1f 0500 6033 0b80 38c7 0480 bcdf 0480
00000010: e54b 0f80 b965 1400 1fdb 0180 c195 1400
00000020: ac05 0480 a20e 0400 5131 1100 a718 0380

stage1.blocks.0.attn.conv_proj_k.bn.running_mean f4 [12]
-2.228485e-39 1e-45 1e-45 3e-45 0.0 -6e-45 4e-45 3e-45
-6e-45 -3e-45 0.0 -6e-45
00000000: 1c44 1880 0100 0000 0100 0000 0200 0000
00000010: 0000 0000 0400 0080 0300 0000 0200 0000
00000020: 0400 0080 0200 0080 0000 0000 0400 0080

stage1.blocks.0.attn.conv_proj_k.bn.running_var f4 [12]
6e-45 6e-45 6e-45 6e-45 6e-45 6e-45 6e-45 6e-45
6e-45 6e-45 6e-45 6e-45
00000000: 0400 0000 0400 0000 0400 0000 0400 0000
00000010: 0400 0000 0400 0000 0400 0000 0400 0000
00000020: 0400 0000 0400 0000 0400 0000 0400 0000

stage1.blocks.0.attn.conv_proj_v.bn.weight f4 [12]
1.2795442 3.22964e-40 -2.53096e-40 1.4130053e-07 -6.28425e-40 -1.10087e-40 4.65015e-40 2.99899e-40
1.168757e-39 4.93414e-40 4.8775e-40 -6.44782e-40
00000000: 1bc8 a33f 4b84 0300 87c1 0280 65b8 1734
00000010: cbd7 0680 e132 0180 4610 0500 ff43 0300
00000020: 05ba 0c00 705f 0500 a64f 0500 6405 0780

stage1.blocks.0.attn.conv_proj_v.bn.bias f4 [12]
0.3356448 -1.8753429e-08 3.740476e-11 3.9886416e-08 2.2112935e-11 -2.6510693e-06 -8.257502e-10 1.0694649e-10
2.2591636e-10 -9.1599464e-11 -6.499354e-13 1.7295656e-12
00000000: a3d9 ab3e 3a17 a1b2 0482 242e 944f 2b33
00000010: e781 c22d 06e9 31b6 01fb 62b0 862d eb2e
00000020: cd65 782f ea6d c9ae c8f0 36ab 2b6a f32b

stage1.blocks.0.attn.conv_proj_v.bn.running_mean f4 [12]
2.0955741 6e-45 6e-45 6e-45 6e-45 -6e-45 6e-45 -6e-45
6e-45 0.0 6e-45 -6e-45
00000000: e31d 0640 0400 0000 0400 0000 0400 0000
00000010: 0400 0000 0400 0080 0400 0000 0400 0080
00000020: 0400 0000 0000 0000 0400 0000 0400 0080

stage1.blocks.0.attn.conv_proj_v.bn.running_var f4 [12]
0.5136326 6e-45 6e-45 6e-45 6e-45 6e-45 6e-45 6e-45
6e-45 6e-45 6e-45 6e-45
00000000: 6d7d 033f 0400 0000 0400 0000 0400 0000
00000010: 0400 0000 0400 0000 0400 0000 0400 0000
00000020: 0400 0000 0400 0000 0400 0000 0400 0000

stage1.blocks.0.attn.proj_q.weight f4 [12, 12]
1.602711e-39 -1.1466e-39 4.92486e-40 3.829e-40 -7.36794e-40 -1.306089e-39 -2.86418e-40 2.82621e-40
1.483021e-39 1.094127e-39 1.144879e-39 -1.181872e-39 4.59208e-40 -1.370261e-39 -1.11406e-39 1.361588e-39
9.204e-40 -1.06561e-39 -2.58964e-40 -3.73169e-40 6.63057e-40 -1.333825e-39 1.54448e-39 2.42036e-40
-1.52936e-40 -1.134009e-39 -5.16296e-40 1.414644e-39 1.339894e-39 -3.8442e-40 1.15994e-39 -4.31516e-40
1.060368e-39 -1.332039e-39 1.472728e-39 2.01284e-40 -1.545163e-39 9.0344e-40 8.34594e-40 9.55297e-40
9.16528e-40 -1.149341e-39 -1.064289e-39 2.76961e-40 1.57456e-39 -3.95169e-40 2.5174e-40 9.35189e-40
3.28265e-40 -1.064601e-39 1.537468e-39 8.01522e-40 1.575907e-39 -5.77093e-40 3.82554e-40 -1.342084e-39
4.36844e-40 1.537966e-39 -1.56338e-39 1.166819e-39 -1.588726e-39 -4.90059e-40 -1.754e-40 -1.477425e-39
-3.42826e-40 -1.529191e-39 -7.95891e-40 9.33214e-40 9.60739e-40 -1.140726e-39 -6.73125e-40 3.4499e-41
5.84477e-40 9.659e-41 3.19888e-40 1.072292e-39 1.519803e-39 3.71302e-40 -8.83928e-40 1.192208e-39
1.56973e-40 1.595528e-39 1.057606e-39 9.85771e-40 -1.114699e-39 -1.10421e-39 1.693992e-39 1.9317e-41
1.089456e-39 -6.455e-40 1.126334e-39 -6.15621e-40 1.182804e-39 1.636114e-39 -1.384969e-39 1.166676e-39
7.95516e-40 1.37088e-39 4.19617e-40 1.677026e-39 3.19147e-40 -9.10122e-40 1.058094e-39 -1.57402e-39
-7.60476e-40 -1.085681e-39 -1.778234e-39 9.01827e-40 -1.070826e-39 2.48756e-40 -1.488543e-39 4.1148e-41
-6.215e-41 -2.19106e-40 9.69162e-40 -1.290976e-39 1.495715e-39 -1.258642e-39 1.58447e-39 -2.33236e-40
3.59548e-40 -4.264e-41 -1.01053e-39 6.10152e-40 7.9731e-40 8.0045e-41 5.45552e-40 1.032419e-39
8.32808e-40 1.340454e-39 4.9163e-41 1.203245e-39 1.176023e-39 2.48653e-40 -5.28023e-40 -1.474131e-39
-8.83153e-40 -6.5102e-41 3.72391e-40 1.206205e-39 1.144934e-39 2.45098e-40 -2.77896e-40 -1.135803e-39
00000000: b573 1100 417c 0c80 da5c 0500 5f2b 0400
00000010: e205 0880 d838 0e80 6b1e 0380 d513 0300
00000020: 0f26 1000 fbe9 0b00 7577 0c00 94de 0c80
00000030: 1600 0500 bbeb 0e80 8c21 0c80 8ed3 0e00
00000040: b305 0a00 7d9a 0b80 e3d1 0280 3e10 0480
00000050: 5538 0700 2986 0e80 62d1 1000 b3a2 0200
00000060: 53aa 0180 2859 0c80 399f 0580 7467 0f00
00000070: 1497 0e00 9b2f 0480 71a1 0c00 e4b2 0480
00000080: e08b 0b00 2f81 0e80 5e09 1000 1931 0200
00000090: 49d3 1080 6cd6 0900 8216 0900 fb66 0a00
000000a0: e8fa 0900 e583 0c80 ce96 0b80 0e04 0300
000000b0: 3c25 1100 924d 0480 c0bd 0200 ed2e 0a00
000000c0: 1293 0300 ad97 0b80 d6bd 1000 51ba 0800
000000d0: fd28 1100 b348 0680 682a 0400 2f9d 0e80
000000e0: bec1 0400 39bf 1000 1106 1180 9eb4 0c00
000000f0: b94c 1180 1656 0580 f2e8 0180 7616 1080
00000100: a9bb 0380 c3a6 1080 9faa 0880 6c29 0a00
00000110: 2676 0a00 e16b 0c80 6654 0780 2b60 0000
00000120: 495d 0600 410d 0100 b87b 0300 1dad 0b00
00000130: 988c 1000 0a0b 0400 08a0 0980 64fb 0c00
00000140: 94b5 0100 af5f 1100 2d84 0b00 eebb 0a00
00000150: 5423 0c80 1706 0c80 2972 1200 d935 0000
00000160: f6dc 0b00 6407 0780 c343 0c00 1ab4 0680
00000170: 2de1 0c00 d2d0 1100 bb14 0f80 38b4 0c00
00000180: 93a9 0800 75ed 0e00 b991 0400 de42 1200
00000190: a779 0300 0de9 0980 8985 0b00 ba23 1180
000001a0: e647 0880 70d2 0b80 fe5c 1380 edd1 0900
000001b0: 07a9 0b80 6eb5 0200 7435 1080 b472 0000
000001c0: 40ad 0080 c762 0280 a18d 0a00 b70e 0e80
000001d0: 7249 1000 95b4 0d80 dc40 1100 2b8a 0280
000001e0: 46ea 0300 dd76 0080 f200 0b80 dba4 0600
000001f0: 93ae 0800 22df 0000 c7f0 0500 f73d 0b00
00000200: 8811 0900 a498 0e00 0c89 0000 281a 0d00
00000210: 46ce 0c00 25b5 0200 eabf 0580 470d 1080
00000220: df9d 0980 7ab5 0080 130e 0400 6922 0d00
00000230: 9c77 0c00 3cab 0200 a906 0380 285e 0c80

stage1.blocks.0.attn.proj_k.weight f4 [12, 12]
-1.126956e-39 -1.500422e-39 6.00857e-40 -9.19278e-40 1.196929e-39 1.44332e-40 1.475716e-39 5.935e-41
1.157146e-39 4.34604e-40 -4.3853e-40 -1.35262e-39 -6.4216e-40 -3.84739e-40 -5.62847e-40 -1.565043e-39
3.6319e-40 2.22089e-40 6.6604e-41 8.09411e-40 2.67316e-40 -1.605905e-39 7.22842e-40 1.180974e-39
-4.18429e-40 -3.66795e-40 3.47116e-40 -1.49699e-39 -2.72575e-40 1.538362e-39 1.573402e-39 -1.15121e-40
3.08308e-40 -1.095118e-39 -5.26433e-40 -1.175584e-39 8.91704e-40 -1.127112e-39 8.65621e-40 1.074516e-39
1.347787e-39 -1.17332e-39 -1.079462e-39 1.582188e-39 1.481073e-39 5.4324e-41 3.74364e-40 8.33243e-40
-8.83722e-40 2.09393e-40 1.601512e-39 -1.131111e-39 -1.210477e-39 1.826892e-39 6.91699e-40 -7.7915e-40
1.034055e-39 -1.654957e-39 -4.95236e-40 1.169458e-39 -3.11307e-40 -6.86429e-40 5.73875e-40 1.12116e-39
-1.354e-41 1.768636e-39 -6.08549e-40 3.56234e-40 -5.92887e-40 -4.92856e-40 6.96441e-40 9.11126e-40
-2.44825e-40 -1.090881e-39 1.44075e-39 -5.45335e-40 -3.717e-41 4.43622e-40 -3.90845e-40 8.47254e-40
-1.170542e-39 -3.88716e-40 7.22645e-40 -8.90891e-40 -5.45503e-40 6.1549e-40 1.35491e-39 -6.04468e-40
9.6174e-40 -1.064621e-39 5.06826e-40 -5.33711e-40 -2.60513e-40 -2.11845e-40 1.134218e-39 1.182598e-39
-1.576629e-39 2.27897e-40 3.11856e-40 7.507e-42 4.6958e-41 -7.39555e-40 -9.42815e-40 3.35914e-40
-1.131504e-39 1.522111e-39 1.457038e-39 1.228839e-39 1.30587e-39 -9.97598e-40 -1.099504e-39 1.079915e-39
-3.12387e-40 -5.3178e-40 -3.13342e-40 1.07746e-40 -4.60809e-40 -1.161765e-39 -1.085833e-39 1.486436e-39
4.65193e-40 7.8738e-40 -2.70566e-40 1.859547e-39 -8.2657e-40 8.377e-42 4.24068e-40 -1.061873e-39
-7.67036e-40 2.63811e-40 1.501309e-39 4.79227e-40 1.181219e-39 -9.3035e-40 -4.96507e-40 -5.50521e-40
1.184686e-39 2.84944e-40 1.01799e-39 -7.14378e-40 4.05574e-40 -4.8966e-40 -5.20388e-40 3.2142e-40
00000000: 7f45 0c80 9156 1080 f28a 0600 9302 0a80
00000010: 8d08 0d00 5792 0100 b211 1000 72a5 0000
00000020: a799 0c00 80bb 0400 71c6 0480 8eba 0e80
00000030: 15fe 0680 7f30 0480 fd20 0680 b40a 1180
00000040: 6df4 0300 186b 0200 aab9 0000 4fd0 0800
00000050: 2be9 0200 9c7c 1180 fdde 0700 13dc 0c00
00000060: 698e 0480 7afe 0380 9ec7 0300 004d 1080
00000070: d4f7 0280 54c0 1000 0122 1100 e940 0180
00000080: 705b 0300 beec 0b80 7bbb 0580 0dcd 0c80
00000090: b5b5 0900 ee45 0c80 006d 0900 50b3 0b00
000000a0: 15ad 0e00 bdc6 0c80 1ac1 0b80 7f3a 1100
000000b0: a120 1000 6f97 0000 9313 0400 be12 0900
000000c0: 759f 0980 b447 0200 5d70 1100 1451 0c80
000000d0: 512e 0d80 a2e4 1300 2d88 0700 f47b 0880
000000e0: 8642 0b00 5905 1280 8464 0580 f9bb 0c00
000000f0: cc63 0380 7c79 0780 bb3f 0600 5735 0c00
00000100: be25 0080 3d42 1300 63a0 0680 09e1 0300
00000110: ba74 0680 e25d 0580 6595 0700 d9eb 0900
00000120: 79aa 0280 efe0 0b80 3ab0 0f00 2cf0 0580
00000130: 9d67 0080 a3d4 0400 8441 0480 cd39 0900
00000140: ffbe 0c80 953b 0480 71de 0700 71b3 0980
00000150: a4f0 0580 bcb3 0600 f0c0 0e00 0395 0680
00000160: f178 0a00 bb97 0b80 d384 0500 c5cf 0580
00000170: 34d6 0280 8a4e 0280 bd59 0c00 9ae0 0c00
00000180: 002b 1180 497b 0200 5465 0300 ed14 0000
00000190: e682 0000 940d 0880 2f44 0a80 64a8 0300
000001a0: 2c52 0c80 0793 1000 a1dd 0f00 8161 0d00
000001b0: 3c38 0e00 e6dc 0a80 f8f8 0b80 5dc2 0b00
000001c0: cf66 0380 63ca 0580 7869 0380 5a2c 0100
000001d0: 8c04 0580 87a6 0c80 dcd2 0b80 942f 1000
000001e0: c510 0500 e592 0800 3af2 0280 a93f 1400
000001f0: 2400 0980 5a17 0000 219e 0400 1290 0b80
00000200: 2f5a 0880 66df 0200 0a59 1000 e437 0500
00000210: c2dc 0c00 7021 0a80 0f68 0580 a1fe 0580
00000220: 6ce6 0c00 4f1a 0300 be15 0b00 65c7 0780
00000230: 936a 0400 f954 0580 a1aa 0580 fd7f 0300

stage1.blocks.0.attn.proj_v.weight f4 [12, 12]
0.0043292185 8.537718e-06 1.4416261e-11 -7.723015e-06 2.5038393e-11 -1.3251824e-05 -2.5226963e-09 4.1685776e-11
-5.8704197e-10 2.825661e-11 -6.758409e-14 1.089112e-11 0.00013382861 -3.7383666e-05 -6.1690245e-12 -5.7655893e-06
5.7154666e-11 -1.1764312e-06 -1.9169693e-09 -3.3435e-11 6.9591586e-08 6.546288e-11 6.0178577e-13 1.2970171e-11
-0.0018962222 1.6230737e-07 4.701974e-11 1.5589423e-08 1.4576307e-11 -1.3576065e-05 -1.1017229e-08 8.1757746e-11
8.191555e-08 7.4109684e-11 -5.284843e-14 -5.6974994e-11 -0.008776572 6.7917356e-09 3.002287e-11 3.2174519e-09
9.229936e-12 -1.5034028e-06 -1.1903815e-09 8.075945e-11 4.087123e-11 -2.7000499e-11 -3.724466e-14 3.3716033e-12
0.05933914 -6.4619274e-09 -8.905721e-11 -2.3843787e-08 2.0347377e-10 0.00078264956 8.2893664e-10 -1.9205793e-09
-2.2771135e-10 4.996477e-11 5.9147186e-13 7.2254654e-11 -0.0016683703 2.96686e-06 -5.011473e-12 -1.4467282e-07
-9.743152e-12 8.958278e-06 1.2088935e-09 2.7192046e-10 9.233337e-11 3.946266e-12 3.6353468e-14 4.46323e-12
-0.014315046 7.332002e-09 1.6224487e-12 -5.2110916e-09 -5.923391e-12 -0.0017622891 2.3553577e-11 9.912074e-10
1.3596367e-10 -5.758684e-10 -8.807314e-13 3.1181297e-11 -1.1218423 1.2984615e-08 1.4022275e-10 1.9062977e-08
-2.1844668e-10 0.00012494292 2.079394e-09 5.6556076e-10 -1.136964e-09 4.1562323e-11 9.943297e-13 -7.166726e-11
0.009079815 -6.382605e-09 -1.3875533e-11 -2.1297069e-09 2.824448e-12 -1.5128777e-06 1.4103682e-09 1.5292503e-11
-5.5078435e-11 3.9158017e-11 7.009373e-14 1.2288827e-12 -0.041829232 2.2804509e-08 -4.3105363e-11 -1.9690687e-09
1.5997202e-09 3.8613005e-05 3.493168e-12 -1.6284256e-09 2.0203683e-10 -8.257917e-11 -1.0582706e-12 3.1863337e-10
-0.04975492 6.5760113e-09 9.6569676e-11 2.094794e-08 -8.379409e-11 -0.0009745283 -6.906308e-10 -1.1958763e-10
2.1131642e-10 9.55465e-10 -1.3929973e-12 -2.6029219e-11 -0.057085767 4.7301224e-08 -3.5761863e-10 1.8248498e-08
-3.9784825e-10 7.0089525e-05 -7.022235e-10 -1.5349187e-09 -6.0592953e-10 -5.0537735e-10 -1.3262487e-12 -1.6411744e-10
00000000: 1edc 8d3b 383d 0f37 119d 7d2d 1992 01b7
00000010: 733d dc2d 2754 5eb7 be5b 2db1 0356 372e
00000020: 685d 21b0 3b8c f82d 932f 98a9 3e99 3f2d
00000030: 5854 0c39 68cc 1cb8 a20d d9ac 0976 c1b6
00000040: 6f5e 7b2e dee5 9db5 aebb 03b1 770c 13ae
00000050: 6172 9533 53f4 8f2e 3c63 292b 752c 642d
00000060: a98a f8ba b646 2e34 85cb 4e2e 81e9 8532
00000070: ed36 802d c1c4 63b7 4946 3db2 85c9 b32e
00000080: 8de9 af33 0bf8 a22e 1702 6ea9 2494 7aae
00000090: 9ccb 0fbc bd5c e931 bf0a 042e 031a 5d31
000000a0: f05f 222d 87c8 c9b5 d39a a3b0 8797 b12e
000000b0: eac0 332e b87f edad 2bbc 27a9 6841 6d2c
000000c0: 990d 733d b707 deb1 c1d6 c3ae 0bd1 ccb2
000000d0: c6b8 5f2f b92a 4d3a 3bdb 6330 30fb 03b1
000000e0: 0c5f 7aaf 54bf 5b2e 0a7c 262b c1e3 9e2e
000000f0: 38ad daba 441a 4736 5653 b0ac 5d57 1bb4
00000100: 4167 2bad 834b 1637 2926 a630 677d 952f
00000110: 110b cb2e ced8 8a2c b2b8 2329 3409 9d2c
00000120: a889 6abc f9ec fb31 e056 e42b 3f0d b3b1
00000130: 2a69 d0ac 9cfc e6ba f12d cf2d 033b 8830
00000140: 5f7e 152f 234b 1eb0 63e7 77ab 0523 092e
00000150: 8798 8fbf f112 5f32 322d 1a2f eebf a332
00000160: 462f 70af 1c03 0339 16e5 0e31 cd75 1b30
00000170: 5d43 9cb0 04cb 362e 81f0 8b2b 1599 9dae
00000180: 81c3 143c fd4d dbb1 d819 74ad 335a 12b1
00000190: bbc0 462c 150e cbb5 ebd6 c130 a883 862d
000001a0: ce3c 72ae 0238 2c2e 49d6 9d29 2af3 ac2b
000001b0: 2155 2bbd a5e3 c332 5394 3dae 3950 07b1
000001c0: 27dd db30 66f4 2138 52cf 752c 22cf dfb0
000001d0: 5024 5e2f f197 b5ae 37f0 94ab a92b af2f
000001e0: d1cb 4bbd 35f3 e131 e55b d42e 02f1 b332
000001f0: e143 b8ae 7d77 7fba d2d6 3db0 ed7c 03af
00000200: 4958 682f 7051 8330 040c c4ab 97f4 e4ad
00000210: c4d2 69bd 3f28 4b33 599a c4af dfc0 9c32
00000220: 2ab8 daaf 07fd 9238 9606 41b0 27f5 d2b0
00000230: 808e 26b0 c5ea 0ab0 25a7 baab f472 34af

stage1.blocks.0.attn.proj.weight f4 [12, 12]
0.0019633328 0.0032831773 9.684537e-05 0.003508909 -0.04485254 -0.0034218621 0.012634629 0.52998894
-0.006322595 0.04133691 0.034628376 0.0863188 -0.003674758 0.0020309628 -0.0033103134 0.0030759908
-0.031000055 0.0007253885 0.011885461 0.51194894 -0.0058068787 0.041080147 0.023499517 0.083327875
-0.00851068 0.0014352737 -0.013768246 -0.0057465816 0.0027975512 0.0045046173 0.007845613 -0.07774132
0.00027695543 0.041252486 -0.009746515 0.17029259 0.008728587 0.0026690997 0.008927646 0.0018893206
0.009874735 -0.0063811163 -0.012469096 -0.43621644 0.0018363087 -0.034021735 -0.0036827377 -0.107012995
0.00064761454 0.00029890856 -0.0011686195 -0.0027880697 0.007337329 -0.0004060688 -0.0026985395 -0.010299086
0.0026831862 -0.0043333564 -0.008060334 0.004336522 -0.006333221 0.00017171606 -0.013710798 -0.011280557
0.056353085 0.0050029624 -0.0030737496 0.114208505 0.008114687 -0.010408153 -0.053035423 0.08505256
0.0036521174 0.0006034743 0.0019556242 -0.0024619754 0.002111178 -0.0025401767 -0.004670815 -0.0030723826
0.0032008486 -0.009217652 -0.0022923294 -0.025675723 0.0048402054 0.0031265202 -0.013823906 -0.029020196
0.1515574 -0.0017983997 -0.031183451 -0.1416824 0.026371244 -0.07597074 -0.13350491 0.03232858
0.0007283231 0.0022852519 0.00020874462 -0.0014153876 0.0141147105 -0.0012895557 -0.0053481306 -1.146768
0.0023405978 -0.014351297 -0.012640453 -0.002475105 0.0016105734 0.0020645806 0.0083630625 0.009915992
-0.06757706 -0.0038628886 0.013397545 0.41743225 -0.0092024915 0.038856473 0.060273428 0.03629299
0.0010490003 0.0005542036 -0.0026823147 -0.005394256 0.028038017 -0.00039458944 -0.0044857915 -0.25576702
0.0049146153 -0.014508879 -0.024306666 0.008616565 -0.0118733775 0.0008585083 -0.008064175 0.0051563205
-0.033517513 0.006150661 0.018185334 0.58888924 -0.008356182 0.04899406 0.025913283 0.08985343
00000000: 42ab 003b 932a 573b 7619 cb38 b9f5 653b
00000010: 4cb7 37bd 5241 60bb 7a01 4f3c 5bad 073f
00000020: c52d cfbb e450 293d 7cd6 0d3d e9c7 b03d
00000030: 35d4 70bb e719 053b d8f1 58bb 9096 493b
00000040: d4f3 fdbc 0028 3e3a 3dbb 423c 160f 033f
00000050: a147 bebb a843 283d 0f82 c03c cea7 aa3d
00000060: 6170 0bbc cb1f bc3a 3694 61bc d24d bcbb
00000070: 1f57 373b 789b 933b e38a 003c d736 9fbd
00000080: 5434 9139 5ef8 283d d9af 1fbc 2e61 2e3e
00000090: 5902 0f3c 10ec 2e3b 4345 123c 14a3 f73a
000000a0: a4c9 213c af18 d1bb 2e4b 4cbc c357 dfbe
000000b0: 4cb0 f03a 605a 0bbd 165a 71bb a129 dbbd
000000c0: adc4 293a d4b6 9c39 5d2c 99ba 0cb8 36bb
000000d0: fa6d f03b a2e5 d4b9 fbd9 30bb 7fbd 28bc
000000e0: 65d8 2f3b d4fe 8dbb 7e0f 04bc 6219 8e3b
000000f0: e986 cfbb ae0e 3439 41a3 60bc 16d2 38bc
00000100: 7ed2 663d e4ef a33b f670 49bb 26e6 e93d
00000110: 77f3 043c f586 2abc ac3b 59bd 0930 ae3d
00000120: 5d58 6f3b 7a32 1e3a ee29 003b 1859 21bb
00000130: b05b 0a3b 1879 26bb a30d 99bb 075a 49bb
00000140: 54c5 513b a205 17bc e83a 16bb e555 d2bc
00000150: 969a 9e3b 4ee6 4c3b aa7d 62bc c3bb edbc
00000160: dd31 1b3e 48b8 ebba 7074 ffbc 3115 11be
00000170: 8208 d83c 8c96 9bbd 83b5 08be f96a 043d
00000180: f0ec 3e3a 2ac4 153b 75e2 5a39 8784 b9ba
00000190: 6341 673c 4f06 a9ba 5f3f afbb 4bc9 92bf
000001a0: b764 193b b421 6bbc e719 4fbc 5f35 22bb
000001b0: e019 d33a ea4d 073b 3a05 093c af76 223c
000001c0: d765 8abd 8428 7dbb 6081 5b3c aeb9 d53e
000001d0: 0cc6 16bc f727 1f3d 45e1 763d f5a7 143d
000001e0: 9c7e 893a f947 113a c6c9 2fbb 4dc2 b0bb
000001f0: fcaf e53c e6e0 ceb9 8cfd 92bb e5f3 82be
00000200: c80a a13b a6b6 6dbc c61e c7bc 7e2c 0d3c
00000210: 8e88 42bc 840d 613a 9a1f 04bc 5af6 a83b
00000220: a949 09bd 7c8b c93b 69f9 943c 72c1 163f
00000230: 5ee8 08bc ffad 483d 1848 d43c 1305 b83d

stage1.blocks.0.attn.proj.bias f4 [12]
0.7709445 -0.42654994 -0.16014357 0.7019858 -0.21806613 -0.26457942 -0.25162876 0.031453088
-0.09737178 -0.32615477 -0.15178305 -0.7846814
00000000: 9e5c 453f c164 dabe adfc 23be 57b5 333f
00000010: ba4c 5fbe f476 87be 7cd5 80be f4d4 003d
00000020: db6a c7bd c2fd a6be 046d 1bbe e1e0 48bf

stage1.blocks.0.norm2.weight f4 [12]
0.7423502 1.1811389 0.010635528 1.5008703 0.0011324466 0.0018016582 4.1693726e-05 -0.0010088434
0.8069817 -0.0047065397 0.08660466 0.61358654
00000000: aa0a 3e3f 8f2f 973f a340 2e3c 851c c03f
00000010: 9a6e 943a 9e25 ec3a 4ce0 2e38 2b3b 84ba
00000020: 5a96 4e3f 5139 9abb c95d b13d 0214 1d3f

stage1.blocks.0.norm2.bias f4 [12]
0.5151313 0.40849257 0.0067734527 -0.84622437 -0.0009158869 0.00036729933 0.016289497 -0.0024267132
-0.712935 0.014603801 -0.02960389 0.39213392
00000000: a5df 033f f025 d13e d7f3 dd3b 29a2 58bf
00000010: 2118 70ba 1592 c039 8d71 853c 7e09 1fbb
00000020: e882 36bf c844 6f3c db83 f2bc c7c5 c83e

stage1.blocks.0.mlp.fc1.weight f4 [24, 12]
-0.011783921 0.0053053773 -0.00025137461 0.0063845306 -2.4630113e-05 2.2587637e-05 -0.0004667834 0.00016562063
0.009541477 0.0011933885 2.608028e-05 -0.026460221 0.04404923 -0.04984538 -0.0008196282 0.0132560395
0.00054754404 0.0003250707 -0.0062683937 -0.00054576655 0.015974049 -0.0065878453 -0.004612064 -0.014445559
0.0047804266 -0.0063446215 0.001713692 0.010623282 8.299752e-05 9.191426e-05 -0.0015223589 0.00032237085
0.002591314 0.00026273832 -0.0061897417 0.016309114 -0.049291816 -0.02526476 -0.00026698282 -0.0047729462
0.00063952577 0.00022784767 -0.0058672084 0.0002731022 -0.002175133 -0.0030832298 0.028040264 0.05244965
0.29729363 0.9704252 0.027933355 -0.055906754 -0.0015096157 -0.0069245044 0.026253799 0.0017248032
0.1526989 0.027420294 -0.09890851 -0.4113197 0.47372246 0.44843817 0.011614432 0.2705555
0.0010126231 -0.00030801859 0.0025308484 0.0028313035 0.051548496 -0.013037919 -0.11596556 0.03682421
-0.008801496 -0.00084393896 -0.00047546232 -0.0071320646 3.8593174e-05 -1.2545172e-05 -0.0005042104 -0.00015471705
-0.0037222323 0.0017505871 0.0012586178 0.015184101 0.09263819 0.03806078 0.0036778378 0.016416818
-0.0010872125 -0.0002570618 0.0119246915 -0.0012793783 -0.019614864 -0.0030909297 -0.045849696 -0.074078195
-0.26517028 0.70717174 -0.031480975 0.18824318 -0.0138447955 -0.009043186 0.14353234 0.0013780628
0.35528833 0.06741709 0.30063713 -0.10055382 -0.10555688 -0.50802493 -0.008651171 -0.81979406
0.0016691991 0.0027600024 -0.023242997 0.009368669 -0.21144915 -0.043072343 -0.051926333 -0.14798419
-0.01773363 0.0028242045 0.00040786865 0.0007816108 -6.373462e-05 -7.533116e-05 0.0007731274 0.00019154178
0.016870918 0.00087026303 -0.0013072821 -0.0025482762 0.015979385 -0.007937519 0.0003995368 -0.0034452523
8.351729e-07 2.1232654e-06 0.00044375355 0.00031061747 -0.005873352 -0.0005417641 6.565031e-06 -0.005737832
0.19196063 -0.028245796 0.00081996823 -0.04698619 0.0007825943 0.0008896541 -0.0033184746 -6.301004e-05
-0.046634477 0.00095900294 -0.016475802 0.024439104 0.05291855 0.012216769 0.001292547 -0.0033652517
-0.0003966958 -4.000227e-05 0.0060433364 -0.0017410746 -0.02326139 0.0042200563 0.036552113 -0.005395922
-0.013690351 -0.0024602886 0.0007239094 -0.009118421 -4.7132657e-05 -3.6075886e-05 0.00036825918 -0.00010193914
0.025510142 0.00078104273 0.0058210157 0.035082474 -0.029540114 -0.044805735 -0.000495933 0.0072167986
0.0004415548 0.00012594702 -0.0021330186 -0.00030243522 0.019373797 -0.003398377 0.005607912 0.017708087
0.1483234 0.6162245 0.033800177 -1.3364704 0.0012120189 -0.004646141 0.0048121703 0.0010697537
0.38347307 0.026795935 0.085578546 0.32645965 -0.5513598 -0.0069425902 0.007991008 0.47749978
0.0018167199 0.005293709 -0.052626573 0.0031895859 1.6167506 -0.03523009 -0.045846786 0.0536754
0.027992388 0.08086434 0.014576335 1.4093882 0.00011177143 -0.0053084963 0.0049786973 -0.004622659
-0.32404888 -0.0028829598 0.001808704 -0.067884155 -0.0033468194 0.020405333 -0.0069120466 -0.05813758
1.2336172e-05 -0.00075755117 0.009234317 0.00037675808 -0.019274963 0.013298286 0.08350037 -0.16373491
-0.29315212 0.32125723 0.028023433 0.7605934 0.0069970028 -0.0014849755 -0.06463 -0.0060157636
0.022813117 0.036506165 -0.23182583 -0.43226805 0.57438403 0.45619416 0.005228378 -0.54739726
00000000: 5911 41bc bbd8 ad3b eeca 83b9 5335 d13b
00000010: c49c ceb7 957a bd37 9bba f4b9 73aa 2d39
00000020: db53 1c3c 796b 9c3a fac6 da37 1bc3 d8bc
00000030: f76c 343d ab2a 4cbd 51dc 56ba dc2f 593c
00000040: 0f89 0f3a 406e aa39 1967 cdbb c611 0fba
00000050: 02dc 823c dade d7bb cc20 97bb 11ad 6cbc
00000060: 20a5 9c3b 8be6 cfbb f69d e03a 460d 2e3c
00000070: f40e ae38 18c2 c038 e389 c7ba e203 a939
00000080: 09d3 293b 24c0 8939 51d3 cabb b19a 853c
00000090: 37e6 49bd 0bf8 cebc d4f9 8bb9 6066 9cbb
000000a0: d9a5 273a 65ea 6e39 b641 c0bb 282f 8f39
000000b0: ad8c 0ebb 0310 4abb b2b4 e53c 72d5 563d
000000c0: df36 983e c96d 783f 7ed4 e43c 7bfe 64bd
000000d0: 4cde c5ba f4e6 e2bb 3512 d73c cb12 e23a
000000e0: 1a5d 1c3e 86a0 e03c 8b90 cabd 7f98 d2be
000000f0: c08b f23e b099 e53e 754a 3e3c 4086 8a3e
00000100: feb9 843a 8e7d a1b9 97dc 253b 648d 393b
00000110: 8424 533d ff9c 55bc 5a7f edbd fcd4 163d
00000120: 2634 10bc c93b 5dba 7947 f9b9 18b4 e9bb
00000130: 1bdf 2138 1a79 52b7 fd2c 04ba 8b3b 22b9
00000140: b2f0 73bb f573 e53a 35f8 a43a bcc6 783c
00000150: 17b9 bd3d 9fe5 1b3d e107 713b 907c 863c
00000160: cc80 8eba 40c6 86b9 c85f 433c d0b0 a7ba
00000170: 5aaf a0bc 3291 4abb e4cc 3bbd 4fb6 97bd
00000180: 66c4 87be 3509 353f 32f2 00bd d2c2 403e
00000190: 48d5 62bc df29 14bc 24fa 123e 1da0 b43a
000001a0: 5ae8 b53e f911 8a3d 1ced 993e 29ef cdbd
000001b0: 352e d8bd ec0d 02bf a4bd 0dbc 06de 51bf
000001c0: 07c9 da3a 28e1 343b 1968 bebc 0c7f 193c
000001d0: 2086 58be a06c 30bd b5b0 54bd 2b89 17be
000001e0: 1e46 91bc 4a16 393b 34d7 d539 03e5 4c3a
000001f0: 43a9 85b8 1cfb 9db8 b4ab 4a3a 9bd8 4839
00000200: e134 8a3c 5d22 643a 1c59 abba fb00 27bb
00000210: 33e7 823c 5e0c 02bc ec78 d139 bec9 61bb
00000220: a530 6035 6c7d 0e36 98a7 e839 5fda a239
00000230: 3f75 c0bb 2c05 0eba 3049 dc36 6c04 bcbb
00000240: 5491 443e ba63 e7bc 23f3 563a 9774 40bd
00000250: 0427 4d3a ad37 693a c47a 59bb 4224 84b8
00000260: cb03 3fbd 9965 7b3a 43f8 86bc 8434 c83c
00000270: 1fc1 583d d828 483c ae6a a93a 8e8b 5cbb
00000280: 9cfb cfb9 1cc8 27b8 2e07 c63b c534 e4ba
00000290: ac8e bebc 6648 8a3b abb7 153d 46d0 b0bb
000002a0: 7e4d 60bc cb3c 21bb bdc4 3d3a 6e65 15bc
000002b0: 4eb0 45b8 3050 17b8 e912 c139 29c8 d5b8
000002c0: a5fa d03c e4be 4c3a 38be be3b a4b2 0f3d
000002d0: 1cfe f1bc 3886 37bd 8001 02ba e57a ec3b
000002e0: 7b80 e739 a510 0439 1dca 0bbb 2b90 9eb9
000002f0: ccb5 9e3c 4eb7 5ebb 93c2 b73b 8d10 913c
00000300: 17e2 173e e4c0 1d3f 0e72 0a3d 7611 abbf
00000310: 9bdc 9e3a a83e 98bb 69af 9d3b fa36 8c3a
00000320: 9556 c43e 2683 db3c ce43 af3d b825 a73e
00000330: ea25 0dbf ab7e e3bb b8ec 023c da7a f43e
00000340: 011f ee3a da76 ad3b f68e 57bd 5f08 513b
00000350: aff1 ce3f 6d4d 10bd d7c9 3bbd bcda 5b3d
00000360: 4b50 e53c 349c a53d 95d1 6e3c d566 b43f
00000370: d466 ea38 e5f2 adbb 5724 a33b ad79 97bb
00000380: bce9 a5be 0af0 3cbb 0912 ed3a d906 8bbd
00000390: 5056 5bbb 1629 a73c 737e e2bb ac21 6ebd
000003a0: 75f7 4e37 6696 46ba 884b 173c 9d87 c539
000003b0: 87e6 9dbc 0ee1 593c 3e02 ab3d 20aa 27be
000003c0: 0918 96be d47b a43e 6691 e53c 40b6 423f
000003d0: 1d47 e53b 82a3 c2ba bc5c 84bd e21f c5bb
000003e0: 93e2 ba3c 7d87 153d c063 6dbe 3d52 ddbe
000003f0: d50a 133f 4892 e93e d052 ab3b 3a22 0cbf

stage1.blocks.0.mlp.fc1.bias f4 [24]
-0.0004066211 0.011908189 -0.0043156063 -0.046329852 0.08685993 -0.07109462 -0.0043938644 0.066851825
-0.61173356 0.082876146 -0.01336654 -0.008226944 0.058281682 0.0848529 -0.009072688 -0.008257395
-0.19019 0.2814583 -0.15521652 -0.044455566 -0.253102 0.4541351 -0.022267835 0.06113099
00000000: c32f d5b9 911a 433c ee69 8dbb 5fc4 3dbd
00000010: 9ee3 b13d 0e9a 91bd 68fa 8fbb 9ce9 883d
00000020: 929a 1cbf f8ba a93d 55ff 5abc 4eca 06bc
00000030: c6b8 6e3d 5bc7 ad3d 9da5 14bc 064a 07bc
00000040: 2bc1 42be 4d1b 903e 14f1 1ebe 0a17 36bd
00000050: 9696 81be 6584 e83e 096b b6bc 7d64 7a3d

stage1.blocks.0.mlp.fc2.weight f4 [12, 24]
-0.016550707 0.025399856 0.008678988 -0.0012563115 -0.46193004 0.13662171 0.0028135234 -0.009928138
-0.24732962 0.47675455 -0.016901111 0.0017233888 0.046355087 0.0046107518 0.0061456063 -0.0070036496
-0.20749256 0.13701503 0.20408861 0.039989486 -0.0032269266 -0.18181923 -0.006296417 0.009379041
-0.011160075 0.024466388 0.0012634333 -0.0058969627 -0.49354267 -0.19425993 0.0054186666 -0.0050640437
-0.42712745 -0.24960117 -0.002944769 -0.0018390595 -0.054440223 0.0449844 0.009449958 -0.0046752566
0.25015572 -0.04313991 -0.020983094 -0.009220964 0.34622616 -0.63553035 0.0021728054 0.022805305
-0.017269056 -0.003250405 0.007196623 0.00045798515 0.20428169 -0.12414641 0.013951123 0.010486193
0.13954549 -0.058428172 -0.0057040006 0.0151572265 0.050199214 -0.019074058 -0.002733628 0.012679512
-0.6784936 1.3343184 -0.2622897 -0.01957341 -0.2262654 0.45152834 -0.052158114 -0.03493399
0.011324347 0.02429407 0.013302919 0.032856476 -0.49995512 0.016030751 -0.0043449076 0.09347496
-0.35655695 0.19026867 0.015017385 -0.008189006 0.024547894 0.057249606 0.014029471 0.02010832
-0.5030119 -0.0976274 -0.25681442 -0.055039912 0.10856072 0.91267043 0.0765413 -0.013599565
-0.0031942897 -0.0018982568 -0.007463778 0.0025799486 0.10316732 0.06351014 0.0006174063 -0.01228908
0.17857668 -0.07440955 0.0032045152 -0.0072545228 0.019963296 0.04787123 -0.0016775825 -0.007184448
-0.08216574 0.078550376 -0.0017722504 -0.03716015 0.11155684 -0.070683874 0.015193928 0.0037626026
0.025578177 0.040071975 -0.010661244 0.04187727 0.57426775 0.03867194 0.019006269 0.009379188
-0.011507415 -0.1926999 -0.0007785958 -0.003121443 0.021631436 -0.066873424 0.008213343 0.032250527
0.14296351 -1.0537013 0.12695052 0.07054655 -0.15129021 -0.26719275 0.039691366 -0.0019428902
0.0056730453 -0.023861526 -0.012350051 0.014738476 0.21790805 0.08347646 0.0018677582 0.017438153
0.07878747 -0.25241545 0.0043222527 -0.014141898 0.028267398 0.09910654 0.0005996458 0.019470857
0.08139407 0.117384195 -0.0766617 -0.045679733 0.17163554 -0.012950131 0.042850327 0.007987759
-0.0031511753 0.009033313 0.017112914 -0.06678946 0.122225545 0.10609042 -0.004490396 -0.07656118
0.03765815 -0.082230866 -0.012300469 0.00916921 -0.1512729 -0.036928315 -0.019450514 -0.014515691
0.096214294 -0.50383145 0.42032304 0.030497124 -0.04199804 -0.66913176 -0.025921872 0.0064519364
-0.0072539668 0.0213997 0.005507636 -0.011130885 -0.32319435 -0.03546828 -0.0008767692 -0.009732556
-0.48523012 0.67538434 -0.007942794 0.003050522 0.018441904 0.006132623 0.008844833 0.01457756
-1.2611179 -0.43931472 -1.0807859 0.07578655 -0.26181138 -0.16534144 0.0060887113 -0.008509969
0.009846206 -0.01781892 -0.018064335 0.028143734 0.057299975 0.37677798 -0.0009428247 0.007543302
0.13752544 0.4189881 -0.0018869455 0.004455878 0.023070417 -0.036933634 -0.00808466 -3.6549576e-05
-0.7005666 -0.07151078 -0.65419424 -0.08674265 -0.57395285 0.26749897 -0.0090229465 -0.031001965
0.007303044 0.023778876 -0.0069055143 0.011711287 0.068934314 -0.19328465 0.004557697 -0.01614641
0.03159217 -0.46324077 0.00914002 -0.007596667 -0.0018408085 0.0061168596 -0.0070926524 0.014615577
00000000: 5995 87bc 5c13 d03c 5032 0e3c d2aa a4ba
00000010: 1882 ecbe 90e6 0b3e 1763 383b a1a9 22bc
00000020: fa43 7dbe 2c19 f43e 3374 8abc 55e3 e13a
00000030: d5de 3d3d ca15 973b 1561 c93b df7e e5bb
00000040: ee78 54be ab4d 0c3e 9bfc 503e 04cc 233d
00000050: d87a 53bb d22e 3abe 2d52 cebb 8daa 193c
00000060: bfd8 36bc bc6d c83c c999 a53a 4f3b c1bb
00000070: a0b1 fcbe 13ec 46be 128f b13b 47f0 a5bb
00000080: 73b0 dabe 7397 7fbe 07fd 40bb 990c f1ba
00000090: b6fc 5ebd 9041 383d ffd3 1a3c e532 99bb
000000a0: 6914 803e 79b3 30bd bde4 abbc 8713 17bc
000000b0: 8e44 b13e 1eb2 22bf a065 0e3b 31d2 ba3c
000000c0: d677 8dbc bf04 55bb a6d1 eb3b ba1d f039
000000d0: 382f 513e 7940 febd 4093 643c 48ce 2b3c
000000e0: 03e5 0e3e 6152 6fbd a0e8 babb 0456 783c
000000f0: b19d 4d3d 3341 9cbc ab26 33bb babd 4f3c
00000100: c2b1 2dbf f2ca aa3f d64a 86be 6a58 a0bc
00000110: 1eb2 67be b92e e73e bfa3 55bd f216 0fbd
00000120: c189 393c 5c04 c73c 7df4 593c 8394 063d
00000130: 1efa ffbe ec52 833c ba5f 8ebb cd6f bf3d
00000140: a28e b6be cad5 423e 7a0b 763c 2e2b 06bc
00000150: aa18 c93c 907e 6a3d dedb 653c 34ba a43c
00000160: 63c5 00bf e0f0 c7bd 2e7d 83be 8871 61bd
00000170: 1555 de3d c5a4 693f afc1 9c3d b6d0 5ebc
00000180: 4a57 51bb eece f8ba b592 f4bb 5b14 293b
00000190: 6349 d33d 9b11 823d 6fd9 213a 2358 49bc
000001a0: cedc 363e 0964 98bd d802 523b 59b7 edbb
000001b0: 118a a33c 9f14 443d 54e2 dbba 856b ebbb
000001c0: 8346 a8bd 05df a03d db4a e8ba 3e35 18bd
000001d0: ea77 e43d b5c2 90bd f4ef 783c ff95 763b
000001e0: 5389 d13c 8322 243d 80ac 2ebc 8087 2b3d
000001f0: 3603 133f 7866 1e3d 09b3 9b3c 2aab 193c
00000200: 9989 3cbc 1f53 45be ae1a 4cba 2091 4cbb
00000210: 6934 b13c eff4 88bd 4291 063c 2119 043d
00000220: 0765 123e afdf 86bf 51ff 013e b67a 903d
00000230: d2eb 1abe 7dcd 88be 6a93 223d 94a8 feba
00000240: f4e4 b93b 3f79 c3bc de57 4abc a679 713c
00000250: 4a23 5f3e b5f5 aa3d 91cf f43a 75da 8e3c
00000260: 535b a13d 993c 81be afa1 8d3b 6bb3 67bc
00000270: 0891 e73c 5ff8 ca3d 8c31 1d3a 5981 9f3c
00000280: efb1 a63d 2067 f03d cf00 9dbd ac1a 3bbd
00000290: 3ac1 2f3e c92c 54bc d383 2f3d 17df 023c
000002a0: f383 4ebb 7600 143c 6230 8c3c eac8 88bd
000002b0: 6351 fa3d ef45 d93d 2c24 93bb 1ccc 9cbd
000002c0: 6f3f 1a3d a868 a8bd e887 49bc 743a 163c
000002d0: 48e7 1abe 2542 17bd af56 9fbc 39d3 6dbc
000002e0: 000c c53d 19fb 00bf 9534 d73e 1bd5 f93c
000002f0: 2306 2cbd 384c 2bbf 1b5a d4bc c46a d33b
00000300: afb2 edbb 6c4e af3c 6679 b43b 515e 36bc
00000310: bb79 a5be 3047 11bd fcd6 65ba 4c75 1fbc
00000320: 1570 f8be fde5 2c3f 7e22 02bc 44eb 473b
00000330: 7a13 973c 2cf4 c83b ebe9 103c b8d6 6e3c
00000340: 506c a1bf dced e0be 3157 8abf fb35 9b3d
00000350: 240c 86be 444f 29be d083 c73b 666d 0bbc
00000360: fb51 213c fcf8 91bc a8fb 93bc b08d e63c
00000370: 61b3 6a3d 0be9 c03e e527 77ba ce2d f73b
00000380: 78d3 0c3e 9c85 d63e 6253 f7ba 9d02 923b
00000390: 2cfe bc3c b947 17bd 8675 04bc cf4c 19b8
000003a0: 5558 33bf 3e74 92bd 4679 27bf 21a6 b1bd
000003b0: 93ee 12bf a0f5 883e fbd4 13bc d5f7 fdbc
000003c0: 604e ef3b ebcb c23c a747 e2bb b3e0 3f3c
000003d0: 6f2d 8d3d 69ec 45be bc58 953b 7a45 84bc
000003e0: cb66 013d e52d edbe 06c0 153c 76ed f8bb
000003f0: 4947 f1ba f06f c83b 7b69 e8bb 2c76 6f3c

stage1.blocks.0.mlp.fc2.bias f4 [12]
-0.033981998 -0.02591005 -0.020772584 -0.42941993 -0.024264572 -0.06570395 -0.07694531 0.005723048
0.34189177 0.124685384 0.041162573 -0.047303233
00000000: b530 0bbd 5041 d4bc 442b aabc eedc dbbe
00000010: 7fc6 c6bc cb8f 86bd 8195 9dbd 6888 bb3b
00000020: 700c af3e 0d5b ff3d 169a 283d 09c1 41bd

stage1.blocks.1.norm1.weight f4 [12]
4.87775e-40 6.60971e-40 3.24139e-40 -3.2599e-40 1.436294e-39 1.317682e-39 -8.08357e-40 -1.2248e-40
-1.101457e-39 1.358534e-39 7.71381e-40 -6.73634e-40
00000000: b84f 0500 8532 0700 9187 0300 ba8c 0380
00000010: cea3 0f00 2959 0e00 5fcd 0880 6d55 0180
00000020: 6afe 0b80 0acb 0e00 4c66 0800 d155 0780

stage1.blocks.1.norm1.bias f4 [12]
-1.23293e-39 -6.07118e-40 4.8654e-41 3.487e-40 7.56937e-40 -2.2666e-40 8.36633e-40 -1.069181e-39
-6.16927e-40 4.2185e-41 -8.13318e-40 5.01526e-40
00000000: e86c 0d80 669c 0680 a187 0000 09cc 0300
00000010: 083e 0800 d677 0280 311c 0900 71a4 0b80
00000020: beb7 0680 9875 0000 33db 0880 0d76 0500

stage1.blocks.1.attn.conv_proj_q.bn.weight f4 [12]
-9.78846e-40 1.357927e-39 1.802e-40 5.32112e-40 -2.05863e-40 -6.47043e-40 8.78808e-40 4.75416e-40
5.84343e-40 -9.03e-41 -4.80865e-40 1.327391e-39
00000000: a0a8 0a80 59c9 0e00 53f6 0100 50cb 0500
00000010: dd3d 0280 b10b 0780 c291 0900 442d 0500
00000020: e95c 0600 b8fb 0080 753c 0580 3a74 0e00

stage1.blocks.1.attn.conv_proj_q.bn.bias f4 [12]
-3.22042e-40 1.048894e-39 -1.144547e-39 -8.2389e-40 6.5325e-40 -2.62495e-40 1.570326e-39 -4.10027e-40
1.507677e-39 5.22578e-40 1.138751e-39 1.088662e-39
00000000: b981 0380 e46b 0b00 8876 0c80 acf8 0880
00000010: ff1c 0700 bbdb 0280 6e19 1100 fd76 0480
00000020: ca6a 1000 bcb0 0500 6066 0c00 bfda 0b00

stage1.blocks.1.attn.conv_proj_q.bn.running_mean f4 [12]
1e-45 -6e-45 6e-45 -6e-45 -1e-45 -6e-45 -4e-45 -6e-45
-6e-45 6e-45 -6e-45 0.0
00000000: 0100 0000 0400 0080 0400 0000 0400 0080
00000010: 0100 0080 0400 0080 0300 0080 0400 0080
00000020: 0400 0080 0400 0000 0400 0080 0000 0000

stage1.blocks.1.attn.conv_proj_q.bn.running_var f4 [12]
6e-45 6e-45 6e-45 6e-45 6e-45 6e-45 6e-45 6e-45
6e-45 6e-45 6e-45 6e-45
00000000: 0400 0000 0400 0000 0400 0000 0400 0000
00000010: 0400 0000 0400 0000 0400 0000 0400 0000
00000020: 0400 0000 0400 0000 0400 0000 0400 0000

stage1.blocks.1.attn.conv_proj_k.bn.weight f4 [12]
-2.54054e-40 -2.64156e-40 -4.82453e-40 6.77874e-40 -7.0307e-41 -7.78856e-40 1.265623e-39 9.96763e-40
1.199298e-39 8.00441e-40 1.292845e-39 9.6683e-41
00000000: 33c4 0280 5ce0 0280 e240 0580 a361 0700
00000010: fdc3 0080 227b 0880 0bc8 0d00 92da 0a00
00000020: 280f 0d00 4eb7 0800 ed13 0e00 830d 0100

stage1.blocks.1.attn.conv_proj_k.bn.bias f4 [12]
4.59493e-40 -4.13747e-40 3.34194e-40 -2.70756e-40 1.789766e-39 -1.559756e-39 9.91939e-40 9.21756e-40
-2.19152e-40 -6.49807e-40 1.588946e-39 1.499567e-39
00000000: e100 0500 5c81 0480 99a3 0300 c2f2 0280
00000010: 247d 1300 f7fb 1080 1fcd 0a00 7b09 0a00
00000020: e862 0280 6613 0780 564d 1100 2f54 1000

stage1.blocks.1.attn.conv_proj_k.bn.running_mean f4 [12]
-4e-45 -6e-45 -6e-45 -3e-45 -3e-45 6e-45 6e-45 3e-45
-6e-45 -6e-45 0.0 -6e-45
00000000: 0300 0080 0400 0080 0400 0080 0200 0080
00000010: 0200 0080 0400 0000 0400 0000 0200 0000
00000020: 0400 0080 0400 0080 0000 0000 0400 0080

stage1.blocks.1.attn.conv_proj_k.bn.running_var f4 [12]
6e-45 6e-45 6e-45 6e-45 6e-45 6e-45 6e-45 6e-45
6e-45 6e-45 6e-45 6e-45
00000000: 0400 0000 0400 0000 0400 0000 0400 0000
00000010: 0400 0000 0400 0000 0400 0000 0400 0000
00000020: 0400 0000 0400 0000 0400 0000 0400 0000

stage1.blocks.1.attn.conv_proj_v.bn.weight f4 [12]
5.9969e-40 1.354347e-39 1.137908e-39 -1.155261e-39 -1.034396e-39 -8.11021e-40 3.74082e-40 -6.15894e-40
1.344267e-39 9.43227e-40 -1.065315e-39 -2.46483e-40
00000000: b187 0600 5ebf 0e00 0664 0c00 6694 0c80
00000010: 7a43 0b80 ccd4 0880 ca12 0400 ddb4 0680
00000020: 45a3 0e00 5545 0a00 aa99 0b80 18af 0280

stage1.blocks.1.attn.conv_proj_v.bn.bias f4 [12]
7.9314e-40 -6.13948e-40 -5.85276e-40 -1.0365e-40 9.31939e-40 -4.256e-41 -8.43447e-40 7.3089e-40
2.33409e-40 -9.45504e-40 -8.58047e-40 -1.151202e-39
00000000: f4a2 0800 70af 0680 835f 0680 ef20 0180
00000010: de25 0a00 a476 0080 302f 0980 6df5 0700
00000020: a68a 0200 ae4b 0a80 e357 0980 1589 0c80

stage1.blocks.1.attn.conv_proj_v.bn.running_mean f4 [12]
6e-45 6e-45 6e-45 6e-45 6e-45 -6e-45 1e-45 6e-45
-6e-45 6e-45 3e-45 6e-45
00000000: 0400 0000 0400 0000 0400 0000 0400 0000
00000010: 0400 0000 0400 0080 0100 0000 0400 0000
00000020: 0400 0080 0400 0000 0200 0000 0400 0000

stage1.blocks.1.attn.conv_proj_v.bn.running_var f4 [12]
6e-45 6e-45 6e-45 6e-45 6e-45 6e-45 6e-45 6e-45
6e-45 6e-45 6e-45 6e-45
00000000: 0400 0000 0400 0000 0400 0000 0400 0000
00000010: 0400 0000 0400 0000 0400 0000 0400 0000
00000020: 0400 0000 0400 0000 0400 0000 0400 0000

stage1.blocks.1.attn.proj_q.weight f4 [12, 12]
4.90976e-40 6.4722e-40 -7.6211e-40 6.64235e-40 1.17768e-39 3.37901e-40 6.54069e-40 -5.97243e-40
4.53201e-40 -1.059327e-39 -2.5554e-41 -1.128658e-39 1.014207e-39 5.06693e-40 -1.45903e-40 -5.30799e-40
-4.4065e-40 1.118798e-39 -1.57253e-39 -6.24199e-40 -2.08676e-40 -1.053299e-39 3.98668e-40 1.145668e-39
6.65868e-40 2.52148e-40 8.02752e-40 7.19124e-40 -1.153396e-39 -7.48802e-40 1.107428e-39 -9.89377e-40
8.43376e-40 -9.65891e-40 -1.11587e-39 1.596424e-39 1.843917e-39 -4.39618e-40 -1.184686e-39 1.058349e-39
-1.002419e-39 -2.7412e-41 -1.052322e-39 -1.177976e-39 4.37862e-40 -1.751089e-39 -1.757708e-39 -1.027234e-39
3.69232e-40 6.15551e-40 1.59174e-39 -1.198927e-39 -1.61749e-39 -1.080132e-39 -7.00855e-40 6.51835e-40
-5.06796e-40 -1.111092e-39 1.489698e-39 -5.6676e-41 -2.03208e-40 -1.242377e-39 2.448e-41 1.167531e-39
-4.33346e-40 5.97546e-40 1.161494e-39 7.17801e-40 1.555751e-39 2.1694e-40 7.83951e-40 -1.100266e-39
1.154974e-39 1.18256e-39 -1.122744e-39 3.11687e-40 5.0522e-40 1.490268e-39 5.1418e-40 2.0544e-40
3.94317e-40 1.141597e-39 -1.569735e-39 -9.29476e-40 1.464713e-39 1.020871e-39 -3.31191e-40 1.794832e-39
-3.84644e-40 1.07249e-39 8.6254e-40 -4.924e-40 1.123379e-39 8.27968e-40 5.0958e-41 1.494245e-39
-9.792e-42 -1.63209e-39 -2.1513e-41 -8.8435e-40 1.556042e-39 1.524362e-39 1.585156e-39 7.22047e-40
4.9745e-40 -4.51788e-40 3.69918e-40 -1.523977e-39 -4.2182e-40 -6.06148e-40 2.68333e-40 2.38606e-40
1.05331e-39 -3.20153e-40 5.0422e-41 -1.473185e-39 -6.5315e-40 -6.0584e-40 1.124992e-39 -5.81128e-40
1.038145e-39 2.38472e-40 -1.010734e-39 2.18207e-40 -1.042757e-39 -1.076385e-39 -4.9057e-40 1.60073e-39
5.36776e-40 4.15526e-40 -3.72709e-40 7.33033e-40 1.883262e-39 1.58881e-39 -4.65392e-40 1.00161e-39
6.9996e-41 -6.4799e-40 -1.1541e-40 4.71337e-40 1.470328e-39 1.07614e-40 -2.25072e-40 -2.56083e-40
00000000: a458 0500 300c 0700 744c 0880 9e3b 0700
00000010: e5d2 0c00 eead 0300 471f 0700 df80 0680
00000020: 57ef 0400 f988 0b80 3c47 0080 3d4a 0c80
00000030: 320b 0b00 7484 0500 b896 0180 a7c7 0580
00000040: 5acc 0480 c12e 0c00 931f 1180 03cc 0680
00000050: b445 0280 2b78 0b80 5357 0400 a879 0c00
00000060: 2b40 0700 e3be 0200 bfbd 0800 a0d4 0700
00000070: 338f 0c80 5b27 0880 0f0f 0c00 fbc5 0a80
00000080: fd2e 0900 8384 0a80 9726 0c80 2e62 1100
00000090: 1714 1400 7ac9 0480 6ce6 0c80 3f86 0b00
000000a0: 56ea 0a80 6a4c 0080 7275 0b80 b8d3 0c80
000000b0: 95c4 0400 5311 1380 c623 1380 832f 0b80
000000c0: 4505 0400 e8b3 0600 2055 1100 1f0e 0d80
000000d0: e79c 1180 f8c2 0b80 b3a1 0780 0d19 0700
000000e0: be84 0580 4619 0c80 ac38 1000 fd9d 0080
000000f0: 7636 0280 3e87 0d80 3e44 0000 9ab6 0c00
00000100: feb7 0480 b781 0600 c6a5 0c00 f0d0 0700
00000110: cdf0 1000 be5c 0200 5689 0800 18fb 0b80
00000120: 9993 0c00 7fe0 0c00 c139 0c80 db64 0300
00000130: 5980 0500 433a 1000 5399 0500 af3c 0200
00000140: 324b 0400 4f6e 0c00 c817 1180 001f 0a80
00000150: 06f3 0f00 c61d 0b00 3a9b 0380 438b 1300
00000160: 3b30 0480 aaad 0b00 6964 0900 9c5c 0580
00000170: 863b 0c00 0a04 0900 0d8e 0000 5945 1000
00000180: 4c1b 0080 9ac5 1180 f83b 0080 35a1 0980
00000190: 9df1 1000 4d99 1000 c542 1100 c6dc 0700
000001a0: b06a 0500 67eb 0480 2e07 0400 3a98 1080
000001b0: dd97 0480 b299 0680 01ec 0200 2399 0200
000001c0: 3378 0b00 757c 0380 8e8c 0000 a40a 1080
000001d0: b71c 0780 d698 0680 0540 0c00 f353 0680
000001e0: ed4d 0b00 c398 0200 8401 0b80 4660 0200
000001f0: c85a 0b80 86b8 0b80 8257 0580 2f6e 1100
00000200: 50d8 0500 5186 0400 f60e 0480 66fb 0700
00000210: c581 1400 f54c 1100 5311 0580 15e8 0a00
00000220: 1fc3 0000 550e 0780 b741 0180 e521 0500
00000230: ad02 1000 fc2b 0100 6973 0280 dbc9 0280
