ViT/ViT1/4 V train 0.998 V test 0.867 ABS 3/model_bestV.pt (torch, 414407 bytes, 74 tensors)

pos_embedding f4 [1, 19, 36]
0	0xbf5ec634	-0.87021184
1	0x3fead2d9	1.8345596
2	0x3e96f98f	0.29487273
3	0x3e81236c	0.25222337
4	0x3f3fc173	0.74904555
5	0x3f06f289	0.5271383
6	0x3f310f78	0.6916423
7	0x3f89910f	1.0747393
8	0xbf04c74a	-0.5186659
9	0xbe84c187	-0.259289
10	0xbf203836	-0.6258577
11	0x3e7552e6	0.23957404
12	0xbf51b847	-0.8192181
13	0xbff14da1	-1.8851815
14	0xbfacebb2	-1.3509429
15	0xbff23f14	-1.89255
16	0x3f0a8050	0.5410204
17	0x402d64b7	2.7092721
18	0xbdb9538f	-0.09049141
19	0xbec75bdd	-0.38937274
20	0x3f421584	0.7581408
21	0xbf6e8660	-0.9317379
22	0x3f48d81d	0.7845476
23	0x3f9834ec	1.189115
24	0x3f605d39	0.87642246
25	0x3f08ab02	0.5338594
26	0x3f8d1bb4	1.1024079
27	0xbd2a5345	-0.04158332
28	0x3f9d046f	1.2266978
29	0x3e261f6f	0.16222928
30	0x3f13c5d7	0.57723755
31	0x3f5d4254	0.86429334
32	0x3f5c63b3	0.8608963
33	0xbfc67068	-1.5503054
34	0xc0300127	-2.7500703
35	0x3ee33355	0.443751
36	0xbf7325cf	-0.94979566
37	0xbecf5012	-0.40490776
38	0x3fc46617	1.5343655
39	0xbf7d2166	-0.98879087
40	0x3ff47599	1.9098388
41	0xbf67bf2e	-0.9052609
42	0x3f3eb39e	0.74492824
43	0xbf3a0705	-0.7266696
44	0x400d61ec	2.2091017
45	0xbf152a86	-0.5826801
46	0x3e21190f	0.15732215
47	0x3fb54048	1.4160242
48	0x3d77e85f	0.06052434
49	0x3f466a08	0.7750554
50	0x3fe15097	1.7602719
51	0x3ca0a440	0.01960957
52	0x3dcb8e13	0.09939208
53	0xbf914051	-1.1347753
54	0x3faa3de0	1.3300133
55	0x3cb6c917	0.022312684
56	0x3eff1878	0.49823356
57	0x3f9bebd5	1.2181345
58	0xbf95187c	-1.1648097
59	0x3f3c4929	0.73549134
60	0x3f9bdaec	1.2176185
61	0x3ef3179f	0.4747896
62	0x3f89faa0	1.077961
63	0x3f3e648e	0.74372184
64	0x3fcdc8cb	1.6076902
65	0x3e613b0f	0.21995185
66	0x3e6b9095	0.23004372
67	0xbe18078a	-0.14846626
68	0xbf84da8e	-1.0379198
69	0xbebe5a3e	-0.37178224
70	0x3f662ac6	0.8990902
71	0x3e90450e	0.28177685
72	0xbe6fafa8	-0.23406851
73	0xbf8ab995	-1.0837885
74	0xbf64c79b	-0.89367074
75	0xbf92c3f8	-1.1466055
76	0xbfa68888	-1.3010416
77	0x3ecab7a9	0.39593247
78	0x3f26e707	0.6519627
79	0xbf813b31	-1.0096189
80	0x3fd368e3	1.6516384
81	0x3e94433a	0.2895754
82	0xbf2d8d11	-0.67793375
83	0x40106aad	2.256511
84	0x3f19493d	0.5987738
85	0xbf48548b	-0.78254
86	0xbf9fc975	-1.2483355
87	0x3f8d90db	1.1059831
88	0xbe3125d6	-0.1729959
89	0x3e1e6e5d	0.15471788
90	0x3d8cb250	0.06869948
91	0x3efdd960	0.49579906
92	0xbec32132	-0.38111264
93	0xbee326be	-0.44365495
94	0xbe356c37	-0.17717062
95	0x3f6a02f5	0.9141076
96	0x3fdd292a	1.7278187
97	0x3f72b670	0.9480963
98	0xbf5442c1	-0.8291436
99	0x3e22c10e	0.15893957
100	0x3ee1569d	0.44011393
101	0x3f83bc41	1.0291826
102	0x3f0538ce	0.520398
103	0x3fbe1edf	1.4853171
104	0x3fce5e8a	1.6122601
105	0x3f7c68b9	0.98597294
106	0xc01e3665	-2.47207
107	0x3f2ab42b	0.66681165
108	0xbdc4fb66	-0.09618263
109	0xbee3ddbd	-0.4450511
110	0x3fe8a00c	1.8173842
111	0xbf772866	-0.9654602
112	0xbf168d43	-0.588093
113	0xbfb1e8ff	-1.389923
114	0xbf35706f	-0.70874685
115	0x3e17f7e8	0.14840662
116	0x3fd94bd7	1.697627
117	0x3f84a4c9	1.0362788
118	0x3fd15c46	1.6356285
119	0x3fa2156f	1.2662791
120	0x3f0ebff1	0.5576163
121	0x3f943c0a	1.1580822
122	0x3e9ca95c	0.3059796
123	0xbfefc608	-1.8732309
124	0xbffe9f29	-1.9892322
125	0xbf0a5d4e	-0.5404862
126	0xbf09b74a	-0.537953
127	0x3dfaab90	0.12239754
128	0xbf071767	-0.52770084
129	0xbef3d472	-0.4762302
130	0x3fb96247	1.4483117
131	0xbf4b5058	-0.7941947
132	0x3ede0595	0.43363634
133	0xbfb3d07c	-1.4047999
134	0x3f946a1e	1.1594884
135	0x3ef7dd6d	0.48411122
136	0x3def7117	0.11691492
137	0xbecae77a	-0.39629728
138	0xbf275b42	-0.65373623
139	0xbfa612ec	-1.2974524
140	0x3f237b82	0.6386033
141	0x40016cdc	2.0222692
142	0x3f62da00	0.8861389
143	0x3e17ad86	0.14812288
144	0xbf685dc7	-0.9076809
145	0xbeef5065	-0.46741024
146	0xbf10ede7	-0.5661301
147	0xbe97f2bb	-0.29677376
148	0xc0280322	-2.6251912
149	0xbe7e9ded	-0.24864931
150	0xbe977afe	-0.29586023
151	0xbf566fa5	-0.83764106
152	0xbf335fe4	-0.7006819
153	0xbe6018e3	-0.21884494
154	0x3f013cbc	0.504833
155	0xbed73dc9	-0.42039326
156	0xbee41b24	-0.44551957
157	0xbd20f23b	-0.03929351
158	0xbe309131	-0.17242886
159	0xbe08d6e1	-0.1336322
160	0xbdf5683c	-0.11982772
161	0xbeea1466	-0.45718688
162	0x3e7897ce	0.24276659
163	0xbee3736e	-0.44424003
164	0xbf471354	-0.7776387
165	0x3f54e424	0.83160615
166	0xbececb36	-0.40389413
167	0xbfc77ba6	-1.558461
168	0x3f4bd6d4	0.79624677
169	0x3f8aaa7e	1.083328
170	0xbf61119a	-0.8791748
171	0x3e78313f	0.24237536
172	0x3f1d911d	0.6154955
173	0x403abe17	2.9178522
174	0xbeb81c47	-0.35959074
175	0x3f4a2241	0.7895852
176	0xbffa58b6	-1.9558322
177	0xbd80eb39	-0.06294865
178	0x3d0c0102	0.03418065
179	0xbe208515	-0.15675767
180	0xbfa73eb1	-1.3066007
181	0xbf6c0145	-0.9218944
182	0xbebcaade	-0.3684911
183	0x3fb3e9a6	1.4055679
184	0x3e95f6e1	0.29289916
185	0x3db38e82	0.087674156
186	0xbe01f1d9	-0.12689914
187	0xbf8d068e	-1.1017625
188	0x3f89b596	1.0758541
189	0xbf5b10f0	-0.8557272
190	0xbfa0ff0d	-1.2577835
191	0x3d70036e	0.05859702
192	0xbe2ec599	-0.17067565
193	0xc00dca7a	-2.2154832
194	0xbfb01507	-1.3756417
195	0xbfdcc717	-1.7248257
196	0x3fa13f99	1.2597533
197	0xbfed886a	-1.8557255
198	0x3ee244c8	0.441931
199	0x3f0e5109	0.555924
200	0xbf927496	-1.1441829
201	0xbeef6ec2	-0.4676419
202	0xbf966eb7	-1.1752537
203	0x3f8de76a	1.1086247
204	0xbcf0df62	-0.029403392
205	0xbf1ea34c	-0.6196792
206	0xbecd617b	-0.40113434
207	0xbe490ec7	-0.19634543
208	0xbe67dc01	-0.22642519
209	0x3f9eb644	1.2399373
210	0x3e2f0ac1	0.17093946
211	0x3f873b46	1.0564964
212	0xbf9f4792	-1.2443717
213	0xbefef4f1	-0.4979625
214	0xbf5b9cac	-0.8578594
215	0x3eaad6c6	0.33366984
216	0x3fc29592	1.5201895
217	0x3fb36d12	1.4017661
218	0xbe5b93ea	-0.21443143
219	0xbeb504d3	-0.35355243
220	0x3f8d52c6	1.1040885
221	0x3fd4ac3b	1.661506
222	0x3f8c2235	1.0947939
223	0xbf02cd43	-0.51094455
224	0xbe5df40c	-0.21675128
225	0xbe8cee11	-0.2752538
226	0xbfc2c4d3	-1.5216316
227	0x3eda86ac	0.4268087
228	0x3f87e71a	1.0617402
229	0x3e2d3071	0.1691301
230	0x3f96d293	1.1783012
231	0xbfaf64a7	-1.3702592
232	0xbeb33ca2	-0.35007197
233	0xbebad0eb	-0.36487517
234	0x3e6d763a	0.23189631
235	0x3e84452a	0.25834018
236	0x3f065e60	0.52487755
237	0xbe6a0b74	-0.22855932
238	0xc009aec3	-2.1512916
239	0x3e45193f	0.19247912
240	0x3f538f1a	0.8264023
241	0xbf317d54	-0.6933186
242	0xbf5e6035	-0.8686555
243	0xbf81edc2	-1.0150683
244	0x3ec76c19	0.3894966
245	0xbfc228bd	-1.5168682
246	0xbeb4dbae	-0.35323852
247	0x3f0011d1	0.50027186
248	0x3e920179	0.2851675
249	0xbdab59d2	-0.08366741
250	0xbdbd4dc7	-0.092433505
251	0x3eb47122	0.35242563
252	0xbf69ff4f	-0.91405195
253	0xbf9b4f6d	-1.2133614
254	0x3f524f68	0.82152414
255	0xbefd2a79	-0.49446467

cls_token f4 [1, 1, 36]
0	0x3e4e9aa8	0.20176184
1	0x3f03aa34	0.51431584
2	0x3f0d831d	0.5527819
3	0x3f4aee62	0.79269993
4	0xbf74895b	-0.9552209
5	0xbf208242	-0.6269876
6	0xbfedf9df	-1.859188
7	0xbfaa74db	-1.3316911
8	0x3f8a7654	1.0817361
9	0xbf98c996	-1.1936519
10	0x3f6f35e9	0.93441635
11	0xbf309c78	-0.6898875
12	0x3fb5e368	1.4210024
13	0x402c53bc	2.6926107
14	0x3fa5d00a	1.2954113
15	0x3f494408	0.7861943
16	0x3da3372e	0.07969509
17	0x3f1c075d	0.60948735
18	0x3f0942ae	0.5361737
19	0x40350b41	2.828812
20	0x3e8e4ef2	0.27794605
21	0xbfa09989	-1.2546855
22	0x40041621	2.0638506
23	0x3f1e6373	0.618705
24	0x3f4e1da2	0.80513966
25	0x3f25ebe0	0.6481304
26	0x3f5f49d3	0.8722202
27	0x3ea293de	0.3175344
28	0x3ddf4e86	0.10903649
29	0xbe875bfb	-0.26437363
30	0xbf2f49c2	-0.6847192
31	0x3f9bd0b7	1.217307
32	0xbe34415a	-0.17603055
33	0x3d4a372d	0.049369026
34	0x3f87fe14	1.0624413
35	0xbf1cd8e9	-0.6126848

to_patch_embedding.1.weight f4 [36, 12]
0	0x3e88365b	0.2660397
1	0x3d485d7d	0.048917282
2	0xbe6c9c6f	-0.2310655
3	0x3d358f6a	0.044326223
4	0x3e86619a	0.2624634
5	0xbe3cafad	-0.1842639
6	0x3d73d563	0.059529673
7	0x3e23627a	0.15955535
8	0x3e07d137	0.13263403
9	0x3e34d4ea	0.17659345
10	0x3dd413d0	0.103553414
11	0x3dab8802	0.08375551
12	0xbe76b826	-0.24093685
13	0x3e51efe5	0.20501669
14	0x3e7f833c	0.24952406
15	0xbe2cb752	-0.16866806
16	0x3d80fb46	0.062979266
17	0x3e214c74	0.15751821
18	0x3e4a38f8	0.19748294
19	0x3d552383	0.05203582
20	0x3e9cf3de	0.30654806
21	0x3e4e7ef1	0.20165612
22	0x3d6addcc	0.05734043
23	0x3e19da07	0.15024577
24	0x3d76ff78	0.060302228
25	0x3dad4b91	0.08461679
26	0x3e5b49ef	0.21414922
27	0x3e06fba3	0.1318193
28	0xbd919656	-0.071087524
29	0xbcf7cad6	-0.030248087
30	0x3e19ccb6	0.15019497
31	0x3e976c93	0.29575023
32	0xbe5dea25	-0.2167135
33	0xbe992978	-0.2991445
34	0x3e4ce79f	0.20010231
35	0x3e0980d6	0.13428053
36	0xbb37aac3	-0.0028025366
37	0x3e8f2c3f	0.27963445
38	0x3e916647	0.28398344
39	0xbe04a664	-0.12954098
40	0xbe343735	-0.17599185
41	0xbe57e35e	-0.21082827
42	0xbe8dc552	-0.27689606
43	0x3e2abffa	0.16674796
44	0x3e91b577	0.2845876
45	0xbdb01c7b	-0.08599182
46	0x3e93d4ea	0.28873378
47	0xbe03f333	-0.12885742
48	0xbd162b73	-0.03666253
49	0x3db76698	0.08955115
50	0xbd2078db	-0.039177757
51	0x3e3674e7	0.17818032
52	0x3d8bb2b5	0.06821195
53	0xbe506537	-0.2035111
54	0x3df97df0	0.12182224
55	0x3dff3476	0.12461178
56	0xbce29d0c	-0.027662776
57	0xbc493d8a	-0.012282738
58	0xbe77c2ac	-0.24195355
59	0xbe66fd9a	-0.22557679
60	0x3cda253c	0.026629083
61	0xbe81e2c9	-0.25368336
62	0xbe33626a	-0.1751801
63	0x3e7a04be	0.24415872
64	0x3e94180d	0.289246
65	0xbe5c665b	-0.2152342
66	0xbe8c584f	-0.27411124
67	0xbe8b7941	-0.27240947
68	0x3d9e3301	0.07724572
69	0x3d525772	0.051352926
70	0xbd800f82	-0.06252958
71	0x3e5bb09a	0.21454087
72	0x3d6e7f9a	0.05822716
73	0x3e9d6866	0.30743712
74	0xbcdfaef0	-0.027305096
75	0x3e546900	0.2074318
76	0x3e55e5ca	0.20888439
77	0xbe626da0	-0.22112131
78	0xbe27edf9	-0.16399373
79	0xbd25b3a8	-0.040454537
80	0x3ce7d5ec	0.028300248
81	0xbd9d28fb	-0.07673832
82	0xbeddf27b	-0.4334906
83	0xbe01f967	-0.12692796
84	0x3e816c69	0.25278023
85	0xbe345e32	-0.17614058
86	0x3dc29eb7	0.09502929
87	0x3e304d9c	0.17217106
88	0xbe19a9df	-0.15006207
89	0x3e7c61c0	0.24646664
90	0x3df52fde	0.119720206
91	0xbd25d5c1	-0.040487055
92	0x3dc35a72	0.095387354
93	0xbe3dde28	-0.18541777
94	0xbeb73c89	-0.35788372
95	0xbe76642f	-0.24061655
96	0xbd6d9f88	-0.05801347
97	0x3dd18f30	0.10232389
98	0x3cf15bca	0.029462714
99	0xbd34c8dc	-0.044136867
100	0xbc6a9165	-0.014316891
101	0xbe1cd7d4	-0.15316707
102	0x3e59cd25	0.21269663
103	0xbe9d8a61	-0.30769637
104	0xbdb7ac3e	-0.089683995
105	0xbcb9d252	-0.022683296
106	0xbe0236bd	-0.12716193
107	0x3ea25a83	0.3170968
108	0xbe988b7a	-0.29793912
109	0xbd229d1d	-0.039700616
110	0xbe2e7ba4	-0.17039353
111	0xbdd585d1	-0.10425914
112	0x3df44847	0.11927848
113	0x3d18ca0b	0.03730206
114	0x3e4eb0b0	0.20184588
115	0x38aa15eb	8.110314e-05
116	0x3d1f5181	0.038896088
117	0x3e29414c	0.16528815
118	0xbd6edbf3	-0.05831523
119	0xbe6bb0d4	-0.23016673
120	0xbdd1713b	-0.10226675
121	0x3e62d741	0.22152425
122	0x3da3b9a0	0.079943895
123	0x3d86bc81	0.06578923
124	0x3eabda3d	0.3356494
125	0xbe85845b	-0.26077542
126	0xbddacbf2	-0.10683431
127	0xbe154232	-0.14576033
128	0xbea671ae	-0.32508606
129	0xbe9bf80b	-0.3046268
130	0x3ea675fe	0.32511896
131	0xbe9a203f	-0.30102727
132	0x3db8fc83	0.09032538
133	0xbd169a9d	-0.036768544
134	0x3ce6f83c	0.02819454
135	0xbdd7d8d5	-0.10539404
136	0xbcb9addb	-0.022665909
137	0xbe6be4f0	-0.23036551
138	0xbdf21e58	-0.11822194
139	0xbc9453b0	-0.018106312
140	0xbe4a2ac8	-0.19742882
141	0xbe2dc074	-0.16967946
142	0x3ea77312	0.3270498
143	0xbe9bd313	-0.30434474
144	0x3b57f967	0.0032955052
145	0xbd85c7ca	-0.06532247
146	0xbea09fe7	-0.31371996
147	0xbe219698	-0.15780103
148	0xbe6e7820	-0.23288012
149	0x3e45cdcd	0.19316788
150	0x3e602c80	0.21891975
151	0x3cbc6282	0.022996191
152	0xbeac6ce7	-0.33676836
153	0x3cf39394	0.029733457
154	0x3e9992e5	0.29994884
155	0xbe5f85be	-0.21828362
156	0xbdddd2ee	-0.10831247
157	0xbe5ffcf1	-0.21873833
158	0xbd6f5917	-0.058434572
159	0xbda1cdb8	-0.07900566
160	0x3d162f25	0.036666054
161	0xbe6371ea	-0.22211424
162	0xbc13e42e	-0.00902657
163	0xbe6ae452	-0.2293866
164	0xbdc5b533	-0.09653702
165	0xbdf9ff3c	-0.12206885
166	0x3da44c20	0.08022332
167	0x3e955034	0.29162753
168	0xbe3376ee	-0.17525837
169	0xbd923f22	-0.07140948
170	0x3e2142a0	0.15748072
171	0x3d9400e6	0.07226734
172	0xbde2fae5	-0.110830106
173	0xbe54b252	-0.20771149
174	0xbec7ab48	-0.38997865
175	0x3ac1d688	0.0014788667
176	0x3e5f5edc	0.2181353
177	0x3e6175af	0.22017549
178	0x3eb15eb4	0.34642565
179	0x3e81493a	0.2525118
180	0xbe24fb54	-0.16111499
181	0xbe3f1e9b	-0.18664019
182	0xbdb76bdf	-0.08956122
183	0xbe473f8f	-0.1945784
184	0x3d09ee10	0.0336743
185	0x3e18fec5	0.14940937
186	0x3ed95da4	0.42454255
187	0x3d18a8f5	0.037270505
188	0x3e2527ba	0.16128436
189	0xbe2798d8	-0.16366899
190	0x3deb1d03	0.11480143
191	0x3dbbd0db	0.091706954
192	0x3e99201c	0.2990731
193	0xbe0a7d90	-0.13524461
194	0x3ddf1884	0.10893348
195	0x3ddb4890	0.107071996
196	0x3e262a0f	0.16226982
197	0xbdc2edb1	-0.09517992
198	0x3ec2a3e1	0.38015655
199	0xbe6ead1f	-0.23308228
200	0xbcaae647	-0.020861758
201	0x3ea54cbd	0.3228511
202	0xbe66e41e	-0.22547957
203	0xbe950533	-0.2910553
204	0xbcee98e5	-0.02912564
205	0xbc8bffba	-0.017089713
206	0x3e934c93	0.2876936
207	0x3e6a778f	0.2289717
208	0xbe75e076	-0.24011406
209	0x3b81ff0f	0.003967173
210	0xbe1f42e9	-0.15552868
211	0x3e3600ad	0.17773695
212	0x3ea000b3	0.31250533
213	0xbe6100e9	-0.21973003
214	0x3e92bd23	0.28659925
215	0x3e8c5732	0.27410275
216	0x3e3a537d	0.18195911
217	0x3e6e890d	0.23294468
218	0xbd8d3b28	-0.06896049
219	0xbe91dd85	-0.28489318
220	0xbdb66fc5	-0.08908037
221	0x3e4b3ed4	0.19848186
222	0x3d4df45e	0.050281875
223	0xbf1f0aca	-0.6212584
224	0xbd170ea3	-0.036879193
225	0xbeaacc73	-0.33359107
226	0xbe252af6	-0.1612967
227	0xbdea3429	-0.1143573
228	0xbcec993d	-0.028881663
229	0xbe2e2b8f	-0.17008804
230	0xbe01cf52	-0.12676743
231	0x3ed1b732	0.4096008
232	0x3db11b63	0.08647802
233	0x3df842ee	0.12122141
234	0x3d97321a	0.07382603
235	0xbe3ccd74	-0.18437749
236	0x3e75f86c	0.24020547
237	0x3eabadff	0.33531186
238	0x3e4a8890	0.19778657
239	0x3d8277c5	0.063705005
240	0x3e9f308f	0.31091735
241	0x3e03121d	0.12799878
242	0x3e5a26b3	0.21303825
243	0xbd1a9991	-0.03774411
244	0xbc21a389	-0.00986565
245	0x3e9b2be7	0.30306932
246	0xbeb14ceb	-0.34628996
247	0xbe5c53a5	-0.21516283
248	0x3e9cf963	0.30659017
249	0xbd3bf8c3	-0.045891535
250	0xbe231822	-0.15927175
251	0x3ba2e0e3	0.0049706562
252	0xbe8cfe2f	-0.27537677
253	0xbe779c67	-0.24180757
254	0x3e97be5c	0.2963742
255	0xbe86127f	-0.26185986

to_patch_embedding.1.bias f4 [36]
0	0xbe127eb1	-0.14306141
1	0xbe309a50	-0.17246366
2	0x3e8482f1	0.2588115
3	0xbe441fae	-0.1915271
4	0xbd641fdc	-0.055694446
5	0xbda3c62a	-0.07996781
6	0xbda8820d	-0.0822793
7	0x3de52c16	0.11190049
8	0xbe23264f	-0.15932582
9	0xbe45781c	-0.192841
10	0xbd4d331f	-0.05009758
11	0x3e538134	0.20654756
12	0x3e9aa317	0.30202553
13	0xbd188db8	-0.03724453
14	0x3e271470	0.1631639
15	0xbe539f24	-0.20666176
16	0x3e86779e	0.26263136
17	0x3d9b75ca	0.07590826
18	0x3df00c53	0.11721101
19	0xbced5a2a	-0.028973658
20	0xbe570847	-0.20999251
21	0x3d7a3be2	0.061092265
22	0x3e58c397	0.21168362
23	0x3e577f55	0.21044667
24	0xbe213c3c	-0.15745634
25	0xbe3fcf86	-0.18731508
26	0xbdd9b72d	-0.10630641
27	0xbc902eb1	-0.01760039
28	0x3da0cc04	0.07851413
29	0x3dba66d1	0.09101642
30	0xbde3a5ae	-0.11115585
31	0x3e9ca494	0.30594313
32	0x3e1f0939	0.15530862
33	0xbe840192	-0.25782448
34	0x3a05e58d	0.0005107753
35	0xbcf88ae5	-0.030339668

transformer.layers.0.0.norm.weight f4 [36]
0	0x3f763847	0.9617962
1	0x3f85f83e	1.0466383
2	0x3f86298c	1.0481429
3	0x3f7e7364	0.9939482
4	0x3f8452b8	1.0337744
5	0x3f8ae6ce	1.0851686
6	0x3f819199	1.0122558
7	0x3f7f33ad	0.99688226
8	0x3f8902a5	1.0703932
9	0x3f80faf4	1.0076585
10	0x3f862a3f	1.0481642
11	0x3f8512a6	1.0396316
12	0x3f86bd7d	1.0526577
13	0x3f85d8bd	1.0456768
14	0x3f83e410	1.0303974
15	0x3f7f3536	0.9969057
16	0x3f881e80	1.0634308
17	0x3f7fdfd4	0.9995091
18	0x3f86382c	1.0485892
19	0x3f83446d	1.0255257
20	0x3f88f8ce	1.0700929
21	0x3f7e6bac	0.99383044
22	0x3f8492d9	1.0357314
23	0x3f87ed54	1.0619302
24	0x3f8f0fe9	1.117673
25	0x3f82a0fa	1.0205376
26	0x3f82ab82	1.020859
27	0x3f8da878	1.1067038
28	0x3f846c61	1.0345575
29	0x3f7e9228	0.99441767
30	0x3f96e7bd	1.1789471
31	0x3f8668e5	1.0500761
32	0x3f807dce	1.0038393
33	0x3f8578ff	1.042755
34	0x3f84cf9c	1.0375857
35	0x3f856850	1.0422459

transformer.layers.0.0.norm.bias f4 [36]
0	0x3db71636	0.08939783
1	0xbc3f41d9	-0.011673414
2	0xbc75d9a2	-0.015005501
3	0x3d4916bc	0.049093947
4	0x3d050638	0.032476634
5	0x3d44e610	0.048070967
6	0x3d0caa88	0.03434232
7	0x3d7ae432	0.06125278
8	0xbc83990e	-0.016064193
9	0x3cf18394	0.029481687
10	0x3c87d0f4	0.016579129
11	0xbd0cb65a	-0.03435359
12	0x3c729e4a	0.014808247
13	0xbc865086	-0.016395818
14	0xbd1d2405	-0.03836443
15	0x3d9e530c	0.07730684
16	0x3c0d3f09	0.008620986
17	0xbd298f76	-0.04139658
18	0xbcc3cb69	-0.023900704
19	0xbd171315	-0.036883432
20	0xbc41d140	-0.011829674
21	0xbd89cb4c	-0.06728229
22	0xbc948547	-0.018129958
23	0xbcc0ca9a	-0.023534108
24	0xba30f03b	-0.00067496643
25	0x3c821aa3	0.015881842
26	0x3c41b9fa	0.011824125
27	0xbcd20f2a	-0.025641996
28	0xbd1c0c64	-0.038097754
29	0xbc8c748d	-0.01714542
30	0x3ce6776b	0.028133115
31	0xbc81af6f	-0.015830724
32	0xbcde994a	-0.027172703
33	0xbcbca392	-0.023027215
34	0x3ba7588d	0.0051069916
35	0x3ccc8465	0.024965474

transformer.layers.0.0.fn.to_qkv.weight f4 [216, 36]
0	0xbe017776	-0.12643227
1	0x3db05058	0.08609074
2	0x3e1382bd	0.14405341
3	0xbe601da4	-0.21886307
4	0x3e2af57a	0.16695204
5	0xbe0639f3	-0.13108043
6	0x3cedd76b	0.029033383
7	0x3d20c346	0.039248727
8	0x3e9a9ffb	0.3020018
9	0x3e30a1c6	0.17249212
10	0xbe1a01cc	-0.15039748
11	0x3de93e85	0.11388878
12	0xbd909e06	-0.070613906
13	0xbdcc959b	-0.099894725
14	0x3b843494	0.004034588
15	0xbdac6fe5	-0.0841978
16	0xbcb4fab6	-0.022092205
17	0x3e02591a	0.12729302
18	0xbe094b76	-0.13407692
19	0x3929d810	0.00016197586
20	0x3db17d7b	0.086665116
21	0x3dbb23bb	0.091376744
22	0x3d6f025d	0.058351863
23	0x3d8c2ba1	0.06844259
24	0xbc9e3a69	-0.019314962
25	0xbd326781	-0.04355574
26	0xbd9cf0f7	-0.07663148
27	0x3e002556	0.12514243
28	0xbcf7ac88	-0.030233636
29	0x3da327a9	0.07966549
30	0xbc195e07	-0.009360797
31	0x3bb2665b	0.0054443306
32	0x3d6c7a72	0.05773396
33	0x3da38dcf	0.07986032
34	0xbe0b6320	-0.13612032
35	0x3da7efb6	0.08200018
36	0xbdf79445	-0.12088827
37	0x3decb461	0.11557842
38	0xbe85c094	-0.26123488
39	0x3d9d7ed2	0.07690205
40	0x3e17139d	0.14753576
41	0x3de93323	0.11386707
42	0xbda71790	-0.08158791
43	0xbdb15931	-0.0865959
44	0xbd0e3c34	-0.034725383
45	0xbe14e5d3	-0.14540796
46	0xbd255ecb	-0.040373605
47	0xbdbeaba8	-0.093100846
48	0xbdafc754	-0.08582941
49	0x3dfce710	0.12348759
50	0xbde4996b	-0.11162075
51	0x3de6b835	0.112656035
52	0x3de21f50	0.11041129
53	0x3c6dff71	0.014526234
54	0xbdadb992	-0.0848266
55	0xbdb5b908	-0.088731825
56	0x3e065c8b	0.1312124
57	0x3e13facf	0.14451145
58	0xbd66b45f	-0.05632436
59	0x3e491166	0.19635543
60	0x3e24e55f	0.16103123
61	0x3d7db78e	0.06194263
62	0xbc03b81e	-0.008039502
63	0x3d8fe8d2	0.07026829
64	0xbde39dbb	-0.11114069
65	0x3d77eccd	0.060528565
66	0x3dd5f6a9	0.10447437
67	0x3e30bb56	0.17258963
68	0x3d6e9085	0.058243293
69	0xbd4e3d92	-0.050351687
70	0x3dcb47aa	0.09925778
71	0x3c77accd	0.0151168825
72	0xbe12c940	-0.14334583
73	0x3d2053c3	0.03914238
74	0xbe511d22	-0.2042127
75	0xbd0d1ad2	-0.034449406
76	0xbc773adc	-0.015089717
77	0x3e0e0e1e	0.13872573
78	0x3dc133a2	0.09433676
79	0xbd2e752c	-0.042592213
80	0xbdc2b4c4	-0.095071346
81	0x3e190eef	0.14947103
82	0xbd820a0a	-0.06349571
83	0x3cd808a6	0.026371311
84	0xbc132070	-0.008979902
85	0xbe8f3858	-0.27972674
86	0x3e840ee4	0.2579261
87	0xbc3de3c5	-0.011589949
88	0xbd91f303	-0.07126429
89	0x3dc6a0ad	0.09698615
90	0xbe6d0236	-0.23145375
91	0xbdc6e34d	-0.09711323
92	0xbe2a7f9f	-0.16650246
93	0x3e719991	0.23593737
94	0xbdbe8f97	-0.09304731
95	0xbd70fa60	-0.058832526
96	0xbd33d07f	-0.04390001
97	0x3b8fabae	0.0043844795
98	0xbcf5f486	-0.030023824
99	0x3e3c88c8	0.18411553
100	0xbe16c01c	-0.14721721
101	0x3d3a6bb2	0.045512863
102	0x3e1d741d	0.15376325
103	0xbe01e3fe	-0.12684628
104	0x3e459d2b	0.19298236
105	0x3e71067c	0.2353763
106	0x3ba0be62	0.004905508
107	0x3e07ec9e	0.13273856
108	0xbb808322	-0.0039218822
109	0x3dcf3534	0.101175696
110	0x3cd5aa07	0.026082052
111	0xbdc3ab13	-0.09554114
112	0x3cdad968	0.026714996
113	0xbdc981ca	-0.098392084
114	0xbb1e93f2	-0.002419707
115	0xbdcc3017	-0.0997011
116	0xbdb82409	-0.08991248
117	0x3d97c6c2	0.07410957
118	0xbe418260	-0.1889739
119	0xbe273dce	-0.1633217
120	0xbdd42926	-0.10359411
121	0xbd978125	-0.07397679
122	0x3e00306c	0.12518471
123	0xbced43e6	-0.02896304
124	0xbcab5010	-0.0209122
125	0x3d93bca5	0.072137155
126	0xbdc6dcb1	-0.09710062
127	0x3b93ceed	0.0045107515
128	0xbdd490ec	-0.10379204
129	0x3e33b354	0.17548877
130	0x3d50500c	0.05085759
131	0xbe405387	-0.18781863
132	0x3e3aa0f9	0.18225469
133	0xbe040605	-0.12892921
134	0xbbc8244e	-0.0061078435
135	0x3e1cbfb9	0.15307511
136	0x3e30e423	0.17274527
137	0xbddb59c3	-0.1071048
138	0x3dabc130	0.08386457
139	0xbdf310c1	-0.1186843
140	0x3d6230b9	0.055222247
141	0x3e3ec014	0.1862796
142	0xbd86b2da	-0.06577082
143	0xbe229ab3	-0.15879326
144	0xbe1dab4f	-0.1539738
145	0x3d50eee0	0.05100906
146	0x3e721212	0.23639706
147	0xbe09f294	-0.13471442
148	0xbdd6779b	-0.10472032
149	0xbe1dea29	-0.15421356
150	0x3c05d393	0.008168119
151	0x3dc7a45f	0.09748148
152	0xbd9249a5	-0.07142953
153	0xbd1853c5	-0.037189264
154	0x3df5e8a6	0.12007265
155	0xbc553b2c	-0.013014596
156	0xbcbd18c7	-0.023083104
157	0xbcccc3a4	-0.024995632
158	0xba830185	-0.000999496
159	0xbe3879a2	-0.18015149
160	0xbe826947	-0.25470945
161	0x3e2d8a3e	0.16947266
162	0xbcf9ebdc	-0.030507974
163	0xbd6ec83e	-0.058296435
164	0x3e1d934f	0.15388225
165	0xbb5ebb94	-0.0033986317
166	0xbd8d49e4	-0.06898859
167	0x3bc4f9cd	0.006011224
168	0x3deac837	0.11463969
169	0xbe25bace	-0.16184542
170	0xbca6753e	-0.020319577
171	0x3d695824	0.056968823
172	0x3e4f2eb3	0.20232658
173	0xbe402d5b	-0.18767302
174	0x3cbc585f	0.022991357
175	0x3e183435	0.14863665
176	0xbd7f61c8	-0.06234911
177	0x3dd69a1c	0.10478613
178	0x3d719e58	0.0589889
179	0x3cf6b749	0.030116694
180	0x3e02e717	0.12783466
181	0x3b9866ed	0.0046509416
182	0xbe16aeb6	-0.14715084
183	0x3ccaa392	0.0247362
184	0x3d8a0260	0.06738734
185	0x3e15be5e	0.146234
186	0x3d3650af	0.04451054
187	0x3e3125c2	0.1729956
188	0xbdfc119d	-0.12308047
189	0x3e4fd9fa	0.20297995
190	0x3dd4084d	0.10353146
191	0xbbe660aa	-0.007030566
192	0x3dabc4cc	0.083871454
193	0xbda157cd	-0.07878075
194	0x3c7b6778	0.015344493
195	0x3de8f48b	0.11374768
196	0xbc5c87b2	-0.013460087
197	0xbe50cb0a	-0.20389953
198	0xbdb7daa2	-0.08977248
199	0xbe2a1ecb	-0.16613309
200	0x3d341590	0.043965876
201	0xbdb9e424	-0.090767175
202	0x3dabe924	0.083940774
203	0xbd85cd19	-0.0653326
204	0xbe1bf92d	-0.15231772
205	0x3d825bb7	0.063651495
206	0x39bd5110	0.00036109285
207	0x3e4453ec	0.19172639
208	0xbe6fb538	-0.23408973
209	0x3d1e81f2	0.038698144
210	0x3e2714ae	0.16316482
211	0xbd7b5b9d	-0.061366666
212	0xbd155245	-0.03645541
213	0xbdb0e4f0	-0.08637416
214	0x3e3b46b8	0.18288696
215	0x3d8a19ac	0.06743178
216	0x3d117633	0.035513114
217	0xbb90aba3	-0.004414992
218	0x3e37dc51	0.17955138
219	0xbc5a4760	-0.013322681
220	0x3da72520	0.08161378
221	0x3d3f549f	0.04671156
222	0x3dba811a	0.091066554
223	0x3c6d756c	0.014493328
224	0xbc802613	-0.015643155
225	0x3e46f086	0.1942769
226	0x3e2a81c5	0.16651066
227	0x3e02f675	0.12789328
228	0x3e491838	0.19638145
229	0xbe407642	-0.18795112
230	0xbd562503	-0.05228139
231	0xbbdfc9d0	-0.006829478
232	0xbe54ce22	-0.20781758
233	0xbdaffb71	-0.085928805
234	0x3e0c8d59	0.13725795
235	0x3d83e336	0.064398214
236	0x3ba40e28	0.0050065704
237	0x3da7b347	0.08188491
238	0xbd8356cb	-0.06413039
239	0xbd3072a7	-0.04307809
240	0xbdd3cd2b	-0.10341867
241	0xbe7058f5	-0.23471434
242	0xbcff8abd	-0.031194085
243	0x3d44bff0	0.04803461
244	0xbdf6524a	-0.12027414
245	0x3e318af2	0.1733816
246	0x3ccc0cfa	0.024908531
247	0xbca56e12	-0.020194087
248	0x3e094372	0.13404635
249	0x3e33eacf	0.17570041
250	0x3e47fd23	0.19530158
251	0xbd1191eb	-0.03553955
252	0x3e1c5e6e	0.15270397
253	0xbdf4d572	-0.11954774
254	0xbe8b289b	-0.27179417
255	0x3e195ff7	0.14978014

transformer.layers.0.0.fn.to_out.0.weight f4 [36, 72]
0	0xbd96610b	-0.07342728
1	0x3cc683ee	0.02423283
2	0x3d3838b1	0.04497594
3	0xbd86700c	-0.0656434
4	0x3b9bae46	0.0047509996
5	0x3da4aa4b	0.08040293
6	0x3defeb7a	0.117148355
7	0xbdc39e76	-0.095517084
8	0xbda00c25	-0.078148164
9	0x3e0e4390	0.1389296
10	0xbe4a9f8c	-0.19787425
11	0x3b8652e2	0.004099236
12	0x3e146ece	0.14495394
13	0xbd678764	-0.056525603
14	0xbe095c5b	-0.13414137
15	0x3d12cea8	0.035841614
16	0xbdd61f86	-0.10455231
17	0xbd9fee85	-0.07809166
18	0x3b5985b9	0.0033191277
19	0xbd8a079d	-0.06739733
20	0xbe0494c7	-0.12947379
21	0x3e0de171	0.1385553
22	0x3d749ad0	0.059717953
23	0x3dbf71f3	0.09347906
24	0xbccad225	-0.024758408
25	0x3d60d51b	0.054890733
26	0xbc041742	-0.008062186
27	0x3d469986	0.048486255
28	0x3ce64c40	0.02811253
29	0xbd0a24e4	-0.033726588
30	0x3c43ac76	0.011942973
31	0x3e01fab5	0.12693293
32	0xbd9dec4d	-0.077110864
33	0x3d77d093	0.060501646
34	0xbd5d3699	-0.054007147
35	0xbe29fe5f	-0.16600941
36	0xbcc706fa	-0.024295319
37	0x3d9da53a	0.0769753
38	0x3d1d2707	0.038367298
39	0xbe25d47a	-0.16194335
40	0xbdd68309	-0.10474212
41	0x3e0860fa	0.13318244
42	0xbdec1546	-0.11527495
43	0x3d77f71f	0.060538407
44	0xbd6967fd	-0.056983937
45	0x3dadd6c9	0.08488233
46	0xbdd9e73e	-0.10639809
47	0x3d8c0d89	0.06838519
48	0xbd873486	-0.06601815
49	0xbd5f681e	-0.054542653
50	0xbd0fb6ab	-0.035086315
51	0x3daf9deb	0.08575042
52	0x3d66e88a	0.05637411
53	0x3daa9f3d	0.083311535
54	0x3d4ba776	0.04972025
55	0x3b3ce562	0.0028823246
56	0x3d7961b2	0.060884185
57	0x3cd14394	0.02554492
58	0x3ddacbd9	0.10683412
59	0x3dcb8ebb	0.09939333
60	0xbe0bcdc6	-0.13652715
61	0x3d964d47	0.07338958
62	0xbdb1aa98	-0.08675116
63	0x3dd0a8d3	0.10188451
64	0xbccaaa25	-0.024739334
65	0x3c34163f	0.010991632
66	0xbdd367b9	-0.10322518
67	0x3c3d53ec	0.011555653
68	0x3df225df	0.118236296
69	0xbcbee695	-0.02330331
70	0x3d842b23	0.0645354
71	0xbd5e4cd8	-0.054272503
72	0xbdc646ac	-0.09681448
73	0xbdce1d38	-0.10064167
74	0x3d8a5778	0.067549646
75	0x3e0a02ea	0.13477674
76	0x3bf63c18	0.007514488
77	0x3dbeee84	0.09322837
78	0xbbf09382	-0.007341803
79	0xbdce5363	-0.100744985
80	0xbdad546e	-0.08463369
81	0xbcb3d653	-0.021952784
82	0xbd9cd1f6	-0.07657234
83	0xbd729d1d	-0.059231866
84	0xbe32d678	-0.17464626
85	0x3d71845b	0.058964115
86	0xbd03c5fd	-0.03217124
87	0x3e194595	0.1496795
88	0x3dc34f49	0.09536607
89	0xbd0a78d3	-0.033806633
90	0xbd9403eb	-0.0722731
91	0xbd03b91e	-0.032158963
92	0x3dd55260	0.104161024
93	0x3d0c432e	0.034243755
94	0xbd0ef25c	-0.0348991
95	0xbde7cd26	-0.11318426
96	0x3d3b45c6	0.045720838
97	0x3d798333	0.060916137
98	0xbde11373	-0.10990038
99	0xbcf431cf	-0.029808907
100	0x3dd16df9	0.10226054
101	0xbd38a4a9	-0.045078907
102	0x3d5dd86b	0.05416147
103	0x3a97be8f	0.0011577177
104	0xbca1a783	-0.019733196
105	0x3d71589b	0.05892239
106	0x3dd5406a	0.10412677
107	0x3da3a633	0.07990684
108	0x3df1eb0c	0.1181241
109	0xbbe7d888	-0.007075373
110	0x3e14c64e	0.14528772
111	0x3e1989de	0.14993998
112	0xbe20a373	-0.15687351
113	0x3ddb0d2a	0.1069587
114	0xbdcadf69	-0.09905893
115	0x3b97fea2	0.004638509
116	0x3d88211a	0.066469386
117	0x3e3ad8f1	0.18246819
118	0x3d2b9ed4	0.041899517
119	0x3dc83f31	0.09777678
120	0xbd5ce05c	-0.053924903
121	0x3d5ffa40	0.054682016
122	0xbbbf017b	-0.005829034
123	0xbcd49928	-0.025951937
124	0x3d1515bc	0.03639768
125	0xbd2ed3f2	-0.042682596
126	0x3e18fb38	0.14939582
127	0x3e2c4856	0.16824469
128	0xbbb7ad19	-0.0056053516
129	0x3d96f01f	0.07370018
130	0xbd54137d	-0.051776398
131	0x3def204e	0.116760835
132	0xbb07d731	-0.002072763
133	0xbd21eb44	-0.039531007
134	0xbb4e51cb	-0.0031481858
135	0xbd3db437	-0.046314444
136	0x3d6f5d81	0.05843878
137	0x3d502ecb	0.050825875
138	0xbcfaadc3	-0.030600434
139	0x3dce0e32	0.10061301
140	0xbdf4e97a	-0.119585946
141	0xbd496b9e	-0.049174897
142	0x3d701bff	0.05862045
143	0xbdfb2a57	-0.12263935
144	0x3df4c0d2	0.1195084
145	0x3d7effac	0.062255546
146	0xbe0e3690	-0.13888001
147	0xbd29ed93	-0.041486334
148	0x3c9f109c	0.0194171
149	0xbba4fe4b	-0.005035197
150	0x3e3dea17	0.1854633
151	0xbc73ba7b	-0.014876003
152	0x3d5b1cbb	0.053494196
153	0xbad2ea95	-0.0016091639
154	0x3dd15d1e	0.10222839
155	0xbe36be55	-0.17846043
156	0xbd34e97c	-0.04416798
157	0x3dbedcb0	0.093194366
158	0x3e0a222a	0.13489595
159	0x3cee7181	0.029106857
160	0x3d46c350	0.04852611
161	0xbd280f53	-0.04103024
162	0x3e144987	0.14481173
163	0xbdab9838	-0.08378643
164	0xbdf9e520	-0.12201905
165	0xbe0ed160	-0.13947058
166	0x3baafe9c	0.00521834
167	0x3d61d8d8	0.05513844
168	0xbc495c0f	-0.012290015
169	0x3e16cd3d	0.1472673
170	0xbdc0227f	-0.093815796
171	0x3e1a75bc	0.15083975
172	0xbdbe9a01	-0.09306718
173	0x3d67552e	0.056477718
174	0x3d4a27aa	0.049354233
175	0xbdc8b475	-0.098000444
176	0xbe4559e8	-0.19272578
177	0xbd485fdf	-0.048919555
178	0xbc55ff63	-0.013061377
179	0x3e443ba4	0.19163376
180	0x3d149f4e	0.036284737
181	0xbe40c803	-0.18826298
182	0x3c528943	0.012850109
183	0x3a37e083	0.0007014351
184	0xbd975342	-0.07388927
185	0x3ceb9e4d	0.028762007
186	0xbd3eb5c3	-0.04656006
187	0x3b5efb54	0.0034024315
188	0xbe12a16d	-0.14319392
189	0x3c131b59	0.008978688
190	0x3d499ec2	0.04922367
191	0x3e0db07e	0.13836858
192	0x3e171ca5	0.14757021
193	0xbcbf7bb9	-0.023374425
194	0x3d9e7494	0.07737079
195	0x3d5b40ad	0.053528477
196	0xbe0ab609	-0.13546003
197	0x3cd53aca	0.02602901
198	0xbe3ed7ae	-0.18636963
199	0x3c0839a6	0.008314526
200	0xba71f3f3	-0.00092297717
201	0x3dab1557	0.083536796
202	0xbd2f3418	-0.04277429
203	0xbd22d094	-0.039749697
204	0xbd578742	-0.052619226
205	0x3c34087a	0.010988349
206	0xbc67cd34	-0.014148045
207	0xbe1a86d5	-0.15090497
208	0xbc55b4dd	-0.013043609
209	0xbb6c2990	-0.0036035515
210	0xbdd59534	-0.10428849
211	0x3dfc4a76	0.1231889
212	0x3d2178f1	0.03942198
213	0xbdeef1f8	-0.116672456
214	0x3d9d26e1	0.07673431
215	0x3e1e2a09	0.15445723
216	0xbdad5b33	-0.084646605
217	0x3d56381b	0.0522996
218	0x3c12dc0b	0.008963595
219	0xbda5bf99	-0.08093185
220	0x3d5e7b9d	0.054317106
221	0x3bddbdf5	0.0067670294
222	0xbddb9dd0	-0.1072346
223	0x3b76e830	0.0037675016
224	0x3c476e33	0.01217227
225	0xbe10d742	-0.14144614
226	0xbdc36990	-0.09541619
227	0x3dc5bbba	0.096549466
228	0x3de53144	0.11191037
229	0x3bedc8c4	0.007256599
230	0x3d1a8d6d	0.03773253
231	0x3dbfdd27	0.09368353
232	0xbd635170	-0.055497587
233	0x3dfdb1a3	0.12387397
234	0xbdd8719e	-0.10568546
235	0x3d92e160	0.07171893
236	0x3e049207	0.1294633
237	0x3c9894cf	0.018625645
238	0xbe304835	-0.17215045
239	0x3d56318e	0.052293353
240	0x3e00e131	0.12585904
241	0x3d0c06d8	0.034186214
242	0x3d9245bd	0.07142208
243	0xbdfbaa49	-0.12288339
244	0x3d5c410a	0.053772964
245	0xbd7c4c4b	-0.061596196
246	0xbd9c31f9	-0.07626719
247	0xbd2f3b9f	-0.04278147
248	0xbd6597fd	-0.05605315
249	0x3d96b66f	0.07359015
250	0xbe043ef6	-0.12914643
251	0xbbc5a34b	-0.006031429
252	0xbe34a186	-0.17639741
253	0xbd86544f	-0.06559049
254	0xbd9525c2	-0.07282592
255	0xbdb0ffee	-0.08642565

transformer.layers.0.0.fn.to_out.0.bias f4 [36]
0	0x3ddf2988	0.10896593
1	0x3d441ff4	0.047882035
2	0xbdbe958a	-0.09305866
3	0xbde4b6eb	-0.11167701
4	0x3d3cbe36	0.046079837
5	0xbd110579	-0.03540561
6	0xbd278e2c	-0.04090707
7	0xbbc70462	-0.0060735205
8	0xbd837dee	-0.064205036
9	0xbdaa0fda	-0.08303805
10	0x3c4f2a1c	0.012644317
11	0xbdd1c9b9	-0.10243554
12	0x3db6cef3	0.08926191
13	0xbcd054f8	-0.025431141
14	0x3cb50bb0	0.0221003
15	0x3cffaa7f	0.031209229
16	0xbdd88c57	-0.10573643
17	0xbd149168	-0.036271483
18	0x3db1cd05	0.086816825
19	0x3d97193f	0.07377862
20	0x3cabded8	0.020980284
21	0xbd14d084	-0.03633167
22	0x3bd74434	0.0065694097
23	0xbdd6e23f	-0.10492372
24	0x3d802d30	0.06258619
25	0xbd8f1cec	-0.06987938
26	0xbc718304	-0.014740709
27	0x3dcd9227	0.10037642
28	0x3cbb170f	0.022838144
29	0x3d068b1a	0.0328475
30	0x3da954db	0.08268138
31	0x3d8587cd	0.065200426
32	0xbda60931	-0.08107222
33	0x3df9625f	0.12176966
34	0xbb783ac3	-0.0037876822
35	0xbd855e08	-0.06512076

transformer.layers.0.1.norm.weight f4 [36]
0	0x3f83663a	1.0265572
1	0x3f8302eb	1.0235265
2	0x3f839677	1.0280293
3	0x3f8395b0	1.0280056
4	0x3f7859dc	0.97012115
5	0x3f6cdb32	0.92521966
6	0x3f758277	0.959022
7	0x3f7ca82d	0.98694116
8	0x3f804566	1.0021179
9	0x3f79d439	0.9758945
10	0x3f8a7802	1.0817873
11	0x3f7f7682	0.99790204
12	0x3f893bf7	1.0721425
13	0x3f844eec	1.0336585
14	0x3f821fd5	1.0165964
15	0x3f808585	1.0040747
16	0x3f84da91	1.0379201
17	0x3f8283cf	1.0196475
18	0x3f89509d	1.0727726
19	0x3f7d985a	0.99060595
20	0x3f816ca4	1.011128
21	0x3f7ba13a	0.9829289
22	0x3f7da9cb	0.9908721
23	0x3f70dd62	0.94087803
24	0x3f79923c	0.9748876
25	0x3f6f90e5	0.93580467
26	0x3f7f94b0	0.99836254
27	0x3f8c2e26	1.0951583
28	0x3f85f422	1.0465128
29	0x3f90d153	1.1313881
30	0x3f8a749b	1.0816835
31	0x3f7e0b31	0.99235827
32	0x3f889bc9	1.0672542
33	0x3f826c61	1.0189325
34	0x3f7b6bb0	0.98211193
35	0x3f7665b6	0.9624895

transformer.layers.0.1.norm.bias f4 [36]
0	0x3d1519de	0.036401622
1	0xbc87810f	-0.016541032
2	0x3ba8381c	0.005133642
3	0x3b1b88c6	0.0023732646
4	0x3cb925ac	0.022600971
5	0x3d3f09d3	0.04664023
6	0x3d6d1033	0.057876777
7	0x3d62b1f9	0.05534551
8	0x3a4dfd6a	0.0007857891
9	0x3d29ca0c	0.041452453
10	0xbc96fff8	-0.018432602
11	0xbcc6eb4b	-0.024282118
12	0xbcbd6884	-0.023121126
13	0xbcac0717	-0.020999474
14	0x3d5d9d54	0.054105118
15	0x3ce793d1	0.028268727
16	0x3d489a8b	0.04897551
17	0xbd852266	-0.065007016
18	0x3bf6100f	0.0075092386
19	0xbbbb1a5b	-0.005709929
20	0xbc95a96d	-0.018269265
21	0x3ce66cd3	0.028128063
22	0xbd2d86ca	-0.042364873
23	0xbd354d08	-0.044262916
24	0xbd4e629a	-0.050387003
25	0x3c1874d6	0.0093052
26	0xbdc1df0c	-0.09466371
27	0x3c5400b5	0.012939622
28	0xbd00ef7a	-0.031478383
29	0x3ce5954e	0.028025296
30	0x3d4e30a3	0.050339352
31	0xbd0b2792	-0.033973284
32	0x3c54942a	0.012974778
33	0x3d23ee14	0.04002197
34	0x3d0c6d12	0.034283705
35	0x3d0894ed	0.03334515

transformer.layers.0.1.fn.net.0.weight f4 [72, 36]
0	0x3dbcb6db	0.092145644
1	0x3dabd7a4	0.083907396
2	0x3d875e91	0.06609834
3	0x3deda51a	0.11603756
4	0x3dc87b6b	0.09789165
5	0xbd167d15	-0.03674038
6	0x3e244e6b	0.16045539
7	0xbd60690c	-0.05478768
8	0xbd64278d	-0.05570178
9	0x3e0166d1	0.12636878
10	0xbdad33e8	-0.08457166
11	0x3cdb011a	0.026733924
12	0x3e166ed6	0.14690718
13	0xbc256afc	-0.010096308
14	0xbe1a51fe	-0.1507034
15	0xbe1779ba	-0.14792529
16	0x3d61efb7	0.05516025
17	0xbd65f267	-0.056139376
18	0xbe29a780	-0.16567802
19	0x3de710c4	0.11282495
20	0xbc610f9f	-0.0137366345
21	0x3c523dba	0.0128321
22	0xbc6fcab0	-0.014635727
23	0xbcf9f772	-0.030513499
24	0x3e06888b	0.13138025
25	0x3be032ca	0.006841992
26	0x3db402d6	0.087896034
27	0x3e2235f1	0.1584089
28	0x3e03e5b4	0.12880594
29	0x3e4a9cf6	0.19786438
30	0xbdbc146f	-0.09183585
31	0x3ba1a8cf	0.0049334536
32	0x3e166ffe	0.14691159
33	0x3dd41ef6	0.10357468
34	0xbca75629	-0.020426827
35	0x3c65b7ee	0.014020903
36	0x3d76d772	0.06026406
37	0xbdf37642	-0.1188779
38	0xbdf86a35	-0.121296324
39	0xbe352484	-0.17689711
40	0xbd91776e	-0.071028575
41	0xbe1858da	-0.14877644
42	0x3cec4416	0.02884106
43	0xbd0b7d45	-0.034055013
44	0x3d8769f0	0.06612003
45	0x3bf6e63c	0.0075347703
46	0x3ad5e728	0.00163195
47	0x3d8d677c	0.06904504
48	0xbdb767bf	-0.08955335
49	0x3c18accc	0.009318542
50	0xbd8223f9	-0.063545175
51	0x3d1b9127	0.037980225
52	0x3db86d20	0.09005189
53	0xbe06cb11	-0.13163401
54	0x3ddd5994	0.10808101
55	0xbdf02c0e	-0.11727153
56	0xbd9e3d09	-0.07726485
57	0xbdeb9f6f	-0.11505019
58	0x3d287476	0.04112669
59	0xbe0ce784	-0.13760191
60	0xbd6ed9fb	-0.05831335
61	0x3db2a263	0.08722379
62	0x3e3e3298	0.18573987
63	0xbd2e6936	-0.042580806
64	0x3e0ffcbb	0.14061253
65	0x3c6384e9	0.013886669
66	0xbbb23112	-0.0054379785
67	0x3e2f6a64	0.17130429
68	0xbdba4fc1	-0.09097243
69	0xbc935495	-0.017984668
70	0x3df858b8	0.12126297
71	0xbc4ca06a	-0.012489418
72	0x3ba87d6e	0.0051419055
73	0x3cd8e20a	0.026474971
74	0xbccfbb99	-0.025358008
75	0xbe51c013	-0.20483427
76	0xbd4f6413	-0.050632548
77	0x3a4a061a	0.00077065977
78	0xbe3a7545	-0.18208797
79	0x3dc40979	0.09572119
80	0x3c13dde8	0.009025075
81	0xbd15d2f0	-0.03657812
82	0x3e33723b	0.17524044
83	0xbc6ca016	-0.014442464
84	0x3e326da4	0.17424637
85	0x3b2a7741	0.0026011022
86	0x3e1797da	0.1480402
87	0xbdcf5cdc	-0.101251334
88	0x3c3b632c	0.011437219
89	0xbe14ed4b	-0.14543645
90	0xbdb1c8d3	-0.08680882
91	0xbe11fd30	-0.1425674
92	0x3d4b3e8c	0.049620196
93	0xbd9e9139	-0.07742543
94	0xbe2428e8	-0.1603123
95	0xbdaed4aa	-0.08536656
96	0xb8fda009	-0.00012093789
97	0x3e02c243	0.12769417
98	0x3d870b0f	0.06593906
99	0xbdac48c3	-0.08412316
100	0xbe1435f0	-0.144737
101	0xbcd94575	-0.026522378
102	0x3e177374	0.14790136
103	0xbe1d2a0f	-0.15348075
104	0x3dc0a04f	0.094055764
105	0xbe071386	-0.13191041
106	0xbd523f68	-0.05133
107	0xbe238984	-0.15970427
108	0x3dbfb31f	0.093603365
109	0xbddef253	-0.108860634
110	0xbde0b936	-0.10972826
111	0x3d40dc62	0.047085173
112	0x3d426747	0.047461774
113	0x3dfdc0ce	0.1239029
114	0x3daafb34	0.083486944
115	0x3e41e3df	0.18934582
116	0x3e2c56d0	0.16829991
117	0xbda54670	-0.080700755
118	0xbddb22b6	-0.1069998
119	0x3dc9a1ab	0.09845289
120	0xbdab17b4	-0.083541304
121	0xba8bf7be	-0.0010678691
122	0x3d99eef3	0.07516279
123	0x3b8249f9	0.0039761034
124	0xbd0615fd	-0.032735813
125	0x3e145774	0.14486486
126	0xbd0298c3	-0.031883966
127	0xbcbfa620	-0.023394644
128	0x3e12e7ac	0.14346188
129	0x3d3ce315	0.046115
130	0xbd9870b6	-0.07443373
131	0xbc9be1c8	-0.01902856
132	0x3e36bd42	0.17845634
133	0x3db35862	0.08757092
134	0xbd8a10d1	-0.06741489
135	0xbe4c7a3a	-0.199685
136	0x3d0e2b23	0.034709107
137	0x3d274ff3	0.04084773
138	0x3dbd867d	0.09254167
139	0xbe437cbd	-0.19090553
140	0xbc84574c	-0.016154908
141	0xbca01d72	-0.01954529
142	0xbbcc354b	-0.006231939
143	0xbc374636	-0.011186173
144	0x3ce92a2d	0.028462494
145	0xbcf32203	-0.029679304
146	0xbbf2bbdc	-0.0074076485
147	0x3dbf1181	0.093295105
148	0x3dcdacdf	0.10042738
149	0x3d9ecad0	0.07753527
150	0xbdcfd869	-0.10148699
151	0x3e1da648	0.15395463
152	0xbcd34c21	-0.025793137
153	0xbd64aafd	-0.05582713
154	0xbd918088	-0.071045935
155	0x3e0b3eb2	0.13598135
156	0x3d311213	0.043230128
157	0x3ccd3c99	0.02505331
158	0x3d22a2b2	0.03970594
159	0xbd127916	-0.035760008
160	0x3d4c8ff9	0.04994199
161	0x3cc58b7e	0.024114367
162	0xbd087817	-0.03331765
163	0xb809655c	-3.2757744e-05
164	0x3d84ca51	0.06483901
165	0x3d8e0c65	0.06935958
166	0x3bc8db5d	0.0061296658
167	0xbdd32e5b	-0.10311576
168	0x3ca5e287	0.020249618
169	0x3daebe9f	0.08532452
170	0x3d316d01	0.043316845
171	0x3dd40aa8	0.10353595
172	0xbde02967	-0.10945397
173	0xbe1e46ff	-0.1545677
174	0x3db5bcc2	0.08873893
175	0xbd827805	-0.06370548
176	0xbd0fcf5e	-0.03510987
177	0xbd6a9a67	-0.057276156
178	0x3da21347	0.07913833
179	0x3e252d99	0.16130675
180	0xbcbeb2ed	-0.023278678
181	0x3de3f424	0.111305505
182	0xbe4e7653	-0.20162325
183	0x3d94f787	0.072737746
184	0x3caca491	0.021074565
185	0x3cf160db	0.02946513
186	0x3d91cd3e	0.07119225
187	0xbb3bb3b9	-0.0028641059
188	0xbc5cd32a	-0.01347808
189	0xbda62a6b	-0.08113559
190	0x3e3ff6e2	0.18746522
191	0xbdbaf766	-0.09129219
192	0x3d010e5f	0.031507846
193	0x3d006beb	0.03135292
194	0xbcabffe9	-0.02099605
195	0x3d5dca08	0.05414775
196	0x3bf85c23	0.007579343
197	0x3cd96208	0.026536003
198	0xbb8de1d7	-0.0043299007
199	0xbdb6b04a	-0.08920343
200	0x3e580219	0.2109455
201	0xbe2bb86a	-0.16769567
202	0x3e2c5938	0.16830909
203	0xbe05ca4b	-0.1306545
204	0xbdcadd48	-0.09905487
205	0xbe0a6c95	-0.13517983
206	0x3d413f3d	0.04717945
207	0xbe5355ec	-0.20638245
208	0xbe3a2be2	-0.18180802
209	0x3dfe91e2	0.12430169
210	0x3dc840d0	0.09777987
211	0x3df3a8a1	0.11897398
212	0x3d86673f	0.065626614
213	0x3c971c06	0.01844598
214	0x3d8afc7e	0.0678644
215	0xbda4abec	-0.08040604
216	0xbd709fe5	-0.058746237
217	0xbdf5ea5a	-0.1200759
218	0x3d9acdbd	0.07558773
219	0x3b9b942e	0.004747889
220	0x3cad15d5	0.021128574
221	0xbe190c3b	-0.14946072
222	0xbd0a9f62	-0.033843406
223	0x3e098a4a	0.1343166
224	0xbe687b01	-0.22703172
225	0xbd95d748	-0.07316452
226	0x3e4b69b1	0.19864537
227	0xbb8aab97	-0.004231881
228	0x3e2b045e	0.16700885
229	0xbd737037	-0.05943319
230	0x3e7c8340	0.24659443
231	0x3dfd9e74	0.12383738
232	0xbdcfa007	-0.10137945
233	0xbc62e0c1	-0.013847531
234	0x3e2bee27	0.16790067
235	0xbd55cf44	-0.052199617
236	0x3ac6ce63	0.0015167709
237	0x3de24061	0.110474356
238	0x3cb7f3f2	0.02245519
239	0x3e00f66e	0.12594005
240	0xbd8d8a16	-0.069111034
241	0xbd9e0187	-0.07715135
242	0xbc126c39	-0.008936935
243	0xbe3458c7	-0.17611991
244	0xbe4312a4	-0.1905008
245	0x3b98dcca	0.004664992
246	0x3dc8b316	0.09799783
247	0x3db0d456	0.0863425
248	0x3d3fc6dd	0.04682051
249	0xbdbadd9d	-0.09124301
250	0xbe0d18b9	-0.13778962
251	0xbc1e5bfd	-0.009665486
252	0x3daec687	0.0853396
253	0x3cba6423	0.022752827
254	0x3e578b53	0.21049242
255	0x3d6de494	0.058079317

transformer.layers.0.1.fn.net.0.bias f4 [72]
0	0x3dd717d3	0.10502591
1	0x3cea3005	0.02858735
2	0xbd8b55ff	-0.06803512
3	0x3e10a330	0.14124751
4	0xbd9ee3a2	-0.07758261
5	0xbd7aa901	-0.06119633
6	0x3d29ddc0	0.041471243
7	0x3e259f4a	0.16174045
8	0x3bd0dd44	0.006374033
9	0x3db0a454	0.08625093
10	0xbd77b830	-0.06047839
11	0x3e030215	0.12793763
12	0x3dc88692	0.09791292
13	0x3ca4e4f6	0.020128708
14	0xbddff519	-0.109354205
15	0xbe0050ee	-0.12530872
16	0x3e03c5fe	0.12868497
17	0x3e325add	0.17417474
18	0xbdcb0a97	-0.09914129
19	0x3dc703a5	0.09717492
20	0xbe08fea6	-0.1337839
21	0x3dd50cf4	0.10402861
22	0x3e113226	0.14179286
23	0xbdf03f67	-0.11730843
24	0xbe350227	-0.17676602
25	0x3c1929fd	0.00934839
26	0x3dbe6e07	0.0929833
27	0x3d3ca330	0.046054065
28	0xbd740d52	-0.059583016
29	0x3e382b52	0.17985275
30	0xbd88721d	-0.066623904
31	0x3dead839	0.114670224
32	0xbdcebff8	-0.10095209
33	0x3dccf93a	0.10008474
34	0x3de51f4a	0.111876085
35	0x3d2be5b1	0.041967098
36	0x3d8fdd04	0.07024577
37	0x3e2b0ecb	0.16704862
38	0xbd834bae	-0.06410919
39	0xbdae6d48	-0.085169375
40	0xbcd17285	-0.025567302
41	0x3d9ff78e	0.07810889
42	0xbdd69515	-0.10477654
43	0x3dc38116	0.095461056
44	0xbe047007	-0.1293336
45	0x3db7f234	0.089817435
46	0x3df580c9	0.119874544
47	0xbe106160	-0.14099646
48	0xbd51b108	-0.05119422
49	0x3d8b39b9	0.06798119
50	0x3deef9e9	0.1166876
51	0x3e03f955	0.12888081
52	0x3d948e54	0.072537094
53	0x3dd6d0eb	0.10489067
54	0x3deb8142	0.11499263
55	0xbdfdf3bd	-0.12400005
56	0xbd7670d0	-0.06016618
57	0xbd8379c9	-0.06419713
58	0xbe2ced8b	-0.1688749
59	0xbde14b74	-0.1100072
60	0x3d10d45e	0.03535878
61	0x3d5a3813	0.053276133
62	0xbc5f6675	-0.0136352675
63	0xbdad23cf	-0.084540956
64	0xbdf9db28	-0.12200004
65	0x3e059615	0.13045533
66	0x3e13bc15	0.14427216
67	0xbda76455	-0.08173434
68	0xbd04659c	-0.032323465
69	0xbde23c13	-0.110466145
70	0x3bff0bde	0.007783397
71	0xbda0b498	-0.078469455

transformer.layers.0.1.fn.net.3.weight f4 [36, 72]
0	0x3da399bd	0.079883076
1	0x3d0da601	0.03458214
2	0xbdcb3694	-0.09922519
3	0xbc10acf6	-0.0088303
4	0xbcf8bc7d	-0.030363316
5	0x3de5bd76	0.112177774
6	0x3df6c4a7	0.12049227
7	0xbd80ee32	-0.06295432
8	0xbdc34297	-0.095341854
9	0x3ccaceee	0.024756875
10	0xbd6cca4e	-0.05781012
11	0xbba911b5	-0.0051595815
12	0xbd409236	-0.047014438
13	0xbdd96b36	-0.10616152
14	0x3d1fc9dc	0.039010867
15	0x3e465615	0.19368775
16	0xbd6e473b	-0.0581734
17	0x3e6869aa	0.22696558
18	0x3d908432	0.07056464
19	0x3e1c76d8	0.1527971
20	0xbc50303e	-0.012706814
21	0x3cd52b5b	0.02602165
22	0x3d0f59da	0.0349978
23	0x3c0246c1	0.007951439
24	0x3d3184b6	0.043339454
25	0x3e02226f	0.12708448
26	0x3dacf988	0.08446032
27	0x3d8c2df1	0.068447
28	0xbbd57e7b	-0.006515322
29	0x3bce02d0	0.0062869564
30	0x3dad1082	0.08450414
31	0xbdecdb7a	-0.11565299
32	0xbd4101d2	-0.047120877
33	0x3c50fa08	0.012754925
34	0x3de8d8e8	0.113694966
35	0x3a70fc6a	0.0009192886
36	0x3dd3307e	0.103119835
37	0x3d86c78b	0.065810286
38	0xbd9a07d4	-0.07521024
39	0x3db2dc42	0.08733417
40	0xbd31b8b1	-0.043389026
41	0x3d4c403e	0.049865954
42	0xbdec4849	-0.11537225
43	0xbd665deb	-0.05624191
44	0x3e011b15	0.12607987
45	0xbcaf1aac	-0.021375023
46	0x3d97a0de	0.0740373
47	0x3ddd7055	0.10812441
48	0x3d15d46d	0.036579538
49	0xbc96b952	-0.018398914
50	0x3db9258d	0.09040365
51	0xbddaf2d2	-0.106908455
52	0x3de3cc23	0.1112292
53	0x3d4720d4	0.04861529
54	0xbcc7b27a	-0.024377096
55	0xbbbaa003	-0.0056953444
56	0x3d33fe51	0.043943707
57	0xbd0f48d6	-0.03498157
58	0x3da156dc	0.07877895
59	0xbd6da914	-0.058022574
60	0x3d5bf3ed	0.053699423
61	0x3db5b6bf	0.08872747
62	0x3d83a707	0.06428342
63	0x3c8d5ea9	0.017257052
64	0x3d542a2a	0.051798023
65	0x3dcdc78f	0.100478284
66	0xbc6471f0	-0.01394318
67	0xbd23b8e7	-0.03997126
68	0x3cc30f1a	0.023810912
69	0xbdcc77f0	-0.09983814
70	0xbe2c8c22	-0.16850331
71	0xbe0776e6	-0.1322895
72	0x3dcfe824	0.10151699
73	0x3d8ed302	0.0697384
74	0xbdd45705	-0.1036816
75	0x3e067024	0.13128716
76	0x3c55f6cf	0.013059332
77	0xbcdd8ca9	-0.027044611
78	0xbd679dc4	-0.05654694
79	0xbd2f11c2	-0.042741545
80	0xbdafffaa	-0.08593686
81	0x3dca9457	0.09891575
82	0x3d380d9b	0.04493485
83	0xbdca3e6f	-0.098751895
84	0xbb8595c3	-0.004076691
85	0x3bc85bb1	0.006114446
86	0xbca8fff1	-0.020629855
87	0x3da61cd3	0.081109665
88	0x3da2dd16	0.07952325
89	0x3dc52479	0.09626097
90	0xbd9f51e9	-0.07779295
91	0xbbed2c7b	-0.0072379685
92	0xbda666b5	-0.081250586
93	0xbd99a3f2	-0.07501973
94	0x3d285646	0.0410979
95	0xbd9ca127	-0.07647925
96	0xbd888781	-0.0666647
97	0x3d7b8f58	0.061416
98	0x3ab4c72b	0.0013792267
99	0xbda935d3	-0.08262219
100	0x3d5f6b0c	0.054545447
101	0xbc05546f	-0.008137806
102	0xbd538444	-0.05163981
103	0xbd8ecb41	-0.06972361
104	0x3da0a9cd	0.07844887
105	0x3d9c3f21	0.076292284
106	0x3d9cc4d9	0.07654733
107	0xbcbf41f2	-0.023346875
108	0xbd142ee3	-0.036177527
109	0xbd1b3823	-0.037895333
110	0x3db8a3be	0.09015606
111	0x3dabf1c0	0.083957195
112	0xbda8bca9	-0.08239109
113	0xbd52d892	-0.05147607
114	0x3d456039	0.04818747
115	0x3d8bb5d9	0.06821794
116	0xbe00fc34	-0.12596208
117	0x3c63eb0a	0.013911018
118	0x3d845879	0.06462187
119	0x3dbf3b58	0.09337491
120	0xbe0a1dc4	-0.13487917
121	0x3dbdbcb5	0.09264509
122	0x3e1da489	0.15394796
123	0x3dc9666d	0.09833989
124	0xbcfdc68d	-0.030978465
125	0x3db038d3	0.08604588
126	0xbdae2a9e	-0.08504222
127	0xbd91abe3	-0.07112863
128	0x3d533258	0.051561683
129	0xbd371cb5	-0.04470511
130	0x3d828d0d	0.063745596
131	0xbd42cb7a	-0.04755733
132	0xbc1ff4ce	-0.009762956
133	0x3df999bd	0.121875264
134	0xba665320	-0.00087861903
135	0x3d33fa6a	0.043939985
136	0xbdcdef88	-0.100554526
137	0xbe1794fd	-0.14802928
138	0x3dfbf3d9	0.123023696
139	0x3dfe2dd9	0.124110885
140	0x3cbd7cfd	0.023130888
141	0xbdc4b6c5	-0.09605173
142	0xbbeb1c73	-0.0071750223
143	0x3bcbe340	0.0062221587
144	0x3dc4fb3a	0.0961823
145	0x3e309fa8	0.17248404
146	0x3e578ce3	0.21049838
147	0xbd1988c1	-0.037483934
148	0xbce0910c	-0.027412914
149	0xbd98d978	-0.07463354
150	0xbe331c8f	-0.17491363
151	0xbb7c2244	-0.0038472572
152	0x3d340e5a	0.043959
153	0x3c8b6670	0.01701662
154	0xbe1ed444	-0.1551066
155	0xbd636243	-0.05551363
156	0x3e0cd22c	0.13752049
157	0x3ac3016b	0.0014877742
158	0xbdac8f2b	-0.084257446
159	0xbdfc629f	-0.12323498
160	0xbd80f0f9	-0.06295962
161	0xbd83a08b	-0.064271055
162	0xbdbbd942	-0.09172298
163	0x3d9fda06	0.078052565
164	0x3d6dc118	0.058045477
165	0x3d25995d	0.04042946
166	0x3e85a45a	0.26101953
167	0xba346af8	-0.00068823947
168	0x3e029894	0.12753516
169	0x3d855f6d	0.06512342
170	0x3d55e140	0.05221677
171	0xbb6c0f30	-0.0036019795
172	0x3d8b9dcb	0.06817206
173	0x3d1b1419	0.037860963
174	0xbd730b27	-0.059336808
175	0x3dc3aeed	0.09554849
176	0x39926f52	0.0002793023
177	0xbba37014	-0.004987726
178	0x3d0f8c89	0.035046134
179	0xbdcbe284	-0.09955314
180	0xbce1b96a	-0.027554233
181	0x3db5853a	0.088633016
182	0x3ce266ee	0.027636971
183	0x3d3cfbfc	0.04613875
184	0xbda4578c	-0.08024511
185	0xbd7df970	-0.06200546
186	0xbe4d2b27	-0.20035993
187	0xbb824778	-0.003975805
188	0xbd63935b	-0.05556045
189	0xbd443448	-0.04790142
190	0xbe23de61	-0.160028
191	0xbdf9056e	-0.12159239
192	0x3dac8db8	0.08425468
193	0xbc6de5b3	-0.014520097
194	0xbce0ba8e	-0.027432706
195	0xbd93800b	-0.07202157
196	0xbe2eede0	-0.1708293
197	0x3e0050bf	0.12530802
198	0xbe113133	-0.14178924
199	0xbc53ba14	-0.012922782
200	0xbda4034a	-0.0800844
201	0xbbaf5a04	-0.005351307
202	0xbcaf0a58	-0.021367237
203	0x3cd533d8	0.026025698
204	0x3d6f645d	0.058445323
205	0xbe071825	-0.13192804
206	0x3de33687	0.11094385
207	0x3db7dcbb	0.08977648
208	0x3da15b55	0.07878748
209	0xbd8f2688	-0.06989771
210	0xbcd02274	-0.025407054
211	0x3df26eb3	0.118375205
212	0xbd9350f8	-0.07193178
213	0x3dc33073	0.09530725
214	0xbc97daea	-0.018537004
215	0x3c61259d	0.013741878
216	0x3d647f58	0.055785507
217	0x3d925087	0.071442656
218	0xbd639b9c	-0.055568323
219	0xbc8c0670	-0.017092913
220	0x3dd34768	0.10316354
221	0x3da143b0	0.078742385
222	0xbd989039	-0.07449383
223	0x3e4e1e55	0.20128758
224	0xbe046aa1	-0.129313
225	0xbdd77340	-0.10520029
226	0x3e13e4be	0.14442727
227	0xbd115a3d	-0.03548645
228	0xbcc70e7d	-0.0242989
229	0x3e21e0ab	0.1580836
230	0xbd7fa673	-0.062414598
231	0x3c505da8	0.012717642
232	0xbde908fa	-0.11378665
233	0x3d02d3aa	0.03194014
234	0x3e149422	0.14509633
235	0x3d3078b2	0.043083854
236	0xbd5c7457	-0.053821888
237	0xbc5849e3	-0.01320121
238	0x3d8a2393	0.067450665
239	0xbde52df9	-0.11190409
240	0x3da35d69	0.07976801
241	0xbdfa66f1	-0.12226666
242	0x3bdea43f	0.006794482
243	0xbcda08f7	-0.026615603
244	0xbb0fa840	-0.0021920353
245	0x3d3545fb	0.04425619
246	0xbd134857	-0.03595766
247	0xbcbdb8e4	-0.023159452
248	0xbd489458	-0.048969597
249	0x3dd2f7ca	0.10301168
250	0xbd70fe7a	-0.058836438
251	0x3d13a151	0.036042515
252	0xbc6fe060	-0.0146408975
253	0x3d3dbe7e	0.046324246
254	0x3d4565b4	0.048192695
255	0x3e3fd5ec	0.18733948

transformer.layers.0.1.fn.net.3.bias f4 [36]
0	0xbd050f23	-0.03248514
1	0x3dc2c3d1	0.09510005
2	0x3dced812	0.10099806
3	0x3dc3820f	0.09546291
4	0x3debf2dd	0.11520932
5	0x3df1e9b0	0.118121505
6	0x3d86690c	0.06563005
7	0x3de57541	0.11204005
8	0x3b3c0f3c	0.0028695604
9	0x3cfb9cd7	0.030714436
10	0x3c45b102	0.012066128
11	0xbe028a2c	-0.12748021
12	0x3daa3ad0	0.08311999
13	0xbdb5d0a3	-0.08877685
14	0x3d884ebd	0.06655643
15	0xbd6ae703	-0.057349216
16	0x3d802d27	0.06258612
17	0xbda6c4e5	-0.081430234
18	0x3dc1fa6c	0.09471592
19	0x3d5d681d	0.05405437
20	0x3c7d1ff8	0.0154495165
21	0x3ce9e84e	0.028553154
22	0x3a7a2251	0.00095418567
23	0xbd84f8e3	-0.06492784
24	0xbd55803c	-0.052124247
25	0x3d649365	0.05580463
26	0xbcc82ea9	-0.024436312
27	0x3d9bd12e	0.07608257
28	0x3d34c91d	0.04413711
29	0xbc9f0588	-0.019411817
30	0x3db34b07	0.08754545
31	0xba76ab8e	-0.0009409719
32	0x3d67bd01	0.056576733
33	0xbdd0aabc	-0.10188815
34	0x3dd739ad	0.10509048
35	0xbdba0748	-0.0908342
