ViT/ViT1/3 V train 0.972 V test 0.906 ABS 1/model_bestQ.pt (torch, 414407 bytes, 74 tensors)

pos_embedding f4 [1, 19, 36]
00000000: 2e82 8f3f 3964 4c3f d2ac f5bf d239 cdbf
00000010: 495b c03e 7067 4d3d b9e3 b6be 8f20 ddbf
00000020: c76f 933d 9bed 8fbf 256b 0f3e 0831 873b
00000030: b251 a8bf 574c abbe ee8e 70bf 3da6 b43f
00000040: 4d69 1a40 0871 7e3e 9fd3 47bf f261 c3be
00000050: 4151 093e db45 073f 310d bd3f 61d7 133f
00000060: 1537 efbf 5a45 a83f 8fa2 21bf 1d40 bbbf
00000070: 824a 953d 7dc7 3bbf 16c3 033f 5c9e 983f
00000080: c88f a4bf 42b6 9e3e 023a 7c3f 6c2f 3d3f
00000090: 03d9 1fbf 1888 cabe 8e1d 95be b8eb c33d
000000a0: 3dcf bb3e 1675 6fbf 68b6 b3bf 8c2b 17bf
000000b0: 370f 81bf 34a8 8b3e fb73 5d3f e87f ae3f
000000c0: 440a bbbf fc87 f1be 1561 67be 46c6 5bbf
000000d0: 4617 953f d591 53bf df86 d33e 5837 91bf
000000e0: 94bc 023e c382 9d3e fbb6 d1bf 9a44 18bd
000000f0: 4fe8 b63c 4b67 debe b067 e83e 9e00 27c0
00000100: 8367 75bf 88f5 8f3f ed03 f93f e430 ecbf
00000110: 19fa b2bf 695d 12bf b3ef 543e 0f76 e0be
00000120: 88bf 703f ec39 f23e a124 1a3f 35f7 493e
00000130: a92b 173f 2fce 0dbe 1e4b 343f 3a2b 1dbe
00000140: f2dc 583e 800b a4be a39e 623e e705 e6be
00000150: a125 8c3f 74d2 11c0 6f46 1d3f 4d34 08bf
00000160: e41c afbe ca3f 853f e745 3a3f 6997 b2be
00000170: faaa 903e cd75 283e ed6a 2bbf 0167 6fbf
00000180: 4a82 dc3e d432 5abe 1ead 7b3f 89a6 9abf
00000190: 9d50 83bf b2a7 23bf 3b7b 55be 8ded edbf
000001a0: e5c5 f83e 36a8 7d3f 446d 153e c431 f83f
000001b0: cab5 25be 4447 a8be 2061 0c3f fe81 fdbe
000001c0: 799a 7abe f788 65be 25fc 53bf 49f9 f2bf
000001d0: e842 223e a83d 2bbf bac5 e4be 8279 813e
000001e0: 50a6 263f 3eda 683f e03a 013f b5e1 15be
000001f0: f7f1 953e e110 04bf 70e6 95be a13b 583f
00000200: 0772 223d c4a1 953e 49c9 c7bf 22a5 503f
00000210: 9fe2 b73e 5f34 07bf ccb7 3d3f 4ee0 083f
00000220: 353d 02bf 1a91 b3be 28c4 9bbe 4803 1140
00000230: 3b6c 943e 95e4 b03f daa2 c53f d3a6 a93f
00000240: 9861 a23c 1bf2 903e 9d81 873e ee4a 94be
00000250: 4409 c63e db6b 30bf a82a 14bf 365f a23e
00000260: d132 d9be c066 48bf 3bd9 4cbf 46ee 97bf
00000270: 6d06 b3be c4a1 93be 4ade 77be 9d28 6fbf
00000280: 854c 693f 3a10 4ebe 658f a6be 21f9 d3bf
00000290: 0896 75bf 1605 cd3e a454 94bf 1767 423f
000002a0: 263a 3dbf daeb 2dbf af31 eabd 2314 543f
000002b0: 972a 173f 7f07 cabe 6495 013f 150e 0c3f
000002c0: 0214 b63c e6e8 7abe d32c 17be f43c c0be
000002d0: add3 75bf 149b 34bd ea14 4dbd b14d 9dbf
000002e0: 5517 98bf 92ca 903e 39ad 613f df65 8bbf
000002f0: 3f82 bcbf c438 0b3f e794 53be b87f fc3e
00000300: 53ae 29be ccd8 7abd ce1a 9ebf ce76 a43f
00000310: 21e8 213f fbfa 833f 05c0 0fbf b6e7 e5be
00000320: b27e cf3f 42c6 33bf 1710 c03f 6a0b e13f
00000330: ab2a 9ebf 09ca 8dbf 65f6 fa3e 2882 983e
00000340: 3128 11bf c1d2 dd3d 4187 0fbf 89e0 a03e
00000350: c0cf 8c3f e5d5 0a3f f83f 693f 08b4 99bf
00000360: 92ef 17be f114 393f 56e5 25be 85f9 da3d
00000370: f60e a9bf d27f be3e fbdc fe3e 159d 7e3e
00000380: 6bc2 92bf 15b1 463f 6606 1c3f 9700 1240
00000390: c358 f43d 9a59 be3f 2107 a6bd 4723 11bf
000003a0: 0dd9 fd3d c4ff 113f 90e6 0d3e 0b61 753f
000003b0: 39f7 08bf 3244 9c3f 52be 08c0 bdce ae3f
000003c0: 1d41 f13e a9e7 c13f 84f2 5a3f 4f6a 8cbf
000003d0: ea74 1a3f 124b 9dbf 12b5 8cbe 8d83 c7bd
000003e0: dd55 c3bf ef08 a0be adff 1040 0788 15bf
000003f0: 0ff6 5cbe ff4b 983f 4bc2 83be 26d2 693f
1.1211603 0.7984043 -1.9193366 -1.603327 0.37569645 0.050147474 -0.35720614 -1.7275561
0.07199054 -1.1244386 0.14005716 0.004125718 -1.3149931 -0.3345668 -0.93968093 1.4113232
2.412677 0.24847806 -0.78057283 -0.38160664 0.13409902 0.52840966 1.4769651 0.5775052
-1.8688685 1.3146164 -0.6313867 -1.4628941 0.07289602 -0.7335127 0.5146955 1.1923327
-1.2856379 0.30998427 0.9852601 0.73900485 -0.6244051 -0.39556956 -0.2912411 0.09566444
0.36681548 -0.93538034 -1.4040041 -0.5905082 -1.0082768 0.27276766 0.865051 1.3632784
-1.4612508 -0.4717406 -0.22595628 -0.85849416 1.1647727 -0.826444 0.41313836 -1.1345015
0.1276725 0.30763826 -1.6383966 -0.0371748 0.02232757 -0.4343818 0.45391607 -2.6094127
-0.9586107 1.1246805 1.9454323 -1.845242 -1.3982574 -0.5717378 0.20794563 -0.43840072
0.94042253 0.47309816 0.6021214 0.19723208 0.59050995 -0.13848184 0.7042712 -0.15348521
0.21178034 -0.32040024 0.22130828 -0.44926378 1.0948983 -2.27847 0.614356 -0.53204805
-0.3420173 1.0410092 0.7276291 -0.34881142 0.28255445 0.16451187 -0.6696003 -0.93516546
0.43068153 -0.21308452 0.9831103 -1.2082072 -1.0258976 -0.6392776 -0.2084779 -1.858812
0.48588482 0.99084795 0.14592463 1.9390187 -0.16182628 -0.3286687 0.548357 -0.4951324
-0.24472989 -0.22415529 -0.8280662 -1.8982326 0.15845835 -0.66890955 -0.44682103 0.25288016
0.6509752 0.9095801 0.5048046 -0.14636882 0.29286167 -0.51588255 -0.29277372 0.84465986
0.039659526 0.2922498 -1.5608302 0.8150197 0.35915086 -0.52814287 0.74108577 0.5346726
-0.50874645 -0.3507164 -0.30423093 2.2658253 0.28988823 1.3819758 1.5440323 1.3254036
0.019821927 0.28309712 0.26466075 -0.28963417 0.38678944 -0.68914574 -0.5787759 0.31713265
-0.42421582 -0.78281784 -0.8001897 -1.186959 -0.3496584 -0.28834355 -0.2420589 -0.93421346
0.91132385 -0.20123377 -0.32531276 -1.6560403 -0.95932055 0.40042943 -1.158833 0.7593855
-0.7391685 -0.67938006 -0.11435258 0.82843226 0.5904936 -0.39458844 0.50618577 0.5470899
0.022226337 -0.24502906 -0.14763193 -0.37546504 -0.96026117 -0.044093207 -0.050068773 -1.2289335
-1.188212 0.2827955 0.8815494 -1.0890464 -1.4727248 0.5438349 -0.2066227 0.49316192
-0.16570406 -0.06124191 -1.235193 1.2848756 0.63244826 1.0310968 -0.56152374 -0.44903344
1.6210539 -0.7022439 1.500491 1.7581608 -1.2356771 -1.1077281 0.4901611 0.297868
-0.5670195 0.10831214 -0.56065756 0.31421307 1.10009 0.5423263 0.91113234 -1.2008066
-0.14837483 0.7229758 -0.16200766 0.10692123 -1.3207691 0.37206894 0.4977797 0.2486461
-1.1465582 0.77613956 0.60947263 2.281286 0.119309925 1.4871094 -0.081068285 -0.56694454
0.12394915 0.5703089 0.13857484 0.958512 -0.5350223 1.2208312 -2.1366162 1.3656842
0.4711999 1.5148822 0.855263 -1.0969943 0.60334647 -1.2288535 -0.27481896 -0.09741888
-1.5260578 -0.31256816 2.2656052 -0.58410686 -0.21578239 1.1898192 -0.2573417 0.91336286

cls_token f4 [1, 1, 36]
00000000: 4b7c ddbe 530c 94be 57b6 c83f 418c d7bf
00000010: e6b3 f0bc 824b efbf 5889 1bc0 ecbc a03e
00000020: af22 fdbd b848 6b3f 6459 e9bf a022 9b3d
00000030: 9a66 dd3d 7429 03c0 adc5 243f bbce 943f
00000040: c2b5 3d3f ff5c cb3f 95dd 523f 0a56 823f
00000050: 3e2d cdbe 1bbf 3ebf 8c52 1b3f 45e4 d2be
00000060: 3d00 55bf e38b 5bbf 3e2f 97bf 2bf6 e9be
00000070: 19de debe 1e0d 283f dcb7 5cbf 94b9 62be
00000080: 20a8 063e 4115 483f 1894 d1bd 3838 ebbf
-0.4325889 -0.28915653 1.5680646 -1.6839677 -0.029382657 -1.8694918 -2.4302578 0.31394136
-0.12360131 0.91907835 -1.8230405 0.075749636 0.10810585 -2.049405 0.6436413 1.1625589
0.74105465 1.5887755 0.8236936 1.0182507 -0.4007358 -0.74510354 0.6067283 -0.4118978
-0.8320349 -0.85760325 -1.1811292 -0.45695624 -0.43528822 0.65645015 -0.8621805 -0.22141105
0.13150072 0.7815743 -0.10233325 -1.8376532

to_patch_embedding.1.weight f4 [36, 12]
00000000: e798 52be a446 ca3d 6283 913e 1607 f63d
00000010: 6c0e 653d 9df3 30be dfaa e63d d589 333c
00000020: 52d1 4e3e 0ffe 80be 1157 b7bd f24e 953e
00000030: 70e3 21bd 6465 233e d60d 1fbe 2b94 dfbc
00000040: 31e4 203d acf9 8fbe 9313 0b3e d89c 943e
00000050: 2662 12be 58d2 63be 2833 83be 8215 673e
00000060: 1fe2 2c3e de5f 4cbe c399 553d d4b5 a23d
00000070: 745f 0c3e ab42 153e d442 fe3b 53fa 633d
00000080: a470 8e3e b710 2fbe 0582 b8bd 38ea 7bbe
00000090: 9617 253e 8391 4e3d 93a1 85be 091c ce3d
000000a0: 159e 623e 1f56 b53c 4d9f 14be ae71 41be
000000b0: 88ea 0fbd d1e7 753e d772 23be 141d 5f3e
000000c0: ad01 0f3e 8e34 08be 7d62 7bbc bf5c c9bd
000000d0: c1ad 933d 17a2 b2bd 87ac b83d 7f7d af3d
000000e0: 4ea3 f6bc ad38 86be 4030 58be 160d 99be
000000f0: 4c6e 293d f0d3 26be 7450 4a3e 4a54 893d
00000100: 3446 9fb9 5329 803e 10e4 50be 07b5 efbc
00000110: a963 64be 96f7 8fbe d20d 76be e1d8 f6bd
00000120: 60b2 43be 3f33 87bd a5e1 6ebe d1d4 3fbe
00000130: 2711 5f3d 3554 ec3c c888 543e 5092 59bd
00000140: 2b5d 523e 65e3 b7bd f105 8c3d 54b5 77bd
00000150: 015b d93d 4510 a1bc 81ee 8aba 6ee7 dc3d
00000160: 134f cc3d 990f 88be 34d8 c03d 8029 0d3e
00000170: 054c 84be 33ef f03c b5de 143e 9194 4f3e
00000180: 4699 cb3d 52bf 9bbe eb1d 08be 40ac b23d
00000190: bfaf 96bd 76bc 5ebe a22e 49be 8fce df3c
000001a0: f610 573e 946f 2b3e 906d e33d 114c d0bd
000001b0: 2dfe bf3b 931d 0a3e eeef e5bd f2b2 9dbe
000001c0: f538 1bbe 105e 8f3e 2992 7e3d 0bb9 87be
000001d0: c166 d7bd 010e eb3d 6979 643e 6242 66be
000001e0: 382b 39bc f35f bd3d dcfb aebd ecef 08be
000001f0: 669f b2bd 4005 8d3e bd29 10be 7643 10bd
00000200: 8ac4 7cbd d3c6 97bd 3ee8 76be c479 61be
00000210: bf81 3c3e 2a92 4c3e 6f88 703e 31b8 57bd
00000220: 5bf8 f53d 65cb 883d 108b d53d 34c5 29be
00000230: 2ceb 823d addd 013e 6de2 27be 23e4 55be
00000240: 47bc 04be 3c2d 863b 78e6 9b3e 8218 68bd
00000250: ccb6 353e 6567 9f3d 2cc4 653e 2538 31be
00000260: 6b1b d6bd d467 cf3c fb51 423d 8040 72bd
00000270: be9a 2bbe 2942 19be c845 1dbe 242f 373d
00000280: 94cd e2bd b0ad 573d 866e d73d 6129 56bd
00000290: 5921 e1bd c793 203e a925 413e dee4 44be
000002a0: 8018 35be 3b47 733b b809 a0bc a273 afbd
000002b0: eada 683e 883e 3ebd 2184 91be 9a4b ce3d
000002c0: 9b93 a63d 4a29 613b 7385 1abe 7c74 65be
000002d0: 30e3 30bd 1ea6 803d 5085 c0bd c86f 333e
000002e0: ecb5 893d 1743 4a3e 2f7b 8c3d 8d78 633e
000002f0: 2cd5 0fbd 989c 84bd 460a dc3d f6ef 81be
00000300: 0fc2 a1b8 3194 de3c 9cc6 8b3e dce9 d93d
00000310: c3c5 143e 2647 d4bd e79a c33d 14ba 75bc
00000320: 6b76 1c3e e9c4 ab3e 0a95 3bbe e182 363e
00000330: f237 36be cb4b d3bd f8d1 b63d cb4e 11bd
00000340: 8db5 223c 6e68 0abd aeca a5be 0dd8 bebd
00000350: 6455 6dbe 6f7c 233c 3fc0 1dbd 4179 4c3e
00000360: 4ef5 7c3e 1b2b c53d dae8 3b3d 0d35 e5bc
00000370: 3675 2e3e f5f3 24be e179 c0bc feca babd
00000380: a195 76be 7686 95be 0321 85bd 213d 95bd
00000390: 1755 7bbe dc34 58be 68b3 14be 23d1 aa3d
000003a0: 3be3 233e 0712 1e3c 1cbd 203d fa3b a5bd
000003b0: 4b5a 20be bda9 04be 686c 71be 12f3 a1bc
000003c0: 2918 41be 9821 c1bd 4e6b 43bd fa49 18be
000003d0: b69f 06be e065 2bbe d637 92be 54e4 8d3c
000003e0: 4c7a 3c3e e0ed 7c3e db9f 273d 9ee0 a0be
000003f0: 2bbc 30be 7f94 173d 569e c0bd 0916 bdbd
-0.2056614 0.09876755 0.2842055 0.1201307 0.055921957 -0.17280431 0.1126306 0.010958155
0.20197037 -0.2519383 -0.089521535 0.29161793 -0.039523542 0.15956646 -0.15532622 -0.027292332
0.03928012 -0.28120172 0.13581686 0.29025912 -0.14295253 -0.22248209 -0.25624967 0.22566798
0.16883133 -0.19958445 0.05214859 0.07944837 0.13708287 0.14576213 0.0077594314 0.05565865
0.27820313 -0.1709622 -0.09009174 -0.24601066 0.16122279 0.05043174 -0.26099834 0.10063941
0.22130616 0.022135792 -0.14513893 -0.18891022 -0.035135776 0.24014212 -0.15961777 0.21788436
0.13965483 -0.13301298 -0.015343306 -0.09832143 0.07210875 -0.087223224 0.09017282 0.08568858
-0.030107167 -0.26215115 -0.21112156 -0.29892796 0.041364953 -0.16291785 0.19757253 0.0670553
-0.0003037915 0.25031528 -0.20399499 -0.029261125 -0.22303642 -0.2811858 -0.2402871 -0.12053085
-0.19111013 -0.06601571 -0.23328264 -0.18733527 0.054459717 0.028848747 0.20755303 -0.05311805
0.20543353 -0.08978919 0.06837071 -0.060475662 0.10613061 -0.019661078 -0.0010599644 0.10786329
0.0997602 -0.265744 0.094162375 0.13785362 -0.25839248 0.029410934 0.14538081 0.20271517
0.09941344 -0.30419403 -0.13292663 0.0872426 -0.0735774 -0.2175158 -0.19646695 0.027320175
0.21002564 0.16741782 0.11104882 -0.101707585 0.0058591575 0.13487844 -0.112274036 -0.30800587
-0.15158446 0.28001451 0.062151108 -0.26508364 -0.105176456 0.114772804 0.2231194 -0.2248626
-0.011301808 0.092468165 -0.08544132 -0.13372773 -0.08721809 0.27543068 -0.14078422 -0.035220586
-0.06171087 -0.074109696 -0.24112031 -0.22019106 0.18408869 0.19977632 0.23489545 -0.052665893
0.12010261 0.066794194 0.10426915 -0.16579133 0.06392512 0.12682219 -0.16394968 -0.20887809
-0.12962447 0.004094748 0.3044927 -0.056663997 0.17745513 0.07783393 0.22438115 -0.17306574
-0.10454448 0.025318064 0.047441464 -0.059143543 -0.16758248 -0.14966644 -0.1535865 0.04472269
-0.11074367 0.052655876 0.105191275 -0.052285556 -0.10992689 0.15681373 0.18862022 -0.19227931
-0.17685127 0.0037121314 -0.019535884 -0.08566977 0.22739759 -0.046446353 -0.2842112 0.100730136
0.08133622 0.0034356886 -0.1508997 -0.22407717 -0.043185413 0.06281684 -0.09400427 0.1752311
0.06724152 0.19752155 0.06859433 0.22213955 -0.035115406 -0.064751804 0.10744147 -0.25378388
-7.7132245e-05 0.027170273 0.27299964 0.10640308 0.14528565 -0.10365133 0.0955103 -0.014997978
0.15279548 0.33548668 -0.18318573 0.17823364 -0.17794779 -0.10317191 0.08926767 -0.035475533
0.00993098 -0.033791 -0.32381195 -0.09318552 -0.23177105 0.009978398 -0.03851342 0.1996813
0.24702951 0.09627362 0.04587636 -0.027979398 0.170369 -0.16108687 -0.023495616 -0.09120749
-0.24080516 -0.29204148 -0.06500437 -0.0728705 -0.24544178 -0.21113914 -0.14521563 0.08340671
0.1600465 0.009647853 0.03924285 -0.0806808 -0.15659444 -0.12955375 -0.2357651 -0.019769225
-0.18856873 -0.094302356 -0.047709756 -0.1487197 -0.13146862 -0.16738081 -0.28558224 0.01732079
0.18406028 0.24700117 0.040923934 -0.3142137 -0.1725928 0.03700685 -0.094052 -0.092327185

to_patch_embedding.1.bias f4 [36]
00000000: 6356 0a3e 8f8e 033e b831 80be ff43 7d3d
00000010: 8189 1a3e 8991 81be d135 3ebe 5194 cc3d
00000020: 5c3f 953d d1cd b73d 4ba5 b93b 0521 8abe
00000030: f609 64be 2f09 4d3e a332 6e3e a06b 1fbe
00000040: b364 5dbe 5698 80be 2ef7 f839 1b69 d23d
00000050: 593d 3dbd 8d75 383e d050 d3bd eaa4 6d3e
00000060: 3c09 99bd 7382 88bd 1890 f7bd c97e aebd
00000070: 0eb0 913e ba51 0dbe ff29 20bd 4ebd b43d
00000080: 4599 90bc 6311 30be 8dec 633e 300f fb3d
0.13509516 0.1284735 -0.25037932 0.061832424 0.15091516 -0.25306347 -0.18575217 0.099892266
0.072874755 0.08974803 0.0056654564 -0.26978317 -0.22269425 0.20023035 0.23261504 -0.155684
-0.21620445 -0.25116223 0.0004748641 0.102739535 -0.046201084 0.18013592 -0.10318148 0.23207441
-0.074724644 -0.06665506 -0.120880306 -0.08520276 0.28454632 -0.13800707 -0.03910255 0.088251695
-0.01765121 -0.17194133 0.22258206 0.12258756

transformer.layers.0.0.norm.weight f4 [36]
00000000: 63b1 863f e280 813f a5dd 803f b7fc 883f
00000010: f63a 833f 7bb6 883f e4bd 833f c592 863f
00000020: ea92 843f 8632 843f 8dc9 813f 0c68 823f
00000030: 1cf2 863f 6a9a 883f 40a4 833f 1eb2 853f
00000040: 8542 873f a5d9 863f 0b60 8a3f 0b3e 873f
00000050: 053f 843f baca 803f ef58 853f 7c46 833f
00000060: 0522 833f 058e 803f 6aee 803f eab6 883f
00000070: 22e5 8d3f f894 853f 6a1c 833f 38fa 863f
00000080: 29b0 863f c053 8a3f 5148 823f 2fec 833f
1.0522884 1.0117457 1.006764 1.0702122 1.0252368 1.0680689 1.0292325 1.051354
1.0357335 1.0327919 1.0139633 1.0188003 1.0542636 1.0672123 1.02845 1.0444982
1.0567175 1.053517 1.081056 1.0565809 1.0331732 1.0061867 1.0417765 1.0255885
1.0244757 1.0043341 1.0072758 1.0680821 1.1085551 1.0436087 1.0243046 1.0545111
1.052251 1.0806808 1.0178319 1.0306453

transformer.layers.0.0.norm.bias f4 [36]
00000000: 6d40 bdba ee35 fcbb 7217 823c dea6 903b
00000010: 825d 353c c0f8 90bb 25c9 0d3c 45c0 823a
00000020: 5711 233c 30d8 5fbc ae78 e93b e96d 88bc
00000030: 5479 dfba 8564 67bc e27d dc3a 4b5a 9b3b
00000040: 06b0 1cba 5252 643c 5ff8 2c3c 01d7 1dba
00000050: a127 203b 6c50 d0bc 6be2 c03c e251 8b3b
00000060: 7c2a 85b9 0b2a 403c 8cb4 4fbc 5523 50bc
00000070: 05ab 71bb 8bfd 1f3c fa27 9c39 0daf d73b
00000080: 5a37 d8bb 53ce 603c 63b0 5dba c99c f8bb
-0.0014438756 -0.0076968586 0.01588032 0.0044144234 0.011069657 -0.0044241846 0.008653914 0.0009975514
0.009952865 -0.013662383 0.007124982 -0.016653972 -0.0017049708 -0.014123087 0.0016822184 0.0047409884
-0.0005977157 0.013935642 0.010557263 -0.0006021113 0.0024437683 -0.025428973 0.023545465 0.0042517046
-0.0002539939 0.011728774 -0.012677323 -0.012703736 -0.0036875617 0.009765039 0.00029784424 0.006582147
-0.0065983953 0.0137210665 -0.00084567646 -0.0075870496

transformer.layers.0.0.fn.to_qkv.weight f4 [216, 36]
00000000: e4a7 35be 53f1 a93d 0ffd 63be 2bda c4bd
00000010: b28a 0dbd 0f56 9c3d cade 39be 6f7d 5abe
00000020: 3ac6 153e 2de7 ef3c 53d9 47be f018 5c3d
00000030: ace3 c039 4928 b63d 4fce 543d 7847 443e
00000040: b968 abbc 2d58 c73d c811 bf3d d347 073d
00000050: 2845 0abc 380b d83d 6fcc 45bd f398 45bd
00000060: d206 4e3d 62f5 a13c b446 c1bc 6d27 edbd
00000070: 9484 673d fd3b cf3d d61b 87be a000 2b3d
00000080: 2e8b e0bd b734 583d b590 413e 9b8c a43d
00000090: 377a c5bd 214e 8d3e da08 4cbd c152 d33d
000000a0: bfae 12bc 01f9 49bd 2e37 15be 5f6c a93d
000000b0: 7d24 ee3d 3c19 073e dfe1 4abc 94b6 1bbe
000000c0: 8a57 03bd b790 d0bd fecd 5dbe 5051 e1bd
000000d0: 906b 84bc d953 cf3d 9b25 4d3e a1a1 c9bd
000000e0: 7417 dd3d d5cc 1f3e 80fc d8bd 969a 0a3e
000000f0: acde f2bd 9637 f43c 0216 573d e68c 15bd
00000100: c960 353e 6f6b e5bd d9e9 f83d 8c0e 7abd
00000110: c1a3 82bd 4b11 3d3c 51db 46bd 3866 dfbd
00000120: 8320 16bd 9f9e 273e 5f73 22bd efcf bb3b
00000130: 8280 33bd 4bae d7bd df15 e33d 9a5c efbc
00000140: fd5a bd3d d85b 193d 4a69 b03d f26c 21bd
00000150: 43ba 61bd 34a3 b4bd 66bf f3bd cea4 063d
00000160: f785 60bc 2e00 00be bf1f 133e f42b 6b3e
00000170: f8ff 9bbd 4370 b23d c890 4e3c b040 4abd
00000180: eaa1 62bd 9b86 b83d 0fdb 53bc 68b5 e13d
00000190: 9fd8 0abe 3545 ac3c f6a6 01be 87e7 5bbd
000001a0: cbc3 f33c ef61 0e3d 183d 853d 9934 163e
000001b0: 7abf 1d3e 0e14 ba3d d7b9 45bd bcaf 34be
000001c0: 3858 933d 7279 c3bd dca5 9cbd f420 cdbb
000001d0: 0652 0abe deb5 013d 8a77 bfbc 567a 5d3e
000001e0: b213 033e f272 6e3d 48b2 183e e273 083e
000001f0: fd0b b3bd 630a 0e3e a8f7 013e 1fef 70bc
00000200: 939a 71bd fc0c 733d e9ef ed3d 4a8d c8bc
00000210: 7285 ce3c 4190 c3bd 3017 c13c c5ba 4a3d
00000220: 3b4f a8bd 1cc8 b83d 948b 74bd 34d6 543d
00000230: 23ae d03d 28c4 febc 73aa 0b3e fba5 f4bd
00000240: d197 f83d a7de b23d 386c 23be 141e 093e
00000250: 35ec 56bc 22dd 7ebd ef49 093d b4a7 e9bd
00000260: 4802 13be c582 1b3e 1085 93bd 6a0d 05be
00000270: e472 99bc 41cc ee3c d15f 0e3e 642c 033c
00000280: ece0 32bc efb9 92bd 3205 45be feea f93b
00000290: 2747 f1bd f1c6 653b 2a87 1a3e 6e45 9c3c
000002a0: 9e18 b0bd 6736 19be b6a3 c1bd 0ac4 d93d
000002b0: eb0a b9bd 02b8 e1bd 237d 463e 18ff ea3d
000002c0: 469e e43a de8d a6bc af87 66bd b317 cc3d
000002d0: dbfc edbd 6308 21be f643 0d3e f12a dbbd
000002e0: 2c58 5c3a 2cec cabc 5020 8dbc 09d3 bf3c
000002f0: c9da d4bd 9319 a73c 9773 123e f294 f33d
00000300: 525d ca3d df10 d53d 08a0 a5bd f627 153d
00000310: 792d e43d 16d6 143e d213 673d 693f 4a3e
00000320: 583a 6db8 34c6 e63c 45b8 6b3d 6814 263e
00000330: cd57 14be a06e 443e e4ba 103e c2f0 ff3d
00000340: 9e58 13be ea58 ccbb 20ba 2abe c659 0ebd
00000350: 7b04 ac3c 2a8d 863d 3489 1b3e 0924 bf3d
00000360: 1d93 1f3e a8d8 b1bd b7cd c73d b301 903c
00000370: 927b a03b cb65 e13d a091 35be 71f6 ac3d
00000380: 5c0f 2d3b fe37 063e 25b1 abbd 4ed8 223d
00000390: 6336 96bd 3b17 3fbe 0bcd 21bc c032 bfbc
000003a0: a2ca be3d 85c0 203d 569c 093e e43c 5d3e
000003b0: 23c2 4fbd dd67 abb9 3425 0f3d a4ab 0abe
000003c0: 5e1c 3d3d 4b18 013e d67d 41bd 9e41 c8bd
000003d0: c3ad 41be 2e77 ba3d 24df d5bd 6df8 133e
000003e0: 0928 d6bd 828b 54bd b380 55bd cd87 e2bd
000003f0: 46d5 863a 9064 11be 2b8a a8bd e5de 033e
-0.17739826 0.08297982 -0.22264503 -0.09611925 -0.0345561 0.07633602 -0.18151394 -0.21336912
0.14626399 0.029285038 -0.19516496 0.05373472 0.00036790723 0.088944025 0.051954564 0.19167888
-0.02092396 0.09733615 0.093295634 0.03302748 -0.00843934 0.10549015 -0.048290666 -0.048241567
0.050299473 0.019770328 -0.023593284 -0.115797855 0.05652292 0.10118864 -0.26388425 0.041748643
-0.109640464 0.052784648 0.18902858 0.08034631 -0.09642451 0.2759867 -0.04981313 0.103185184
-0.0089527955 -0.049309734 -0.1457183 0.08272623 0.11628053 0.1319322 -0.012382953 -0.15206367
-0.032065906 -0.10183852 -0.21660611 -0.11001837 -0.016164571 0.101234145 0.20033877 -0.098452814
0.10795489 0.15605481 -0.105950356 0.13535532 -0.118588775 0.029811662 0.052511223 -0.036511324
0.17712702 -0.11202132 0.12153978 -0.06104903 -0.0637889 0.0115397675 -0.048549 -0.109081686
-0.0366521 0.16369103 -0.039660808 0.0057315747 -0.043823726 -0.105312906 0.11088156 -0.02921896
0.0924587 0.037441105 0.08613832 -0.03941054 -0.055109274 -0.08820191 -0.11901741 0.032872014
-0.013703815 -0.12500069 0.14367579 0.22965986 -0.076171815 0.087128185 0.012607761 -0.049378097
-0.055330195 0.09010049 -0.012930646 0.110209286 -0.13559197 0.021029094 -0.12661347 -0.0536876
0.029756447 0.034761366 0.06505793 0.14668502 0.15405074 0.090858564 -0.048272934 -0.17645162
0.07194561 -0.09544648 -0.07648823 -0.006260032 -0.13507852 0.031667583 -0.02337243 0.21628699
0.12800482 0.05821509 0.14911759 0.13325456 -0.08742521 0.1387115 0.1269213 -0.014705448
-0.058985304 0.059338555 0.11618025 -0.024481434 0.025210116 -0.095489986 0.023570627 0.049494524
-0.08218237 0.09022543 -0.059703425 0.051962093 0.10189464 -0.031099394 0.1363924 -0.11945721
0.12138332 0.08733874 -0.15959251 0.1339038 -0.01311784 -0.062222607 0.033517774 -0.1140894
-0.14356339 0.15186603 -0.07203114 -0.12993398 -0.018731542 0.02915013 0.13903739 0.008006189
-0.010917883 -0.0716437 -0.19240263 0.00762689 -0.11781149 0.0035061205 0.15090623 0.019076075
-0.08598445 -0.14962159 -0.094550535 0.106330946 -0.090352856 -0.11021425 0.19383673 0.114744365
0.0017442189 -0.02033132 -0.05628174 0.09965458 -0.11620494 -0.15725856 0.13795456 -0.1070155
0.00084054726 -0.024770819 -0.017227322 0.02341606 -0.103932925 0.020397937 0.14301907 0.118936434
0.09881081 0.104036085 -0.08087164 0.036415063 0.11141486 0.14534792 0.056415386 0.19750752
-5.655954e-05 0.028170682 0.05754878 0.16218722 -0.14486618 0.19182825 0.14133793 0.12497093
-0.14389274 -0.0062361853 -0.16672564 -0.034753583 0.02099823 0.06569894 0.15189058 0.09333045
0.15583463 -0.08683902 0.09756034 0.017578935 0.004897543 0.110057436 -0.17731333 0.084454425
0.002640686 0.13107297 -0.08383397 0.039757065 -0.07334592 -0.18661205 -0.009875546 -0.02333963
0.09315993 0.0392461 0.13438544 0.21605259 -0.050722253 -0.00032693046 0.03494759 -0.13542038
0.04616963 0.12606923 -0.047239147 -0.097781405 -0.18913941 0.09104763 -0.10442951 0.14450236
-0.10456855 -0.051890858 -0.05212469 -0.11061058 0.0010286949 -0.14198518 -0.082294784 0.12877996

transformer.layers.0.0.fn.to_out.0.weight f4 [36, 72]
00000000: 02e4 1a3e ae71 e83d 6c5f d63d dd63 95bc
00000010: ee85 023e 5774 193d 729c 883c bcf9 913d
00000020: 7dfb e9bc 1e92 86bd 4204 bd3d c757 193d
00000030: de85 cdbc 4759 d13d 7f9a f0bd 7262 bdbc
00000040: 5ae4 de3c c366 b23b 459a 7ebd 43f0 c9bd
00000050: 7b70 28be 165a bc3d e56c e3bd 7132 58bd
00000060: 7395 cdbd a4d3 b5bc 6422 343c b585 8dbd
00000070: 7ef7 ff3c abde 9e3d e6b4 8a3d ce58 2cbe
00000080: 99b1 c8bd 061b d13d e7a4 e53d 37d0 65bd
00000090: 7adf 9c3d f5aa 973d 2289 68bd 3eba 133d
000000a0: 17c1 85bd 9a99 efbc 1122 e2bd a84d 8f3d
000000b0: 5d7f 003d 0b3a c73c 4dfb ed3c 24dc 91bd
000000c0: 0d85 3bbd b820 3dbe 49f9 8bbd dcd0 05be
000000d0: 04d3 b0bd 4efa 10be f133 b0bc bba1 353d
000000e0: 7b98 cabd 39c3 63bd da7a 94bd 0c01 91bc
000000f0: 7bee f9bd 5812 4abc c43d fa3d 4beb f4bd
00000100: ce35 1c3b 2b4e b1bc 9938 083d f4c8 44bc
00000110: b3dc 733c 3f57 373d ba2d 423e 39d2 bcbc
00000120: ff1a 60bd 0a86 e1bb a88f 813d 5449 783c
00000130: f5de 343d 6080 9b3d d618 143d 26fe 9b3c
00000140: 55d1 47bd 0b28 3a3c 310d 65bd bdfe 2a3d
00000150: bcb0 e53d 78d0 273d 4de5 dc3d 8118 04bb
00000160: 53e5 03be bfd1 b83d cf8e e23d 028a 1f3d
00000170: 6863 b7bd c34d 263d cb01 793c 9e89 083e
00000180: c39e 34bd aeab 80bd a14a abbd 91d8 18be
00000190: 3e81 92bd 4d70 b6bd 6fbd 03be 4e35 80bd
000001a0: cd88 933d ef87 253b 7f87 87bd d937 de3c
000001b0: bff1 da3d bddb 92bd c9d4 2ebd b39c fe3d
000001c0: f6a9 ab3d 7c90 3ebc d9cc b0bc 75cb f53c
000001d0: 52a9 c43d 0ede 9fbd 2b92 603d 3a74 0fbd
000001e0: 86ad d1bc b5c4 cd3d 8fff dd3d 2815 773d
000001f0: 0333 62bd bbc5 3e3d 2c93 1cbd 6e8a 6abd
00000200: b107 e53d 6c71 d8bb da0a 1fbd 574d d93d
00000210: 8e24 963c 77ac f7bc c6e2 093c 6394 4bbd
00000220: 137a f23d 6ed4 39bd 736e dcbd 5118 8f3c
00000230: e06c 86bd 1580 ce3d 77b7 8cbd 5997 95bd
00000240: 9025 4c3e 2d5e c4bc 8db3 1a3d c20c d33d
00000250: d73f 84bd 821e ce3d f274 2b3b f13c ad3b
00000260: 3102 8bbd fdab 373d 415d 103e c01f 2b3d
00000270: 0bb4 46bd ed1f 0bbd d724 adbd 8f1d aa3d
00000280: c28d 6ebd fb11 bd3d dc51 adbd 92f1 c6bb
00000290: bcc8 4b3e 4f20 c03c 042d e03d 3656 be3d
000002a0: 2bd5 8f3d 9779 11bd 9f27 de3a b70e cf3d
000002b0: 0916 19be 3748 40bd cff3 ce3d 3e15 5b3d
000002c0: eda6 c4bd 45eb 5cbc b513 a3bd 9ce5 fd3d
000002d0: a4f8 253d bbe9 ffbc 5e83 4f3d 4a30 dcbd
000002e0: f268 9c3d 86a4 963d 5271 aabb 3869 f83d
000002f0: 071e dcbd 82ec e0bd 2184 09bd 951f 4b3d
00000300: e7f3 9d3d 9113 de3c 07e5 d6bd dd90 243e
00000310: 8af6 6b3d cb9c 57ba 1b35 73bd f207 8a3c
00000320: 5dc2 01bd ebdf 86bd 4f9a 8e3d 3515 803d
00000330: d662 bd3d c259 8e3d ed09 db3d ade2 1abe
00000340: 3133 193e 356c e33c f665 aabc 018b 8f3c
00000350: 8c34 073e 9500 5d3d f36a 9a3b a54b 553d
00000360: e3ad c6bd 2660 a03a 91f5 25bc 4439 283d
00000370: fec8 77bd 7ac7 a2bc e0b1 96bd 303b 78bd
00000380: 4d0a 3b3d 5a3a a7bd fa7e 5bbd 53f6 6ebd
00000390: feab e1bd e18b 02bd b0fe e9bc 984d 903d
000003a0: 1653 02bd 24e1 073d 9919 7abd 7ad4 2dbd
000003b0: a307 a1bd 43c3 1e3c 1507 e13d d7ef 78bd
000003c0: 9584 0bbd 452f ba3c 6c85 f2bd 899a dc3d
000003d0: 47d1 9b3c 62f4 c63d 7f5d 79bd db89 ea3d
000003e0: 5111 e6bc 7934 813d b3ba e5bd ec23 8ebd
000003f0: d4a3 bd3d 9225 663d ec60 d73d 6159 34bd
0.1512604 0.11349808 0.10467419 -0.018236095 0.12746403 0.037464466 0.016676161 0.07127711
-0.028562302 -0.065708384 0.09229328 0.037437227 -0.025088247 0.102221064 -0.11748218 -0.023118231
0.027208496 0.005444379 -0.06215884 -0.098602794 -0.16449158 0.0919687 -0.11104754 -0.05278248
-0.10038271 -0.022195645 0.0109945275 -0.06910268 0.031245943 0.07757314 0.06772785 -0.16830751
-0.09799499 0.102102324 0.11213093 -0.056106772 0.07659812 0.07405654 -0.056771405 0.036066286
-0.065309696 -0.029248048 -0.11041654 0.06997234 0.031371463 0.02431967 0.029050494 -0.071220666
-0.045781184 -0.18469512 -0.06834657 -0.13067955 -0.08633998 -0.14157984 -0.021509143 0.04434369
-0.098923646 -0.0556061 -0.072499946 -0.017700695 -0.1220369 -0.012333475 0.12218812 -0.11958941
0.002383578 -0.021643719 0.0332571 -0.012010802 0.014884162 0.04476094 0.18962756 -0.02304946
-0.054713245 -0.006882434 0.063262284 0.015154202 0.04415794 0.07592845 0.036156498 0.019042086
-0.04878362 0.011362086 -0.055920783 0.041746844 0.1121535 0.040970296 0.10785923 -0.0020156207
-0.12880449 0.09024381 0.11062395 0.038949974 -0.08954507 0.040601503 0.015198181 0.13333747
-0.04409672 -0.06282745 -0.08363844 -0.14926364 -0.07153557 -0.089081384 -0.12865232 -0.06260167
0.07203827 0.0025258025 -0.06617641 0.02712624 0.10690641 -0.07170818 -0.042683396 0.12432232
0.08382027 -0.011631127 -0.021582054 0.030004242 0.09602608 -0.078060254 0.054826897 -0.03502295
-0.025595438 0.100472845 0.108397596 0.06032291 -0.05522443 0.04657529 -0.03822629 -0.057260923
0.11183108 -0.006605318 -0.03882871 0.106104545 0.018327978 -0.030233605 0.008415883 -0.04970206
0.1183969 -0.045368604 -0.10763254 0.01746765 -0.06563735 0.100830235 -0.06870931 -0.07304258
0.19936204 -0.023970688 0.03776889 0.10305168 -0.06457489 0.10064413 0.0026162234 0.005286806
-0.06787527 0.044841755 0.14098074 0.041778326 -0.048511546 -0.033965994 -0.08454292 0.08306419
-0.05824066 0.09231945 -0.08462879 -0.006071278 0.19900793 0.023452906 0.10946086 0.09293787
0.070230804 -0.035516348 0.0016949064 0.101102285 -0.14949812 -0.04694387 0.101050965 0.053487055
-0.09602151 -0.013483827 -0.07962743 0.1239731 0.040520325 -0.031239381 0.05066239 -0.10751398
0.07637204 0.07355599 -0.005201497 0.12129444 -0.10747915 -0.1098261 -0.033573274 0.049590666
0.07712536 0.02710894 -0.10492902 0.16070886 0.057608165 -0.0008224963 -0.059376817 0.016849492
-0.0316795 -0.06585678 0.06963026 0.06254045 0.09247367 0.06950714 0.106952526 -0.15125532
0.14960934 0.027761558 -0.020800572 0.017522337 0.13203639 0.053955633 0.0047124564 0.052074093
-0.09701135 0.0012235686 -0.010129348 0.041070238 -0.060494415 -0.019870508 -0.07358146 -0.06060332
0.04566412 -0.081654266 -0.05358789 -0.05834038 -0.11019133 -0.03187168 -0.028563827 0.0704605
-0.03181752 0.033173695 -0.061059568 -0.04243896 -0.07862785 0.009690109 0.10987679 -0.060775604
-0.034061987 0.022727618 -0.118418545 0.10771663 0.01902069 0.09714581 -0.06088018 0.11452075
-0.028084429 0.063088365 -0.11217251 -0.06940445 0.09259763 0.056188174 0.10516533 -0.04403055

transformer.layers.0.0.fn.to_out.0.bias f4 [36]
00000000: 497d d53c e4e3 b63d d095 76bd d719 79bd
00000010: 6d1a cf3d 0d43 7e3d f18e 8abd 02bb 5d3c
00000020: 74df a3bb 0070 193d 2108 32bd 45c5 03bd
00000030: 4ded d33c 75f9 893d 63ed 9abc d8c8 21bc
00000040: 19f6 3d3d 98f3 73bd 320b da3c a1fd 823c
00000050: b767 ea3d 85f5 ddbd 15bf 9bbd 0e52 b33d
00000060: f5c3 f1bc 9ed6 843d a14b 8d3d 2d14 bcbb
00000070: 8d15 db3d 6a2e cebd df65 c73d 1a36 06bd
00000080: c70d 87bd b245 debd b543 ffbd ce30 a93c
0.026060717 0.089301854 -0.060201466 -0.06081566 0.10112462 0.062075663 -0.06765545 0.013533356
-0.005001003 0.037460327 -0.043464784 -0.032170553 0.02586999 0.06737033 -0.018912023 -0.009874545
0.046377275 -0.05955848 0.026616666 0.01599008 0.11445563 -0.10837845 -0.076048054 0.08755885
-0.029512385 0.064862475 0.06899191 -0.00573971 0.1069747 -0.100674465 0.09736227 -0.03276644
-0.06594425 -0.10853137 -0.12464086 0.020653155

transformer.layers.0.1.norm.weight f4 [36]
00000000: d766 843f a5c5 823f 08a7 853f fcc4 7f3f
00000010: eebc 763f 4f37 813f 3508 7e3f 2e6c 7e3f
00000020: 09f5 843f abe1 853f 441b 803f 343b 833f
00000030: db74 803f 93a4 823f 929f 8e3f b16b 7e3f
00000040: 8312 7e3f d5e1 7c3f caa7 8b3f 29b9 813f
00000050: fe25 823f 21c5 873f b3f0 7e3f da36 883f
00000060: 3322 813f 3124 7b3f f3bd 813f 958e 813f
00000070: b401 873f aff7 803f 25de 883f ab46 823f
00000080: 47a5 813f 2106 843f be3e 803f a4c2 823f
1.0343884 1.0216566 1.0441599 0.9990995 0.96382034 1.0095004 0.9923127 0.9938382
1.0387279 1.0459493 1.0008321 1.0252442 1.0035661 1.0206474 1.1142447 0.99383074
0.99246997 0.9878209 1.091058 1.0134631 1.0167844 1.0607034 0.9958603 1.0641739
1.0088562 0.981021 1.0136093 1.0121638 1.0547395 1.0075587 1.0692793 1.0177816
1.0128564 1.031437 1.0019147 1.021565

transformer.layers.0.1.norm.bias f4 [36]
00000000: e88d 273a 199e efbc 8384 373c 4b99 083c
00000010: 9a90 85bc 7483 94bb c367 8f3b e8f7 073c
00000020: 03d4 81bc 72d5 8fbc 7dbb a33b c9c7 01bc
00000030: 1556 9a3c 466b 8fbb 9f93 453c 6b3a 85bc
00000040: 73e5 a8bc 810f e8bc 5ab6 0cbc 3341 8d3b
00000050: 5b86 84ba 2e1b c1bb d51e 2f3b 0861 95ba
00000060: ee21 313c 8282 eabb 1cff dc3b 0f18 9cbb
00000070: 5708 343c fb14 823b 0ca1 b43c f581 cabc
00000080: 8f7e 773c 43bc 02bd 76a8 c53b 24b2 763c
0.000639169 -0.029250192 0.011201027 0.008337329 -0.016304303 -0.004532272 0.004376383 0.008298852
-0.015848165 -0.017557833 0.0049967156 -0.007921168 0.018839875 -0.0043768017 0.012059121 -0.016263207
-0.020617222 -0.028327705 -0.008588398 0.004310751 -0.0010110842 -0.0058931326 0.0026721258 -0.0011396715
0.010811312 -0.007156671 0.0067442786 -0.00476361 0.0109883165 0.003969786 0.02204945 -0.024720171
0.0151058575 -0.03191782 0.006032045 0.0150571205

transformer.layers.0.1.fn.net.0.weight f4 [72, 36]
00000000: 31b9 c3bd 3f91 de3d fc8c 223d 64ab 23bc
00000010: 4ffd eabd f39e 57bd 9a24 e83d 46bb 66bd
00000020: 17ae e9bb 8d82 193d bbe3 18be 18d2 14bb
00000030: 3bff 6a3d b6c0 803c 32a4 4e3c 990d 0a3e
00000040: 9899 dabd 336e dcbd fbd4 c73d 63a5 ffbc
00000050: 66f2 223e a439 553c 2c25 cbbc 655a 673d
00000060: 6027 1d3e 701f c5bd c638 e93d cdd3 0c3e
00000070: cf4f f33c 6db7 a9bd a087 22be 7a0f 12bb
00000080: dfb2 123d 0530 0ebe 9a9f 5cbd 0dd4 19bd
00000090: 229b 8dbd 8c8f 85bd 2acf b1bc 822b e93d
000000a0: 5e2d 9dbd 4525 c13d c976 203d 6257 02be
000000b0: b154 203d 665b fcbd a41d 03be 4636 acbd
000000c0: d149 17bd 1f93 07be bc46 b9bd 2f7f 7d3c
000000d0: c4fd e6bd 88ff 1fbd e96b 88bd 898b 8b3d
000000e0: 0881 4d3d 5c83 fb3d 5381 313e d057 60bc
000000f0: 0ae9 04bd 64b1 22be bfe2 f23c 6f12 c73d
00000100: 38ff 3f3d 40e9 b1bd 7611 e1bd 79da b13d
00000110: db7c 21bd 4cf8 223e 1502 ffbc 251c 2e3e
00000120: 5c45 6fbd f1dc e63d 62df 4d3d bd79 fabd
00000130: c98d 12be d939 06bd 4cab 9b3d 96f8 793d
00000140: 566d a23d dd6a ffbd 93b1 3abd 35fc 09be
00000150: d337 8ebd 521a 003d a02e d73c 700b 2ebe
00000160: e55d f8bc f5cf 6c3d 910c 153e 333d 17be
00000170: 5817 30be aeba afbd 1252 a43d 3f9a 453e
00000180: 0a02 17be 10ef e1bc 39c7 363e bebe 40bd
00000190: 8286 0a3e 1e57 94bd 9bcb 013e c6f2 9abd
000001a0: f8f7 483d 4ccd e8bb c3ed c6bd b824 94bd
000001b0: 25e9 123d aa21 083c b0ed 8b3d 29ee a8bd
000001c0: a8e9 be3d 72a8 8d3d ecce 043e cab0 bdbc
000001d0: dee3 05be 2e54 0c3e a2aa 003e 40b4 03be
000001e0: 4f3d 18be c83d cfbd bd71 07be 5785 45bc
000001f0: 95c0 0a3e c51a 9abd 682c f4bd 554c a23d
00000200: c7fb c4bd 5290 9d3d b160 153e e53d 09be
00000210: 8124 f33c 3fd2 dfbd c545 2ebe fbd8 9d3d
00000220: c23a 1a3d c4b9 79bd f2be 36bd 4678 bf3d
00000230: fe92 303d dee5 013e 184d 103d 1a23 8bbd
00000240: 53ca 04bd c45b 50bd 4e7f 2ebe 9685 173e
00000250: 2d6e 8a3b 02b5 b93c c030 abbd 2803 153d
00000260: 0da1 323c 17d5 edbd 94ab 1d3e d32f 1a3e
00000270: ee32 303e 08f0 113e ad70 9cbd d35b 943c
00000280: 55c3 cbbc 89bc 9f3c 3302 ee3c e1e3 27be
00000290: 40fa 17be a6cb 5dbd 74ec 3ebd 113c e7bd
000002a0: 3482 de3d b3ec fa3d fd25 56bd 86d7 083e
000002b0: 7c83 e1bc 5146 a63d 573e c8bc 31db 4ebe
000002c0: 4539 72bd b304 dcbd 7b19 56bd 091f b6bd
000002d0: 4d4e 1abe a9cd e6bc ae91 b0bd 3fb6 223e
000002e0: 3303 99bc 3138 ce3d d36e adbd e9f7 7c3d
000002f0: ad2f 1c3e 425e 903d 7f46 03be 036a 78bd
00000300: 0e74 82bd 9a27 ec3d f13a 423e 950e 19be
00000310: 444e 94bd cfc6 113c 6e58 033e 2dc0 f8bc
00000320: 2c51 1f3e 08f6 22be 9d7b 463c ceb4 283e
00000330: 0824 d9bd 0584 99bc 6a23 51bd ded9 20be
00000340: e52c 363d d9a5 e23d 2f74 b53d ed4f 083e
00000350: f3c6 18be b866 3e3e 29e4 e43d a9e0 a93d
00000360: 08cf d23c 4f87 0abe a8be 60bd 0942 26be
00000370: 98c5 31bd 7f1a bdbc c220 193e 23e1 ffbd
00000380: defb 0b3e be8a 453e 5420 963d cd56 1dbd
00000390: 7a02 c6bd afb5 943d 1795 6bbd 8cee 32be
000003a0: 0741 28bd acfe 5abd 6a49 dbbc d1e9 ba3d
000003b0: 8047 75bd 47c1 473d 1231 203e 7575 923d
000003c0: 4b6b d63d 686e 7bbd 6d37 fbbd a799 1c3d
000003d0: c68a 23be e18b 083e 557e d73d 9728 803c
000003e0: 59ab c9bd 5b8d 03be 2c50 143d 86a9 04be
000003f0: 120f 8cbd ad76 eebd e494 463e 710c 103e
-0.09556807 0.10867547 0.039685234 -0.009989593 -0.11474096 -0.05264182 0.11335106 -0.05633094
-0.007131349 0.03747802 -0.14930622 -0.0022708233 0.057372313 0.015716892 0.012612389 0.1348175
-0.10673827 -0.10763206 0.0975742 -0.031206792 0.1591278 0.013014231 -0.024797998 0.05648269
0.15347052 -0.09625137 0.11387782 0.1375267 0.029701142 -0.08286939 -0.1587205 -0.0022287057
0.035815116 -0.13885505 -0.053863145 -0.037555743 -0.06914355 -0.0652152 -0.021705229 0.113852516
-0.07674669 0.09430937 0.039175782 -0.12728646 0.039143268 -0.1232212 -0.12804276 -0.08408789
-0.03693563 -0.13239716 -0.09046695 0.015472217 -0.11278871 -0.039062053 -0.06661207 0.068137236
0.050171882 0.12280914 0.1733449 -0.013692811 -0.032448806 -0.15887982 0.029649137 0.09720313
0.046874255 -0.08687067 -0.109896585 0.086842485 -0.039425712 0.1591503 -0.031128922 0.17002924
-0.058415756 0.1127261 0.050261863 -0.12230251 -0.14311899 -0.03277001 0.07601032 0.061028086
0.079310104 -0.124715544 -0.045579504 -0.13475116 -0.069442414 0.0312751 0.02626735 -0.1699655
-0.03031821 0.05781551 0.14555575 -0.1476944 -0.17196405 -0.08580528 0.08023466 0.19297121
-0.14746872 -0.027579814 0.17849435 -0.047056906 0.13527873 -0.07243179 0.12675326 -0.075658366
0.049064606 -0.0071045514 -0.09713318 -0.07233566 0.035866875 0.008308807 0.06832445 -0.082485504
0.0932191 0.06916894 0.1296956 -0.023155589 -0.13075206 0.13703987 0.12565091 -0.12861729
-0.14867137 -0.10119206 -0.13226981 -0.0120557165 0.13550027 -0.07524637 -0.11922532 0.079247154
-0.09618335 0.076935425 0.14587666 -0.13402517 0.029680492 -0.10928773 -0.17018802 0.07707401
0.037653692 -0.060968176 -0.044615693 0.09349112 0.043108933 0.12685344 0.035229772 -0.067938045
-0.032419514 -0.050868765 -0.1704075 0.14797053 0.0042245598 0.022669319 -0.08358908 0.036379963
0.010902655 -0.11612909 0.15397483 0.15057306 0.17206928 0.14251721 -0.07638679 0.018110191
-0.024873415 0.01949908 0.029053783 -0.16395523 -0.14841557 -0.054149292 -0.046612218 -0.11290754
0.10864678 0.12252178 -0.052282322 0.13363466 -0.027528517 0.081188805 -0.024443788 -0.20200802
-0.059136648 -0.10743084 -0.052270394 -0.08892638 -0.15068932 -0.028174238 -0.08621536 0.15889834
-0.018678283 0.100693114 -0.08468404 0.061759863 0.15252562 0.07049228 -0.12819861 -0.060647976
-0.06369792 0.11530991 0.18967797 -0.14946969 -0.072414905 0.008897497 0.12826702 -0.030365074
0.15558308 -0.15914166 0.012114433 0.16475222 -0.106025755 -0.01873971 -0.051059164 -0.1570811
0.04447641 0.11066789 0.08860051 0.1331174 -0.14919643 0.18593872 0.111763306 0.08294804
0.025733486 -0.13528179 -0.054869324 -0.16236128 -0.04340133 -0.023083923 0.14953902 -0.12494113
0.13670298 0.19291207 0.07330385 -0.038412858 -0.09668441 0.07261216 -0.05751523 -0.17473811
-0.04107764 -0.05346553 -0.026768405 0.09126628 -0.05988264 0.048768308 0.15643719 0.071513094
0.10469683 -0.06138459 -0.12266431 0.03823247 -0.15970907 0.1333461 0.10522143 0.015644355
-0.09847135 -0.12846892 0.03620927 -0.12955293 -0.06838812 -0.11643729 0.19392735 0.14067246

transformer.layers.0.1.fn.net.0.bias f4 [72]
00000000: dd3f 8dbd 6b15 433d 163b 1c3e ac56 bd3d
00000010: 7843 2abd 553a f0bc c52a 393e 42f7 81bd
00000020: 3756 0f3e 7bff 18be 52f7 883d 8ad7 1bbe
00000030: 211d 0fbd 0dcc 863d c413 b03d 99ad 793d
00000040: bd7d 433c 0b03 e0bd 2ddc ae3d 193f 9d3c
00000050: 0235 86bd c801 233e 5ca6 f0bc 3412 14be
00000060: fa2e 2dbd 146f 5ebd d5f6 523d f1b1 c0bd
00000070: 072e 11be 28fd 81bd 3bf1 85bd ac67 823d
00000080: 52e3 843d 60fc a53c 3a1e 593d 2ac6 ed3d
00000090: 6745 013d 3aac c83d a0d9 203e 2acb af3c
000000a0: 313e 233e 92bb 82bd 0d40 243e 3b30 c4bb
000000b0: fded 22bc 2684 053e a9de 2c3d 94b6 c8bd
000000c0: ba97 07bd 7ac9 05be 6637 c53d 4cab 14be
000000d0: 01f8 713d 2e47 edbd 2f22 ca3d d6d3 fb3d
000000e0: 4f85 19be 1239 c93d 843f b83d 77e6 973d
000000f0: 58d4 d5bd d837 ee3c d9ca 68bd 2875 aa3d
00000100: 531b c93d 6823 27be 3bdb 003e bf2b 723d
00000110: 0bc4 743d 241f 22be a8d3 ff3c 7a31 083e
-0.068969466 0.047627848 0.15256914 0.09245047 -0.04156825 -0.02932469 0.18082722 -0.06345989
0.13997732 -0.14941208 0.066877976 -0.1521894 -0.03493989 0.06581888 0.0859752 0.06095657
0.011931834 -0.109380804 0.08538089 0.019195126 -0.06553079 0.15918648 -0.029376201 -0.14460069
-0.04228113 -0.05430515 0.05150493 -0.0940894 -0.14177714 -0.06347114 -0.06540152 0.0636743
0.064886704 0.020261943 0.053007342 0.116100624 0.031560328 0.097984746 0.15708017 0.02145918
0.15941693 -0.063834324 0.16040058 -0.005987195 -0.009944436 0.13038692 0.042204533 -0.09800449
-0.033103682 -0.13065138 0.09629707 -0.1451847 0.059074406 -0.11585842 0.09869801 0.12296264
-0.1499226 0.098253384 0.0899649 0.074170046 -0.10440892 0.029079363 -0.056834076 0.08323127
0.09819665 -0.163221 0.1258363 0.05912375 0.059757274 -0.15832192 0.031228855 0.13300124

transformer.layers.0.1.fn.net.3.weight f4 [36, 72]
00000000: 1015 95bb d825 c73d a2cc acbd afa3 28bd
00000010: 281e 033d b59d acbd dcde 9d3d 9144 c43c
00000020: cbcb f13c 0750 8d3d f6c9 9fbd d8b5 063e
00000030: ec0e 0f3b 5740 803b f501 22bd 4b2a 6ebd
00000040: 9556 b8bd 1fa4 73bb de8b 9b3d 5694 a83d
00000050: 8245 f33d e47c 04be c557 5c3d 8aad a6bd
00000060: ab5f f9ba 6240 abbd 38da e0bc 27f7 5b3d
00000070: 787e 033d 713f d2bd f039 833d 5af5 49bd
00000080: 48ce a03d e10e 0cbe 45a8 babc 7c78 823d
00000090: 556d ee3d 357e f3bd d3b2 79bc 2c27 6f3d
000000a0: d404 903d 1403 70bd 4458 b4bd 5078 b93d
000000b0: aa47 b5bd 03d2 c93d 163d b2bd 18f4 0d3c
000000c0: 4841 943d 1b54 8bba 586c ec3c d106 8e3d
000000d0: cb37 2dbd bb4a ef3b a46b d5bd 5fd2 8e3d
000000e0: 5664 c8bd aa6d a4bd 28de 4dbc cbc1 f2bd
000000f0: b115 ccbc 7c83 21bd bc23 82bd 2363 84bd
00000100: 238f 3ebc 7603 1a3c f94f a33d d810 c83d
00000110: 8256 c73c cfba 15be 8686 7f3c 6ead 223d
00000120: e6e0 09be b683 5c3d 4d25 77bc b259 01bd
00000130: 0f4b 88bd ab66 18bd bcbf a6bd cceb ccbd
00000140: ee4c de3d 5f47 15bc 6839 cbbd d1af 453d
00000150: 0cdc 02bd 2481 913d 56c2 c4bd 73d0 8b3d
00000160: 11b7 c7bd 7e6d 05bd 24cb 75bd 5bb6 933d
00000170: 31b5 a4bd 1752 313d a118 a8bd 6698 a7bd
00000180: b970 fe3d f5c7 3cbd 5f41 b03c c785 edbc
00000190: a4fb 53bd 0c46 a639 4681 2cbd f718 1a3d
000001a0: fef8 5b3d ea75 413d f203 523c 1149 c9bd
000001b0: 7f5a 3cbb 96f3 ca3d 31c7 e33c c6ca 513d
000001c0: cd1d a23d 91ad cdbc 7281 8c3d e729 b0bd
000001d0: 6a2e d63d e0c9 e73d ac09 6fbd 1c08 d9bd
000001e0: 6986 c8bd 58b6 2f3c 5aef 96bc 281e e63d
000001f0: 8fb2 f1bd 7d01 f63d 4019 ac3d ca63 013d
00000200: 3e78 44bd 35b8 493d acde c53d e047 bebb
00000210: abe6 a63b 55f0 09bd f4ae 7abd 53b9 7ebd
00000220: 756c 083e b008 8e3d 73ed 123d 8b2e 95bc
00000230: 98b9 003e 7e2d aa3d 2cc7 293d 1f7d 6fbc
00000240: db58 b63d 8374 1e3e 1019 463d 5c5d f03d
00000250: 22a4 0c3c e6ff 01be 947f ac3b e56f 7d3b
00000260: 22e4 063d 1992 cbbd 73d0 30bd cc13 03bb
00000270: c721 f63c 462d 01bd f421 74bd e21a 113c
00000280: 3aa5 573d bc62 503d 2259 793c ee9b 80bd
00000290: 45da c03b 4159 eebc f835 913d 5633 22bd
000002a0: 9007 88bd 1561 703d bc4a 7fbd bcbd 8c3a
000002b0: 84ea 66bd 52e7 7ebd 5398 28bd fe2c d43d
000002c0: e0d4 a63c 6b81 82bc 2abc 9b3d 42fb a63d
000002d0: 27a3 eebd 7d2b b2bd dfa5 74bd 8782 e43d
000002e0: 5fe9 aabc 638a a4bd 07eb a3bd 8420 383d
000002f0: e983 c9bd d9a3 50bd 8c16 643d fa3a 7e3d
00000300: dcdd 163c 5d41 febc 8655 c2bd dcb5 4cbd
00000310: 8f0c a23d de28 033e ab43 223b b893 0c3d
00000320: ffb0 71bd 28d2 fe3d 6679 913b 98c4 28bd
00000330: 7915 ae3d 935f 753d ad6f 003d 6f30 c03d
00000340: 6313 34bd 2ce3 633d 7b29 1fbc 3d0d b3bd
00000350: 65d8 3cbd 1a97 b43c d6a2 7dbd 9e5a 143c
00000360: 91aa c9bd 8dda d0bd 5ed7 803d a868 44bd
00000370: 6245 fabc 7893 a03d 6214 243c a2c4 75bd
00000380: bdbd b23d 3e4a 243c 1c56 06bd 1ea9 50bd
00000390: cb28 c7bb 9480 ae3d ee3c fb3d f472 e33d
000003a0: ff09 ca3d 8b38 8e3d 3a1c 483c c6ed 843a
000003b0: 50fe b8bc 17ca 043d d0b5 ca3d 743f 6d3c
000003c0: e9be 5dbd 27e6 8a3d 44a9 eebc a2e5 0abc
000003d0: 7818 dbbd ece3 733d cffe fc3d 7c15 f63d
000003e0: 658a d83d 392d 0cbc 4c02 33bd 3a26 c3bd
000003f0: c887 013e 0d35 31be ed8f 7dbc 871f a9bd
-0.00454963 0.09724015 -0.08437468 -0.041171726 0.03201118 -0.08428518 0.07708523 0.023958476
0.029516121 0.0690003 -0.07802193 0.13155305 0.0021828962 0.00391392 -0.039552648 -0.058145802
-0.09000889 -0.0037176681 0.07595037 0.08231418 0.11878492 -0.12938267 0.05379464 -0.08138569
-0.0019025704 -0.083618894 -0.027447805 0.0537025 0.032103032 -0.10266007 0.06407535 -0.04930625
0.07851845 -0.13677551 -0.022785315 0.06370637 0.11641947 -0.118893065 -0.015240389 0.058386967
0.07032171 -0.058596686 -0.08805898 0.09056151 -0.088515595 0.0985451 -0.087030575 0.0086641535
0.07239014 -0.0010629924 0.028860256 0.06934894 -0.042289536 0.0073026097 -0.104209214 0.06973719
-0.097847626 -0.08028729 -0.012565173 -0.11853369 -0.024912687 -0.039432034 -0.06354472 -0.06464221
-0.011630806 0.009400239 0.07974238 0.09768838 0.024333242 -0.14622043 0.015596038 0.039716177
-0.13464698 0.053836547 -0.015084577 -0.03157968 -0.06654941 -0.037207287 -0.08142039 -0.10005912
0.10854517 -0.0091112545 -0.09923059 0.048263375 -0.031948134 0.0710471 -0.09607379 0.06826868
-0.09751714 -0.032575123 -0.060008183 0.07212516 -0.08042372 0.043291178 -0.082078226 -0.081833646
0.12423844 -0.04608913 0.021515546 -0.028994454 -0.051753655 0.00031714176 -0.042115472 0.037621465
0.053704254 0.047231592 0.012818323 -0.098283894 -0.0028740463 0.099097416 0.027804943 0.05121877
0.0791584 -0.025107177 0.06860627 -0.08601742 0.104580715 0.113178015 -0.058358833 -0.1059725
-0.09791262 0.0107246265 -0.018424679 0.112362206 -0.118016355 0.120120026 0.084032536 0.031589307
-0.047966234 0.04924794 0.09661612 -0.005806908 0.0050934157 -0.033676464 -0.061202005 -0.062188458
0.13322623 0.06935251 0.03587098 -0.01821067 0.12570798 0.08309458 0.04144971 -0.014617234
0.089036666 0.15474133 0.048363745 0.11736557 0.008584054 -0.12695274 0.005264232 0.003867143
0.03293241 -0.09939975 -0.043167543 -0.0020000814 0.030045403 -0.031537317 -0.059602693 0.008856507
0.052647807 0.05087541 0.015219005 -0.06279741 0.0058853948 -0.029095294 0.07090372 -0.03959974
-0.066420674 0.058686335 -0.06232713 0.0010737698 -0.056375995 -0.062232323 -0.041160893 0.10360144
0.020365179 -0.015930852 0.07604249 0.081533924 -0.116522126 -0.08699701 -0.0597285 0.111577086
-0.020863233 -0.08034208 -0.08003812 0.044952884 -0.09839613 -0.050937507 0.055685565 0.062067963
0.009208169 -0.031037027 -0.094889686 -0.049978122 0.079125516 0.12808558 0.0024759572 0.034320563
-0.059006687 0.12442428 0.0044395206 -0.04120311 0.08500189 0.0599056 0.031356502 0.09384238
-0.0439638 0.05563657 -0.00971448 -0.087427594 -0.046104807 0.022044707 -0.06192287 0.009054808
-0.09846986 -0.10197935 0.06291078 -0.04795137 -0.030550662 0.078406274 0.010014625 -0.060001977
0.08727596 0.010027466 -0.032796964 -0.050942533 -0.006077861 0.08520618 0.12267481 0.1110591
0.09865188 0.069443785 0.012213761 0.0010141663 -0.022582203 0.03241929 0.09897959 0.01448046
-0.054137144 0.06782179 -0.029133447 -0.0084776 -0.106980264 0.059543535 0.123532884 0.120158166
0.10573272 -0.008555704 -0.043703362 -0.095287755 0.12649453 -0.17305394 -0.015476209 -0.082579665

transformer.layers.0.1.fn.net.3.bias f4 [36]
00000000: 39d4 bcbd 93ef 98bd aa5e babd 4895 ae3d
00000010: 7ba5 a7bc 90f0 b33c ab64 9b3d b187 c03d
00000020: 0ebb b63d 7f73 05bc 3f3c ddbd c9b8 ba3d
00000030: 37f8 713d e492 fa3d 8077 e3bc 854d 87bd
00000040: 6787 433c 15de 973d 8139 5cbd 75bb a5bd
00000050: f78b bb3d 3daa 95bc 494f 163c cad9 273c
00000060: 6707 17bd 2bc3 253c d103 bdbd eb9d ba3d
00000070: 7ae8 383d 40f3 6f3d 67b5 4cba 49a4 66bd
00000080: 7092 1cbd 1259 bdbd 717d d4bb 5336 dc3d
-0.09220166 -0.0746757 -0.09100087 0.08524567 -0.02046465 0.021965295 0.0758756 0.09400881
0.089223966 -0.008145212 -0.10802507 0.09117276 0.059074607 0.122350484 -0.027766943 -0.066065826
0.011934138 0.07415406 -0.053765777 -0.08092395 0.091575556 -0.018269653 0.0091741765 0.010244796
-0.036872294 0.010117332 -0.092292435 0.09112152 0.045143582 0.05858159 -0.00078090135 -0.05630902
-0.03822559 -0.092455044 -0.0064846803 0.10752549

transformer.layers.1.0.norm.weight f4 [36]
00000000: 8d9c 833f 656b 823f 1a38 893f cb81 8d3f
00000010: f2ff 823f 280d 833f 50ab 843f 12ef 813f
00000020: 7f0a 803f 2b92 803f 8e1a 813f a8da 873f
00000030: 668a 813f aaeb 7a3f 79d6 7f3f 2dfa 8b3f
00000040: 85a8 853f b975 863f 1096 873f ad31 863f
00000050: 1f06 813f ec4c 823f c8e1 863f 7b79 813f
00000060: bbf7 823f 9aba 8a3f 1df7 833f c597 863f
00000070: 2672 893f 11da 833f deef 863f 623e 7e3f
00000080: 9e7e 803f c0ed 843f c354 873f 61a8 823f
1.028215 1.0189024 1.0720246 1.1055235 1.0234358 1.023839 1.036478 1.0151083
1.0003203 1.0044607 1.0086229 1.0613604 1.0120361 0.98015845 0.99936634 1.0935723
1.0442053 1.0504676 1.059267 1.048391 1.0079993 1.0179725 1.0537653 1.0115198
1.0231851 1.0838196 1.0309788 1.0515066 1.073796 1.0300924 1.0541952 0.9931394
1.003864 1.0385056 1.0572742 1.0207635

transformer.layers.1.0.norm.bias f4 [36]
00000000: 5daa 713b 82df 4fbc d5d5 063c 1429 7aba
00000010: d280 b03b e822 2cbc d18c 2cbc 2168 7ebc
00000020: d664 483c 4fe0 8c3c 2347 893c 3fbf a8bb
00000030: 2635 4abc 6403 dd3b 7cb8 b0bc ca50 563c
00000040: b424 563c d8fd ef3b 7aa9 253c 5d58 533b
00000050: 8a2a 703b 0a40 54bc 83a4 2c3c 10d7 68bc
00000060: 1d37 d6bb 4462 313c ce6c 463b dead 43bc
00000070: acf7 6a3b ca94 19bb 7d2b b03b d960 b7bb
00000080: 0149 84bb e581 aaba 082f 31bc 4158 80bc
0.0036875226 -0.012687566 0.0082296925 -0.0009542864 0.0053864503 -0.010506369 -0.01053162 -0.015527756
0.012231072 0.017196802 0.016757553 -0.0051497514 -0.012341773 0.006744789 -0.021572344 0.013080785
0.013070274 0.0073239617 0.010111207 0.0032248714 0.003664645 -0.012954721 0.0105372695 -0.014211431
-0.0065373317 0.010826651 0.0030277255 -0.011943309 0.003585319 -0.0023434632 0.005376278 -0.005596262
-0.004037023 -0.0013008682 -0.010814436 -0.015667083
