ViT/ViT1/8 V train 0.760 V test 0.763 GELU 2/model_bestQ.pt (torch, 414407 bytes, 74 tensors)

pos_embedding f4 [1, 19, 36]
-0.80854684 5.613054 3.5047855 -0.56616515 -1.120714 1.7516811 -0.19391786 1.104727
5.098885 0.2049783 1.0228299 -0.9224354 -2.3201022 0.12640977 -0.616007 2.1129165
0.9029081 -1.282583 -3.0831697 -0.5017438 -6.0058556 0.7251622 -1.4723084 -0.57970804
1.103777 0.2002626 1.2118534 -0.51199347 -4.294986 1.0139734 -0.63957334 -0.9152823
-0.109059155 1.3874491 4.348524 -0.37629458 2.1316938 -0.46458277 4.7105694 0.006065017
0.4186538 4.761147 3.964121 1.4632775 -1.3229665 2.1275687 3.7112708 2.2600017
-0.4160023 0.8162877 -2.81823 -0.34495136 -0.3866153 0.6435186 2.9375665 -1.2746377
-2.31115 0.26609412 1.4830495 -1.5395625 -1.480524 -4.7705593 -4.2372847 -2.5751488
0.08500095 0.30418706 -2.4036689 -0.45012718 -0.48790222 1.6338192 -1.634016 -0.6539153
-1.0678391 5.787993 -1.4051784 -0.95961726 4.6964283 7.215185 4.966614 3.7125766
0.5197466 4.3868504 7.367373 -2.1417885 1.0429932 2.849341 -2.8670826 -4.505676
0.8171507 2.2447355 -0.8153232 -5.6509004 -4.898487 -3.2030544 3.391803 0.65490925
-1.8422114 0.6007164 -0.28873911 -2.1587029 -2.325729 -2.1463835 2.1132398 0.41153932
0.2890433 -5.315579 -1.2013309 -3.4906366 0.22217786 -2.4981709 -7.1080503 -0.108012594
0.7945099 -2.1646419 -2.1902518 -3.9041514 -2.9574215 -0.47352314 4.049945 4.5242267
2.3461747 0.81985444 3.8272479 4.512184 -0.26161253 0.6182676 0.1870048 1.3285649
-1.0780079 -2.5637934 -0.9853763 -2.5765364 4.3067045 -0.28859434 4.6791644 1.5133533
2.8714867 -3.5823674 0.9286253 -3.1614668 -4.0667396 -0.68682337 -2.7919831 1.367825
-2.6606815 3.4335473 -3.7687795 3.4742236 -1.2466738 1.0985894 0.41714108 -1.8175306
0.48885292 2.3433175 2.6010988 -0.27060857 3.9095798 -0.83401275 1.3172766 -4.807245
-2.008812 -0.7723849 1.1569846 -0.30922905 0.02294354 2.5803697 3.048768 -1.4428415
0.9564858 0.17833938 -0.23627052 -1.1041077 -1.6316915 1.2410345 1.7845638 2.8753476
-4.3976445 -0.9159872 1.1562185 -0.30974898 -5.0943823 -4.6591415 0.18393004 -2.7735598
3.2811475 3.2880266 -0.093697265 3.9782932 -3.46911 0.17790122 2.227702 -1.1370107
-2.6396062 0.6518171 -0.2829608 2.4466124 4.166034 -3.456678 4.629465 0.46565303
3.071795 -0.16397548 0.35424557 -2.589731 1.7259662 -7.962945 3.9591055 1.6441541
4.260695 -3.1797915 -0.92537254 -2.1296778 1.0789101 -0.38141176 -5.539958 1.9614774
-5.524181 3.6957474 -3.5022056 2.5529656 5.8265977 0.42174047 -0.79283524 1.4248512
0.43674853 2.3952606 0.1124137 2.3972707 0.039754353 6.0631876 -1.1496302 -2.6166582
-0.118951745 0.21781732 -1.0519383 -3.36011 -1.9040377 -1.6942587 1.086475 0.27425295
3.6819744 0.2385156 -4.0575852 -2.2760026 -0.64496315 0.14663234 1.700544 0.17374165
-5.5874104 -2.5035126 -0.829866 0.735917 -0.09886437 2.9197066 -3.2585764 0.1357619
00000000: edfc 4ebf 239e b340 684e 6040 33f0 10bf
00000010: 8e73 8fbf 1637 e03f 6792 46be b267 8d3f
00000020: 112a a340 d5e5 513e 17ec 823f ba24 6cbf
00000030: 8e7c 14c0 9071 013e a2b2 1dbf 063a 0740
00000040: fc24 673f ae2b a4bf a752 45c0 4872 00bf
00000050: f82f c0c0 3ba4 393f 9a74 bcbf bf67 14bf
00000060: 9148 8d3f a411 4d3e 031e 9b3f 0112 03bf
00000070: 8670 89c0 e1c9 813f 14bb 23bf f14f 6abf
00000080: 685a dfbd ef97 b13f 1c27 8b40 afa9 c0be
00000090: ac6d 0840 cbdd edbe fcbc 9640 0dbd c63b
000000a0: ca59 d63e 515b 9840 29b4 7d40 ad4c bb3f
000000b0: f756 a9bf 162a 0840 7685 6d40 dea3 1040
000000c0: 41fe d4be 3bf8 503f e15d 34c0 779d b0be
000000d0: 71f2 c5be a3bd 243f 1701 3c40 5427 a3bf
000000e0: e2e9 13c0 7d3d 883e 91d4 bd3f 6210 c5bf
000000f0: cf81 bdbf 6ca8 98c0 d697 87c0 3dcf 24c0
00000100: fa14 ae3d 68be 9b3e b6d5 19c0 1277 e6be
00000110: 52ce f9be fd20 d13f 7027 d1bf fe66 27bf
00000120: f4ae 88bf 3d37 b940 e3dc b3bf 7aa9 75bf
00000130: 2449 9640 cce2 e640 80ee 9e40 db9a 6d40
00000140: 1d0e 053f 1461 8c40 85c1 eb40 1013 09c0
00000150: cd80 853f 9a5b 3640 487e 37c0 7f2e 90c0
00000160: ca30 513f bfa9 0f40 05b9 50bf 2dd4 b4c0
00000170: 68c0 9cc0 d8fe 4cc0 4d13 5940 22a8 273f
00000180: 95cd ebbf 8dc8 193f 9dd5 93be 3028 0ac0
00000190: bed8 14c0 595e 09c0 523f 0740 48b5 d23e
000001a0: 7cfd 933e 3919 aac0 36c5 99bf 9766 5fc0
000001b0: 9882 633e 08e2 1fc0 2675 e3c0 b535 ddbd
000001c0: 0065 4b3f 7e89 0ac0 162d 0cc0 9edd 79c0
000001d0: 6546 3dc0 a071 f2be 2699 8140 77c6 9040
000001e0: ba27 1640 fbe1 513f a1f1 7440 d063 9040
000001f0: 14f2 85be c946 1e3f 307e 3f3e 6a0e aa3f
00000200: 2afc 89bf 3115 24c0 9f41 7cbf f9e5 24c0
00000210: 86d0 8940 a3c2 93be b7bb 9540 90b5 c13f
00000220: 70c6 3740 8245 65c0 63ba 6d3f 7955 4ac0
00000230: bb22 82c0 a8d3 2fbf daaf 32c0 e414 af3f
00000240: 9b48 2ac0 3dbf 5b40 af33 71c0 ae59 5e40
00000250: 0293 9fbf 949e 8c3f 8493 d53e d8a4 e8bf
00000260: ee4a fa3e eaf8 1540 6778 2640 358d 8abe
00000270: 8e36 7a40 dc81 55bf 859c a83f f3d4 99c0
00000280: 6090 00c0 04bb 45bf 1218 943f 4553 9ebe
00000290: 17f4 bb3c c724 2540 041f 4340 08af b8bf
000002a0: 41dc 743f 999e 363e e6f0 71be 6753 8dbf
000002b0: 44db d0bf 38da 9e3f 966c e43f b205 3840
000002c0: 81b9 8cc0 237e 6abf f8fe 933f 6b97 9ebe
000002d0: 2e05 a3c0 b017 95c0 2858 3c3e 0182 31c0
000002e0: 52fe 5140 076f 5240 5ae4 bfbd 5b9c 7e40
000002f0: e605 5ec0 bd2b 363e ab92 0e40 9189 91bf
00000300: 4fef 28c0 7cdd 263f 3de0 90be 4c95 1c40
00000310: 2750 8540 363a 5dc0 9424 9440 136a ee3e
00000320: 4a98 4440 30e9 27be ad5f b53e 27be 25c0
00000330: 76ec dc3f 72d0 fec0 fc61 7d40 a473 d23f
00000340: 9d57 8840 b481 4bc0 37e5 6cbf a44c 08c0
00000350: ba19 8a3f 6748 c3be 5647 b1c0 b111 fb3f
00000360: 17c6 b0c0 2087 6c40 2324 60c0 ca63 2340
00000370: 7d73 ba40 5eee d73e 40f7 4abf 8661 b63f
00000380: 819d df3e f34b 1940 2739 e63d e26c 1940
00000390: 76d5 223d a205 c240 1527 93bf 5477 27c0
000003a0: f99c f3bd 810b 5f3e eaa5 86bf 0b0c 57c0
000003b0: 82b7 f3bf 78dd d8bf 9d11 8b3f e26a 8c3e
000003c0: 78a5 6b40 6f3d 743e bdd7 81c0 07aa 11c0
000003d0: 4e1c 25bf ca26 163e 6dab d93f 55e9 313e
000003e0: 11cc b2c0 8d39 20c0 1972 54bf 0e65 3c3f
000003f0: 6779 cabd 79dc 3a40 848c 50c0 2b05 0b3e

cls_token f4 [1, 1, 36]
0.58184654 4.072694 2.367354 -1.3782248 -0.86168325 1.3182704 0.44008622 1.0348033
3.0425446 -1.5221215 -0.5806662 -0.4892907 -2.4754922 -0.84751785 0.31397992 0.36541936
0.88588136 0.7557899 -5.293052 -0.06676483 -4.9454765 0.57154834 0.44633257 -1.3592249
-1.9954672 1.6969831 2.9365106 -1.1192485 -3.3115277 2.070675 1.1127477 1.7654034
-2.146091 -0.33684415 4.5537167 0.039564073
00000000: e5f3 143f 8253 8240 ba82 1740 ac69 b0bf
00000010: 4697 5cbf 16bd a83f fb52 e13e 6f74 843f
00000020: 0db9 4240 e1d4 c2bf 8aa6 14bf 5084 fabe
00000030: 776e 1ec0 eef6 58bf fac1 a03e 3f18 bb3e
00000040: 1fc9 623f 727b 413f af60 a9c0 00bc 88bd
00000050: 5841 9ec0 fe50 123f b485 e43e 15fb adbf
00000060: 786b ffbf be36 d93f caef 3b40 8943 8fbf
00000070: 12f0 53c0 f085 0440 846e 8e3f bdf8 e13f
00000080: 8e59 09c0 d676 acbe 0cb8 9140 f00d 223d

to_patch_embedding.1.weight f4 [36, 12]
2.6642725 -0.43368778 -2.9279895 1.9989936 -0.5775048 -0.9092139 -3.549928 -0.008568271
0.048024572 2.9763126 -1.1953139 0.18825631 -2.2023466 -0.7189797 2.0278757 -0.8041762
-1.0276184 2.6899934 0.7665342 2.408019 -2.2401545 -2.6751122 -3.157322 -2.2171729
-4.7338896 -0.5905818 -1.0053934 0.91847694 -2.7836173 -0.019011758 0.9794018 2.3130186
2.677867 3.819205 0.1582819 2.3483527 -0.3322846 -2.08329 -2.535592 -2.1475034
0.31604272 -1.0117562 1.0601728 1.1754924 -1.8109243 -4.17716 -2.1257334 -1.6062169
-1.5180448 2.0319722 0.5496719 0.7786699 -0.26176915 0.24087629 -2.3690963 1.0754001
-4.4803057 -1.2699802 1.6638935 -4.373089 -2.6359203 1.5776534 1.3668506 -0.14053649
-2.1043031 3.184099 1.8599164 3.2170699 0.07183412 -1.3177738 1.3020986 -0.27778634
1.0747042 -1.057834 3.46036 -2.0912967 -1.1343154 3.824965 -1.6195769 2.3706794
2.18268 -2.7812123 -0.7685272 1.8984178 -4.848994 1.5958829 2.2948456 -0.65196407
-0.21438132 1.9075317 6.489256 4.1339855 1.1531203 -3.0159032 0.3934428 0.9560606
-0.6060867 -3.2094882 -1.6486262 -1.2760564 0.27767205 -2.2100677 -0.35459045 0.5497482
-2.9244847 -3.0547705 -4.2684608 -2.5818067 0.5439781 -0.09682487 5.9461794 2.4448574
-3.7607486 6.875027 0.4836335 0.77520126 2.8994875 -0.9484333 0.4796685 2.5689342
1.6967896 2.4593494 1.4746616 0.261455 -2.607365 4.065299 -1.8085512 0.6282863
4.320605 2.8470473 2.6809442 4.279052 -0.08459948 3.111483 -0.080662265 4.8596272
1.2002604 -2.5990021 -2.3879907 -1.561437 -2.1048896 -1.280037 3.0960064 -2.33923
4.9396772 2.838248 1.1973896 2.1323228 1.1001953 0.35668802 -2.9149668 -1.823954
-1.8932222 1.0779655 -1.716844 -1.8719825 -1.222929 -1.6119562 1.8097811 -0.62447864
-1.5199202 2.3175075 -1.5177903 1.7981806 -0.21351576 -0.8832198 -0.098859675 -0.26867417
0.022831324 2.8628757 -2.538404 2.3748612 4.1080303 -5.183471 -0.6281901 -1.8973728
-2.6318588 -0.87772024 -0.67654926 -2.628431 0.9229535 -3.4381895 3.2123196 -1.5254112
0.94499576 2.1082835 -1.323346 -3.5895994 1.558395 2.8234704 0.25938037 1.8643358
-1.0655153 -2.9704976 -1.5816511 -0.35446712 0.4734983 -2.2591805 7.418103 -1.3675021
0.115644775 -4.1963854 -0.25808653 0.28518108 0.2776515 0.5144763 2.801029 1.8663068
1.8828148 2.7975342 -1.8233702 0.835615 -0.8176846 0.76765543 -1.0298318 -0.48082462
-1.1447088 -1.0185074 -1.0890229 0.37279072 -0.5975147 -0.070500575 3.688817 0.35843104
4.4891844 4.419468 5.0204706 4.263411 0.96081704 -0.007774652 -2.1808875 -6.8711553
1.3807275 -2.7844486 0.34118485 -0.1006051 -1.8613638 0.019376775 -0.722981 -1.9541228
1.7732071 0.7694791 -3.8905694 0.49967396 2.749417 -4.2659216 -1.36514 -3.6378353
-2.1888714 4.3494267 0.18441795 -2.1059074 -1.3685064 2.053351 -1.3152044 2.7968178
00000000: 7183 2a40 530c debe 2e64 3bc0 06df ff3f
00000010: 5bd7 13bf 3ec2 68bf 0532 63c0 ef61 0cbc
00000020: 6ab5 443d e87b 3e40 0c00 99bf 43c6 403e
00000030: 3ff3 0cc0 0e0f 38bf b7c8 0140 7ede 4dbf
00000040: 0089 83bf da28 2c40 963b 443f fc1c 1a40
00000050: b15e 0fc0 0a35 2bc0 9011 4ac0 29e6 0dc0
00000060: 067c 97c0 5e30 17bf bbb0 80bf 4e21 6b3f
00000070: c926 32c0 8cbe 9bbc 14ba 7a3f 7f08 1440
00000080: 2c62 2b40 db6d 7440 a714 223e 694b 1640
00000090: 3521 aabe a054 05c0 2447 22c0 b270 09c0
000000a0: 5ad0 a13e 3a81 81bf beb3 873f 8976 963f
000000b0: 5ecc e7bf 4bab 85c0 040c 08c0 8498 cdbf
000000c0: 4b4f c2bf d50b 0240 4cb7 0c3f e956 473f
000000d0: 9b06 86be 46a8 763e 469f 17c0 b6a6 893f
000000e0: aa5e 8fc0 b68e a2bf 76fa d43f 58f0 8bc0
000000f0: ebb2 28c0 8cf0 c93f f6f4 ae3f cce8 0fbe
00000100: e7ac 06c0 47c8 4b40 be11 ee3f 79e4 4d40
00000110: c41d 933d d0ac a8bf 2bab a63f 033a 8ebe
00000120: e88f 893f 1b67 87bf 8a76 5d40 ced7 05c0
00000130: 3f31 91bf 3acc 7440 4c4e cfbf 36b9 1740
00000140: 07b1 0b40 62ff 31c0 33be 44bf 5bff f23f
00000150: f52a 9bc0 e445 cc3f c0de 1240 1ee7 26bf
00000160: c786 5bbe 002a f43f fca7 cf40 9c49 8440
00000170: 7299 933f 8f04 41c0 5671 c93e 63c0 743f
00000180: 7f28 1bbf 4168 4dc0 2f06 d3bf d155 a3bf
00000190: 082b 8e3e c071 0dc0 e18c b5be 4cbc 0c3f
000001a0: c22a 3bc0 5c81 43c0 3b97 88c0 523c 25c0
000001b0: 2642 0b3f 1e4c c6bd 1a47 be40 8b78 1c40
000001c0: 1bb0 70c0 3900 dc40 cf9e f73e 9773 463f
000001d0: 3491 3940 86cc 72bf 1c97 f53e 6b69 2440
000001e0: 6730 d93f fb65 1d40 b6c1 bc3f 6edd 853e
000001f0: 11df 26c0 ee16 8240 9b7e e7bf 5fd7 203f
00000200: 6542 8a40 0636 3640 9794 2b40 feed 8840
00000210: 7e42 adbd 8a22 4740 4232 a5bd 1182 9b40
00000220: 22a2 993f 0d56 26c0 d7d4 18c0 2bdd c7bf
00000230: 83b6 06c0 41d8 a3bf f824 4640 f2b5 15c0
00000240: d611 9e40 dba5 3540 1044 993f fa77 0840
00000250: 33d3 8c3f d09f b63e d18e 3ac0 5377 e9bf
00000260: 1b55 f2bf c6fa 893f 8bc1 dbbf 1f9d efbf
00000270: f088 9cbf 9554 cebf e8a6 e73f d5dd 1fbf
00000280: bf8c c2bf 0b52 1440 f446 c2bf c82a e63f
00000290: e0a3 5abe b11a 62bf f176 cabd a98f 89be
000002a0: c208 bb3c 5b39 3740 3675 22c0 bafd 1740
000002b0: fc74 8340 ffde a5c0 11d1 20bf 1ddd f2bf
000002c0: 6070 28c0 46b2 60bf 5532 2dbf 3738 28c0
000002d0: ae46 6c3f 4c0b 5cc0 a596 4d40 ad40 c3bf
000002e0: 3eeb 713f 1eee 0640 6763 a9bf ffbb 65c0
000002f0: 7d79 c73f bdb3 3440 81cd 843e 8ea2 ee3f
00000300: ce62 88bf a21c 3ec0 8b73 cabf b77c b5be
00000310: 5f6e f23e 6a96 10c0 1a61 ed40 4f0a afbf
00000320: 2bd7 ec3d ca48 86c0 eb23 84be 4103 923e
00000330: 5628 8e3e b8b4 033f 0f44 3340 24e3 ee3f
00000340: 1300 f13f cd0a 3340 3264 e9bf ddea 553f
00000350: c753 51bf 1185 443f 87d1 83bf a52e f6be
00000360: d185 92bf 735e 82bf 1a65 8bbf 6dde be3e
00000370: b9f6 18bf 9b62 90bd 9415 6c40 4684 b73e
00000380: 66a7 8f40 486c 8d40 b2a7 a040 dd6d 8840
00000390: 1bf8 753f 82c2 febb a993 0bc0 81e0 dbc0
000003a0: aebb b03f 6834 32c0 c8af ae3e 0c0a cebd
000003b0: 2b41 eebf 0bbc 9e3c 4815 39bf b220 fabf
000003c0: 73f8 e23f 95fc 443f 17ff 78c0 44d5 ff3e
000003d0: 73f6 2f40 6e82 88c0 e8bc aebf 4bd2 68c0
000003e0: 7816 0cc0 812e 8b40 0fd8 3c3e 30c7 06c0
000003f0: 382b afbf 1a6a 0340 9e58 a8bf 10ff 3240

to_patch_embedding.1.bias f4 [36]
-1.1298972 2.4112277 -4.386694 3.0499153 4.261918 0.65148556 1.5069093 -0.7687416
-0.25924227 1.7986842 3.5330029 -2.1415565 3.8177056 4.9525576 -2.2401464 -3.4847288
2.2682412 4.132457 0.9011179 -2.5460422 1.6605433 -4.7263217 2.6306052 1.5197194
2.331618 -0.88702685 -0.32679546 -0.19923063 1.3503696 -3.8694143 0.87408924 -3.221524
2.108381 -4.8324847 -3.0452917 -2.9601243
00000000: 79a0 90bf 8e51 1a40 cc5f 8cc0 d031 4340
00000010: a261 8840 c2c7 263f 67e2 c03f 40cc 44bf
00000020: 67bb 84be 493b e63f b81c 6240 430f 09c0
00000030: 4a55 7440 5a7b 9e40 8f5e 0fc0 cc05 5fc0
00000040: dd2a 1140 163d 8440 aaaf 663f 5bf2 22c0
00000050: af8c d43f 073e 97c0 d65b 2840 2a86 c23f
00000060: 3b39 1540 3114 63bf bc51 a7be 1d03 4cbe
00000070: e9d8 ac3f 7ca4 77c0 50c4 5f3f 732d 4ec0
00000080: b7ef 0640 b7a3 9ac0 0fe6 42c0 ad72 3dc0

transformer.layers.0.0.norm.weight f4 [36]
3.3629587 4.8822913 6.1763377 2.9766808 2.9306314 3.3515904 3.5212753 4.5344834
3.4872859 1.2356505 3.304345 0.75825787 2.8610706 1.9964018 -0.029288758 3.771844
2.8933768 -1.5625366 6.0383663 0.17390059 4.677072 -1.43481 0.6471761 -0.18998547
1.738538 4.1284876 1.1701267 0.6982648 3.3602302 1.6142029 0.4876774 1.9195992
-3.0500815 2.1998312 4.994436 -0.25821742
00000000: b73a 5740 bb3b 9c40 8fa4 c540 f081 3e40
00000010: 778f 3b40 7580 5640 935c 6140 7d1a 9140
00000020: b12f 5f40 cc29 9e3f 637a 5340 301d 423f
00000030: c81b 3740 188a ff3f faee efbc e465 7140
00000040: 162d 3940 3301 c8bf 4c3a c140 ff12 323e
00000050: 93aa 9540 dba7 b7bf 55ad 253f 8d8b 42be
00000060: 6a88 de3f 921c 8440 b6c6 953f 7bc1 323f
00000070: 030e 5740 339e ce3f dab0 f93e 6db5 f53f
00000080: 8934 43c0 09ca 0c40 6bd2 9f40 1335 84be

transformer.layers.0.0.norm.bias f4 [36]
1.1125022 -0.9728679 -2.4829707 0.1417707 0.7258363 0.8996745 1.8146955 1.7040203
-0.88276726 -0.8972323 0.3855705 -0.1660884 1.0745533 -1.8090664 1.25144 -3.6677685
1.1550606 -0.65817267 -0.43356657 -1.399105 1.5074164 1.5728353 1.0391477 -1.2558173
-1.0781322 0.24003512 0.61068636 -1.271389 0.94312364 -1.0835445 0.5657293 2.6979263
-1.5241889 -1.8019283 -1.2876092 -0.5793731
00000000: 7966 8e3f df0d 79bf fee8 1ec0 572c 113e
00000010: 68d0 393f 1151 663f f147 e83f 561d da3f
00000020: 09fd 61bf 04b1 65bf 7f69 c53e 1413 2abe
00000030: f68a 893f 7d8f e7bf 302f a03f b8bc 6ac0
00000040: 07d9 933f 017e 28bf 70fc ddbe df15 b3bf
00000050: 05f3 c03f ab52 c93f cb02 853f 9fbe a0bf
00000060: 3c00 8abf c4cb 753e f155 1c3f e0bc a2bf
00000070: 8d70 713f 96b1 8abf a3d3 103f d3aa 2c40
00000080: 9f18 c3bf 96a5 e6bf 61d0 a4bf cc51 14bf

transformer.layers.0.0.fn.to_qkv.weight f4 [216, 36]
1.6806741 0.74498475 0.52146286 -1.8856914 2.3894331 0.5896416 1.8221697 2.7849982
2.1742046 -2.0572793 2.1345482 -0.9408157 -2.184648 -0.58077216 4.0931125 -1.8765619
4.26934 0.2372005 -3.4600482 -2.077032 -0.8827081 3.8612328 1.5215398 -0.76666206
-5.088952 2.1725202 5.22143 -2.4015446 -0.7202839 -1.6428348 2.8287575 1.6893741
0.1571191 -2.1602192 1.2318913 -2.9042842 3.2301311 -0.64305097 -3.051768 -1.3594942
0.08979062 0.55516785 1.1530334 -1.6313676 0.25847927 -4.107015 0.44292605 0.22816372
3.0502157 -0.7541739 3.1183276 -3.8528829 0.19307809 0.21142831 -1.3131741 -1.1502731
2.1745894 0.77503103 -0.040242374 -1.1594605 -0.08856303 2.3368506 -0.7491082 -3.0203369
0.84961635 0.7216656 2.303115 0.8498212 -3.1776285 -0.95433587 -3.8240135 -0.30533034
-0.95745045 0.690212 1.2427934 -0.44742197 1.1664933 2.7708194 2.946637 2.1080265
-1.6195225 -3.472615 2.602341 -1.6181194 1.4062147 -0.27919745 3.2542768 -4.666822
2.0271401 -0.527322 0.2310674 -0.778012 0.8408858 2.639172 1.3035666 -1.9287428
-2.6295636 -0.502026 1.6224002 -2.7022064 -0.9426837 -3.3264444 1.9539243 2.3855925
-2.3994014 -3.535336 -1.6022171 -4.0506496 -2.797087 -1.0344913 4.869165 -1.4928466
0.68012553 0.2567566 -1.4271777 1.6287284 -2.0337129 3.4549334 0.0049915337 0.17083606
-1.926721 3.5351863 -3.1764002 3.8394372 -1.3284822 0.8517182 2.53002 1.8255476
1.1893027 -1.163305 -1.8819393 2.471173 1.6558281 -2.706914 -0.41729364 3.6130111
2.32203 0.6502093 -2.972842 -1.9686834 1.7597911 2.4626973 -0.3166842 1.5447962
2.3223414 1.1553614 -4.4562707 1.1749792 -0.5674961 0.5819476 1.7134881 -0.82393295
1.547482 -3.5392427 0.21269324 -1.8447522 2.7395132 -2.6367474 2.953485 -4.3003225
0.90046096 -0.7162406 -1.9427186 -2.284298 -0.057221025 0.6991111 1.4370545 -1.9015548
-1.7160426 2.9558103 -0.8187296 -3.5185738 -1.706898 -0.46576852 2.9023812 1.87867
-3.0526938 -3.7910292 -0.27550286 -2.4667063 -2.0772963 -2.3746564 3.9672406 -1.9601204
-0.06759265 -1.2003956 -2.2786622 1.0993477 -1.4551501 2.5356374 -0.6607569 0.7112521
-1.2137616 4.463153 -2.5293202 4.1458755 -0.75779766 0.47992796 1.3319168 2.8832808
2.1745424 -1.9965807 -2.8732977 3.4501424 0.91842264 -1.0043485 0.9965325 3.6295462
1.997866 0.5282422 -2.6238143 -2.2452602 1.1604528 3.8898728 -0.97262776 2.0684724
-2.4955015 -3.0700562 4.438488 -2.3551888 0.6796481 -1.1824632 -2.672962 0.17432293
-3.0086365 3.8509629 -0.8721083 0.42882824 -0.46291047 4.3742223 -3.2861412 4.297054
-1.5059937 0.40074942 2.647843 3.4440997 3.9224255 -2.4200175 -2.8695624 3.5665288
1.7024832 -1.7534715 -0.6974493 4.036491 3.376462 1.0898552 -2.985372 -2.8285925
0.8664313 3.5603528 -2.2719827 2.005596 0.0068613137 -2.359269 3.8134086 -2.4787385
00000000: 5420 d73f 52b7 3e3f 977e 053f 565e f1bf
00000010: 79ec 1840 c0f2 163f db3c e93f 693d 3240
00000020: 2b26 0b40 77aa 03c0 709c 0840 4cd9 70bf
00000030: 46d1 0bc0 7cad 14bf c7fa 8240 2e33 f0bf
00000040: 6f9e 8840 b0e4 723e 6e71 5dc0 18ee 04c0
00000050: 28f9 61bf 701e 7740 d1c1 c23f f743 44bf
00000060: b2d8 a2c0 920a 0b40 f415 a740 e8b2 19c0
00000070: 8764 38bf 6948 d2bf 5d0a 3540 693d d83f
00000080: d4e3 203e 0841 0ac0 9dae 9d3f cbdf 39c0
00000090: 78ba 4e40 fd9e 24bf 2b50 43c0 e803 aebf
000000a0: 25e4 b73d 7b1f 0e3f 9996 933f a7d0 d0bf
000000b0: 6557 843e ab6c 83c0 34c7 e23e c0a3 693e
000000c0: bc36 4340 8a11 41bf ae92 4740 a295 76c0
000000d0: 43b6 453e aa80 583e 1716 a8bf 263c 93bf
000000e0: 792c 0b40 6f68 463f 30d5 24bd 3469 94bf
000000f0: 8960 b5bd f68e 1540 8ec5 3fbf 334d 41c0
00000100: 7580 593f 14bf 383f 3c66 1340 e28d 593f
00000110: 445e 4bc0 5b4f 74bf a3bc 74c0 4254 9cbe
00000120: 791b 75bf bcb1 303f db13 9f3f 7e14 e5be
00000130: a74f 953f 1b55 3140 b395 3c40 e8e9 0640
00000140: 834c cfbf 533f 5ec0 c18c 2640 891e cfbf
00000150: d8fe b33f f8f2 8ebe 1246 5040 9b56 95c0
00000160: aabc 0140 93fe 06bf ef9c 6c3e cb2b 47bf
00000170: 4b44 573f 32e8 2840 45db a63f 0be1 f6bf
00000180: c54a 28c0 c784 00bf cfaa cf3f f3f0 2cc0
00000190: b853 71bf 77e4 54c0 311a fa3f 8cad 1840
000001a0: cb8f 19c0 f242 62c0 7315 cdbf ec9e 81c0
000001b0: 7903 33c0 366a 84bf 33d0 9b40 9915 bfbf
000001c0: b51c 2e3f 9a75 833e c2ad b6bf 2c7a d03f
000001d0: 5a28 02c0 a11d 5d40 0590 a33b a6ef 2e3e
000001e0: cb9e f6bf 7e40 6240 244a 4bc0 57b9 7540
000001f0: b40b aabf 340a 5a3f d9eb 2140 8bab e93f
00000200: 123b 983f 2ee7 94bf 63e3 f0bf b327 1e40
00000210: 2df2 d33f 143e 2dc0 83a7 d5be 933b 6740
00000220: 249c 1440 1e74 263f 0b43 3ec0 d1fd fbbf
00000230: d640 e13f d59c 1d40 6e24 a2be e2bb c53f
00000240: 3ea1 1440 e2e2 933f c599 8ec0 b865 963f
00000250: 6d47 11bf 85fa 143f 9453 db3f 45ed 52bf
00000260: e413 c63f f482 62c0 42cc 593e d720 ecbf
00000270: 2f54 2f40 78c0 28c0 e605 3d40 3e9c 89c0
00000280: 9c84 663f 8b5b 37bf 01ab f8bf f031 12c0
00000290: 9860 6abd f2f8 323f 67f1 b73f 2666 f3bf
000002a0: 49a7 dbbf ff2b 3d40 4398 51bf 5030 61c0
000002b0: a27b dabf 3679 eebe 9dc0 3940 4278 f03f
000002c0: 565f 43c0 39a0 72c0 b60e 8dbe 84de 1dc0
000002d0: 6cf2 04c0 5ffa 17c0 45e7 7d40 3ae5 fabf
000002e0: 046e 8abd 90a6 99bf 9ad5 11c0 6db7 8c3f
000002f0: 5c42 babf e247 2240 5d27 29bf 9e14 363f
00000300: 8a5c 9bbf 26d2 8e40 62e0 21c0 03ab 8440
00000310: 07ff 41bf 1eb9 f53e 407c aa3f ac87 3840
00000320: b42b 0b40 f58f ffbf 1ce4 37c0 22cf 5c40
00000330: bf1d 6b3f 7e8e 80bf c11c 7f3f 7c4a 6840
00000340: 13ba ff3f e13a 073f 93ec 27c0 58b2 0fc0
00000350: b889 943f adf3 7840 22fe 78bf da61 0440
00000360: 4cb6 1fc0 cd7b 44c0 1808 8e40 6abb 16c0
00000370: 6bfd 2d3f f45a 97bf cf11 2bc0 b681 323e
00000380: 808d 40c0 2d76 7640 7d42 5fbf 608f db3e
00000390: 9a02 edbe a1f9 8b40 2350 52c0 7781 8940
000003a0: 67c4 c0bf 072f cd3e 4276 2940 216c 5c40
000003b0: 0509 7b40 91e1 1ac0 e9a6 37c0 0242 6440
000003c0: f8ea d93f c171 e0bf 0a8c 32bf ef2a 8140
000003d0: f417 5840 6080 8b3f 5610 3fc0 a907 35c0
000003e0: 71ce 5d3f d2dc 6340 2a68 11c0 af5b 0040
000003f0: dfd4 e03b 43fe 16c0 e30e 7440 a7a3 1ec0

transformer.layers.0.0.fn.to_out.0.weight f4 [36, 72]
-3.0637312 -0.5695818 1.5179687 -1.0966077 3.253345 2.383577 -1.9160702 -1.8840994
2.9544322 0.58354455 -1.4531821 -1.6988273 2.446187 -1.9382004 -2.4289646 -1.1522772
-1.9169791 1.6175855 2.4412634 1.6037232 -2.394182 2.1029155 1.4087747 -1.5051553
-0.5176321 0.38356644 0.7520871 -1.7118435 -0.42942247 0.65412754 1.0762275 -0.5222728
-0.35549226 -0.28314883 -0.38432607 0.021498315 -0.07749521 1.348118 -0.8628749 -0.8160077
1.6910893 -1.7469927 -1.5405046 -0.028583096 -1.2317326 1.0661961 1.7460964 -1.5392956
0.6006695 0.042207498 1.48437 -0.33648637 -1.8360059 -0.3298993 0.59597075 2.6244059
1.9095532 3.4742591 1.2975625 1.5916235 -0.0649764 0.24000944 -0.75520897 -1.1257123
-0.28561658 -0.06388585 -0.5829448 0.76179963 -1.0832388 0.049420312 3.0199318 -0.32915407
-1.6582198 -2.2658198 2.5652916 -0.75906014 -2.5816855 -0.6198371 1.630513 -0.1531201
2.9469595 -0.3505152 -3.3520155 1.2795014 -0.9446298 0.46219015 -3.673337 -3.9620743
1.5177752 -0.5996461 0.36634833 -0.512783 -0.27376375 -0.20915654 -1.1857389 -0.3202022
0.15043752 -1.317922 -1.0282934 -0.3710009 -0.5168207 -0.491731 -0.95709103 0.3520008
0.84489906 1.115635 -2.330085 0.4673323 1.5669235 0.745121 -2.680679 -0.045957413
0.97983444 -3.8043575 -0.48664168 1.0897526 -1.0818497 0.9581892 0.9488218 -0.8970354
1.5791639 0.636757 -2.8533018 2.52569 -2.1635182 -0.6765537 0.831117 1.3468472
0.49886012 -0.49776796 -1.6895978 -2.4004405 -0.88626915 -0.79006696 -3.5743136 -3.1316862
-3.5218837 1.5748059 -0.22890472 0.7078616 -3.2889678 -1.226878 2.1679225 -1.9909008
-0.22485706 -2.6558437 2.5881944 -1.2289969 -2.7276719 -3.9297478 3.6849182 3.0047932
0.9986104 -3.3782294 1.4322085 3.0029852 -0.31787422 -1.4192628 -0.91784817 0.40820432
-0.81767416 1.2047071 0.52826256 0.7729842 -0.71826816 1.2560726 0.16486931 -1.0038723
1.1978761 -3.26967 -1.3438019 2.0875478 2.194402 -3.875867 -2.9328845 4.7670665
-3.9876332 -0.840087 2.0119817 0.18735425 -0.6936676 -0.9010667 0.24376035 0.584804
-1.491799 0.2310753 2.1914313 0.0581255 0.042172186 -1.8549589 -1.9869112 2.020873
-2.097125 0.18942265 -1.3524427 0.9196525 1.6751438 1.8818388 0.14239053 -1.1706868
-2.7373633 -2.2502594 -0.5697406 0.14999184 -0.4703677 0.73941886 1.3546242 2.0382197
4.3064036 -0.08848799 1.1908535 -0.31974232 3.0548599 1.3611796 -1.3276602 2.1092286
5.1031356 -0.15162683 -1.8738794 4.2370896 -2.4249141 1.6004752 -2.7886791 -1.245388
-5.8029447 1.0117788 -2.6844704 -0.86404645 1.5299098 -2.1518342 2.6764 3.5127296
2.2961762 2.2854533 0.8286654 1.5053103 -0.8488927 1.2271091 2.2385375 -1.0528524
1.3367465 1.0700821 0.15157317 0.96922785 1.3300629 1.6916244 0.4076208 -1.7261564
1.9333861 -1.2288843 0.80359274 -0.27575827 -0.6763563 -1.1662828 0.23791364 1.4822514
00000000: 2c14 44c0 1dd0 11bf cc4c c23f a45d 8cbf
00000010: ce36 5040 878c 1840 ca41 f5bf 2b2a f1bf
00000020: 6b15 3d40 2d63 153f df01 babf 2c73 d9bf
00000030: 548e 1c40 f316 f8bf 2874 1bc0 d27d 93bf
00000040: 925f f5bf 0b0d cf3f a93d 1c40 cd46 cd3f
00000050: 473a 19c0 2b96 0640 bb52 b43f eea8 c0bf
00000060: 8a83 04bf d262 c43e c888 403f b01d dbbf
00000070: 43dd dbbe e774 273f d3c1 893f acb3 05bf
00000080: 1503 b6be e2f8 90be 63c6 c4be 3c1d b03c
00000090: cfb5 9ebd 218f ac3f 5fe5 5cbf e1e5 50bf
000000a0: 9d75 d83f 759d dfbf 412f c5bf 1927 eabc
000000b0: 6aa9 9dbf 1d79 883f 1680 df3f a307 c5bf
000000c0: 7ac5 193f c5e1 2c3d d6ff bd3f f147 acbe
000000d0: 3e02 ebbf 90e8 a8be 8a91 183f 44f6 2740
000000e0: 3d6c f43f 435a 5e40 8716 a63f 52ba cb3f
000000f0: 5912 85bd 09c5 753e 6055 41bf 5717 90bf
00000100: 563c 92be 96d6 82bd df3b 15bf 4d05 433f
00000110: 92a7 8abf f46c 4a3d 9046 4140 e286 a8be
00000120: 8c40 d4bf 3103 11c0 bd2d 2440 c451 42bf
00000130: 563a 25c0 a5ad 1ebf a6b4 d03f 84cb 1cbe
00000140: fc9a 3c40 ba76 b3be 6c87 56c0 b4c6 a33f
00000150: 42d3 71bf 30a4 ec3e f417 6bc0 a092 7dc0
00000160: 7546 c23f 6882 19bf 0292 bb3e bf45 03bf
00000170: c32a 8cbe 222d 56be 4bc6 97bf 8bf1 a3be
00000180: 4b0c 1a3e abb1 a8bf 1e9f 83bf d4f3 bdbe
00000190: 5d4e 04bf 2ac4 fbbe eb03 75bf 7339 b43e
000001a0: 4e4b 583f 21cd 8e3f 1d20 15c0 2e46 ef3e
000001b0: f390 c83f 40c0 3e3f 3f90 2bc0 d73d 3cbd
000001c0: 6ed6 7a3f 987a 73c0 1929 f9be 037d 8b3f
000001d0: 0d7a 8abf e34b 753f fce5 723f 1da4 65bf
000001e0: 0b22 ca3f 8202 233f 7f9c 36c0 e8a4 2140
000001f0: 1577 0ac0 a032 2dbf 15c4 543f 7d65 ac3f
00000200: 986a ff3e 71db febe be44 d8bf d1a0 19c0
00000210: 89e2 62bf d441 4abf 8ec1 64c0 8c6d 48c0
00000220: 8b66 61c0 3d93 c93f 0066 6abe 6b36 353f
00000230: 737e 52c0 570a 9dbf 3ebf 0a40 d6d5 febf
00000240: ee40 66be 58f9 29c0 faa4 2540 c54f 9dbf
00000250: 2d92 2ec0 fd80 7bc0 b3d5 6b40 884e 4040
00000260: eea4 7f3f e934 58c0 9c52 b73f e930 4040
00000270: 69c0 a2be 67aa b5bf 19f8 6abf 2800 d13e
00000280: 1853 51bf d833 9a3f 373c 073f 4be2 453f
00000290: 6ce0 37bf fdc6 a03f 80d3 283e e37e 80bf
000002a0: 0154 993f 4642 51c0 b301 acbf 629a 0540
000002b0: 1571 0c40 340e 78c0 61b4 3bc0 cf8b 9840
000002c0: 6235 7fc0 f10f 57bf 4fc4 0040 cbd9 3f3e
000002d0: 3394 31bf 4fac 66bf 509c 793e b7b5 153f
000002e0: 45f3 bebf 019f 6c3e 6940 0c40 0115 6e3d
000002f0: bebc 2c3d 4b6f edbf 1b53 febf fc55 0140
00000300: 4c37 06c0 03f8 413e d81c adbf 596e 6b3f
00000310: 1d6b d63f 18e0 f03f d3ce 113e 11d9 95bf
00000320: f630 2fc0 4004 10c0 85da 11bf 7697 193e
00000330: 09d4 f0be 8e4a 3d3f 5364 ad3f 3172 0240
00000340: 0fce 8940 3139 b5bd e36d 983f 44b5 a3be
00000350: d382 4340 223b ae3f c5f0 a9bf 9afd 0640
00000360: e34c a340 1044 1bbe 48db efbf 3d96 8740
00000370: cb31 1bc0 5fdc cc3f b879 32c0 e068 9fbf
00000380: b9b1 b9c0 f881 813f 5dce 2bc0 2632 5dbf
00000390: 16d4 c33f a7b7 09c0 234a 2b40 90d0 6040
000003a0: 8df4 1240 de44 1240 6a23 543f 02ae c03f
000003b0: 0851 59bf e911 9d3f 3344 0f40 dec3 86bf
000003c0: 821a ab3f 73f8 883f ff35 1b3e 511f 783f
000003d0: 803f aa3f 2687 d83f acb3 d03e b1f2 dcbf
000003e0: 3279 f73f 154c 9dbf 41b8 4d3f 3030 8dbe
000003f0: b025 2dbf c148 95bf a29f 733e 6aba bd3f

transformer.layers.0.0.fn.to_out.0.bias f4 [36]
0.19703269 -0.45661062 -0.35667545 -0.21946554 0.74066085 0.15308762 -0.5148246 -1.5985913
-0.35509688 0.12441777 -1.3839132 0.32486328 -0.38467148 0.20168461 0.08161839 0.7471156
-1.0322111 -0.4305999 0.08132923 0.12476445 0.3826227 -0.6056675 -0.6733457 0.51487327
0.204442 -0.24251679 0.24205099 0.3757783 -0.34872442 1.9241484 0.31971672 0.104269296
-0.52881515 0.7169743 -0.06014928 -0.33534667
00000000: f0c2 493e dec8 e9be 2a9e b6be 93bb 60be
00000010: f39b 3d3f 00c3 1c3e 8ccb 03bf a49e ccbf
00000020: 42cf b5be bece fe3d 1124 b1bf 7b54 a63e
00000030: a9f3 c4be 6986 4e3e 8b27 a73d f842 3f3f
00000040: 7e1f 84bf 9777 dcbe f08f a63d 8184 ff3d
00000050: 1fe7 c33e 060d 1bbf 6260 2cbf bcce 033f
00000060: 3e59 513e 5256 78be 37dc 773e 0366 c03e
00000070: 028c b2be 7f4a f63f e9b1 a33e 248b d53d
00000080: 6e60 07bf a18b 373f 175f 76bd 8fb2 abbe

transformer.layers.0.1.norm.weight f4 [36]
3.6016824 1.629207 0.75126904 1.8691312 0.6962122 0.05865773 2.1431134 -1.7139492
-0.38665178 2.8058946 0.65851283 -1.9983274 -1.1511167 4.4849596 -1.9752891 1.7577395
2.5630546 1.3202437 -0.05077513 1.3818254 -1.363928 2.056969 0.62124777 2.906601
1.9790012 1.5336534 1.1597193 1.2942566 0.6383785 -0.70283836 4.4659443 1.2003274
-0.01054112 0.36287695 0.13767926 -0.16818163
00000000: f781 6640 db89 d03f 2b53 403f b13f ef3f
00000010: f63a 323f 1743 703d c528 0940 b062 dbbf
00000020: 39f7 c5be c793 3340 4c94 283f 31c9 ffbf
00000030: cb57 93bf ca84 8f40 46d6 fcbf 9cfd e03f
00000040: 1609 2440 bffd a83f 95f9 4fbd a8df b03f
00000050: 3195 aebf 61a5 0340 180a 1f3f c005 3a40
00000060: e94f fd3f c14e c43f af71 943f 33aa a53f
00000070: c66c 233f 37ed 33bf 04e9 8e40 54a4 993f
00000080: a9b4 2cbc 02cb b93e cbfb 0c3e ce37 2cbe

transformer.layers.0.1.norm.bias f4 [36]
1.3023105 0.11803767 -1.2990581 -0.8898536 1.1701314 -0.055879343 -0.3860618 -0.5493652
-0.57269603 0.17850575 -0.39470065 0.47330552 -0.00043003345 0.4071713 -0.31864062 0.4342604
-0.71994966 -0.34191748 -0.42312917 0.6464431 -0.32352716 -0.51007015 -1.0351628 0.4569677
-0.4648156 0.08281496 0.6695264 -0.95719 -0.28153732 0.18895756 -0.04172796 -1.1631625
0.02108477 0.35545033 -0.26452327 0.28478378
00000000: 1cb2 a63f bcbd f13d 8947 a6bf 72cd 63bf
00000010: dec6 953f bde1 64bd e4a9 c5be 33a3 0cbf
00000020: 359c 12bf 36ca 363e 3416 cabe 1a55 f23e
00000030: 1d76 e1b9 c278 d03e dd24 a3be 6157 de3e
00000040: 9f4e 38bf cf0f afbe 63a4 d8be 4c7d 253f
00000050: 5aa5 a5be f593 02bf 3780 84bf acf7 e93e
00000060: 4ffc edbe e49a a93d 1566 2b3f 670a 75bf
00000070: a925 90be 177e 413e f0ea 2abd 82e2 94bf
00000080: f8b9 ac3c 96fd b53e 986f 87be 2ecf 913e

transformer.layers.0.1.fn.net.0.weight f4 [72, 36]
-2.9512494 -1.2984598 1.8021603 1.4735316 -0.7011749 0.496018 -1.5859108 0.6483324
1.3470895 -1.2103887 -0.4118113 1.0731399 0.06211361 1.1692551 0.84229267 0.30140823
1.728428 -0.91706353 -0.19151364 0.118488155 -0.34051976 0.12729393 0.2285759 -1.3832972
-4.911759 2.161299 -1.5295637 1.5160155 1.2705907 -0.5760563 -0.91470534 -1.178445
-1.6643944 -0.86317605 0.5188586 1.0659994 -0.8931958 1.3576612 2.3674963 -1.3205564
-2.9481204 -1.6574045 2.1295946 -2.1182644 1.5879134 -1.7967497 -0.18538718 0.6668295
0.99882525 -0.54922587 4.593844 -1.1587775 0.7487453 -0.2579951 1.1204904 2.5075748
0.52754456 -0.013859579 -0.27861342 -1.7138215 0.77184427 -0.6268628 1.6458299 1.3762127
-0.93285805 -0.1586544 -0.27640027 0.66260237 1.5230385 -2.2694762 1.5933967 -2.0920045
-1.3986495 -1.478708 -0.8439217 0.36114094 1.2843907 -0.40582472 -0.41804412 -0.2327765
0.3822806 -0.6738942 -1.8531568 -1.2787907 -0.29390287 0.48332515 1.1343904 -1.4510562
3.450185 1.2056987 -0.9637235 -1.227817 -0.18545216 -0.73618114 0.7250838 -2.671233
-1.7275354 1.0701303 -1.0688195 0.030990245 1.1367142 -0.57777596 1.6918812 0.9427488
-1.9048558 -0.035407793 0.34587416 -0.3915093 3.7222633 0.77043146 0.63736796 -2.3883262
-1.0720544 -0.581879 -0.100658424 -3.7191286 0.60252875 3.4492424 -0.0053305263 0.9389183
0.98782724 2.0178335 0.9575798 1.8612146 -1.3421258 0.9927277 -0.7869934 -3.7117887
-1.6434617 0.4282516 0.8498894 -3.1762438 1.6703321 1.3038965 -1.7305275 0.7115641
0.016011387 -0.42953333 -3.6223676 0.51501113 -0.06113164 -0.111118436 0.37976545 0.20877418
-4.630433 -1.2818178 0.98642606 -1.8025562 -0.34832904 -0.16022515 1.89521 0.04309971
1.1245052 -2.668772 0.28505105 -1.557394 -0.24594152 -2.6548767 2.903278 -3.2426398
0.39033458 -1.1901807 0.63378316 1.9654617 3.1176555 -1.3970587 0.8062758 1.4876016
0.046379764 1.1637468 0.516718 1.9490103 1.9086366 -3.5584662 1.7233664 -1.762859
0.3907876 -1.7384673 -1.0703491 -0.24880268 0.5737506 -1.0889657 3.4835474 -2.4632704
-2.3848426 -0.22110844 2.0634544 -1.8297724 0.45713514 3.9470408 -0.21929987 0.67022496
0.8966046 -0.6635762 0.10489842 1.2305576 -3.1485307 0.20837483 0.049147114 -1.3341773
0.8086434 0.5992594 1.963918 -1.6982582 0.7846154 1.7471917 0.022861008 0.41272417
-1.4379365 -0.08180162 -5.4940057 1.4382579 0.47920004 -0.31611505 -0.9281673 -0.69429654
1.4200398 -0.37347245 -0.4613639 1.8585936 -0.8057304 0.9741765 -1.8585231 0.34990048
0.15853383 1.2412738 1.303671 2.0276875 -0.27981293 3.4181073 -1.4756263 0.5057274
-1.3757321 0.8525153 -0.031419005 0.31604266 -0.03755009 0.35056564 -0.33096948 -3.0504956
-0.44079658 1.7890464 0.41574225 -1.0665205 -1.6862379 0.1489509 -1.4133149 1.037107
0.5854958 -0.11953567 0.23288797 -0.65936697 0.1272097 1.1797211 2.5640244 1.5553325
00000000: 45e1 3cc0 ee33 a6bf 30ad e63f af9c bc3f
00000010: 3380 33bf 12f6 fd3e 20ff cabf 1df9 253f
00000020: 6e6d ac3f 04ee 9abf eed8 d2be a65c 893f
00000030: d76a 7e3d 27aa 953f 7ea0 573f 2e52 9a3e
00000040: 213d dd3f adc4 6abf 271c 44be eba9 f23d
00000050: 9b58 aebe 5759 023e cd0f 6a3e e20f b1bf
00000060: 212d 9dc0 b952 0a40 bec8 c3bf cc0c c23f
00000070: b7a2 a23f 6d78 13bf 212a 6abf 49d7 96bf
00000080: e00a d5bf 1bf9 5cbf ebd3 043f ab72 883f
00000090: 7ba8 64bf d8c7 ad3f 0f85 1740 fe07 a9bf
000000a0: 01ae 3cc0 d525 d4bf 474b 0840 a591 07c0
000000b0: bf40 cb3f e5fb e5bf 23d6 3dbe 57b5 2a3f
000000c0: 03b3 7f3f 119a 0cbf c500 9340 d252 94bf
000000d0: c6ad 3f3f ef17 84be 3b6c 8f3f 1b7c 2040
000000e0: 290d 073f 4a13 63bc 6ba6 8ebe 815e dbbf
000000f0: 9697 453f 157a 20bf 8eaa d23f bd27 b03f
00000100: c9cf 6ebf 4d76 22be 5684 8dbe 4fa0 293f
00000110: edf2 c23f 193f 11c0 6cf4 cb3f 67e3 05c0
00000120: f206 b3bf 4e46 bdbf 410b 58bf 77e7 b83e
00000130: ea66 a43f 42c8 cfbe e109 d6be f65c 6ebe
00000140: 48ba c33e 5584 2cbf 3e34 edbf 6aaf a3bf
00000150: 707a 96be 6576 f73e b433 913f 36bc b9bf
00000160: d5cf 5c40 5654 9a3f 95b6 76bf 1c29 9dbf
00000170: 2ce7 3dbe 5e76 3cbf 189f 393f 7bf5 2ac0
00000180: e11f ddbf 08fa 883f 14cf 88bf 41df fd3c
00000190: da7f 913f 20e9 13bf 908f d83f fc57 713f
000001a0: 51d2 f3bf c307 11bd 6b16 b13e e873 c8be
000001b0: 9039 6e40 ff3a 453f 8c2a 233f 56da 18c0
000001c0: 1439 89bf 06f6 14bf 0126 cebd 3406 6ec0
000001d0: 533f 1a3f 63c0 5c40 b2ab aebb f35c 703f
000001e0: 3fe2 7c3f 2f24 0140 f323 753f 483c ee3f
000001f0: c7ca abbf 6723 7e3f 6678 49bf f28d 6dc0
00000200: f45c d2bf cb43 db3e 5a92 593f 9447 4bc0
00000210: 71cd d53f 15e6 a63f ed81 ddbf 1129 363f
00000220: 502a 833c cbeb dbbe dfd4 67c0 c5d7 033f
00000230: 2c65 7abd 1092 e3bd 9e70 c23e e6c8 553e
00000240: 822c 94c0 9b12 a4bf 6b86 7c3f 29ba e6bf
00000250: 2f58 b2be 1012 24be 3e96 f23f 5289 303d
00000260: c9ef 8f3f 29cd 2ac0 36f2 913e b058 c7bf
00000270: 18d8 7bbe 80e9 29c0 4fcf 3940 6987 4fc0
00000280: efd9 c73e d757 98bf 9d3f 223f 4094 fb3f
00000290: ab87 4740 d2d2 b2bf 1768 4e3f bb69 be3f
000002a0: b5f8 3d3d a8f5 943f a147 043f 2b79 f93f
000002b0: 344e f43f e9bd 63c0 4597 dc3f 5da5 e1bf
000002c0: 5015 c83e 1986 debf 3301 89bf 21c6 7ebe
000002d0: 52e1 123f 3a63 8bbf 71f2 5e40 39a6 1dc0
000002e0: 43a1 18c0 406a 62be a30f 0440 fb35 eabf
000002f0: 9e0d ea3e 519c 7c40 2590 60be dd93 2b3f
00000300: e187 653f 21e0 29bf fcd4 d63d e982 9d3f
00000310: 8781 49c0 3660 553e 7c4e 493d 52c6 aabf
00000320: 4103 4f3f 1069 193f aa61 fb3f 8660 d9bf
00000330: 8edc 483f faa3 df3f 0247 bb3c 9550 d33e
00000340: 4e0e b8bf 9c87 a7bd e5ce afc0 d618 b83f
00000350: b559 f53e d5d9 a1be 5f9c 6dbf 6bbd 31bf
00000360: ddc3 b53f c837 bfbe e437 ecbe 65e6 ed3f
00000370: 5944 4ebf a263 793f 16e4 edbf 2826 b33e
00000380: b156 223e 0fe2 9e3f b1de a63f a2c5 0140
00000390: a443 8fbe 45c2 5a40 53e1 bcbf 5a77 013f
000003a0: fd17 b0bf 713e 5a3f 37b1 00bd 58d0 a13e
000003b0: 20ce 19bd 577d b33e d574 a9be 523b 43c0
000003c0: 17b0 e1be 79ff e43f 2bdc d43e be83 88bf
000003d0: a5d6 d7bf 9686 183e 81e7 b4bf ecbf 843f
000003e0: 0ee3 153f 1ecf f4bd 2f7a 6e3e 46cc 28bf
000003f0: 4243 023e 1a01 973f fa18 2440 2315 c73f

transformer.layers.0.1.fn.net.0.bias f4 [72]
-0.45294562 -0.9882599 -0.41221893 -1.337803 0.81291676 -0.26244402 0.499643 -0.42400137
-4.750992 -0.8702515 -0.6917298 -2.164394 -1.2565556 0.37206373 -0.30112243 -1.5074314
-0.4220175 -0.106073305 0.026945943 -1.1487366 0.30435956 -1.5650327 -4.0566382 -1.104823
-0.748761 -0.59113145 -2.2650998 0.9808244 -2.1336312 0.5314302 -2.7641666 -0.03665684
-0.26619765 -2.492765 -1.8777933 -1.1265557 -3.8918521 -0.20166108 -1.3418479 -1.1305566
0.7223212 -0.2818567 0.30188793 -0.83098954 -1.5688055 -1.7715762 -0.66498184 0.29583496
-2.1316836 -0.36798796 -1.3209306 -1.4910351 -2.7101305 -1.4820274 0.52237296 -0.22171234
0.40213802 -1.7288936 -0.22417213 -0.42063478 0.8600552 1.2740754 0.8221104 -2.4074104
0.2884074 1.2672483 0.63062453 0.51083344 -0.011510783 -0.7257477 0.37011674 -2.2133338
00000000: 7de8 e7be 9afe 7cbf 5c0e d3be 213d abbf
00000010: 501b 503f 105f 86be 35d1 ff3e b516 d9be
00000020: 2008 98c0 cdc8 5ebf 3415 31bf 6e85 0ac0
00000030: d0d6 a0bf 237f be3e b82c 9abe 83f3 c0bf
00000040: ae12 d8be f63c d9bd bdbd dc3c cd09 93bf
00000050: 04d5 9b3e fe52 c8bf fbcf 81c0 d76a 8dbf
00000060: cdae 3fbf 6454 17bf 65f7 10c0 4f17 7b3f
00000070: 6a8d 08c0 cf0b 083f 1be8 30c0 7c25 16bd
00000080: 0f4b 88be 7689 1fc0 885b f0bf fa32 90bf
00000090: 1b14 79c0 3e80 4ebe acc1 abbf 14b6 90bf
000000a0: 0bea 383f 854f 90be 0e91 9a3e bbbb 54bf
000000b0: 9ece c8bf 02c3 e2bf 403c 2abf ae77 973e
000000c0: 816d 08c0 eb68 bcbe 4114 a9bf 3dda bebf
000000d0: c772 2dc0 13b3 bdbf 3cba 053f 8f08 63be
000000e0: 09e5 cd3e 634c ddbf 618d 65be 715d d7be
000000f0: 942c 5c3f e714 a33f d475 523f 0313 1ac0
00000100: 22aa 933e 3135 a23f 9c70 213f fbc5 023f
00000110: b997 3cbc 9aca 39bf f17f bd3e 43a7 0dc0

transformer.layers.0.1.fn.net.3.weight f4 [36, 72]
2.2825024 0.5244595 2.4609077 -4.322306 0.19090573 -1.5764489 -1.7669402 -2.4866505
-0.56254387 1.6021903 2.4554405 -1.8117915 1.4373173 1.1410753 -0.6062081 -0.37186328
2.5972462 -0.2759378 -0.4544737 2.4322622 1.6120507 -1.0909375 1.8324066 0.60270673
-1.3637412 -0.1995173 -0.42424572 -1.1806899 0.01860442 -0.7438875 -0.37199017 2.1499555
-1.23794 0.54242533 -0.8286375 -0.02617122 1.3697072 -1.2700102 1.6489819 -0.23529863
-1.7831397 2.0090444 1.0284895 -0.10000669 1.6673859 0.14530194 0.34176314 -1.0226214
0.25876185 1.5217913 -2.8056817 2.685948 2.2624705 -0.7896379 -1.2020477 1.2522817
-1.4037405 -0.7762653 -0.32853928 -1.3101654 1.8447393 -0.5019905 -0.8181772 -0.37839878
-2.0084183 -1.0133559 0.98244554 0.3052627 -1.3613886 0.5665745 -1.1522688 1.048055
0.23899005 -2.7226806 -0.22275451 -0.32702214 -0.20625025 2.6138842 -0.90105736 0.24416885
-1.9566448 0.54458046 0.353981 -0.4840571 -0.96631813 -1.8690819 -0.044495776 -1.3724624
0.2391304 1.5862856 -1.0589778 1.0060921 2.026361 2.3456907 0.3140702 -2.4167204
1.1354139 0.4219791 -0.6511155 -0.5401109 0.6382793 -1.402418 0.43402395 0.2827546
0.69797146 -1.0978656 0.85189426 0.6007967 0.28325778 0.4752833 -1.2386266 1.2637771
-1.6915623 0.4639014 -0.01307629 -1.4143566 -0.97070074 1.0259945 0.7206352 0.72472346
2.6996262 1.3168073 -1.0426683 0.15496008 -0.3227584 0.5899502 -0.80513376 0.03563142
-1.7710273 -0.46637717 -1.5812352 3.5352423 0.7810219 -0.91630644 1.5158973 0.5161991
-0.20020466 -0.6425101 -0.83619434 0.36410728 -0.5756274 -1.0506554 -0.49531302 -1.8266033
-3.060883 1.9461646 -0.5099986 -0.23957737 -1.3578274 0.9002921 -0.53397936 -2.4906454
2.1003613 -1.0092821 -1.4627419 -1.1474551 -0.9785274 0.07667706 0.7578375 2.697185
-0.7952273 0.84317344 0.7298935 -1.568184 -0.7185661 0.03337376 -0.37000322 0.59408283
-0.22690345 1.5684445 0.38814202 -0.37039572 0.37211335 0.6608072 0.88951457 -1.0514734
0.82711726 -1.3023734 -0.7811066 -0.6933878 1.0070193 0.25828978 1.1162529 -0.11836255
-1.2423879 -1.0113038 1.5488783 0.5593722 1.6779379 1.2329019 0.922377 0.48947096
0.6907907 0.986286 -0.6077611 -0.45302182 -0.5969337 0.45922643 0.5570188 -0.99291795
-1.0686479 -0.32049108 2.199035 0.7631015 2.302107 0.4623178 0.78605396 0.72768724
-1.0643501 0.56308955 -0.67431176 1.2594552 -0.12353216 -0.1569308 0.4003354 -0.50235564
-0.13981447 0.30273682 1.2193661 -1.4713482 0.7679543 -1.6842954 -1.0638793 -0.55362225
0.82943904 -0.102004945 0.67901456 -2.122204 0.63931113 1.8923594 -0.26976898 0.5444743
0.29009914 -0.09412226 -1.016934 -0.90963197 1.5583794 -0.38725597 -0.6486491 -0.14703056
-0.69800293 -0.8731774 2.0316906 -0.7071865 2.5856497 -0.70561844 2.350047 0.6671871
-1.1867628 -0.9230243 -1.0834936 0.5088102 1.0483869 -0.25358245 -0.53782284 -0.6658086
00000000: 8514 1240 fa42 063f 837f 1d40 5550 8ac0
00000010: cb7c 433e 14c9 c9bf 192b e2bf 4825 1fc0
00000020: e002 10bf 9214 cd3f f025 1d40 c9e8 e7bf
00000030: 03fa b73f c10e 923f 7430 1bbf dd64 bebe
00000040: 4839 2640 b847 8dbe c7b0 e8be 2faa 1b40
00000050: ad57 ce3f d7a3 8bbf 4d8c ea3f fd4a 1a3f
00000060: 128f aebf 434e 4cbe bc36 d9be d920 97bf
00000070: 4c68 983c 696f 3ebf 7f75 bebe df98 0940
00000080: d174 9ebf 63dc 0a3f 9621 54bf 0765 d6bc
00000090: 9152 af3f b28f a2bf d711 d33f 20f2 70be
000000a0: ec3d e4bf 2f94 0040 8ba5 833f 4fd0 ccbd
000000b0: e76c d53f 08ca 143e 94fb ae3e 42e5 82bf
000000c0: 6f7c 843e 0fca c23f 4a90 33c0 92e6 2b40
000000d0: 51cc 1040 b625 4abf b3dc 99bf c44a a03f
000000e0: c5ad b3bf 53b9 46bf 4d36 a8be 80b3 a7bf
000000f0: 6b20 ec3f 7382 00bf 1074 51bf 7cbd c1be
00000100: ed89 00c0 a5b5 81bf 8d81 7b3f 654b 9c3e
00000110: fb41 aebf 070b 113f 8b7d 93bf ab26 863f
00000120: cfb9 743e 6640 2ec0 c219 64be 726f a7be
00000130: 4433 53be e149 2740 b2ab 66bf 6607 7a3e
00000140: 5673 fabf a069 0b3f ff3c b53e 55d6 f7be
00000150: a060 77bf 133e efbf 3441 36bd d9ac afbf
00000160: 99de 743e 680b cb3f 968c 87bf a0c7 803f
00000170: e6af 0140 cc1f 1640 cfcd a03e 8cab 1ac0
00000180: 3e55 913f a50d d83e 81af 26bf b544 0abf
00000190: 4666 233f 6f82 b3bf 6338 de3e 36c5 903e
000001a0: 42ae 323f dc86 8cbf be15 5a3f d0cd 193f
000001b0: 2a07 913e 5558 f33e 518b 9ebf 73c3 a13f
000001c0: 1d85 d8bf 7c84 ed3e ef3d 56bc a309 b5bf
000001d0: d87f 78bf ca53 833f 8c7b 383f 7a87 393f
000001e0: adc6 2c40 248d a83f 2876 85bf dbad 1e3e
000001f0: 9740 a5be fa06 173f 3f1d 4ebf 40f2 113d
00000200: 06b1 e2bf fdc8 eebe ea65 cabf 6941 6240
00000210: 0df1 473f 0f93 6abf ec08 c23f a025 043f
00000220: 7302 4dbe 8b7b 24bf d510 56bf 456c ba3e
00000230: 515c 13bf e07b 86bf ab99 fdbe 23ce e9bf
00000240: 82e5 43c0 ec1b f93f 458f 02bf c553 75be
00000250: 4acd adbf 8b79 663f dfb2 08bf bc66 1fc0
00000260: 526c 0640 2830 81bf 203b bbbf cfdf 92bf
00000270: c680 7abf dd08 9d3d a301 423f ae9e 2c40
00000280: 0494 4bbf 37da 573f 4dda 3a3f 41ba c8bf
00000290: f3f3 37bf ecb2 083d 1071 bdbe d015 183f
000002a0: 6159 68be cac2 c83f 8dba c63e 82a4 bdbe
000002b0: a485 be3e a92a 293f 3ab7 633f ae96 86bf
000002c0: f5bd 533f 2cb4 a6bf 9af6 47bf dd81 31bf
000002d0: 02e6 803f 8f3e 843e 60e1 8e3f 1168 f2bd
000002e0: 9106 9fbf 6772 81bf a541 c63f 0433 0f3f
000002f0: abc6 d63f bbcf 9d3f e620 6c3f f09b fa3e
00000300: a9d7 303f 3d7d 7c3f 3b96 1bbf 7af2 e7be
00000310: a6d0 18bf ba1f eb3e c998 0e3f df2f 7ebf
00000320: 74c9 88bf 6817 a4be fdbc 0c40 9f5a 433f
00000330: b955 1340 ebb4 ec3e d53a 493f b649 3a3f
00000340: a03c 88bf a326 103f b29f 2cbf d435 a13f
00000350: 6efe fcbd 78b2 20be c3f8 cc3e 619a 00bf
00000360: 862b 0fbe 5200 9b3e 3014 9c3f 2355 bcbf
00000370: a798 443f fe96 d7bf 322d 88bf 30ba 0dbf
00000380: 1e56 543f f8e7 d0bd e6d3 2d3f 31d2 07c0
00000390: e5a9 233f d538 f23f 291f 8abe ab62 0b3f
000003a0: e087 943e 2cc3 c0bd e52a 82bf a4dd 68bf
000003b0: fa78 c73f 6a46 c6be de0d 26bf 2e8f 16be
000003c0: 52b0 32bf 8e88 5fbf 3807 0240 2d0a 35bf
000003d0: 497b 2540 69a3 34bf 2c67 1640 c6cc 2a3f
000003e0: d8e7 97bf 524b 6cbf ebaf 8abf 6341 023f
000003f0: 8b31 863f 8fd5 81be c2ae 09bf 6f72 2abf

transformer.layers.0.1.fn.net.3.bias f4 [36]
-0.26621935 -0.6615291 -0.14031813 -0.12636873 0.38249525 -0.119692855 -0.050004274 -1.5987061
-0.62005156 0.14899091 -1.5279362 0.51562786 -0.2500552 0.011213863 0.21164425 0.6425358
-0.4804675 -0.30149052 0.13820824 -0.25152364 0.6383708 -0.4338341 -0.4524594 0.56060433
0.61181605 -0.20438653 -0.08532374 0.7033653 -0.44438297 1.8990477 0.070587024 0.36446187
-0.17290412 0.745394 0.23509347 -0.22418591
00000000: e74d 88be f959 29bf 8eaf 0fbe ce66 01be
00000010: 6bd6 c33e 8721 f5bd 48d1 4cbd 67a2 ccbf
00000020: b3bb 1ebf 1391 183e 6a93 c3bf 3000 043f
00000030: 3c07 80be 5aba 373c 45b9 583e 3a7d 243f
00000040: d6ff f5be f75c 9abe 7686 0d3e b5c7 80be
00000050: 456c 233f 811f debe c2a8 e7be c483 0f3f
00000060: fa9f 1c3f b44a 51be 37be aebd c00f 343f
00000070: 2a86 e3be ff13 f33f ee8f 903d bf9a ba3e
00000080: c70d 31be 24d2 3e3f 58bc 703e fe90 65be

transformer.layers.1.0.norm.weight f4 [36]
-1.118076 -2.5189002 1.8216658 1.1548247 -0.42425925 0.6680193 3.295119 3.2914767
2.2149365 2.8007848 1.6038313 2.0391598 0.6548561 1.1028312 -1.1052 2.1768062
-0.68322074 0.5139848 3.7504072 0.5650026 -0.13962157 -2.0621018 0.48415655 2.5435236
-0.008692816 -1.1713009 -0.43133664 -0.12922758 0.039133187 -0.3201597 -2.0199053 2.1184886
3.7372775 0.100191236 2.2585094 -1.8732766
00000000: 1d1d 8fbf a935 21c0 582c e93f 4cd1 933f
00000010: 8238 d9be 5003 2b3f 3be3 5240 8ea7 5240
00000020: 85c1 0d40 0f40 3340 584a cd3f 9881 0240
00000030: a6a4 273f 9329 8d3f 3277 8dbf cb50 0b40
00000040: 8ee7 2ebf 8294 033f ac06 7040 03a4 103f
00000050: f5f8 0ebe 7af9 03c0 5ee3 f73e 17c9 2240
00000060: 506c 0ebc 30ed 95bf 28d8 dcbe 3c54 04be
00000070: 1f4a 203d f9eb a3be 2146 01c0 5195 0740
00000080: 8e2f 6f40 1031 cd3d 6b8b 1040 87c7 efbf

transformer.layers.1.0.norm.bias f4 [36]
0.21966648 1.7490654 0.08202257 1.1261548 -0.0076640425 1.1886933 -1.9120724 -2.3916907
-1.705821 0.15862541 0.36004573 -1.1546706 2.582052 -2.2817736 -0.2826195 0.4364088
2.7494614 1.3965328 -0.9268201 1.5720037 1.7401493 -0.45357335 2.8507774 3.6611168
-1.3607637 0.24488306 -1.0566806 -0.7915549 -0.707708 -3.2869248 -1.8741298 1.8013519
-0.14274047 1.7105778 1.0165572 0.8408984
00000000: 40f0 603e 60e1 df3f 73fb a73d d725 903f
00000010: a622 fbbb 1a27 983f cabe f4bf 7611 19c0
00000020: 5858 dabf b36e 223e ea57 b83e 3fcc 93bf
00000030: 5740 2540 9408 12c0 81b3 90be f970 df3e
00000040: 2df7 2f40 96c1 b23f 1544 6dbf 6b37 c93f
00000050: 36bd de3f c43a e8be 2373 3640 bd4f 6a40
00000060: 812d aebf a0c2 7a3e 4f41 87bf 58a3 4abf
00000070: 5a2c 35bf fa5c 52c0 7ce3 efbf b392 e63f
00000080: 8f2a 12be 37f4 da3f 8c1e 823f 1e45 573f
