ViT/ViT1/5 V train 0.951 V test 0.871 GELU 3/model_bestV.pt (torch, 414407 bytes, 74 tensors)

pos_embedding f4 [1, 19, 36]
00000000: bb3c e4bd d011 a5bc 5568 96bf e111 5b3d
00000010: 429a 7f3e d1e4 1bbe 091c 85be 4c9e 1540
00000020: 0da7 1bbf 8c60 efbe f032 9e3f 15ca dc3f
00000030: fc73 c1bf f9f8 fdbe c231 0ec0 0f55 71bd
00000040: eb7a 733f 7d44 5e3e 10fc 52bf cdb4 89bf
00000050: 18f7 af3f f0de d83f d8ba 1b40 f65b 1a3f
00000060: 2977 a2bf c179 933e 9493 b8bf e8ec 8dbf
00000070: 5f4e 7bbe d3d6 503f ef85 73bf 4386 533f
00000080: 57ab 20bf e8e5 953f bd18 003f 3217 8f3f
00000090: 29ed 0e3f 2aec 26bf 3a4f 4bbf 26fe 053e
000000a0: 6125 b7bf c08a 57bf a23f 543f 2e17 fd3e
000000b0: ae25 963c 65a7 8a3f d55c 3cbf 5acb ac3e
000000c0: ccbb 023f 8df0 4040 abe9 c9bf 7b8b a0be
000000d0: f9d4 5cbe efd3 693f 39a1 89be 3783 38bf
000000e0: 4239 593e 4ce1 8d3f 430d b7be 5477 b7bf
000000f0: c468 22c0 ef78 cc3e 941e 053f dedb 50bf
00000100: c872 933f b96a d03f bc13 d4bf 0128 a2bf
00000110: d8e1 0740 cab0 11bf 4a33 be3e ab48 9c3f
00000120: 618f e8bd 77c7 77bf 48e5 e03d a97d 753d
00000130: 4fde cfbe 909c 533e bad4 2dbe 3dcb ce3e
00000140: 560e df3e 0b9b 803f 58b8 98bf 9cb3 c4bf
00000150: b6ed 71bf 453a 3e3f 8765 b73f d05d 023e
00000160: a864 59bf 1800 81bf 430e 62bd 1366 cb3e
00000170: ca11 e83f d2fc 9dbe b4c2 5ebf 78a3 fdbd
00000180: b8c8 50be 6816 b33e 8ee9 cbbf bf3e 1a3f
00000190: 8e7e 53bf 24ab 9d3e d7c9 ce3f 82e6 bb3f
000001a0: 66f5 173d fd41 07bf 23e0 843f ec0d 3a3f
000001b0: 96f3 bd3f 40ad c8be 7263 093f 6f0b f1bf
000001c0: 683b bcbd 12ff 14be 2252 623f 5421 823f
000001d0: 1e27 a23f 0cb1 9dbe b56a bf3e 75d1 64bd
000001e0: f20e afbf 71a5 01bf dd58 51be f12d a73f
000001f0: ff69 77be 43a9 483f 4fd0 af3f 4d93 a63f
00000200: 151a c73c bc20 e73e cf62 c0be ed31 023f
00000210: 8a79 1cbf 2985 c7bd 0000 6fbf d36d 0e3c
00000220: 24dc 673e 944c e13e 03a7 103e 84a3 40bd
00000230: 5468 f03f 5cdd 44be 79e5 a13f cffb 88bf
00000240: c047 be3e 4411 05c0 31e9 8fbd 55c7 d1be
00000250: 5d9e 39bf 9348 64bf f646 04bd 9cb6 653e
00000260: 5da4 a23f 22fb 2fbf 2fc8 973f 02ec 913f
00000270: 1a53 b1bf 12d9 f4be ab1f 9cbe f857 c0be
00000280: afd4 9bbf 9609 46bf c78b ae3f ded3 453f
00000290: e5cb d1bf 702d 163f b33a 1dbd b4f6 013f
000002a0: 34d3 55be 8f0a 1840 6dbc d6be 9554 d3be
000002b0: 213f 34bf 0050 a23e 63a3 4abc b00a df3d
000002c0: 1642 853d d06c 0dbe dcb9 b03d 1e0c debe
000002d0: 1572 4c3d e316 babe e157 13c0 cb0e 3d3f
000002e0: e844 f2be f4b5 eb3e a415 f13f 7125 8e3e
000002f0: 5bf8 98be 79b3 8f3f 5774 c5bf cb55 893e
00000300: 424a c73f 710b ee3d 4195 c5bf bfc3 4ebf
00000310: 17ae a73f bfc9 0ebe b2a5 193f 4050 e83e
00000320: 5b50 fbbe c34c 96be 1d2b 43be efb8 93be
00000330: 5c56 acbf 327c 07be 0919 fabe 4c66 15bf
00000340: e4ad 78be 6739 40be 9ac8 3abe c0f4 1140
00000350: d0dc b8be f5ea 9b3f b1cd 46bf 958c 69be
00000360: e88c 61be 3e47 16be c25d bcbf 5916 703f
00000370: c9b2 f3be 0718 923d 939b c73e 3645 e73f
00000380: 0264 d23f 477b 88bd 3bbc f53e cae3 b53e
00000390: d083 1a3f d1e5 a2bd 98fe 653f 6875 193f
000003a0: 201c d63f 619d 37bf 26dd 27bf 7c0a debd
000003b0: eac3 4340 9257 89be 9be3 a73f afba 17c0
000003c0: 1edf 91be 1924 5e3d 9f4e 113e f8e0 a1bf
000003d0: bb98 3cbe 578d ab3f 0dfc dc3e 3e69 4e3f
000003e0: 70e0 c9be 556f b1bd 33f0 fabf f472 dabd
000003f0: 2b64 ac3f 711d 50bf 174d 7a3c 3073 533f
-0.11144396 -0.020150095 -1.175059 0.053483848 0.24961188 -0.15224005 -0.25997952 2.3377867
-0.60801774 -0.46753347 1.2359295 1.724917 -1.5113521 -0.49604014 -2.221787 -0.05891901
0.9510943 0.21705814 -0.82415867 -1.0758301 1.3747282 1.6943035 2.433279 0.6029657
-1.2692615 0.28803828 -1.4420037 -1.1087923 -0.24541615 0.81577796 -0.9512624 0.8262674
-0.62761444 1.1710787 0.5003775 1.1178954 0.5583063 -0.6520411 -0.79417765 0.13085231
-1.4308282 -0.8419609 0.82909596 0.49431747 0.018328514 1.0832335 -0.7357915 0.33748895
0.51067805 3.014682 -1.5774435 -0.31356415 -0.21565618 0.9133901 -0.26880816 -0.7207522
0.21213248 1.108438 -0.35752305 -1.4333291 -2.5376444 0.39936015 0.51999784 -0.8158549
1.1519403 1.6282569 -1.6568522 -1.2668458 2.1231594 -0.56910384 0.37148505 1.2209677
-0.11355472 -0.96788734 0.10981232 0.059934292 -0.40599295 0.20665193 -0.1697568 0.40389434
0.43565625 1.0047315 -1.1931257 -1.5367312 -0.94503343 0.7430766 1.4327859 0.12731099
-0.84919214 -1.0078154 -0.055189382 0.39726314 1.8130429 -0.3085695 -0.87015843 -0.12384695
-0.20389068 0.34978032 -1.593065 0.6025199 -0.8261498 0.30794632 1.6155347 1.467972
0.037099265 -0.52835065 1.0380901 0.72677493 1.4839962 -0.3919468 0.53667367 -1.8831614
-0.09191018 -0.14550427 0.88406575 1.0166421 1.2668188 -0.3079914 0.37386099 -0.055863816
-1.3676436 -0.5064307 -0.20444055 1.3060895 -0.24161528 0.7838327 1.3735446 1.3013703
0.02430443 0.45142162 -0.37575385 0.5085743 -0.61122954 -0.09742195 -0.93359375 0.008693176
0.2264257 0.44003737 0.1412621 -0.04703094 1.8781838 -0.19225067 1.2648154 -1.0701846
0.37164116 -2.0791788 -0.070268996 -0.4097239 -0.7250727 -0.8917324 -0.032294236 0.22432941
1.270641 -0.68742573 1.1857966 1.1400149 -1.3853486 -0.47821862 -0.3049291 -0.37567115
-1.2174281 -0.77358377 1.3636407 0.7727641 -1.6390349 0.5866308 -0.038386058 0.50767064
-0.20881349 2.3756444 -0.41940632 -0.41275468 -0.7040883 0.3170166 -0.012368056 0.1089071
0.065067455 -0.1381104 0.086292 -0.4336862 0.049913485 -0.36345586 -2.3022387 0.738507
-0.47318196 0.46037257 1.8834729 0.2776294 -0.2987698 1.1226646 -1.5426129 0.26823267
1.5569537 0.11623276 -1.5436174 -0.80767435 1.3100003 -0.13944148 0.60018456 0.45373726
-0.49084744 -0.2935544 -0.19059415 -0.2885203 -1.3463855 -0.1323097 -0.48847225 -0.5835922
-0.24285084 -0.18771897 -0.18240586 2.2805634 -0.36105967 1.2181078 -0.7765761 -0.22807534
-0.22026408 -0.14675614 -1.4716113 0.937841 -0.4759734 0.07133489 0.3898588 1.8067997
1.643677 -0.06664138 0.4799517 0.35525352 0.6035738 -0.0795399 0.89841604 0.5994477
1.6727333 -0.71724516 -0.6557182 -0.108418435 3.0588326 -0.26824623 1.3116335 -2.3707693
-0.28490537 0.054233644 0.14190148 -1.264678 -0.18417637 1.3402508 0.4316105 0.80629337
-0.39429045 -0.08663813 -1.9604553 -0.10666457 1.3468069 -0.81294924 0.015277169 0.8259764

cls_token f4 [1, 1, 36]
00000000: 0aae fa3e fbb1 85bf f734 31bf b492 1fbf
00000010: 6319 7dbf e540 c83e ff21 94bf 70a8 a9bf
00000020: 9c2e 2d3f 1150 9cbe d3fd acbd 65c1 efbe
00000030: 737b b83f b639 57bf ee55 8a3e 8c16 a5bf
00000040: 245e f8bf 6717 933e 212b 363f b6f6 f2bf
00000050: 0952 cebc c869 00c0 d8da 5bbf e548 063f
00000060: a875 873e 67f8 62bf c362 cdbe 43ef 413f
00000070: 51d1 b93f 64b3 543e 5f55 9b3d 8f5e a13f
00000080: f64a 1e40 133b 82bf 7342 57bf 8cf0 0cbf
0.48960906 -1.044494 -0.6922144 -0.62333226 -0.9886686 0.3911201 -1.1572875 -1.3254528
0.67649245 -0.30529836 -0.08446851 -0.46827236 1.4412674 -0.84072435 0.27018684 -1.2897506
-1.940373 0.28728792 0.7115956 -1.898154 -0.025185602 -2.0064564 -0.85880804 0.5245498
0.26456952 -0.8866028 -0.40114412 0.7575571 1.4517003 0.20771557 0.075846426 1.2606982
2.4733253 -1.0174278 -0.8408577 -0.55054545

to_patch_embedding.1.weight f4 [36, 12]
00000000: 1518 673e 4dbb fd3d 7291 5cbe 5935 b9be
00000010: 3afd ae3d 24e7 f8bd 194d 093e 4cd0 cb3d
00000020: 9ee2 68be 5909 003e fdce 73bd dd76 20be
00000030: bce6 7cbe 4e84 023d 5312 513e c91e 433e
00000040: 6545 663e 7df3 c33e e367 2d3e 273a 2f3d
00000050: 352e 9ebd 6d00 debd a8f3 60be edf2 dcbd
00000060: bc4e 933d 8e1b f2bd 199b d73d b06b 9fbe
00000070: a972 3fbe 711d 433e 23a2 babd ed46 20be
00000080: 35b7 47be f3c4 e93e 14cd 703e db12 f7bd
00000090: 4d10 4f3e 6e80 e6bd 821e 403e 713f a8bc
000000a0: 8286 94bd 79d3 c23e 537a 91bd 872b 8a3e
000000b0: a6b1 9b3d 627c 413d 213c 3cbe 15c7 383e
000000c0: cc69 cebd 4f61 123e 12af 4b3e e929 3dbe
000000d0: 331d 0b3e b1d5 353e 4ea2 0abe d86d cebe
000000e0: 18f9 ddbd 8b96 b93e cc93 a53e 1208 973e
000000f0: 64b8 54bd 95f1 cb3d 952c 83bd 0866 46be
00000100: b337 143e a86b 873e 5ecb e3be 228f f2bd
00000110: 1aa8 66bd 28ba 483e 330d 90bc 7b5d 32bd
00000120: 0ffe 88be 9b4f b9bd 6953 75be f4c5 9cbd
00000130: a064 b7bd b8a8 573e d01c 82be 3e53 713e
00000140: faef 003e cfa3 1ebe c78f 833c 6ad1 83be
00000150: 0aad 90be 6d4b 19be 0bcd 46be f7ba c0bd
00000160: 6614 30bd 2ad5 0dbe 142a d43e 833e cfbc
00000170: 3985 083c 9c7c 7fbe 564d bb3e ed17 7d3d
00000180: b69d 63bc a886 3cbe 5cb7 663e c7d1 503e
00000190: 9bd2 4c3e bdaa b4bd 0e86 6cbe fd80 c63e
000001a0: 33be b0be d5cb 0dbe ebde 053c 5e37 a93c
000001b0: 6a6b 48be 0224 b5bb 4be4 a3be 6f90 0d3d
000001c0: f4ac ca3b 3ce1 7c3e 9969 0fbe 47b4 51bd
000001d0: 9122 58bd 1c0a bf3e 3822 ff3e 8916 6fbe
000001e0: eb62 80be e907 60be 431c a4bc d9b5 4e3e
000001f0: 5ad2 f1bd 504a 81be c587 07be dba0 4d3d
00000200: 4b3f 8f3e 1819 683e 286c 613e f598 ac3e
00000210: 2308 013e 305d f43c a8f4 29bd f71f 083e
00000220: fa78 a3be 3096 70be e07f 3d3e b9a9 633e
00000230: 1583 babd 36c4 4d3e 2d7c f13e e61b eb3b
00000240: 5352 253d b401 38be bc60 92bd 7651 25be
00000250: b892 a23e 178c 85be 64bc 543e 686d ebbb
00000260: 6ee6 81be cf43 583e f82a fc3d feff fabd
00000270: f475 063e ead3 da3a dfb6 4f3d c747 c7bd
00000280: 0268 8ebe 1638 1fbe 5b89 8ebc 76b6 7bbe
00000290: 3ee8 3b3e bb70 6cba b409 76be fe2b 59be
000002a0: dca4 02be 27e6 7fbd efb6 113e 53f1 28be
000002b0: 8f7d 5a3e 1483 35be 4e30 1bbe bdbe 9d3e
000002c0: c4f4 473d 368d 6ebc f8ff 85be 06a7 67be
000002d0: 6e27 14be b3eb 03be e764 bd3d 6fbe 6dbe
000002e0: 5a04 7a3e e3c4 6fbe 7184 553e 3ac8 ec3d
000002f0: fe32 973e d0f4 e7bd a178 b93e 6dc5 953e
00000300: ae00 95bd b11e fb3b 6255 0e3d 18ea 953e
00000310: ceb4 b63c 29ea f6bd c5c9 c2bd 2af4 37be
00000320: 6f43 9fbe b320 d2be 90f8 0d3e cb50 8bbe
00000330: ec4c d83d 99e7 553d 53a3 2cbe f875 9e3c
00000340: 32cf 9b3d 9952 6c3e d41c 913e 9c8e d7be
00000350: 425b 14be f375 a3bd f131 06be b078 4dbd
00000360: 912c 1e3e be1f 5a3e eec4 d0bd 2b61 ae3c
00000370: 7c83 0fbd afc2 b6be f38d a5be 8073 013e
00000380: 0903 513d 6493 e9bd ae22 273e da12 00be
00000390: e9b4 b2be 8356 bf39 de97 573e ec64 37be
000003a0: d435 85be d3ed 0d3e cc9e f8bd 7bb4 4dbe
000003b0: 97c3 39be 14bf a03d ba21 e6bd 48dc 2c3e
000003c0: fc44 153e 3010 febd 1b17 dc3d 20de 4bbe
000003d0: 3fb2 bdbd 9a54 0e3e 7a98 9b3d 297f 00be
000003e0: 5f68 a83e cfac ee3d db4d 553e 4c4d 463e
000003f0: 55b1 58bd d2ce 93bc c16c 0bbd d623 fa3d
0.2256778 0.123892404 -0.21539858 -0.36173514 0.08544393 -0.121534616 0.13408317 0.09951839
-0.22742698 0.12503566 -0.05952357 -0.15670343 -0.24697393 0.031864457 0.20417146 0.19054712
0.2248741 0.38271704 0.16934161 0.042780068 -0.07723657 -0.10839925 -0.21967947 -0.10788522
0.07192752 -0.11821662 0.105276294 -0.31136847 -0.18696083 0.190542 -0.091129564 -0.15652056
-0.19503482 0.45658073 0.23515731 -0.12064143 0.20221062 -0.11254965 0.18761638 -0.020538064
-0.07252218 0.38051966 -0.071034096 0.26986334 0.07602243 0.04723776 -0.18382312 0.18044694
-0.10078773 0.14294933 0.19891003 -0.18473019 0.13585357 0.17757298 -0.13538477 -0.4031818
-0.108385265 0.36247668 0.32339323 0.29498345 -0.05193366 0.099581875 -0.06404988 -0.1937486
0.14474373 0.26449323 -0.44491094 -0.11843707 -0.056312658 0.19602263 -0.017584419 -0.04354618
-0.2675633 -0.09048387 -0.239576 -0.07654944 -0.089547396 0.21060455 -0.25412607 0.2356691
0.12591544 -0.15492176 0.01605977 -0.25745708 -0.28257018 -0.14970179 -0.19414155 -0.09410661
-0.042988203 -0.13850847 0.41438353 -0.025298363 0.008332544 -0.24949878 0.3658244 0.061790396
-0.013892582 -0.18410742 0.22530884 0.20392524 0.20002215 -0.08821628 -0.23098013 0.38770285
-0.3452011 -0.13847287 0.008170824 0.020656284 -0.19572225 -0.005527974 -0.3201011 0.03456157
0.0061851684 0.24695295 -0.14005126 -0.051197316 -0.05276734 0.373124 0.49830794 -0.2334844
-0.25075468 -0.21878017 -0.020033007 0.20186557 -0.118076995 -0.25252008 -0.13235386 0.05020223
0.27977976 0.22665823 0.22013915 0.33710447 0.1260076 0.029829592 -0.041493088 0.13293444
-0.31928235 -0.23494792 0.18505812 0.22232713 -0.09107033 0.2009438 0.4716505 0.0071749566
0.040361714 -0.179694 -0.07147357 -0.16144356 0.31752563 -0.26083443 0.2077499 -0.007184673
-0.25371116 0.21119617 0.12312883 -0.12255858 0.13130933 0.0016695235 0.05071151 -0.09730487
-0.27813727 -0.15548739 -0.01739948 -0.24581322 0.18350312 -0.00090194837 -0.24027139 -0.21208188
-0.12758201 -0.06247535 0.1422994 -0.16498308 0.2133696 -0.17725784 -0.15155146 0.30809584
0.04881741 -0.0145600345 -0.2617185 -0.22622308 -0.14468166 -0.12882881 0.09247761 -0.23217176
0.24415722 -0.2341495 0.20851304 0.11561628 0.2953109 -0.11325991 0.36224845 0.29252186
-0.0727552 0.007663571 0.034749396 0.29280162 0.022303011 -0.12056381 -0.09511141 -0.17964235
-0.31106135 -0.41040573 0.1386435 -0.27210078 0.10561547 0.05222282 -0.16859178 0.019343361
0.07607879 0.23078384 0.28342307 -0.4210099 -0.14487937 -0.079814814 -0.13104989 -0.050163925
0.15446688 0.21301171 -0.10193811 0.021286568 -0.035037503 -0.35695407 -0.3233486 0.12641716
0.051028285 -0.11405066 0.16321823 -0.12507191 -0.34903648 0.00036494815 0.21054026 -0.17909592
-0.2601763 0.13860254 -0.12139663 -0.20088379 -0.18141018 0.07848945 -0.112369016 0.16880906
0.14577097 -0.12405431 0.107465945 -0.19908953 -0.09262513 0.1389946 0.07597442 -0.12548508
0.3289213 0.116540544 0.20830481 0.19365424 -0.052903492 -0.018042956 -0.034039263 0.122138664

to_patch_embedding.1.bias f4 [36]
00000000: b98b 5c3e acf1 0cbe 8ea9 cdbd 069f 823e
00000010: a401 073e 7478 b43c 9c0e 2a3d dc61 8abe
00000020: 5cc8 413e 8533 d1bd 1be0 303e 68ed 8c3e
00000030: 2c9f b73d 0f43 39be 333c c4bd 2305 90be
00000040: e978 b83c 0b0b 7a3b c006 413c a00f 90be
00000050: 307e f4bd ea27 4ebe 1a30 5a3c 1898 273e
00000060: 63ad 6cbd 8e48 d0bd 3fc8 863d 3e8e 06bd
00000070: 6a2c 2b3e c463 ff3d caee ea3d e4cc 37bd
00000080: 8f31 2e3e 3652 2dbd 0ffa 0abe 5336 203e
0.21537675 -0.13764066 -0.100421056 0.2551195 0.1318422 0.022030093 0.04151784 -0.27027786
0.18924087 -0.10214905 0.1727299 0.27524877 0.089659065 -0.18091987 -0.095817946 -0.2812892
0.022518592 0.0038153555 0.0117813945 -0.2813692 -0.11938131 -0.20132414 0.013317132 0.16366613
-0.057782542 -0.10170089 0.06581163 -0.032850496 0.16716161 0.12470201 0.11471327 -0.044873133
0.17011093 -0.04231473 -0.13571952 0.15645723

transformer.layers.0.0.norm.weight f4 [36]
00000000: c222 8a3f a20d 873f 608d 773f 8fed 833f
00000010: db8f 8d3f aa11 913f 6453 893f 9343 8f3f
00000020: e279 853f 47b0 893f fc31 7c3f 9208 973f
00000030: 69cf 753f 62dd 843f e587 883f 281f 833f
00000040: 882b 7a3f f65c 8a3f 8ed0 813f 55dd 823f
00000050: 9dd3 853f 4e4f 833f 523f 733f 1bf2 933f
00000060: f705 813f 9d79 913f 5921 813f df2c 8b3f
00000070: d04d 7d3f 3aef 853f 3247 863f e344 833f
00000080: ba0d 853f 4449 7f3f 9f23 8b3f eef9 8f3f
1.0791857 1.0551035 0.96700096 1.0306872 1.1059526 1.1333516 1.0728574 1.1192497
1.0427821 1.075692 0.9851377 1.179949 0.9601961 1.0380061 1.0666472 1.0243883
0.97722673 1.080962 1.0141771 1.0223795 1.0455204 1.0258577 0.95018494 1.155826
1.0079945 1.1365238 1.0088302 1.0873069 0.9894686 1.0463631 1.0490477 1.0255398
1.0394814 0.9972117 1.0870246 1.1248147

transformer.layers.0.0.norm.bias f4 [36]
00000000: 3c19 033d 1c70 ec3c c5a6 3a3c 4707 0abd
00000010: 1f77 f5bc 5583 393d 26b7 ddbb 1334 383c
00000020: 09d5 81bc 71ec 3ebb 9f4c ecbc 48ef 83bc
00000030: f25c e93c a7bd 4dbc 13ae 2a3d cbec a8bd
00000040: 6f95 e03d 8c31 273c 7d9f 54bc 01b7 aaba
00000050: 882e 603d 3bd6 5dbd 76de 003d c230 053c
00000060: f56d 553d 39bb d9bb cdce 843d bb4e 343c
00000070: 4142 9cbd 203d 6bbd 7034 fc3c 23c3 76bc
00000080: 0316 ebbd 6b3d c23a 31ab 96bb ed6b 88bb
0.032006487 0.028862052 0.0113923 -0.033698346 -0.029964028 0.045291264 -0.0067662178 0.011242884
-0.015848653 -0.002913263 -0.02884513 -0.01610531 0.028486703 -0.012557424 0.041669916 -0.0824829
0.10966002 0.010204684 -0.012977478 -0.001302451 0.054731876 -0.054159384 0.031462155 0.008129301
0.052106816 -0.006644633 0.064847566 0.011005099 -0.076298244 -0.05743134 0.030786723 -0.015061173
-0.11478808 0.0014819329 -0.0045980443 -0.0041632564

transformer.layers.0.0.fn.to_qkv.weight f4 [216, 36]
00000000: dc76 9fbd d218 6bbe 16ad d93a bab8 a33d
00000010: d96f 41bd f5ce f03d edb9 1abe 76c5 58be
00000020: e0bf 053d 0ee4 a6bd ee68 243e cedf be3d
00000030: e0b9 bd3c 5a79 04bd 9c6e b63d 506a 2dbe
00000040: bac0 9fbd 62cb 953c 88c4 113e 4248 eebd
00000050: 4efb e43d a76f 7cbd 8a04 abbb fffb 253e
00000060: bfdf 7f3d b709 6d3e c4d2 3cbe e025 23be
00000070: c199 25be 1077 133e bcca 433e 733d 8dbc
00000080: fe85 c63d a96a 693d d4f6 313e 1628 d33c
00000090: 1f6f a3bb 45fc 663e e559 debd f143 fabc
000000a0: fc14 55be cd68 5b3d f33c 8b3d 0d78 79bd
000000b0: bee0 e0bd 4760 ecbc af0d d5bd 8d5f 363e
000000c0: 54f3 8a3d 3d5c c53c 25e1 6abd 1e3f 38bd
000000d0: c8d7 5f3e 885f 9e3d 8dc8 ed3d c496 053e
000000e0: 4737 de3d b040 90bd ce48 bebd ef80 1e3e
000000f0: 0f39 e83c 4a13 15be 7797 7a3d c259 6b3e
00000100: 17c2 10be 6c6a f9bd 0459 173e 6ef1 19be
00000110: 7457 73be 4568 bdbb a401 823e 57a9 1d3d
00000120: 6dcc 55bd 9d37 90bb 262b c13d e928 02be
00000130: 4697 3a3d 9b95 23be 137c ba3c ab82 673e
00000140: 94fd 79be 7141 023e de97 713d c8f0 2a3e
00000150: 94bf e53d 5ec6 74bd 656f 2dbe 7b6b 1b3d
00000160: a4bb 53be 7811 443d 9737 4fbd a07a 3f3c
00000170: 49bc e7bc 9b97 7b3e c84e c33d 0e4c 35be
00000180: b283 75be 0842 28ba d378 4ebe 06c5 3c3d
00000190: c391 e63d be86 0bbe 5c7e 173e 3069 4a3e
000001a0: 7a82 893d 2e3e 263e eb18 a3be 58e1 ffbc
000001b0: 68ec 203d 259b d83b e4a8 513e ddb2 b13c
000001c0: 9bb0 7abd 87a5 903d b6d2 893e 7e3a 853c
000001d0: edc4 043e a677 36be 3930 d5bb b839 11be
000001e0: 552e 73bd fcc1 b33d c7ac 493d 42b0 76bb
000001f0: 2e29 7e3e 6281 ce3d 66a6 233e 08f6 5b3e
00000200: 39fd 8d3c 731e 113e 28a7 5fbe fb2a 09be
00000210: c060 d6bc 1985 b0bd 5e3f 0a3e 27f5 763d
00000220: 32ae ecbd 026c c53c e345 ebbd faa9 b9bd
00000230: c4f5 20be 792f 003e f330 d2bc 6ade 2abe
00000240: 5c1c 323c a5ad a13c 97a3 ed3c d9d7 c63d
00000250: bf19 8d3e 4ead bfbc 9842 9abe a8f8 46be
00000260: 595e 00be 60c4 9d3d 21b4 423d 990f 90be
00000270: c73f ff3d 54b7 653e 2d05 183e 9c1e 4abe
00000280: abd1 5c3d 85f3 a43e 677a 29be 8f91 463c
00000290: 4a2f 173e a78f b0bd 7873 8e3e bed7 153e
000002a0: c4ff 91be dc27 e6bd c771 84be d9bb 7ebe
000002b0: 1696 013e 3b11 e03d 7ef9 6bbe 70fc 1c3d
000002c0: b99f 13bd 8be2 76be ad08 7dbe 6880 86be
000002d0: 989a bcbd 0a6d fd3d bd82 8f3d b1de dc3d
000002e0: bd5b a43d 234e ba3d 371e 75bd 7ddf 1dbd
000002f0: f3fd e8bc 0731 4fbd fa2e f83d cd21 7ebe
00000300: f934 b9bd 958b e63d 9ccb 353d ab6a bbbd
00000310: cc45 febc 0faa c83d 1719 87bd 1b9c e13c
00000320: 77b3 e5bd 6f40 16bd f239 613d 43fb 0f3d
00000330: d058 3f3d 4517 1cbd b909 3a3e 9c07 82be
00000340: ba9b 6e3e 11ed d03d ac17 cabd 4c9e 833d
00000350: c169 943d 51a1 27be 72ca 62be 3890 e8bd
00000360: 8f49 bbbd 8c50 47bd 1f79 cf3d 96fe 3d3d
00000370: 8d92 2bbc 3d31 b5bd e70f 3bbe d2a6 8f3b
00000380: 200b c0bd 7089 d53c a280 fdbd f8bb a23d
00000390: 01d6 ad3d d721 79bd f038 febd 0d03 d0bd
000003a0: 16bf daba 8576 ac3d 9b0e b0bd 363e 1fbe
000003b0: 36c3 0fbe 3f15 0a3e bb21 523c 6821 993d
000003c0: bbb4 bb3d 39eb ccbd 7304 c23d 8a92 67be
000003d0: 9238 9cbd 59e7 353e 4444 57bd 4093 b5bc
000003e0: ad12 ab3c 762f 13bd 14f5 e43c 232d d53d
000003f0: f69d de3d a06d 223e 9bc8 72bd 89e5 a73d
-0.077863425 -0.22958687 0.001660737 0.07994218 -0.047225807 0.11758224 -0.15109988 -0.21169075
0.03265369 -0.08148967 0.16055652 0.09320031 0.023159921 -0.032342292 0.08907816 -0.16935086
-0.078004315 0.018285457 0.14235127 -0.11634876 0.11180745 -0.061629917 -0.005219047 0.1620941
0.06246924 0.23148237 -0.18439776 -0.15932417 -0.16171934 0.14400887 0.19120306 -0.017241215
0.09693526 0.056986485 0.17379314 0.02577595 -0.004987612 0.2255717 -0.1085699 -0.030549975
-0.20808786 0.053566743 0.067987345 -0.060905505 -0.10980366 -0.028854502 -0.104030006 0.17809887
0.067846924 0.024091834 -0.05734362 -0.04498207 0.21859658 0.07733065 0.11610518 0.13045794
0.10850387 -0.07043588 -0.0929123 0.15478872 0.02834752 -0.1455814 0.061179604 0.22983459
-0.1413654 -0.121785015 0.1478005 -0.15033504 -0.2376383 -0.005780252 0.25391877 0.038491573
-0.05219691 -0.004401161 0.09432058 -0.12710918 0.04555442 -0.15975039 0.022764241 0.2260844
-0.24413139 0.12720276 0.058982722 0.16693413 0.11218181 -0.05975949 -0.16937025 0.0379443
-0.20677048 0.047868222 -0.050590124 0.011686951 -0.028288024 0.24569552 0.09536511 -0.17704794
-0.23976019 -0.0006418531 -0.20163278 0.046086334 0.112582706 -0.13625619 0.14794296 0.19766688
0.067143396 0.16234657 -0.31854948 -0.031235382 0.039287955 0.0066102915 0.20474583 0.021691734
-0.06120358 0.07062822 0.26918572 0.016263243 0.12965746 -0.1781908 -0.0065059927 -0.14182174
-0.059370358 0.08777234 0.04923704 -0.003764168 0.24820396 0.100832716 0.15981445 0.21480572
0.01733266 0.14171772 -0.21841109 -0.13395302 -0.02616918 -0.08619136 0.13500735 0.06029239
-0.115566626 0.024099354 -0.11487939 -0.090656236 -0.15718752 0.1251811 -0.025658106 -0.16686407
0.010871019 0.01973612 0.02900867 0.097091384 0.27558705 -0.023398068 -0.30128932 -0.19430792
-0.12535991 0.07703471 0.047535066 -0.281369 0.124633364 0.22433215 0.14845724 -0.19738239
0.053910892 0.3221704 -0.16550599 0.012119665 0.14764133 -0.086211495 0.2782247 0.1463308
-0.28515446 -0.11238071 -0.25868055 -0.24876346 0.1265491 0.109407865 -0.23044392 0.03832668
-0.036040995 -0.24109857 -0.24710341 -0.2626984 -0.09209174 0.12374313 0.07007358 0.107846625
0.0802531 0.09096935 -0.05984327 -0.038543213 -0.028441405 -0.050583865 0.12118335 -0.24817581
-0.09043307 0.11257092 0.04438363 -0.09151205 -0.031039141 0.09798061 -0.065965824 0.027540257
-0.11215871 -0.036682542 0.0549869 0.03515173 0.046715558 -0.03810813 0.18167771 -0.2539643
0.23301592 0.10201467 -0.09867796 0.06426677 0.072467335 -0.16370131 -0.2214754 -0.113556325
-0.091448896 -0.0486608 0.10130524 0.04638537 -0.010471952 -0.08847282 -0.18267785 0.0043839
-0.09377122 0.026066512 -0.123780504 0.079460084 0.08488084 -0.060823288 -0.12413204 -0.10156832
-0.0016689028 0.08421043 -0.08596536 -0.15551075 -0.14039311 0.13484667 0.012825425 0.07477075
0.09165331 -0.10005803 0.09473505 -0.22614494 -0.076279774 0.17764033 -0.052555338 -0.02216494
0.020882929 -0.035933934 0.027948894 0.10409 0.108699724 0.15862131 -0.059273344 0.08198077

transformer.layers.0.0.fn.to_out.0.weight f4 [36, 72]
00000000: 2b64 b1bd 9d6e aabd c800 98bc 28eb 193d
00000010: b060 04be 2218 933c 0861 053e 60fe b7bb
00000020: 01de 493d 987f 853d 804d a3bd 4ae9 84bb
00000030: 6883 a1bc 0309 c83b dfbf 32bc 394a 833c
00000040: 3419 0abe b834 26bc 85c5 12bd 919b ef3b
00000050: 4473 b83d 4677 fdba 2b6f 8d3d 791f f23d
00000060: 592e a53d feab 373d c8ab a8bb be23 713d
00000070: 9c5e 83bd 06f5 5c3c 9c8d b1bc e577 80bd
00000080: 2ef9 39bd c483 113d dd9b a9bd 3618 99bd
00000090: d12e 0d3e 3c72 7a3d 4a86 4bbd 9816 093d
000000a0: ec0b c9bc 52eb 2f3d 41b8 16bc eff0 d03d
000000b0: 3363 863d 7c31 7c3d 2640 f13d 1c4b 0fbc
000000c0: 0d9d 853d 1e09 f7bd e256 103e d5fd 04bd
000000d0: abf1 c7bd 4831 1a3e f3ac d7bd bec9 2bbc
000000e0: 8ac3 8fbd c1f5 ff3c b436 20bd ef09 8abd
000000f0: 6f11 13bc 81a1 73bc 0318 bebd e959 6ebd
00000100: 7310 483d 4c7e eebd 9021 9d3c d108 c43d
00000110: 82ba b13d 5bab d5bd 0410 053e f64d 1bbd
00000120: 3285 a7bc 2919 80bb 6589 8cbd 25cf 16bd
00000130: 6ebd 873d bf5f 22bd 6eda 55be 5eda 8d3d
00000140: 5131 bbbc 33c2 a4bd 3f35 93bd 4405 dbbd
00000150: 6e3e 39bd a1b1 d03d df29 ae3d 7645 373d
00000160: 9171 0c3d b83a bebc e31f 8e3d 1b86 f4bc
00000170: 314a afbd fe6d 963d a3e5 a9bd 8433 303d
00000180: 3383 cabd f81d 273e b0ce b5bc a30a 69bc
00000190: edec 133c 256c 273e e2b4 70bc ab39 113d
000001a0: c8af 1ebe 023c a8bd fcd7 d73d 2592 ca3d
000001b0: 788c 423b b0f5 e8bd d2c0 293e d7f1 23bd
000001c0: 412c abbc 197a 07be a412 43be 7935 f23c
000001d0: 60db babd f752 133e c817 813d ee5d b5bd
000001e0: f99c 213d b106 ad3d 3d62 fd3b c2bd 1a3e
000001f0: aa7d 88bd 6d52 02be 310b 983b b54a 1dbd
00000200: 2471 38bd 1935 07bb 2d0d 04bd 522f d83d
00000210: cc59 8ebc 402e 023e a216 51be 8427 fdbc
00000220: 9124 303d bb1f d2bd 11fe 4d3d 8c01 20bc
00000230: 4cac 6dbd 476d 52bd 4796 ac3d 0cbc 413d
00000240: ab07 793d 0258 9b3c c639 e63d 9fc1 f93b
00000250: 6dfa b0bd 3ccf d4bd 80ba 683d fd22 1bbd
00000260: ca19 a8bd 1b32 a23d cf45 313d 9ef8 c6bd
00000270: 0e7f 25bb 225c c83d 4883 923d ae04 f83d
00000280: f5aa 103e 6969 583b 2619 6dbd 540c 623d
00000290: eb8a cc3d 12bd c5bd 8e43 c6bd 9f90 063e
000002a0: 4ba8 a1bd ee0b 793b 19cd 683d b1c8 f5bc
000002b0: 6d32 d33d 36fe 98bb 9312 11bd ddcc 363c
000002c0: cb17 ddbd 0682 b83d 640d 453e 37c5 583d
000002d0: b70e 8e3d 0b43 703c 4dbc 33be fb1a 1abd
000002e0: 297f 6abd 2748 ba3d e69a 153d 6fc4 b5bd
000002f0: 3879 cabd 0fd3 21be e7d5 35bd 6e46 83bd
00000300: bbf4 60bd 1204 d73c 3df4 e9bd 9968 62bd
00000310: 3026 9c3c da4c 6c3d b7a5 5b3d 5d11 0cbe
00000320: 7507 c0bd d154 623d 846e 52bb 2f57 c4bc
00000330: d92d 663d 6bd0 473d c3a7 033d 2d1c 0d3e
00000340: 8eec 1cbb 789e 66bd 838f 9fbd 8d41 dbbd
00000350: fcb0 abbd ae6f 15be 5a23 d83d c26e 383d
00000360: 3a20 20be a45f b1bd 28f7 25bc 0220 21be
00000370: 7e33 7abd e694 82bd b9c0 f3b9 3c84 7c3c
00000380: 4741 2bbe d7ef 25bd 12c6 833d 113d 0bbe
00000390: f69e 37be 6041 03be 24c4 4cbd a05f c5bd
000003a0: f9f2 dfbc ff95 c33d 6b8a b33d 57aa 813d
000003b0: d37e 8dbd 8678 ca3d 64de 5d3c ba63 f83c
000003c0: ba47 d0bd 7a44 0c3d f9c9 b63d 8078 0b3d
000003d0: 30d8 d83d 203c 9e3d 1088 7abd 7f0e 11bd
000003e0: 8f3f 12be 5919 13be 8cb1 513d 2baf c13c
000003f0: 9d74 8c3c e522 1b3e a2f8 7ebd ed3a 883c
-0.08661684 -0.08321879 -0.01855506 0.037577778 -0.12927508 0.017955843 0.13025296 -0.0056150407
0.049283985 0.06518477 -0.07973766 -0.0040561305 -0.01971598 0.00610459 -0.010910003 0.016026603
-0.13486177 -0.010144405 -0.0358329 0.007312246 0.0900636 -0.0019337914 0.06905969 0.11822409
0.08065481 0.04484176 -0.005147431 0.058871977 -0.0641453 0.0134861525 -0.02167397 -0.06272868
-0.045403652 0.035526052 -0.08281682 -0.07475321 0.1378739 0.0611441 -0.049688615 0.033468813
-0.024541818 0.04294903 -0.009199203 0.102022044 0.065618895 0.06157063 0.117798135 -0.008745935
0.06524096 -0.12062286 0.14095643 -0.032468636 -0.097628914 0.15057862 -0.10531034 -0.010485111
-0.07019718 0.031245114 -0.03911467 -0.06740176 -0.008976324 -0.0148700485 -0.092819236 -0.058191214
0.048843812 -0.11645183 0.019181043 0.09571994 0.08678152 -0.10433074 0.1299439 -0.037916146
-0.020449255 -0.0039092493 -0.068621434 -0.036818642 0.06627928 -0.03964209 -0.20884106 0.06926416
-0.022850664 -0.08044853 -0.0718789 -0.10694364 -0.045225553 0.1019013 0.0850408 0.044743977
0.034287993 -0.023221359 0.06939676 -0.029849103 -0.08559073 0.07345198 -0.08295753 0.04301788
-0.098883055 0.16320026 -0.022193283 -0.014223727 0.0090286555 0.16349848 -0.014691563 0.035455387
-0.15496743 -0.082145706 0.105392426 0.09891156 0.0029685777 -0.11374986 0.16577461 -0.04002556
-0.020895125 -0.1323017 -0.1905008 0.029566513 -0.09123874 0.14387117 0.06303364 -0.08855806
0.03945634 0.08448542 0.007732658 0.1511145 -0.066645935 -0.12726755 0.004640006 -0.038401324
-0.045029774 -0.0020631014 -0.032239128 0.10555901 -0.017376803 0.12712955 -0.2041879 -0.030902632
0.043003622 -0.10259958 0.050291125 -0.009765994 -0.058025643 -0.051373746 0.08427101 0.047298476
0.06079833 0.018962864 0.11241488 0.0076219584 -0.08641515 -0.10391089 0.056818485 -0.037875164
-0.08208044 0.07919713 0.043279465 -0.09715389 -0.0025252732 0.09783198 0.07153946 0.121102676
0.14127715 0.0033021814 -0.05788531 0.05518754 0.09987434 -0.09655203 -0.09680854 0.13141106
-0.078934275 0.0038001495 0.05683622 -0.030002924 0.10312352 -0.004668976 -0.035418104 0.011157242
-0.10795554 0.09009175 0.1924339 0.052922454 0.069364004 0.014664422 -0.175523 -0.037623387
-0.057250176 0.09095793 0.036524676 -0.08875357 -0.09886402 -0.15803169 -0.044393446 -0.06409918
-0.054920893 0.026247058 -0.11423538 -0.055275533 0.019061178 0.05769048 0.053624835 -0.13678499
-0.09376422 0.05525667 -0.003210933 -0.023967354 0.056196067 0.048782747 0.032142412 0.1378028
-0.0023944709 -0.05630347 -0.077910446 -0.10705862 -0.083833665 -0.14593384 0.10553618 0.045027502
-0.15637293 -0.0866082 -0.010129727 -0.15734866 -0.061084263 -0.063760564 -0.0004649216 0.0154123865
-0.1672412 -0.040511932 0.06434263 -0.13597514 -0.17931733 -0.12817907 -0.04999174 -0.0963738
-0.027337538 0.09550094 0.087666355 0.06331318 -0.069089554 0.09886269 0.013541792 0.03032099
-0.10169931 0.03424499 0.08925242 0.034050465 0.105881095 0.07726312 -0.061164916 -0.035414215
-0.14282058 -0.14365138 0.051194713 0.023643097 0.01714545 0.1515003 -0.062248833 0.01662966

transformer.layers.0.0.fn.to_out.0.bias f4 [36]
00000000: aa4c 4d3d dbcd dabd 2fe5 9dbd 14a9 613d
00000010: b55d 94bd 5ef1 afbd 8bd0 2b3d fba8 513c
00000020: 1383 7fbd 8d60 be3d 188b 7fbc 1523 6bbd
00000030: 1204 4d3d ac86 ee3d 26a4 3cbd 8e31 a4bd
00000040: 1325 a73d 451a 99bd 4d70 e0bd ad2d 933d
00000050: 0afd 913d 59e6 39bc 48b5 cc3d 2282 643c
00000060: 0977 a83c 3cc9 84bb 5a14 07be 5811 8fbd
00000070: 8d63 b8bc 43c4 15be 5d94 38bd e21a f93d
00000080: b8f6 a93d 8542 983c 78f2 83bd 6bcc 5abd
0.05012194 -0.10683795 -0.07709729 0.055092886 -0.07244436 -0.08590959 0.04194693 0.012796636
-0.06238086 0.09295759 -0.015597127 -0.057406504 0.05005271 0.1164678 -0.04605498 -0.08017264
0.08161368 -0.07475714 -0.1095892 0.07186446 0.071283415 -0.011346423 0.09995514 0.013947042
0.020564573 -0.0040523093 -0.13191357 -0.0698573 -0.022508407 -0.14625649 -0.045063365 0.121633306
0.08299011 0.018586406 -0.064427316 -0.053417604

transformer.layers.0.1.norm.weight f4 [36]
00000000: 8d8c 843f 9417 833f 066e 843f d8c5 963f
00000010: 639b 893f 90ce 8d3f 3dd9 843f 9ae4 7b3f
00000020: 066a 753f add5 7c3f 9e4c 7d3f f5b0 6e3f
00000030: 0635 813f eb23 823f 7fe5 743f e64e 763f
00000040: 9fbe 843f 0c0f 7e3f 386a 813f a080 7c3f
00000050: b15f 823f 4a6b 7c3f 8ef7 7c3f f184 753f
00000060: cd26 783f 0f3f 873f 8104 813f 9c61 913f
00000070: e156 863f 2e7e 873f 30d3 823f 583e 853f
00000080: 8959 7a3f 133f 883f 40e9 863f 815a 823f
1.0355393 1.024157 1.0346076 1.1779127 1.0750545 1.1078663 1.0378796 0.98395693
0.95864904 0.98763543 0.98945034 0.93238765 1.0094306 1.0167211 0.95662683 0.9621414
1.0370673 0.9924171 1.011054 0.98633766 1.0185453 0.9860121 0.9881524 0.9590598
0.96934205 1.0566119 1.00795 1.1357913 1.0495263 1.0585382 1.0220699 1.0409651
0.9779287 1.0644249 1.0539932 1.018387

transformer.layers.0.1.norm.bias f4 [36]
00000000: a0fa 803b b859 c1bd a56a d4bd cba8 c3bc
00000010: 518a 843d be67 043c 891f 823d 1cd9 2fbd
00000020: a955 48bd 1d00 553d 8011 4a3c 5e00 20bc
00000030: bd68 3dbd 6712 813c 7cf6 8bba bfd0 81bd
00000040: 2fab 29bb 08e9 b1ba 977e 09bd 92bd 993c
00000050: ce6c 8dbc 7d5c 293d 405e d83d 124c 7d3b
00000060: ad8c 853c a1f3 4abc 0f3a acbc f8da de3a
00000070: 6e35 5ebd a41c f2bc 7a5f bc3d 911e 0dbc
00000080: 1117 563c c105 183d 5920 95bc 555c 60bc
0.003936127 -0.094409406 -0.10371903 -0.023884198 0.06471694 0.008081375 0.06353671 -0.04293166
-0.048909817 0.05200206 0.012333274 -0.009765713 -0.046242464 0.015755845 -0.0010678316 -0.06338643
-0.0025889387 -0.0013573477 -0.03356799 0.018767152 -0.017263796 0.04134797 0.10564852 0.0038650078
0.016302431 -0.012387187 -0.021023778 0.0017002514 -0.054250173 -0.029554673 0.09197898 -0.008613245
0.013067023 0.037114862 -0.018203901 -0.013693889

transformer.layers.0.1.fn.net.0.weight f4 [72, 36]
00000000: 7d73 3fbb afea 023e d682 1fbd 9709 143d
00000010: de40 f93d 43c1 cbbd 5b59 58be 1c73 d0bd
00000020: adf1 3c3e cd50 36bd fd59 7d3c ba06 98bc
00000030: 8db7 f9bd 616a c3bd 7753 cd3d 13be 8a3d
00000040: ad86 3d3d 1572 b03d 12ef a03d 0b38 c3bd
00000050: c16b b33d c8a3 a7bd e9be d7bd 4956 17bd
00000060: e5dd 00be 5af6 95bd 8e35 1ebe 4419 633e
00000070: 90ae 06be 722f 573d 2b4f 3d3d 13f0 323e
00000080: bc5b aa3d 389f f83d 8a07 11be f075 c23d
00000090: 765d 5cbd bf8e 2e3d 5015 933d 1fd9 74bd
000000a0: 6974 1ebd 29ab 08be 812a 34be 96da 663c
000000b0: 12aa c13d 9bd3 14bc 3f11 d73c efad c1bd
000000c0: 4bf9 8bbd 0ccb 46bd e185 05be 147b e73a
000000d0: a9a6 a23d 0dfd e33c 8620 c83b 8a44 383e
000000e0: f85b 3f3d 5322 aebd 4f02 b9bc 8b82 11be
000000f0: b9ab a53d d60a 1a3e 44e4 993d 2738 aa3d
00000100: 6bb5 c13d 04c2 f5bc 7658 2cbe 5d29 b73d
00000110: c12c 07be a7e1 0d3e 2475 eb3d d707 efbd
00000120: 3ff7 ad3d 860d 113e 785f c63c 7756 94be
00000130: ef8c 89be 1267 163e ab2e ce3d 0cda 443e
00000140: 0f39 8e3c 6e07 473d ec67 37bd 7892 a23d
00000150: 21a7 5d3d 4d00 2e3d 93ba b1bd 64df df3d
00000160: 5362 4d3e 8b7e 97bd 0e64 163e 8165 80bd
00000170: c057 1c3e ef5c 7cbd 5295 b1bd 5a3b 783d
00000180: 3bc4 8a3d a425 50be a775 583c 9dd2 963d
00000190: 0b1a f43d 0747 cf3d a392 c6bc 4d8e e0bd
000001a0: 44d7 09be 1e97 09be 8d7e 093e f455 ad3c
000001b0: 2be8 833d cd2e 573d adb5 fb3d 803e dd3b
000001c0: 09ab 04be 71d9 13be 45d7 043e 9804 a83d
000001d0: a794 2c3c 95f2 82bd fa84 91bd d735 5dbd
000001e0: a795 3abb 1066 d8bd ab02 07be 97b0 3abe
000001f0: 2e47 a73c 079e c43c e40a d13d 193e 0fbe
00000200: 5045 723d bf0b 1d3e bd89 f3bc e849 cebd
00000210: c807 9b3d 7e32 ddbc d362 723c 92f3 4dbc
00000220: 4cf3 d03d 42d7 dfbd f20d 8f3d b29f 18be
00000230: 1c2b acbd 1849 0ebd 78ba dd3d d98e c73d
00000240: d471 ff3d e7ba 893d f083 4e3e 7e4a 6bbd
00000250: 9712 03be b46a aebd c496 83be 60e3 5ebc
00000260: a126 39be 8820 9bbc fd76 473d 8e8e 6fbd
00000270: 3311 0fbe 296b 9b3e e6a0 f33a e397 ed3d
00000280: 1b46 1bbd 17e9 e3bd ddad ccbd 91c9 523e
00000290: 8259 883d ffc6 4abe 258b 4e3e 941c 0f3e
000002a0: 9ef3 88bd 6127 f93d 34d7 5c3c 7479 223e
000002b0: cd83 ab3c e6fc fc3d 5ac4 14bd 32b9 2dbd
000002c0: 1423 e83b c030 29be 0397 01bd 2cde 06be
000002d0: f9fe 7abd 4dec 263e cb8c d13d 530a 3abe
000002e0: 2a6c 293d 10e4 6d3d 2dff 093e ee4e 033e
000002f0: a8b5 d73c af29 273e 0d0a 283e 6c12 bfbd
00000300: 2163 a83c e2c3 1a3e 8c4c 2b3e dcf2 0c3e
00000310: 95cc 883d aabf 22be 4c11 7fbd 1314 acbb
00000320: f662 133e a1a4 e73d b7f0 443d 4697 fe3d
00000330: 2601 cdbd c4c8 a3bd d3bc 863e 25aa a63d
00000340: ad25 043e c0f8 27be c9ff 21be 1f67 72bd
00000350: fc99 a93b 64a8 5abd c28e 91bd 1fbf a1bb
00000360: 30d6 623e 11bb 19bd f5d2 fc3d b90d 1ebe
00000370: bdaa 8ebd 2c97 23be c459 8fbb 9a14 413c
00000380: 66ec debd 84f5 3dbd f872 9dbd 91e2 86bd
00000390: d1d6 f1bc e2fe 4c3e a050 6f3d d430 6c3e
000003a0: 67ff 64bd f15f 91bc 7325 e33d 92f7 0bbe
000003b0: 9b5f c53d 6990 d9bd 662e 9cbc 53cb f2bc
000003c0: 7ac6 133e 0ebc 98be ef27 06be 8894 4e3e
000003d0: 6ad4 2f3e d8c0 59bd 89fd 42be 6426 ddbd
000003e0: 1c83 2ebe e691 c0bd 4a32 7d3e ab71 74be
000003f0: f5aa 8bbd 3bc4 6b3c 145c 62bd 0496 1abe
-0.0029213123 0.12784837 -0.038943134 0.036141958 0.121705756 -0.09948971 -0.21127836 -0.10178205
0.18451567 -0.04451065 0.015463349 -0.018557895 -0.12193213 -0.095417745 0.10025685 0.06774535
0.046271015 0.086155094 0.07858099 -0.09532174 0.08760787 -0.08185536 -0.1053446 -0.036947522
-0.12584646 -0.073223785 -0.15450117 0.22177607 -0.13152528 0.05253548 0.04621808 0.17474394
0.08318278 0.121397436 -0.14163032 0.09495151 -0.05380007 0.042616602 0.071817994 -0.059777375
-0.038685236 -0.13346542 -0.17594339 0.014090201 0.094562665 -0.009083654 0.02625334 -0.09457003
-0.06834658 -0.048533484 -0.13039352 0.0017660582 0.07941944 0.027830625 0.0061073927 0.17994896
0.046718568 -0.085026406 -0.022584109 -0.14209954 0.08089394 0.15043196 0.07514241 0.083114915
0.09458431 -0.02999974 -0.1683062 0.08943436 -0.13200666 0.13855611 0.11496952 -0.11671417
0.08494424 0.14165315 0.024215445 -0.28972217 -0.26865336 0.14687756 0.10067495 0.19223803
0.017361192 0.04859107 -0.044776842 0.07938093 0.054114465 0.042480756 -0.08678164 0.1093128
0.20057039 -0.07397183 0.14686605 -0.0626936 0.15267849 -0.061612066 -0.08671059 0.060603477
0.06775709 -0.20326859 0.013211644 0.0736439 0.1191903 0.10120969 -0.024239844 -0.10964642
-0.13461024 -0.13436553 0.13427182 0.02115915 0.06440767 0.052534867 0.12290511 0.0067518353
-0.1295587 -0.14438416 0.12972744 0.08204001 0.010533488 -0.06393925 -0.071054414 -0.054006424
-0.0028470547 -0.10566342 -0.13184611 -0.18231426 0.020419683 0.024001135 0.10207155 -0.13988532
0.059148133 0.15336512 -0.029728765 -0.1007269 0.075698435 -0.027001616 0.014794069 -0.012570279
0.10202655 -0.10929729 0.06985082 -0.14904669 -0.0840666 -0.034737676 0.10826582 0.09744043
0.12472883 0.06725102 0.20167518 -0.05744409 -0.1280006 -0.08516446 -0.25700963 -0.013604015
-0.18081142 -0.01893641 0.04869746 -0.05848556 -0.13971405 0.30355194 0.001858738 0.11601236
-0.037908655 -0.11128443 -0.09994099 0.20584704 0.06657697 -0.19802473 0.20170267 0.13975745
-0.06687091 0.12165714 0.013479043 0.15866643 0.020936871 0.12352924 -0.036320068 -0.042412944
0.0070842598 -0.16522503 -0.031638157 -0.1317069 -0.061278317 0.16301079 0.10231932 -0.18168001
0.04136292 0.058078825 0.13476248 0.12823078 0.026331738 0.16324495 0.16410084 -0.093296856
0.02055508 0.15113786 0.16728419 0.13764518 0.06679646 -0.15893427 -0.062272355 -0.0052514165
0.1439322 0.11310697 0.048081126 0.12431197 -0.10009985 -0.079972774 0.26315936 0.08137921
0.12904997 -0.16403484 -0.1582023 -0.059180375 0.005175827 -0.053383246 -0.07107307 -0.0049361135
0.22152019 -0.037531916 0.12344924 -0.15434922 -0.069661595 -0.15975636 -0.0043747146 0.011784697
-0.10884933 -0.04637672 -0.07687944 -0.06586183 -0.029521378 0.20019105 0.0584265 0.23065501
-0.055907633 -0.017745944 0.11091127 -0.1366866 0.09637376 -0.10623247 -0.019065093 -0.029637968
0.14431182 -0.29830974 -0.13101171 0.20173848 0.17170873 -0.053162426 -0.19042028 -0.10798338
-0.17042202 -0.09402828 0.24726215 -0.23871486 -0.06819717 0.014390047 -0.055263594 -0.15096289

transformer.layers.0.1.fn.net.0.bias f4 [72]
00000000: 1f62 8d3c fccd 4abd 8364 4ebe eac0 8cbd
00000010: 6b79 e5bd 0213 4ebe 5eaa e33c fd90 1f3e
00000020: 63cc b13d 1786 3abe 72ef 0fbd 419f a7bd
00000030: 6961 d9bd c0db 4e3d bd69 5abc 1391 c0bd
00000040: f405 5bbc e055 8e3d cfcb 84bc ebe1 a13d
00000050: 65c4 0dbd 76aa 5ebe 8357 41be e8a8 83bd
00000060: 7abf e5bd 484d 34bd 7183 49be 36d9 96bd
00000070: 4dc2 22bd c75e 33bb 6de8 e1bd 4b6e b03d
00000080: df50 17be 15de 53bc e405 fb3d ae77 5a3d
00000090: 40d0 bb3d aa5c 673b 9d4f 4dbe f49a 1cbe
000000a0: 03c1 c13d a933 3cbe f4bf fdbd e2af 3e3d
000000b0: c74e 20be 3daf 2f3b 4f16 35be 96fd 983d
000000c0: db93 36bd 54de 4ebd 1801 9a3c 4b79 dabd
000000d0: 56c2 2dbe 4e7a e23a 6f85 913d 2ca9 093d
000000e0: 3184 cc3d 347e 2fbb d283 31bc e6be c93d
000000f0: debd 67bc 22ce 5abd 7c23 21bd 0272 c03d
00000100: fca6 8f3d 245d 9f3d 3aca 903c 2b4b fcbd
00000110: 25a7 61be 9e24 07be 447c 32bd 45d7 0bbd
0.017258702 -0.04951285 -0.2015553 -0.06872733 -0.11204799 -0.20124438 0.027791198 0.15582652
0.08681562 -0.18215214 -0.035140462 -0.08184672 -0.10614283 0.05050254 -0.013330874 -0.09402671
-0.013368119 0.06949973 -0.016210465 0.079044186 -0.034611125 -0.21744713 -0.1888104 -0.06428701
-0.11218162 -0.044019014 -0.19679047 -0.073656484 -0.03973608 -0.0027369724 -0.1103066 0.08614787
-0.14776944 -0.012931366 0.12256983 0.05333679 0.0917058 0.0035303035 -0.20049901 -0.15293485
0.09460642 -0.18379082 -0.12390128 0.046554454 -0.15655051 0.002680733 -0.17684291 0.07470243
-0.0445746 -0.050504997 0.01879935 -0.10667666 -0.16968665 0.0017278881 0.071055286 0.0336086
0.09986151 -0.0026778104 -0.010834651 0.09850864 -0.014144389 -0.05341924 -0.03934048 0.09396745
0.070142716 0.07781437 0.017674554 -0.12319025 -0.22036417 -0.13197562 -0.04357554 -0.034140844

transformer.layers.0.1.fn.net.3.weight f4 [36, 72]
00000000: 3e4d 8c3c aea6 0dbd fe38 c23d 6e89 ffba
00000010: a351 84bd 2f20 8cbd 9164 22be 4a3f 35bd
00000020: f56a f7bd 2275 b83d 88e7 3b3d 4493 39bc
00000030: a47d 603c 7fa8 18bd a0bc 9c3d c1be 95bd
00000040: 3824 883d 0f7f 9dbd a125 683c e481 d5bd
00000050: 5aa2 1cbd 1edf 5a3e 97f9 8f3d c17a eebd
00000060: 6255 df3d cf96 11bb 6dfe 3fbd a38b d8bb
00000070: 2505 87bd 9f55 db3b 4a65 5c3d d8fe ac3d
00000080: a08b 3ebc 0737 d8bd 4800 d03b c818 d43d
00000090: 2bf6 d1bd 0e01 1abd cb19 0fbe d0e6 bcbd
000000a0: 3505 2c3d 5f61 08be 74a3 ddbd 6b94 3dbd
000000b0: d8ad 4c3d 25ca 53bd 7d2c f1bc b434 db3d
000000c0: ab76 6439 dcb5 b0bd fd05 303d 5977 8fbd
000000d0: 46ce d3bb dbfb c23d 6a33 a93c 9db8 943b
000000e0: 37e0 17bd 1317 5f3d 16b5 933c 7915 00be
000000f0: 416f cfbd 334f 46bd e288 ef3d 3ff3 75bd
00000100: e1ef 48bd 0a09 a3bd f954 0ebc bb0d 963d
00000110: ed2b dbbd e357 d03d 29ed 12be b332 8a3d
00000120: ab4d b3bd 814e 433d 7f69 f1bd dad9 a5bb
00000130: 99a1 fb3d 81fe 353d 14cc afbc c846 fbbd
00000140: b626 eb3d 4e7e f33d 0c4e 28bd fb02 493d
00000150: 1994 a7bd 7783 ccbd c366 cd3d 14a9 3cbd
00000160: 1c41 33be 4dbb 943d d445 8ebd a944 aebd
00000170: 48bf 5bbd 54a2 0abe 0ec7 013c 1aa1 4cbd
00000180: f3ae 343e d5b4 273e 2889 9bbd 46e1 bbbd
00000190: a305 063d 31f8 a43c c650 64bd e087 bcbd
000001a0: 5905 d3bd 77bf b6bc 2c1d d63b 41b4 f13d
000001b0: 616e babd 3c2a 8a3c 176d 05bd f72b f1bd
000001c0: 4a2e 553d ee55 b23d b60d 103d b667 4abe
000001d0: 6a42 f13d b27c 893d 6348 f33c 8ee7 4dbd
000001e0: 624a c13c 9a2e 263e 1212 41be 85a0 f7bb
000001f0: 0dce 023d e2e3 813d 6ab4 533a a828 be3d
00000200: ecc2 953d 4d4e 2f3e 16eb 92ba 7038 233d
00000210: 7cf8 f2bd 3f6d 93bd 545f 883d 6a35 e83d
00000220: 97e0 86bc 65bb 173e a9c7 a63d d565 0cbd
00000230: ee3c 243d 1ac7 3dbe 06be 2a3d c0e6 e13d
00000240: 297a 8d3d b0ac 1f3d e119 863d 61dc 8abc
00000250: 3d16 19be c299 c43c eae1 803c ff3a 0c3c
00000260: c21c 143e 33e5 983d a3b0 893c 8291 15bd
00000270: 2c46 0cbe c8cd 07be d927 b0bb ae67 21bd
00000280: 5c04 7cbd 1995 a1bd 5bbb 60bd 85c7 d43d
00000290: 4ae8 c1bd ad18 5abe 41d5 84bc af1a c73c
000002a0: 1d53 413d 8dc5 d3bc d7ad 803b c5a9 fa3d
000002b0: f533 fabd 5142 e5bd b462 06be 4448 86bd
000002c0: 745b fdbc 8592 02be ebfc 04be e991 de3d
000002d0: 8ac4 17be 2b96 103c 3e0e 36bc ba19 dfbd
000002e0: 4cf5 f4bd d95b 733d fc93 223b 0c7e 27be
000002f0: 9508 b03d 1872 743a 1b64 e9bd 7640 2ebd
00000300: 6b55 07be 45b8 5d3d 0ec6 5abe 6e12 ce3c
00000310: d90b 6f3d c2ba 8c3d 775c 91bb 578e 1c3e
00000320: af26 a3bd 583a c03d 95c4 193d 68c7 ebbd
00000330: d019 21bd c07e 1cbd 017b 393e 590c d5bd
00000340: 9ca8 83bd b10a 10bc 7731 a6bd db4f 443d
00000350: e998 f03a cb8a e0bd 5ce9 803b 12cd a5bd
00000360: 8b6a d13d c277 b8bd 4c35 4abe 0248 78bd
00000370: c104 b8bd ad8b 17be c555 f63c d060 16bc
00000380: 0738 d1bd 7e7a c13d 3dfd 8bbd 9471 b4bd
00000390: e880 973d 0050 3ebd b843 8d3c 85c1 7d3c
000003a0: e60c 0c3e 2b7f 61bd 7b55 863d 9138 01bd
000003b0: ca95 be3d 5748 06bc 8230 043e 5481 803d
000003c0: 025b 973c 49f6 a9bd 1535 27be b992 03be
000003d0: 01ac af3d 0d1d 263e d1f1 85bd 54e1 bc3d
000003e0: 1bc0 98bd bd9e 323d 5f91 173e 3ba9 b2bd
000003f0: da50 343b fd4c a63d ceff 5dbd 3765 123e
0.017126676 -0.034582786 0.09483527 -0.0019495913 -0.064608835 -0.06842076 -0.15858676 -0.04424981
-0.12080947 0.09006716 0.045875102 -0.011326615 0.01370183 -0.037270065 0.07653165 -0.07311774
0.06647533 -0.0769025 0.014169128 -0.10425165 -0.038240768 0.21374175 0.07030027 -0.11644507
0.10904957 -0.0022215133 -0.0468735 -0.006608443 -0.06592778 0.0066935564 0.053807534 0.08447045
-0.011629969 -0.10557371 0.00634769 0.10356289 -0.10252031 -0.037598662 -0.13974683 -0.092237115
0.041997153 -0.13318394 -0.10822192 -0.04628412 0.049970478 -0.051706452 -0.029440159 0.10703412
0.00021787982 -0.08628437 0.04297446 -0.07005186 -0.0064637987 0.09520694 0.020654399 0.004538609
-0.037079062 0.054465365 0.018030684 -0.12508191 -0.10128642 -0.048415374 0.1169603 -0.06004643
-0.04905689 -0.079607084 -0.008687251 0.07326838 -0.107017376 0.10173013 -0.14348282 0.06747951
-0.08755048 0.04768229 -0.117877 -0.0050613703 0.12286682 0.044432167 -0.021459617 -0.1226936
0.11481993 0.11889325 -0.041090056 0.049075108 -0.08182544 -0.099860124 0.10029366 -0.046059683
-0.17505306 0.07262287 -0.069469124 -0.0850919 -0.053649217 -0.13538486 0.0079209935 -0.049958326
0.17644863 0.16377576 -0.0759452 -0.09173827 0.03272022 0.020137878 -0.055741094 -0.092056036
-0.10303754 -0.022308094 0.0065342393 0.11801959 -0.09103084 0.016865842 -0.03257474 -0.11775964
0.052046098 0.08707796 0.035169326 -0.19766125 0.117802456 0.06713237 0.029697603 -0.050269656
0.023595039 0.16228715 -0.1885455 -0.007556977 0.031934787 0.06342293 0.0008075895 0.09285098
0.07312569 0.17119713 -0.0011208977 0.039848745 -0.11863801 -0.071985714 0.066588074 0.11338313
-0.016464515 0.14817579 0.08143551 -0.034276802 0.04009717 -0.18532982 0.041685127 0.1103034
0.06908066 0.038983047 0.06547905 -0.016950788 -0.1494989 0.023999099 0.015732724 0.008558988
0.14464095 0.07465591 0.01680786 -0.03651572 -0.13698643 -0.13262093 -0.005375844 -0.039405517
-0.061527595 -0.07889766 -0.054866176 0.10389618 -0.09468134 -0.21298476 -0.016214969 0.024304716
0.047198404 -0.025851035 0.0039269733 0.12239412 -0.12216941 -0.111942895 -0.1312359 -0.06556752
-0.030927397 -0.12751205 -0.12987106 0.10867674 -0.14821067 0.008824865 -0.011111794 -0.10893579
-0.11960849 0.059413765 0.0024807444 -0.16356677 0.08595387 0.00093248626 -0.11396047 -0.042541943
-0.13216178 0.05413081 -0.21364614 0.025155272 0.05836091 0.06871559 -0.0044360715 0.15288673
-0.07966363 0.09386128 0.03754099 -0.11512643 -0.039331257 -0.038206816 0.18113329 -0.10402746
-0.06428644 -0.0087916115 -0.081149034 0.04792772 0.0018356118 -0.10963973 0.0039340686 -0.08095755
0.102253996 -0.09007217 -0.19746894 -0.060615547 -0.08985282 -0.14799376 0.030070195 -0.009178355
-0.102157645 0.09447192 -0.06835411 -0.08810726 0.07397634 -0.046463013 0.017244205 0.015488033
0.13676795 -0.055052917 0.06559273 -0.031548087 0.09305914 -0.008195958 0.1290913 0.062746674
0.018476013 -0.08298928 -0.16328843 -0.12848939 0.08577729 0.1622202 -0.065402634 0.092226654
-0.07458516 0.043608416 0.14801548 -0.087236844 0.0027514012 0.08120153 -0.054199032 0.14296423

transformer.layers.0.1.fn.net.3.bias f4 [36]
00000000: dbb5 08bd 4a50 f63c 4350 833d af4c c3bc
00000010: 68b4 81bd 39c8 b2bb 1acc 623d 8fe5 313d
00000020: 592c 50bd 4ee3 683d 335a 9c3b 8276 a53d
00000030: d198 973d 20eb 85bd 4e5a c73c 2326 5dbd
00000040: da88 523d 88ed 9abc 1009 e7bd 6a3b dcbc
00000050: 5ee7 d1bd e59f bdbc edb8 2f3d f2eb b4bd
00000060: ccf2 3f3d 9e9f 01bd 1452 dfbb 0d22 ce3d
00000070: f3e3 b2bd 4271 2437 e9e5 fc3c 21e1 a0bd
00000080: 957c aebd 7cdb 53bd 7429 0e3e 4a97 0e3e
-0.033376556 0.030067582 0.06411793 -0.023840277 -0.06333238 -0.0054559973 0.055370428 0.043431815
-0.050823543 0.0568574 0.004771495 0.08079244 0.07402194 -0.06538987 0.024335053 -0.053991448
0.051400043 -0.018912092 -0.112810254 -0.0268838 -0.10249208 -0.023147533 0.04290097 -0.088340655
0.04686241 -0.031646363 -0.0068152044 0.100650884 -0.08734884 9.801532e-06 0.030871348 -0.0785544
-0.08519856 -0.05172299 0.13883 0.139249

transformer.layers.1.0.norm.weight f4 [36]
00000000: 733b 863f 7190 843f 0119 803f 8184 843f
00000010: c51a 863f 6546 823f a856 893f 1853 813f
00000020: 2fa0 833f f5e2 893f b7be 873f bf6a 903f
00000030: defd 8a3f 8bcd 853f c2be 8d3f 9517 7f3f
00000040: a892 903f b73c 883f baaa 7f3f 095e 843f
00000050: d5b6 833f 6c41 833f f120 843f b1f6 8b3f
00000060: c873 883f 9a58 933f 2d56 893f 82eb 813f
00000070: 5b68 843f 7a6b 893f ccc4 883f d750 853f
00000080: da01 8d3f 4303 883f c498 7e3f b529 8d3f
1.0486892 1.035658 1.000763 1.0352937 1.047692 1.0177733 1.072957 1.0103483
1.0283259 1.0772387 1.0605077 1.1282576 1.0858724 1.0453352 1.107384 0.9964536
1.1294756 1.0643529 0.99869883 1.0341197 1.0290171 1.025434 1.0322553 1.0934659
1.0660334 1.1511414 1.0729424 1.0149996 1.0344347 1.0735924 1.0685058 1.0415295
1.101619 1.0625995 0.9945185 1.1028353

transformer.layers.1.0.norm.bias f4 [36]
00000000: 9d5f 033d 00bf e5bc 523a 2bbc 4c7d 6dbc
00000010: 2d87 0bbc 95bc 0abd bd7e 78bb fefa 263d
00000020: b607 15bc d542 e0bc ffba 343c 90b5 abbc
00000030: d7eb 053d 7f7a 093b c710 15bd 56cc f53a
00000040: 021f 463d 1770 e33c cdda 0a3c a930 3abd
00000050: 7b98 0b3c 7658 39bd fb5c 6e3b e020 4d3d
00000060: a7ea 6ebc 9401 c339 ad65 debc 418a c03b
00000070: 75c7 9ebc 8308 313d 1c31 60bc cd02 fc3b
00000080: 70a2 e9bb 6ab1 3dbc 3595 bf3d 370d 0e3d
0.032073606 -0.028045177 -0.010450916 -0.014495205 -0.008516115 -0.033871252 -0.0037917339 0.04076671
-0.009096077 -0.027375618 0.0110309115 -0.0209606 0.032695618 0.0020977554 -0.036392953 0.0018752913
0.048369415 0.02776341 0.008475018 -0.045456562 0.008520241 -0.04525038 0.0036371339 0.05008018
-0.014582313 0.00037194474 -0.027148092 0.005875856 -0.019382218 0.043221008 -0.013683584 0.0076907636
-0.0071299598 -0.011577943 0.09354631 0.03468057
