ViT/ViT1/2 V train 0.950 V test 0.891 ABS 2/model_bestV.pt (torch, 414407 bytes, 74 tensors)

pos_embedding f4 [1, 19, 36]
0.13045137 0.38355988 0.614018 0.97712964 0.8024565 0.33969897 0.4535671 -0.4110845
0.12026989 1.7826248 -0.77731663 0.8721089 0.6015441 0.020091187 -1.9658175 0.6803046
0.57083434 0.5188375 -0.37933695 0.7501216 0.7300816 1.6755409 -0.9647181 0.4367808
-1.4807658 -0.12293495 -0.09089303 0.13344198 -0.73869044 -0.29618573 -0.18722203 0.2528483
0.11880433 -0.107098766 -1.2392526 0.0345303 1.1739986 -1.4803574 0.41659907 -2.4879076
1.018624 -0.40965044 -0.75887793 -0.91576254 0.124893785 1.0905011 -0.8979939 -0.013164015
0.5505076 -0.43817818 1.1660748 -1.2292908 0.9199964 0.046688978 1.7068089 0.044319928
-0.6742241 0.6140832 0.2847397 0.07713719 0.0016491164 -0.338817 0.3114175 0.13259463
-0.48730898 0.2644094 0.7937664 1.1950418 1.8925773 2.1121032 -2.1761968 -1.7587355
-1.2374247 1.3305013 -1.5505989 -0.740348 0.33580267 -0.15918422 -0.31996998 0.88346016
0.9582673 2.211545 -1.1308914 1.378077 0.28619382 1.2412591 -0.43414736 -1.498861
0.7073188 0.96906084 -0.18722697 0.81705093 -1.1815349 -0.3386721 -0.40276238 1.0634283
1.6284257 0.46630925 -0.02834299 -0.98775375 -0.23713072 1.5614665 -1.1830432 -0.09466752
1.0371774 -0.4516443 -0.10959828 1.9756927 1.2243183 1.3529575 0.16660327 -3.279633
0.8498446 1.9121475 -0.01939183 -1.1325091 0.15837762 -0.684087 0.3970298 -0.63012856
1.2959858 1.038362 0.96756727 -1.2196392 -0.4155927 -1.2137011 -1.1745228 -0.37096325
1.3166225 0.21917225 -0.7828029 0.72740984 -0.2790313 0.3885216 -0.54588133 1.1234989
0.57922316 -0.25999358 -0.79294956 0.023142027 -0.64879245 -0.77575016 0.1342958 -0.05512866
0.6986532 0.68752205 -0.38106275 0.76282805 -0.42627847 1.5242989 0.6325643 -1.4789218
0.14794202 -1.0011166 0.06995721 -0.24958193 -0.36750662 -1.9295254 -0.70612824 0.613331
0.94366944 -0.6745011 1.0090348 0.63185555 -0.29554078 -0.12256983 -1.8209006 2.634857
2.390009 -0.9378055 -0.5259798 1.608079 0.4691031 -0.892803 0.43106845 2.0824308
0.9715386 1.2670798 0.013522901 1.2103446 0.5290981 -1.3516998 -0.005226348 0.38304305
0.5978478 -0.14204839 0.54037905 0.47771063 -0.3223109 0.35259166 -0.06404642 1.4857771
1.0714358 -0.48975405 -0.25934577 -0.3893279 1.0347115 -0.06597215 -2.074072 0.1282509
0.14980492 1.1792532 -0.10672482 0.047819782 -0.2841777 0.4812813 0.1143719 0.80328214
0.27611706 1.301557 -1.3074291 1.5242149 -0.2814526 -0.010107141 -0.5249119 1.5800462
-0.7644173 0.50168246 1.1001835 -2.020467 -0.8100679 0.16483863 0.19731115 -0.46552268
0.69147503 -0.50052935 -0.7932947 -1.2258002 0.106167495 0.050290298 0.34513068 -0.5367225
-1.1088022 -0.034251012 -2.0142121 -0.016233796 1.0202068 -1.2650146 -0.034226116 1.033876
-1.090935 -1.69079 -0.49405807 -0.07006182 -0.8178212 1.576595 0.29094875 -0.2817926
0.70802134 -0.68937415 -0.39088297 1.1757392 0.65009815 -1.0339166 0.5541165 -1.86101
00000000: 0b95 053e f661 c43e 4930 1d3f 2b25 7a3f
00000010: ca6d 4d3f 06ed ad3e f239 e83e ab79 d2be
00000020: 0f50 f63d 0d2d e43f 39fe 46bf 8742 5f3f
00000030: cbfe 193f 4696 a43c e89f fbbf 7128 2e3f
00000040: 3322 123f 89d2 043f 7438 c2be f807 403f
00000050: a1e6 3a3f 2078 d63f c4f7 76bf bca1 df3e
00000060: bc89 bdbf 52c5 fbbd 2026 babd 04a5 083e
00000070: d11a 3dbf a8a5 97be 22b7 3fbe 5575 813e
00000080: af4f f33d 9956 dbbd d49f 9ebf a56f 0d3d
00000090: 9645 963f 5a7c bdbf 794c d53e e139 1fc0
000000a0: 4562 823f b4bd d1be d345 42bf 6a6f 6abf
000000b0: 50c8 ff3d 8a95 8b3f eee2 65bf e1ad 57bc
000000c0: 11ee 0c3f e458 e0be f041 953f 6759 9dbf
000000d0: e284 6b3f f13c 3f3d b778 da3f d088 353d
000000e0: f399 2cbf 8e34 1d3f 67c9 913e 1afa 9d3d
000000f0: 2a27 d83a 6c79 adbe 1d72 9f3e e3c6 073e
00000100: 9080 f9be ab60 873e 4634 4b3f 21f7 983f
00000110: f93f f23f b32c 0740 cf46 0bc0 3f1e e1bf
00000120: ef63 9ebf de4d aa3f 067a c6bf 7287 3dbf
00000130: 54ee ab3e 3001 23be 1bd3 a3be 722a 623f
00000140: 0151 753f f489 0d40 0dc1 90bf d464 b03f
00000150: ff87 923e 94e1 9e3f 9048 debe adda bfbf
00000160: d812 353f 5f14 783f 6db8 3fbe 402a 513f
00000170: 893c 97bf 6e66 adbe df36 cebe 6b1e 883f
00000180: 4170 d03f 16c0 ee3e 8f2f e8bc 6edd 7cbf
00000190: 65d2 72be 22de c73f f66d 97bf 0be1 c1bd
000001a0: 3bc2 843f ec3d e7be 1075 e0bd 80e3 fc3f
000001b0: 76b6 9c3f b62d ad3f 0c9a 2a3e 82e5 51c0
000001c0: 6a8f 593f 40c1 f43f 9ddb 9ebc 0ff6 90bf
000001d0: be2d 223e 5320 2fbf 7d47 cb3e 1b50 21bf
000001e0: dde2 a53f 0ce9 843f 7db2 773f 231d 9cbf
000001f0: 91c8 d4be 8f5a 9bbf c356 96bf e5ee bdbe
00000200: 1687 a83f b16e 603e c565 48bf 8837 3a3f
00000210: 31dd 8ebe 4eec c63e e1be 0bbf d0ce 8f3f
00000220: f847 143f e11d 85be befe 4abf 5994 bd3c
00000230: 4317 26bf 9097 46bf d784 093e 97ce 61bd
00000240: f0da 323f 7201 303f a81a c3be b348 433f
00000250: 2c41 dabe 3a1c c33f bcef 213f 4f4d bdbf
00000260: 1d7e 173e 9724 80bf ba45 8f3d 6892 7fbe
00000270: d429 bcbe b0fa f6bf d2c4 34bf 4303 1d3f
00000280: 5294 713f 1bac 2cbf 0d28 813f 49c1 213f
00000290: 1f51 97be e405 fbbd 4513 e9bf 7fa1 2840
000002a0: e8f5 1840 0514 70bf 9da6 06bf 88d5 cd3f
000002b0: 482e f03e bd8e 64bf 01b5 dc3e 8c46 0540
000002c0: c1b6 783f ac2f a23f 288f 5d3c 92ec 9a3f
000002d0: f972 073f 8004 adbf c941 abbb 381e c43e
000002e0: 8e0c 193f 2275 11be 4856 0a3f 7d96 f43e
000002f0: ef05 a5be e586 b43e c52a 83bd f22d be3f
00000300: cf24 893f 0bc1 fabe f8c8 84be fd55 c7be
00000310: 6d71 843f 681c 87bd 98bd 04c0 3454 033e
00000320: 7666 193e c5f1 963f 8b92 dabd adde 433d
00000330: bd7f 91be 816a f63e d13b ea3d e6a3 4d3f
00000340: 375f 8d3e 6b99 a63f d659 a7bf 7919 c33f
00000350: 8e1a 90be 6c98 25bc a060 06bf f43e ca3f
00000360: dab0 43bf 436e 003f d0d2 8c3f 554f 01c0
00000370: 9c60 4fbf 75cb 283e ef0b 4a3e fd58 eebe
00000380: 8204 313f b122 00bf 5d15 4bbf 05e7 9cbf
00000390: 586e d93d 33fd 4d3d f8b4 b03e a566 09bf
000003a0: 3bed 8dbf ca4a 0cbd dae8 00c0 bdfc 84bc
000003b0: 2396 823f 00ec a1bf af30 0cbd 0c56 843f
000003c0: c2a3 8bbf cf6b d8bf 2ef5 fcbe 927c 8fbd
000003d0: bb5c 51bf ddcd c93f 3cf7 943e 1f47 90be
000003e0: e340 353f d37a 30bf d021 c8be 9f7e 963f
000003f0: d56c 263f 6157 84bf 94da 0d3f 9335 eebf

cls_token f4 [1, 1, 36]
-0.8820159 -0.7075355 0.18252426 -0.80041116 -0.19962958 -1.4790244 1.0255954 0.09115487
-1.7806569 -0.44598392 -1.3189206 -0.72690326 -0.2408724 -0.63063335 1.4057267 -0.62957484
0.3607547 0.05941074 0.21464206 0.38637042 1.338439 2.6899188 0.89301497 -0.070961215
0.43242583 -0.6239698 -1.4665539 0.013318931 -0.86663055 -0.736255 -0.16499352 -0.9189852
0.7055412 0.040252242 0.797559 0.035325456
00000000: cbcb 61bf 0c21 35bf a4e7 3a3e bfe7 4cbf
00000010: b26b 4cbe ac50 bdbf b646 833f 68af ba3d
00000020: 91ec e3bf 0158 e4be 64d2 a8bf 5516 3abf
00000030: 41a7 76be 3071 21bf daee b33f d12b 21bf
00000040: d7b4 b83e ad58 733d 21cb 5b3e 58d2 c53e
00000050: f851 ab3f a127 2c40 a19c 643f 1d54 91bd
00000060: eb66 dd3e 7cbc 1fbf 0ab8 bbbf a537 5a3c
00000070: 80db 5dbf 357b 3cbf 10f4 28be 9d42 6bbf
00000080: 599e 343f 89df 243d d42c 4c3f 6db1 103d

to_patch_embedding.1.weight f4 [36, 12]
-0.22294883 -0.081637196 -0.2754824 0.21413715 0.116173886 -0.16402332 -0.16116884 -0.30742478
0.07191377 -0.02508165 0.053749286 0.03788087 0.08740121 0.04161968 0.048196677 0.04064803
0.057578377 0.27505317 -0.11615883 -0.074403346 -0.11272249 -0.31542012 -0.2734195 0.19452295
-0.17669305 0.09134374 0.23494759 0.005621312 0.16299832 0.06495278 -0.105723016 0.2643705
0.28944227 0.058686823 0.1391665 0.008707689 0.08317866 0.22016007 -0.27360022 -0.042916905
-0.0046385303 -0.0980412 -0.09562142 -0.13307102 -0.059013646 -0.16722132 -0.05078808 -0.24599661
0.15808168 -0.024649214 0.16644698 0.2346931 -0.24031578 -0.098697335 0.20052113 -0.15126844
-0.07234726 -0.26370975 0.18506373 -0.21507858 0.19855689 0.20600311 0.09116459 0.024942502
0.16401811 -0.29826397 0.2680521 0.31604722 0.146529 0.2640122 0.10163316 -0.025902646
0.13436723 0.025116116 0.12267333 -0.100296475 0.16127555 -0.14285536 0.31592828 0.27234778
0.23788068 -0.23909524 0.1606366 0.08398991 0.088569336 -0.13975103 0.15726069 0.05015241
0.24865818 -0.064149514 -0.1796152 -0.16911435 -0.09206376 0.092834055 0.13582416 0.11499595
-0.08806728 -0.039745964 0.04293423 -0.06864212 -0.1473426 0.13766642 -0.047291186 0.24823931
0.055369783 0.13658713 0.23137674 0.029815065 -0.25236297 -0.0038370932 -0.17532872 0.11612682
0.029492833 -0.15209427 0.20971185 0.21456721 -0.23088303 -0.23995985 0.029968798 0.2220037
0.10872701 0.065818936 0.22323881 -0.09440342 -0.07728889 -0.044605717 0.11134322 -0.18777972
0.09546487 -0.12306241 0.23372434 0.028526006 -0.12937146 -0.104021445 -0.044167146 -0.13031204
0.16480137 0.29219946 0.30171236 -0.15336338 -0.03446411 -0.03669455 -0.27219716 0.14888696
0.08034777 0.16236176 0.044102326 0.24749489 0.21596181 0.28523096 0.17458674 -0.15230304
0.08042607 -0.016725205 0.09725955 -0.06980918 0.08401513 0.15653819 -0.1808806 -0.21000026
-0.030153396 0.056377538 -0.17837472 -0.2832588 -0.10551024 0.17588426 0.16245876 0.22339387
-0.28021815 0.11458894 0.24777456 -0.16161697 -0.20842217 -0.14355546 -0.22969526 -0.13190763
-0.080550924 0.34341487 0.18358408 0.06611005 0.24238083 0.020347038 -0.20135388 0.018597953
0.08797548 0.23221073 -0.09395768 -0.14961149 -0.14277707 -0.17559363 0.15760264 0.07730382
-0.07469713 0.1097065 0.22985424 0.014181996 0.069696054 0.030203555 0.2629897 -0.096112795
-0.070658736 0.18251805 -0.23899037 0.23303145 -0.12984097 -0.100334875 -0.092950545 -0.19086409
-0.13429883 0.09922438 -0.079346076 -0.08134823 0.20091331 0.2556519 -0.13837893 0.29127684
-0.011605504 0.10093338 0.27538806 0.23841287 0.14892586 0.12079127 -0.16485234 0.18847182
-0.2686846 -0.1987921 0.05695326 0.28059864 0.18139774 -0.1288114 0.27645066 0.03566835
-0.0134043945 -0.20772135 -0.28551102 -0.0373633 0.030909184 0.18831846 -0.26275292 0.13449353
-0.04590544 -0.19068739 -0.07595454 0.105813146 0.022013608 0.2830243 0.14197184 0.06445253
-0.25872347 0.040844798 0.17662029 -0.08172935 -0.11542142 0.19816867 0.29061645 -0.0087342085
00000000: b34c 64be 6731 a7bd 070c 8dbe c546 5b3e
00000010: 93ec ed3d bbf5 27be 7209 25be c866 9dbe
00000020: 8747 933d 0878 cdbc 3628 5c3d f928 1b3d
00000030: 68ff b23d 6679 2a3d e169 453d 8c7e 263d
00000040: 4ed7 6b3d c5d3 8c3e aee4 edbd c860 98bd
00000050: 0ddb e6bd bf7e a1be a4fd 8bbe 0631 473e
00000060: 06ef 34be 6d12 bb3d 1a96 703e fc32 b83b
00000070: 08e9 263e f705 853d 4f85 d8bd 925b 873e
00000080: c731 943e 9861 703d aa81 0e3e b2aa 0e3c
00000090: 9359 aa3d a471 613e 5415 8cbe a3c9 2fbd
000000a0: d0fe 97bb d3c9 c8bd 2ad5 c3bd c543 08be
000000b0: 4bb8 71bd 113c 2bbe 2907 50bd 89e6 7bbe
000000c0: 2ae0 213e 26ed c9bc 1471 2a3e 6353 703e
000000d0: 5715 76be d421 cabd 6955 4d3e 1de6 1abe
000000e0: cd2a 94bd f704 87be 5981 3d3e 8f3d 5cbe
000000f0: 7f52 4b3e 7bf2 523e 80b4 ba3d 3854 cc3c
00000100: 5df4 273e 0eb6 98be 203e 893e f1d0 a13e
00000110: b30b 163e 9b2c 873e 0c25 d03d c931 d4bc
00000120: 9097 093e 50c0 cd3c 283c fb3d 3d68 cdbd
00000130: 6b25 253e ad48 12be 5ac1 a13e 2b71 8b3e
00000140: fe96 733e 62d5 74be ec7d 243e e702 ac3d
00000150: d763 b53d e51a 0fbe f208 213e 9d6c 4d3d
00000160: 40a0 7e3e d260 83bd 0ced 37be 502c 2dbe
00000170: ed8b bcbd c81f be3d 7d15 0b3e ff82 eb3d
00000180: 9e5c b4bd aacc 22bd cedb 2f3d 3d94 8cbd
00000190: fbe0 16be 6df8 0c3e 67b4 41bd 7232 7e3e
000001a0: 6dcb 623d 7fdd 0b3e 06ee 6c3e b93e f43c
000001b0: b835 81be be77 7bbb 5f89 33be e6d3 ed3d
000001c0: f49a f13c 9abe 1bbe b4be 563e 82b7 5b3e
000001d0: 9a6c 6cbe 09b8 75be 2081 f53c f054 633e
000001e0: 44ac de3d 14cc 863d b798 643e 9556 c1bd
000001f0: a349 9ebd 7cb4 36bd ea07 e43d 5449 40be
00000200: 1683 c33d 2508 fcbd 6f55 6f3e 5faf e93c
00000210: f479 04be 3209 d5bd 9ce8 34bd 8570 05be
00000220: b1c1 283e 2b9b 953e 0b7a 9a3e 4a0b 1dbe
00000230: 3d2a 0dbd 064d 16bd 6d5d 8bbe d375 183e
00000240: 5f8d a43d 2942 263e a4a4 343d 4d6f 7d3e
00000250: 1825 5d3e cb09 923e dec6 323e 54f5 1bbe
00000260: 6cb6 a43d 4c03 89bc 0430 c73d 1ef8 8ebd
00000270: 2010 ac3d 8c4b 203e c438 39be 4f0a 57be
00000280: 4104 f7bc 22ec 663d dda7 36be 4c07 91be
00000290: c115 d8bd 011b 343e 975b 263e 5dc1 643e
000002a0: c178 8fbe 9bad ea3d 9db8 7d3e eb7e 25be
000002b0: 9f6c 55be 3400 13be 3c35 6bbe cb12 07be
000002c0: e2f7 a4bd 13d4 af3e 77fd 3b3e b564 873d
000002d0: ae32 783e d5ae a63c b62f 4ebe bc5a 983c
000002e0: 7d2c b43d a6c8 6d3e e26c c0bd c133 19be
000002f0: 2734 12be d1ce 33be 9662 213e 7751 9e3d
00000300: cffa 98bd cdad e03d e95e 6b3e 9a5b 683c
00000310: cebc 8e3d 726d f73c 96a6 863e c9d6 c4bd
00000320: 87b5 90bd 03e6 3a3e e4b9 74be cc9f 6e3e
00000330: 08f5 04be 5f7c cdbd db5c bebd e071 43be
00000340: a285 09be 2736 cb3d 3280 a2bd e799 a6bd
00000350: 38bc 4d3e cee4 823e 35b3 0dbe 3d22 953e
00000360: 0325 3ebc 29b6 ce3d aaff 8c3e 8122 743e
00000370: 0580 183e 6a61 f73d 0dcf 28be c2fe 403e
00000380: 0791 89be 2890 4bbe d247 693d a0aa 8f3e
00000390: 54c0 393e 23e7 03be f18a 8d3e fa18 123d
000003a0: 1b9e 5bbc e8b4 54be 802e 92be 420a 19bd
000003b0: 4235 fd3c 8ed6 403e 8d87 86be acb8 093e
000003c0: 5807 3cbd 8e43 43be 0e8e 9bbd 90b4 d83d
000003d0: e255 b43c 90e8 903e 1161 113e b0ff 833d
000003e0: 6777 84be e04c 273d f3db 343e b861 a7bd
000003f0: 1162 ecbd baec 4a3e aecb 943e ed19 0fbc

to_patch_embedding.1.bias f4 [36]
-0.22327013 0.22278121 -0.09425191 0.24354967 -0.110535026 0.063396 0.22168437 0.10637255
0.16900937 0.16867085 -0.11720834 -0.10487174 -0.11812639 0.26538995 0.18965039 0.13029236
-0.2709923 -0.0033172523 -0.07518685 0.07001105 0.2691325 -0.17402293 -0.08677071 0.13686806
0.13641044 -0.2537567 0.062443644 -0.12360935 0.20330429 0.1981663 0.1829185 -0.050535623
0.207648 0.08451931 0.06763347 0.04759318
00000000: eda0 64be c220 643e 2507 c1bd 1665 793e
00000010: 3060 e2bd c3d5 813d 3a01 633e dad9 d93d
00000020: cb10 2d3e 0db8 2c3e ed0a f0bd ffc6 d6bd
00000030: 40ec f1bd 31e1 873e b633 423e 5c6b 053e
00000040: 81bf 8abe 4266 59bb 90fb 99bd f461 8f3d
00000050: bccb 893e 1133 32be d8b4 b1bd 2427 0c3e
00000060: 2eaf 0b3e 66ec 81be e8c4 7f3d e626 fdbd
00000070: 002f 503e 1bec 4a3e fd4e 3b3e 71fe 4ebd
00000080: ada1 543e 7618 ad3d 6b83 8a3d 11f1 423d

transformer.layers.0.0.norm.weight f4 [36]
1.0715375 1.0026894 1.0075177 1.0034854 1.0222223 1.0145842 1.0478389 1.0285197
1.0359412 1.046379 1.0528284 1.0396898 1.0241951 1.0100937 1.0196391 1.0417398
1.008534 1.0058569 1.0111327 1.0084294 1.008787 1.0454403 1.0022558 1.0007606
1.0224903 0.9891563 0.9900017 1.0389491 1.0125605 1.0366637 1.0000005 1.0135118
1.0258745 0.9940974 1.0079808 1.0347002
00000000: 2428 893f 2058 803f 57f6 803f 3672 803f
00000010: 2ed8 823f e5dd 813f 961f 863f 89a6 833f
00000020: b999 843f bfef 853f 15c3 863f 8e14 853f
00000030: d318 833f c04a 813f 8983 823f bb57 853f
00000040: a417 813f ebbf 803f cc6c 813f 3714 813f
00000050: ef1f 813f fdd0 853f eb49 803f ec18 803f
00000060: f6e0 823f 5939 7d3f c070 7d3f 49fc 843f
00000070: 959b 813f 65b1 843f 0400 803f c1ba 813f
00000080: db4f 833f 2b7d 7e3f 8405 813f 0e71 843f

transformer.layers.0.0.norm.bias f4 [36]
0.000416939 -0.0032351743 0.0025092177 0.014502236 -0.0051168264 -0.013326539 0.0011641028 -0.0076348106
-0.004849312 0.0056522726 0.002353057 0.0016136 -0.001456036 -0.005467845 -0.004250771 0.003024747
0.0019898515 -0.00035102785 0.0037004964 -0.0007469632 0.005896792 0.0026268365 0.005882515 -0.005013584
-0.0011776232 0.020563789 0.011564213 0.0053319344 -0.0020348143 -0.005789643 0.006043217 0.0007101111
-0.001929716 -0.0033971947 -0.0056328233 0.003416843
00000000: 9b98 da39 3805 54bb b071 243b c99a 6d3c
00000010: 0dab a7bb 8e57 5abc cf94 983a 6f2d fabb
00000020: fae6 9ebb b336 b93b bf35 1a3b 6e7f d33a
00000030: 76d8 beba 9c2b b3bb 0d4a 8bbb d53a 463b
00000040: 2b68 023b 290a b8b9 0784 723b dacf 43ba
00000050: e039 c13b 0127 2c3b 1dc2 c03b fe48 a4bb
00000060: 7a5a 9aba 6475 a83c d377 3d3c 82b7 ae3b
00000070: 855a 05bb 0cb7 bdbb 2e06 c63b c026 3a3a
00000080: 86ee fcba 78a3 5ebb 8c93 b8bb 1ded 5f3b

transformer.layers.0.0.fn.to_qkv.weight f4 [216, 36]
0.113399364 0.07535946 0.11612636 -0.05070251 -0.12887609 -0.06724382 -0.082879804 0.07557498
-0.023400644 0.11408791 -0.071745 -0.15020089 0.075295724 0.04176479 0.095536456 0.061694045
0.14391172 0.114631735 0.059736174 0.015144193 -0.027445758 -0.1283673 -0.08428264 -0.1495082
-0.0040919497 0.14136147 0.12845285 -0.11937456 0.07772149 0.06740409 -0.13184921 -0.16436061
0.12153339 0.12624738 -0.09671648 -0.044754326 0.06542545 0.0725218 -0.09265379 -0.08764428
0.036384266 0.08578658 0.10072051 0.041878 -0.07990947 0.014931524 -0.124280676 0.0770424
0.049133413 -0.11296359 -0.035049193 0.026569782 0.15864387 -0.04968715 -0.12309728 -0.012880367
0.02416508 -0.044208616 -0.020444646 0.11437872 0.0070945323 -0.030948339 0.006574024 0.040650938
-0.0047823777 -0.14992878 -0.13617444 -0.0837682 -0.01876689 0.042886555 -0.111009754 0.19186395
0.11157441 0.004943394 -0.15513848 0.044239342 -0.08494051 0.1646561 -0.09241214 0.091575526
-0.16160704 0.11475654 0.022217294 -0.1551762 0.04196396 0.1325374 -0.07797577 0.121886544
-0.07874795 -0.023101386 0.11973219 -0.05608989 -0.038254082 -0.058623377 0.20698912 0.11490841
0.18151568 -0.07148308 -0.08435698 0.082299374 -0.025304994 -0.08133091 0.14986408 -0.014870944
-0.1119154 -0.19074635 0.15374549 -0.023754556 0.06598632 0.072680384 0.028712867 -0.16433103
-0.17412782 0.0562845 0.109691545 -0.031022651 -0.0321244 -0.17609331 0.06759518 -0.0030935227
-0.043078143 -0.039936524 0.15733886 0.03285839 -0.025908247 0.05353179 0.1405648 0.15062347
0.08592688 0.13172306 0.05588138 -0.084791936 -0.12141269 -0.1718953 -0.08634304 -0.102743186
-0.17899628 0.018278027 -0.027229702 -0.10744298 0.12780829 -0.07601591 0.14341895 -0.22541906
-0.121351324 -0.15321432 -0.010299701 0.025483696 0.012205659 -0.16950813 0.05785432 0.123402506
0.10467389 -0.08694154 0.023516303 0.14504214 0.13573773 -0.10784459 -0.09030455 0.14974624
0.1377235 -0.08081775 0.18217234 -0.12359077 -0.12457597 -0.06844339 -0.06781602 0.09374168
0.008342126 0.024549799 -0.16329655 -0.1747477 -0.12337641 0.10647714 0.13788621 -0.053531393
0.031008344 0.06023293 -0.15552665 -0.12222376 0.14579813 -0.0016277595 0.06514615 -0.079771124
-0.1415844 0.14830597 0.13739777 0.20576039 -0.031982217 -0.13978015 0.06557087 -0.12743586
-0.09453675 0.18896754 0.001197956 0.021415861 -0.18535346 0.04760619 0.011280134 -0.05552954
-0.057742316 -0.028624576 0.09538896 -0.060668588 -0.0047390745 -0.115563735 0.042689748 0.014759206
-0.026236841 0.03598151 0.10007983 -0.12691359 -0.07270611 -0.05938369 0.03301324 0.13250221
0.026389485 -0.037456874 0.11286928 0.12942821 -0.14698255 0.021403871 -0.03953658 0.15483823
0.012089291 -0.07657556 0.14427029 0.08060011 0.015378364 0.055707913 -0.0004362306 -0.108765095
-0.09551168 -0.07257753 0.031861924 -0.07560302 -0.15893732 0.06843545 0.067450136 0.011710687
0.03982161 -0.11020433 0.16290908 0.0054372344 0.048025418 0.08231511 0.09180006 -0.05583115
0.15993434 0.110583484 -0.08544548 0.09963199 0.0764334 0.0022526532 0.07431861 -0.051123664
00000000: ed3d e83d 1056 9a3d a8d3 ed3d 6fad 4fbd
00000010: 18f8 03be 21b7 89bd e3bc a9bd 0ec7 9a3d
00000020: b5b2 bfbc eca6 e93d 0bef 92bd 43ce 19be
00000030: a534 9a3d 8e11 2b3d 9ea8 c33d e5b2 7c3d
00000040: 985d 133e 0bc4 ea3d ebad 743d 591f 783c
00000050: edd5 e0bc b872 03be 609c acbd ad18 19be
00000060: c315 86bb 10c1 103e 2589 033e a67a f4bd
00000070: 722c 9f3d 280b 8a3d 7b03 07be 264e 28be
00000080: 7fe6 f83d fe46 013e 4a13 c6bd 5050 37bd
00000090: c7fd 853d 4f86 943d 45c1 bdbd d87e b3bd
000000a0: ab07 153d e0b0 af3d 8e46 ce3d 4488 2b3d
000000b0: 94a7 a3bd 5aa3 743c de86 febd 68c8 9d3d
000000c0: 1e40 493d 7459 e7bd be8f 0fbd dfa8 d93c
000000d0: 8a73 223e c184 4bbd 6d1a fcbd 2d08 53bc
000000e0: d9f5 c53c 1814 35bd 887b a7bc 643f ea3d
000000f0: 4079 e83b 5f87 fdbc e96a d73b 9981 263d
00000100: 7eb5 9cbb ee86 19be 5071 0bbe a98e abbd
00000110: 05bd 99bc d0a9 2f3d 1559 e3bd fc77 443e
00000120: 2081 e43d 32fc a13b 9fdc 1ebe 5034 353d
00000130: 4af5 adbd 9c9b 283e 9342 bdbd f38b bb3d
00000140: 517c 25be 7a05 eb3d 0b01 b63c 83e6 1ebe
00000150: 67e2 2b3d e2b7 073e c3b1 9fbd a79f f93d
00000160: 9b46 a1bd 1e3f bdbc 2736 f53d 83be 65bd
00000170: 50b0 1cbd 111f 70bd f5f4 533e 1a55 eb3d
00000180: 3fdf 393e b965 92bd 5ac3 acbd 938c a83d
00000190: 6b4c cfbc d290 a6bd f875 193e 43a5 73bc
000001a0: e733 e5bd 0353 43be 756f 1d3e ea98 c2bc
000001b0: d623 873d 74d9 943d 3f37 eb3c 6546 28be
000001c0: 904e 32be 938a 663d f6a5 e03d 3723 febc
000001d0: e094 03bd ce51 34be 576f 8a3d b3bc 4abb
000001e0: b572 30bd 7b94 23bd 701d 213e 8596 063d
000001f0: 883d d4bc 2644 5b3d 38f0 0f3e 0a3d 1a3e
00000200: 6ffa af3d 69e2 063e e0e3 643d 65a7 adbd
00000210: 37a7 f8bd 5205 30be 9fd4 b0bd 056b d2bd
00000220: cd4a 37be cdbb 953c d310 dfbc 110b dcbd
00000230: 2de0 023e 3bae 9bbd 6bdc 123e 41d4 66be
00000240: 0b87 f8bd 37e4 1cbe 14c0 28bc 2fc3 d03c
00000250: 3ffa 473c 8a93 2dbe a7f8 6c3d 74ba fc3d
00000260: 445f d63d 680e b2bd 43a5 c03c ed85 143e
00000270: d5fe 0a3e a0dd dcbd 98f1 b8bd 1457 193e
00000280: 6407 0d3e c783 a5bd 638b 3a3e 281d fdbd
00000290: b021 ffbd 0c2c 8cbd 20e3 8abd a3fb bf3d
000002a0: 6aad 083c a91c c93c 3637 27be 10f1 32be
000002b0: c5ac fcbd b010 da3d 0b32 0d3e bc43 5bbd
000002c0: 3605 fe3c ceb6 763d 6142 1fbe 7350 fabd
000002d0: 1b4c 153e 8c5a d5ba 586b 853d 0b5f a3bd
000002e0: 80fb 10be 85dd 173e 00b2 0c3e dab2 523e
000002f0: c9ff 02bd 8722 0fbe 054a 863d 8c7e 02be
00000300: 7c9c c1bd b580 413e bc04 9d3a 5170 af3c
00000310: 4ccd 3dbe b5fe 423d 50d0 383c f172 63bd
00000320: 3583 6cbd 167e eabc 495b c33d a07f 78bd
00000330: 3d4a 9bbb aeac ecbd 72db 2e3d 99d0 713c
00000340: a5ee d6bc 5961 133d a7f6 cc3d a3f5 01be
00000350: f1e6 94bd 503c 73bd e438 073d a9ae 073e
00000360: c32e d83c 616c 19bd 0228 e73d d488 043e
00000370: 9882 16be 2c57 af3c 1cf1 21bd ea8d 1e3e
00000380: 2912 463c a6d3 9cbd 97bb 133e ac11 a53d
00000390: 89f5 7b3c fb2d 643d e1b5 e4b9 3cc0 debd
000003a0: a19b c3bd 87a3 94bd a681 023d c2d5 9abd
000003b0: 77c0 22be e327 8c3d 4c23 8a3d 2ede 3f3c
000003c0: fc1b 233d cfb2 e1bd a3d1 263e d42a b23b
000003d0: 4db6 443d d394 a83d ab01 bc3d 34af 64bd
000003e0: d4c5 233e 9879 e23d 0afe aebd db0b cc3d
000003f0: 1d89 9c3d 40a1 133b 5b34 983d 0c67 51bd

transformer.layers.0.0.fn.to_out.0.weight f4 [36, 72]
0.014623307 0.07146081 0.051970504 -0.07079877 0.095803514 -0.08318532 0.07412607 0.089678794
-0.03770994 0.12232829 -0.08673767 0.069449365 0.014224128 -0.046859704 0.04408755 -0.100003004
0.00614186 -0.08339253 -0.011845347 0.0024529619 0.09519956 0.07097152 0.1057975 0.015414248
-0.020999225 -0.014520282 0.09241388 0.012498182 0.07718421 0.07261831 0.013782255 0.028990198
-0.115843676 0.10425553 0.027570283 -0.045235295 0.09221984 -0.0004283325 -0.09555679 -0.0140000405
-0.04753878 -0.11747208 -0.054364286 -0.057187933 0.022786757 -0.04627298 0.011844901 0.045874596
0.06616364 0.060824912 0.09615757 -0.045179896 -0.05866254 -0.032094464 0.012645608 -0.010669264
-0.09229515 0.06859514 0.0277318 -0.02249085 -0.06763552 0.06637756 0.086785376 -0.076176256
-0.025480755 0.11607208 0.08303346 -0.11508879 -0.09239009 0.005698381 -0.07507125 -0.09346665
-0.051239952 -0.08238594 0.023285901 -0.132994 0.03953388 -0.03477903 -0.06507118 -0.08584428
-0.07577094 -0.13847107 -0.0019437313 0.08292921 -0.058967836 0.026484 0.06586409 -0.0391801
0.04161625 0.038987543 0.038682986 0.06909902 -0.10224027 0.013134301 -0.020729285 0.02156588
-0.10107276 -0.06900397 -0.003817039 0.00051919115 -0.09686205 0.036194116 0.0015104184 -0.03756631
-0.10989759 0.009427154 -0.06771962 0.036947817 0.0050375187 -0.07060712 -0.0048078964 -0.052380234
0.07652823 -0.032539558 0.10531002 0.057161484 -0.041535538 -0.05936851 -0.100470625 0.057152566
-0.058180347 -0.08241404 -0.028619746 0.055092778 -0.061320506 0.06688786 0.030538771 0.083054215
-0.103421256 -0.034356155 -0.06903182 -0.03908388 0.11083327 -0.075556144 0.03630813 -0.1037392
0.01752854 -0.026829336 0.09348361 0.08112982 0.022960883 0.052506093 -0.094407424 0.082705714
0.09097503 -0.032708775 0.07344323 -0.08255477 -0.016359597 0.057316396 -0.020336686 0.058298133
-0.072809204 0.072182275 0.0020822098 0.096226014 0.017126476 0.041887615 -0.03241545 0.043545138
0.03143354 -0.096598476 0.03895092 0.015442484 -0.0061833193 0.08263262 0.014954934 -0.011088471
0.09322032 -0.031990543 -0.059174992 -0.112390615 -0.073653415 -0.017813956 0.14099428 -0.034206618
0.08286695 0.096901454 -0.022681247 -0.005659359 -0.11649011 0.009342874 0.09970879 0.100708365
-0.07398869 -0.07083808 -0.06734058 -0.10322994 0.026111476 -0.08841646 0.021428466 -0.03420017
0.027140753 0.08518225 0.14254986 -0.07015507 -0.051179796 -0.09096278 0.03141369 0.047026582
-0.067971915 -0.0414709 -0.054234736 0.026371906 -0.09796926 0.07375793 -0.01124175 -0.028480481
-0.013742418 -0.0304827 -0.083874345 0.015380122 -0.09056076 0.057027612 -9.7745404e-05 0.09862456
-0.123326614 0.02624253 -0.00013083595 -0.055432416 -0.029520057 -0.068313934 0.077407405 -0.0053998698
-0.092375055 -0.09854298 -0.033390418 0.060039762 -0.09349144 -0.07214542 -0.08610537 0.0048520444
-0.102500044 0.084678225 -0.00565603 0.073930174 0.021746965 0.07450941 -0.119656995 -0.13110916
0.0051393993 -0.02775173 0.023999726 -0.017845126 0.057207912 -0.05446588 0.03129337 0.033553176
0.080125734 0.08548226 -0.009489835 0.07299523 -0.07614124 0.10104986 0.02925142 -0.11031259
00000000: 9896 6f3c 0c5a 923d 06df 543d f2fe 90bd
00000010: a234 c43d 115d aabd 69cf 973d 84a9 b73d
00000020: bd75 1abd 4187 fa3d 85a3 b1bd 783b 8e3d
00000030: 510c 693c f6ef 3fbd 2695 343d 60ce ccbd
00000040: a841 c93b b4c9 aabd fc12 42bc dfc1 203b
00000050: fdf7 c23d 8459 913d 5cac d83d 0b8c 7c3c
00000060: 9106 acbc 7ae6 6dbc 7d43 bd3d 2dc5 4c3c
00000070: c112 9e3d e9b8 943d f8ce 613c da7c ed3c
00000080: 733f edbd ec83 d53d 13db e13c a548 39bd
00000090: c1dd bc3d d191 e0b9 47b3 c3bd 6d60 65bc
000000a0: 06b8 42bd 3495 f0bd 16ad 5ebd e53d 6abd
000000b0: 4bab ba3c bc88 3dbd 1e11 423c 00e7 3b3d
000000c0: cd80 873d 8b23 793d 43ee c43d 8e0e 39bd
000000d0: 2248 70bd 7c75 03bd 862f 4f3c 23ce 2ebc
000000e0: 3d05 bdbd 9c7b 8c3d cd2d e33c bb3e b8bc
000000f0: 7e84 8abd f5f0 873d 88bc b13d 4c02 9cbd
00000100: 04bd d0bc 33b7 ed3d 720d aa3d acb3 ebbd
00000110: 0437 bdbd 7cb9 ba3b f5be 99bd 716b bfbd
00000120: fce0 51bd f6b9 a8bd 13c2 be3c 942f 08be
00000130: 47ee 213d 7574 0ebd 0a44 85bd 20cf afbd
00000140: cb2d 9bbd 5ccb 0dbe cdc4 feba cad6 a93d
00000150: 4288 71bd f9f4 d83c c1e3 863d 507b 20bd
00000160: cd75 2a3d 67b1 1f3d 0d72 1e3d c983 8d3d
00000170: 5963 d1bd 4031 573c 76d0 a9bc eeaa b03c
00000180: 3cff cebd f451 8dbd 4a27 7abb 541a 083a
00000190: 9c5f c6bd 4840 143d 3bf9 c53a 22df 19bd
000001a0: fd11 e1bd 5a74 1a3c 96b0 8abd 9856 173d
000001b0: c511 a53b 779a 90bd 8f8b 9dbb a88c 56bd
000001c0: d5ba 9c3d 3348 05bd c8ac d73d 2922 6a3d
000001d0: 2b21 2abd 652c 73bd 8bc3 cdbd cf18 6a3d
000001e0: 844e 6ebd b1c8 a8bd f573 eabc f7a8 613d
000001f0: 362b 7bbd 81fc 883d 722c fa3c 5418 aa3d
00000200: 86ce d3bd 0ab9 0cbd 8e60 8dbd 6b16 20bd
00000210: 8efc e23d 2ebd 9abd d5b7 143d 3875 d4bd
00000220: 0398 8f3c 32c9 dbbc 5674 bf3d 6427 a63d
00000230: 7618 bc3c a110 573d ae58 c1bd 9d61 a93d
00000240: 1e51 ba3d a3f9 05bd 6769 963d 7a12 a9bd
00000250: 9004 86bc 99c4 6a3d 1f99 a6bc 06ca 6e3d
00000260: fe1c 95bd 4dd4 933d af75 083b 2512 c53d
00000270: d34c 8c3c 5992 2b3d 10c6 04bd 635c 323d
00000280: 75c0 003d 6cd5 c5bd 008b 1f3d 7902 7d3c
00000290: 719d cabb 4b3b a93d 8a05 753c 6bac 35bc
000002a0: 4cea be3d 8408 03bd 7a61 72bd 0d2d e6bd
000002b0: 9ad7 96bd 93ee 91bc ce60 103e 3d1c 0cbd
000002c0: 26b6 a93d 4574 c63d 06ce b9bc 2572 b9bb
000002d0: 5e92 eebd db12 193c 1f34 cc3d 3040 ce3d
000002e0: 6287 97bd 8e13 91bd dce9 89bd 386a d3bd
000002f0: bce7 d53c b013 b5bd c08a af3c 7a15 0cbd
00000300: 4956 de3c 0874 ae3d 97f8 113e 76ad 8fbd
00000310: e8a1 51bd b24a babd a4ab 003d f29e 403d
00000320: dc34 8bbd 64dd 29bd 3e25 5ebd e509 d83c
00000330: 1ba4 c8bd 660e 973d 512f 38bc e64f e9bc
00000340: e127 61bc dbb6 f9bc 50c6 abbd e8fc 7b3c
00000350: eb77 b9bd c995 693d aafc ccb8 acfb c93d
00000360: aa92 fcbd 93fa d63c 0231 09b9 1a0d 63bd
00000370: 0cd4 f1bc 2de8 8bbd c687 9e3d 64f1 b0bb
00000380: 222f bdbd e7d0 c9bd 64c4 08bd 41ec 753d
00000390: 7178 bfbd fac0 93bd 0358 b0bd e6fd 9e3b
000003a0: 8beb d1bd c76b ad3d 3856 b9bb b468 973d
000003b0: b126 b23c 6498 983d ba0e f5bd 7b41 06be
000003c0: 6868 a83b 9957 e3bc 139b c43c f12f 92bc
000003d0: d852 6a3d 9d17 5fbd 7a2d 003d 0e6f 093d
000003e0: f618 a43d 5311 af3d 417b 1bbc 867e 953d
000003f0: f0ef 9bbd 3bf3 ce3d ada0 ef3c 91eb e1bd

transformer.layers.0.0.fn.to_out.0.bias f4 [36]
-0.075973496 -0.01814345 -0.09553542 0.09502366 0.0026604142 0.033513226 0.0127711855 0.021596814
0.0117703155 0.08744039 -0.022050863 0.105670094 0.09615511 -0.06337053 0.043004416 -0.08172559
-0.05790889 0.06943808 -0.045655023 0.074117154 0.02281001 -0.12126109 0.054925345 -0.008396392
-0.042974215 0.026528655 -0.09475084 -0.097503066 -0.08785417 0.056015592 -0.047295164 -0.0043388945
0.07248368 0.095682055 -0.045664627 -0.018970782
00000000: fe97 9bbd 93a1 94bc 13a8 c3bd c49b c23d
00000010: 585a 2e3b 2a45 093d 3c3e 513c cdeb b03c
00000020: 48d8 403c f213 b33d 03a4 b4bc 9069 d83d
00000030: f8ec c43d 69c8 81bd 6625 303d bf5f a7bd
00000040: df31 6dbd 8d35 8e3d c300 3bbd bcca 973d
00000050: 0fdc ba3c bc57 f8bd 66f9 603d 0591 09bc
00000060: bb05 30bd 9f52 d93c ba0c c2bd b0af c7bd
00000070: e3ec b3bd 9b70 653d 93b8 41bd 492d 8ebb
00000080: 5372 943d f4f4 c33d d50a 3bbd 9d68 9bbc

transformer.layers.0.1.norm.weight f4 [36]
1.0111549 1.0305207 0.99642307 1.04249 1.0052139 1.006414 0.9946795 1.0321985
0.9926914 0.9804541 0.99566144 1.0133818 1.014258 1.0034919 1.0030808 1.0204896
1.0193176 1.0327259 1.000434 1.0065578 0.9983347 0.99206275 1.0597057 1.0469116
0.96640795 1.0044732 1.0039146 1.0441527 0.988225 0.9939007 1.0478312 1.0064025
1.0171523 1.032585 1.0075853 1.0235016
00000000: 866d 813f 1ae8 833f 9515 7f3f 5070 853f
00000010: d9aa 803f 2dd2 803f 51a3 7e3f 151f 843f
00000020: 0621 7e3f 0aff 7a3f abe3 7e3f 7fb6 813f
00000030: 35d3 813f 6c72 803f f464 803f 679f 823f
00000040: 0079 823f 5d30 843f 390e 803f e3d6 803f
00000050: dd92 7f3f d3f7 7d3f 70a4 873f 3301 863f
00000060: 8366 773f 9492 803f 4680 803f cca6 853f
00000070: 50fc 7c3f 4770 7e3f 551f 863f ccd1 803f
00000080: 0c32 823f bf2b 843f 8ef8 803f 1a02 833f

transformer.layers.0.1.norm.bias f4 [36]
-0.004159763 0.019321805 -0.0032883573 -0.0038913758 -0.0010915776 0.00073891424 -0.0037961816 0.0024823658
0.0064527304 -0.013231659 0.0055325944 0.004702228 0.004419062 0.001061052 -0.0072496408 0.0018006531
0.0049982714 0.007045131 -0.008002818 -0.004870074 0.00016939983 -0.01046611 -0.011140858 0.00082778325
-0.007841007 -0.0014719305 -0.0030748239 -3.892879e-05 0.0096868025 0.01180512 -0.0026037656 -0.0011137372
-0.0039668456 -0.0068853926 0.0037940503 -0.013637358
00000000: 9f4e 88bb c348 9e3c 7b81 57bb 7406 7fbb
00000010: 4413 8fba b2b3 413a 5cc9 78bb 30af 223b
00000020: 6d71 d33b 9ac9 58bc c44a b53b 2615 9a3b
00000030: c7cd 903b ff12 8b3a 658e edbb e403 ec3a
00000040: 8ac8 a33b d8da e63b 401e 03bc 2495 9fbb
00000050: eca0 3139 0c7a 2bbc 2588 36bc 98ff 583a
00000060: 9177 00bc cbed c0ba fc82 49bb 7847 23b8
00000070: 65b5 1e3c 436a 413c f0a3 2abb d2fa 91ba
00000080: 50fc 81bb dc9e e1bb 9aa5 783b 3a6f 5fbc

transformer.layers.0.1.fn.net.0.weight f4 [72, 36]
0.09664058 0.13641289 0.02546436 -0.1267326 0.08965941 -0.14701691 -0.013707016 -0.08872078
0.13847475 -0.08914918 -0.07282877 0.05967071 0.0041168854 0.16069973 0.07957191 -0.03307467
0.08598782 -0.054885935 0.10862809 -0.14548746 -0.06059826 -0.05317586 -0.14194582 0.078435645
0.022377895 -0.14965719 0.03239854 -0.018255703 -0.07461517 0.10601798 0.080747195 0.036271367
0.15268287 -0.012596871 -0.005016473 0.14082448 -0.14654765 0.1419137 -0.043910805 -0.15816452
-0.01694068 0.019023554 -0.135818 -0.14652888 0.13849558 -0.070110746 0.031790547 0.16196308
0.030886646 0.065725595 -0.028610304 -0.15895055 -0.037769724 0.019965496 -0.1691486 0.0100920005
-0.025928607 -0.117787644 -0.011498639 -0.014560407 -0.12176008 -0.048311237 -0.071593784 -0.05733556
-0.13981925 -0.12268396 0.11559677 -0.074141234 0.16767932 -0.012349555 -0.014392746 -0.14565212
0.13799167 0.0451004 -0.14589624 -0.09833667 0.09692349 -0.13251768 0.038344197 -0.062040906
0.13019279 -0.02458157 0.090621315 -0.023627983 -0.06594611 -0.004568722 0.10677794 0.018924672
-0.0761604 -0.16385174 0.040476244 -0.14281309 -0.09815322 -0.015430808 0.18248798 -0.018121155
0.07548741 0.109494716 0.119686626 0.040861547 -0.06650238 -0.11716354 0.034722112 0.14120513
-0.082033485 -0.095886424 0.16467422 0.011704069 -0.0417442 0.025695086 0.086900495 -0.12735787
-0.07584491 -0.15805365 -0.1472578 0.09909772 -0.103163905 0.10104632 -0.10634629 -0.02158742
-0.041861054 0.0030760164 -0.12703073 -0.0071076946 -0.10974865 -0.13239098 -0.06953684 -0.027655099
0.064792946 0.021745728 0.067404844 -0.11284432 -0.090395965 -0.11905103 -0.073235676 0.023986148
-0.078435086 -0.09391085 0.0922777 -0.100169495 -0.13400671 -0.076192066 0.095474705 0.008671051
-0.14661501 0.17765026 0.058339186 0.12487785 -0.035718422 -0.1485961 0.10205953 0.10208958
0.064532004 -0.014840994 0.14881301 -0.040629502 0.01969368 -0.15108056 -0.119530395 -0.0998246
0.11787476 -0.07933061 -0.041025728 0.09983897 0.05484177 -0.04042052 -0.07164648 -0.06727932
-0.15434729 0.00942588 0.036155462 0.18336333 -0.022000497 0.14190468 -0.0890794 0.119351365
0.0032784906 0.16362594 0.09700671 -0.124722145 -0.09452506 0.050292496 -0.115922324 0.18013291
0.10376562 0.1593462 -0.023664586 -0.11400301 -0.027278025 0.05315149 0.112502724 0.06686722
0.16023636 -0.051846426 0.16349714 -0.040488664 0.15843013 -0.15085787 -0.0392137 -0.104976445
-0.031107528 0.06636993 -0.07536068 -0.00039438118 -0.062562674 -0.06493595 0.11609967 -0.123252116
-0.04937599 0.0662054 -0.07022975 0.12242488 -0.13935976 0.19046548 -0.028853642 -0.04529415
-0.09390804 -0.031507235 -0.019451285 0.105354875 0.050503362 -0.024825718 0.031727877 0.07337573
-0.06644315 -0.13857429 0.08502738 -0.06567955 0.063078366 -0.158313 0.00076994736 -0.00022018139
0.122153975 0.025416045 0.14396046 -0.013879341 0.06978161 -0.09516304 0.09037347 -0.025772195
-0.06426701 0.013584827 0.16102359 0.094061315 0.048297815 0.082913205 -0.06249684 0.09647767
-0.0058845864 0.12720592 -0.14315666 0.16650659 0.034721117 0.053242456 0.14697997 -0.16649714
00000000: 7feb c53d d2af 0b3e a29a d03c 31c6 01be
00000010: 5a9f b73d 9a8b 16be 6493 60bc 3eb3 b5bd
00000020: 53cc 0d3e d893 b6bd 4027 95bd 4669 743d
00000030: f0e6 863b 788e 243e 99f6 a23d 4e79 07bd
00000040: 621a b03d 13d0 60bd 6778 de3d aafa 14be
00000050: e235 78bd eece 59bd 3f5a 11be dea2 a03d
00000060: d951 b73c bc3f 19be 55b4 043d fc8c 95bc
00000070: d7cf 98bd f41f d93d c95e a53d 4991 143d
00000080: e658 1c3e 1b63 4ebc 3a61 a4bb 4b34 103e
00000090: 9610 16be d351 113e d1db 33bd e1f5 21be
000000a0: 2ec7 8abc 49d7 9b3c e013 0bbe ab0b 16be
000000b0: c9d1 0d3e 3996 8fbd ce36 023d a6d9 253e
000000c0: fe05 fd3c 249b 863d 2860 eabc efc3 22be
000000d0: 6db4 1abd ae8e a33c 4a35 2dbe eb58 253c
000000e0: 3b68 d4bc a63a f1bd ca64 3cbc c68e 6ebc
000000f0: 595d f9bd 01e2 45bd c39f 92bd b1d8 6abd
00000100: c72c 0fbe ba41 fbbd 00be ec3d 5cd7 97bd
00000110: 21b4 2b3e ca55 4abc 8dcf 6bbc d425 15be
00000120: b04d 0d3e 32bb 383d d365 15be bc64 c9bd
00000130: d37f c63d b7b2 07be ce0e 1d3d 9b1e 7ebd
00000140: 4251 053e 4a5f c9bc ab97 b93d 798f c1bc
00000150: c10e 87bd 38b5 95bb 65ae da3d ea07 9b3c
00000160: fcf9 9bbd c0c8 27be 6bca 253d 983d 12be
00000170: 8e04 c9bd 80d1 7cbc 21de 3a3e d172 94bc
00000180: 2599 9a3d c43e e03d 431e f53d 705e 273d
00000190: 6632 88bd 70f3 efbd c638 0e3d 1498 103e
000001a0: 2c01 a8bd 1a60 c4bd 5ca0 283e 6cc2 3f3c
000001b0: f7fb 2abd 807e d23c e3f8 b13d 1a6a 02be
000001c0: 9454 9bbd d1d8 21be c0ca 16be bff3 ca3d
000001d0: 9947 d3bd 5ff1 ce3d 15cc d9bd 1ad8 b0bc
000001e0: 7f76 2bbd fe96 493b 5814 02be aae7 e8bb
000001f0: e6c3 e0bd 8091 07be 5569 8ebd f28c e2bc
00000200: 2ab2 843d 1924 b23c 8d0b 8a3d ec1a e7bd
00000210: 8521 b9bd 07d1 f3bd 96fc 95bd 997e c43c
00000220: 93a2 a0bd 5554 c0bd 17fc bc3d aa25 cdbd
00000230: 0e39 09be 960a 9cbd 3e88 c33d 0611 0e3c
00000240: 3f22 16be f3e9 353e 12f5 6e3d f5bf ff3d
00000250: 7b4d 12bd 9329 18be 9604 d13d 5714 d13d
00000260: 5b29 843d a427 73bc 7062 183e 1f6b 26bd
00000270: a454 a13c ddb4 1abe 5acc f4bd d770 ccbd
00000280: 5268 f13d 1678 a2bd 980a 28bd 6078 cc3d
00000290: c4a1 603d fd8f 25bd 64bb 92bd bdc9 89bd
000002a0: 370d 1ebe 026f 1a3c c017 143d 99c3 3b3e
000002b0: 633a b4bc 764f 113e 436f b6bd 7d6e f43d
000002c0: f2db 563b 8f8d 273e 74ab c63d 536e ffbd
000002d0: 5b96 c1bd 81ff 4d3d af68 edbd c374 383e
000002e0: 1283 d43d a62b 233e 3cdc c1bc 697a e9bd
000002f0: 2a76 dfbc 60b5 593d d467 e63d aef1 883d
00000300: 0015 243e eb5c 54bd cb6b 273e 71d7 25bd
00000310: 823b 223e 7c7a 1abe 8b9e 20bd e4fd d6bd
00000320: 37d5 febc f5ec 873d b356 9abd f2c4 ceb9
00000330: dc20 80bd 24fd 84bd aac5 ed3d 9b6b fcbd
00000340: 7a3e 4abd b296 873d 9dd4 8fbd e5b9 fa3d
00000350: 53b4 0ebe 6209 433e 795e ecbc 5c86 39bd
00000360: dc52 c0bd bb0d 01bd 4d58 9fbc 4cc4 d73d
00000370: 9ddc 4e3d 4e5f cbbc 17f5 013d 0446 963d
00000380: 5913 88bd 6be6 0dbe d622 ae3d 0083 86bd
00000390: 3b2f 813d ce1c 22be 4bd6 493a 7ee0 66b9
000003a0: dd2b fa3d 4f35 d03c 5f6a 133e 2d66 63bc
000003b0: a9e9 8e3d d7e4 c2bd ba15 b93d 3620 d3bc
000003c0: 6c9e 83bd e592 5e3c 5ee3 243e 38a3 c03d
000003d0: eed3 453d 66ce a93d b0fc 7fbd 1696 c53d
000003e0: 7dd3 c0bb 4542 023e a997 12be b480 2a3e
000003f0: bb37 0e3d c314 5a3d eb81 163e 3a7e 2abe

transformer.layers.0.1.fn.net.0.bias f4 [72]
0.041036446 0.15056768 -0.054571755 -0.015130729 -0.09238541 0.075224005 -0.08141939 -0.1596846
-0.09818807 -0.018669844 -0.15738915 -0.10911949 0.089618616 -0.032610077 -0.15020579 -0.03340739
0.08563752 0.10632256 -0.14260814 0.09587598 0.14115366 0.020640535 -0.0014577539 -0.06985473
0.0021424603 -0.08105881 -0.13557498 0.13130444 0.03266979 0.10516397 0.13020048 0.12088768
-0.012115012 -0.0059512444 -0.13268176 -0.008776672 0.08995508 -0.13386162 0.032267928 -0.12114831
-0.096429236 0.040137768 -0.13073167 0.020717189 0.00013302643 -0.13341835 -0.121896006 0.0016237337
-0.018311856 0.09909092 -0.10850748 0.09704155 0.07300786 -0.02106486 0.026392734 -0.13938712
-0.046570837 0.08313172 0.1298696 -0.13193081 0.16424488 0.034826837 0.09060937 -0.07653398
-0.031934757 -0.09488207 -0.09128673 0.15308113 -0.043893468 0.06592342 0.13457952 -0.09539506
00000000: d515 283d 6a2e 1a3e a286 5fbd e1e6 77bc
00000010: 9034 bdbd 0b0f 9a3d 36bf a6bd 5c84 23be
00000020: d416 c9bd 80f1 98bc 9f2a 21be 0a7a dfbd
00000030: f789 b73d 2592 05bd 8ccf 19be 30d6 08bd
00000040: b962 af3d a4bf d93d de07 12be a05a c43d
00000050: 968a 103e 5716 a93c 1b12 bfba ff0f 8fbd
00000060: 8568 0c3b 2902 a6bd 2bd4 0abe ac74 063e
00000070: c2d0 053d 3560 d73d 4653 053e f693 f73d
00000080: 0b7e 46bc a802 c3bb badd 07be 08cc 0fbc
00000090: 5e3a b83d 0513 09be 602b 043d 9b1c f8bd
000000a0: b17c c5bd 8067 243d 86de 05be 18b7 a93c
000000b0: 037d 0b39 d29e 08be 9da4 f9bd 76d3 d43a
000000c0: bf02 96bc 2ef0 ca3d 2b39 debd b8bd c63d
000000d0: 2585 953d 3790 acbc 9335 d83c 7fbb 0ebe
000000e0: 10c1 3ebd f740 aa3d 89fc 043e df18 07be
000000f0: cf2f 283e 96a6 0e3d 6891 b93d d9bd 9cbd
00000100: 05ce 02bd 8851 c2bd 89f4 babd 4dc1 1c3e
00000110: a3c9 33bd dc02 873d 37cf 093e 7c5e c3bd

transformer.layers.0.1.fn.net.3.weight f4 [36, 72]
0.05838881 0.056956455 -0.00030352137 -0.08845915 -0.035229314 -0.013168901 -0.02642994 0.05147274
-0.103810094 -0.044143707 0.07805158 0.005516563 -0.058047958 -0.07707874 0.038574293 0.07245444
0.0019727317 0.017392704 0.026350642 -0.09616867 0.039713547 -0.10123091 -0.039391838 0.011311342
0.06311871 0.10390402 0.06693072 -0.06526963 -0.120686844 -0.067581385 0.06536849 0.09484544
-0.055566426 0.07405221 -0.035732936 -0.08929993 -0.04599142 -0.081513144 -0.057835333 0.09956731
-0.0836401 -0.08385042 -0.075457804 -0.048265383 -0.10588374 -0.010519569 -0.012529248 -0.041289616
-0.049112845 0.04441813 0.026646616 0.026787616 -0.05890308 0.093751736 0.0019720118 -0.04118475
0.1016299 0.09761643 0.07451636 0.09432865 -0.059448283 0.08764094 0.095930696 -0.005617173
0.061144054 -0.02263918 -0.105971016 -0.052095175 -0.027014311 -0.10257287 0.12218145 -0.044310436
0.098932125 -0.11407851 0.045488898 0.045053095 0.019549929 0.01844332 -0.062084604 0.099065535
-0.076676704 0.05036006 0.036347117 0.0029546446 -0.05712227 0.03795051 -0.12283056 -0.06069019
0.05018548 0.012042635 -0.10544634 0.066014074 -0.03714156 0.016835341 -0.05760267 -0.027961072
-0.11620351 0.087606765 -0.09384772 0.099655785 -0.052396547 -0.06456784 0.016145471 -0.115470104
0.10176065 -0.020428907 -0.024981797 -0.07468246 0.017952552 -0.031074567 0.05917914 -0.009208312
-0.09404354 -0.014753754 0.09546368 0.016693687 0.088844806 0.084844075 0.05472839 0.031218179
0.066026755 0.038886786 -0.015118196 0.02455188 0.102452435 -0.09670297 -0.011579597 -0.1141661
-0.049567252 0.06519126 -0.041648276 0.09914358 -0.10328595 0.05393634 -0.005916004 0.009429231
-0.06168707 -0.06829135 0.034397826 -0.07457111 -0.080017135 0.017997516 -0.016785288 -0.0002040275
-0.015358631 0.025998587 -0.06536085 -0.118612766 -0.11333256 -0.08867746 0.022808397 0.052769493
0.023440361 -0.023344405 -0.101238206 -0.110222146 0.04332741 -0.027343947 -0.10087743 0.096125394
-0.0083046565 0.11183394 0.07448128 -0.05251178 0.05325188 -0.06729121 -0.09652646 -0.062885545
-0.052247833 -0.13264903 0.008446345 0.025444878 0.10703002 -0.02602933 -0.07129705 -0.01694768
0.06970788 0.01571029 -0.042899325 -0.11547389 -0.011202011 0.108930215 0.022877462 -0.039272677
-0.035315745 0.035364993 -0.048893422 -0.023238713 -0.035603397 -0.100844055 -0.07982399 -0.07721827
0.0812866 -0.09489055 -0.078053914 0.117417954 -0.10151879 0.048267975 -0.005265531 -0.04384848
0.062180426 0.051745098 0.08313874 0.07957984 -0.0011085253 0.086629 0.10683811 -0.012495777
0.06272611 0.060217727 -0.10830625 -0.10174663 -0.123231284 -0.106370404 -0.008016991 0.07436062
0.099420674 0.10493405 -0.016864799 -0.093475915 0.08259084 -0.08403138 0.0952547 -0.08460084
-0.04679804 -0.056241583 0.036148787 0.05337858 0.033835668 0.06912802 -0.09323012 0.05289176
-0.031868 0.041406415 0.10991311 -0.027176095 -0.024585165 0.10750952 0.06617752 0.099936515
-0.048897415 -0.013836306 -0.02008534 -0.033112016 -0.0476821 -0.000243971 -0.019433215 -0.02177927
0.021429177 0.11813662 -0.06937676 0.06627979 0.09502915 0.017718332 0.09679037 0.035053227
00000000: 1b29 6f3d 2c4b 693d f321 9fb9 122a b5bd
00000010: 9d4c 10bd 60c2 57bc 9a83 d8bc 14d5 523d
00000020: 639a d4bd 08d0 34bd 82d9 9f3d 49c4 b43b
00000030: b2c3 6dbd 75db 9dbd 1400 1e3d fe62 943d
00000040: f248 013b 257b 8e3c 4ddd d73c 14f4 c4bd
00000050: acaa 223d 2752 cfbd 5659 21bd 3553 393c
00000060: 6244 813d a1cb d43d f912 893d 15ac 85bd
00000070: aa2a f7bd 1c68 8abd eadf 853d 533e c23d
00000080: 9f99 63bd afa8 973d b35c 12bd e2e2 b6bd
00000090: 8061 3cbd 5df0 a6bd bee4 6cbd f2e9 cb3d
000000a0: 804b abbd c5b9 abbd 9f89 9abd ecb1 45bd
000000b0: 93d9 d8bd 455a 2cbc 7a47 4dbc 4d1f 29bd
000000c0: 8d2a 49bd c9ef 353d 014a da3c b471 db3c
000000d0: 5b44 71bd e900 c03d de3c 013b 57b1 28bd
000000e0: 5623 d03d 1feb c73d 099c 983d 612f c13d
000000f0: 0b80 73bd 187d b33d 5077 c43d 4310 b8bb
00000100: 3072 7a3d cd75 b9bc 5507 d9bd c061 55bd
00000110: 1e4d ddbc ba11 d2bd 453a fa3d dc7e 35bd
00000120: ed9c ca3d fea1 e9bd 9152 3a3d 9889 383d
00000130: 2c27 a03c 7216 973c 6d4c 7ebd dfe2 ca3d
00000140: ad08 9dbd 5a46 4e3d b7e0 143d b6a2 413b
00000150: 0bf9 69bd fe71 1b3d 978e fbbd 4796 78bd
00000160: 4a8f 4d3d 794e 453c 40f4 d7bd 6332 873d
00000170: c021 18bd 45ea 893c c7f0 6bbd 9e0e e5bc
00000180: 1bfc edbd 2d6b b33d 3c33 c0bd 5518 cc3d
00000190: c39d 56bd 253c 84bd 8243 843c 977b ecbd
000001a0: e367 d03d 865a a7bc a0a6 ccbc 1ef3 98bd
000001b0: 3b11 933c 1790 febc d365 723d 76de 16bc
000001c0: e699 c0bd bbb9 71bc 7682 c33d 33c1 883c
000001d0: 44f4 b53d bbc2 ad3d e02a 603d 44bd ff3c
000001e0: 0939 873d c047 1f3d 4fb2 77bc 0621 c93c
000001f0: 95d2 d13d 350c c6bd 5ab8 3dbc ebcf e9bd
00000200: 0807 4bbd ff82 853d 6297 2abd ca0b cb3d
00000210: 9687 d3bd 5aec 5c3d 0adb c1bb 107d 1a3c
00000220: 95ab 7cbd 56dc 8bbd bce4 0c3d bdb8 98bd
00000230: 06e0 a3bd 876f 933c 4d81 89bc 37f0 55b9
00000240: c4a2 7bbc fdfa d43c e9db 85bd 40eb f2bd
00000250: e71a e8bd 879c b5bd add8 ba3c d324 583d
00000260: 0006 c03c c43c bfbc fa55 cfbd 26bc e1bd
00000270: 1578 313d 6a00 e0bc d398 cebd 64dd c43d
00000280: 4110 08bc 3109 e53d a489 983d 9816 57bd
00000290: a51e 5a3d f9cf 89bd aaaf c5bd 23ca 80bd
000002a0: d301 56bd 26d5 07be 8a62 0a3c c771 d03c
000002b0: 8e32 db3d 763b d5bc 3004 92bd dcd5 8abc
000002c0: 01c3 8e3d deb2 803c 34b7 2fbd 937d ecbd
000002d0: a488 37bc ce16 df3d 8469 bb3c 63dc 20bd
000002e0: 3ea7 10bd e2da 103d 7844 48bd 1d5f bebc
000002f0: ded4 11bd 5487 cebd c37a a3bd 9d24 9ebd
00000300: 9779 a63d fa55 c2bd bbda 9fbd d378 f03d
00000310: 15e9 cfbd a4b4 453d 7a8a acbb 779a 33bd
00000320: e7b0 7e3d abf2 533d a544 aa3d c1fa a23d
00000330: f04b 91ba 8c6a b13d f0cd da3d 16bb 4cbc
00000340: 8c76 803d dda6 763d abcf ddbd 8a60 d0bd
00000350: af60 fcbd bad8 d9bd b359 03bc 614a 983d
00000360: 119d cb3d aae7 d63d 0c28 8abc 4d70 bfbd
00000370: 6325 a93d a518 acbd e514 c33d 3543 adbd
00000380: 4daf 3fbd 935d 66bd c010 143d 7fa3 5a3d
00000390: 4597 0a3d fe92 8d3d 6fef bebd 08a5 583d
000003a0: 0588 02bd c699 293d 201a e13d 67a0 debc
000003b0: d466 c9bc f42d dc3d 1488 873d 84ab cc3d
000003c0: a848 48bd acb1 62bc 038a a4bc 77a0 07bd
000003d0: 4e4e 43bd 77d2 7fb9 6832 9fbc 716a b2bc
000003e0: 3e8c af3c 9df1 f13d 6715 8ebd b3bd 873d
000003f0: a59e c23d 0926 913c 083a c63d f993 0f3d

transformer.layers.0.1.fn.net.3.bias f4 [36]
0.085142754 0.07873417 0.11179408 0.010147492 -0.07367737 0.08029661 -0.07904233 -0.020069411
0.02094012 -0.054628994 -0.068514876 0.066715434 -0.013308264 -0.014767775 -0.040207494 -0.08730344
-0.017682921 0.07188274 -0.06459366 0.014026564 -0.069478735 -0.007309011 -0.020406034 -0.07922822
0.06204112 0.056443483 0.06766359 0.030428443 0.06702939 -0.09477962 0.027706394 0.10813322
0.01697653 -0.07934985 0.052883983 -0.095751636
00000000: 535f ae3d 613f a13d 4bf4 e43d ab41 263c
00000010: 29e4 96bd 8d72 a43d f2e0 a1bd 9b68 a4bc
00000020: 9d8a ab3c a7c2 5fbd 8751 8cbd 1aa2 883d
00000030: e80a 5abc 8af4 71bc 9db0 24bd 25cc b2bd
00000040: c6db 90bc 4237 933d ae49 84bd accf 653c
00000050: de4a 8ebd 6e80 efbb 8e2a a7bc 6842 a2bd
00000060: d41e 7e3d 4831 673d 3593 8a3d 1245 f93c
00000070: b446 893d d11b c2bd 85f8 e23c f374 dd3d
00000080: 5d12 8b3c 2d82 a2bd e09c 583d 6f19 c4bd

transformer.layers.1.0.norm.weight f4 [36]
1.0222341 1.0253049 1.0154423 1.0327263 1.015843 1.0237591 0.9779776 1.0093962
1.0003759 1.0393177 1.0488467 1.0020598 1.0237721 1.0463852 1.0159737 1.031541
1.0036438 1.0348531 1.0059043 1.0219091 1.0350603 1.073088 1.0204178 1.0340593
1.0055454 1.0207567 1.0225123 1.0449651 1.0308256 1.0290623 1.0172513 1.0137962
1.0215685 1.0231408 1.0054256 1.0009104
00000000: 91d8 823f 313d 833f 03fa 813f 6030 843f
00000010: 2507 823f 8a0a 833f bd5c 7a3f e533 813f
00000020: 510c 803f 5d08 853f 9c40 863f 7f43 803f
00000030: f70a 833f f3ef 853f 6d0b 823f 8909 843f
00000040: 6677 803f 1176 843f 79c1 803f ebcd 823f
00000050: db7c 843f f35a 893f 0d9d 823f 0e5c 843f
00000060: b6b5 803f 28a8 823f afe1 823f 6bc1 853f
00000070: 18f2 833f 50b8 833f 4a35 823f 13c4 813f
00000080: c2c2 823f 47f6 823f c9b1 803f d51d 803f

transformer.layers.1.0.norm.bias f4 [36]
-0.012543206 0.006744805 -0.0040054824 -0.0065377876 0.0029476122 -0.0020300942 0.023976415 0.0020747483
-0.0012717544 0.0029663423 -0.024515003 0.0030442355 0.008811866 -0.009650051 -0.0017683549 0.01162009
0.0068729552 0.0062830597 0.00011129278 -0.0034744688 0.015941476 0.036625337 0.024342908 0.0012390948
0.009029673 -0.006454112 0.00067464035 -0.0041881516 -0.008856381 -0.0007380287 -0.022618737 -0.015494377
0.0042989007 -0.0031713278 0.0033366343 0.0027460018
00000000: 0582 4dbc 8603 dd3b 6c40 83bb f03a d6bb
00000010: ba2c 413b 540b 05bb 306a c43c 80f8 073b
00000020: ffb0 a6ba f766 423b b0d3 c8bc cc81 473b
00000030: a55f 103c 3f1b 1ebc 25c8 e7ba 3162 3e3c
00000040: 8736 e13b 20e2 cd3b db65 e938 eab3 63bb
00000050: b397 823c 7304 163d c76a c73c 1f69 a23a
00000060: 32f1 133c 047d d3bb 59da 303a c33c 89bb
00000070: 5b1a 11bc 4578 41ba ee4a b9bc 21dc 7dbc
00000080: cbdd 8c3b 0dd6 4fbb 6fab 5a3b 44f6 333b
