CvT/Models/V train 0.854 V test 0.805 lr 0.0001/model_bestQ.pt (torch, 210865 bytes, 164 tensors)

stage1.patch_embed.proj.weight f4 [12, 3, 3, 3]
0	0x3e207311	0.15668894
1	0xbd9b746f	-0.07590567
2	0x3dee555a	0.11637373
3	0xbe0d88c1	-0.13821699
4	0xbd6fbc6c	-0.058529302
5	0xbcc05dd5	-0.023482243
6	0x3c00a963	0.007852885
7	0xbe072578	-0.13197887
8	0xbde0b65a	-0.10972281
9	0xbe2ddfa6	-0.16979846
10	0xbdee45fa	-0.11634441
11	0x3d90ecdc	0.07076427
12	0xbb179b97	-0.002313351
13	0xbd9546d0	-0.07288897
14	0xbc84c391	-0.016206535
15	0xbd869d2c	-0.06572947
16	0xbdd94b94	-0.106101185
17	0xbbe5eb27	-0.0070165577
18	0x3dea9d84	0.11455825
19	0xbde63d15	-0.11242119
20	0xbde38ff6	-0.11111443
21	0xbe0e360e	-0.13887808
22	0xbe31ccab	-0.17363231
23	0x3de6b17b	0.112643205
24	0xbe269e7d	-0.16271396
25	0x3c81c9c3	0.015843278
26	0xbdd5b0bc	-0.104341
27	0x3dafefb8	0.085906446
28	0xbdc1a7ad	-0.0945581
29	0x39810ab8	0.00024612783
30	0x3e051725	0.1299711
31	0xbd243b1c	-0.040095434
32	0xbda21824	-0.07914761
33	0xbd1afe20	-0.03784001
34	0x3ddfd0fc	0.109285325
35	0xbd941f8f	-0.07232582
36	0xbe0e467e	-0.13894078
37	0x3d9f0014	0.07763687
38	0x3e00351c	0.1252026
39	0xbdc4f9fc	-0.09617993
40	0x3dd2c868	0.10292131
41	0xbd566420	-0.05234158
42	0x3e35c117	0.17749439
43	0xbd8788ef	-0.06617915
44	0xbd4d61cf	-0.050142106
45	0xbe27ca58	-0.16385782
46	0xbe19212c	-0.1495406
47	0x3e372b62	0.17887643
48	0x3e0dd0e1	0.13849212
49	0x3de2cf63	0.11074712
50	0x3dee495f	0.11635088
51	0x3d1224d8	0.03567967
52	0xbd80867e	-0.06275652
53	0x3e501f80	0.20324516
54	0x3e31fa5c	0.17380661
55	0xbd42159d	-0.047383893
56	0x3d6e04f5	0.058110196
57	0x3e0a3dbe	0.13500115
58	0xbd451a11	-0.048120562
59	0x3c42f6f8	0.011899702
60	0x3e0bdf70	0.13659453
61	0x3bbcf90e	0.0057669943
62	0x3dc69f26	0.09698324
63	0xbc22e176	-0.009941449
64	0x3db2c715	0.08729378
65	0x3db51c4f	0.0884329
66	0x3dcdede1	0.100551374
67	0x3dab1158	0.083529174
68	0x3d1e3505	0.038624782
69	0x3de59de3	0.11211755
70	0xbe390d99	-0.18071593
71	0xbd2a9101	-0.041642193
72	0xbdd86d68	-0.105677426
73	0xbdc0522c	-0.09390673
74	0x3de38678	0.11109632
75	0x3ddd9d37	0.10821002
76	0x3d59ccdd	0.05317389
77	0xbd81cc46	-0.0633779
78	0x3d62f1fb	0.05540655
79	0xbe3dea62	-0.18546441
80	0xbde86595	-0.113475
81	0x3decff8a	0.11572178
82	0xbc853c32	-0.016264055
83	0x3d6fdf2e	0.05856245
84	0xbd9fdc6a	-0.078057125
85	0x3e023ea9	0.12719215
86	0xbc9df157	-0.019280119
87	0xbc1dfce1	-0.009642811
88	0x3c3f01bc	0.011658128
89	0x3dae2218	0.085025966
90	0xbdb2f18b	-0.08737477
91	0xbe07ced1	-0.13262488
92	0x3e031c56	0.12803778
93	0x3da1dfa7	0.079039864
94	0x3d8e2b66	0.06941871
95	0x3e117222	0.14203694
96	0x3e50a1bf	0.20374201
97	0xbb353619	-0.0027650653
98	0xbd4b9fad	-0.049712826
99	0x3da20c7d	0.07912538
100	0x3e2e2835	0.17007525
101	0xbdb56779	-0.088576265
102	0xbd7691f5	-0.06019779
103	0x3e13aa0d	0.14420338
104	0x3dae99fe	0.085254654
105	0x3df6005a	0.12011786
106	0x3d939c7e	0.07207583
107	0x3e02968e	0.12752745
108	0xbe1d9db0	-0.15392184
109	0x3df2251a	0.11823483
110	0x3e3d49d8	0.184852
111	0x3ca93b02	0.02065802
112	0xbdb3570d	-0.08756838
113	0xbd78874e	-0.06067591
114	0x3e12f1ad	0.14350004
115	0xbe57bb81	-0.21067621
116	0xbdbe43f2	-0.09290303
117	0x3dc0c2c1	0.09412146
118	0xbe002027	-0.12512265
119	0x3cc9c581	0.02463031
120	0x3d701615	0.05861481
121	0x3d9eb926	0.07750158
122	0x3dcb2272	0.09918679
123	0x3e42c9f6	0.19022354
124	0x3d9beb5e	0.07613252
125	0x3dd3b540	0.10337305
126	0x3df91de6	0.12163906
127	0xbe09ced7	-0.1345781
128	0x3d4acbd7	0.049510803
129	0xbe3d7f6b	-0.18505637
130	0xbe39d397	-0.18147121
131	0xbe04a5e4	-0.12953907
132	0xbe2d0b02	-0.1689873
133	0x3e05690b	0.13028352
134	0x3cfd81b2	0.030945633
135	0xbe01720c	-0.12641162
136	0x3e06aa73	0.13150959
137	0x3df6a2ea	0.12042792
138	0x3d14ccc5	0.036328096
139	0x3e1e114b	0.15436284
140	0x3dd2dfeb	0.10296615
141	0xbe0733c3	-0.1320334
142	0x3e2affe1	0.16699173
143	0x3de68c2f	0.11257207
144	0x3e0c3f5b	0.13696043
145	0xbb931541	-0.0044886176
146	0x3d94e178	0.07269567
147	0xbdc3c293	-0.095585965
148	0x3de9b412	0.11411299
149	0x3e49eb28	0.19718611
150	0x3d4ab59d	0.049489606
151	0xbda46454	-0.080269486
152	0x3d26a9a1	0.040689114
153	0x3c912f91	0.017722877
154	0xbe5c762b	-0.21529453
155	0xbd749fe0	-0.05972278
156	0x3ce20666	0.027590942
157	0xbe420e8a	-0.18950859
158	0xbddc4e81	-0.10757161
159	0xbdac0f55	-0.08401362
160	0x3e08f63c	0.13375181
161	0xbe137fe1	-0.1440425
162	0xbe2069f9	-0.15665425
163	0xbd9bae38	-0.07601589
164	0x3de1f058	0.1103217
165	0xbdd3b0cf	-0.10336458
166	0x3e173d31	0.14769436
167	0x3d081372	0.03322167
168	0xbe2e59ef	-0.17026494
169	0x3e3ff0b0	0.18744159
170	0xbdda950b	-0.10672959
171	0x3d40d9ab	0.047082584
172	0x3d2eeb3d	0.04270481
173	0x3d19bd0e	0.037533812
174	0xbcee670e	-0.029101875
175	0x3d9eb6ec	0.07749733
176	0x3dc25d4e	0.09490453
177	0x3d084de9	0.033277426
178	0xbdb8cfb0	-0.09023988
179	0x3d5ac784	0.05341293
180	0xbd58f36b	-0.052966516
181	0xbd52673d	-0.051367987
182	0x3e0b2aa0	0.13590479
183	0xbd78084f	-0.0605548
184	0x3e3b21bf	0.18274592
185	0x3e148120	0.14502382
186	0x3d7a502f	0.061111625
187	0x3d3547f8	0.044258088
188	0xbdd7fe07	-0.10546499
189	0x3d912fff	0.07089233
190	0x3de8ad09	0.11361129
191	0x3bea6f99	0.0071544168
192	0x3d214fc7	0.039382722
193	0xbda4e066	-0.08050613
194	0x3e26b92f	0.1628158
195	0x3e14d842	0.14535621
196	0xbc4f6dd9	-0.012660467
197	0x3d2c9556	0.042134605
198	0x3d9e72f2	0.07736768
199	0xbc39613d	-0.011314687
200	0xbdc9b096	-0.09848134
201	0x3daefd03	0.08544352
202	0x3d3a6800	0.04550934
203	0xbccac029	-0.024749832
204	0x3e01d87c	0.12680238
205	0xbdab0d21	-0.083521135
206	0x3dcf4c27	0.10121947
207	0xbc151fc0	-0.009101808
208	0x3e2b28a2	0.16714719
209	0xba8f3f6d	-0.0010928937
210	0x3e0742e7	0.13209115
211	0xbdbfa0d1	-0.09356845
212	0x3dcc9040	0.09988451
213	0xbdc66271	-0.09686745
214	0x3e31db63	0.17368846
215	0xbe06a0b6	-0.13147244
216	0xbbe8cb88	-0.007104341
217	0x3e862c04	0.26205456
218	0xbda4c741	-0.08045817
219	0xbe142faf	-0.14471315
220	0xbdd2705a	-0.102753356
221	0xbe0a8daa	-0.13530603
222	0xbe677838	-0.22604454
223	0x3cc84a09	0.024449365
224	0xbc839219	-0.016060876
225	0xbd7b74fd	-0.061390866
226	0x3e4751eb	0.19464843
227	0x3de61e91	0.11236299
228	0x3daa3320	0.083105326
229	0xbde98899	-0.11403007
230	0xbdb03c9e	-0.08605312
231	0x3db5670e	0.08857547
232	0x3b8fa968	0.0043842085
233	0xbdd4197d	-0.10356424
234	0x3c7fd052	0.015613632
235	0x3da89b55	0.08232752
236	0xbd041061	-0.032242183
237	0xbe040cda	-0.12895527
238	0xbd5c6629	-0.053808365
239	0x3d3057d0	0.043052495
240	0xbd09e7ad	-0.03366821
241	0xbe46b7db	-0.19406073
242	0xbe5a3249	-0.21308245
243	0x3e2ce68a	0.16884819
244	0xbdf9f3a0	-0.12204671
245	0xbde3d589	-0.11124713
246	0x3db9ffc4	0.090819865
247	0xbd9d2d94	-0.07674709
248	0xbc681e92	-0.014167445
249	0x3d749f54	0.05972226
250	0x3e07e4b8	0.13270843
251	0xbcdd6fc5	-0.027030835
252	0xbd8ec29a	-0.06970711
253	0xbe712459	-0.23549022
254	0xbbb610ef	-0.005556218
255	0xbc09a8f1	-0.008402095

stage1.patch_embed.proj.bias f4 [12]
0	0x3e242111	0.16028239
1	0x3e351061	0.1768203
2	0xbd94d40e	-0.07267009
3	0x3cd6f72a	0.026240904
4	0xbda492e6	-0.08035831
5	0x3e2391c1	0.1597357
6	0xbe4ceaf3	-0.20011501
7	0x3d9ef8df	0.07762312
8	0x3de3d4f5	0.11124603
9	0xbe337238	-0.1752404
10	0x3e294dfd	0.16533656
11	0x3e55ff9e	0.20898291

stage1.patch_embed.norm.weight f4 [12]
0	0x3f7a4b1c	0.9777086
1	0x3f6c069c	0.92197585
2	0x3f7ca323	0.98686427
3	0x3f7429ba	0.9537617
4	0x3f75bb86	0.95989263
5	0x3f773c7e	0.9657668
6	0x3f7c1ff4	0.98486257
7	0x3f761f5b	0.96141595
8	0x3f65f022	0.8981954
9	0x3f78b20e	0.9714669
10	0x3f7a333c	0.9773443
11	0x3f7219a0	0.9457035

stage1.patch_embed.norm.bias f4 [12]
0	0x3c4edb52	0.012625532
1	0xbbd3cdcc	-0.006463742
2	0xbc5ae1d9	-0.01335951
3	0x3d2a898a	0.041635074
4	0x3bb0958c	0.005388921
5	0xbb8ae202	-0.004238368
6	0x3b2b73ce	0.0026161554
7	0x3c90171a	0.01758914
8	0xbc8dd8af	-0.017315237
9	0xbc0fa7de	-0.00876805
10	0x3cb76e2b	0.0223914
11	0x3c033cb5	0.008010079

stage1.blocks.0.norm1.weight f4 [12]
0	0x3d89fecc	0.06738052
1	0x3d5a58d6	0.053307377
2	0x3ddcee1c	0.10787603
3	0x3d2ce4e3	0.04221047
4	0x3d441394	0.047870234
5	0x3d967c4f	0.07347929
6	0x3dce2df2	0.10067357
7	0x3d998e1f	0.074978106
8	0x3d22e80e	0.039772086
9	0x3d5fa581	0.054601196
10	0x3d9b62e2	0.0758722
11	0x3da2e5ea	0.07954009

stage1.blocks.0.norm1.bias f4 [12]
0	0xbc893424	-0.016748495
1	0xbc741a96	-0.014898917
2	0x3d24e285	0.04025509
3	0x3b05fe3b	0.0020445723
4	0x3ac3784e	0.0014913173
5	0x3a7dc00f	0.0009679803
6	0x3c7f1e17	0.015571139
7	0xbb92f14f	-0.0044843326
8	0x3b10787d	0.0022044473
9	0xbc66b077	-0.014080158
10	0xbca6e73b	-0.020373931
11	0xbd077de4	-0.033079043

stage1.blocks.0.attn.conv_proj_q.bn.weight f4 [12]
0	0x3710e12a	8.635494e-06
1	0x37114076	8.657682e-06
2	0x3710d03b	8.631551e-06
3	0x3710639e	8.606263e-06
4	0x37110250	8.643212e-06
5	0x3710db26	8.634093e-06
6	0x3710c27c	8.628351e-06
7	0x3710ffd9	8.642638e-06
8	0x371033c9	8.595126e-06
9	0x37111055	8.646476e-06
10	0x371113f9	8.647324e-06
11	0x37109e02	8.619858e-06

stage1.blocks.0.attn.conv_proj_q.bn.bias f4 [12]
0	0x0000aa25	6.1036e-41
1	0x8001e5c5	-1.74261e-40
2	0x0002c485	2.54169e-40
3	0x8005fbba	-5.4948e-40
4	0x00038857	3.24416e-40
5	0x00026778	2.20789e-40
6	0x800269e2	-2.21655e-40
7	0x8002c745	-2.55155e-40
8	0x8003a2f9	-3.3397e-40
9	0x80035860	-3.0721e-40
10	0x80040cb4	-3.71899e-40
11	0x000411ab	3.7368e-40

stage1.blocks.0.attn.conv_proj_q.bn.running_mean f4 [12]
0	0x0000016c	5.1e-43
1	0x000000f5	3.43e-43
2	0x800011c2	-6.37e-42
3	0x00000285	9.04e-43
4	0x00000226	7.71e-43
5	0x800026f0	-1.3968e-41
6	0x80003fef	-2.2935e-41
7	0x00000706	2.52e-42
8	0x000006fd	2.507e-42
9	0x800009f5	-3.572e-42
10	0x800006f4	-2.494e-42
11	0x8000025f	-8.5e-43

stage1.blocks.0.attn.conv_proj_q.bn.running_var f4 [12]
0	0x00000004	6e-45
1	0x00000004	6e-45
2	0x00000004	6e-45
3	0x00000004	6e-45
4	0x00000004	6e-45
5	0x00000004	6e-45
6	0x00000004	6e-45
7	0x00000004	6e-45
8	0x00000004	6e-45
9	0x00000004	6e-45
10	0x00000004	6e-45
11	0x00000004	6e-45

stage1.blocks.0.attn.conv_proj_k.bn.weight f4 [12]
0	0x3710b914	8.626161e-06
1	0x3710bc3b	8.626895e-06
2	0x3710ef5e	8.638801e-06
3	0x371056ff	8.603324e-06
4	0x3710e008	8.63523e-06
5	0x3710d7ee	8.633344e-06
6	0x3710f38e	8.639776e-06
7	0x3710c37a	8.628582e-06
8	0x3710f86c	8.640909e-06
9	0x3710d217	8.631984e-06
10	0x3710f63b	8.640399e-06
11	0x3710d7f6	8.633351e-06

stage1.blocks.0.attn.conv_proj_k.bn.bias f4 [12]
0	0x80027a2c	-2.27498e-40
1	0x00051c68	4.69368e-40
2	0x0005ab08	5.20532e-40
3	0x800247f4	-2.09483e-40
4	0x80022f47	-2.00631e-40
5	0x8004b993	-4.33913e-40
6	0x00005c60	3.3138e-41
7	0x8000eba9	-8.4539e-41
8	0x800565fd	-4.95764e-40
9	0x80012ee2	-1.08654e-40
10	0x800389a0	-3.24877e-40
11	0x80014dfa	-1.19808e-40

stage1.blocks.0.attn.conv_proj_k.bn.running_mean f4 [12]
0	0x80000033	-7.1e-44
1	0x800002eb	-1.047e-42
2	0x8000024c	-8.24e-43
3	0x000003cf	1.366e-42
4	0x0000074b	2.616e-42
5	0x000006fc	2.506e-42
6	0x80007559	-4.2096e-41
7	0x00000b8e	4.145e-42
8	0x0000063a	2.234e-42
9	0x00002bed	1.5758e-41
10	0x00000563	1.932e-42
11	0x8000007f	-1.78e-43

stage1.blocks.0.attn.conv_proj_k.bn.running_var f4 [12]
0	0x00000004	6e-45
1	0x00000004	6e-45
2	0x00000004	6e-45
3	0x00000004	6e-45
4	0x00000004	6e-45
5	0x00000004	6e-45
6	0x00000004	6e-45
7	0x00000004	6e-45
8	0x00000004	6e-45
9	0x00000004	6e-45
10	0x00000004	6e-45
11	0x00000004	6e-45

stage1.blocks.0.attn.conv_proj_v.bn.weight f4 [12]
0	0x3f1b16c1	0.60581595
1	0x3eb66213	0.356217
2	0x3f0c9157	0.5490927
3	0x3ec4797f	0.38373944
4	0x3ed8d25e	0.42347997
5	0x3f3cde60	0.7377682
6	0x3f2dc8b7	0.6788439
7	0x3f0236ec	0.50865054
8	0x3ed4dd68	0.4157517
9	0x3ef0fe58	0.4706905
10	0x3ee71149	0.45130375
11	0x3f33061f	0.69931215

stage1.blocks.0.attn.conv_proj_v.bn.bias f4 [12]
0	0x3d2efbc1	0.04272056
1	0x3d3d659b	0.046239477
2	0xbd24ea8b	-0.04026274
3	0x3d246758	0.04013762
4	0xbceee92e	-0.029163923
5	0x3d1c1a3c	0.038110957
6	0xbd0a99a3	-0.033837926
7	0xbc6d6019	-0.0144882435
8	0x3c9534e0	0.01821369
9	0xbd226b5d	-0.03965317
10	0xbd5a4a65	-0.053293604
11	0x3d4ff13e	0.050767176

stage1.blocks.0.attn.conv_proj_v.bn.running_mean f4 [12]
0	0xb7b635dd	-2.1721173e-05
1	0xb8ca3804	-9.642544e-05
2	0xba0707c7	-0.0005151
3	0xb8ade012	-8.291019e-05
4	0xb9507141	-0.00019878616
5	0xbbbf0d07	-0.0058304104
6	0x3c1f0874	0.009706605
7	0xba5ff922	-0.00085438986
8	0xba935299	-0.0011239826
9	0x3c0efe01	0.008727551
10	0x3a686bbb	0.0008866151
11	0x3aa7e47e	0.0012809185

stage1.blocks.0.attn.conv_proj_v.bn.running_var f4 [12]
0	0x39748b29	0.00023321495
1	0x38e7b6ae	0.00011048965
2	0x39b8785c	0.0003518489
3	0x3908a83a	0.0001303264
4	0x387a8452	5.9727878e-05
5	0x399ad166	0.00029529183
6	0x3940d2cf	0.00018389079
7	0x3924608e	0.00015676228
8	0x391ff6de	0.00015255387
9	0x39a14936	0.0003076286
10	0x392d540a	0.00016529873
11	0x39bd04dc	0.0003605251

stage1.blocks.0.attn.proj_q.weight f4 [12, 12]
0	0x00063696	5.70595e-40
1	0x0003ad8a	3.3776e-40
2	0x0000b979	6.6535e-41
3	0x80020460	-1.8524e-40
4	0x0002aec2	2.46362e-40
5	0x80012ee0	-1.08651e-40
6	0x80012540	-1.05198e-40
7	0x800390ae	-3.27408e-40
8	0x0004c926	4.395e-40
9	0x00030f45	2.80984e-40
10	0x00027c8c	2.2835e-40
11	0x80003c09	-2.1537e-41
12	0x00034ddc	3.03437e-40
13	0x80018a74	-1.41503e-40
14	0x0005b668	5.24613e-40
15	0x80007ad7	-4.4067e-41
16	0x8006c0e2	-6.20206e-40
17	0x0005176c	4.6758e-40
18	0x00007539	4.2052e-41
19	0x0004d796	4.4468e-40
20	0x8001ce09	-1.65747e-40
21	0x8003bc6d	-3.43101e-40
22	0x0003ed5b	3.60654e-40
23	0x80066a4a	-5.89142e-40
24	0x0000c655	7.1148e-41
25	0x0000a594	5.9398e-41
26	0x80015545	-1.22424e-40
27	0x00001657	8.014e-42
28	0x8001aabc	-1.53083e-40
29	0x800152d1	-1.21544e-40
30	0x8004fd12	-4.58127e-40
31	0x00007ffb	4.5911e-41
32	0x80056ce8	-4.98246e-40
33	0x80000528	-1.85e-42
34	0x80004658	-2.5235e-41
35	0x00020e94	1.889e-40
36	0x8003c168	-3.44888e-40
37	0x8004b902	-4.3371e-40
38	0x0005cb56	5.3212e-40
39	0x0002024d	1.84496e-40
40	0x0000bbbd	6.7348e-41
41	0x8003ead2	-3.59744e-40
42	0x0005dd0b	5.38473e-40
43	0x80045797	-3.98763e-40
44	0x000509e0	4.6272e-40
45	0x00021dde	1.94385e-40
46	0x8006bfd4	-6.19828e-40
47	0x80022981	-1.9856e-40
48	0x8004705a	-4.07646e-40
49	0x00044190	3.90861e-40
50	0x00030c0e	2.79831e-40
51	0x80064056	-5.74092e-40
52	0x00004f20	2.8385e-41
53	0x800144d8	-1.16532e-40
54	0x00031fcf	2.86917e-40
55	0x0003bb40	3.42679e-40
56	0x8006c35b	-6.21093e-40
57	0x8002cafc	-2.56488e-40
58	0x80015266	-1.21394e-40
59	0x8000aa35	-6.1059e-41
60	0x8001933d	-1.44655e-40
61	0x8005257a	-4.72622e-40
62	0x0005c64f	5.30317e-40
63	0x0002490e	2.09878e-40
64	0x00038285	3.22328e-40
65	0x0001c2a5	1.61661e-40
66	0x8000e44a	-8.1895e-41
67	0x00019c1f	1.47841e-40
68	0x000360fd	3.103e-40
69	0x0003fb08	3.6556e-40
70	0x0006b27d	6.15043e-40
71	0x00027df0	2.28849e-40
72	0x80008dd3	-5.0877e-41
73	0x0002fbb0	2.7396e-40
74	0x00011e5b	1.02725e-40
75	0x00048873	4.16291e-40
76	0x0003a634	3.35129e-40
77	0x80040319	-3.68453e-40
78	0x0004e00e	4.47718e-40
79	0x00010a6c	9.5574e-41
80	0x8003dc4d	-3.54536e-40
81	0x80005a8e	-3.2485e-41
82	0x00046776	4.04457e-40
83	0x00060f99	5.56608e-40
84	0x0004ed39	4.52441e-40
85	0x8005f7f0	-5.4812e-40
86	0x0001a3c6	1.50586e-40
87	0x8000a6ad	-5.9792e-41
88	0x0001265c	1.05596e-40
89	0x80009153	-5.2133e-41
90	0x8000d874	-7.7649e-41
91	0x80011dff	-1.02596e-40
92	0x8003ffd8	-3.67286e-40
93	0x00014758	1.17429e-40
94	0x0003907c	3.27338e-40
95	0x8001158e	-9.9568e-41
96	0x0001e6f8	1.74691e-40
97	0x0002ee2e	2.69114e-40
98	0x0003f336	3.62754e-40
99	0x0000b28d	6.4052e-41
100	0x800272c4	-2.24841e-40
101	0x0004c4c3	4.37927e-40
102	0x80013dfd	-1.14073e-40
103	0x8001fd09	-1.82607e-40
104	0x80009e7b	-5.6852e-41
105	0x00003ea1	2.2467e-41
106	0x00036ed4	3.15264e-40
107	0x8000fd98	-9.0972e-41
108	0x8003876a	-3.24084e-40
109	0x8006b034	-6.14223e-40
110	0x0000bdca	6.8083e-41
111	0x800300b5	-2.7576e-40
112	0x800483b2	-4.14585e-40
113	0x00006b7b	3.8557e-41
114	0x8004848c	-4.14891e-40
115	0x80036c3b	-3.14332e-40
116	0x00008d92	5.0786e-41
117	0x800147f8	-1.17653e-40
118	0x8000997e	-5.5063e-41
119	0x0002ee12	2.69075e-40
120	0x0000facd	8.997e-41
121	0x8006d06c	-6.2578e-40
122	0x00058c12	5.09425e-40
123	0x80059ec2	-5.16129e-40
124	0x800510d2	-4.65211e-40
125	0x00008a39	4.9585e-41
126	0x8000503d	-2.8784e-41
127	0x8001c15f	-1.61204e-40
128	0x0002291a	1.98415e-40
129	0x8000c480	-7.0491e-41
130	0x0000debe	7.9905e-41
131	0x8005aa03	-5.20166e-40
132	0x00019408	1.44939e-40
133	0x8003b8bd	-3.41778e-40
134	0x80012fc9	-1.08978e-40
135	0x80000978	-3.397e-42
136	0x8004ed65	-4.52503e-40
137	0x00034491	3.00103e-40
138	0x00050ae5	4.63086e-40
139	0x0005da3f	5.3747e-40
140	0x00015526	1.22381e-40
141	0x8000e0d8	-8.0659e-41
142	0x0004148a	3.7471e-40
143	0x8000946a	-5.3241e-41

stage1.blocks.0.attn.proj_k.weight f4 [12, 12]
0	0x8000ba5c	-6.6853e-41
1	0x8000d298	-7.5547e-41
2	0x000172d2	1.33025e-40
3	0x8001cfb9	-1.66352e-40
4	0x0005d3ff	5.35227e-40
5	0x0005691d	4.96885e-40
6	0x80049398	-4.20289e-40
7	0x8000d028	-7.4672e-41
8	0x80065a16	-5.8333e-40
9	0x8006b92c	-6.1744e-40
10	0x800117fc	-1.0044e-40
11	0x00054e65	4.873e-40
12	0x80056de4	-4.98599e-40
13	0x00052aa3	4.74473e-40
14	0x00012381	1.04572e-40
15	0x80053f81	-4.81958e-40
16	0x00058444	5.06625e-40
17	0x000172b8	1.32989e-40
18	0x0001047b	9.3443e-41
19	0x8005d30c	-5.34887e-40
20	0x000650df	5.80024e-40
21	0x8000b64c	-6.5396e-41
22	0x80001fb4	-1.1373e-41
23	0x8004bc04	-4.34789e-40
24	0x0000acf2	6.2041e-41
25	0x8000899b	-4.9364e-41
26	0x00057fd7	5.05038e-40
27	0x8004b820	-4.33394e-40
28	0x00040f94	3.7293e-40
29	0x00022be8	1.99422e-40
30	0x8002a2fe	-2.42142e-40
31	0x000095f9	5.38e-41
32	0x8004c830	-4.39156e-40
33	0x00017d33	1.36749e-40
34	0x80050b23	-4.63173e-40
35	0x00008d1a	5.0618e-41
36	0x0003b6a1	3.41021e-40
37	0x80003436	-1.873e-41
38	0x8005cf12	-5.3346e-40
39	0x800422a8	-3.79774e-40
40	0x80013189	-1.09605e-40
41	0x8003ba52	-3.42346e-40
42	0x00016531	1.28136e-40
43	0x80064a0f	-5.7758e-40
44	0x000087b4	4.8681e-41
45	0x80014456	-1.1635e-40
46	0x0000c479	7.0481e-41
47	0x0005d344	5.34965e-40
48	0x800071a2	-4.0764e-41
49	0x00065f3f	5.85181e-40
50	0x00064879	5.77011e-40
51	0x80016fb0	-1.31901e-40
52	0x80050dab	-4.6408e-40
53	0x80065cfb	-5.84368e-40
54	0x80050e7f	-4.64378e-40
55	0x0001bea8	1.6023e-40
56	0x8001abcc	-1.53465e-40
57	0x00007ef0	4.5537e-41
58	0x800119e2	-1.0112e-40
59	0x8006bf85	-6.19717e-40
60	0x8006648d	-5.87084e-40
61	0x0005e007	5.39543e-40
62	0x0006c005	6.19897e-40
63	0x00002aa8	1.5302e-41
64	0x00020ef3	1.89034e-40
65	0x8006bc16	-6.18485e-40
66	0x00048025	4.13312e-40
67	0x8001e94d	-1.75528e-40
68	0x00029841	2.3829e-40
69	0x0000208a	1.1673e-41
70	0x8004e79c	-4.50428e-40
71	0x0006ac99	6.1293e-40
72	0x0004ff8d	4.59016e-40
73	0x8004f952	-4.56781e-40
74	0x00004b8e	2.7104e-41
75	0x000601be	5.51638e-40
76	0x8003ba6d	-3.42383e-40
77	0x00056d98	4.98492e-40
78	0x80024ead	-2.11895e-40
79	0x80022e25	-2.00225e-40
80	0x00019bc6	1.47716e-40
81	0x8001557e	-1.22504e-40
82	0x00025c45	2.16771e-40
83	0x00069bd7	6.06918e-40
84	0x80042766	-3.81475e-40
85	0x80005654	-3.0969e-41
86	0x80031848	-2.84217e-40
87	0x800037c4	-2.0005e-41
88	0x000090ce	5.1946e-41
89	0x8001921b	-1.44248e-40
90	0x80025aa5	-2.16188e-40
91	0x8002bf00	-2.52189e-40
92	0x0000d8ce	7.7775e-41
93	0x800542ed	-4.83186e-40
94	0x00012346	1.04489e-40
95	0x800341aa	-2.99062e-40
96	0x8000f194	-8.6662e-41
97	0x0000cb78	7.2991e-41
98	0x0006af22	6.13839e-40
99	0x0002e614	2.66207e-40
100	0x8000a10f	-5.7777e-41
101	0x00023567	2.02828e-40
102	0x0004baf8	4.34414e-40
103	0x80026db5	-2.23026e-40
104	0x0000f9ba	8.9585e-41
105	0x00016442	1.27801e-40
106	0x8000c131	-6.9304e-41
107	0x0006b23a	6.14949e-40
108	0x8004d329	-4.43092e-40
109	0x0000fdeb	9.1089e-41
110	0x8000098f	-3.429e-42
111	0x000034f4	1.8996e-41
112	0x800280ec	-2.2992e-40
113	0x8000c98e	-7.2304e-41
114	0x8000e1f5	-8.1058e-41
115	0x00009e23	5.6729e-41
116	0x0002a3d9	2.42448e-40
117	0x0003be3b	3.43748e-40
118	0x00047720	4.10076e-40
119	0x0002785f	2.26852e-40
120	0x0006623e	5.86256e-40
121	0x800636db	-5.70691e-40
122	0x0003425d	2.99313e-40
123	0x00030a47	2.79193e-40
124	0x80069a28	-6.06314e-40
125	0x000443f2	3.91716e-40
126	0x8000b9a7	-6.66e-41
127	0x8006232e	-5.63633e-40
128	0x00022c8d	1.99653e-40
129	0x00026ce0	2.22728e-40
130	0x8001fa31	-1.81587e-40
131	0x8004cf9b	-4.41817e-40
132	0x800563ce	-4.9498e-40
133	0x80063d76	-5.73061e-40
134	0x00008d6e	5.0735e-41
135	0x8002b513	-2.48628e-40
136	0x80012243	-1.04126e-40
137	0x0006bf29	6.19588e-40
138	0x00000634	2.225e-42
139	0x0002d617	2.60472e-40
140	0x80018dad	-1.42659e-40
141	0x8002b8ea	-2.50006e-40
142	0x80069383	-6.0393e-40
143	0x0000ee83	8.5562e-41

stage1.blocks.0.attn.proj_v.weight f4 [12, 12]
0	0xbd95b336	-0.073095724
1	0xbd5cc457	-0.05389818
2	0x3e0b45a9	0.13600792
3	0xbd4cbcef	-0.04998487
4	0x3d82eff1	0.063934214
5	0xba401a95	-0.000732818
6	0x3d4e7969	0.050408754
7	0x3ba3500e	0.0049839085
8	0x3bb0e6e0	0.005398616
9	0x3d4f19b1	0.05056161
10	0x3dadd13a	0.084871724
11	0xbdb3a467	-0.08771592
12	0x3cbde0e9	0.023178535
13	0x3b2f542d	0.0026753054
14	0xbc396b0d	-0.011317027
15	0xbb525ae5	-0.0032097634
16	0xbc1e28c2	-0.009653272
17	0x3c16a170	0.009193763
18	0x3cbbafb2	0.022910926
19	0xbbef6117	-0.007305275
20	0xbbff7fd9	-0.007797223
21	0xbc5f5683	-0.013631466
22	0xbc2fdd1c	-0.010733869
23	0xbcde4026	-0.027130198
24	0x3d41a189	0.047273193
25	0x3d59e69b	0.05319844
26	0xbdb3d96b	-0.087817036
27	0x3cbb141c	0.022836737
28	0x3c093344	0.008374039
29	0x3d34b945	0.044122
30	0xbd4a90d1	-0.049454514
31	0x3d013ce4	0.03155221
32	0xbbc8526b	-0.0061133406
33	0xbd2917c9	-0.04128245
34	0xbd756e67	-0.05991974
35	0x3de4ad34	0.111658484
36	0x3c3948f3	0.011308896
37	0xbcae3836	-0.021267038
38	0xbafcb434	-0.0019279779
39	0x3bd7637e	0.0065731397
40	0x3aa3ec5e	0.0012506356
41	0xbc5ac1a3	-0.013351831
42	0x3c373fd5	0.011184652
43	0xbd18a44d	-0.037266064
44	0x3c7b2333	0.015328216
45	0x3aeb5521	0.0017954448
46	0x3ca263d5	0.019822994
47	0xbd06e549	-0.032933507
48	0x3cc55ca7	0.024092032
49	0x3d44cdbb	0.048047762
50	0xbd180461	-0.03711355
51	0x3b30b04e	0.0026960555
52	0xbd21aeac	-0.03947322
53	0xbc81196f	-0.015759198
54	0xbd29b864	-0.041435614
55	0x3d0f97c2	0.035056837
56	0xbd486eb6	-0.048933707
57	0x3c4dbbb1	0.012556956
58	0xbc91ecd8	-0.017813131
59	0x3db5e1b6	0.088809416
60	0x3d55c146	0.052186273
61	0x3d04a9c0	0.03238845
62	0xbd6825ed	-0.056676794
63	0x3c19b34c	0.009381127
64	0xbcf13e2f	-0.029448597
65	0x3cd4f225	0.02599437
66	0xbd49cb95	-0.049266417
67	0x3d71873a	0.058966853
68	0xbc3bbb12	-0.011458175
69	0xbc6b0bed	-0.014346105
70	0xbd408ea3	-0.04701103
71	0x3de646ab	0.112439476
72	0xbc1902dd	-0.009339062
73	0x3b813f66	0.0039443253
74	0x3db20f2b	0.08694299
75	0xbc2de59f	-0.010613828
76	0xbcc87a1f	-0.024472294
77	0xbd6c3ed0	-0.05767709
78	0x3a33e776	0.00068627985
79	0xbd31a786	-0.043372653
80	0xbc947a85	-0.018124828
81	0x3cb6107d	0.02222466
82	0x3d25e6d3	0.040503334
83	0xbd14e3a0	-0.036349893
84	0x3d2b3b85	0.04180481
85	0xbcbb61ab	-0.02287372
86	0xbd415d6f	-0.047208246
87	0x3d02d74f	0.031943616
88	0x3cd1bd06	0.025602829
89	0x3d4549cc	0.04816608
90	0xbc6fbfb3	-0.014633107
91	0xbc9e738f	-0.019342212
92	0x3c957206	0.018242847
93	0xbc2af30e	-0.010433925
94	0xbcd2c578	-0.025728926
95	0x3c99f557	0.018793745
96	0x3db12a20	0.08650613
97	0x3ced4c5c	0.028967075
98	0xbdbcf200	-0.09225845
99	0x3d2e0a8a	0.04249052
100	0xbc8dc9bc	-0.017308109
101	0x3cf6e478	0.03013824
102	0x3bb52a27	0.0055287066
103	0xbb8cd9a2	-0.004298405
104	0x3cfeba1e	0.031094607
105	0xbcc887a1	-0.024478735
106	0xbd732dd7	-0.05936989
107	0x3da1dee4	0.07903841
108	0xbdd64103	-0.10461619
109	0xbce5f55e	-0.028071102
110	0x3db2d6f3	0.087324046
111	0xbd8a43c8	-0.067512095
112	0x3d6293f9	0.0553169
113	0xbd15ffbe	-0.036620848
114	0xbb5a8e25	-0.0033348885
115	0x3c24d904	0.010061506
116	0xbd0eb8ec	-0.034844324
117	0x3d23240e	0.039829306
118	0x3d0e8015	0.034790117
119	0xbda70276	-0.08154766
120	0xbbe43e4f	-0.0069654356
121	0x3c119b9f	0.008887201
122	0x3c5beeae	0.013423605
123	0xba5b7672	-0.0008371837
124	0xbcf4983e	-0.029857751
125	0xbc322be3	-0.010874721
126	0xbce06e51	-0.027396353
127	0x3ce5460c	0.027987503
128	0xbd82fe84	-0.06396201
129	0x3b62d95e	0.0034614424
130	0x3b76391d	0.0037570663
131	0x3d4b4744	0.04962851
132	0x3b830c90	0.0039993003
133	0x3cd60fcc	0.02613058
134	0xbd90cf0f	-0.07070743
135	0xbbdcb14f	-0.006735004
136	0x3c68c0f2	0.014206158
137	0x3cc897c9	0.02448644
138	0x3d42c97d	0.047555435
139	0xbc23fe53	-0.010009366
140	0x3c8bddd3	0.017073547
141	0x3957ffc1	0.00020599274
142	0xbd5b8fc9	-0.05360392
143	0x3cbd6fd6	0.023124617

stage1.blocks.0.attn.proj.weight f4 [12, 12]
0	0x3cd360bb	0.02580296
1	0xbcd20b8f	-0.025640277
2	0xbd002d0c	-0.03129296
3	0x3c80b82d	0.015712822
4	0xbda43128	-0.08017188
5	0xbd1ccd15	-0.03828152
6	0xbd4a92b9	-0.049456332
7	0xbc866ab5	-0.016408304
8	0xbc87d320	-0.016580164
9	0x3db04708	0.08607298
10	0xbcdd1713	-0.026988542
11	0x3c58aafe	0.013224361
12	0x3d446e54	0.04795678
13	0x3cd10f04	0.025519855
14	0xbcea4b0d	-0.02860024
15	0x3d2863a0	0.041110635
16	0xbd3520b4	-0.04422064
17	0xbd4ab5b6	-0.0494897
18	0x3cfedbfc	0.031110756
19	0xbc8b6bcf	-0.01701918
20	0x3cc10959	0.023564028
21	0xbca4f725	-0.020137379
22	0xbd2b3ab6	-0.041804038
23	0xbca411f9	-0.020028101
24	0x3bb72409	0.0055890125
25	0xbd1c784f	-0.038200673
26	0xbc376a4e	-0.011194779
27	0xbc8b7aad	-0.01702627
28	0x3bbc91b9	0.005754676
29	0xbc595221	-0.01326421
30	0xbbfaeab9	-0.0076573757
31	0xbc67d51c	-0.01414993
32	0x3c4d9f04	0.012550119
33	0xbc0e4640	-0.008683741
34	0x3c7bda47	0.015371866
35	0x3b74531a	0.0037280978
36	0xbd5ea765	-0.05435886
37	0x3c37ef0a	0.011226425
38	0x3db41a97	0.08794134
39	0xbb344f4b	-0.0027513083
40	0xbb466a21	-0.003027566
41	0x3cd2bad8	0.02572386
42	0xbd1b7318	-0.03795156
43	0x3d3efce1	0.046627883
44	0x3d6127b2	0.054969497
45	0xbd3e0908	-0.04639533
46	0xbc40b6f5	-0.01176237
47	0x3d6834fa	0.056691147
48	0xbcfea32f	-0.031083671
49	0xbc0f8a89	-0.008761057
50	0xbb323416	-0.002719169
51	0xbc03de9e	-0.008048682
52	0x3d51a24c	0.05118017
53	0x3d1a70a3	0.037705075
54	0xb9cac8f4	-0.00038678164
55	0xbd51741a	-0.051136114
56	0x3bcf4470	0.006325297
57	0x3bad46b2	0.0052879686
58	0x3ce98a8a	0.028508443
59	0x3d01b511	0.03166682
60	0x3d8b9904	0.06816295
61	0xbba87727	-0.005141157
62	0xbdcbae90	-0.099454045
63	0x3c589554	0.013219196
64	0xbdc497de	-0.09599279
65	0xbd1d0447	-0.038334157
66	0x3cfb8517	0.03070311
67	0xbc89fe10	-0.01684478
68	0xbda1bb2e	-0.0789703
69	0x3d84adee	0.06478487
70	0xbc8a4cc9	-0.016882317
71	0xbcb5dc3e	-0.022199746
72	0xbd84c232	-0.06482352
73	0xb8fde8dc	-0.000121073535
74	0x3dfe7f99	0.12426681
75	0xbd2db890	-0.04241234
76	0x3d77ffcf	0.060546692
77	0x3d9f1c63	0.07769086
78	0xbd8b406a	-0.067993954
79	0x3cb55630	0.022135824
80	0x3d18bb4f	0.037288006
81	0xbd62e595	-0.055394728
82	0x3c2a9b4a	0.010413
83	0x3b88aec3	0.004171224
84	0xbd8e0328	-0.06934196
85	0x3b2b47a7	0.0026135237
86	0x3bbeee6d	0.0058267624
87	0x3cc94c57	0.024572534
88	0x3c731773	0.014837134
89	0x3d1f4fd2	0.038894482
90	0xbca12498	-0.01967077
91	0x3c527a59	0.012846553
92	0x3d893f6a	0.067015484
93	0xbd0fcc75	-0.035107095
94	0xbd0b2e74	-0.033979848
95	0x3ce9e528	0.028551653
96	0xbd072cea	-0.033001818
97	0xbc9ebe47	-0.01937784
98	0x3a99c476	0.0011731524
99	0xbc749ab7	-0.014929465
100	0x3d6d7860	0.057976127
101	0x3d1e773f	0.03868794
102	0xbbfa1906	-0.0076323776
103	0x3c3fd875	0.011709322
104	0x3c38e103	0.011284116
105	0x38f575a3	0.00011704422
106	0x3d1abcf8	0.03777787
107	0xbcde9878	-0.027172312
108	0xbce83364	-0.028344817
109	0xbbfa4a40	-0.007638246
110	0xbb9d0de4	-0.0047929157
111	0xbcbbe9f8	-0.022938713
112	0x3d88eee8	0.06686193
113	0x3c78a8b2	0.015176939
114	0x3cfcf131	0.030876728
115	0xbcb2d20e	-0.021828678
116	0x3b2ca9f6	0.0026346422
117	0xbcc1d364	-0.02366037
118	0x3d6da74b	0.05802087
119	0xbceb06a0	-0.028689682
120	0x3a83dde2	0.0010060633
121	0x3d231191	0.039811675
122	0x3d0e0810	0.034675658
123	0x3c4b2abb	0.012400324
124	0xbbe95c88	-0.0071216263
125	0x3d2174a2	0.03941787
126	0xbc4699a2	-0.01212159
127	0x3d22e6f2	0.039771028
128	0x3d05f8e4	0.032708064
129	0x3c323b10	0.010878339
130	0xbc9f41f5	-0.01944063
131	0x3cd5f806	0.026119243
132	0x3ce53d31	0.02798328
133	0x3d24b492	0.040211268
134	0xbabc539f	-0.0014368183
135	0x3cc8fdeb	0.02453514
136	0xbd93d6a7	-0.07218676
137	0xbd2d3317	-0.04228505
138	0x3b61d1b0	0.003445726
139	0x3c4b1bf9	0.012396806
140	0x38f56f24	0.00011703212
141	0xbcf40f9b	-0.029792598
142	0xbd412cdc	-0.04716192
143	0x3d32f989	0.043695007

stage1.blocks.0.attn.proj.bias f4 [12]
0	0x3c5735d0	0.0131353885
1	0xbbd0cb84	-0.006371917
2	0xbc5918d4	-0.013250548
3	0x3d2b996e	0.04189437
4	0x3ba5c05f	0.005058333
5	0xbb99260d	-0.0046737255
6	0x3b1cafd1	0.0023908506
7	0x3c936f29	0.017997341
8	0xbc919dfc	-0.017775528
9	0xbc0f1c9a	-0.0087348465
10	0x3cb7b645	0.02242578
11	0x3c04cc51	0.008105353

stage1.blocks.0.norm2.weight f4 [12]
0	0x3f54dc4b	0.8314864
1	0x3f659457	0.89679474
2	0x3f47e9b6	0.7809099
3	0x3f800f02	1.000458
4	0x3f69ca1e	0.9132403
5	0x3f7dce84	0.9914324
6	0x3f5d1ae9	0.86369187
7	0x3f4ffa38	0.8124118
8	0x3f7c5f22	0.9858266
9	0x3f616f5e	0.8806056
10	0x3f686b37	0.90788597
11	0x3f61409d	0.8798922

stage1.blocks.0.norm2.bias f4 [12]
0	0xbce34824	-0.02774436
1	0x3d339615	0.0438443
2	0x3cc5defd	0.02415418
3	0x3d044f25	0.03230204
4	0xbc5334f9	-0.012891048
5	0xbc9c23f9	-0.019060122
6	0x3cff5c80	0.031172037
7	0x3d3fb77f	0.046805855
8	0xbd153287	-0.03642514
9	0xbc31dd4e	-0.010855986
10	0x3ca2a353	0.01985327
11	0xbbcc9191	-0.006242939

stage1.blocks.0.mlp.fc1.weight f4 [24, 12]
0	0xb9fabf34	-0.00047826173
1	0x3d94e5a8	0.07270366
2	0xba2e3b15	-0.0006646377
3	0xbd5d5571	-0.05403656
4	0x3b7772a6	0.0037757545
5	0xbd4b8032	-0.049682803
6	0xbd0ffacb	-0.035151284
7	0x3d362ad4	0.044474438
8	0xbd7a799e	-0.06115114
9	0x3d4b10f5	0.04957672
10	0x3d1ba8f2	0.038002916
11	0x3d84ba30	0.06480825
12	0xbd7bdb8e	-0.06148868
13	0x3db09a67	0.086232
14	0x3d5cb7c1	0.05388618
15	0x3d04b66d	0.032400537
16	0x3dc709f6	0.09718697
17	0xbd93310e	-0.07187091
18	0xbc60c301	-0.013718368
19	0x3db59ca1	0.08867765
20	0xbb994a1b	-0.0046780235
21	0xbd880bbb	-0.066428624
22	0x3d4c21c6	0.049836896
23	0xbdd70961	-0.10499836
24	0x3c178fac	0.009250563
25	0xbd8cfdbe	-0.06884335
26	0x3d5e08b5	0.054207522
27	0xbda5a7d6	-0.08088653
28	0x3d03836f	0.032107767
29	0x3d94b08a	0.07260235
30	0x3d03b16f	0.032151636
31	0xbd1f97c6	-0.0389631
32	0x3d6d334f	0.05791026
33	0xbb44d102	-0.0030031805
34	0xbd0faaa3	-0.03507484
35	0xbd40d555	-0.04707845
36	0xbd77b4cb	-0.060475152
37	0x3d318489	0.043339286
38	0xbd62bd60	-0.055356383
39	0xbcce4053	-0.025177157
40	0xbbfb3fab	-0.007667502
41	0x3c1957ca	0.009359309
42	0xbd8963dc	-0.067085
43	0xbd59fe5c	-0.05322109
44	0x3d662c33	0.056194495
45	0x3d9430a5	0.07235841
46	0x3c60a4f2	0.013711201
47	0x3bf5a646	0.007496628
48	0x3d4ea2a2	0.050448067
49	0x3ba09e5a	0.0049016895
50	0x3d416121	0.04721177
51	0x3d83f6cd	0.06443558
52	0xbd9d94bc	-0.076943845
53	0x3caac851	0.020847471
54	0x3b49d303	0.0030795939
55	0xbcc9b79f	-0.02462369
56	0x3dabda11	0.08391202
57	0xbd0a5c51	-0.033779446
58	0xbda80df1	-0.08205784
59	0xbd24515f	-0.040116664
60	0xbc8e8cb2	-0.017401073
61	0x3de19bae	0.11016022
62	0xbd1d9190	-0.038468897
63	0xbd26c376	-0.04071375
64	0x3d12b393	0.035815787
65	0xbd02bd65	-0.031918902
66	0xbc62032c	-0.013794702
67	0x3b257dbf	0.0025251952
68	0x3c81f61d	0.015864426
69	0xbcf1cb48	-0.029515877
70	0xbcde926f	-0.027169434
71	0x3d0d21aa	0.034455933
72	0xbbc528b4	-0.006016815
73	0xbc13e26e	-0.009026153
74	0xbb88f57d	-0.004179655
75	0x3db54dd7	0.088527374
76	0xbd158953	-0.036507916
77	0x3dec1119	0.115266986
78	0x3cda7e70	0.026671618
79	0xbd5cd30e	-0.053912215
80	0xbd436c86	-0.047710918
81	0x3d55e010	0.052215636
82	0xbcd45a3c	-0.025921933
83	0xbd71167f	-0.058859345
84	0x3be60840	0.0070200264
85	0x3d330e4f	0.043714818
86	0x3dad9322	0.08475329
87	0x3cc86cbe	0.024465915
88	0xbd81f537	-0.06345599
89	0xbb1a771f	-0.0023569537
90	0xb98fce3c	-0.00027428742
91	0x3d704fb8	0.058669776
92	0xbd89c9f1	-0.067279704
93	0xbd0c79d4	-0.03429587
94	0x3b93212f	0.00449004
95	0xbd48e56d	-0.049046922
96	0xbd0b5156	-0.034013115
97	0x3d216082	0.039398678
98	0x3c6800ca	0.014160344
99	0x3db5feb2	0.0888647
100	0xbdc30bca	-0.09523733
101	0x3cf33bef	0.029691665
102	0x3d27c802	0.040962227
103	0x3db31754	0.08744684
104	0xbd067e70	-0.032835424
105	0x3d311b66	0.04323902
106	0x3dedebdb	0.116172515
107	0xbdec514f	-0.11538946
108	0x3b8049c5	0.003915044
109	0xbc9997b0	-0.018749088
110	0x3c17ac61	0.009257407
111	0xbde1013d	-0.10986564
112	0x3b62d327	0.003461072
113	0xbd07bfb2	-0.0331418
114	0x3bf8b462	0.0075898627
115	0x3d3bc849	0.045845304
116	0xb9b68dac	-0.000348193
117	0x3bffe97c	0.007809816
118	0x3d1ab604	0.03777124
119	0x3d0d3263	0.03447188
120	0x3d023b5e	0.0317949
121	0xbb9a706c	-0.0047131088
122	0x3daf4a9a	0.08559151
123	0x3da340a1	0.07971311
124	0x3c80ad59	0.015707659
125	0x3d799836	0.060936175
126	0x3d5c8ad5	0.053843338
127	0xbcc71d4f	-0.024305968
128	0x3d2b1b74	0.04177423
129	0xbdb7aa32	-0.08968009
130	0xbdd2fccd	-0.10302124
131	0xbcbf833b	-0.023378005
132	0x3d2efdec	0.042722628
133	0xbcfbe8f4	-0.03075073
134	0x3b611c64	0.0034349198
135	0xbd335185	-0.043778915
136	0x3c399ef8	0.011329405
137	0x3d338c8c	0.043835208
138	0xbcbb7c87	-0.022886528
139	0x3d825bf7	0.06365197
140	0x3c83b59c	0.016077809
141	0xbd11ebbb	-0.0356252
142	0x3db8c495	0.0902187
143	0xbd95a1b4	-0.07306233
144	0xbbc92579	-0.0061385003
145	0x3bd8524f	0.006601609
146	0x3c99eb74	0.01878903
147	0x3dda7d1b	0.10668393
148	0xbc988b49	-0.018621104
149	0x3c9c6fc7	0.019096268
150	0xbd207ac0	-0.039179564
151	0x3cf5b52f	0.029993622
152	0x39a1ba81	0.0003084727
153	0xbd1b4679	-0.037909005
154	0xbdd964ea	-0.10614951
155	0xbca8a576	-0.02058671
156	0xbd15de8d	-0.036589194
157	0xbceede5b	-0.029158762
158	0xbdaed37a	-0.0853643
159	0xbd48ce38	-0.04902479
160	0xb980910b	-0.00024522128
161	0x3d06c926	0.032906674
162	0x3de2034e	0.110357866
163	0xbaa815ef	-0.001282392
164	0x3d10689c	0.035256013
165	0x3d30689b	0.04306851
166	0xbd2c61e6	-0.04208555
167	0xbd23ccc7	-0.039990213
168	0xbd4619b5	-0.04836436
169	0x3d834a5d	0.06410668
170	0xbdc1bae9	-0.094594784
171	0x3dca0d04	0.09865764
172	0xbd294a97	-0.0413309
173	0xbd92e2cf	-0.071721666
174	0x3c86ccb1	0.016455026
175	0x3d9a00fd	0.0751972
176	0xbd3d7ae2	-0.04625977
177	0xbd531bff	-0.05154037
178	0x3d602677	0.054724183
179	0x3d39a022	0.04531873
180	0xbd5a2f3c	-0.053267702
181	0x3c5ba5e0	0.013406247
182	0xbd2f3d51	-0.042783085
183	0x3da801dc	0.0820348
184	0xbd984ebc	-0.074368924
185	0x3c92ac83	0.017904526
186	0x3d05e661	0.03269041
187	0x3d96d8db	0.07365581
188	0xbd75d6d6	-0.060019337
189	0xbd74f188	-0.059800655
190	0x3d412167	0.047150996
191	0x3d90f794	0.07078472
192	0xbd0987cd	-0.033576775
193	0x3d550564	0.052007094
194	0xbc327cb4	-0.010893989
195	0x3da6ea14	0.081501156
196	0xbdbbecae	-0.091760024
197	0xbd7db671	-0.061941568
198	0x3d4a488e	0.0493856
199	0x3cb4aa7e	0.022053953
200	0xbdf31762	-0.11869694
201	0x3d6c1e8b	0.057646316
202	0x3d4d4028	0.050110012
203	0xbdb90a3a	-0.09035154
204	0x3d18de67	0.037321474
205	0xbdcf7886	-0.1013041
206	0xbd61e1de	-0.055147044
207	0xbdb2d7a8	-0.087325394
208	0x3c6bf2a9	0.014401116
209	0x3e263cb3	0.16234092
210	0x3d822879	0.06355376
211	0xbd857495	-0.06516377
212	0x3def166f	0.11674201
213	0xbcd9e007	-0.026596082
214	0xbce179d4	-0.027523912
215	0x3c82410e	0.015900161
216	0x3d750fce	0.059829526
217	0x3c8dd313	0.017312562
218	0xbd61f31e	-0.055163495
219	0x3bdd06a4	0.0067451764
220	0x3d7adf14	0.0612479
221	0xbcff63cf	-0.031175522
222	0x3dd9509b	0.106110774
223	0xbd0dab90	-0.034587443
224	0x3d62ca25	0.05536856
225	0xbd728d7b	-0.059216958
226	0xbdec476c	-0.1153706
227	0xbcf780af	-0.030212728
228	0x3dcca8e3	0.0999315
229	0xbc3495c7	-0.011022038
230	0x3cf3e7ce	0.029773619
231	0x3daf0f9a	0.08547898
232	0xbd163dab	-0.036679905
233	0xbd838602	-0.06422044
234	0x3c9b6f9b	0.018974116
235	0xbce85fe2	-0.028366033
236	0xbda9e69c	-0.082959384
237	0x3d3acbb6	0.04560443
238	0xbdd1044a	-0.10205896
239	0xba677ad7	-0.0008830255
240	0xbd423927	-0.047417786
241	0x3c3aa603	0.011392119
242	0xbd55cb4d	-0.052195836
243	0x3c92bcfc	0.01791238
244	0x3d486061	0.04892004
245	0x3c10fcb3	0.008849311
246	0x3ce992cf	0.028512387
247	0xbcb1ba42	-0.02169526
248	0x3e075972	0.13217714
249	0xbd7848fb	-0.060616475
250	0x3caccb7d	0.021093125
251	0xbd8b758e	-0.06809531
252	0xbc65f06b	-0.014034371
253	0x3d10ae9c	0.03532277
254	0x3d61d93c	0.05513881
255	0xbd0d36c5	-0.03447606

stage1.blocks.0.mlp.fc1.bias f4 [24]
0	0xbcd090d5	-0.025459686
1	0x3d156cfd	0.036480892
2	0xbd4173ec	-0.047229692
3	0xbd660db7	-0.056165423
4	0xbd1638ef	-0.03667539
5	0x3c17b4e0	0.009259433
6	0x3a9a3e61	0.0011767858
7	0x3bf8fe6a	0.007598688
8	0x3cd594d0	0.026071936
9	0xbce998a8	-0.028515175
10	0x3d219b37	0.039454665
11	0xbb989bd2	-0.004657247
12	0x3b89591b	0.0041915304
13	0xbc22c9bc	-0.009935793
14	0x3d69ecff	0.057110783
15	0x3c8f3893	0.017483031
16	0x3be6a1d8	0.0070383362
17	0xbd73d6a2	-0.05953086
18	0xba953676	-0.0011384028
19	0x3b8ad965	0.004237341
20	0x3c6715a8	0.014104284
21	0xbd1d788b	-0.038445037
22	0xbc32c6ce	-0.010911657
23	0x3bc49123	0.005998747

stage1.blocks.0.mlp.fc2.weight f4 [12, 24]
0	0xbade0f02	-0.0016941729
1	0xbcc0b16e	-0.023522105
2	0x3cf4c83f	0.029880641
3	0xbd304525	-0.04303469
4	0xbc05787f	-0.008146404
5	0x3d34a26a	0.044100203
6	0x3bc7b35c	0.0060943794
7	0x3d87dc19	0.06633777
8	0x3d41f483	0.047352325
9	0xb91e5dfc	-0.00015103066
10	0xba3f6c69	-0.0007302226
11	0xb9377ea0	-0.00017499411
12	0xbb264a23	-0.0025373779
13	0x39bab377	0.00035610396
14	0x3d7afb42	0.061274774
15	0x3d440e0a	0.04786495
16	0x3cfb4adc	0.030675344
17	0x3cc89a5c	0.024487667
18	0x3d17d3e4	0.03706731
19	0x3b11d4e0	0.0022252128
20	0x3d061db5	0.032743175
21	0x3c9f70fe	0.019463059
22	0xbc5eda23	-0.0136018125
23	0x3d16b291	0.036791388
24	0x3c8b199f	0.01697999
25	0x3c1f2ff6	0.009716025
26	0xbd8614cc	-0.065469354
27	0x3cfc2169	0.03077765
28	0x3d9dcf20	0.077055216
29	0xbbfc1504	-0.007692935
30	0xbd55c753	-0.052192044
31	0xbb83ed24	-0.004026072
32	0xbcef4466	-0.02920742
33	0x3c578435	0.013154079
34	0x3c39be37	0.011336855
35	0xbd5fcddc	-0.054639682
36	0x3d06f53b	0.032948714
37	0xbb2e2364	-0.0026571387
38	0xbda1aa11	-0.07893766
39	0xbd25a927	-0.04044452
40	0xbda8b6e6	-0.0823801
41	0xbd6a0964	-0.05713786
42	0x3d3fb299	0.046801183
43	0xbd834b03	-0.06410792
44	0xbbd5ce8b	-0.006524866
45	0x3d6051cf	0.05476552
46	0x3b66138d	0.0035106868
47	0xbd974005	-0.07385258
48	0xbcf5568a	-0.029948492
49	0xbd152e07	-0.03642085
50	0x3d2ae1ae	0.04171913
51	0xbe034467	-0.12819062
52	0xbc345c2e	-0.0110083055
53	0xbda3bc3f	-0.079948895
54	0xbd2b693e	-0.041848414
55	0x3c5aade8	0.013347127
56	0x3ce763c8	0.028245822
57	0xbd4ef573	-0.050527047
58	0xbdb45d0a	-0.08806808
59	0x3d36716c	0.04454176
60	0xbda6a4a9	-0.08136875
61	0xbd74d8ce	-0.059777074
62	0x3d642fe0	0.05570972
63	0xbd0c2109	-0.034211192
64	0x3d52ad2f	0.051434692
65	0x3dcd8f1d	0.10037062
66	0xbd6384fd	-0.05554675
67	0x3d23892a	0.03992573
68	0xbd69f0fb	-0.057114583
69	0xbdad5867	-0.08464127
70	0x3de906aa	0.11378224
71	0x3d25e7f4	0.04050441
72	0x3c7430ae	0.014904184
73	0x3e18dd28	0.14928114
74	0xbb34153d	-0.002747848
75	0xbd0558f3	-0.03255553
76	0x3d864f7e	0.06558131
77	0x3ca8972e	0.0205799
78	0x3d2c4679	0.042059395
79	0x3d0e17b3	0.03469057
80	0x3d728a66	0.05921402
81	0x3cb3377d	0.021877045
82	0xbca583ce	-0.020204451
83	0x3d07eef8	0.033186883
84	0x3c818782	0.015811685
85	0x3c15e0a7	0.0091478
86	0xbd7ca027	-0.06167617
87	0xbd5d9123	-0.05409349
88	0x3d603eb5	0.054747302
89	0x3d05660b	0.03256802
90	0x3d5d1185	0.053971786
91	0x3e0d3f39	0.13793649
92	0x3da57738	0.0807938
93	0x3cd1dc47	0.025617732
94	0x3d24af72	0.04020638
95	0x3d522ed2	0.051314183
96	0xbcfa7f18	-0.030578181
97	0x3db4b8bc	0.08824298
98	0x3d8f636f	0.07001387
99	0xbd98e83f	-0.074661724
100	0xbd8555d1	-0.06510509
101	0xbd6355df	-0.055501815
102	0xbc7bd58b	-0.015370737
103	0x3d208783	0.039191734
104	0x3dc685d6	0.09693496
105	0xbd624642	-0.055242784
106	0xbd848c9b	-0.06472131
107	0xbd6d3c7f	-0.05791902
108	0xbdd47bd6	-0.10375182
109	0xbdb20cb3	-0.086938284
110	0x3dc39eba	0.09551759
111	0xbd74272d	-0.059607673
112	0x3da94c0f	0.0826646
113	0x3de2c673	0.110730074
114	0xbd1f6b92	-0.038920946
115	0x3c6566ba	0.014001543
116	0x3c289213	0.010288733
117	0xbd1af5ce	-0.037832074
118	0x3dfb96e8	0.122846425
119	0xbd07ed6a	-0.0331854
120	0x3cc38133	0.023865318
121	0xbd85868e	-0.06519805
122	0x3c909bf1	0.017652484
123	0x3d86f3ba	0.06589456
124	0xbb2dff70	-0.0026549958
125	0x3d3d5bd5	0.046230156
126	0x3c9f0d59	0.019415544
127	0xbbfe3d22	-0.0077587524
128	0xbc0dccd9	-0.0086547965
129	0x3b929da0	0.004474357
130	0x3cb0aa90	0.021565706
131	0xbc07d1ec	-0.008289795
132	0x3cddc671	0.027072163
133	0x3cc6c944	0.024265893
134	0x3d97e13c	0.07416007
135	0x3d9ce1b3	0.07660236
136	0xbd26257f	-0.040563103
137	0xbd4fbccb	-0.050717156
138	0x3cc91934	0.02454815
139	0xbd638521	-0.055546883
140	0x3ca956f5	0.020671347
141	0x3d5a4572	0.053288884
142	0xbd48d47c	-0.049030766
143	0xbd07c97f	-0.033151146
144	0xbd3678a1	-0.044548634
145	0x3c46add9	0.012126409
146	0x3bb71a18	0.0055878274
147	0xbcecf896	-0.028927129
148	0xbd6d18f6	-0.057885133
149	0xbd055773	-0.0325541
150	0x3bb45d68	0.005504299
151	0xbaf78b22	-0.0018886069
152	0x3d875bb4	0.06609288
153	0xbba4f996	-0.005034636
154	0xbdbb5e56	-0.091488525
155	0x3c848c17	0.016180081
156	0xbd89496e	-0.06703459
157	0xbcbbf606	-0.022944462
158	0x3bf25be4	0.007396208
159	0xbcb038b5	-0.021511415
160	0x3bca7756	0.0061787767
161	0x3ca9c4ff	0.020723818
162	0xbcc14aa0	-0.023595154
163	0x3c18891a	0.009310031
164	0xbd90c1b9	-0.070682
165	0xbbbb4888	-0.0057154335
166	0x3d34ee1c	0.04417239
167	0x3bd80dad	0.006593427
168	0x3d4a7f3b	0.049437743
169	0x3d2e87e2	0.042610057
170	0xbd545bae	-0.051845245
171	0x3d9d7501	0.07688332
172	0xbd46478b	-0.048408072
173	0x3d66b14b	0.056321424
174	0x3c6f76be	0.014615713
175	0x3dd944fa	0.10608859
176	0xbc895480	-0.016763926
177	0x3d08967e	0.033346646
178	0x3cdd9bfa	0.027051914
179	0xbc98447a	-0.01858734
180	0x3d5a6dd8	0.05332741
181	0xbd395c00	-0.045253754
182	0xbd2deee8	-0.042464167
183	0xbc2add0d	-0.010428679
184	0xbdb6b517	-0.08921259
185	0xbd5035bd	-0.0508325
186	0x3dc2b0d6	0.09506385
187	0xbc7cc6ff	-0.015428304
188	0x3b53984e	0.0032286826
189	0x3d61073c	0.05493854
190	0xbcd55117	-0.026039643
191	0xbc87480a	-0.016513843
192	0xbd995bea	-0.07488234
193	0xbd20f398	-0.03929481
194	0xb8ac8cce	-8.227826e-05
195	0xbbc05cd4	-0.005870441
196	0xbd8aedad	-0.06783614
197	0xbcea1771	-0.02857563
198	0xbc657206	-0.014004236
199	0x3cd04e61	0.025427999
200	0x3b901251	0.0043967147
201	0x39bbbe79	0.00035809333
202	0xbdc063b8	-0.0939402
203	0x3bc63ab0	0.0060494766
204	0xbcd74468	-0.026277736
205	0xbd2ba4c2	-0.041905172
206	0x3cd74dfc	0.026282303
207	0x3cb7c5f1	0.022433253
208	0xbc4580e2	-0.012054654
209	0x3d337443	0.043812048
210	0xbd70059a	-0.058599092
211	0x3caf307c	0.021385424
212	0xbd7fda83	-0.06246425
213	0xbbc319d1	-0.0059540053
214	0xbcca5cf9	-0.024702536
215	0xbd84d250	-0.064854264
216	0xbd3344cc	-0.04376678
217	0xbce6271c	-0.02809482
218	0xbcc68f15	-0.024238149
219	0xbc948350	-0.01812902
220	0xbcc090f3	-0.023506617
221	0xbdb13b1e	-0.08653854
222	0xbd9e3b7d	-0.0772619
223	0x3cbbbe89	0.022918003
224	0xbcb5a84c	-0.022174977
225	0xbd1996d1	-0.037497345
226	0xbdc2a005	-0.095031776
227	0xbd652d3c	-0.055951342
228	0xbd4b4c7a	-0.04963348
229	0xbda70677	-0.0815553
230	0xbb13bb74	-0.002254215
231	0xbda1c649	-0.07899148
232	0x3b0a15d9	0.002107015
233	0xbd0b412e	-0.033997707
234	0x3bdd7ba5	0.0067591243
235	0xbc266a83	-0.01015723
236	0xbbfa701a	-0.007642758
237	0x3c911c42	0.01771367
238	0x3d12b3ae	0.035815887
239	0xbd6c188c	-0.057640597
240	0x3c44dd52	0.0120156575
241	0x3db75f30	0.089537024
242	0x3cf2881c	0.029605918
243	0x3c6f3f82	0.014602544
244	0x3d7bf954	0.061517075
245	0x3d169cc8	0.036770612
246	0x3cdb444f	0.02676597
247	0x3d87eda2	0.06637122
248	0x3d727fc5	0.05920388
249	0x3cb442e6	0.022004556
250	0x3b109271	0.0022059942
251	0x3caaffdd	0.020873958
252	0x3d09d0b1	0.03364629
253	0x3d71c05b	0.059021335
254	0xbbff5594	-0.007792184
255	0x3ce9544b	0.028482577

stage1.blocks.0.mlp.fc2.bias f4 [12]
0	0x3c764e75	0.015033354
1	0xbbe257f3	-0.006907457
2	0xbc59684f	-0.013269498
3	0x3d161b99	0.036647413
4	0x3a994bce	0.0011695565
5	0xb94dfa7f	-0.0001964364
6	0x3a23819f	0.00062372716
7	0x3c8eece4	0.017446943
8	0xbc5b6b2b	-0.01339225
9	0xbc333620	-0.010938197
10	0x3cc413d2	0.023935232
11	0x3c13ffc9	0.009033152

stage1.blocks.1.norm1.weight f4 [12]
0	0x3d7e8449	0.062137876
1	0x3d2a6afe	0.041605942
2	0x3d902a99	0.07039375
3	0x3d3fc401	0.046817783
4	0x3d5f09ef	0.054452833
5	0x3d2f8820	0.04285443
6	0x3d0a6371	0.03378624
7	0x3d60eea0	0.05491507
8	0x3d3254b6	0.043537818
9	0x3da75705	0.081708945
10	0x3d317ef3	0.04333396
11	0x3d8ce0a3	0.068787836

stage1.blocks.1.norm1.bias f4 [12]
0	0x3b3b0598	0.002853727
1	0xbbb929c0	-0.005650729
2	0x3bc42ae7	0.0059865597
3	0x3c2e0ffc	0.010623928
4	0x3bdf7ba6	0.00682016
5	0xbb156a8a	-0.0022799098
6	0x3b6c7cd9	0.0036085157
7	0xbba8453a	-0.0051352056
8	0xbc2709e9	-0.010195234
9	0x3c9c09ff	0.019047735
10	0xbc4c63cc	-0.012474965
11	0xbc890ebe	-0.016730662

stage1.blocks.1.attn.conv_proj_q.bn.weight f4 [12]
0	0x3710ae14	8.6236e-06
1	0x3710afac	8.623971e-06
2	0x3710ba8e	8.6265045e-06
3	0x3710a6b7	8.621885e-06
4	0x3710a61d	8.621745e-06
5	0x3710db5e	8.634144e-06
6	0x37109bba	8.619327e-06
7	0x3710dc80	8.634408e-06
8	0x3710f4ec	8.640094e-06
9	0x3710e738	8.636904e-06
10	0x3710df03	8.634993e-06
11	0x3710c3fc	8.6287e-06

stage1.blocks.1.attn.conv_proj_q.bn.bias f4 [12]
0	0x80004ce8	-2.7589e-41
1	0x80025e29	-2.17449e-40
2	0x80029006	-2.35337e-40
3	0x8001fea5	-1.83185e-40
4	0x8001b1cf	-1.55621e-40
5	0x00029aec	2.39246e-40
6	0x000652e6	5.80751e-40
7	0x8001b0d8	-1.55275e-40
8	0x8004ba33	-4.34138e-40
9	0x000685b0	5.98971e-40
10	0x00064059	5.74097e-40
11	0x80032215	-2.87733e-40

stage1.blocks.1.attn.conv_proj_q.bn.running_mean f4 [12]
0	0x0000081d	2.91e-42
1	0x00000240	8.07e-43
2	0x800012cf	-6.747e-42
3	0x800039a4	-2.0678e-41
4	0x0000120a	6.471e-42
5	0x800010ba	-6e-42
6	0x0000087f	3.048e-42
7	0x000000f2	3.39e-43
8	0x00002731	1.4059e-41
9	0x0000c7c2	7.166e-41
10	0x00000029	5.7e-44
11	0x80001ea7	-1.0996e-41

stage1.blocks.1.attn.conv_proj_q.bn.running_var f4 [12]
0	0x00000004	6e-45
1	0x00000004	6e-45
2	0x00000004	6e-45
3	0x00000004	6e-45
4	0x00000004	6e-45
5	0x00000004	6e-45
6	0x00000004	6e-45
7	0x00000004	6e-45
8	0x00000004	6e-45
9	0x00000004	6e-45
10	0x00000004	6e-45
11	0x00000004	6e-45

stage1.blocks.1.attn.conv_proj_k.bn.weight f4 [12]
0	0x3710c7d0	8.629591e-06
1	0x37110efd	8.646163e-06
2	0x3710d8f7	8.633585e-06
3	0x371132c4	8.654493e-06
4	0x3710b4c0	8.625153e-06
5	0x3710c211	8.628253e-06
6	0x37112027	8.6501595e-06
7	0x3710afe2	8.62402e-06
8	0x371000af	8.583228e-06
9	0x3710b3fe	8.6249765e-06
10	0x37106cf9	8.608441e-06
11	0x3710c7fa	8.6296295e-06

stage1.blocks.1.attn.conv_proj_k.bn.bias f4 [12]
0	0x0003b6e6	3.41118e-40
1	0x800359b7	-3.0769e-40
2	0x000297f1	2.38177e-40
3	0x8001bb99	-1.59133e-40
4	0x000253f8	2.13793e-40
5	0x800632b8	-5.69207e-40
6	0x0003ce26	3.49459e-40
7	0x8002e0a9	-2.64264e-40
8	0x0006af46	6.13889e-40
9	0x80054575	-4.84094e-40
10	0x00016998	1.29715e-40
11	0x80005a9d	-3.2506e-41

stage1.blocks.1.attn.conv_proj_k.bn.running_mean f4 [12]
0	0x80001874	-8.772e-42
1	0x80000577	-1.96e-42
2	0x00005416	3.0164e-41
3	0x80006bd0	-3.8676e-41
4	0x00000675	2.316e-42
5	0x8000199e	-9.19e-42
6	0x00001f92	1.1325e-41
7	0x80000046	-9.8e-44
8	0x00000b74	4.109e-42
9	0x8000457b	-2.4925e-41
10	0x800007c0	-2.78e-42
11	0x000007fd	2.866e-42

stage1.blocks.1.attn.conv_proj_k.bn.running_var f4 [12]
0	0x00000004	6e-45
1	0x00000004	6e-45
2	0x00000004	6e-45
3	0x00000004	6e-45
4	0x00000004	6e-45
5	0x00000004	6e-45
6	0x00000004	6e-45
7	0x00000004	6e-45
8	0x00000004	6e-45
9	0x00000004	6e-45
10	0x00000004	6e-45
11	0x00000004	6e-45

stage1.blocks.1.attn.conv_proj_v.bn.weight f4 [12]
0	0x3f095fc9	0.5366178
1	0x3e2b7524	0.16743904
2	0x3eef55b8	0.46745086
3	0x3efe22c2	0.49635893
4	0x3ee34b69	0.4439347
5	0x3ed33b26	0.41256064
6	0x3e431dcc	0.19054335
7	0x3f125c23	0.5717184
8	0x3f0ef1a8	0.5583749
9	0x3f24ea65	0.6442016
10	0x3e9b2c61	0.30307296
11	0x3f267514	0.650224

stage1.blocks.1.attn.conv_proj_v.bn.bias f4 [12]
0	0x3cef883c	0.029239766
1	0x3ce3565b	0.027751138
2	0x3cc4de8a	0.024031896
3	0xbcc7cbf0	-0.024389237
4	0xbcb814e7	-0.022470905
5	0xbcd3f522	-0.025873724
6	0x3cf5e050	0.030014187
7	0x3cfc8dc5	0.03082932
8	0xbcd0feb7	-0.025512083
9	0x3d0fcdd5	0.035108406
10	0x3d0c1d2e	0.034207515
11	0xbd1d916f	-0.038468774

stage1.blocks.1.attn.conv_proj_v.bn.running_mean f4 [12]
0	0xbaaa7c84	-0.0013007079
1	0xb8596e4e	-5.183956e-05
2	0x3b8fe244	0.0043909866
3	0xba7a2368	-0.0009542019
4	0x3af1a4db	0.0018435972
5	0x3a3f4677	0.0007296572
6	0xbaa65fe3	-0.0012693371
7	0x3934b5a9	0.00017233811
8	0xba0ac4ae	-0.000529359
9	0xbbf0601f	-0.0073356773
10	0xba924c48	-0.001116165
11	0x3b5e75c5	0.0033944708

stage1.blocks.1.attn.conv_proj_v.bn.running_var f4 [12]
0	0x38cecb22	9.860682e-05
1	0x3822e5bb	3.8837763e-05
2	0x390021d9	0.0001221964
3	0x39195e03	0.00014626239
4	0x392f2fc5	0.00016707096
5	0x38baf6db	8.9151516e-05
6	0x3816acf4	3.5923862e-05
7	0x3916c85f	0.00014379759
8	0x38c80d32	9.539201e-05
9	0x38c989a3	9.610064e-05
10	0x388da3f0	6.75394e-05
11	0x3913de9d	0.00014101942
