ViT/ViT1/3 V train 0.977 V test 0.899 ABS 3/model_bestV.pt (torch, 414407 bytes, 74 tensors)

pos_embedding f4 [1, 19, 36]
00000000: 9000 02c0 16d9 e53f 445a e0be 6e2d 1b3d
00000010: 4409 11bf 0536 03bf 0988 88bf 323b 99bf
00000020: 390d 8fbb c3b2 5ebf dbd3 70bf 7748 073e
00000030: 0bb1 853e 5388 bb3e 1588 1abf 004e edbe
00000040: ef88 4340 b1bf 19be 5252 913e eae8 8dbf
00000050: ab87 a7bf 6645 3bbf 733a 5abf 40e5 023f
00000060: a4dc 89be 28ac 6d3f fed3 363f 76ec 0dbf
00000070: f033 aabf 3172 44bf c26a f03e 4b35 29bf
00000080: 49ce 543f 1938 943f de82 103f 9e8f 45bf
00000090: fd9d b03d 751c f63f 3068 133e 1a5e 3ebf
000000a0: 5b42 01be 145e 74bf b461 bebf 1533 c03e
000000b0: d20f 793d a659 02bf abf4 3dbf 459d 563f
000000c0: fcbe 0b3f 9f51 7f3e 7694 783f b9bd c3bf
000000d0: e6fc 5d3e b0e1 3abf 47c4 c13e 07cd 8f3f
000000e0: f8f1 673f 6ade 053f 110e 5e3e cca5 55be
000000f0: ae79 c13c 204f 433e 98a2 323e 8f82 9c3f
00000100: a69b 44bf bd08 4740 8495 afbf 65fe 67bf
00000110: 555b e7bd f774 553f 56b7 29bf 0767 e83d
00000120: e279 cc3d 1aea 253e 580a 84bf d420 823e
00000130: b53c 77bf c716 543f 63d8 883e ae6f 69bf
00000140: 8356 433f 8800 aabb 1ef9 d9be 4896 48bf
00000150: 76d8 2c3f a5e3 f5bd 1f86 ab3f 95bf 583f
00000160: 8eca d5bf 4f87 313f bc0b 1ec0 8e36 eabd
00000170: 4818 3cbf 7466 d83e d272 a1bf 2bb0 6cbe
00000180: bb8f 57bf 0dd3 183f 5e8c 61be fb58 c83f
00000190: 6a88 bdbe 993e 2b3e 309f 1ec0 96a1 0f40
000001a0: 8362 9fbe e05e ab3f 0238 da3c 668f e43f
000001b0: 1988 92bf 3620 283f ffa9 03bf 5b1c 16be
000001c0: d399 493e d3d0 08bd 5609 a9bf ba67 f03f
000001d0: 4e4d 213f ada4 00be 9b1a a33f e765 c4bf
000001e0: b7f5 2cbf cae7 d33f 6ae4 883f 7250 6bbf
000001f0: d9e7 e8be e095 bb3f d886 b93f d187 8ebf
00000200: 0464 5b3f 7cad 53bf ef91 f23d cb27 8d3f
00000210: 2e13 15bf b2f3 2dbf 65fe 5fbf ae62 1bbf
00000220: 564f 15c0 e267 99bf a05a 2cbf 22e8 7a3e
00000230: 3672 e83f 4fd8 01bf 695d fc3d 84e7 553f
00000240: 0d50 26bf f9ad 2a3f d2e4 923f 30ab 2b3f
00000250: 0dc9 3840 f9d7 c4be 5ae5 99bd 07e9 ecbf
00000260: f485 8ebd 2476 d13f 54d4 1e40 c410 b0be
00000270: 8a58 e9bd 520c 89bf a7eb 02c0 28d2 1f3f
00000280: 367d 4dbe e15e 98be 2afe 30be 80cb 20be
00000290: 5eb3 5e3e 13e9 7f3f ae07 db3d d96b 11bf
000002a0: 5804 2f3e 87c4 bdbe 5db1 cebf 7a56 803f
000002b0: 99d9 adbe 631c 613f 0c79 d73f 91bd e8bf
000002c0: 5655 73bf f054 303f b06a 933f a532 753f
000002d0: ef93 0d3f 2d5d 7dbf 5738 9bbf b2c1 dfbe
000002e0: 7b10 25bf b101 a93f 39d6 613f 1d63 b83f
000002f0: 893a bdbf 3762 27bf bfc8 603f 54cb 833e
00000300: 586d abbf 789a a93f 9041 b3be e156 e13f
00000310: 4bc0 8e3f aba1 e23e 2233 ac3e 9c5a fabe
00000320: 3cac 583f e23a 33bf 524f 1b3e 4a05 9d3c
00000330: 0383 6abd 877b fe3e 4484 c63f abd8 46bc
00000340: aad8 84bf ec8c 153f 638d 09bf 613d 86bf
00000350: 713d c5be 6c24 29c0 20c1 37bf 166b 553f
00000360: acac 753f 8925 7c3f 2943 4a3f 3587 243f
00000370: d086 c03f d3e5 c53e 62b4 24bf 15a8 c53e
00000380: 80ac c13e ceb5 afbf 350e c83e 7f5d 843e
00000390: f542 40be df56 f4be 878e 9c3f 51f8 3bbf
000003a0: f785 383f f14d 0bc0 36b2 b93f 8cdc 883f
000003b0: c0d1 9e3f 9be0 3bbe 2932 b13e b203 c7be
000003c0: bf7c cdbd d710 84be 7dab 00bf 2cab 03c0
000003d0: 9bc4 a43e 125d bcbe 0eb6 353e 194b f23f
000003e0: 1034 0e40 a4ae d83e 3a21 99bf 2abf f33f
000003f0: e964 743e 0ef2 b7bf 8c84 3cbf ff0e d0bf
-2.0312843 1.7956874 -0.43818867 0.037885122 -0.56654763 -0.512543 -1.0666515 -1.197119
-0.00436559 -0.8699152 -0.94073266 0.13211237 0.26111636 0.36627445 -0.60363895 -0.46348572
3.0552328 -0.1501453 0.28383118 -1.1086705 -1.3088278 -0.7315277 -0.85245436 0.5113106
-0.26926148 0.92840815 0.71417224 -0.55438936 -1.32971 -0.7673674 0.4695645 -0.66096944
0.83127266 1.157962 0.5644969 -0.7717227 0.08623884 1.9227434 0.14395213 -0.7436234
-0.12622969 -0.9545605 -1.4873567 0.37538972 0.060806103 -0.5091804 -0.7420146 0.83833724
0.54588294 0.2493348 0.97101533 -1.5292274 0.21678504 -0.7300062 0.3784506 1.1234444
0.9060359 0.522925 0.21685053 -0.20864028 0.023617592 0.19073153 0.17444837 1.2227343
-0.768 3.1099083 -1.3717504 -0.9062255 -0.11296717 0.833816 -0.66295373 0.11347776
0.09984185 0.16202584 -1.0315657 0.2541567 -0.96577007 0.82847255 0.2672759 -0.91186035
0.7630388 -0.0051880516 -0.42572874 -0.7835431 0.67517793 -0.120063104 1.3400306 0.8466733
-1.670244 0.6934709 -2.4694662 -0.11436187 -0.7347455 0.42265666 -1.2613165 -0.23114078
-0.8420369 0.5969704 -0.22026202 1.5652155 -0.37018138 0.16723098 -2.478466 2.2442374
-0.31129846 1.3388329 0.026638035 1.7856262 -1.1447784 0.6567415 -0.5143127 -0.14659254
0.19687586 -0.033402275 -1.3205974 1.8781655 0.6300858 -0.12562819 1.2742494 -1.5343598
-0.6756243 1.6555111 1.0694706 -0.91919625 -0.45489386 1.4655113 1.4494276 -1.1135198
0.85699487 -0.8268659 0.11844241 1.1027769 -0.5823239 -0.67949975 -0.8749755 -0.6069745
-2.3329673 -1.1984828 -0.6732578 0.24502614 1.8159854 -0.50720686 0.12322504 0.8355639
-0.649659 0.6667171 1.147608 0.67058086 2.8872712 -0.38446024 -0.075144485 -1.8508614
-0.06959143 1.6364179 2.4817095 -0.3438779 -0.113938406 -1.0706885 -2.045633 0.6243005
-0.20067295 -0.29759887 -0.17284456 -0.15702629 0.2174811 0.9996502 0.10694824 -0.5680519
0.17091501 -0.37064 -1.6147877 1.002639 -0.33955076 0.8793394 1.6833816 -1.8182851
-0.9505209 0.68879604 1.1516933 0.957804 0.55303854 -0.989703 -1.2126569 -0.43702465
-0.6447827 1.3203641 0.882175 1.4405247 -1.4783489 -0.6538424 0.87806314 0.25741065
-1.3392744 1.3250265 -0.35010958 1.7604638 1.1152433 0.44263968 0.3363276 -0.48897254
0.8463781 -0.70011723 0.15166977 0.019167561 -0.05725385 0.4970362 1.5509114 -0.012136619
-1.0378621 0.58418155 -0.53731364 -1.0487481 -0.3852344 -2.642848 -0.7177906 0.83366525
0.959666 0.98494774 0.7900873 0.6426881 1.5041142 0.38651904 -0.6433774 0.386048
0.3782692 -1.3727357 0.3907334 0.25852582 -0.18775542 -0.47722527 1.2230996 -0.73425776
0.72079414 -2.1766322 1.4507511 1.0692306 1.2407761 -0.18347399 0.34608582 -0.38870007
-0.10033559 -0.25794098 -0.5026167 -2.0573225 0.32181248 -0.36789757 0.1774523 1.8929168
2.2219276 0.4232074 -1.1963265 1.9042714 0.23866619 -1.4370744 -0.7363975 -1.6254576

cls_token f4 [1, 1, 36]
00000000: f24f b0bf 2114 bf3f 7738 623d 2841 a3bd
00000010: 2064 333f fcc0 8a3d ef07 a5bf 0558 38bf
00000020: 57ab 983b 893c 053f bcc8 433f 3255 c13f
00000030: 553d 4fc0 04d2 df3d 8314 2b3f 9900 f1be
00000040: f60d acbd d6bc 7fbf 40c1 683f 2756 7a3f
00000050: 0185 6f3f 9d80 0cbf 965b f73e 68a9 093e
00000060: aa81 50bf d79f b9be b432 41be 3eb5 af3f
00000070: 5c29 56bf 3736 71bf 8277 203e 55e9 313f
00000080: a5f0 263f 0ed5 1f3f 61c8 3cbf a7cf 1cc0
-1.3774397 1.4928018 0.05522963 -0.07971412 0.70074654 0.0677509 -1.2893046 -0.7200931
0.004659097 0.52045494 0.7647817 1.5104125 -3.2381184 0.10928729 0.66828173 -0.47070768
-0.084011 -0.99897516 0.90919876 0.9778771 0.9356232 -0.5488375 0.48312062 0.1344353
-0.8144785 -0.3625476 -0.18866998 1.3727186 -0.8365686 -0.9422335 0.15670589 0.6949666
0.65210944 0.6243447 -0.73743254 -2.450174

to_patch_embedding.1.weight f4 [36, 12]
00000000: 98c6 053e 0cf1 8e3e 51c3 d0bd 859f 4fbe
00000010: 24e9 30be daa2 803d 41cd a93e bb87 c4bd
00000020: 10e5 b0bd 497f 843e c74a 713e 1769 a9be
00000030: 7ea2 073e 902c 5f3d 0e89 33bd 592c a13e
00000040: 5ad5 6fbe b084 92bd 9191 1ebe aa71 da3e
00000050: f364 57be fcc6 073e f270 063e 1882 2f3e
00000060: d0cf 66be 263e 3a3e 1213 8bbe 62a5 3cbe
00000070: fa29 de3d ded7 15bd 77ab 74bd 2e0c d6bd
00000080: 5eb6 19bd fe11 0a3e 20c6 90be 827f 48be
00000090: 249c 6a3c 9376 bdbd 666c c43d f224 a2be
000000a0: 7535 253e f4f7 103d 9f92 8dbe ee63 72be
000000b0: c6aa 90be 9106 83be bf0e d2bb 9372 54be
000000c0: 147d 3dbe c4c2 bbbd d9e8 523e 4f29 7abe
000000d0: 43a2 813d 4f02 c33d 1a13 803e af86 7f3c
000000e0: 38a0 babd 282e 51be e3cd bcbe 029b 713e
000000f0: 41a6 333e ea32 813e b5e5 493e 5278 3abe
00000100: 3c1c eb3d 7bab 92be aeb7 f33d c5b2 a63e
00000110: bb69 85be c928 babd 3266 23be 139f a23c
00000120: e927 543e c645 18be 4ae5 47be 9093 5c3e
00000130: 8830 f33c 223c 133e bb26 223e 31f7 4fbe
00000140: 2d5f 10be 5063 fc3d fe1e 40be aba2 273e
00000150: cd72 0dbe b5b3 223a 9e64 dabd 0ecf 9ebd
00000160: 07df 493e 9b42 703e 75e5 913e 6e2e cebd
00000170: 6df4 b63b a113 e7bd 71fd 01bc 8f0d 713c
00000180: 2da1 ad3d d6a2 dabd 92a0 d23b 9b0a 55bd
00000190: 0f6f 0ebe 9803 64be 3df7 923e dcef 08be
000001a0: fc05 2bbe 8f5f 813d 7f63 50bd 5765 3cbd
000001b0: a566 953d fc88 443e 73c7 84be 669f c0bc
000001c0: d38b 7fbd c068 193e 45c0 70be 2674 88be
000001d0: 327a 893e 38d0 18be de60 8bbe 2120 38be
000001e0: 1f83 453e 6b6c 90bd 6b68 613e 46a8 4e3e
000001f0: 8bf4 083c 6a21 27be 9e67 d7be b7b3 06be
00000200: 06da ae3c bace 6b3d 11b0 223e 0398 9d3d
00000210: 8b47 1b3d 0b33 5f3d b653 22be ee1e f03c
00000220: d96f 0f3e f9c1 203d 777d 893e b30a 4bbe
00000230: 9b1c 9cbe 5aff b6be 406d 853d 9425 e5bd
00000240: 3865 16bd 2c9c 7ebe 4d91 623e f2df efbb
00000250: 528b 1e3c c721 0e3e 16c9 b03e be92 11bd
00000260: 65b7 563d e86a 0fbd 6641 86be fe30 86be
00000270: fe00 e93d 106c 5d3b cceb f73d 8d5e a6be
00000280: f355 1cbe 8b5f 523e 0b23 86be 972c 5e3e
00000290: 227f 69be 7cf1 813e d1dd a2bd a95b 583d
000002a0: 780a e53c 912c 193e 1b38 813e 5a9f 5a3d
000002b0: ee49 e7bd 4d59 913d a414 4abe f99d b6be
000002c0: c23f 71be 0c40 1b3e f449 72bd 499e 9a3d
000002d0: d1e3 48be ceb6 46be 5aa6 5cbe 9c42 2b3a
000002e0: 3512 78be 0083 56be 1330 d63c b637 7dbe
000002f0: 7972 ec3d fb0a 1cbe 97aa 9d3e 825e 9bbc
00000300: 7865 90be a179 3f3e 6ca7 31bc 7519 833d
00000310: 401d 143d 0750 2ebd 3d3e 6bbe 4405 9abe
00000320: 0c60 58be 4bb8 16be 164e 3fbe 01a2 963e
00000330: abfd 81be 6a99 17be fbe4 82be efed 903d
00000340: 4a92 51bd a36f 2dbe 18cc 2b3e 034b 12bd
00000350: 394a 3d3e a3a9 8d3e dbd2 bf3e bea8 68be
00000360: 102a 53be be30 10bd b928 76be 0d9e fa3d
00000370: 7d43 113e 8892 323e 74bc 0f3e 7e7f 653d
00000380: 4cb9 a33d fb33 993e 7d06 3d3e 704c 32be
00000390: 477d eb3b f76e 4a3d 7582 043e f402 10be
000003a0: b9fd a13b 0ec0 79be d648 58bd 6dfc 34be
000003b0: 7b7f b23c da81 913e 3676 8f3e 728b 973e
000003c0: e8ac 3cbe a5b7 f7bd b98c b83d 4fa3 7c3d
000003d0: 8bc4 053e 38e3 23bd ac1d 293b 792d 0a3d
000003e0: 19ba 24be ba13 42be 99f8 92be ca81 a3bc
000003f0: a15e a9be fec1 b1bc 0883 a2bc fa4d acbd
0.13064039 0.2791828 -0.10193504 -0.20275696 -0.17276436 0.062810615 0.3316441 -0.09596201
-0.0863744 0.2587836 0.23563682 -0.3308799 0.1324558 0.054485857 -0.043831877 0.31479147
-0.23421231 -0.071542144 -0.15485217 0.42664844 -0.21034603 0.132595 0.13129023 0.1713947
-0.22540212 0.1818777 -0.27162987 -0.18422464 0.1084785 -0.03658282 -0.059733834 -0.10451542
-0.037527435 0.13483426 -0.28276157 -0.1957989 0.014319453 -0.09251132 0.09590988 -0.31668812
0.16133673 0.035392717 -0.27650926 -0.23670933 -0.2825529 -0.25590947 -0.0064104493 -0.20746832
-0.18504745 -0.09168008 0.20596637 -0.2442982 0.06329777 0.09521925 0.25014573 0.015596076
-0.091125906 -0.20427763 -0.3687583 0.23594287 0.1754389 0.25234157 0.19716533 -0.18209961
0.11479995 -0.28646454 0.119002685 0.32558265 -0.26057228 -0.090898104 -0.15956953 0.019851243
0.2071835 -0.14870366 -0.1952106 0.21540666 0.029686227 0.14378408 0.15835087 -0.2030914
-0.14098807 0.1232363 -0.18761823 0.16370647 -0.13813324 0.0006206588 -0.106637225 -0.07754336
0.19713984 0.23462908 0.28495374 -0.100674495 0.005583337 -0.11283041 -0.00793396 0.014712705
0.084780075 -0.1067559 0.006427833 -0.052012067 -0.13909553 -0.22266996 0.28704253 -0.13372749
-0.16701502 0.063170545 -0.050876137 -0.045995083 0.072949685 0.1919288 -0.25933418 -0.023513507
-0.062389206 0.14981365 -0.23510845 -0.26651114 0.2685104 -0.14923179 -0.2722234 -0.17981006
0.192883 -0.07051929 0.22012489 0.20181379 0.008359085 -0.1632134 -0.4207124 -0.13154493
0.021344196 0.057570197 0.15887477 0.076950096 0.037910026 0.054492038 -0.15852246 0.029311623
0.1400751 0.039247487 0.26853535 -0.198283 -0.30490574 -0.35741693 0.065149784 -0.11188808
-0.036717623 -0.24864262 0.2212574 -0.0073203975 0.009676771 0.13880073 0.34528416 -0.035540335
0.052420992 -0.035014063 -0.2622177 -0.26209253 0.11377142 0.0033786334 0.121055216 -0.32494012
-0.15267162 0.20544259 -0.2619861 0.21696697 -0.22802404 0.2537955 -0.07952464 0.05282179
0.027959093 0.14958407 0.25238118 0.053374626 -0.11293398 0.07097111 -0.19734436 -0.356674
-0.23559478 0.1516115 -0.05915256 0.07549722 -0.19618155 -0.19405672 -0.21547833 0.0006533058
-0.24225695 -0.2094841 0.02614597 -0.24728283 0.115452714 -0.15238564 0.30794212 -0.018965963
-0.28202415 0.18698741 -0.010843139 0.0640134 0.036160707 -0.04255679 -0.22972961 -0.30082142
-0.21130389 -0.1471874 -0.18682131 0.29420474 -0.25388846 -0.14804617 -0.25565323 0.07076632
-0.051164903 -0.16937117 0.16777074 -0.035716068 0.18485345 0.27668485 0.37465557 -0.2272062
-0.20621514 -0.035202734 -0.24038972 0.12237177 0.14185901 0.1743871 0.14036733 0.05602979
0.07994327 0.2992247 0.18459506 -0.17411971 0.007186565 0.04942223 0.1294039 -0.14063627
0.004943576 -0.2438967 -0.052803837 -0.17674418 0.021789303 0.2841938 0.28019875 0.29598576
-0.18425333 -0.12095574 0.09011216 0.06167918 0.13063256 -0.040011615 0.002580504 0.033734772
-0.16086616 -0.18952838 -0.2870529 -0.01995935 -0.3308001 -0.021698948 -0.019837871 -0.0841331

to_patch_embedding.1.bias f4 [36]
00000000: 0970 8dbd 2361 81bd fc74 9a3c bdf7 913e
00000010: cc14 443e dcf0 c7bc 44a6 863d 4860 55be
00000020: fa78 85be dcf6 d7bd 3a0f 263e 7158 2dbe
00000030: 19bd ad39 325d 8d3d 34a7 e23d 0b72 743e
00000040: 5f92 b63d 1d2f 633e 42a7 863e 39cb e53d
00000050: a51e c9bd 90a9 7e3e aff3 333d 48d4 483e
00000060: b24a b13d cb4d 743e 9114 f23c 603a 883c
00000070: 90c5 883b e37c 723e 6d38 613d c327 5fbe
00000080: 7630 763e c8e5 e13d c3ac 97be 23c5 3d3c
-0.06906135 -0.063173555 0.01885461 0.28509322 0.19148558 -0.024406843 0.065746814 -0.2083751
-0.2606886 -0.105451316 0.16216746 -0.16928269 0.0003313802 0.06902541 0.11067048 0.23871629
0.08914637 0.22185941 0.26299483 0.11220402 -0.09820298 0.2486937 0.043933567 0.19612229
0.08656825 0.238578 0.029550822 0.016629398 0.004173942 0.23680453 0.054985452 -0.21792512
0.24041924 0.110301554 -0.29623994 0.011582646

transformer.layers.0.0.norm.weight f4 [36]
00000000: 5340 883f b053 863f 3ace 833f cfe9 893f
00000010: 8e4f 823f 66b2 883f 4794 813f 2247 893f
00000020: 73b8 813f 29aa 833f c9b4 853f efae 833f
00000030: 4fe3 853f 83d2 803f 8e80 843f 1132 843f
00000040: 83ed 853f 3a4c 853f 1cfc 833f 8f0a 843f
00000050: d82d 8d3f 36ef 873f f88c 823f aae2 863f
00000060: 2a5a 833f e6b2 863f fa1e 7d3f 2264 833f
00000070: 8c0c 873f d2ab 873f 41a9 873f 6df2 853f
00000080: 867c 853f 042d 813f 1c6b 833f 473f 853f
1.064463 1.0494289 1.029731 1.0774478 1.0180528 1.0679443 1.0123376 1.0724833
1.0134414 1.0286304 1.0445796 1.028776 1.0459994 1.0064243 1.0351732 1.0327779
1.0463108 1.0413888 1.0311313 1.0315722 1.1029615 1.0619876 1.019927 1.0537922
1.0261891 1.0523345 0.9887539 1.0264933 1.0550704 1.059931 1.0598527 1.0464607
1.0428627 1.0091863 1.0267062 1.0409936

transformer.layers.0.0.norm.bias f4 [36]
00000000: a6fe 11bb 39fd 7a3c d2de 4abb e63f 20bb
00000010: 15f3 1dbc 5c2f 153b c201 1c3c 989f 00bb
00000020: dd7e f2bb 4d1c 313c adff c6bc 23cf a539
00000030: 7172 01bc 6627 e8bb 3190 243c e54d 26b9
00000040: 5075 1b3c fa1b 303b d327 e2ba 567f 4c3c
00000050: eed3 92bb 327b 92bc d208 03bc aa62 123a
00000060: b0eb 0fbc 0792 dfbb 76ab 9d3c cc91 193b
00000070: 8572 693b 5e27 26bb 0856 d03c a911 25ba
00000080: 0ca4 643c 0b46 68bc b471 ce3a 52b3 e2bb
-0.0022277026 0.015319162 -0.0030955565 -0.002445215 -0.009640475 0.0022763824 0.0095219035 -0.0019626375
-0.007400377 0.01080997 -0.024291838 0.0003162558 -0.00790082 -0.007084775 0.010044144 -0.00015860012
0.009488419 0.0026872144 -0.00172543 0.012481531 -0.0044808304 -0.01788101 -0.007997708 0.000558416
-0.00878422 -0.0068228277 0.019246798 0.002343285 0.0035621237 -0.0025353055 0.025431648 -0.0006296882
0.013955127 -0.014176856 0.0015750439 -0.0069183493

transformer.layers.0.0.fn.to_qkv.weight f4 [216, 36]
00000000: 9dda cb3d 1e93 41be d4d8 283e 8dd7 54bd
00000010: b5aa 08be 117e 853d fcc1 8fbd 076c 1b3d
00000020: ca72 d1bb 6960 df3d 030f 363d 07d2 8e3d
00000030: 0eb8 9d3d 2765 6fbe 3a62 1e3d 6136 47bd
00000040: c797 2abe f33b 013e 2964 25be 6be4 68bc
00000050: 4923 193e 2b20 73bd 4e3b ff3d 8ecd 7cbe
00000060: 17cc 1f3e 42f1 173d 20e4 413d dad7 34be
00000070: c6ce c1bd dbf5 513e 4dcf a7bd 38c0 8fbd
00000080: 0da1 a1bd 46aa 5ebc dea2 543c 32a8 423e
00000090: 05fd bd3d d7af e13d 07a2 5d3e 7364 aebc
000000a0: b896 cbbd f656 1dbe f8d3 58bd 52e9 dc3c
000000b0: 2488 e33d acfe 57be a015 4cbd bc4d 8ebd
000000c0: e772 02be e2d3 18be 1eeb c73d 53b3 f8bd
000000d0: 2cd4 c83c a8a3 bc3a d30c a33d 630a 853c
000000e0: 4928 283e 01ae 89bd e47a 5ebd eba4 febd
000000f0: e273 6c3d ec5e 45be fe58 c7ba efbd 11be
00000100: c748 bfbd 9e72 a9bd e655 d53d 3243 8d3d
00000110: f8b3 9f3d f6f2 c6bd 74fb 9dbe 7943 04be
00000120: 52cc 07bc 7215 2f3d af93 643c a1c1 963d
00000130: 8627 06bd 3c75 1abd 06aa a5bd a0ca a3bd
00000140: 0223 163e 5bbb 1b3d b817 c73d dc74 f0bd
00000150: afde d6bd 3a3e adbd 69fb b8bc 6dfd ebbd
00000160: f94c ba3c 0696 5bbd e66e 2a3e 910d 193e
00000170: 7be5 873c 2670 0b3e f2fe 2abe 97f9 99bd
00000180: cac3 6dbd 9249 aabb d3e5 d13d 5589 87bc
00000190: 6c3a 03be 0ccd fe3d d25d c5bd 52de 93bd
000001a0: 91b5 f2bd c211 873c f859 823d 640a 193e
000001b0: 8611 2e3d 8498 893d 0bb9 89bd 84c0 c1bd
000001c0: bae9 ab3d 83be 13bc ee52 f33d 51dc 04bd
000001d0: 5d4e d93d 75af 193e b355 36be f6aa 8ebd
000001e0: 8808 1dbe e5e8 0dbe 69a3 a43a 5b9e eebc
000001f0: 412d f7bc 4c3e 213e 4ab8 c3bd ac43 063d
00000200: 37ae f63c 84ba f03d b013 02bc d81d 2e3c
00000210: 8828 1a3e 6060 b93d dce5 2bbe cdf9 9dbd
00000220: adb4 873d 699c 22be 3e62 c43d 9d33 003d
00000230: c0a5 063e 0bce d6bc f795 94bc b505 1d3e
00000240: cd7b aabd 3d1f 053e 06f8 a23d 17ef 11bc
00000250: 21ce 1c3e 884c b93d 858c 3e3e fe19 d4bd
00000260: b9d3 d13d 7d1d f63d 21d3 84bd bbd3 c1bd
00000270: 7324 ae3d b3ce d9bc 937c f5bd a083 213e
00000280: ca10 3abe 6e9a fcbd 91fd c13d 278a 9ebc
00000290: 9030 2cbd 231f 74bd d58a a53d 8332 fdbd
000002a0: fdd1 363d ca75 07be 0f5b 9a3c 24c1 203d
000002b0: 0ece 453e 4464 cd3c 4c6a 9b3c 5aeb fdbd
000002c0: 86b9 163c 28c5 23bd 3f71 4d3d 90a4 94bd
000002d0: 9e05 db3d d29b a83d b74f 7ebe e2a9 433e
000002e0: c9e2 b03c 78cc c93d 64f5 bfbd ee4c dabc
000002f0: 0a33 3ebe 8052 cb3b 3d43 64bd bb86 e5bd
00000300: 1fd0 00be f56d 32bd 5a18 d4bd 0e20 713c
00000310: 306c 223d a708 cfbd e332 a6bd 4a71 3a3e
00000320: 6bf2 a3bd 0acb 87bc 0752 4cbe a0d4 463e
00000330: 0148 1dbc c786 ccbd f28b 043e 60e9 cd3b
00000340: 629e f33d f63b 2ebd 4d79 15be f87c 8e3d
00000350: c769 2b3e df75 0abe ac7f d73d a5a0 e5bc
00000360: 71e9 0ebe 9ec9 b2bc f262 a63d caf6 5f3e
00000370: 9a7c 34bd 6c44 a1bd a6e3 aabd bff7 18bd
00000380: e25f 66bc ffa5 94be 4f5b e93d 08a0 6fbd
00000390: 6328 083e 61cd 583e 3a30 7a3d 85ca 96bd
000003a0: b858 f7bd 2e2b 96bd e7ef a63d 7360 debd
000003b0: 9edf 203e 872e 9cbc 6748 86bc ae4c 463e
000003c0: 1d49 febd a02f 00be f8f8 cf3d 4a14 153e
000003d0: 2703 61be 8baf e8bd 511f 4ebc cd1f dc3d
000003e0: a971 a13c 2e0e e63d 3612 1d3e 8d09 43bd
000003f0: fea1 753d df5d 313d a805 cabc 4a96 953d
0.099538065 -0.18903777 0.16488963 -0.051963378 -0.1334637 0.06518186 -0.070194215 0.03794482
-0.0063918578 0.10907061 0.04444791 0.06973653 0.07701121 -0.2337843 0.038667895 -0.048635844
-0.16659461 0.12620525 -0.1615149 -0.014214615 0.14954866 -0.05935685 0.12462483 -0.24687788
0.15605198 0.037095316 0.047336698 -0.17660466 -0.09463267 0.20503943 -0.08193836 -0.07019085
-0.07892046 -0.013590401 0.012978284 0.19009474 0.09276775 0.11019867 0.2164384 -0.021288132
-0.09940857 -0.15365204 -0.052936524 0.026966725 0.11109951 -0.21093243 -0.04982531 -0.069484204
-0.12739144 -0.14924577 0.09761642 -0.121435784 0.024515234 0.0014392035 0.079614304 0.016240304
0.16421618 -0.06722642 -0.054316416 -0.12433799 0.057727702 -0.19274491 -0.0015209017 -0.1423261
-0.09340053 -0.082738146 0.104167745 0.06897582 0.07797998 -0.0971431 -0.30855906 -0.12916364
-0.00828846 0.04274506 0.013951226 0.073611505 -0.032752536 -0.03770946 -0.0808907 -0.07997632
0.14661792 0.038020473 0.09721321 -0.11741039 -0.10491692 -0.084591344 -0.02258082 -0.115229465
0.022741782 -0.05360987 0.16643867 0.14946581 0.016588917 0.13617 -0.16698816 -0.075183086
-0.058048047 -0.0051967585 0.102489136 -0.016544977 -0.12815255 0.12441453 -0.096370354 -0.072201386
-0.11851037 0.01648796 0.063648164 0.1494537 0.04249718 0.06718543 -0.06724747 -0.094605476
0.08394189 -0.0090175895 0.11881052 -0.032436673 0.1061065 0.15008338 -0.17806129 -0.06966202
-0.15335286 -0.13858373 0.0012560907 -0.029128244 -0.030172946 0.1574642 -0.09556635 0.03277938
0.030112369 0.11754325 -0.007939264 0.0106272325 0.15054524 0.09051585 -0.16786903 -0.07713661
0.06626258 -0.15879978 0.09589051 0.031299222 0.13149166 -0.026221296 -0.018137915 0.15334208
-0.083243944 0.13000198 0.07957463 -0.008907101 0.15313007 0.090478 0.18608291 -0.1035652
0.10245461 0.12017343 -0.06485582 -0.094642125 0.08503046 -0.02658782 -0.11986651 0.15772867
-0.18170467 -0.123341426 0.09472192 -0.019352986 -0.0420385 -0.059600007 0.08083121 -0.1236315
0.044633854 -0.13228527 0.018842248 0.039246693 0.19316885 0.025072224 0.018971585 -0.123984054
0.009199506 -0.039982945 0.050156828 -0.0725795 0.10694431 0.08232845 -0.24835096 0.19107774
0.021592515 0.098534524 -0.093729764 -0.026648011 -0.18574157 0.006204903 -0.055728186 -0.112073384
-0.12579392 -0.043561894 -0.10356207 0.014717115 0.039653957 -0.10109072 -0.081151746 0.18207279
-0.08005222 -0.016576309 -0.19953166 0.19417048 -0.009599687 -0.09986644 0.1294401 0.006283924
0.118954435 -0.042537652 -0.14597054 0.0695743 0.1673957 -0.13521527 0.10522398 -0.028030703
-0.13956238 -0.021824654 0.08124341 0.21871486 -0.04406414 -0.078743786 -0.08344202 -0.037345644
-0.014060946 -0.29032895 0.11394369 -0.058502227 0.13296656 0.21172096 0.06108115 -0.07362846
-0.12077469 -0.073324546 0.081512265 -0.1085824 0.15710303 -0.019065155 -0.016391946 0.19365188
-0.12416289 -0.12518167 0.10154909 0.14558521 -0.21973859 -0.11361607 -0.012580709 0.10748253
0.019707518 0.11233173 0.15338978 -0.04761653 0.05996894 0.043302413 -0.0246609 0.07304056

transformer.layers.0.0.fn.to_out.0.weight f4 [36, 72]
00000000: 60d0 8cbd fd44 003d b885 be3d 7e9d 5e3b
00000010: b58c 113d 583b 5c3d 82e9 f2bd bc1b 9fbd
00000020: e57d 163e 86ad f9bd 0354 a9bd b351 9ebd
00000030: fb4d c7bc 5404 3a3d ffc0 af3d 8b39 893c
00000040: 18b9 e03c ffaa 0fbb 56cb 2d3c 0af4 81bc
00000050: 2298 d1bd 7d27 1ebd 216d 00be f0c4 733d
00000060: 8ee4 c63c 440d cd3d 1f59 e33c e931 c4bd
00000070: bb2a 133e c9a4 debd 4805 a0bd c031 b93d
00000080: 39fc 8dbd 7436 acbd e1f1 143d 2502 f3bd
00000090: bcb7 84bd 3ae2 df3d 8885 b6bd 2d59 23bd
000000a0: 7310 be3d ee93 f63b 80d6 d13c 0451 a8bd
000000b0: b646 b33d 78cc 8fbd cd34 f4bd 2482 143d
000000c0: 9252 acbb 2e9c 5cbd 7a8e c03c 3d51 c13d
000000d0: 3f23 cabd a45b 5b38 3dba 753c 5963 bcbd
000000e0: f3fd 05bd b667 193e 04ed 183d fa31 a3bd
000000f0: bc03 ee3d f5e6 c03d dd4e bcbd d1eb 85bd
00000100: 9f12 89bd 6e7c e9bd 76c8 56bd 00ed f83d
00000110: 4dfb 02be 784d 0dbd 0c19 843d e6c7 cabd
00000120: d710 bc3d 4f0c 953d cb5e d7bd 509f afbc
00000130: 5380 ac3c 1d03 033e 93e6 853c b674 ecbd
00000140: d051 363d 6240 233d 4694 6ebd aed9 f5bd
00000150: 5356 fbbd 55b1 513d 4ef8 26bd cfbd 553a
00000160: cd11 93bd ae94 02be 495b 6c3d 3723 7bbb
00000170: 9c6d 083a e456 29bd 1e10 143d 48b2 fbbc
00000180: 0d1e 3d3d 7570 343c e179 05be 255b dabc
00000190: 2777 aa3d ff72 80bd 44f3 c83d 86ef 933d
000001a0: 108f b2bd 1adc c83b 802a 873b 8d45 7cbd
000001b0: 9659 be3d 3ed9 b53c 995f 313c e972 0c3e
000001c0: d9ce 79bd c2fc 1a3d d770 b4bd 8f11 803c
000001d0: fbd7 3bbd 9827 a43d c0f3 3bbc 6d75 a63d
000001e0: c5e5 96bc 2ecc 0e3d d4ab f9bd 927a 1abc
000001f0: 0f08 26bd 023d febd 93c3 42bd 4bec 28bc
00000200: 329f 02bd dfc7 ccbb 2df7 c2bd 2ef7 233d
00000210: 3410 c13d dd8b 963d 3b09 8a3d 378f e33c
00000220: 23b1 9d3d a600 9d3d 18d4 a83d 6d5d 813d
00000230: e379 9b3d 6514 2cbe 49ac 9f3c 1128 74bc
00000240: 8eb8 97bd 8235 bebd ff98 aabc a483 083e
00000250: 9362 30bd 5a97 9ebc 95a7 8a3d 5f27 3dbc
00000260: 4b3b c73d 3186 a53d 26ad adbc 279f 9ebb
00000270: 62f0 c9bd e35e 91bd 8f42 4dbd c7ba af3d
00000280: 5481 f43c 16fa 003e 9225 fb3c 7079 713d
00000290: c151 423d 9416 6cbd 290b 2abd c096 0abd
000002a0: 5340 813c 1f63 053d 2a83 85bd ad22 5f3b
000002b0: 5e7a 9cbc 97c5 56be c83f 13bd 3442 e3bd
000002c0: 5148 d3bd ccd1 883c 15bd 7b3d bff8 363d
000002d0: 1772 acbd ef83 5b3d 7d99 f33d 3d5a b1bc
000002e0: 696e 913c 01d5 bb3b 44cc ca3b 852b 183d
000002f0: 6a53 c0bd 1aa8 253d eed4 d43d 949c 3ebd
00000300: b42c c2bd ef09 003b 06b0 9ebd 774b 793c
00000310: d9ee b4bb 22ec 663a 8422 8ebd 824a 653d
00000320: f89c e8bc c34b 7a3d 0bad 8abd b8dd b43d
00000330: 6eeb 82bd 5e0f 173b ff2d 203d 8201 bb3d
00000340: 2533 c63d a3ae 1dbd 9a6e 3e3d f00c 3cbd
00000350: ec4b 883c 8c55 f23c 0802 fd3d 7fcc 373c
00000360: aa58 26bd 144c 58bc 720e c1bd bb60 c5bd
00000370: cfe5 3abd bf7b 91bd ba12 3e3d 4be1 bf3d
00000380: debe afbd 51b2 f9bb bd8e 1bbd 9333 573c
00000390: 8ddb 403d 12ce a7bd 3e4c b6bd efe6 0abd
000003a0: e16a 2bbd d0b7 c9bd b31b d53b dde1 ad3c
000003b0: 7cd7 b7bd 335f ebbc 8dcb e13d 6da7 6e3d
000003c0: 0d59 1a3d 2564 d73d 14da dfbc 74e9 9c3d
000003d0: 57a9 9bbd 229c c13d 9c4e 9dbd 7351 be3c
000003e0: ed4c ecbc 098c 0e3c dc62 02bd fe5b a5bd
000003f0: bb30 2e3d eca6 a53d 660a a1bd 4a89 f4bd
-0.06875682 0.031315792 0.093028486 0.0033968384 0.03553458 0.053767532 -0.11860944 -0.07768962
0.14696462 -0.121913 -0.08267977 -0.07730427 -0.024329176 0.045414284 0.08581733 0.016751071
0.02743201 -0.002192199 0.010607561 -0.015863437 -0.10234095 -0.038611878 -0.1254163 0.059513986
0.024278905 0.10012296 0.027752457 -0.09579832 0.14371769 -0.10871274 -0.07813507 0.09042692
-0.06932873 -0.084088236 0.036363486 -0.118656434 -0.06480357 0.10931821 -0.08912188 -0.039879967
0.09280481 0.007524959 0.025614977 -0.082185775 0.087537214 -0.07021421 -0.119241334 0.036256924
-0.0052588666 -0.053859882 0.023505438 0.09439323 -0.09870004 5.2299016e-05 0.014998016 -0.091986366
-0.032712888 0.14980969 0.03733541 -0.07968517 0.11621806 0.094190516 -0.091947295 -0.06539119
-0.06693005 -0.11400686 -0.05243727 0.12154579 -0.12791176 -0.034497708 0.0645009 -0.09901409
0.091828994 0.07277738 -0.10516127 -0.02143827 0.021057284 0.12794156 0.016345298 -0.11545698
0.044511616 0.039856322 -0.058246873 -0.1200441 -0.122723244 0.051194508 -0.040764146 0.0008153589
-0.071811296 -0.1275203 0.057704244 -0.003832055 0.00052043214 -0.04134263 0.036148183 -0.03072466
0.046171237 0.01101314 -0.13034774 -0.02665479 0.08323508 -0.06271934 0.09812024 0.0722342
-0.08718693 0.006129754 0.0041249394 -0.061589766 0.09294431 0.022198316 0.010826015 0.1371571
-0.06098828 0.037838705 -0.08810585 0.015633373 -0.045860272 0.080153644 -0.011471689 0.08127866
-0.01842011 0.03486269 -0.12190977 -0.009428637 -0.04053503 -0.1241398 -0.047549795 -0.010310243
-0.0318901 -0.0062494124 -0.09519801 0.04003065 0.094269186 0.073508956 0.06740042 0.027778251
0.07699802 0.07666139 0.08243579 0.06316648 0.075916074 -0.16804655 0.019491332 -0.014902131
-0.07408248 -0.092875496 -0.020824907 0.13331467 -0.043062758 -0.01935928 0.06770245 -0.011545031
0.09728106 0.080822356 -0.021200728 -0.00484075 -0.098603025 -0.07098176 -0.050112303 0.08580547
0.029846825 0.125954 0.030657563 0.058953702 0.047441248 -0.05763872 -0.04151455 -0.033835173
0.015777742 0.032565232 -0.06519158 0.0034047768 -0.019101318 -0.20973812 -0.0359495 -0.110966116
-0.10316528 0.016701601 0.06145962 0.044670817 -0.084201984 0.05359262 0.1189451 -0.021649474
0.017752843 0.005732179 0.006188901 0.03715088 -0.0939091 0.040443517 0.103921756 -0.046536043
-0.09481183 0.001953717 -0.077484176 0.015215746 -0.005521637 0.000880899 -0.06940177 0.05597926
-0.028395161 0.06110741 -0.067712866 0.08831352 -0.06392561 0.002304993 0.039106365 0.09131147
0.09677724 -0.038496625 0.046492197 -0.045910776 0.016637765 0.029581808 0.12353903 0.011218189
-0.0406119 -0.013201732 -0.09426583 -0.096375905 -0.04562932 -0.07103681 0.046404578 0.09369143
-0.08581327 -0.007620134 -0.037977923 0.013134855 0.04708438 -0.08193602 -0.08901261 -0.03391164
-0.041849975 -0.098495126 0.006503546 0.021225864 -0.08976647 -0.028731918 0.11025152 0.05826514
0.03768258 0.10517148 -0.027325667 0.07661715 -0.076006584 0.09453608 -0.07681009 0.023232197
-0.028845275 0.008700379 -0.03183256 -0.08074187 0.04252694 0.080884784 -0.078633115 -0.11940248

transformer.layers.0.0.fn.to_out.0.bias f4 [36]
00000000: bede c43d 019f fa3c fbe8 c7bd 82f9 dbbd
00000010: 00b5 4c3d 3797 933d a9d2 de3b c0b9 f8bc
00000020: 14a3 823d 9d9b ce3b 8179 eabc 50d9 9b3d
00000030: 9b81 3c3d 1dcd 373d 7c2d 82bc 95f0 6f3d
00000040: 66a1 6abd 83e9 623d 5546 aa3d 0c15 a23b
00000050: 7a2a e53b ee19 243d f73d 023a cae3 b6bd
00000060: 6ec5 f1bd 41f8 5f3d f9c4 8bbd d68a 56bd
00000070: 67cf 28bd 7173 d7bd 40d8 d5bc 7ad4 b83d
00000080: e0e3 e7bc ffd5 cb3d b325 da3d ec90 4ebd
0.09612797 0.030593397 -0.097612344 -0.10740949 0.049977303 0.07206576 0.006800015 -0.03036201
0.06378761 0.0063051716 -0.02862239 0.076098084 0.04602204 0.044873346 -0.01589083 0.058579046
-0.057282828 0.055398475 0.08314196 0.0049463566 0.006993589 0.04006379 0.000496834 -0.08930166
-0.11805235 0.054680113 -0.06824679 -0.052378498 -0.04121342 -0.105200656 -0.026104093 0.09024902
-0.028306901 0.09952926 0.10651722 -0.050431177

transformer.layers.0.1.norm.weight f4 [36]
00000000: 3523 7d3f 1ed0 7f3f 1972 7f3f 78d2 873f
00000010: 23dc 813f bb41 863f c919 823f b2f2 803f
00000020: d5e7 773f cc99 813f b6ac 823f 90e0 803f
00000030: c3d1 7f3f 1aec 823f 2224 833f 1313 853f
00000040: 17b3 813f b537 843f b857 813f a154 853f
00000050: 0107 8a3f 8adf 853f 58b3 893f 6971 833f
00000060: 5fd2 7f3f a965 833f 91c0 803f aa98 7e3f
00000070: 5ed9 7a3f d385 803f a303 7e3f 78fe 813f
00000080: 6cc0 803f f100 833f e81f 853f dfec 7d3f
0.98881847 0.99926937 0.99783474 1.0611105 1.0145305 1.0488809 1.0164119 1.0074065
0.9683812 1.012506 1.0208957 1.0068531 0.99929446 1.0228302 1.0245402 1.0396446
1.0132779 1.03295 1.0104895 1.0416452 1.0783387 1.0458844 1.0757856 1.0268985
0.99930376 1.0265399 1.0058767 0.99451697 0.97987926 1.004084 0.992243 1.0155783
1.0058722 1.0234662 1.0400362 0.9918956

transformer.layers.0.1.norm.bias f4 [36]
00000000: 65d0 8b3c 67ea a3bc 0eec c0bb 1940 26ba
00000010: c87c 3b3b d73d 8dbb 8c62 5f3c 2bbf babb
00000020: 53cd 31bb e57b babb bd28 88bb f30f 1fbc
00000030: 0507 623c f914 61bb d49e b83b b204 c83c
00000040: 10cf 04bc 7b2b 66bc ee7a 51bc 30ab 53bb
00000050: f1d8 cdbb adbd a73b a481 c4bb 12ca 50bc
00000060: 8bbf b339 adf7 29bc 22ef 3fbc 4724 d0bc
00000070: a5a2 803c 09bb 5cbc 28c9 29bc 35bc 51bb
00000080: b8c0 d43a 5202 373c 3ea3 ecbb e6c1 2a3c
0.017067144 -0.020009233 -0.005887515 -0.0006341949 0.002860831 -0.0043103504 0.013634335 -0.0056990585
-0.002713044 -0.005691039 -0.004155247 -0.009708392 0.013795619 -0.0034344776 0.005634168 0.024416301
-0.008106008 -0.0140484525 -0.012785656 -0.003229808 -0.006281965 0.0051190467 -0.0059968997 -0.01274349
0.0003428425 -0.010373992 -0.011714729 -0.025407923 0.015702555 -0.013472327 -0.010362901 -0.003200305
0.0016231751 0.011169987 -0.0072216084 0.010422206

transformer.layers.0.1.fn.net.0.weight f4 [72, 36]
00000000: 9fee 31bb 54c7 1f3e 5359 c3bd 3a11 e03d
00000010: dcdb ab3d 6005 55bd 68c1 243e 7a0c 22be
00000020: 36bb 26bc be17 a4bd 9eb2 a8bd a0b7 25bd
00000030: 04c4 2c3d 2765 dcbc cee5 89bd 8568 db3d
00000040: 12a5 f7bd ea69 f7bd 3868 303c cf8b 093e
00000050: 168b f7bd 4d25 253e c7c2 0ebe 6fcb 1cbe
00000060: 322c bebd 0440 cbbd d3fa 08be ccd8 013e
00000070: 5a35 243e bcdb 95bd 0308 cabd 2c7c f53d
00000080: 119c 05bd ef38 333d b868 0c3e 0d36 063e
00000090: 2472 a3bd 5494 153e 8d0c 273e 2c41 153e
000000a0: 28d0 06be 09c0 02be 77fe d5bd 6220 bf3c
000000b0: db62 353d 52ff fd3d 09c8 19be 34d7 c4bd
000000c0: 670e 093e 3cc6 aabd ae04 aa3d de09 f03c
000000d0: 38e3 d3bc f7c7 ae3d d5b4 9e3d 4816 00bb
000000e0: cd46 113e eb68 eabd 5e73 d43d 5067 dc3d
000000f0: 6e17 5cbd e75e 04be cf17 f53b 25ff 1abd
00000100: 3515 40bd ad94 09bd c4f5 cfbd 54f7 e13d
00000110: 3427 853d 60b6 03be 0d51 cd3c 1c84 ee3b
00000120: b579 753c 705d 2b3e f833 b0bc bfd6 02be
00000130: 6aed 27be 6444 45bb 3b9f 9dbd ee68 10bd
00000140: fecf 46bd 0bec 2d3c b47f 21bd e768 0c3e
00000150: e992 123e f1c1 1ebd f2cf 59be e168 8fbd
00000160: 31b0 f03d 5381 dfbc 2e83 663c 3895 1f3e
00000170: d890 ebbd 558a 04bd 3dbb dbbd 4d38 13bd
00000180: b774 92bd e260 263e 51bc f43d 9dc7 e03c
00000190: e66c 09be 6adf 61bc aaac 0fbe 9ea1 673c
000001a0: 4b41 61bd f00c 19be ba80 be3d 0a7e 783d
000001b0: 0e62 153e 3015 013e 0da5 97bd eadd 8b3c
000001c0: 8d6f efbd b699 8abd 7552 31be 7d4e 1ebe
000001d0: 10ad 9fbc 49ef 893c e460 c0bd 133c 323d
000001e0: db58 cdbd 6082 db3c 6868 6e3d 3dd0 15be
000001f0: 9d97 7abd d5a2 83bd 0bca 8bbd 98c6 7a3d
00000200: 0e54 273c 1a30 efbd ba0c 3abe aa28 c7bd
00000210: dc5a 74bd 2c4b 98bd dc8d d33d 498f 7e3b
00000220: f506 89bd 2fec 06be 9750 413d f5fa 043c
00000230: ab7f 2c3d afaa ccbd 9a71 97bd 7dc8 dcbd
00000240: 134a 133d b24a 3fbd bb1e 1cbe dabb 6c3a
00000250: 0ec9 dbbd 4a3f ff3d a127 bbbc 3d99 1f3e
00000260: f9d3 ea3d 41e9 163d 9263 30be cc95 6dbc
00000270: 32d4 06be a2d3 153e 1072 a4bd 8019 133e
00000280: 894e a0bd 4882 253d 7eee 7fbc 4f1b f0bd
00000290: 665e 423e c77a 81bd afea 8d3d 891c 3e3e
000002a0: 5962 1b3d 81e4 34be 5396 30be 8668 c4bd
000002b0: 5259 45bc 83c2 b43c cc05 06bd 9e00 65bb
000002c0: dde9 483c 8a94 f23d b81f f6bd b5d3 e43c
000002d0: 1e7e 59bd 2d3b bb3c 53f1 8cbc 6a9f 533e
000002e0: d75a 183e f99e f5bd a23a 20be 369c 2e3d
000002f0: 9556 b4bd 92fa 193e 2828 d03c c163 8e3d
00000300: ecbf a23d 90ba e73c f0b8 cb3d 18e6 c4bc
00000310: d4b1 5a3d 7cf4 ce3c 2b98 933d dadb 50bd
00000320: d9de 883d 93e0 153e 43a0 523e 8614 14be
00000330: 9dc6 b13d 6326 aa3d 7299 ef3d 84ab d1bd
00000340: c48c 1fbd 58b5 cf3d 59a9 bf3d d009 64bd
00000350: 109f 723d 6877 5abe 8fae 063c d791 633d
00000360: b969 c63d 96ed 0bbe 2775 bdbd 179c b93b
00000370: 2058 343e 596d 713d 75f5 5b3c defa d73d
00000380: 8f86 2ebe 0ed7 42bd da43 4dbe e0ee e93c
00000390: aaee 103e 2abe edbc 4e95 99bd 4dad cdbd
000003a0: 5b3a b13d 3c48 613c 144f 2e3e b972 0b3e
000003b0: 237b a33d 9608 e83c 26b3 bebc 6308 d83d
000003c0: 3b71 acbd cb2d 96bd 2aa5 503d 9819 4d3e
000003d0: 60ec f1bd b834 0b3e a37b b3bc 07fb 63bc
000003e0: 9bbb a23d 5bf6 d1bd 892f 113e 19e4 6fbd
000003f0: 9136 0e3e e95c e83d 8102 173e 131b 373e
-0.0027150286 0.15603381 -0.095385216 0.10940786 0.08391544 -0.05200708 0.16089404 -0.15825072
-0.0101764705 -0.08012341 -0.082371935 -0.04045832 0.042179123 -0.026903702 -0.06733285 0.10713295
-0.120920315 -0.120807484 0.010767035 0.13432239 -0.120870754 0.1612751 -0.13941489 -0.15311979
-0.09285773 -0.099243194 -0.13376932 0.12680358 0.16035977 -0.07317302 -0.09864809 0.119865745
-0.03261954 0.043755468 0.13711822 0.13106556 -0.07980755 0.14607364 0.16313381 0.14575642
-0.13165343 -0.12768568 -0.10448926 0.023330871 0.04428373 0.12402214 -0.15017714 -0.09611359
0.133844 -0.083385915 0.08301674 0.02930158 -0.025865182 0.08534234 0.07749335 -0.001954453
0.14187165 -0.11445793 0.10373567 0.10761893 -0.05373328 -0.12926827 0.007479645 -0.03784098
-0.046895225 -0.033589054 -0.10154298 0.11033502 0.06501618 -0.1286254 0.025063062 0.0072789323
0.0149826305 0.16734862 -0.021509156 -0.12777232 -0.1639916 -0.0030100578 -0.076963864 -0.03525632
-0.0485382 0.010615359 -0.039428428 0.13711892 0.14313854 -0.038759176 -0.21270731 -0.07002426
0.11752356 -0.027283346 0.014069362 0.15584266 -0.11502236 -0.032358486 -0.10729072 -0.035942364
-0.07151168 0.16247895 0.11949981 0.027438933 -0.13420448 -0.013786176 -0.1403071 0.014137654
-0.05499391 -0.14946342 0.093018964 0.060667075 0.14588186 0.12605739 -0.07404528 0.01707359
-0.116911985 -0.06767599 -0.17316611 -0.15459628 -0.019491702 0.016837733 -0.093934804 0.043514322
-0.100267135 0.026795566 0.05820504 -0.14630218 -0.061179746 -0.06427542 -0.06825646 0.06122455
0.010212911 -0.116790965 -0.18168917 -0.09724553 -0.059656963 -0.07436213 0.10329792 0.0038842729
-0.0669078 -0.13176034 0.047195997 0.008116473 0.04211394 -0.09993493 -0.07394715 -0.107804276
0.035959315 -0.046702094 -0.15246098 0.00090306776 -0.107317075 0.12463243 -0.022846045 0.155858
0.11466212 0.036843542 -0.17225483 -0.014501046 -0.13166884 0.14631513 -0.08029568 0.14365196
-0.078274794 0.04040745 -0.015620826 -0.11723959 0.18981323 -0.06322246 0.06929528 0.18565573
0.03793559 -0.17665292 -0.17244844 -0.09590249 -0.012045221 0.022065407 -0.032720372 -0.0034942995
0.012262789 0.11844738 -0.120177686 0.027932981 -0.05309879 0.022855366 -0.017204916 0.2066628
0.14878403 -0.11993212 -0.15647367 0.042629443 -0.08805577 0.15036991 0.025409773 0.0695262
0.079467624 0.028287202 0.099473834 -0.024035498 0.053392246 0.025263064 0.07206758 -0.050990917
0.0668313 0.1463645 0.20568947 -0.14460954 0.086804606 0.08308103 0.11699189 -0.10237792
-0.038952604 0.101420105 0.093584724 -0.05567342 0.059233725 -0.21334612 0.008220329 0.055559006
0.09688134 -0.1366485 -0.09250861 0.0056643593 0.17611742 0.058942173 0.013425221 0.10545896
-0.17043518 -0.047568373 -0.20045415 0.028556287 0.14153543 -0.029021341 -0.07499181 -0.1004282
0.086537085 0.013750132 0.17022353 0.13617982 0.07982471 0.028324407 -0.023278784 0.10548475
-0.084200345 -0.07332953 0.050938763 0.20029294 -0.11812663 0.1359433 -0.02190954 -0.01391483
0.07945939 -0.10252067 0.1417829 -0.05856714 0.13888003 0.11345846 0.14747049 0.17881422

transformer.layers.0.1.fn.net.0.bias f4 [72]
00000000: 39e3 18be b149 0e3e 68d9 023b 72ef e53d
00000010: e203 fbbc e9ba 183d 39e5 8abd 1e7e e03d
00000020: ee92 2e3d 4a3a 283e 7b65 f7bc 8dc5 d73d
00000030: fbe1 b53d b357 bbbc 650f f23d 7f73 2abe
00000040: 6df4 d5bd 4b3d 153e 6709 553d 3bfa 29be
00000050: f2e1 87bd 7fe5 a83a acb9 d5bd 5d5b 04be
00000060: 5ad4 00be 45ff 223e 57f7 bfbc 3bb9 043e
00000070: 0d56 9ebd 78d4 113e 278c 0a3d e059 063d
00000080: 59f3 61bd 0ffb 833c 2b3d fabc e5a0 84bd
00000090: 5b6e ddbd eb33 fe3d e8fe 1f3d 3ffd ab3c
000000a0: fb9a 19be ca45 ca3d 905f fbbd aca8 8dbd
000000b0: 72c3 a2bd c51f 0a3e a15f 8bbd e553 82bc
000000c0: 48d1 7dbd c24c 16bd 5534 80bd 737a ed3c
000000d0: 06e1 c83c b8fe 26be bf42 ddbd a2a0 ffba
000000e0: fa58 2dbd e228 c13d ed42 e7bd b7f4 32bd
000000f0: a032 8d3c 5d59 6d3d 5534 4a3c e38f 1ebe
00000100: bec7 8b3d 0455 643c 6ac9 843d cc92 ab3c
00000110: 987b 42bd ecac 973d 037f 473d e7d7 0cbc
-0.14930429 0.13895299 0.001996601 0.11227311 -0.0306415 0.037287626 -0.06782002 0.10961555
0.04262059 0.16428486 -0.030199757 0.10535727 0.08880993 -0.022868967 0.118193425 -0.16645621
-0.10447011 0.14574163 0.05201092 -0.16599362 -0.066348925 0.0012885778 -0.10435805 -0.12925477
-0.12581006 0.1591769 -0.02343337 0.12961285 -0.07731257 0.14241207 0.033825066 0.032800555
-0.055163715 0.016110925 -0.030546745 -0.06476001 -0.10812064 0.12412246 0.039061457 0.02099478
-0.15000527 0.098765925 -0.122740865 -0.06916937 -0.079474345 0.13488682 -0.06805349 -0.015909145
-0.061967164 -0.036694296 -0.062599815 0.028989052 0.024521362 -0.16308105 -0.108037464 -0.0019502828
-0.042321183 0.09431626 -0.11292062 -0.04369041 0.017236054 0.05794655 0.0123415785 -0.15484576
0.06825207 0.013936285 0.06483729 0.020944022 -0.04748115 0.07406029 0.048705112 -0.008596397

transformer.layers.0.1.fn.net.3.weight f4 [36, 72]
00000000: 9556 7b3d a504 43bd f8ac c3ba f7b4 d33d
00000010: 5c71 c03d 7291 75bd 3ecb fbbd 0eec 773d
00000020: c5cd 57bd 9fbe a83c 760d 903d e8cc 94bc
00000030: d408 883d d8ef 0f3d 514e b43d 93c2 07be
00000040: 6fd4 1a3c 708e d83c 6e94 973c 4675 603d
00000050: 3127 7fbd 236b 88bd de97 2ebe 9ba9 363d
00000060: ac35 6abd 7a4a b5bd 1bba 8bbc d6e2 673d
00000070: 0511 073e 7361 48bd d2ce 763d 2ac2 63bd
00000080: 4aca 9d3d 0b80 e2bb a30d 263d 4491 9c3c
00000090: 5fd3 df3c 3dfe c23d c41f 05bd 1a42 5a3c
000000a0: c9d0 5d3d af28 2bbb a3dc cebc ee97 573d
000000b0: beb6 c9bd 73a4 363d 8a60 2abd c028 14bc
000000c0: 4591 c43d fe93 22bc 61d5 b1bd af03 e33d
000000d0: 4ada 8dbd 8fb9 1c3d 48c0 413d 218b 1b3d
000000e0: 591d 033e 6d9c a4bb d790 0b3e d496 6c3d
000000f0: c821 fe3c 1156 f3bc 541e 14bd 31f8 70bc
00000100: 894b 87bd 2752 11bd a34a f3bc 0056 0fbd
00000110: c6aa 073e feed a7bd 875b ee3d 900c 40bd
00000120: e4f7 f4bd 3754 8a3c 3327 debd 327f 403d
00000130: 7cf3 c93d 9baf 4abc ea90 c23d c54b 5b3d
00000140: 28fe e1bd d42a 9bbd eb60 963d 717a 053e
00000150: 6ada 9e3d c19d afbd f8dd a2b9 7c76 abbd
00000160: f03b bf3d d5d5 0dbd e837 98bd cb63 573d
00000170: 98ae 79bd fbf3 5fbd 4727 1a3e e490 d63c
00000180: 1803 53bc 48d4 5b3d bead c53d a738 b3bd
00000190: 2b26 01bd 981a 81bd 85db dfbc f78d a9bd
000001a0: 710c ad3d eb1e d1bd 5a5c d9bd a7d9 99bd
000001b0: 3565 17be a6df c2bd 15c5 cd3d 4cbe 10bd
000001c0: 165b d7bd c9cf 313d c2a4 613c 110c 793b
000001d0: 6746 c0bc 75ae c13d 631c 80bd e4dc 3ebd
000001e0: 2ef9 10be 3ab1 85bd 9dc1 8abd bdcf 5abd
000001f0: e18f cc3c 635f 0ebe 3af4 863d 8341 013d
00000200: 6278 21bd 8348 cf3d fff2 37bd dd37 7abd
00000210: e21f ba3d 8f0f 06be b3fc 06be 9243 26bd
00000220: 4bab 873d a55a a9bd 7c09 173e 1e56 b3bd
00000230: 6ea9 463c d1e2 09be 5bbb 6bbd 5982 2b3b
00000240: 0450 9d3c 8e60 873d b0c9 a0bd 18aa d2bd
00000250: a9c8 823d 0bf8 1c3e e6ea c6bc 782c bfbd
00000260: 2a75 033d 011d 463e cfd4 ef3d 220c 02be
00000270: e420 04bd 56b9 973c c3f1 9a3d 68a9 783d
00000280: fa99 91bb fef3 13bd ad90 9fbd a41f 07bd
00000290: 2cfb 13bc e82d 7dbd 0e13 63bd 82ed 0f3d
000002a0: 8862 24bc 60d4 b0bd b4ce 59bd c037 32bd
000002b0: f6f8 d6bd a5b1 e3b7 b9b2 00bd 4ca6 8c3c
000002c0: f2d2 7dbd 3daf 883d 79a6 ae3d 439d 14bd
000002d0: 738e 91bd 1300 003e 7049 36bc 12e9 1e3d
000002e0: 12a7 b63d 11d8 b63c 3c87 1b3d 922c dbbd
000002f0: a6ca d4bd 2dd8 9abd 7b32 023e daf0 503d
00000300: 62cf 42bd aeee 85bd 938d adbd fb92 b13d
00000310: 9be3 4e3d df07 b9bd fd04 1abe 8d1b 35bd
00000320: 64d3 f7bd 683f 023e f370 063d c3af 353d
00000330: 22ec aa3d 7bb6 b6bd e495 83bd 7811 f4bd
00000340: 6abc bbbd c895 613d 31cc 70bc 6605 76bd
00000350: 30ac 5e3b 08b2 08bd 01e2 133d f801 dfbd
00000360: 6cde bd3c 008b c5bb c75f 9cbd 28cc a03c
00000370: 5938 09bd 1258 c2bd fbf2 a13d e166 fc3d
00000380: e78e ec3c 03b9 6d3d 89cd ac3d 6129 923d
00000390: 0afb c3bc b83c 80bd 22f0 ae3d fb25 aa3d
000003a0: f8d0 d13c 9411 8bbd 89e9 833d ca30 cebd
000003b0: 34ef 8b3d bb59 6bbd b6cd 733d 0114 9dbd
000003c0: 26cc 83bd d32a 843d 2b1a b0bc d8c9 be3d
000003d0: 9086 8f3d fe3e b23d 4414 5a3d e62d 44bd
000003e0: b443 8cbd 1982 bd3d 114f 1ebc d856 173b
000003f0: 9e32 a83d a711 253d 7923 6ebd db07 cdbd
0.061361868 -0.04761185 -0.0014928868 0.10337251 0.093966216 -0.05995316 -0.12294625 0.060527854
-0.05268647 0.020598708 0.070338175 -0.018164113 0.06642309 0.035140842 0.08804 -0.13257818
0.009450062 0.026435107 0.018503394 0.05479934 -0.062293235 -0.0666106 -0.1705012 0.044595342
-0.05718009 -0.08852096 -0.017056515 0.056612812 0.13190086 -0.04892106 0.060255833 -0.05560509
0.07704599 -0.0069122366 0.04054035 0.019112237 0.02732247 0.09521148 -0.032500997 0.013321424
0.05415419 -0.0026116779 -0.025251692 0.052635126 -0.098493084 0.044590425 -0.041595973 -0.009042919
0.095980205 -0.009922979 -0.08683277 0.11084687 -0.06926401 0.0382629 0.047302514 0.03797448
0.12804164 -0.00502353 0.13629471 0.05776103 0.031021968 -0.029704126 -0.036161736 -0.014707611
-0.06606204 -0.035478737 -0.029698675 -0.034994125 0.13248739 -0.0819969 0.11638551 -0.04688698
-0.11961344 0.01688586 -0.108473204 0.046996303 0.09860894 -0.012370969 0.095002964 0.053539056
-0.110348046 -0.07576528 0.073427044 0.13034989 0.07756503 -0.08575011 -0.00031064427 -0.083722085
0.09337604 -0.034627754 -0.07432538 0.052585404 -0.06095752 -0.054676037 0.15054046 0.026192136
-0.012879156 0.053669244 0.09652279 -0.0875104 -0.03153054 -0.063039005 -0.027326355 -0.08279031
0.08449639 -0.10210975 -0.10613318 -0.07512217 -0.14784701 -0.09515314 0.10047356 -0.03533773
-0.1051542 0.04341105 0.0137721915 0.0038001577 -0.02347107 0.09457103 -0.06255414 -0.046597376
-0.14157555 -0.06527944 -0.0677521 -0.05342077 0.02497095 -0.13903575 0.06589551 0.031556617
-0.039421447 0.101212524 -0.044909474 -0.06108843 0.090881124 -0.13091873 -0.13182335 -0.040591784
0.066244684 -0.08269242 0.14749712 -0.0875666 0.012125356 -0.1346543 -0.057551723 0.0026170223
0.019203193 0.06610213 -0.07850969 -0.10286349 0.06385929 0.15328996 -0.02428193 -0.093346536
0.03209416 0.19347002 0.11710512 -0.12699941 -0.03225793 0.018520992 0.07565644 0.060708433
-0.0044434043 -0.03612136 -0.077912666 -0.03298916 -0.009032052 -0.061811358 -0.055438094 0.035138614
-0.010033257 -0.08634257 -0.053175643 -0.0435102 -0.10496704 -2.714323e-05 -0.031420443 0.01716914
-0.06196875 0.06674049 0.08527846 -0.03628279 -0.07107248 0.12500028 -0.011125907 0.038796492
0.08918585 0.022319825 0.037970766 -0.107018605 -0.103902146 -0.075607635 0.1271457 0.051010944
-0.047561057 -0.06539665 -0.08474269 0.086706124 0.05051003 -0.090347044 -0.15040965 -0.044215728
-0.121008664 0.127195 0.03282256 0.044357073 0.0834582 -0.08921524 -0.06425074 -0.119173944
-0.091667965 0.055074483 -0.0146971205 -0.060063742 0.0033977143 -0.03337291 0.036104206 -0.108890474
0.023177348 -0.006028533 -0.076354556 0.0196286 -0.033501003 -0.09489454 0.07907673 0.1232431
0.028876735 0.05803777 0.0843764 0.07136799 -0.023923416 -0.06261581 0.085418954 0.083080254
0.02561234 -0.06790462 0.06441028 -0.100678995 0.06832734 -0.05745862 0.059522353 -0.07669831
-0.064354226 0.064534806 -0.021496853 0.093158424 0.07008088 0.08703421 0.053241983 -0.047895335
-0.06848851 0.0925333 -0.009662406 0.0023092534 0.082127795 0.040300038 -0.058139298 -0.10011264

transformer.layers.0.1.fn.net.3.bias f4 [36]
00000000: 6342 5c3d ce22 d7bd e9bd a73d 4570 eb3d
00000010: e86e d1bd 09c8 83bd 2958 d23d 0bb4 4bbd
00000020: 239b 62bd af30 36bd 77df e1bd 41a1 813d
00000030: ac43 6a3b 4661 9c3c 778c bfbd 668e f0bc
00000040: 3e4d d4bd cd75 d5bb f038 9fbd 9414 903d
00000050: d98e 223d 538a 563d d906 25bd b356 433d
00000060: 70c7 ea3d eba5 bbbd 0753 9b3c 89be 283d
00000070: 1cd2 a2bd 13fb b7bd d72f f3bd c840 35bd
00000080: 4b79 e6bd a35b 99bc 9906 85bd 569a c8bc
0.05377425 -0.10504685 0.08190519 0.11496023 -0.10226232 -0.06434638 0.102707215 -0.04973225
-0.05532373 -0.044480022 -0.11028951 0.06329585 0.0035745902 0.019089352 -0.093529634 -0.029364776
-0.10366295 -0.006514287 -0.07774532 0.07035175 0.03968701 0.05237801 -0.040289734 0.047690105
0.11463821 -0.09162506 0.018960489 0.041197333 -0.079502314 -0.089834355 -0.11874359 -0.044251233
-0.112536035 -0.018720454 -0.06495399 -0.024487656

transformer.layers.1.0.norm.weight f4 [36]
00000000: a8ad 883f 5e50 843f 5e46 823f e750 853f
00000010: 0ffe 853f 49c7 893f edb3 823f fbf2 8a3f
00000020: bc78 823f 1f14 833f 94e8 8a3f c5d3 833f
00000030: ad17 8d3f 354b 823f 32d8 853f 09c0 823f
00000040: fefb 8a3f 244a 833f eae2 843f d9b3 853f
00000050: 3053 823f b4f5 833f 3dc3 893f 2e2b 8a3f
00000060: 74d2 833f acd9 813f 0b11 7a3f 5c2a 833f
00000070: 1859 863f a548 853f b670 833f 68e2 793f
00000080: c87a 7d3f 4b71 833f f338 8b3f f0f5 883f
1.0677996 1.0337026 1.0177724 1.0415314 1.0468158 1.0763942 1.0211159 1.0855402
1.0193095 1.0240515 1.0852227 1.0299002 1.102285 1.0179201 1.0456603 1.0214854
1.0858152 1.0257001 1.0381749 1.044551 1.0181637 1.0309358 1.0762707 1.0794427
1.02986 1.0144553 0.97682256 1.0247302 1.0495939 1.0412794 1.0268772 0.97611094
0.99015474 1.0268949 1.0876755 1.0700054

transformer.layers.1.0.norm.bias f4 [36]
00000000: 5b40 3bbd e34f e43c 8788 aabb eadd 9f3b
00000010: b076 36bb 4c0f bc3b 552c 9bbb 5fb2 dcba
00000020: 4f50 0d3c c49b 6dbc 0d96 a3bc ac2c 433c
00000030: fd04 c6bc 56f1 c1bb 7f7e 013c d4af 5a3c
00000040: 8a3e aeb9 90d1 dfbb 409b c93c a90c 33ba
00000050: de09 70bc a936 d63a dd81 8e3b cd31 da3b
00000060: d071 a73c 4649 e43b 61b6 1c3d 0079 9c3b
00000070: ec03 c0bc 03a4 e6bc bc96 0b3b f72e 823c
00000080: 03fa ad3b a3e7 6fba 603d 21bb 8a98 d3bc
-0.04571567 0.027870124 -0.0052042636 0.004878749 -0.002784174 0.005739128 -0.0047355094 -0.0016837827
0.008625104 -0.014502469 -0.01996901 0.011912506 -0.0241723 -0.005918662 0.007903694 0.013347585
-0.0003323446 -0.0068304017 0.024610162 -0.00068301946 -0.01465079 0.0016343194 0.004348977 0.0066587687
0.020440012 0.0069667427 0.038259868 0.0047751665 -0.02343937 -0.028154379 0.0021299561 0.015891535
0.0053093447 -0.0009151643 -0.0024603233 -0.025829572
