ViT/ViT1/7 V train 0.961 V test 0.917 ABS 2/model_bestQ.pt (torch, 414407 bytes, 74 tensors)

pos_embedding f4 [1, 19, 36]
4.5472884 1.0113887 1.4963379 1.0080446 -1.3264114 -0.39974052 0.08647331 0.15915611
-0.8098738 0.4537109 0.4022876 0.2659811 -0.062689945 0.054558877 -2.706537 1.2048864
-0.50758004 1.1847538 -1.3833514 1.805329 -0.8393996 0.45611966 -2.3897777 0.33257294
-5.401315 0.14619713 0.01477726 1.9131304 -2.3795338 -1.19123 1.5296913 -1.9987881
0.71594197 -1.3918965 0.6126932 -1.6384474 1.7632961 -0.40606177 -2.6634917 0.7726788
-2.4451077 -0.87409496 1.7459253 0.12207154 -0.013124899 -1.3715223 -3.4616568 -0.06291493
-0.8232399 1.7952898 1.2354316 0.5753408 -1.510379 -2.2799485 -5.407003 0.20965345
2.1587777 3.2904315 0.19797818 -1.3949752 4.199719 2.3363926 -0.493761 0.051830452
0.1571759 1.6606249 0.18987763 0.80548906 -3.2431865 0.8572468 -1.2225645 1.1943551
3.2366695 -2.794736 -0.117789894 0.31337336 -3.0232751 0.37139803 -0.9795091 2.769348
-2.7979887 0.6918562 -0.90804213 1.3000455 0.611841 0.27903238 -4.5286236 0.16919081
-1.0926219 -1.8876897 -1.6710633 0.16018614 0.84009486 -0.8771562 1.5229748 -1.3489257
2.2454095 -0.4583568 -2.35945 1.6069217 0.6390783 1.613727 0.93453676 3.3593693
-3.4079745 2.59144 -1.3687083 -0.4025471 -2.4344094 2.3364725 -2.1300256 -3.9865248
3.8436465 1.592176 -0.77380157 0.48076624 -3.500614 2.8998904 -3.6120207 1.033218
-1.272083 6.175479 -1.6375046 -3.8378222 1.4026389 -3.2317698 1.1101398 -4.0203786
-2.3464267 -3.7830884 -2.3223495 1.5015397 1.7403369 -1.4161279 1.0697336 3.4531934
-3.512054 -2.3106391 6.2030177 1.1934988 2.311903 0.7907398 -0.24687465 0.74662787
-5.3856177 0.36279103 -1.5812756 0.2594488 4.03851 -5.4209123 -0.43231162 3.4837184
1.8204663 -1.1116542 -3.3039582 4.0548043 -0.44535318 1.1978883 3.2540114 0.7714242
-0.15173809 -3.058966 0.4319707 -3.326511 -2.5608654 0.6877633 -0.94505054 0.018618831
0.77958184 -0.49650776 0.18380246 -3.3267903 2.0264528 0.63631177 2.6814132 2.57136
-1.9441892 -2.209417 -2.552848 0.364737 1.6811045 -3.0403514 -2.5243728 3.5722308
-2.9985936 1.8939321 3.221328 3.9834735 -0.22555053 0.07046625 0.35311675 2.3651822
-1.3519608 2.8163266 1.2273474 -2.5913322 -2.6623874 -0.2407266 -3.3714275 2.3631964
4.3007884 1.8632789 -2.36684 -1.9179319 1.1661874 -0.61588544 -1.8651468 -1.60456
-0.1501503 0.41569376 -1.6398702 2.629114 -1.5988792 2.8359632 -2.7838657 0.2284216
2.544215 -1.8142926 1.2924503 1.2535658 -1.4857627 1.2945224 -1.63905 0.5180377
1.0702785 0.7272005 -0.618427 1.3244654 -0.92127997 -2.2701495 -1.583868 0.5463401
-2.5317736 -1.9598165 -2.0315032 2.3003585 -0.88583255 1.4760534 2.4929156 2.2027059
6.206641 -1.8817923 -5.062125 -1.8712121 -4.6602764 1.842799 -0.8645596 0.41616267
5.459971 3.3615677 -0.5474805 0.16321062 1.7093817 1.4916928 2.2671285 -1.3526323
00000000: 6383 9140 2f75 813f 0088 bf3f 9b07 813f
00000010: d9c7 a9bf caaa ccbe eb18 b13d d2f9 223e
00000020: e453 4fbf cc4c e83e a4f8 cd3e ad2e 883e
00000030: 9663 80bd 2179 5f3d e737 2dc0 b839 9a3f
00000040: c4f0 01bf 03a6 973f a911 b1bf 0515 e73f
00000050: e4e2 56bf 8488 e93e 1ef2 18c0 0047 aa3e
00000060: 93d7 acc0 b3b4 153e 521c 723c 75e1 f43f
00000070: 484a 18c0 3a7a 98bf edcc c33f 4ad8 ffbf
00000080: f947 373f aa29 b2bf 76d9 1c3f a5b8 d1bf
00000090: b0b3 e13f 54e7 cfbe a676 2ac0 47ce 453f
000000a0: a57c 1cc0 b0c4 5fbf 7b7a df3f a500 fa3d
000000b0: d109 57bc 0b8e afbf c98b 5dc0 8bd9 80bd
000000c0: dabf 52bf 0ecc e53f 9f22 9e3f 8949 133f
000000d0: 1954 c1bf adea 11c0 2b06 adc0 65af 563e
000000e0: 6a29 0a40 6e96 5240 cbba 4a3e 8c8e b2bf
000000f0: 1964 8640 7587 1540 3ece fcbe 2b4c 543d
00000100: b8f2 203e 5b8f d43f 486f 423e 8834 4e3f
00000110: 5e90 4fc0 8774 5b3f fe7c 9cbf a1e0 983f
00000120: 9825 4f40 f4dc 32c0 d43b f1bd 7972 a03e
00000130: 577d 41c0 e227 be3e 1cc1 7abf ff3c 3140
00000140: 3f12 33c0 7d1d 313f 7375 68bf e467 a63f
00000150: 9da1 1c3f 55dd 8e3e 7cea 90c0 5b40 2d3e
00000160: 09db 8bbf d19f f1bf 67e5 d5bf d607 243e
00000170: 7510 573f 4f8d 60bf d7f0 c23f 99a9 acbf
00000180: cab4 0f40 bead eabe 3b01 17c0 9caf cd3f
00000190: a39a 233f 9b8e ce3f cd3d 6f3f e8ff 5640
000001a0: 411c 5ac0 27da 2540 d531 afbf a71a cebe
000001b0: 5dcd 1bc0 c488 1540 5752 08c0 3923 7fc0
000001c0: 4efe 7540 6ccc cb3f dc17 46bf fe26 f63e
000001d0: 0f0a 60c0 ce97 3940 592b 67c0 7d40 843f
000001e0: 9ed3 a2bf 869d c540 c099 d1bf e19e 75c0
000001f0: ac89 b33f 51d5 4ec0 1019 8e3f f1a6 80c0
00000200: db2b 16c0 1f1e 72c0 60a1 14c0 7432 c03f
00000210: 5cc3 de3f ae43 b5bf 08ed 883f 1f01 5d40
00000220: 7ec5 60c0 83e1 13c0 1f7f c640 92c4 983f
00000230: 38f6 1340 ec6d 4a3f b5cc 7cbe 0123 3f3f
00000240: fb56 acc0 bfbf b93e 3d67 cabf 79d6 843e
00000250: 793b 8140 1d78 adc0 f357 ddbe 3ef5 5e40
00000260: 0a05 e93f af4a 8ebf 0d74 53c0 f5c0 8140
00000270: 5505 e4be 6754 993f b941 5040 0e7c 453f
00000280: 3b61 1bbe 19c6 43c0 432b dd3e 8ee5 54c0
00000290: 38e5 23c0 4111 303f d5ee 71bf 8586 983c
000002a0: ad92 473f 4436 febe b636 3c3e 22ea 54c0
000002b0: 67b1 0140 54e5 223f 469c 2b40 2a91 2440
000002c0: 31db f8bf 1767 0dc0 dd61 23c0 cfbe ba3e
000002d0: 6f2e d73f 1e95 42c0 538f 21c0 6e9f 6440
000002e0: f5e8 3fc0 5e6c f23f 3d2a 4e40 3bf1 7e40
000002f0: b8f6 66be 9c50 903d b8cb b43e 255f 1740
00000300: 0d0d adbf b23e 3440 b819 9d3f 63d8 25c0
00000310: 8e64 2ac0 0981 76be 78c5 57c0 9c3e 1740
00000320: 0fa0 8940 ec7f ee3f 4e7a 17c0 cb7e f5bf
00000330: a145 953f abaa 1dbf 21bd eebf 3962 cdbf
00000340: 00c1 19be d0d5 d43e 44e7 d1bf 6743 2840
00000350: 13a8 ccbf 6c80 3540 db2a 32c0 5ae7 693e
00000360: 6bd4 2240 bd3a e8bf 036f a53f d874 a03f
00000370: 792d bebf e9b2 a53f 64cc d1bf 1e9e 043f
00000380: e3fe 883f d029 3a3f 3b51 1ebf 1588 a93f
00000390: 01d9 6bbf 214a 11c0 30bc cabf f2dc 0b3f
000003a0: 9408 22c0 44db fabf 2604 02c0 1339 1340
000003b0: ecc5 62bf 51ef bc3f ee8b 1f40 22f9 0c40
000003c0: ce9c c640 92de f0bf eefc a1c0 e183 efbf
000003d0: fc20 95c0 d6e0 eb3f c753 5dbf 4613 d53e
000003e0: 15b8 ae40 ed23 5740 af27 0cbf af20 273e
000003f0: 05cd da3f caef be3f a218 1140 0e23 adbf

cls_token f4 [1, 1, 36]
4.9271235 0.64692676 0.33339956 -1.3972311 0.69751984 -0.6416009 -0.51397806 0.51356244
-0.42594892 0.3498528 0.0447824 0.060504038 0.29403523 -0.77032226 -1.1993378 -0.65678847
0.12073172 0.46010444 -0.83189654 0.0070974226 0.032778002 -1.0909126 -0.70376384 -0.31847748
-6.158884 1.1722226 0.65004814 1.2886951 -2.3946211 -1.9349953 -2.347722 -0.39700475
2.8809092 0.10889161 -0.076531254 -1.1175603
00000000: ffaa 9d40 fe9c 253f 59b3 aa3e 78d8 b2bf
00000010: a990 323f f53f 24bf 1194 03bf d478 033f
00000020: fa15 dabe e81f b33e c06d 373d 15d3 773d
00000030: c98b 963e d733 45bf e783 99bf 4a23 28bf
00000040: 3142 f73d cf92 eb3e 2cf7 54bf 7f91 e83b
00000050: 3a42 063d 06a3 8bbf de29 34bf 7b0f a3be
00000060: 9415 c5c0 640b 963f 8e69 263f f6f3 a43f
00000070: 7941 19c0 edad f7bf 1441 16c0 3544 cbbe
00000080: d160 3840 9002 df3d 6bbc 9cbd 370c 8fbf

to_patch_embedding.1.weight f4 [36, 12]
-1.1067901 0.30511174 0.39996096 -0.68295026 1.2773042 0.9416339 -0.020046143 -1.3222307
-0.74144626 -0.2352085 -1.2007867 -0.43920168 0.4139863 0.0170205 1.0569416 -0.97215223
-0.20283277 0.4101621 -0.8727829 -0.07792414 -0.82948124 0.008535459 0.21218361 -0.7695784
-1.10421 0.6595816 0.49739897 1.692265 0.37557825 0.45577782 -1.4084605 0.008467246
0.51970714 -0.4150593 -0.39490813 0.35166624 -0.69569606 -0.2551755 -1.4977455 0.9235842
0.7533492 -1.0053313 -0.21807732 1.6961391 0.44780746 -0.5073611 0.032574497 0.42983884
1.1056955 0.7920932 -0.6803257 -0.50767857 -0.08105595 -1.07338 -1.1141856 0.88732344
0.21234262 0.8757858 0.7706882 -0.23125741 0.5203942 0.20825161 -0.93167216 0.4080334
-1.1224036 -1.2439688 0.20281346 0.1678126 -0.9232479 -2.2064757 1.1655821 -0.7666414
0.30508688 -0.15686752 0.54797304 -1.4630523 -0.47866544 0.46094218 1.0510011 0.051761422
0.45874202 -0.071814485 -1.7276578 0.4258299 -0.25133866 -0.099097684 0.28014347 -2.008052
0.47561044 -0.24166845 0.77535605 -0.7869003 -0.35896325 -1.1325097 -0.6204773 -0.28581908
-0.104737274 0.0761114 -1.1309588 0.98376 1.4358569 -1.2218786 0.12559764 0.58579314
0.6877837 0.004138659 0.06379593 0.33746025 0.7063551 0.16882974 0.81825423 -0.22505653
0.03733079 0.608222 -0.112541385 0.23060259 0.5786086 -0.066878 -0.25103167 0.566479
0.5761591 -0.5646838 0.5895634 0.4448602 -0.54576594 0.8051912 0.08101397 -2.146885
0.455257 1.6389036 -0.45721483 0.13584462 0.5108939 -0.13943537 1.2533922 -0.06801693
-0.43353984 1.2066753 -0.4189712 0.18481696 -0.926552 -0.47881818 -1.1321363 -0.9033406
1.4178097 -0.40456185 -1.0485574 0.3727692 0.16719353 -0.5932312 0.27501827 -1.5924568
-0.47589278 -0.61258066 0.30841103 -0.62440675 0.23903613 -0.13486867 0.27574372 -0.331509
0.9330941 0.5367952 1.8314079 0.37400898 -0.4342671 -0.604211 0.07646399 -0.4196999
0.4436056 0.99952143 0.4371124 -0.15481482 -0.23542362 0.049284536 0.1740808 0.20810474
0.23600161 -0.08508302 0.5795292 0.46077418 1.7863063 0.27732727 -1.5502077 0.6998191
0.59542686 -1.4608047 0.522361 -0.31715637 -0.14265653 0.2993399 -0.6756819 0.06356732
0.8148714 0.56078583 -0.11231908 0.5503243 -0.25349864 0.35608333 0.82592535 -1.3764106
-0.028048147 0.17466901 0.18143073 -0.37561896 -0.49438745 0.08913285 0.30300856 -0.72617656
-0.38205165 0.9351442 -1.1846424 0.23062725 -0.40806574 -0.5558236 -1.7992193 -0.31975016
-0.17972784 -0.12678023 -0.07235212 -0.57461363 -0.23029217 -1.1360221 -0.76319546 -0.96402884
0.33680022 -0.4497858 1.1164019 0.5506639 0.9683788 0.39145085 0.14028788 0.24979006
0.10522624 0.20897545 0.046362203 -1.5177867 -0.5462237 -1.129816 -0.5427343 -0.6160611
-0.32047027 -0.3014006 -2.0161932 0.60681003 -0.113499165 -2.0523822 -0.33574834 0.5005953
0.46592653 -0.8430702 0.5979536 0.6413461 -1.3174423 0.20550214 -1.2994312 0.8863316
00000000: 4cab 8dbf 9b37 9c3e afc7 cc3e d4d5 2ebf
00000010: b47e a33f eb0e 713f cf37 a4bc db3e a9bf
00000020: 6ccf 3dbf 7fda 70be 61b3 99bf 0bdf e0be
00000030: 03f6 d33e 936e 8b3c dd49 873f f8de 78bf
00000040: 65b3 4fbe c400 d23e b36e 5fbf b196 9fbd
00000050: e258 54bf 4fd8 0b3c a946 593e 1703 45bf
00000060: c156 8dbf 57da 283f 14ab fe3e 249c d83f
00000070: cb4b c03e b65b e93e 6f48 b4bf 34ba 0a3c
00000080: 870b 053f a782 d4be 6631 cabe 990d b43e
00000090: 2319 32bf 5da6 82be 20b6 bfbf 0470 6c3f
000000a0: 7edb 403f b2ae 80bf a94f 5fbe 161b d93f
000000b0: 0547 e53e 6be2 01bf d66c 053d d613 dc3e
000000c0: 6e87 8d3f 9fc6 4a3f d329 2ebf 39f7 01bf
000000d0: a900 a6bd 8464 89bf a29d 8ebf a127 633f
000000e0: 5870 593e 8033 603f d24b 453f bece 6cbe
000000f0: 8e38 053f e93f 553e 1182 6ebf c1e9 d03e
00000100: ecaa 8fbf 5f3a 9fbf 55ae 4f3e 11d7 2b3e
00000110: f959 6cbf e636 0dc0 cb31 953f 9c42 44bf
00000120: 5934 9c3e e1a1 20be f647 0c3f 4c45 bbbf
00000130: a313 f5be 9d00 ec3e 3487 863f c903 543d
00000140: 3ce0 ea3e 7913 93bd e423 ddbf 6006 da3e
00000150: 76af 80be baf3 cabd f76e 8f3e ed83 00c0
00000160: 3683 f33e ef77 77be bc7d 463f 4c72 49bf
00000170: 08ca b7be 14f6 90bf 9ad7 1ebf e156 92be
00000180: 7f80 d6bd 4be0 9b3d 42c3 90bf b2d7 7b3f
00000190: 29ca b73f 8566 9cbf ab9c 003e 8af6 153f
000001a0: 9812 303f 979d 873b 71a7 823d 97c7 ac3e
000001b0: b0d3 343f b4e1 2c3e 1c79 513f 3875 66be
000001c0: 2ce8 183d 70b4 1b3f 197c e6bd 1623 6c3e
000001d0: b11f 143f 55f7 88bd 3987 80be c504 113f
000001e0: 2a7f 133f 1e8f 10bf a1ed 163f b7c4 e33e
000001f0: 51b7 0bbf 0321 4e3f a7ea a53d 9066 09c0
00000200: 7217 e93e 98c7 d13f 1018 eabe da1a 0b3e
00000210: f1c9 023f 25c8 0ebe 286f a03f 764c 8bbd
00000220: eff8 ddbe 5674 9a3f 6583 d6be a840 3d3e
00000230: 8332 6dbf a827 f5be d8e9 90bf 5441 67bf
00000240: ca7a b53f bb22 cfbe 2137 86bf 9bdb be3e
00000250: c834 2b3e 00de 17bf 32cf 8c3e a0d5 cbbf
00000260: 38a8 f3be 16d2 1cbf 0de8 9d3e 1fd9 1fbf
00000270: e3c5 743e 031b 0abe 482e 8d3e 8cbb a9be
00000280: 41df 6e3f 696b 093f 936b ea3f 1b7e bf3e
00000290: 4258 debe 92ad 1abf 2799 9c3d e8e2 d6be
000002a0: 4620 e33e a3e0 7f3f 32cd df3e c787 1ebe
000002b0: e412 71be 95de 493d 3d42 323e 6919 553e
000002c0: 68aa 713e 0240 aebd 075c 143f 98ea eb3e
000002d0: afa5 e43f d7fd 8d3e 356d c6bf 5827 333f
000002e0: e56d 183f a6fb babf 73b9 053f 5262 a2be
000002f0: 8e14 12be 1443 993e 7df9 2cbf 952f 823d
00000300: 699b 503f a98f 0f3f 8c07 e6bd 0ee2 0c3f
00000310: 93ca 81be 8e50 b63e d86f 533f 392e b0bf
00000320: 3ac5 e5bc 6fdc 323e fac8 393e 2151 c0be
00000330: 5a20 fdbe 498b b63d f023 9b3e b5e6 39bf
00000340: 469c c3be 9c65 6f3f 5da2 97bf 8d29 6c3e
00000350: feed d0be 754a 0ebf d14c e6bf 4bb6 a3be
00000360: 930a 38be add2 01be 592d 94bd e119 13bf
00000370: b6d1 6bbe 2c69 91bf c760 43bf 98ca 76bf
00000380: 1471 ac3e 534a e6be 42e6 8e3f 4ff8 0c3f
00000390: ace7 773f 3f6c c83e a0a7 0f3e f7c8 7f3e
000003a0: db80 d73d a9fd 553e 4be6 3d3d d646 c2bf
000003b0: 51d5 0bbf d09d 90bf a3f0 0abf 2eb6 1dbf
000003c0: ae14 a4be 2e51 9abe 4f09 01c0 e757 1b3f
000003d0: 4072 e8bd 3b5a 03c0 35e7 abbe 0327 003f
000003e0: ec8d ee3e 73d3 57bf 7d13 193f 422f 243f
000003f0: f3a1 a8bf 276f 523e c353 a6bf a1e6 623f

to_patch_embedding.1.bias f4 [36]
0.16551092 0.66056633 -1.8679987 0.33224902 0.7016204 1.2077729 -1.1711932 2.9537106
-1.6486793 -1.9856842 -0.6055486 1.7569942 0.8132045 0.46479023 -0.80273217 0.12320303
-1.4365079 -2.051146 -1.5101624 1.4994174 0.25069043 0.50027436 -1.3518126 -1.8001009
1.782057 0.024837224 -3.0677469 0.37425214 -0.31145287 1.0864264 0.6868059 1.069293
-0.8105322 1.3903564 -2.041411 1.4483314
00000000: b27b 293e e01a 293f 951a efbf 8b1c aa3e
00000010: 659d 333f 4d98 9a3f a9e9 95bf 9809 3d40
00000020: ec07 d3bf e62a febf 3c05 1bbf 30e5 e03f
00000030: 2c2e 503f fcf8 ed3e db7f 4dbf df51 fc3d
00000040: 7edf b7bf fa45 03c0 004d c1bf e9ec bf3f
00000050: 7f5a 803e fb11 003f 3208 adbf b569 e6bf
00000060: 721a e43f 6f77 cb3c f755 44c0 fa9d bf3e
00000070: c076 9fbe 0510 8b3f 83d2 2f3f 98de 883f
00000080: 0a7f 4fbf 33f7 b13f 7aa6 02c0 ec62 b93f

transformer.layers.0.0.norm.weight f4 [36]
1.0342162 0.7337091 1.3996233 0.802554 1.3023747 1.5891322 1.7325966 1.8146875
1.4892166 1.5971664 1.4846752 1.8727294 0.6272105 1.8408761 0.87374866 0.92462045
0.5953929 0.69682163 1.2588251 1.1458676 1.7965249 0.97993916 0.53183126 0.64619404
0.5662152 1.3180776 0.54837877 1.6843708 1.6182675 1.295169 1.9099154 1.1749464
-0.07116174 1.0536326 1.4706252 1.723044
00000000: 3261 843f 5cd4 3b3f db26 b33f 2e74 4d3f
00000010: 37b4 a63f af68 cb3f bac5 dd3f ae47 e83f
00000020: a69e be3f f36f cc3f d609 be3f 99b5 ef3f
00000030: de90 203f d4a1 eb3f fead 5f3f edb3 6c3f
00000040: ab6b 183f e762 323f 2e21 a13f caab 923f
00000050: 87f4 e53f 4bdd 7a3f 1826 083f f96c 253f
00000060: 7bf3 103f c4b6 a83f 8d62 0c3f 7699 d73f
00000070: 6423 cf3f 19c8 a53f 1c78 f43f a564 963f
00000080: 3fbd 91bd 6fdd 863f 723d bc3f b58c dc3f

transformer.layers.0.0.norm.bias f4 [36]
-0.20501086 -0.6481927 0.5224022 0.40996128 -0.33191743 0.19519657 0.7751121 -0.09424555
0.059214633 0.27328187 0.037943505 -0.5856585 -0.67557365 0.09185922 0.3747039 -0.26336768
0.26656243 0.2897294 0.17613998 -0.47776917 0.2609043 0.08359411 0.42607665 -0.22240776
-0.20730665 0.07551257 0.5323348 -0.48064116 0.60304475 0.017661577 -0.29580656 -0.12236308
-0.0071042925 -0.73876226 0.75980395 0.035925064
00000000: 5eee 51be f5ef 25bf 27bc 053f 72e6 d13e
00000010: 15f1 a9be 9ce1 473e bf6d 463f d003 c1bd
00000020: 0b8b 723d 9aeb 8b3e a66a 1b3d b7ed 15bf
00000030: 65f2 2cbf b020 bc3d 31d9 bf3e 21d8 86be
00000040: df7a 883e 6957 943e 0a5e 343e 299e f4be
00000050: 4095 853e 6433 ab3d b826 da3e dcbe 63be
00000060: 3248 54be 56a6 9a3d 1847 083f 9916 f6be
00000070: 2461 1a3f 03af 903c f573 97be 7f99 fabd
00000080: 20cb e8bb 861f 3dbf 8382 423f 2926 133d

transformer.layers.0.0.fn.to_qkv.weight f4 [216, 36]
-0.5516639 -0.48357356 0.63286257 -0.5406797 -0.9701303 -1.2986344 -0.48297933 -1.1891673
0.17117386 0.36303958 0.8092137 -1.6814294 -1.4516859 0.29819927 0.7810957 -0.49795875
0.32667056 -1.0564648 0.67193455 -1.9086548 1.286479 0.25393853 -0.27214777 0.23094073
0.7510913 1.384985 0.98650676 0.26413232 3.5542467 -0.75025815 0.19275023 0.6861465
-0.13558921 -1.5800984 1.017905 2.0086107 -1.8630183 1.4117653 -1.3692566 -1.4614322
1.3165066 1.5763586 -0.72320884 -2.4152732 -0.773074 -0.8275655 0.45420265 0.50594765
1.7199935 -1.8676071 0.29045287 0.367526 -0.950383 -0.23179825 0.79441214 1.08947
0.04651876 0.014567679 0.7490238 -0.29406112 1.5240169 -0.11194614 -1.6640317 -0.05753403
-1.4360951 -0.18684198 1.8800186 1.1406184 0.6213615 2.2606287 -0.7844032 -0.31200966
-0.6674417 0.51097476 -0.89857274 -0.6520291 0.038244367 -0.082457915 -0.80557024 -1.3290602
-0.15436698 -1.2709838 1.1213088 0.11498857 0.59955686 -0.9025721 -0.113440275 1.1281188
-0.707583 -0.1456851 -0.20196325 1.0910096 0.7553206 0.3025092 -0.28474548 0.20542307
0.31434014 1.2867377 -0.47803771 0.268178 -0.023757868 -0.39036027 -0.19442949 0.85118073
0.50589895 1.0454832 -0.218433 -0.8580231 -0.8182979 0.6528224 -1.1744369 -1.2060347
1.0318812 1.1777474 -1.0853552 -2.5058455 -0.3877575 -0.61232936 1.0169082 -0.814738
1.3985738 -1.951947 0.37309724 0.6356104 -0.73225355 -0.17461792 0.6341344 0.56829953
0.7543403 0.5021855 0.25737312 0.26699424 0.46440086 0.38182858 -0.5788211 0.43971026
-0.91711116 -0.84198475 1.2663298 1.0712755 0.8423453 0.7173044 -0.56089586 0.028172584
0.29363686 -0.2860618 1.1050411 0.85531586 -0.5724899 -1.2135015 -0.13720335 0.9330483
0.6464385 0.39304036 -0.36487663 0.46270645 -1.8024546 1.1310965 0.5166934 -0.83554816
0.52271235 -0.27428946 -0.10680016 -1.5631154 -0.24629973 0.009427412 -0.046555128 0.027488055
-0.036098834 0.34603393 0.43267012 -0.41920397 1.6897205 0.582542 -1.3962427 0.35351035
-0.66897476 -0.66929674 0.77296346 1.0676339 1.0681758 0.5396401 0.49560145 -0.30734822
-0.8750602 0.8652898 1.2508862 1.6284369 -1.1157739 1.259028 0.5733545 0.6103866
1.1934894 1.036525 -1.3061395 -0.72754943 1.2625575 1.4721688 -0.21838462 1.3840853
-1.1596847 -0.6932727 0.06368914 0.0125950845 -0.83355296 -1.0088515 -0.8792794 0.013293761
-1.6040907 -0.52093416 0.21675152 -1.3879004 -0.6171578 -0.5207025 0.35649067 -1.4524554
-0.57308483 -0.26411197 -1.8824933 -0.8798562 0.54163253 0.43801102 -1.1545187 -1.6070187
0.14509194 -1.2062848 0.9551664 -0.98299384 1.2292435 -2.2358904 0.4952895 1.2841004
-0.71440387 -1.2904524 0.06603934 0.51681674 1.6285967 1.1197578 -0.13166897 -0.02565048
0.022228932 0.69406503 0.24864186 1.035865 0.7190601 -0.29292357 0.8477303 1.0512134
1.5009812 0.4342756 -0.9412002 -0.10849453 -0.0014001953 -0.534108 1.5113555 1.2210244
00000000: d839 0dbf f496 f7be 4803 223f fc69 0abf
00000010: 765a 78bf a739 a6bf 1149 f7be a236 98bf
00000020: 3348 2f3e 53e0 b93e a128 4f3f 1439 d7bf
00000030: d8d0 b9bf 93ad 983e e3f5 473f 73f4 febe
00000040: 5d41 a73e 3d3a 87bf e703 2c3f cd4e f4bf
00000050: 58ab a43f 3b04 823e f456 8bbe ba7b 6c3e
00000060: 8547 403f 3047 b13f b58b 7c3f 5a3c 873e
00000070: c778 6340 eb10 40bf 5160 453e 4ca7 2f3f
00000080: e6d7 0abe aa40 cabf b64a 823f 148d 0040
00000090: 6277 eebf bab4 b43f cd43 afbf 3610 bbbf
000000a0: 4a83 a83f 1ec6 c93f 3724 39bf d693 1ac0
000000b0: 2de8 45bf 55db 53bf 408d e83e c985 013f
000000c0: bf28 dc3f c00d efbf 3db6 943e 5e2c bc3e
000000d0: 4d4c 73bf 855c 6dbe 985e 4b3f c173 8b3f
000000e0: 758a 3e3d 46ad 6e3c 06c0 3f3f 2e8f 96be
000000f0: fc12 c33f 0544 e5bd fefe d4bf cea8 6bbd
00000100: f7d1 b7bf 8153 3fbe 73a4 f03f c9ff 913f
00000110: 8c11 1f3f 24ae 1040 a6ce 48bf bbbf 9fbe
00000120: 76dd 2abf 3ecf 023f dd08 66bf 61eb 26bf
00000130: 20a6 1c3d b2df a8bd da39 4ebf a51e aabf
00000140: 6112 1ebe 99af a2bf 0c87 8f3f 217f eb3d
00000150: 8f7c 193f f70e 67bf 6053 e8bd 3266 903f
00000160: 2924 35bf 7a2e 15be 74cf 4ebe 34a6 8b3f
00000170: b15c 413f 7ce2 9a3e 29ca 91be 6d5a 523e
00000180: 31f1 a03e d2b3 a43f 5cc1 f4be a04e 893e
00000190: dc9f c2bc 4ddd c7be 8618 47be fbe6 593f
000001a0: 9882 013f 65d2 853f e6ac 5fbe 67a7 5bbf
000001b0: f97b 51bf 5e1f 273f f353 96bf 585f 9abf
000001c0: af14 843f 6dc0 963f ebec 8abf c65f 20c0
000001d0: 2788 c6be 9ec1 1cbf 0c2a 823f ab92 50bf
000001e0: 7704 b33f 66d9 f9bf 9a06 bf3e 5db7 223f
000001f0: f874 3bbf 0acf 32be a256 223f 147c 113f
00000200: 721c 413f 3b8f 003f 69c6 833e 78b3 883e
00000210: f3c5 ed3e 097f c33e 9f2d 14bf b421 e13e
00000220: ccc7 6abf 508c 57bf 1817 a23f 8e1f 893f
00000230: f1a3 573f 43a1 373f df96 0fbf 31ca e63c
00000240: 9257 963e b176 92be fd71 8d3f fbf5 5a3f
00000250: b38e 12bf 0454 9bbf 097f 0cbe 41dc 6e3f
00000260: fe7c 253f 963c c93e 1cd1 babe dce7 ec3e
00000270: d5b6 e6bf c5c7 903f 0546 043f 7ce6 55bf
00000280: 7ad0 053f ab6f 8cbe 0bba dabd 2a14 c8bf
00000290: ff35 7cbe 6f75 1a3c 97b0 3ebd a12e e13c
000002a0: 5fdc 13bd 5c2b b13e f086 dd3e e7a1 d6be
000002b0: c348 d83f 7921 153f 15b8 b2bf 4fff b43e
000002c0: ee41 2bbf 0857 2bbf efe0 453f 3aa8 883f
000002d0: fcb9 883f db25 0a3f 79bf fd3e bf5c 9dbe
000002e0: f203 60bf a283 5d3f 0a1d a03f 9f70 d03f
000002f0: aed1 8ebf d427 a13f 5cc7 123f 4c42 1c3f
00000300: 43c4 983f daac 843f 942f a7bf ae40 3abf
00000310: 7c9b a13f 0770 bc3f 38a0 5fbe b529 b13f
00000320: 8c70 94bf 527a 31bf 746f 823d 9d5b 4e3c
00000330: ba63 55bf 0c22 81bf 7418 61bf 13ce 593c
00000340: d852 cdbf f15b 05bf 1cf4 5d3e b8a6 b1bf
00000350: 0efe 1dbf c24c 05bf f285 b63e 0fea b9bf
00000360: b0b5 12bf af39 87be 8af5 f0bf 423e 61bf
00000370: 6ea8 0a3f fb42 e03e 45c7 93bf cab2 cdbf
00000380: fb92 143e 8a67 9abf c985 743f 7ca5 7bbf
00000390: da57 9d3f d418 0fc0 9696 fd3e 675d a43f
000003a0: 2ce3 36bf 8b2d a5bf a23f 873d 1a4e 043f
000003b0: db75 d03f 3954 8f3f 3bd4 06be f520 d2bc
000003c0: 7319 b63c 3fae 313f f99b 7e3e 3997 843f
000003d0: 5314 383f 14fa 95be da04 593f 298e 863f
000003e0: 2720 c03f 5f59 de3e 7ff2 70bf 6132 debd
000003f0: c286 b7ba 4dbb 08bf 1974 c13f 874a 9c3f

transformer.layers.0.0.fn.to_out.0.weight f4 [36, 72]
-0.2676682 -0.9216716 1.1476234 -1.3310677 0.9837909 0.6159602 -0.7959511 -0.35229978
-0.7245802 -0.81475055 -0.24756026 -0.3224666 -0.16183591 -0.14663447 1.802684 -1.0386775
-0.133829 1.7405862 0.83760065 0.56067693 1.3651605 0.12900284 -0.15932328 0.7140928
1.0397785 0.6487213 0.15840407 1.2200437 -0.29002845 0.33699766 0.1324286 0.5595773
0.3208276 -0.20306346 -1.6110328 -0.3457253 -0.55519056 0.58354074 0.15084794 -0.4000649
1.658014 1.5016009 1.2845058 -0.40530735 -0.426625 -0.84465003 -1.0052253 -1.7262815
1.3493805 0.19442002 -0.21810697 1.2918198 1.4637004 -0.20717339 0.5109999 -0.6806435
-0.26495555 0.77988863 0.18037353 1.5749599 -1.0720518 -1.432893 0.6292391 0.98686314
0.12694508 -0.8167627 0.5031968 0.024633078 0.69440955 0.5176862 0.32326558 -0.54676056
-1.9258401 1.3226628 0.48635468 -0.5718924 1.603295 -0.9799357 -0.79785436 -0.55133444
0.9687589 -1.4841534 0.5618336 0.18556753 2.3188791 0.06905268 0.44121823 -0.38167283
-0.1648489 0.18957049 1.2250456 -0.92650926 1.8108728 -1.7248497 0.7681501 0.4871132
0.3487139 -0.72705704 -0.7825049 0.19707485 1.2324904 -0.91947836 -0.54899687 0.6186722
-1.5455718 -0.29719833 0.36650106 1.1033795 0.16645838 -0.0018999239 1.0682557 1.6175711
-1.1867328 -0.898026 -0.53421015 -0.71688575 0.35755828 -0.27869186 -0.50216496 0.10685309
0.08989221 1.1908863 -0.9371258 -0.51917624 -0.3324857 -0.6304472 0.3728385 0.64634985
-1.858762 -0.090936214 -0.8749157 -0.8831584 1.1605784 0.75487775 0.06976921 -0.9675234
0.6512214 0.4666767 0.38302875 -1.3707603 -0.23542495 0.62570834 0.34549195 0.32483947
2.08497 -1.0782875 0.6864064 0.8795317 -1.6810496 -1.039167 2.655681 -0.1370013
-0.53289026 1.0894507 1.4831927 1.8320769 0.22365673 -1.4952091 -0.10575251 0.2684349
0.09483391 -0.6884651 -1.211414 -0.41124612 -1.8389466 2.3512418 -0.43184918 -1.2917861
0.4333214 0.40333554 1.1573079 0.40075803 -0.20651628 0.43379414 0.28598562 -1.2420572
-0.10713202 -0.5253498 0.13808335 -0.9038092 0.021497581 -1.1175348 0.3498746 -1.519362
-0.21649684 -1.5682567 -0.11862016 0.485783 1.7167337 -0.5655677 0.638789 0.9210772
-0.23313025 0.91112775 0.4681545 -0.19423059 -1.0880837 -0.3771015 -2.0136266 -0.2821839
-0.08628666 -0.19395201 2.0673437 -1.3422089 -0.05565461 -0.4555308 0.030673422 -0.5311922
-0.6496786 -0.45063794 0.15791151 -0.099855 -0.16285972 0.028612636 0.23091832 -0.7626964
-2.1271725 1.6458997 0.53171414 0.20972027 1.300739 -1.2587367 -0.76617616 0.29377854
1.5215274 -0.98284817 0.6444966 0.33141607 2.2725475 -1.1589456 1.2655053 1.1986601
1.6680691 -0.5045626 -1.250823 -3.5007837 0.5288319 0.32259715 -1.4496533 -0.04671311
-0.033739988 -1.1503476 -0.32644266 0.050183926 1.2515602 -0.92838335 -0.1536959 -0.22251089
-1.5075254 -0.6008905 1.1488506 0.5025157 0.20897359 0.2641542 0.4465887 1.4136645
00000000: ce0b 89be acf2 6bbf 53e5 923f 6d60 aabf
00000010: b8d9 7b3f 91af 1d3f 74c3 4bbf a360 b4be
00000020: 177e 39bf 7e93 50bf 7080 7dbe 581a a5be
00000030: 50b8 25be 5927 16be 59be e63f 62f3 84bf
00000040: 780a 09be 87cb de3f ff6c 563f 8688 0f3f
00000050: 94bd ae3f 5219 043e a425 23be c9ce 363f
00000060: 7617 853f 9912 263f ad34 223e 642a 9c3f
00000070: 9c7e 94be f58a ac3e 5d9b 073e 7540 0f3f
00000080: 8443 a43e deef 4fbe 5336 cebf e802 b1be
00000090: f820 0ebf ed62 153f e277 1a3e 4ed5 ccbe
000000a0: ce39 d43f 7534 c03f b06a a43f 7284 cfbe
000000b0: 986e dabe fc3a 58bf 39ab 80bf cbf6 dcbf
000000c0: 80b8 ac3f 0b16 473e 6f57 5fbe 5a5a a53f
000000d0: 895a bb3f 4325 54be e4d0 023f a73e 2ebf
000000e0: 41a8 87be c8a6 473f d7b3 383e 4998 c93f
000000f0: fe38 89bf 0a69 b7bf d015 213f 10a3 7c3f
00000100: e4fd 013e 5c17 51bf 81d1 003f 4fcb c93c
00000110: d3c4 313f 1587 043f 1183 a53e 80f8 0bbf
00000120: ee81 f6bf 044d a93f 7b03 f93e 8a67 12bf
00000130: c538 cd3f 11dd 7abf 2f40 4cbf 4124 0dbf
00000140: 9500 783f bdf8 bdbf 54d4 0f3f 6a05 3e3e
00000150: 8468 1440 7e6b 8d3d 5be7 e13e 9f6a c3be
00000160: 26ce 28be c41e 423e 4bce 9c3f b62f 6dbf
00000170: aeca e73f e0c7 dcbf 7ca5 443f e766 f93e
00000180: a18a b23e 6920 3abf 3e52 48bf fdcd 493e
00000190: 3fc2 9d3f ef62 6bbf 0f8b 0cbf 4d61 1e3f
000001a0: 4cd5 c5bf 612a 98be 07a6 bb3e 8a3b 8d3f
000001b0: 1174 2a3e de06 f9ba 9abc 883f 920c cf3f
000001c0: dce6 97bf 08e5 65bf ffc1 08bf d385 37bf
000001d0: e111 b73e b3b0 8ebe e28d 00bf cbd5 da3d
000001e0: 6819 b83d f66e 983f 7ae7 6fbf bce8 04bf
000001f0: 913b aabe fd64 21bf b0e4 be3e 2f77 253f
00000200: eaeb edbf c43c babd 7afa 5fbf ab16 62bf
00000210: d58d 943f ab3f 413f 29e3 8e3d 9daf 77bf
00000220: 72b6 263f 40f0 ee3e 581c c43e 1375 afbf
00000230: 3d13 71be 6c2e 203f 52e4 b03e 5c51 a63e
00000240: 2670 0540 5305 8abf 54b8 2f3f fd28 613f
00000250: a22c d7bf 6d03 85bf adf6 2940 124a 0cbe
00000260: 7f6b 08bf 1f73 8b3f 42d9 bd3f 7f81 ea3f
00000270: 4506 653e 0363 bfbf c694 d8bd 4d70 893e
00000280: 4838 c23d 403f 30bf 9d0f 9bbf da8e d2be
00000290: 9a62 ebbf bf7a 1640 561b ddbe 3f59 a5bf
000002a0: 4ddc dd3e ff81 ce3e aa22 943f 2830 cd3e
000002b0: 0179 53be 441a de3e b56c 923e bbfb 9ebf
000002c0: 0868 dbbd 537d 06bf b965 0d3e 0a60 67bf
000002d0: b21b b03c 610b 8fbf c322 b33e 747a c2bf
000002e0: 59b1 5dbe a3bc c8bf 20ef f2bd 8db8 f83e
000002f0: eebd db3f 0bc9 10bf ad87 233f b7cb 6b3f
00000300: b2b9 6ebe ab3f 693f f2b1 ef3e 62e4 46be
00000310: 5446 8bbf 7313 c1be 42df 00c0 687a 90be
00000320: 0fb7 b0bd 5b9b 46be 5c4f 0440 80cd abbf
00000330: 17f6 63bd 553b e9be d446 fb3c 36fc 07bf
00000340: 5651 26bf 04ba e6be 8eb3 213e c780 ccbd
00000350: b3c4 26be 0c65 ea3c da75 6c3e 1240 43bf
00000360: 9823 08c0 d7ac d23f 6b1e 083f e9c0 563e
00000370: 9e7e a63f 491e a1bf 1f24 44bf 246a 963e
00000380: 69c1 c23f f09b 7bbf bbfd 243f 5eaf a93e
00000390: 6b71 1140 5458 94bf 14fc a13f b26d 993f
000003a0: 4a83 d53f 042b 01bf f81a a0bf d70c 60c0
000003b0: 8761 073f 742b a53e 3d8e b9bf 3f56 3fbd
000003c0: f132 0abd 973e 93bf 7e23 a7be a98d 4d3d
000003d0: 2033 a03f 88aa 6dbf 7562 1dbe e5d9 63be
000003e0: 98f6 c0bf f6d3 19bf 890d 933f dea4 003f
000003f0: 2cfd 553e 383f 873e 46a7 e43e f5f2 b43f

transformer.layers.0.0.fn.to_out.0.bias f4 [36]
1.4856197 -0.65062964 0.32634392 -0.9043619 0.5832232 0.070884116 0.27809826 -0.285115
0.23080882 0.16906703 -0.23678812 0.25838292 -0.40216783 0.797734 0.34334564 0.9380091
0.3272696 -0.024173819 -0.18583307 1.4638326 -0.19895759 0.62688214 0.17380744 1.5571146
-0.71542025 -0.004680133 -0.19591048 0.033983607 -1.4970298 -0.21279013 -1.5311807 -1.0818369
-0.21646212 -1.4219131 -0.9366884 -0.29615104
00000000: c928 be3f aa8f 26bf 8d16 a73e 4384 67bf
00000010: 1e4e 153f b12b 913d e562 8e3e 98fa 91be
00000020: 2659 6c3e e81f 2d3e 9678 72be c44a 843e
00000030: f1e8 cdbe 4c38 4c3f 00cb af3e 5d21 703f
00000040: e28f a73e 2c08 c6bc 064b 3ebe de5e bb3f
00000050: 8abb 4bbe 597b 203f 94fa 313e 884f c73f
00000060: c825 37bf cd5b 99bb c29c 48be 6532 0b3d
00000070: ac9e bfbf a8e5 59be bbfd c3bf a279 8abf
00000080: 3fa8 5dbe 4001 b6bf d0ca 6fbf 1ca1 97be

transformer.layers.0.1.norm.weight f4 [36]
2.2832804 0.5704514 1.2677233 1.8680657 2.0131407 1.4820174 0.4340707 2.1210287
0.8780255 0.46315187 2.5915554 0.70748574 0.097812265 1.8970006 1.3791673 2.0670922
2.4849331 0.5791406 0.50548655 1.5303512 2.6753895 3.2935472 2.2472775 1.9137324
1.6395403 1.8601245 0.9017755 1.3411001 1.8847835 2.0775728 1.7966673 2.2101645
0.5515629 2.383328 1.5767637 0.3152883
00000000: 4421 1240 1a09 123f c244 a23f c71c ef3f
00000010: 4cd7 0040 bfb2 bd3f 843e de3e efbe 0740
00000020: 47c6 603f 3e22 ed3e 0bdc 2540 c91d 353f
00000030: cc51 c83d ead0 f23f 8e88 b03f 3d4b 0440
00000040: 2509 1f40 8f42 143f 9167 013f 8ce2 c33f
00000050: 9539 2b40 7ac9 5240 65d3 0f40 2ff5 f43f
00000060: 75dc d13f 8f18 ee3f c2da 663f 2ba9 ab3f
00000070: 9640 f13f f4f6 0440 32f9 e53f 5673 0d40
00000080: 3a33 0d3f 7288 1840 65d3 c93f 786d a13e

transformer.layers.0.1.norm.bias f4 [36]
-0.6632451 -0.049994458 0.05506353 -0.0518793 0.00275298 0.18288381 0.034859102 0.0818304
0.16008614 -0.014681976 0.1539976 0.38957387 -0.10508991 -0.9682457 0.32665795 -0.6234813
-0.13399944 0.056317247 -0.16569215 -0.48065382 0.6355045 -0.47631496 0.46854213 -0.8289317
0.5705214 -0.19259208 0.0113855 -0.3678789 0.8983857 0.586461 0.28409162 0.4827888
-0.59163487 0.8512336 0.5755066 0.0003589654
00000000: 6eca 29bf fdc6 4cbd 4c8a 613d 647f 54bd
00000010: 576b 343b e545 3b3e 6bc8 0e3d b296 a73d
00000020: 9fed 233e ac8c 70bc 8cb1 1d3e 3a76 c73e
00000030: 6139 d7bd f3de 77bf b63f a73e 789c 1fbf
00000040: 2637 09be eaac 663d 34ab 29be 4218 f6be
00000050: 6cb0 223f 8edf f3be c1e4 ef3e de34 54bf
00000060: b10d 123f dc36 45be 408a 3a3c a05a bcbe
00000070: 9bfc 653f 4f22 163f 7574 913e 1830 f73e
00000080: 6275 17bf 72ea 593f 6754 133f 8533 bc39

transformer.layers.0.1.fn.net.0.weight f4 [72, 36]
-0.6266105 0.18437144 -0.51147354 -1.5721049 1.3241899 0.53241754 -0.047738355 -0.16972247
0.724261 0.018929925 0.45302826 -0.12168425 -0.019457545 -2.097472 0.07545363 -0.73048246
1.108148 -0.11307005 -0.002355651 0.16630006 2.6626778 0.49188083 0.3142886 -0.41647425
-1.2381114 1.0109459 0.6987672 -0.26321334 0.4108135 0.107884996 0.5086603 0.34262735
-0.49329233 0.11261442 1.4822189 -0.1756447 0.28948078 -0.33468193 -0.24169934 1.823606
-0.7302778 -0.24278933 0.30531898 0.9842514 -1.3899778 0.14367524 -2.1070023 -0.23267202
-0.3079694 1.0846193 0.6034655 1.1372524 -2.9115736 -0.668858 -0.2979151 0.3507955
0.67832005 -0.30524996 -0.33201087 0.25069 1.6482083 0.6842858 -0.43379936 -0.71964926
-1.1855878 0.4022739 -0.30348268 -0.3692321 0.27152666 1.6286556 -1.0673081 0.5715581
-0.7029182 0.9553679 -1.9273543 1.895504 -1.7865634 0.22861809 -1.0174538 1.139077
-0.50790936 -0.94293183 -0.1528813 -1.8167381 0.5191141 -1.5369788 -0.2925326 -0.98163843
-0.3820735 -0.5185904 1.5663935 -2.0305536 0.2308474 0.63179815 0.0074781384 -1.1713796
0.5023006 -0.28576884 0.7652484 -0.272499 1.899078 1.1013759 1.86214 0.7055951
0.63387805 0.14808045 0.60149586 0.6729856 1.5802854 0.26238525 0.34054416 1.211941
-0.683618 -0.5839995 0.111898094 -0.49955505 -0.97190535 0.09819302 1.2204336 -0.19489223
0.1622808 -0.067146234 -0.13208173 0.76698995 -2.9063575 -1.0087585 -0.14167921 0.0780993
-0.061051626 -2.7984824 -1.2074231 1.1721047 0.5805507 1.6085085 -0.026774889 -0.075679325
-1.178576 -0.7344644 -1.2741933 0.90778965 1.7798463 -0.33766845 -0.96006924 0.91802967
1.0966883 0.16347593 -0.6451153 -0.46850005 -0.90048885 1.1063488 -0.39030293 -0.40350923
-0.3627118 -0.10353693 0.9664857 -0.6027164 -0.16022922 -0.890027 -0.92597634 -0.28839123
1.8789456 -0.2533082 0.18529123 0.3925399 -0.1280994 -0.2575665 0.66237384 0.06276084
-0.050114464 1.8948631 0.2933899 0.4362521 0.06385767 -0.48965043 -0.7562322 0.87824005
0.7962472 -1.9075438 0.1987441 -0.16198698 -0.39750868 -0.21196282 -0.707943 -0.59993935
0.546243 0.808322 -0.070803 -0.5473216 1.1713028 -0.09435035 0.3617725 0.001863127
0.13888057 0.34625953 -1.4224045 -2.4656017 -0.8016648 -0.32726967 0.0035179185 0.7007507
-1.6462916 0.059833217 1.1186028 0.22230192 1.0212026 1.226998 -0.43851382 -1.189408
0.4242615 0.9074459 1.20666 1.4224957 -0.19037846 -0.13691935 -0.3024903 -0.03545894
-1.3718657 -0.2591818 0.03967078 0.85676515 -0.35921726 0.8299898 0.0874464 1.1960996
1.4259174 0.012729326 -0.24579325 0.53049517 -0.06868724 -2.116498 1.113923 0.6382454
-0.35366142 0.9668114 -0.46511617 -1.121772 0.30683428 -0.95517963 -0.18195459 -0.5542441
-1.0065176 -0.74939626 1.1895807 -0.59185934 0.8447105 1.1437023 0.45193768 0.19945177
-0.8167145 1.7372842 1.1921455 -0.6535741 -0.76728594 0.8307321 -0.3078962 -0.35878295
00000000: 8c69 20bf decb 3c3e eeef 02bf bc3a c9bf
00000010: 0e7f a93f 844c 083f 4b89 43bd bacb 2dbe
00000020: 2b69 393f ee12 9b3c 52f3 e73e 9835 f9bd
00000030: 6e65 9fbc fb3c 06c0 6f87 9a3d e600 3bbf
00000040: cbd7 8d3f 4591 e7bd 4461 1abb 904a 2a3e
00000050: 5069 2a40 ced7 fb3e 6fea a03e 1d3c d5be
00000060: 6f7a 9ebf ad66 813f 68e2 323f e6c3 86be
00000070: 2656 d23e cff2 dc3d 9037 023f da6c af3e
00000080: d090 fcbe 64a2 e63d 59b9 bd3f 34dc 33be
00000090: d336 943e 6e5b abbe 0880 77be ec6b e93f
000000a0: 7cf3 3abf c49d 78be c552 9c3e e6f7 7b3f
000000b0: cbea b1bf 9a1f 133e 20d9 06c0 9341 6ebe
000000c0: 2aae 9dbe ced4 8a3f b77c 1a3f 7d91 913f
000000d0: 3957 3ac0 473a 2bbf 5488 98be 789b b33e
000000e0: 62a6 2d3f b949 9cbe 54fd a9be 715a 803e
000000f0: 7df8 d23f 5b2d 2f3f f31a debe ef3a 38bf
00000100: 57c1 97bf d8f6 cd3e 1562 9bbe fd0b bdbe
00000110: 8b05 8b3e c977 d03f 8d9d 88bf a251 123f
00000120: 72f2 33bf fe92 743f 8cb3 f6bf e09f f23f
00000130: 1cae e4bf dc1a 6a3e ed3b 82bf 46cd 913f
00000140: 5906 02bf fb63 71bf ea8c 1cbe e08a e8bf
00000150: a9e4 043f b9bb c4bf d5c6 95be a84c 7bbf
00000160: 239f c3be 57c2 04bf 957f c83f 97f4 01c0
00000170: 4363 6c3e 86bd 213f 2c0b f53b c4ef 95bf
00000180: c696 003f 4b50 92be 52e7 433f fd84 8bbe
00000190: fd14 f33f e3f9 8c3f 9b5a ee3f e1a1 343f
000001a0: d545 223f 67a2 173e a2fb 193f c948 2c3f
000001b0: cb46 ca3f 5c57 863e ce5b ae3e e220 9b3f
000001c0: 9701 2fbf fe80 15bf d42a e53d aec5 ffbe
000001d0: cace 78bf 6c19 c93d 2b37 9c3f d491 47be
000001e0: f02c 263e f783 89bd 6f40 07be 7459 443f
000001f0: c301 3ac0 001f 81bf 5b14 11be 87f2 9f3d
00000200: 4511 7abd 561a 33c0 d78c 9abf 8707 963f
00000210: f89e 143f 9be3 cd3f 0357 dbbc c3fd 9abd
00000220: 94db 96bf dc05 3cbf c418 a3bf e764 683f
00000230: 01d2 e33f e1e2 acbe 19c7 75bf fe03 6b3f
00000240: 4860 8c3f 3c66 273e 4726 25bf 3ddf efbe
00000250: 7086 66bf d69c 8d3f c9d5 c7be c398 cebe
00000260: 5cb5 b9be 2c0b d4bd 9b6b 773f 9f4b 1abf
00000270: 2113 24be cfd8 63bf c90c 6dbf 04a8 93be
00000280: 4a81 f03f 9db1 81be fcbc 3d3e fdfa c83e
00000290: 7d2c 03be c2df 83be 5591 293f c188 803d
000002a0: d344 4dbd e08a f23f 3337 963e 6f5c df3e
000002b0: cfc7 823d 76b3 fabe 6f98 41bf 57d4 603f
000002c0: dbd6 4b3f 652a f4bf 9383 4b3e eadf 25be
000002d0: 4286 cbbe c80c 59be c13b 35bf a095 19bf
000002e0: 95d6 0b3f 31ee 4e3f 2a01 91bd 451d 0cbf
000002f0: 40ed 953f c23a c1bd 3f3a b93e 2b34 f43a
00000300: b536 0e3e ee48 b13e 5a11 b6bf 6bcc 1dc0
00000310: e839 4dbf e48f a7be e18c 663b 6664 333f
00000320: afb9 d2bf ad13 753d 602e 8f3f 1da3 633e
00000330: c4b6 823f 450e 9d3f e284 e0be 853e 98bf
00000340: ce38 d93e 604e 683f d673 9a3f 5714 b63f
00000350: 92f2 42be 9634 0cbe 02e0 9abe 653d 11bd
00000360: 4c99 afbf 7ab3 84be d47d 223d f654 5b3f
00000370: 53eb b7be 367a 543f 1917 b33d cb19 993f
00000380: 7684 b63f aa8e 503c 3ab1 7bbe 88ce 073f
00000390: e5ab 8cbd b474 07c0 0795 8e3f 0d64 233f
000003a0: 1c13 b5be f480 773f b523 eebe 3a96 8fbf
000003b0: 6219 9d3e a786 74bf 4e52 3abe f1e2 0dbf
000003c0: 92d5 80bf 6fd8 3fbf 2e44 983f 1884 17bf
000003d0: f33e 583f d664 923f 6064 e73e 163d 4c3e
000003e0: 3414 51bf 545f de3f 3998 983f a250 27bf
000003f0: da6c 44bf dcaa 543f 92a4 9dbe 66b2 b7be

transformer.layers.0.1.fn.net.0.bias f4 [72]
0.41366032 -0.29067644 -1.7078439 -1.0260737 0.27009222 0.24279356 1.6971835 -0.7134727
0.20003536 -0.27011865 -0.5437424 0.32881045 0.9561552 -0.22253872 0.21783964 -0.1133009
-1.5079702 0.787997 -0.2029594 -0.20658413 -0.05359648 -0.5757606 1.9270855 -0.5245613
-0.88792175 0.040071998 -0.5878219 0.95578617 1.074376 0.267541 0.7559103 0.50284535
-0.09593405 -1.4912274 0.064140834 -1.919968 -0.040534005 -0.29584694 -0.72042936 1.0089504
0.08165784 0.18741849 -0.54682004 0.4041059 -0.09201405 0.07346412 0.31977916 -0.6862415
-0.28484693 0.31792963 0.12503462 0.48427883 -0.22249107 0.9789716 -0.7159787 -1.911125
1.3169253 -0.33906797 0.005697545 -1.3614819 -1.6987871 0.022703875 -0.6096595 -0.39702517
0.23286049 -0.47342116 0.23474862 -0.09172921 1.1743361 -0.25462833 0.0047579003 1.2848382
00000000: 49cb d33e 8bd3 94be a19a dabf 6256 83bf
00000010: 8749 8a3e e09e 783e 4f3d d93f 26a6 36bf
00000020: 12d6 4c3e fe4c 8abe b432 0bbf d859 a83e
00000030: 96c6 743f 31e1 63be 5b11 5f3e 4d0a e8bd
00000040: 2b05 c1bf 2cba 493f 97d4 4fbe ca8a 53be
00000050: fc87 5bbd 0c65 13bf bdaa f63f a649 06bf
00000060: d74e 63bf 8922 243d 7f7b 16bf 67ae 743f
00000070: 2785 893f 22fb 883e 5683 413f 79ba 003f
00000080: 1279 c4bd 8ae0 bebf 455c 833d 83c1 f5bf
00000090: fc06 26bd 4079 97be 0f6e 38bf 4925 813f
000000a0: 3a3c a73d a2ea 3f3e 66fc 0bbf f8e6 ce3e
000000b0: dd71 bcbd 5b74 963d 18ba a33e 86ad 2fbf
000000c0: 75d7 91be acc7 a23e 1309 003e 65f3 f73e
000000d0: b3d4 63be e29d 7a3f 614a 37bf be9f f4bf
000000e0: 0291 a83f 519a adbe 79b2 ba3b 0a45 aebf
000000f0: db71 d9bf 7afd b93c a512 1cbf e246 cbbe
00000100: fb72 6e3e 4264 f2be f161 703e 86dc bbbd
00000110: a550 963f a55e 82be 29e8 9b3b 9475 a43f

transformer.layers.0.1.fn.net.3.weight f4 [36, 72]
0.094586305 -0.32777604 0.72965455 1.1343188 1.0627283 -0.19758786 0.005445586 -0.12229644
0.72615457 -0.29237726 -0.43374708 -0.2759547 -0.25977018 -0.5583833 0.30716014 -0.0067776577
0.035270832 -0.62408537 -0.66033757 -0.5266815 2.029192 1.4486092 1.2515844 0.25541687
0.13998887 1.0729156 0.4061268 1.0623758 0.66041154 -1.1884336 0.2625801 -0.828598
0.45030266 0.072096154 1.0771884 0.5414184 1.3833936 -0.5122193 1.0511675 -0.2463164
0.68004715 0.18574126 -0.7481328 -0.049584135 1.2134985 0.83468217 0.43462014 1.0061294
0.29016978 0.18055066 -1.0444062 1.2504731 -0.53792036 -0.71196204 -0.58514947 1.090445
0.39420146 -0.6932337 0.7840106 0.36804488 -0.04483357 0.39363724 -0.5060965 0.76442873
1.059546 0.32746154 0.030276965 1.7289374 -0.5520387 -0.36144167 0.39441603 1.0389729
-0.04240647 0.030253202 0.27848342 0.657087 0.13625818 -0.17224099 -0.05479345 -0.27099556
1.113279 0.2326824 -0.45376652 0.44379893 0.06760229 0.20711508 -0.9062803 -0.7397805
0.2876167 0.559458 0.26912993 1.2103871 0.7986102 -0.21718389 -0.6393032 0.081324026
-0.45766544 0.6929543 -0.16352111 -0.5870684 -0.012150159 0.94407195 -0.9777014 0.9177687
0.9042961 -0.49092412 0.7438001 0.2880147 0.53652424 1.894199 -0.5386159 0.029626101
0.032464046 0.19490436 0.33429915 0.6633858 0.28878778 -0.8394611 0.6029955 -0.048072323
0.6324778 0.46329495 0.6706941 -0.05269712 1.079159 0.48181587 0.19406141 -0.18461795
-0.18730491 0.17216277 0.6427944 -0.61764216 -1.2056373 -0.88209945 0.30055735 -0.11049534
0.33312893 0.07067795 0.59623235 0.2377866 -0.34765193 0.322816 0.0024416123 0.47873804
0.029666165 -0.05234767 -1.1826748 -0.37559673 -0.8946838 -0.2676222 -0.3933909 0.50848985
-1.290887 -0.10945735 0.6908159 0.17128904 0.04014421 -0.004437515 0.33619854 0.22562023
-0.6499623 -0.20019543 0.07337406 -0.3361305 -1.0098996 -1.4154516 -0.6969554 -0.11833095
0.046552308 -0.7750377 -0.5367678 -0.66964334 -0.8484589 -0.06167123 -0.12147825 0.30639988
-0.11523464 -0.3926599 -0.7517833 -1.148324 -0.75104904 0.19935675 -0.23443367 -0.24903475
-0.9676365 0.007723513 0.32452753 -0.32489854 -0.90377253 -0.9643486 -0.6704906 -0.5770523
-0.8279732 0.19169407 0.5139059 -0.6408256 -0.04000284 0.75705236 0.08681953 -0.24788074
-0.8917115 0.06976516 -0.46450713 -0.65367925 0.44714096 -0.37596276 0.37121454 -0.3611431
-0.64360714 -0.576312 -0.1754487 -0.3248944 1.1869293 -0.20744844 -0.33306822 -1.0809015
0.30521896 0.3569682 1.1818434 -0.30200872 0.26295352 -0.1130234 -0.5520544 -1.9038937
0.3187513 1.7397968 1.1867543 -0.4253377 -1.4190054 -0.8249704 -1.294417 -0.08020898
0.8551663 0.040823344 0.4831536 -1.1419917 -0.5667948 0.055492397 -0.9600828 0.6879049
-1.2798883 2.1660216 -1.6178406 -0.5532994 -1.725087 -0.14826666 -1.1751771 0.57202417
-1.8808725 -1.5228212 1.9981357 1.2128606 -0.91333705 -1.0402874 -1.1413015 0.3934489
00000000: 77b6 c13d 43d2 a7be a4ca 3a3f 5c31 913f
00000010: 7b07 883f 7954 4abe e370 b23b 8e76 fabd
00000020: 44e5 393f 79b2 95be 1914 debe ef49 8dbe
00000030: 9900 85be 35f2 0ebf 1844 9d3e 1d17 debb
00000040: 2678 103d 0fc4 1fbf e20b 29bf 99d4 06bf
00000050: 48de 0140 076c b93f eb33 a03f 00c6 823e
00000060: 3e59 0f3e 4c55 893f daef cf3e eefb 873f
00000070: bb10 293f 981e 98bf e670 863e 001f 54bf
00000080: 128e e63e 26a7 933d 4fe1 893f 659a 0a3f
00000090: 0b13 b13f ce20 03bf a88c 863f 5e3a 7cbe
000000a0: 9217 2e3f f532 3e3e a285 3fbf bc18 4bbd
000000b0: eb53 9b3f bbad 553f 8886 de3e d9c8 803f
000000c0: 2291 943e 46e2 383e 1aaf 85bf 810f a03f
000000d0: 26b5 09bf 2543 36bf 5bcc 15bf b493 8b3f
000000e0: c6d4 c93e c477 31bf ebb4 483f 6170 bc3e
000000f0: 68a3 37bd d28a c93e 8a8f 01bf 9ab1 433f
00000100: 349f 873f 0aa9 a73e 6607 f83c d24d dd3f
00000110: 6952 0dbf e20e b9be e6f0 c93e 10fd 843f
00000120: 68b2 2dbd 90d5 f73c 6195 8e3e db36 283f
00000130: 4487 0b3e f15f 30be 196f 60bd eebf 8abe
00000140: ed7f 8e3f 4c44 6e3e 1654 e8be 9d39 e33e
00000150: 1273 8a3d fa15 543e fc01 68bf 4162 3dbf
00000160: 7f42 933e a438 0f3f 66cb 893e f7ed 9a3f
00000170: b871 4c3f 7465 5ebe 60a9 23bf 368d a63d
00000180: 2053 eabe 7465 313f 1472 27be 1d4a 16bf
00000190: 7611 47bc b3ae 713f a44a 7abf e4f2 6a3f
000001a0: f37f 673f 685a fbbe af69 3e3f aa76 933e
000001b0: a759 093f 1d75 f23f bbe2 09bf 70b2 f23c
000001c0: 05f9 043d 0295 473e 4229 ab3e a7d3 293f
000001d0: fedb 933e ece6 56bf ea5d 1a3f 7ce7 44bd
000001e0: 11ea 213f ff34 ed3e 9cb2 2b3f efd8 57bd
000001f0: e221 8a3f 92b0 f63e 09b8 463e 7d0c 3dbe
00000200: dccc 3fbe 704b 303e 2c8e 243f cc1d 1ebf
00000210: 5352 9abf 45d1 61bf a7e2 993e 614b e2bd
00000220: e08f aa3e 9abf 903d afa2 183f 557e 733e
00000230: 6fff b1be 2448 a53e 7503 203b 271d f53e
00000240: 7506 f33c 836a 56bd e361 97bf 374e c0be
00000250: ff09 65bf c705 89be 886a c9be 642c 023f
00000260: c93b a5bf 2d2b e0bd 50d9 303f 6566 2f3e
00000270: 416e 243d 9368 91bb 3722 ac3e fd08 673e
00000280: ee63 26bf 0800 4dbe 2445 963d 4c19 acbe
00000290: 6444 81bf 852d b5bf ab6b 32bf 7f57 f2bd
000002a0: a2ad 3e3d df68 46bf 9d69 09bf bf6d 2bbf
000002b0: 9a34 59bf f99a 7cbd 97c9 f8bd 72e0 9c3e
000002c0: 2400 ecbd b80a c9be df74 40bf 48fc 92bf
000002d0: c044 40bf 2d24 4c3e 610f 70be f702 7fbe
000002e0: 07b7 77bf 8615 fd3b 7928 a63e 1a59 a6be
000002f0: a35d 67bf 8ddf 76bf 46a5 2bbf b3b9 13bf
00000300: 0df6 53bf 734b 443e 568f 033f 260d 24bf
00000310: 05da 23bd 2fce 413f 70ce b13d 73d4 7dbe
00000320: 3447 64bf 09e1 8e3d e1d3 edbe 8657 27bf
00000330: a9ef e43e 317e c0be d50f be3e c0e7 b8be
00000340: 70c3 24bf 2f89 13bf d3a8 33be 8f58 a6be
00000350: 4ded 973f 5d6d 54be eb87 aabe fb5a 8abf
00000360: a945 9c3e 89c4 b63e a546 973f e3a0 9abe
00000370: d8a1 863e d078 e7bd 7053 0dbf cab2 f3bf
00000380: 5f33 a33e a9b1 de3f 91e7 973f ddc5 d9be
00000390: f8a1 b5bf 4331 53bf 75af a5bf 9b44 a4bd
000003a0: 2eec 5a3f 6136 273d e95f f73e c92c 92bf
000003b0: 7719 11bf ff4b 633d fdc7 75bf 891a 303f
000003c0: 61d3 a3bf 19a0 0a40 6715 cfbf 08a5 0dbf
000003d0: a7cf dcbf 37d3 17be 346c 96bf 2d70 123f
000003e0: 6ec0 f0bf ceeb c2bf e9c2 ff3f 043f 9b3f
000003f0: 75d0 69bf 2328 85bf 2b16 92bf 2272 c93e

transformer.layers.0.1.fn.net.3.bias f4 [36]
0.65030825 -0.09145884 -0.56981164 -0.45128363 -0.5476385 0.047725804 -0.02904518 0.06709087
-0.37908378 -0.30995116 -0.3415679 -0.22066239 0.090898044 -0.261703 0.40885726 0.05829885
-0.18313237 -0.44707006 -0.0522151 -0.16563933 0.5329732 -0.19062987 0.07011111 -0.19652227
-0.12569366 -0.14224467 0.35133284 -0.13771124 0.6651929 0.5016806 1.076397 -0.01964181
0.2172139 -0.056003217 -0.10349716 -0.109989956
00000000: 9a7a 263f c64e bbbd 2ddf 11bf a60e e7be
00000010: 0932 0cbf 227c 433d 28f0 edbc f066 893d
00000020: 4517 c2be ebb1 9ebe fde1 aebe 52f5 61be
00000030: c128 ba3d f0fd 85be bd55 d13e c6ca 6e3d
00000040: 0d87 3bbe 5ee6 e4be 80df 55bd 5b9d 29be
00000050: ee70 083f 7a34 43be 6a96 8f3d 223d 49be
00000060: d7b5 00be 96a8 11be e6e1 b33e 2d04 0dbe
00000070: 154a 2a3f 246e 003f 60c7 893f dce7 a0bc
00000080: 526d 5e3e a163 65bd 52f6 d3bd 6a42 e1bd

transformer.layers.1.0.norm.weight f4 [36]
1.0699202 0.057871178 0.32275042 0.34931704 0.6792678 0.5123994 -0.13431479 0.9496159
0.63584167 0.3872653 1.2000136 -0.21155208 0.0006629368 0.13965158 1.4308046 1.151257
0.9269403 0.06044358 -0.5091483 0.3649466 0.7052058 1.1918584 1.3816413 0.20656301
0.9730848 0.7299343 0.22368583 0.75949526 1.1659071 0.49817812 1.1022078 1.6483376
0.51546943 0.79693484 0.47406656 0.0825247
00000000: 25f3 883f 540a 6d3d 8b3f a53e afd9 b23e
00000010: 7fe4 2d3f 9b2c 033f d189 09be 071a 733f
00000020: 85c6 223f a347 c63e 0c9a 993f 1ca1 58be
00000030: f0c8 2d3a d300 0f3e 9b24 b73f 645c 933f
00000040: f64b 6d3f b093 773d 8b57 02bf 48da ba3e
00000050: 5e88 343f d18e 983f 9fd9 b03f 4185 533e
00000060: 161c 793f f9dc 3a3f e60d 653e 486e 423f
00000070: 723c 953f 3411 ff3e 2515 8d3f bafc d23f
00000080: cef5 033f ec03 4c3f dab8 f23e b602 a93d

transformer.layers.1.0.norm.bias f4 [36]
-0.7047694 0.051657803 -0.071984135 0.17591001 0.5878325 -0.1641201 -0.012854182 -0.55609393
0.24893405 -0.0380177 -0.19701351 0.01014113 0.046855688 0.39558885 0.06895703 0.13253935
0.33094132 0.06333893 -0.023216747 -0.0072562727 -0.23587874 0.7246119 0.116116434 -0.075990334
-0.42200783 0.22478348 0.05005202 -0.36317974 -0.7538312 -0.26117548 -0.26091522 -0.334623
-0.11646659 0.03022873 0.35788 0.083236985
00000000: c46b 34bf 2297 533d 6b6c 93bd c121 343e
00000010: 317c 163f 190f 28be 599a 52bc 2c5c 0ebf
00000020: 91e8 7e3e 73b8 1bbd e9bd 49be fb26 263c
00000030: c0eb 3f3d 9f8a ca3e 5839 8d3d 65b8 073e
00000040: 2471 a93e d7b7 813d 0c31 bebc 07c6 edbb
00000050: 328a 71be 2a80 393f 74ce ed3d d2a0 9bbd
00000060: 6911 d8be a42d 663e 5903 4d3d b2f2 b9be
00000070: 15fb 40bf cbb8 85be ae96 85be b553 abbe
00000080: 0986 eebd 3ea2 f73c 0c3c b73e 2778 aa3d
