ViT/ViT1/7 V train 0.961 V test 0.917 ABS 2/model_bestV.pt (torch, 414407 bytes, 74 tensors)

pos_embedding f4 [1, 19, 36]
4.568939 1.0003811 1.4872906 1.0172783 -1.3197571 -0.38232365 0.06463624 0.07071849
-0.84467334 0.4057298 0.46162403 0.28148535 -0.006563694 0.042421915 -2.7030132 1.2789073
-0.5297176 1.172908 -1.4368789 1.8660918 -0.87678295 0.42086208 -2.2349424 0.40088397
-5.397522 0.115785226 0.012997272 1.8969784 -2.341205 -1.0608991 1.4993564 -1.9653459
0.78382826 -1.3765031 0.6824925 -1.5750678 1.7889396 -0.49654877 -2.661 0.6835195
-2.5342336 -1.0790274 1.9610825 0.20696446 -0.046320684 -1.2970933 -3.2112324 -0.015267945
-0.8065185 1.7164423 1.2703657 0.6573914 -1.3846452 -2.2027905 -5.2387214 0.13446009
2.082926 3.2949166 0.33730853 -1.4300524 4.289941 2.2705235 -0.5117899 -0.03361751
0.19094487 1.7452261 0.27235073 0.7540324 -3.263093 0.77398455 -1.2973388 1.0931996
3.2500825 -2.7437477 -0.036670577 0.35920173 -2.9750388 0.3853833 -0.9806166 2.6789129
-2.8365376 0.73627114 -0.9896837 1.3523879 0.6204612 0.25409552 -4.5564704 0.14949352
-1.0715427 -1.7801644 -1.6907886 0.09247597 0.76527154 -0.86035323 1.5251652 -1.4086437
2.1885931 -0.34252724 -2.3031974 1.6077687 0.63321257 1.5598036 0.885035 3.3330686
-3.4157317 2.5769396 -1.2876511 -0.36971563 -2.369391 2.3084073 -2.1135805 -4.107783
3.756907 1.4738151 -0.6980411 0.5332027 -3.4656568 3.012503 -3.5428944 1.0597984
-1.2404262 6.204707 -1.6030369 -3.8054736 1.5367638 -3.1295755 1.0890927 -4.0605216
-2.4900072 -3.9218209 -2.2601695 1.7101029 1.6471086 -1.4674731 1.0778095 3.4485233
-3.5240862 -2.3146584 6.1375737 1.1482774 2.465299 0.7250531 -0.16491652 0.6759739
-5.3048596 0.51744235 -1.6185535 0.163385 4.032582 -5.4510183 -0.3143792 3.3427403
1.6874305 -1.0427138 -3.2115915 4.012403 -0.5378281 1.3419539 3.241235 0.7162709
-0.0675321 -3.0340536 0.37785023 -3.29668 -2.691966 0.44736928 -0.9937075 0.10674301
0.8415703 -0.4674857 0.14768279 -3.258573 1.9852221 0.57449996 2.6107028 2.6064541
-2.0728335 -2.229196 -2.4086127 0.4735834 1.5450218 -3.1398325 -2.6286516 3.5454512
-2.9053292 1.8266572 3.2822137 4.079441 -0.22716242 0.024471467 0.3570483 2.3979404
-1.3996854 2.837705 1.3248733 -2.6101394 -2.7084389 -0.3527027 -3.2225246 2.2423935
4.2573752 1.8576676 -2.4162357 -1.9889886 1.2550439 -0.63596076 -1.9494339 -1.6946998
-0.089697756 0.3929234 -1.5618384 2.7478309 -1.5523225 2.861165 -2.8866503 0.30148426
2.4630368 -1.7696661 1.2665236 1.333431 -1.4271399 1.4526314 -1.772283 0.2989558
1.0454028 0.65813345 -0.6810372 1.3323427 -0.9097892 -2.24692 -1.4783205 0.51677996
-2.6397839 -1.9261845 -2.0967166 2.3764637 -0.809577 1.5839698 2.4548426 2.223945
6.087932 -1.8829067 -4.9451666 -1.8469532 -4.612948 1.7885882 -0.875513 0.5429418
5.37715 3.3376515 -0.5780223 0.12087592 1.4944137 1.400208 2.1710107 -1.3710542
00000000: c034 9240 7d0c 803f 8a5f be3f 2d36 823f
00000010: cded a8bf edbf c3be 0160 843d dbd4 903d
00000020: 833c 58bf d1bb cf3e fc59 ec3e d91e 903e
00000030: 4214 d7bb 9ac2 2d3d 2bfe 2cc0 3cb3 a33f
00000040: 939b 07bf d921 963f a6eb b7bf 19dc ee3f
00000050: d974 60bf 3c7b d73e 4c09 0fc0 aa40 cd3e
00000060: 80b8 acc0 ce20 ed3d 83f2 543c 30d0 f23f
00000070: 4dd6 15c0 8bcb 87bf e9ea bf3f 7490 fbbf
00000080: f8a8 483f 4131 b0bf d4b7 2e3f d29b c9bf
00000090: f9fb e43f a43b febe d34d 2ac0 22fb 2e3f
000000a0: e230 22c0 921d 8abf c004 fb3f 7eee 533e
000000b0: c2ba 3dbd 2707 a6bf d584 4dc0 6726 7abc
000000c0: ff77 4ebf 62b4 db3f 589b a23f ce4a 283f
000000d0: 0e3c b1bf 85fa 0cc0 9ba3 a7c0 e8af 093e
000000e0: a94e 0540 eadf 5240 b4b3 ac3e f50b b7bf
000000f0: 3247 8940 4250 1140 aa04 03bf 84b2 09bd
00000100: 0d87 433e 9263 df3f 8e71 8b3e 4408 413f
00000110: 84d6 50c0 da23 463f 330f a6bf f7ed 8b3f
00000120: 5a01 5040 9099 2fc0 e333 16bd 4ae9 b73e
00000130: 0967 3ec0 f650 c53e b109 7bbf 4f73 2b40
00000140: d589 35c0 447c 3c3f e95b 7dbf 0c1b ad3f
00000150: 8cd6 1e3f cf18 823e 9bce 91c0 d414 193e
00000160: 5028 89bf 6ddc e3bf c36b d8bf 0b64 bd3d
00000170: d6e8 433f 1c40 5cbf 9d38 c33f 704e b4bf
00000180: e911 0c40 bb5f afbe 9667 13c0 5dcb cd3f
00000190: 381a 223f a5a7 c73f a791 623f ff50 5540
000001a0: 599b 5ac0 94ec 2440 c0d1 a4bf 5e4b bdbe
000001b0: 1aa4 17c0 f2bc 1340 e744 07c0 f572 83c0
000001c0: 2a71 7040 f9a5 bc3f d2b2 32bf f97f 083f
000001d0: 52cd 5dc0 d9cc 4040 c8be 62c0 79a7 873f
000001e0: 49c6 9ebf f68c c640 5030 cdbf e18c 73c0
000001f0: adb4 c43f f74a 48c0 6467 8b3f cbef 81c0
00000200: 475c 1fc0 1dff 7ac0 9ea6 10c0 a7e4 da3f
00000210: 74d4 d23f 29d6 bbbf a9f5 893f 9bb4 5c40
00000220: a18a 61c0 5d23 14c0 0167 c440 c1fa 923f
00000230: 75c7 1d40 149d 393f e0df 28be a00c 2d3f
00000240: 69c1 a9c0 1a77 043f c32c cfbf 664e 273e
00000250: e90a 8140 be6e aec0 4ff6 a0be 75ef 5540
00000260: b9fd d73f a577 85bf b78a 4dc0 9b65 8040
00000270: 1aaf 09bf 25c5 ab3f 6570 4f40 885d 373f
00000280: 454e 8abd ef2d 42c0 9675 c13e cefc 52c0
00000290: 2c49 2cc0 960d e53e 9d63 7ebf 149c da3d
000002a0: 2771 573f 495a efbe 283a 173e 768c 50c0
000002b0: c21b fe3f 6e12 133f c115 2740 25d0 2640
000002c0: 4ea9 04c0 26ab 0ec0 b626 1ac0 8679 f23e
000002d0: 46c3 c53f 04f3 48c0 d43b 28c0 ace8 6240
000002e0: eaf0 39c0 e7cf e93f ca0f 5240 c88a 8240
000002f0: 449d 68be 6378 c83c 09cf b63e db77 1940
00000300: e428 b3bf f59c 3540 7395 a93f 860c 27c0
00000310: 1057 2dc0 7395 b4be d83d 4ec0 6083 0f40
00000320: 6b3c 8840 0dc8 ed3f 9ba3 1ac0 2e97 febf
00000330: 47a5 a03f 53ce 22bf 0d87 f9bf eceb d8bf
00000340: 75b3 b7bd 422d c93e 52ea c7bf 76dc 2f40
00000350: 81b2 c6bf 541d 3740 e1be 38c0 255c 9a3e
00000360: 65a2 1d40 6b84 e2bf 721d a23f dead aa3f
00000370: 85ac b6bf d3ef b93f 2bda e2bf bc10 993e
00000380: c2cf 853f 6f7b 283f 7458 2ebf 358a aa3f
00000390: f2e7 68bf 8acd 0fc0 9b39 bdbf b14b 043f
000003a0: 38f2 28c0 378d f6bf 9b30 06c0 fb17 1840
000003b0: 7040 4fbf 86bf ca3f 241c 1d40 1d55 0e40
000003c0: 57d0 c240 1603 f1bf ce3e 9ec0 f668 ecbf
000003d0: 459d 93c0 75f0 e43f 9f21 60bf 3cfe 0a3f
000003e0: 9d11 ac40 159c 5540 45f9 13bf cb8d f73d
000003f0: f348 bf3f 043a b33f d7f1 0a40 b47e afbf

cls_token f4 [1, 1, 36]
4.9487743 0.63591844 0.32434595 -1.3879972 0.704177 -0.6241838 -0.5358132 0.42512482
-0.46074417 0.3018717 0.10411843 0.07600842 0.3501625 -0.7824603 -1.1958102 -0.5827742
0.09859374 0.4482631 -0.8854244 0.06785831 -0.0046051214 -1.126175 -0.54893285 -0.2501672
-6.155091 1.1418103 0.6482683 1.2725431 -2.3562922 -1.8046644 -2.3780468 -0.36356315
2.9488003 0.124289036 -0.0067332075 -1.0541807
00000000: 5c5c 9e40 8dcb 223f ac10 a63e e4a9 b1bf
00000010: f244 343f 82ca 1fbf 0e2b 09bf f6a9 d93e
00000020: a9e6 ebbe ed8e 9a3e 0b3c d53d 4daa 9b3d
00000030: 8048 b33e 514f 48bf 4f10 99bf b130 15bf
00000040: 84eb c93d be82 e53e 2cab 62bf 4cf9 8a3d
00000050: 8fe6 96bb 8126 90bf dd86 0cbf ea15 80be
00000060: 81f6 c4c0 d726 923f e9f4 253f b1e2 a23f
00000070: 7ecd 16c0 3eff e6bf eb31 18c0 f324 babe
00000080: 25b9 3c40 408b fe3d 3da2 dcbb 65ef 86bf

to_patch_embedding.1.weight f4 [36, 12]
-1.273891 0.32462502 0.38226098 -0.6631871 1.2438769 0.9809102 0.0730602 -1.3592678
-0.74691606 -0.34970686 -1.1941086 -0.4446744 0.47284842 0.068275385 1.0976502 -0.96471876
-0.2068253 0.36875543 -0.9162405 -0.1269212 -0.77190906 0.018556261 0.3118298 -0.7120062
-1.1242207 0.7399503 0.40976423 1.6806711 0.3934069 0.39553076 -1.3728737 0.07241705
0.48582128 -0.41441667 -0.46888813 0.31778038 -0.68985265 -0.24492347 -1.4458106 1.0328071
0.69997454 -1.0555521 -0.24032876 1.7486588 0.34674707 -0.4652886 0.2016404 0.32877845
1.1569257 0.7776777 -0.67075104 -0.62132114 -0.079328924 -1.1386216 -1.1857383 0.80308104
0.1845406 0.9084113 0.76417166 -0.25905782 0.5798162 0.28607503 -0.9333422 0.4887586
-1.1009625 -1.3091613 0.20415637 0.16945988 -1.0029757 -2.175156 1.1385679 -0.84636736
0.27079022 -0.24516402 0.5563834 -1.4820971 -0.5677656 0.5904121 0.98566604 0.0040536583
0.5022093 -0.022900252 -1.6916174 0.46929753 -0.19350363 -0.10298321 0.27678004 -2.0281725
0.60346645 -0.18082236 0.6485662 -0.78718054 -0.33474278 -1.2137812 -0.7827426 -0.26159853
-0.07554981 0.06424719 -1.1255443 1.046394 1.4798462 -1.2610995 0.15354073 0.6609519
0.70204556 0.0069527617 0.1035876 0.35172322 0.69732964 0.22453742 0.7917743 -0.2630546
0.13563676 0.6265315 -0.032931488 0.28392574 0.61990136 -0.11493427 -0.3057575 0.6077718
0.48621958 -0.52520627 0.4730657 0.460104 -0.67683405 0.8124155 0.19273569 -2.111277
0.49918225 1.67546 -0.4884788 0.17977221 0.41724375 0.0127036525 1.1997694 -0.1572741
-0.48452783 1.2052703 -0.50423294 0.2039797 -0.95604914 -0.46687904 -1.2324767 -0.9328377
1.5727878 -0.4389742 -1.1546584 0.47600064 0.17073557 -0.6415802 0.3598498 -1.5634634
-0.45985278 -0.66526663 0.25797418 -0.6083672 0.22174565 -0.16673936 0.37178007 -0.328447
0.9216492 0.56235236 1.8457831 0.30144513 -0.427543 -0.6291551 0.09854266 -0.41297582
0.508946 0.8823711 0.51005757 -0.17679073 -0.27718136 0.063902676 0.012483654 0.27142859
0.27230293 -0.025530642 0.6338396 0.4970763 1.8232758 0.29441628 -1.6608047 0.697221
0.5029275 -1.4492848 0.6110497 -0.27380162 -0.11309276 0.31906918 -0.6792305 0.09313104
0.9467906 0.4604511 -0.2229058 0.5071399 -0.15322356 0.3472093 0.8052633 -1.3621536
0.036024675 0.08900292 0.073759705 -0.31154716 -0.52796566 0.12169189 0.31433073 -0.6821257
-0.40984184 0.9603599 -1.242062 0.24347138 -0.3922148 -0.6721084 -1.6421441 -0.30389923
-0.18849571 -0.19198796 -0.19355065 -0.57327384 -0.33983958 -1.1934991 -0.83118385 -1.0627595
0.3237843 -0.4013928 1.0139313 0.5376494 0.9850701 0.49941644 0.11857918 0.35532227
0.056380946 0.18427125 -0.0016786652 -1.521739 -0.5700239 -1.1077411 -0.45204 -0.63986146
-0.38028145 -0.20778263 -2.0263417 0.6497856 -0.09180788 -2.0657492 -0.19724163 0.5399359
0.43220702 -0.7560199 0.6062463 0.60762763 -1.2612761 0.15101136 -1.1961235 0.93852943
00000000: dc0e a3bf 4035 a63e b6b7 c33e a1c6 29bf
00000010: 5c37 9f3f ee1c 7b3f 96a0 953d 7dfc adbf
00000020: e435 3fbf c70c b3be 8dd8 98bf 5dac e3be
00000030: 3019 f23e f7d3 8b3d cd7f 8c3f cff7 76bf
00000040: 03ca 53be 83cd bc3e bd8e 6abf a2f7 01be
00000050: d59b 45bf 4d03 983c 28a8 9f3e 0a46 36bf
00000060: 77e6 8fbf 626d 3d3f 9ecc d13e 3b20 d73f
00000070: a16c c93e 0283 ca3e 53ba afbf 644f 943d
00000080: 91bd f83e 6c2e d4be 1b12 f0be 1cb4 a23e
00000090: 2f9a 30bf 38cd 7abe 5210 b9bf 0633 843f
000000a0: 8831 333f 551c 87bf be18 76be 0dd4 df3f
000000b0: d588 b13e 4f3a eebe d27a 4e3e a655 a83e
000000c0: 2416 943f e315 473f 57b6 2bbf e70e 1fbf
000000d0: 3477 a2bd 5abe 91bf 46c6 97bf b896 4d3f
000000e0: 36f8 3c3e a58d 683f c1a0 433f 3aa3 84be
000000f0: d66e 143f 6d78 923e 84ef 6ebf 913e fa3e
00000100: 57ec 8cbf 9992 a7bf 5e0e 513e e486 2d3e
00000110: 8261 80bf c235 0bc0 98bc 913f 88ab 58bf
00000120: 04a5 8a3e 470c 7bbe 246f 0e3f 5cb5 bdbf
00000130: 1659 11bf 3f25 173f 9c54 7c3f 8dd4 843b
00000140: ca90 003f 4f99 bbbc eb86 d8bf c447 f03e
00000150: d125 46be dce8 d2bd 1db6 8d3e 94cd 01c0
00000160: c77c 1a3f 7f29 39be 6f08 263f aa84 49bf
00000170: 6863 abbe 2f5d 9bbf d261 48bf 3ef0 85be
00000180: dcb9 9abd 0894 833d d611 90bf 3df0 853f
00000190: 9a6b bd3f b56b a1bf c839 1d3e 2534 293f
000001a0: 42b9 333f fed3 e33b bc25 d43d 1115 b43e
000001b0: 3284 323f 23ed 653e b8b1 4a3f 18af 86be
000001c0: 5de4 0a3e 5e64 203f 2be3 06bd b75e 913e
000001d0: dbb1 1e3f a962 ebbd 3f8c 9cbe ef96 1b3f
000001e0: c6f1 f83e eb73 06bf ab35 f23e c092 eb3e
000001f0: ff44 2dbf 76fa 4f3f 815c 453e 2a1f 07c0
00000200: d194 ff3e 7975 d63f e519 fabe 3516 383e
00000210: f9a0 d53e fb22 503c 0b92 993f 760c 21be
00000220: 0814 f8be 4c46 9a3f 6915 01bf 0ee0 503e
00000230: a3bf 74bf c50a efbe ccc1 9dbf 74ce 6ebf
00000240: 1c51 c93f 3ac1 e0be d9cb 93bf 5bb6 f33e
00000250: 4ed5 2e3e 9a3e 24bf 3c3e b83e 921f c8bf
00000260: d371 ebbe ea4e 2abf 3115 843e f4bd 1bbf
00000270: 4b11 633e b9bd 2abe f559 be3e 352a a8be
00000280: 34f1 6b3f 53f6 0f3f 9f42 ec3f 0457 9a3e
00000290: ebe6 dabe 4f10 21bf bcd0 c93d 9171 d3be
000002a0: 494a 023f 13e3 613f 2293 023f a108 35be
000002b0: b7ea 8dbe 68df 823d 3d88 4c3c b0f8 8a3e
000002c0: 4a6b 8b3e a325 d1bc 5043 223f c980 fe3e
000002d0: 1a61 e93f bbbd 963e 4095 d4bf 137d 323f
000002e0: dbbf 003f 2a82 b9bf c16d 1c3f ba2f 8cbe
000002f0: 2d9d e7bd 095d a33e 0de2 2dbf 7dbb be3d
00000300: de60 723f 3fc0 eb3e 6b41 64be ecd3 013f
00000310: a3e6 1cbe 6bc5 b13e bc25 4e3f 0d5b aebf
00000320: 9c8e 133d 2a47 b63d 540f 973d 1c83 9fbe
00000330: c228 07bf 9939 f93d f5ef a03e ca9f 2ebf
00000340: cad6 d1be 25da 753f e3fb 9ebf 9050 793e
00000350: 61d0 c8be 4c0f 2cbf c731 d2bf ae98 9bbe
00000360: 0505 41be 7e98 44be 2432 46be 13c2 12bf
00000370: 74ff adbe 94c4 98bf 77c8 54bf 8108 88bf
00000380: 0ec7 a53e 5b83 cdbe 80c8 813f 64a3 093f
00000390: 8e2d 7c3f 83b3 ff3e a4d9 f23d cdec b53e
000003a0: b5ef 663d 9ab1 3c3e a806 dcba 58c8 c2bf
000003b0: 16ed 11bf 76ca 8dbf c971 e7be f6cd 23bf
000003c0: 40b4 c2be f8c4 54be 95af 01c0 5958 263f
000003d0: c505 bcbd 3c35 04c0 b6f9 49be 3d39 0a3f
000003e0: 3d4a dd3e 858a 41bf f532 1b3f 7c8d 1b3f
000003f0: 7f71 a1bf b9a2 1a3e 931a 99bf 7743 703f

to_patch_embedding.1.bias f4 [36]
0.14875811 0.666937 -1.9183693 0.3680327 0.64575875 1.1412802 -1.0737034 2.9673884
-1.6221405 -1.961575 -0.6126174 1.742316 0.76102245 0.5434024 -0.7307756 0.07453048
-1.3679466 -2.005948 -1.566225 1.4603783 0.19695221 0.4701997 -1.3017465 -1.7690002
1.7890657 -0.054951314 -3.0016441 0.3509075 -0.3113737 1.0976449 0.68378747 1.0796883
-0.86369073 1.3655928 -2.0074599 1.4702911
00000000: 0c54 183e 62bc 2a3f 208d f5bf c86e bc3e
00000010: 7250 253f 7815 923f 1d6f 89bf b1e9 3d40
00000020: 4da2 cfbf e414 fbbf 7ed4 1cbf 3604 df3f
00000030: 5ed2 423f 6b1c 0b3f 1c14 3bbf 70a3 983d
00000040: e018 afbf 7461 00c0 107a c8bf aded ba3f
00000050: d7ad 493e 04be f03e a19f a6bf 996e e2bf
00000060: 1b00 e53f a114 61bd f01a 40c0 26aa b33e
00000070: 606c 9fbe a17f 8c3f b20c 2f3f 3a33 8a3f
00000080: d61a 5dbf bfcb ae3f 397a 00c0 8032 bc3f

transformer.layers.0.0.norm.weight f4 [36]
1.0025992 0.7501335 1.3867947 0.7901294 1.282036 1.6163954 1.777761 1.7592884
1.5107162 1.6448061 1.4315803 1.9082341 0.631481 1.8719141 0.87588376 0.956171
0.53224075 0.6386585 1.2455623 1.2065284 1.8164747 1.0124549 0.52530074 0.6421396
0.513961 1.3360238 0.57228994 1.6608461 1.6278269 1.3339759 1.9493939 1.1624218
-0.13625163 1.1069167 1.5349011 1.7026753
00000000: 2c55 803f c008 403f 7d82 b13f ec45 4a3f
00000010: c119 a43f 0be6 ce3f ac8d e33f 5d30 e13f
00000020: 265f c13f 0289 d23f 063e b73f 0441 f43f
00000030: bda8 213f e29a ef3f eb39 603f 9fc7 743f
00000040: ee40 083f 207f 233f 966e 9f3f 866f 9a3f
00000050: 3e82 e83f 1f98 813f 1c7a 063f 4363 243f
00000060: f392 033f d402 ab3f 9881 123f 9b96 d43f
00000070: a25c d03f b9bf aa3f bd85 f93f 3dca 943f
00000080: 8c85 0bbe 72af 8d3f a477 c43f 44f1 d93f

transformer.layers.0.0.norm.bias f4 [36]
-0.25074193 -0.6940001 0.463458 0.4394907 -0.36451986 0.15986358 0.80050933 -0.075845875
0.055379692 0.26006508 0.032364726 -0.59427154 -0.6846593 0.14791128 0.45141706 -0.25807202
0.29300866 0.3124744 0.08159937 -0.4385078 0.24614856 0.14053689 0.42098182 -0.24247299
-0.21286774 0.10588168 0.51501626 -0.48349524 0.62296355 0.00080717 -0.311451 -0.06793056
-0.03587471 -0.7771286 0.74194616 0.03824444
00000000: 3f61 80be fea9 31bf 5e4a ed3e ed04 e13e
00000010: 59a2 babe 47b3 233e 2eee 4c3f 1555 9bbd
00000020: d1d5 623d 4027 853e e090 043d 2e22 18bf
00000030: d545 2fbf 0e76 173e 2320 e73e 0422 84be
00000040: 3b05 963e a5fc 9f3e 921d a73d 1884 e0be
00000050: 5e0e 7c3e e7e8 0f3e ee8a d73e d74a 78be
00000060: 00fa 59be 7fd8 d83d 1bd8 033f b08c f7be
00000070: 8a7a 1f3f 4398 533a 8176 9fbe 2d1f 8bbd
00000080: 5cf1 12bd e6f1 46bf 2ff0 3d3f 34a6 1c3d

transformer.layers.0.0.fn.to_qkv.weight f4 [216, 36]
-0.5617918 -0.5509731 0.45642444 -0.6030488 -0.8882929 -1.2647649 -0.4786739 -1.1777571
0.17118877 0.40595502 0.775843 -1.6724087 -1.3830023 0.28529978 0.8158977 -0.35494813
0.506506 -1.1497252 0.5725504 -1.8309078 1.2175881 0.15675484 -0.14256914 0.30514655
0.7637573 1.3010757 0.90239406 0.2536544 3.4352052 -0.809954 0.19194193 0.7476263
-0.1726623 -1.5436823 1.0676281 2.0842412 -1.9669073 1.3159256 -1.3469454 -1.3584106
1.2933407 1.6403761 -0.7560085 -2.345865 -0.7286022 -0.8161574 0.4522063 0.35966322
1.710335 -1.9749378 0.35613492 0.3951865 -0.9379545 -0.23405766 0.8027123 1.1287185
0.087694705 0.08275101 0.874316 -0.33089438 1.5361334 -0.19202338 -1.798574 -0.15740417
-1.3946452 -0.19667268 1.8546114 1.3130277 0.5542401 2.1207836 -0.8737718 -0.23618618
-0.8090322 0.49341986 -0.97384083 -0.7219793 -0.02889962 -0.054961283 -0.7944084 -1.236411
-0.13111098 -1.2183212 1.1555716 -0.0345073 0.66450536 -0.9047843 -0.034819443 1.2240525
-0.6562946 -0.23298988 -0.19641106 1.1219151 0.7680111 0.30698875 -0.21928748 0.14798206
0.50169003 1.2192199 -0.6765899 0.22133392 0.031071689 -0.42864904 -0.1863579 0.98173106
0.4465354 0.9420427 -0.38718614 -0.73968726 -0.9470151 0.55897903 -1.2033644 -1.1377226
1.0331111 1.2418036 -1.064647 -2.4622283 -0.37706393 -0.5841735 1.0019367 -0.95312524
1.386346 -2.0431077 0.43901533 0.6687608 -0.69897705 -0.22644721 0.6855448 0.5903612
0.76033646 0.5214779 0.41421673 0.28241867 0.5340519 0.29957336 -0.7431889 0.30734727
-0.9245343 -0.8888159 1.2493719 1.2598579 0.7586448 0.6395361 -0.600663 0.12610191
0.35943756 -0.2772023 1.0290047 0.837892 -0.5887315 -1.2110654 -0.23905833 0.9740794
0.7137108 0.4335132 -0.39297286 0.6026252 -1.7586309 1.1991589 0.5389645 -0.7178434
0.56637186 -0.23405649 -0.29052916 -1.5009723 -0.21575116 -0.02485026 -0.13492699 0.048146002
-0.078276865 0.39325148 0.5436993 -0.2860653 1.6803516 0.61449355 -1.434227 0.26874125
-0.6258717 -0.6905895 0.7522954 0.9663896 1.1708075 0.5978183 0.5299291 -0.34132576
-0.90050596 0.82130295 1.3571111 1.5738018 -1.168144 1.07031 0.6522254 0.5888918
1.1807816 1.0805609 -1.3587633 -0.7599081 1.2035937 1.4604942 -0.12724666 1.3585341
-1.113219 -0.65233856 -0.05183093 -0.08471407 -0.894734 -0.8846443 -0.8015613 0.11271397
-1.5626873 -0.475535 0.21561748 -1.5699768 -0.5966253 -0.4235174 0.3825637 -1.504053
-0.70817786 -0.2562837 -1.9635112 -0.9770899 0.5654972 0.43516633 -1.0315125 -1.6095018
0.06500009 -1.1281183 0.95289123 -1.0772902 1.229501 -2.2387762 0.5183906 1.2681088
-0.6825056 -1.3662711 0.19307768 0.46368858 1.5433269 1.0505975 -0.004974697 0.030575782
0.20480779 0.62520146 0.054361887 0.90348417 0.66223353 -0.3883115 0.8753822 1.2047315
1.422361 0.45471454 -0.9327855 0.03510428 0.10115708 -0.55547935 1.4567322 1.245026
00000000: 96d1 0fbf 930c 0dbf 77b0 e93e 6861 1abf
00000010: 2a67 63bf d1e3 a1bf bf14 f5be bfc0 96bf
00000020: 1c4c 2f3e 56d9 cf3e a69d 463f 7d11 d6bf
00000030: 3806 b1bf d012 923e acde 503f c3bb b5be
00000040: 61aa 013f 322a 93bf aa92 123f 305b eabf
00000050: edd9 9b3f 5784 203e a5fd 11be 2b3c 9c3e
00000060: 9985 433f a689 a63f 4c03 673f fdde 813e
00000070: 67da 5b40 2559 4fbf 6d8c 443e 7064 3f3f
00000080: 63ce 30be 6297 c5bf 0aa8 883f 3564 0540
00000090: 9ec3 fbbf 4070 a83f b568 acbf 66e0 adbf
000000a0: 308c a53f d8f7 d13f c689 41bf a722 16c0
000000b0: ac85 3abf b1ef 50bf 9687 e73e c725 b83e
000000c0: 42ec da3f c3ca fcbf 5157 b63e e355 ca3e
000000d0: c91d 70bf d0ac 6fbe 8e7e 4d3f d979 903f
000000e0: 4899 b33d 5d79 a93d 2cd3 5f3f fd6a a9be
000000f0: 05a0 c43f c7a1 44be ac37 e6bf 8f2e 21be
00000100: bc83 b2bf 9064 49be e863 ed3f 4b11 a83f
00000110: aee2 0d3f ebba 0740 82af 5fbf cada 71be
00000120: bc1c 4fbf 87a1 fc3e a24d 79bf a3d3 38bf
00000130: e5be ecbc 151f 61bd 595e 4bbf b742 9ebf
00000140: f541 06be f3f1 9bbf c5e9 933f 8757 0dbd
00000150: 061d 2a3f f29f 67bf d59e 0ebd c1ad 9c3f
00000160: ec02 28bf e694 6ebe fb1f 49be ea9a 8f3f
00000170: 609c 443f a12d 9d3e e68c 60be 9c88 173e
00000180: c26e 003f 660f 9c3f ff34 2dbf 5ca5 623e
00000190: 0e8a fe3c e377 dbbe 9bd4 3ebe ba52 7b3f
000001a0: 4aa0 e43e b629 713f 433d c6be 255c 3dbf
000001b0: 956f 72bf 4019 0f3f d807 9abf e5a0 91bf
000001c0: fc3c 843f 6cf3 9e3f 5a46 88bf 2695 1dc0
000001d0: 860e c1be 658c 15bf 763f 803f 0400 74bf
000001e0: c973 b13f 47c2 02c0 9ec6 e03e e833 2b3f
000001f0: 29f0 32bf c7e1 67be dd7f 2f3f e921 173f
00000200: 69a5 423f 937f 053f 3714 d43e 2e99 903e
00000210: a0b7 083f ae61 993e a141 3ebf 9f5c 9d3e
00000220: 48ae 6cbf 7089 63bf 6beb 9f3f 0643 a13f
00000230: 8c36 423f a3b8 233f 0dc5 19bf dc20 013e
00000240: 3308 b83e 76ed 8dbe 6db6 833f 1780 563f
00000250: 1cb7 16bf 3104 9bbf b5cb 74be 445d 793f
00000260: c0b5 363f 71f5 dd3e bd33 c9be a545 1a3f
00000270: d11a e1bf 0a7e 993f 94f9 093f 96c4 37bf
00000280: bffd 103f 81ac 6fbe 3dc0 94be dc1f c0bf
00000290: dfed 5cbe c692 cbbc 4d2a 0abe be34 453d
000002a0: 9f4f a0bd 4258 c93e e12f 0b3f 2777 92be
000002b0: c315 d73f 734f 1d3f c094 b7bf 7498 893e
000002c0: 2139 20bf 79ca 30bf 6e96 403f 4f65 773f
000002d0: 05dd 953f 9f0a 193f 6fa9 073f 40c2 aebe
000002e0: 8f87 66bf e940 523f d1b5 ad3f 5672 c93f
000002f0: be85 95bf ebff 883f 3ef8 263f 9dc1 163f
00000300: da23 973f d24f 8a3f f5eb adbf 5689 42bf
00000310: 5c0f 9a3f 79f1 ba3f f34c 02be 72e4 ad3f
00000320: f67d 8ebf a9ff 26bf ab4c 54bd 927e adbd
00000330: 4a0d 65bf 0d78 62bf 1f33 4dbf 95d6 e63d
00000340: 2306 c8bf 5379 f3be d4ca 5c3e 00f5 c8bf
00000350: 70bc 18bf 46d7 d8be 64df c33e cf84 c0bf
00000360: 254b 35bf 9e37 83be 5654 fbbf 9022 7abf
00000370: 6dc4 103f 1fce de3e 9a08 84bf 2804 cebf
00000380: c41e 853d 2e66 90bf aef0 733f a5e4 89bf
00000390: 4a60 9d3f 1c48 0fc0 3fb5 043f 6451 a23f
000003a0: b0b8 2ebf f9e1 aebf 28b6 453e 9768 ed3e
000003b0: bc8b c53f fb79 863f c802 a3bb 107a fa3c
000003c0: 22b9 513e 340d 203f 92aa 5e3d bd4a 673f
000003d0: 2388 293f c4d0 c6be 0c19 603f a434 9a3f
000003e0: ed0f b63f 58d0 e83e 08cb 6ebf 81c9 0f3d
000003f0: 712b cf3d e533 0ebf 3376 ba3f 035d 9f3f

transformer.layers.0.0.fn.to_out.0.weight f4 [36, 72]
-0.28172538 -0.9064072 1.1324126 -1.3472854 0.98395294 0.6039547 -0.806544 -0.24943767
-0.7219215 -0.83186334 -0.2644112 -0.33768383 -0.2754288 -0.10803596 1.8063898 -1.0986637
-0.26162347 1.7580693 0.86833614 0.6993148 1.3345864 0.13581997 -0.12778936 0.7261069
1.0672818 0.45172668 0.2104737 1.2237076 -0.2690035 0.3872751 0.22621927 0.5002786
0.38251895 -0.2689305 -1.5891654 -0.4204726 -0.6240749 0.663078 0.30344513 -0.37461707
1.765071 1.5235696 1.2749227 -0.49575648 -0.42282957 -0.98520625 -1.1051441 -1.6661797
1.469335 0.15286282 -0.24915662 1.3644373 1.5775366 -0.24483782 0.5346901 -0.58973527
-0.3043822 0.98512995 0.19181004 1.6172903 -1.1245592 -1.4392701 0.54746926 0.8851952
0.151301 -0.7650025 0.5042809 -0.08400036 0.65406686 0.5669549 0.4267299 -0.5107937
-1.9356807 1.3599551 0.709112 -0.45737487 1.6945812 -1.0161186 -0.76282513 -0.6449018
1.0230364 -1.5010813 0.65327245 0.32953724 2.2619321 -0.007252158 0.2828221 -0.4898715
-0.05116053 0.25110754 1.2366824 -0.7361211 1.8110541 -1.6809938 0.7530476 0.3904212
0.4477646 -0.62581426 -0.765789 0.22538725 1.1495732 -0.80668056 -0.6005412 0.6141959
-1.4899833 -0.37122166 0.2821594 1.1147071 0.13243888 -0.0035291365 1.2290591 1.6349103
-1.1310239 -0.8066051 -0.874512 -0.77764565 0.4633686 -0.33460376 -0.4273629 0.24410893
0.059660837 1.0354366 -0.9101649 -0.6476161 -0.33601025 -0.5810745 0.33688015 0.69863176
-1.7908663 -0.15515105 -0.8196613 -0.94798094 0.93925977 0.76022446 0.06410162 -0.89632946
0.7170879 0.53043354 0.31214827 -1.2984945 -0.14855893 0.5060686 0.3501338 0.2722615
2.0918417 -1.139094 0.743147 0.9512765 -1.6077031 -0.96997565 2.63661 -0.058814973
-0.731066 1.0959162 1.4900665 1.8307817 0.24652296 -1.5241958 -0.048832454 0.29443806
0.16239965 -0.66704935 -1.2204645 -0.46291974 -1.8346788 2.3683794 -0.4244452 -1.331803
0.4004219 0.5622098 1.1092588 0.32581177 -0.2206661 0.38742834 0.16368258 -1.2219847
-0.08886089 -0.4593424 0.2195761 -0.8181727 -0.02803954 -1.1897779 0.34626102 -1.5105361
-0.33423555 -1.7018366 -0.17355216 0.48920962 1.7688451 -0.6005382 0.7013579 0.9584635
-0.27395472 1.0489134 0.5128513 -0.3284466 -1.122393 -0.29846156 -2.0383656 -0.31999633
-0.07234319 -0.33197308 2.1056135 -1.4582411 -0.015015269 -0.42049992 0.032271553 -0.31629184
-0.6435948 -0.45137897 0.1778477 -0.0071157427 -0.06631115 -0.10778111 0.19902366 -0.88188237
-2.0798743 1.466846 0.5843859 0.09662064 1.3423758 -1.2385681 -0.725637 0.21450017
1.2118404 -1.0681554 0.72043854 0.36146396 2.4997668 -1.2442616 1.2972016 1.1481614
1.7043413 -0.44980243 -1.0163598 -3.5542505 0.6507538 0.26704377 -1.1905082 -0.19384985
-0.041708272 -1.0200496 -0.37749574 0.02881863 1.0881968 -0.98264664 -0.1417659 -0.12346642
-1.4020964 -0.7478631 1.0168275 0.5305476 0.14877099 0.27602634 0.47548434 1.5689566
00000000: 4f3e 90be 4d0a 68bf e5f2 903f d973 acbf
00000010: 57e4 7b3f c69c 1a3f ab79 4ebf 976c 7fbe
00000020: d9cf 38bf fff4 54bf e860 87be e5e4 acbe
00000030: 0105 8dbe f541 ddbd c837 e73f 03a1 8cbf
00000040: 83f3 85be 6a08 e13f 474b 5e3f 4b06 333f
00000050: bad3 aa3f 6414 0b3e 37db 02be 24e2 393f
00000060: b19c 883f b848 e73e 6b86 573e 73a2 9c3f
00000070: d4ba 89be ec48 c63e 06a6 673e 4212 003f
00000080: 86d9 c33e 42b1 89be c669 cbbf 2f48 d7be
00000090: 5fc3 1fbf 7bbf 293f 295d 9b3e cfcd bfbe
000000a0: d9ed e13f 5404 c33f ab30 a33f cbd3 fdbe
000000b0: 1e7d d8be 7a36 7cbf 5d75 8dbf 6045 d5bf
000000c0: 2b13 bc3f 1288 1c3e ea22 7fbe e2a5 ae3f
000000d0: b8ec c93f c4b6 7abe 73e1 083f e4f8 16bf
000000e0: fcd7 9bbe 7a31 7c3f da69 443e 5e03 cf3f
000000f0: 8ef1 8fbf 013a b8bf f226 0c3f 279c 623f
00000100: a6ee 1a3e 34d7 43bf 8e18 013f 6108 acbd
00000110: ed70 273f f523 113f 577c da3e 60c3 02bf
00000120: 63c4 f7bf 0213 ae3f 5d88 353f 0a2d eabe
00000130: 09e8 d83f 2d10 82bf 8248 43bf 4918 25bf
00000140: dbf2 823f 6f23 c0bf dd3c 273f 1bb9 a83e
00000150: 7fc3 1040 83a3 edbb 0fce 903e 70d0 fabe
00000160: b48d 51bd 2b91 803e 9c4b 9e3f 6f72 3cbf
00000170: 9fd0 e73f ce2a d7bf bac7 403f 4ae5 c73e
00000180: 6741 e53e 5d35 20bf bf0a 44bf eacb 663e
00000190: 3725 933f 9e82 4ebf 11bd 19bf f13b 1d3f
000001a0: c6b7 bebf c410 bebe 3277 903e b9ae 8e3f
000001b0: 0f9e 073e 1649 67bb cf51 9d3f be44 d13f
000001c0: 64c5 90bf ac7d 4ebf 05e0 5fbf c913 47bf
000001d0: a63e ed3e 2f51 abbe 4fcf dabe b1f7 793e
000001e0: ec5e 743d 3089 843f 9100 69bf 2bca 25bf
000001f0: 8909 acbe 4cc1 14bf 8e7b ac3e 88d9 323f
00000200: 1b3b e5bf ebdf 1ebe 53d5 51bf e1ae 72bf
00000210: 5473 703f 129e 423f b647 833d d975 65bf
00000220: 1393 373f 7eca 073f e6d1 9f3e 1135 a6bf
00000230: d51f 18be b68d 013f bd44 b33e dc65 8b3e
00000240: bce0 0540 d5cd 91bf e23e 3e3f db86 733f
00000250: 37c9 cdbf 5350 78bf 38be 2840 f8e7 70bd
00000260: 2427 3bbf fb46 8c3f 80ba be3f 0e57 ea3f
00000270: 8470 7c3e d918 c3bf 8a04 48bd 96c0 963e
00000280: 184c 263e bfc3 2abf 2e38 9cbf d103 edbe
00000290: c1d6 eabf 8793 1740 e250 d9be 8578 aabf
000002a0: 1904 cd3e fbec 0f3f 31fc 8d3f cdd0 a63e
000002b0: 4bf6 61be 025d c63e 689c 273e ff69 9cbf
000002c0: b3fc b5bd ed2e ebbe 8fd8 603e c473 51bf
000002d0: 2db3 e5bc a44a 98bf 2049 b13e 3f59 c1bf
000002e0: ec20 abbe c8d5 d9bf a8b7 31be af79 fa3e
000002f0: 8469 e23f dfbc 19bf 318c 333f dd5d 753f
00000300: cb43 8cbe cb42 863f 394a 033f 272a a8be
00000310: 93aa 8fbf f4cf 98be 9574 02c0 8fd6 a3be
00000320: ab28 94bd 60f8 a9be 5fc2 0640 a5a7 babf
00000330: 9a02 76bc c44b d7be 2d2f 043d 01f1 a1be
00000340: a1c2 24bf 251b e7be b51d 363e 2d2b e9bb
00000350: 24ce 87bd 58bc dcbd dccc 4b3e 0bc3 61bf
00000360: a91c 05c0 9cc1 bb3f 509a 153f 0be1 c53d
00000370: f8d2 ab3f 6689 9ebf 59c3 39bf efa5 5b3e
00000380: 961d 9b3f 51b9 88bf a96e 383f ce11 b93e
00000390: 2efc 1f40 f743 9fbf b40a a63f f4f6 923f
000003a0: db27 da3f 814c e6be 1418 82bf d778 63c0
000003b0: cd97 263f f6b9 883e 9362 98bf 9380 46be
000003c0: 4bd6 2abd fc90 82bf 1f47 c1be 0c15 ec3c
000003d0: 084a 8b3f bb8e 7bbf 152b 11be f6db fcbd
000003e0: e577 b3bf f573 3fbf 6727 823f f8d1 073f
000003f0: 6c57 183e 5353 8d3e af72 f33e 92d3 c83f

transformer.layers.0.0.fn.to_out.0.bias f4 [36]
1.4929792 -0.616892 0.3324844 -0.88965756 0.5264704 0.0126834 0.2711717 -0.25597033
0.09512436 0.17021887 -0.18444708 0.26864767 -0.41368097 0.76572 0.30801973 0.885773
0.3312095 -0.003557433 -0.18235622 1.4181745 -0.150737 0.64222515 0.1683183 1.5086126
-0.6673296 -0.039353233 -0.18769796 0.009327911 -1.4874974 -0.20382886 -1.4752513 -1.0840213
-0.22232017 -1.371035 -1.0106212 -0.3080291
00000000: f119 bf3f a2ec 1dbf 653b aa3e 99c0 63bf
00000010: c4c6 063f 09ce 4f3c 04d7 8a3e 8b0e 83be
00000020: 8fd0 c23d db4d 2e3e b2df 3cbe 308c 893e
00000030: fecd d3be 3a06 443f c3b4 9d3e 05c2 623f
00000040: 4b94 a93e d223 69bb 97bb 3abe be86 b53f
00000050: cd5a 1abe de68 243f a25b 2c3e 381a c13f
00000060: 1dd6 2abf db30 21bd e533 40be 18d4 183c
00000070: 5166 bebf 83b8 50be 09d5 bcbf 36c1 8abf
00000080: e6a7 63be 137e afbf 095c 81bf fdb5 9dbe

transformer.layers.0.1.norm.weight f4 [36]
2.2867594 0.5832124 1.2573003 1.763571 1.9377193 1.3583078 0.46179444 2.1352296
0.74074537 0.45025215 2.612133 0.7015559 0.12109533 1.8555353 1.3053768 1.9243107
2.470184 0.52862805 0.4858925 1.5235163 2.6077507 3.2498293 2.1502686 1.9205521
1.626701 1.9086707 0.8758445 1.2741014 1.8935494 2.1355016 1.8145502 2.1389139
0.5835312 2.369717 1.3942566 0.3166601
00000000: 445a 1240 684d 153f 37ef a03f b2bc e13f
00000010: 3007 f83f 08dd ad3f 5270 ec3e 9aa7 0840
00000020: 7da1 3d3f 7387 e63e 302d 2740 2b99 333f
00000030: d400 f83d 2e82 ed3f 9616 a73f d04f f63f
00000040: 7f17 1e40 2b54 073f e7c6 f83e 9502 c33f
00000050: 63e5 2640 34fd 4f40 009e 0940 a7d4 f53f
00000060: bd37 d03f 524f f43f 5837 603f c115 a33f
00000070: d45f f23f 0fac 0840 2e43 e83f f7e3 0840
00000080: 4d62 153f 71a9 1740 0077 b23f 4621 a23e

transformer.layers.0.1.norm.bias f4 [36]
-0.64188814 -0.060385536 0.055414412 -0.01768151 0.011613987 0.19320196 0.042079516 0.039203536
0.14148386 -0.013781912 0.18820469 0.35452858 -0.1049475 -1.0211487 0.35764095 -0.564963
-0.124912575 0.07932906 -0.15013966 -0.48625377 0.6040141 -0.48181826 0.48819613 -0.79043543
0.49367592 -0.24702461 0.011568306 -0.2843781 0.89184004 0.5721402 0.2658166 0.44249806
-0.5199249 0.7731025 0.62026393 -0.051477205
00000000: c852 24bf d356 77bd 39fa 623d d0d8 90bc
00000010: 9848 3e3c bcd6 453e 925b 2c3d e393 203d
00000020: 25e1 103e 87cd 61bc bbb8 403e c584 b53e
00000030: b7ee d6bd 00b5 82bf b71c b73e 6aa1 10bf
00000040: 2ad2 ffbd 4677 a23d 36be 19be 41f6 f8be
00000050: aba0 1a3f e2b0 f6be d8f4 f93e fa59 4abf
00000060: 17c3 fc3e 05f4 7cbe fe88 3d3c 029a 91be
00000070: a14f 643f c877 123f 1d19 883e 1b8f e23e
00000080: cc19 05bf 0cea 453f 9ec9 1e3f c3d9 52bd

transformer.layers.0.1.fn.net.0.weight f4 [72, 36]
-0.4665237 0.22833477 -0.48093078 -1.4328762 1.1925534 0.6473563 -0.012765779 -0.021086428
0.94727856 0.0144168055 0.44349736 -0.049187295 -0.105644576 -2.2426584 0.21800137 -0.9235168
1.114353 -0.099411845 -0.14482674 0.17653863 2.5818825 0.6114177 0.27969712 -0.425454
-1.2290817 1.1811026 0.66074985 -0.3883187 0.2338679 -0.13029213 0.4134228 0.103719264
-0.52551126 0.18720856 1.3248743 -0.17669281 0.49492002 -0.2935338 -0.28923342 1.8628266
-0.6460947 -0.40323648 0.27120644 0.74919444 -1.060692 0.11623859 -2.041214 -0.32162932
-0.20786427 1.2021124 0.39258555 1.0175194 -2.909607 -0.7659765 -0.2426708 0.33637023
0.5658391 -0.3499267 -0.28224367 0.3292772 1.2354052 0.8215485 -0.45751888 -0.5956714
-1.2992214 0.3523411 -0.30597305 -0.48176447 0.4853293 1.397472 -0.84254193 0.5805107
-0.64210975 0.9937993 -1.938434 1.6784128 -1.5934982 0.19952863 -1.0265934 1.2897115
-0.6560304 -1.0151259 -0.16569017 -1.8019516 0.5117913 -1.4630419 -0.16349202 -0.9564107
-0.22946201 -0.55354303 1.4959131 -1.9298522 0.2863283 0.8273057 -0.021255516 -1.0616117
0.41626453 -0.30778146 0.8742203 -0.29742944 1.7932403 1.140861 1.8604755 0.48494288
0.6264793 0.034593754 0.25880572 0.6894528 1.5048311 0.26101044 0.3889778 1.2302054
-0.58079517 -0.6406193 0.14424857 -0.46644858 -1.1001898 0.15494157 1.1695027 -0.16363983
0.13061267 -0.20998749 -0.21056338 0.54296833 -2.7025647 -0.91357183 -0.17005269 -0.019608894
-0.08275093 -2.629258 -1.2082567 1.1617343 0.36779532 1.7140858 -0.0064470223 -0.10854679
-1.1910689 -0.65920085 -1.2602888 0.8946857 1.6939589 -0.35172284 -1.0387115 0.93524444
1.1686212 0.16529539 -0.5938184 -0.3847029 -1.1037756 0.944512 -0.37982363 -0.3133034
-0.43928298 -0.084058434 1.1081833 -0.56022435 -0.13669875 -0.78617907 -1.0371552 -0.5511988
1.694226 -0.3022954 0.10380206 0.28854164 -0.00345329 -0.19811429 0.6842057 0.1646368
0.046246722 1.818639 0.37244245 0.3374611 -0.000984963 -0.46055126 -0.7759117 0.8778586
0.81927097 -1.8300277 -0.13000314 -0.12425596 -0.2901838 -0.21096852 -0.7746728 -0.6007781
0.5916438 0.67529285 -0.061704103 -0.49806377 0.84609467 -0.19326422 0.38883388 -0.02275193
0.14006008 0.39151385 -1.0423954 -2.243888 -0.68735546 -0.41628635 -0.024187235 0.8954646
-1.861307 0.11503626 1.1205883 0.1357362 1.3503698 1.1475772 -0.59056187 -1.1927774
0.31135836 0.7234326 1.2572098 1.2325642 -0.2126344 -0.0047756876 -0.17769906 0.06574351
-1.4259503 -0.25166348 0.06735572 0.78337765 -0.3927948 0.6609275 0.101710506 1.0557874
1.2893893 0.01855976 -0.10374303 0.5339085 -0.08117558 -2.062036 0.9626932 0.3613344
-0.17809759 0.9472931 -0.45725146 -0.9400859 0.51299757 -1.1699497 -0.16383103 -0.74184954
-0.94110966 -0.8231654 0.97316575 -0.5004703 0.8843118 1.16106 0.5487653 0.6494808
-0.78974 1.5305251 1.6650171 -0.62934554 -0.7458428 0.8077729 -0.24867754 -0.1538168
00000000: 32dc eebe 97d0 693e 8f3c f6be 7d68 b7bf
00000010: 97a5 983f 24b9 253f 8f27 51bc 72bd acbc
00000020: d980 723f 7734 6c3c 1612 e33e 9e78 49bd
00000030: 2f5c d8bd b787 0fc0 c03b 5f3e 996b 6cbf
00000040: 1ea3 8e3f 7098 cbbd 764d 14be 8bc6 343e
00000050: 903d 2540 df85 1c3f 7634 8f3e 1bd5 d9be
00000060: 8d52 9dbf 5f2e 973f e726 293f b5d1 c6be
00000070: 117b 6f3e 4d6b 05be 27ac d33e c46a d43d
00000080: e887 06bf 9ab3 3f3e 7b95 a93f f6ee 34be
00000090: 2866 fd3e 104a 96be 6716 94be 1a71 ee3f
000000a0: 7666 25bf 0375 cebe 92db 8a3e 35cb 3f3f
000000b0: c1c4 87bf 7f0e ee3d 40a3 02c0 99ac a4be
000000c0: 5fda 54be d2de 993f f900 c93e 133e 823f
000000d0: 0037 3ac0 0917 44bf b27e 78be b838 ac3e
000000e0: d5da 103f 9829 b3be 3e82 90be 0597 a83e
000000f0: c221 9e3f 0151 523f ea3f eabe ec7d 18bf
00000100: e34c a6bf 0d66 b43e 80a8 9cbe d5a9 f6be
00000110: 157d f83e 5de0 b23f d4b0 57bf 599c 143f
00000120: 4e61 24bf a269 7e3f 9b1e f8bf 3bd6 d63f
00000130: c0f7 cbbf 3c51 4c3e 6a67 83bf 4415 a53f
00000140: 9cf1 27bf a5ef 81bf afaa 29be 5aa6 e6bf
00000150: c104 033f f544 bbbf 746a 27be 55d7 74bf
00000160: 17f8 6abe ffb4 0dbf 157a bf3f 6605 f7bf
00000170: 9f99 923e 4eca 533f 0c20 aebc e4e2 87bf
00000180: a020 d53e 8895 9dbe e7cc 5f3f ac48 98be
00000190: e688 e53f bc07 923f 1024 ee3f 6f4a f83e
000001a0: f360 203f 2eb2 0d3d 2f82 843e fb7f 303f
000001b0: 4e9e c03f 29a3 853e 1928 c73e 5f77 9d3f
000001c0: feae 14bf a0ff 23bf e6b5 133e 59d2 eebe
000001d0: 05d3 8cbf 01a9 1e3e 44b2 953f 3391 27be
000001e0: 54bf 053e f606 57be ed9d 57be f9ff 0a3f
000001f0: d2f6 2cc0 d8df 69bf 4b22 2ebe d5a2 a0bc
00000200: 5279 a9bd c345 28c0 28a8 9abf b6b3 943f
00000210: ab4f bc3e 2a67 db3f 8b41 d3bb c84d debd
00000220: f274 98bf 63c1 28bf 2551 a1bf 1f0a 653f
00000230: a5d3 d83f 0415 b4be 80f4 84bf 2e6c 6f3f
00000240: 6195 953f 3243 293e 7c04 18bf c7f7 c4be
00000250: 8548 8dbf 8acb 713f 3e78 c2be 4e69 a0be
00000260: b3e9 e0be d426 acbd f3d8 8d3f dd6a 0fbf
00000270: c2fa 0bbe 0843 49bf 80c1 84bf 5d1b 0dbf
00000280: 66dc d83f 76c6 9abe 2d96 d43d bbbb 933e
00000290: 9850 62bb 79de 4abe 1b28 2f3f 8d96 283e
000002a0: 346d 3d3d 2ac9 e83f c7b0 be3e b4c7 ac3e
000002b0: e019 81ba 60cd ebbe 26a2 46bf 57bb 603f
000002c0: bebb 513f 593e eabf 8b1f 05be e979 febd
000002d0: f992 94be 2208 58be f550 46bf 98cc 19bf
000002e0: f875 173f fedf 2c3f 71bd 7cbd 3702 ffbe
000002f0: a999 583f 0ee7 45be 3c15 c73e 4162 babc
00000300: e96b 0f3e 8174 c83e 366d 85bf dc9b 0fc0
00000310: 87f6 2fbf 7c23 d5be 4f24 c6bc 2b3d 653f
00000320: 4f3f eebf 2198 eb3d 706f 8f3f 6efe 0a3e
00000330: ebd8 ac3f cfe3 923f 102f 17bf eeac 98bf
00000340: 5d6a 9f3e e132 393f 40ec a03f aac4 9d3f
00000350: d5bc 59be 5f7d 9cbb bef6 35be 89a4 863d
00000360: 8a85 b6bf 09da 80be ccf1 893d 708b 483f
00000370: 661c c9be 8b32 293f 994d d03d 0b24 873f
00000380: b50a a53f a30a 983c 3a77 d4bd 3aae 083f
00000390: 623f a6bd 66f8 03c0 1073 763f d300 b93e
000003a0: 375f 36be cd81 723f dd1c eabe 78a9 70bf
000003b0: cf53 033f e9c0 95bf 52c3 27be dae9 3dbf
000003c0: 90ec 70bf f8ba 52bf 6421 793f d21e 00bf
000003d0: 4262 623f 9d9d 943f e27b 0c3f 6044 263f
000003e0: 672c 4abf 3fe8 c33f 481f d53f ca1c 21bf
000003f0: 8eef 3ebf 34ca 4e3f 53a5 7ebe 2782 1dbe

transformer.layers.0.1.fn.net.0.bias f4 [72]
0.684868 -0.4437175 -1.6005968 -1.0036993 0.32143965 0.30050093 1.6077034 -0.72588325
0.2647648 -0.181504 -0.46231723 0.27164897 0.89324486 -0.40426943 0.26146805 -0.020627385
-1.4208894 0.6945293 -0.16054796 -0.31706223 -0.17640933 -0.40367094 1.8325026 -0.5300677
-0.7059601 0.05986469 -0.7263589 0.8925599 0.9486056 0.11982453 0.7703704 0.3344331
0.014629266 -1.4456687 0.00515591 -1.8250482 0.1044324 -0.107801445 -0.61511236 0.9529799
-0.0029844383 0.33220726 -0.5968433 0.38247877 -0.09215166 0.023294577 0.19698723 -0.88257045
-0.33748025 0.288595 0.18452321 0.51348436 0.0011713722 0.945392 -0.84653914 -1.955977
1.2830577 -0.26919326 0.068168215 -1.449671 -1.7125844 0.03678137 -0.47520435 -0.4239532
0.34722972 -0.36054614 0.20919202 -0.19310944 1.2192615 -0.39113668 -0.3127286 1.1075685
00000000: 8253 2f3f f12e e3be 5be0 ccbf 3879 80bf
00000010: bd93 a43e 42db 993e 3ac9 cd3f 7cd3 39bf
00000020: 408f 873e 2fdc 39be d8b4 ecbe 9315 8b3e
00000030: b2ab 643f 67fc cebe 24df 853e c3fa a8bc
00000040: b4df b5bf accc 313f af66 24be fb55 a2be
00000050: a6a4 34be f5ad cebe 728f ea3f 84b2 07bf
00000060: cdb9 34bf ad34 753d a8f2 39bf ce7e 643f
00000070: d1d7 723f 9066 f53d ff36 453f d13a ab3e
00000080: 97af 6f3c ac0b b9bf e8f2 a83b 2e9b e9bf
00000090: a7e0 d53d 01c7 dcbd 0178 1dbf 7ef6 733f
000000a0: 9196 43bb 1217 aa3e b9ca 18bf 42d4 c33e
000000b0: 02ba bcbd 45d4 be3c 05b7 493e 23f0 61bf
000000c0: 36ca acbe b9c2 933e a7f3 3c3e b673 033f
000000d0: bb88 993a 3605 723f cab6 58bf 745d fabf
000000e0: 3c3b a43f b3d3 89be c79b 8b3d d28e b9bf
000000f0: f735 dbbf 10a8 163d fc4d f3be 6510 d9be
00000100: 18c8 b13e 8199 b8be 6f36 563e 7bbe 45be
00000110: c310 9c3f 1143 c8be f71d a0be cec4 8d3f

transformer.layers.0.1.fn.net.3.weight f4 [36, 72]
-0.09590802 -0.20781739 0.7031039 1.2213498 1.0875542 -0.21589728 -0.022724053 -0.2843121
0.64932346 -0.06815793 -0.4313546 -0.31218567 -0.29613551 -0.46058378 0.31689897 0.06306207
0.04112776 -0.5200608 -0.6878964 -0.32084635 1.9503633 1.2937759 1.2991576 0.18320508
0.1467992 1.0770581 0.30545583 1.1396618 0.65715224 -1.2224003 0.23744187 -0.7823377
0.51450706 0.17577235 1.0847023 0.542905 1.4327142 -0.50465786 1.0464121 -0.25348195
0.703785 0.27546045 -0.6792236 -0.019936534 1.158021 0.60547584 0.456216 1.0003045
0.20633931 0.112508476 -1.0671227 1.1878124 -0.53435284 -0.721617 -0.49959913 1.0865396
0.38876233 -0.7042815 0.7653754 0.3893558 -0.08296004 0.5882466 -0.47012734 0.8856624
1.0762051 0.46483916 0.14962293 1.617939 -0.48318696 -0.43320128 0.39028186 1.07379
0.16971773 0.35668 0.35585308 0.56587607 -0.006595257 -0.030954394 -0.007542379 -0.49818063
1.0527089 0.34315428 -0.35210955 0.35883266 0.124131285 0.26397043 -0.73829895 -0.87447184
0.31551838 0.6880382 0.4197824 1.3308597 0.8693588 0.042935222 -0.598076 -0.123044066
-0.6023178 0.70722514 -0.059561737 -0.4632592 0.09589116 0.8977256 -1.2267561 0.85282516
0.9081207 -0.42057738 0.7688595 0.39412075 0.755737 1.8275204 -0.39880684 0.12542836
-0.009593239 0.09991791 0.45054293 0.90646523 0.40733033 -0.77732044 0.7226604 -0.05509682
0.6149307 0.42599484 0.83077115 0.06469958 1.1043574 0.41785327 0.2224472 -0.16810265
-0.20304872 0.31507018 0.64043146 -0.62275547 -1.2644422 -0.9273719 0.12305983 0.032031946
0.28107005 -0.020753745 0.23775336 0.20484185 -0.31760153 0.56084025 -0.12633026 0.43485588
-0.07553117 -0.074118435 -1.1622494 -0.38094217 -0.84784406 -0.2651925 -0.45938703 0.77466774
-0.96117985 -0.1946192 0.7431056 0.21440746 -0.041488998 -0.037050746 0.15438099 0.30366868
-0.62098014 -0.3376426 0.061572496 -0.32158607 -1.0621678 -1.3357176 -0.70590967 -0.10709771
-0.011095394 -0.7650939 -0.5864104 -0.8203021 -0.84880435 0.029413173 -0.1319098 0.31787008
-0.12756702 -0.57845 -0.7591573 -1.1287714 -0.85787743 0.09023878 -0.3626496 -0.36694583
-0.97623926 -0.16205847 0.24957027 -0.44084874 -0.8983898 -0.7074304 -0.7185773 -0.5550859
-0.851852 0.011880596 0.5502345 -0.66320044 -0.012387708 0.5708627 0.11376497 -0.24668382
-0.86152434 0.024573736 -0.45901504 -0.6465454 0.440352 -0.39750868 0.2456347 -0.4040071
-0.5804866 -0.3892198 -0.16818032 -0.24804792 1.208147 -0.289655 -0.24784756 -0.9673867
0.2701494 0.19132839 0.9310458 -0.17620908 0.1388939 0.19312951 -0.62072265 -1.9220872
0.08691723 1.7572871 1.207067 -0.53798693 -1.1889095 -0.85889614 -1.2324765 -0.034950532
0.8456053 0.07827607 0.46281514 -1.0984869 -0.5933254 -0.021844236 -0.9449509 0.73174185
-1.0138544 2.0572178 -1.7762494 -0.49284098 -1.709579 -0.23155369 -1.2243316 0.5358855
-2.0686855 -1.5423511 1.8842361 1.1708148 -0.88919884 -1.052658 -1.0017623 0.21184623
00000000: 6d6b c4bd 15ce 54be 9efe 333f 3155 9c3f
00000010: fa34 8b3f 2d14 5dbe cb27 babc 5b91 91be
00000020: 103a 263f 6396 8bbd 83da dcbe cdd6 9fbe
00000030: 139f 97be a3d1 ebbe 9540 a23e b026 813d
00000040: 9575 283d b422 05bf fa19 30bf f945 a4be
00000050: 81a5 f93f 739a a53f cc4a a63f 1d9a 3b3e
00000060: 8852 163e 0add 893f b564 9c3e 70e0 913f
00000070: 213b 283f 9d77 9cbf f623 733e 4947 48bf
00000080: bcb6 033f abfd 333e 86d7 8a3f d2fb 0a3f
00000090: 2e63 b73f 4231 01bf d5f0 853f 63c8 81be
000000a0: 412b 343f 2709 8d3e 99e1 2dbf f151 a3bc
000000b0: 083a 943f 7700 1b3f 2595 e93e fa09 803f
000000c0: 9d4a 533e d86a e63d 7a97 88bf 3d0a 983f
000000d0: 59cb 08bf e4bb 38bf 75cb ffbe bb13 8b3f
000000e0: db0b c73e cb4b 34bf a4ef 433f a559 c73e
000000f0: f4e6 a9bd 5497 163f 88b4 f0be c5ba 623f
00000100: 17c1 893f 66ff ed3e c136 193e a018 cf3f
00000110: 4864 f7be 8fcc ddbe 06d3 c73e f371 893f
00000120: 7cca 2d3e c39e b63e 6032 b63e 41dd 103f
00000130: 071d d8bb 1294 fdbc 1026 f7bb 8811 ffbe
00000140: 2abf 863f ebb1 af3e b447 b4be eab8 b73e
00000150: 8b38 fe3d 2227 873e 2901 3dbf 63dd 5fbf
00000160: a08b a13e 4523 303f b8ed d63e 9c59 aa3f
00000170: 4c8e 5e3f d8dc 2f3d 821b 19bf 87fe fbbd
00000180: 8031 1abf b50c 353f 02f7 73bd 4f30 edbe
00000190: 9662 c43d 58d1 653f 5806 9dbf c052 5a3f
000001a0: 997a 683f eb55 d7be fad3 443f 32ca c93e
000001b0: fb77 413f 30ec e93f 6930 ccbe 4b70 003e
000001c0: f62c 1dbc c3a1 cc3d 90ad e63e 1b0e 683f
000001d0: 9a8d d03e 79fe 46bf 4600 393f 34ad 61bd
000001e0: 196c 1d3f ff1b da3e 6bad 543f 3781 843d
000001f0: 955b 8d3f ddf0 d53e 33c9 633e 1a23 2cbe
00000200: 01ec 4fbe e150 a13e 51f3 233f e76c 1fbf
00000210: 3ed9 a1bf 3f68 6dbf cb06 fc3d ee33 033d
00000220: 6ae8 8f3e c203 aabc 9e75 733e 10c2 513e
00000230: ab9c a2be 3a93 0f3f b85c 01be 6ea5 de3e
00000240: 16b0 9abd 68cb 97bd 97c4 94bf da0a c3be
00000250: 4f0c 59bf 50c7 87be c734 ebbe a050 463f
00000260: e20f 76bf 414a 47be 2b3c 3e3f a18d 5b3e
00000270: 5ef0 29bd 86c2 17bd 0d16 1e3e 767a 9b3e
00000280: 8ef8 1ebf 7edf acbe 7133 7c3d eea6 a4be
00000290: 1df5 87bf cbf8 aabf 7fb6 34bf 0b56 dbbd
000002a0: 75c9 35bc 32dd 43bf fe1e 16bf 52ff 51bf
000002b0: 3e4b 59bf e5f3 f03c 5d13 07be debf a23e
000002c0: eea0 02be 4d15 14bf 2258 42bf 957b 90bf
000002d0: db9d 5bbf 1ccf b83d 35ad b9be 53e0 bbbe
000002e0: d1ea 79bf a8f2 25be 598f 7f3e edb6 e1be
000002f0: e0fc 65bf 291a 35bf aff4 37bf 1c1a 0ebf
00000300: f912 5abf d5a6 423c 2bdc 0c3f 81c7 29bf
00000310: d0f5 4abc 0f24 123f 9cfd e83d af9a 7cbe
00000320: dc8c 5cbf dc4e c93c 0504 ebbe 0084 25bf
00000330: d175 e13e 4286 cbbe aa87 7b3e 05da cebe
00000340: c59a 14bf d147 c7be 7637 2cbe 4600 7ebe
00000350: 90a4 9a3f a94d 94be c0cb 7dbe a8a6 77bf
00000360: 0651 8a3e 97eb 433e 0459 6e3f 2770 34be
00000370: 343a 0e3e bec3 453e aee7 1ebf f406 f6bf
00000380: a901 b23d c9ee e03f 2c81 9a3f 83b9 09bf
00000390: 302e 98bf 9ee0 5bbf cac1 9dbf 4a28 0fbd
000003a0: 9779 583f 344f a03d 1bf6 ec3e 389b 8cbf
000003b0: 2ce4 17bf aff2 b2bc 4de8 71bf 6f53 3b3f
000003c0: fbc5 81bf 75a9 0340 245c e3bf a755 fcbe
000003d0: 7cd3 dabf 691c 6dbe e6b6 9cbf cb2f 093f
000003e0: 5865 04c0 c36b c5bf a62e f13f 42dd 953f
000003f0: 89a2 63bf 7fbd 86bf bf39 80bf 38ee 583e

transformer.layers.0.1.fn.net.3.bias f4 [36]
0.6632374 -0.07242507 -0.5651503 -0.5073972 -0.5231671 0.11425326 -0.036984213 0.059630074
-0.36745608 -0.30425793 -0.32394448 -0.18723598 0.075947315 -0.25438452 0.39794052 -0.024237104
-0.23401843 -0.4492814 -0.050500177 -0.1660743 0.5757777 -0.19274701 0.08161259 -0.21928306
-0.060679995 -0.13573179 0.34615752 -0.18636583 0.68198466 0.52696943 1.090311 -0.015487041
0.23228802 -0.04201166 -0.12747033 -0.13185702
00000000: edc9 293f 9853 94bd b1ad 10bf c8e4 01bf
00000010: 47ee 05bf 9dfd e93d c27c 17bd aa3e 743d
00000020: 3423 bcbe b2c7 9bbe 0ddc a5be caba 3fbe
00000030: 448a 9b3d b03e 82be dcbe cb3e e48c c6bc
00000040: 87a2 6fbe 3608 e6be 46d9 4ebd 620f 2abe
00000050: 2b66 133f 795f 45be 8024 a73d bd8b 60be
00000060: 968b 78bd 46fd 0abe 8f3b b13e afd6 3ebe
00000070: 8c96 2e3f 78e7 063f 508f 8b3f 5cbd 7dbc
00000080: e9dc 6d3e 6b14 2cbd 9587 02be 8705 07be

transformer.layers.1.0.norm.weight f4 [36]
0.95067906 0.017661113 0.33685622 0.20202588 0.5866609 0.46919808 -0.054912515 0.8674345
0.52770203 0.3535949 1.0899843 -0.07825405 0.014526847 0.22161856 1.3174596 1.049027
0.9343914 0.11479798 -0.4263313 0.19891918 0.647027 1.0719649 1.3139361 0.037980754
0.7964706 0.68166775 0.08576804 0.7270536 1.0803945 0.41664857 0.9726815 1.6232835
0.3794703 0.52219576 0.3927078 0.10199278
00000000: b45f 733f 0aae 903c 6b78 ac3e dfdf 4e3e
00000010: 692f 163f bb3a f03e f2eb 60bd 3010 5e3f
00000020: 7b17 073f 640a b53e 9b84 8b3f a943 a0bd
00000030: 0302 6e3c faef 623e 84a2 a83f 8446 863f
00000040: 4634 6f3f 341b eb3d 1948 dabe 78b1 4b3e
00000050: 90a3 253f 2536 893f 0f2f a83f b591 1b3d
00000060: 7fe5 4b3f c781 2e3f 27a7 af3d 2f20 3a3f
00000070: 5e4a 8a3f f652 d53e a801 793f c1c7 cf3f
00000080: ee49 c23e 9fae 053f ff10 c93e 97e1 d03d

transformer.layers.1.0.norm.bias f4 [36]
-0.6538403 0.06489244 -0.13313337 0.10348138 0.5571845 -0.12566693 -0.043875866 -0.5324205
0.24587914 -0.10592689 -0.2331788 -0.004345249 0.11434521 0.38515913 0.0048492556 0.1323336
0.32422754 0.083923206 0.009382091 -0.084618695 -0.2227036 0.6881979 0.08746576 -0.057995647
-0.41220593 0.2320909 0.03674994 -0.3180262 -0.6871176 -0.21017973 -0.24866666 -0.30694023
-0.043056592 -0.008068881 0.3681923 0.0904236
00000000: 1462 27bf 54e6 843d 1d54 08be 0cee d33d
00000010: a5a3 0e3f d5ae 00be 2eb7 33bd b64c 08bf
00000020: bec7 7b3e 33f0 d8bd 6cc6 6ebe 9762 8ebb
00000030: d22d ea3d 9433 c53e 81e6 9e3b 7682 073e
00000040: 2701 a63e eedf ab3d 58b7 193c 914c adbd
00000050: 6a0c 64be bd2d 303f 4021 b33d d88c 6dbd
00000060: a80c d3be 3da9 6d3e 1b87 163d 55d4 a2be
00000070: f0e6 2fbf 5b39 57be 79a2 7ebe 4527 9dbe
00000080: 1c5c 30bd 5733 04bc b383 bc3e 0230 b93d
