ViT/ViT1/5 V train 0.998 V test 0.891 GELU 1/model_bestV.pt (torch, 414407 bytes, 74 tensors)

pos_embedding f4 [1, 19, 36]
000000 ce c1 c8 3e 0b 57 a5 be 25 8a 45 3f 75 dd 64 3f
       0.3921036 -0.3229297 0.77163917 0.89400417
000010 5b 57 f1 bf 0a 27 9d 3e a5 86 56 be a1 86 46 be
       -1.8854784 0.30693847 -0.209498 -0.19387294
000020 9b 80 aa 3e da 13 36 bf 66 cd 3c 3f c2 85 25 3f
       0.33301243 -0.7112404 0.73750913 0.64657223
000030 45 0f cc 3f 8d e3 de 3d 7a 15 34 3f 9d 1a d6 3f
       1.594216 0.108832456 0.7034527 1.6726872
000040 3f 76 77 bf e6 c8 08 bf 1d 75 a3 be 76 fd 1e 3f
       -0.96664804 -0.53431547 -0.31925288 0.621055
000050 b1 c6 8f 3e 85 07 4f bf d7 86 e0 3b 53 5c b0 be
       0.28081277 -0.8087085 0.0068520117 -0.34445438
000060 f8 28 f7 3f 7e 2b 23 3f 0b 18 91 bf 6a 40 91 bf
       1.9309378 0.6373824 -1.1335462 -1.1347783
000070 5a 15 0e 3e 21 b9 a4 bd 6d 3d 30 3e 98 29 8c bf
       0.13875332 -0.08043123 0.17210932 -1.0950193
000080 77 64 90 3e be d1 65 be 93 ec 88 3e 66 8d 26 3f
       0.2820165 -0.22443292 0.26742992 0.65059507
000090 3a 1d 1d bf e7 bf 03 c0 ce 63 4b 3e d8 36 7a be
       -0.6137272 -2.0585878 0.19862291 -0.24434984
0000a0 da c3 e3 3f 66 36 85 3f 1d c2 91 3e 00 ad d6 3f
       1.7794144 1.0407226 0.2846841 1.6771545
0000b0 18 47 68 3f 61 4a 12 bc 42 cc 4d bf 2a ba ce 3f
       0.9073348 -0.008928866 -0.803898 1.6150563
0000c0 43 c0 2b 3f b8 d4 58 bf d3 53 a9 3f 39 e9 0d be
       0.67090243 -0.84699583 1.3228706 -0.13858499
0000d0 2f 03 16 3f 14 6a cd bd 53 7c 1a 40 ae 4d 10 3f
       0.5859861 -0.100299984 2.4138381 0.5636853
0000e0 51 3b 41 bf 4f 08 32 3f a8 8e 6b bf 85 81 02 40
       -0.75481135 0.6954393 -0.9201455 2.0391552
0000f0 a7 cb b6 3f 1c 6a 56 bf 1e 50 8b bf e2 02 68 bf
       1.42809 -0.8375566 -1.0883825 -0.906294
000100 ce 6d b5 bf 85 17 8c 3e ba 34 28 bf b3 19 2d c0
       -1.4174135 0.27361694 -0.65705454 -2.7046936
000110 26 02 6c 3f 98 f3 fe 3e 3c 32 23 3f f0 02 0c 3f
       0.9219078 0.49795222 0.63748527 0.5469198
000120 52 f9 97 3f 9f d4 b2 be c8 da 20 c0 f8 2a c7 be
       1.1872962 -0.34927842 -2.5133533 -0.3889997
000130 fa 48 4e bf 06 fb c9 3f 45 ed 83 3f dd c6 a7 3e
       -0.80580103 1.5779731 1.0306784 0.32768908
000140 e2 ee b3 3e b2 91 f2 be 93 75 96 be 3f 76 2f bf
       0.3514319 -0.47376782 -0.29386577 -0.68539804
000150 75 e3 8b be 4c ff 07 bf f3 fd e8 be 03 51 c7 3f
       -0.27321973 -0.5312393 -0.45506248 1.5571598
000160 77 f3 68 be 66 e4 29 be 69 ea 7a bf 08 f0 99 bf
       -0.22749124 -0.16591033 -0.9801393 -1.2026377
000170 d4 fb 5e be 26 b3 7e 3e 05 98 ec bc 0c 16 80 bf
       -0.21775752 0.24873027 -0.028881082 -1.0006728
000180 da ba cb 3f 9e be 54 3f 36 c6 d2 3e 0f 71 20 bf
       1.5916398 0.8310336 0.41166848 -0.62672514
000190 8c 62 a8 bf 9f 6f 09 bf 3a 0e 71 3f 33 c8 f0 3d
       -1.3155074 -0.53685945 0.94162333 0.11756935
0001a0 4e 64 61 3f 9a d4 8d bf 13 7a 19 3f 2f 94 bf 3f
       0.8804368 -1.1080506 0.59951895 1.4967097
0001b0 55 05 f7 3e 78 58 16 3f 4c b3 20 bf b2 1f 58 3f
       0.48246256 0.5872874 -0.62773585 0.84423363
0001c0 b4 cb 68 be fb 3a 81 bf 74 42 53 3f 85 94 8f bf
       -0.22733957 -1.0096124 0.82523274 -1.12172
0001d0 23 b0 77 bd 92 94 4f 3f 16 51 f4 bf 9a da e3 3e
       -0.06047071 0.81086075 -1.9087245 0.44502717
0001e0 4e a0 9f 3f b8 35 fb 3e 75 b0 5d 3f 44 df 1b 3f
       1.2470796 0.49064422 0.8659738 0.6088755
0001f0 35 72 f0 3e 00 02 3a 3e a3 ec 95 bf c0 70 ce 3f
       0.46962133 0.18164825 -1.1712841 1.6128159
000200 54 7c 98 be f2 83 b3 bf 12 5b 1e bf 02 b2 d5 be
       -0.29782355 -1.4024642 -0.6185771 -0.41737372
000210 46 b8 bf 3f 5b c1 ba 3f 47 60 2c 3f 86 be 08 3f
       1.4978111 1.4590257 0.6733441 0.53415716
000220 0e 05 c6 3d 3c cf 0f 3d f3 d8 d1 be c9 a1 5f 3f
       0.09668933 0.035109743 -0.40985832 0.8735624
000230 85 c0 68 3f 4e 76 f7 be 04 56 a3 bf e1 8a 00 c0
       0.9091876 -0.48332447 -1.2760625 -2.0084765
000240 07 7c 16 3f 9b a0 da 3f d9 82 aa bd dd 25 f8 bf
       0.58783 1.7080263 -0.083257385 -1.9386555
000250 e1 a0 7e bd 06 82 ac 3e a2 84 ea be aa aa 32 bf
       -0.062165145 0.3369295 -0.45804316 -0.6979166
000260 20 cf c2 bf cb d3 c5 3f b1 8d 89 be 5a 84 bc 3b
       -1.521946 1.5455259 -0.26865914 0.005753082
000270 69 1a ab 3f 9c 0e 05 3f b8 04 02 3f 3b f9 82 bf
       1.3367435 0.5197542 0.5078845 -1.0232309
000280 de 02 b8 3f b2 27 93 3f 4e 4e 6c bf a5 67 eb bc
       1.4375875 1.1496489 -0.92306983 -0.028735945
000290 31 76 a4 bf 63 b8 21 be f4 f8 d0 be ca 2e c2 3e
       -1.2848569 -0.15792994 -0.40814936 0.37926322
0002a0 da ad 1b bf 51 67 93 3d 5a 47 0a bf 85 09 92 bf
       -0.6081215 0.071974404 -0.54015124 -1.1409155
0002b0 c2 50 ab 3f 04 b9 59 bf d4 b3 8c 3e f1 06 48 bf
       1.338402 -0.85047936 0.27480948 -0.7813559
0002c0 e9 dc da 3e dd fe 83 bf 45 aa 93 3e 2b 9b 9a be
       0.42746666 -1.0312153 0.28840843 -0.3019651
0002d0 15 77 9b bf 6b 5f 3e bf a0 40 89 bf e6 a7 9c 3f
       -1.2145716 -0.74364346 -1.0722847 1.2238739
0002e0 85 aa 4b 3f 19 b2 cd 3f eb 3e 8d 3d 45 0d 63 3e
       0.7955707 1.6069976 0.06896766 0.2217303
0002f0 92 71 0a bf 81 17 b8 3f 6d ec 77 bf 30 8e 3b 40
       -0.54079545 1.4382173 -0.9684513 2.9305534
000300 51 ad d7 3e c6 ed e8 bf 91 01 60 3f 76 3c 83 3e
       0.42124417 -1.8197563 0.8750239 0.25632066
000310 2c b8 5b 3f dc ce ad bf 15 3d 76 3f d4 b8 de 3d
       0.858279 -1.3578753 0.96186954 0.10875097
000320 4e 36 08 3f 61 00 aa be 59 bf 43 3f ed 73 ae be
       0.5320786 -0.33203414 0.7646385 -0.3407282
000330 0f 16 a4 3f 45 a7 21 bf 53 17 7c 3f 66 13 c1 bf
       1.2819232 -0.6314586 0.9847309 -1.5084045
000340 42 7a 2d bf fc f9 c2 3e 89 7a 52 bf 6c 83 01 3f
       -0.67764676 0.38081348 -0.82218224 0.5059116
000350 91 99 b2 3f e1 a4 8a 3f 3b 7e 83 3f 68 76 54 3f
       1.3953115 1.0831567 1.0272897 0.82993174
000360 c5 b5 7e 3f 0f 80 d5 3f de f9 00 bd ae 36 ed be
       0.9949611 1.6679705 -0.031488292 -0.4633078
000370 16 83 03 3c 9b 89 ae bf f8 92 fa bd 93 10 0e 40
       0.008026859 -1.3635744 -0.12235063 2.2197616
000380 06 77 a4 bf 83 ea 48 bf a8 4b 93 bf 7b 10 9a bf
       -1.2848823 -0.78482836 -1.1507463 -1.203628
000390 5e fc 1d bd b0 d7 e2 bf 61 f4 ce 3f 1c 56 fe be
       -0.038570754 -1.7722073 1.6168329 -0.4967507
0003a0 0d a6 d3 3f 0a 62 37 3e 38 c2 8a 3f b1 9a 6a bf
       1.653505 0.17908493 1.0840521 -0.9164229
0003b0 f0 f7 87 3f ba 7b 95 3f 1f 92 40 3f ad df 29 bf
       1.062254 1.1678383 0.75222963 -0.6635693
0003c0 b1 e5 46 bf 02 4f 72 3d c1 4b 11 3f d7 7e 40 3f
       -0.7769423 0.05915738 0.56756216 0.7519354
0003d0 d9 c4 b6 3f 0d 62 bc bf 31 d3 06 bf fd 7e 16 3e
       1.4278823 -1.4717423 -0.52666 0.1469688
0003e0 4d 10 a0 bd 4c d4 a0 3d 2b 56 f3 3e 67 ac 8d 3f
       -0.07815609 0.078529924 0.47526678 1.1068238
0003f0 4c dd 06 40 2a 06 47 bf d1 18 ae 3c 6f 1d 55 bf
       2.107257 -0.7774378 0.021252068 -0.8324804

cls_token f4 [1, 1, 36]
000000 15 5e 19 3f 0c 48 8e be 9b d6 c2 bf d1 ae c9 be
       0.5990918 -0.27789342 -1.5221742 -0.39391187
000010 eb 9d ca bf 3e 3f e1 be ee b7 17 3f 2a e6 12 be
       -1.5829443 -0.43993562 0.5926503 -0.14345613
000020 43 f8 fd be b7 cb 24 bf ea d1 87 bc 5d 95 83 3f
       -0.4960347 -0.64373344 -0.016579587 1.0279957
000030 08 cd 85 3f 3e 2b 5a 3f 6c fd 22 bf b0 f0 21 3e
       1.0453196 0.8522223 -0.6366794 0.15814471
000040 a1 ba c1 bd 58 2a 69 bf d0 8c b4 3e bb 12 12 3f
       -0.09459425 -0.91080236 0.3526368 0.5705983
000050 89 50 31 bf a0 46 f6 be 3a 8a 29 3f 57 68 0b 3f
       -0.6926351 -0.48100758 0.6622654 0.54456085
000060 be f9 8d be 30 04 b2 bd 8f 7d ac bf 1d 92 4b 3e
       -0.277296 -0.08692205 -1.3475817 0.19879957
000070 a7 6b 95 3e 38 a4 43 3f 58 7d 86 3e 0b f1 ca 3f
       0.29183695 0.7642245 0.26267505 1.585481
000080 b7 5e e3 3e 5c 19 bb be fd 67 53 bf 7e 7d b4 3e
       0.444082 -0.36542785 -0.8258055 0.35251993

to_patch_embedding.1.weight f4 [36, 12]
000000 59 35 bf bd 23 f5 06 bc 1d b2 eb be 70 8c 4f be
       -0.09336347 -0.008237156 -0.46034327 -0.20268416
000010 b6 f6 e4 3e d4 a6 c6 bd a2 5a 1c 3e 44 5c b8 3e
       0.44719476 -0.09699789 0.15268949 0.36007893
000020 9a 38 67 3e 52 d0 ab 3e 23 a8 be bd 00 80 ce 3c
       0.22580186 0.33557373 -0.09309413 0.02520752
000030 ac f4 9d be df 35 46 3e be ae 0d be 5d 7e 80 bd
       -0.30850732 0.19356488 -0.1383619 -0.06274102
000040 74 75 cf 3d 45 f2 0c be 79 c5 5c be 9c 91 22 bd
       0.10129824 -0.13764293 -0.21559705 -0.039689645
000050 bb b9 24 be cc 4e c1 be 41 12 70 3e d4 3d a3 bd
       -0.16086476 -0.3775543 0.23444463 -0.07970777
000060 11 49 27 3e ef 9c 2a 3e fa 59 78 be df 74 97 3d
       0.16336466 0.16661428 -0.24253073 0.07395338
000070 f1 de 9c 3d 70 9b 8e be 2f db 73 bd 29 69 06 be
       0.0765971 -0.27852964 -0.0595352 -0.13126053
000080 21 fc 03 be 81 40 3f 3d 40 0a 77 be ad bb c9 bd
       -0.12889148 0.046692375 -0.24125004 -0.098502494
000090 c8 9c a6 be d1 96 ad be 8c bb a7 3d d9 b1 66 be
       -0.3254149 -0.33904126 0.081900686 -0.22528781
0000a0 bd 4d 26 3e ae 7c af be df d7 d5 bd 2d cf f8 be
       0.16240592 -0.3427481 -0.10441565 -0.48595563
0000b0 ea 66 3b 3e 65 37 de bb 65 1c 93 3d 87 9d 2f 3d
       0.18300977 -0.006781506 0.0718315 0.04287484
0000c0 74 72 4c 3d b8 ef 20 be 34 2a 03 3e 43 32 23 3e
       0.04991384 -0.15716445 0.12809068 0.15937142
0000d0 5f 8d 45 3e 47 8e d7 3e 81 4d 27 3e 1c 07 d6 bd
       0.1929221 0.42100736 0.16338159 -0.10450575
0000e0 73 4e c6 be 7d 6a 53 3e e8 12 e8 be 46 49 c4 be
       -0.38731727 0.20646091 -0.45326924 -0.38337153
0000f0 65 8b 39 be 33 91 57 be 45 36 68 bd 9a fb bf bd
       -0.18119581 -0.21051483 -0.05669238 -0.09374161
000100 60 48 5e 3e d5 f9 6b 3d f5 5c eb 3e 3a ba 94 be
       0.21707296 0.057611305 0.45969358 -0.2904833
000110 93 4d 75 be 13 53 4c 3e 0d ff 25 bd f5 63 c7 3b
       -0.23955373 0.19953565 -0.04052644 0.006084914
000120 77 a6 b1 3e fe 08 25 be 78 92 5a 3d 04 d9 ad 3e
       0.34697315 -0.16116711 0.05336234 0.33954632
000130 87 04 a4 3d 9d 91 f7 bd ab 28 7f bd b5 31 2a bc
       0.08008676 -0.120883204 -0.062294643 -0.010387828
000140 d0 31 86 3e ad 41 a9 bd 8c 65 db 3e e3 8d da bd
       0.2620988 -0.0826448 0.42850912 -0.10671594
000150 d6 09 b4 be df 4e 81 3e 93 ad 22 3e 18 ee 84 3e
       -0.35163754 0.25255486 0.15886526 0.259629
000160 76 96 4d 3d 33 95 ba 3e 93 a5 0e 3f f6 c3 c5 be
       0.05019232 0.36441955 0.55721396 -0.3862607
000170 8f 3b 07 be 29 69 c3 3c 61 ef b7 be 28 26 52 3e
       -0.13206314 0.023853855 -0.3592482 0.20522368
000180 67 d0 c5 be 5c 4f 04 bf f7 ab 1b be db 94 a8 bd
       -0.3863556 -0.5168359 -0.15202318 -0.08231517
000190 0a 21 39 bd 51 2b 82 3e 89 7d c7 be 5c 6b cd bd
       -0.045197524 0.25423673 -0.38962963 -0.10030243
0001a0 26 8d 28 be c7 31 b8 3e 9a 0a 66 be 55 7e a8 3e
       -0.16460094 0.35975477 -0.22464982 0.32908884
0001b0 0d 1f 3f 3e ff 9f a7 bd d7 68 17 3e 32 fd 23 3d
       0.18664189 -0.08184814 0.14786087 0.040036388
0001c0 f6 9c 6c be a8 43 9c be b5 ce 16 3e c7 ca ac be
       -0.23106751 -0.30520368 0.1472729 -0.33748457
0001d0 7f 24 bf bc c4 eb 07 3f 52 d3 62 bb 23 1c 6c 3e
       -0.023332832 0.53094125 -0.003461082 0.23057608
0001e0 96 7d 89 bd ea 41 3c 3d 07 35 d2 bb 51 44 4b 3c
       -0.06713407 0.045961298 -0.0064150128 0.012406425
0001f0 e2 1a 32 be 9c 35 2a bc 2c 49 19 be eb 7f 35 3d
       -0.17393067 -0.010388758 -0.14969319 0.044311445
000200 e7 26 5d be a8 83 15 3e 7c d8 07 bf 6a 36 61 bd
       -0.21596871 0.14601004 -0.53064704 -0.054983534
000210 9d 55 c7 be 8e 81 d2 3d e1 cb e4 3d 08 5f 67 bd
       -0.38932505 0.10278617 0.11171699 -0.056487113
000220 f6 38 63 bd 2b 74 36 3d ba 5b 1d bf 41 2b 2d be
       -0.055474244 0.04454438 -0.6146809 -0.16911031
000230 19 d9 c6 3e 2f 28 4f 3e f8 b0 02 3e aa 16 50 3d
       0.38837507 0.20230173 0.1276282 0.050802864
000240 b1 e4 d7 3d 1a 01 60 3e c5 f7 52 3e 59 2f 05 be
       0.10541666 0.2187542 0.20602329 -0.13006343
000250 ba 69 00 3e ed c0 b2 3e 43 df 02 3e 19 0e be be
       0.12540331 0.34912816 0.1278048 -0.3712013
000260 4e 14 17 3e be e0 f6 bd eb 13 6c be db 03 af 3e
       0.1475384 -0.12054585 -0.23054473 0.3418263
000270 c8 df f3 3b c6 e6 b4 3d 9a 2a 90 be f9 cf 40 3e
       0.0074424483 0.08833079 -0.28157502 0.18829335
000280 e5 3d 6d 3d 7d 2a df bd 70 8c 02 3e 2f 54 b9 3e
       0.057920355 -0.10896776 0.12748885 0.3619704
000290 a3 a4 60 3e 4f dc f4 be af 72 99 3d 8e f7 72 3e
       0.21937804 -0.47824332 0.07492577 0.23727247
0002a0 15 52 1f b9 86 8c 0e be 53 bc dc bd 1a b7 21 be
       -0.00015194 -0.13920793 -0.107781075 -0.15792504
0002b0 1e 2e 13 3e 57 5a 05 3d 87 68 b0 bd be f6 b1 3e
       0.14373061 0.032556858 -0.08613687 0.34758562
0002c0 74 04 42 be 70 ae b9 3e 02 d3 32 3e 33 cf 8d bd
       -0.18947011 0.36265898 0.17463306 -0.06924286
0002d0 d5 a9 75 3b 23 04 fa 3d 5f 4f 07 bd 44 58 aa 3d
       0.003748526 0.1220782 -0.03303468 0.083176166
0002e0 e6 6f ec 3c ba 9d 86 be b4 cd 96 3e fa 11 fe be
       0.028861951 -0.2629221 0.29453814 -0.4962309
0002f0 b4 42 8c be 10 62 25 bc 9a 38 3f bd a8 a0 18 3e
       -0.2739464 -0.010094181 -0.04668484 0.14905035
000300 74 b7 18 be 3e 5f 5f 3e 73 56 8f 3e f8 a3 17 3e
       -0.14913732 0.21813676 0.27995643 0.14808643
000310 e3 0a 86 3e 37 49 66 bd 4a 2d ac 3d 4d 8d 12 3f
       0.2618018 -0.056222167 0.08407076 0.5724686
000320 f0 04 a4 3d cc 4e 95 3e 51 c5 c0 bd 94 64 aa bd
       0.08008754 0.2916168 -0.09412635 -0.08319965
000330 f1 b5 ea ba 7f 68 16 be fb 78 b3 bd 3e 80 e3 bd
       -0.0017907006 -0.146883 -0.087633096 -0.11108445
000340 66 fb 47 be b7 42 08 be 8e 5a 57 be 6b ae 5a bc
       -0.19529495 -0.133067 -0.21030638 -0.013347249
000350 00 1f 99 3d 93 56 b3 bc 6c 3b 8b 3e 0c 16 73 3e
       0.07476616 -0.021891868 0.27193773 0.23738879
000360 10 77 45 be 10 2b c2 bd 34 08 9f bc f6 2f b4 bd
       -0.192837 -0.0948087 -0.019413091 -0.0879821
000370 4e d2 b1 3d 25 25 55 bd 97 eb 05 3d 9d 80 93 be
       0.086826906 -0.052037377 0.03269538 -0.28809062
000380 8c 8b 30 3c 4a b3 b6 3e a3 76 ad 3e 02 0d a5 bc
       0.010775458 0.35683662 0.33879575 -0.020147804
000390 b5 3c 87 be e7 da 06 be 87 82 b1 bb ab e3 80 be
       -0.26413503 -0.13169442 -0.0054171714 -0.25173697
0003a0 4d 73 30 bd 47 bd 96 bc c1 3f a3 3d 4e 98 a9 3e
       -0.04307871 -0.018400801 0.079711445 0.33124012
0003b0 a0 9e 8c be 99 b3 eb be 13 a3 5e 3d a2 06 0c be
       -0.2746477 -0.4603546 0.05435474 -0.13674405
0003c0 21 64 e7 3d 0e 11 4b 3e b7 20 61 be 0f de 93 be
       0.11298395 0.19830725 -0.21985136 -0.28880355
0003d0 0f f2 91 be 46 fb c6 be c2 48 5e be 2f 4a 63 3d
       -0.2850499 -0.3886358 -0.21707442 0.05549067
0003e0 0f c3 82 3e d5 0f 86 bd f5 fd ec be cf 3f 0d bd
       0.25539443 -0.065459885 -0.46287504 -0.03448468
0003f0 c1 10 d6 3d 31 e9 09 3e 11 92 95 3c 50 98 25 bd
       0.10452414 0.13467862 0.018258126 -0.04042846

to_patch_embedding.1.bias f4 [36]
000000 60 0d 33 3d c8 72 87 be 8e dd 0a 3e dd ce a7 3d
       0.043713927 -0.2645476 0.13561079 0.08193753
000010 18 ba fe bd 16 4f 5e bd 25 ed 5e bd c7 6b df bc
       -0.12437838 -0.05427464 -0.054425377 -0.027273072
000020 b7 ce e8 bd ab de 65 3e 55 84 24 3e 50 02 4f be
       -0.11367553 0.22448222 0.16066106 -0.20215726
000030 53 09 8b bc f4 48 dd bd c1 5b 39 be e9 df 7c be
       -0.01697222 -0.1080493 -0.18101408 -0.2469479
000040 95 58 04 3d 93 53 d5 3d 14 a4 de 3b b3 f6 01 bd
       0.03231104 0.10416331 0.006794462 -0.03172941
000050 79 a7 9b bd bd 56 85 bd eb a9 7d 3d 3f b8 51 3e
       -0.07600302 -0.06510685 0.061929625 0.2048044
000060 12 d1 11 3e 0b 31 55 3e 29 6d ef 3d 69 2d f2 bd
       0.1423991 0.2081949 0.116907425 -0.118250675
000070 de 52 8f 3d 69 1e 29 3e 06 85 5f be c3 f9 35 be
       0.069982275 0.16515507 -0.21828088 -0.17771058
000080 ec f3 09 3e 8c 5e 22 be ac 5d 8e bc 74 0f 7b bd
       0.13471955 -0.1585638 -0.01737865 -0.061294034

transformer.layers.0.0.norm.weight f4 [36]
000000 63 a5 8a 3f 0d 92 90 3f c4 0d 6d 3f 5d 0c 85 3f
       1.0831722 1.1294571 0.9259913 1.0394398
000010 4d 23 65 3f 43 c8 7b 3f 56 f1 85 3f 02 f8 8d 3f
       0.8950699 0.9835245 1.0464275 1.1091311
000020 60 ca 91 3f 6f 49 83 3f ca f3 79 3f 6a 9f 8f 3f
       1.1389885 1.0256785 0.9763762 1.1220524
000030 02 87 68 3f 17 7a 85 3f 5f 6c 82 3f 9a 13 78 3f
       0.90831006 1.0427884 1.0189322 0.9690491
000040 6f f3 81 3f 88 77 6d 3f 9b 4f 58 3f d8 9a 76 3f
       1.0152415 0.92760515 0.8449647 0.9633002
000050 db 64 87 3f 3c 43 85 3f 40 0f 7d 3f ec 62 7e 3f
       1.0577654 1.0411143 0.98851395 0.9936969
000060 a5 21 7d 3f 6e 25 7f 3f b3 aa 77 3f 19 eb 8a 3f
       0.9887946 0.9966649 0.9674484 1.0852996
000070 81 38 8c 3f cd 7e 59 3f f1 db 85 3f 7e c5 82 3f
       1.0954744 0.8495911 1.0457746 1.021652
000080 21 f8 68 3f d0 ea 88 3f cd 2c 80 3f 40 a8 7e 3f
       0.91003615 1.0696659 1.0013672 0.9947548

transformer.layers.0.0.norm.bias f4 [36]
000000 5f 71 12 3a 53 f4 7b bc d9 fd b9 3d 1f 12 41 3d
       0.00055863516 -0.015378076 0.09081621 0.047136422
000010 b2 3d ab 3d 08 9a 21 bc cf f6 8b bd 0f 3d 20 bd
       0.08361377 -0.009863384 -0.068341844 -0.03912073
000020 8d 1e 86 3c bf 42 8d bd b9 75 de 3d 28 fa 7f bd
       0.01637199 -0.068974964 0.108622976 -0.062494427
000030 86 dd db bd 70 bc 37 3d 25 8c d0 bc fe 42 ab 3d
       -0.107356116 0.044857442 -0.025457451 0.08362387
000040 df 54 00 bd 51 2b cf 39 c6 11 65 3d 66 6d fa 3d
       -0.03133094 0.0003951439 0.055925153 0.12227897
000050 0e 2a 80 3c 41 52 ee ba 37 55 e3 bc a5 ce 2b bb
       0.015645053 -0.0018182473 -0.027750595 -0.00262157
000060 c9 3c 27 3d f5 24 17 3c 62 b1 ac bd f0 26 05 3d
       0.040829454 0.00922512 -0.084322706 0.032507837
000070 8b b9 5c 3c 4a 0a 10 bd dc fe e5 3c f8 86 05 bd
       0.013471971 -0.035166062 0.028075628 -0.03259942
000080 cd f1 0e bd a7 c5 28 3c d8 b2 29 3d 41 0a 77 bb
       -0.034898568 0.01030103 0.041430324 -0.003769532

transformer.layers.0.0.fn.to_qkv.weight f4 [216, 36]
000000 9d da 09 be bc ae 9d 3b a2 f9 da 3d 6b 6f 58 bd
       -0.134623 0.0048120897 0.10692145 -0.05284063
000010 32 b1 09 be ab e3 bd be 5c b3 b3 3d 6e 2b bd 3d
       -0.13446501 -0.3708776 0.087744445 0.09236799
000020 f5 50 06 3e 81 d8 30 be ad fe 77 bd 70 f2 1e 3d
       0.1311682 -0.1727009 -0.060545612 0.038805425
000030 c0 6d 5e be 5f b1 11 bd 82 5d bd bd 3f c9 92 3d
       -0.21721554 -0.035569545 -0.09246351 0.07167291
000040 74 68 5d 3e f1 bb b7 bd fe 93 8b 3d fc 23 4b 3b
       0.21621877 -0.08971394 0.06815337 0.003099679
000050 d8 67 5f bd 24 a6 7d 3d 90 57 70 be 7e 2b 7e be
       -0.054542392 0.061926022 -0.23470902 -0.24821278
000060 2e 32 a1 be 6f ed 1c be 26 7d a4 3d e0 6c 1f 3e
       -0.31483597 -0.15324949 0.08031683 0.15568876
000070 c4 d1 4c be b8 4c 85 3d 40 2e 83 3d 95 f7 e3 3c
       -0.20001894 0.065087736 0.06405306 0.027828017
000080 26 ee d1 bd 7d a0 80 3e 69 45 09 3d e9 0e eb 3d
       -0.10250501 0.25122443 0.03351346 0.11477453
000090 d7 47 82 be a9 e7 22 3d 47 7c 4c 3e 62 04 0c 3e
       -0.25445434 0.03977171 0.19969283 0.13673547
0000a0 64 b2 2b 3e d2 93 55 be d2 f8 ef bd c3 31 32 3e
       0.1676727 -0.2085717 -0.117173806 0.17401795
0000b0 dc 0f c9 bb 74 99 dd bd ad 61 e9 3d a2 33 fb bd
       -0.006135924 -0.108202845 0.11395583 -0.122657076
0000c0 c1 38 80 be 75 04 33 be 75 4b a3 bd f5 87 a4 3e
       -0.250433 -0.17482169 -0.07973377 0.32134977
0000d0 f3 bc ff 3d 66 b0 fb bd 68 73 21 3e 8c 83 73 3c
       0.12487211 -0.12289505 0.1576668 0.014862906
0000e0 4a ed 26 3e 4b 2c 30 bd 6d 7a fb bd 5a a2 2e 3e
       0.16301456 -0.04301099 -0.1227921 0.1705412
0000f0 0c f7 bb 3d 50 06 91 be 20 6c 26 be c8 9d 87 3e
       0.0917798 -0.2832513 -0.16252184 0.26487565
000100 37 7a b8 bd 6f 5c 9b be c4 92 5d be ad 80 dd 3e
       -0.09007686 -0.3034396 -0.21638018 0.43262234
000110 23 6e 15 3d 8c f5 10 be 60 a6 96 3e ee 6c cc bd
       0.036481988 -0.14156169 0.2942381 -0.09981714
000120 80 cc 79 3d 3b 2b 0f be 60 b4 2b be ae 62 07 be
       0.060986042 -0.13981335 -0.16768026 -0.13221237
000130 12 2e ae 3d 80 3e 01 3e de 56 88 3e 91 42 6d bd
       0.08504881 0.12621498 0.26628774 -0.05792481
000140 7b fd 39 be fa db fa 3d 13 9f 61 3d 3d 47 04 be
       -0.18163101 0.122489884 0.055083346 -0.129178
000150 6c 4f 76 3e 71 65 e4 3d 7c 45 d8 3c 75 68 64 bd
       0.24053735 0.11152161 0.02640032 -0.05576368
000160 d2 4c 8d bd c7 d4 4b 3e 7c bc 1b be 27 e8 11 be
       -0.06899418 0.19905387 -0.1520862 -0.14248715
000170 0b 57 28 be b1 25 b7 bb f3 f7 c3 3e c5 03 1c be
       -0.16439454 -0.00558921 0.38275108 -0.15235813
000180 53 0b 82 3e c5 29 81 3e 4a c2 fd bd 52 ae cc be
       0.25399265 0.2522718 -0.12390573 -0.39976746
000190 ed d0 c2 3b 46 bb 23 3e 93 06 bf bd e1 53 7f 3d
       0.005945316 0.15989408 -0.09327426 0.062335853
0001a0 77 d6 44 bd 2c 76 1b bd 67 62 a8 be 1d 8a 03 3e
       -0.048056092 -0.037954494 -0.32887575 0.12845655
0001b0 f6 7a 69 3e 9b 1e e3 bd 6c 83 26 3e 61 53 1a be
       0.22800812 -0.11089822 0.16261071 -0.15070869
0001c0 d6 3d a6 3d c5 28 78 bd 44 af 9b 3e 95 02 13 be
       0.08117263 -0.060585756 0.30407155 -0.14356454
0001d0 db a5 4a 3e d2 65 9d bd c1 8e 34 be 82 2c 5c 3c
       0.19789831 -0.07685436 -0.17632581 0.013438346
0001e0 dc f1 6f be c2 82 1e be e2 8d 83 bd 27 63 4d 3e
       -0.23432106 -0.15479568 -0.064235464 0.20057355
0001f0 26 68 0c 3e e7 ef 03 3e 28 2e 58 3e 7a 38 4e be
       0.13711604 0.12884484 0.21111357 -0.20138732
000200 93 5b d7 3b 8b 45 84 3e 20 e5 8d be 99 8b 16 3e
       0.006572196 0.25834307 -0.2771387 0.1470169
000210 89 dd 07 3e 27 7f fe bc 77 a5 25 be 71 2b 2f 3e
       0.13268103 -0.03106649 -0.16176401 0.17106415
000220 69 96 a5 be f7 ca 7e 3d 7c 67 0c 3e 2a 7b 68 3e
       -0.32341316 0.06220528 0.13711351 0.22703233
000230 2c 68 88 3d e5 14 d3 be ae 14 8d 3e e2 30 98 3d
       0.06660494 -0.4122688 0.2755484 0.07431199
000240 5a f6 97 3d 3f 85 9b be eb ef 13 3e 85 4a a4 be
       0.07420035 -0.30375096 0.1444699 -0.32088104
000250 d2 3a 84 3d 36 85 86 bd 3f 49 9a be 49 f4 42 3e
       0.064565316 -0.06568377 -0.30134007 0.190385
000260 77 d7 66 3e ca d5 79 be eb ff 49 3e 42 29 9a be
       0.22543131 -0.2439796 0.19726531 -0.30109602
000270 ec d3 9c bd b8 1a e9 bd 85 d8 48 be 66 48 1c 3e
       -0.076576084 -0.11382049 -0.19613846 0.15261993
000280 44 ac b5 3c d0 7b ae 3c c1 62 d9 bd ef af e9 3c
       0.02217687 0.021299273 -0.10614539 0.028526274
000290 19 1e 70 be b1 a7 20 be bf 2f ad 3d ea 77 63 3d
       -0.23448981 -0.15688969 0.084563725 0.05553428
0002a0 df 24 de 3c 42 a4 93 be f1 be 27 3e 8f 5f 1c 3e
       0.02711719 -0.28836256 0.16381432 0.15270828
0002b0 3a 07 66 3e da ad 90 be a4 94 b0 3c 3d 25 17 3d
       0.22463694 -0.28257638 0.021555252 0.036900748
0002c0 20 44 f4 bd 32 08 03 3e 1c bc 29 3e a9 67 30 3e
       -0.11927056 0.12796095 0.16575664 0.17227043
0002d0 23 12 26 bd 66 ea 10 be 52 d5 23 be 60 19 5b be
       -0.04054464 -0.14151916 -0.15999344 -0.21396399
0002e0 5e 81 5a be 9c 13 89 3d ca f9 85 3d 2c db 41 be
       -0.21338412 0.06693193 0.06541784 -0.18931264
0002f0 4b aa 6d be 28 97 bb bd 74 54 9b 3e ce 7d 6b 3e
       -0.23209493 -0.0915969 0.3033787 0.2299721
000300 74 e6 71 3e fc 0a 80 3d 6a 23 67 be 49 6a 3a 3d
       0.23623067 0.06252095 -0.22572103 0.045511518
000310 21 a4 80 3d 43 1e 30 3d 0b 5b d0 bd 3c 7e 27 be
       0.06281305 0.04299761 -0.10173615 -0.16356748
000320 3b 75 5f be 29 c4 11 bd 6e 0b 36 3e 2e ee 27 be
       -0.21822064 -0.035587464 0.17777798 -0.16399452
000330 3d ab 33 3e f1 ce 01 3d 9d 9c 64 3e 3f 6f 9e 3d
       0.17545791 0.031691495 0.22325368 0.07736062
000340 dc ee be 3e 11 52 fb 3d 9e 37 3c bd c2 42 f4 3d
       0.3729161 0.12271512 -0.04595148 0.119267955
000350 af 73 22 be 40 e7 ac be ea 65 01 bd b8 dd 83 bd
       -0.15864442 -0.3377018 -0.031591333 -0.06438774
000360 d0 de fb bd c3 1c 12 3e 93 e8 a0 be 39 e3 e1 bd
       -0.122983575 0.14268784 -0.3142744 -0.110296674
000370 49 4e e5 3c dc e6 c7 3e b4 5d 23 be 0d 74 a5 3d
       0.02799143 0.3904332 -0.15953714 0.080787756
000380 f6 0a ee bd 14 d1 ac 3d 9a de 92 bd cb 4d 85 3d
       -0.116231844 0.08438316 -0.07171364 0.065089785
000390 94 16 90 3e 2e 09 34 bb 8d 9c d2 3e c2 b1 a3 bd
       0.28142226 -0.0027471292 0.41135064 -0.07992889
0003a0 6e 07 b8 3c 3e 1e a7 bb 3e db 16 bd 4c 5b 40 be
       0.02246448 -0.0051000407 -0.03683018 -0.18784827
0003b0 5e 3a 94 3d c9 e6 aa bd cc fb 23 3e 14 ba 8c bd
       0.07237695 -0.083448 0.16014022 -0.06871429
0003c0 63 f0 5f 3c db 78 97 be c5 55 2d bd 09 2c 86 ba
       0.0136681525 -0.29584393 -0.042318124 -0.0010236512
0003d0 86 6c 76 3e 6c 20 39 be d7 a4 11 be 7d aa c0 be
       0.24064836 -0.18078774 -0.14223038 -0.37630072
0003e0 cd 0e 9f bd 6a 3d 16 3e 34 11 28 3c a1 2d 99 be
       -0.07766495 0.14671865 0.010258008 -0.29917625
0003f0 23 7e 5d be 03 ea 7a 3d bb 58 95 3e 6f 90 99 3d
       -0.21630149 0.061258327 0.29169258 0.07498252

transformer.layers.0.0.fn.to_out.0.weight f4 [36, 72]
000000 2c db 11 3d 54 5d 0c 3e eb c9 45 bd bc 90 3f be
       0.03560941 0.13707477 -0.048288267 -0.18707556
000010 59 ca 8a 3d 1d 9f 10 3e 60 0a 93 3d af 44 96 bc
       0.06776876 0.14123197 0.07179713 -0.018343298
000020 c1 fc 75 bd 12 85 8b bc 8c ae 4c be e3 b5 b3 3d
       -0.060055498 -0.017031226 -0.1998846 0.087749265
000030 23 64 a8 3d eb 93 3f be 13 8c 1f bd b8 71 5f bd
       0.082222246 -0.1870877 -0.038951945 -0.05455181
000040 31 f0 92 3d 9d 58 bc bc 21 37 c3 bd 62 49 9f bd
       0.07174719 -0.022991473 -0.095319994 -0.077776685
000050 a2 18 a0 bd d7 f3 18 be 71 32 e7 bd 41 98 df 3d
       -0.07817198 -0.14936768 -0.11288918 0.10917712
000060 19 0e 12 3e 68 54 90 bd 82 3e 31 3e a9 9a 92 bd
       0.1426319 -0.07047349 0.17309001 -0.07158405
000070 ba 71 04 3d dd 88 44 bc d8 27 2f 3e d0 15 43 bd
       0.03233502 -0.011995521 0.17105043 -0.047628224
000080 e9 b2 20 3e 19 a3 ce 3c 99 18 2f be f4 f7 84 3e
       0.15693249 0.025224255 -0.17099227 0.25970423
000090 ae 75 1a 3c ed c3 9e bd 4c c9 51 be 32 bc b5 3b
       0.009427471 -0.077522136 -0.20486945 0.0055461163
0000a0 99 3f b5 3d 65 cc c9 3d eb 61 95 3d 9c 5f fb b8
       0.08850021 0.09853438 0.07294067 -0.00011986421
0000b0 c0 02 95 be 07 c0 b6 bd a0 e8 34 be d7 52 6a bd
       -0.2910366 -0.08923345 -0.17666864 -0.05720791
0000c0 8a 8e d5 bd a8 77 02 3e 26 be c7 3d 7f 7d fb bd
       -0.10427578 0.12740958 0.09753065 -0.12279796
0000d0 a9 18 54 be 59 71 59 be 03 be 76 3e 9c ac 2f 3c
       -0.20712532 -0.21234645 0.24095921 0.010722306
0000e0 f8 63 17 bd 06 00 97 3e ef 09 01 3e 2c 52 e5 3d
       -0.036960572 0.29492205 0.12601446 0.11197314
0000f0 a0 b3 19 3e fb 79 e8 bd 7d f9 5c bd 52 27 74 bd
       0.15009928 -0.11351391 -0.053948868 -0.05960781
000100 73 63 bc 3d 3a 12 8d bc e3 86 00 bd 1a 47 90 3d
       0.09198656 -0.017220605 -0.031378638 0.070448115
000110 ca f7 c9 3d 70 b9 d7 3d 1b 3d 30 3e a9 0e 52 bc
       0.09861715 0.10533416 0.1721081 -0.012820878
000120 a4 50 19 3e b8 b4 f2 bd 20 03 c1 3d 9b 8f 25 3d
       0.14972168 -0.118508756 0.09424424 0.040420156
000130 5e 8b ac bc 80 34 31 bd b9 f0 ef 3d 8f bb 1f 3d
       -0.02106255 -0.04326296 0.11715836 0.03899723
000140 0f 5a f9 bd 10 28 50 3b 6b b4 87 bd 9c ab 96 bd
       -0.121753804 0.003176216 -0.06626209 -0.07356951
000150 bd 35 ff bc 26 4d 0b 3e fe bf 49 bb 53 ae 09 3d
       -0.031153554 0.13603649 -0.0030784602 0.033613514
000160 7a 58 96 3c 19 75 56 3b 6a 3c 0f be 44 dc 86 3d
       0.018352736 0.0032723604 -0.1398789 0.06584981
000170 25 55 0f 3e a7 ee 55 be 65 bd 26 bd 00 a8 74 be
       0.13997324 -0.2089182 -0.040707964 -0.23892212
000180 83 8d 07 be 65 b3 69 bd b1 d2 d9 bd bf 7d 9b bc
       -0.13237576 -0.05705585 -0.10635889 -0.018980859
000190 42 2a 99 3d d9 39 db 3b 4a 27 38 be 97 6a 0d 3e
       0.07478763 0.0066902456 -0.17983738 0.13810192
0001a0 3d 7f 8b 3d d6 15 33 3e ab f6 84 3e c9 60 42 3c
       0.06811378 0.17488798 0.25969443 0.011863896
0001b0 e2 16 30 3d 14 cc 48 3e 4f f0 b3 3d 58 4b 80 3c
       0.042990573 0.196091 0.087860696 0.015660927
0001c0 8c 73 01 bd cd 57 23 3e 11 8e 0d be e1 29 1b bc
       -0.031604335 0.15951462 -0.13823725 -0.009470434
0001d0 29 31 dd 3d fb 4d 8d 3c d2 12 25 bd ac 03 85 bc
       0.10800392 0.017249098 -0.04030115 -0.016237102
0001e0 1a 0b 30 bd e3 81 ed 3d a9 1c 91 3d f7 1b 94 3d
       -0.042979337 0.115970396 0.070855446 0.07231896
0001f0 53 b6 b4 bd ad 50 94 bd c2 75 a2 3d 9f 34 38 bd
       -0.08823838 -0.0724195 0.07932617 -0.04497206
000200 59 24 d0 bd 4d 41 46 3a 82 e1 3d 3c 74 48 2a bc
       -0.10163183 0.0007562831 0.01158941 -0.010393251
000210 31 a9 95 3d 90 2c 9f bc 24 58 bd 3c 16 bd be 3c
       0.07307661 -0.019430429 0.023113318 0.023283523
000220 c6 11 e0 3d 76 78 ae bd 3a 4f 92 3d 5f 52 bd 3d
       0.1094089 -0.0851907 0.071440175 0.09244227
000230 6f bb 37 3d 39 d0 94 3c 1f 02 94 bd 50 56 8f 3b
       0.044856485 0.018165695 -0.07226967 0.004374303
000240 39 3a fb bd af 2b 0f 3e cf 40 58 3d a4 aa a6 3d
       -0.122669645 0.13981508 0.05279618 0.08138016
000250 4a e6 0a be 6a d2 36 3d 2f 01 55 3e 68 1f d2 3d
       -0.13564411 0.04463426 0.20801233 0.102598965
000260 fb c2 bf bd 00 f3 cd bb 11 15 d1 bd c2 75 09 3d
       -0.093633614 -0.0062850714 -0.10209096 0.03355957
000270 f4 d2 ff bd 6e 5c 55 bd 44 08 1a bd 7f 9c 9e bd
       -0.12491408 -0.0520901 -0.03760554 -0.07744693
000280 49 c6 2e 3e 6e 2a 6d bd 22 9d 6a bb 0f 24 1b be
       0.17067827 -0.057901792 -0.0035799225 -0.15150474
000290 d9 67 cc bd d5 a1 9a 3c 9c be 35 3e 70 ef d3 3d
       -0.09980745 0.018875996 0.17748493 0.103484035
0002a0 a1 47 47 3d d1 91 85 3d 58 0a 67 bd 8d 71 6e 3d
       0.048652295 0.06521953 -0.05640635 0.05821376
0002b0 f4 d3 d3 3d 51 97 f0 b9 4d 04 e4 3d 37 ba d0 3d
       0.10343161 -0.00045889107 0.11133633 0.10191768
0002c0 20 3f ce ba 51 b1 42 3d b1 64 36 3e f4 33 f8 3d
       -0.0015735365 0.047532383 0.17811848 0.12119284
0002d0 d3 4d 5d be 01 a0 af bd f2 48 eb bd 83 86 28 bd
       -0.21611719 -0.0857544 -0.114885226 -0.041143905
0002e0 e5 ae e3 3d 10 5a 48 3c 52 59 21 3e 6c 86 30 3e
       0.11117343 0.012228504 0.15756729 0.17238778
0002f0 5f e9 ed bd a5 df bf bc f0 8e 74 bc ff fc db bc
       -0.11616778 -0.023422072 -0.014926657 -0.026854036
000300 32 fa 1c bd c3 48 0b 3d 9d df 1a 3d 4b 33 41 3e
       -0.038324542 0.034004938 0.03781091 0.18867223
000310 f4 3b 8e bc 6e 7d 91 3d 9d 07 09 3e e1 b3 ee 3d
       -0.017362572 0.07104002 0.1338181 0.11655403
000320 7f c8 9a 3c 50 a3 29 3e 12 88 c2 3d 45 9d 17 3e
       0.018894432 0.16566205 0.094986096 0.14806087
000330 fc 6a 7d bd 2a 0d 10 be 36 51 2a 3d 53 9f ae 3d
       -0.061869606 -0.14067522 0.041581355 0.085264824
000340 ed 78 01 be 72 b2 4a bd 71 21 76 3c 41 b1 09 be
       -0.12643786 -0.049486585 0.0150226215 -0.13446523
000350 c1 e1 a7 3d 06 7a 12 bd 40 a4 21 be 35 e1 86 3d
       0.08197356 -0.035760902 -0.15785313 0.065859236
000360 48 12 56 bd f9 65 90 bd 78 79 f3 bd 97 20 c7 bd
       -0.052263528 -0.070507 -0.11888403 -0.09723013
000370 03 8b c3 bb 93 98 ac 3d f0 7d 0b 3d 0c 61 2b bd
       -0.005967499 0.08427539 0.03405565 -0.041840598
000380 0b ed 65 3d 9d 04 3b bd 86 dd 83 bd fe 11 2b 3c
       0.056134265 -0.045658696 -0.064387366 0.010441301
000390 52 7f 6f be d4 4c 86 bd bb 4e 52 3d 44 b3 45 3d
       -0.23388413 -0.065576226 0.051344614 0.048266664
0003a0 64 47 cd bd 69 bb 0f 3b f7 50 01 3d 9e f4 0f be
       -0.10023382 0.0021931774 0.031571355 -0.14058158
0003b0 ff dd 80 3d 24 a9 c3 bc 2a 66 87 3c b7 4c c5 bd
       0.062923424 -0.023884363 0.016528208 -0.09633773
0003c0 db 2a 33 be b9 1a aa 3d 08 ac 7f bd be 3a 41 3e
       -0.17496817 0.08305878 -0.06241992 0.18870065
0003d0 b3 f1 5b 3b de c3 c5 bd f5 83 52 3c 36 2a 10 3e
       0.0033560812 -0.09656499 0.012848844 0.14078602
0003e0 ab d6 b1 bd e2 24 e9 bd 54 6d 07 bc 34 4d 06 3e
       -0.08683523 -0.11383988 -0.008265812 0.13115388
0003f0 fe 6a 5a 3e c1 16 89 3c 1a 76 26 3e cd e7 95 3d
       0.21329877 0.016734483 0.1625599 0.07319603

transformer.layers.0.0.fn.to_out.0.bias f4 [36]
000000 c0 20 85 3d 63 1b f8 3c 01 cc 7a bc ae d8 e0 bc
       0.06500387 0.030286497 -0.015307427 -0.02744707
000010 98 a6 1f 3d 77 36 4a bd 14 d9 91 bd 37 fd c8 bc
       0.038977236 -0.049368348 -0.071214825 -0.024534805
000020 be cf 12 3e 22 72 a2 bd ef 3a 99 3d 36 e1 83 bd
       0.1433706 -0.07931925 0.07481944 -0.0643944
000030 9e 38 92 bd aa 66 3d 3d c4 78 95 3b 50 d8 7d bd
       -0.07139705 0.046240486 0.0045615155 -0.06197387
000040 03 47 f7 bd f8 af 0e 3e a7 b2 23 be 12 a4 1f bd
       -0.12074091 0.13934314 -0.15986119 -0.03897483
000050 c8 bc a3 bd 16 9a 0e 3b 93 86 15 3d 8b 00 0c bd
       -0.079949915 0.0021759323 0.036505293 -0.034180205
000060 ec 62 15 bc 67 a9 06 3d 07 e9 15 be 70 72 a7 3d
       -0.009117823 0.0328764 -0.14639674 0.08176124
000070 9f 07 15 3e d9 14 28 3d 80 ab 29 3e 21 38 da 3d
       0.14553688 0.041035507 0.16569328 0.10655237
000080 94 6f ac bd 91 9d 44 bd 29 ee 77 3d 28 05 ca bd
       -0.08419719 -0.04800183 0.06052986 -0.09864265

transformer.layers.0.1.norm.weight f4 [36]
000000 cf b6 87 3f 6c 38 80 3f 48 fa 96 3f 3f 93 87 3f
       1.0602664 1.0017219 1.179513 1.0591811
000010 f4 29 73 3f dd 02 59 3f cd ed 9c 3f 50 cc 86 3f
       0.9498589 0.84769994 1.2260071 1.0531101
000020 f4 02 82 3f fe f4 66 3f e7 13 80 3f eb 07 8f 3f
       1.0157151 0.9021758 1.0006074 1.1174291
000030 e4 da 85 3f fc e4 8c 3f ce 1b 5e 3f 50 c3 7c 3f
       1.0457425 1.100738 0.86761177 0.98735523
000040 a6 42 7b 3f 78 dd 74 3f 6a aa 80 3f e6 dd 89 3f
       0.9814857 0.95650434 1.0052006 1.0770843
000050 1f 7b 8a 3f 7b f9 8e 3f cb d2 67 3f 9f 39 86 3f
       1.0818824 1.1169885 0.9055602 1.0486335
000060 eb 62 77 3f d2 8c 5a 3f 47 14 86 3f 18 0f 9d 3f
       0.9663531 0.85371125 1.0474938 1.2270231
000070 1f b5 8a 3f aa a0 7d 3f c1 1a 82 3f 43 36 81 3f
       1.0836524 0.9907328 1.0164415 1.0094684
000080 3e c9 76 3f dc 18 59 3f 3c f3 7e 3f e0 46 61 3f
       0.9640082 0.8480356 0.99589896 0.8799877

transformer.layers.0.1.norm.bias f4 [36]
000000 be 9b 5b bd 7e ca 96 bc 3c 3d 4e be 28 54 00 be
       -0.053615324 -0.018407103 -0.20140547 -0.12532103
000010 a0 0b 1b 3d a5 35 bb 3d 20 b4 3a 3d 37 cc 08 3d
       0.037852883 0.09141091 0.045581937 0.03339788
000020 a1 b8 a9 3c 27 d6 3d be 07 f0 68 bc 2b b3 73 3d
       0.02071792 -0.18538724 -0.014217383 0.05949704
000030 bb b7 27 3d ce 00 66 3a 7b 76 ec 3d a5 0c df bd
       0.040946703 0.00087739236 0.11546036 -0.10891084
000040 5e 5d bf 3c e8 ac 33 bd 55 c4 c2 bd 1f 5f 38 bd
       0.02335995 -0.043866068 -0.095101036 -0.04501259
000050 ce f8 5e 3d 34 6b df 3d fc b8 61 bc 02 a7 e4 3d
       0.054436497 0.10909119 -0.013777014 0.11164667
000060 f9 a0 51 3d 94 77 e3 3d 61 e0 ee bc 78 33 f6 bc
       0.051178906 0.11106792 -0.029159727 -0.03005384
000070 0a d4 c0 bc 81 7a fe bc da 91 9c 3d 9e 6d 91 bd
       -0.023538608 -0.031064274 0.076450065 -0.07100986
000080 40 f5 91 bd 6a 12 9c 3d 1f 30 8f 3b 87 5a 4f be
       -0.07126856 0.076207 0.00436975 -0.20249377

transformer.layers.0.1.fn.net.0.weight f4 [72, 36]
000000 b2 38 20 bc 70 89 24 be 9f e5 fd 3d ec 3c 6c 3e
       -0.009779142 -0.16068053 0.123973124 0.23070115
000010 94 17 0d be 0e 56 f2 3d 9c 7f f0 3d 0b 37 97 be
       -0.13778526 0.1183282 0.117430896 -0.29534182
000020 41 c5 f2 3d 60 91 99 3e 8c e3 f2 bd 65 c5 31 3d
       0.118540294 0.29993725 -0.11859807 0.04340114
000030 ca a0 35 be 52 56 a3 be 9a fd 69 be 7d 4e 3f 3e
       -0.17737117 -0.31901795 -0.22850648 0.18682285
000040 2f 14 53 be f1 fe 17 3e 7c 51 36 3e 27 4f 37 be
       -0.20613168 0.14843346 0.17804521 -0.17901288
000050 2f 2a e8 bd 18 c3 91 3d 16 07 c0 bd ce 59 81 be
       -0.11336171 0.07117289 -0.093763515 -0.25263828
000060 a7 ab a4 3c ca a5 d9 bd 90 79 3e be 41 bf a4 3d
       0.020101381 -0.10627325 -0.1860106 0.08044291
000070 1c aa 19 3c 5b b7 45 3e 68 57 95 3e a9 e6 9c bd
       0.009378936 0.19308226 0.29168248 -0.076611824
000080 c2 a7 38 bc 1c 3b dd bd 51 c0 00 3d 59 dc 23 be
       -0.011270465 -0.1080229 0.031433407 -0.16002025
000090 9b 29 b2 3e 19 dd d8 3c 0d 22 f1 bd 6e 2f bd 3d
       0.34797367 0.026472615 -0.11774073 0.09237562
0000a0 27 fc 5e 3c f1 17 2a 3b 7d 75 5d be 23 32 8a 3d
       0.0136099225 0.0025954212 -0.2162685 0.06747844
0000b0 58 aa 25 be 2b c1 8a be 22 52 37 bd 6b ed 8e be
       -0.16178262 -0.271005 -0.044756062 -0.2791551
0000c0 bf 93 4f be 70 29 c4 bc f1 19 0f 3d f9 74 88 3d
       -0.20271204 -0.02394554 0.03493685 0.06662936
0000d0 d9 15 36 3e d9 92 a5 be 79 2a 44 be c6 bf 8d 3e
       0.17781772 -0.32338598 -0.19156827 0.27685374
0000e0 f3 fa bc 3d 37 70 7d be b7 06 99 3e 3d 8a 82 be
       0.09227552 -0.24749838 0.29887936 -0.25496092
0000f0 56 93 46 3d 84 7a 2a 3e ff 7a e7 3d 41 a8 73 3e
       0.048480354 0.16648299 0.113027565 0.23794653
000100 87 8c d4 bd 3b 01 d8 3d 49 a5 53 bc 36 67 2f bd
       -0.10378366 0.1054711 -0.012917825 -0.04282304
000110 86 7e 4d be 96 f0 25 bc f3 2a 44 bd 4c aa 32 3e
       -0.20067796 -0.010128161 -0.047892522 0.17447776
000120 8f 05 67 3c 6f 6c 81 3d b0 98 a4 3c 94 3e 04 bd
       0.014100446 0.0631951 0.020092338 -0.03228624
000130 9b 70 7b 3d dc 52 a3 3d 8b 9f 9c bc 75 76 05 3b
       0.061386686 0.079747885 -0.019119045 0.0020364795
000140 be 99 18 3e 03 2a 70 3c a6 c5 93 3d 23 36 f7 bd
       0.14902398 0.014658454 0.07215433 -0.12070873
000150 67 63 e5 bd 09 87 ea bd 19 85 fe bd 39 5a 01 3d
       -0.112006 -0.11451537 -0.1242773 0.031580184
000160 75 6d 87 bc 9c 58 23 bb 04 bf 66 3c 14 17 82 bd
       -0.016531685 -0.0024924641 0.014083628 -0.06352058
000170 c5 3b 5f bb b3 26 68 3d b0 04 29 3c 34 89 02 3e
       -0.0034062725 0.05667753 0.010316059 0.12747651
000180 28 d6 0c 3d b2 a7 ad bb 66 6e fb 3d 41 ee e1 bc
       0.034383923 -0.005299532 0.12276916 -0.027579429
000190 a7 0d f3 bd 80 bd 60 3d 7f f8 3a 3d 6a 13 11 3d
       -0.11867838 0.05486822 0.04564714 0.035418905
0001a0 86 96 d0 bd 18 8a ca 3c 40 92 b1 3d 6a f8 be bd
       -0.1018496 0.024724051 0.08670473 -0.09324725
0001b0 ba 9a 90 3c b6 94 5f 3e be 3e f9 3d 0b fe 62 3e
       0.017651904 0.21834072 0.1217017 0.22167222
0001c0 b2 12 80 bd 97 7c 28 3e e2 4c 8c be 58 53 db 3d
       -0.06253566 0.16453777 -0.27402407 0.10709256
0001d0 02 dd 72 3e 15 ca 76 3d 4b 94 ad 3e 30 65 58 bd
       0.2371712 0.060251314 0.339022 -0.052830875
0001e0 d8 50 ae bd 7d 03 27 bd 72 7f 61 3c a3 c6 50 3e
       -0.085115135 -0.04077481 0.0137632955 0.20388274
0001f0 b0 4c 90 3d 58 87 05 be 35 58 b3 3c bb b9 9a 3e
       0.07045877 -0.13039911 0.021892646 0.30219826
000200 3c 36 5a be 84 ce 98 bd 34 a3 c1 3d 9c a2 1f be
       -0.21309751 -0.07461265 0.09454957 -0.15589374
000210 d9 36 38 3e b3 bc 91 3e 00 5c c1 bd a2 e7 af bd
       0.17989673 0.2846428 -0.09441376 -0.08589102
000220 e2 3f 72 be 0a 07 47 3c c0 3e 45 bd a8 55 85 be
       -0.23657182 0.012147674 -0.048155546 -0.26041913
000230 5e 75 74 3e b2 7b a0 bd 38 d7 8c 3e 79 44 f3 bc
       0.23872897 -0.07836093 0.2750795 -0.029695736
000240 e0 ed 99 3d 96 86 6f be 88 a2 85 3e cc 8e 25 3d
       0.07516074 -0.23391184 0.26100564 0.040419385
000250 5e 25 74 bd be 13 01 be bc ce 77 3d 22 36 29 3c
       -0.05960595 -0.12605187 0.06049989 0.010327848
000260 9d ff 88 3d bb 47 39 3e ea 9e fb bc 04 f1 70 bd
       0.06689379 0.18093769 -0.030715425 -0.0588236
000270 d3 6a a8 3b a7 af a8 3e b4 85 45 be d7 9b 59 3d
       0.0051396876 0.32946512 -0.19289285 0.053127136
000280 38 9f ad 3b 90 f8 71 3e da 44 d6 3d 48 95 12 be
       0.0052985214 0.23629975 0.10462351 -0.14314759
000290 a3 57 13 bd 6f e8 a5 be 26 ce b0 bd 08 b3 a3 bd
       -0.03597225 -0.32403895 -0.0863307 -0.07993132
0002a0 a7 f3 01 be 79 17 a8 bd b3 31 11 3e aa 5d 04 be
       -0.12690602 -0.08207602 0.14179115 -0.12926355
0002b0 5c 1f cd 3d 58 65 1a bb c7 71 14 3c d2 3c 41 3c
       0.10015747 -0.002355894 0.00906033 0.011794286
0002c0 74 17 03 3e 6d 31 a7 bc e6 87 0a bd ad 23 a9 bd
       0.12801915 -0.02040931 -0.03382101 -0.08258758
0002d0 bd 3e 9f be 4b 76 37 3d 4b d9 eb bb 8b 5d 47 3e
       -0.31102553 0.044790547 -0.007197534 0.19469278
0002e0 cd f0 cf 3c 6c 89 52 be dc b1 b2 3d 67 29 ce 3c
       0.025383377 -0.20560235 0.0872533 0.025166227
0002f0 ce 2c 1e bd 51 8e d6 bd 58 e2 29 3d c4 35 94 bd
       -0.038616948 -0.104763635 0.041475624 -0.072368175
000300 d0 99 a2 3d ea fe 9d 3d 2a 67 bf bc a5 48 96 3e
       0.07939494 0.077146366 -0.023364622 0.29352298
000310 81 bd cc bc 3f 4b 4d 3c d9 b7 9c bd 68 de ae 3d
       -0.024992706 0.012530147 -0.07652254 0.085385144
000320 4a e0 9f be 49 b4 f6 3d fe 46 eb bc 82 e8 d4 bc
       -0.31225806 0.120461054 -0.028720375 -0.025989775
000330 2a b5 c5 3d 03 02 c9 bd 05 40 19 3e 09 4b 59 3e
       0.09653695 -0.09814837 0.14965828 0.2122003
000340 27 86 a9 3d 54 6f c8 bd 77 4b e0 bc 7b 15 09 3e
       0.08277541 -0.09786859 -0.027379734 0.133871
000350 a6 6a 41 bc d1 d3 1e 3e 68 42 da bd 77 97 3e be
       -0.011805212 0.15510489 -0.10657197 -0.18612467
000360 49 81 37 3d 57 66 a9 3d ef 3a 86 bc d1 96 c7 3e
       0.04480103 0.08271473 -0.016385524 0.3898225
000370 5b 55 e3 3c 2b 07 fa bc ab a0 05 3d 48 15 30 be
       0.027750662 -0.030520996 0.032623928 -0.17195618
000380 ba 36 f9 bb aa 10 bb 3c 25 2a 1d be 05 f1 3b 3e
       -0.007605401 0.022835094 -0.15348108 0.1835366
000390 ec dc e4 bd 38 e5 00 3e 29 01 8f bd fc 1d 50 3e
       -0.1117495 0.1258744 -0.06982643 0.20323938
0003a0 c5 dd ff bd c8 98 20 be e5 35 9f 3e 88 fd 5f 3e
       -0.12493471 -0.15683281 0.31095806 0.21874058
0003b0 de 82 1e 3d b8 56 1a 3d 91 39 c4 bd bb 9f 26 3d
       0.038699023 0.037680358 -0.095812924 0.040679675
0003c0 f4 e8 5f 3a 31 0b 33 be 29 c0 09 3d 8b 54 2d 3e
       0.00085414876 -0.17484738 0.033630524 0.16926782
0003d0 c6 de 12 bd 17 5c 10 3e 51 22 ab bd 74 8d 1c 3d
       -0.035856985 0.1409763 -0.08356155 0.038220838
0003e0 b8 ec 9c 3e 1d d5 df bd fc 91 1c 3e cc 94 61 3d
       0.30649352 -0.1092932 0.15290064 0.055073544
0003f0 a4 5c 1c bd 46 e5 e5 bc cf ee 14 3d ff 31 30 3e
       -0.038174286 -0.028063428 0.036360558 0.17206572

transformer.layers.0.1.fn.net.0.bias f4 [72]
000000 77 1b 4d be 80 c1 4e bd 4d 11 2b bd 1e fe 2d be
       -0.20030008 -0.050477505 -0.041764546 -0.1699147
000010 dd 25 45 be 60 d2 55 be 64 89 4d bd 84 19 7b be
       -0.19252725 -0.20881033 -0.050179854 -0.24521452
000020 2e 25 2a bd 1c 8b 08 be 43 08 3f bd e2 50 ab bd
       -0.041539364 -0.13334316 -0.04663874 -0.083650365
000030 ee b2 1c be 30 84 8f be d5 34 49 be e0 e4 a5 bd
       -0.15302631 -0.2803054 -0.1964906 -0.08100295
000040 13 16 ea 3b 62 f0 6e be 40 59 13 be 30 b8 4b be
       0.0071437447 -0.23333886 -0.14389515 -0.1989448
000050 0a 7c 37 bd 60 16 f1 bd 06 00 55 bd c8 8e 2a be
       -0.044796027 -0.11771846 -0.052001975 -0.16656029
000060 dc cb 77 3d b4 2a 31 be a0 23 f6 3b 65 44 f2 bd
       0.06049715 -0.17301446 0.007511571 -0.118294515
000070 0e cd c6 3c 58 83 20 be e2 27 0e bd 51 c1 2c be
       0.0242677 -0.15675104 -0.034706004 -0.1687062
000080 9c 5f e9 bd 2d 46 82 be de f0 df 3d 55 4a 8e be
       -0.11395189 -0.25444165 0.10934614 -0.27791086
000090 64 fd 17 bc 7e ae 7f bb e5 6c 79 be c1 ff 3f bd
       -0.009276722 -0.0039013918 -0.24357946 -0.046874765
0000a0 2c bf 82 be 41 21 10 3e 7a 3a 12 be ea bb 61 be
       -0.25536478 0.14075185 -0.1428012 -0.2204434
0000b0 cf 9b 54 bd e8 3c c1 bd 58 a6 bb bc d5 9e 1a be
       -0.051906403 -0.09435445 -0.022906467 -0.15099652
0000c0 0c e7 46 be f6 9e 8b be 0b 82 c2 bd f3 95 39 be
       -0.19424075 -0.27269715 -0.0949746 -0.18123607
0000d0 b6 c2 07 be 61 af 96 be f3 66 2d be 95 87 67 be
       -0.1325787 -0.29430678 -0.16933803 -0.22610314
0000e0 2a ff 7d be e5 b2 70 bd 7b 90 6c be c7 02 00 3d
       -0.24804369 -0.058764357 -0.2310199 0.03125265
0000f0 56 4b 67 be 36 3a 24 be b2 c2 bd bd 0f c0 d7 bd
       -0.22587332 -0.1603783 -0.09265651 -0.10534679
000100 1c b5 df bd e1 04 74 3c ba bc 4c bd 72 c4 67 be
       -0.10923216 0.014893741 -0.04998467 -0.22633532
000110 a0 bb 12 3b 3f f8 83 3d d3 6e 22 be c2 9a 4e be
       0.0022389665 0.064438336 -0.15862589 -0.20176223
