ViT/ViT1/5 V train 0.941 V test 0.896 ABS 1/model_bestV.pt (torch, 414407 bytes, 74 tensors)

pos_embedding f4 [1, 19, 36]
00000000: 819f f33f f529 073f 9dc9 ae3f 5c0f 6abf
00000010: b238 1ebf a819 d33f 1964 ba3f ad22 223f
00000020: a276 10be 7623 193e 9b84 693f 7b01 dcbf
00000030: 6976 ee3f 594c 1abf a3a2 24bf 888e 08bf
00000040: fd05 b03f 89af 62bf 3ab3 173f 0ea9 9b3f
00000050: b85b edbe 05f2 583f 270a edbe aaba a03e
00000060: 6a87 0ebf 46c0 ac3e 3bf1 6c3d 7fda 5cbf
00000070: b91a 68bf b860 7abe f30e 673e fdc4 a03f
00000080: 9258 0dbf e9fc b83c e47c 04c0 d26f 8d3f
00000090: 9602 cbbf 0f4b 38c0 a601 983f 93ac 2140
000000a0: 3d84 18bf d028 b7bf c2bb 483e 4e1e 6e3e
000000b0: 9507 cb3f 42c8 0e3f 0b8f de3f a32e aebf
000000c0: f634 70bf dade e63f 6830 2b3f ab84 35bf
000000d0: 0e46 afbf 317d 10bf 9617 623d 7dc5 753f
000000e0: 5305 a2bf 9229 713e 419a a23e f7cf 163f
000000f0: 48ee 873f eac4 4f3d e998 893f e4fc 0bbe
00000100: 0af9 1ebf df64 cabf 8a0f 9d3f 6600 413f
00000110: af6e 1f3e 9313 00bf bc12 4dbd b586 9b3f
00000120: 1c22 39c0 0f6c 60bf 4657 353d 7bd6 78bd
00000130: 8b52 153f 064e b03e 1f2b 573f 6ac6 893f
00000140: fe3c 82bf c3ff 0c3f db04 6bbe 82e4 833d
00000150: 278a b83f 525f d3bf c790 c8be 0cc6 d83e
00000160: 9e7a 933f 2491 833e 1c49 133f c95f a7bc
00000170: 004f fdbd 5cd1 a1bd 9978 24c0 47f7 17bf
00000180: ec31 bebf 5fc5 4ebf ac66 8d3e bda2 7bbe
00000190: 3e27 8ebf e136 493f 1244 7c3f a941 eabe
000001a0: 82ed a4bf c330 6d3e a54b e8be 4bf6 8bbf
000001b0: 6c61 ecbf 9ee2 9d3f 1dc4 edbd 588e 903c
000001c0: d5b8 353e 625d ba3f 4dd0 b83f 8fbc 1abf
000001d0: 79ba 2fbf 4f74 df3e a721 37bf b76d a7bf
000001e0: ff86 8a3f f756 423f 8b66 02bf ffbc fbbe
000001f0: d26e d1bf 34e9 fc3e ae0c 943e 4676 6a3e
00000200: 81c9 afbf 9c1e 283d 2d66 503f 3c8d 4b3f
00000210: 79b9 b3be a0c5 b73e 7545 173f a412 5dbf
00000220: 6371 893f 0f61 74bf 855e 0c3f e746 04bf
00000230: 3ebd 7f3f 2b5e d13f 67d7 dd3f 6a75 83bd
00000240: 8da7 953f 2c45 06c0 d355 c53d 70da a6bf
00000250: 15ed 0b3f 80f0 93be 366f bd3f b431 52be
00000260: 7677 8fbf e628 4cbf b8f3 c23e 72cd 5f3e
00000270: 9547 6e3e cb4d 1abe 6bcc e23f 927b ed3f
00000280: 0b1f 0c3e fb52 5b3e a5d0 6c3f 05c4 b13f
00000290: ef96 a6bf 66d8 2bbf 53a3 af3f fcb5 503f
000002a0: 9d89 12c0 cc1f 9b3e aaaa ce3d 74e1 3d3f
000002b0: e6a7 d43f f728 6a3f 363d 8e3e 4ee6 b53f
000002c0: e1c0 0740 77af 463f 7e67 be3d 680d e3be
000002d0: aecb 26bf 8f1d bd3f 7f29 70bf 066e 98bf
000002e0: b012 3240 b746 5dbd a969 363f 246f e83f
000002f0: ee6a 2b3f e8f9 bb3e a08a 843f 579e 3c3f
00000300: d4f5 333f 7c64 35bf 9c65 01c0 453c 94bf
00000310: a39e 58bd f526 ccbe b626 5ebf 8f38 003f
00000320: 84cd 883f da6a 383d acf1 ae3e 4054 9fbe
00000330: 0d80 94bd b44c b03e 11e2 aebf af6a 43be
00000340: 55c4 c93e 4a3a 81bf 1254 4c3f d5e0 903f
00000350: 1587 9abf ea0e 823f 6b6b 353e 5b27 943f
00000360: 2361 2f3f 292e 65be 3fbc d6bf 3693 8b3f
00000370: f2d5 89bc 7f90 b9bf 3fc9 7bbf 82ff 4a3f
00000380: c93b 113e e6b4 b8bf 2d91 5940 4337 553e
00000390: ac22 a0bf 05c9 bbbe 8866 29be 8b9e 9ebf
000003a0: 5cbd 863f f98c abbf 38fc 913f 0552 493f
000003b0: 31c0 273f 5d6e 993f 1d62 2abe 5171 92bf
000003c0: a4f4 b93f 3e92 0fbe a899 59be 0868 bbbf
000003d0: 9a15 8ebf 005c 993f 0f33 3d3f 9b8e 4b3f
000003e0: a357 ec3e bb6f 1cbf 5237 733f b9a7 c4bf
000003f0: 4888 653f 0b2f 36bf 67f0 00c0 931e f0be
1.9033052 0.52798396 1.3655277 -0.91429687 -0.6180526 1.6492205 1.4561797 0.6333416
-0.14107755 0.14954934 0.91217965 -1.7187952 1.8629886 -0.6027275 -0.64310664 -0.53342485
1.3751827 -0.88549095 0.59257853 1.2160966 -0.46359038 0.8474429 -0.46296808 0.31392413
-0.55675375 0.33740443 0.057847243 -0.862709 -0.90665776 -0.24450958 0.22564296 1.2560116
-0.5521327 0.022581534 -2.0701227 1.104975 -1.5860164 -2.8795812 1.1875503 2.526158
-0.5957678 -1.430933 0.19602874 0.23253748 1.5861689 0.5577432 1.7387403 -1.3607982
-0.9383081 1.8036759 0.6687074 -0.7090556 -1.3693254 -0.56441027 0.055198275 0.9600447
-1.2657875 0.23551014 0.3175831 0.5891108 1.0619593 0.0507249 1.074979 -0.13670689
-0.62098753 -1.5812033 1.2270367 0.7539123 0.15569566 -0.5002987 -0.050066695 1.2150484
-2.8927069 -0.87664884 0.044272684 -0.06075142 0.58329076 0.34434527 0.8405017 1.0763676
-1.0174863 0.5507776 -0.22951071 0.06440069 1.4417161 -1.6513464 -0.39172956 0.42338598
1.1521795 0.2569667 0.5753343 -0.020431416 -0.12368584 -0.0790126 -2.5698607 -0.5936169
-1.4858985 -0.80769914 0.27617395 -0.24573798 -1.1105726 0.78599364 0.9854137 -0.4575322
-1.2884982 0.23163132 -0.45370212 -1.0934538 -1.8467231 1.2334783 -0.11609671 0.017646
0.17746289 1.4559748 1.4438568 -0.6044397 -0.6864391 0.43643424 -0.71535724 -1.3080357
1.0822448 0.7591395 -0.5093772 -0.4916763 -1.6361945 0.4939667 0.28915924 0.2289668
-1.3733369 0.041044816 0.8140591 0.7951238 -0.35102442 0.35892963 0.5909036 -0.8635657
1.0737728 -0.954606 0.54831725 -0.5167069 0.99898136 1.6356863 1.733136 -0.06418879
1.1691757 -2.097972 0.0963551 -1.3035412 0.54658633 -0.28894424 1.4799564 -0.20526773
-1.1208332 -0.79749906 0.38076568 0.21855715 0.23269494 -0.15068738 1.7718633 1.8553336
0.13683717 0.21418373 0.92505866 1.3887945 -1.3014811 -0.6712707 1.3721718 0.81527686
-2.2896492 0.30297697 0.10091145 0.7417214 1.6613739 0.9146876 0.27781075 1.4210908
2.1211474 0.7761149 0.09297083 -0.44346166 -0.6515454 1.4774646 -0.9381332 -1.1908576
2.7823906 -0.054022517 0.71254975 1.8158917 0.66960037 0.367141 1.0354805 0.7367911
0.7029698 -0.7085645 -2.0218267 -1.1580893 -0.052885663 -0.39873472 -0.8677782 0.500863
1.0687718 0.045023777 0.34168756 -0.31118965 -0.07250986 0.3443352 -1.366274 -0.19083665
0.39407602 -1.0095913 0.7981578 1.1318613 -1.2072474 1.0160801 0.17716758 1.157451
0.68507594 -0.2238089 -1.6776198 1.09043 -0.01682565 -1.4497222 -0.9835395 0.79296124
0.14182962 -1.4430206 3.3994858 0.20821862 -1.2510581 -0.36676803 -0.16543019 -1.2392133
1.0526538 -1.3402396 1.1405096 0.78640777 0.65527636 1.1986805 -0.1663899 -1.1440831
1.4527783 -0.1402063 -0.21250021 -1.4641123 -1.1100342 1.1981201 0.73906034 0.79514474
0.46160612 -0.6110799 0.9500629 -1.5363685 0.89661074 -0.7116553 -2.014673 -0.46898326

cls_token f4 [1, 1, 36]
00000000: 9e93 73be 3a5a 55bd 4fe8 2dbf 1474 3f3f
00000010: 27fb 993f 3164 91bf 9c4b d53d 425f acbf
00000020: 35a3 e4bd e48a ea3e 0ae4 033d 1f0e c83e
00000030: 5e43 a3be 1d00 2bbe e38b 0540 b8fa 933f
00000040: 5735 a8be 9b21 7ebe 48cb 313f 6621 d6bd
00000050: ad46 bc3f 9780 0abf f244 a83f ea37 40bf
00000060: 221b ebbf 88af 76bf 04ef a4be 7a84 05bf
00000070: 416f f0be fb8f 41be 0b16 83bf 4e56 7e3e
00000080: 9145 cd3e a886 983f 11bd 503f d033 0ec0
-0.2378678 -0.052088 -0.679326 0.74786496 1.2029771 -1.1358701 0.10414812 -1.346657
-0.11163942 0.4580909 0.032199897 0.39073274 -0.31887335 -0.16699262 2.086663 1.1560888
-0.32853195 -0.24817507 0.6945081 -0.10455589 1.4709069 -0.5410246 1.314604 -0.7508532
-1.8367655 -0.9636159 -0.32213604 -0.5215527 -0.4695988 -0.1890258 -1.0241102 0.2483761
0.40092137 1.1916094 0.8153849 -2.2219124

to_patch_embedding.1.weight f4 [36, 12]
00000000: e9e0 2bbe 044c d13d 015c 33be 6f26 c63c
00000010: f1dd 1bbe 8351 1c3e e50f c73e d267 f7bd
00000020: 5a6c 0c3d a589 2bbe 2a54 6c3e 176d eebd
00000030: a266 0cbe 57bd 34be 4ff4 9e3e f175 cc3d
00000040: 5d84 50be e656 0d3e fba5 6aba 37c7 debe
00000050: c4d8 85be f3c4 50be f073 b53d 0004 613e
00000060: b0ce c63d 2934 a53d d338 9a3e 3866 14bd
00000070: f3a4 c5bc 876b 373e 1e0b 6c3d daa4 32be
00000080: 85e1 bb3e f65c 65be adf5 df3d 1cf9 0ebe
00000090: 2b8d 053d c3c8 3ebe 7e53 63be 437b fd3d
000000a0: b5c3 1cbd 995e 6ebe f43a 203e a63e 90be
000000b0: 65a0 b7bd f187 113e 6d7c 873e 25d9 f0bd
000000c0: 040d c0bd fb8a e3bc 9537 503e 0164 a8bc
000000d0: 16c8 c93d 0e37 993e 098d f13e 2adb da3d
000000e0: 0aef 743e 2745 833d a2eb eabd a5cf b03e
000000f0: 7126 4b3e 523f 8f3d 9c57 483d f62c f13d
00000100: c371 5f3e 9cbd 5ebe b359 ae3e 33c6 9b3e
00000110: 3dec 1cbe 59c7 9dbe 1bd8 2dbe 857f d3bc
00000120: 338c 713d a25f 89bd 94a8 6e3d a38c c23d
00000130: a35e 353e b7d7 89be bd32 143d feb3 12bd
00000140: d0f1 a6be 11f6 153e 11f7 edbd ec8a 93be
00000150: ba59 a43d 98d9 04bc 9c99 54be 13ba 053d
00000160: 9978 febd 64f3 63be d28c 2b3d 6df8 0bbc
00000170: eb70 023e eb9d b8be 942a 123e d5f9 04be
00000180: 2576 55be cdbd 0abd 18b0 503e 8015 05be
00000190: 3928 58be 24ed 543e bc50 50b8 9dd0 723e
000001a0: 4b64 ea3d d647 58be ffcb d8be 458e 8e3d
000001b0: 6a3a 45be ce78 173d 9410 2d3e ef17 b7bd
000001c0: 73e4 cd3d ebc2 6ebe de1b eabe 34ab 0b3e
000001d0: 1af8 31bd ff85 0c3e 1223 1a3e 87eb 483e
000001e0: 9e1d 5b3e 3f33 54bc a267 aa3e a162 1c3e
000001f0: eb3e 063d ecb7 043e 7026 083e 619f a9be
00000200: e986 833e 3023 9a3e 82ab f8bd b329 93bc
00000210: b392 4fbd aedb f83c b995 38bd 9747 ccbd
00000220: 2323 623e 4b1c dcbd 6de8 3c3e 4b6e 39bd
00000230: 56d4 a4be 8be6 39be a42e babe 9844 06bc
00000240: 1b46 a73e 8ae6 c3bd 0361 ceba c63b b93d
00000250: 0221 d03c 695b 2a3e c1f1 32be 6fb5 66bd
00000260: dd44 7c3e ea64 a73e f0db 38bd d78b 133d
00000270: ef3f 583e d3be 6f3d 3c7d af3e f2f8 9dbe
00000280: 8dbb 50bd 8624 a53e 75e2 753d b4e3 3cbe
00000290: 91a5 5dbe 3317 b2be b3b0 dcbb ac12 c0be
000002a0: ae45 1d3e 3a1f 843d 1725 893e 8900 ae3e
000002b0: 0756 353e 6d81 24be 5319 86bd 5c59 02be
000002c0: 03bd 0ebe 3074 8dbe 4884 65be 7f87 9c3e
000002d0: f39a 6b3e 8246 cbbd 96cd 343e 1875 0abe
000002e0: 2498 9b3d 41e7 863e f0b6 ae3d b885 8b3e
000002f0: 3443 8bbe b845 8ebe 3483 223e 50d7 4fbe
00000300: 9b96 5f3e c998 7ebe 0668 ee3d 2c29 b0bd
00000310: 81ed 07be 35ce 963d 8de1 b7be 2612 273c
00000320: 6dc9 963e c633 7bbe 3da7 8ebc 9894 5cbd
00000330: aa45 b6bc aafb 61be 16e5 ed3d e6bb 103d
00000340: 216e fb3d 10d7 50bd 630f 3d3d 9a06 8fbd
00000350: 98fc 193c 50d8 08bd 62c1 0fbe 09a8 99bd
00000360: 21c1 03be d817 55be 3be1 9cbd 6e58 a13e
00000370: 63e2 403e aa24 93be 4c1d 383e c03d b93e
00000380: f94b 7e3e dfc9 c73e 2353 71be d6f2 8f3e
00000390: 0298 21be 30fe 06be 5c72 5b3d 9f9a a8be
000003a0: e1b7 4f3e e76e 8dbe 2f47 6d3d af4f 123d
000003b0: 85c5 6c3e c044 013e 1de8 a8bc c354 003e
000003c0: e5d6 4d3e b318 17bd 55ac b5bd 0666 22be
000003d0: 4628 1a3d 2607 8a3e d74a 793e 7f67 b8bd
000003e0: a588 03bd 8900 6ebc cbb5 3a3d 29be 963e
000003f0: bdad 983e 3fb5 bd3d b9e5 9dbe 7685 20be
-0.16785015 0.10219577 -0.17515565 0.024188248 -0.15221383 0.15265469 0.38879314 -0.12080349
0.03428302 -0.16751726 0.23078981 -0.11641901 -0.13711026 -0.17650352 0.31045768 0.09983433
-0.20362993 0.1380268 -0.00089511246 -0.43511364 -0.26141942 -0.2038763 0.08860004 0.21974182
0.09707391 0.080665894 0.30121478 -0.036230296 -0.024126505 0.17912112 0.05762779 -0.17445698
0.36695495 -0.22398743 0.10935531 -0.13962215 0.03260533 -0.18631272 -0.22199818 0.12377026
-0.03827258 -0.23278274 0.15647489 -0.28172797 -0.0896614 0.14212014 0.26462117 -0.11760167
-0.093774825 -0.027776232 0.20333703 -0.020555498 0.098526165 0.29924816 0.47177914 0.106863335
0.23919311 0.06409674 -0.11470725 0.3453342 0.19838883 0.06994499 0.048911676 0.11776154
0.2182074 -0.21752018 0.3405281 0.30424652 -0.15324493 -0.30816153 -0.16976969 -0.025817642
0.058971595 -0.06707694 0.058266237 0.094994806 0.17711882 -0.2692239 0.0361812 -0.035816185
-0.32606363 0.14644648 -0.1161939 -0.28816926 0.080249265 -0.008108519 -0.20761722 0.032648157
-0.12425346 -0.22260815 0.041882344 -0.008543116 0.12738387 -0.36057982 0.14274055 -0.12985928
-0.2084585 -0.033872414 0.20379674 -0.12996483 -0.21109094 0.20793587 -4.9666254e-05 0.23712392
0.114449106 -0.21121153 -0.42343137 0.069607295 -0.19260564 0.036980443 0.16900855 -0.08940112
0.10053339 -0.23316543 -0.45724386 0.13639528 -0.0434495 0.1372299 0.15052441 0.19621097
0.21398017 -0.012951671 0.3328219 0.15271999 0.032774847 0.12960786 0.13295913 -0.3312941
0.25688866 0.3010497 -0.121420875 -0.01796422 -0.050677013 0.030378189 -0.04506466 -0.09974592
0.22083716 -0.10747584 0.18448038 -0.0452712 -0.3219325 -0.18154351 -0.3636371 -0.008195065
0.32670674 -0.09565456 -0.0015745464 0.09044604 0.025406364 0.16636433 -0.17475034 -0.056325372
0.24635644 0.3269418 -0.045131624 0.036022034 0.21118139 0.058531594 0.34275234 -0.30853993
-0.050960112 0.32254428 0.06003042 -0.18446237 -0.2164519 -0.34783325 -0.0067349314 -0.37514246
0.15358612 0.064512685 0.2678611 0.33984783 0.17708598 -0.16064997 -0.06547799 -0.127294
-0.1393929 -0.27627707 -0.22413743 0.30572125 0.23008327 -0.09925558 0.1765655 -0.1352123
0.07597378 0.26348308 0.08530986 0.27250457 -0.2719971 -0.27787566 0.15870363 -0.20296979
0.21834795 -0.2486297 0.11640935 -0.08601603 -0.13274194 0.073635496 -0.3591427 0.010197198
0.2945055 -0.24531469 -0.01741373 -0.053852648 -0.022250015 -0.22068658 0.1161596 0.035335444
0.12276865 -0.05098635 0.046157252 -0.06983681 0.009398602 -0.033409417 -0.14038613 -0.07502753
-0.12866642 -0.20809877 -0.07660147 0.3151278 0.1883636 -0.2873891 0.17979926 0.36179924
0.24833669 0.39021203 -0.2356687 0.28114957 -0.15780643 -0.13182902 0.05357586 -0.32930467
0.20284988 -0.27623674 0.057929214 0.035720523 0.23122223 0.12623882 -0.020618493 0.12532334
0.20101507 -0.03688879 -0.0887076 -0.15859231 0.037636064 0.2695858 0.24344955 -0.09004115
-0.032112736 -0.014526495 0.045583528 0.29441956 0.29820052 0.092630856 -0.30839327 -0.15675911

to_patch_embedding.1.bias f4 [36]
00000000: 3b6f 8bbd c7ab 3ebe 4f78 5dbe b25a 953e
00000010: 857a e53d 9b8c 953d 4380 d53d 028f 11bd
00000020: 3c16 71be 9812 56be cf7c a6be 85e4 96bb
00000030: 0844 10bd a662 88bc f2d9 14bd 3ac3 803e
00000040: 38e1 63be fe7c 613e 8625 783e 3b6e 673e
00000050: e8d5 a53e 85c5 69be 792b 03be 70ca 893e
00000060: 3b3a 453e 9ba3 0cbd bcd7 a0bd 6471 043e
00000070: e7a0 9d3c bafc 00be 4824 8cbe 3201 55be
00000080: ee58 5a3e 3070 143e ba75 883e a98d ae3d
-0.06808325 -0.18620215 -0.21627925 0.29170758 0.11205009 0.07302209 0.104248546 -0.035536774
-0.23543638 -0.2090553 -0.32517096 -0.0046048784 -0.03522113 -0.016648602 -0.03634066 0.25148946
-0.22253883 0.22020337 0.24233064 0.22600643 0.3238976 -0.22829254 -0.12809552 0.2691226
0.19260494 -0.034335714 -0.07853648 0.1293388 0.019241763 -0.12596408 -0.2737143 -0.20801237
0.21322986 0.14495921 0.26652318 0.08523113

transformer.layers.0.0.norm.weight f4 [36]
00000000: 3427 813f f4a7 783f a439 773f 0475 833f
00000010: 494a 843f 4064 873f 672c 803f 98b7 783f
00000020: d516 7b3f ab31 863f ccdb 823f 9e7e 823f
00000030: 36eb 803f 22ac 773f f89e 7b3f 699f 803f
00000040: 517d 813f 1fcc 813f 25cd 813f f27f 653f
00000050: 54d2 783f e155 843f dc87 843f eacb 853f
00000060: ab64 8b3f 3008 8a3f 2941 873f 040c 823f
00000070: 4583 693f 5fa5 773f 6326 853f 9b95 873f
00000080: 8195 7c3f 9f94 853f a149 833f 459c 8a3f
1.0090089 0.97131276 0.9657233 1.0270085 1.033517 1.0577469 1.001355 0.9715514
0.98081714 1.0483907 1.0223327 1.019489 1.0071781 0.9674703 0.9828944 1.0048648
1.0116369 1.0140418 1.014073 0.89648354 0.97195935 1.0338708 1.0353961 1.0452855
1.0890096 1.0783749 1.056676 1.0159917 0.91215926 0.9673671 1.040234 1.0592531
0.98665625 1.043598 1.0256845 1.082894

transformer.layers.0.0.norm.bias f4 [36]
00000000: d0e0 9e3d d264 923d 8843 953b 9470 e0bc
00000010: ec15 62bc f3fc 803c 4cb2 3c3a 9fb4 57bc
00000020: 9e27 83bc 4248 253d c873 22bd c377 1ebd
00000030: fd59 383b 6c42 153d 088a 733a d86e 02b9
00000040: d2bd 44bb 0d9c a0bc da3f 00bd d72c bbbd
00000050: bd76 d4bc 61c1 c33c a386 0cbd 8da8 133b
00000060: aa25 bd3a 5ebc de3b 4006 8a3c fc55 08bd
00000070: dc2e 0f3c 2ca4 8dbd 4830 d6bb 9ca5 453b
00000080: 5ebe 203c 4581 89bc 969a 25bb 10a1 1cbc
0.07757723 0.07148136 0.0045551695 -0.027397431 -0.013799172 0.015745616 0.0007198199 -0.013165622
-0.016010102 0.040352114 -0.0396612 -0.038688432 0.002812981 0.036440298 0.00092902826 -0.00012439059
-0.0030020368 -0.01960566 -0.031310894 -0.09139412 -0.025935525 0.023895921 -0.034308087 0.0022530884
0.001443078 0.0067973575 0.016848683 -0.033285126 0.0087391995 -0.06916079 -0.0065365173 0.0030158525
0.009811012 -0.016785273 -0.0025269142 -0.009559885

transformer.layers.0.0.fn.to_qkv.weight f4 [216, 36]
00000000: f94e 0cbe 4ab2 883d 2987 97bd 4099 19be
00000010: 97c6 a53e 1649 823d 2c92 af3d 9ee2 2dbe
00000020: f16a 383e 6f6c 823d 8087 e03d 9f3c b93d
00000030: c21c 633d a7af d3bc e4f1 063e 31a0 8d3d
00000040: fbb4 963d c410 c03d 2b3c 103d c3ab a2bd
00000050: 3be1 03be fd6a 7bbe a69e 163e 42e1 083e
00000060: 0291 d8bb b562 a5bd 4e1e e73d 62db 06bd
00000070: 493c 2abe ed20 353e c03c 1a3d 17e2 0ebd
00000080: f8d6 02bd 91fc 063e c40b 383e cd90 343d
00000090: 52cc 25ba 4833 803e ba98 f7bc 5e5e 4f3c
000000a0: 3d01 c63d 34e4 a33d 5a07 8abd 0323 afbd
000000b0: fef5 743e 0f71 39bd 965d afbd 443f acbd
000000c0: f114 c63d 708d aebd 9801 0dbe 349d 7fbc
000000d0: c404 8c3d 6014 0cbe 24d9 c7bd e7ac 47be
000000e0: 8309 783d 1638 043e 0330 9fbd 0ac2 dcbc
000000f0: d43e 123e 3cf7 cabd 0c41 6d3d cdfc 503d
00000100: 80d0 b4bd 9e76 4ebe e50d c83d 178b 26be
00000110: 5816 b1bc 9501 713d a336 ecbc b200 b3bd
00000120: 7ff3 34bc c920 0d3c b140 bb3d 68c8 1a3d
00000130: 8a4a 99bc f550 4abe eed5 863d 0612 d43d
00000140: 780c 513d acc8 1a3d 2c0c a7bd fb4b fbbd
00000150: 785b cabd 2d95 043e d714 fd3d cb84 bfbd
00000160: 4b34 0d3c b545 07be 9664 063d 1e1a 3cbe
00000170: 26eb 95bd 242d 4ebb 354f be3b 36b1 52bd
00000180: 0eb5 c43d e1f0 733e 26c5 62bc 0142 173e
00000190: 448a deba 68a4 12bd 6e9e 9fbd 3f45 62bd
000001a0: 1af5 653e 8617 d6bd 1a16 1abe b3c3 14be
000001b0: 4bea 11be df32 b03d 431e db3b 5a29 46be
000001c0: 6a91 ea3d 95b4 69bd ab1c 0dbe d1c3 10bd
000001d0: 85be 803d 7ff3 f6bd 6097 2fbe e637 5abd
000001e0: e211 dfbc c3cd c3bd a0ab 083e 3ac1 f7bd
000001f0: 77dd 8cbd e84a 743d 1aa6 843d 5f3d f2bb
00000200: 9ee4 dd3d e9f7 d9bc 59e2 9d3c 3f66 3d3e
00000210: 445e ef3d 9bb7 cb3c ef98 443e eeb8 6cbe
00000220: 6eb3 98bd 371d d53d 0a3b 0dbd e97d 35be
00000230: 397c bc3d 894b 933d 8eba 0a3e d4b7 ae3d
00000240: f337 343d 85d5 a93d 25eb d8bc 264c 763e
00000250: d9ca 71be 4351 36be ba35 cd3d 6691 613e
00000260: b83f 1bbe bd59 17be 5589 343d 0829 c8bc
00000270: 1e8c d3bc f263 de3b fef2 9bbd b19a 0a3e
00000280: 93cd 1dbe d5bb c5bd 5903 9abd 5d47 41bc
00000290: d633 b73b 0d91 17be 3112 c0bc 8498 98bc
000002a0: 9eb1 57bc cf1e d7bd 556c cdbb 0183 443d
000002b0: 33df 013d 29b3 443e 42b3 623d 9174 313e
000002c0: 4909 2d3e 2443 d83c ab5b 22be a5df 70bd
000002d0: 54c3 bfbd 684a 2fbd 9107 aa3d 4933 38be
000002e0: 3edc b4bd dc4a 953d e2ea 5cbe a97d 2a3e
000002f0: 349b 393e 9af1 803d fe6c 25be ff53 b0bd
00000300: 9440 823d eab7 a23d a1b0 80bd 8282 563d
00000310: 6919 d8bd 0e53 133e aa06 b3bd 27dd 2cbe
00000320: 76e1 1fbe c7d9 5d3e 3dab 083e 3fa0 87bd
00000330: bd94 373e 9146 11be f540 543d 1c05 7dbd
00000340: 9ce9 52bc 71ea 893d 7a39 583e 7d44 e83d
00000350: c1f0 78bd 39be ef3b 1bc3 3b3e f410 aebd
00000360: 4f03 b63d 8b51 11bd 27c5 da3d 5300 e33d
00000370: abe6 8cbe ee40 bcbd a8fc 5dbd f62e 723e
00000380: 4af2 d23d 0252 01be d684 dc3d a5d8 923d
00000390: 2e4a 5d3d 3ab7 423d 9bc7 4ebe c848 f7bd
000003a0: 058b c03c fab3 423e aa56 a3bd fab6 20be
000003b0: 002c 473d 399d 3b3d 2a36 c9bd ed66 bdbd
000003c0: 25a7 5e3e 00f5 853d 7593 973d b1e9 073d
000003d0: eca4 433e b6af 09be a0e0 de3d 9cd4 f0bd
000003e0: bcf9 4a3d fb3d 8c3d 1f0d 5dbd 84df 10bc
000003f0: f80b 7e3d fe6b a03d 9a7f e43b 7ee5 553c
-0.13702 0.06674631 -0.07398827 -0.14999866 0.32378075 0.06361596 0.08572802 -0.16980979
0.18009545 0.06368338 0.109633446 0.09044766 0.055447347 -0.025840594 0.13178211 0.0691532
0.07358738 0.09378198 0.03521363 -0.07942917 -0.12878887 -0.24552532 0.14708957 0.13367179
-0.006609083 -0.080754675 0.11285077 -0.032924064 -0.1662456 0.17688341 0.037655592 -0.034883585
-0.03194329 0.13182284 0.17973238 0.044083405 -0.00063246966 0.25039124 -0.030224193 0.012656776
0.09668205 0.08002511 -0.067396834 -0.085516 0.23921964 -0.045273837 -0.08562772 -0.084105045
0.09671963 -0.08523071 -0.13770139 -0.015601445 0.068368465 -0.13679647 -0.09758213 -0.19499551
0.060555946 0.1291202 -0.077728294 -0.026947994 0.1428178 -0.099104375 0.05792336 0.05102234
-0.08828831 -0.20162436 0.09768275 -0.16263996 -0.0216171 0.0588394 -0.028834647 -0.08740367
-0.011044382 0.008613774 0.09143198 0.03778878 -0.0187123 -0.19757445 0.065837726 0.10355
0.05103728 0.037789032 -0.081566185 -0.122703515 -0.098807275 0.12947531 0.123574905 -0.093515
0.008618425 -0.13210185 0.03281077 -0.18369338 -0.07320242 -0.0031460011 0.005807782 -0.051438533
0.09604846 0.23822357 -0.013840949 0.14771272 -0.0016978462 -0.03580132 -0.0779389 -0.05524182
0.2245678 -0.104537055 -0.15047494 -0.14527778 -0.14249532 0.08603453 0.006686957 -0.19351712
0.11453517 -0.057056982 -0.13780467 -0.035342995 0.06286339 -0.12058162 -0.17147589 -0.053275965
-0.027230207 -0.0956073 0.1334672 -0.12097402 -0.068781786 0.05964175 0.06476994 -0.00739257
0.10834621 -0.02660747 0.01927297 0.18496035 0.116879016 0.024867823 0.19198965 -0.2311742
-0.074560985 0.10405963 -0.034480132 -0.17723812 0.09203381 0.071921416 0.13547727 0.08531156
0.04399867 0.08292679 -0.026479313 0.24052486 -0.23612536 -0.17804436 0.10020013 0.22028121
-0.15161026 -0.14780326 0.044076283 -0.024433628 -0.025823649 0.0067868168 -0.076147065 0.13535573
-0.15410452 -0.09654967 -0.0752017 -0.0117967995 0.005590896 -0.14801426 -0.023446174 -0.018627413
-0.013164906 -0.10503923 -0.0062690177 0.047976498 0.031707 0.19208969 0.055346735 0.17329623
0.16898073 0.026399203 -0.15855281 -0.058807034 -0.09363428 -0.04279557 0.083022244 -0.17988314
-0.0883107 0.07289669 -0.21573976 0.16649498 0.18125612 0.06296082 -0.16154858 -0.08609771
0.063599735 0.07945235 -0.06283689 0.052370556 -0.105517216 0.14387152 -0.087415054 -0.16881238
-0.1561335 0.21665107 0.13346572 -0.066223614 0.17927833 -0.14187075 0.05181976 -0.06177245
-0.01287308 0.06734169 0.21115676 0.11341188 -0.060776476 0.0073163775 0.18336146 -0.08499327
0.0888735 -0.035478156 0.10682135 0.11084046 -0.27519736 -0.09192072 -0.05419603 0.23650727
0.10300119 -0.1262894 0.10767524 0.07170228 0.05402582 0.04753802 -0.20193331 -0.12074429
0.02350379 0.19013968 -0.07975514 -0.156948 0.048625946 0.045804236 -0.09824784 -0.09248147
0.21743448 0.06540871 0.07401172 0.03318185 0.19105881 -0.13445935 0.108826876 -0.11759302
0.04955457 0.06847759 -0.05396759 -0.008842353 0.062023133 0.07833098 0.006973219 0.0130552035

transformer.layers.0.0.fn.to_out.0.weight f4 [36, 72]
00000000: d10e a83d 000c e0bb 8a47 65bb 788a b8bc
00000010: 6486 503d 4ec1 553d f2af f13d 4569 243c
00000020: 5e63 ee3c bf71 5e3e 4b14 93bc b5bc 1c3a
00000030: a1a2 a9bd 901d 973c f7dc 34bd 9a3e 9fbd
00000040: 22c2 b73d fc1f 4dbd 4d67 0c3e e9fe 9cbd
00000050: 06f5 6c3d 6746 04be 375d 053d f878 8bbd
00000060: 3593 bb3c 0eab b83d 96e6 26be d47c 3b3e
00000070: 29b1 73bd 94c8 f6bd 63cc 51bb 7f7d f53b
00000080: 33c4 19bd 7785 febd 6306 223e 2fb1 be3d
00000090: e499 5b3c d2f0 763d 2063 a13d b7dd e5bd
000000a0: 6229 0a3d 19dd 063e c207 7cbd 68af d03d
000000b0: f0ac 8c3d 974b e73a 9dd8 ddbc bd92 04be
000000c0: 6a59 cfbc 96c7 a63d 595a 5ebd b790 22bc
000000d0: 3fce d3bc 9159 e63d 7915 83bc 9569 cd3c
000000e0: 85b9 4bbd cbde 5abc 2991 90bd 7d06 873d
000000f0: 1424 573d 77ea 8c3d 053d e1bd e430 adbd
00000100: f473 7fbd aba8 d4bd b6ce 4bbd 8f90 9f3d
00000110: 25bb d23b dc37 97bd 176b c4bd 7707 4b3c
00000120: df54 323b 2555 f63d e76d 69bd 0a72 e93d
00000130: dddd 2f3c 7bf7 87bd 0f75 fcbd 8544 e4bd
00000140: 6cf3 bfbd 6837 d3bd 94f2 6e3d 5133 34bd
00000150: 10d7 f9bd 93b6 dc3d 7b9c 5ebd 2499 493d
00000160: ac68 82bd f855 263d cdd2 dcbd 6cf3 b93c
00000170: 2ba0 f0bd d84d d53d 7b5b 8bbd f153 bdbd
00000180: 5af7 5dbc d730 d93a 6493 223d 2983 db3b
00000190: 4d90 793d ab94 c9bd 8175 2bbc d05e a4bc
000001a0: 2ef9 89bc ec54 12bd 2d4b 94bd a2fb 87bd
000001b0: ad94 ea3c ca0a 493c 68f2 07bc a16a 4f3d
000001c0: 2f2b 273d 2cd6 9a3d 01bf a03d 176f d6bd
000001d0: 74ca 0d3d 5b0a e2bc 2474 b83d 5a86 8d3d
000001e0: 8ca3 04be bd3d 80bd f038 a1bc b4d0 1dbe
000001f0: 2627 5c3c e80f f4bb 63bd 5e3d 6d2b 4ebd
00000200: 46cb 153e 4013 213d daba e4bd 6ec0 a23d
00000210: 50fd 883d 1808 0f3e 2e31 fa3c 4e58 81bd
00000220: 511a 31bd 968c d4bd 71d2 2f3d a75c 6cbd
00000230: f56f 133d 35de fe3d 5287 61bd 0d85 9abd
00000240: 329a da3d 666f 42bd 0532 22be 7250 873d
00000250: 1a94 973d 7ff2 203d fd5a 173d 10fa 463d
00000260: f3bb 9e3d 8928 3d3e 6b37 c9bd 88f5 f23c
00000270: 548b 20bd 2565 debd c7da a7bd 882f e33c
00000280: 8c15 323d 59f1 0f3c 32f5 953d 08b7 02bd
00000290: 189e d3bd 4823 fabd 2259 fdbd e2b7 b73d
000002a0: 2896 11bd ae23 8bbd 2275 8f3d 9031 f03d
000002b0: 1e69 c0bd 0b7d 483d 3aa2 c93c 9784 2cbd
000002c0: ccdd 633d ca57 a23c 09c9 2fbd 581f f53c
000002d0: dc92 1cbe af66 6e3d e0e1 7c3d 0ff3 62bd
000002e0: f8c9 d03d 7c59 4c3d 7499 f63d 8214 e8bd
000002f0: f110 9c3d f51b cb3c 2c5e bebc 4944 31be
00000300: 632f b1bd c95d dfbc 235d 893c c25a 4c3c
00000310: eaca b13b 74e6 063d f055 843d c104 783d
00000320: bac8 383e a465 abbd 8928 89bd fa78 87bd
00000330: fdb5 763d fc81 a0bd 39e3 09be f394 95bd
00000340: abab 0cbe 3ae4 0abd 3ecb efbd bd52 623d
00000350: ec3c 483d 77f6 a43c 078a 2d3d fce8 b03d
00000360: 6fbd e7bc 55cb b73d 0f55 8e3d 8811 c03d
00000370: c86a 363d 3e80 473d 0933 e43b 890b 003e
00000380: 19c2 5e3d f469 06be e13f 0e3e aa39 ed3c
00000390: 7425 b0bd 279d 8b3d 4de5 233e c189 15be
000003a0: e413 94bd 163b a6bc 1dc7 a8bd 2b0c b13d
000003b0: a228 aabd 9668 233d 091d 3ebe e881 0f3e
000003c0: 84c2 033d 865b 27be faec df3b b413 bcbd
000003d0: c2d3 e03d 5537 69bd a897 f73d 7d5e 38be
000003e0: f0d9 aabd 700e abbc 0925 19bd 0512 a63d
000003f0: 946d 693d 94eb 813d 2dbf 183e 3573 013d
0.08205951 -0.006837368 -0.0034985268 -0.022526965 0.050909415 0.052186303 0.11801137 0.010034864
0.029100116 0.21723078 -0.017954012 0.0005979047 -0.08282972 0.018446714 -0.04415604 -0.07775612
0.08972575 -0.05007933 0.13711281 -0.07665808 0.05785086 -0.12917481 0.0325596 -0.06810182
0.022897342 0.09017001 -0.16298899 0.18309337 -0.059495125 -0.12049976 -0.0032012693 0.007491767
-0.037540626 -0.124278 0.15822749 0.09311139 0.01340339 0.060288258 0.07880235 -0.112239294
0.033730872 0.1317028 -0.061530836 0.10189706 0.06868923 0.0017646429 -0.027080828 -0.12946601
-0.02531119 0.08143537 -0.05428538 -0.009922198 -0.025855182 0.11247552 -0.01600145 0.02507476
-0.049737472 -0.013358782 -0.07058937 0.065930344 0.05252464 0.06880658 -0.10997967 -0.08456591
-0.06236644 -0.10383733 -0.04975768 0.07791244 0.006431001 -0.07383701 -0.09590738 0.0123919165
0.0027211232 0.12027959 -0.056989577 0.11398704 0.010734049 -0.06639 -0.12327015 -0.111458816
-0.09372601 -0.10313302 0.05833681 -0.04399425 -0.12199223 0.10777011 -0.05434845 0.049218312
-0.06367621 0.04060933 -0.107823946 0.02269908 -0.117492996 0.10415238 -0.06804558 -0.09244526
-0.013547743 0.0016570342 0.039691344 0.006698985 0.06092863 -0.09842809 -0.010465027 -0.020064741
-0.016842451 -0.03572552 -0.07240901 -0.06639792 0.028635347 0.012270639 -0.00829754 0.0506388
0.040812667 0.07560381 0.07848931 -0.104704075 0.034616902 -0.027592828 0.09006527 0.06910391
-0.12953013 -0.06261776 -0.01968047 -0.15411645 0.013437068 -0.0074481852 0.054379832 -0.050334383
0.14628324 0.039325 -0.111684516 0.07946859 0.066889405 0.13967931 0.030541029 -0.06315671
-0.043237988 -0.10378377 0.042925302 -0.057705548 0.035995442 0.124447264 -0.055060692 -0.07544909
0.10673942 -0.04746952 -0.15839393 0.066071406 0.07401295 0.039293762 0.036952008 0.048578322
0.07750692 0.18472494 -0.09825023 0.029658094 -0.039195374 -0.108591355 -0.08196025 0.027732626
0.04347758 0.008785569 0.07322158 -0.031912833 -0.10332888 -0.122137606 -0.12370516 0.0897062
-0.03554359 -0.06793915 0.07004763 0.11728203 -0.093950495 0.048947375 0.024613488 -0.042118635
0.055631444 0.019817252 -0.04291633 0.029922172 -0.15290397 0.058203395 0.06173885 -0.05540758
0.101947725 0.049890026 0.120409876 -0.113320366 0.07620419 0.024793604 -0.023238264 -0.17311205
-0.086516164 -0.0272664 0.016768044 0.01247281 0.0054258006 0.03293462 0.06461704 0.06055141
0.18045321 -0.08368996 -0.066971846 -0.06614871 0.06023215 -0.078372926 -0.13465585 -0.073038004
-0.13737361 -0.03390906 -0.11708687 0.055254687 0.048886225 0.020137055 0.04236796 0.08638188
-0.028288571 0.089743294 0.069498174 0.09378344 0.04453543 0.048706286 0.0069640917 0.125044
0.054384325 -0.13126355 0.13891555 0.02895816 -0.086008936 0.06817084 0.1600544 -0.1460333
-0.07230356 -0.020291846 -0.08241103 0.08644899 -0.08308531 0.039894663 -0.18565764 0.14014399
0.032167926 -0.16343507 0.0068336697 -0.091834456 0.109778896 -0.056937534 0.12089473 -0.18004794
-0.083423495 -0.020880908 -0.037388835 0.08108906 0.056989267 0.06343761 0.14916678 0.03160401

transformer.layers.0.0.fn.to_out.0.bias f4 [36]
00000000: 6e28 dd3d 2e8a 613d fb6d c33d cdab c53d
00000010: ff03 e5bd d874 c83d 686a bc3d d3a7 f9bb
00000020: e2b8 74bd afa5 22bd f0ad 01bd e35a 0ebd
00000030: 82fc 073d eb5e 88bc 9889 a4bd ed9e 483d
00000040: c2b3 9d3b 9893 213d cf57 f9bd fb19 08be
00000050: c355 493b 5658 f23c 601d 683c 3017 e03c
00000060: f4d4 673d 0c8b f13d 1e08 41bd fe55 953c
00000070: 98bc 8b3c 3a48 ee3c c2e2 ba3d 4ce8 d43d
00000080: 3590 dfbc e0f1 10bd 027e bbbd d11c 0c3e
0.10798727 0.05506342 0.095424615 0.09651909 -0.11182403 0.09787911 0.09199983 -0.007618883
-0.05974663 -0.03970879 -0.03166002 -0.034754645 0.033199795 -0.016646823 -0.080340564 0.04897969
0.0048126886 0.039447397 -0.12174951 -0.13291161 0.0030721284 0.029583137 0.01416716 0.027354807
0.056599572 0.11794099 -0.04712688 0.01822948 0.017057702 0.029087175 0.09125282 0.103958696
-0.027290443 -0.03538692 -0.091548935 0.13682868

transformer.layers.0.1.norm.weight f4 [36]
00000000: f7c1 7d3f 743a 7d3f e6f1 833f cee7 8f3f
00000010: 2337 8e3f 9b2f 863f c0bd 813f 89a3 703f
00000020: cb32 853f 821a 853f 9304 853f a351 693f
00000030: 8771 7e3f 417f 803f 756f 853f 9d94 793f
00000040: 473b 763f c984 703f 56ab 833f ae91 763f
00000050: fb3b 803f 7de1 963f eea7 833f 2005 803f
00000060: 76c8 753f cef6 843f a898 893f 65c9 7f3f
00000070: 53c9 813f bb10 7e3f dd9c 8a3f 3c2d 773f
00000080: 3e87 833f f843 7b3f 29a9 803f 514e 7e3f
0.9912409 0.9891732 1.0308197 1.1242616 1.1110576 1.0483278 1.0136032 0.93999535
1.0406126 1.0398715 1.0392021 0.9114019 0.9939198 1.0038835 1.0424639 0.9749239
0.961842 0.93952614 1.0286663 0.9631604 1.0018305 1.1787564 1.0285623 1.0001564
0.96009004 1.0387819 1.0749712 0.9991668 1.0139564 0.9924428 1.0829121 0.965534
1.0275648 0.9815059 1.0051624 0.9933825

transformer.layers.0.1.norm.bias f4 [36]
00000000: 02fe b83c 68f7 5d3c faf2 b13c d32d 403c
00000010: 914c 763b e1b0 2dbd e88b 5cbd 7e4c 16bc
00000020: f94a 0d3d 17fc 173d 77d1 5b3c aa2b a13d
00000030: 6dbc f1bb b519 dcba d2f8 6b3c a475 0e3c
00000040: 88c4 f9bb e2a9 1f3c 4ddf 0cbd f924 6cbd
00000050: 735f 823c 8106 313b d0e4 acbc e22b 81bc
00000060: 11b2 9e3d 8cb2 c23c 09f6 723b a14b ed3b
00000070: 313e 2a3c ea3e 88bc 7d29 a1bb 5c43 bdbb
00000080: 9c27 733c c249 ddbd ea3c 6ebc 042e 0b3d
0.022582058 0.013547756 0.021722306 0.011729675 0.0037582258 -0.042405013 -0.053844362 -0.009173511
0.034495328 0.037105646 0.0134166395 0.078696564 -0.0073771984 -0.0016792329 0.014402585 0.00869504
-0.0076223053 0.009745093 -0.034392644 -0.057652447 0.015914654 0.0027011933 -0.0211052 -0.015767995
0.07748807 0.023766778 0.0037072918 0.0072416817 0.010390804 -0.016631562 -0.004918276 -0.005775852
0.014840987 -0.10805084 -0.01454089 0.03397943

transformer.layers.0.1.fn.net.0.weight f4 [72, 36]
00000000: 1f0d b2bb b84e 1bbe 6f1f cb3d 90fe 363e
00000010: d702 283e 77ea 58bd c865 ebbd b593 f13d
00000020: d846 32be 874f 81bd b4ba 05be c209 2c3e
00000030: 2baf 47bd fbbc a93d 36cc 39be 29f1 2a3d
00000040: 9847 adbd ae29 e8bc 4427 e93d 905b b73d
00000050: 67d7 80bd cd18 fbbd d96b b6bd 87fd 54be
00000060: 9e08 49bd 8719 fb3d 323e 7bb9 19df 80bd
00000070: 5063 073e dd62 77bd d860 bb3d 9099 04bd
00000080: abb6 d4bd aba8 0a3c 3924 4f3d 4de0 9bbd
00000090: 74d1 a8bc fb59 243e cc2b 063e 4b7b 21be
000000a0: 86af 913d 6f1f 6a3e 13be 0dbe 0fa3 cd3d
000000b0: 6aa2 c13d 332c 8d3c 080b cfbd b3ef 1d3e
000000c0: ea07 18be 9401 89bc 0514 013e 26e3 60bd
000000d0: 807a bd3d 4159 f03c 3845 093e 890b 80bd
000000e0: ee36 e93d ebf7 f9bd 497f b93d 9039 2d3d
000000f0: e625 983d 1b40 e0bd 55eb ec3d 25eb 03be
00000100: b57c 2abd f259 863d e2b8 263c d915 773d
00000110: d086 403d 569f 16be af81 76bc 11e4 d0bc
00000120: b7f7 513d d1fc bf3c 6fe2 28bd 6a88 593c
00000130: 2ec1 9f3d c700 89bd 4d70 253d 033b 36be
00000140: 97e7 183e e316 11be ecbb 06be 38a6 3c3e
00000150: 5716 a33d beca 30be 2b85 873d cc2d d4bd
00000160: 4492 14be ee67 eb3d d3b9 c93c 40be e23b
00000170: 9a3c 24be 9642 153d 17c6 29bd 4202 2d3e
00000180: c5f3 013e 85be 383d a905 233e 1e70 9abd
00000190: 1675 16be a575 e93c 3fd7 6f3d 3bee 25bd
000001a0: 9155 15bc 5f35 8a3c 67f7 8cbd 1531 17bd
000001b0: f3b4 fdbd 04b2 f93d 7a1a 55be c45f 6b3e
000001c0: 4388 babd ab58 1cbd 302d 4abd a6e1 11be
000001d0: 7d88 613e e718 95bc f3d3 d1bd 3fdb c83d
000001e0: 6676 153e e8cb 3f3d cc12 77be 54db ce3d
000001f0: 2826 25be 784d 44bd 989a 53be 8099 babd
00000200: 5bd4 25be 7e97 7fbd 7a8b 03ba 28f6 bbbc
00000210: d1ed 913c e46e 7e3d 2094 a9bd 4a05 21be
00000220: 10b8 8c3d efb8 97bd c28c 053e 50f2 f03d
00000230: 2f9d 843d 7ffb 11be 8c01 333e 9316 4d3c
00000240: 20a3 213e b8e8 aa3d b47f 2ebd 4a1d 633e
00000250: bc19 cabd 000e d3bd bbd7 043e 1ec4 92bd
00000260: 91cc b5bd 9958 33bd 580b 42bc 530c 9e3c
00000270: 3daf 2abd f195 d43d 2329 113c 9b6e 17bd
00000280: 58bb ffbc efd8 ebbc 95f3 db3d 2bbf 96bd
00000290: e1e7 293d 09a0 b4bd 9425 b6bc ba90 6d3d
000002a0: e4ef 6cbc 3fce b13c ec6c b93c 5719 273d
000002b0: a0bc 0cbe 0a97 26be 9855 fc3b 106a b83c
000002c0: ea4c fdbd 6319 a03d dd30 b9bb 1fa9 48bd
000002d0: 2f0e bc3d 6e25 ff3d 344f 62bd 2891 273e
000002e0: 3a26 0f3d 30e1 4f3d a6a7 a33d 7fca 313e
000002f0: a0a5 43be 0137 9b3d 131e 1abe 6633 003e
00000300: d294 cb3d dab9 d0bd f30c 67bc 320e a93d
00000310: 6858 ae3c 2a52 05bd 7e35 1bbe b4a9 cdbb
00000320: 11f6 6dbc 25ff aebe fbc3 073e f61b dbbc
00000330: 76d5 613d 2204 743d 5fd6 2d3d 838a e83d
00000340: 9f39 9d3c e924 0abe 1499 acbc 6303 5ebc
00000350: ff75 00be c235 1d3e 5b48 ab3d 6d1b a13d
00000360: 59d1 563e 150f ba3d e7a8 363d 590b 78bd
00000370: 5b3a db3c 2478 1e3d 699c d2bc 352e bebd
00000380: ef32 e83d 2258 443e 5220 dbbc 4679 77bc
00000390: ec83 70b8 f47a 84bd 18e8 923d f768 f9bd
000003a0: 5fef 3dbe debb 873a d78b 4fbd d313 37bd
000003b0: 34a8 ec3b cc85 d6bd 31ff 1a3e 89b3 23be
000003c0: 1f47 06bd 770b 47be 3a62 92bd cc82 96bd
000003d0: b6f0 54be 6863 ef3d c448 debc fc64 c93c
000003e0: 90ee b03d 8f49 f13d c52c 8e3d 1f47 a9bd
000003f0: 05aa ae3d e259 fcbd bebc 783c cabf 2bbd
-0.005433693 -0.15166748 0.09918105 0.17870545 0.16407333 -0.052957978 -0.114940226 0.11795751
-0.17409837 -0.06313997 -0.13059503 0.16800597 -0.048751038 0.08287998 -0.18144307 0.041733894
-0.08460921 -0.028340187 0.113844424 0.08953011 -0.06291085 -0.1226059 -0.08907289 -0.20799838
-0.049080484 0.12260728 -0.00023960395 -0.062925525 0.13221478 -0.060397018 0.09149331 -0.03237301
-0.10386404 0.008463065 0.050571654 -0.07611141 -0.020607688 0.1604995 0.13102645 -0.15769689
0.071135566 0.22863553 -0.13842039 0.100408666 0.09454806 0.01723299 -0.10109526 0.15423469
-0.14846769 -0.016724385 0.12605293 -0.054904126 0.09251881 0.029339435 0.13405311 -0.062522
0.1138743 -0.1220549 0.09057481 0.042291224 0.074291036 -0.10949727 0.115683235 -0.1288267
-0.041622836 0.065601245 0.010175915 0.06032357 0.047003567 -0.1470922 -0.015045567 -0.025499376
0.05126163 0.023435982 -0.04123157 0.013277153 0.07800518 -0.066896014 0.0403903 -0.17795949
0.14932095 -0.14168887 -0.13157624 0.18422782 0.07963245 -0.1726484 0.06617197 -0.103602976
-0.14508921 0.114944324 0.02462474 0.006919652 -0.16038743 0.036440454 -0.04144868 0.16895393
0.12690647 0.04510357 0.15920128 -0.07540916 -0.14693102 0.02849848 0.058554884 -0.040510397
-0.009114639 0.016871152 -0.06883126 -0.036912043 -0.12388029 0.12192157 -0.20810881 0.2298575
-0.09108021 -0.038170498 -0.0493595 -0.14246234 0.22024722 -0.01820035 -0.10245504 0.09807443
0.14595947 0.04682532 -0.24128264 0.10100427 -0.16127837 -0.047925442 -0.20664442 -0.09111309
-0.16194288 -0.062400334 -0.0005018037 -0.022944525 0.017813595 0.062117472 -0.08280206 -0.15724674
0.06871045 -0.0740832 0.13041976 0.117649674 0.06475293 -0.14256094 0.17481059 0.012517589
0.15784883 0.08345169 -0.042602256 0.22179142 -0.0986819 -0.10305405 0.1297292 -0.07166313
-0.088769086 -0.043785665 -0.011843525 0.019292986 -0.041671026 0.103801616 0.008859905 -0.036970716
-0.031217262 -0.028789965 0.10739819 -0.07360681 0.041480903 -0.08819587 -0.022234716 0.05799935
-0.014461491 0.021704791 0.022634946 0.04079565 -0.1374383 -0.16268554 0.0077006333 0.022511512
-0.12368186 0.07817342 -0.005651577 -0.04898941 0.09182393 0.12458311 -0.055251315 0.16363966
0.034948565 0.050751865 0.07990961 0.17362402 -0.1910615 0.075788505 -0.15050535 0.12519607
0.099404946 -0.10191698 -0.014102208 0.08254661 0.02128239 -0.03254906 -0.15157124 -0.0062763337
-0.014523999 -0.34179035 0.13258354 -0.026746731 0.055135213 0.059574254 0.04244077 0.11354544
0.019192515 -0.13490643 -0.021069087 -0.013550612 -0.12545012 0.15352538 0.0836341 0.07866559
0.20978297 0.09084908 0.04459467 -0.060557697 0.026761224 0.038688794 -0.025709348 -0.09286157
0.1133784 0.19174245 -0.02674881 -0.015104597 -5.734332e-05 -0.06468764 0.071731746 -0.121782236
-0.18548344 0.0010355671 -0.05067047 -0.04469664 0.0072222 -0.104747385 0.1513641 -0.15986456
-0.03278267 -0.19437967 -0.071476415 -0.07349166 -0.20794949 0.11688882 -0.027134307 0.024584286
0.08639252 0.11781608 0.06942133 -0.082655184 0.085285224 -0.12321831 0.015181718 -0.04193095

transformer.layers.0.1.fn.net.0.bias f4 [72]
00000000: 2183 98bc 3af2 06be 93fd 0bbe f5fd f33d
00000010: f77c 1b3e 7b74 873c 703e 21bd c2de 6c3d
00000020: 4a26 1f3e 3a47 203e 6d4f ff3a 5960 d6bc
00000030: c644 fe3d a4a0 183e 7c59 adbc d962 94bc
00000040: f995 cfbd ed47 cbbd 7cf0 85bd 605b 9bbd
00000050: d2d0 183e 87b3 12bc 2b3c 123e bcef 81bc
00000060: af05 56bd 278b 933d 091d 9abd 17b6 9fbd
00000070: c379 da3d 50a1 133e e66d 1dbe 92f2 e5bd
00000080: 10d2 d03c 2c8e d43d b5c4 d83d 6345 153e
00000090: 46a8 9ebd dd30 113e 1aa8 00be 86dc fb3c
000000a0: 9c08 c2bc 6607 b9bd 56fb 063e 6d7c 21be
000000b0: 3613 073e ef9f b5bd 1905 0b3d 6600 abbd
000000c0: 3ed7 8fbd 03f9 f23c f788 1bbe c169 143d
000000d0: e0a1 95bd d3d1 95bd 410a 3e3c 8238 fabb
000000e0: 190b cd3d c0d4 bf3b 476f 0e3e e9cb e1bd
000000f0: 7834 9f3d 999b d0bd 822e cf3d cf4c 1fbe
00000100: 5be0 163e f9c6 c0bd 63a1 003e d547 3c3d
00000110: b2a7 65bd cfa3 273e 0202 41be 330b f0bd
-0.018617215 -0.1317834 -0.1367095 0.11913673 0.15184389 0.016535034 -0.039366186 0.057829626
0.1554195 0.15652171 0.0019478627 -0.026168989 0.12415461 0.1490503 -0.021160834 -0.01811354
-0.10136027 -0.09925828 -0.065400094 -0.07585788 0.14923409 -0.0089539355 0.14280765 -0.015861385
-0.052251514 0.072042756 -0.07525069 -0.07798403 0.106677555 0.14417005 -0.15373954 -0.11227907
0.02549079 0.1037868 0.10584394 0.1457725 -0.07746939 0.14178796 -0.12564126 0.030744802
-0.023685746 -0.09034614 0.13181815 -0.15770121 0.13190922 -0.088683955 0.03394041 -0.08349685
-0.07023476 0.029659754 -0.15188967 0.036233667 -0.07306266 -0.073154114 0.011599124 -0.007636131
0.10011882 0.005854219 0.13909636 -0.11025221 0.077736795 -0.10185928 0.101162925 -0.15556644
0.14734022 -0.09412951 0.12561564 0.045966942 -0.05606813 0.16371082 -0.18848422 -0.11720886

transformer.layers.0.1.fn.net.3.weight f4 [36, 72]
00000000: 74fd 313d 1c12 753b d7a3 0dbe 2807 473e
00000010: 8ebc ea3d 4fdf c33d 7413 4abc cb7a 8fbd
00000020: 8257 1b3d ed06 7bbd 3a06 36bd 08c9 8bbd
00000030: 8f6e 573d 6be7 4f3d 56d6 683c 63c0 c23d
00000040: 15d3 e93d ead7 60bc 6690 87bc 308e d5bc
00000050: 304b d53d fcef a0bd 43ac ad3d f2f4 98bd
00000060: 5926 5a3d 5663 84bd faac 05bd 9211 523d
00000070: 1a92 063d 7228 9fbd be10 90bc a109 a03d
00000080: 03b4 653e 287f 9dbd cda9 0d3e cb59 3dbe
00000090: 66ea cfbd aaac 7fbd a36e a53d e68b 333d
000000a0: 2979 8fbd 0ff5 35be 4117 e0bc aea2 8e3d
000000b0: b955 e43d 4007 99bd 6b8f 063e a662 973d
000000c0: d826 eabb 15b9 7d3e 8c07 1e3d 6a70 1dbe
000000d0: 0c92 26bd 95b3 1abe 8fc1 0e3d 4836 e6bc
000000e0: 5728 8b3e d403 acbd 6686 8d3d f612 ee3c
000000f0: 1466 8cbd 6804 88bd 6b5a 5d3d a985 fb3d
00000100: fc4b 2cbe 9f5c ccbd 68dd 743d 01d7 6abd
00000110: 38a4 e53c a88c febc cec5 38bd be3a 503d
00000120: fd3b 96bc df66 e1bc 1ca7 a2ba 93c0 3b3d
00000130: 2d7b be3d 7993 45be 0692 fc3d ede9 f33d
00000140: c3ed d6bc c426 f4bd 546f 9e3d 8c23 5cbd
00000150: f412 4e3d c8dd 5bbc 5b44 d83c 658a c83c
00000160: 502e b1bd 1410 88bd 769a 013d 303a 9f38
00000170: 85a1 e63d a176 d9bc b7c1 d3bb 9c3a 15bd
00000180: a3dd 80bd 7a1f 353d c3d7 04bd 9483 583d
00000190: f461 0dbd 9f94 ac3d 82d8 b03b 4ffa 8cbb
000001a0: b4e0 143c 1298 ec3d 31bb 033b 72ba 083e
000001b0: 1b52 df3d 2310 cfbd fe84 94bb 4142 a23d
000001c0: 1b92 93bb dfb9 22bd 4ba1 323d 9607 2cbd
000001d0: eab2 1ebe 4007 f6bd bdb5 75bd ecfc 0a3e
000001e0: 2d86 8a3d d978 30bd 94f5 423d ee82 8abd
000001f0: ce73 dbbc 24c8 9fbd 81cc a2bd 3c80 42bd
00000200: 0953 afbc 7bca 213d dfce 89bd b41e 23bb
00000210: aa33 00bd d5fe 073e bd26 223d e0f6 c83d
00000220: 7330 c3bd f7b4 eb3c dbe0 3cbd 3d65 7b3c
00000230: 903e aebd 420c e73d 539f 3bbc eb5f 9fbd
00000240: 9a23 87bd 2896 35bd 9f00 303c 0f02 ab3d
00000250: 807f 26bd b560 c63c d73f 9bbd 3b11 0cbd
00000260: 29bf a33d 1d8d 1c3d 3a5a 6e3c 446f a9bc
00000270: 5659 71bd a8a7 3c3d bf95 12be 1b3a f2bd
00000280: 1da4 f03d 585e cf3d 8dc6 41bd c677 0f3e
00000290: f792 8bbc 6d48 0fbe fa5c 81bd 4e0b 12be
000002a0: b666 c33b 19ee b53d d4e3 1abd 8684 e4bc
000002b0: 2a47 0b3d 632b 6c3d c477 133e b674 dcbd
000002c0: 943a 11be ce58 413d 30d2 a0bd 5a99 0e3d
000002d0: 2aa0 ccbc 43d5 c53b 5169 893c 4f8b 1bbd
000002e0: 9fd4 1c3d fc20 643d f004 e33c d54d 8e3b
000002f0: 925e 06be 7cbb eb3d 58f7 243d 65f7 e0bd
00000300: 2713 c83c 3397 bbbb 492b 56bc 5502 603d
00000310: 3341 c33c 7aa9 f4bd 4a94 8c3d 5631 3d3e
00000320: 512d 643d 33ed 5d3d 7a21 683d 9166 aa3c
00000330: e33a a33c 46c1 66bd 305d e53c 49c4 65bd
00000340: 4795 533c 6c12 a43a bab1 6bbd e51d 3c3a
00000350: 31db d13d 0efb 84bd 36e2 cb3d 85e8 f2bb
00000360: 1f51 1fbd 1435 69bd 41fc a2bd 1732 17be
00000370: 59d7 ebbd 7c8b 68bd 8e1f d239 9847 68bc
00000380: 8b42 0ebd 50e7 e2bd 4d9a 90bd 41e8 a03d
00000390: bf53 df3c a6ef 93bc 387a ed3d 8a7a 64bd
000003a0: 6f80 dfbd 4dfe 893d 0d08 b83d a2d3 a4bd
000003b0: 4fc3 ca3b 4e43 7abd 7b01 2f3c d994 04be
000003c0: 3198 a4bc 7fd3 143d 7bc5 943d d664 d4bd
000003d0: 378a 983d 88b8 ad3d 7fea 903d 50ff 093e
000003e0: 66b2 223d e77b adbd a80c b23d 7016 183e
000003f0: c2f0 8dbd bd3c fdbd 5735 2bbd c116 75bd
0.043454602 0.0037394827 -0.13832031 0.19436324 0.11461745 0.09564077 -0.01233374 -0.07005843
0.03792525 -0.0612859 -0.044439532 -0.06825453 0.05259567 0.050757807 0.014211258 0.09509351
0.11417214 -0.013723353 -0.016548347 -0.026068777 0.104147315 -0.078582734 0.08480122 -0.074685946
0.053259227 -0.06464259 -0.032635666 0.051286288 0.032854177 -0.07771386 -0.017586108 0.078143366
0.2243195 -0.07690269 0.13834305 -0.18491285 -0.1015213 -0.062420525 0.08077743 0.04383459
-0.07005531 -0.17769264 -0.027354838 0.069646224 0.11149163 -0.07472086 0.13140647 0.073918626
-0.007145744 0.24777634 0.038581416 -0.15374914 -0.040666625 -0.15107568 0.03485256 -0.028102055
0.27179214 -0.08399168 0.069104 0.029061776 -0.06855407 -0.066414654 0.054041307 0.12281353
-0.1682586 -0.099786036 0.059781462 -0.05733395 0.028032407 -0.03107293 -0.045110516 0.05083727
-0.018339152 -0.027514873 -0.0012409422 0.04583795 0.09300838 -0.19294538 0.12332539 0.11909852
-0.02623642 -0.119214565 0.07736078 -0.053744838 0.050311044 -0.013419576 0.026399782 0.024480054
-0.086514115 -0.06643692 0.031641446 7.592549e-05 0.11261276 -0.026545824 -0.0064623016 -0.036432847
-0.06292274 0.04421947 -0.03243233 0.052859858 -0.034517244 0.08426785 0.0053969035 -0.0043023
0.0090867765 0.115524426 0.0020100588 0.13352373 0.10904332 -0.101105 -0.0045324555 0.07922793
-0.004503501 -0.03972804 0.043610852 -0.041999422 -0.15497938 -0.120131016 -0.059987772 0.13573045
0.06763873 -0.043084 0.047597483 -0.06763254 -0.026788618 -0.07801846 -0.07949162 -0.047485575
-0.021401899 0.03949974 -0.06728911 -0.0024890127 -0.03129927 0.13280804 0.039587725 0.09812713
-0.09530725 0.028772814 -0.046112876 0.015343961 -0.085080266 0.11281635 -0.01145156 -0.07781967
-0.06598587 -0.044332653 0.010742336 0.08350002 -0.040648937 0.024216035 -0.07580536 -0.03419612
0.07995445 0.038220514 0.014547879 -0.020682938 -0.058923088 0.046058327 -0.14314936 -0.11827489
0.11750052 0.101254165 -0.047308493 0.14010534 -0.017037852 -0.13992472 -0.06316562 -0.14262125
0.005963172 0.08883304 -0.03781493 -0.027895223 0.034003414 0.057658564 0.14401156 -0.10764448
-0.14182502 0.04720383 -0.0785259 0.034814216 -0.024978716 0.0060373857 0.016773852 -0.037974652
0.03828871 0.05569552 0.027712315 0.0043427744 -0.13122013 0.11510369 0.040274948 -0.10984687
0.024423195 -0.0057248115 -0.013071843 0.054689724 0.0238348 -0.119463876 0.068642214 0.18475851
0.05570728 0.05418129 0.05667255 0.02080086 0.01992554 -0.056336664 0.027998537 -0.056095395
0.012914008 0.0012517697 -0.05754254 0.00071760855 0.102468856 -0.064931974 0.09955256 -0.0074129724
-0.038895722 -0.056935385 -0.0795827 -0.14765202 -0.11515684 -0.056773648 0.0004007783 -0.0141772255
-0.03473143 -0.110792756 -0.070606805 0.07856799 0.027261613 -0.01805861 0.11595577 -0.055780925
-0.10913169 0.06737957 0.089859106 -0.08048178 0.0061878334 -0.061099343 0.010681505 -0.12947406
-0.020092102 0.03633451 0.07264229 -0.103707954 0.074482374 0.08482462 0.070759766 0.134763
0.039720915 -0.08470898 0.0869382 0.14852309 -0.069306865 -0.123651005 -0.041798916 -0.059836153

transformer.layers.0.1.fn.net.3.bias f4 [36]
00000000: a17c 3fbd 2fd4 85bc 26b4 4bbc 58cc abbd
00000010: 1296 0cbe b765 b93d 7283 e1bc dbed 9c3d
00000020: 6707 b0bd 873d 36bd 228e f5bc e93f 06bd
00000030: 7d5c 93bd 5437 57bd f4df 7e3c f729 b3bd
00000040: f617 cfbd 69c9 313d 6d58 37bd 7ac4 95bd
00000050: 35dc dbbb 11a4 3f3d 4e0c 83bd 2ac2 9e3d
00000060: 18ff c13d 7fff 8f3d a4df 2b3d 9a2b b8bc
00000070: d4c0 963d 0621 e6bd 4134 373d df09 eabc
00000080: a4c7 e5bc af56 c13d 8137 33bc a79a 973d
-0.046749715 -0.016336529 -0.012433087 -0.08388585 -0.13729122 0.09052604 -0.027528498 0.07662555
-0.08595162 -0.04449227 -0.029975 -0.032775793 -0.07195375 -0.052543 0.015556324 -0.087482385
-0.10111992 0.04340497 -0.044762064 -0.073128656 -0.0067096003 0.046787325 -0.06398831 0.077518776
0.094724834 0.07031154 0.041961327 -0.022481728 0.07360998 -0.112367675 0.044727568 -0.02856916
-0.028049298 0.09440362 -0.010938526 0.074025445

transformer.layers.1.0.norm.weight f4 [36]
00000000: e5a0 883f 9a86 883f fcd4 863f 138f 8a3f
00000010: a115 883f 6a0f 843f 1a2e 923f 00f6 8c3f
00000020: be8d 903f 05d5 823f 6968 843f a36c 853f
00000030: 7bf4 893f 914f 903f fbcd 913f 96aa 843f
00000040: 9e8a 853f a753 793f a986 8b3f b3fa 863f
00000050: 9e61 8a3f 2690 923f aa6c 8f3f ca10 863f
00000060: 84fc 933f e15a 8f3f f3fc 8a3f d6e8 833f
00000070: b807 913f f3ac 8e3f eacd 823f 3363 843f
00000080: b46c 853f 81e2 863f 4671 923f 01a6 843f
1.0674101 1.0666077 1.0533748 1.0824913 1.0631601 1.0317204 1.1420319 1.1012573
1.1293256 1.0221258 1.0344363 1.0423778 1.0777735 1.1274282 1.1390985 1.0364559
1.0432928 0.9739327 1.090047 1.0545257 1.081104 1.1450241 1.1205037 1.0473874
1.1561437 1.1199609 1.0858444 1.0305431 1.133048 1.114653 1.021909 1.0342773
1.0423799 1.0537874 1.1440818 1.036316

transformer.layers.1.0.norm.bias f4 [36]
00000000: 42f4 d43c 3719 42bb 7769 053d fc28 a6bc
00000010: fcb4 73bc 08c2 15bc cbec da3b 51cd bcbb
00000020: bf98 b1bc 5436 abbc 7c9f 163d 6ff1 80bc
00000030: d037 33bc 4197 15bd 5a3e 4f3d 0d72 d03c
00000040: 5e8e 843c 8131 27bc 01a3 873c 9ae0 6ebc
00000050: 6864 7d3c 9fd6 c23b 9192 223c 47a4 a9bb
00000060: 1891 69bc 0a08 09bc f179 8abc b677 09bb
00000070: 0559 82bc 5b21 a43b 6af7 5bbc 6023 dd3c
00000080: 433f 1b3d bddc 7abc 7d36 3dbc aeb2 7d3a
0.025995377 -0.002961708 0.032571282 -0.020283215 -0.014874693 -0.009140499 0.00668106 -0.0057617803
-0.02167928 -0.02089993 0.03677319 -0.015740125 -0.0109386 -0.0365212 0.050596572 0.025445009
0.016181167 -0.010204674 0.016557219 -0.014579916 0.015465833 0.005945995 0.0099226395 -0.005177054
-0.014255784 -0.008363733 -0.01690385 -0.0020975894 -0.015911588 0.005008859 -0.013425687 0.026994407
0.037902128 -0.015311417 -0.011548636 0.00096778094
