ViT/ViT1/4 V train 0.996 V test 0.855 GELU 3/model_bestQ.pt (torch, 414407 bytes, 74 tensors)

pos_embedding f4 [1, 19, 36]
000000 6e 99 bd be 8e 44 70 be 98 9e df be d9 65 4d 3f
       -0.3703112 -0.23463652 -0.43675685 0.8023353
000010 74 84 89 3f c8 bc 84 be 80 04 a0 3f 8d 86 9c 3f
       1.0743546 -0.2592528 1.2501373 1.2228562
000020 cb 59 c8 3f 17 20 91 bf d5 e3 bb be 3a 44 a2 be
       1.5652403 -1.1337918 -0.3669726 -0.31692678
000030 10 3d ae 3f 1a 44 d8 3e 85 d9 3b be d6 ba 53 bf
       1.3612385 0.42239457 -0.18344696 -0.82706964
000040 29 36 02 3f 51 75 27 3e bc 2f af be 22 b6 07 bf
       0.5086389 0.16353346 -0.34216106 -0.5301229
000050 14 4d fe 3e 46 24 cb 3e cf 88 eb be 84 f1 a4 3e
       0.4966818 0.39676112 -0.46002814 0.32215512
000060 39 bb 8e 3d 2f c4 0c c0 cd b6 e0 be a1 64 06 c0
       0.06969304 -2.199474 -0.43889466 -2.099892
000070 aa a3 9d 3d b7 cd 00 c0 19 22 46 be 7e a9 f2 3e
       0.07697232 -2.0125558 -0.19348945 0.47394937
000080 f5 d4 6d 3f 69 c0 4a 3e 94 ec b4 3d 8b 89 37 bf
       0.9290307 0.19799961 0.08834186 -0.7169425
000090 a2 ac 5e 3f 07 2d 9d bf ae 1d b6 bf ce c9 9d bf
       0.86982167 -1.2279366 -1.4227808 -1.2327211
0000a0 21 bd 62 bf 94 81 8c be 17 53 93 3f be 04 48 3f
       -0.8856984 -0.2744261 1.1509732 0.78132236
0000b0 e9 2f b8 be 07 74 69 bf 06 16 51 c0 e2 7a be 3f
       -0.35974053 -0.9119267 -3.2669692 1.4881251
0000c0 47 36 e5 bd c3 ea 17 3f 5a 4c d6 be 3b ee 54 bf
       -0.11191993 0.5934259 -0.41855127 -0.8317601
0000d0 f3 aa b6 3f 3d 18 b1 bd 30 c8 20 bf 86 64 0d 3e
       1.427092 -0.08647201 -0.6280546 0.13807878
0000e0 7f 0c 5d 3f d5 86 d8 3e ab 7c 51 be ee b8 d8 bd
       0.8634719 0.4229037 -0.20457713 -0.105821475
0000f0 82 9b a7 be a6 c1 76 3d 7a 23 9b 3f 4b 85 3d 3f
       -0.3273583 0.06024327 1.2120202 0.74031514
000100 1f 04 1e bf 75 2e da bf e7 8a 91 bf 5d a9 27 be
       -0.6172504 -1.7045428 -1.1370515 -0.163732
000110 bd 82 a0 bf 98 4c b2 be d2 14 66 bf 3c 2f 3a bf
       -1.2539898 -0.3482406 -0.8987552 -0.72728324
000120 2c 94 e8 3f 4d 92 06 3f 70 6a 01 bf 74 8e 85 bf
       1.8170218 0.5256699 -0.50553036 -1.0434098
000130 ff dd 25 bf 0e 1e aa 3d dd 0c 36 be 1b f7 23 bf
       -0.64791864 0.08306514 -0.17778344 -0.6404893
000140 94 2e 3c 3f a4 54 75 bf 52 01 a5 bf a8 4e ce bd
       0.7350857 -0.95832276 -1.2891028 -0.10073596
000150 c0 20 b5 3e 62 84 49 3f 46 3c e8 3f 02 f1 83 3e
       0.3537655 0.78717625 1.8143394 0.25769812
000160 0f 82 97 3f 2a 84 b1 3f e2 92 61 bf 7d af 50 3f
       1.1836566 1.3868458 -0.8811475 0.81517774
000170 d5 fa b4 3f 50 03 c0 be 2d 52 aa bf a2 8c a0 3e
       1.4139048 -0.37502527 -1.3306328 0.31357294
000180 40 15 7a bf 3d 40 92 3f a5 6f dd be 2c f5 d2 be
       -0.97688675 1.1425854 -0.4324924 -0.41202676
000190 22 a8 42 3e 91 bc d3 3f 14 3d 0b 3e a9 85 4d 40
       0.1900945 1.6541921 0.13597518 3.211283
0001a0 02 af b4 3e b7 b8 cb bf 59 7e 8c be ca f8 58 be
       0.3528977 -1.5915745 -0.27440146 -0.21188655
0001b0 d7 9e 00 bf 49 19 03 3d a6 cb 1c 3f d1 4b 4b c0
       -0.5024237 0.032006536 0.6124824 -3.1765025
0001c0 4b f7 5d bf 28 4b 34 bf b5 de 74 3f f3 27 91 3e
       -0.86705464 -0.7042718 0.95652324 0.2835079
0001d0 e4 8f f9 bf c2 97 19 bf bf 9c 23 bf f3 d6 be be
       -1.9497037 -0.5999719 -0.6391105 -0.37273368
0001e0 48 bd 64 3f 53 fb 99 3f a8 b2 c6 3e ce 89 49 3f
       0.8935132 1.2029823 0.3880818 0.787259
0001f0 86 01 99 bc 01 cc 9c 3e d1 1a 46 be b7 5d 7b bf
       -0.018677484 0.30624393 -0.19346167 -0.9818987
000200 73 9d b1 3e aa 85 17 3e 85 ec 2a 3f 60 ae ff 3d
       0.34690437 0.14797083 0.6676715 0.12484431
000210 c4 f4 e7 3e 9f 97 19 bf f3 24 37 bf b7 09 9d 3f
       0.4530393 -0.5999698 -0.71540755 1.226859
000220 58 6f e3 3e b4 72 49 3e fe a2 36 be c7 e9 87 3f
       0.44420886 0.19672662 -0.17835614 1.0618218
000230 46 ba 0d c0 d7 d6 77 bf fc d9 1c bf ff 9d d2 3e
       -2.2144942 -0.96812195 -0.6127012 0.41136166
000240 71 f2 11 3f 35 12 9b 3f e0 20 4a bf ca 70 7a be
       0.5701056 1.2114931 -0.78956413 -0.24457088
000250 79 48 8d bf dd c6 07 bf c9 59 9f be 89 b2 99 3e
       -1.1037742 -0.53037816 -0.31123188 0.30019024
000260 ba cc 9f bd ec 19 89 bf b1 a1 74 bf 0f 06 1f bf
       -0.0780272 -1.0711036 -0.9555922 -0.6211862
000270 0b be 51 3f 92 d9 3f 3e 88 5d a8 be b7 98 63 be
       0.8193061 0.1873534 -0.3288386 -0.22226225
000280 e1 73 ef be 8b 11 35 3f 2d d5 1c c0 cf 82 2d bf
       -0.46768096 0.70729893 -2.4505112 -0.67777723
000290 8c 8d b1 3f 2a e2 c4 3e 3f 89 c4 be 69 0e ef 3f
       1.3871322 0.384538 -0.3838596 1.8676273
0002a0 b3 f0 df bf d0 40 aa bf 4d 40 43 3f ed 16 93 bf
       -1.749533 -1.3301029 0.7626999 -1.1491371
0002b0 54 53 25 3e c2 b9 0b 3f cc c2 93 3e 45 f0 37 be
       0.16145068 0.5458032 0.28859556 -0.1796275
0002c0 96 da a6 3e 0c 82 d9 3f a9 78 c2 bd 94 a7 10 3e
       0.32588643 1.6992812 -0.0949567 0.14126426
0002d0 29 02 33 be ec 88 fe bf 49 25 b9 3d 5a b5 86 bf
       -0.17481293 -1.9885535 0.09040315 -1.0524094
0002e0 5a 93 b9 be 9f e5 7f be 64 18 45 3f 90 a2 e3 3f
       -0.36245233 -0.24989937 0.7699034 1.7783985
0002f0 5d bd 8d 3f 81 38 65 bf ab a1 67 be 4b ad 88 bf
       1.1073414 -0.89539343 -0.22620265 -1.0677885
000300 66 68 c1 3f 1a 3a 29 bf df 29 91 bf 6d 72 9a be
       1.5109985 -0.6610428 -1.1340903 -0.30165425
000310 c3 22 3b 3f 3b e8 da 3f cf e6 65 3f a7 28 85 3f
       0.7309992 1.7102121 0.8980531 1.0403031
000320 5f a5 42 3f 18 6b 42 bf b6 63 2d 3f 4c 5c 05 be
       0.76033586 -0.7594466 0.6773027 -0.1302349
000330 42 ca 14 3d ef 55 84 be 69 84 92 bf e9 ed 6d 3e
       0.0363257 -0.25846812 -1.1446658 0.23235287
000340 96 98 89 3e cd 6c e7 3e 6f 16 ba bf 1e 1d 87 3c
       0.26874226 0.45200196 -1.4538096 0.016493376
000350 9b 44 40 3f 1c d4 91 bf 61 f8 0e bf 62 11 b0 bf
       0.75104684 -1.1392856 -0.55847746 -1.3755305
000360 cb 50 fe be 02 dd 0b 3f 33 da 6d 3e 2f 66 1b 3f
       -0.49671015 0.54634106 0.23227768 0.60702795
000370 85 f5 27 bf 62 fc fc 3f da ca 05 40 98 48 39 3f
       -0.6560901 1.9764521 2.090506 0.72376394
000380 be f9 c6 3e e1 cd 81 3e fc 98 1e bf ac 4e ef be
       0.38862413 0.25352386 -0.61952186 -0.4673971
000390 66 f4 e2 3f ca a8 39 bf d5 d4 7d 3f c5 8d cc bd
       1.7730834 -0.72523177 0.9915288 -0.09987978
0003a0 2d b4 ae 3f ce 0c f0 bf ac 5c 9e bf 1c 9b a3 3f
       1.3648735 -1.8753908 -1.2372031 1.2781711
0003b0 72 5a ff be 66 2a a0 3f b7 5f e7 bf 50 bd e4 be
       -0.49873692 1.2512939 -1.8076085 -0.44675684
0003c0 53 f6 00 bf 46 45 cc bc e7 5e 01 3f 11 39 e7 bf
       -0.5037586 -0.024935376 0.50535434 -1.806429
0003d0 1a 58 d2 3e 24 60 7e 3f db 6a db be ef ff a8 bf
       0.4108284 0.9936545 -0.42854962 -1.3203105
0003e0 e4 ee 26 bf 30 fe 35 bf d4 05 ab be 1a 81 0b c0
       -0.6520827 -0.71090984 -0.33402884 -2.1797547
0003f0 12 b1 1d bf 47 49 61 3c 25 75 f3 3e 9a c9 bd bd
       -0.6159831 0.013750381 0.47550312 -0.09266968

cls_token f4 [1, 1, 36]
000000 e4 f7 99 bf f1 dc 35 be 26 92 6b bf 56 74 21 bf
       -1.2028775 -0.17760064 -0.9201988 -0.6306814
000010 4e 53 d0 bf b7 3e b4 bf 2f d6 65 3f 11 2d 4a bf
       -1.6275423 -1.4081639 0.89779943 -0.78975016
000020 2b 85 58 3f fd 46 65 3f a3 8d 96 3e c3 eb 9e be
       0.845782 0.89561445 0.29404935 -0.31039247
000030 4e 6a b2 3e 09 6b 90 3f a1 e2 76 be 49 61 dc be
       0.3484673 1.1282665 -0.2410989 -0.43042973
000040 84 a9 41 bf 6e ac da bd 25 ec fe 3e 87 0c 88 bf
       -0.75649285 -0.106774196 0.4978954 -1.0628823
000050 76 6f ee 3e 6f 92 33 3f 04 54 a5 3e a2 52 8d bd
       0.46569413 0.70145315 0.3229066 -0.069005266
000060 48 a6 70 be 7f 56 95 3e 75 4e 10 3f 01 fc 90 3f
       -0.23500931 0.29167554 0.56369716 1.1326905
000070 d9 0a 04 bf 06 10 7b be 01 44 60 3f 4f 25 36 3e
       -0.5157905 -0.24517831 0.87603766 0.1778767
000080 24 06 88 bf ee 57 bc 3e d0 f9 11 b9 3f b5 8f be
       -1.0626874 0.36785835 -0.0001392134 -0.28067967

to_patch_embedding.1.weight f4 [36, 12]
000000 fd 38 2b 3e 0a 2d 68 3c 5a 1c 03 3e 77 08 64 3e
       0.16720958 0.014170894 0.12803784 0.22268854
000010 46 6d 68 bd ae c5 70 be fe ac c0 be fa c3 c3 be
       -0.056744836 -0.23512909 -0.37631983 -0.38235456
000020 61 8f b7 3d 51 63 00 be f9 d9 8a bd 63 b0 a7 bd
       0.08962894 -0.12537886 -0.06779856 -0.0818794
000030 7c f4 62 bd 30 25 85 3e a9 00 e7 3d d1 27 9b bd
       -0.05540894 0.26004934 0.11279423 -0.07575954
000040 6b 2a e1 3d 54 29 79 3d dc 51 66 be 69 79 1a be
       0.10994419 0.06083043 -0.22492164 -0.15085377
000050 cf ff 48 bc 7d df 9c be 11 52 c6 3e d8 7b 09 3e
       -0.012268021 -0.30639258 0.38734487 0.13426149
000060 da e7 97 3e 73 e9 71 3e f3 41 49 be 92 52 eb 3d
       0.29669076 0.2362421 -0.19654064 0.114903584
000070 f5 a5 30 be ee 63 05 3d ef 83 b2 be c0 c6 2c be
       -0.17250808 0.032566004 -0.34866282 -0.16872692
000080 a4 46 80 bd fe 6c c8 3e 5a 0f d1 3e 18 f8 dc 3d
       -0.06263474 0.39145654 0.40832025 0.10789508
000090 d4 6b 44 3e 0c cc b6 3c 83 8d 46 3e df 51 56 3d
       0.19181758 0.022314094 0.1938992 0.052324172
0000a0 19 99 a7 3e 96 41 55 be 82 2f 85 bd d0 3f 8b be
       0.32733992 -0.208258 -0.06503202 -0.27197123
0000b0 a8 6d 1e bd b9 9f 92 3e 09 b0 ec bd 6e f5 23 3e
       -0.038678795 0.28637484 -0.115570135 0.16011593
0000c0 ab 84 03 bc bf 49 89 be 89 31 db bd fe a2 09 3e
       -0.008027236 -0.26814076 -0.107028075 0.13441083
0000d0 da 22 38 be f0 69 17 3e 4e 1d 81 bd 00 1e 25 bd
       -0.17982045 0.14786506 -0.063044176 -0.040311813
0000e0 bb 2f 1a be af 0a 79 bd 8a f9 50 be eb d7 9f 3e
       -0.1505727 -0.060801204 -0.20407692 0.3121942
0000f0 1c 56 03 be ec 6b 66 3d 1b 36 9a bd 41 cd 82 be
       -0.12825817 0.056255266 -0.07529851 -0.2554722
000100 9e b8 97 3c c5 40 10 3e 6d 06 a3 be 24 f7 85 3e
       0.01852065 0.14087208 -0.3184084 0.26165116
000110 2a f6 81 3e 54 21 6a be d5 43 d2 be 06 16 94 bc
       0.2538312 -0.22864276 -0.41067377 -0.018076908
000120 5f 83 d2 bd 00 f6 21 3c 05 d1 19 3e 3b 4e 52 3e
       -0.10278963 0.009885311 0.15021141 0.20537655
000130 45 a2 be bd b7 03 e0 3d 4e 46 8b be e4 71 96 be
       -0.09308294 0.109382086 -0.27202076 -0.29383767
000140 4a cc 4f 3e ad 22 5d bd b2 af 7c be 06 00 60 bc
       0.20292774 -0.053988148 -0.24676397 -0.013671881
000150 eb 3f 26 be 3f a8 b9 3d a1 b2 1f be 90 6b 15 be
       -0.1623532 0.090652935 -0.15595485 -0.14591813
000160 aa d4 f9 3d f0 6c 91 be 91 cf c1 3c 22 a8 03 3d
       0.121987656 -0.28403425 0.023658546 0.032142766
000170 09 41 ff bb 5d 1c 8e 3e 0b f6 9f bd 36 13 5b 3e
       -0.007789735 0.27756014 -0.07810601 0.21394047
000180 cd d1 cf 3d b6 e4 2e be b6 e0 96 be 20 1c 88 3e
       0.10147438 -0.17079434 -0.29468316 0.26583958
000190 66 b1 7e 3d 6c d4 23 3e 91 dd 82 be fc 7e eb 3d
       0.0621809 0.15999001 -0.25559667 0.1149883
0001a0 6c f4 03 3e 32 6c 80 3e 62 9d 56 be 14 86 70 bd
       0.12886208 0.25082546 -0.20958474 -0.058721617
0001b0 54 d8 4a 3d c3 1b ae 3e ad 62 1f be ca 80 20 3e
       0.049522713 0.34005556 -0.15564986 0.15674129
0001c0 85 de 17 be 1d db 95 3d ce b1 e3 3e 3a 86 d1 3d
       -0.14830978 0.07317183 0.44471592 0.1023068
0001d0 c6 e7 fa 3d 44 43 70 be ee 36 53 3e 60 2b 4e be
       0.122512385 -0.2346316 0.20626423 -0.20133734
0001e0 cb 22 21 3e e8 78 41 3d 42 68 a8 3e f4 20 a2 be
       0.15735929 0.047234446 0.32892042 -0.31665766
0001f0 3b ca 72 3e f1 a9 00 be 0c d2 d2 bd 08 39 56 be
       0.23709957 -0.12564828 -0.102939695 -0.20920193
000200 4f 77 88 3e f3 37 9b be 02 f1 85 be 11 5f 8b be
       0.26653525 -0.30316123 -0.26160437 -0.27220967
000210 c5 98 59 3e 8e 54 7f 3d 9e f6 38 3e 3b e7 65 3e
       0.21249683 0.062336497 0.18062827 0.22451489
000220 d9 84 bb bd 11 c5 af 3d bd 78 15 3e 8a 9b 29 be
       -0.09156198 0.08582509 0.14596839 -0.1656324
000230 14 5b c7 bd 9a d0 19 bd 95 b6 96 be 6e 42 44 be
       -0.09734169 -0.037552454 -0.29436174 -0.19165966
000240 88 6e d2 3d b9 38 69 3e ed 67 bc be 6f e8 ba 3d
       0.102749884 0.22775544 -0.3679804 0.091263644
000250 6e c2 d4 bc bd e2 22 3e 56 5d 80 be 88 91 97 3e
       -0.025971618 0.15906806 -0.2507121 0.2960322
000260 dd 2f 00 3d ab d6 0c be 52 f3 9c 3e de 12 5e be
       0.031295646 -0.13753764 0.3065439 -0.21686885
000270 84 b8 80 bd c1 aa 4b 3e 21 53 09 be 65 12 99 3e
       -0.062851936 0.19889356 -0.13410617 0.29896846
000280 0d 49 1b 3c 45 49 d8 3c 4e aa a3 be 78 61 11 3e
       0.009477866 0.026402125 -0.3196587 0.14197338
000290 16 30 8c 3d 80 ea bd bd 50 31 9e be fa ef 8b 3e
       0.06845109 -0.09273243 -0.30896997 0.27331525
0002a0 79 93 11 be ba de 3d bd 8d 72 5d 3e 85 b3 66 be
       -0.14216413 -0.046354987 0.21625729 -0.22529419
0002b0 66 53 ac 3d 98 b0 a9 be 2c e2 5b be 68 51 a3 bd
       0.084143445 -0.33142543 -0.21472996 -0.079745114
0002c0 c4 66 a4 3e 30 ad 81 3e 04 48 35 3c e1 2b ab 3e
       0.32109654 0.25327444 0.011064533 0.33431914
0002d0 eb 96 6d 3e 0b 3f 56 be ea 5d 97 bd 7b 67 96 3e
       0.23202102 -0.20922486 -0.073909596 0.29375824
0002e0 43 af 58 3d d7 65 78 3e e6 61 fe bd 55 6f e3 bb
       0.052901518 0.24257599 -0.124210164 -0.006940762
0002f0 c3 e6 2f 3e 29 35 83 be 44 bb 2c 3d 7d a2 28 3e
       0.17177872 -0.25626495 0.042170778 0.16468234
000300 99 db 80 bd 37 97 69 be 16 87 70 bd d7 d0 4f 3d
       -0.06291885 -0.2281159 -0.058722578 0.050736275
000310 07 5f fe bd b4 d6 8c 3e f2 78 12 be 20 9a 9c 3d
       -0.12420469 0.27507555 -0.1430395 0.076465845
000320 9a 91 5a 3e 0f 72 42 3e 61 d2 67 be 6a 81 79 3e
       0.21344605 0.18988822 -0.22638847 0.24365774
000330 bf 01 3d be 0d 1b f4 3d 32 40 90 be ff 1d 70 3d
       -0.18457697 0.11919222 -0.28173977 0.058622357
000340 24 fd 34 be d4 b1 11 3e 2b 0b 93 be a5 4b 39 3e
       -0.1767469 0.14227992 -0.28719458 0.18095262
000350 e7 0f 09 be b1 a7 8a be 98 a0 3a be 95 73 9c be
       -0.13384973 -0.27081063 -0.18225324 -0.30556932
000360 a9 ce 2c be 6d ad c3 3d 56 56 59 3e ea a5 25 3d
       -0.1687571 0.09554563 0.21224341 0.04044143
000370 f4 b2 0c be 0c e4 86 3e b1 8c 6f be 6b 30 a6 be
       -0.1374014 0.2634586 -0.23393513 -0.32458815
000380 92 b5 91 be 45 7b c1 be a5 e3 23 be a7 cb 9a bd
       -0.2845884 -0.3778936 -0.16004808 -0.07558375
000390 06 98 08 be 13 e4 64 3e c5 10 7e be 5f 4c cc 3b
       -0.13339242 0.22352628 -0.24811085 0.00623469
0003a0 69 a8 f3 3d 1e a0 57 3e 78 b4 6b bd f0 b4 cc be
       0.11897356 0.21057174 -0.057545155 -0.39981794
0003b0 bd 0f 4d be 87 7a 5c be e2 94 13 3e 34 b0 1e 3c
       -0.20025535 -0.21531115 0.14412263 0.009685565
0003c0 6d c7 6e bd a9 2d d9 3d fd 92 2f be c5 37 7d be
       -0.058295656 0.10604412 -0.17145915 -0.24728306
0003d0 15 a9 53 3e a1 11 5c 3c 6a 07 bc 3e 95 a9 1f be
       0.20669968 0.013431937 0.36724406 -0.15592034
0003e0 11 03 86 be e6 a3 b3 be 22 11 9c bd 98 d9 62 bd
       -0.26174214 -0.35085982 -0.07620455 -0.055383295
0003f0 fd d4 ab 3e 53 68 2a be e4 b9 31 bb 7d c4 06 3e
       0.33560935 -0.16641359 -0.0027118856 0.13160892

to_patch_embedding.1.bias f4 [36]
000000 0c 4c 33 be 1a 11 a8 bb ee fe e0 3d 17 14 04 bc
       -0.17509478 -0.005128992 0.10986124 -0.00806143
000010 af 46 25 3d 51 fe 31 be 47 ea c4 3d 88 ca 0a 3e
       0.040350612 -0.1738217 0.09614997 0.13553822
000020 62 7c 76 3d e7 25 ed 3d 8f 53 aa 3d de 68 5e 3e
       0.060177214 0.11579495 0.08316719 0.21719691
000030 a8 bf 90 be c4 fa 4d 3d e0 d4 30 be a1 67 92 be
       -0.28271222 0.050287977 -0.17268705 -0.28594688
000040 35 34 89 be 5d 1d 2a 3d b4 b0 38 bd 3c 7b 60 3e
       -0.26797643 0.04153191 -0.045090392 0.2192201
000050 7f a4 5d 3e d4 df 8c 3d 94 6f 77 3e 72 7d 0b be
       0.21644782 0.06878629 0.24163657 -0.13622072
000060 24 21 1c 3e e5 9a 40 3d c3 7d 9c 3d ea 4c 63 be
       0.15247017 0.04702272 0.07641175 -0.22197309
000070 40 56 2c be 8a ef 7d 3d c4 95 1c 3d c8 d4 6a be
       -0.16829777 0.06199602 0.038228765 -0.22932732
000080 7d c1 1c 3e f2 39 47 be 8d 90 1d be 17 cc 7c be
       0.15308185 -0.19455698 -0.15387173 -0.24687229

transformer.layers.0.0.norm.weight f4 [36]
000000 e7 a4 89 3f 99 d0 8a 3f fc 5e 94 3f e2 89 87 3f
       1.0753449 1.0844909 1.1591487 1.0588953
000010 2c 60 81 3f 0d f7 8a 3f 2e 91 7e 3f c3 14 8b 3f
       1.0107474 1.0856644 0.99440277 1.0865711
000020 00 84 83 3f 85 53 95 3f ec af 87 3f 14 03 8d 3f
       1.0274658 1.1666113 1.0600562 1.1016564
000030 6a 0d 89 3f 09 d9 85 3f 36 a0 8f 3f 18 71 8a 3f
       1.0707219 1.0456859 1.1220767 1.0815763
000040 dc 5f 85 3f e4 65 8d 3f ac 91 8c 3f 7a 8e 86 3f
       1.0419879 1.104672 1.0981956 1.051223
000050 95 f4 8b 3f da 02 8f 3f e1 3d 8d 3f d8 56 89 3f
       1.0934016 1.1172745 1.1034509 1.0729628
000060 5a 7b 83 3f 6e 62 85 3f 11 1d 8c 3f ae 3a 9b 3f
       1.0272019 1.0420663 1.094637 1.2127283
000070 c9 02 92 3f ee fa 96 3f c9 ac 87 3f 39 83 8e 3f
       1.14071 1.1795328 1.0599605 1.1133796
000080 8d 78 89 3f e0 a4 89 3f 75 1c 87 3f be 97 90 3f
       1.0739914 1.0753441 1.0555559 1.1296308

transformer.layers.0.0.norm.bias f4 [36]
000000 39 f2 f4 bb 99 f4 20 3b a2 92 2f 3c b9 83 ed bc
       -0.0074751643 0.0024559854 0.010716112 -0.028993474
000010 b7 55 fb 3c 3e 0a 08 bc 26 4f 5f bd 1c 2d c7 3c
       0.03068052 -0.008303223 -0.05451884 0.024313502
000020 eb 96 05 bd 8f c4 1d bd 9f 8f ec bc e6 2b 70 bd
       -0.03261463 -0.03851753 -0.028877078 -0.058635615
000030 bf e8 f2 bb 9e 68 9b bd d3 5b 27 3b 4b 46 d5 bc
       -0.0074129994 -0.075883135 0.002553691 -0.026034495
000040 04 46 2f bc 91 20 34 ba 95 bc 07 3c 8a 58 4f bc
       -0.010697845 -0.0006871308 0.008284708 -0.012655387
000050 e7 72 aa bc 31 c2 18 bd 1a 2d 09 3c 02 cf 1b 3d
       -0.020806743 -0.03729457 0.008372569 0.038039215
000060 3e 56 81 bc a0 bf a9 3c 11 71 b2 3d f2 35 05 3d
       -0.015788194 0.020721257 0.08712972 0.03252215
000070 2d 1d ab 3d b8 60 3c 3d fc e8 aa 3c 1b 1a b1 3d
       0.08355174 0.045990676 0.020863049 0.08647557
000080 63 11 c8 bc f3 67 a3 bc ea 4c 1d bc 78 0b 1c 3d
       -0.024422353 -0.019947028 -0.009600857 0.038096875

transformer.layers.0.0.fn.to_qkv.weight f4 [216, 36]
000000 3f 16 0f 3e f9 21 a6 3d 68 f2 2d 3e 2a 2d 96 3d
       0.1397333 0.081119485 0.16987002 0.07332833
000010 0b 1e ba bd 55 96 00 be f7 d2 21 3e 76 da 00 3e
       -0.090877615 -0.12557347 0.15803133 0.12583336
000020 2a 4a 35 3e da 61 56 be c0 c0 8e 3c fa 1e 10 3d
       0.17704073 -0.20935765 0.017425895 0.03518579
000030 b7 eb 60 be 50 7b 37 be 8c 41 62 be a2 32 8c 3e
       -0.21964918 -0.17918134 -0.22095317 0.2738238
000040 69 99 0a 3e e5 7e ea bd ec 94 56 be 97 b3 c5 bc
       0.13535084 -0.114499845 -0.20955247 -0.024133487
000050 62 c9 84 3e a0 c4 b9 3e 0c d1 f8 bc d9 e7 07 be
       0.25934893 0.36282825 -0.030373119 -0.13272037
000060 94 d3 02 be bd 35 b4 bd 80 4e b9 bc 19 1c 40 be
       -0.12776023 -0.08799312 -0.02262044 -0.18760718
000070 22 45 41 bd bc e9 4f 3c cd 35 f6 3d 5c 06 8a bd
       -0.04718507 0.012690004 0.120219804 -0.06739494
000080 1e 69 b3 3d 5b 5a 01 be e5 1e 78 be e5 ab ba bd
       0.08760284 -0.12632124 -0.24230535 -0.091148175
000090 50 3c df 3d 4a 00 22 3c 04 83 13 3e 38 41 46 3c
       0.109001756 0.009887764 0.14405447 0.01210051
0000a0 b5 2a e2 3d b4 13 27 3e f5 1d da bd 83 3a 7a be
       0.11043302 0.1631611 -0.10650245 -0.24436383
0000b0 b9 81 f8 3d 9a 5d 53 3d 91 c3 93 bc c9 ae 0b 3e
       0.12134118 0.051602937 -0.01803759 0.13640894
0000c0 9d 47 5a bc f9 c6 19 be 5b cd 46 bc ee fe cc 3b
       -0.013322738 -0.15017308 -0.0121339215 0.006255976
0000d0 ab 07 ca 3c 81 30 24 be a3 ba 93 3d a1 6e 81 3e
       0.02466186 -0.16034128 0.072133325 0.25279716
0000e0 bf 98 02 be 88 6f a6 be ab fb 8e bc 04 49 d2 3c
       -0.1275358 -0.32506967 -0.017453989 0.025669582
0000f0 4c 5a 2a be 76 9e 48 3d 2b 72 4a be 3f 46 b8 bd
       -0.16636008 0.048979245 -0.19770114 -0.089977734
000100 af 34 1a be 47 82 98 bd 57 86 c7 bd 76 77 25 3d
       -0.1505916 -0.074467234 -0.0974242 0.04039713
000110 bc bd bc 3e 78 5a 37 3e 37 b5 12 3e e4 6e e2 3c
       0.36863506 0.17905605 0.1432694 0.027640767
000120 42 0e 96 bd a2 61 4c be f5 bf 07 3c a2 42 da 3d
       -0.07326938 -0.19959119 0.008285512 0.106572405
000130 49 59 43 bd 6a 89 65 be 7c 50 87 3d 60 1d 3d 3d
       -0.04769257 -0.224157 0.06607148 0.046170592
000140 9a b1 27 3e 29 7f 38 bd 70 3f 09 bd 48 f5 1b 3d
       0.16376343 -0.045043144 -0.033507764 0.038075715
000150 0e 5f c7 bd 6b 1c f8 3d 94 b0 b9 3d 71 58 d2 3d
       -0.09734927 0.12114795 0.09066883 0.10270775
000160 f0 ab bc 3c 66 44 e1 bc c1 1f 87 bd e1 a8 11 be
       0.023031205 -0.027498435 -0.065978535 -0.14224578
000170 04 c7 3e 3e 09 e7 6c 3d 38 27 97 3e 31 ee f6 3c
       0.18630606 0.05783752 0.2952211 0.030142875
000180 d8 d3 e0 3d 1e a2 1d 3b 22 d2 6c 3d c6 6f 15 be
       0.10977906 0.0024052928 0.057817586 -0.1459342
000190 98 12 02 be a7 0b 1b be ed c6 3f 3d ad 7c 94 bd
       -0.12702405 -0.15141164 0.04682057 -0.072503425
0001a0 92 bf 8e bd 04 4d 12 be 7e 28 5c be 88 d8 15 be
       -0.06970133 -0.14287192 -0.21499822 -0.14633381
0001b0 38 2f 18 3d f9 0a 0f bd 4e e1 a3 3d 05 13 59 3e
       0.037154406 -0.034922574 0.08001958 0.21198662
0001c0 28 74 3d 3d c3 49 d8 bd 3f de ab bc 1b 9b 28 be
       0.046253353 -0.10560944 -0.020979999 -0.16465418
0001d0 f8 37 5a bd 8e ca 26 be 9b cb 0f be 2f 9d 19 be
       -0.053276032 -0.16288206 -0.14042513 -0.15001367
0001e0 0f 9f 0f 3e ef cb 80 be 1e 16 d6 bd c8 87 ae 3d
       0.1402552 -0.2515559 -0.10453437 0.08521992
0001f0 0c e4 1c be 65 a3 ec 3d bb 9c 8f 3d 74 d2 2b 3e
       -0.15321368 0.115546025 0.07012316 0.167795
000200 8f 91 20 be 47 32 48 be a0 20 46 be 94 a9 6b bd
       -0.15680526 -0.1955043 -0.19348383 -0.05753477
000210 68 73 39 be c9 47 10 3c cb ef 92 3e a0 0f de 3d
       -0.1811043 0.008806177 0.28698573 0.10842824
000220 a3 86 fc 3c 08 b0 b7 3d 87 76 f7 bd a6 2a 01 3d
       0.030825919 0.08969122 -0.12083154 0.031534813
000230 36 a1 1f 3e 87 a1 1b 3e 52 ed 4d bd b4 1a 98 3e
       0.15588841 0.15198337 -0.050275154 0.29707873
000240 ed bd 68 3d a0 65 3a bd b6 4e de bd 9b eb 03 be
       0.056821752 -0.045507073 -0.10854857 -0.12882845
000250 6a 32 0e be 80 1d 05 be f1 c3 ab bc 82 40 5f ba
       -0.13886419 -0.12999535 -0.020967456 -0.00085163873
000260 d3 0a 83 3d da de f5 3d 43 7b 39 be 76 0a 50 3d
       0.06398549 0.12005396 -0.18113427 0.050791226
000270 d9 5a 34 3e 62 52 79 3d 74 8f b8 3c 83 03 40 be
       0.1761278 0.060869582 0.022529341 -0.1875134
000280 93 88 20 bd 39 29 8b be e7 29 e9 bd 57 0f 51 3b
       -0.039192747 -0.27179888 -0.11384945 0.0031900012
000290 9a a5 3b be 84 f5 81 bd 25 1e bb 3c 13 ac 9a 3c
       -0.1832489 -0.063456565 0.022841522 0.01888088
0002a0 c7 89 27 be d6 4e df 3d d7 ac d6 bd cf 06 49 be
       -0.16361152 0.10903709 -0.10482185 -0.19631504
0002b0 1e 68 a8 bd c4 19 3d be 5d 71 30 3d 54 c7 1b 3e
       -0.08222984 -0.1846686 0.04307686 0.15212756
0002c0 32 47 0e 3e 15 3c 7f 3d 8e a0 f2 3c de 3c 20 3c
       0.13894346 0.062313158 0.029617574 0.009780137
0002d0 4a 28 17 3e 84 7c 04 3e 8a 09 b7 bd 2c a5 20 3e
       0.14761463 0.12938124 -0.08937366 0.15688008
0002e0 5b 8a b0 bc b0 b3 2b 3e 1f 0c bc bd 2a 39 21 be
       -0.021550348 0.16767764 -0.091819994 -0.15744463
0002f0 a9 7f 83 3d d8 9f 52 bd 4e 3c 42 3d 23 65 32 3d
       0.064208336 -0.05142197 0.047420792 0.043553483
000300 69 65 ff 3d 2f 3b 01 be 92 25 8f bc e0 45 ac 3d
       0.12470514 -0.12620233 -0.01747397 0.08411765
000310 4f 6a a8 3d c8 3a 00 3e b2 23 89 bc d4 12 d1 bd
       0.08223402 0.12522423 -0.016740654 -0.10208669
000320 82 0b cd ba 6a 3f 8e 3c 30 33 33 be 56 01 63 3e
       -0.0015643688 0.017364223 -0.17499995 0.22168478
000330 b2 08 f2 3d 54 64 78 3d ac c2 ea bd 11 1c c1 3d
       0.11818065 0.060642555 -0.11462912 0.09429181
000340 76 19 b2 3d a2 2e 33 3e 7b 2d 1b 3d 14 70 92 be
       0.086962625 0.17498258 0.03788517 -0.28601134
000350 79 a8 4f be c6 f1 40 3e e4 39 d4 bd cf d5 95 3b
       -0.20279111 0.18842229 -0.10362604 0.004572607
000360 22 f8 73 3e 6c 18 c7 3c 2b b4 6a 3d 7f bf b2 3d
       0.23825124 0.024303637 0.057300728 0.08727931
000370 83 53 05 3d 08 a7 1d 3e e7 34 98 bd 5d 54 86 bd
       0.032550346 0.15395749 -0.07431965 -0.0655906
000380 ea 76 45 3c 02 76 17 be df c5 50 be 40 3b 5c 3d
       0.012052277 -0.1479111 -0.20387982 0.053767443
000390 7d 35 15 be 82 e9 f9 3c 19 31 09 bd dd 3b f3 bd
       -0.14571185 0.030506853 -0.03349409 -0.118766524
0003a0 87 ed 70 3d b2 56 bf ba 5f 9a 37 3e eb 86 c9 bc
       0.058820274 -0.0014597981 0.17929982 -0.024600467
0003b0 c4 ef 8c bd 79 83 08 be 9d f7 85 3e 05 a9 f5 3d
       -0.06881669 -0.13331403 0.26165476 0.119951285
0003c0 51 92 54 3d 62 1a 1a be ab cc 84 3d a2 c3 b5 3c
       0.05189735 -0.15049127 0.0648435 0.022188012
0003d0 8e 77 fa bd b7 dc 40 be 1f 0c cb 3c 19 06 98 bc
       -0.122298345 -0.18834196 0.024786053 -0.018557595
0003e0 bc f4 a0 3d 79 ee 09 bd a5 80 83 bd 69 e6 37 bc
       0.078591794 -0.03367469 -0.06421021 -0.011224368
0003f0 98 dd 24 be 7f 9c 98 be 14 4a 4a 3c ff 5e b7 bd
       -0.16100156 -0.29806897 0.012346763 -0.08953666

transformer.layers.0.0.fn.to_out.0.weight f4 [36, 72]
000000 90 98 d1 bd 1c d5 64 bd f7 0c 0b bd 77 25 40 3c
       -0.10234177 -0.0558673 -0.03394791 0.011727682
000010 5e 2b 59 b9 55 19 2d 3d 58 52 8a 3d 25 12 9e bd
       -0.00020710888 0.042260487 0.06753987 -0.077183045
000020 05 62 b1 3d 0c ad fe 3d 5a 9f f1 3d e6 f0 e2 bc
       0.08661274 0.1243535 0.11797972 -0.02770276
000030 a8 49 6c 3c d9 cf 8c bd 2f 8b 71 3d a7 86 75 bd
       0.014421858 -0.06875581 0.058970626 -0.059942868
000040 28 35 07 3e 74 f3 8d 3d d5 fd 9d 3a 90 00 2c bd
       0.13203871 0.069312006 0.0012053797 -0.041992724
000050 b7 bf f4 bd 81 e0 94 3d 98 54 29 3d 5f 98 56 bd
       -0.11950629 0.07269383 0.04134044 -0.052391406
000060 bf df ac 3d a6 54 b0 bd e1 da e1 3d 32 17 78 3d
       0.08441114 -0.086098954 0.11028076 0.060568996
000070 cb 68 c0 bd e7 1d b3 3d 4a 52 56 3d 45 56 0c be
       -0.09394988 0.08745938 0.05232457 -0.13704784
000080 0e c6 79 3d 26 b1 42 3d d9 c8 d2 3c 9f 30 d7 3d
       0.060979895 0.047532223 0.025730537 0.105073206
000090 f4 3a a3 3d fd 78 09 3d 3d d0 a3 bd db 9e bd bd
       0.07970229 0.03356265 -0.07998703 -0.09258815
0000a0 54 fb c7 bc 14 48 b6 3d b5 0f 0f bd 1d 34 09 bd
       -0.024411835 0.089004666 -0.03492709 -0.033496965
0000b0 15 31 a3 3d 87 0c ec bd 74 37 70 bd 3f 8b f2 bd
       0.07968346 -0.11525827 -0.058646634 -0.11842965
0000c0 58 c6 a9 bb 79 0c 42 3e 41 c2 68 3e e8 f1 97 bd
       -0.005181115 0.1895007 0.22730352 -0.07419187
0000d0 7d 67 d8 3c 22 bb d8 3d ce 71 06 3e ba d9 b5 3d
       0.026416535 0.10582568 0.1312935 0.08879419
0000e0 46 83 f6 3c a5 58 31 3d bd 21 ad bd a8 38 a4 3d
       0.030091893 0.04329743 -0.08453701 0.08018619
0000f0 e2 f5 0b bd ef 28 01 3d c2 1d 46 3d d8 5b ac bd
       -0.03417004 0.031533178 0.048368223 -0.08415955
000100 26 d7 10 3e 1a c4 03 3e fa ee 5f 3d b7 7c a8 3d
       0.14144573 0.12867776 0.054671265 0.082269125
000110 e1 f2 10 3d ad 1f f9 bd 46 c7 00 be 43 9c 90 3b
       0.035387877 -0.12164245 -0.12576017 0.004413159
000120 f6 bb e0 bd 13 cf ac bd 9f a9 bf 3d 3f 14 23 3e
       -0.10973351 -0.08437934 0.093585245 0.15925692
000130 a1 e0 22 be ab 53 ef bd 50 de 80 bc 9c e8 f9 3c
       -0.15906002 -0.1168588 -0.015731007 0.030506425
000140 48 ed e2 bc 60 7b d5 bd 6e 07 d8 3d 30 14 f9 bc
       -0.027701035 -0.104239225 0.10548292 -0.030405134
000150 65 c2 7a 3d 79 1a fc 3c ce d9 b1 3d 38 db c5 bd
       0.061220545 0.030774342 0.08684121 -0.09660953
000160 c8 b0 74 3d 08 d5 08 be db 4d 33 bd c0 d1 14 bd
       0.059738904 -0.13362515 -0.04377542 -0.036332846
000170 fb e8 9c 3d c6 94 2e 3d 8b 95 24 3c 1b 30 a9 bd
       0.07661625 0.04262235 0.010045419 -0.082611285
000180 90 9f ff 3d 26 8c c2 bd 32 24 d3 3c 2e cd 32 bc
       0.12481606 -0.094993874 0.025774095 -0.010913176
000190 5a 6c 8a bd e5 30 20 3c 95 86 2f 3e 2e a2 21 3c
       -0.06758948 0.009777282 0.17141183 0.009865327
0001a0 67 9b b2 3d ec ec b8 bd 58 60 83 bd a3 93 6d 3d
       0.08721047 -0.09029564 -0.064148605 0.058002125
0001b0 55 f6 90 3d 87 bf 99 3c b7 6a f1 bc 7d 6a 09 be
       0.07078234 0.018768085 -0.02946983 -0.13419528
0001c0 d7 fb 17 be 87 c9 4c 3d 43 91 85 bc 14 30 d6 bd
       -0.14842163 0.04999688 -0.016304618 -0.10458389
0001d0 cb 35 df bd d7 d0 90 bd 7b 99 80 bd 45 cb 9a 3b
       -0.10898932 -0.07071083 -0.06279274 0.0047239386
0001e0 e2 16 18 3d 66 b6 1f be ef b4 12 bd fb f9 cf bc
       0.037131198 -0.15596923 -0.035817083 -0.025387755
0001f0 de 4a e0 bd d9 c3 61 3d 49 c8 b4 3c 66 14 ac 3d
       -0.1095178 0.055118416 0.02206816 0.08402328
000200 26 40 9f 3c 47 9e cc bc 66 9e ac 3b 7a f3 24 bd
       0.019439768 -0.024977816 0.005267906 -0.04027126
000210 b7 4a a5 bd a1 2b f4 3d 8d b4 ec bd 1a cd a1 bd
       -0.08070891 0.11922384 -0.11557875 -0.07900448
000220 b6 1e 06 be 4d 4b 3f 3c 17 94 e9 3d ca a8 59 3d
       -0.13097653 0.011675668 0.11405199 0.053139485
000230 65 f4 48 bd c8 21 05 be 5c b5 43 bd c6 b1 42 3e
       -0.049061198 -0.13001168 -0.04778038 0.19013128
000240 93 d1 c3 3d 37 f9 51 3c 33 c7 62 bb b3 63 80 3d
       0.095614575 0.012815765 -0.0034603595 0.06269016
000250 94 06 96 bd 2e 8d 2e 3c 3d ea b7 ba de c9 d6 bd
       -0.073254734 0.010653777 -0.00140316 -0.10487722
000260 86 ba d8 3c e0 0f 4b 3d f4 19 73 bc 60 b6 58 bd
       0.026456129 0.049575686 -0.014837731 -0.0529083
000270 dd 33 d8 3d 9f da 15 bd 66 14 49 3d b0 51 fc bc
       0.10556767 -0.036585446 0.04909172 -0.03080067
000280 29 5d 89 bd c4 1a cd 3c 5b 69 b5 bd 5e 9f 91 bd
       -0.06707222 0.025037177 -0.088579856 -0.07110475
000290 6b d2 2b 3d 75 67 17 3d 68 b4 76 3c c0 4f a5 bd
       0.041948717 0.0369639 0.015057661 -0.08071852
0002a0 2e b4 57 bd c4 23 d6 3d 95 93 3e bd c8 ef 78 bc
       -0.052662067 0.104560405 -0.046527464 -0.015193887
0002b0 fd 1a 79 3c e7 01 04 be 2f 19 91 3d 47 20 bb bd
       0.015204188 -0.1289135 0.070848815 -0.09137016
0002c0 c4 48 42 3d b6 63 fb bd 1f e9 b5 bc 92 07 40 3c
       0.047432676 -0.12274878 -0.022205887 0.011720555
0002d0 48 b7 c9 3d 15 22 69 bd 52 16 52 3d f1 c3 f7 3d
       0.09849411 -0.05691727 0.051290818 0.1209792
0002e0 9c 55 69 3d f6 07 fe 3d 8c eb 20 3d b3 9a 3d 3d
       0.05696641 0.12403862 0.039287135 0.04629011
0002f0 ae a6 fd 3c db 5a 88 bd d3 44 37 bd f6 6d 1d be
       0.030963268 -0.06657954 -0.04474337 -0.15373978
000300 97 81 3d bd 83 33 a4 3c 88 50 11 be 20 54 d0 3c
       -0.046266165 0.020044094 -0.14190876 0.025430739
000310 55 83 78 3d 58 dd cc bb 67 e8 86 3c 8e 9a a9 3d
       0.060672123 -0.006251972 0.01646824 0.08281432
000320 ad c6 8b 3c a5 bd d7 3d 07 71 09 3e 95 95 76 3d
       0.01706251 0.10534219 0.13422023 0.060201246
000330 be 03 ec 3d 73 6e 95 3d 49 4a 0b 3e c9 73 de bc
       0.11524151 0.07296457 0.13602556 -0.02715482
000340 3c c6 ec bd d3 e2 94 3d 63 55 3f 3d be 2f 14 3d
       -0.11561248 0.07269826 0.04671229 0.036178343
000350 e8 ff f1 bc f5 21 51 3b 26 ac 00 3e 3c 48 6a 3d
       -0.02954097 0.003191111 0.1256567 0.057197794
000360 09 89 0e be 80 1e 0b bc 40 08 b3 bd e4 e5 14 3d
       -0.13919462 -0.0084911585 -0.08741808 0.036352053
000370 43 41 83 3d 4f d1 86 bd c4 94 84 bc 71 dd f4 bd
       0.06408932 -0.06582891 -0.016184218 -0.11956299
000380 2e c3 0a be 9e 3a d3 bc 76 84 d6 bd 80 c5 bd 3d
       -0.13551018 -0.025784787 -0.10474484 0.09266186
000390 08 7a ca bd 31 c2 e4 bd f4 40 22 bd d2 0f 95 bd
       -0.09886557 -0.111698516 -0.039612725 -0.07278408
0003a0 c3 6d ec bb 30 11 17 bd 86 2b dc 3d ba 6b 94 3d
       -0.007215233 -0.036881626 0.10750489 0.0724711
0003b0 e1 32 b4 bd 0e 4f a7 3d 6d 1f 87 3c 96 9f f3 bc
       -0.08798767 0.08169375 0.016494477 -0.029739182
0003c0 de 60 78 bd 09 e1 3f be 97 bc 85 bd e4 e7 81 bc
       -0.060639255 -0.18738188 -0.06530111 -0.015857644
0003d0 64 4c a3 3d fe 10 29 3e 55 89 0d bd 83 fe 10 3d
       0.07973555 0.16510388 -0.0345548 0.03539897
0003e0 25 65 05 3e a0 5b 37 bd e0 2c 78 3d b7 a4 06 3e
       0.13026865 -0.044765115 0.06058967 0.13148771
0003f0 39 35 ef bd 46 85 f6 bd c6 10 73 3d a8 dd d0 39
       -0.11680073 -0.12037139 0.05934217 0.00039837998

transformer.layers.0.0.fn.to_out.0.bias f4 [36]
000000 9e 44 5b bd 20 c6 a3 bb e1 08 e3 bd 2f 4b 99 3d
       -0.053532235 -0.0049979836 -0.11085678 0.07485043
000010 31 89 b6 3d 7a b2 39 3d cf 8a 82 bd 50 36 b3 bd
       0.08912886 0.045336224 -0.06374132 -0.08750594
000020 8e d8 a8 bd d6 45 1a bd fa 5d 5d bb 8d 44 83 bd
       -0.082444295 -0.037664257 -0.0033777938 -0.064095594
000030 51 9a 91 bc 7e e9 07 3c 0c 27 2a 3d 93 62 b5 bd
       -0.01777378 0.008295415 0.041541144 -0.08856692
000040 2e a4 4b 3d d6 b8 9b bd d8 91 ce 3d 32 d6 bd 3b
       0.04971712 -0.07603614 0.10086411 0.0057933563
000050 cb a4 16 3c cd 9b cd bd b1 5a 08 bd 5e d0 60 3d
       0.009194563 -0.10039482 -0.033289615 0.054886214
000060 a2 d9 3a 3d 56 0d 73 bc 5a 6f c7 3d e9 f0 a9 3c
       0.045617707 -0.0148347225 0.097380355 0.020744758
000070 5e cc ba 3b 98 19 d5 bb 2c 56 c9 3d 66 16 3e bd
       0.005700632 -0.006503295 0.09830889 -0.04640808
000080 83 46 f7 bc 2f 3b 05 bc e1 58 61 bc 35 a4 5b bc
       -0.03018499 -0.008131786 -0.013754101 -0.013405849

transformer.layers.0.1.norm.weight f4 [36]
000000 70 9a 81 3f 83 12 89 3f ba 7f 81 3f 9a 24 81 3f
       1.0125256 1.0708774 1.0117104 1.0089295
000010 11 ec 81 3f 6e 11 7c 3f f9 f8 81 3f 39 71 8d 3f
       1.0150167 0.98464096 1.0154105 1.1050178
000020 15 44 7b 3f 3e 4c 88 3f 66 34 88 3f 99 bf 89 3f
       0.9815076 1.0648267 1.0640991 1.0761596
000030 f8 5f 80 3f 58 43 86 3f 96 84 84 3f 3f df 82 3f
       1.0029287 1.0489302 1.0352962 1.0224379
000040 08 80 8a 3f 19 7f 86 3f 20 c5 84 3f c3 5c 84 3f
       1.0820322 1.0507537 1.0372658 1.0340809
000050 f3 d2 8b 3f f0 ab 90 3f 3f 6e 88 3f 87 8e 74 3f
       1.0923752 1.1302471 1.0658644 0.9552998
000060 b9 12 6a 3f 25 4b 7e 3f 5d f1 8c 3f 39 0c 80 3f
       0.9143482 0.9933341 1.1011158 1.000373
000070 40 03 88 3f 6f 88 7d 3f 14 bf 83 3f f8 86 80 3f
       1.0625992 0.99036306 1.0292687 1.0041189
000080 f5 6e 88 3f e7 08 7e 3f a4 ca 84 3f 1a c3 8a 3f
       1.0658861 0.99232334 1.0374341 1.084079

transformer.layers.0.1.norm.bias f4 [36]
000000 23 1b 54 bc 0c 6e c8 3c 44 f3 75 bc da ad 3f bd
       -0.012945923 0.024466537 -0.015011612 -0.046796657
000010 5e 49 8b bb d1 04 0f 3d 48 f7 64 3d da 68 7f 3c
       -0.0042506894 0.034916703 0.05589989 0.015588963
000020 0b 55 9d bc 8b 09 b7 3b 53 e1 39 3c c5 83 b0 3d
       -0.01920559 0.0055858544 0.011345225 0.08618883
000030 42 af 9c ba 8d f2 08 3d e2 8b 3b 3d 6e a8 9c 3c
       -0.0011954086 0.03343444 0.0457877 0.019123282
000040 35 0b 04 bd 00 2a 50 3c d2 2b 07 3d 95 7d 80 bc
       -0.03223725 0.012705326 0.033000775 -0.015684882
000050 50 5f 0b bd ef 10 57 3d fe 10 df 3c ed d7 d4 bc
       -0.034026444 0.052506384 0.027229782 -0.025981868
000060 21 6b d4 bb e3 7c 02 3d 75 f9 9a bc cd 1f 02 bd
       -0.0064824973 0.031857383 -0.018917779 -0.03176861
000070 54 ff 2f bd f1 49 88 3d 06 70 3b bc 33 0d 1f bd
       -0.04296811 0.06654728 -0.011440283 -0.038830947
000080 8a 2b ba 3c 2e 7a 03 3d 2f 31 9f bd 00 32 96 bc
       0.02272584 0.03209894 -0.07773053 -0.018334389

transformer.layers.0.1.fn.net.0.weight f4 [72, 36]
000000 00 2d 0c 3e 49 0d 2a be f1 ce 2d 3e 2d b0 a9 3c
       0.13689041 -0.1660663 0.16973473 0.02071389
000010 70 f9 24 bd 4b 89 1f 3e 90 c4 12 3d fd 87 21 be
       -0.040276945 0.15579717 0.035831988 -0.15774532
000020 a2 52 16 3e 22 e1 5f 3b e7 5b 19 be 69 61 6f 3d
       0.1467996 0.003416129 -0.14976464 0.058442507
000030 57 70 a5 3d 64 99 bc 3d f1 14 54 3d 9d e2 2f be
       0.08078068 0.092089444 0.051777784 -0.1717629
000040 b1 97 9e 3c be 50 97 bd 31 df 87 3c a6 c5 0c be
       0.019359441 -0.07388447 0.016585918 -0.13747272
000050 1b af f1 3d c0 f9 b9 3d a0 d7 de bc 1f 71 f6 bc
       0.11800977 0.09080839 -0.027202427 -0.030083237
000060 1b 00 04 3e 4e 79 05 3e 7b 95 b9 bc 10 e1 d6 3d
       0.12890665 0.13034555 -0.022654286 0.10492146
000070 08 62 c6 3b 85 01 e4 3d f9 e0 7b 3d ba 5c db bc
       0.0060541667 0.11133102 0.061493848 -0.026777614
000080 bf 0b df 3d 24 48 da bd 11 cd e6 3c 3a 53 c1 3d
       0.10890912 -0.10658291 0.028173955 0.09439702
000090 f5 3c 39 be 5c cd bf bd 4f 7b 28 3e 45 f0 f3 bb
       -0.1808966 -0.09365341 0.16453288 -0.007444414
0000a0 b4 90 d7 bd 3e fa b1 3c 28 f0 58 bd 4f 0c d7 3d
       -0.10525647 0.02172577 -0.052963406 0.105003946
0000b0 ec ac 50 3d a7 93 3c 3c 01 d5 d5 bd 6f 3d e2 3d
       0.05094616 0.011509812 -0.10441018 0.11046874
0000c0 70 5e 91 bd 89 ff e5 bd d1 36 60 bd 7d 67 3c bd
       -0.07098091 -0.1123038 -0.054739777 -0.04599713
0000d0 00 94 2c 3e 69 c2 05 be fc 16 31 be 59 f1 e3 bd
       0.16853333 -0.13062443 -0.17293924 -0.11130018
0000e0 57 e8 9d bd 90 b0 be 3d ff 90 a8 bb 78 26 19 be
       -0.07710331 0.093110204 -0.005144238 -0.14956081
0000f0 c7 77 3c 3e 8d 54 0b be 9a c1 31 be e5 f8 07 bd
       0.18405066 -0.13606472 -0.1735901 -0.03319635
000100 b2 1c 00 3e dc 33 c9 bd 79 1d bd bd 01 90 f0 3d
       0.12510946 -0.098243445 -0.09234137 0.117462166
000110 36 14 d0 3d 85 d0 3b be ca cf 9c bd 68 bc 75 3d
       0.10160105 -0.18341263 -0.0765682 0.05999413
000120 09 49 51 bc 62 f5 a9 bd e2 35 59 bd 8a 84 36 bd
       -0.012773761 -0.08298756 -0.053029902 -0.044559993
000130 34 a7 22 3e e7 32 86 bd 35 16 dc bc 8d b2 33 3e
       0.15884095 -0.065526776 -0.026866058 0.1754858
000140 f8 9b d3 3d 98 70 ec bc e5 19 20 3e 04 58 fa bd
       0.10332483 -0.028862283 0.15634878 -0.12223819
000150 a6 be 27 be 55 74 27 bd 8e 2b 40 bc 4d 3b 22 be
       -0.1638132 -0.040882427 -0.011729134 -0.15842934
000160 8d 6e 78 3d 3e 43 c8 3d a7 92 5e be 7a ad f7 bd
       0.060652304 0.097784504 -0.21735631 -0.12093635
000170 c9 48 0c 3e 04 77 35 be 2b 8d 1b 3e 50 ab 88 3d
       0.1369964 -0.17721182 0.1519057 0.066733
000180 b1 10 db 3d 8b 50 18 bd df a0 72 3e d0 51 eb 3c
       0.10696543 -0.037186187 0.2369418 0.028725535
000190 b7 6b 76 bc f5 7b 1f 3d c0 6d ae bd c1 ec 5d 3d
       -0.01504033 0.038936574 -0.08517027 0.054180864
0001a0 be da 36 be 12 2f 81 3d bd 01 8d bd 74 47 31 be
       -0.17856881 0.06307806 -0.06885097 -0.17312413
0001b0 57 d6 fa 3d 0a 6f 6f 3d f4 4a 0d bd 0e 12 10 be
       0.12247913 0.058455504 -0.03449531 -0.14069387
0001c0 9e 4d 81 bd f5 6b a8 bd 0b 26 e8 bd 3c b9 90 3d
       -0.063136324 -0.08223716 -0.11335381 0.07066581
0001d0 cf 2b ab 3d 06 a7 a3 bd 69 0e 80 be e8 c2 15 be
       0.08357965 -0.079908416 -0.25010994 -0.14625132
0001e0 ee 1d 87 3d 3e 1a fb 3d e6 92 b1 3c 87 8c 01 be
       0.065975055 0.12260865 0.021676492 -0.12651263
0001f0 f0 d8 15 3d 55 f9 05 3d 28 2d ea bd dd a3 ae 3c
       0.03658384 0.032708485 -0.11434394 0.02131837
000200 ac 76 e8 3d e9 ca 2a 3e 2c bb 04 be e6 86 07 be
       0.1135076 0.16678967 -0.12962025 -0.13235053
000210 f0 ce 35 bd ad a9 b9 bd 6d 5f 27 3e 4e fa 03 be
       -0.044386804 -0.09065566 0.16344996 -0.12888452
000220 fa f3 3c 3e 75 b6 af 3d 20 57 ba bc 4c 95 73 3e
       0.18452445 0.08579723 -0.022746623 0.23787421
000230 cb 39 02 3d e4 95 10 3d eb 23 db bc ab e2 e0 3d
       0.031793397 0.035299197 -0.026750525 0.109807335
000240 39 86 d6 bb 9f d6 1e 3e ab 41 d5 bd e2 07 30 be
       -0.0065467623 0.15511559 -0.10412916 -0.17190507
000250 11 ce 30 bc 7d 03 f7 bd e7 e2 5e bd 58 ee cf bd
       -0.010791318 -0.12061212 -0.05441561 -0.10152882
000260 4b c5 29 be 68 ca be bd ba 1d cd bd a5 07 bc bd
       -0.16579168 -0.0931595 -0.100154355 -0.091811456
000270 c5 43 9a 3d 4e 35 d5 3d f9 c5 bb bd da b1 ec bd
       0.07532457 0.10410558 -0.0916862 -0.1155736
000280 d8 02 86 3d 09 b9 8d bd 0b a1 a2 3d 1d b1 4b 3d
       0.06543511 -0.06920058 0.07940873 0.049729455
000290 b8 ed 83 bd 66 d4 0a 3e ba fe 21 be 32 0b f0 bd
       -0.06441826 0.13557586 -0.15819827 -0.11720885
0002a0 c4 eb ad 3a 77 c5 1d be 1e 2e 28 3d 4c 97 f4 3d
       0.0013269116 -0.15407358 0.041059606 0.1194292
0002b0 ea 8f d4 bd 3e 74 b6 bd 64 b4 44 bd ad 2b 2f 3e
       -0.10379012 -0.0890889 -0.048023596 0.17106505
0002c0 ba 66 d2 bc bf a6 29 be 44 bc 17 3e 55 18 19 be
       -0.02568375 -0.16567515 0.14817911 -0.14950688
0002d0 ad f8 05 3e fb 92 e4 bd c5 2f 42 be f8 61 f1 3d
       0.13083144 -0.11160847 -0.18963535 0.11786264
0002e0 d1 31 76 3e 45 90 c0 bd 61 22 69 bd 0b 91 94 3d
       0.24042441 -0.09402517 -0.056917552 0.07254227
0002f0 31 08 89 3d 31 68 1d 3e c8 04 7a bb 47 7d fd 3d
       0.066910155 0.15371777 -0.0038149823 0.123774104
000300 29 28 0d be 5d 99 86 3d 0b 6a 15 bb ad 23 1f 3e
       -0.13784851 0.065722205 -0.0022798802 0.15540953
000310 c9 fb 19 3e e3 fd f0 3d 7b aa f0 bd 06 2c a3 3d
       0.15037455 0.11767175 -0.117512666 0.07967381
000320 97 87 01 be 29 bd 09 3e 42 14 92 3d e7 6b 57 be
       -0.1264938 0.13451065 0.0713277 -0.21037255
000330 9f 4a 7b bd 66 aa 0d be ac e7 cf bc 45 1e 3e 3d
       -0.06135046 -0.13834533 -0.025379024 0.046415586
000340 fc ef 29 3e 3b aa 84 3d d6 38 bb 3d ea 47 e0 3d
       0.16595453 0.064777814 0.091417 0.109512165
000350 07 e4 1c be 39 32 1b be 8b 61 02 3e 92 c9 46 be
       -0.1532136 -0.15155877 0.12732522 -0.1941283
000360 73 42 32 bc 65 a7 2b 3e 99 f7 0c 3e 83 64 b6 3c
       -0.010880101 0.16763075 0.13766326 0.022264725
000370 fe aa da bd b1 64 0c be ec 64 14 bd 37 a7 3d bc
       -0.106771454 -0.13710286 -0.03622906 -0.011575512
000380 da 6e ce bd fd 10 fe bd ac ac 9c bd c0 05 71 be
       -0.10079737 -0.12405584 -0.07650122 -0.2353735
000390 fb d6 d8 bc 7f 23 c1 3d aa ab 4b bd 19 7d 45 3d
       -0.026469698 0.094305985 -0.04972426 0.048215006
0003a0 71 2f d6 bd db a2 43 3e f1 55 00 3e 46 36 b3 3d
       -0.104582675 0.19105093 0.12532784 0.08750586
0003b0 a0 00 65 bd 8a cb 7e bd cf b9 70 bd 89 da 1b bd
       -0.0559088 -0.06220583 -0.05877095 -0.03805021
0003c0 91 e2 ac bc 54 5d 50 be e8 79 f7 3c 16 35 68 3b
       -0.021104129 -0.20348102 0.030209497 0.0035432032
0003d0 62 81 1d be 35 1e 8c 3d 6c 81 10 bc 9c 88 32 3e
       -0.15381387 0.06841699 -0.008819919 0.17434925
0003e0 cb 93 5c be ed 5d c6 3c d2 bc e8 3d 73 df b7 bd
       -0.21540754 0.02421471 0.113641396 -0.089781664
0003f0 f8 14 00 3e 0d 43 19 bd 73 ed 08 be c3 63 01 be
       0.12507999 -0.03741746 -0.1337183 -0.12635712

transformer.layers.0.1.fn.net.0.bias f4 [72]
000000 c8 35 25 bd f5 23 32 be 93 e8 94 bd 8f 22 22 be
       -0.040334493 -0.17396529 -0.072709225 -0.15833496
000010 be f6 fa 3c f0 01 3e 3d 9a 5d b2 bc e1 f5 22 3e
       0.030635234 0.046388566 -0.021773148 0.15914108
000020 46 52 48 be 5e 6d a7 bc 87 93 cf bd 4c 11 d1 bc
       -0.19562635 -0.020437893 -0.101355605 -0.025520943
000030 b9 cd 27 3d 1d cf 09 be 2b 4b 55 be 0d 20 0a bd
       0.040967677 -0.13457914 -0.20829456 -0.033721972
000040 7b cb 9f bd e7 3f 8a 3d 00 89 6f bd d7 15 00 be
       -0.07802483 0.0675047 -0.058480263 -0.12508331
000050 28 7f 6e 3c b9 ba 33 be 72 32 ca bd ec 56 c1 bc
       0.014556684 -0.17551698 -0.09872903 -0.023601018
000060 ba 6c bf 3d fa 23 94 3d fb 01 3e 3d ca 85 94 3d
       0.0934691 0.072334245 0.046388607 0.07252081
000070 91 89 8f bd 71 c6 1e bc 50 5f 42 be cf fa 09 bc
       -0.070086606 -0.009690867 -0.18981671 -0.008421614
000080 54 1a a8 bd 2d b6 14 be 15 3d a4 3d 15 ad 35 be
       -0.08208147 -0.1452262 0.08019463 -0.17741807
000090 4f 8d 3a be 0b 49 f0 3c 3e ce ed bd 4c 25 3d be
       -0.18217967 0.029331705 -0.11611603 -0.18471259
0000a0 9e 4b 7e bc 9b 34 04 bd 9f 4b 75 3d 7e ae 43 be
       -0.015520958 -0.03227673 0.05988657 -0.19109532
0000b0 dd d1 a3 3d c7 4f 53 3d 1b d1 1d be f2 41 32 be
       0.079990126 0.051589753 -0.15411799 -0.17407969
0000c0 da 15 19 be a4 46 e8 3d fa d1 68 bd bf df 84 bd
       -0.14949742 0.11341599 -0.056840874 -0.06487989
0000d0 49 5c 06 be ce e0 ce 3d 91 14 44 3c 7c 89 dc 3b
       -0.13121141 0.10101472 0.011967794 0.0067302566
0000e0 a4 7f 2f 3d cb 20 8f bc 63 44 0d bd 91 c0 1a be
       0.042846337 -0.017471692 -0.034489047 -0.15112521
0000f0 57 b7 7b bc 18 c8 95 bd 49 7c a7 3d 7c d6 33 be
       -0.015363536 -0.073135555 0.081780024 -0.17562288
000100 c7 cf e8 bc 7e 4a 89 bd bd 19 a5 bd 5a dc 15 bd
       -0.028419388 -0.067036614 -0.0806155 -0.036587097
000110 84 6c c2 bd 12 fe d1 3d eb bd 90 3d a5 84 41 bd
       -0.09493354 0.10253538 0.07067474 -0.04724564
