CvT/Models/V train 0.924 V test 0.882 lr 0.01/model_bestV.pt (torch, 244723 bytes, 189 tensors)

stage1.patch_embed.proj.weight f4 [12, 3, 3, 3]
000000 3b 41 5f 3e 3d b9 59 3f 12 2c 26 3f 5c e9 51 be
       0.21802227 0.85048276 0.64910996 -0.20499176
000010 8f 08 e4 3e 06 21 57 3f 98 a6 c8 3e 85 07 54 bf
       0.4453778 0.84034765 0.391896 -0.82823974
000020 e4 c5 26 3f de cd 8f bd e9 7b 2a 3f 96 c4 f4 3e
       0.6514571 -0.07021688 0.6659532 0.47806233
000030 3a 5b 15 3f e3 ff 95 be d7 56 b5 be f4 94 95 bd
       0.58342326 -0.2929679 -0.35417816 -0.07303801
000040 32 92 00 3f ae 8c 31 be 58 b0 f7 3d 4b b1 86 3e
       0.50223076 -0.17338821 0.12094182 0.2630714
000050 ae bf 80 3e a5 60 27 3f 86 ce 2a 3f c0 c9 5b 3e
       0.2514624 0.6538184 0.6672138 0.2146368
000060 d0 ae 96 bc 4d 7e 5e be b8 64 4d be 4e 8a 28 bf
       -0.018393904 -0.21727867 -0.20057952 -0.65836036
000070 c8 de 5b bf 3e 3f 06 3e 65 0c d6 3e b5 13 9f bd
       -0.8588681 0.13110062 0.4180633 -0.07767431
000080 f0 8c 15 bf 74 97 2a bf ba 02 d1 bf fe a7 7e 3e
       -0.5841818 -0.6663735 -1.6328957 0.24868771
000090 f7 87 bf be 7f 05 c8 be 6b 58 8a bb 0c b1 93 3e
       -0.3740842 -0.39066693 -0.004221966 0.28846014
0000a0 65 d1 09 be 2a 53 1e 3d fe 66 dd 3d c1 d7 78 3f
       -0.13458784 0.03865353 0.1081066 0.97204214
0000b0 25 41 58 bd e4 c7 95 3d 0c 1c e5 3e a5 15 e0 3e
       -0.0527965 0.07313517 0.4474796 0.43766513
0000c0 60 56 78 3e 31 20 76 3e 3e 65 87 bd 85 6e 41 be
       0.242517 0.24035718 -0.06611107 -0.18889816
0000d0 ec eb 27 bd 69 2f ca bc bd c7 5a 3f 68 13 64 bf
       -0.040996477 -0.02468081 0.85461026 -0.8909211
0000e0 0e 8e 82 3e 7b 46 75 bf 7d 79 0c 3e 91 0c 17 3f
       0.25499004 -0.9581067 0.13718219 0.5900355
0000f0 95 fb 9a 3e 0a bb b9 3f a6 4d fd 3e 1c 74 8b bf
       0.30270067 1.4510205 0.49473304 -1.0894809
000100 ed 25 c4 be a6 32 74 3e a6 47 da be 02 a8 03 bd
       -0.38310185 0.23847446 -0.42632788 -0.032142647
000110 7e bb 33 3d e4 e8 01 3e 79 64 83 bf 14 97 9f bd
       0.04387998 0.12686497 -1.0265037 -0.07792488
000120 ff ee 6d ba f1 fe 80 3e a6 ed 7c 3e cc 65 61 be
       -0.0009076446 0.25194505 0.2470003 -0.22011489
000130 85 0c 3a 3e 2f 71 1f bc 80 d3 8d be 30 58 32 be
       0.18168838 -0.009731575 -0.27700424 -0.17416453
000140 49 59 2d be 41 77 b1 3f 0e 45 32 3f f5 c7 9f 3e
       -0.16928591 1.3864518 0.6963662 0.31207243
000150 b3 49 6b 3e 0b ee 01 be 3e 44 0e bf d2 8c bf bd
       0.22977333 -0.12688462 -0.5557288 -0.09353031
000160 1b b9 c6 be b5 86 78 bf 56 1f 54 bf f5 ed d9 3c
       -0.388131 -0.97080547 -0.82860315 0.026602725
000170 be b1 00 bd 21 73 6b 3f c3 65 82 3e 76 f4 1a bf
       -0.03141951 0.9197255 0.25468263 -0.6052927
000180 5d 6f a2 3e 13 c3 37 bf 26 8f 38 3e 10 4e dd 3d
       0.31725588 -0.71782035 0.18023357 0.10805905
000190 b4 6b fd 3d 4c bb f6 3d 3e 9a 52 bd cb 04 95 3e
       0.12374058 0.12047443 -0.051416628 0.2910522
0001a0 35 ea f6 bc 37 a6 d6 bc 46 fe 3d be fd c1 38 be
       -0.030140975 -0.026202304 -0.18554029 -0.1804275
0001b0 44 97 0c 3e 83 1a f0 3c 2e 04 27 be f5 f0 44 3e
       0.13729578 0.029309517 -0.16310188 0.19232543
0001c0 8f 46 7f be e7 46 e3 3e d9 7e 70 3d 55 b7 7e 3e
       -0.2492926 0.44390032 0.05871472 0.24874623
0001d0 1c 7b 5f be 23 ee c0 3e 22 2b 91 bd 72 9f b8 3d
       -0.21824306 0.37681684 -0.07088305 0.09014787
0001e0 4a 07 3c be 5e 5b 91 bc 8e cd 8a 3d 95 e8 72 be
       -0.18362156 -0.017743763 0.06777488 -0.23721536
0001f0 7d 4e 09 be 96 26 9c bd e9 fa b3 3e 98 a1 bd 3e
       -0.13408847 -0.07624547 0.35152367 0.3703735
000200 44 55 87 3e a9 63 33 3f 1b 98 c2 bd bd 87 f8 be
       0.2643224 0.70073944 -0.09501668 -0.4854106
000210 fd 14 79 be 5e 47 14 bf 14 1a ec be fd 23 76 bf
       -0.24324413 -0.579214 -0.46113646 -0.96148664
000220 04 1d d5 3d 77 b2 c4 bd 08 67 5e 3e 8b 7c 10 3f
       0.10405925 -0.09604352 0.21718991 0.5644004
000230 0f 9f b9 3d fe a7 02 40 a7 80 55 3e 38 70 13 be
       0.09063541 2.0415034 0.20849858 -0.14398277
000240 dc ef 35 3f 70 b1 19 3f 55 03 c7 bd f1 bf 51 be
       0.7106912 0.60036373 -0.097174324 -0.20483376
000250 28 58 68 3c 66 15 3e 3e bf c4 da 3f 41 6d 25 be
       0.014181174 0.1856285 1.7091292 -0.16154958
000260 dc eb 40 3e 70 2a 01 bd 10 69 3b 3e 6c bb 3a 3e
       0.18839973 -0.031534612 0.18301797 0.18235558
000270 24 b2 5f 3d e7 95 18 3f c8 28 81 3e c3 0a fd 3d
       0.054613248 0.5960373 0.25226426 0.12355568
000280 cb 2e a4 b9 40 6b 29 bc c2 87 85 3e 50 4f d4 be
       -0.0003131538 -0.010340512 0.26080137 -0.4146676
000290 9c b0 83 bd f8 44 a9 3f 70 98 b9 bf d6 31 35 bd
       -0.0643017 1.3224173 -1.4499645 -0.04423698
0002a0 e0 55 6a 3e b8 af 89 be 4f 4b 5f bd c7 2a 67 bd
       0.22884321 -0.26891875 -0.05451518 -0.05643728
0002b0 52 28 96 be 9e 81 2b 3e ce aa 32 be dd 86 16 bd
       -0.29327637 0.16748664 -0.1744797 -0.03674971
0002c0 6b 8f 2e be 9d bc f6 3d e9 72 0d 3e f5 8b 5e bd
       -0.17046897 0.12047694 0.13813366 -0.054332692
0002d0 dd 4c 8f bc 71 bd 86 be 5d af b0 be a7 80 17 bf
       -0.017492706 -0.26316407 -0.34508792 -0.5918068
0002e0 fd 17 63 be ab e1 22 3d 7b 47 44 3f 7c f5 0c 3f
       -0.2217712 0.039765995 0.7667157 0.5506208
0002f0 30 34 18 3f 0c 25 56 3f 5f 82 d3 3e 96 78 48 bf
       0.5945463 0.8365028 0.41310403 -0.78309
000300 49 de 5d be 03 ff 41 be 30 b3 b7 bd 20 e4 4f be
       -0.21666826 -0.18944936 -0.08969724 -0.20301867
000310 f5 73 22 be 4b c1 55 be cb 48 1b bf b2 ec 9d 3f
       -0.15864547 -0.20874517 -0.6065795 1.2337859
000320 20 f8 cc be bb c8 95 be fb 62 29 3f b5 6e 3c 3f
       -0.40033054 -0.29254708 0.6616666 0.73606426
000330 ae 5c 18 bf 2e f9 c0 3e 25 2f 3a be e4 c0 a0 3b
       -0.5951642 0.3769011 -0.18182047 0.004905807
000340 bc a9 89 3e 58 5a 86 3e 46 5f f8 be ea 7c d3 3d
       0.2688731 0.26240802 -0.48510188 0.1032656
000350 4e 4f 56 3d 8f 78 a6 bd 25 2c 31 3d d1 8d 03 3d
       0.052321725 -0.081284635 0.04325499 0.03211767
000360 26 00 6f bf 91 6e 2d 3f e8 7f a5 bb 3a 4e be 3e
       -0.933596 0.67746836 -0.005050648 0.37169057
000370 9a 73 c3 be 18 4f 69 be c7 3e 89 bf 66 b3 48 3f
       -0.38174134 -0.22784078 -1.0722283 0.7839874
000380 aa 3d 89 3d f4 42 c3 3e 35 f9 19 3d 66 90 7f be
       0.067012146 0.3813702 0.037591178 -0.24957427
000390 d1 2b 3a be 46 cc 8d bd 5d b1 c4 3e 15 d6 d7 be
       -0.18180777 -0.06923728 0.38416567 -0.4215552
0003a0 d8 6a 94 be 3d c8 e8 3d 30 75 26 3f 57 bd 11 3e
       -0.28987765 0.113663174 0.65022564 0.14232384
0003b0 41 57 8e 3d 52 36 ec 3e a5 58 14 bd da 40 d6 3e
       0.06950236 0.46135193 -0.03621735 0.41846353
0003c0 e8 b3 68 3e 6c 56 3f 3e fa cb 02 3e 1c 84 1d bf
       0.22724879 0.18685311 0.12773123 -0.6152971
0003d0 f2 74 4b 3f 81 c8 0b be 2a 21 23 be 17 8c 44 3e
       0.7947532 -0.13650705 -0.1593062 0.19194065
0003e0 58 1e e1 3c 79 ff f5 be d2 69 e3 3e 8a 4e 25 3d
       0.02748029 -0.48046473 0.44416672 0.040358104
0003f0 af 48 80 be c8 eb 39 be 42 39 70 be 5a cb 3f 3e
       -0.25055453 -0.1815635 -0.23459342 0.18729916

stage1.patch_embed.proj.bias f4 [12]
000000 fd 98 e8 be a2 6d fc be 3e 89 3d 3e ec 7a ca bd
       -0.4542922 -0.49302393 0.18509385 -0.09886727
000010 44 e5 48 40 0c 07 bc be fc 24 55 c0 68 28 39 bf
       3.1389933 -0.36724126 -3.3303823 -0.7232728
000020 4e 77 ac bf aa 06 0e bf fc 6c 5f bf e3 ac 46 40
       -1.3473909 -0.5547892 -0.8727567 3.1043022

stage1.patch_embed.norm.weight f4 [12]
000000 22 a9 4a 3f a5 b3 ed 3e 9c 83 26 3f c3 af e9 3e
       0.79164326 0.4642612 0.6504457 0.45641908
000010 fc dc a1 3f 27 43 64 3e 76 76 f4 3f 6a f2 32 3f
       1.2645564 0.22291242 1.9098651 0.69901145
000020 79 df c2 3f fc 96 9e 3f 94 8a 82 3f e5 0c 38 40
       1.5224448 1.2389827 1.0198541 2.875787

stage1.patch_embed.norm.bias f4 [12]
000000 9a d6 88 be 6b 04 75 3f ee 87 9b be e2 13 95 be
       -0.26726228 0.95709866 -0.30377144 -0.29116732
000010 69 80 65 3f 7f cb e7 bd 1f f7 95 3d f8 d2 97 3d
       0.89649063 -0.11318111 0.07322525 0.07413286
000020 f5 cc d8 3d 10 87 fa be f4 c3 f4 bc 42 df 8f bf
       0.105859675 -0.4893117 -0.029878594 -1.1240008

stage1.blocks.0.norm1.weight f4 [12]
000000 74 2b 06 00 bb 7e 10 00 ef 5f 13 80 6d 70 14 00
       5.66601e-40 1.51483e-39 -1.779289e-39 1.87704e-39
000010 02 b2 56 3f d2 60 0c 80 20 b2 13 00 a0 9b 17 00
       0.8386537 -1.136759e-39 1.808774e-39 2.168044e-39
000020 6d 16 03 00 2e d2 10 00 dd 3c 11 00 1b 02 0f 80
       2.83551e-40 1.544766e-39 1.583037e-39 -1.378288e-39

stage1.blocks.0.norm1.bias f4 [12]
000000 06 40 10 80 6b 07 04 80 87 9c 00 00 7a a2 19 00
       -1.492335e-39 -3.70003e-40 5.6151e-41 2.354173e-39
000010 2d f0 36 3d f9 2e 19 00 76 b6 17 80 bb 7f 12 00
       0.044662643 2.312738e-39 -2.177671e-39 1.69886e-39
000020 f2 cf 13 00 d5 84 16 00 e1 d1 12 00 82 88 01 80
       1.819471e-39 2.068032e-39 1.728329e-39 -1.40805e-40

stage1.blocks.0.attn.conv_proj_q.bn.weight f4 [12]
000000 14 31 18 00 17 dd 12 00 d1 d8 18 00 3d 70 1a 80
       2.221658e-39 1.732351e-39 2.281831e-39 -2.427986e-39
000010 5f 5a 12 00 3c d2 0f 00 1f 19 07 80 52 17 0b 80
       1.685458e-39 1.45295e-39 -6.5186e-40 -1.018556e-39
000020 30 02 14 00 ff 1c 07 00 3d 87 1a 80 a5 b8 07 00
       1.837495e-39 6.5325e-40 -2.436237e-39 7.09086e-40

stage1.blocks.0.attn.conv_proj_q.bn.bias f4 [12]
000000 90 9a 0e 00 0b 74 16 00 71 02 17 80 4e 7f 07 80
       1.341144e-39 2.062009e-39 -2.113092e-39 -6.88517e-40
000010 32 c9 16 00 1b 30 14 80 e6 ce 06 00 74 f3 12 80
       2.092556e-39 -1.853967e-39 6.25234e-40 -1.740373e-39
000020 8e 98 13 00 a1 85 14 80 a3 a3 1a 80 f8 1d 1b 80
       1.799601e-39 -1.884647e-39 -2.446425e-39 -2.490309e-39

stage1.blocks.0.attn.conv_proj_q.bn.running_mean f4 [12]
000000 00 00 00 00 00 00 00 00 04 00 00 00 04 00 00 00
       0.0 0.0 6e-45 6e-45
000010 ee bd 0e 80 04 00 00 80 03 00 00 00 01 00 00 80
       -1.353831e-39 -6e-45 4e-45 -1e-45
000020 00 00 00 00 00 00 00 00 01 00 00 00 01 00 00 00
       0.0 0.0 1e-45 1e-45

stage1.blocks.0.attn.conv_proj_q.bn.running_var f4 [12]
000000 04 00 00 00 04 00 00 00 04 00 00 00 04 00 00 00
       6e-45 6e-45 6e-45 6e-45
000010 04 00 00 00 04 00 00 00 04 00 00 00 04 00 00 00
       6e-45 6e-45 6e-45 6e-45
000020 04 00 00 00 04 00 00 00 04 00 00 00 04 00 00 00
       6e-45 6e-45 6e-45 6e-45

stage1.blocks.0.attn.conv_proj_k.bn.weight f4 [12]
000000 ae 08 0e 00 1c 62 09 80 97 a4 08 00 4d 90 08 80
       1.28881e-39 -8.61714e-40 7.93728e-40 -7.8645e-40
000010 e1 ab 18 00 88 8b 12 80 6d 63 15 00 27 b1 1a 80
       2.26571e-39 -1.703093e-39 1.964213e-39 -2.451273e-39
000020 91 61 1a 00 54 4e 03 00 0b 33 16 80 28 f9 0f 00
       2.422723e-39 3.03605e-40 -2.038692e-39 1.466913e-39

stage1.blocks.0.attn.conv_proj_k.bn.bias f4 [12]
000000 dd 3d 18 80 40 a2 19 80 47 5f 16 00 20 bd 1a 80
       -2.226244e-39 -2.354092e-39 2.05456e-39 -2.455568e-39
000010 c0 99 1a 00 9e bd 18 00 2e 75 0f 80 bd 65 12 00
       2.442878e-39 2.272074e-39 -1.419569e-39 1.689536e-39
000020 c0 d6 08 80 7a 64 13 00 81 b1 13 80 eb 35 13 80
       -8.11722e-40 1.780919e-39 -1.808551e-39 -1.764217e-39

stage1.blocks.0.attn.conv_proj_k.bn.running_mean f4 [12]
000000 03 00 00 00 03 00 00 80 01 00 00 80 04 00 00 00
       4e-45 -4e-45 -1e-45 6e-45
000010 b9 7e 0f 00 03 00 00 00 04 00 00 00 04 00 00 80
       1.422992e-39 4e-45 6e-45 -6e-45
000020 04 00 00 00 02 00 00 80 02 00 00 80 01 00 00 80
       6e-45 -3e-45 -3e-45 -1e-45

stage1.blocks.0.attn.conv_proj_k.bn.running_var f4 [12]
000000 04 00 00 00 04 00 00 00 04 00 00 00 04 00 00 00
       6e-45 6e-45 6e-45 6e-45
000010 04 00 00 00 04 00 00 00 04 00 00 00 04 00 00 00
       6e-45 6e-45 6e-45 6e-45
000020 04 00 00 00 04 00 00 00 04 00 00 00 04 00 00 00
       6e-45 6e-45 6e-45 6e-45

stage1.blocks.0.attn.conv_proj_v.bn.weight f4 [12]
000000 e7 20 10 80 8d af 00 80 7d 2f 02 00 ba fb 16 00
       -1.481171e-39 -6.2976e-41 2.00707e-40 2.110683e-39
000010 8b fe 81 3f a8 33 04 80 a9 57 0e 00 f9 a7 0d 00
       1.0155805 -3.85873e-40 1.317143e-39 1.254119e-39
000020 33 01 0e 00 5b 99 09 80 f7 80 0a 00 99 dd 05 80
       1.286127e-39 -8.81533e-40 9.64619e-40 -5.38672e-40

stage1.blocks.0.attn.conv_proj_v.bn.bias f4 [12]
000000 8e 32 c2 38 a9 aa c5 b9 a9 fb 52 b9 ba 78 20 b9
       9.2600574e-05 -0.0003770192 -0.00020120911 -0.00015303763
000010 db d1 af 3d d2 db 9d b9 a2 13 1f 39 96 95 2e 37
       0.08584949 -0.00030109152 0.00015170735 1.0406036e-05
000020 31 2a 57 35 c6 4b b8 37 be e1 6a 34 41 8f 04 3b
       8.015514e-07 2.1969794e-05 2.1875073e-07 0.0020226988

stage1.blocks.0.attn.conv_proj_v.bn.running_mean f4 [12]
000000 02 00 00 00 04 00 00 80 04 00 00 80 04 00 00 00
       3e-45 -6e-45 -6e-45 6e-45
000010 7c 17 26 40 04 00 00 00 04 00 00 00 04 00 00 00
       2.5951834 6e-45 6e-45 6e-45
000020 04 00 00 80 04 00 00 00 04 00 00 00 04 00 00 80
       -6e-45 6e-45 6e-45 -6e-45

stage1.blocks.0.attn.conv_proj_v.bn.running_var f4 [12]
000000 04 00 00 00 04 00 00 00 04 00 00 00 04 00 00 00
       6e-45 6e-45 6e-45 6e-45
000010 a2 3d 46 3f 04 00 00 00 04 00 00 00 04 00 00 00
       0.77437794 6e-45 6e-45 6e-45
000020 04 00 00 00 04 00 00 00 04 00 00 00 04 00 00 00
       6e-45 6e-45 6e-45 6e-45

stage1.blocks.0.attn.proj_q.weight f4 [12, 12]
000000 32 c9 0a 80 f0 4f 13 80 d8 03 1a 00 ef 60 19 00
       -9.9053e-40 -1.77355e-39 2.389102e-39 2.33066e-39
000010 a2 1b 1a 00 ac 6a 03 00 19 3f 1b 00 3c f7 09 00
       2.397636e-39 3.13773e-40 2.502194e-39 9.1521e-40
000020 0c 29 0d 00 96 5c 1c 80 bc 54 12 00 5b dd 12 80
       1.208586e-39 -2.604607e-39 1.683436e-39 -1.732446e-39
000030 bf 2b 19 00 2b 45 1a 80 9b fd 13 00 00 02 0b 00
       2.31158e-39 -2.412536e-39 1.835851e-39 1.010908e-39
000040 7e d2 0a 00 fa 1a 1a 80 99 d6 19 80 9a aa 17 80
       9.93865e-40 -2.3974e-39 -2.37287e-39 -2.173417e-39
000050 ce ed 1a 00 13 fe 10 00 d9 60 13 80 5b 10 11 00
       2.473031e-39 1.560513e-39 -1.779617e-39 1.56707e-39
000060 f9 ef 19 00 48 80 18 80 88 f3 06 00 03 c9 15 00
       2.381973e-39 -2.25007e-39 6.38376e-40 2.000655e-39
000070 21 63 0d 00 b1 68 13 80 81 c4 19 00 ff ca 1b 80
       1.229422e-39 -1.78243e-39 2.36638e-39 -2.55238e-39
000080 d5 ec 15 00 d4 74 0c 80 17 da 1c 00 dc ad 15 80
       2.013505e-39 -1.143936e-39 2.64963e-39 -1.990914e-39
000090 6b 5f 1b 00 ba f5 11 00 1b cc 08 80 01 63 16 00
       2.513788e-39 1.649354e-39 -8.07903e-40 2.055897e-39
0000a0 cc 55 17 00 48 21 1c 80 b6 07 1a 00 08 9b 12 80
       2.142995e-39 -2.583333e-39 2.390489e-39 -1.708654e-39
0000b0 a7 72 19 00 7f db 1a 00 c1 3f 19 80 8a 03 1a 80
       2.337017e-39 2.466463e-39 -2.318758e-39 -2.388992e-39
0000c0 44 8a 12 00 80 01 17 80 31 d8 0e 00 3e 01 09 80
       1.702639e-39 -2.112755e-39 1.363252e-39 -8.26965e-40
0000d0 bf 34 13 80 72 99 19 80 32 8f 12 00 f4 d7 14 80
       -1.763796e-39 -2.350933e-39 1.704408e-39 -1.91418e-39
0000e0 97 e6 1c 00 41 62 1b 00 6e 61 0a 00 1c 13 1b 00
       2.654114e-39 2.514805e-39 9.53306e-40 2.486414e-39
0000f0 f3 a3 17 00 e6 44 13 00 15 0a 1c 00 d8 06 18 80
       2.17103e-39 1.76959e-39 2.57501e-39 -2.206507e-39
000100 4a 88 18 80 01 95 12 80 ca ac 0b 80 e1 92 13 80
       -2.252943e-39 -1.706491e-39 -1.072175e-39 -1.797565e-39
000110 ee 33 09 00 a5 23 13 00 1a 83 1a 00 56 ba 19 80
       8.45148e-40 1.757661e-39 2.434753e-39 -2.362732e-39
000120 08 09 16 00 df f4 12 80 eb 10 18 00 04 37 16 00
       2.023621e-39 -1.740882e-39 2.210121e-39 2.040117e-39
000130 ea 26 16 00 cc 5c 1a 80 23 38 0c 00 d2 45 13 80
       2.03434e-39 -2.421012e-39 1.122164e-39 -1.769921e-39
000140 23 51 0e 00 e1 62 15 00 cc bc 1b 00 15 f9 19 80
       1.314803e-39 1.964016e-39 2.547286e-39 -2.385241e-39
000150 ab 04 1a 00 b0 28 1c 80 b4 d3 09 80 e8 1c 13 00
       2.389397e-39 -2.58599e-39 -9.02464e-40 1.755244e-39
000160 ce 4b 0b 00 ba 18 13 80 eb ee 0e 00 dc b9 18 80
       1.037384e-39 -1.753745e-39 1.371405e-39 -2.270726e-39
000170 8f 01 16 80 ae 0a 1a 00 b9 30 17 80 1b 64 13 80
       -2.02094e-39 2.391554e-39 -2.129695e-39 -1.780786e-39
000180 73 aa 1a 80 d6 59 08 80 32 8d 12 00 a2 17 16 80
       -2.448869e-39 -7.66911e-40 1.70369e-39 -2.028859e-39
000190 67 d4 19 00 de 6a 13 80 02 38 1b 80 b8 0d 07 80
       2.372083e-39 -1.783211e-39 -2.49965e-39 -6.4777e-40
0001a0 95 60 12 00 c7 0c 1a 80 d8 ec 12 00 23 76 16 80
       1.687686e-39 -2.392307e-39 1.738002e-39 -2.06276e-39
0001b0 36 a8 1b 00 91 8e 18 80 f0 6c 18 80 3a c9 16 80
       2.539901e-39 -2.255195e-39 -2.243131e-39 -2.092567e-39
0001c0 20 57 17 00 cc b0 16 00 32 a7 0f 80 60 78 13 00
       2.143471e-39 2.083804e-39 -1.437511e-39 1.788057e-39
0001d0 8c e8 0f 80 70 2c 1b 00 79 04 16 80 42 c7 12 80
       -1.460955e-39 2.4955e-39 -2.021985e-39 -1.724519e-39
0001e0 71 8d 1b 80 9e 95 12 80 b3 aa 0d 00 ff bd 0b 80
       -2.530298e-39 -1.706711e-39 1.255097e-39 -1.078348e-39
0001f0 0a bc 13 80 e6 fa 1a 80 82 95 16 00 c3 bf 08 00
       -1.81233e-39 -2.477728e-39 2.074014e-39 8.03475e-40
000200 a0 3e 1c 00 d5 6f 14 80 aa 9b 16 80 4b e1 17 00
       2.59386e-39 -1.876828e-39 -2.076223e-39 2.193036e-39
000210 c9 ea 1c 80 79 0f 12 80 68 53 19 00 08 bd 17 80
       -2.655619e-39 -1.65859e-39 2.325808e-39 -2.180028e-39
000220 c2 f8 12 00 a3 99 13 00 5f 99 1c 00 85 7b 0b 00
       1.742276e-39 1.799989e-39 2.626413e-39 1.054501e-39
000230 09 d2 19 80 fd 1f 1b 00 ba 56 0d 00 ba 6a 14 00
       -2.371234e-39 2.491034e-39 1.224973e-39 1.874996e-39

stage1.blocks.0.attn.proj_k.weight f4 [12, 12]
000000 05 29 16 00 14 db 11 00 bf e6 13 80 f1 87 12 00
       2.035096e-39 1.639794e-39 -1.82765e-39 1.701806e-39
000010 fb 09 19 00 4d 25 1c 80 b9 63 14 00 d4 79 0f 00
       2.299468e-39 -2.584775e-39 1.872484e-39 1.421236e-39
000020 f8 a0 01 80 06 da 08 00 21 af 14 80 84 ba 1a 00
       -1.4958e-40 8.12896e-40 -1.899534e-39 2.454632e-39
000030 54 ef 11 00 25 16 1a 00 e6 f7 0a 80 99 d4 1a 80
       1.647058e-39 2.395667e-39 -1.007284e-39 -2.463989e-39
000040 53 9a 08 00 db b1 07 80 dd 84 13 00 7e c8 1a 00
       7.90045e-40 -7.06651e-40 1.792537e-39 2.459646e-39
000050 ba e0 0d 00 8d 9c 13 80 3d e3 16 80 87 0e 13 80
       1.274478e-39 -1.801034e-39 -2.101899e-39 -1.750086e-39
000060 7c 54 18 80 f0 1e 0f 80 93 f4 19 00 89 ef 1b 00
       -2.234359e-39 -1.388631e-39 2.383624e-39 2.565487e-39
000070 2d 68 1a 80 ff d8 12 00 7c 47 18 80 be be 03 80
       -2.425094e-39 1.730882e-39 -2.229696e-39 -3.43932e-40
000080 be 05 17 00 45 d4 1a 80 f6 7b 1b 00 c0 21 10 80
       2.114276e-39 -2.463871e-39 2.524027e-39 -1.481475e-39
000090 74 47 19 00 e1 ea 1a 80 d3 b9 1a 00 08 b2 17 80
       2.32152e-39 -2.471982e-39 2.454384e-39 -2.176082e-39
0000a0 18 e6 1a 00 d4 73 0e 00 cf b6 14 00 56 e4 1c 00
       2.470265e-39 1.327248e-39 1.902289e-39 2.653305e-39
0000b0 6e 13 14 00 c5 04 18 00 c9 2c 1c 00 fc ba 02 80
       1.84368e-39 2.205763e-39 2.58746e-39 -2.50748e-40
0000c0 a7 37 1c 80 16 57 17 80 9b c9 08 80 72 41 11 80
       -2.591358e-39 -2.143457e-39 -8.07006e-40 -1.584681e-39
0000d0 40 5d 12 00 3e a8 16 80 4c d7 12 00 1c ca 16 00
       1.686491e-39 -2.080735e-39 1.730273e-39 2.092884e-39
0000e0 50 9d 15 00 dd bc 18 80 11 52 16 00 3d b7 16 80
       1.984979e-39 -2.271803e-39 2.049821e-39 -2.086114e-39
0000f0 f3 a3 13 80 5c 18 18 80 0e 84 16 00 c8 45 1b 00
       -1.803688e-39 -2.21279e-39 2.067753e-39 2.504591e-39
000100 73 44 1b 00 db 9a 15 80 fe 50 1c 80 3e 7b 17 00
       2.504113e-39 -1.984097e-39 -2.600448e-39 2.156427e-39
000110 c0 e9 0d 80 7f 9e 1c 00 f9 4b 1b 00 28 87 0e 80
       -1.277715e-39 2.628252e-39 2.506812e-39 -1.334182e-39
000120 dc 1e 1a 00 42 3a 0b 80 73 8a 0c 00 bb 6e 12 80
       2.398793e-39 -1.03109e-39 1.151692e-39 -1.692762e-39
000130 05 62 1a 80 f1 f0 1b 80 e5 9f 17 80 5e 9d 1a 00
       -2.422886e-39 -2.565992e-39 -2.169576e-39 2.444176e-39
000140 2d 7d 1a 00 e5 8c 12 80 d0 b4 16 80 fe 50 1b 80
       2.432628e-39 -1.703582e-39 -2.085244e-39 -2.508613e-39
000150 f8 ee 12 80 a1 81 15 00 94 78 1a 80 89 e7 0e 00
       -1.738765e-39 1.975048e-39 -2.430978e-39 1.368756e-39
000160 cf b0 1a 80 31 16 18 80 b1 32 17 00 fc 94 17 80
       -2.45115e-39 -2.212013e-39 2.130401e-39 -2.165662e-39
000170 d6 61 11 80 0e ad 17 80 6c b1 16 00 20 8b 19 80
       -1.5963e-39 -2.174297e-39 2.084028e-39 -2.345796e-39
000180 54 40 13 00 05 94 15 80 93 38 1c 00 a8 a1 12 00
       1.767951e-39 -1.981645e-39 2.591689e-39 1.71103e-39
000190 be 1c 16 80 bb 79 18 00 a1 88 0a 80 c1 ed 1b 80
       -2.030692e-39 2.24772e-39 -9.67368e-40 -2.564848e-39
0001a0 65 cc 0b 00 81 11 09 80 82 a4 17 00 47 ca 19 80
       1.083513e-39 -8.32799e-40 2.17123e-39 -2.368451e-39
0001b0 bd 7d 12 80 1e 15 12 00 3b ff 0e 00 11 d0 10 80
       -1.698145e-39 1.660614e-39 1.377256e-39 -1.544008e-39
0001c0 e0 85 16 80 80 8b 13 00 bf a6 17 00 a7 0c 1a 00
       -2.068406e-39 1.794918e-39 2.172034e-39 2.392262e-39
0001d0 5a d8 12 80 fd 46 18 00 0c 72 18 00 e6 5d 1b 80
       -1.730651e-39 2.229518e-39 2.244964e-39 -2.513243e-39
0001e0 2e 2d 11 00 93 70 13 80 af 54 15 80 45 87 0e 80
       1.577411e-39 -1.785258e-39 -1.958924e-39 -1.334223e-39
0001f0 32 2f 1a 80 49 1c 17 00 45 b6 1b 80 f4 4f 14 80
       -2.404653e-39 2.122363e-39 -2.544944e-39 -1.865392e-39
000200 b3 24 1a 80 fd 53 13 80 78 d1 1a 80 19 d2 08 00
       -2.400888e-39 -1.775004e-39 -2.462866e-39 8.10053e-40
000210 04 9f 18 80 14 e2 16 80 2f 9c 12 80 97 0f 1a 80
       -2.261096e-39 -2.101482e-39 -1.709067e-39 -2.393315e-39
000220 fd 69 13 80 37 c5 18 80 a1 ba 15 80 2e 6d 1a 00
       -1.782896e-39 -2.274799e-39 -1.995495e-39 2.426889e-39
000230 60 ca 15 00 bb a8 18 00 7d a5 16 80 39 65 1a 80
       2.001144e-39 2.264581e-39 -2.079747e-39 -2.424035e-39

stage1.blocks.0.attn.proj_v.weight f4 [12, 12]
000000 fa f2 9c b7 21 f1 90 39 dc 11 12 38 cf a4 49 38
       -1.8709794e-05 0.00027645475 3.4825745e-05 4.8075624e-05
000010 53 e0 9e 39 8c 87 0e 38 48 8c 11 b8 cd 06 66 37
       0.00030303243 3.3981676e-05 -3.470134e-05 1.3710652e-05
000020 a3 c2 28 36 53 73 5c b8 8d 5a 3b b6 6e 16 43 ba
       2.5147244e-06 -5.255949e-05 -2.791788e-06 -0.0007442002
000030 42 28 c6 b9 11 95 83 3b 1f 65 53 3a 1e 64 90 3a
       -0.00037795497 0.004015573 0.00080640794 0.0011016165
000040 86 68 0a 3d 32 6d 4d 3a 07 80 fe b9 fc 0b 0a 39
       0.033791088 0.0007836401 -0.00048542043 0.0001316517
000050 99 62 c9 37 fa f4 b1 b9 9b 50 22 b7 d5 32 5b bc
       2.400698e-05 -0.00033942593 -9.67472e-06 -0.0133788185
000060 5f 8a 8f b8 b3 a7 56 3a 38 78 06 39 4e 84 4a 39
       -6.844545e-05 0.0008188441 0.00012824021 0.00019313509
000070 ae c8 1a bc 02 e0 c4 38 fa 03 8d b9 98 27 5a 38
       -0.00944726 9.387733e-05 -0.00026896578 5.2012125e-05
000080 c9 d2 c4 36 95 e3 87 b9 a8 3c 01 b7 a6 4f 90 bb
       5.865794e-06 -0.00025918768 -7.703122e-06 -0.004404026
000090 1d 75 25 39 91 13 e7 b9 0c 61 a1 b9 84 0c 6b b9
       0.00015779254 -0.00044074332 -0.00030780619 -0.00022416009
0000a0 5f ce d2 bc c7 6e 1e ba f9 ed 1d 3a a9 03 11 38
       -0.025733171 -0.0006043729 0.00060245354 3.4574103e-05
0000b0 d2 db ab 36 25 92 0d 39 2c e2 03 b6 a4 91 b8 38
       5.1217876e-06 0.00013501251 -1.965217e-06 8.8009314e-05
0000c0 00 fc b1 38 c6 d3 2b ba 69 dc 4a b9 1c f6 94 b9
       8.486956e-05 -0.0006554689 -0.0001934633 -0.00028412126
0000d0 34 e5 8f bb 9f 5e 6a b9 6a 7b 97 38 c7 7c 12 b7
       -0.004391337 -0.00022351228 7.223229e-05 -8.73133e-06
0000e0 8d 9c 2b b6 e4 72 f2 37 0d 8c ef b6 3a 3b 7b 3b
       -2.557211e-06 2.8902148e-05 -7.139059e-06 0.0038334862
0000f0 89 39 13 b9 41 67 97 3a 42 b1 8e 39 8a a9 d8 39
       -0.00014040446 0.0011551158 0.00027216418 0.00041325047
000100 c5 02 d2 3c 44 b5 95 39 be b4 e4 b8 1b 54 03 38
       0.025636086 0.00028554548 -0.00010905553 3.1311163e-05
000110 4e 11 04 37 95 66 b5 b8 0b 1a d8 b6 0c 9c ec bb
       7.871842e-06 -8.64986e-05 -6.4403334e-06 -0.0072207507
000120 0b 86 32 38 b5 75 39 bb 22 85 35 b8 e7 6b d6 b9
       4.2563344e-05 -0.0028298919 -4.3277752e-05 -0.00040897654
000130 20 82 fd 3b 1c 1e 2b 39 7b 17 67 39 d4 fa 40 b9
       0.0077364594 0.00016319047 0.00022038624 -0.00018403988
000140 6f 1a 2b b8 15 5a da 39 f5 12 99 37 3c 03 8c 3c
       -4.0794195e-05 0.00041647317 1.8247849e-05 0.017091386
000150 9d 48 a1 39 8c 88 77 bb a2 b1 1b ba 6d b5 78 ba
       0.00030762414 -0.0037770597 -0.000593925 -0.0009487484
000160 9a 5f b9 bc 61 fb f1 b9 f1 4a 55 3a b4 56 90 b9
       -0.022628594 -0.00046154394 0.00081364723 -0.0002753042
000170 5e ec 03 b8 b6 dc 79 3a 84 7d 20 38 7a 92 ca 3c
       -3.1452968e-05 0.00095314847 3.826387e-05 0.024728049
000180 f6 a4 9b b9 7e 72 3c 3b 42 82 1f 3a 28 a6 13 3a
       -0.0002968681 0.0028754766 0.00060847786 0.0005632364
000190 3e 22 4d bf 98 aa 57 3a 8a 23 f5 b9 58 92 b6 37
       -0.80130374 0.00082270196 -0.0004675652 2.1764237e-05
0001a0 bc 95 74 36 bd a2 1c b9 76 92 dc 35 65 58 08 bc
       3.644599e-06 -0.00014937944 1.6433903e-06 -0.008321856
0001b0 a4 cd 52 39 8b 81 8b ba 74 f3 ef b9 83 f6 1b ba
       0.00020103768 -0.0010643465 -0.0004576702 -0.0005949514
0001c0 c9 ae 16 bd dc c9 0e ba e0 fe 22 39 11 fd 3a b7
       -0.036787782 -0.00054469495 0.00015544472 -1.11453855e-05
0001d0 86 8b 10 b6 fc c4 51 38 a9 2f e9 b6 b0 de c6 3b
       -2.1538885e-06 5.001294e-05 -6.9494895e-06 0.006069027
0001e0 83 11 0f b8 82 0c c3 38 81 eb 9c 38 cc 97 c8 38
       -3.4110166e-05 9.300654e-05 7.482526e-05 9.5650175e-05
0001f0 ea 03 4f bb 25 45 9f 38 b0 21 80 b8 8e b1 18 b7
       -0.0031588026 7.59459e-05 -6.1097904e-05 -9.101246e-06
000200 93 30 72 b5 af 6e 41 b7 dc c3 4a 36 9b 0a a2 38
       -9.022271e-07 -1.1529467e-05 3.021435e-06 7.7267374e-05
000210 e5 7c 48 b8 56 a7 4a 3a ce 25 f3 38 51 19 29 39
       -4.7800033e-05 0.00077306235 0.000115941846 0.00016126527
000220 35 ad 31 3c 8b e1 03 39 4d 07 3c b8 97 c5 9c 37
       0.010844518 0.00012577155 -4.4829492e-05 1.868866e-05
000230 1d 35 49 36 da 6a 62 b8 ff 89 c2 b8 da ee 2d bb
       2.998225e-06 -5.3982112e-05 -9.276345e-05 -0.0026540072

stage1.blocks.0.attn.proj.weight f4 [12, 12]
000000 6e da 2a 3c 1b 5f 20 3e 07 fa 9b bc e0 0f 4d be
       0.010428054 0.1566128 -0.01904012 -0.20025587
000010 35 d9 06 be 02 2b d7 3d 2f 21 42 3d 5c 81 81 bd
       -0.13168795 0.1050625 0.047394928 -0.063235015
000020 be 27 00 3d a8 a4 9c be 8c 3b 15 bc 45 2e 5b 3d
       0.0312879 -0.30594373 -0.009108435 0.053510923
000030 59 3b e2 ba 82 32 2b bc 64 e4 be bb 5d be bd bc
       -0.0017260119 -0.010449054 -0.005825566 -0.023162061
000040 d9 a5 4f bc cd 81 8c bb b9 d8 d2 3c 8a d2 20 3d
       -0.0126738185 -0.0042879344 0.025738107 0.039263286
000050 8e 39 65 3d ab 56 d2 bc c4 3f 1c 3b 99 2e a3 3a
       0.05596309 -0.025676092 0.0023841718 0.00124498
000060 98 0a bd bb c6 6e 92 3d 99 38 5e 3d 68 69 82 bd
       -0.005769085 0.071500346 0.054253194 -0.06367761
000070 ba 66 b5 bc cb 01 ea bc 8a 43 84 bd e7 50 86 bd
       -0.02214371 -0.028565308 -0.064581946 -0.065584
000080 aa 5d d8 be 31 a3 55 bd 45 57 30 3d 46 9c 8d 3c
       -0.4225896 -0.052157585 0.043051977 0.017286431
000090 69 0e a3 bb 2c 54 ad 3d 06 cf 8f 3d 84 29 8a bd
       -0.004976083 0.0846332 0.070219085 -0.067462
0000a0 74 24 cc bc 42 31 2b bd bc 60 06 be b2 2f c9 bd
       -0.024919726 -0.041795023 -0.13122839 -0.0982355
0000b0 3f 26 6f be 90 28 72 bd 0e db 5a 3d 02 e9 97 3c
       -0.23354433 -0.059120715 0.053431563 0.018543724
0000c0 0d 00 61 3c 00 65 41 be e6 7e e6 bd 96 da 37 3e
       0.013732922 -0.18886185 -0.11254673 0.17954478
0000d0 d3 73 6a 3d a4 b2 42 3d 41 f5 15 3c 5d 63 c5 3d
       0.057239365 0.047533646 0.009152711 0.09638093
0000e0 97 ef fd be 4e 75 09 3e ed e3 d6 bd 07 7a 35 bd
       -0.49596855 0.13423654 -0.10492692 -0.044305827
0000f0 0c 78 74 bc 32 b6 04 3e 16 ed 1c 3e 7c a8 7a bd
       -0.0149211995 0.12960127 0.15324816 -0.061195835
000100 e3 35 b4 bb b0 4d f9 bd 02 01 61 be f8 0e 1c be
       -0.005499588 -0.12173021 -0.2197304 -0.15240085
000110 bd f1 d3 bd d8 40 88 bc db ca f5 3d a5 c1 cd 3c
       -0.10348842 -0.016632482 0.12001582 0.025116751
000120 1e 0f d1 b8 0a 69 0d 3c 48 43 f8 3a 3e 88 bc bc
       -9.9687124e-05 0.008631 0.001894095 -0.023014184
000130 f8 a4 a6 ba b6 ae 0a bb 0d 80 66 3d 52 97 41 3d
       -0.001271396 -0.0021161265 0.056274462 0.04726345
000140 ad b9 8f 3e 74 aa a5 bb f6 bb 1d 3c 53 cf 62 ba
       0.28071347 -0.00505572 0.009627333 -0.00086521095
000150 81 cb da 3a 06 09 04 bd bb 90 70 bc 39 1e 1d 3d
       0.0016692729 -0.032235168 -0.014682944 0.0383589
000160 da 81 9c 3c 29 bc f7 3b e5 9c 8d bc 93 a2 c6 3b
       0.019104887 0.0075602722 -0.017286727 0.006061861
000170 70 4d 37 be 88 f8 2c 3d f8 38 a0 bc ea 16 07 bc
       -0.17900634 0.042229205 -0.019558415 -0.008245209
000180 7a 62 c6 bc e3 bb 32 3e c1 cc 50 3e 5f 7a c5 bd
       -0.02421688 0.17454486 0.20390607 -0.09642481
000190 e3 11 5c bb a9 66 16 be 1d b4 2f be bb cc 26 be
       -0.0033579997 -0.14687599 -0.17158552 -0.16289036
0001a0 0f 19 16 bd 75 d0 31 bc ac 23 1f 3e 60 09 03 3d
       -0.03664499 -0.010852923 0.15540951 0.031991363
0001b0 75 15 2b 3c 76 f3 27 bd 5c 06 86 bd f8 d5 c1 3b
       0.0104421275 -0.041003667 -0.06544182 0.0059153996
0001c0 1a 0a 3c bc 33 6d 82 3d c6 d7 2b 3e 05 5e d0 3d
       -0.011477018 0.06368484 0.1678153 0.10174183
0001d0 fe bf a4 3f da 5e 96 bc 68 13 43 bd 5b 58 41 bc
       1.2871091 -0.018355776 -0.04762593 -0.011800851
0001e0 82 7f 2e bc 9b 09 44 bc af 59 b4 3d bc 99 af 3d
       -0.010650517 -0.011965181 0.08806168 0.085742444
0001f0 8e c9 6f 3d b4 d0 e9 bd 6e b2 35 be a4 5b 90 bd
       0.058541827 -0.1141676 -0.17743847 -0.07048729
000200 46 17 60 3e ec 78 12 3e 6c ce 68 3d af 55 66 bc
       0.21883878 0.1430394 0.056837484 -0.0140585145
000210 f4 1b ae 3b d3 5c f3 bc 31 0e 4c bd 62 2e 2b 38
       0.005313391 -0.029707348 -0.04981822 4.0812774e-05
000220 d4 f0 f9 bb 73 56 32 3d f5 60 26 3d 1b e6 0c 3d
       -0.007627586 0.043539476 0.04061981 0.034399133
000230 94 b3 18 bd e4 62 a2 bc f3 79 0b bd 98 57 54 bb
       -0.037280634 -0.019822545 -0.034051847 -0.0032400843

stage1.blocks.0.attn.proj.bias f4 [12]
000000 4c 50 63 be e6 c0 9f 3f 67 e4 19 3e 99 43 b0 3d
       -0.221986 1.2480743 0.15028535 0.08606643
000010 6f 61 72 3e 43 c4 d1 3e 7d 20 8e bb 21 dd e7 3e
       0.2366998 0.40970048 -0.004337369 0.45285895
000020 8c d8 be 3e 3c 14 13 bf 8e 41 11 bd 12 58 aa bf
       0.37274587 -0.5745275 -0.03546291 -1.3308127

stage1.blocks.0.norm2.weight f4 [12]
000000 f8 0a 7e 3f 1f bd 91 3f 4a 3c 86 3e 90 7d ad 3d
       0.99235487 1.138584 0.26217872 0.08471215
000010 71 dd 82 3f 0a 63 3b bd fc 8a 9f 3f c8 1e 23 3f
       1.0223829 -0.045748748 1.246429 0.63718843
000020 9b 8b 70 3f 12 4b 93 3f fe a8 7c 3f 54 79 35 3f
       0.9396302 1.1507285 0.9869536 0.7088826

stage1.blocks.0.norm2.bias f4 [12]
000000 79 fe e8 3d 18 09 9e bf 68 d9 a6 3c 64 6b ae bd
       0.11376662 -1.2346525 0.02036734 -0.08516577
000010 df 14 92 bf ae e3 28 bd 24 1f ee 3e f5 42 49 be
       -1.1412619 -0.041232757 0.46508133 -0.19654448
000020 0e 51 48 be 43 0c 3d 3f ba 02 12 3e 42 4a 76 3f
       -0.1956217 0.73846835 0.14258853 0.9620706

stage1.blocks.0.mlp.fc1.weight f4 [24, 12]
000000 43 b9 3f 3e a0 26 d2 be 33 6e 6e 3e 20 0b 50 3d
       0.18723015 -0.41045094 0.23284225 0.05079186
000010 8b da ac bf c8 96 72 bd 5c b1 83 3e e7 2e da be
       -1.3504194 -0.059225827 0.25721252 -0.4261391
000020 5d 75 7a bf 1a da 53 be 8f 21 69 3e d1 0f ba 3f
       -0.9783533 -0.20688668 0.22766708 1.4536077
000030 6a 56 86 3d de ae 94 bd cc 62 54 bd 59 07 28 3c
       0.06559451 -0.07259916 -0.051852033 0.010255658
000040 c8 91 b0 39 fe df 92 3c 4a 98 9f bd 29 1d 25 3d
       0.0003367795 0.017929073 -0.07792719 0.040311012
000050 3e 87 d0 3c 7e b5 9f 3d 63 f0 7b 3b 56 47 1b 3c
       0.025455114 0.07798289 0.0038442842 0.009477457
000060 23 84 eb bd 18 b3 82 be a7 49 c5 3d b7 4c 2a 3c
       -0.114998125 -0.25527263 0.09633189 0.010394267
000070 f9 87 1f bd 21 6d 18 3e 19 ac b3 3d 3a 95 75 3d
       -0.038948033 0.1488538 0.087730594 0.059956767
000080 01 c5 cd bd 18 ad 8b 3c d4 b2 56 3d ea 77 6c 3c
       -0.10047341 0.017050311 0.052416638 0.014432887
000090 da 6c 1a be 8e db 35 bc 68 2a d3 3d 49 55 a7 bd
       -0.15080586 -0.011099709 0.10310823 -0.08170564
0000a0 cf 86 13 3f dd 21 73 bd 1a 83 61 3e 47 f6 c2 be
       0.57627577 -0.059358466 0.22022668 -0.3807852
0000b0 ef 56 3a be 0e 66 02 3d 9b fa d5 be 50 f1 a3 3d
       -0.18197225 0.03183561 -0.4179276 0.08005011
0000c0 bd e5 63 be f5 ab 2e be 72 32 55 be f9 72 cd 3c
       -0.22255607 -0.17057784 -0.20820025 0.025079237
0000d0 ef 60 5a 3e 06 46 99 3c 78 10 24 bf 2d 7a 6e be
       0.2132604 0.018710148 -0.6408763 -0.23288794
0000e0 ef 63 09 be a4 83 15 3f 06 4a 85 3f 75 1a 90 be
       -0.13417028 0.5840399 1.0413215 -0.28145185
0000f0 fc 45 77 3f cd 63 9a bf 28 85 d5 bd f9 1c 11 3d
       0.9659116 -1.2061707 -0.10425788 0.03542802
000100 35 c1 ea be bd c5 c3 3d ac d9 10 be d2 5d 13 3e
       -0.4585053 0.095592 -0.14145535 0.14391258
000110 a2 9d 2d be 97 0e 95 3e 2f 66 4c bf f4 f3 01 3f
       -0.16954663 0.29112694 -0.7984342 0.5076287
000120 f4 ee 28 3e eb a8 8e bf bf 64 26 3e 15 cc 47 be
       0.16497403 -1.11453 0.16249369 -0.19511445
000130 66 fc 42 3d 54 7d f5 3d 87 a1 02 3f 2b 92 45 be
       0.047603987 0.11986795 0.5102772 -0.1929404
000140 44 ca 51 3e a4 fa 58 3f 2c 6f a0 3e 20 f3 1e 3e
       0.20487314 0.8475745 0.31334817 0.15522432
000150 34 27 a5 be 28 e7 bc be 05 27 a5 bd 29 da a0 3d
       -0.32256472 -0.36895108 -0.08064083 0.07854111
000160 c3 f6 84 bf 82 ea 60 bd 1a b1 6e 3f 7e d8 2b 3e
       -1.0387806 -0.054911144 0.93238986 0.16781804
000170 26 b8 2f 3c d9 ea 92 3f fc 7b 99 bd 1c 3d e6 3d
       0.010725057 1.147792 -0.07494351 0.112421244
000180 88 b6 eb bd 57 f8 34 3e fb 87 98 3d 34 da 8c 3b
       -0.115094244 0.17672859 0.07447811 0.004298473
000190 08 bf dc ba 3a 4c 8e bd 70 4b b7 3c 50 81 f4 bd
       -0.00168416 -0.06948133 0.022374839 -0.11938727
0001a0 f2 12 9d bc 41 68 84 3c c5 67 8d bd 73 3d 0e bd
       -0.019174073 0.016162993 -0.06904558 -0.03472657
0001b0 49 c4 0b 3d 09 3b 16 bf b3 38 b5 3d 30 f0 75 3b
       0.03412274 -0.5868383 0.08848705 0.0037527196
0001c0 55 be b0 bc 34 55 f8 bc 98 3c db 3e 0b c7 6e 3c
       -0.021575132 -0.030314066 0.42819667 0.014573823
0001d0 85 cc e2 bd de 61 78 3f 32 16 2c 3f 04 59 cf be
       -0.11074165 0.97024333 0.6722137 -0.404976
0001e0 41 cc 48 bf 5a ec 1e 3f 75 80 7c be 90 2c 42 3e
       -0.78436667 0.62079394 -0.24658377 0.18962312
0001f0 6c 01 31 3d 49 e6 06 be 5e 65 9a 3d ec 2c 98 bd
       0.043214247 -0.13173784 0.075388655 -0.07430443
000200 23 4d cb 3c 76 98 72 3f c9 c4 22 bf e9 48 e0 3d
       0.024817055 0.94763887 -0.6358152 0.109514065
000210 9d 61 33 bc b8 6d 89 bd 3b 76 fb bd ad c7 02 3e
       -0.010948566 -0.0671038 -0.1227841 0.12771483
000220 0d 4c d5 be c9 cc e0 bc ea a1 4e 3f 0e 6e c3 3e
       -0.41659585 -0.0274414 0.8071581 0.38169903
000230 35 a9 eb be 4d c3 2e be 3f 58 34 3e a8 57 16 3d
       -0.46027532 -0.17066689 0.17611788 0.03670469
000240 74 61 38 be 08 e6 d5 bd f6 8b 98 3e 71 55 bd 3d
       -0.18005925 -0.104442656 0.29794282 0.09244812
000250 ca d2 b4 3e 79 ec 0e 3e f0 e9 a7 bf 6f 9e e3 3e
       0.3531707 0.13957395 -1.3118267 0.44456813
000260 61 1f f3 3d 93 a2 56 3e cb 1a 1b be c7 8b b1 be
       0.118712194 0.20960455 -0.1514694 -0.34676954
000270 9f 01 72 3e fd bc 05 be 45 fc 22 bd 2d ce 87 bc
       0.23633431 -0.13060375 -0.039791364 -0.016577804
000280 70 05 b0 be 8d 79 c2 3d 18 d8 4d 3e 04 54 b0 3e
       -0.34379148 0.0949584 0.20101964 0.344391
000290 e5 00 31 bf 70 fc cb be 0f c2 e5 3e 65 38 fc be
       -0.6914199 -0.39841032 0.44874617 -0.49261776
0002a0 4b d6 a0 be 03 7d 90 bf ed 7a 6f be 87 af 8f 3c
       -0.31413493 -1.128815 -0.23386736 0.017539753
0002b0 12 47 b1 be 43 b6 49 3c 1e 80 79 be a2 35 de 3e
       -0.34624535 0.012311521 -0.24365279 0.43400294
0002c0 23 0f cc bd bf bc 47 3f 8f 80 da 3d b5 12 c2 3f
       -0.099638246 0.7802238 0.10669052 1.5161959
0002d0 8c 14 95 be 49 d1 c0 3e 58 5c 6c be 6f 2a 9a 3d
       -0.2911724 0.37659672 -0.23082101 0.07527625
0002e0 9e c7 8b 3f 04 3f 24 bd 1a c5 8b bf 21 e3 c3 bd
       1.0920293 -0.04009916 -1.0919526 -0.09564806
0002f0 0a d8 02 bf 15 1c 86 3e 68 c8 56 bd b6 18 ed 3e
       -0.511109 0.261933 -0.052437216 0.46307915
000300 78 17 8b 3d 3d 4c 91 3d 12 43 00 be fd 93 f8 3d
       0.06791586 0.070946194 -0.12525585 0.121376015
000310 e2 ba 03 3f 3d 6c 71 3b 69 0a e5 3d ad 19 1c be
       0.51457036 0.0036838197 0.11183626 -0.1524417
000320 7f 0d 7e bf 5e cd 6d be 60 7c 78 3e d7 fd 68 3f
       -0.99239343 -0.23222873 0.24266195 0.9101233
000330 6c b0 e2 3d a9 69 a5 3e 7d 5c 85 3e fe e3 fd bd
       0.11068806 0.32307175 0.26047125 -0.12397002
000340 0b e2 dc be 14 f5 c8 bc b2 e2 2f 3f 53 06 48 bf
       -0.43141207 -0.024530925 0.68705285 -0.7813465
000350 4e 4a 94 bd 49 a1 ea be 51 a4 f7 3e c1 6c bf bd
       -0.07240735 -0.45826176 0.4836755 -0.09346915
000360 32 14 c8 be a3 fe c9 bf c7 b2 e8 3c 25 ae 92 3e
       -0.39077908 -1.5780834 0.02840556 0.28648487
000370 96 77 7f bf 48 f8 25 3e f7 30 08 3f 9c 89 fd 3d
       -0.9979185 0.16207993 0.53199714 0.123797625
000380 f9 d8 b0 3e f4 21 c5 bc 06 7a d3 3e ef bd 47 3f
       0.34540537 -0.024064042 0.41304034 0.7802419
000390 b4 65 a9 3e 47 c6 f2 bd b4 86 d8 bd cb 58 11 be
       0.33085406 -0.11854225 -0.105725676 -0.14194028
0003a0 85 4b 0c 3f b1 f2 f9 bd ef 18 86 3e 38 18 a2 be
       0.54802734 -0.12204493 0.26190898 -0.31659102
0003b0 0f 04 ae be 80 64 a8 be cf 5e 14 3e e7 db 01 3e
       -0.3398747 -0.32889175 0.14489292 0.12681542
0003c0 d9 32 10 3e 4f 33 35 bf 0c aa d3 bd a9 6b 27 3d
       0.14081897 -0.70781416 -0.10335168 0.040874157
0003d0 54 1d 11 3b 4a 1c 41 3c 43 b8 89 be 90 1c 26 be
       0.0022142725 0.01178653 -0.26898393 -0.16221833
0003e0 78 a7 a3 3f b3 c4 59 be dd 96 02 bf 62 19 0c bc
       1.2785482 -0.21266441 -0.5101145 -0.008550974
0003f0 7c de d5 bc 65 2d d2 3b 27 55 8e 3d 74 d5 62 3d
       -0.026107065 0.006414103 0.06949835 0.055379346

stage1.blocks.0.mlp.fc1.bias f4 [24]
000000 96 ab 7b be aa b4 96 3c 07 57 f0 bd 31 70 1b bc
       -0.24577174 0.018396694 -0.11735349 -0.009487198
000010 7e 21 3d be b4 47 05 3e 87 ef e1 3e 33 52 2f be
       -0.18469808 0.13015634 0.44128057 -0.171212
000020 29 bf 9f 3d 2b 6e 42 3e 94 25 0b 3e a1 dd 8d be
       0.07800133 0.18987338 0.13588554 -0.27708152
000030 3b 80 58 3f 31 0a ae 3e 80 8b 34 be 15 dc 3e 3e
       0.84570664 0.3399215 -0.1763134 0.18638642
000040 b7 8c 38 bd 9f 0b 07 3f 15 aa 85 3e 38 aa 6a 3e
       -0.04505607 0.5275211 0.26106325 0.22916496
000050 ab 5e f3 bc 56 81 d5 bc ed dc 63 3d af 3a db 3e
       -0.029708227 -0.026062649 0.055630613 0.4281821

stage1.blocks.0.mlp.fc2.weight f4 [12, 24]
000000 a4 ab f7 be 03 f4 a9 3d 14 86 c9 3c b6 16 5a be
       -0.4837314 0.08298495 0.024600066 -0.21297726
000010 f8 20 de be 73 b5 81 3e e7 68 9f bd 2e 97 f7 3e
       -0.43384528 0.25333747 -0.077836804 0.48357528
000020 fe ec 83 3d e9 89 78 bd 98 79 24 be fe 20 f3 bc
       0.06441687 -0.060678396 -0.1606201 -0.029678818
000030 9c a6 19 3e 5f cd 84 3d 5c db 2a 3f 67 63 7a be
       0.15004963 0.06484484 0.66740966 -0.24451981
000040 29 5b af bd 53 73 af 3e 85 7d d0 3c 5b 51 ef 3d
       -0.08562309 0.34267673 0.025450477 0.11685439
000050 bb eb ae 3e 6a a8 98 bb 3b c4 6e be 01 c4 6b be
       0.34164223 -0.0046587484 -0.23317043 -0.23023988
000060 df 6f dc bf 4a 32 76 3c ce 6c 2d 3d 1e 6d 41 3d
       -1.722164 0.015026638 0.042340092 0.047223203
000070 6b 4b 35 3f 9e 99 71 3d 0e 4c 7e 3f f7 b0 48 be
       0.70818204 0.05898439 0.993348 -0.19598757
000080 45 0a 3d bb da 31 a9 3e 40 07 05 be f2 c8 48 be
       -0.0028845232 0.33045846 -0.12991047 -0.19607905
000090 55 28 fd bd 8e 70 51 3b e7 48 03 bd 16 dc 30 be
       -0.12361208 0.0031957957 -0.032051947 -0.17271456
0000a0 a8 77 1a 3f 17 33 16 bf 27 ac 1c 3e 44 ce d0 bd
       0.6033883 -0.58671707 0.15300046 -0.10195592
0000b0 18 7a 4d bd fd 14 58 bc ed 04 f3 3e 43 06 9d 3e
       -0.050165266 -0.013188598 0.47464696 0.3066884
0000c0 6a d6 80 3c 72 83 08 3b eb a7 86 3d b6 e6 10 be
       0.01572724 0.00208303 0.065749966 -0.14150509
0000d0 04 67 b2 be cc db 9c be 93 a0 0d bd db 12 39 3f
       -0.3484422 -0.30636442 -0.034576964 0.72294396
0000e0 f9 c6 f5 3c dc 1f b4 3d 5c c5 ac 3e 9f 0f ed bd
       0.030002104 0.08795139 0.33744323 -0.11575245
0000f0 f9 d7 da 3d 4d 24 85 bf dc 37 ca 3e 0b 80 c0 be
       0.10685725 -1.0401703 0.39495742 -0.3759769
000100 b6 96 91 3e 2b be 18 bf 71 8a 54 3e 48 30 71 3d
       0.28435296 -0.59665173 0.20755936 0.058883935
000110 7c a9 d0 3e 4b 33 24 bc 28 e8 bc be c7 9e 0e 3e
       0.40754306 -0.010021995 -0.3689587 0.13927756
000120 80 93 3a 3e cf 2b 83 3c b8 61 9d bd 01 e6 98 be
       0.1822033 0.0160121 -0.07684654 -0.2986298
000130 b4 7f 1d bf 87 40 3c 3e 21 93 a2 be 12 1e 23 be
       -0.61522985 0.1838399 -0.31752875 -0.1592944
000140 bb 15 e8 3d ca 14 9a be 1d 48 00 bf af f8 45 be
       0.1133227 -0.30093986 -0.50110036 -0.19333147
000150 58 3f 01 bf 15 5c fb 3e 27 83 52 3f 74 4d ad 3e
       -0.5048728 0.4909369 0.8223137 0.33848155
000160 e2 2f f8 3e 59 9a 49 3c 48 d8 b2 3e ec 9d a1 bc
       0.48474032 0.012304866 0.34930634 -0.019728623
000170 63 81 e3 bd 79 40 07 bd b0 a6 0f bd d4 89 31 3e
       -0.11108663 -0.03302047 -0.035071075 0.17337734
000180 9f f8 06 bf 0e eb d8 b9 d5 8d af bb 22 63 a8 3e
       -0.52723116 -0.0004137386 -0.005357484 0.32888132
000190 19 b7 a1 3e 4e 62 06 3f f3 be 8e 3d cd 86 86 be
       0.31585005 0.5249375 0.069700144 -0.2627472
0001a0 4b 27 fd 3d e8 71 89 bf f1 22 55 bb 26 71 73 3e
       0.1236101 -1.0737886 -0.0032522047 0.23773631
0001b0 8b de 3b 3f 96 9d 13 3e 19 8c 8a bf 84 4e a2 be
       0.7338645 0.14415583 -1.0824004 -0.31700528
0001c0 98 b2 82 be 8a 06 f7 3d 60 53 68 3f ff 73 4c 3e
       -0.2552688 0.12061794 0.9075222 0.19966124
0001d0 21 c4 54 bd 58 84 6b 3d cb 1e c7 3e d5 f0 ae be
       -0.051944856 0.05749926 0.3889068 -0.34168115
0001e0 d9 f1 84 bf ef be 23 3b 50 23 7f 3d 89 fa 8e 3e
       -1.0386306 0.0024985631 0.062289536 0.27925518
0001f0 6a 49 94 bd 45 65 97 be 19 07 91 3d 62 63 0c bf
       -0.07240565 -0.2956945 0.07081432 -0.54839146
000200 4d 09 bd bd dd 51 7e 3e c9 84 54 be 22 27 1e 3e
       -0.092302896 0.24835916 -0.20753779 0.15444615
000210 16 8f 97 3e 4b b1 2a 3e 5f d5 17 3d f9 cb 27 be
       0.29601353 0.16669194 0.03706872 -0.16386403
000220 7a f3 a2 3e ef e9 3c 3e 22 9b 8c be 68 b0 2e 3e
       0.31826383 0.18448614 -0.27462107 0.17059481
000230 6c ca 2b 3f 97 0e af bd ea 2e 11 3f 2c 2e 58 bf
       0.67105746 -0.08547705 0.5671221 -0.8444545
000240 ad d4 ba be 6b 07 53 bb a5 9a d4 bd 35 9c d8 3d
       -0.36490384 -0.0032200466 -0.103810586 0.10576669
000250 91 11 2f 3e 66 1d b7 be d9 1f 4b bd a7 22 6e bd
       0.17096545 -0.35764617 -0.04959092 -0.058138516
000260 88 0b 64 bb fe da 11 3f a8 bf bb be 7d 3d 8f bc
       -0.0034796912 0.5697478 -0.3666966 -0.017485375
000270 7b 5b cd be c9 48 81 3e 75 4f 31 3e 7d 0c ca 3e
       -0.40108857 0.25250843 0.17315467 0.39462653
000280 d3 de 96 be 97 49 06 3f 1f 15 98 be 4e 75 9a bc
       -0.29466876 0.5245604 -0.29703614 -0.018854763
000290 ec b1 16 3f 5f d0 d0 bd 94 6e 64 3d e1 98 4c 3f
       0.5886524 -0.10195994 0.055769518 0.79920775
0002a0 18 a2 99 be 32 37 9a bd 4d ed fe 3c c6 a9 2f 3e
       -0.3000648 -0.07530059 0.031119013 0.17154607
0002b0 f8 c3 98 be 09 1c e3 3e ad 6d 8c be 5c 1f 58 bc
       -0.29837012 0.44357327 -0.27427426 -0.01319107
0002c0 3b 59 1b 3c aa 75 53 3d 75 e0 8e 3e aa 24 2b 3d
       0.009481723 0.051625885 0.27905622 0.041783012
0002d0 00 bd f3 bc c4 d4 b0 bd 56 81 80 3d 33 5f 0d be
       -0.029753208 -0.08634332 0.06274669 -0.13805847
0002e0 4f 92 e2 3e 4e 5c 25 be d8 db bf be 81 cc 9f 3e
       0.4425225 -0.16148493 -0.37472415 0.31210712
0002f0 b8 43 81 3d 46 d8 10 bd 88 5a f2 be 67 b9 85 3e
       0.063117445 -0.035362504 -0.47334695 0.26118013
000300 49 6b 84 3e 49 a5 ac 3c 06 1f b1 bd 90 72 b0 bd
       0.25863102 0.021074908 -0.086484954 -0.08615601
000310 40 ae 16 be 7a d5 ef be c5 ae 7b 3e 8c 72 fb be
       -0.14714909 -0.46842557 0.24578388 -0.4911083
000320 59 c9 da 3d 7c 97 82 be 34 cd ed 3e 7f 05 3c 3e
       0.10682935 -0.25506198 0.4644562 0.18361472
000330 8f b4 b7 3e 67 30 2a be e7 bf 35 3f cf cf 30 be
       0.35879943 -0.16620027 0.70995945 -0.17266773
000340 e2 3c 72 3f c6 1c 7c be 0f 90 4d be 01 a7 e7 3e
       0.9462415 -0.24620351 -0.20074485 0.452446
000350 05 c5 d3 3e 90 77 42 bd 9a 3d 96 be 4c 59 41 3e
       0.4136125 -0.047477305 -0.29343873 0.1888172
000360 58 15 d3 bd dc aa 34 3c 6f ab a9 bd 14 ef 21 be
       -0.10306805 0.011027064 -0.082846515 -0.15813857
000370 83 5b 83 be f0 b8 3c bf ca 03 cc 3e fc 86 8c 3f
       -0.25655755 -0.7371969 0.3984664 1.0978694
000380 6a d7 fa bc 5a 02 6e 3e 81 01 30 3f 09 27 18 3f
       -0.030620296 0.23243085 0.68752295 0.5943456
000390 2a 46 79 bf 1f f3 8a 3e 39 52 07 bc 6c e1 a9 3f
       -0.97372687 0.27138612 -0.0082593495 1.3271918
0003a0 60 49 15 be 4c 66 53 3f 2c 78 95 bf b5 5f 31 3e
       -0.14578772 0.8257797 -1.1677299 0.17321666
0003b0 17 b6 3f 3f 09 00 71 bc d4 6e 6f be 0f cb 10 be
       0.7488722 -0.014709481 -0.23382121 -0.1413996
0003c0 3d db 14 bf b0 09 97 bd 89 4f e2 3c 6b 1d c0 be
       -0.5814703 -0.073748946 0.027625816 -0.37522444
0003d0 49 64 d7 be 7b e3 9d 3e 74 31 0d 3f 1c df 31 bf
       -0.420687 0.30837616 0.55153584 -0.6948106
0003e0 67 f7 62 3d da 86 33 be d3 76 a1 bd 72 bb dd be
       0.055411723 -0.1753191 -0.07883992 -0.43307072
0003f0 ab c6 2c 3e 0b e2 aa 3e 4b f7 4e bf 5f 9a d6 bc
       0.16872661 0.33375582 -0.8084609 -0.026196657

stage1.blocks.0.mlp.fc2.bias f4 [12]
000000 cf e3 95 3e 3b 03 55 3e 8a 3b d6 3c 09 d1 b8 bd
       0.29275367 0.20802014 0.026151437 -0.09024245
000010 4c 0a 81 3e c6 f9 25 3e af fc 1d bc 45 8a 0a bd
       0.25203168 0.16208562 -0.009642764 -0.03382327
000020 2c 23 f8 be 79 d6 33 bf e3 2a 14 3e 14 b4 0e 3e
       -0.48464334 -0.70249134 0.14469485 0.13935882

stage1.blocks.1.norm1.weight f4 [12]
000000 4d 14 10 80 35 3d 0e 00 ab 0e 0e 00 e4 85 12 00
       -1.47665e-39 1.307654e-39 1.290959e-39 1.70107e-39
000010 5a 2f 08 3e 85 b2 0d 80 e8 81 0f 80 da 44 05 80
       0.13299313 -1.257902e-39 -1.424134e-39 -4.83877e-40
000020 02 04 cd 3e f3 db 0a 00 8d 36 04 80 e6 e7 02 80
       0.4004212 9.97258e-40 -3.86911e-40 -2.6686e-40

stage1.blocks.1.norm1.bias f4 [12]
000000 2e eb 03 00 ce a3 1b 00 41 10 07 00 d1 6e 18 80
       3.59873e-40 2.53832e-39 6.48679e-40 -2.243805e-39
000010 e5 0b 2d 3c b7 8c 19 00 21 5a 0b 00 df 7c 0e 80
       0.010561918 2.346366e-39 1.042523e-39 -1.330492e-39
000020 7c 14 19 3c 1d ef 17 00 aa 8f 0f 00 41 ce 14 80
       0.009343263 2.197994e-39 1.42907e-39 -1.9107e-39

stage1.blocks.1.attn.conv_proj_q.bn.weight f4 [12]
000000 e0 53 16 80 5b b5 18 80 ae eb 0d 80 3e 4f 17 80
       -2.05047e-39 -2.26911e-39 -1.278407e-39 -2.140643e-39
000010 e2 c6 0c 00 51 3a 09 80 e1 63 07 00 77 44 12 80
       1.173372e-39 -8.4744e-40 6.78678e-40 -1.6776e-39
000020 cf d3 14 80 3a 5e 02 80 e7 d6 16 80 7b da 15 80
       -1.912693e-39 -2.17473e-40 -2.097473e-39 -2.006921e-39

stage1.blocks.1.attn.conv_proj_q.bn.bias f4 [12]
000000 ee 96 15 80 cb 8e 12 80 7c 31 16 00 43 ef 0a 80
       -1.982689e-39 -1.704263e-39 2.038133e-39 -1.004186e-39
000010 93 7b 10 00 3b df 19 00 6e 48 08 00 9b cd 0a 00
       1.513698e-39 2.375967e-39 7.60667e-40 9.92112e-40
000020 7e 91 0c 80 e1 7f 1c 80 d8 7d 10 80 bf 09 19 80
       -1.154219e-39 -2.617268e-39 -1.514512e-39 -2.299384e-39

stage1.blocks.1.attn.conv_proj_q.bn.running_mean f4 [12]
000000 04 00 00 00 04 00 00 80 00 00 00 00 04 00 00 80
       6e-45 -6e-45 0.0 -6e-45
000010 3c 26 00 00 04 00 00 80 01 00 00 80 01 00 00 80
       1.3716e-41 -6e-45 -1e-45 -1e-45
000020 2a 32 01 00 04 00 00 80 03 00 00 00 03 00 00 80
       1.09831e-40 -6e-45 4e-45 -4e-45

stage1.blocks.1.attn.conv_proj_q.bn.running_var f4 [12]
000000 04 00 00 00 04 00 00 00 04 00 00 00 04 00 00 00
       6e-45 6e-45 6e-45 6e-45
000010 04 00 00 00 04 00 00 00 04 00 00 00 04 00 00 00
       6e-45 6e-45 6e-45 6e-45
000020 04 00 00 00 04 00 00 00 04 00 00 00 04 00 00 00
       6e-45 6e-45 6e-45 6e-45

stage1.blocks.1.attn.conv_proj_k.bn.weight f4 [12]
000000 1f d2 19 80 67 84 13 80 3d 40 09 80 10 10 13 00
       -2.371265e-39 -1.792371e-39 -8.49564e-40 1.750637e-39
000010 81 63 14 80 ca 89 0b 00 46 4f 01 00 af e0 16 80
       -1.872405e-39 1.05962e-39 1.20273e-40 -2.100982e-39
000020 0e 6f 19 00 3f 96 13 00 b6 19 19 00 b1 94 18 00
       2.335726e-39 1.798773e-39 2.305111e-39 2.257392e-39

stage1.blocks.1.attn.conv_proj_k.bn.bias f4 [12]
000000 31 91 1a 00 bf fe 17 00 2e 4b 18 00 fe 1e 13 80
       2.439808e-39 2.203602e-39 2.231021e-39 -1.755992e-39
000010 e4 ee 17 80 49 93 18 00 0f 01 15 80 36 2a 17 80
       -2.197914e-39 2.256888e-39 -1.928925e-39 -2.127359e-39
000020 56 64 13 80 ed b0 0c 80 2a 3e 17 80 08 0a 17 80
       -1.780868e-39 -1.165495e-39 -2.134517e-39 -2.115815e-39

stage1.blocks.1.attn.conv_proj_k.bn.running_mean f4 [12]
000000 00 00 00 00 04 00 00 80 03 00 00 80 04 00 00 80
       0.0 -6e-45 -4e-45 -6e-45
000010 2d 08 00 00 04 00 00 80 00 00 00 00 01 00 00 80
       2.933e-42 -6e-45 0.0 -1e-45
000020 8b 37 00 00 04 00 00 00 01 00 00 00 03 00 00 80
       1.9925e-41 6e-45 1e-45 -4e-45

stage1.blocks.1.attn.conv_proj_k.bn.running_var f4 [12]
000000 04 00 00 00 04 00 00 00 04 00 00 00 04 00 00 00
       6e-45 6e-45 6e-45 6e-45
000010 04 00 00 00 04 00 00 00 04 00 00 00 04 00 00 00
       6e-45 6e-45 6e-45 6e-45
000020 04 00 00 00 04 00 00 00 04 00 00 00 04 00 00 00
       6e-45 6e-45 6e-45 6e-45

stage1.blocks.1.attn.conv_proj_v.bn.weight f4 [12]
000000 9f a1 15 00 54 67 11 00 bd dc 15 00 d7 19 0a 00
       1.986524e-39 1.59827e-39 2.007731e-39 9.27625e-40
000010 54 f1 4c 3e c3 f7 03 80 dc 4a 0e 00 d5 2c 0c 00
       0.20013934 -3.64387e-40 1.312551e-39 1.118109e-39
000020 57 c1 1f 3f 57 c8 0b 00 ea 52 06 80 08 3d 07 00
       0.6240439 1.082059e-39 -5.80757e-40 6.64742e-40

stage1.blocks.1.attn.conv_proj_v.bn.bias f4 [12]
000000 65 3a 76 bb 69 a3 b3 ba 16 2a 4d bc cd 16 74 bc
       -0.0037571427 -0.0013705316 -0.012522241 -0.014898014
000010 41 f7 07 3e 8d 65 86 3b 5e 61 48 3c f6 30 e9 bb
       0.13277914 0.0041014613 0.012230245 -0.0071164323
000020 df 9b fb be 5b 0b 19 ba ec 66 cb ba cf ae 25 b9
       -0.49142358 -0.0005838179 -0.0015518344 -0.00015800747

stage1.blocks.1.attn.conv_proj_v.bn.running_mean f4 [12]
000000 04 00 00 80 04 00 00 00 04 00 00 00 04 00 00 80
       -6e-45 6e-45 6e-45 -6e-45
000010 42 36 df 3b 04 00 00 00 04 00 00 80 02 00 00 80
       0.006811888 6e-45 -6e-45 -3e-45
000020 3c f9 cd 3d 04 00 00 00 04 00 00 00 04 00 00 00
       0.10057303 6e-45 6e-45 6e-45

stage1.blocks.1.attn.conv_proj_v.bn.running_var f4 [12]
000000 04 00 00 00 04 00 00 00 04 00 00 00 04 00 00 00
       6e-45 6e-45 6e-45 6e-45
000010 c0 b8 03 3a 04 00 00 00 04 00 00 00 04 00 00 00
       0.00050247833 6e-45 6e-45 6e-45
000020 12 e2 e2 3c 04 00 00 00 04 00 00 00 04 00 00 00
       0.02769569 6e-45 6e-45 6e-45
