ViT/ViT1/2 V train 0.864 V test 0.822 GELU 3/model_bestQ.pt (torch, 414407 bytes, 74 tensors)

pos_embedding f4 [1, 19, 36]
0	0x3fef8918	1.8713713
1	0xc007d021	-2.1220782
2	0xbd9e3a9e	-0.07726024
3	0x3eb7935f	0.35854623
4	0xbf5469d2	-0.8297397
5	0x3df81c74	0.12114802
6	0x3edee918	0.4353721
7	0xbebf08b9	-0.37311342
8	0x3f39a5e4	0.72518754
9	0xbfa31607	-1.2741097
10	0xbf2dd058	-0.6789603
11	0x3fb56534	1.417151
12	0x3f4d1da7	0.8012337
13	0x40076601	2.1156008
14	0x3f5517a6	0.8323921
15	0x3f62eb28	0.8864007
16	0x3f08e47b	0.53473634
17	0xbed6a67f	-0.419239
18	0x3f020d42	0.5080148
19	0x3e808c40	0.25107002
20	0x4003270b	2.049258
21	0x3e40c168	0.18823779
22	0x3fbce7f3	1.4758285
23	0x3ed21026	0.41027945
24	0xbec4ed4f	-0.38462302
25	0xc0186aaa	-2.3815103
26	0xbf24b05a	-0.6433159
27	0x3f89f3c5	1.0777518
28	0x3f159909	0.5843664
29	0x3f52f75b	0.82408684
30	0xbf7198c7	-0.94373745
31	0xbee45592	-0.44596535
32	0x3f27d009	0.6555181
33	0xbe0d8141	-0.13818838
34	0xbf958450	-1.1681004
35	0x3f167a01	0.58779913
36	0xbf07920a	-0.5295721
37	0x3f54f770	0.8319006
38	0x3fd5780c	1.667726
39	0x3e97ba28	0.29634213
40	0x3f336010	0.70068455
41	0xbf53b8ba	-0.82703745
42	0x3eab61d8	0.33473086
43	0xbd8138d3	-0.063096665
44	0x4003e8c7	2.0610826
45	0xbf25b178	-0.6472392
46	0xbf1e7eff	-0.6191253
47	0x3fa7b32c	1.3101554
48	0xbf89d109	-1.0766917
49	0x3f4f450f	0.8096475
50	0xc0170326	-2.3595672
51	0x3f310eee	0.69163406
52	0xbf0f0b4e	-0.55876625
53	0xbfba9149	-1.4575588
54	0x3f0676b8	0.525249
55	0x3ece3102	0.40271765
56	0x3ebb0c12	0.36532646
57	0x3dcd13f6	0.10013573
58	0xbf647322	-0.8923818
59	0xc009ce81	-2.153229
60	0x3e335ec8	0.17516625
61	0xbee2db80	-0.4430809
62	0xbff41e5e	-1.9071767
63	0x3fab284d	1.3371674
64	0xbcb122c9	-0.021623032
65	0xbfd4242b	-1.6573538
66	0x3e65c72a	0.22439256
67	0x3de64399	0.11243362
68	0x3f3bef29	0.73411804
69	0x3fcaca9d	1.5843083
70	0x3fa93216	1.321841
71	0x3fce091a	1.6096528
72	0x3f8600c9	1.046899
73	0xbf44e417	-0.7691054
74	0x3f01da0d	0.50723344
75	0xbf91af45	-1.1381613
76	0xbf86c05a	-1.0527451
77	0x3fcf6dbb	1.6205362
78	0xbf2b9211	-0.67019755
79	0x3f340d85	0.7033313
80	0xbfbdce7e	-1.4828641
81	0x3eb84adf	0.35994622
82	0x3e7bef2e	0.24602959
83	0x3e81d2ec	0.25356233
84	0x3f279cf7	0.65473884
85	0x3f1df8e4	0.617079
86	0xbf49a67d	-0.78769666
87	0x3e99971d	0.29998103
88	0x3fd724be	1.6808088
89	0x3f515070	0.8176336
90	0xbf12c6c6	-0.57334554
91	0x3ec33a7c	0.38130558
92	0xbfd652e6	-1.6744049
93	0x3ed749d7	0.42048523
94	0x3fb27dc7	1.3944634
95	0x3f27da14	0.65567136
96	0xbf5a41e5	-0.852568
97	0xbf589234	-0.8459809
98	0xbf492a39	-0.7858005
99	0x40080b3f	2.1256864
100	0xbe2b3ec0	-0.16723156
101	0xbf5f7ebe	-0.8730277
102	0xbd4b2ffe	-0.049606316
103	0x3f221379	0.6331096
104	0x3f5a2f89	0.8522878
105	0xbef8fd0c	-0.4863056
106	0x3e8a8d58	0.27060962
107	0x3e7550c9	0.23956598
108	0xbf8c279b	-1.0949587
109	0x3f1001a2	0.5625249
110	0x3d9a63cb	0.07538565
111	0x3e7cf86a	0.24704137
112	0xbeb9a91e	-0.3626184
113	0xbeb38689	-0.3506358
114	0xbf59f2ed	-0.851363
115	0x3f4764be	0.77888095
116	0xbe7d8b28	-0.24760115
117	0x3f423a69	0.75870377
118	0xbf888ae0	-1.0667381
119	0x3f582c7c	0.8444288
120	0x3f8c4d69	1.0961124
121	0xbf27bd20	-0.65522957
122	0x3fa9e98e	1.32744
123	0x3f73f412	0.95294297
124	0xbed6c292	-0.4194532
125	0xc010e8c0	-2.264206
126	0xbfb85c2d	-1.440313
127	0x3f24c0b6	0.64356554
128	0xbff7e901	-1.9367982
129	0x3f25e586	0.6480335
130	0xbf8a3e36	-1.0800235
131	0x3f8367fd	1.026611
132	0x3fbc9d1c	1.4735446
133	0x3fc0258d	1.501146
134	0xbf39e4e2	-0.7261487
135	0x3f176b87	0.5914845
136	0xbbf7ce59	-0.0075624404
137	0x3ea2687c	0.3172034
138	0xbf945419	-1.1588165
139	0x3f61582f	0.8802518
140	0x3dd2c21b	0.10290929
141	0xbce25b36	-0.027631383
142	0xbfd628fe	-1.673126
143	0xbe3e966a	-0.18612066
144	0xbf35c742	-0.7100717
145	0xbde7c4db	-0.11316844
146	0xbd601ee5	-0.054716963
147	0xbf7f73e3	-0.99786204
148	0x3f5967c9	0.8492399
149	0xbf922650	-1.1417942
150	0xbe96fd19	-0.29489973
151	0xbf6e1ba8	-0.9301095
152	0x3f1a0eaa	0.60178626
153	0x3f0db970	0.5536108
154	0x3f0d73e1	0.5525494
155	0x3ef972bc	0.48720348
156	0xbe53bcc4	-0.20677477
157	0x3f4c7fd6	0.7988256
158	0x3db1fcc2	0.08690788
159	0xbe748cd2	-0.23881844
160	0x3d3ca8db	0.04605947
161	0x3f4f8e0f	0.8107614
162	0xbef5ba18	-0.4799354
163	0x3f5e1238	0.8674655
164	0x3e94e73c	0.29082668
165	0x3f6cd7bd	0.9251669
166	0xbf117f4e	-0.56834877
167	0xbfa6533f	-1.2994155
168	0x3ecde814	0.40216124
169	0x3f7b4786	0.9815601
170	0x3f237908	0.63856554
171	0x3ed878fa	0.42279798
172	0x3f9a923c	1.2075877
173	0x3fc32726	1.5246322
174	0xbf594f79	-0.8488689
175	0xbf1157c0	-0.5677452
176	0xbfb8ee26	-1.4447677
177	0xbf846a65	-1.0344969
178	0x3e03059a	0.12795106
179	0x3f30e502	0.6909944
180	0x3f945fbf	1.1591719
181	0xbfa036d3	-1.2516731
182	0xbf34dab8	-0.7064624
183	0x40180ab3	2.375653
184	0x3ecc0b3e	0.39852327
185	0x3fd841e3	1.6895107
186	0x3f92e3e5	1.1475798
187	0xbfa1c335	-1.2637697
188	0xbe3795a3	-0.17928176
189	0xbf4df5df	-0.80453295
190	0x3e9f710d	0.31140938
191	0xbeaffcfc	-0.343727
192	0xbe6e7ebe	-0.23290536
193	0xc00eb786	-2.2299514
194	0x3f0e148c	0.555001
195	0x3f4d295f	0.8014125
196	0x3f86107d	1.0473782
197	0xbf34fe00	-0.70700073
198	0xbf467e8d	-0.7753685
199	0x3e8c84a7	0.27444956
200	0xc01f5083	-2.489289
201	0x3f4e5fc9	0.80614907
202	0xbda4b301	-0.08041955
203	0x3f52f53e	0.8240546
204	0xbef040eb	-0.46924528
205	0x3f05d242	0.5227395
206	0x3d0229a1	0.03177798
207	0xbf1e4c7e	-0.6183547
208	0x3fc4e582	1.538254
209	0xbe407f59	-0.1879858
210	0xbfad475f	-1.3537406
211	0x3f9195dd	1.137386
212	0xbf905904	-1.1277165
213	0x3f8dc740	1.1076431
214	0x3ecdf358	0.4022472
215	0x3fabaf69	1.3412906
216	0xc04c1068	-3.1885014
217	0x3f9c9281	1.223221
218	0x3f3ac658	0.729589
219	0x3f6222f8	0.8833461
220	0x3e660f2c	0.22466725
221	0x3fa5b1bc	1.2944865
222	0x3eff14f8	0.49820685
223	0x3dbf4aa5	0.09340409
224	0x3e9beddd	0.30454913
225	0x3f9fc979	1.248336
226	0x3e897643	0.2684804
227	0xbd0a2a97	-0.033732023
228	0xbf18733c	-0.59550834
229	0xbdc177e3	-0.09446695
230	0xbf889f49	-1.067361
231	0x3e956bbf	0.29183766
232	0x3f0a915d	0.54128057
233	0xbe94efc1	-0.29089168
234	0x3e6fe374	0.2342661
235	0xbd224287	-0.039614227
236	0x3dbd4f3e	0.0924363
237	0xbf4ce19b	-0.80031747
238	0x3f6ef05d	0.93335515
239	0xbff11997	-1.8835934
240	0x3f80decf	1.0067996
241	0x3f92d071	1.1469861
242	0x3f8b254f	1.0870761
243	0xbdd776bd	-0.105206944
244	0x3e2b9c3f	0.16758822
245	0x3df4d906	0.119554564
246	0xbef41565	-0.47672573
247	0xc01104aa	-2.2659097
248	0x3f500cc4	0.8126948
249	0x3f054443	0.52057284
250	0xbf12acb1	-0.57294756
251	0x3e6c43df	0.23072766
252	0xbf67b0bc	-0.9050405
253	0x3e9ef0fe	0.31043237
254	0x3f21d0e9	0.63209397
255	0xbe1d9063	-0.1538711

cls_token f4 [1, 1, 36]
0	0x3e3674eb	0.17818038
1	0x3f833f4d	1.0253693
2	0xbf7dc5eb	-0.99130124
3	0xbfa1e858	-1.2649031
4	0xbf9b6b00	-1.2142029
5	0xbfa3d7f9	-1.2800285
6	0x3fc388de	1.5276144
7	0xbfa69e75	-1.3017107
8	0xbfb1f057	-1.3901471
9	0x3db3744e	0.08762418
10	0xbdfa6719	-0.122266956
11	0x3f3ffe3e	0.7499732
12	0xbf34ca1e	-0.70620906
13	0x3e512b52	0.20426682
14	0x3d2e5e33	0.042570304
15	0xbf6834c8	-0.9070554
16	0x3cc9225c	0.024552517
17	0x3f2aaa15	0.66665775
18	0x3edff4c1	0.4374142
19	0x3e415618	0.18880498
20	0xbef05b25	-0.46944538
21	0xbf45285c	-0.7701471
22	0x3efbe27a	0.49196225
23	0x3dfbd6de	0.12296842
24	0x3f3a8fb8	0.7287555
25	0x3f8c03cb	1.0938658
26	0xbeba65f5	-0.36405912
27	0x3fa4ac7b	1.2865137
28	0xbe4cd0d4	-0.20001537
29	0xbfa1ddd4	-1.2645822
30	0xbe0ea618	-0.13930547
31	0x3f9d4fa2	1.2289927
32	0xbf26ee6a	-0.6520754
33	0xbf9615a0	-1.172535
34	0xbfac1b3b	-1.344581
35	0xbf8df339	-1.1089851

to_patch_embedding.1.weight f4 [36, 12]
0	0x3dbcaa91	0.092122205
1	0x3d36556e	0.044515066
2	0xbcf45144	-0.029823907
3	0x3d44eb18	0.048075765
4	0xbe4ce595	-0.20009454
5	0xbc2da583	-0.010598543
6	0xbe861176	-0.26185197
7	0xbca0dd9e	-0.019636925
8	0x3dba16f0	0.09086406
9	0x3e1cac7a	0.1530017
10	0x3ddee15c	0.10882828
11	0x3e80f397	0.25185844
12	0xbe0e21b2	-0.13880041
13	0xb8095fbf	-3.2752516e-05
14	0xbd1c36b2	-0.0381381
15	0x3e06bd05	0.13158043
16	0xbe2fd906	-0.17172632
17	0xbd677278	-0.05650565
18	0xbd96f708	-0.07371336
19	0xbe58f991	-0.21188952
20	0x3e8ebff3	0.2788082
21	0x3cec9fb5	0.028884748
22	0x3e2bcfbb	0.16778462
23	0xbe503f57	-0.20336662
24	0x3d353c1d	0.04424678
25	0x3e552b9f	0.20817421
26	0x3d2d01a6	0.0422379
27	0xbd3822b4	-0.04495497
28	0x3e08a42a	0.13343874
29	0xbeb6199d	-0.35566416
30	0x3e46e831	0.19424511
31	0xbc8dad64	-0.017294593
32	0xbe406770	-0.18789458
33	0xbe0c57fe	-0.13705441
34	0xbd852ec9	-0.06503064
35	0xbea04bc5	-0.31307808
36	0x3e6b801e	0.22998092
37	0x3cb85255	0.022500196
38	0x3e057311	0.13032176
39	0x3ca5ec48	0.02025427
40	0xbd8adfb3	-0.067809485
41	0xbaf2d62a	-0.0018526961
42	0x3e86e658	0.26347613
43	0xbdeb6b35	-0.114950575
44	0x3d7df2b0	0.061999023
45	0x3e561f33	0.20910339
46	0x3ce0f746	0.02746166
47	0x3e098612	0.1343005
48	0xbdf27362	-0.11838414
49	0xbe0974f1	-0.13423516
50	0x3e8343cd	0.25637665
51	0x3b1fb096	0.0024366728
52	0x3e29ec7e	0.16594121
53	0x3dc8b823	0.09800746
54	0x3d7c6024	0.061615124
55	0x3e8bda5b	0.2731503
56	0x3e9222fa	0.2854231
57	0xbdc95d14	-0.09832206
58	0xbd86cfa7	-0.06582575
59	0x3e743045	0.23846538
60	0xbde2ebe0	-0.11080146
61	0xbddf9090	-0.10916245
62	0xbe825212	-0.2545324
63	0x3e87a221	0.26490882
64	0xbcbe436d	-0.02322551
65	0x3e687756	0.22701773
66	0x3d8ff02a	0.070282295
67	0x3e5156ca	0.20443264
68	0xbe5c196b	-0.21494071
69	0xbd2768b5	-0.04087134
70	0x3e445aa3	0.191752
71	0xbea19b86	-0.31563967
72	0xbcadfb71	-0.02123806
73	0x3ddcc91f	0.10780548
74	0x3e1a1211	0.15045954
75	0xbd5f7b90	-0.054561198
76	0xbdbac313	-0.09119239
77	0x3e047e4a	0.129388
78	0x3e339777	0.17538248
79	0x3e829ede	0.2551183
80	0x3e4c37f4	0.1994322
81	0xbd5c3cfa	-0.05376909
82	0x3d003f03	0.031310093
83	0x3e5633d6	0.20918211
84	0x3dbb44c9	0.09143979
85	0xbe009b41	-0.12559225
86	0xbe8d965f	-0.27653787
87	0xbd8107db	-0.063003264
88	0xbe7527e8	-0.23941004
89	0x3ceda57e	0.029009577
90	0x3cf44b00	0.029820919
91	0xbd953a9d	-0.0728657
92	0x3cbfd911	0.023418935
93	0x3d79ad8b	0.06095652
94	0x3e718a77	0.23587976
95	0xbcc84c44	-0.024450429
96	0x3d319270	0.043352544
97	0x3e108147	0.14111815
98	0x3d9f94d0	0.077920556
99	0x3e750124	0.23926216
100	0xbd8bd8dc	-0.06828472
101	0xbe543bb6	-0.20725903
102	0xbe05166e	-0.12996837
103	0xbd08293d	-0.033242453
104	0xbe831ac4	-0.25606358
105	0x3cc53041	0.02407086
106	0x3e4f7198	0.20258176
107	0xbdd47271	-0.103733905
108	0x3e8d19fd	0.2755889
109	0xbe680577	-0.22658335
110	0x3c05d319	0.008168005
111	0x3e3473bc	0.17622274
112	0x3cb7d563	0.022440618
113	0x3e17ef8c	0.14837474
114	0x3e438e02	0.1909714
115	0xbd25c130	-0.04046744
116	0x3e248fd0	0.16070485
117	0x3e666146	0.22498044
118	0xbe62e274	-0.22156698
119	0xbe5570b4	-0.20843774
120	0x3e36b155	0.17841084
121	0x3dccbbf7	0.09996789
122	0xbe4096b0	-0.18807483
123	0x3d260e2d	0.040540863
124	0xbcbf2ce7	-0.02333684
125	0x3e332ed0	0.17498326
126	0xbd19e9d4	-0.03757651
127	0xbbba527d	-0.005686103
128	0xbe50989e	-0.20370719
129	0xbd3f4995	-0.046701033
130	0xbe1d2bfb	-0.15348808
131	0xbe54a68a	-0.20766655
132	0x3e5f8ec9	0.21831812
133	0x3e65f3d5	0.22456296
134	0xbe0bb56c	-0.13643426
135	0x3ced3d6f	0.028959958
136	0x3d1fa352	0.038974114
137	0x3e83a158	0.25709033
138	0x3e85b41e	0.2611398
139	0x3db97ff3	0.090576075
140	0xbdaa9b38	-0.08330387
141	0xbe4e33e7	-0.20136987
142	0xbdcb1a44	-0.09917119
143	0xbe9501d2	-0.2910295
144	0x3dd0a7f9	0.10188288
145	0x3db26500	0.087106705
146	0x3dfe04c5	0.124032535
147	0x3dcc8687	0.099865966
148	0xbe13742f	-0.1439979
149	0xbd9ef678	-0.07761854
150	0x3e5de6ca	0.2167007
151	0x3e67c7ce	0.22634813
152	0xbe0929b0	-0.13394809
153	0x3e3a48e8	0.18191874
154	0xbe4d839b	-0.20069735
155	0xbda44d85	-0.08022598
156	0x3d20c579	0.039250825
157	0xbe3fb672	-0.18721941
158	0xbe3673ef	-0.17817663
159	0xbdbecaa3	-0.09315994
160	0xbe28b336	-0.16474614
161	0xbd72c903	-0.05927373
162	0xbe86d302	-0.2633286
163	0x3e2eec7b	0.17082398
164	0xbe039c1f	-0.12852524
165	0xbe62b174	-0.22138005
166	0x3cc3075d	0.023807222
167	0x3cf55073	0.029945588
168	0xbe3d421a	-0.18482247
169	0xbd1cfab6	-0.038325034
170	0xbe058611	-0.13039424
171	0xbe21b6be	-0.15792367
172	0x3dd2259d	0.102610804
173	0xba3fa6a7	-0.0007310905
174	0x3e85ed6d	0.26157704
175	0xbe3c4d0d	-0.18388768
176	0x3e124749	0.14285006
177	0x3e2126d3	0.15737467
178	0xbe3e1658	-0.18563211
179	0x3d6141cf	0.0549944
180	0x3e07b93c	0.13254255
181	0x3dcb3f65	0.09924201
182	0x3e0bfd15	0.13670762
183	0xbdb11e45	-0.086483516
184	0xbe46981e	-0.19393966
185	0xbe901a06	-0.28144854
186	0xbe84477b	-0.25835785
187	0xbcfccc4f	-0.03085914
188	0xb9dd428d	-0.0004220199
189	0xbeaf9e1f	-0.34300324
190	0xbe1bb8eb	-0.1520726
191	0x3da8ca9d	0.082417704
192	0x3d93f989	0.072253294
193	0x3e4eccf2	0.20195368
194	0xbe6791b6	-0.22614178
195	0xbe3dc2fe	-0.18531415
196	0xbcfd17b9	-0.0308951
197	0xbc132b97	-0.008982561
198	0x3dfc803c	0.12329146
199	0x3d1ce0ae	0.03830021
200	0xbe90f029	-0.28308228
201	0x3e5b1575	0.21394904
202	0x3e6518cf	0.22372745
203	0x3e62bed2	0.22143105
204	0x3e01c032	0.12670973
205	0x3e382971	0.17984559
206	0xbe481900	-0.19540787
207	0xbdd11853	-0.102097176
208	0x3d8f35e9	0.069927044
209	0x3dc7cf62	0.09756352
210	0x3e1b66e8	0.15175974
211	0xbe0ff4b8	-0.14058197
212	0x3e88bfa9	0.26708725
213	0xbe0636c4	-0.13106829
214	0xbdc3e7ba	-0.09565683
215	0xbdb34e32	-0.08755149
216	0xbd2f480d	-0.042793322
217	0x3ca7a2d1	0.02046338
218	0x3c779072	0.015110122
219	0xbe0a9d46	-0.13536558
220	0xbe2c58b4	-0.16830713
221	0xbdfdd3b0	-0.12393892
222	0xbd9ca313	-0.076482914
223	0xbd9dcd1c	-0.07705137
224	0xbde3cf8b	-0.1112357
225	0x3e806adb	0.25081524
226	0xbd198640	-0.037481546
227	0xbdfd0df0	-0.12356174
228	0xbddcadd1	-0.1077534
229	0x3e52cd2e	0.20586082
230	0xbe336fab	-0.17523067
231	0x3e2b149b	0.16707079
232	0xbdbaae35	-0.091152586
233	0xbe05eb61	-0.13078071
234	0xbd1a7ea3	-0.037718426
235	0xbe766297	-0.24061047
236	0x3d3c990c	0.046044394
237	0xbba8c0c8	-0.0051499344
238	0xbcd43cd5	-0.025907913
239	0x3e6b005d	0.22949357
240	0x3d87eb73	0.06636705
241	0xbc25296b	-0.010080676
242	0xbd2cdf19	-0.04220495
243	0xbda3207f	-0.079651825
244	0xbd2352d7	-0.039873924
245	0x3cdb8b69	0.026799874
246	0xbea093bd	-0.31362715
247	0x3e2fbc93	0.17161779
248	0x3d92cff7	0.071685724
249	0x3da9c19d	0.08288882
250	0xbe0e72d3	-0.1391099
251	0xbe3edaba	-0.18638125
252	0x3e14c54d	0.1452839
253	0x3e45fdcb	0.19335096
254	0x3e29892a	0.1655623
255	0x3de6cf71	0.11270035

to_patch_embedding.1.bias f4 [36]
0	0xbe5896a7	-0.2115122
1	0x3d62c27f	0.055361267
2	0xbe8b8682	-0.2725106
3	0x3e0fe5b6	0.14052472
4	0x3e4c1109	0.19928373
5	0x3df7bbee	0.120963916
6	0xbe8ca2bc	-0.27467906
7	0x3e665a9e	0.22495505
8	0xbdb1344a	-0.086525515
9	0xbe655c72	-0.22398546
10	0x3e1f5664	0.15560299
11	0xbd49ac2b	-0.049236458
12	0xbe9ca296	-0.30592793
13	0xbda10dca	-0.07863958
14	0x3e2be9f5	0.16788466
15	0xbc4838ec	-0.0122206025
16	0x3e52078e	0.20510694
17	0xbdcf30af	-0.101167075
18	0x3e8f535c	0.27993286
19	0x3d92fbc0	0.07176924
20	0x3e863ace	0.2621674
21	0x3e321b34	0.1739319
22	0x3be76e4c	0.007062709
23	0xbe864233	-0.2622238
24	0xbe5be133	-0.21472625
25	0x3dc22bb2	0.094809905
26	0x3e82d61c	0.25553977
27	0x3e94d58c	0.29069173
28	0x3dbd212d	0.092348434
29	0xbe39d16e	-0.18146297
30	0x3d5741c9	0.052552972
31	0x3e4e9932	0.20175627
32	0xbcc9930f	-0.024606256
33	0xbda3d509	-0.079996176
34	0x3e340826	0.17581233
35	0x3d64b1c3	0.05583359

transformer.layers.0.0.norm.weight f4 [36]
0	0x3f84b6a1	1.0368234
1	0x3f857bcf	1.0428408
2	0x3f836225	1.0264326
3	0x3f82a488	1.0206461
4	0x3f8381bd	1.0273968
5	0x3f8429f5	1.0325304
6	0x3f82cad7	1.0218152
7	0x3f889505	1.0670477
8	0x3f85b273	1.0445083
9	0x3f860236	1.0469425
10	0x3f81e818	1.0148954
11	0x3f844dfd	1.03363
12	0x3f822f68	1.0170717
13	0x3f82888d	1.0197922
14	0x3f86652c	1.0499625
15	0x3f82d1ab	1.0220236
16	0x3f85c9aa	1.0452168
17	0x3f82431a	1.0176728
18	0x3f855ab3	1.0418304
19	0x3f81a4ea	1.0128453
20	0x3f84c9f1	1.0374128
21	0x3f82fbe9	1.0233127
22	0x3f85ac2b	1.0443166
23	0x3f8455cc	1.0338683
24	0x3f82cdb8	1.021903
25	0x3f842ae7	1.0325593
26	0x3f826bd7	1.018916
27	0x3f85a1a7	1.0439957
28	0x3f7f5dbd	0.9975241
29	0x3f857588	1.0426493
30	0x3f860025	1.0468794
31	0x3f856c00	1.0423584
32	0x3f849e5a	1.0360825
33	0x3f864698	1.0490294
34	0x3f843db7	1.0331334
35	0x3f8243dd	1.017696

transformer.layers.0.0.norm.bias f4 [36]
0	0xbc23a87d	-0.009988901
1	0xbc18dbf8	-0.009329788
2	0xbc9f171d	-0.019420201
3	0x3b06d8bc	0.002057596
4	0x3bea6326	0.0071529327
5	0xbb9df486	-0.004820409
6	0xb9d80958	-0.00041205692
7	0x3a0ada12	0.0005296777
8	0xbc1d1b11	-0.009588973
9	0x3bdf9721	0.006823436
10	0xbc43c877	-0.01194965
11	0xbb33accd	-0.002741623
12	0xbb526f94	-0.0032109963
13	0xbb14b925	-0.0022693363
14	0x3b5f8f66	0.0034112572
15	0x3be20ad7	0.006898265
16	0x3c652d7b	0.013987894
17	0xbab1fca5	-0.0013579322
18	0xbb41ce18	-0.0029572304
19	0x3c51522e	0.012775941
20	0xbcd11aee	-0.025525536
21	0xbc2860cb	-0.0102769835
22	0x3c85acd8	0.01631777
23	0xbc9ef54a	-0.019404072
24	0x3ae22c4d	0.0017255634
25	0xbc07212b	-0.008247654
26	0xbc081a68	-0.008307077
27	0x3c177765	0.0092447745
28	0xbbba67ff	-0.005688667
29	0x3b6a2d6a	0.0035732635
30	0xbbaf77c6	-0.0053548543
31	0xbb2b926d	-0.0026179806
32	0x3c2ef44c	0.010678362
33	0x3aac8072	0.0013160838
34	0x3c25dc98	0.010123394
35	0xbcc42ad0	-0.023946196

transformer.layers.0.0.fn.to_qkv.weight f4 [216, 36]
0	0xbe2b329b	-0.16718523
1	0xbca2dc5b	-0.019880464
2	0xbd15a6c6	-0.036536
3	0xbc777972	-0.015104638
4	0x3e1b374e	0.15157816
5	0xbd6137e8	-0.054984957
6	0x3d80324c	0.06259593
7	0xbd48a75f	-0.048987743
8	0xbd226191	-0.039643828
9	0xbc7ed1ba	-0.015552932
10	0xbd45ae7c	-0.048262104
11	0x3df8a0d4	0.121400505
12	0x3d659096	0.05604609
13	0xbde04644	-0.10950902
14	0xbd9d2293	-0.0767261
15	0x3e031e2e	0.12804481
16	0xbd5f4cc4	-0.05451657
17	0x3dba0367	0.0908268
18	0x3cbdf3ab	0.023187479
19	0xbe4f1f28	-0.20226729
20	0xbd408e2d	-0.04701059
21	0x3df2477e	0.11830042
22	0xbda0421d	-0.0782511
23	0xbdd3a9d3	-0.10335126
24	0x3c91dcea	0.017805535
25	0x3da2f562	0.07956959
26	0x3e34fe3e	0.1767511
27	0xbdcbb97d	-0.099474885
28	0xbe00f54a	-0.1259357
29	0xbd4cdb0a	-0.05001358
30	0x3d6bf421	0.057605866
31	0xbca666a1	-0.02031261
32	0x3e1aff31	0.1513641
33	0x3d36716f	0.044541772
34	0x3df214ba	0.118203595
35	0xbdd298ff	-0.10283088
36	0xbdb7b670	-0.08970344
37	0x3e1c4dc9	0.15264048
38	0xbd8ee0b8	-0.069764555
39	0xbe0339d7	-0.12815033
40	0xbd3d0ddc	-0.046155795
41	0x3deff5fa	0.11716838
42	0x3da38167	0.07983666
43	0x3d9f3385	0.077734984
44	0xbdf46ab0	-0.119344115
45	0xbdff78a1	-0.1247418
46	0x3e000db7	0.12505232
47	0xbc035a5c	-0.008017149
48	0xbd659eac	-0.056059524
49	0x3d9dd723	0.0770705
50	0x3e0714b9	0.13191499
51	0x3e478d20	0.19487429
52	0x3ddb4a8d	0.10707579
53	0xbcbb3a5a	-0.022854973
54	0x3dbfd740	0.093672276
55	0x3e416b44	0.18888575
56	0xbe18a593	-0.14906912
57	0x3e415981	0.188818
58	0x3d5f7221	0.0545522
59	0x3cc08805	0.02350236
60	0xbdfd99ac	-0.12382826
61	0xbdf4c4b2	-0.11951579
62	0x3d42d56a	0.04756681
63	0x3dfaa5f5	0.12238685
64	0x3cdae99c	0.026722722
65	0x3da5ab19	0.08089275
66	0xbe233432	-0.1593788
67	0xbdb27810	-0.08714306
68	0xbd31476d	-0.043281008
69	0x3d01f08c	0.031723544
70	0xbdb71c7f	-0.08940982
71	0xbd69c9db	-0.05707727
72	0x3e1fcaaa	0.15604654
73	0xbdc36567	-0.09540825
74	0x3d9b0c0c	0.07570657
75	0xbad77967	-0.0016439379
76	0xbe10e468	-0.1414963
77	0x3dd1ada1	0.10238195
78	0x3d66d6e4	0.05635728
79	0xbe28d68b	-0.16488092
80	0x3c04ac7f	0.008097767
81	0xbc24bc58	-0.01005467
82	0xbd00d27b	-0.03145073
83	0x3e133771	0.14376618
84	0xbe098f53	-0.1343358
85	0xbd4ac5d9	-0.04950509
86	0x3e548d1b	0.20756952
87	0x3e1482fa	0.14503089
88	0x3e1362ca	0.14393154
89	0x3e29384d	0.16525383
90	0x3cb4ba4a	0.022061486
91	0xbb0c0d49	-0.0021370223
92	0xbdac8669	-0.08424074
93	0x3d9ebee7	0.077512555
94	0x3d8857f2	0.06657399
95	0x3e04dd47	0.12975036
96	0x3c4e0656	0.012574753
97	0xbe3604fd	-0.1777534
98	0xbe21e407	-0.15809642
99	0x3e4535c9	0.19258799
100	0xbe19df97	-0.15026699
101	0xbd00d7d8	-0.031455845
102	0xbd98000a	-0.074218825
103	0xbdc7d52d	-0.09757457
104	0x3c46069f	0.0120865395
105	0xbe4b5644	-0.19857126
106	0xbcb4716c	-0.02202674
107	0x3a22fdbb	0.00062176184
108	0xbcd1184b	-0.02552428
109	0xbdf8e17e	-0.12152384
110	0xbde6bea7	-0.11266833
111	0x3e47b630	0.19503093
112	0xbdd16060	-0.1022346
113	0x3e01e868	0.12686312
114	0xbdbf825e	-0.093510374
115	0x3e21d5dc	0.15804237
116	0xbe2b7057	-0.16742073
117	0x3d49c987	0.049264457
118	0xbd8d4454	-0.06897798
119	0xbda18129	-0.078859635
120	0xbc8c011f	-0.017090378
121	0xbe4769aa	-0.19473901
122	0xbe19f378	-0.15034282
123	0xbd96d67e	-0.0736513
124	0xbca59424	-0.02021224
125	0x3e089a7a	0.13340178
126	0xbdefd72d	-0.117109634
127	0xbe737830	-0.23776317
128	0x3b44eb08	0.0030047316
129	0xbc13c6a1	-0.009019525
130	0x3da9695a	0.08272047
131	0x3e0fa59f	0.14028023
132	0xbcf884a3	-0.030336684
133	0x3e210262	0.15723565
134	0x3df3b8f8	0.11900514
135	0x3dc2d4e6	0.095132634
136	0x3d40a739	0.047034476
137	0x3d4ab48e	0.049488597
138	0x3d78b5ad	0.060720135
139	0x3d8954cf	0.06705629
140	0xbd707582	-0.058705814
141	0x3e073503	0.13203816
142	0xbda629e6	-0.0811346
143	0x3d9c3245	0.07626776
144	0x3d530975	0.05152269
145	0x3db12c9a	0.08651085
146	0x3dc0e9d6	0.09419601
147	0xbdacfee9	-0.08447058
148	0x3d9c1e70	0.07622993
149	0xbdc83a91	-0.09776796
150	0xbe0bf1d1	-0.13666464
151	0xbdf4ef42	-0.11959697
152	0xbca95e6c	-0.020674907
153	0x3e1bdd6e	0.15221187
154	0x3d9d158e	0.07670127
155	0xbcff64a1	-0.031175913
156	0xbd39bd65	-0.045346636
157	0xbd2b502a	-0.041824497
158	0x3d7f3b11	0.06231219
159	0xbda0c2c3	-0.07849648
160	0xbe20dace	-0.15708467
161	0x3c6f80c2	0.014618101
162	0x3d9f3d8d	0.07775412
163	0x3dca6f4b	0.09884509
164	0x3e04da9a	0.12974015
165	0xbe178d4d	-0.14799996
166	0x3b9a4c6f	0.0047088186
167	0xbd4db201	-0.050218586
168	0xbd62ebf9	-0.055400822
169	0x3de43b9b	0.11144181
170	0x3bb23075	0.0054379054
171	0x3b9406b2	0.0045173997
172	0xbdfa36b8	-0.12217468
173	0x3db62383	0.08893492
174	0x3e2906d6	0.16506514
175	0x3d7d6d42	0.061871774
176	0xbdf3887e	-0.11891268
177	0x3df083cf	0.117438905
178	0x3bb34e42	0.0054719755
179	0xbddc43ee	-0.10755144
180	0xbce72a20	-0.028218329
181	0xbe02f967	-0.12790452
182	0x3e1a95df	0.15096234
183	0x3dc7b20d	0.09750757
184	0xbddabe61	-0.10680843
185	0x3b116259	0.0022183864
186	0xbc801930	-0.01563701
187	0x3d3efea5	0.046629567
188	0xbc161ea3	-0.009162578
189	0x3d4630dd	0.048386443
190	0xbb173763	-0.0023073785
191	0x3b387489	0.0028145632
192	0x3e157027	0.14593564
193	0xbda2ff0a	-0.07958801
194	0xbdc87b49	-0.0978914
195	0xbdca062a	-0.09864457
196	0x3df4c636	0.11951868
197	0xbe27b5cb	-0.16377942
198	0x3da4141b	0.08011647
199	0xbe362967	-0.17789231
200	0x3d4b853f	0.04968762
201	0xbe07a43a	-0.13246241
202	0xbdedbd00	-0.116083145
203	0x3da2d8f3	0.07951536
204	0x3c5d0d41	0.0134919295
205	0x3d9425d0	0.07233775
206	0x3dd582e2	0.104253545
207	0x3d338703	0.04382993
208	0xbd380f93	-0.044936728
209	0xbb119099	-0.002221143
210	0xbcb7a3b6	-0.02241693
211	0xbe29e41b	-0.16590922
212	0x3e038767	0.1284462
213	0x3e154d36	0.14580235
214	0xbdcdf5eb	-0.10056671
215	0xbdbb9f05	-0.0916119
216	0x3dabf3a7	0.08396082
217	0xbe0eae57	-0.13933693
218	0xbddab1a7	-0.10678416
219	0xbd9c96c6	-0.07645945
220	0xbd9c4a59	-0.07631368
221	0x3da16b22	0.07881762
222	0xbc8dcfa2	-0.017310921
223	0x3d80c57d	0.06287668
224	0x3e0631ff	0.1310501
225	0xbce24b73	-0.027623868
226	0x3e0c7ee0	0.13720274
227	0xbcce1669	-0.02515717
228	0x3e2fc75b	0.17165892
229	0x3ddbb359	0.10727567
230	0xbcc1a461	-0.023637952
231	0xbd8367a8	-0.06416255
232	0xbdbed6c7	-0.09318309
233	0xbbdad5aa	-0.006678303
234	0x3df86f38	0.12130588
235	0x3b78adc4	0.003794537
236	0x3cb66a93	0.022267615
237	0x3d74a740	0.059729815
238	0xbb9f3afd	-0.004859327
239	0x3ce03db6	0.027373176
240	0xbe1fc36c	-0.15601891
241	0x3e286e2a	0.16448274
242	0x3db893db	0.09012576
243	0xbcd36bda	-0.025808264
244	0x3d0ba356	0.034091316
245	0x3e20fbea	0.15721098
246	0xbe02d21b	-0.12775461
247	0x3d310da1	0.04322589
248	0xbb3bdf38	-0.0028666984
249	0x3ddfb6d1	0.10923541
250	0x3e03ac84	0.12858778
251	0xbd96b7a7	-0.07359248
252	0x3dd7dd12	0.10540213
253	0xbe1a2248	-0.1505214
254	0xbdaf4f7b	-0.085600816
255	0xbd62299c	-0.055215463

transformer.layers.0.0.fn.to_out.0.weight f4 [36, 72]
0	0x3d618dc7	0.05506685
1	0xbca41f4a	-0.020034451
2	0xbcea1177	-0.028572781
3	0xbc4c68ef	-0.01247619
4	0x3d5cd0ed	0.053910185
5	0xbd1bef8f	-0.038070258
6	0x3de39f00	0.11114311
7	0x3d6290dd	0.055313934
8	0xbd825499	-0.06363792
9	0xbd37c815	-0.044868547
10	0x3d671945	0.056420583
11	0x3d8a91ae	0.067660674
12	0x3c9a8950	0.018864304
13	0xbd8e9550	-0.06962073
14	0xbcb31b44	-0.021863587
15	0xbdd373d6	-0.10324828
16	0x3c3f6e14	0.0116839595
17	0xbd5bd1ad	-0.05366676
18	0xbdd6ce26	-0.104885384
19	0x3d731385	0.059344787
20	0x3deaaac3	0.114583515
21	0xbd194028	-0.0374147
22	0x3cba6e25	0.0227576
23	0xbcedf372	-0.029046748
24	0x3d82a499	0.06379051
25	0x3cd3ac4b	0.025838992
26	0xbd47a943	-0.048745405
27	0x3d3b32a8	0.045702606
28	0xbd6af1b5	-0.057359416
29	0x3e12179f	0.14266823
30	0x3dc08c46	0.09401755
31	0xbdb554dd	-0.08854077
32	0xbe079a3b	-0.13242428
33	0x3d5ebf76	0.05438181
34	0xbdbfcce2	-0.0936525
35	0xbbb9fcd4	-0.0056758914
36	0x3dcac3e4	0.099006444
37	0xbcd3788c	-0.025814317
38	0xbcc810b8	-0.024422035
39	0xbbb55405	-0.0055336975
40	0xbdb723ed	-0.08942399
41	0x3d1921e8	0.03738585
42	0x3d88ef86	0.066863105
43	0x3d0cf557	0.03441366
44	0x3dd1cdc9	0.102443285
45	0x3d59ba7f	0.053156372
46	0xbd9289fc	-0.07155225
47	0x3d891e77	0.06695264
48	0xbba7c57f	-0.005119979
49	0x3d80f0f3	0.062959574
50	0x3ce61ed8	0.02809088
51	0x3d4f6450	0.050632775
52	0x3cf1373a	0.02944528
53	0x3d3bc308	0.045840293
54	0x3e14c477	0.1452807
55	0x3d91a72b	0.07111963
56	0x3c71c1e8	0.0147557035
57	0x3d8d1ea9	0.068906136
58	0xbda84050	-0.08215392
59	0x3daf62d5	0.085637726
60	0xbd19dac4	-0.037562147
61	0x3d9bd680	0.07609272
62	0x3db15a90	0.086598516
63	0xbde63674	-0.11240855
64	0x3df30537	0.11866229
65	0xbdb4e94b	-0.088335596
66	0x3c27a00e	0.010231031
67	0xbd5a6336	-0.05331727
68	0x3c94d0c0	0.018165946
69	0xbc06e328	-0.008232869
70	0x3d0adae8	0.03390017
71	0xbe0b0e91	-0.13579775
72	0x3c89940d	0.016794229
73	0x3c1469cd	0.009058428
74	0x3dbc60c3	0.09198143
75	0x3dcb233e	0.09918831
76	0x3d86f594	0.06589809
77	0x3dbd1d2a	0.09234078
78	0xbdda178f	-0.10649025
79	0x3c979133	0.018501854
80	0xbd652e93	-0.05595262
81	0x3db505cd	0.08838997
82	0x3d64aafd	0.05582713
83	0xbd2dd1bf	-0.042436358
84	0x3dae98af	0.08525216
85	0x3d0c61d7	0.034272995
86	0xbdc52717	-0.096265964
87	0xbb2cb7a7	-0.0026354583
88	0xbd768517	-0.060185518
89	0x3e010477	0.1259936
90	0xbd8c0c79	-0.068383165
91	0x3d453919	0.048150156
92	0x3d55fe8f	0.05224472
93	0x3ddc179c	0.10746691
94	0xbdece150	-0.115664124
95	0xbd93d3c3	-0.07218125
96	0xbdea87ca	-0.11451681
97	0x3c2c2ca8	0.010508694
98	0xbdc0b62c	-0.094097465
99	0x3d074701	0.0330267
100	0xbd9accec	-0.07558617
101	0x3cea6378	0.028611884
102	0xbd7b12ca	-0.061297216
103	0x3d217e99	0.039427374
104	0xbdbc72b2	-0.09201564
105	0xbc98254c	-0.018572472
106	0x3dc06578	0.09394354
107	0x3c1174be	0.008877931
108	0x3d63c325	0.055606026
109	0xbd2a476b	-0.041572016
110	0xbdbe3fc1	-0.09289504
111	0x3c6881b0	0.014191076
112	0x3dd09d43	0.10186245
113	0x3d389f5a	0.045073844
114	0xbc6f0bb6	-0.014590194
115	0x3dc9197e	0.098193154
116	0x3ba203c9	0.004944299
117	0xbd1709ec	-0.036874697
118	0x3d037664	0.032095328
119	0xbddb9b23	-0.10722949
120	0x3d8036f6	0.06260483
121	0xbdc00c8b	-0.093773924
122	0xbdd8b2f2	-0.10581006
123	0x3dda40ed	0.10656915
124	0xbdb7611d	-0.0895407
125	0x3d658e46	0.056043886
126	0xbdcb91cd	-0.09939919
127	0x3be52847	0.006993327
128	0xbdfa42f4	-0.122198015
129	0xbdfd4376	-0.12366383
130	0xbdba65c9	-0.09101445
131	0x3d812cc3	0.06307366
132	0xbdd45959	-0.10368604
133	0xbb5e7bfd	-0.0033948414
134	0xbda2248b	-0.07917126
135	0xbda03880	-0.078232765
136	0xbdc36dd3	-0.09542432
137	0x3cf530d4	0.02993051
138	0x3d9e921c	0.07742712
139	0x3d9b2927	0.075762086
140	0x3d8b773f	0.06809854
141	0x3dcf696e	0.10127531
142	0xbde5cb5a	-0.11220427
143	0x3dbe0c0b	0.09279641
144	0x3d180136	0.03711053
145	0x3dd2a40a	0.10285194
146	0xbd963848	-0.073349535
147	0xbd3cef82	-0.04612685
148	0xbd8493bf	-0.06473493
149	0x3dc9c7ab	0.09852537
150	0x3df9d74f	0.1219927
151	0x3d9dcd32	0.077051535
152	0xbdbb5e5f	-0.09148859
153	0x3daee0f7	0.085390024
154	0xbda29e33	-0.0794033
155	0x3d889b06	0.066701934
156	0x3db4000a	0.0878907
157	0xbe013b84	-0.1262036
158	0xbd910a4f	-0.07082044
159	0xbdd5dc06	-0.10442357
160	0xbdf89ed0	-0.12139666
161	0xbe0bb65d	-0.13643785
162	0xbdbc0009	-0.09179694
163	0xbdc87b8c	-0.0978919
164	0xbdc48926	-0.095964715
165	0xbdd680cc	-0.10473785
166	0xbdbc0d54	-0.0918223
167	0x3bd09b71	0.0063661863
168	0x3dbbd1f5	0.091709055
169	0x3df88d89	0.12136371
170	0xbd144b3c	-0.03620456
171	0x3d4e1dc2	0.050321348
172	0xbc8d76af	-0.017268507
173	0x3b1916a5	0.0023359444
174	0xbc6b3253	-0.01435526
175	0xbd60c4cb	-0.054875176
176	0xbdcf5c1b	-0.101249896
177	0xbde83caa	-0.11339696
178	0xbdb0b643	-0.08628514
179	0x3e09f619	0.13472785
180	0xbd60d561	-0.054890994
181	0x3db8d772	0.09025468
182	0x3d52f3a5	0.05150189
183	0xbdc2d703	-0.095136665
184	0x3d3970b1	0.045273487
185	0xbd898d57	-0.067164116
186	0x3c69a5e4	0.014260743
187	0x3dc3cadb	0.09560176
188	0xbde38f2d	-0.11111293
189	0x3c848420	0.016176283
190	0xbd97aba6	-0.07405786
191	0xbc7a67b8	-0.015283518
192	0x3d822464	0.06354597
193	0x3dc7e3f7	0.09760278
194	0xbcae338b	-0.021264812
195	0xbd2ff64e	-0.042959504
196	0x3d365586	0.044515155
197	0xbc378559	-0.011201226
198	0xbd9d30f2	-0.07675351
199	0x3d81d53e	0.06339501
200	0xbdb147d2	-0.08656277
201	0xbdafee6e	-0.08590399
202	0xbd094501	-0.033513073
203	0x3cd2d711	0.025737317
204	0xbb5b6e0a	-0.0033482336
205	0xbd47d960	-0.04879129
206	0xbae36172	-0.0017347767
207	0xbd7c3ab0	-0.061579406
208	0x3cffbdad	0.031218374
209	0xbda5614b	-0.08075198
210	0xbc2f82fe	-0.010712383
211	0x3dccb1ce	0.09994851
212	0x3cf21dd3	0.029555237
213	0x3cd4a903	0.025959497
214	0x3dde4e36	0.10854761
215	0xbd6a53d5	-0.057208855
216	0x3df4f550	0.11960852
217	0xbdda8bd1	-0.10671199
218	0x3d6585f2	0.056035943
219	0x3b7d3dbd	0.0038641535
220	0xbd21f672	-0.03954167
221	0xbd8626b5	-0.065503515
222	0x3c815c65	0.015791127
223	0x3d682220	0.05667317
224	0x3d34db79	0.044154618
225	0xbdcbbb14	-0.09947792
226	0x3d4be3a0	0.049777627
227	0x3dc1d892	0.09465136
228	0x3d7dc799	0.06195793
229	0x3c8eb3ac	0.017419659
230	0x3d863cf1	0.065545924
231	0xbde34bbb	-0.11098429
232	0x3ce571a0	0.028008282
233	0xbd7c0019	-0.06152353
234	0x3db27ac4	0.08714822
235	0x3d02807d	0.031860817
236	0xbcd6daad	-0.02622732
237	0xbdd31342	-0.103064075
238	0xbe0259a3	-0.12729506
239	0x3da2ecf6	0.07955353
240	0x3da5355b	0.080668174
241	0x3da321c3	0.07965424
242	0xbd23f25e	-0.04002606
243	0xbdc80583	-0.09766676
244	0xbdef0b74	-0.116721064
245	0x3da800c9	0.08203275
246	0xbda43fe3	-0.08019998
247	0xbe063356	-0.1310552
248	0xbe0e0ddc	-0.13872474
249	0x3d16fe51	0.03686363
250	0xbd2c6796	-0.042090975
251	0x3dac58cf	0.084153764
252	0xbdb6a89e	-0.0891888
253	0xbdafc641	-0.08582736
254	0xbce1ed2c	-0.027578913
255	0xbe097ac1	-0.13425733

transformer.layers.0.0.fn.to_out.0.bias f4 [36]
0	0xbca16d62	-0.019705478
1	0x3dd62b6c	0.10457501
2	0x3daad434	0.08341256
3	0x3d92b525	0.07163457
4	0xbc849802	-0.016185764
5	0xbcde8cab	-0.027166685
6	0x3c47e872	0.012201415
7	0xbd4c92ce	-0.04994469
8	0xbb47cad3	-0.0030485883
9	0xbc9854aa	-0.018595058
10	0xbde667c6	-0.11250262
11	0x3d882561	0.066477545
12	0x3a193d55	0.0005845626
13	0xbc856e7d	-0.016288036
14	0xbdc846ce	-0.0977913
15	0x3db4c9f9	0.08827586
16	0xbda46571	-0.08027161
17	0xbd8b3ff8	-0.067993104
18	0xbd70b810	-0.058769286
19	0xbcd49ced	-0.025953734
20	0x3e07d520	0.13264894
21	0x3d0c4d89	0.03425363
22	0xbd2a866f	-0.041632112
23	0x3de29599	0.1106369
24	0x3da16348	0.078802645
25	0xbcee732e	-0.029107656
26	0xbded1891	-0.11576951
27	0xbdeba076	-0.11505215
28	0xbd9f5894	-0.07780567
29	0xbd2033a4	-0.03911175
30	0xbd9fe369	-0.07807047
31	0x3d81035e	0.0629947
32	0x3dda1070	0.106476665
33	0x3d824701	0.06361199
34	0x3c04fb23	0.008116516
35	0x3d9b09e7	0.07570248

transformer.layers.0.1.norm.weight f4 [36]
0	0x3f7fe653	0.9996082
1	0x3f83aeca	1.0287716
2	0x3f7fcb51	0.9991961
3	0x3f813c6e	1.0096567
4	0x3f809850	1.0046482
5	0x3f7e8f70	0.9943762
6	0x3f7def68	0.9919343
7	0x3f817ac2	1.0115588
8	0x3f818fc6	1.0122001
9	0x3f80f49d	1.007465
10	0x3f8141b4	1.0098176
11	0x3f7c8cc8	0.98652315
12	0x3f82f066	1.0229614
13	0x3f7fbe41	0.9989968
14	0x3f80d45d	1.0064808
15	0x3f82e639	1.0226508
16	0x3f83d35a	1.0298874
17	0x3f858251	1.0430394
18	0x3f809c09	1.0047618
19	0x3f826f2a	1.0190175
20	0x3f7e1229	0.9924646
21	0x3f81760a	1.0114148
22	0x3f845d9c	1.0341067
23	0x3f83122f	1.0239924
24	0x3f83947d	1.027969
25	0x3f7ea127	0.9946465
26	0x3f820015	1.0156275
27	0x3f7ee8f7	0.99574226
28	0x3f810bca	1.0081723
29	0x3f830fcf	1.0239199
30	0x3f83a5ef	1.0285014
31	0x3f8508d6	1.0393322
32	0x3f818a51	1.0120336
33	0x3f80e288	1.0069132
34	0x3f804825	1.0022017
35	0x3f83b834	1.0290589

transformer.layers.0.1.norm.bias f4 [36]
0	0xbb577b5f	-0.0032879931
1	0x3b80c61f	0.003929868
2	0x3c11a89c	0.008890297
3	0x3bf069ff	0.0073368545
4	0xbb6ef7aa	-0.0036463537
5	0x393e5a08	0.00018153351
6	0xbbb91578	-0.005648311
7	0x3c65fef9	0.014037841
8	0xbba93a3e	-0.0051644137
9	0xbb670769	-0.003525222
10	0x3bd88f89	0.0066089076
11	0xbba1f1a7	-0.0049421373
12	0xbc8f044c	-0.017458104
13	0x3a9a7b1a	0.0011785955
14	0x3b28218b	0.0025654759
15	0x3893a648	7.0404785e-05
16	0xbad56382	-0.0016280266
17	0xbac9105e	-0.0015339961
18	0xbbbbf412	-0.0057358826
19	0x388054d5	6.119317e-05
20	0xbc08ad0c	-0.008342039
21	0xbb23ff2a	-0.0025023916
22	0x3c25270e	0.010080112
23	0xbb3bd5e8	-0.0028661434
24	0x39cf20fa	0.00039506686
25	0x3c4b3b43	0.012404266
26	0xbac29710	-0.0014846046
27	0xbb64daa8	-0.0034920368
28	0x3c010ab8	0.007876091
29	0xbb8fe5c3	-0.0043914034
30	0xbcb3053c	-0.021853082
31	0xbc96b62b	-0.018397411
32	0x3b407976	0.0029369271
33	0x3b8f3f17	0.0043715346
34	0xbbdc25b9	-0.006718364
35	0xbb2fccaa	-0.002682487

transformer.layers.0.1.fn.net.0.weight f4 [72, 36]
0	0xbabd963a	-0.0014464327
1	0xbe1ddc6f	-0.1541612
2	0x3dc01567	0.09379082
3	0x3e250280	0.16114235
4	0x3d3817dd	0.044944633
5	0x3dcfaae2	0.10140015
6	0xbc9b617a	-0.018967379
7	0x3df70f4f	0.12063467
8	0xbdc0507f	-0.093903534
9	0xbd280013	-0.041015696
10	0x3dd2c21a	0.10290928
11	0xbdb26741	-0.087111
12	0x3ca4be62	0.020110313
13	0xbe008b5d	-0.12553163
14	0xbd1993d8	-0.03749451
15	0xbda1c838	-0.07899517
16	0x3de74965	0.11293296
17	0x3d8238b3	0.06358471
18	0xbdfbe6e5	-0.12299899
19	0xbdd4ed21	-0.10396791
20	0xbdbf383f	-0.093369
21	0xbe02e1d3	-0.12781458
22	0x3dc4bcf8	0.096063554
23	0xbc64a5ac	-0.013955515
24	0x3b8af38d	0.0042404593
25	0x3da0c678	0.07850355
26	0xbe14f1d4	-0.14545375
27	0x3e28ae82	0.1647282
28	0x3d3883e5	0.04504766
29	0x3cb9be77	0.022673829
30	0xbdb348ca	-0.08754118
31	0x3e2e2a95	0.17008431
32	0xbdb4c8b0	-0.088273406
33	0xbdea0fef	-0.1142882
34	0x3d47bf7e	0.048766606
35	0x3df93fc1	0.12170363
36	0xbde0f3b6	-0.10983984
37	0xbdf291a7	-0.11844187
38	0x3e00d97e	0.12582967
39	0xbdfec54d	-0.12439976
40	0x3cd4c6af	0.025973646
41	0x3d19b177	0.03752276
42	0x3cde797a	0.027157534
43	0x3e222430	0.15834117
44	0x3dc04ca6	0.093896195
45	0x3dcd6a56	0.100300476
46	0xbe04eb3b	-0.12980358
47	0xbceeae97	-0.029135985
48	0xbd8376c7	-0.06419139
49	0x3cc66225	0.02421672
50	0xbdbda22c	-0.092594475
51	0xbe0b7a23	-0.1362081
52	0xbdbfa958	-0.09358472
53	0x3dbdb9d0	0.092639565
54	0x3bab892e	0.005234859
55	0x3e1c5974	0.15268499
56	0xbdb36757	-0.08759945
57	0xbd0ff300	-0.035143852
58	0xbcc0225b	-0.023453882
59	0xbd85dd56	-0.06536357
60	0xbd025df5	-0.031827886
61	0xbdc75757	-0.09733456
62	0x3e603128	0.21893752
63	0xbd9eb57f	-0.077494614
64	0x3e0df0a8	0.13861334
65	0x3d79e272	0.06100697
66	0xbdf2e963	-0.11860921
67	0xbdb15622	-0.08659007
68	0xbd41ab1c	-0.047282323
69	0xbdf53a0e	-0.11973964
70	0xbc9021f9	-0.017594324
71	0x3dacebc2	0.08443405
72	0x3e1e5ab8	0.15464294
73	0xbc6258a3	-0.013815078
74	0x3e05c294	0.13062507
75	0xbe13679f	-0.14394997
76	0xbe14c15e	-0.14526889
77	0xbe0bf6e6	-0.13668403
78	0xbd43d836	-0.047813617
79	0x3ca10c6e	0.019659247
80	0x3e272ce6	0.16325721
81	0x3d52d088	0.051468402
82	0x3d8c1d29	0.06841499
83	0xbdcbc1e8	-0.09949094
84	0xbd3f85dd	-0.04675852
85	0x3d5951b9	0.053056452
86	0x3e0095e2	0.12557176
87	0xbe0bdf8e	-0.13659498
88	0x3e17c067	0.1481949
89	0x3e0909f4	0.13382703
90	0x3bb3f038	0.005491283
91	0xbc20e02c	-0.009819072
92	0x3d0f74b1	0.035023395
93	0x3d0b50bf	0.034012552
94	0x3dc8abae	0.0979837
95	0xbda03bec	-0.07823929
96	0x3dbcb11e	0.0921347
97	0x3ccb7473	0.0248358
98	0x3d9b7676	0.07590954
99	0x3dac3d0a	0.0841008
100	0xbdd11772	-0.1020955
101	0x3b6bf375	0.0036003266
102	0x3d95f43e	0.07321976
103	0x3cc5bf93	0.024139201
104	0x3dc8f3c4	0.098121196
105	0x3e119b80	0.14219475
106	0x3d6c7159	0.057725284
107	0x3c5a9044	0.01334006
108	0x3dd95f19	0.106138416
109	0x3d75d868	0.060020834
110	0xbe2c5a1f	-0.16831253
111	0xbd50aa0c	-0.05094342
112	0x3b0593b3	0.0020382225
113	0x3d803143	0.06259396
114	0xbdc439a0	-0.095813036
115	0xbdec1f10	-0.11529362
116	0x3db92229	0.09039719
117	0xbd8018a5	-0.062547006
118	0xbdf4da5e	-0.11955713
119	0xbd30223b	-0.043001395
120	0xbd8c58e2	-0.068528906
121	0xbbf60bb3	-0.007508719
122	0x3e21ef2a	0.1581389
123	0x3da716d1	0.08158649
124	0x3e23b205	0.15985878
125	0x3e0ed383	0.13947873
126	0x3c08959c	0.008336451
127	0xbdf27ec7	-0.11840587
128	0x3decfac7	0.115712695
129	0x3d604221	0.054750565
130	0xbe085898	-0.13315046
131	0xbd0db503	-0.034596454
132	0xbe11eb70	-0.14249969
133	0xbddcac57	-0.10775059
134	0x3c3bf0df	0.011471002
135	0x3dd6fef3	0.104978465
136	0xbd990272	-0.074711695
137	0xbdd6c635	-0.10487024
138	0x3e187b70	0.14890838
139	0xbd848118	-0.06469935
140	0x3dcfba62	0.101429716
141	0xbd4758c4	-0.048668638
142	0xbe0788bb	-0.13235752
143	0x3dc2815b	0.09497329
144	0x3e125c0e	0.14292929
145	0xbe07976e	-0.1324136
146	0xbdc366e3	-0.095411085
147	0xbe0e7e10	-0.13915277
148	0xbde249da	-0.11049242
149	0x3da33f20	0.079710245
150	0x3daa8047	0.08325248
151	0xbde377f1	-0.111068614
152	0x3df2aa82	0.11848928
153	0xbd9ecc56	-0.07753818
154	0x3d46364f	0.048391636
155	0x3d728e39	0.059217665
156	0x3e27cf31	0.16387631
157	0xbd38f8dd	-0.04515921
158	0x3d5b0417	0.053470697
159	0x3d920075	0.071289934
160	0x3e20ae63	0.15691523
161	0xbdea2957	-0.11433666
162	0xbdaacd8a	-0.08339985
163	0x3dc0895f	0.094012015
164	0xbe239275	-0.15973838
165	0x3d41af39	0.047286246
166	0x3d85015f	0.06494402
167	0xbd61da96	-0.0551401
168	0xbd04c357	-0.032412853
169	0xbd866243	-0.06561711
170	0xbe23f881	-0.16012765
171	0x39dbfe41	0.0004196037
172	0x3e1644d5	0.14674695
173	0xbe25397e	-0.16135213
174	0x3dc19775	0.09452716
175	0x3e21b3be	0.15791222
176	0xbe160eb4	-0.14654046
177	0xbd63e318	-0.055636495
178	0x3db92620	0.09040475
179	0x3e27589d	0.16342397
180	0xbd8a10df	-0.06741499
181	0xbdbc310d	-0.09189043
182	0x3d875e3c	0.06609771
183	0xbccac8ce	-0.024753954
184	0x3d9d7c86	0.076897666
185	0xbcf4612e	-0.029831495
186	0xbb8f2276	-0.0043681217
187	0x3e303903	0.17209248
188	0xbe2559b7	-0.16147505
189	0x3df714cd	0.12064514
190	0x3d8faf4a	0.070158556
191	0xbdf7ecb6	-0.12105696
192	0xbd6bd8d7	-0.05757984
193	0xbc9ff95e	-0.019528087
194	0x3c41e82c	0.011835139
195	0x3e5f004e	0.2177746
196	0xbe410556	-0.18849692
197	0xbde15054	-0.110016495
198	0x3dc4aa16	0.09602754
199	0x3e42ad8f	0.1901152
200	0xbd31d6fd	-0.04341792
201	0x3dcb4029	0.09924347
202	0x3e2620d2	0.16223457
203	0x3d81f066	0.063446805
204	0x3e066cba	0.13127413
205	0x3de2b78b	0.11070164
206	0xbdd36297	-0.10321539
207	0xbd457c37	-0.048214164
208	0x3e149727	0.14510785
209	0x3dc4e9c3	0.09614899
210	0xbddebd0a	-0.108759
211	0xbda58875	-0.08082668
212	0xbe3af061	-0.1825576
213	0xbe129b59	-0.14317073
214	0xbe3f128e	-0.18659422
215	0xbdb7902f	-0.08963048
216	0x3db3bec2	0.087766185
217	0x3da24e9e	0.07925151
218	0x3dc85105	0.09781078
219	0x3c880eba	0.016608585
220	0xbe004861	-0.1252761
221	0x3d956a54	0.07295671
222	0xbd8f498f	-0.06996452
223	0xbd72bea3	-0.059263837
224	0xbc47a26b	-0.01218472
225	0x3dc29cb1	0.09502543
226	0x3d916044	0.07098439
227	0xbcbc4a03	-0.02298451
228	0x3d5d87e3	0.05408467
229	0xbd8e62cc	-0.06952438
230	0xbd0a98ab	-0.033837
231	0xbd79c1ed	-0.060975958
232	0x3d507f5a	0.050902702
233	0x3df171e6	0.117893025
234	0x3e21e23a	0.15808955
235	0xbdf31a6f	-0.11870276
236	0xbe059623	-0.13045554
237	0xbd908ed2	-0.07058491
238	0xbd88c2e0	-0.066777945
239	0xbdd0d2f8	-0.10196489
240	0xbdf789c2	-0.12086822
241	0x3d6645aa	0.05621878
242	0x3daa2fd1	0.083099015
243	0x3da7f16f	0.08200347
244	0xbc922e9e	-0.017844494
245	0x3d9714a0	0.07376981
246	0xbb663810	-0.003512863
247	0x3df34089	0.118775435
248	0xbe3ac540	-0.18239307
249	0x3e007506	0.12544641
250	0xbda0e691	-0.07856477
251	0xbdaf332b	-0.085546814
252	0xbcf52ca6	-0.029928517
253	0x3b4b946e	0.0031063813
254	0xbd353c52	-0.04424698
255	0x3d0b6227	0.034029152

transformer.layers.0.1.fn.net.0.bias f4 [72]
0	0x3dbd37e5	0.09239177
1	0x3e2161ac	0.15759915
2	0xbdde0c45	-0.10842184
3	0xbc4a4425	-0.0123453485
4	0xbe131218	-0.14362371
5	0xbd12c677	-0.035833802
6	0x3dce60c3	0.100770496
7	0xbcdc4c74	-0.026891924
8	0xbdfe32b2	-0.12412013
9	0x3ddff1d9	0.10934801
10	0x3cb0a719	0.021564053
11	0x3df29a85	0.118458785
12	0x3d7b85cc	0.061406896
13	0xbd6f1c06	-0.058376335
14	0x3cb9d0b3	0.022682523
15	0x3ddfa54d	0.109202005
16	0x3dccb415	0.099952854
17	0x3ce3bacb	0.02779903
18	0xbd1617fb	-0.036643963
19	0xbe2409f7	-0.16019426
20	0xbe007231	-0.1254356
21	0xbda7f1ff	-0.08200454
22	0xbd0150d0	-0.03157121
23	0x3d7fd7c2	0.062461622
24	0xbe2323f5	-0.15931685
25	0x3e223ee4	0.15844303
26	0xbd46add8	-0.048505634
27	0xbe0b1892	-0.13583592
28	0xbe294bc9	-0.16532816
29	0xbe1d8018	-0.15380895
30	0x3db2f1e0	0.0873754
31	0xbc208c6d	-0.009799105
32	0x3e1a961d	0.15096326
33	0xbc9c39c9	-0.019070523
34	0x3d43ce5b	0.047804218
35	0x3e1e6eef	0.15472005
36	0x3d651f3c	0.05593799
37	0x3d88627b	0.06659409
38	0xbe16fbba	-0.14744464
39	0xbd6a0be3	-0.057140242
40	0xbded8d33	-0.11599197
41	0x3dd03035	0.10165445
42	0xbe00d2d6	-0.12580428
43	0xbd73515a	-0.059403755
44	0x3dd3f1a8	0.10348827
45	0x3e1d3770	0.15353179
46	0xbe219945	-0.15781124
47	0x3de33d4e	0.11095677
48	0xbdd93d1b	-0.10607358
49	0x3da370e6	0.07980518
50	0xbd1979f6	-0.037469827
51	0xbb961b03	-0.0045808568
52	0x3c142ca9	0.009043851
53	0xbdee2e9f	-0.11629986
54	0x3d76fadc	0.060297832
55	0xbc88899a	-0.016667176
56	0x3e1dde1c	0.15416759
57	0x3d46c8e0	0.048531413
58	0xbdbe4e8f	-0.092923276
59	0x3ddb3169	0.107027836
60	0xbe313796	-0.1730636
61	0xbd3493d3	-0.04408629
62	0x3c87a666	0.016558837
63	0xbdc3fcfb	-0.095697366
64	0xbdbc60ef	-0.09198176
65	0xbdebebe1	-0.115196
66	0x3e201f4a	0.15636936
67	0xbe18dae1	-0.14927246
68	0x3ce409e9	0.027836757
69	0x3dce0c49	0.10060937
70	0x3d5d73d4	0.05406554
71	0xbe067959	-0.13132228

transformer.layers.0.1.fn.net.3.weight f4 [36, 72]
0	0xbcac3d34	-0.021025278
1	0xbdc14153	-0.09436288
2	0x3d125d94	0.035733774
3	0x3d98f956	0.07469432
4	0xbd64b80f	-0.055839594
5	0x3e1855fc	0.1487655
6	0xbde275a4	-0.110575944
7	0xbd8ac295	-0.06775395
8	0xbd7e439a	-0.06207619
9	0xbcef1f37	-0.02918969
10	0x3bb0a1f5	0.0053904005
11	0xbd206da5	-0.039167065
12	0x3ce4b3da	0.027917791
13	0x3badc3f6	0.0053029014
14	0xbd8a6270	-0.06757057
15	0xbd8f9adc	-0.07011959
16	0x3ddd1c0b	0.107963644
17	0x3dd7a38e	0.105292425
18	0xbc1237f6	-0.008924475
19	0xbcb2789d	-0.021786029
20	0x3d7a60b3	0.061127376
21	0xbd6adbbb	-0.057338458
22	0xbba0ed99	-0.0049111363
23	0x3e00ccf6	0.12578186
24	0xbdd1e007	-0.10247808
25	0xbd941bde	-0.07231878
26	0x3c7fbe66	0.015609359
27	0xbd617eb6	-0.05505248
28	0x3d01846d	0.03162043
29	0x3da9f004	0.082977325
30	0xbc964e74	-0.018347956
31	0x3d9ccd45	0.076563396
32	0xbdba69b9	-0.09102196
33	0xbd0b6619	-0.034032915
34	0xbcfbc6e3	-0.030734485
35	0x3dc174f6	0.09446137
36	0xbddbb042	-0.10726978
37	0x3da1bc91	0.07897294
38	0xbd273ad4	-0.040827587
39	0x3ca6dc48	0.02036871
40	0x3d98ba1e	0.07457374
41	0xbda61a02	-0.08110429
42	0xbced9430	-0.029001325
43	0xbdffcad4	-0.12489858
44	0xbb1ba533	-0.002374959
45	0x3dc29833	0.09501686
46	0x3da0892c	0.078386635
47	0xbd7d9b64	-0.06191577
48	0x3d3e8650	0.04651481
49	0x3b92a0b2	0.004474723
50	0xbb7be3a2	-0.003843524
51	0x3dc98315	0.09839455
52	0x3d6750d4	0.056473568
53	0x3d953eb4	0.0728735
54	0x3d074419	0.033023927
55	0x3cf4013b	0.029785743
56	0x3d86dd3e	0.06585167
57	0xbc69be3f	-0.01426655
58	0x3d914b6c	0.07094464
59	0xbb0b335b	-0.0021240327
60	0xbcfdb1b6	-0.030968528
61	0xbd412667	-0.047155764
62	0xbd8d892d	-0.0691093
63	0x3de52047	0.11187797
64	0xbde5aa04	-0.112140685
65	0xbbdd142f	-0.006746791
66	0x3de02bd7	0.10945862
67	0xbe09460d	-0.13405629
68	0xbe0c8453	-0.13722353
69	0x3e107060	0.14105368
70	0x3d2cfa45	0.042230863
71	0xbdd5cbce	-0.10439263
72	0x3debfa0c	0.11522302
73	0xbcbe0bb6	-0.023198944
74	0x3de30dd1	0.1108662
75	0x3dd6eacb	0.10494002
76	0x3d3b31ee	0.045701914
77	0xbd948dff	-0.07253646
78	0xbd05bf8b	-0.032653373
79	0xbd00a65e	-0.03140866
80	0xbb43fdb7	-0.0029905865
81	0xbdcd7165	-0.10031394
82	0x3c951277	0.018197281
83	0xbd97d8e0	-0.074144125
84	0x3de29e83	0.1106539
85	0xbc3747d2	-0.011186557
86	0xbddcf8c2	-0.10789634
87	0xbcb3d312	-0.021951232
88	0xbac5fcb7	-0.0015105222
89	0x3d449a2d	0.047998596
90	0xbd935b25	-0.07195119
91	0xbd29d67e	-0.04146432
92	0x3d91058d	0.07081137
93	0xbca000e5	-0.019531677
94	0xbd853bf2	-0.06505574
95	0x3d0a1703	0.033713352
96	0xbdc23519	-0.09482784
97	0x3ccd491a	0.025059272
98	0xbddd04b8	-0.10791916
99	0x3d833c9a	0.06408043
100	0x3d2594a2	0.04042495
101	0xbd4f2bcb	-0.050578874
102	0xbccdd584	-0.025126226
103	0x3dbdd14e	0.09268437
104	0xbdd24314	-0.102667004
105	0xbde0c355	-0.10974757
106	0xbb9adb2f	-0.0047258358
107	0x3d951cca	0.07280882
108	0xbdb188d5	-0.08668677
109	0x3d2a696e	0.04160445
110	0x3cf2cc01	0.029638292
111	0x3da98cd9	0.08278818
112	0x3dc72f5f	0.09725832
113	0xbd8669a2	-0.065631166
114	0xbd1d1abb	-0.03835557
115	0xbd1a451e	-0.03766357
116	0x3cf83b4a	0.030301709
117	0x3dfd5c27	0.12371092
118	0xbd399d5c	-0.045316085
119	0x3dfb83c4	0.12280992
120	0x3d2113bf	0.039325472
121	0xbda6df4d	-0.0814806
122	0xbd3e2962	-0.046426184
123	0x3da39e7f	0.07989215
124	0xbdd850a8	-0.10562259
125	0xbd64cacc	-0.055857465
126	0x3cadf8b5	0.021236757
127	0x3df405a4	0.11915138
128	0xbd050fd4	-0.032485798
129	0xbda9810a	-0.082765654
130	0xbdab9614	-0.083782345
131	0x3d9e5d08	0.07732588
132	0x3d93dfac	0.072203964
133	0xbca5482d	-0.020176018
134	0x3d309f3e	0.043120615
135	0x3d9da03d	0.07696579
136	0x3d461250	0.048357308
137	0xbcc7dfe9	-0.02439876
138	0xbde2d9eb	-0.11076721
139	0x3dcbb134	0.09945908
140	0x3db2a68d	0.08723173
141	0x3db657cb	0.08903464
142	0xbd3232b5	-0.04350539
143	0xbbffa20c	-0.0078013
144	0x3d9fa283	0.077946685
145	0x3db6c045	0.08923391
146	0xbd371fdb	-0.044708114
147	0xbcc75aad	-0.02433523
148	0xbcff6730	-0.031177133
149	0x3d6f8802	0.058479317
150	0x3d765f01	0.060149197
151	0xbdc103e5	-0.09424571
152	0x3d80bde2	0.06286217
153	0x3d981eba	0.074277356
154	0x3db49828	0.08818084
155	0xbde803a1	-0.11328817
156	0x3dd7b455	0.105324425
157	0x3da1a0e7	0.07892018
158	0x394d1d49	0.00019561233
159	0x3dc9d9fa	0.09856029
160	0xbda9b571	-0.0828656
161	0xbdc712d8	-0.09720391
162	0xbd69e6f3	-0.057105016
163	0xbddc3979	-0.107531495
164	0xbcbc6f72	-0.02300236
165	0xbdd834fe	-0.105569825
166	0xbd3be82c	-0.045875713
167	0x3d0ecf10	0.03486544
168	0x3a9e1751	0.0012061392
169	0x3d90c3ae	0.07068573
170	0xbd46836a	-0.04846517
171	0xbd652f6e	-0.055953436
172	0x3de135be	0.10996579
173	0x3c44ae64	0.012004469
174	0xbdacdbf4	-0.0844039
175	0xbd87aa4c	-0.066242784
176	0x3c8d4f7d	0.017249817
177	0xbdd1f789	-0.10252292
178	0x3d8cb5fa	0.06870647
179	0x3c818b0d	0.015813375
180	0x3dc9ea0d	0.09859095
181	0x3dd3c184	0.103396446
182	0x3d2f1354	0.042743042
183	0xbd79c683	-0.06098033
184	0xbd964e4d	-0.073391534
185	0xbdb7e345	-0.08978895
186	0x3dc673e9	0.09690077
187	0xbd82fbf6	-0.06395714
188	0xbcf07668	-0.029353335
189	0x3ca93085	0.020653019
190	0xbd0ded45	-0.034650106
191	0x3daf98f6	0.08574097
192	0xbdd0aba0	-0.10188985
193	0x3dbb04b0	0.091317534
194	0xbd57381d	-0.05254375
195	0xbdc3bd51	-0.095575936
196	0xbaeb8a02	-0.0017970207
197	0x3bddc0b9	0.006767359
198	0x3d2c5339	0.042071555
199	0xbdd33a88	-0.10313898
200	0x3dcf8542	0.10132839
201	0x3d370106	0.04467871
202	0xbda0128d	-0.07816038
203	0xbdaaf2e3	-0.08347108
204	0xbdad758f	-0.08469688
205	0xbdc4e884	-0.09614661
206	0xbdab06d0	-0.08350909
207	0x3d8086cd	0.06275711
208	0xbd611634	-0.054952815
209	0x3dd7bf54	0.1053454
210	0xbd7bd381	-0.061481003
211	0x3e021b51	0.12705733
212	0x3dc094ef	0.09403407
213	0x3c581216	0.013187906
214	0xbd55736b	-0.052112024
215	0x3d4e0172	0.050294347
216	0xbe02ce67	-0.12774049
217	0x3d88c06e	0.06677328
218	0x3d087c0d	0.03332143
219	0xbd458d43	-0.04823042
220	0xbdc0622b	-0.09393724
221	0x3db42377	0.08795827
222	0x3ddeca46	0.10878424
223	0x3cab9ccd	0.020948792
224	0xbdb706a6	-0.08936815
225	0xbdf3efa2	-0.11910941
226	0x3d72dd9b	0.05929337
227	0xbd2dc44f	-0.042423543
228	0x3dd0f674	0.10203257
229	0x3d8ac6e0	0.06776214
230	0xbd99d093	-0.075104855
231	0xbdd36d22	-0.1032355
232	0xbda5c47e	-0.080941185
233	0x3d95ae25	0.07308606
234	0xbc881bdc	-0.016614847
235	0xbdb98ef7	-0.090604715
236	0xbccde4fa	-0.025133599
237	0x3d5e2439	0.054233763
238	0xbcc8a9d9	-0.024495052
239	0x3c552a87	0.013010628
240	0xbd602dbb	-0.054731112
241	0xbda2e5b3	-0.07953968
242	0xbdd682c2	-0.10474159
243	0xbb3bcc5b	-0.002865574
244	0xbdc2218a	-0.09479053
245	0x3d37c877	0.044868913
246	0xbdc8f73c	-0.09812781
247	0xbd0a4b36	-0.033763133
248	0xbdd51ec5	-0.104062594
249	0xb96bf198	-0.00022501347
250	0x3d93b4ee	0.07212244
251	0x3c90749c	0.017633729
252	0xbcd28f8e	-0.025703218
253	0xbc3213d2	-0.010868983
254	0x3d1d7d33	0.038449477
255	0xbb0e9cc7	-0.0021760927

transformer.layers.0.1.fn.net.3.bias f4 [36]
0	0x3dcec19c	0.10095522
1	0x3da2a0da	0.07940836
2	0xbda78fb9	-0.0818171
3	0x3dd6efed	0.10494981
4	0x3c88cf01	0.01670027
5	0x3b02a80a	0.0019936585
6	0x3d665939	0.056237433
7	0x3d34d2da	0.044146396
8	0x3c90fc0a	0.017698307
9	0xbd77a02d	-0.06045549
10	0xbcb2943d	-0.021799201
11	0x3d18cc99	0.037304495
12	0x3d540fd9	0.051772926
13	0xbcc6afba	-0.024253715
14	0xbdaf58aa	-0.08561833
15	0xbdf1d23b	-0.118076764
16	0x3d37f031	0.0449068
17	0x3cdd7be9	0.027036624
18	0x3c387b83	0.011259916
19	0xbdc7f82c	-0.09764132
20	0xbda11d5d	-0.07866929
21	0x3d6d2a26	0.057901524
22	0xbde35adf	-0.11101317
23	0xbdb29da2	-0.08721472
24	0x3dc939b5	0.0982546
25	0xbde04e04	-0.1095238
26	0x3d45e1b9	0.04831097
27	0xbd8ecfbc	-0.06973216
28	0x3de6e6d8	0.11274499
29	0x3db63a54	0.08897844
30	0x3d8e6ec6	0.06954722
31	0xbd96fbc4	-0.07372239
32	0xbd5bd1fa	-0.053667046
33	0x3bba2e4d	0.005681789
34	0x3dae6435	0.08515207
35	0x3da70756	0.08155696
