ViT/ViT1/5 V train 0.968 V test 0.890 ABS 2/model_bestV.pt (torch, 414407 bytes, 74 tensors)

pos_embedding f4 [1, 19, 36]
000000 0d d4 8f bf bc 75 0a bf f4 8c 86 bf d8 a2 19 bf
       -1.1236588 -0.540859 -1.0511765 -0.60014105
000010 ed a4 fe be e2 7d d7 bc fd 32 57 3f 98 04 35 3f
       -0.49735203 -0.026305143 0.84062177 0.70710135
000020 22 fc ca 3d 26 3f a3 3e 46 6e f5 3d 0a df 4f 3d
       0.09911372 0.31884116 0.119839236 0.050749816
000030 3f 06 d4 be de 49 0e 40 1a 1a 89 3e 0c 49 56 bf
       -0.41411015 2.2232585 0.26777726 -0.8370521
000040 f5 3a 83 be 92 cd eb 3e 59 68 ce be 74 02 dd be
       -0.25630918 0.46055275 -0.40313986 -0.43165934
000050 f4 e7 c3 bf 5e 31 16 3f b2 b7 72 3f 6f 95 a6 3d
       -1.5305161 0.5866908 0.94811547 0.08133971
000060 87 29 e7 be e9 12 41 bf 02 f7 70 3e b5 0b ec bf
       -0.4514887 -0.7541948 0.23531726 -1.8441073
000070 ff b1 ca bd f1 70 8f bf 4a 9b 85 3f f1 c3 a6 3f
       -0.09897231 -1.1206342 1.0438015 1.3028547
000080 03 dc af 3e 92 7e f3 3d 79 87 c4 bf df 2d 63 be
       0.34347543 0.11889376 -1.5353843 -0.22185467
000090 4b 84 6e bf a1 9b 9e 3f 59 ef 27 3f 47 c8 2c be
       -0.93170613 1.2391244 0.6559959 -0.16873275
0000a0 a9 f2 ba bf d2 2d b2 bd 68 74 b6 3f 40 06 40 3f
       -1.4605304 -0.08700146 1.4254274 0.75009537
0000b0 79 20 29 bf f3 cf 85 3e 16 3d 24 be 2a b6 60 bf
       -0.66065174 0.26135215 -0.16038927 -0.8777796
0000c0 4f 08 54 bf e2 f8 3d 3f 73 df dd be 26 25 60 be
       -0.8282518 0.7420789 -0.4333454 -0.21889171
0000d0 ea c3 8d be 45 45 f7 3c 32 2f 16 bf f3 4c 21 40
       -0.27688533 0.030184397 -0.58665764 2.5203216
0000e0 37 a7 18 3f d0 9f e3 3d 28 26 87 3e a2 47 9a 3e
       0.5963015 0.11114466 0.26396298 0.30132776
0000f0 f2 6c 02 3f 38 e4 6e 3f 11 d1 b6 be 0f 8d b9 bf
       0.5094749 0.93316984 -0.3570638 -1.4496173
000100 0c 7c 1b bf ab 5f 99 bf 25 1a 8a bf 86 39 9b bc
       -0.60736156 -1.198232 -1.0789229 -0.018948328
000110 09 92 8e be fd d2 47 3f e2 0a a5 be f8 d6 75 bf
       -0.2784579 0.7805632 -0.32234865 -0.9603114
000120 29 49 ca 3d 26 e5 05 c0 24 26 a4 3f 62 62 9c be
       0.098772354 -2.092111 1.282414 -0.3054381
000130 12 04 61 3f 51 be f9 3f 53 5f c3 3e 8d 84 fd bf
       0.87896836 1.9511205 0.38158664 -1.9806076
000140 08 bf 9d 3f 40 45 cf 3f 11 f3 80 be b7 0d 86 3f
       1.2323923 1.6193008 -0.25185445 1.0472935
000150 85 58 2a bf 87 02 c7 3d 0c 26 6b bf 06 45 41 c0
       -0.6654132 0.09717279 -0.9185493 -3.0198379
000160 3c 09 10 3f 61 10 ff 3f 7c 17 5f 3f 40 63 7b bf
       0.5626409 1.9926873 0.8714521 -0.9819832
000170 5e 32 29 3f ed e9 1a 40 2e b0 49 3e a0 39 5a 3e
       0.6609248 2.4205277 0.19696113 0.21311045
000180 07 66 31 be 7c bb b2 bf c3 ec 6a be fd 26 8c 3f
       -0.17324077 -1.3963466 -0.2294188 1.0949398
000190 00 82 92 3e 11 ea 53 3f a7 05 46 3d bc c4 94 be
       0.28614807 0.8277903 0.048345234 -0.29056346
0001a0 4b 3d a1 3e a7 36 56 3f 9f 00 9c be 9a a5 05 bf
       0.31492075 0.8367714 -0.30469224 -0.5220581
0001b0 6d 99 f2 3e a1 86 9f be c3 c8 82 bf 2a d9 6e 3f
       0.4738268 -0.311574 -1.0217518 0.93300116
0001c0 0d d9 e9 be 3f 7c 27 3f 33 8a f2 bf 9b a7 90 bf
       -0.4567341 0.6542396 -1.8948425 -1.1301149
0001d0 54 2a b2 3f c6 3d ef bd 99 9f 24 3f b1 fe 84 bf
       1.3919168 -0.11681704 0.64306027 -1.0390226
0001e0 b2 28 ab 3f 61 e2 28 3f 8f ae 05 be 20 ad 84 3e
       1.3371794 0.65970427 -0.1305487 0.25913334
0001f0 89 a3 28 3f 43 ed d3 3e 07 96 34 3f c0 60 e7 be
       0.65874535 0.41391954 0.70541424 -0.45191002
000200 a7 db 45 3f 50 89 c8 3f a2 f7 77 be 3b 90 41 3f
       0.7728829 1.5666904 -0.24215558 0.75610703
000210 32 54 4f 3e bf 2f 4b 3f a5 37 52 3f 90 8e b6 3f
       0.20246962 0.7936973 0.82116157 1.4262257
000220 21 ea 24 3f ed ee 55 3f 8c 7c e2 3f 90 04 a1 3f
       0.6441975 0.83567697 1.7694259 1.2579517
000230 6f 2f a1 bf 61 0c 51 bf 57 07 47 3e 0a 59 39 3e
       -1.25926 -0.81659514 0.19436394 0.18100372
000240 ab 10 a5 3f 48 02 1c bf da 38 e0 3e d6 fc 03 bf
       1.2895712 -0.6094098 0.43793374 -0.5155767
000250 2a ef 01 bf 65 55 8a 3d fb d8 19 3e 9c f7 30 bf
       -0.5075556 0.06754569 0.15024178 -0.6912782
000260 a4 72 7a bf 90 43 61 bf 33 8c b3 be 97 cd 9c 3f
       -0.9783118 -0.8799372 -0.350679 1.2250241
000270 13 b6 4a bf e7 88 a4 bf 53 30 2c 3f 64 ad fd 3e
       -0.79184073 -1.2854279 0.67261237 0.4954635
000280 88 f9 f5 bd f6 32 82 bf f9 df c9 be a8 fa 8c 3f
       -0.12010485 -1.0171802 -0.3942869 1.1013994
000290 90 74 3b bf b2 43 5e be 38 8f 3a bf 68 55 15 40
       -0.73224735 -0.21705511 -0.72874784 2.3333378
0002a0 94 a1 b4 3f ec e9 17 bf aa 9d 0f c0 7d 4a 58 3e
       1.411181 -0.5934131 -2.243998 0.21122165
0002b0 f0 dc 16 c0 bb ad aa bf b7 a4 43 3f ad 5f 51 3e
       -2.357235 -1.3334268 0.7642321 0.20446654
0002c0 2d 7f 4e 3f c5 1b 1f 3f 6c 89 87 3e 83 ed 28 3e
       0.80662805 0.6215175 0.26472032 0.16496854
0002d0 0b 04 53 bf 0c ed 9b bf a4 d8 84 3f 4f 99 f1 3e
       -0.82428044 -1.2181716 1.0378613 0.47187278
0002e0 1a 53 92 bf b9 8e 49 40 20 1a 8e 3e 93 ac 52 bf
       -1.143161 3.149336 0.27754307 -0.8229458
0002f0 56 bd 86 3f ad 9e c3 3f 21 37 29 bf 59 6e 06 40
       1.0526531 1.5282799 -0.66099745 2.100485
000300 89 8d 08 be bf 04 0a 3e 33 4b a4 bf c9 f4 42 bf
       -0.13335241 0.13478373 -1.2835449 -0.7615476
000310 11 c3 99 bf c7 d3 cf bf 1e 93 ca 3e 7d d9 a9 3f
       -1.2012655 -1.6236504 0.39565367 1.3269497
000320 6a eb 02 3b ec a9 2c bf 65 8f 84 3f 1f e5 c3 3f
       0.0019976743 -0.6744678 1.035626 1.5304297
000330 c1 44 8f 3f e7 3f 9a bf aa 19 db bf 40 9e 43 be
       1.1192857 -1.2050751 -1.7117207 -0.19103336
000340 d6 d5 f2 be be 7a 07 3f 41 ea c3 bf cc 41 7e 3e
       -0.4742877 0.52921665 -1.5305864 0.24829787
000350 dc 97 85 bf 2f c8 40 3e f4 c7 1e 3b 4c 73 f4 3f
       -1.0436969 0.18826364 0.0024228068 1.9097686
000360 24 a5 af 3f 1d 00 72 bf fc 7a aa bf 0c 82 2d 40
       1.3722272 -0.9453142 -1.3318782 2.7110624
000370 92 b9 2e 3f ed 38 08 bf e2 c8 e4 3e 65 96 da bf
       0.6825191 -0.5321186 0.4468451 -1.7077147
000380 3a c6 37 bf b3 23 63 be 7b 6e c1 be d5 c9 a5 bd
       -0.71786845 -0.22181587 -0.37779602 -0.08095137
000390 63 11 66 bf 69 c0 7d be 1b ec 15 c0 f4 6f 82 3f
       -0.8987028 -0.2478043 -2.3425357 1.0190415
0003a0 5a 8e 65 3e 08 fc c6 bf 1c fd 81 be 81 d7 8a bd
       0.22417584 -1.5545664 -0.2538842 -0.06779385
0003b0 2d 0b c5 3e 77 c4 9b bf 96 2b b1 3e d7 0a 56 bf
       0.3848509 -1.2169331 0.34603566 -0.8361029
0003c0 38 e0 26 c0 17 77 42 bf 07 e9 19 3f eb 11 ed 3f
       -2.6074352 -0.75962967 0.60121197 1.8521093
0003d0 01 6e 03 40 2f ed 9b bf 42 6f 87 bf 36 85 a2 3e
       2.053589 -1.2181758 -1.0580828 0.31742257
0003e0 bf ba 83 3e 14 0a a9 3d e5 15 06 3f 58 37 cb 3f
       0.25728413 0.082538754 0.5237716 1.5876265
0003f0 7a 73 1c bf b6 b3 96 bd eb 11 61 be 0c 95 9e 3e
       -0.61113703 -0.07358496 -0.21979491 0.3097309

cls_token f4 [1, 1, 36]
000000 01 cb 75 bf b0 d6 79 bf 55 df ce be 63 6a 19 be
       -0.96012884 -0.9759321 -0.40404764 -0.1498199
000010 77 24 35 bf c7 e8 fc 3e 97 59 9e 3f 20 09 ba 3e
       -0.70758766 0.49396345 1.2371091 0.36335087
000020 0a 92 8a 3d e7 84 8d 3e 75 e5 9d 3e 4a 76 4c bf
       0.06766136 0.2764046 0.30839124 -0.79867995
000030 58 3f 25 bf d7 c6 85 bf e2 61 55 bf 4c 07 7f bf
       -0.6454978 -1.0451306 -0.8335248 -0.9962051
000040 5c af 96 40 f0 39 3a bf 80 d2 b3 3f 88 19 a3 be
       4.708906 -0.72744656 1.4048615 -0.31855416
000050 8f 89 ae 3e 18 0a 84 3c cb 91 b5 3d 07 03 ab 3e
       0.34089324 0.016118094 0.088656984 0.33400747
000060 2a 33 1f 3f f2 f6 60 bc 26 be 8e 3c 9a 33 46 3c
       0.62187445 -0.013730751 0.017424654 0.012097264
000070 f0 ac 74 3f 2b 62 f7 3e 7f 5a 5c bf fd 92 ac 3f
       0.9557638 0.48317084 -0.86075586 1.3482357
000080 ee da 83 be 64 2f 17 bf 62 98 2f 3f 54 72 f6 be
       -0.25752968 -0.5905669 0.6859189 -0.481341

to_patch_embedding.1.weight f4 [36, 12]
000000 5e 91 b0 be 04 f0 38 be 1c 23 7d 3d 5b 9f 17 be
       -0.34485906 -0.18060309 0.06180106 -0.14806883
000010 17 6a 75 bc 9b 47 54 3e f9 71 83 be c9 ac b9 3e
       -0.014978907 0.2073044 -0.25672892 0.36264637
000020 91 6b 84 be 47 a4 e3 3e bc 9e 5a be 07 87 2e be
       -0.25863317 0.4446127 -0.21349615 -0.17043696
000030 0d be 4b bd 79 1c c0 bd 7e a4 92 bd 69 f9 84 3e
       -0.049741793 -0.09380431 -0.07160281 0.25971535
000040 35 2b 76 be a3 90 8f bd f2 12 1d 3d 6c 4e 48 be
       -0.2403992 -0.07010009 0.038348146 -0.19561166
000050 ea 65 85 be f8 1a da be 90 4e 56 3e e7 43 b8 3d
       -0.26054317 -0.425987 0.20928407 0.08997326
000060 13 bc d6 3d 6f 91 9a 3d 26 eb 07 be 42 cc 83 be
       0.10485091 0.075472705 -0.13273296 -0.25741774
000070 88 d2 53 be 33 4b 18 3c 7b ab be 3d 9e 43 9f be
       -0.2068578 0.009295273 0.09310051 -0.31106275
000080 2a 45 af bd 27 09 c0 3e 1e 47 52 bd d3 62 3b bd
       -0.08558114 0.37506983 -0.051337354 -0.045748543
000090 44 6d 4f 3e 4c 8c 55 3d 4f ad 09 3e ad 17 82 be
       0.20256525 0.05213575 0.13445018 -0.25408688
0000a0 ee 5d 2c bd e5 8d 65 be 0f db 06 bd 3b 55 ee 3d
       -0.042081766 -0.2241741 -0.032923754 0.1163735
0000b0 85 60 32 be ea 8f af 3d 9c 05 77 3e a9 d6 84 be
       -0.17419632 0.08572371 0.24123234 -0.25945023
0000c0 1e b7 f9 bc c4 d1 b4 bd 29 b5 70 be d8 47 61 bd
       -0.030482825 -0.08829072 -0.23506607 -0.055000156
0000d0 71 a3 34 be 02 73 89 3e 0c 97 0b 3d 55 39 6a be
       -0.17640473 0.26845556 0.034079596 -0.22873433
0000e0 a2 4a 50 be 8f 77 d9 bd c1 23 26 3e ea c9 3d be
       -0.2034097 -0.10618507 0.16224577 -0.18534055
0000f0 6b ad d9 3d a6 2e 38 bd fd 57 8c bd ab b2 90 3e
       0.1062878 -0.044966362 -0.0685272 0.28261313
000100 b0 cd f4 3d d3 7d 66 3e fa f4 bd be 47 50 c5 3e
       0.11953294 0.22508936 -0.37100965 0.3853781
000110 3d 89 7f be 61 77 f9 bd 7f 69 14 be 6c d3 de bd
       -0.24954696 -0.12180973 -0.14493369 -0.10880169
000120 ee ef 9c bc e3 66 1d be 02 db 94 be 14 1b ee bd
       -0.019157376 -0.1537128 -0.2907334 -0.116262585
000130 8d 50 f3 3c c8 2c e7 3b 1a ba 1c 3e bf a0 b9 3e
       0.029701496 0.007054899 0.15305367 0.36255452
000140 f7 4a 23 3e 8b 68 bf be 31 0a 31 3e 73 60 a2 bd
       0.15946566 -0.37384447 0.17289044 -0.079285525
000150 c5 d5 21 3e ca e5 3d 3c 0a bf 8b 3d cf 3a 3d be
       0.15804203 0.0115904305 0.06823547 -0.18479465
000160 c8 11 f1 bb b5 24 68 be 3c 10 dc 3c d0 77 19 3e
       -0.007356856 -0.22670253 0.02686321 0.14987111
000170 b7 2a 9c 3e 41 7c 65 3e b0 e2 11 bd e3 18 7e 3e
       0.3050134 0.2241068 -0.035616577 0.24814181
000180 d6 9a 6f 3e a8 3a 2d be f4 29 03 be fb 44 93 3d
       0.23398909 -0.16916907 -0.12808973 0.07190891
000190 47 ad 42 bd 0a 34 f1 bd fb 03 e4 be 2d a9 83 3e
       -0.04752853 -0.11777504 -0.44534287 0.25715008
0001a0 88 05 17 bc 87 c1 09 bd 49 a1 b5 3e 55 0b 2c 3e
       -0.009217627 -0.033631828 0.35474613 0.16801198
0001b0 b4 cf 42 be 16 bf 03 3e 2a 99 0f bb 0b d0 70 bd
       -0.19024545 0.12865862 -0.0021911361 -0.058792155
0001c0 28 18 62 bc 8a 02 17 3e c0 48 9d be a9 f3 8c be
       -0.013799705 0.14747062 -0.30719566 -0.27529648
0001d0 3c 34 55 3e 21 30 8b 3e 44 21 24 3e a9 a2 a3 3e
       0.20820707 0.27185157 0.16028315 0.31960037
0001e0 9c 7f ed 3d 5f ae 19 be 95 34 98 3e ff dc 46 3c
       0.11596605 -0.15007924 0.29727617 0.0121376505
0001f0 59 59 d4 bd 24 ac 84 3e 3a f0 90 be a5 4e 35 3d
       -0.10368604 0.25912583 -0.28308278 0.044264454
000200 16 5d 47 3e e2 8c 1f 3e 40 e3 f1 3e a1 1f ff 3d
       0.19469103 0.15581086 0.4724369 0.124572046
000210 47 f6 11 3e 45 d5 96 bd 99 ce 2a be c5 c9 62 bd
       0.14254104 -0.07364897 -0.16680373 -0.055368204
000220 63 57 22 3b 35 59 5f be 1d 60 03 3e 87 52 a1 3e
       0.0024771325 -0.21811374 0.12829633 0.31508276
000230 fa bd 0b bd 23 63 91 bd ea 73 8e bc 33 f7 9c 3c
       -0.034116723 -0.07098987 -0.017389257 0.019160843
000240 99 5c 99 be 93 99 05 3e a8 90 57 be bd 56 27 be
       -0.2995346 0.13046865 -0.21051276 -0.16341682
000250 6b 23 4e 3e 73 f2 c2 bd e5 dd a0 be a3 80 43 3e
       0.20130698 -0.095189 -0.31419292 0.1909204
000260 6b 0f 22 3e d8 69 7a be 23 72 1f 3d 64 25 7e be
       0.15826194 -0.24454439 0.03892721 -0.24818951
000270 21 cd 1c be 10 72 b4 bd 19 61 cd bc e3 c5 6a be
       -0.15312625 -0.08810818 -0.025070714 -0.2292705
000280 15 fa 40 3e ae 3f 22 3d 47 b6 a8 be 64 17 e1 be
       0.18845399 0.03961151 -0.32951567 -0.43963158
000290 e2 15 03 3d 6c 5a 69 be 4a f1 73 be dc e0 87 bd
       0.03200329 -0.227884 -0.23822513 -0.066346854
0002a0 09 f6 15 be bb e0 29 be 85 d5 72 3e 30 76 48 be
       -0.14644636 -0.16589634 0.23714264 -0.19576335
0002b0 0e d2 14 3e 40 85 78 39 ef 1b 79 3e b7 31 c1 bc
       0.14533255 0.00023700763 0.24327062 -0.023583276
0002c0 28 4a 97 3e 05 29 e4 be 8b 31 8c 3e f0 30 95 3d
       0.29548764 -0.44562545 0.27381548 0.07284725
0002d0 93 3f 81 3d bb cf 23 3d e9 a4 bf bd 8d a9 1e 3d
       0.06310954 0.03999303 -0.09357626 0.038735915
0002e0 25 0d 41 3d 4f d8 85 bd ba b3 79 3e af 70 d5 3e
       0.047131676 -0.06535398 0.24384966 0.41687533
0002f0 94 1d 7f bd 04 6b a8 3d 15 16 79 be ca d2 19 3e
       -0.062284067 0.082235366 -0.2432483 0.15021816
000300 f6 5d b0 be a3 2b 28 be 92 3b f3 3d 59 e1 dd bd
       -0.34446687 -0.16422896 0.118765965 -0.10833997
000310 de a1 24 be c8 53 a3 3e b7 ba 86 be 68 e2 b3 bd
       -0.16077372 0.31899858 -0.26314327 -0.08783418
000320 0f 91 98 be 63 84 a5 be f7 15 ae be 6a 6f 0d 3d
       -0.2979817 -0.32327566 -0.34001133 0.03453008
000330 be df 00 3e 46 ea 5b 3e d8 8a 96 3e 11 71 ad 3d
       0.12585351 0.21476087 0.29402804 0.08468831
000340 06 fc 80 3e dd cf 3b be a6 8b bf be 85 f0 d0 be
       0.2519228 -0.18341012 -0.3741123 -0.40808502
000350 23 42 ad 3c 01 ad 22 be a4 23 6c 3e e2 57 5b 3d
       0.0211497 -0.15886308 0.23060471 0.05355061
000360 7b f0 54 3e c9 09 35 3d 9e c1 8d 3e 0b 0f ae be
       0.20794861 0.044198785 0.2768678 -0.33995852
000370 70 55 08 3e 75 da 9d 3d 44 b5 59 3e 36 eb d2 3d
       0.13313842 0.07707683 0.21260554 0.10298769
000380 2c 1c 7f 3d 82 9b 7a 3e 12 29 9c be 18 ac 9b 3e
       0.062282726 0.24473384 -0.30500084 0.30404735
000390 8f b2 0f be dd d0 00 3d f8 86 4b 3d 0c f2 16 3e
       -0.14032958 0.031449188 0.049689263 0.14740771
0003a0 3b 40 21 3e 13 bc 3c be d4 aa d1 3e ad 5c 9d 3e
       0.15747158 -0.1843112 0.40950644 0.30734769
0003b0 ce 2c 24 3e 20 4e d5 be 42 32 21 3e e1 c6 33 bd
       0.16032717 -0.41661167 0.15741828 -0.043890838
0003c0 b7 c8 41 be f5 82 05 bc 9a 42 33 be cb 18 16 bc
       -0.18924223 -0.008148898 -0.17505875 -0.009161185
0003d0 b9 eb 3d be 81 80 83 be 57 5a 8a be f7 df 4e bc
       -0.18546952 -0.25683978 -0.2702205 -0.01262664
0003e0 77 d1 9f 3e d9 e7 af 3e 2a 74 45 be f5 66 45 3e
       0.31214496 0.34356573 -0.19282594 0.19277556
0003f0 be a3 67 3e b6 5d 7e bc 15 24 00 3e a9 bb 2e be
       0.22621056 -0.015525272 0.12513764 -0.17063774

to_patch_embedding.1.bias f4 [36]
000000 e9 8b 76 be 96 55 24 3e ed 11 4d 3e 38 e9 27 be
       -0.24076809 0.16048273 0.2002637 -0.1639756
000010 1e c0 65 bd 77 3c 33 3e d9 4a d2 3c ef 5d 60 be
       -0.05609142 0.17503534 0.025670456 -0.21910833
000020 0f d9 43 3d 1e f5 a2 3c 79 e9 8b bd 2f 7f d5 3d
       0.047814425 0.019892272 -0.06831641 0.10424649
000030 10 73 6d 3e 10 f2 3a 3e 1c 7f 10 bd ea 08 fa bd
       0.23188424 0.18256402 -0.03527747 -0.122087315
000040 9f 34 95 be 94 38 be bd 65 ae 8e be 1e e9 22 3e
       -0.2914171 -0.09288135 -0.27867427 0.1590924
000050 71 61 8f 3e 35 39 2d bd b0 cd b0 3e 25 e8 0a 3e
       0.2800403 -0.042290885 0.34531927 0.13565119
000060 f0 7f 10 be b9 b1 a0 3c 20 43 29 3e 1e 4f 5b bd
       -0.14111304 0.019615995 0.16529512 -0.05354225
000070 14 d6 04 3c b4 75 4a 3e b0 7f 88 3e 20 f6 60 bd
       0.008107681 0.19771463 0.26659918 -0.054922223
000080 99 b6 3e 3e 09 71 0c 3e 07 80 5d be 93 cd b2 3e
       0.18624343 0.13714994 -0.2163087 0.34922466

transformer.layers.0.0.norm.weight f4 [36]
000000 73 c0 84 3f 74 c3 83 3f f3 e3 8b 3f ae 07 81 3f
       1.0371231 1.0294023 1.092894 1.0080469
000010 f4 a4 75 3f 37 40 82 3f 40 bc 7e 3f 96 04 7c 3f
       0.95954823 1.0175847 0.99505997 0.984445
000020 61 f6 96 3f 26 47 83 3f 1e ad 85 3f d0 52 88 3f
       1.1793939 1.0256088 1.0443456 1.0650272
000030 2b 3a 8b 3f 3e a0 83 3f 21 99 81 3f 2f 35 77 3f
       1.0877126 1.0283277 1.0124856 0.96565527
000040 43 97 82 3f b5 52 7d 3f eb 6f 83 3f 75 3d 81 3f
       1.0202411 0.98954326 1.026853 1.009688
000050 99 1a 6f 3f 8b 41 8b 3f e3 e8 8a 3f 90 2a 82 3f
       0.9339996 1.0879377 1.0852321 1.0169239
000060 e4 22 7b 3f 34 c2 6e 3f 2d 93 82 3f 6d e1 80 3f
       0.98100114 0.9326508 1.0201164 1.0068794
000070 ba d1 81 3f a7 b3 81 3f 86 92 8b 3f 88 06 89 3f
       1.0142128 1.013295 1.090409 1.0705118
000080 cd 3d 85 3f 4b 46 8d 3f 66 e1 71 3f 00 b3 88 3f
       1.0409485 1.1037077 0.94484556 1.0679626

transformer.layers.0.0.norm.bias f4 [36]
000000 d4 b0 46 3d eb 22 b8 3c 11 d3 02 bd 29 a9 61 3c
       0.04850848 0.022477588 -0.03193957 0.013773241
000010 f8 d7 64 3d 28 8e 4a 3c 01 7a 74 bd 24 fd 4b 3d
       0.055870026 0.012362994 -0.059686664 0.04980196
000020 97 d8 49 3c 4f cc f9 3c ab a5 b1 bc 90 2f 42 bc
       0.012319705 0.03049293 -0.021685442 -0.01185216
000030 c9 ba 6d bb a6 02 cf bc fb 34 fe bc 24 ae af 3c
       -0.0036274663 -0.025269818 -0.031031122 0.021445341
000040 80 c5 01 bb 0d 20 96 bc 00 03 81 3b 33 12 80 bd
       -0.0019801557 -0.01832583 0.003937125 -0.06253471
000050 ad 42 2e bd 69 09 2c b8 51 68 87 3d 34 f6 ba bd
       -0.042544056 -4.101676e-05 0.06611694 -0.09128991
000060 94 7c 11 bd e6 e8 a3 bd c4 32 f7 bb 3b 1a 19 bd
       -0.035519198 -0.08003406 -0.0075438935 -0.03737853
000070 e7 26 93 3d 0d 4d c8 3c d7 77 a5 bb 8d 58 3f bc
       0.071851544 0.024450803 -0.0050496864 -0.011678827
000080 31 48 cd 3c d4 72 18 bd d5 38 b5 bc 9e a9 04 3c
       0.025058838 -0.037218884 -0.022121826 0.0080970805

transformer.layers.0.0.fn.to_qkv.weight f4 [216, 36]
000000 a6 0b 3b be 66 e1 95 bd 11 62 a0 3d 72 35 21 be
       -0.18266162 -0.07318382 0.07831205 -0.15743044
000010 e3 c3 04 3e 91 60 35 be 15 57 1f be 30 29 1f be
       0.1296535 -0.17712618 -0.15560563 -0.15543056
000020 fb 21 55 3d 46 47 7b 3d 28 c1 33 be eb 5a 9d bd
       0.05203436 0.06134727 -0.17554152 -0.07683357
000030 f9 ad d3 bd 4e f6 dd 3c 75 97 07 3e d1 3f f1 3d
       -0.10335917 0.027094986 0.1324137 0.1177975
000040 a5 cb 01 be 33 23 2d 3e 78 81 d7 3d da 2d 03 be
       -0.1267534 0.16907959 0.10522741 -0.1281046
000050 c7 1b 2b bd bf 2e 08 3e 4a 07 3c 3b 19 a2 49 bd
       -0.041774537 0.13299082 0.0028690868 -0.049226854
000060 7e 09 e3 bd 79 6a ca bd 78 b0 06 bd 5d f1 2a 3e
       -0.11085795 -0.09883589 -0.032883137 0.16693635
000070 4e 58 b2 3c a7 74 29 3d 23 2e 6f 3e e3 8a 13 3e
       0.021770623 0.041371014 0.23357444 0.1440845
000080 10 45 b1 be f0 1e d8 bd 19 88 4f be d1 03 9b ba
       -0.34623003 -0.10552776 -0.20266761 -0.0011826699
000090 15 b0 93 bc 5a 89 6f be c0 da 2b bd 83 f4 0d be
       -0.018028298 -0.23392239 -0.041956663 -0.13862805
0000a0 ea 7a 5d be 9e 63 69 3c 26 a4 eb 3d 12 dc 9b bd
       -0.21628919 0.014244942 0.11505918 -0.076103345
0000b0 e5 82 50 bb 4f 1b 30 bd 6f c1 9e 3d d3 85 89 3b
       -0.00318163 -0.042994794 0.07751738 0.0041968613
0000c0 0f 99 1a 3e c3 17 0c 3d 5f b1 b9 3c 6c 28 6a 3d
       0.1509745 0.03420235 0.022667585 0.057167456
0000d0 12 71 3a 3d 20 fd 89 be fb ff 7c bd aa a9 e7 3b
       0.04551799 -0.26950932 -0.06176756 0.007069786
0000e0 74 07 11 3e 6f 46 1a 3e 25 c0 b8 3d 77 43 f0 3b
       0.14163 0.15065931 0.09021024 0.007332261
0000f0 0f 81 d2 3d b1 82 5d bd fc d8 8d 3d d6 09 4a 3e
       0.10278522 -0.054079715 0.06926152 0.19730315
000100 7b 9b 75 3e 31 29 41 3b e5 ef b1 3d 18 5a 6c 3e
       0.23985092 0.0029474015 0.086883344 0.23081243
000110 77 93 b8 be 52 38 5a be 65 c6 85 3d a7 17 14 3d
       -0.36050007 -0.21310547 0.065319814 0.03615537
000120 e9 40 2d 3e d3 69 a2 bd 22 69 bf bd 66 32 3f 3d
       0.16919293 -0.079303406 -0.09346224 0.046678923
000130 e1 25 78 bd fc e6 91 3d b9 24 30 be f0 46 42 bd
       -0.060583 0.07124135 -0.17201509 -0.047430933
000140 01 7d 80 3d 7c 98 57 3e c0 6a 44 3e bd db 11 bd
       0.062738426 0.21054262 0.19181347 -0.03560995
000150 5e f1 79 3d b7 e2 c3 3c b2 a4 c8 3d 2c a0 00 be
       0.0610212 0.023911817 0.09797038 -0.125611
000160 ee 9d 06 3c bc 99 25 3e fa ac ea bd a5 3a 7e bc
       0.008216364 0.16171926 -0.11458774 -0.015516912
000170 41 55 64 3c 80 20 2a 3d 52 10 12 3e a4 3f 5a 3b
       0.013936342 0.0415349 0.14264038 0.0033302093
000180 94 06 2b 3e eb 80 25 3d 04 1f 1b be a8 1c 3a 3d
       0.16701728 0.04040615 -0.1514855 0.045437485
000190 a1 a3 1a 3c de 16 2d 3e fc 9a 54 3e b5 86 c6 bd
       0.009438426 0.16903254 0.20762247 -0.09693662
0001a0 d7 50 59 be 43 0c 57 bc 53 42 c0 3d 4f 90 86 3e
       -0.21222244 -0.013125482 0.0938765 0.26281974
0001b0 04 79 b7 3d 7a 66 06 3e 50 38 e2 bb 0e 0e 8e 3d
       0.08958629 0.13125029 -0.0069036856 0.069362745
0001c0 6b f2 95 bc 83 cf 87 bd 54 74 0a be f0 6f c9 3d
       -0.01830407 -0.066313766 -0.13520938 0.098358035
0001d0 a3 bd d9 3c cb b3 d7 bb f5 36 ed 3d 3f 40 a3 bd
       0.026579684 -0.0065827123 0.11582748 -0.07971238
0001e0 b0 aa 87 3d af aa 1f 3e 61 58 1a 3e c8 7e df bb
       0.06624353 0.15592454 0.15072776 -0.0068205334
0001f0 e0 da 57 bd fb 5e 67 3e 05 9b 4f be ea df 3a be
       -0.05269897 0.22594826 -0.20273979 -0.18249479
000200 8b e4 5f be d7 64 ac bb f8 65 49 3c da e5 63 3d
       -0.21864526 -0.0052610445 0.012292378 0.055639125
000210 39 ae 7e 3e b6 f6 bc bd ad 60 5a 3c 2e f4 ea bd
       0.24871148 -0.09226744 0.013328713 -0.11472355
000220 d8 93 83 3c bb 01 0e 3d 53 d1 18 3c a2 fe 5c bd
       0.016061708 0.03466962 0.0093272505 -0.053953774
000230 e0 e4 1b 3e 66 6e ea 3c 09 f4 12 3c 6c 4e 49 3e
       0.15224028 0.028617095 0.008969315 0.19658822
000240 de ce 15 be 43 cc ef bb 0c 4f 03 bd e4 e3 b1 bd
       -0.14629695 -0.007318051 -0.032057807 -0.08686045
000250 a7 a1 00 3c 0d 99 9f 3d 2e 4a 87 3e bc 4f ba 3d
       0.007851041 0.07792864 0.26423782 0.090972394
000260 35 c7 a9 3e d2 06 1e 3b 08 7f 78 3d 49 f0 5e be
       0.33159795 0.0024112952 0.06066802 -0.21771349
000270 89 21 06 3e 8d 0c bf bd 08 df 84 3d 7f c5 9c bc
       0.1309873 -0.09328566 0.06487852 -0.019137142
000280 fd 3b e8 bd 63 4c 6d 3e bb f0 0e 3e 42 5a b0 3d
       -0.11339567 0.2317367 0.13959019 0.08610965
000290 a6 fd b2 be 6a 40 42 3c 87 10 24 3e f9 78 1d be
       -0.34959143 0.011856178 0.1602193 -0.15378179
0002a0 a9 90 0f 3e 3e bf a2 3c 3d ca 5c be b9 53 87 be
       0.14020027 0.019866582 -0.21561523 -0.26431063
0002b0 34 4f 2a bd b9 1b 24 be 2e 25 62 3e 90 35 57 bd
       -0.04157944 -0.160262 0.22084495 -0.052541316
0002c0 5a 22 81 be 6c 1a 56 bd 9a 6c bb 3d be fc c0 bb
       -0.2522152 -0.05227129 0.091515735 -0.005889504
0002d0 4e 5f 9a bb 6d 8f f3 3d 73 51 ee bc 24 2c 04 bc
       -0.0047110682 0.11892591 -0.029091572 -0.008067165
0002e0 d5 5f 95 3d 91 38 09 3d 32 d4 07 3e 12 ed 24 3e
       0.07293669 0.03350121 0.1326454 0.1610606
0002f0 d8 da 7d be 76 f1 f0 bd 55 fa 82 3c 62 80 52 bd
       -0.24790514 -0.11764805 0.015988508 -0.051391967
000300 d8 e7 28 be c0 99 03 bd 00 2b 04 3e f5 fe 16 bd
       -0.16494691 -0.03212905 0.12907028 -0.03686424
000310 f8 19 e0 3d d2 4f fe bd e6 f9 1b 3e 15 fa 6e bc
       0.10942453 -0.12417568 0.15232047 -0.014585991
000320 ef 35 87 3c 67 e6 22 3e 8d 0d fb bc 30 f6 bb bd
       0.01650521 0.15908204 -0.03064611 -0.09177816
000330 fd ec 98 3e 89 07 28 bd 9b 7d 81 bd b2 f0 21 3e
       0.29868308 -0.04102281 -0.063227855 0.15814474
000340 95 9a e6 3d 6a bc 58 bd 7a 22 7e bd eb df ab 3d
       0.11259953 -0.05291406 -0.0620446 0.08392318
000350 b4 3a 41 3b 98 fc 26 3e e0 8a 6c bd 3c 3a e6 bd
       0.0029484453 0.16307294 -0.05774963 -0.11241576
000360 29 02 95 3e 89 e6 93 3b c9 b1 e7 3d 2f 8f 1d be
       0.2910321 0.004513566 0.11313207 -0.15386651
000370 a5 da d8 bd 1c ea b4 3d 43 ba 8a bd e5 79 48 bd
       -0.10588578 0.08833715 -0.06773808 -0.048944373
000380 d9 a9 82 3d 77 a8 f8 3b 3e 29 9b 3e 43 be e0 3d
       0.06380052 0.007588442 0.30304903 0.109737895
000390 ef 0c 1f 3d 7a 34 bc bd 53 90 38 3e b3 03 4c bc
       0.038830694 -0.091896966 0.18023805 -0.012452054
0003a0 4f d6 0c be 05 8f 4b 3e 3e d9 29 3d 21 07 41 3d
       -0.13753627 0.19878776 0.041466944 0.04712594
0003b0 31 4f 02 be bc 46 83 bd 67 2e 3f bd 22 27 7e bd
       -0.12725522 -0.06409976 -0.046675112 -0.06204904
0003c0 f0 0f ca 3d 65 53 45 be eb a5 9c 3d d7 05 68 be
       0.09866321 -0.19270094 0.07648834 -0.22658478
0003d0 4c 71 f7 bd ea f7 2c 3e a7 ad a1 be bf 94 7b 3d
       -0.120821565 0.16891447 -0.315778 0.061421152
0003e0 d0 d7 0f 3d d1 f5 1c bd ca 73 54 bd fd df 2e be
       0.035117924 -0.038320366 -0.051868238 -0.17077632
0003f0 b5 66 72 bd 60 b9 05 3e ec f6 21 be e3 2b 34 be
       -0.05917998 0.13058996 -0.1581685 -0.17594866

transformer.layers.0.0.fn.to_out.0.weight f4 [36, 72]
000000 09 d1 ae bd 2b b9 71 3d fc b9 1d 3c 97 a8 f2 3c
       -0.08535964 0.05901448 0.009626862 0.029621406
000010 be 63 9e 3d d3 62 e8 bd e4 a5 1e 3e d5 e4 da bb
       0.07733868 -0.11346974 0.1549297 -0.006680111
000020 f6 ba cc 3d cb a0 75 bc 74 e7 5f bd 2d 38 31 bd
       0.099965975 -0.014991949 -0.05466409 -0.043266464
000030 ec 7d db bd ff 95 8f be ad 49 12 3e fe 0a 28 3e
       -0.10717377 -0.28044125 0.14285918 0.16410443
000040 41 3f 96 bd 2a 9f d2 bd 1b 08 c2 3d 64 73 98 bd
       -0.073362835 -0.102842644 0.09474202 -0.07443884
000050 86 73 2b be 09 8c de bc 09 9d 58 3e c4 63 60 3d
       -0.16743287 -0.027166383 0.21153654 0.054782644
000060 91 d1 1c 3d a1 86 a3 3d 70 25 20 3e e4 61 00 be
       0.038285796 0.07984663 0.15639281 -0.12537342
000070 2b 1e 5e bd 27 65 3a 3d 93 63 92 3c 33 b1 bc bc
       -0.05422799 0.045506623 0.017869746 -0.023033714
000080 9b 2a 2c be 34 4a 12 3e a9 28 76 3d 04 a2 eb bc
       -0.16813128 0.14286119 0.06009737 -0.028763779
000090 17 c1 d7 3d c1 4c cf 3d 47 9c 10 3e 5a ad 8e bd
       0.10534876 0.101220615 0.14122115 -0.06966658
0000a0 05 fc 94 bd e4 b0 0e bd 2d 3d 3e 3e 45 6c a9 3c
       -0.072746314 -0.034836665 0.18578024 0.02068151
0000b0 3e a5 23 be 05 65 85 bd 25 28 20 bc 3c 54 da bd
       -0.15981004 -0.065134086 -0.009775196 -0.10660598
0000c0 3b f9 85 3e f3 cb 93 bc a1 31 f4 bd a5 52 3a 3e
       0.2616671 -0.018041587 -0.119235285 0.18195589
0000d0 05 0e 4d be cc 92 af 3e 77 37 8b bd 1d 26 b8 bd
       -0.2002488 0.34291685 -0.067976885 -0.089916445
0000e0 56 87 c2 3d 89 c2 94 bc 73 85 a1 3c 4e 0c 24 be
       0.094984695 -0.018159168 0.019716954 -0.16020319
0000f0 e3 5a 35 3c f5 47 a4 bd 44 c8 7c bd 89 22 c3 bd
       0.011069032 -0.08021537 -0.061714426 -0.095280714
000100 df e8 e3 bd 43 2c 02 bd 5f a9 d9 3d 2a 5c a6 3d
       -0.11128401 -0.031780493 0.10628008 0.08123048
000110 90 15 12 3c cc 49 21 bd 0f 09 cf bd 66 c8 75 3d
       0.008916274 -0.03937702 -0.1010915 0.060005568
000120 44 6a 15 3e cb 9a 26 3d 8c a7 59 be f7 3d c4 3d
       0.14591318 0.040674966 -0.2125532 0.09582131
000130 79 bd 2d bd 88 24 dc 3c 22 29 79 3d 40 b0 0a be
       -0.042417023 0.026872888 0.060830243 -0.13543797
000140 af bc 85 bc be 5e 19 3e 91 9d 3b ba e6 44 9c 3d
       -0.016325323 0.14977548 -0.0007156963 0.07630329
000150 bc 93 cf bd 2a c3 3d bd 24 4b d6 3c 4a 8b 78 bd
       -0.101356 -0.0463287 0.026158877 -0.06067971
000160 f6 a2 79 bd 12 26 44 bd f6 a7 d8 3d 61 62 42 be
       -0.060946427 -0.04788787 0.10578911 -0.18982841
000170 af a4 cb 3d 88 c2 d3 bd 61 89 4e bd 42 a5 b7 bd
       0.0994352 -0.10339838 -0.050423983 -0.08967067
000180 9b 0c cf bc d8 77 e6 bc 3c 0f 6b 3c bb 2f cc bd
       -0.025274565 -0.028133318 0.014346894 -0.09970041
000190 d9 e3 fa bd b3 83 b3 3d 70 7e b6 3d ec 97 a6 bd
       -0.1225049 0.08765354 0.08910835 -0.081344455
0001a0 09 82 a1 bd 25 74 96 3c ce 68 70 bd 66 fd 64 3d
       -0.0788613 0.018365929 -0.0586937 0.055905722
0001b0 d1 5b 52 3c e6 14 1b 3d d8 55 8d bc 63 09 23 be
       0.012839274 0.037861727 -0.017252848 -0.1592155
0001c0 34 cb c1 3d f8 08 71 3c 21 36 05 bd e8 2d e0 3d
       0.09462586 0.014711611 -0.032522324 0.10946256
0001d0 d3 e7 44 ba 7a 3c 07 3e b0 a1 77 bd ed 4c dc 3b
       -0.0007511351 0.13206664 -0.06045693 0.0067230375
0001e0 59 9a 48 bd 86 9b 91 3d 5f e7 00 3e 82 ca 95 3c
       -0.048975322 0.07109742 0.12588261 0.01828504
0001f0 e3 1a 82 3c 96 f2 8f 3d 73 2e 49 3c 91 f3 c2 3b
       0.015881961 0.070286915 0.012279141 0.0059494455
000200 16 54 9f bd a8 df e1 bb 88 c3 10 3e 80 2a 11 bd
       -0.0777971 -0.006893117 0.14137089 -0.03544092
000210 fa 9f da 3d 22 54 e6 bd a1 05 56 bc f2 b3 05 3e
       0.10675044 -0.11246516 -0.0130628655 0.13056925
000220 e3 aa 8c 3c 29 73 15 3e da ef 00 3e 92 b1 9a bb
       0.017171329 0.14594711 0.12591496 -0.004720875
000230 26 0b 79 bd f6 be 93 3d 81 73 b0 3d 9f d0 17 bd
       -0.060801648 0.07214157 0.086157806 -0.03706419
000240 a9 6f d5 3d 35 44 11 3d 9f 98 06 3e 87 bf cd bd
       0.10421688 0.035465438 0.13144158 -0.100462966
000250 8f 44 68 3d 4a 44 c9 bc a6 fb c9 3c 28 29 cb 3d
       0.056706008 -0.024568696 0.024656128 0.09919959
000260 5e 7e 07 be cd b9 5f 3c 62 13 16 3d 66 bd 0b 3e
       -0.13231799 0.013655138 0.03663958 0.13646469
000270 b5 89 b0 bd a4 95 48 bd 21 2a 6b bc 57 aa 1c bd
       -0.086200155 -0.048970833 -0.014353306 -0.038248386
000280 34 c4 55 3d ef 20 1a 3d b8 27 ba 3b b2 e6 cb bc
       0.052189067 0.037629064 0.0056810044 -0.024890278
000290 7f fb ab bd 31 45 bb bc 6d a8 92 3d fb 14 74 3d
       -0.083975784 -0.022860141 0.07161031 0.05959032
0002a0 1d 82 7f 3c c6 a7 d7 3a 9c 87 bf bd 74 ee 11 3d
       0.015594986 0.0016453199 -0.09352037 0.035627797
0002b0 16 5e 06 bd e5 f6 fe 3c 57 9f e8 3d ad dc 37 bd
       -0.03280457 0.031123588 0.11358517 -0.044888187
0002c0 17 1a 0b be e4 5d ea bb 29 87 1f 3c d9 92 45 bd
       -0.13584171 -0.007152306 0.009736815 -0.048235748
0002d0 95 c5 b5 3d d6 9e 99 3d b9 8a 39 3d 8b e4 52 bb
       0.088755764 0.07500999 0.04529831 -0.003217968
0002e0 c8 d9 46 3d dc 39 fc 3d 86 76 2f bd 59 11 5a bd
       0.048547536 0.12315723 -0.042837642 -0.0532392
0002f0 75 93 46 3d b9 46 bd bd 4c 83 76 3a 0d 8c 7b bc
       0.04848047 -0.09242005 0.000940372 -0.015353215
000300 42 53 b0 bc a9 0f 7b bd 8f fb 08 be ad 6b 68 3d
       -0.021524075 -0.06129423 -0.13377212 0.056743313
000310 ea e4 7a bd 18 ea e4 3d 75 05 2f 3d 77 c5 f2 3c
       -0.061253466 0.11177462 0.042729814 0.029635174
000320 d9 50 6e 3d 4b cc 49 3d 2d d5 e8 3b 21 c0 03 3c
       0.05818257 0.049267095 0.0071054907 0.008041413
000330 8a 68 8e bd 3b 18 c8 3d d5 ab 05 3d 96 7a fa 3d
       -0.06953533 0.097702466 0.032634575 0.12230413
000340 76 7f 59 bd 7f 4a af bd e9 ba be bd fc 0e 00 3d
       -0.05310007 -0.08559131 -0.09312994 0.03126429
000350 88 4f 11 bc 5b 14 06 be 3c 57 99 3c 8c b3 28 3d
       -0.008869059 -0.13093702 0.018718354 0.041186854
000360 58 0b ae 3d d9 bf 04 bc 2f 51 af 3d 4f e2 dd 3d
       0.084982574 -0.008102381 0.085604064 0.108341806
000370 93 d2 06 3d 1f 8f 46 3d 9c 44 ec 3d bf 90 c3 3d
       0.032915663 0.048476335 0.11536524 0.095490925
000380 4b e7 0e 3d 8d b1 ba bd f2 e9 ab 3c d5 99 a9 3c
       0.034888547 -0.091158964 0.020985577 0.020703236
000390 08 f3 41 3e f6 ac 95 3e 3c 86 7c 3c d2 23 9c bd
       0.18940365 0.2923352 0.015412863 -0.0762402
0003a0 b7 08 82 3d 0e 4f 83 bd dc 4f 81 bd 18 44 f8 3d
       0.063493185 -0.06411563 -0.0631406 0.12122363
0003b0 a6 3c 20 bd d4 cc 20 bd 62 7c 7a bd 28 2c 6f be
       -0.03912034 -0.03925784 -0.061153777 -0.23356688
0003c0 40 b9 38 bd 3b cd 2e bb 8f 82 78 be 63 53 2a bd
       -0.045098543 -0.002667262 -0.24268554 -0.04158343
0003d0 44 53 0e 3e da cc 24 3e 48 57 a8 bd 8d 59 07 bd
       0.13898951 0.1609377 -0.082197726 -0.033044387
0003e0 a1 f2 45 3e 06 f2 d5 3d c6 6c 0d 3e 92 cd e0 3c
       0.19330837 0.10446553 0.13811025 0.027441774
0003f0 50 9a 06 3e c4 87 2e bd 6a 7c 10 be 0a c3 05 3e
       0.13144803 -0.042609945 -0.1410996 0.13062683

transformer.layers.0.0.fn.to_out.0.bias f4 [36]
000000 1b 24 f9 bc 53 8d bf bd 45 00 16 3d 58 a6 c6 3d
       -0.030412724 -0.09353127 0.03662135 0.09699696
000010 4d ba 9e bd 27 d9 bc bc 4c 05 7a 3d 88 9c a7 bd
       -0.07750378 -0.023052765 0.061040208 -0.08184153
000020 3d a9 c6 3d 2f b9 89 3d f8 ec 87 bb 31 68 2c 3c
       0.097002484 0.06724774 -0.004148122 0.010522888
000030 20 da c4 3d 73 a1 a9 3d 7f 60 8d 39 8c a1 d5 bd
       0.096119165 0.08282747 0.0002696551 -0.10431203
000040 a7 cd a8 bd 71 bb b1 3d df 8e 50 3d c2 9a c6 bd
       -0.0824235 0.0867833 0.050917502 -0.096974865
000050 d0 66 86 bd 6c 2d a4 bd 97 bc b8 3d 99 79 d8 3b
       -0.06562579 -0.08016476 0.09020346 0.0066062924
000060 6f 89 d8 3d 8c db 07 bc 97 ad 47 bd 74 72 72 3d
       0.105730884 -0.00829209 -0.048749533 0.059191182
000070 86 cc cd bd e9 e3 67 bc 92 da 5b bd c7 8f 98 bd
       -0.100487754 -0.014153459 -0.05367524 -0.07449298
000080 9e 6c 17 bd 6d 35 ee 3c 9c 5d 93 bd 7b f0 aa 3d
       -0.03696882 0.02907821 -0.07195589 0.08346649

transformer.layers.0.1.norm.weight f4 [36]
000000 a1 ec 74 3f c5 9c 77 3f 45 28 85 3f 63 b1 58 3f
       0.9567357 0.96723586 1.0402914 0.8464567
000010 d8 ab 69 3f d6 df 88 3f ca a0 64 3f 72 58 82 3f
       0.9127784 1.0693309 0.89307845 1.0183241
000020 81 39 6c 3f 8b 4a 84 3f 2c 01 7f 3f be 99 72 3f
       0.92275244 1.0335249 0.99611163 0.9476584
000030 e3 b1 6a 3f 9f c9 7d 3f 7e c3 7c 3f 2c 2d 72 3f
       0.91677684 0.99135774 0.987358 0.94600177
000040 d9 da 7b 3f 11 dc 74 3f b3 b5 78 3f d3 12 78 3f
       0.9838081 0.95648295 0.9715225 0.96903723
000050 3c bb 7d 3f 34 93 83 3f ef 6f 6d 3f ba b8 78 3f
       0.9911382 1.0279298 0.9274892 0.9715687
000060 28 f9 89 3f 5d f0 71 3f 0b 11 89 3f 60 f8 70 3f
       1.0779161 0.9450739 1.0708326 0.9412899
000070 e9 86 71 3f 61 e2 7d 3f 5f 5d 85 3f 7e 59 81 3f
       0.9434648 0.9917355 1.041912 1.0105436
000080 33 da 7a 3f 91 d3 8a 3f 23 0c 88 3f c1 f2 7f 3f
       0.97989196 1.0845815 1.0628704 0.9997979

transformer.layers.0.1.norm.bias f4 [36]
000000 85 b5 a0 3d 70 90 10 3d ca e4 8a 3d f8 d3 0c 3e
       0.07847122 0.035293996 0.06781919 0.13752735
000010 f6 4a b1 3d 57 05 8b bb d1 8f d0 bc d9 3c ef bc
       0.08656876 -0.00424258 -0.025459202 -0.02920382
000020 b2 2f 92 bc 0d f2 21 bc cc 3d 5c bd e2 9e fc 3c
       -0.017845009 -0.00988437 -0.05376987 0.03083748
000030 dd 01 a2 bb 62 e8 74 3c 30 3c 78 bb 57 54 69 3d
       -0.00494407 0.0149479825 -0.0037877671 0.0569652
000040 c9 3a 38 bd af 65 8c 3d 43 14 77 bd e8 92 06 3d
       -0.044977937 0.06855332 -0.060322057 0.032854944
000050 25 1f 0f bb 25 92 03 bd 60 b2 86 bc a0 f1 43 bd
       -0.0021838632 -0.032121796 -0.016442478 -0.047837853
000060 78 f5 22 bc 2f 39 b4 3c 26 4e 46 3d af 26 56 3d
       -0.00994622 0.021999924 0.048414372 0.052282985
000070 a2 64 c8 ba 30 9a 80 bd 98 d9 07 bd a3 2b ff bc
       -0.001528878 -0.06279409 -0.033166498 -0.031148737
000080 45 e0 05 3c 4b 3d 4a 3c 78 18 99 bc 5b 61 44 3d
       0.008171146 0.012343715 -0.018688425 0.047944408

transformer.layers.0.1.fn.net.0.weight f4 [72, 36]
000000 bc 79 01 3e 9b c9 56 bd 5c dd 96 3c 4b 2e 0d be
       0.12644094 -0.05243836 0.0184161 -0.1378719
000010 73 d8 74 3d 5b 5e 39 bd 87 4c 26 3e 26 2d 66 3c
       0.059776735 -0.045256 0.1624013 0.01404885
000020 1a 2f 8a 3e 18 7a f0 bd e2 95 40 bd 1d 83 cd 3d
       0.2698906 -0.117420375 -0.04701794 0.100347735
000030 54 18 1b 3e d4 0b 37 be 2c 40 ee 3d fd 2c 1b 3e
       0.15145999 -0.17875606 0.116333336 0.1515388
000040 c8 d8 19 3e 9c 18 fb 3c 0b 79 30 3e 9b 9a 65 3d
       0.15024102 0.030651383 0.17233674 0.056055646
000050 8b f7 46 be 12 96 8f 3d 50 76 31 3e 12 38 91 bb
       -0.19430368 0.070110455 0.17330289 -0.004431733
000060 8a 7c 45 be ce a1 e1 3c 70 f5 48 bc 39 7b e5 3c
       -0.19285789 0.027542975 -0.012265548 0.028012859
000070 89 2f a1 3d 01 4d 1c be 20 62 74 bd 72 2f 10 be
       0.07870395 -0.1526375 -0.05966389 -0.14080599
000080 da b4 73 bd 8a e2 f0 bd 69 28 70 bb 65 80 98 3d
       -0.059498645 -0.11761959 -0.003664518 0.07446364
000090 0c 91 52 3c 6b 45 40 bd 4c 82 e2 bd a3 87 09 bc
       0.012851965 -0.046941202 -0.110600084 -0.008394155
0000a0 51 bb a1 3c a4 f8 d0 3c a6 f5 40 bd 1b 12 ed bd
       0.01974264 0.025509186 -0.04710927 -0.11575719
0000b0 7a 1e 82 bd 88 28 3e be 5b 34 78 3d f7 bc d1 bd
       -0.06353469 -0.18570149 0.060596805 -0.1024112
0000c0 4d 5b 0b 3e e8 16 1b 3e 21 82 20 be cf 7e 05 3e
       0.13609047 0.15145457 -0.1567464 0.13036655
0000d0 18 1a ff bd df 04 49 3d ac 2e e6 bd 0d 8b b2 bd
       -0.12456149 0.04907691 -0.11239371 -0.08717928
0000e0 00 75 11 be 62 c7 15 be d5 0d 06 bd 16 8e 4c bd
       -0.14204788 -0.1462684 -0.032728035 -0.04994019
0000f0 6b f1 c4 bd ef bd 41 be 6b 32 d7 3d d0 97 89 3b
       -0.09616359 -0.1892011 0.10507663 0.0041990057
000100 c3 ad 35 be e1 61 9d bc 41 c7 0c 3e a9 d8 2c 3e
       -0.17742066 -0.019211711 0.13747884 0.16879524
000110 ee f1 b8 3d 36 26 f1 bd 75 4f d8 bd d7 cf 8e bd
       0.090305194 -0.11774866 -0.1056203 -0.06973236
000120 0d 26 78 3d d8 9c 95 bd d8 f5 1d bc ff 71 a5 bd
       0.060583163 -0.07305306 -0.009641133 -0.08078384
000130 fa 1c 3e 3d 0d 4b 97 3d 57 a9 0f be 4d 99 01 be
       0.046414353 0.07387362 -0.14029442 -0.12656136
000140 c8 0b d4 bd 4c 17 b0 bd 6d b8 2b be 68 c8 59 be
       -0.103538096 -0.085981935 -0.16769572 -0.21267855
000150 2e 51 12 3e 7c 98 65 bc ca 5e 33 3e bb 16 b5 bd
       0.1428878 -0.014013406 0.17516628 -0.08842226
000160 d0 1c b8 3d c5 61 da 3d 16 f0 4e 3c 72 81 00 bd
       0.089898705 0.10663179 0.012630483 -0.03137345
000170 3a 23 40 3d 30 21 13 be c8 80 bf bb 2d b1 19 3e
       0.046908595 -0.14368129 -0.0058442093 0.15008993
000180 ac 57 94 bc 7d 97 a7 bd 24 48 28 3d e6 dd 9a 3d
       -0.018108211 -0.08183191 0.041084424 0.07561855
000190 67 56 ef bd 60 c0 53 3e 48 cd 9e 3d d2 fe 20 bd
       -0.11686402 0.20678854 0.07753998 -0.039305516
0001a0 d3 48 58 bd 4e d8 94 3e 1f be 1e be 50 6d 3e be
       -0.052803826 0.29071277 -0.15502213 -0.18596387
0001b0 56 a5 c2 3d 62 4f 75 3e e5 45 50 3d 77 47 1d be
       0.095041916 0.23956063 0.050847907 -0.15359293
0001c0 73 7a 5b bd 8b da 2a 3e c9 e5 b5 3d e3 89 38 be
       -0.053583574 0.1668493 0.08881719 -0.1802135
0001d0 9a a3 1b be a0 99 ea 3d 9b c2 b0 bb f1 ff d3 bd
       -0.15199128 0.11455083 -0.0053942925 -0.10351551
0001e0 1a 6a 22 3d 90 e5 fa bd 3c 85 63 3d 96 97 3d bd
       0.039651968 -0.12250817 0.055546984 -0.04628714
0001f0 63 d1 b2 3d 3f bd 53 3d c1 f5 a2 3b 82 b8 75 3e
       0.087313436 0.05169415 0.004973144 0.23996165
000200 12 f2 60 bd 66 40 d4 bd 9e fd 20 be 31 3b 9c 3d
       -0.054918356 -0.103638455 -0.15721747 0.07628477
000210 50 77 1a be 26 32 89 3d 1a c4 c5 3d 10 43 ed bd
       -0.15084577 0.06699018 0.09656544 -0.11585057
000220 52 31 ae bd f3 c4 0c 3e b9 04 8e be 81 c3 79 3c
       -0.08505501 0.13747005 -0.27737978 0.015244366
000230 86 ed 23 3e 47 70 70 3d b7 3d a3 3b 73 94 20 be
       0.16008577 0.058700826 0.004981722 -0.15681629
000240 d1 bf 38 bc 80 19 1d 3c 01 cd 3e bd 74 ff 24 bd
       -0.011276201 0.009588599 -0.046582226 -0.04028268
000250 fc f4 79 bd c5 3a 0f 3e 41 b3 91 bd c5 8e fd 3c
       -0.06102465 0.13987263 -0.07114268 0.030951867
000260 1d 80 f3 3d 5f 75 63 3d 8a 9f c4 3d 04 fe e1 bd
       0.1188967 0.055531856 0.09600742 -0.11034778
000270 ae be 31 bd a1 53 b7 3d 15 3f 88 bc d2 34 2e 3d
       -0.043394737 0.08951498 -0.016631642 0.042530842
000280 03 10 d4 bd cf 6d a6 3d a3 dd 12 be 39 91 c0 bd
       -0.103546165 0.08126413 -0.1434236 -0.09402699
000290 5c 30 ca 3d 21 36 ec bb 58 8b ab bc e3 2e b4 bc
       0.09872505 -0.007208601 -0.020940468 -0.021995014
0002a0 16 aa d6 3c 2f e3 0e be 3b 23 b4 bd e5 f4 f8 3d
       0.02620415 -0.13953851 -0.08795782 0.12156085
0002b0 2f 23 b2 3d 9b 67 03 be 58 32 27 be fb 82 07 be
       0.08698117 -0.12832491 -0.16327798 -0.13233559
0002c0 c3 44 b5 3d 2d 09 4f 3d 16 8a 9b bd 78 63 5e 3d
       0.08851006 0.05054586 -0.07594697 0.05429408
0002d0 cf 7c f8 bd c8 96 e2 bd a9 53 e4 3c f9 63 0d 3b
       -0.1213318 -0.110639155 0.027871924 0.002157448
0002e0 99 f6 c8 bd dd c8 13 bd fa 66 e9 bd f6 be 28 be
       -0.0981266 -0.03608023 -0.11396594 -0.16479096
0002f0 39 36 ec 3d c2 3e 05 be c3 4f d4 bd 8b 2c cb 3d
       0.1153378 -0.13012221 -0.10366776 0.09920605
000300 ea 53 c2 bd 7b 69 99 bd 7b a5 02 bd a6 e1 09 be
       -0.094886616 -0.07490822 -0.031896096 -0.13464984
000310 03 3a e0 bc 33 a7 7f 3d 16 cd 4c bc 4f 10 53 3e
       -0.027371412 0.062415313 -0.012500068 0.2061169
000320 ab d1 85 bd 3e 5f 28 be a7 7b b0 3d 21 20 9e 3d
       -0.065341316 -0.16442582 0.08617335 0.07720972
000330 d6 d1 a7 bc 98 87 61 bd f7 ef 4d bc 8d f3 4e bd
       -0.0204858 -0.055060953 -0.012569419 -0.050525237
000340 66 f4 db bd 54 92 c0 3d 94 a2 e8 bc a3 63 44 3e
       -0.10739975 0.0940291 -0.028397836 0.19178633
000350 9e 92 3e 3d 95 cf 07 bd 56 ee 2e be 8a fc b3 3d
       0.046526544 -0.03315695 -0.17083105 0.087884024
000360 5e 63 cb 3c 1b b2 47 bd ce dd 3c bd d6 8b 20 3d
       0.024827655 -0.04875384 -0.046109967 0.039195858
000370 08 5e 8d 3d 15 e1 97 bd 4b 2a 17 3d 2c 00 db bd
       0.06902701 -0.07415978 0.036905568 -0.10693392
000380 93 12 b3 bd 46 68 01 be 5c c5 83 3d 6d f5 15 3e
       -0.08743777 -0.12637433 0.06434128 0.14644404
000390 f0 14 16 be 6a 2b 80 bd 0a 57 dc 3d ae 9f b7 bc
       -0.14656425 -0.062582806 0.10758789 -0.022415008
0003a0 9d 54 e7 3d 3a da 2d be 35 6f 34 3e bf c8 db 3d
       0.112954356 -0.16977778 0.17620547 0.10731649
0003b0 0f 15 2c bd fd 70 73 3e 40 25 d9 bd e5 f9 59 be
       -0.04201227 0.2377357 -0.10602808 -0.21286733
0003c0 bd 46 d1 bd 1d 2c c7 3d 92 ec 69 3e 7a ba ec bc
       -0.102185704 0.09725211 0.2284415 -0.028897513
0003d0 e5 01 79 3e d1 03 e9 3d 37 a2 60 3e 4f 8b 19 3d
       0.24317129 0.11377681 0.2193688 0.03748637
0003e0 b3 22 2f be f5 d7 ef 3d 54 17 0a 3e a8 b8 16 bd
       -0.1710308 0.117111124 0.13485461 -0.036797196
0003f0 3d fb 91 bc 68 64 49 3d 62 90 25 3e 6f 23 a3 bc
       -0.017819995 0.04916802 0.16168359 -0.019914357

transformer.layers.0.1.fn.net.0.bias f4 [72]
000000 65 87 44 bd f7 4f 56 bd 7c 8c 02 be cf 39 9c 3d
       -0.047980685 -0.052322354 -0.12748903 0.076282136
000010 de 9a eb 3d 06 bc b2 bd 03 48 bf 3c c6 c5 f0 3d
       0.11504148 -0.08727269 0.023349768 0.11756472
000020 a6 41 93 3d 8f 2b 0c 3d 56 a3 b0 bd 4c 4b e0 bd
       0.07190256 0.03422123 -0.08624904 -0.10951862
000030 d3 43 87 3d f3 61 d5 3d 42 f0 d7 bc d6 8d f3 3d
       0.06604733 0.10419073 -0.026359681 0.118922874
000040 6b 34 1c be 99 01 be 3d 7b e9 ac bd b1 6d d0 3d
       -0.15254371 0.092776485 -0.0844297 0.10177172
000050 ed c6 e3 bd 6a 2d 8c bd 1a c2 5b 3d 7a 5f 87 bd
       -0.111219265 -0.068445995 0.053651907 -0.066100076
000060 38 7d d6 bd fa fe eb bd 26 00 a4 bc fb 83 ed 3d
       -0.10473102 -0.11523242 -0.020019602 0.11597439
000070 76 a9 ae 3d 4c 83 14 bd 09 1c 9d 3d 5b 51 45 bd
       0.08528416 -0.036258027 0.07671363 -0.04817329
000080 62 ca a5 3d 2b 8d 39 3d d4 ac 54 bd 97 f0 11 3e
       0.08095242 0.045300644 -0.051922634 0.14251934
000090 fd 1c 2e 3d 92 23 89 bd 1e 58 9b bd 6e 16 ac bd
       0.042508114 -0.066962376 -0.075851664 -0.084027156
0000a0 76 b5 f8 bd 1f 1a b8 3d 9a 09 5c bd 35 c2 0f be
       -0.12143986 0.08989357 -0.053720094 -0.14038928
0000b0 62 9f 99 bc 14 4a 0a 3e d6 82 19 be 4d 05 2f bd
       -0.018752757 0.13504821 -0.14991316 -0.042729665
0000c0 ed b9 c1 bd 97 fa 9b 3d 3c 04 0e be d1 5f 7c 3c
       -0.09459291 0.076161556 -0.13868803 0.015403704
0000d0 71 d2 00 3e 44 6e 75 bc 56 93 c8 bd 69 47 17 be
       0.12580277 -0.014979903 -0.09793727 -0.14773335
0000e0 81 ef ac bd 91 0c bf bd b3 aa 5d bd 24 d7 db bd
       -0.08444119 -0.09328569 -0.05411787 -0.10734394
0000f0 bf 02 3c 3c 02 c2 30 bd 7e 9e 04 3e ea b6 17 3e
       0.011475264 -0.04315377 0.12951085 0.1481587
000100 43 af 80 bd 26 97 da bc 53 6a d4 bd ab 32 21 3e
       -0.062834285 -0.026683401 -0.10371842 0.15741985
000110 20 b4 c6 bb ac 59 cb 3d d2 bf 85 bd 3f 96 5a 3d
       -0.006063953 0.09929213 -0.065307274 0.053365942
