CvT/Models/V train 0.971 V test 0.888 lr 0.001/model_bestQ.pt (torch, 210865 bytes, 164 tensors)

stage1.patch_embed.proj.weight f4 [12, 3, 3, 3]
000000 9b ed fb 3d bc 86 1a 3d 82 d9 72 3d 0a b4 61 be
       0.12301179 0.03772615 0.059289463 -0.22041336
000010 5d a4 d6 be 85 2d d9 bd 9b 00 63 be c4 00 a1 bc
       -0.41922274 -0.10604385 -0.221682 -0.019653685
000020 b0 ad 33 3e 8c b0 b2 bd fe c9 bf b9 b0 a0 14 3d
       0.17546725 -0.0872508 -0.00036580855 0.036286056
000030 6d 6b 18 3d b0 96 b9 3d 8e cc ce bd 79 c9 70 be
       0.037211824 0.090619445 -0.100976095 -0.23514356
000040 70 f3 b9 3d d4 13 77 3d 24 c4 87 3c d5 3a d8 bc
       0.09079635 0.060321644 0.01657302 -0.02639524
000050 cb 9e 32 3c 3e 58 e9 3c fd 28 db b8 83 6c 2b be
       0.010902117 0.02848446 -0.000104503684 -0.16740613
000060 ca 31 d1 bd 5f df ef bc 88 65 44 be dc a2 c6 3d
       -0.10214575 -0.029281316 -0.19179356 0.09699032
000070 cc 49 74 bd 90 dd cc bd 84 64 d6 3d 5d 5f 38 3e
       -0.05964069 -0.10003197 0.104683906 0.18005128
000080 c3 fc 37 be a3 04 9d bd 94 b4 84 be f9 d3 cb 3c
       -0.17967515 -0.076669 -0.2591902 0.02488135
000090 6f 84 8d bd 50 20 3b bd a4 49 9c 3d 5a b9 f1 3c
       -0.06910025 -0.045685112 0.07631233 0.029507328
0000a0 a4 a7 59 bc 4c 98 8f bd b1 8f 8d 3b 3d e0 84 3e
       -0.013284598 -0.0701147 0.004320108 0.2595233
0000b0 f1 43 0e 3b 1a 8a fd 3d ea 41 5b 3d cd 04 31 3e
       0.0021707977 0.123798564 0.053529657 0.17286988
0000c0 65 eb 31 be 56 24 fe bd e7 88 e4 bc 78 de 63 bc
       -0.17374952 -0.12409274 -0.027897311 -0.013908021
0000d0 59 7b 39 bd 39 b3 f2 bd 94 a2 9c be 81 c5 21 3d
       -0.04528365 -0.1185059 -0.30592787 0.039494995
0000e0 33 08 94 bb c8 40 45 3e f6 6a 15 3e 3d 36 57 ba
       -0.004517579 0.19262993 0.14591584 -0.0008209681
0000f0 f2 c1 1d be 4d 1d d8 3c 91 58 4b 3e 5a c2 53 3e
       -0.15406016 0.02638116 0.19858004 0.20679608
000100 bb 76 33 3c cf f8 73 3d fc cf 3f bb 9f 58 7c 3d
       0.0109536005 0.059563454 -0.0029268255 0.061607953
000110 fb b1 98 3d b8 98 34 be 00 db 04 3d 9a 05 95 3d
       0.07455822 -0.17636383 0.032435417 0.07276459
000120 61 7d 7e bd 5e aa 96 bd 7b 2d 64 be 35 13 e1 3d
       -0.06213129 -0.07356714 -0.22282974 0.109899916
000130 16 69 60 bd 5c 74 0a 3d 8a db fc bd 02 09 57 be
       -0.054787718 0.033802375 -0.12346561 -0.2099953
000140 39 82 e7 3d 8d 08 62 bd ec 39 ea 3c cc 6e 6c bc
       0.11304135 -0.055183936 0.028592072 -0.014430713
000150 62 c4 8b be d2 62 4f be 25 be f6 bd 6f 2b 31 bd
       -0.27298266 -0.2025254 -0.12047986 -0.043254312
000160 2d 32 87 bc 86 22 14 bb 85 bd 12 3e 92 62 60 be
       -0.016503418 -0.0022603585 0.14330108 -0.21912602
000170 8c 2d e9 3c 23 ed 01 be 3d 57 17 be 5e 61 ca bd
       0.028464101 -0.12688117 -0.14779373 -0.098818526
000180 c7 31 c3 3c 64 7d ca 3d 39 07 72 bd 4f 53 e2 bd
       0.023827447 0.098871976 -0.05908892 -0.11051046
000190 b5 c5 11 be e5 ea 51 3e 36 de e0 3d c8 0d 82 3d
       -0.14235575 0.20499761 0.109798834 0.06350285
0001a0 3f 23 30 be 36 fe 5e bc f5 9e 34 bc 13 85 0d bc
       -0.17200945 -0.013610413 -0.011024226 -0.008637684
0001b0 4a ed 19 3e a2 44 28 bd 34 b5 b1 bd a6 c7 91 3d
       0.15031925 -0.04108108 -0.0867714 0.07118158
0001c0 e9 46 36 be 12 dd 6d bd 7b 7a a3 3b 0e 9f 38 3e
       -0.17800488 -0.058072157 0.004988966 0.18029425
0001d0 ed 68 0c 3e a2 3c 8f bd f2 1a a8 bc 02 25 a8 3c
       0.13711901 -0.06993987 -0.020520661 0.02052546
0001e0 cb 90 fc bd 1e 8d b0 bd c2 fa 76 3c 84 19 23 bd
       -0.123323046 -0.08620666 0.015074434 -0.039819255
0001f0 dc 98 dd bc 4d bd ae 3d 3d 6f ad bd a4 8c 28 3e
       -0.027050428 0.085322 -0.08468483 0.164599
000200 6f 4a 1b 3c 0d b4 e3 bd 88 68 84 be a1 64 50 be
       0.009478196 -0.11118326 -0.25861 -0.20350887
000210 a0 c5 41 be 36 93 8c bd b5 e3 c1 bd 05 9c ba bc
       -0.18923044 -0.06864016 -0.0946726 -0.022779474
000220 17 de 59 bd c8 b7 f0 3c 11 ff 53 be b6 eb 59 3e
       -0.053190317 0.029384509 -0.20702769 0.21281323
000230 c9 2a 16 3b 54 ac 6a be da 16 17 3e 03 40 85 3d
       0.0022913686 -0.229173 0.14754811 0.0650635
000240 7a ee dd bb 31 68 c7 bb 04 e5 3d 3d dc ee b8 3c
       -0.0067728134 -0.0060854186 0.046360984 0.022574835
000250 d9 12 d3 bd 97 e4 47 bd 44 42 bd bd f0 33 09 be
       -0.10306329 -0.048801985 -0.09241155 -0.13398719
000260 d3 b7 9d 3c 2d bd aa bd f0 0b d8 3b 85 35 56 3e
       0.019252693 -0.08336864 0.00659322 0.20918854
000270 62 e8 1a be e0 10 f9 3d e6 b3 0a 3e aa 18 45 be
       -0.1512771 0.12161422 0.13545188 -0.1924769
000280 d0 66 b3 bd e0 70 15 be 5f d0 84 3e 7d c6 71 bd
       -0.08759844 -0.1459384 0.25940225 -0.059027184
000290 08 7a 19 3d 5f 27 a6 bd 56 4a f6 3c 70 fa 27 3e
       0.037469894 -0.08112978 0.030064743 0.16404128
0002a0 d0 e7 1c 3e 36 b7 31 be c8 c0 42 3e 60 ce d4 bd
       0.15322804 -0.17355046 0.19018853 -0.103909254
0002b0 0a df 81 3d e5 68 3b 3e 8c ba 2f bd be 20 54 3e
       0.063413695 0.18301733 -0.042902514 0.20715615
0002c0 64 cf 04 be 8e b8 a1 3d 5a fc 82 3b 90 0b eb bd
       -0.12969738 0.07896529 0.003997368 -0.11476815
0002d0 bc 37 8a 3d 8e 6b cc bd b7 de f6 bc 64 98 5d bd
       0.06748912 -0.09981452 -0.030135496 -0.05410041
0002e0 d4 e2 f1 3d 2d d9 cb 3d 2b c2 31 be d9 63 b1 bd
       0.11810842 0.09953532 -0.17359225 -0.086616226
0002f0 82 6e 15 be 2f ae 05 be f2 a9 2f 3e 46 37 31 bd
       -0.14592937 -0.13054727 0.17154673 -0.043265603
000300 77 d6 5b be 79 5c 07 3d 42 9a a7 bd c7 7e 00 3e
       -0.2146853 0.033047173 -0.08183719 0.12548362
000310 cf 6e 00 3d 7f 5c e3 3d 72 9c ee 3d e5 d8 0b 3e
       0.031355675 0.111016266 0.11650933 0.13656957
000320 75 62 08 3d ab e3 c9 bc 39 be 75 bd c0 c5 d2 3c
       0.03329702 -0.024644693 -0.059995864 0.02572906
000330 bf db c3 3d 69 ae 30 3d da c5 34 3d f5 92 04 be
       0.095633976 0.04313508 0.044134 -0.12946685
000340 74 b7 38 be 34 62 ac 3d 65 4a b6 bd 8d 23 0c bd
       -0.18038732 0.08417168 -0.089009084 -0.03421359
000350 99 6a 5f bd 70 fa d3 3c d0 d1 f8 3d 9f c9 1a be
       -0.05454502 0.025876254 0.121493936 -0.15115975
000360 61 98 de 3d 82 66 dd bd f7 9d e5 bc a7 ce 5d bc
       0.10868908 -0.108105674 -0.028029425 -0.013538039
000370 39 ea 98 3d 5c a4 35 3d 62 58 1d bd 65 3b b0 bd
       0.074665494 0.0443462 -0.038414367 -0.086050786
000380 49 81 a4 3d 0f ad 6d 3d bf 63 9d bd cd e5 b1 3d
       0.08032472 0.05802637 -0.07685041 0.08686409
000390 57 2f 1f be 75 be 9f bd 15 53 d9 bc a4 b7 cb bd
       -0.15545402 -0.07799999 -0.026528874 -0.09947136
0003a0 69 b2 97 bd 3d d5 d6 bd 18 43 ae bd e3 2f b3 3d
       -0.07407076 -0.10489891 -0.08508891 0.08749368
0003b0 b1 14 b3 bd af cf d0 ba e1 39 2d be e7 44 18 3e
       -0.08744181 -0.0015931035 -0.1691661 0.14870034
0003c0 e5 ce 37 be 41 3c 1b be 79 72 7b 3d 29 6b 59 bc
       -0.17950018 -0.15159704 0.061388467 -0.013270178
0003d0 99 bc 9f be c1 b6 3a bc 9c 86 a1 bd 5f 7b 95 bd
       -0.31198576 -0.011396111 -0.07887003 -0.07298922
0003e0 d4 d1 38 3e 0a a9 42 3d 92 c6 2f bc 24 0d 07 3e
       0.18048793 0.04752449 -0.010728495 0.13188607
0003f0 66 9b 72 3d 10 5c 5f be c7 ba bf 3d 6e aa 90 bb
       0.05923023 -0.21812463 0.09361797 -0.004414848

stage1.patch_embed.proj.bias f4 [12]
000000 d2 a1 d6 3e aa 11 c6 be 75 dc 92 bd 2a 2d 07 bf
       0.41920334 -0.38685352 -0.07170955 -0.5280329
000010 75 d3 41 be 34 5b 48 3e 21 ea 42 be 28 de f9 3e
       -0.1892832 0.19566041 -0.19034626 0.48802304
000020 1b eb 10 3f d4 f4 0d 3e 69 4c 38 be 63 5c f4 be
       0.5660874 0.13862926 -0.17997898 -0.47726735

stage1.patch_embed.norm.weight f4 [12]
000000 49 45 53 3f 14 3e 59 3f d1 f3 33 3f 77 0b 69 3f
       0.82527596 0.8486035 0.7029391 0.9103312
000010 81 a6 41 3f bd 6f 2d 3f 59 71 48 3f d3 92 6d 3f
       0.7564469 0.67748624 0.78297955 0.9280216
000020 80 ac 81 3f 37 2e 3f 3f 14 23 42 3f 0e db 63 3f
       1.0130768 0.74679893 0.75834775 0.89006126

stage1.patch_embed.norm.bias f4 [12]
000000 7a f3 81 3c a4 16 a7 3c f8 38 61 3d 40 37 28 3d
       0.015863169 0.020396538 0.05498597 0.041068316
000010 ad 5a bc 3d 7f e8 e7 bc d4 5d a1 3c 82 60 fe bc
       0.091969825 -0.028309105 0.019698061 -0.031051878
000020 f6 fb 3d bd f2 aa 80 3c 87 75 f8 bc ba b2 1e bd
       -0.046382867 0.015706513 -0.030329479 -0.038744666

stage1.blocks.0.norm1.weight f4 [12]
000000 90 f9 ae 3d 1b 91 00 80 92 7f 03 80 6e cd f6 3d
       0.08543694 -5.2054e-41 -3.2127e-40 0.12050901
000010 3d 08 06 80 8c 08 00 00 bd 31 ab 3d b3 76 9f 3d
       -5.53968e-40 3.066e-42 0.08359096 0.07786312
000020 d3 a4 1b 3e 31 38 00 80 1e c2 be 3d a9 f8 04 00
       0.15199594 -2.0158e-41 0.09314369 4.56544e-40

stage1.blocks.0.norm1.bias f4 [12]
000000 cd e2 ee bc 26 4e 03 80 09 bc 01 00 85 be b4 3b
       -0.029160881 -3.03541e-40 1.5929e-40 0.0055158758
000010 bc 51 06 80 67 3f 01 00 b3 60 fe 3c 8f 86 59 ba
       -5.80334e-40 1.1458e-40 0.03105197 -0.0008297944
000020 e4 52 16 be e9 09 04 80 cd 31 b7 3c 00 46 01 00
       -0.14680058 -3.70897e-40 0.022362614 1.16947e-40

stage1.blocks.0.attn.conv_proj_q.bn.weight f4 [12]
000000 b5 c7 01 00 70 64 06 80 5f da 06 80 c0 fc 02 80
       1.63477e-40 -5.87043e-40 -6.2935e-40 -2.7434e-40
000010 38 35 02 80 ab c9 06 00 b4 f7 03 80 68 34 02 00
       -2.02762e-40 6.23358e-40 -3.64366e-40 2.02471e-40
000020 1d 64 04 00 73 e1 04 80 fc 53 02 00 93 e1 04 80
       4.03256e-40 -4.48218e-40 2.13799e-40 -4.48263e-40

stage1.blocks.0.attn.conv_proj_q.bn.bias f4 [12]
000000 78 4d 02 00 cd f1 02 80 6d 0c 03 80 5d 9e 03 80
       2.11462e-40 -2.70413e-40 -2.79964e-40 -3.32317e-40
000010 33 12 02 00 d6 03 03 80 80 19 01 80 19 f2 04 80
       1.902e-40 -2.76883e-40 -1.00983e-40 -4.5419e-40
000020 35 27 06 80 71 0d 03 00 79 5d 01 00 f0 8f 03 80
       -5.65078e-40 2.80328e-40 1.25367e-40 -3.27142e-40

stage1.blocks.0.attn.conv_proj_q.bn.running_mean f4 [12]
000000 a5 5b 00 80 04 00 00 80 01 00 00 80 50 15 00 00
       -3.2876e-41 -6e-45 -1e-45 7.645e-42
000010 04 00 00 00 04 00 00 80 39 03 00 80 ad 7a 00 00
       6e-45 -6e-45 -1.156e-42 4.4008e-41
000020 bd 4a 00 80 01 00 00 80 b5 01 00 00 03 00 00 00
       -2.6811e-41 -1e-45 6.12e-43 4e-45

stage1.blocks.0.attn.conv_proj_q.bn.running_var f4 [12]
000000 04 00 00 00 04 00 00 00 04 00 00 00 04 00 00 00
       6e-45 6e-45 6e-45 6e-45
000010 04 00 00 00 04 00 00 00 04 00 00 00 04 00 00 00
       6e-45 6e-45 6e-45 6e-45
000020 04 00 00 00 04 00 00 00 04 00 00 00 04 00 00 00
       6e-45 6e-45 6e-45 6e-45

stage1.blocks.0.attn.conv_proj_k.bn.weight f4 [12]
000000 ab f1 03 00 0f b3 03 00 d4 de 00 00 3b c5 06 80
       3.622e-40 3.3974e-40 7.9936e-41 -6.21766e-40
000010 b5 c7 01 00 e2 42 06 80 93 c1 00 80 05 dc 06 80
       1.63477e-40 -5.75006e-40 -6.9441e-41 -6.29941e-40
000020 43 63 01 80 f4 a8 01 00 cd 5e 00 80 8e ae 06 00
       -1.27444e-40 1.52444e-40 -3.4008e-41 6.13631e-40

stage1.blocks.0.attn.conv_proj_k.bn.bias f4 [12]
000000 fe 39 02 80 6f 70 02 00 37 17 01 80 94 82 03 80
       -2.04475e-40 2.24005e-40 -1.00163e-40 -3.22349e-40
000010 aa 40 03 80 2c fd 06 80 f9 bd 04 80 e6 56 02 00
       -2.98704e-40 -6.41834e-40 -4.35491e-40 2.14844e-40
000020 33 e9 04 00 da 23 03 80 f7 14 01 80 80 6d 03 80
       4.50998e-40 -2.88368e-40 -9.9356e-41 -3.14788e-40

stage1.blocks.0.attn.conv_proj_k.bn.running_mean f4 [12]
000000 27 7f 00 80 04 00 00 80 02 00 00 00 fb 45 00 80
       -4.5614e-41 -6e-45 3e-45 -2.5104e-41
000010 03 00 00 80 01 00 00 00 16 02 00 00 ce b8 00 00
       -4e-45 1e-45 7.48e-43 6.6295e-41
000020 11 06 00 00 02 00 00 80 3a 00 00 00 02 00 00 80
       2.176e-42 -3e-45 8.1e-44 -3e-45

stage1.blocks.0.attn.conv_proj_k.bn.running_var f4 [12]
000000 04 00 00 00 04 00 00 00 04 00 00 00 04 00 00 00
       6e-45 6e-45 6e-45 6e-45
000010 04 00 00 00 04 00 00 00 04 00 00 00 04 00 00 00
       6e-45 6e-45 6e-45 6e-45
000020 04 00 00 00 04 00 00 00 04 00 00 00 04 00 00 00
       6e-45 6e-45 6e-45 6e-45

stage1.blocks.0.attn.conv_proj_v.bn.weight f4 [12]
000000 a8 4c 2c 3f 12 ac 05 00 91 e9 01 00 09 b3 27 3f
       0.6730447 5.20905e-40 1.75623e-40 0.6550756
000010 0a 19 05 00 c6 5d 00 00 ca ed e6 3e 69 f9 0d 3f
       4.6816e-40 3.364e-41 0.45103294 0.55458695
000020 23 99 57 3f b4 f8 00 00 91 d5 c7 3e 2f 73 00 80
       0.84218043 8.9218e-41 0.39030126 -4.132e-41

stage1.blocks.0.attn.conv_proj_v.bn.bias f4 [12]
000000 0e d7 f3 3c 73 b2 fd ba 3e d6 b6 b4 96 53 a6 bc
       0.029765632 -0.001935555 -3.4056023e-07 -0.020303529
000010 d0 c5 03 ae af 4f d8 b4 33 cb 26 3c 9f 35 4d 3c
       -2.9961644e-11 -4.0291113e-07 0.010180282 0.012524991
000020 8f 19 76 3b be c7 db b4 f1 38 ea 3c da ee f4 b3
       0.0037551855 -4.093726e-07 0.028591605 -1.1405582e-07

stage1.blocks.0.attn.conv_proj_v.bn.running_mean f4 [12]
000000 96 27 88 3c 04 00 00 80 04 00 00 00 c2 4f 3b bd
       0.016620439 -6e-45 6e-45 -0.04573036
000010 04 00 00 80 04 00 00 00 1c e2 0b bb 9f cf 04 3d
       -6e-45 6e-45 -0.0021344488 0.032424565
000020 ef b4 2a bc 03 00 00 80 46 36 9b 3a 04 00 00 80
       -0.0104191145 -4e-45 0.0011841736 -6e-45

stage1.blocks.0.attn.conv_proj_v.bn.running_var f4 [12]
000000 9a ee fc 39 04 00 00 00 04 00 00 00 2f 7c 98 3a
       0.00048242958 6e-45 6e-45 0.0011633689
000010 04 00 00 00 04 00 00 00 ed 10 27 39 9a 2d b0 39
       6e-45 6e-45 0.00015932666 0.00033603312
000020 02 9b 61 3a 04 00 00 00 58 3f a5 39 04 00 00 00
       0.0008606167 6e-45 0.00031518447 6e-45

stage1.blocks.0.attn.proj_q.weight f4 [12, 12]
000000 73 01 01 00 32 24 03 80 aa 76 03 80 02 3d 03 80
       9.2355e-41 -2.88491e-40 -3.18075e-40 -2.97392e-40
000010 48 19 03 80 0b e7 04 00 81 70 03 80 27 4d 01 80
       -2.84576e-40 4.50225e-40 -3.15865e-40 -1.19513e-40
000020 24 ad 04 00 1d 30 02 00 e2 37 01 80 59 bc 06 80
       4.29453e-40 2.00931e-40 -1.11882e-40 -6.1858e-40
000030 ed f4 02 00 3a 12 03 80 4c c4 02 80 f5 82 01 80
       2.71534e-40 -2.82045e-40 -2.54089e-40 -1.38814e-40
000040 f3 1d 02 80 3d 97 03 80 f3 a2 03 00 4e b7 02 00
       -1.94415e-40 -3.2976e-40 3.33962e-40 2.49428e-40
000050 29 cb 04 80 a1 cb 03 80 e8 8f 03 80 46 b3 06 00
       -4.40222e-40 -3.48555e-40 -3.2713e-40 6.15324e-40
000060 7d 4d 06 80 7d 26 00 80 0a a2 03 80 08 f6 01 00
       -5.7881e-40 -1.3807e-41 -3.33635e-40 1.80095e-40
000070 88 e0 03 80 a7 62 03 00 2c 8f 02 00 04 51 03 80
       -3.56053e-40 3.10896e-40 2.35031e-40 -3.0457e-40
000080 be 56 05 80 37 22 03 00 63 4d 00 80 00 03 03 00
       -4.90295e-40 2.8778e-40 -2.7761e-41 2.76583e-40
000090 ca 3a 03 00 cc 74 03 00 be 41 04 00 72 94 03 00
       2.96596e-40 3.17405e-40 3.90926e-40 3.28759e-40
0000a0 7f e4 01 80 65 87 00 80 62 93 06 00 d4 87 03 80
       -1.73804e-40 -4.857e-41 6.03884e-40 -3.24232e-40
0000b0 d9 5e 00 80 40 0b 03 00 cd b2 00 00 81 5a 00 80
       -3.4025e-41 2.79542e-40 6.4142e-41 -3.2467e-41
0000c0 3d b3 04 00 d4 94 02 80 b7 4b 02 00 b3 fc 01 00
       4.3164e-40 -2.3706e-40 2.10832e-40 1.82487e-40
0000d0 2a 2d 03 80 7a bd 00 00 41 21 03 80 95 d6 02 80
       -2.91708e-40 6.7971e-41 -2.87436e-40 -2.60649e-40
0000e0 fc ca 04 00 31 3c 00 80 f9 ea 02 80 3c 54 01 00
       4.40159e-40 -2.1593e-41 -2.67963e-40 1.22053e-40
0000f0 b9 04 01 80 c1 d4 05 80 59 03 06 80 7d fa 02 80
       -9.353e-41 -5.35499e-40 -5.52214e-40 -2.73529e-40
000100 3f 30 04 80 6b 6f 03 00 59 ee 00 00 7f a7 00 00
       -3.8465e-40 3.15476e-40 8.5503e-41 6.0086e-41
000110 0d 90 03 80 aa 5e 03 00 64 e2 02 00 ed fa 02 00
       -3.27182e-40 3.09466e-40 2.64885e-40 2.73686e-40
000120 2b fc 02 80 f3 cd 00 00 4c 68 03 80 d4 7c 03 80
       -2.74132e-40 7.388e-41 -3.12921e-40 -3.20286e-40
000130 96 5f 06 00 c4 71 05 80 11 f7 02 80 1d 4d 01 80
       5.85303e-40 -4.99989e-40 -2.72302e-40 -1.19499e-40
000140 1d c2 00 80 c6 a0 03 80 d8 15 01 80 08 29 00 80
       -6.9635e-41 -3.33181e-40 -9.9672e-41 -1.4719e-41
000150 9b 9f 03 00 7f 2a 03 80 c3 05 05 00 c1 96 02 00
       3.32762e-40 -2.90751e-40 4.61244e-40 2.37751e-40
000160 2e aa 02 00 7b f8 05 80 38 fc 06 00 6a 7b 00 80
       2.4472e-40 -5.48315e-40 6.41492e-40 -4.4273e-41
000170 99 e7 04 80 55 63 03 00 d3 9b 00 00 8b 29 01 80
       -4.50424e-40 3.1114e-40 5.5899e-41 -1.06738e-40
000180 15 6f 05 00 d1 b0 00 80 01 12 06 80 d3 d5 00 00
       4.99026e-40 -6.343e-41 -5.57472e-40 7.6706e-41
000190 b3 1d 03 00 a7 7e 03 80 0e 57 04 80 07 03 06 80
       2.8616e-40 -3.20941e-40 -3.98571e-40 -5.52099e-40
0001a0 33 29 01 80 d7 ad 02 00 cd 06 04 00 96 65 01 80
       -1.06615e-40 2.46033e-40 3.69782e-40 -1.28278e-40
0001b0 58 83 06 00 6f 05 03 80 bb d3 00 00 c8 88 00 00
       5.9813e-40 -2.77456e-40 7.5955e-41 4.9068e-41
0001c0 8b 7e 03 80 a8 25 04 80 18 f4 05 00 5d f6 06 80
       -3.20902e-40 -3.8085e-40 5.46742e-40 -6.39391e-40
0001d0 dd ad 06 80 65 e7 02 80 80 83 00 00 eb 26 01 80
       -6.13383e-40 -2.6668e-40 4.7173e-41 -1.05797e-40
0001e0 f0 91 06 80 53 bf 04 00 b0 8c 04 00 6b 49 04 80
       -6.03365e-40 4.35976e-40 4.17811e-40 -3.9368e-40
0001f0 41 34 03 00 35 82 03 00 cd 59 06 80 43 19 00 00
       2.94252e-40 3.22216e-40 -5.83227e-40 9.062e-42
000200 35 c1 00 80 9f 55 06 00 8c 3c 00 80 41 7a 03 00
       -6.931e-41 5.81728e-40 -2.172e-41 3.19363e-40
000210 25 61 00 80 43 56 03 80 45 26 01 00 cd 98 00 00
       -3.4849e-41 -3.06451e-40 1.05564e-40 5.4815e-41
000220 2c 2b 03 00 4a 82 03 80 41 b6 02 80 88 7a 03 00
       2.90994e-40 -3.22245e-40 -2.49051e-40 3.19462e-40
000230 d3 fa 02 80 74 1b 04 80 f6 9f 03 00 bd bb 03 80
       -2.7365e-40 -3.7719e-40 3.3289e-40 -3.42854e-40

stage1.blocks.0.attn.proj_k.weight f4 [12, 12]
000000 6c 3e 01 80 1b 7f 03 00 c8 89 02 80 13 92 03 80
       -1.14228e-40 3.21103e-40 -2.33098e-40 -3.27908e-40
000010 93 5a 03 80 3f f6 02 00 71 45 04 00 67 56 03 80
       -3.07998e-40 2.72007e-40 3.92253e-40 -3.06502e-40
000020 86 4e 03 80 10 bc 02 80 35 f8 04 00 aa 87 05 80
       -3.03675e-40 -2.51135e-40 4.56382e-40 -5.07845e-40
000030 af 79 05 80 8e 6a 05 00 2d a7 02 00 70 72 00 80
       -5.0283e-40 4.97402e-40 2.43642e-40 -4.1052e-41
000040 54 f0 00 80 23 aa 02 00 e3 09 03 00 04 62 03 80
       -8.6213e-41 2.44705e-40 2.79053e-40 -3.10668e-40
000050 ad 71 01 00 19 9f 05 80 f1 86 02 00 87 69 03 00
       1.32615e-40 -5.16251e-40 2.32079e-40 3.13363e-40
000060 f8 52 03 80 ff 03 03 80 99 a8 02 80 e1 e9 06 00
       -3.0527e-40 -2.7694e-40 -2.44152e-40 6.34913e-40
000070 19 cf 01 00 ed 32 03 80 ea bd 00 00 5d 24 03 00
       1.66128e-40 -2.93775e-40 6.8128e-41 2.88551e-40
000080 69 4c 05 80 ab 11 03 00 34 25 03 00 43 e5 04 80
       -4.86588e-40 2.81845e-40 2.88852e-40 -4.49586e-40
000090 d9 47 03 80 b1 66 03 00 2a 32 04 80 06 21 04 80
       -3.0128e-40 3.12345e-40 -3.85337e-40 -3.79189e-40
0000a0 87 6d 03 00 47 56 03 80 59 0a 03 80 1b fc 00 80
       3.14797e-40 -3.06457e-40 -2.79219e-40 -9.0438e-41
0000b0 52 3b 03 80 ba eb 00 80 88 0f 02 80 42 c4 01 00
       -2.96787e-40 -8.4563e-41 -1.89243e-40 1.6224e-40
0000c0 ca b7 03 00 9a 9e 06 00 ef 74 05 00 54 80 03 80
       3.41438e-40 6.07908e-40 5.01125e-40 -3.21542e-40
0000d0 48 3a 03 00 ba 4f 03 00 77 94 05 00 7a 6b 03 00
       2.96414e-40 3.04107e-40 5.12437e-40 3.14062e-40
0000e0 f7 7d 03 80 ce 30 04 80 0e e4 02 80 be c3 02 80
       -3.20694e-40 -3.8485e-40 -2.65482e-40 -2.5389e-40
0000f0 72 1c 02 80 83 47 03 00 63 16 01 00 1a 92 02 00
       -1.93875e-40 3.0116e-40 9.9866e-41 2.36082e-40
000100 4b e6 01 80 13 ab 06 80 df 94 02 00 63 c4 03 00
       -1.74449e-40 -6.12383e-40 2.37076e-40 3.45957e-40
000110 fb 09 06 00 5e f7 06 00 df 9a 03 00 ed 5b 05 00
       5.54593e-40 6.39752e-40 3.31064e-40 4.92154e-40
000120 88 7c 03 80 67 72 05 00 89 4f 01 80 e4 24 05 80
       -3.2018e-40 5.00217e-40 -1.20367e-40 -4.72411e-40
000130 81 d4 04 80 b5 13 00 00 7b fb 02 80 ee cd 03 80
       -4.43574e-40 7.07e-42 -2.73885e-40 -3.4938e-40
000140 bd 81 03 80 39 40 03 00 51 41 05 00 9e 2d 04 80
       -3.22048e-40 2.98545e-40 4.82609e-40 -3.83706e-40
000150 44 8a 03 80 27 98 01 80 f1 b3 04 80 73 45 02 00
       -3.25107e-40 -1.46417e-40 -4.31893e-40 2.08585e-40
000160 93 92 03 80 ca 86 03 00 ca 67 04 80 d4 d0 02 00
       -3.28087e-40 3.2386e-40 -4.04574e-40 2.58584e-40
000170 80 30 03 00 4c cb 05 00 d1 7b 03 80 2b cb 03 00
       2.92905e-40 5.32107e-40 -3.19923e-40 3.4839e-40
000180 e2 a0 02 80 79 29 02 00 34 8b 00 00 a7 24 03 00
       -2.41385e-40 1.98549e-40 4.9937e-41 2.88655e-40
000190 94 ee 02 80 a8 2f 01 00 c8 49 05 80 af b0 06 80
       -2.69257e-40 1.08931e-40 -4.85645e-40 -6.14395e-40
0001a0 b4 f4 04 00 a2 f4 05 00 27 70 03 00 89 11 00 80
       4.55125e-40 5.46935e-40 3.15739e-40 -6.29e-42
0001b0 42 f4 02 80 b0 6f 03 00 7e 96 03 00 a1 71 03 80
       -2.71294e-40 3.15572e-40 3.29493e-40 -3.16269e-40
0001c0 88 0c 06 00 0b 61 05 80 3d ea 05 80 4d b5 04 00
       5.55508e-40 -4.9399e-40 -5.43206e-40 4.3238e-40
0001d0 9d ac 00 00 34 e3 01 80 4c 0a 02 00 bb 37 06 80
       6.1922e-41 -1.7334e-40 1.87365e-40 -5.71005e-40
0001e0 63 ff 04 00 10 d9 05 00 55 f7 01 80 58 fa 02 80
       4.58957e-40 5.37045e-40 -1.80562e-40 -2.73477e-40
0001f0 d7 02 03 00 5c 64 06 00 8b 2c 00 80 ca 99 03 80
       2.76525e-40 5.87015e-40 -1.5979e-41 -3.30676e-40
000200 85 21 02 00 94 87 01 80 e4 7f 03 80 52 3f 04 80
       1.95696e-40 -1.40472e-40 -3.21385e-40 -3.90057e-40
000210 7e 7c 06 80 8d 9e 03 80 4d 7c 05 80 c2 30 02 00
       -5.95672e-40 -3.32384e-40 -5.03768e-40 2.01162e-40
000220 28 33 03 00 10 21 03 00 7c 24 03 00 1f 3c 03 80
       2.93858e-40 2.87367e-40 2.88595e-40 -2.97074e-40
000230 fa e5 00 00 df 26 03 80 a6 79 03 00 6f 3c 03 80
       8.25e-41 -2.89451e-40 3.19146e-40 -2.97186e-40

stage1.blocks.0.attn.proj_v.weight f4 [12, 12]
000000 a3 e6 8a 3d 91 f8 b2 3a da 8f c0 36 58 5e e3 bd
       0.06782272 0.0013654401 5.7387924e-06 -0.11101979
000010 a1 71 df 2f 82 d0 63 36 eb cf dd 3d 51 0a 8c 3d
       4.0644202e-10 3.3947003e-06 0.10830673 0.06837905
000020 0b d0 33 be ab e1 83 34 25 e1 9a bd 0f 84 84 33
       -0.17559831 2.4564847e-07 -0.07562474 6.17075e-08
000030 04 97 0a 3e aa fa d9 3a 94 a1 be b3 87 12 00 be
       0.1353417 0.001663049 -8.876955e-08 -0.12507068
000040 96 4d f5 2f ce fb 37 35 6e a8 76 3d 06 a7 f6 3d
       4.4620369e-10 6.8539237e-07 0.06021922 0.12043576
000050 8c 50 35 be 68 09 8e 34 69 3f 83 bd 6d 41 a3 33
       -0.17706507 2.6456405e-07 -0.06408579 7.60218e-08
000060 f4 ed 1f 3e 4f 52 d8 3a 74 bb 55 36 9d 00 13 be
       0.15618116 0.0016504022 3.1848585e-06 -0.14355703
000070 b1 10 50 30 96 52 83 36 34 c8 c2 3d 9b b4 c8 3d
       7.569368e-10 3.9137185e-06 0.09510842 0.09800073
000080 85 3e 56 be 02 00 3d 34 d1 69 a6 bd 97 88 82 33
       -0.20922287 1.7602e-07 -0.08125652 6.078442e-08
000090 29 fd 21 3e a3 05 cc b8 58 24 af 36 03 cb 94 3d
       0.15819229 -9.728528e-05 5.2196374e-06 0.07265284
0000a0 fc 9d 00 2f cc 54 f2 36 6e 31 72 bc d2 37 23 3d
       1.169766e-10 7.2220337e-06 -0.014782293 0.039848156
0000b0 77 3e 2a 3e 7b e9 05 b5 09 2f 28 3e 85 21 c1 b3
       0.16625391 -4.988612e-07 0.16424192 -8.99336e-08
0000c0 a8 c8 e2 3d 6f 86 88 39 90 7d 1f b7 25 7d 00 3d
       0.110734284 0.00026040102 -9.506373e-06 0.031369347
0000d0 f4 06 82 2f 69 79 00 b7 29 fa 48 3c 7f 21 ba 3d
       2.3651803e-10 -7.6576625e-06 0.012266674 0.0908842
0000e0 77 ac 3a 3e 8c 95 d6 33 68 5b 86 3d 59 c3 ab 32
       0.18229853 9.992354e-08 0.06560403 1.9995854e-08
0000f0 1a 3e 10 be d3 77 da ba d1 c0 d1 36 4d 04 f4 3d
       -0.1408619 -0.001666779 6.251132e-06 0.11914883
000100 ea e3 74 af 8a fc 95 36 5c a7 c3 bd 19 24 dd bd
       -2.2272642e-10 4.4699455e-06 -0.09553406 -0.10797901
000110 10 ab 00 3e 1c 6f a2 b3 40 13 dc 3d 54 a7 aa b2
       0.12565255 -7.5639235e-08 0.10745859 -1.9866697e-08
000120 96 e3 eb 3c c1 8d 9d 3a 04 27 8e b6 24 c8 b1 bd
       0.028795045 0.0012020395 -4.236472e-06 -0.08680752
000130 ea da b8 2f 04 c4 97 b6 36 70 6a 3b fc 47 91 3d
       3.3624953e-10 -4.52297e-06 0.003577245 0.07093808
000140 44 e9 22 be d7 06 84 34 db 72 e1 bd 8c be 7d 33
       -0.15909296 2.4591893e-07 -0.11008235 5.9079454e-08
000150 cb cf be 3d 92 e6 bb 3a d5 c9 2f b7 f7 9e b0 bd
       0.09316977 0.0014335683 -1.04778055e-05 -0.0862407
000160 75 a0 d9 2f eb 67 16 b7 ce 98 7a 3d 1c 49 c9 3d
       3.9586082e-10 -8.964892e-06 0.061180882 0.09828398
000170 27 06 16 bd fe 95 0e 34 ad 4d c7 bd 33 7b e1 32
       -0.03662696 1.3279347e-07 -0.09731612 2.6249472e-08
000180 d4 60 9b 3d a7 11 95 3a 68 3c 68 36 e1 5b a4 bd
       0.07586828 0.0011373059 3.4605855e-06 -0.08025337
000190 fb 17 5e 2f 8e d2 02 36 5e ba ab 3d 16 2a 10 3d
       2.0199302e-10 1.9494069e-06 0.08385156 0.035196386
0001a0 f1 30 01 be d6 c9 ac 32 02 96 d1 bd 7c c8 81 30
       -0.12616326 2.011522e-08 -0.1023369 9.442966e-10
0001b0 98 41 d0 3d 6d 54 9f 3a ed fa 0e 37 14 20 ab bd
       0.10168761 0.0012155898 8.522283e-06 -0.08355728
0001c0 ec 6a 3a 2f 32 29 cb 36 8c f9 93 3d 64 24 60 3d
       1.6954588e-10 6.054667e-06 0.07225332 0.054722205
0001d0 c5 73 33 be e8 46 ac b1 f9 53 72 bd 27 58 2e 32
       -0.17524631 -5.01392e-09 -0.059162114 1.01481765e-08
0001e0 e2 7e 61 be ac 31 01 bb 4f 8e 09 b5 77 a0 18 3e
       -0.22021058 -0.0019713445 -5.1243563e-07 0.14904962
0001f0 a0 cd 03 31 4a 5e 74 b6 ab 49 1f be 0c b4 31 be
       1.9179893e-09 -3.6413717e-06 -0.15555446 -0.17353839
000200 3d 2e 4d 3e 07 74 53 b4 0c fe c9 3d a4 11 80 b3
       0.2003717 -1.9693117e-07 0.09862909 -5.963673e-08
000210 3f a6 95 bd 1b 28 c7 38 c0 d5 c6 36 dd 5b 0a bd
       -0.073070996 9.49653e-05 5.9257436e-06 -0.033779014
000220 e5 c8 3d af 0e ab b9 36 81 1e b6 bc 67 ac 31 bd
       -1.7260822e-10 5.533343e-06 -0.022231342 -0.043377306
000230 44 96 38 be 7a e2 05 b3 da 14 77 bd 07 91 e9 b0
       -0.18026072 -3.1172455e-08 -0.06032262 -1.69942e-09

stage1.blocks.0.attn.proj.weight f4 [12, 12]
000000 01 84 8d 3c 4f 9c 06 ba ac e0 94 3b 2b 14 e2 bd
       0.017274858 -0.0005134986 0.0045433845 -0.11039003
000010 f8 15 e3 bd f9 2e e9 3c 80 d5 0b 3d b6 19 21 bd
       -0.110881746 0.028464781 0.034139156 -0.03933116
000020 a6 d9 2d bc fe a4 2e 3c 17 79 25 3d 09 7a b6 3d
       -0.010610973 0.010659454 0.040398683 0.08909995
000030 74 73 25 bd 38 21 49 bd 7d 8b a5 bd f2 68 2f be
       -0.040393308 -0.049103945 -0.08083246 -0.17129877
000040 50 92 14 be f2 fb 8b 3d 35 bc 18 3d d9 22 74 bd
       -0.14508939 0.06835164 0.037288863 -0.059603546
000050 33 ac 40 bd 83 84 2a bd 45 00 e4 3d ca 6d fb 3d
       -0.047039222 -0.04163028 0.11132864 0.122768
000060 9c 57 85 bd 2e 30 2d bd 92 00 89 bd 15 47 db 3d
       -0.06510851 -0.042282276 -0.06689562 0.10706917
000070 68 d1 00 3e b3 5d 92 bb 87 77 b4 bc 91 d2 db 3c
       0.12579882 -0.004466736 -0.022029651 0.026833804
000080 cd 3f 08 bd e5 97 05 bd 49 97 73 3d 42 08 bb bd
       -0.03326397 -0.03261556 0.05947045 -0.091324344
000090 85 ce 78 bd e9 78 79 bd 90 7a 9f bd 93 e1 13 3d
       -0.060743827 -0.060906325 -0.07787049 0.036103796
0000a0 f7 fb 81 3d 4b 26 43 3d b0 35 59 bd c7 3f 31 bc
       0.063468866 0.04764394 -0.053029716 -0.010818428
0000b0 96 e9 0a bd 4c 5a 9b bd 59 c1 9d 3d be e1 62 bd
       -0.03391417 -0.07585582 0.07702894 -0.055391066
0000c0 b2 eb bf bd 5b a7 d5 bd 96 92 c1 bd a4 dd da bd
       -0.09371127 -0.10432311 -0.09451787 -0.10686806
0000d0 f8 50 a0 bd e0 ed ad 3d e8 10 6b bc ef 7a 76 bd
       -0.078279436 0.08492637 -0.0143472925 -0.060175832
0000e0 7a 8a 4d bd 04 20 97 bd 8c 3b 11 3e fb 91 2a 3d
       -0.05018089 -0.07379153 0.14182872 0.041643124
0000f0 bc e4 61 3e 9d 32 86 3e 18 38 94 3e ae bd b1 bd
       0.22059911 0.2621049 0.28949046 -0.08678757
000100 19 ce 45 bd 36 5d 84 be 10 79 4b 3e 1f 29 47 3e
       -0.048292253 -0.25852364 0.198704 0.1944928
000110 69 65 3f 3e 81 00 4a 3e 10 9b a9 be b3 dd af 3d
       0.18691029 0.19726755 -0.33126116 0.08587208
000120 a6 88 0f 3d 1a a2 e3 3c d6 a7 88 3c d2 25 f8 bc
       0.035042427 0.027787257 0.016681593 -0.030291472
000130 c0 96 ad 3b 74 fd 3e bd bb 57 02 3d f1 be 7d 3d
       0.005297512 -0.04662843 0.031821948 0.061949674
000140 00 b2 de 3c 73 5e b2 3c 99 dd 8c bd c4 05 07 39
       0.027184486 0.021773553 -0.06878204 0.00012876751
000150 d8 28 55 3d e5 44 79 3d 01 b1 82 3d b8 9d 41 3d
       0.052040905 0.06085672 0.06381417 0.047269553
000160 d1 d7 03 3d 30 eb 04 bd f7 49 20 3c e6 78 86 3c
       0.03218824 -0.032450855 0.00978326 0.01641507
000170 43 83 e3 3c 33 87 4f 3d 77 b0 93 bd 1a 05 04 bc
       0.027772551 0.050666045 -0.072113924 -0.008057857
000180 00 5c cc 3d 53 5c fd 3d a9 21 e0 3d 58 ff 4f bd
       0.09978485 0.12371125 0.1094392 -0.050780624
000190 f3 31 a6 bd a7 c8 a6 bd c2 b7 c4 3d 1c eb 11 3d
       -0.08114996 -0.0814374 0.096053615 0.03562461
0001a0 63 5d 86 3d a4 8d c1 3d cf 63 da bd 19 7f bf 3d
       0.06560781 0.09450844 -0.10663568 0.09350414
0001b0 27 f0 28 bb 11 fc 9c bd bf 6d 74 bd 62 15 57 be
       -0.0025777908 -0.07665265 -0.059674975 -0.2100425
0001c0 fc ed 05 be c2 37 87 3d ef cf bd bb 35 8e 75 bd
       -0.13079065 0.06602432 -0.00579261 -0.059950072
0001d0 89 c6 0f 3a 83 4d 02 bd f3 49 db 3d 22 40 8a 3d
       0.0005484601 -0.031812202 0.10707464 0.067505136
0001e0 13 27 38 be 59 4a 3f be a9 64 46 be 04 38 f0 3d
       -0.17983656 -0.18680705 -0.19374336 0.11729434
0001f0 47 f2 9a 3d 2e 7a 43 3e 93 77 1d be c0 af 00 be
       0.07565742 0.19089577 -0.15377645 -0.12567043
000200 cf d3 23 be 58 41 19 be 4e b9 6d 3e 2c f3 b8 bd
       -0.15998767 -0.14966333 0.2321522 -0.09030756
000210 13 fc 3b 3d c2 81 37 3d a4 bb 80 3d 66 02 56 3c
       0.045894694 0.04480148 0.062857896 0.013062095
000220 78 11 77 bd 44 33 81 bd 28 7a 29 3d 99 f5 f4 3c
       -0.060319394 -0.06308606 0.041376263 0.029902266
000230 20 5f 8f 3d bd fc af 3d 8e fc 7b bd a0 a7 83 3d
       0.070005655 0.08593128 -0.06152015 0.06428456

stage1.blocks.0.attn.proj.bias f4 [12]
000000 00 ef fb bb 40 c2 2a 3d 35 2c f2 3c 4a 14 65 3d
       -0.007688403 0.041689157 0.029562095 0.055927552
000010 e4 02 49 b9 60 f4 07 bd 80 8c 84 3c 7c 4c 4f bd
       -0.0001916993 -0.03319204 0.016180277 -0.05061005
000020 ce e7 2f bd 3e 25 bf bc 8c 0b 1d 3c 28 79 b2 3c
       -0.042945676 -0.023333188 0.0095852725 0.021786287

stage1.blocks.0.norm2.weight f4 [12]
000000 48 58 03 3f 95 fa 3e 3f 15 7f 22 3f 69 7c 32 3f
       0.5130658 0.7460111 0.6347516 0.69721085
000010 1d d5 09 3f 88 96 d4 3e dc be 50 3f 28 a6 47 3f
       0.5384081 0.41521096 0.8154123 0.7798791
000020 84 0a 46 3f 4a cd 44 3f 08 ce 3c 3f 20 6b 4e 3f
       0.77359796 0.76875746 0.7375188 0.8063221

stage1.blocks.0.norm2.bias f4 [12]
000000 db 3f fe bd 58 85 db 3d e7 d8 53 3d ff ca 24 3e
       -0.12414523 0.10718793 0.051720526 0.16093062
000010 85 ca 88 3d 78 8c 84 bd ba 8c 80 3d 84 c1 43 be
       0.066792525 -0.06472105 0.062768415 -0.19116789
000020 a5 05 da bd 2b 0a 57 bd 6a ee 9d 3d d6 09 99 3d
       -0.10645608 -0.05249993 0.077114895 0.07472579

stage1.blocks.0.mlp.fc1.weight f4 [24, 12]
000000 cb 8b a3 bd 7c 29 57 3c f8 b0 5a bd ca 6f fb 3d
       -0.07985648 0.013132449 -0.053391427 0.122771814
000010 a7 81 c4 3d d7 c3 6b 3d b2 c5 8a 3d 94 25 69 be
       0.09595042 0.057559814 0.06775989 -0.22768241
000020 59 0f 90 bd c2 91 02 3e d0 05 7e bc e5 ab 82 bd
       -0.07034177 0.12750915 -0.0155043155 -0.063804425
000030 3f 95 5b bd 79 eb 1d 3e 19 20 72 be cf 4d 34 bc
       -0.05360913 0.15421857 -0.23645057 -0.011004879
000040 56 9e 7b bd 37 df 3d be 0d 04 e6 3d 2a 66 66 bb
       -0.061430298 -0.18542181 0.112312414 -0.003515611
000050 7c 19 91 bd db 20 20 3e 39 07 a8 3c 36 69 11 3e
       -0.07084939 0.15637533 0.020511257 0.14200291
000060 32 b5 bb 3d 78 1b 3a bd 7b 88 7a bd 42 ed 4e 3e
       0.0916542 -0.045436352 -0.061165314 0.20207694
000070 db 72 d3 bd 79 be d8 bd 2f 47 ca bd 2a 2d 73 3e
       -0.10324641 -0.10583205 -0.098768584 0.23747697
000080 2f ca c2 bd 03 55 1b 3d 5d f8 d9 3d 2e 84 ff bd
       -0.0951122 0.03792287 0.10643075 -0.12476383
000090 da 35 00 bd 26 79 13 3e 45 d7 43 bd 5a d9 04 3d
       -0.031301357 0.14401683 -0.04781272 0.032433845
0000a0 27 07 44 3e fa 51 81 bb 2f cc 24 be 7d f9 c9 bd
       0.19143353 -0.00394654 -0.16093515 -0.09862039
0000b0 6a 18 69 be 37 fa 85 bd 17 b0 25 3e 3f d4 a3 3d
       -0.2276322 -0.06541865 0.16180454 0.07999467
0000c0 f5 8a 3b be cc 2b 68 3e c2 f3 a3 bd c5 63 d5 3d
       -0.18314727 0.22672957 -0.080054775 0.1041942
0000d0 93 85 14 be 23 e4 42 bd 4c 6e 9f 3d 6d d8 f2 bd
       -0.1450408 -0.04758085 0.07784709 -0.11857686
0000e0 7c cd 47 bd 1d 24 a3 bd c1 e3 94 3d de f7 6d 3e
       -0.04877995 -0.079658724 0.07270003 0.23239085
0000f0 8b 58 13 3e 5a 0c 80 be 6c 86 0c 3e 05 76 db bc
       0.14389245 -0.25009423 0.13723153 -0.026789675
000100 80 a3 57 bd 19 f2 ae bd ae 36 df 3d 76 06 5f 3e
       -0.05264616 -0.0854227 0.10899101 0.21779808
000110 de 32 2d bc 9f d9 8a be c8 40 1f 3e 84 bc fd bd
       -0.01057121 -0.27119157 0.15552056 -0.12389472
000120 b8 42 9f 3e 40 6f c6 bd 00 b5 0d bd a2 35 0f 3e
       0.3110559 -0.09689188 -0.034596443 0.13985303
000130 ca 55 1f 3d 64 e8 5f be 2f 34 1c 3e 8a 41 f7 3d
       0.038900174 -0.21865994 0.15254281 0.120730475
000140 53 06 a0 bd f8 42 ac be 63 7a fa 3d a5 45 98 3c
       -0.07813706 -0.33644843 0.12230375 0.018587897
000150 ce 28 8c 3d b4 c6 01 3e 53 09 ba bd 91 c1 70 3d
       0.068437204 0.12673455 -0.0908381 0.05877835
000160 45 48 5b be ed c0 cc bb d2 17 fd bd d9 b8 fe bd
       -0.21414287 -0.0062485845 -0.12358059 -0.12437601
000170 78 60 98 3d 61 83 01 be 1f ca 29 3e ba d0 3c 3e
       0.07440275 -0.12647773 0.1658101 0.18438998
000180 f2 ec 5f 3d 9c 76 cf 3e 08 30 15 be b5 c1 71 3e
       0.054669328 0.4052018 -0.14569104 0.2360905
000190 7d 5a 57 bd 09 fe d0 bd 08 42 8e bd 72 22 04 3e
       -0.05257653 -0.10204703 -0.06946188 0.12903765
0001a0 d3 ae 3c bd 71 a2 17 be ad 8d 82 bc 13 1e 8d bd
       -0.046065163 -0.1480806 -0.015936697 -0.06890502
0001b0 5c d0 ad bd 06 46 e1 bd 42 92 2c bd 80 00 53 3d
       -0.08487007 -0.10999684 -0.04213167 0.05151415
0001c0 f6 67 ed bc 62 98 ce bc a3 07 09 3e 3d 09 7c be
       -0.028980237 -0.025219146 0.1338182 -0.24612899
0001d0 23 0f e0 3d e8 09 c6 ba 8d 1b af 3d bc 4d 00 3e
       0.10940387 -0.0015109153 0.08550177 0.12529653
0001e0 e1 ff 61 bd 2d c4 cf 3d b5 e5 e3 bc fd 37 07 bd
       -0.055175666 0.101448394 -0.027819494 -0.03301238
0001f0 12 d3 28 be 7f 75 b1 3d e8 21 8d 3c e3 10 be bc
       -0.16486767 0.08664989 0.017228082 -0.023201412
000200 31 d5 7e 3d a0 88 1d 3e 21 6e 89 be 62 75 6f 3e
       0.062215034 0.1538415 -0.26841834 0.23384622
000210 4a cc 87 be 2f 68 5a 3e 83 4b 1e be d6 d8 87 3d
       -0.26523048 0.21328805 -0.15458493 0.06633155
000220 8b 91 a4 3d c3 ae df bc 5c 1f 93 3c 7e 10 44 3b
       0.080355726 -0.027305013 0.01795929 0.0029917057
000230 41 20 61 be 59 37 d7 3d 52 ac 9e 3d 06 b0 fb 3d
       -0.2198496 0.105086036 0.07747711 0.12289433
000240 cd 4a 31 3d cf b5 c8 bd 75 fc 32 bd 18 fc 2e be
       0.043284226 -0.09800302 -0.043697793 -0.17088354
000250 cc 05 00 bd 53 b6 92 3d 87 79 fa 3d ef 35 d9 3c
       -0.03125553 0.07163682 0.12230211 0.026514975
000260 48 18 4d 3e e4 ad 1e 3d 0b 21 fd bd 95 de 92 bd
       0.20028794 0.038740054 -0.12359818 -0.071713604
000270 ec 41 29 bd 89 4d 6e 3d 80 ad a8 bd 00 d9 f6 bd
       -0.041322634 0.058179412 -0.082362175 -0.12053108
000280 f1 3b 5e bd c1 c2 5e 3c ab f9 8b bd 46 0b 9c 3e
       -0.054256383 0.013596238 -0.0683473 0.3047735
000290 ac c6 a6 bd a3 81 40 3c c9 d7 c9 3b 93 11 e2 3c
       -0.081433624 0.011749658 0.006159757 0.02759627
0002a0 ae fc 20 be 26 e2 9c 3e ad 31 26 be c9 7e da 3d
       -0.1572139 0.30641288 -0.16229887 0.106687136
0002b0 e8 1c 94 3d 57 0a e4 bd ac 2f f8 bc 88 4e 8a be
       0.07232076 -0.11134785 -0.03029617 -0.2701304
0002c0 2e e9 74 be 60 de 2e 3e 8d e0 45 3d 58 a9 08 3e
       -0.23917076 0.17077017 0.04830985 0.1334585
0002d0 e0 90 c9 bd 7f 18 44 be 34 7b 06 3e 22 f2 1b be
       -0.09842086 -0.1914997 0.13132936 -0.15229085
0002e0 7d ea 94 3d 57 d2 87 3e 88 a7 18 be 98 89 14 3e
       0.072712876 0.26527664 -0.14907658 0.14505613
0002f0 92 ba 2f be df 49 43 bd a5 82 65 bd 46 9b 55 3d
       -0.17161015 -0.04767787 -0.056032795 0.052150033
000300 f4 f6 ac bd 7a 30 a9 3d ec 4e 1d 3d 06 f1 15 3e
       -0.0844554 0.08261199 0.038405344 0.14642724
000310 e9 33 3c bc 11 3f c5 3d 7b 1e 4c bd bd ab 8c bd
       -0.011486986 0.096311696 -0.049833756 -0.06868694
000320 99 f7 e5 bd 40 3d f3 bd 62 2c d7 bc 6d ef 45 3d
       -0.11228866 -0.11876917 -0.02626628 0.048324037
000330 81 45 82 3c e5 27 d2 3c 67 ac 9d 3d 10 1e 83 3c
       0.015902283 0.025653789 0.07698899 0.016005546
000340 3f c7 0f 3e ea b7 1c 3e 37 e6 3d 3d 1e 4f 18 be
       0.1404085 0.15304533 0.046362128 -0.14873931
000350 a2 84 97 3d cc b5 f4 3d e5 13 2a be 21 1c 73 be
       0.073983446 0.119487375 -0.16609152 -0.23741199
000360 88 fc 7c 3d 93 50 07 be d7 15 4d 3e 4d 53 af bd
       0.06176427 -0.1321433 0.20027862 -0.0856081
000370 9b 8d 05 3d 30 77 9c bc 70 53 8d 3d e9 16 b2 3c
       0.03260575 -0.019099802 0.0690068 0.02173944
000380 cf a5 3f be cc e0 d0 3d 71 b0 9c be b2 db 21 3e
       -0.18715595 0.101991266 -0.30603364 0.15806463
000390 e2 dc 4e 3e af 1a 55 be 7d e0 1f be 97 99 30 3d
       0.20201448 -0.2081096 -0.15612979 0.043115225
0003a0 39 fe 9c 3d 75 43 16 3e a2 48 9a be 39 cf 3a be
       0.076656766 0.1467417 -0.3013354 -0.18243112
0003b0 cc c6 de 3d c4 b1 55 3d de aa 1a 3e bb 91 3e bd
       0.10877761 0.052171484 0.15104243 -0.0465257
0003c0 87 05 f1 3d 9b 35 07 be 4d 91 00 3d ba a7 45 3d
       0.117686324 -0.13204043 0.03138857 0.04825566
0003d0 49 c3 db bc b8 7d ae 3d c2 39 52 be 4b 3d 73 3d
       -0.026826518 0.08520073 -0.20529845 0.059384625
0003e0 ac e5 e6 bd 61 15 58 be 5a 29 3f 3d f0 7b 0e 3e
       -0.11274275 -0.21101905 0.046670295 0.13914466
0003f0 ba 1c ef bc 13 d5 23 bd cf ac 73 be 95 2d 20 3e
       -0.029188503 -0.039998125 -0.2379639 0.15642388

stage1.blocks.0.mlp.fc1.bias f4 [24]
000000 1b 03 c5 3b bf 9a 42 bd de 99 e9 bc 38 35 b1 3d
       0.006012333 -0.04751086 -0.028515752 0.08652729
000010 a6 1f 1a 3e 65 26 2a be a5 98 53 3d e5 4c 4c 3e
       0.15051135 -0.16616209 0.051659245 0.19951208
000020 e5 ba 10 bd 6a 6a 16 39 d0 06 18 3d 44 ca f7 3c
       -0.035334487 0.00014344757 0.037115872 0.030247815
000030 e8 a4 bc bd d6 bc d7 bd c3 e2 13 3d 66 29 c9 bd
       -0.09211141 -0.105340645 0.03610493 -0.09822349
000040 98 6b 3b bc 00 d1 0c be 4b e0 32 3d fa 40 9f 3d
       -0.011439227 -0.13751602 0.043670934 0.07776065
000050 00 9b 2c bd b0 d7 19 3e f6 5a 87 3c da 13 39 3d
       -0.042140007 0.15023685 0.016522866 0.045184948

stage1.blocks.0.mlp.fc2.weight f4 [12, 24]
000000 54 b9 1a 3d 1a 77 fd bc ad 5e 6c bd 81 fc 17 3d
       0.0377744 -0.030940581 -0.057707477 0.03710604
000010 f7 aa 65 bd 39 94 6f be 5b 25 07 3d c7 e7 c5 3b
       -0.056071248 -0.23396386 0.03299461 0.006039593
000020 94 22 18 3b 26 cd 07 be 5d b5 5d 3e 4c 0e 35 be
       0.002321397 -0.13261852 0.21651216 -0.17681235
000030 1e d2 07 3e 05 58 67 be 1f 90 9b be e3 3c 53 3d
       0.13263747 -0.2259217 -0.30383393 0.051571738
000040 6f bd c4 3d 97 d5 a8 bd 12 78 dc 3c a9 5c c2 bc
       0.09606444 -0.08243864 0.026912723 -0.023725824
000050 05 05 54 3e e0 63 8c bd c5 6a 04 3e b8 19 14 3e
       0.2070504 -0.06854987 0.12931354 0.14462936
000060 24 85 49 3e 8c 91 42 bc 41 a4 84 3c 16 1f b8 bd
       0.19679695 -0.011875521 0.016191604 -0.08990304
000070 63 8b 5d bc 7c 6f 28 bd d6 c5 7d bd 67 43 01 b9
       -0.013522002 -0.041121945 -0.06195625 -0.00012327508
000080 b8 4c 1e bd 6c b1 c5 3d 34 e0 27 be f5 34 01 3e
       -0.038647383 0.09652981 -0.1639412 0.12617858
000090 d6 b2 81 bd fc e0 ee 3d ba e5 05 3e 75 f1 4c be
       -0.063329384 0.11664006 0.13075915 -0.20013984
0000a0 d7 ec 0f 3e 3b 45 87 bd 94 f5 3f be 8a 9f e4 3d
       0.14055191 -0.066050015 -0.18746024 0.11163242
0000b0 c3 06 14 be 2d 5a 94 bd 03 a8 80 bc 38 90 1a be
       -0.14455704 -0.07243762 -0.015705114 -0.15094078
0000c0 95 ba 07 be 8d 75 5d 3d 1c 40 ee 3d 45 d1 4a 3e
       -0.13254769 0.054067183 0.11633322 0.19806392
0000d0 9e e4 9a 3e ed c7 8d 3d fa 64 92 be 3f 9c 77 3e
       0.30252546 0.069228984 -0.28592664 0.24180697
0000e0 27 e2 be be 68 78 3a bd c3 2f 83 3d ce 6a 05 3e
       -0.37281916 -0.045524985 0.06405594 0.13029024
0000f0 55 19 21 3e 93 96 3e be 9b ee 0e 3e 61 20 36 3e
       0.1573232 -0.18612127 0.13958208 0.17785789
000100 1a 09 bc 3c 4e 5c 19 3e e8 e3 20 bd 6f eb b8 be
       0.022953559 0.14976618 -0.03927985 -0.36117122
000110 13 ae ca 3d 6b 7f 96 3d 7f 17 68 3d 7d b2 85 3c
       0.09896483 0.07348522 0.056663033 0.016320461
000120 ab d4 02 be fe 05 2a 3e 5d 4e 9b bd fc b3 51 3c
       -0.12776439 0.16603848 -0.07583306 0.012799259
000130 f1 a8 23 3e 5c 54 18 3e 17 94 77 bd 32 5f a3 3c
       0.15982415 0.1487593 -0.060443964 0.019942854
000140 9b 55 1f be ed bf 80 bd 62 c7 5c bc 4f 13 3b 3e
       -0.1556 -0.06286607 -0.013475271 0.18269084
000150 42 c2 b4 3d 8b b4 fb bb 6c 87 65 3e ed bd a4 3c
       0.08826114 -0.0076814345 0.2241494 0.020110095
000160 7e 28 3d bd a7 56 ed 3d fa b0 4c be 90 11 92 bd
       -0.046181194 0.11588793 -0.19989386 -0.07132256
000170 1d d8 08 bd b0 29 f7 bc 3a b2 08 bd dd 52 c2 bc
       -0.033409227 -0.030171245 -0.033373095 -0.023721153
000180 cd b5 12 3e 44 f6 05 bd d8 13 57 3e 5f ce 49 3e
       0.14327164 -0.03270556 0.21003664 0.1970763
000190 1d 1f 73 3e c7 0c 54 3d d5 4c a3 bd 7c 25 91 3e
       0.23742338 0.051769998 -0.07973639 0.2834891
0001a0 b9 1c cd bd e3 00 8a bd 32 b7 6a 3e ee 21 9c 3d
       -0.10015244 -0.067384504 0.22921446 0.07623659
0001b0 eb 1e 33 3e 94 ec e1 bd 17 c0 cc 3d 9d 6e 72 be
       0.17492263 -0.11031452 0.09997576 -0.23675008
0001c0 80 b3 83 bc 29 de 74 3e 18 07 ba bd aa b5 47 be
       -0.016076803 0.23912872 -0.09083384 -0.19502893
0001d0 00 61 ad 3d 8f d7 a8 bb 37 cb b9 3d 0b 29 e0 3d
       0.08465767 -0.0051526497 0.09071963 0.10945328
0001e0 6e 39 05 3d 45 34 31 bb 7a 7b 99 bd 04 6a b3 3c
       0.032525472 -0.0027039212 -0.074942544 0.021901138
0001f0 f4 d2 cd bb 13 07 16 be 7a d9 0b be c8 33 60 3e
       -0.006281251 -0.14651136 -0.1365718 0.21894753
000200 87 8a 9f 3d 79 8d cb 3d 27 3d 5d bc 14 70 93 3c
       0.07790094 0.09939093 -0.013503349 0.017997779
000210 c8 6b c6 3d 30 78 63 bd b0 73 06 bd ef e3 12 bd
       0.096885264 -0.05553454 -0.032825172 -0.035861906
000220 6b ec 45 3b 65 ed 70 3e 3b db 53 be 09 5a 96 3d
       0.003020073 0.23528059 -0.20689099 0.073413916
000230 ee 4e e8 3d dc 80 02 be 1b d2 94 3d 88 70 11 3e
       0.1134318 -0.12744468 0.07266637 0.14203084
000240 10 90 c4 bc dc a6 bb 3d 47 67 e7 bb be ba e7 3c
       -0.023994476 0.09162685 -0.007061872 0.028287288
000250 e7 f4 ce 3d 54 92 13 3e 19 7c e5 bd 25 0a 7d 3d
       0.10105305 0.14411288 -0.112053104 0.061777253
000260 c1 3a 7d bc 0e df 1a be 88 39 16 3d 02 44 fa 3d
       -0.015455903 -0.15124151 0.03667596 0.12220003
000270 17 52 03 3c a3 84 06 be 68 b0 0f 3e bd 55 cd 3c
       0.008015177 -0.13136534 0.14032137 0.025065297
000280 26 77 45 3d 6b 51 cc 3c 04 4a e9 bd e4 40 dc 3d
       0.048209332 0.024941167 -0.113910705 0.107545644
000290 f6 b2 78 bb 94 a9 65 3c 3f 73 80 3c 6c e8 a9 bd
       -0.0037948466 0.014017481 0.015679954 -0.08296284
0002a0 01 2a a5 3c c1 ae 5f be 2a b0 17 3d 0a d1 69 3b
       0.02016163 -0.21844007 0.037033238 0.0035677576
0002b0 e2 45 88 bd d6 14 78 be 83 bf 77 3d af 6a c0 3c
       -0.06653954 -0.24226698 0.060485374 0.02348837
0002c0 9a 44 a5 3d 14 db 17 bd 0c 77 1f 3e fb 85 56 be
       0.08069725 -0.037074164 0.15572757 -0.20949547
0002d0 60 d9 f3 3c e7 5e 41 bb b3 26 94 be 17 83 4f 3e
       0.029766738 -0.002950603 -0.28935775 0.2026485
0002e0 b7 04 31 3c 34 63 6d bd ed fe 7f 3e fa 99 0e 3d
       0.010804347 -0.057955936 0.2499959 0.034814812
0002f0 eb b2 1d 3e 26 7a fd 3d fa 84 dd 3d 35 19 0d bc
       0.15400283 0.123768136 0.10816379 -0.008611967
000300 15 31 15 bd c1 04 c3 bc d8 eb b0 bb aa d1 f9 bc
       -0.03642376 -0.023805978 -0.0053992085 -0.030495483
000310 ae f2 84 bc 59 7e f5 bd cf fb c6 3c 99 42 fd bd
       -0.016229 -0.119869895 0.024289994 -0.12366218
000320 bb d0 b0 bb 32 e6 64 3d 94 e7 a1 bd 6b f2 13 3b
       -0.0053959764 0.055883594 -0.07905498 0.0022574912
000330 98 95 5a bd 8f cc e6 3c ad 89 08 bd fb 9c 21 ba
       -0.05336532 0.028173713 -0.033334423 -0.00061650545
000340 37 88 8c 3d 40 ec ea bd c0 53 0f 3d 08 b6 68 3e
       0.068619184 -0.11470842 0.03499198 0.2272569
000350 b1 8b 48 bc 3f 15 63 bd 3a a7 15 bd d4 0c 65 bd
       -0.012240336 -0.055440184 -0.036536433 -0.055920437
000360 95 80 2c 3e 77 63 ae bc 32 c2 66 3c 88 74 15 be
       0.16845925 -0.021287663 0.014084386 -0.14595234
000370 9b ca 5c be 5f 1b 9e bd 46 1e 4c 3e 97 3e 4b be
       -0.21561663 -0.07720064 0.19933423 -0.19848095
000380 a5 6b 85 3e 8f 99 9a 39 3e 97 f5 bd c9 8d 17 bd
       0.2605869 0.0002948758 -0.11991738 -0.03700045
000390 95 80 e9 bc 43 6b 93 3d ae 47 9d bd 40 94 96 bd
       -0.028503696 0.07198193 -0.076796874 -0.07352495
0003a0 2d 42 41 3d 2b 2a f7 bc 4b 54 a1 3c 7e 85 f1 b9
       0.04718225 -0.030171474 0.019693514 -0.00046066561
0003b0 06 3b 73 3d d5 ef e0 bd 9c 32 03 bc 92 70 d2 bc
       0.05938246 -0.10983244 -0.008007672 -0.025688443
0003c0 51 dd 35 bd d5 d3 5d be e5 4f e2 3d 4b 7f 91 3d
       -0.044400517 -0.21662839 0.11050395 0.07104357
0003d0 0e 8e 57 bd 08 44 2a be 16 c2 52 be 51 01 8c bd
       -0.05262571 -0.16627514 -0.2058185 -0.068361886
0003e0 f1 b9 f7 3d 7b 14 b1 bc e2 51 a4 3d 2f 53 23 bd
       0.120960124 -0.021616211 0.080234304 -0.039874252
0003f0 a1 1d 91 3d 93 65 4f bd d3 b6 01 be 02 3e 33 3d
       0.070857294 -0.050633978 -0.12667398 0.043760307

stage1.blocks.0.mlp.fc2.bias f4 [12]
000000 54 ba 1d 3d a0 a4 3a 3c 09 9d 09 bc 4a 22 da 3b
       0.038507774 0.011391789 -0.0083992565 0.0066569196
000010 54 83 12 bc c9 f6 a7 bc 4d 9e f1 bb 62 2a 40 3c
       -0.008942444 -0.020503419 -0.0073736073 0.011728855
000020 11 ae 3f bc 11 26 20 3b 8f dd 95 ba 5e c9 07 bb
       -0.0116992155 0.0024436752 -0.0011433827 -0.002071939

stage1.blocks.1.norm1.weight f4 [12]
000000 4b ab 97 3d 27 ae 01 00 d5 dc 05 00 e4 31 81 3d
       0.074057184 1.5431e-40 5.38397e-40 0.06308344
000010 81 c9 90 3d 16 73 05 00 46 1a 02 80 ee a2 d5 3d
       0.07069684 5.00463e-40 -1.93096e-40 0.10431467
000020 4b bd ad 3d 7e 9f 02 00 ce 9e 03 80 e3 1e 05 00
       0.084833704 2.40886e-40 -3.32475e-40 4.70258e-40

stage1.blocks.1.norm1.bias f4 [12]
000000 ca 8c 23 bc f0 d2 02 00 7f 8a 01 00 7f 5f 8e 3a
       -0.009982297 2.59341e-40 1.41519e-40 0.00108622
000010 23 3c 80 bb 65 6a 01 80 c9 b0 05 80 a8 f2 2a bd
       -0.003913419 -1.30003e-40 -5.22596e-40 -0.04173532
000020 4e c0 15 3c fe 16 04 00 be a2 01 00 01 9e 06 80
       0.009140087 3.7559e-40 1.50216e-40 -6.07694e-40

stage1.blocks.1.attn.conv_proj_q.bn.weight f4 [12]
000000 51 c5 06 80 20 34 00 00 af 87 03 80 66 6d 05 00
       -6.21797e-40 1.8699e-41 -3.2418e-40 4.98422e-40
000010 08 aa 06 00 b3 5c 01 00 eb ba 06 80 f7 33 03 00
       6.12009e-40 1.2509e-40 -6.18067e-40 2.94148e-40
000020 d9 ae 06 00 fe 29 03 00 1f 6c 06 80 b4 b4 01 00
       6.13736e-40 2.9057e-40 -5.898e-40 1.5666e-40

stage1.blocks.1.attn.conv_proj_q.bn.bias f4 [12]
000000 5c 00 03 80 1c 39 03 00 ce ab 03 00 0e 00 03 00
       -2.75635e-40 2.95993e-40 3.37138e-40 2.75526e-40
000010 65 a1 03 00 ae bb 01 00 62 39 03 80 fa 28 01 80
       3.33404e-40 1.59162e-40 -2.96092e-40 -1.06535e-40
000020 86 f3 01 80 4a 8f 00 00 b9 37 00 00 d2 2c 01 00
       -1.79195e-40 5.1402e-41 1.999e-41 1.07914e-40

stage1.blocks.1.attn.conv_proj_q.bn.running_mean f4 [12]
000000 f8 19 00 80 04 00 00 80 04 00 00 80 e3 0a 00 00
       -9.316e-42 -6e-45 -6e-45 3.905e-42
000010 40 02 00 00 02 00 00 00 02 00 00 00 32 5e 00 00
       8.07e-43 3e-45 3e-45 3.3791e-41
000020 c0 35 00 00 00 00 00 00 04 00 00 80 04 00 00 80
       1.9282e-41 0.0 -6e-45 -6e-45

stage1.blocks.1.attn.conv_proj_q.bn.running_var f4 [12]
000000 04 00 00 00 04 00 00 00 04 00 00 00 04 00 00 00
       6e-45 6e-45 6e-45 6e-45
000010 04 00 00 00 04 00 00 00 04 00 00 00 04 00 00 00
       6e-45 6e-45 6e-45 6e-45
000020 04 00 00 00 04 00 00 00 04 00 00 00 04 00 00 00
       6e-45 6e-45 6e-45 6e-45

stage1.blocks.1.attn.conv_proj_k.bn.weight f4 [12]
000000 bb da 00 80 6b 79 05 80 5b 24 04 80 5b a6 01 80
       -7.8466e-41 -5.02734e-40 -3.80384e-40 -1.51513e-40
000010 d3 9f 06 80 75 72 01 00 6d a9 04 80 ae 7a 01 00
       -6.08347e-40 1.32895e-40 -4.2812e-40 1.35845e-40
000020 36 c7 06 00 3c 6c 01 80 e6 3d 00 00 8e ae 06 00
       6.22476e-40 -1.30663e-40 2.2205e-41 6.13631e-40

stage1.blocks.1.attn.conv_proj_k.bn.bias f4 [12]
000000 bc 4f 04 80 c8 07 03 80 28 96 01 80 bd 7e 03 00
       -3.95945e-40 -2.78298e-40 -1.45701e-40 3.20972e-40
000010 cf 8c 01 80 41 f6 06 80 b6 31 01 80 1d e6 02 00
       -1.42348e-40 -6.39352e-40 -1.09668e-40 2.6622e-40
000020 ef 18 00 00 75 8f 06 00 1b 11 02 00 f1 52 03 00
       8.944e-42 6.02476e-40 1.89807e-40 3.0526e-40

stage1.blocks.1.attn.conv_proj_k.bn.running_mean f4 [12]
000000 5e 0f 00 00 01 00 00 80 03 00 00 00 7e 1f 00 80
       5.513e-42 -1e-45 4e-45 -1.1297e-41
000010 cb 09 00 00 03 00 00 80 04 00 00 80 a2 43 00 00
       3.513e-42 -4e-45 -6e-45 2.4262e-41
000020 f1 88 00 80 04 00 00 00 03 00 00 80 04 00 00 80
       -4.9125e-41 6e-45 -4e-45 -6e-45

stage1.blocks.1.attn.conv_proj_k.bn.running_var f4 [12]
000000 04 00 00 00 04 00 00 00 04 00 00 00 04 00 00 00
       6e-45 6e-45 6e-45 6e-45
000010 04 00 00 00 04 00 00 00 04 00 00 00 04 00 00 00
       6e-45 6e-45 6e-45 6e-45
000020 04 00 00 00 04 00 00 00 04 00 00 00 04 00 00 00
       6e-45 6e-45 6e-45 6e-45

stage1.blocks.1.attn.conv_proj_v.bn.weight f4 [12]
000000 a2 aa f9 3e c7 f2 05 00 3b 61 06 80 fa 01 05 3f
       0.48762995 5.4627e-40 -5.85893e-40 0.5195614
000010 fe a3 17 3e 1f 76 06 80 1b b7 06 00 c7 88 25 3f
       0.14808652 -5.93387e-40 6.16699e-40 0.6466183
000020 08 39 e8 3e f4 ca 06 80 30 bd 06 00 01 5c 05 00
       0.4535601 -6.23819e-40 6.1888e-40 4.92182e-40

stage1.blocks.1.attn.conv_proj_v.bn.bias f4 [12]
000000 ad ea a2 3d a3 75 05 a8 7e 71 f6 a1 2a 48 80 bd
       0.07954917 -7.4084915e-15 -1.669965e-18 -0.06263764
000010 19 c8 1e 3c a8 43 5b a3 72 9e e3 9f 6c a2 bd bd
       0.009691262 -1.18863406e-17 -9.6400365e-20 -0.09259495
000020 16 e1 92 bd fa f2 b8 a3 cd f0 2a a2 a1 87 39 a3
       -0.07171838 -2.0052225e-17 -2.3166775e-18 -1.0057591e-17

stage1.blocks.1.attn.conv_proj_v.bn.running_mean f4 [12]
000000 d0 28 11 3c 04 00 00 00 04 00 00 80 0d 9a 01 bc
       0.008859828 6e-45 -6e-45 -0.007910264
000010 5c 18 8b 3a 04 00 00 80 04 00 00 80 03 56 4d bc
       0.0010612118 -6e-45 -6e-45 -0.012532714
000020 73 78 5f bc 04 00 00 80 04 00 00 80 04 00 00 00
       -0.013639557 -6e-45 -6e-45 6e-45

stage1.blocks.1.attn.conv_proj_v.bn.running_var f4 [12]
000000 ea c7 15 39 04 00 00 00 04 00 00 00 5d fc 27 39
       0.00014284221 6e-45 6e-45 0.00016020374
000010 7c 45 d0 37 04 00 00 00 04 00 00 00 66 a1 03 3a
       2.4827888e-05 6e-45 6e-45 0.00050213037
000020 78 fd 7c 39 04 00 00 00 04 00 00 00 04 00 00 00
       0.00024127017 6e-45 6e-45 6e-45
