ViT/ViT1/6 V train 0.993 V test 0.887 ABS 1/model_bestQ.pt (torch, 414407 bytes, 74 tensors)

pos_embedding f4 [1, 19, 36]
-0.15527551 0.22406659 0.09603633 0.08530003 0.14205196 1.8058734 0.8680458 -0.22498621
-1.0386378 0.37297893 -1.3181583 1.7641572 -0.2553775 0.61915606 0.67086095 -3.0113192
0.23576859 0.82992804 -0.9228613 3.766128 -0.65898985 -0.027560182 1.7885969 1.7842633
0.17601612 -2.1498919 0.23958948 0.027059447 0.3560591 -1.0968462 -1.3982971 -1.1521064
-0.8467759 0.82170415 0.31814805 1.6145207 0.8055721 -0.15143405 -1.2265103 -1.9859202
-1.2008024 -1.5976429 -2.289055 0.103667185 -0.5418501 1.5212255 -0.17780024 1.290025
1.1705064 1.4853354 -1.2199712 2.0910506 0.38124776 0.7241072 -1.9323338 1.811448
3.7945821 -1.5009023 -2.6373792 0.9486441 -3.8069234 2.5419948 1.061115 0.97758543
-0.7564886 0.0023411645 -2.0135891 -0.40902805 2.4940472 -0.72913593 0.08657872 0.6435035
-2.0446594 1.8154715 1.9190508 -1.869974 -1.4500082 -3.3253517 -2.1976705 -2.9604084
-0.30084214 1.997621 -1.5496665 1.6406347 1.7781991 0.9657159 1.1492269 1.6854235
0.53559494 1.6930064 1.2151097 -1.1126693 -1.4742523 1.4996189 0.1840512 2.6884513
1.6993612 -2.2994735 -0.57026386 -1.4953331 1.8548983 1.3205959 -0.5588573 -0.614045
2.3525827 -2.1789036 -0.5592519 -1.4470054 -1.1977742 -3.8965542 -0.74228436 -2.1622758
1.6135228 2.9479275 -0.22009452 1.5770402 0.6220606 -0.2535961 -0.20273498 2.4723299
-0.53037465 -0.36024895 0.75121504 -1.2109452 1.7029933 1.2740684 2.980768 1.5387723
1.4699129 -0.96781695 3.5068142 0.57064366 0.5069937 1.0556377 1.744246 0.7965484
-0.6921411 -0.39437196 0.173196 -2.35419 0.81032443 -2.1636415 -1.3628372 -0.16952068
-1.7452219 2.4362128 -0.49253556 -2.1426606 0.67517763 2.2648296 -1.0548127 3.1451104
0.94172645 0.77489084 0.9002811 -0.1322072 -0.46383977 -2.2324116 -0.92272353 -0.91701674
-1.1576701 -2.243476 -1.6035156 1.5782629 1.176038 -1.7069341 -1.0426167 1.9429679
-0.38069367 -3.0838094 -0.8054451 -1.333202 1.6033067 0.27098733 3.6879978 1.0102302
0.25292677 -0.99522936 1.347051 -0.72864217 -1.515398 1.9644262 -3.4660614 -0.12128367
0.37023807 -3.8852599 -1.3469846 -0.29949588 0.71828914 0.98138624 1.786932 1.0532161
0.90410525 0.8540897 3.4571788 2.1240263 0.87563026 -2.780318 0.035583116 -4.490752
-0.40342683 0.08434275 0.6030194 1.6818675 0.6893068 1.1713278 0.7087639 1.6685725
-0.18291472 -1.8917598 0.91156167 -0.4182262 1.1803566 1.7964847 -2.9082246 0.29529646
2.6651957 2.2986226 -3.4164157 -1.3842809 -0.9390332 -1.8031615 0.13522187 -1.0544132
0.9732543 -2.2927237 4.0621676 0.85608673 -0.1984014 0.1115366 0.33440068 -0.17724353
-2.3686237 1.2476342 -0.1947986 4.5637674 1.182252 -1.3656461 -0.15699235 0.7526625
0.0161194 1.02028 -3.5955074 0.21828622 0.9511353 -1.0642759 -0.8491304 -0.9382143
1.5961902 0.72898227 1.1885523 1.2104218 -1.1958432 1.5271419 0.5478049 -0.57950866
00000000: 8b00 1fbe b671 653e b2ae c43d c8b1 ae3d
00000010: 1276 113e dc26 e73f 4038 5e3f c962 66be
00000020: 15f2 84bf 18f7 be3e 69b9 a8bf e7cf e13f
00000030: d7c0 82be 0381 1e3f 8bbd 2b3f 74b9 40c0
00000040: 526d 713e 2a76 543f a340 6cbf 3e08 7140
00000050: 8fb3 28bf e4c5 e1bc bef0 e43f bd62 e43f
00000060: 923d 343e d497 09c0 f256 753e c6ab dd3c
00000070: 614d b63e 7565 8cbf 66fb b2bf 3978 93bf
00000080: 4ec6 58bf 345b 523f 4de4 a23e 9da8 ce3f
00000090: f939 4e3f 8711 1bbe 4afe 9cbf a232 febf
000000a0: e5b3 99bf 907f ccbf e17f 12c0 764f d43d
000000b0: b0b6 0abf 84b7 c23f 4411 36be 8a1f a53f
000000c0: 27d3 953f 781f be3f 0428 9cbf c6d3 0540
000000d0: e832 c33e 175f 393f b756 f7bf 87dd e73f
000000e0: 6fda 7240 911d c0bf d2ca 28c0 57da 723f
000000f0: a2a4 73c0 0bb0 2240 9ed2 873f 0a43 7a3f
00000100: 3da9 41bf 396e 193b a5de 00c0 206c d1be
00000110: 789e 1f40 a7a8 3abf 2f50 b13d a5bc 243f
00000120: b3db 02c0 5f61 e83f 75a3 f53f 4f5b efbf
00000130: de99 b9bf 90d2 54c0 a2a6 0cc0 5577 3dc0
00000140: fb07 9abe 0cb2 ff3f 795b c6bf 5100 d23f
00000150: 079c e33f 2839 773f de19 933f f5bb d73f
00000160: c01c 093f 6fb4 d83f b788 9b3f f36b 8ebf
00000170: 4db4 bcbf 83f3 bf3f eb77 3c3e 960f 2c40
00000180: ab84 d93f 932a 13c0 d0fc 11bf 1367 bfbf
00000190: 4f6d ed3f 4909 a93f 4611 0fbf 0e32 1dbf
000001a0: b790 1640 2873 0bc0 222b 0fbf 7937 b9bf
000001b0: aa50 99bf 2561 79c0 5906 3ebf ba62 0ac0
000001c0: ea87 ce3f d8aa 3c40 7560 61be 74dc c93f
000001d0: 5d3f 1f3f 59d7 81be c299 4fbe a73a 1e40
000001e0: a2c6 07bf 8d72 b8be a14f 403f 4100 9bbf
000001f0: affb d93f ac14 a33f e7c4 3e40 7ef6 c43f
00000200: 1b26 bc3f dac2 77bf a56f 6040 b415 123f
00000210: 57ca 013f 231f 873f 7443 df3f 99ea 4b3f
00000220: 2930 31bf 1feb c9be 4b5a 313e 0dab 16c0
00000230: 6c71 4f3f 1a79 0ac0 7371 aebf d496 2dbe
00000240: 6e63 dfbf e9ea 1b40 9f2d fcbe 5a21 09c0
00000250: 71d8 2c3f f8f2 1040 1a04 87bf 7d49 4940
00000260: fc14 713f 3f5f 463f d278 663f 5361 07be
00000270: 687c edbe d5df 0ec0 9c37 6cbf 9cc1 6abf
00000280: 892e 94bf 1c95 0fc0 0040 cdbf 8504 ca3f
00000290: 6a88 963f d17c dabf 7774 85bf 2cb3 f83f
000002a0: 48ea c2be 225d 45c0 a631 4ebf 5da6 aabf
000002b0: 2739 cd3f dabe 8a3e 2808 6c40 394f 813f
000002c0: 9e7f 813e 5ac7 7ebf 2b6c ac3f 4b88 3abf
000002d0: 90f8 c1bf 5172 fb3f f3d3 5dc0 9363 f8bd
000002e0: d88f bd3e 19a8 78c0 fe69 acbf 8657 99be
000002f0: cce1 373f 213c 7b3f 30ba e43f c9cf 863f
00000300: 7173 673f 9fa5 5a3f 6b42 5d40 0cf0 0740
00000310: 4e29 603f bbf0 31c0 9abf 113d 3eb4 8fc0
00000320: f68d cebe e4bb ac3d 7b5f 1a3f 6f47 d73f
00000330: 6976 303f 12ee 953f 8d71 353f c993 d53f
00000340: ff4d 3bbe 2f25 f2bf 1b5c 693f bf21 d6be
00000350: ed15 973f 36f3 e53f 5a20 3ac0 1931 973e
00000360: 9192 2a40 a21c 1340 8ea6 5ac0 1e30 b1bf
00000370: 7b64 70bf ffcd e6bf 9a77 0a3e 03f7 86bf
00000380: 3227 793f fcbb 12c0 47fd 8140 8028 5b3f
00000390: bd29 4bbe 4d6d e43d 9136 ab3e 547f 35be
000003a0: 8897 17c0 7ab2 9f3f 4979 47be 620a 9240
000003b0: 0954 973f 7ecd aebf 9ac2 20be 7dae 403f
000003c0: d50c 843c 8998 823f cb1c 66c0 6c86 5f3e
000003d0: 9a7d 733f 313a 88bf 9c60 59bf d02e 70bf
000003e0: f64f cc3f 959e 3a3f 7b22 983f 1aef 9a3f
000003f0: 6411 99bf 6379 c33f f13c 0c3f ae5a 14bf

cls_token f4 [1, 1, 36]
0.84351724 0.634913 -0.6967281 1.837924 -1.187943 1.4846756 2.0185003 -3.2044797
1.3115921 0.14324993 1.0338932 0.018450318 -0.75991577 0.5193808 -0.93334657 2.0693178
-1.1137176 0.03390169 -3.5527124 2.180438 1.0203147 -0.45889106 1.8980716 2.4149642
-1.3870963 -2.0127685 0.54051876 -1.0311031 0.6462932 1.1025802 -0.31846863 1.7813944
0.203105 -0.54972655 0.5908313 1.3100641
00000000: bff0 573f a989 223f c65c 32bf 1841 eb3f
00000010: 840e 98bf da09 be3f 1c2f 0140 3216 4dc0
00000020: 40e2 a73f 1cb0 123e 9d56 843f 1f25 973c
00000030: d789 42bf 24f6 043f cdef 6ebf b46f 0440
00000040: 4c8e 8ebf 80dc 0a3d a45f 63c0 4c8c 0b40
00000050: ac99 823f c5f3 eabe 03f4 f23f c68e 1a40
00000060: 5f8c b1bf 33d1 00c0 705f 0a3f 30fb 83bf
00000070: 7973 253f 5921 8d3f 520e a3be bb04 e43f
00000080: c2fa 4f3e e1ba 0cbf b840 173f 2eb0 a73f

to_patch_embedding.1.weight f4 [36, 12]
-0.3172937 0.14230403 0.7593733 -0.052389573 -0.1818388 0.5682775 -0.38973832 0.1395728
0.56423795 0.2891838 -0.21148562 0.52602494 0.3525119 -0.4086698 0.13105448 -0.36532685
0.4401243 0.22682755 -0.5008465 0.6060669 -0.34592727 1.0213338 -0.5865671 -0.23370811
-0.004822336 -0.22968608 -0.29416466 -0.3329266 0.062537976 -0.013002439 0.5253867 0.24581125
0.35795602 0.6947566 -0.82217616 0.5830507 0.1728321 0.19934902 0.2895485 -0.68366915
-0.7829353 0.010921818 -0.038520165 0.58169585 0.64558214 -0.37223485 0.05607127 0.61905843
-0.50340563 0.065318644 -0.70690006 -0.04228559 -0.17611855 -0.7891033 0.35200632 1.4407903
-0.08946199 0.27183554 0.4789317 0.06363385 -0.33088994 -0.22956279 -0.11959884 1.0490335
0.48566955 0.18782274 0.3025117 0.38644913 0.5832537 0.18345948 0.107582316 0.5677234
-0.31608763 -0.23050474 0.05452205 0.033312015 0.29854485 0.4308981 -0.31025234 -0.82942367
0.41639704 -0.12769859 -0.7779142 0.52453846 0.68746096 0.29406452 -0.10449901 -0.22563465
-0.034263156 0.21944304 -0.43849313 0.13000308 -0.12954745 -1.0148182 0.009922155 -0.48779386
-0.13620333 -0.33713603 0.022136142 0.29222706 -0.031287 -0.2064006 -0.017993644 1.3784349
0.14052919 -1.1377958 -0.008725906 0.30985034 -0.38512474 0.22868994 0.27359095 0.16765349
0.17201069 -0.35424352 -0.26223052 -0.41421416 0.08507869 -0.7851567 -0.24939391 0.11091456
0.67874014 -0.13903068 -0.21792305 0.23904823 0.42608008 0.35951018 1.1080062 0.17929308
0.015525843 0.17995304 -0.5192682 -0.2397359 0.116104886 0.09402715 -0.123182215 -1.7160712
-0.3288744 0.541676 0.5418773 0.66181797 -0.897094 0.0038516182 -0.33831584 -0.69315577
-0.2513163 0.3272918 -0.26824567 0.42824128 0.32689092 -0.15904045 -0.22814341 -0.04996862
-0.3879485 0.11240868 0.42813632 -0.16607335 0.5967487 -0.5793231 0.033740826 -0.04836712
0.014287402 0.089667805 -1.0323935 -0.76083297 -0.071491435 -0.3693669 0.17593203 -0.1996408
-0.25099394 0.1603281 -0.54330313 0.18081428 0.26375446 -0.20055054 -0.5660834 0.24879903
-0.6261128 -0.03254797 -0.5739961 -0.62825876 -0.19854139 -0.48860636 -0.1326889 0.6624904
-0.029816452 0.048539273 0.31678197 -0.62340623 -0.19042015 0.33821207 -0.027773669 -0.08408014
0.12162006 -0.08793607 -0.5600385 0.413453 0.16129081 -0.7324715 0.6908644 0.2988301
0.39061326 0.46304452 0.78000957 0.35199365 0.20615777 0.0462902 0.32168815 0.61231786
0.71332 0.013565175 -0.06520576 0.6117272 -0.1564139 -1.0767049 -0.6278848 0.068123855
-0.51640517 -0.17868714 0.22816911 0.28079107 -0.29764467 -0.048053116 -0.30140653 -0.62551916
0.18174386 -0.6135915 0.5385858 0.32177338 0.8828831 -0.026826572 -0.5739422 1.6124111
-0.11033475 -0.8136595 -0.20144632 1.4707986 -0.2600523 -0.27988008 0.59947467 0.024021205
0.4596908 0.2265563 -0.7368707 -0.26110795 -0.53494483 -0.57506675 -0.11456622 -0.68576443
-0.037119094 0.52961105 0.6058069 -0.1825806 0.9388683 0.41009367 0.5823933 0.54719937
00000000: 5274 a2be 26b8 113e 4a66 423f 7396 56bd
00000010: f333 3abe a27a 113f c88b c7be 2cec 0e3e
00000020: e671 103f e60f 943e b08f 58be 92a9 063f
00000030: 717c b43e 2b3d d1be 2533 063e 1f0c bbbe
00000040: f957 e13e 7b45 683e 7a37 00bf 3327 1b3f
00000050: 611d b1be 11bb 823f 4329 16bf 2e51 6fbe
00000060: b004 9ebb d432 6bbe c09c 96be 5b75 aabe
00000070: e913 803d 2f08 55bc be7f 063f f2b5 7b3e
00000080: 0346 b73e 92db 313f 237a 52bf d042 153f
00000090: e6fa 303e 2622 4c3e b33f 943e f104 2fbf
000000a0: 736e 48bf 6df1 323c 52c7 1dbd 05ea 143f
000000b0: df44 253f 9195 bebe fdaa 653d 9d7a 1e3f
000000c0: 31df 00bf c8c5 853d 67f7 34bf a833 2dbd
000000d0: 6c58 34be ad02 4abf 2c3a b43e d16b b83f
000000e0: d937 b7bd 072e 8b3e 8936 f53e 7752 823d
000000f0: 686a a9be 8212 6bbe 3df0 f4bd bb46 863f
00000100: aea9 f83e 9b54 403e d0e2 9a3e a9dc c53e
00000110: 1d50 153f cddc 3b3e 1e54 dc3d 5256 113f
00000120: 3dd6 a1be 6f09 6cbe 8352 5f3d 2e72 083d
00000130: dfda 983e ad9e dc3e 65d9 9ebe 1c55 54bf
00000140: fe31 d53e 6bc3 02be 6325 47bf 2748 063f
00000150: 71fd 2f3f a08f 963e 9403 d6bd c50c 67be
00000160: 8657 0cbd adb5 603e 2c82 e0be 871f 053e
00000170: 16a8 04be 90e5 81bf 8990 223c 1ec0 f9be
00000180: e378 0bbe 189d acbe db56 b53c c99e 953e
00000190: cc26 00bd ae5a 53be 6867 93bc 8e70 b03f
000001a0: e2e6 0f3e 4ba3 91bf 1af7 0ebc b4a4 9e3e
000001b0: 122f c5be b22d 6a3e 1d14 8c3e 5bad 2b3e
000001c0: 9223 303e 685f b5be 1443 86be e113 d4be
000001d0: bc3d ae3d 0800 49bf 1e61 7fbe 2c27 e33d
000001e0: eac1 2d3f 0f5e 0ebe 3827 5fbe 0fc9 743e
000001f0: 2b27 da3e b811 b83e 26d3 8d3f 9b98 373e
00000200: 1b60 7e3c 9c45 383e c3ee 04bf 547d 75be
00000210: 66c8 ed3d 4e91 c03d f546 fcbd 39a8 dbbf
00000220: 3a62 a8be 47ab 0a3f 79b8 0a3f e76c 293f
00000230: f4a7 65bf 6e6b 7c3b bc37 adbe a872 31bf
00000240: 88ac 80be ca92 a73e 7f57 89be 7142 db3e
00000250: 3f5e a73e 80db 22be 6d9e 69be e5ab 4cbd
00000260: 30a1 c6be 8636 e63d af34 db3e 220f 2abe
00000270: 86c4 183f 854e 14bf d233 0a3d 9a1c 46bd
00000280: b515 6a3c c1a3 b73d 7825 84bf f3c5 42bf
00000290: 1a6a 92bd a91d bdbe 8727 343e a36e 4cbe
000002a0: 4782 80be 0d2d 243e ea15 0bbf 6127 393e
000002b0: d30a 873e 1f5d 4dbe d7ea 10bf 2cc5 7e3e
000002c0: ee48 20bf 0551 05bd 69f1 12bf 91d5 20bf
000002d0: 6f4e 4bbe 9d2a fabe 99df 07be f998 293f
000002e0: a241 f4bc 1ed1 463d 3f31 a23e 8d97 1fbf
000002f0: 80fd 42be 222a ad3e 9b85 e3bc 3532 acbd
00000300: f013 f93d d417 b4bd af5e 0fbf 1db0 d33e
00000310: 6b29 253e 4183 3bbf 7ddc 303f 4200 993e
00000320: 76fe c73e 2c14 ed3e b5ae 473f 8338 b43e
00000330: 061b 533e cb9a 3d3d 4fb4 a43e ddc0 1c3f
00000340: 249c 363f 7840 5e3c 998a 85bd 279a 1c3f
00000350: f72a 20be 77d1 89bf 0fbd 20bf 8584 8b3d
00000360: 2133 04bf c3f9 36be 2aa5 693e d9c3 8f3e
00000370: e264 98be 58d3 44bd f551 9abe 0622 20bf
00000380: 101b 3a3e 5514 1dbf c2e0 093f 7bbf a43e
00000390: a004 623f 66c3 dbbc e0ed 12bf 7d63 ce3f
000003a0: 2ff7 e1bd fd4b 50bf f247 4ebe 2143 bc3f
000003b0: 9325 85be 714c 8fbe 2c77 193f 1ec8 c43c
000003c0: 985c eb3e 60fe 673e 8fa3 3cbf f1af 85be
000003d0: 25f2 08bf 9337 13bf b2a1 eabd 428e 2fbf
000003e0: 310a 18bd 9794 073f 2916 1b3f 69f6 3abe
000003f0: ac59 703f ccf7 d13e ba17 153f 4215 0c3f

to_patch_embedding.1.bias f4 [36]
-0.78447473 1.5695255 -0.943863 -0.17235973 -0.25613955 -1.228811 -0.6783666 0.8626059
-0.8014532 -0.5556795 0.9194647 0.16758023 -0.029231375 1.1985953 0.53829986 0.85690975
-0.48286197 0.65464044 -0.5704976 0.64028466 0.7898379 -1.1781723 -0.07995619 0.66986763
0.17789158 -0.22706433 -0.2376289 0.07815795 0.6775508 -0.22889121 -0.1835768 -0.41477445
0.7299926 -0.8508334 -0.15755895 0.69433695
00000000: 56d3 48bf 36e6 c83f 01a1 71bf 127f 30be
00000010: b924 83be ae49 9dbf 6fa9 2dbf bed3 5c3f
00000020: 092c 4dbf 0341 0ebf 0a62 6b3f 279a 2b3e
00000030: a376 efbc 926b 993f 05ce 093f 705e 5b3f
00000040: af39 f7be 8496 273f 210c 12bf b2e9 233f
00000050: d132 4a3f 5ace 96bf 12c0 a3bd 727c 2b3f
00000060: 3629 363e 8d83 68be fe54 73be 4611 a03d
00000070: f873 2d3f 7562 6abe 8ffb 3bbe 515d d4be
00000080: cce0 3a3f 38d0 59bf 2257 21be 11c0 313f

transformer.layers.0.0.norm.weight f4 [36]
0.8544763 0.1856407 0.5025946 0.48283187 0.44320247 0.34860274 0.38338956 0.45489198
0.34810448 0.5378731 0.16391087 0.34535575 0.28553042 0.55958515 0.6841268 0.1360673
0.7158431 0.4015962 0.26865372 0.13233092 0.3712437 0.30114397 0.31845188 0.29221871
0.37654158 0.23353961 0.53389436 0.5186137 0.688684 0.47869602 0.4035682 0.43400562
0.24715701 0.24788257 0.46227726 0.3190261
00000000: f5be 5a3f 9818 3e3e 0aaa 003f bd35 f73e
00000010: 6feb e23e 0f7c b23e a34b c43e 9ae7 e83e
00000020: c03a b23e 0db2 093f 40d8 273e 78d2 b03e
00000030: 0b31 923e f940 0f3f ef22 2f3f 3a55 0b3e
00000040: 7e41 373f 049e cd3e fb8c 893e c281 073e
00000050: a713 be3e 8b2f 9a3e 200c a33e b19d 953e
00000060: 0fca c03e 0225 6f3e 4dad 083f dec3 043f
00000070: 984d 303f a517 f53e 7ea0 ce3e fc35 de3e
00000080: ba16 7d3e eed4 7d3e 9baf ec3e 6457 a33e

transformer.layers.0.0.norm.bias f4 [36]
0.08950008 0.033245575 0.1364501 0.15266073 0.20452313 0.051583517 0.04034572 -0.071025595
0.016227677 0.11394602 -0.06977047 0.07094015 0.114150725 -0.2598949 -0.09010771 0.021951752
0.41795698 -0.095574334 -0.04624289 -0.01637378 -0.05397692 0.2104847 0.02420966 -0.14925957
-0.21910928 0.13946646 0.041161973 0.05281762 0.037625153 -0.051137045 -0.16533028 0.005895128
-0.055663638 0.101791054 0.051694885 -0.087735556
00000000: d14b b73d 832c 083d 93b9 0b3e 1853 1c3e
00000010: 836e 513e 3d49 533d 8e41 253d de75 91bd
00000020: e8ef 843c 885c e93d d2e3 8ebd 1249 913d
00000030: dbc7 e93d f210 85be 648a b8bd 29d4 b33c
00000040: 75fe d53e 7abc c3bd 2f69 3dbd 4e22 86bc
00000050: e716 5dbd 4d89 573e 5653 c63c 80d7 18be
00000060: 2f5e 60be 4cd0 0e3e 7599 283d 4a57 583d
00000070: d51c 1a3d 1475 51bd 574c 29be eb2b c13b
00000080: 8eff 63bd d477 d03d 04be 533d b3ae b3bd

transformer.layers.0.0.fn.to_qkv.weight f4 [216, 36]
0.07747419 0.50342846 -0.56951976 0.380133 1.032034 0.31738383 -0.4470035 0.32974103
0.06372042 -0.53146684 0.41224492 -0.06851892 0.5505882 0.25739428 -0.07401045 -0.34853488
-0.64296764 -0.5214454 -0.29783964 0.6162296 -0.047449723 -0.61418986 -0.2269027 -0.23865663
-1.1511892 -0.39726388 -1.0547292 -0.21691428 0.508165 0.915984 0.6536411 -1.221421
0.59141165 0.5026971 -0.341613 0.02251499 -0.2097967 0.24993646 0.56808364 0.7632472
-0.035582434 -0.048358884 0.15265149 -0.42879042 0.29905567 -0.1639371 0.2821492 -0.47572395
-0.5148997 0.008690444 -0.019192448 0.22283678 0.42426807 0.14661552 -0.12588224 -0.28897446
-1.1098984 1.0686706 -0.65645504 0.11809736 0.41328314 0.23732452 -0.411108 -0.54971015
0.27775323 0.29882392 -0.49016976 0.26265904 0.04009864 0.64830273 -0.17980993 0.007409282
0.0681009 -0.16829611 0.61459047 0.18296343 -0.99602145 0.43991372 0.39766857 -0.85877323
-0.13824268 -0.9418079 0.8772838 -0.5840252 0.33433047 -1.1352274 -0.69428134 0.23663914
0.47818026 -0.7798095 -0.18471386 -0.062197566 -0.5658392 0.58867675 -0.36347464 0.962233
0.8529262 0.19125058 -0.29677346 -0.30849478 0.41039303 0.3216437 0.24499658 0.29910654
-0.17299417 -0.11492207 0.9975716 -0.19928151 0.23023556 0.08655986 -0.75826037 0.17960967
0.44299173 0.16162105 -0.6633959 -0.47984844 -0.9196992 0.44135588 0.36294913 -0.09135323
0.05832092 -0.5293308 0.17184325 -0.27564627 0.020625563 -0.48499784 0.37496012 0.36840084
0.3361891 0.43836254 0.95425403 -0.6063214 0.5715135 -0.1843604 -0.7930828 -0.23363468
0.5094931 -0.37697038 0.55951977 0.45592272 -0.39937606 -0.48277462 -0.06499251 -0.6664669
0.32287127 1.3234932 -0.37635246 0.70925444 -0.8267973 0.32746765 0.6763535 -0.0836323
-0.4561052 0.19729906 0.23280326 -0.54253024 -0.499624 0.30430007 0.41077748 -0.15682945
-0.5911027 -0.037155136 -0.89276457 0.54256624 -0.6864747 -0.028812168 0.47400847 0.54416066
0.10848441 -0.3270311 -0.35178176 -1.0333748 0.37558654 0.99044776 -0.25870293 -0.010774737
-0.6649125 0.8716694 -0.43530646 0.57862365 -0.013138882 0.6753876 -0.71263343 -0.60489255
0.11640727 -0.8241993 -0.5741468 -0.22235382 0.41992342 -0.31293726 0.946777 0.55333877
0.34070596 -0.65463287 0.23131287 -0.053189985 -0.7269851 0.24359734 -0.26223126 -0.14481278
0.1786684 0.22069888 0.21936229 -0.45230964 0.23634122 -0.00719797 -0.2574254 0.4726448
0.45027184 -0.63768387 -0.13549389 0.036444206 0.56548274 -0.4108086 1.0241607 -0.09704362
-0.5974723 -1.1837236 0.012381862 -0.5397886 -0.60552883 0.45836997 0.4054365 -0.029449493
0.07347207 -1.4806833 -0.36950508 0.6728752 0.6019109 -0.83240354 0.16016802 -0.7067388
-0.26949015 -0.64755523 -0.30393606 0.7198409 1.0527993 -0.6556642 0.68919986 1.159063
0.201516 -0.3111736 0.40361232 -0.44763014 0.064636946 -1.1103722 0.2856579 -0.6245126
0.36486873 -0.93195355 0.19100635 0.91764605 0.4042367 -0.34436455 -0.62765265 -0.7268222
00000000: caaa 9e3d b0e0 003f 0ccc 11bf cba0 c23e
00000010: b119 843f 2280 a23e a5dd e4be d1d3 a83e
00000020: da7f 823d 360e 08bf c411 d33e a653 8cbd
00000030: 59f3 0c3f 2fc9 833e ca92 97bd 2a73 b2be
00000040: 8799 24bf 727d 05bf 707e 98be 39c1 1d3f
00000050: a45a 42bd 8c3b 1dbf 2e59 68be 6762 74be
00000060: 2b5a 93bf 2c66 cbbe 5e01 87bf c71e 5ebe
00000070: 1a17 023f ed7d 6a3f 0655 273f 8657 9cbf
00000080: c166 173f c2b0 003f e6e7 aebe 5b71 b83c
00000090: f2d4 56be 58ef 7f3e ee6d 113f 2b64 433f
000000a0: e3be 11bd f713 46bd ac50 1c3e 6b8a dbbe
000000b0: d31d 993e 21df 27be dc75 903e 1792 f3be
000000c0: 77d0 03bf 5d62 0e3c 7b39 9dbc 532f 643e
000000d0: aa39 d93e 6122 163e 46e7 00be 76f4 93be
000000e0: 2711 8ebf 33ca 883f 700d 28bf 07dd f13d
000000f0: d999 d33e 3305 733e bf7c d2be ceb9 0cbf
00000100: ac35 8e3e 73ff 983e 88f7 fabe 3f7b 863e
00000110: 793e 243d 2bf7 253f 1820 38be 90c9 f23b
00000120: 7c78 8b3d d155 2cbe cd55 1d3f c45a 3b3e
00000130: 43fb 7ebf 5f3c e13e 379b cb3e 90d8 5bbf
00000140: 7d8f 0dbe 531a 71bf ac95 603f ad82 15bf
00000150: 5d2d ab3e 224f 91bf 6cbc 31bf 8851 723e
00000160: 0bd4 f43e 98a1 47bf a125 3dbe e0c2 7ebd
00000170: d6da 10bf 85b3 163f 5919 babe e754 763f
00000180: 5f59 5a3f 31d7 433e b1f2 97be 07f3 9dbe
00000190: 091f d23e 7cae a43e 62e0 7a3e 7e24 993e
000001a0: 6225 31be 435c ebbd da60 7f3f 7410 4cbe
000001b0: dfc2 6b3e 4c46 b13d 5a1d 42bf 99eb 373e
000001c0: d0cf e23e fd7f 253e 50d4 29bf b2ae f5be
000001d0: 6871 6bbf 66f9 e13e 78d4 b93e 6717 bbbd
000001e0: ebe1 6e3d 3982 07bf adf7 2f3e 8221 8dbe
000001f0: f1f6 a83c a351 f8be c6fa bf3e 099f bc3e
00000200: fa20 ac3e 0e71 e03e fe49 743f e137 1bbf
00000210: b54e 123f f9c8 3cbe 7907 4bbf ee3d 6fbe
00000220: 246e 023f 4302 c1be b03c 0f3f b46e e93e
00000230: 057b ccbe 3c2e f7be cb1a 85bd 939d 2abf
00000240: 624f a53e 3a68 a93f 45b1 c0be b391 353f
00000250: fda8 53bf d7a9 a73e 8125 2d3f 6947 abbd
00000260: 9f86 e9be c408 4a3e fa63 6e3e 43e3 0abf
00000270: b8ce ffbe 38cd 9b3e 6d51 d23e e697 20be
00000280: 8252 17bf fc2f 18bd 388c 64bf 9fe5 0a3f
00000290: cebc 2fbf 7f07 ecbc 3db1 f23e 1d4e 0b3f
000002a0: 132d de3d 9f70 a7be bd1c b4be a045 84bf
000002b0: e14c c03e fc8d 7d3f b674 84be 8688 30bc
000002c0: b537 2abf ba25 5f3f 7de0 debe ae20 143f
000002d0: 7744 57bc 34e6 2c3f 256f 36bf 3dda 1abf
000002e0: ef66 ee3d bafe 52bf 49fb 12bf b8b0 63be
000002f0: 3400 d73e 5039 a0be fa5f 723f 9ca7 0d3f
00000300: 0371 ae3e 0596 27bf 48dd 6c3e bedd 59bd
00000310: b21b 3abf 9571 793e 2d43 86be cd49 14be
00000320: d9f4 363e e3fe 613e 82a0 603e 2195 e7be
00000330: 6f03 723e f3dc ebbb 43cd 83be 80fe f13e
00000340: 088a e63e 403f 23bf e9be 0abe 8546 153d
00000350: 7ac3 103f 8155 d2be b317 833f cebe c6bd
00000360: f2f3 18bf 4184 97bf 4bdd 4a3c 962f 0abf
00000370: f003 1bbf 78af ea3e 5f95 cf3e 1040 f1bc
00000380: 8678 963d 0887 bdbf c52f bdbe 8d41 2c3f
00000390: d516 1a3f 6618 55bf 1603 243e d6ec 34bf
000003a0: 9dfa 89be 2ec6 25bf 829d 9bbe 7e47 383f
000003b0: 21c2 863f 9cd9 27bf 676f 303f 2d5c 943f
000003c0: 365a 4e3e 2552 9fbe 46a6 ce3e c72f e5be
000003d0: 6060 843d ad20 8ebf c141 923e 0fe0 1fbf
000003e0: 13d0 ba3e 8294 6ebf 2b97 433e daea 6a3f
000003f0: 1df8 ce3e 8d50 b0be d8ad 20bf 0511 3abf

transformer.layers.0.0.fn.to_out.0.weight f4 [36, 72]
-0.16204098 0.09429589 -0.08554853 0.08363958 0.7586605 1.1254786 0.8529545 0.045498077
-0.5378491 0.25708705 -0.17001551 0.2921827 -0.17284603 0.54193044 0.17647433 0.80182225
-0.32579055 -0.48426625 0.22383553 -0.2561744 0.41005117 0.6751841 0.06774035 0.28121608
1.4081413 -1.0557 0.009246589 0.5045279 0.54011405 -1.4557775 0.4419751 -1.3441406
0.0055908915 0.0779651 0.35273436 -1.0146048 0.18568833 -0.44209382 -0.14999793 -0.34644872
-0.20271477 -0.27824354 -0.27886713 0.52606446 -0.5995639 0.7119294 0.4158458 0.38284037
-0.7192942 -0.5891688 0.3846246 0.29559734 0.62090015 0.179431 -0.19300571 0.10805195
-0.7566173 0.57691354 0.44469273 0.6838559 1.1884685 -0.76893365 0.4243496 0.74316746
0.49446848 0.679689 -0.7187556 0.48473617 0.3923233 0.032763317 0.39750323 -0.20662853
-0.34730226 -0.31528586 0.09968695 0.37988508 -0.24921529 -0.20744145 -0.2918864 -0.23434371
0.6504308 -0.45864192 -0.13728419 -0.19724923 -0.1845076 -0.24126364 -0.24716017 -0.5246199
0.015603056 0.5933434 -0.4476493 0.8163827 0.11802993 -0.5495826 0.20916599 1.0044188
0.21096821 0.8598754 -0.6222671 -0.40365267 0.08592245 0.064646855 -0.67237806 0.41470683
0.08639744 0.3365656 0.24898252 -0.43051663 0.3109124 -0.19544989 -0.48971903 -1.1816291
-0.9609672 0.57712436 0.54047215 0.63333195 -1.027667 0.57303023 0.20108613 -0.8685498
-0.5346132 -0.5290904 1.0601404 0.21267943 0.82210356 0.3812124 0.9092911 -0.3481988
0.25613567 0.043501798 -0.40193653 -0.3871901 -0.08386023 -0.22905499 0.6099644 -0.34826547
0.101625845 -0.084218495 0.11244632 -0.6602468 -1.2871176 0.61094904 0.0044647264 -0.23380186
0.20390622 -0.57108754 -0.30862996 1.0179285 0.8169411 0.41765517 -0.11381241 0.4512269
0.53393507 -0.44007024 -0.36852157 -0.2826887 -0.5013089 0.3740678 0.3724338 0.5258166
-0.25934145 0.3997688 0.08201018 0.43656725 0.5400562 -0.010275607 -0.24348433 0.1578043
-0.4722151 0.8231123 -0.24494171 0.29466206 -0.13368322 0.6009028 -0.8599264 0.22818983
0.030452615 0.5163064 -0.15341 0.7772517 0.2977372 -0.3569046 -0.078060925 0.2270948
-0.1097807 0.5199287 -0.42677283 -0.4889345 0.17283343 -0.14096902 0.41931704 -0.10820391
-0.3770284 0.028526995 -0.17100976 0.17563002 0.18083774 -0.7503774 -0.56788266 -0.45192295
0.30842358 0.28960624 0.045770105 0.14097627 -0.05506288 -0.088997 0.9086701 0.21704072
-0.36627656 -0.21361284 0.332082 -0.37012428 -0.80563986 -0.25531742 -0.03587146 0.4679318
0.5703312 0.5991346 -0.51293665 -0.044907615 -0.044297084 -0.4166844 -0.024077328 -0.26410446
0.7240555 0.24506307 -0.20736772 0.026679182 -0.0630189 -0.30220798 0.1285397 -0.36180896
0.17903848 0.13603388 0.093144335 0.07407012 -0.007723279 -0.17812902 -0.0067392797 -0.46302268
0.50543636 -0.49574104 0.32294667 -0.25545895 -0.48684505 -0.119276926 0.1539237 -0.8511831
-0.35370162 -0.41265312 0.1880898 -0.07034676 -0.47235125 0.11613654 -0.13705601 -0.25121826
00000000: 12ee 25be 341e c13d 1134 afbd 3a4b ab3d
00000010: 9337 423f af0f 903f 3a5b 5a3f 315c 3a3d
00000020: 7bb0 09bf eaa0 833e 8c18 2ebe f998 953e
00000030: 8dfe 30be f4bb 0a3f b0b5 343e 3944 4d3f
00000040: 05ce a6be bff1 f7be 2435 653e 4a29 83be
00000050: 3af2 d13e ddd8 2c3f 74bb 8a3d 8efb 8f3e
00000060: f93d b43f 2d21 87bf 017f 173c be28 013f
00000070: ea44 0a3f eb56 babf 8f4a e23e cd0c acbf
00000080: cc33 b73b 2bac 9f3d 9999 b43e 92de 81bf
00000090: 1525 3e3e 1f5a e2be 0f99 19be ba61 b1be
000000a0: 7694 4fbe f075 8ebe acc7 8ebe 29ac 063f
000000b0: 057d 19bf 0141 363f bee9 d43e a703 c43e
000000c0: aa23 38bf c4d3 16bf 84ed c43e 8958 973e
000000d0: 50f3 1e3f c3bc 373e 4aa3 45be 574a dd3d
000000e0: acb1 41bf 9bb0 133f c4ae e33e 2e11 2f3f
000000f0: bc1f 983f d6d8 44bf 5a44 d93e 3940 3e3f
00000100: f92a fd3e 1900 2e3f 5e00 38bf 572f f83e
00000110: 99de c83e d432 063d 8b85 cb3e 6e96 53be
00000120: 9ad1 b1be 266d a1be ac28 cc3d 4c80 c23e
00000130: 4b32 7fbe 886b 54be 2272 95be ccf7 6fbe
00000140: a282 263f 1dd3 eabe 3a94 0cbe b4fb 49be
00000150: 8fef 3cbe d10d 77be 8e17 7dbe 7d4d 06bf
00000160: f6a3 7f3c 5ae5 173f 4a32 e5be 75fe 503f
00000170: adb9 f13d 72b1 0cbf 9c2f 563e cc90 803f
00000180: 0d08 583e cb20 5c3f e64c 1fbf 90ab cebe
00000190: 1cf8 af3d 9265 843d f820 2cbf 7454 d43e
000001a0: 24f1 b03d 5452 ac3e 46f5 7e3e ad6c dcbe
000001b0: e92f 9f3e 0424 48be 74bc fabe 9f3f 97bf
000001c0: f201 76bf 6cbe 133f 625c 0a3f 0b22 223f
000001d0: 988a 83bf 1cb2 123f 86e9 4d3e 4859 5ebf
000001e0: 69dc 08bf 7872 07bf aeb2 873f a3c8 593e
000001f0: 6175 523f 462e c33e 4dc7 683f 1d47 b2be
00000200: 3724 833e f12e 323d a0ca cdbe c83d c6be
00000210: eabe abbd 648d 6abe a026 1c3f da4f b2be
00000220: 3621 d03d bf7a acbd 424a e63d ef05 29bf
00000230: 45c0 a4bf 2867 1c3f d74c 923b c169 6fbe
00000240: cbcc 503e cb32 12bf bf04 9ebe 7b4b 823f
00000250: 0d23 513f e6d6 d53e 7b16 e9bd 3607 e73e
00000260: f8af 083f e350 e1be dcae bcbe 93bc 90be
00000270: c855 00bf d185 bf3e a5af be3e eb9b 063f
00000280: 67c8 84be 7fae cc3e f4f4 a73d be85 df3e
00000290: 2041 0a3f 055b 28bc f553 79be 7397 213e
000002a0: 2dc6 f1be 7db7 523f 00d2 7abe f2dd 963e
000002b0: 41e4 08be c4d4 193f 2324 5cbf 98aa 693e
000002c0: c377 f93c a82c 043f 8317 1dbe f8f9 463f
000002d0: 0371 983e 33bc b6be 68de 9fbd 8a8b 683e
000002e0: b4d4 e0bd 0c1a 053f f881 dabe 9f55 fabe
000002f0: 3ffb 303e 2f5a 10be b9b0 d63e 039a ddbd
00000300: de09 c1be 72b1 e93c 2f1d 2fbe 5bd8 333e
00000310: 872d 393e bc18 40bf c260 11bf 7262 e7be
00000320: b2e9 9d3e 4547 943e 6f79 3b3d 155c 103e
00000330: 9d89 61bd 0f44 b6bd 9b9e 683f ec3f 5e3e
00000340: 9a88 bbbe 53bd 5abe a706 aa3e ee80 bdbe
00000350: 6a3e 4ebf f7b8 82be f4ed 12bd c294 ef3e
00000360: 3a01 123f e360 193f d14f 03bf 0cf1 37bd
00000370: dc70 35bd a857 d5be d13d c5bc b338 87be
00000380: b45b 393f d0f1 7a3e 3458 54be 4d8e da3c
00000390: 0e10 81bd 01bb 9abe e99f 033e 063f b9be
000003a0: dd55 373e 774c 0b3e 75c2 be3d 13b2 973d
000003b0: 8f13 fdbb 7467 36be 2dd5 dcbb 4f11 edbe
000003c0: 4764 013f c5d1 fdbe 4459 a53e 84cb 82be
000003d0: c143 f9be 7647 f4bd 2d9e 1d3e 23e7 59bf
000003e0: 6118 b5be 4547 d3be 9d9a 403e f611 90bd
000003f0: 06d8 f1be ffd8 ed3d 6958 0cbe ae9f 80be

transformer.layers.0.0.fn.to_out.0.bias f4 [36]
-0.098668486 0.28028256 0.31557953 0.3072328 0.14561075 0.36736837 0.09100427 -0.40829
0.13488697 -0.30022353 -0.21576796 0.2733685 -0.78460515 0.119423404 -0.5781939 -0.2921177
-0.4244383 0.516395 -0.4484708 0.31611395 -0.2550528 0.4943794 0.062209357 0.37377813
0.13832076 -0.23212188 -0.08109829 0.24255995 -0.35913375 0.4322968 0.25378102 -0.5210295
-0.43445227 0.59966326 0.50972646 -0.029967591
00000000: b412 cabd 3281 8f3e a493 a13e 9e4d 9d3e
00000010: fc1a 153e b517 bc3e 7260 ba3d 630b d1be
00000020: cf1f 0a3e e6b6 99be 47f2 5cbe f5f6 8b3e
00000030: e2db 48bf 4294 f43d 8404 14bf 7490 95be
00000040: fa4f d9be 7632 043f f79d e5be b0d9 a13e
00000050: 4896 82be 4c1f fd3e 3dcf 7e3d d95f bf3e
00000060: f5a3 0d3e 5cb1 6dbe dc16 a6bd a361 783e
00000070: 61e0 b7be 0256 dd3e 96ef 813e 3062 05bf
00000080: 8770 debe 8883 193f 6f7d 023f 987e f5bc

transformer.layers.0.1.norm.weight f4 [36]
0.010546909 0.3965328 0.75910455 0.9880166 0.97911066 0.9567032 0.7154208 0.73618585
0.28746203 0.35898083 0.7821397 0.66517794 0.3475947 0.7051722 0.56258273 0.5348696
0.7602096 0.71611583 0.72901434 1.0772859 0.5098228 0.55546117 0.8703837 0.846987
0.4962373 0.7722958 -0.022050329 0.68333447 0.19731915 0.17295767 0.77442044 0.861679
0.34098396 0.52976066 0.83776724 0.6848662
00000000: f1cc 2c3c 5906 cb3e ad54 423f a8ee 7c3f
00000010: ffa6 7a3f 80ea 743f d125 373f ad76 3c3f
00000020: 392e 933e 56cc b73e 4f3a 483f 1a49 2a3f
00000030: eff7 b13e 2a86 343f 6c05 103f 37ed 083f
00000040: 199d 423f 5e53 373f afa0 3a3f 81e4 893f
00000050: bf83 023f b432 0e3f 77d1 5e3f 24d4 583f
00000060: d112 fe3e 2db5 453f e4a2 b4bc 02ef 2e3f
00000070: 080e 4a3e d11b 313e 6b40 463f ff96 5c3f
00000080: 7395 ae3e 659e 073f ea77 563f 6453 2f3f

transformer.layers.0.1.norm.bias f4 [36]
0.023983592 -0.10406528 -0.10720805 -0.1687023 0.14536645 -0.19286665 0.014382704 0.17914832
0.028773341 0.02429344 -0.03414043 -0.04550171 0.19892131 -0.11219444 0.098991625 -0.026281103
0.29683116 -0.14412947 0.1871362 -0.3692889 0.09975616 -0.02472681 -0.11751245 -0.3156628
-0.04222621 0.15906811 0.018003993 0.0009797575 0.0477106 0.03152808 0.0417528 0.06670169
0.014133885 0.026891565 -0.1839753 -0.11286308
00000000: 3d79 c43c 2d20 d5bd e58f dbbd 4cc0 2cbe
00000010: f1da 143e d67e 45be 6fa5 6b3c a872 373e
00000020: 12b6 eb3c 0903 c73c d6d6 0bbd 0060 3abd
00000030: 07b2 4b3e 33c6 e5bd 1fbc ca3d 784b d7bc
00000040: 41fa 973e ad96 13be a2a0 3f3e 6f13 bdbe
00000050: f54c cc3d e18f cabc 5eaa f0bd 8e9e a1be
00000060: 64f5 2cbd c0e2 223e 1c7d 933c 356b 803a
00000070: 316c 433d 9723 013d fc04 2b3d e59a 883d
00000080: cf91 673c b34b dc3c 0564 3cbe c224 e7bd

transformer.layers.0.1.fn.net.0.weight f4 [72, 36]
-0.023083882 0.09608088 -0.041723885 0.53822577 -0.6429444 0.10905608 0.25531527 0.46847546
0.008825602 0.6620425 0.020146225 0.3224376 -0.027394751 -0.25501776 0.12171068 0.09063493
0.74152076 -0.539973 0.63587457 -0.23765431 0.4092603 0.49469915 0.18410009 -0.73905164
-0.29583848 -0.12829815 -0.29422897 -0.7295388 -0.28066257 -0.2901163 0.14248094 0.3533567
0.0813628 -0.36069414 -0.30410954 -0.61101705 -0.08031586 -0.1513004 0.18905275 0.51308304
-1.0906004 -0.4180474 -0.034399625 0.25142795 -0.28089583 0.43932983 0.14613277 0.19900045
0.19091527 0.042279284 0.13100904 -0.06958243 0.011582451 0.5198338 0.19964367 -0.8798687
0.4433649 0.6344105 -0.7200929 -0.43716162 -0.036320478 0.83968455 -0.01351188 0.78160495
0.46999714 -0.18708825 -0.5331271 -0.24609713 0.116991274 -1.0317512 0.58954847 0.03271162
-0.16252942 -0.3582053 -0.1849806 -0.13244665 -0.24420102 -0.4596625 -0.3536477 0.4271716
0.47055468 -0.13695967 -0.6188951 -0.12906829 -0.1292743 0.28379592 0.2901784 -0.25177062
-0.40161407 0.5177628 0.14844505 0.0889316 0.030922493 0.95256317 0.36044762 -0.24945511
-0.018772952 0.023015492 -0.037126694 0.64518106 -0.3521483 -0.1452614 0.59545016 -0.2198465
-0.6758338 0.10264915 0.40014908 0.8008072 -0.11132046 0.31245813 0.94635767 -0.6206736
0.61912227 -0.4065493 -0.44086277 -0.39515758 -0.108893774 -0.6486969 0.25448042 -0.20065755
-0.19252598 0.04431061 0.4260966 -0.7552743 -0.80605465 -0.54950434 0.09475452 -0.6445499
-0.58879995 0.755722 -0.1027705 0.7013371 0.54479414 -0.17235148 0.013667316 -0.4117797
-0.021731164 0.33792165 0.11264287 0.5178759 -0.6200886 1.3107674 0.6732422 -0.22509058
0.13054739 0.07291165 -0.0174587 -0.3391451 -0.11078465 -1.0139673 -0.27942598 0.68137264
-0.32197613 -0.03607121 0.16604413 -0.20076925 0.46820486 -0.007741184 -0.091831766 0.55005664
0.43953988 -0.23387405 0.29344848 -0.6880845 0.9133645 -0.15391278 -1.1444244 -0.036623444
0.15210089 0.48496598 -0.062899604 0.050880045 -0.014441819 -0.22912839 0.57264537 0.3860979
0.34360787 -0.15075277 0.044848967 -0.34119567 0.0427536 -1.0434395 0.62270033 0.043361835
0.906805 0.37237954 0.03174203 0.060791615 -0.092579894 -0.59619564 -0.13357325 0.07881787
0.27066034 -0.26332816 -0.10356224 0.00996763 0.2623145 0.8609686 -0.14816684 0.9414056
-0.27011392 0.20594537 -0.051385984 0.69219476 0.08616607 0.66955507 0.03743387 -0.24419154
0.23019937 -0.09829774 -0.576178 -0.21328983 0.6340883 0.15614542 -0.6606851 0.21953471
0.06761748 -0.80155 1.0195726 1.3151766 0.52403235 -0.013729742 -0.6365779 -0.32978103
-0.3596129 -0.33147883 0.08939925 0.39538738 0.02958046 0.2243344 0.6782209 -0.25212476
-0.8210814 0.012516376 0.88449335 -1.0806918 -0.25045776 -0.27010775 0.5574961 -0.7518442
0.07386547 0.12471586 0.19375329 0.61504394 -0.09552925 0.16747004 -1.0616788 0.6394933
-0.016026588 0.56933725 0.4775959 -0.5575936 -0.22163934 0.058196697 -0.5367889 0.48563078
00000000: 691a bdbc 0dc6 c43d aae6 2abd 2ac9 093f
00000010: 0198 24bf cb58 df3d afb8 823e 04dc ef3e
00000020: 4299 103c 9e7b 293f b209 a53c 8b16 a53e
00000030: f56a e0bc b091 82be 7343 f93d ce9e b93d
00000040: 4ed4 3d3f ac3b 0abf adc8 223f a75b 73be
00000050: 918a d13e 3549 fd3e bc84 3c3e 7d32 3dbf
00000060: 2478 97be 9760 03be 2ea5 96be 0ec3 3abf
00000070: 01b3 8fbe 208a 94be 86e6 113e 2beb b43e
00000080: 8aa1 a63d e7ac b8be 3fb4 9bbe 9d6b 1cbf
00000090: a47c a4bd 7eee 1abe 0b97 413e 6959 033f
000000a0: cb98 8bbf 4f0a d6be 9fe6 0cbd 2abb 803e
000000b0: 94d1 8fbe d7ef e03e d4a3 153e c6c6 4b3e
000000c0: 4b7f 433e 0b2d 2d3d 3c27 063e 3c81 8ebd
000000d0: 52c4 3d3c d413 053f 646f 4c3e 133f 61bf
000000e0: b900 e33e ba68 223f 0258 38bf a6d3 dfbe
000000f0: c8c4 14bd 91f5 563f ef60 5dbc 4317 483f
00000100: 77a3 f03e 1094 3fbe 057b 08bf e300 7cbe
00000110: 1f99 ef3d 6c10 84bf a6ec 163f 9ffc 053d
00000120: 1d6e 26be af66 b7be 8e6b 3dbe 18a0 07be
00000130: d50f 7abe e258 ebbe 5011 b5be 3cb6 da3e
00000140: 8bec f03e 283f 0cbe e96f 1ebf 7a2a 04be
00000150: 7b60 04be b34d 913e 4392 943e 14e8 80be
00000160: 5ca0 cdbe 1a8c 043f fb01 183e c521 b63d
00000170: 2b51 fd3c 2edb 733f 978c b83e 2971 7fbe
00000180: bcc9 99bc fc8a bc3c 2912 18bd 962a 253f
00000190: c84c b4be 68bf 14be 6c6f 183f 711f 61be
000001a0: 7203 2dbf b839 d23d 57e0 cc3e b301 4d3f
000001b0: fbfb e3bd 83fa 9f3e 7f44 723f 77e4 1ebf
000001c0: cc7e 1e3f 3b27 d0be c4b8 e1be 1852 cabe
000001d0: b303 dfbd 0011 26bf 424b 823e 2c79 4dbe
000001e0: 8825 45be 0b7f 353d 5529 da3e a859 41bf
000001f0: 9959 4ebf 51ac 0cbf a80e c23d 3901 25bf
00000200: 98bb 16bf ff76 413f 5779 d2bd d48a 333f
00000210: a177 0b3f e87c 30be e1ec 5f3c cad4 d2be
00000220: 8e05 b2bc 1104 ad3e 4eb1 e63d 8493 043f
00000230: 20be 1ebf 3ac7 a73f 9a59 2c3f 257e 66be
00000240: 37ae 053e b452 953d 8c05 8fbc 6da4 adbe
00000250: 10e3 e2bd aec9 81bf ec10 8fbe 706e 2e3f
00000260: 0eda a4be 68bf 13bd 7907 2a3e 7496 4dbe
00000270: 8cb8 ef3e c2a9 fdbb 4b12 bcbd 83d0 0c3f
00000280: 5f0b e13e ae7c 6fbe e13e 963e 4e26 30bf
00000290: 42d2 693f 509b 1dbe 807c 92bf 7702 16bd
000002a0: 56c0 1b3e 764d f83e 82d1 80bd 9867 503d
000002b0: 619d 6cbc a2a0 6abe e398 123f a0ae c53e
000002c0: 5fed af3e ef5e 1abe 8db3 373d 33b1 aebe
000002d0: 661e 2f3d 6d8f 85bf 4a69 1f3f 2e9c 313d
000002e0: 5f24 683f 88a8 be3e ee03 023d a100 793d
000002f0: 879a bdbd 47a0 18bf 6dc7 08be 436b a13d
00000300: fe93 8a3e f3d2 86be 7118 d4bd 454f 233c
00000310: 164e 863e 7068 5c3f 0cb9 17be f5ff 703f
00000320: 5f4c 8abe 58e3 523e 1c7a 52bd ad33 313f
00000330: d677 b03d f667 2b3f 4254 193d 590d 7abe
00000340: 62b9 6b3e 5350 c9bd 6780 13bf a668 5abe
00000350: 9c53 223f 96e4 1f3e a922 29bf b5cd 603e
00000360: 097b 8a3d 6132 4dbf 5b81 823f b557 a83f
00000370: fc26 063f b6f2 60bc c5f6 22bf 0fd9 a8be
00000380: 2f1f b8be 98b7 a9be f416 b73d 3770 ca3e
00000390: b952 f23c ebb7 653e e39f 2d3f 7f16 81be
000003a0: 6432 52bf 7c11 4d3c 286e 623f 1c54 8abf
000003b0: 003c 80be 904b 8abe 10b8 0e3f dd78 40bf
000003c0: c846 973d 076b ff3d 4367 463e 8573 1d3f
000003d0: d7a4 c3bd 447d 2b3e 17e5 87bf d5b5 233f
000003e0: 314a 83bc 16c0 113f 7387 f43e 74be 0ebf
000003f0: 6cf5 62be a95f 6e3d ff6a 09bf 99a4 f83e

transformer.layers.0.1.fn.net.0.bias f4 [72]
0.20811898 -0.06317484 -0.26731396 -0.34441903 -0.46333155 0.32734454 -0.14638928 0.5364408
0.056776185 -0.28800905 0.09510759 0.16663639 -0.40106428 -0.25021112 0.30390573 -0.12307413
-0.07351534 0.119831294 -0.29540336 -0.014506041 -0.7926417 -0.6671605 0.2895862 -0.19174163
-0.13064077 -0.19192941 0.5822595 -0.070716344 -0.6630214 -0.17505677 0.10716935 0.05049808
-0.06854771 0.06839042 0.36707494 -0.61908025 0.25753778 -0.31881198 -0.10855615 -0.036475804
-0.50078225 -0.022056889 0.25347185 -0.37333015 -0.084444925 -0.11602624 -0.08509959 0.035664584
0.006284303 -0.29645404 0.07946019 0.26828942 0.05732777 -0.2864607 -0.81237066 -0.69931525
-0.4977474 -0.37255442 0.21217115 -0.14870809 -0.34396875 -0.15891656 -0.1741836 0.23916705
-0.7590757 0.11905332 -0.22217548 -0.10424561 -0.18927088 -0.23087804 0.11974102 0.32628968
00000000: 241d 553e cf61 81bd 60dd 88be b157 b0be
00000010: cb39 edbe b499 a73e 12e7 15be 2f54 093f
00000020: 258e 683d ec75 93be c5c7 c23d bba2 2a3e
00000030: 4c58 cdbe ac1b 80be 8899 9b3e 4a0e fcbd
00000040: 368f 96bd 1c6a f53d 1c3f 97be bfaa 6dbc
00000050: 91ea 4abf 08cb 2abf a444 943e eb57 44be
00000060: b2c6 05be 2589 44be f50e 153f bbd3 90bd
00000070: c5bb 29bf 1542 33be 9b7b db3d 13d7 4e3d
00000080: be62 8cbd 4710 8c3d 3ff1 bb3e 0b7c 1ebf
00000090: fedb 833e 533b a3be b052 debd a767 15bd
000000a0: 4433 00bf a6b0 b4bc 10c7 813e 2125 bfbe
000000b0: 76f1 acbd 2a9f edbd b248 aebd 0715 123d
000000c0: 8eec cd3b d3c8 97be 06bc a23d 3b5d 893e
000000d0: 86d0 6a3d faaa 92be 86f7 4fbf 5306 33bf
000000e0: bfd8 febe 74bf bebe 6543 593e ef46 18be
000000f0: ac1c b0be 06bb 22be 305d 32be 35e8 743e
00000100: c952 42bf 3ad2 f33d f881 63be b97e d5bd
00000110: 3ad0 41be 4b6b 6cbe c83a f53d 710f a73e

transformer.layers.0.1.fn.net.3.weight f4 [36, 72]
-0.21474932 0.16296062 -0.3360137 -0.5222867 0.15120587 -0.18249995 0.12550174 -0.4258078
-0.16167666 0.07472643 -0.30696586 -0.09738483 -0.25274637 -0.19907004 -0.33784145 -0.13260706
-0.24013622 0.058138378 0.10050266 -0.6563161 0.15925887 -0.020828974 -0.08878993 -0.0918886
0.025676645 -0.49596193 -0.14026462 0.027369788 0.53344744 -0.38617787 -0.21539165 -0.2958537
0.2858971 0.2787977 0.24425343 0.3001205 0.15215951 0.014056395 -0.19901282 0.032874387
-0.09328354 0.2351441 0.3609347 -0.2327429 0.11922544 0.33152857 -0.26758382 -0.20826143
0.112191975 0.107517 0.025873765 -0.31381515 -0.15054074 -0.138264 0.40492085 0.0058129374
0.02886315 -0.4233596 0.058586217 -0.1650922 -0.042911027 -0.39431208 -0.12431196 -0.2639609
-0.23974659 0.3524346 -0.29378992 0.25068063 -0.013735465 -0.068798535 -0.19868842 -0.39933252
0.13166903 -0.07283414 -0.16083857 0.20881055 -0.11586939 -0.3355168 0.5938742 0.26159042
0.4410507 0.47387564 0.5788554 0.11119364 0.19767049 0.06951873 -0.19217393 0.08233525
0.32780355 -0.13117993 0.47467154 0.40452355 -0.093351096 -0.07201234 -0.13412683 0.41054997
0.30491775 -0.055340413 0.15672159 -0.20651294 0.3499448 0.28420106 0.04964335 0.1298397
-0.11431748 0.45744908 -0.022787405 0.20337842 0.20158392 0.2217806 -0.046627004 0.737481
-0.051972944 0.1892983 0.15080583 0.5499141 -0.029578336 0.11561746 0.46823668 0.36207244
-0.21161112 0.053795062 0.6914787 -0.5840821 0.1692573 0.5733906 0.385074 0.81372726
0.25815448 -0.033063367 0.5308187 0.06781283 0.29280373 0.41058132 -0.012031985 0.7728525
0.261398 -0.094650246 0.52207893 0.054002367 -0.32804334 0.26614705 -0.47231355 -0.31666926
0.27451724 -0.8003439 0.1300083 0.3574786 -0.7391834 -0.048294406 -0.2110416 0.4680536
-0.5686822 0.0033871904 0.3216194 -0.15771095 0.07745751 0.32228282 0.5808334 -0.5722928
0.9368733 -0.47682908 -0.28323266 -0.6049397 0.24206385 0.8767269 1.1360458 0.47493
-0.037878912 -0.019471062 1.2709216 -0.6904302 -0.03665015 -0.87896985 0.25465903 0.100213386
-0.21276091 -0.22138454 -0.0877198 -0.4818448 -0.18487199 0.2085423 -0.26892564 -0.36176986
0.07803541 -0.6098103 -0.09195025 -0.16747351 0.32878372 -0.71696097 0.2931323 0.21715096
0.08323014 -0.023293367 -0.449041 -0.3553097 0.07897268 -0.76709956 0.4032865 -0.1948921
0.2604468 0.3121816 -0.07984383 0.3326267 -0.10360237 0.5308397 0.18425508 0.08894581
0.17396702 -0.20709176 0.32004014 -0.08538729 -0.5238309 -0.45602837 -0.20367141 -0.46074507
0.7337737 0.050205156 -0.14095552 0.4326082 1.0667739 0.48460418 0.6433818 0.15882924
0.3506425 0.34090227 0.04885791 0.03969019 0.11640441 -0.03768538 0.19615214 0.0015217018
0.42776227 0.38430643 0.6426477 -0.18639962 -0.1053461 -0.09284171 0.22543213 -0.07027004
0.43934268 -0.0006852169 0.18759896 0.23436897 -0.4080235 0.07975746 0.362689 -0.12164154
0.8109889 0.6810535 -0.13844328 0.62455225 0.3788747 0.27231658 0.30184886 -0.070862934
00000000: 3fe7 5bbe 26df 263e fd09 acbe 95b4 05bf
00000010: b6d5 1a3e 44e1 3abe 8783 003e 7b03 dabe
00000020: 918e 25be 2c0a 993d a12a 9dbe b371 c7bd
00000030: f967 81be 04d9 4bbe 8ef9 acbe 25ca 07be
00000040: 45e6 75be 8222 6e3d 57d4 cd3d 5504 28bf
00000050: c214 233e 86a1 aabc 7fd7 b5bd 1730 bcbd
00000060: d457 d23c b9ee fdbe 87a1 0fbe 9b36 e03c
00000070: 0390 083f 1bb9 c5be a18f 5cbe 237a 97be
00000080: 1b61 923e 92be 8e3e 921d 7a3e 65a9 993e
00000090: b4cf 1b3e cb4c 663c 04ca 4bbe 4ba7 063d
000000a0: 710b bfbd 9dc9 703e 6fcc b83e 2854 6ebe
000000b0: 782c f43d 1dbe a93e bf00 89be 7c42 55be
000000c0: e8c4 e53d df31 dc3d 38f5 d33c 61ac a0be
000000d0: 5a27 1abe 1495 0dbe c951 cf3e 747a be3b
000000e0: 6a72 ec3c 97c2 d8be 1af8 6f3d ee0d 29be
000000f0: 79c3 2fbd 46e3 c9be 4597 febd e225 87be
00000100: 2180 75be 4f72 b43e a26b 96be 3659 803e
00000110: b70a 61bc 3fe6 8cbd fa74 4bbe 5075 ccbe
00000120: 3fd4 063e 112a 95bd deb2 24be 6fd2 553e
00000130: ee4c edbd dcc8 abbe 2408 183f 2eef 853e
00000140: 66d1 e13e d49f f23e de2f 143f 7eb9 e33d
00000150: 226a 4a3e d65f 8e3d 3ec9 44be 629f a83d
00000160: ded5 a73e 0854 06be 2608 f33e b61d cf3e
00000170: dc2e bfbd 357b 93bd 8b58 09be 9b33 d23e
00000180: 2e1e 9c3e a1ac 62bd a07b 203e 2178 53be
00000190: f72b b33e cd82 913e d356 4b3d b3f4 043e
000001a0: 481f eabd c436 ea3e a7ac babc 6f42 503e
000001b0: 046c 4e3e 741a 633e f5fb 3ebd 8ecb 3c3f
000001c0: 95e1 54bd 6ad7 413e d86c 1a3e 2cc7 0c3f
000001d0: 444e f2bc d9c8 ec3d b8bc ef3e 8f61 b93e
000001e0: 96b0 58be 3658 5c3d c004 313f 6886 15bf
000001f0: c951 2d3e bac9 123f 6b28 c53e 6e50 503f
00000200: d32c 843e 746d 07bd bce3 073f 74e1 8a3d
00000210: 5fea 953e b737 d23e ce21 45bc a9d9 453f
00000220: f5d5 853e fdd7 c1bd f7a6 053f 9631 5d3d
00000230: 4cf5 a7be 6d44 883e 15d3 f1be 7922 a2be
00000240: 868d 8c3e 56e3 4cbf e520 053e 6f07 b73e
00000250: 203b 3dbf 5bd0 45bd 4a1b 58be b9a4 ef3e
00000260: 2895 11bf a0fb 5d3b 4cab a43e fb7e 21be
00000270: 0ba2 9e3d 4102 a53e 7fb1 143f c881 12bf
00000280: eed6 6f3f f122 f4be df03 91be 54dd 1abf
00000290: 96df 773e 2d71 603f f369 913f 062a f33e
000002a0: eb26 1bbd c781 9fbc 8fad a23f 09c0 30bf
000002b0: 781e 16bd 2b04 61bf ab62 823e ad3c cd3d
000002c0: ffdd 59be a1b2 62be 70a6 b3bd 5db4 f6be
000002d0: 154f 3dbe 1d8c 553e 9fb0 89be e639 b9be
000002e0: 07d1 9f3d 871c 1cbf 6a50 bcbd 2d7e 2bbe
000002f0: 5756 a83e c18a 37bf 7015 963e d25c 5e3e
00000300: 9074 aa3d bbd1 bebc b4e8 e5be 27eb b5be
00000310: 6ebc a13d a360 44bf 917b ce3e cb91 47be
00000320: 4859 853e 44d6 9f3e 2985 a3bd 0c4e aa3e
00000330: 7b2d d4bd 1ce5 073f 5dad 3c3e 3929 b63d
00000340: 6924 323e dd0f 54be 4ddc a33e 88df aebd
00000350: c819 06bf 8d7c e9be 3d8f 50be c7e6 ebbe
00000360: 98d8 3b3f eca3 4d3d a556 10be d27e dd3e
00000370: 0c8c 883f 0a1e f83e abb4 243f 22a4 223e
00000380: 6a87 b33e be8a ae3e 3b1f 483d 2e92 223d
00000390: 6f65 ee3d fc5b 1abd 1bdc 483e d773 c73a
000003a0: a803 db3e d0c3 c43e 8f84 243f 8bdf 3ebe
000003b0: b2bf d7bd cb23 bebd aed7 663e bde9 8fbd
000003c0: 86f1 e03e 21a0 33ba f119 403e 6bfe 6f3e
000003d0: 75e8 d0be e157 a33d 5fb2 b93e 331f f9bd
000003e0: f89c 4f3f 8659 2e3f 13c4 0dbe a8e2 1f3f
000003f0: ddfb c13e 146d 8b3e ef8b 9a3e 9620 91bd

transformer.layers.0.1.fn.net.3.bias f4 [36]
-0.14219545 0.33570307 0.109187216 0.4156852 -0.45658565 -0.26643416 -0.35550663 0.19689067
-0.5092737 -0.11681038 -0.029058276 0.45077786 -0.66326106 -0.10811284 0.3026793 0.43051845
0.13435929 -0.16172293 0.069075406 -0.21794397 0.4224754 -0.15508042 0.2067964 -0.1527459
0.04893052 -0.056719016 -0.26963654 0.13770357 0.21960223 -0.45208058 0.14519778 0.4454948
0.54580283 -0.3023202 0.006536625 -0.13257691
00000000: af9b 11be 46e1 ab3e 8c9d df3d b1d4 d43e
00000010: 98c5 e9be 0f6a 88be f704 b6be b59d 493e
00000020: c35f 02bf 483a efbd 9f0b eebc 5bcc e63e
00000030: 7acb 29bf 446a ddbd c8f8 9a3e ea6c dc3e
00000040: 7b95 093e b29a 25be 6877 8d3d b42c 5fbe
00000050: b24e d83e 67cd 1ebe 6fc2 533e 6c69 1cbe
00000060: 5e6b 483d 3352 68bd cd0d 8abe 2a02 0d3e
00000070: 68df 603e 1b77 e7be baae 143e e517 e43e
00000080: bcb9 0b3f b7c9 9abe 2f31 d63b 3ec2 07be

transformer.layers.1.0.norm.weight f4 [36]
0.6950154 0.73432255 0.4543136 0.7254152 0.74264437 1.083481 0.8816735 0.9546829
0.23910707 0.8158524 0.9337345 1.5258425 0.49839795 0.90593547 0.9501504 0.63109636
0.9146004 0.84176636 0.7988792 1.1041307 0.64185905 0.8267323 1.2183378 0.9403537
0.9063283 1.0300903 0.53743654 0.80154055 0.52791417 0.45991856 0.59693784 0.94659686
0.45850638 0.31806192 1.0223563 1.1401876
00000000: 87ec 313f 90fc 3b3f cb9b e83e d0b4 393f
00000010: f11d 3e3f 81af 8a3f 5bb5 613f 1966 743f
00000020: 7cd8 743e b4db 503f 3909 6f3f cf4e c33f
00000030: 042e ff3e 63eb 673f 0e3d 733f 888f 213f
00000040: 4023 6a3f 007e 573f 5983 4c3f 2854 8d3f
00000050: e050 243f baa4 533f 7ef2 9b3f 05bb 703f
00000060: 2205 683f 00da 833f 7195 093f c331 4d3f
00000070: 6225 073f 727a eb3e ebd0 183f 2c54 723f
00000080: 59c1 ea3e 03d9 a23e 92dc 823f abf1 913f

transformer.layers.1.0.norm.bias f4 [36]
-0.0931616 -0.55784637 -0.0430062 -0.8718181 0.43669134 -0.54514575 0.18405883 0.11500685
0.030135883 0.12979522 0.12553172 -0.19681649 1.2379537 -0.35423702 -0.09897519 -0.4010654
0.14791372 -0.09718601 -0.026964284 -0.18035565 -0.07628762 0.49900576 0.039764974 -0.3268476
0.022847002 0.26615143 -0.030552436 -0.15311645 -0.06915226 0.23522344 -0.041344125 -0.1972598
-0.2167934 0.067568205 0.16273244 0.079583555
00000000: 82cb bebd 05cf 0ebf 4527 30bd 792f 5fbf
00000010: 0296 df3e ac8e 0bbf eb79 3c3e b688 eb3d
00000020: 87df f63c 0ae9 043e 638b 003e 438a 49be
00000030: 4475 9e3f 8e5e b5be 81b3 cabd 7258 cdbe
00000040: b276 173e 7509 c7bd 34e4 dcbc 27af 38be
00000050: af3c 9cbd af7d ff3e 99e0 223d 9258 a7be
00000060: a329 bb3c 0045 883e 1a49 fabc 8fca 1cbe
00000070: b39f 8dbd 6ade 703e 7558 29bd 79fe 49be
00000080: 17ff 5dbe 3361 8a3d 55a3 263e b4fc a23d
